…
I0130 09:52:32.481609   644 net.cpp:287] The NetState phase (0) differed from the phase (1) specified by a rule in layer accuracy
I0130 09:52:32.481822   644 net.cpp:42] Initializing net from parameters: 
name: "CIFAR10_quick"
state {
  phase: TRAIN
}
layer {
  name: "cifar"
  type: "Data"
  top: "data"
  top: "label"
  include {
    phase: TRAIN
  }
  transform_param {
    mean_file: "/home/mike/ml_lab/mod/MCL_Caffe/examples/cifar10/mean.binaryproto"
  }
  data_param {
    source: "/home/mike/ml_lab/mod/MCL_Caffe/examples/cifar10/cifar10_train_lmdb"
    batch_size: 350
    backend: LMDB
  }
}
layer {
  name: "1_conv1"
  type: "Convolution"
  bottom: "data"
  top: "1_conv1"
  param {
    lr_mult: 1
  }
  param {
    lr_mult: 2
  }
  convolution_param {
    num_output: 32
    pad: 2
    kernel_size: 5
    stride: 1
    weight_filler {
      type: "gaussian"
      std: 0.0001
    }
    bias_filler {
      type: "constant"
    }
  }
}
layer {
  name: "1_pool1"
  type: "Pooling"
  bottom: "1_conv1"
  top: "1_pool1"
  pooling_param {
    pool: MAX
    kernel_size: 3
    stride: 2
  }
}
layer {
  name: "1_relu1"
  type: "ReLU"
  bottom: "1_pool1"
  top: "1_pool1"
}
layer {
  name: "1_conv2"
  type: "Convolution"
  bottom: "1_pool1"
  top: "1_conv2"
  param {
    lr_mult: 1
  }
  param {
    lr_mult: 2
  }
  convolution_param {
    num_output: 32
    pad: 2
    kernel_size: 5
    stride: 1
    weight_filler {
      type: "gaussian"
      std: 0.01
    }
    bias_filler {
      type: "constant"
    }
  }
}
layer {
  name: "1_relu2"
  type: "ReLU"
  bottom: "1_conv2"
  top: "1_conv2"
}
layer {
  name: "1_pool2"
  type: "Pooling"
  bottom: "1_conv2"
  top: "1_pool2"
  pooling_param {
    pool: AVE
    kernel_size: 3
    stride: 2
  }
}
layer {
  name: "1_conv3"
  type: "Convolution"
  bottom: "1_pool2"
  top: "1_conv3"
  param {
    lr_mult: 1
  }
  param {
    lr_mult: 2
  }
  convolution_param {
    num_output: 64
    pad: 2
    kernel_size: 5
    stride: 1
    weight_filler {
      type: "gaussian"
      std: 0.01
    }
    bias_filler {
      type: "constant"
    }
  }
}
layer {
  name: "1_relu3"
  type: "ReLU"
  bottom: "1_conv3"
  top: "1_conv3"
}
layer {
  name: "1_pool3"
  type: "Pooling"
  bottom: "1_conv3"
  top: "1_pool3"
  pooling_param {
    pool: AVE
    kernel_size: 3
    stride: 2
  }
}
layer {
  name: "1_ip1"
  type: "InnerProduct"
  bottom: "1_pool3"
  top: "1_ip1"
  param {
    lr_mult: 1
  }
  param {
    lr_mult: 2
  }
  inner_product_param {
    num_output: 64
    weight_filler {
      type: "gaussian"
      std: 0.1
    }
    bias_filler {
      type: "constant"
    }
  }
}
layer {
  name: "1_ip2"
  type: "InnerProduct"
  bottom: "1_ip1"
  top: "1_ip2"
  param {
    lr_mult: 1
  }
  param {
    lr_mult: 2
  }
  inner_product_param {
    num_output: 10
    weight_filler {
      type: "gaussian"
      std: 0.1
    }
    bias_filler {
      type: "constant"
    }
  }
}
layer {
  name: "1_prob"
  type: "Softmax"
  bottom: "1_ip2"
  top: "1_prob"
}
layer {
  name: "2_conv1"
  type: "Convolution"
  bottom: "data"
  top: "2_conv1"
  param {
    lr_mult: 1
  }
  param {
    lr_mult: 2
  }
  convolution_param {
    num_output: 32
    pad: 2
    kernel_size: 5
    stride: 1
    weight_filler {
      type: "gaussian"
      std: 0.0001
    }
    bias_filler {
      type: "constant"
    }
  }
}
layer {
  name: "2_pool1"
  type: "Pooling"
  bottom: "2_conv1"
  top: "2_pool1"
  pooling_param {
    pool: MAX
    kernel_size: 3
    stride: 2
  }
}
layer {
  name: "2_relu1"
  type: "ReLU"
  bottom: "2_pool1"
  top: "2_pool1"
}
layer {
  name: "2_conv2"
  type: "Convolution"
  bottom: "2_pool1"
  top: "2_conv2"
  param {
    lr_mult: 1
  }
  param {
    lr_mult: 2
  }
  convolution_param {
    num_output: 32
    pad: 2
    kernel_size: 5
    stride: 1
    weight_filler {
      type: "gaussian"
      std: 0.01
    }
    bias_filler {
      type: "constant"
    }
  }
}
layer {
  name: "2_relu2"
  type: "ReLU"
  bottom: "2_conv2"
  top: "2_conv2"
}
layer {
  name: "2_pool2"
  type: "Pooling"
  bottom: "2_conv2"
  top: "2_pool2"
  pooling_param {
    pool: AVE
    kernel_size: 3
    stride: 2
  }
}
layer {
  name: "2_conv3"
  type: "Convolution"
  bottom: "2_pool2"
  top: "2_conv3"
  param {
    lr_mult: 1
  }
  param {
    lr_mult: 2
  }
  convolution_param {
    num_output: 64
    pad: 2
    kernel_size: 5
    stride: 1
    weight_filler {
      type: "gaussian"
      std: 0.01
    }
    bias_filler {
      type: "constant"
    }
  }
}
layer {
  name: "2_relu3"
  type: "ReLU"
  bottom: "2_conv3"
  top: "2_conv3"
}
layer {
  name: "2_pool3"
  type: "Pooling"
  bottom: "2_conv3"
  top: "2_pool3"
  pooling_param {
    pool: AVE
    kernel_size: 3
    stride: 2
  }
}
layer {
  name: "2_ip1"
  type: "InnerProduct"
  bottom: "2_pool3"
  top: "2_ip1"
  param {
    lr_mult: 1
  }
  param {
    lr_mult: 2
  }
  inner_product_param {
    num_output: 64
    weight_filler {
      type: "gaussian"
      std: 0.1
    }
    bias_filler {
      type: "constant"
    }
  }
}
layer {
  name: "2_ip2"
  type: "InnerProduct"
  bottom: "2_ip1"
  top: "2_ip2"
  param {
    lr_mult: 1
  }
  param {
    lr_mult: 2
  }
  inner_product_param {
    num_output: 10
    weight_filler {
      type: "gaussian"
      std: 0.1
    }
    bias_filler {
      type: "constant"
    }
  }
}
layer {
  name: "2_prob"
  type: "Softmax"
  bottom: "2_ip2"
  top: "2_prob"
}
layer {
  name: "3_conv1"
  type: "Convolution"
  bottom: "data"
  top: "3_conv1"
  param {
    lr_mult: 1
  }
  param {
    lr_mult: 2
  }
  convolution_param {
    num_output: 32
    pad: 2
    kernel_size: 5
    stride: 1
    weight_filler {
      type: "gaussian"
      std: 0.0001
    }
    bias_filler {
      type: "constant"
    }
  }
}
layer {
  name: "3_pool1"
  type: "Pooling"
  bottom: "3_conv1"
  top: "3_pool1"
  pooling_param {
    pool: MAX
    kernel_size: 3
    stride: 2
  }
}
layer {
  name: "3_relu1"
  type: "ReLU"
  bottom: "3_pool1"
  top: "3_pool1"
}
layer {
  name: "3_conv2"
  type: "Convolution"
  bottom: "3_pool1"
  top: "3_conv2"
  param {
    lr_mult: 1
  }
  param {
    lr_mult: 2
  }
  convolution_param {
    num_output: 32
    pad: 2
    kernel_size: 5
    stride: 1
    weight_filler {
      type: "gaussian"
      std: 0.01
    }
    bias_filler {
      type: "constant"
    }
  }
}
layer {
  name: "3_relu2"
  type: "ReLU"
  bottom: "3_conv2"
  top: "3_conv2"
}
layer {
  name: "3_pool2"
  type: "Pooling"
  bottom: "3_conv2"
  top: "3_pool2"
  pooling_param {
    pool: AVE
    kernel_size: 3
    stride: 2
  }
}
layer {
  name: "3_conv3"
  type: "Convolution"
  bottom: "3_pool2"
  top: "3_conv3"
  param {
    lr_mult: 1
  }
  param {
    lr_mult: 2
  }
  convolution_param {
    num_output: 64
    pad: 2
    kernel_size: 5
    stride: 1
    weight_filler {
      type: "gaussian"
      std: 0.01
    }
    bias_filler {
      type: "constant"
    }
  }
}
layer {
  name: "3_relu3"
  type: "ReLU"
  bottom: "3_conv3"
  top: "3_conv3"
}
layer {
  name: "3_pool3"
  type: "Pooling"
  bottom: "3_conv3"
  top: "3_pool3"
  pooling_param {
    pool: AVE
    kernel_size: 3
    stride: 2
  }
}
layer {
  name: "3_ip1"
  type: "InnerProduct"
  bottom: "3_pool3"
  top: "3_ip1"
  param {
    lr_mult: 1
  }
  param {
    lr_mult: 2
  }
  inner_product_param {
    num_output: 64
    weight_filler {
      type: "gaussian"
      std: 0.1
    }
    bias_filler {
      type: "constant"
    }
  }
}
layer {
  name: "3_ip2"
  type: "InnerProduct"
  bottom: "3_ip1"
  top: "3_ip2"
  param {
    lr_mult: 1
  }
  param {
    lr_mult: 2
  }
  inner_product_param {
    num_output: 10
    weight_filler {
      type: "gaussian"
      std: 0.1
    }
    bias_filler {
      type: "constant"
    }
  }
}
layer {
  name: "3_prob"
  type: "Softmax"
  bottom: "3_ip2"
  top: "3_prob"
}
layer {
  name: "4_conv1"
  type: "Convolution"
  bottom: "data"
  top: "4_conv1"
  param {
    lr_mult: 1
  }
  param {
    lr_mult: 2
  }
  convolution_param {
    num_output: 32
    pad: 2
    kernel_size: 5
    stride: 1
    weight_filler {
      type: "gaussian"
      std: 0.0001
    }
    bias_filler {
      type: "constant"
    }
  }
}
layer {
  name: "4_pool1"
  type: "Pooling"
  bottom: "4_conv1"
  top: "4_pool1"
  pooling_param {
    pool: MAX
    kernel_size: 3
    stride: 2
  }
}
layer {
  name: "4_relu1"
  type: "ReLU"
  bottom: "4_pool1"
  top: "4_pool1"
}
layer {
  name: "4_conv2"
  type: "Convolution"
  bottom: "4_pool1"
  top: "4_conv2"
  param {
    lr_mult: 1
  }
  param {
    lr_mult: 2
  }
  convolution_param {
    num_output: 32
    pad: 2
    kernel_size: 5
    stride: 1
    weight_filler {
      type: "gaussian"
      std: 0.01
    }
    bias_filler {
      type: "constant"
    }
  }
}
layer {
  name: "4_relu2"
  type: "ReLU"
  bottom: "4_conv2"
  top: "4_conv2"
}
layer {
  name: "4_pool2"
  type: "Pooling"
  bottom: "4_conv2"
  top: "4_pool2"
  pooling_param {
    pool: AVE
    kernel_size: 3
    stride: 2
  }
}
layer {
  name: "4_conv3"
  type: "Convolution"
  bottom: "4_pool2"
  top: "4_conv3"
  param {
    lr_mult: 1
  }
  param {
    lr_mult: 2
  }
  convolution_param {
    num_output: 64
    pad: 2
    kernel_size: 5
    stride: 1
    weight_filler {
      type: "gaussian"
      std: 0.01
    }
    bias_filler {
      type: "constant"
    }
  }
}
layer {
  name: "4_relu3"
  type: "ReLU"
  bottom: "4_conv3"
  top: "4_conv3"
}
layer {
  name: "4_pool3"
  type: "Pooling"
  bottom: "4_conv3"
  top: "4_pool3"
  pooling_param {
    pool: AVE
    kernel_size: 3
    stride: 2
  }
}
layer {
  name: "4_ip1"
  type: "InnerProduct"
  bottom: "4_pool3"
  top: "4_ip1"
  param {
    lr_mult: 1
  }
  param {
    lr_mult: 2
  }
  inner_product_param {
    num_output: 64
    weight_filler {
      type: "gaussian"
      std: 0.1
    }
    bias_filler {
      type: "constant"
    }
  }
}
layer {
  name: "4_ip2"
  type: "InnerProduct"
  bottom: "4_ip1"
  top: "4_ip2"
  param {
    lr_mult: 1
  }
  param {
    lr_mult: 2
  }
  inner_product_param {
    num_output: 10
    weight_filler {
      type: "gaussian"
      std: 0.1
    }
    bias_filler {
      type: "constant"
    }
  }
}
layer {
  name: "4_prob"
  type: "Softmax"
  bottom: "4_ip2"
  top: "4_prob"
}
layer {
  name: "5_conv1"
  type: "Convolution"
  bottom: "data"
  top: "5_conv1"
  param {
    lr_mult: 1
  }
  param {
    lr_mult: 2
  }
  convolution_param {
    num_output: 32
    pad: 2
    kernel_size: 5
    stride: 1
    weight_filler {
      type: "gaussian"
      std: 0.0001
    }
    bias_filler {
      type: "constant"
    }
  }
}
layer {
  name: "5_pool1"
  type: "Pooling"
  bottom: "5_conv1"
  top: "5_pool1"
  pooling_param {
    pool: MAX
    kernel_size: 3
    stride: 2
  }
}
layer {
  name: "5_relu1"
  type: "ReLU"
  bottom: "5_pool1"
  top: "5_pool1"
}
layer {
  name: "5_conv2"
  type: "Convolution"
  bottom: "5_pool1"
  top: "5_conv2"
  param {
    lr_mult: 1
  }
  param {
    lr_mult: 2
  }
  convolution_param {
    num_output: 32
    pad: 2
    kernel_size: 5
    stride: 1
    weight_filler {
      type: "gaussian"
      std: 0.01
    }
    bias_filler {
      type: "constant"
    }
  }
}
layer {
  name: "5_relu2"
  type: "ReLU"
  bottom: "5_conv2"
  top: "5_conv2"
}
layer {
  name: "5_pool2"
  type: "Pooling"
  bottom: "5_conv2"
  top: "5_pool2"
  pooling_param {
    pool: AVE
    kernel_size: 3
    stride: 2
  }
}
layer {
  name: "5_conv3"
  type: "Convolution"
  bottom: "5_pool2"
  top: "5_conv3"
  param {
    lr_mult: 1
  }
  param {
    lr_mult: 2
  }
  convolution_param {
    num_output: 64
    pad: 2
    kernel_size: 5
    stride: 1
    weight_filler {
      type: "gaussian"
      std: 0.01
    }
    bias_filler {
      type: "constant"
    }
  }
}
layer {
  name: "5_relu3"
  type: "ReLU"
  bottom: "5_conv3"
  top: "5_conv3"
}
layer {
  name: "5_pool3"
  type: "Pooling"
  bottom: "5_conv3"
  top: "5_pool3"
  pooling_param {
    pool: AVE
    kernel_size: 3
    stride: 2
  }
}
layer {
  name: "5_ip1"
  type: "InnerProduct"
  bottom: "5_pool3"
  top: "5_ip1"
  param {
    lr_mult: 1
  }
  param {
    lr_mult: 2
  }
  inner_product_param {
    num_output: 64
    weight_filler {
      type: "gaussian"
      std: 0.1
    }
    bias_filler {
      type: "constant"
    }
  }
}
layer {
  name: "5_ip2"
  type: "InnerProduct"
  bottom: "5_ip1"
  top: "5_ip2"
  param {
    lr_mult: 1
  }
  param {
    lr_mult: 2
  }
  inner_product_param {
    num_output: 10
    weight_filler {
      type: "gaussian"
      std: 0.1
    }
    bias_filler {
      type: "constant"
    }
  }
}
layer {
  name: "5_prob"
  type: "Softmax"
  bottom: "5_ip2"
  top: "5_prob"
}
layer {
  name: "loss"
  type: "ODMultinomialLogisticLoss"
  bottom: "1_prob"
  bottom: "2_prob"
  bottom: "3_prob"
  bottom: "4_prob"
  bottom: "5_prob"
  bottom: "label"
  top: "multiple-output loss"
  top: "batch-instance-counts"
  top: "train-instance-counts"
  loss_weight: 1
  loss_weight: 0
  loss_weight: 0
  include {
    phase: TRAIN
  }
}
I0130 09:52:32.482096   644 layer_factory.hpp:74] Creating layer cifar
I0130 09:52:32.482115   644 net.cpp:90] Creating Layer cifar
I0130 09:52:32.482122   644 net.cpp:368] cifar -> data
I0130 09:52:32.482144   644 net.cpp:368] cifar -> label
I0130 09:52:32.482156   644 net.cpp:120] Setting up cifar
I0130 09:52:32.482206   644 db.cpp:34] Opened lmdb /home/mike/ml_lab/mod/MCL_Caffe/examples/cifar10/cifar10_train_lmdb
I0130 09:52:32.482252   644 data_layer.cpp:67] output data size: 350,3,32,32
I0130 09:52:32.482261   644 data_transformer.cpp:22] Loading mean file from: /home/mike/ml_lab/mod/MCL_Caffe/examples/cifar10/mean.binaryproto
I0130 09:52:32.483110   644 net.cpp:127] Top shape: 350 3 32 32 (1075200)
I0130 09:52:32.483119   644 net.cpp:127] Top shape: 350 (350)
I0130 09:52:32.483124   644 layer_factory.hpp:74] Creating layer data_cifar_0_split
I0130 09:52:32.483140   644 net.cpp:90] Creating Layer data_cifar_0_split
I0130 09:52:32.483145   644 net.cpp:410] data_cifar_0_split <- data
I0130 09:52:32.483156   644 net.cpp:368] data_cifar_0_split -> data_cifar_0_split_0
I0130 09:52:32.483165   644 net.cpp:368] data_cifar_0_split -> data_cifar_0_split_1
I0130 09:52:32.483170   644 net.cpp:368] data_cifar_0_split -> data_cifar_0_split_2
I0130 09:52:32.483176   644 net.cpp:368] data_cifar_0_split -> data_cifar_0_split_3
I0130 09:52:32.483181   644 net.cpp:368] data_cifar_0_split -> data_cifar_0_split_4
I0130 09:52:32.483186   644 net.cpp:120] Setting up data_cifar_0_split
I0130 09:52:32.483194   644 net.cpp:127] Top shape: 350 3 32 32 (1075200)
I0130 09:52:32.483199   644 net.cpp:127] Top shape: 350 3 32 32 (1075200)
I0130 09:52:32.483203   644 net.cpp:127] Top shape: 350 3 32 32 (1075200)
I0130 09:52:32.483207   644 net.cpp:127] Top shape: 350 3 32 32 (1075200)
I0130 09:52:32.483211   644 net.cpp:127] Top shape: 350 3 32 32 (1075200)
I0130 09:52:32.483224   644 layer_factory.hpp:74] Creating layer 1_conv1
I0130 09:52:32.483233   644 net.cpp:90] Creating Layer 1_conv1
I0130 09:52:32.483237   644 net.cpp:410] 1_conv1 <- data_cifar_0_split_0
I0130 09:52:32.483243   644 net.cpp:368] 1_conv1 -> 1_conv1
I0130 09:52:32.483252   644 net.cpp:120] Setting up 1_conv1
I0130 09:52:32.483839   644 net.cpp:127] Top shape: 350 32 32 32 (11468800)
I0130 09:52:32.483851   644 layer_factory.hpp:74] Creating layer 1_pool1
I0130 09:52:32.483857   644 net.cpp:90] Creating Layer 1_pool1
I0130 09:52:32.483861   644 net.cpp:410] 1_pool1 <- 1_conv1
I0130 09:52:32.483866   644 net.cpp:368] 1_pool1 -> 1_pool1
I0130 09:52:32.483875   644 net.cpp:120] Setting up 1_pool1
I0130 09:52:32.483888   644 net.cpp:127] Top shape: 350 32 16 16 (2867200)
I0130 09:52:32.483892   644 layer_factory.hpp:74] Creating layer 1_relu1
I0130 09:52:32.483899   644 net.cpp:90] Creating Layer 1_relu1
I0130 09:52:32.483902   644 net.cpp:410] 1_relu1 <- 1_pool1
I0130 09:52:32.483907   644 net.cpp:357] 1_relu1 -> 1_pool1 (in-place)
I0130 09:52:32.483911   644 net.cpp:120] Setting up 1_relu1
I0130 09:52:32.483918   644 net.cpp:127] Top shape: 350 32 16 16 (2867200)
I0130 09:52:32.483922   644 layer_factory.hpp:74] Creating layer 1_conv2
I0130 09:52:32.483927   644 net.cpp:90] Creating Layer 1_conv2
I0130 09:52:32.483930   644 net.cpp:410] 1_conv2 <- 1_pool1
I0130 09:52:32.483935   644 net.cpp:368] 1_conv2 -> 1_conv2
I0130 09:52:32.483940   644 net.cpp:120] Setting up 1_conv2
I0130 09:52:32.484658   644 net.cpp:127] Top shape: 350 32 16 16 (2867200)
I0130 09:52:32.484666   644 layer_factory.hpp:74] Creating layer 1_relu2
I0130 09:52:32.484671   644 net.cpp:90] Creating Layer 1_relu2
I0130 09:52:32.484674   644 net.cpp:410] 1_relu2 <- 1_conv2
I0130 09:52:32.484680   644 net.cpp:357] 1_relu2 -> 1_conv2 (in-place)
I0130 09:52:32.484686   644 net.cpp:120] Setting up 1_relu2
I0130 09:52:32.484691   644 net.cpp:127] Top shape: 350 32 16 16 (2867200)
I0130 09:52:32.484694   644 layer_factory.hpp:74] Creating layer 1_pool2
I0130 09:52:32.484699   644 net.cpp:90] Creating Layer 1_pool2
I0130 09:52:32.484704   644 net.cpp:410] 1_pool2 <- 1_conv2
I0130 09:52:32.484707   644 net.cpp:368] 1_pool2 -> 1_pool2
I0130 09:52:32.484714   644 net.cpp:120] Setting up 1_pool2
I0130 09:52:32.484719   644 net.cpp:127] Top shape: 350 32 8 8 (716800)
I0130 09:52:32.484722   644 layer_factory.hpp:74] Creating layer 1_conv3
I0130 09:52:32.484730   644 net.cpp:90] Creating Layer 1_conv3
I0130 09:52:32.484735   644 net.cpp:410] 1_conv3 <- 1_pool2
I0130 09:52:32.484740   644 net.cpp:368] 1_conv3 -> 1_conv3
I0130 09:52:32.484746   644 net.cpp:120] Setting up 1_conv3
I0130 09:52:32.485908   644 net.cpp:127] Top shape: 350 64 8 8 (1433600)
I0130 09:52:32.485916   644 layer_factory.hpp:74] Creating layer 1_relu3
I0130 09:52:32.485923   644 net.cpp:90] Creating Layer 1_relu3
I0130 09:52:32.485926   644 net.cpp:410] 1_relu3 <- 1_conv3
I0130 09:52:32.485931   644 net.cpp:357] 1_relu3 -> 1_conv3 (in-place)
I0130 09:52:32.485936   644 net.cpp:120] Setting up 1_relu3
I0130 09:52:32.485941   644 net.cpp:127] Top shape: 350 64 8 8 (1433600)
I0130 09:52:32.485944   644 layer_factory.hpp:74] Creating layer 1_pool3
I0130 09:52:32.485949   644 net.cpp:90] Creating Layer 1_pool3
I0130 09:52:32.485954   644 net.cpp:410] 1_pool3 <- 1_conv3
I0130 09:52:32.485958   644 net.cpp:368] 1_pool3 -> 1_pool3
I0130 09:52:32.485963   644 net.cpp:120] Setting up 1_pool3
I0130 09:52:32.485970   644 net.cpp:127] Top shape: 350 64 4 4 (358400)
I0130 09:52:32.485973   644 layer_factory.hpp:74] Creating layer 1_ip1
I0130 09:52:32.485980   644 net.cpp:90] Creating Layer 1_ip1
I0130 09:52:32.485982   644 net.cpp:410] 1_ip1 <- 1_pool3
I0130 09:52:32.485988   644 net.cpp:368] 1_ip1 -> 1_ip1
I0130 09:52:32.485996   644 net.cpp:120] Setting up 1_ip1
I0130 09:52:32.487470   644 net.cpp:127] Top shape: 350 64 (22400)
I0130 09:52:32.487478   644 layer_factory.hpp:74] Creating layer 1_ip2
I0130 09:52:32.487483   644 net.cpp:90] Creating Layer 1_ip2
I0130 09:52:32.487494   644 net.cpp:410] 1_ip2 <- 1_ip1
I0130 09:52:32.487503   644 net.cpp:368] 1_ip2 -> 1_ip2
I0130 09:52:32.487509   644 net.cpp:120] Setting up 1_ip2
I0130 09:52:32.487538   644 net.cpp:127] Top shape: 350 10 (3500)
I0130 09:52:32.487546   644 layer_factory.hpp:74] Creating layer 1_prob
I0130 09:52:32.487552   644 net.cpp:90] Creating Layer 1_prob
I0130 09:52:32.487556   644 net.cpp:410] 1_prob <- 1_ip2
I0130 09:52:32.487561   644 net.cpp:368] 1_prob -> 1_prob
I0130 09:52:32.487566   644 net.cpp:120] Setting up 1_prob
I0130 09:52:32.487576   644 net.cpp:127] Top shape: 350 10 (3500)
I0130 09:52:32.487581   644 layer_factory.hpp:74] Creating layer 2_conv1
I0130 09:52:32.487587   644 net.cpp:90] Creating Layer 2_conv1
I0130 09:52:32.487591   644 net.cpp:410] 2_conv1 <- data_cifar_0_split_1
I0130 09:52:32.487597   644 net.cpp:368] 2_conv1 -> 2_conv1
I0130 09:52:32.487607   644 net.cpp:120] Setting up 2_conv1
I0130 09:52:32.487676   644 net.cpp:127] Top shape: 350 32 32 32 (11468800)
I0130 09:52:32.487682   644 layer_factory.hpp:74] Creating layer 2_pool1
I0130 09:52:32.487687   644 net.cpp:90] Creating Layer 2_pool1
I0130 09:52:32.487691   644 net.cpp:410] 2_pool1 <- 2_conv1
I0130 09:52:32.487696   644 net.cpp:368] 2_pool1 -> 2_pool1
I0130 09:52:32.487701   644 net.cpp:120] Setting up 2_pool1
I0130 09:52:32.487709   644 net.cpp:127] Top shape: 350 32 16 16 (2867200)
I0130 09:52:32.487711   644 layer_factory.hpp:74] Creating layer 2_relu1
I0130 09:52:32.487717   644 net.cpp:90] Creating Layer 2_relu1
I0130 09:52:32.487720   644 net.cpp:410] 2_relu1 <- 2_pool1
I0130 09:52:32.487727   644 net.cpp:357] 2_relu1 -> 2_pool1 (in-place)
I0130 09:52:32.487732   644 net.cpp:120] Setting up 2_relu1
I0130 09:52:32.487737   644 net.cpp:127] Top shape: 350 32 16 16 (2867200)
I0130 09:52:32.487740   644 layer_factory.hpp:74] Creating layer 2_conv2
I0130 09:52:32.487746   644 net.cpp:90] Creating Layer 2_conv2
I0130 09:52:32.487749   644 net.cpp:410] 2_conv2 <- 2_pool1
I0130 09:52:32.487756   644 net.cpp:368] 2_conv2 -> 2_conv2
I0130 09:52:32.487761   644 net.cpp:120] Setting up 2_conv2
I0130 09:52:32.488340   644 net.cpp:127] Top shape: 350 32 16 16 (2867200)
I0130 09:52:32.488348   644 layer_factory.hpp:74] Creating layer 2_relu2
I0130 09:52:32.488353   644 net.cpp:90] Creating Layer 2_relu2
I0130 09:52:32.488355   644 net.cpp:410] 2_relu2 <- 2_conv2
I0130 09:52:32.488361   644 net.cpp:357] 2_relu2 -> 2_conv2 (in-place)
I0130 09:52:32.488366   644 net.cpp:120] Setting up 2_relu2
I0130 09:52:32.488371   644 net.cpp:127] Top shape: 350 32 16 16 (2867200)
I0130 09:52:32.488375   644 layer_factory.hpp:74] Creating layer 2_pool2
I0130 09:52:32.488379   644 net.cpp:90] Creating Layer 2_pool2
I0130 09:52:32.488384   644 net.cpp:410] 2_pool2 <- 2_conv2
I0130 09:52:32.488387   644 net.cpp:368] 2_pool2 -> 2_pool2
I0130 09:52:32.488394   644 net.cpp:120] Setting up 2_pool2
I0130 09:52:32.488399   644 net.cpp:127] Top shape: 350 32 8 8 (716800)
I0130 09:52:32.488402   644 layer_factory.hpp:74] Creating layer 2_conv3
I0130 09:52:32.488409   644 net.cpp:90] Creating Layer 2_conv3
I0130 09:52:32.488412   644 net.cpp:410] 2_conv3 <- 2_pool2
I0130 09:52:32.488418   644 net.cpp:368] 2_conv3 -> 2_conv3
I0130 09:52:32.488425   644 net.cpp:120] Setting up 2_conv3
I0130 09:52:32.489579   644 net.cpp:127] Top shape: 350 64 8 8 (1433600)
I0130 09:52:32.489588   644 layer_factory.hpp:74] Creating layer 2_relu3
I0130 09:52:32.489593   644 net.cpp:90] Creating Layer 2_relu3
I0130 09:52:32.489595   644 net.cpp:410] 2_relu3 <- 2_conv3
I0130 09:52:32.489601   644 net.cpp:357] 2_relu3 -> 2_conv3 (in-place)
I0130 09:52:32.489606   644 net.cpp:120] Setting up 2_relu3
I0130 09:52:32.489611   644 net.cpp:127] Top shape: 350 64 8 8 (1433600)
I0130 09:52:32.489614   644 layer_factory.hpp:74] Creating layer 2_pool3
I0130 09:52:32.489619   644 net.cpp:90] Creating Layer 2_pool3
I0130 09:52:32.489622   644 net.cpp:410] 2_pool3 <- 2_conv3
I0130 09:52:32.489629   644 net.cpp:368] 2_pool3 -> 2_pool3
I0130 09:52:32.489634   644 net.cpp:120] Setting up 2_pool3
I0130 09:52:32.489651   644 net.cpp:127] Top shape: 350 64 4 4 (358400)
I0130 09:52:32.489656   644 layer_factory.hpp:74] Creating layer 2_ip1
I0130 09:52:32.489662   644 net.cpp:90] Creating Layer 2_ip1
I0130 09:52:32.489666   644 net.cpp:410] 2_ip1 <- 2_pool3
I0130 09:52:32.489671   644 net.cpp:368] 2_ip1 -> 2_ip1
I0130 09:52:32.489677   644 net.cpp:120] Setting up 2_ip1
I0130 09:52:32.491148   644 net.cpp:127] Top shape: 350 64 (22400)
I0130 09:52:32.491158   644 layer_factory.hpp:74] Creating layer 2_ip2
I0130 09:52:32.491163   644 net.cpp:90] Creating Layer 2_ip2
I0130 09:52:32.491168   644 net.cpp:410] 2_ip2 <- 2_ip1
I0130 09:52:32.491173   644 net.cpp:368] 2_ip2 -> 2_ip2
I0130 09:52:32.491179   644 net.cpp:120] Setting up 2_ip2
I0130 09:52:32.491207   644 net.cpp:127] Top shape: 350 10 (3500)
I0130 09:52:32.491214   644 layer_factory.hpp:74] Creating layer 2_prob
I0130 09:52:32.491219   644 net.cpp:90] Creating Layer 2_prob
I0130 09:52:32.491222   644 net.cpp:410] 2_prob <- 2_ip2
I0130 09:52:32.491227   644 net.cpp:368] 2_prob -> 2_prob
I0130 09:52:32.491231   644 net.cpp:120] Setting up 2_prob
I0130 09:52:32.491238   644 net.cpp:127] Top shape: 350 10 (3500)
I0130 09:52:32.491242   644 layer_factory.hpp:74] Creating layer 3_conv1
I0130 09:52:32.491250   644 net.cpp:90] Creating Layer 3_conv1
I0130 09:52:32.491253   644 net.cpp:410] 3_conv1 <- data_cifar_0_split_2
I0130 09:52:32.491260   644 net.cpp:368] 3_conv1 -> 3_conv1
I0130 09:52:32.491266   644 net.cpp:120] Setting up 3_conv1
I0130 09:52:32.491333   644 net.cpp:127] Top shape: 350 32 32 32 (11468800)
I0130 09:52:32.491338   644 layer_factory.hpp:74] Creating layer 3_pool1
I0130 09:52:32.491343   644 net.cpp:90] Creating Layer 3_pool1
I0130 09:52:32.491348   644 net.cpp:410] 3_pool1 <- 3_conv1
I0130 09:52:32.491351   644 net.cpp:368] 3_pool1 -> 3_pool1
I0130 09:52:32.491356   644 net.cpp:120] Setting up 3_pool1
I0130 09:52:32.491364   644 net.cpp:127] Top shape: 350 32 16 16 (2867200)
I0130 09:52:32.491366   644 layer_factory.hpp:74] Creating layer 3_relu1
I0130 09:52:32.491371   644 net.cpp:90] Creating Layer 3_relu1
I0130 09:52:32.491374   644 net.cpp:410] 3_relu1 <- 3_pool1
I0130 09:52:32.491379   644 net.cpp:357] 3_relu1 -> 3_pool1 (in-place)
I0130 09:52:32.491384   644 net.cpp:120] Setting up 3_relu1
I0130 09:52:32.491389   644 net.cpp:127] Top shape: 350 32 16 16 (2867200)
I0130 09:52:32.491391   644 layer_factory.hpp:74] Creating layer 3_conv2
I0130 09:52:32.491399   644 net.cpp:90] Creating Layer 3_conv2
I0130 09:52:32.491402   644 net.cpp:410] 3_conv2 <- 3_pool1
I0130 09:52:32.491407   644 net.cpp:368] 3_conv2 -> 3_conv2
I0130 09:52:32.491412   644 net.cpp:120] Setting up 3_conv2
I0130 09:52:32.491992   644 net.cpp:127] Top shape: 350 32 16 16 (2867200)
I0130 09:52:32.491999   644 layer_factory.hpp:74] Creating layer 3_relu2
I0130 09:52:32.492005   644 net.cpp:90] Creating Layer 3_relu2
I0130 09:52:32.492008   644 net.cpp:410] 3_relu2 <- 3_conv2
I0130 09:52:32.492013   644 net.cpp:357] 3_relu2 -> 3_conv2 (in-place)
I0130 09:52:32.492018   644 net.cpp:120] Setting up 3_relu2
I0130 09:52:32.492022   644 net.cpp:127] Top shape: 350 32 16 16 (2867200)
I0130 09:52:32.492027   644 layer_factory.hpp:74] Creating layer 3_pool2
I0130 09:52:32.492032   644 net.cpp:90] Creating Layer 3_pool2
I0130 09:52:32.492034   644 net.cpp:410] 3_pool2 <- 3_conv2
I0130 09:52:32.492040   644 net.cpp:368] 3_pool2 -> 3_pool2
I0130 09:52:32.492045   644 net.cpp:120] Setting up 3_pool2
I0130 09:52:32.492051   644 net.cpp:127] Top shape: 350 32 8 8 (716800)
I0130 09:52:32.492055   644 layer_factory.hpp:74] Creating layer 3_conv3
I0130 09:52:32.492064   644 net.cpp:90] Creating Layer 3_conv3
I0130 09:52:32.492069   644 net.cpp:410] 3_conv3 <- 3_pool2
I0130 09:52:32.492074   644 net.cpp:368] 3_conv3 -> 3_conv3
I0130 09:52:32.492079   644 net.cpp:120] Setting up 3_conv3
I0130 09:52:32.493240   644 net.cpp:127] Top shape: 350 64 8 8 (1433600)
I0130 09:52:32.493247   644 layer_factory.hpp:74] Creating layer 3_relu3
I0130 09:52:32.493252   644 net.cpp:90] Creating Layer 3_relu3
I0130 09:52:32.493257   644 net.cpp:410] 3_relu3 <- 3_conv3
I0130 09:52:32.493269   644 net.cpp:357] 3_relu3 -> 3_conv3 (in-place)
I0130 09:52:32.493274   644 net.cpp:120] Setting up 3_relu3
I0130 09:52:32.493280   644 net.cpp:127] Top shape: 350 64 8 8 (1433600)
I0130 09:52:32.493283   644 layer_factory.hpp:74] Creating layer 3_pool3
I0130 09:52:32.493290   644 net.cpp:90] Creating Layer 3_pool3
I0130 09:52:32.493294   644 net.cpp:410] 3_pool3 <- 3_conv3
I0130 09:52:32.493299   644 net.cpp:368] 3_pool3 -> 3_pool3
I0130 09:52:32.493304   644 net.cpp:120] Setting up 3_pool3
I0130 09:52:32.493312   644 net.cpp:127] Top shape: 350 64 4 4 (358400)
I0130 09:52:32.493317   644 layer_factory.hpp:74] Creating layer 3_ip1
I0130 09:52:32.493324   644 net.cpp:90] Creating Layer 3_ip1
I0130 09:52:32.493327   644 net.cpp:410] 3_ip1 <- 3_pool3
I0130 09:52:32.493332   644 net.cpp:368] 3_ip1 -> 3_ip1
I0130 09:52:32.493338   644 net.cpp:120] Setting up 3_ip1
I0130 09:52:32.494807   644 net.cpp:127] Top shape: 350 64 (22400)
I0130 09:52:32.494813   644 layer_factory.hpp:74] Creating layer 3_ip2
I0130 09:52:32.494819   644 net.cpp:90] Creating Layer 3_ip2
I0130 09:52:32.494823   644 net.cpp:410] 3_ip2 <- 3_ip1
I0130 09:52:32.494830   644 net.cpp:368] 3_ip2 -> 3_ip2
I0130 09:52:32.494838   644 net.cpp:120] Setting up 3_ip2
I0130 09:52:32.494868   644 net.cpp:127] Top shape: 350 10 (3500)
I0130 09:52:32.494874   644 layer_factory.hpp:74] Creating layer 3_prob
I0130 09:52:32.494879   644 net.cpp:90] Creating Layer 3_prob
I0130 09:52:32.494884   644 net.cpp:410] 3_prob <- 3_ip2
I0130 09:52:32.494887   644 net.cpp:368] 3_prob -> 3_prob
I0130 09:52:32.494892   644 net.cpp:120] Setting up 3_prob
I0130 09:52:32.494899   644 net.cpp:127] Top shape: 350 10 (3500)
I0130 09:52:32.494902   644 layer_factory.hpp:74] Creating layer 4_conv1
I0130 09:52:32.494910   644 net.cpp:90] Creating Layer 4_conv1
I0130 09:52:32.494913   644 net.cpp:410] 4_conv1 <- data_cifar_0_split_3
I0130 09:52:32.494920   644 net.cpp:368] 4_conv1 -> 4_conv1
I0130 09:52:32.494925   644 net.cpp:120] Setting up 4_conv1
I0130 09:52:32.494992   644 net.cpp:127] Top shape: 350 32 32 32 (11468800)
I0130 09:52:32.494997   644 layer_factory.hpp:74] Creating layer 4_pool1
I0130 09:52:32.495004   644 net.cpp:90] Creating Layer 4_pool1
I0130 09:52:32.495008   644 net.cpp:410] 4_pool1 <- 4_conv1
I0130 09:52:32.495012   644 net.cpp:368] 4_pool1 -> 4_pool1
I0130 09:52:32.495018   644 net.cpp:120] Setting up 4_pool1
I0130 09:52:32.495024   644 net.cpp:127] Top shape: 350 32 16 16 (2867200)
I0130 09:52:32.495028   644 layer_factory.hpp:74] Creating layer 4_relu1
I0130 09:52:32.495033   644 net.cpp:90] Creating Layer 4_relu1
I0130 09:52:32.495036   644 net.cpp:410] 4_relu1 <- 4_pool1
I0130 09:52:32.495040   644 net.cpp:357] 4_relu1 -> 4_pool1 (in-place)
I0130 09:52:32.495045   644 net.cpp:120] Setting up 4_relu1
I0130 09:52:32.495049   644 net.cpp:127] Top shape: 350 32 16 16 (2867200)
I0130 09:52:32.495054   644 layer_factory.hpp:74] Creating layer 4_conv2
I0130 09:52:32.495060   644 net.cpp:90] Creating Layer 4_conv2
I0130 09:52:32.495064   644 net.cpp:410] 4_conv2 <- 4_pool1
I0130 09:52:32.495069   644 net.cpp:368] 4_conv2 -> 4_conv2
I0130 09:52:32.495074   644 net.cpp:120] Setting up 4_conv2
I0130 09:52:32.495654   644 net.cpp:127] Top shape: 350 32 16 16 (2867200)
I0130 09:52:32.495664   644 layer_factory.hpp:74] Creating layer 4_relu2
I0130 09:52:32.495671   644 net.cpp:90] Creating Layer 4_relu2
I0130 09:52:32.495676   644 net.cpp:410] 4_relu2 <- 4_conv2
I0130 09:52:32.495682   644 net.cpp:357] 4_relu2 -> 4_conv2 (in-place)
I0130 09:52:32.495685   644 net.cpp:120] Setting up 4_relu2
I0130 09:52:32.495692   644 net.cpp:127] Top shape: 350 32 16 16 (2867200)
I0130 09:52:32.495694   644 layer_factory.hpp:74] Creating layer 4_pool2
I0130 09:52:32.495699   644 net.cpp:90] Creating Layer 4_pool2
I0130 09:52:32.495702   644 net.cpp:410] 4_pool2 <- 4_conv2
I0130 09:52:32.495707   644 net.cpp:368] 4_pool2 -> 4_pool2
I0130 09:52:32.495713   644 net.cpp:120] Setting up 4_pool2
I0130 09:52:32.495719   644 net.cpp:127] Top shape: 350 32 8 8 (716800)
I0130 09:52:32.495730   644 layer_factory.hpp:74] Creating layer 4_conv3
I0130 09:52:32.495739   644 net.cpp:90] Creating Layer 4_conv3
I0130 09:52:32.495744   644 net.cpp:410] 4_conv3 <- 4_pool2
I0130 09:52:32.495750   644 net.cpp:368] 4_conv3 -> 4_conv3
I0130 09:52:32.495756   644 net.cpp:120] Setting up 4_conv3
I0130 09:52:32.496907   644 net.cpp:127] Top shape: 350 64 8 8 (1433600)
I0130 09:52:32.496914   644 layer_factory.hpp:74] Creating layer 4_relu3
I0130 09:52:32.496919   644 net.cpp:90] Creating Layer 4_relu3
I0130 09:52:32.496923   644 net.cpp:410] 4_relu3 <- 4_conv3
I0130 09:52:32.496928   644 net.cpp:357] 4_relu3 -> 4_conv3 (in-place)
I0130 09:52:32.496933   644 net.cpp:120] Setting up 4_relu3
I0130 09:52:32.496938   644 net.cpp:127] Top shape: 350 64 8 8 (1433600)
I0130 09:52:32.496942   644 layer_factory.hpp:74] Creating layer 4_pool3
I0130 09:52:32.496947   644 net.cpp:90] Creating Layer 4_pool3
I0130 09:52:32.496949   644 net.cpp:410] 4_pool3 <- 4_conv3
I0130 09:52:32.496956   644 net.cpp:368] 4_pool3 -> 4_pool3
I0130 09:52:32.496961   644 net.cpp:120] Setting up 4_pool3
I0130 09:52:32.496968   644 net.cpp:127] Top shape: 350 64 4 4 (358400)
I0130 09:52:32.496970   644 layer_factory.hpp:74] Creating layer 4_ip1
I0130 09:52:32.496976   644 net.cpp:90] Creating Layer 4_ip1
I0130 09:52:32.496980   644 net.cpp:410] 4_ip1 <- 4_pool3
I0130 09:52:32.496985   644 net.cpp:368] 4_ip1 -> 4_ip1
I0130 09:52:32.496990   644 net.cpp:120] Setting up 4_ip1
I0130 09:52:32.498461   644 net.cpp:127] Top shape: 350 64 (22400)
I0130 09:52:32.498469   644 layer_factory.hpp:74] Creating layer 4_ip2
I0130 09:52:32.498476   644 net.cpp:90] Creating Layer 4_ip2
I0130 09:52:32.498479   644 net.cpp:410] 4_ip2 <- 4_ip1
I0130 09:52:32.498486   644 net.cpp:368] 4_ip2 -> 4_ip2
I0130 09:52:32.498492   644 net.cpp:120] Setting up 4_ip2
I0130 09:52:32.498520   644 net.cpp:127] Top shape: 350 10 (3500)
I0130 09:52:32.498527   644 layer_factory.hpp:74] Creating layer 4_prob
I0130 09:52:32.498533   644 net.cpp:90] Creating Layer 4_prob
I0130 09:52:32.498536   644 net.cpp:410] 4_prob <- 4_ip2
I0130 09:52:32.498541   644 net.cpp:368] 4_prob -> 4_prob
I0130 09:52:32.498546   644 net.cpp:120] Setting up 4_prob
I0130 09:52:32.498553   644 net.cpp:127] Top shape: 350 10 (3500)
I0130 09:52:32.498556   644 layer_factory.hpp:74] Creating layer 5_conv1
I0130 09:52:32.498564   644 net.cpp:90] Creating Layer 5_conv1
I0130 09:52:32.498567   644 net.cpp:410] 5_conv1 <- data_cifar_0_split_4
I0130 09:52:32.498572   644 net.cpp:368] 5_conv1 -> 5_conv1
I0130 09:52:32.498579   644 net.cpp:120] Setting up 5_conv1
I0130 09:52:32.498646   644 net.cpp:127] Top shape: 350 32 32 32 (11468800)
I0130 09:52:32.498651   644 layer_factory.hpp:74] Creating layer 5_pool1
I0130 09:52:32.498657   644 net.cpp:90] Creating Layer 5_pool1
I0130 09:52:32.498661   644 net.cpp:410] 5_pool1 <- 5_conv1
I0130 09:52:32.498667   644 net.cpp:368] 5_pool1 -> 5_pool1
I0130 09:52:32.498672   644 net.cpp:120] Setting up 5_pool1
I0130 09:52:32.498678   644 net.cpp:127] Top shape: 350 32 16 16 (2867200)
I0130 09:52:32.498682   644 layer_factory.hpp:74] Creating layer 5_relu1
I0130 09:52:32.498687   644 net.cpp:90] Creating Layer 5_relu1
I0130 09:52:32.498690   644 net.cpp:410] 5_relu1 <- 5_pool1
I0130 09:52:32.498694   644 net.cpp:357] 5_relu1 -> 5_pool1 (in-place)
I0130 09:52:32.498699   644 net.cpp:120] Setting up 5_relu1
I0130 09:52:32.498704   644 net.cpp:127] Top shape: 350 32 16 16 (2867200)
I0130 09:52:32.498708   644 layer_factory.hpp:74] Creating layer 5_conv2
I0130 09:52:32.498713   644 net.cpp:90] Creating Layer 5_conv2
I0130 09:52:32.498716   644 net.cpp:410] 5_conv2 <- 5_pool1
I0130 09:52:32.498723   644 net.cpp:368] 5_conv2 -> 5_conv2
I0130 09:52:32.498728   644 net.cpp:120] Setting up 5_conv2
I0130 09:52:32.499310   644 net.cpp:127] Top shape: 350 32 16 16 (2867200)
I0130 09:52:32.499316   644 layer_factory.hpp:74] Creating layer 5_relu2
I0130 09:52:32.499321   644 net.cpp:90] Creating Layer 5_relu2
I0130 09:52:32.499325   644 net.cpp:410] 5_relu2 <- 5_conv2
I0130 09:52:32.499338   644 net.cpp:357] 5_relu2 -> 5_conv2 (in-place)
I0130 09:52:32.499344   644 net.cpp:120] Setting up 5_relu2
I0130 09:52:32.499349   644 net.cpp:127] Top shape: 350 32 16 16 (2867200)
I0130 09:52:32.499352   644 layer_factory.hpp:74] Creating layer 5_pool2
I0130 09:52:32.499358   644 net.cpp:90] Creating Layer 5_pool2
I0130 09:52:32.499361   644 net.cpp:410] 5_pool2 <- 5_conv2
I0130 09:52:32.499366   644 net.cpp:368] 5_pool2 -> 5_pool2
I0130 09:52:32.499373   644 net.cpp:120] Setting up 5_pool2
I0130 09:52:32.499379   644 net.cpp:127] Top shape: 350 32 8 8 (716800)
I0130 09:52:32.499383   644 layer_factory.hpp:74] Creating layer 5_conv3
I0130 09:52:32.499389   644 net.cpp:90] Creating Layer 5_conv3
I0130 09:52:32.499392   644 net.cpp:410] 5_conv3 <- 5_pool2
I0130 09:52:32.499399   644 net.cpp:368] 5_conv3 -> 5_conv3
I0130 09:52:32.499405   644 net.cpp:120] Setting up 5_conv3
I0130 09:52:32.500560   644 net.cpp:127] Top shape: 350 64 8 8 (1433600)
I0130 09:52:32.500567   644 layer_factory.hpp:74] Creating layer 5_relu3
I0130 09:52:32.500572   644 net.cpp:90] Creating Layer 5_relu3
I0130 09:52:32.500576   644 net.cpp:410] 5_relu3 <- 5_conv3
I0130 09:52:32.500581   644 net.cpp:357] 5_relu3 -> 5_conv3 (in-place)
I0130 09:52:32.500586   644 net.cpp:120] Setting up 5_relu3
I0130 09:52:32.500591   644 net.cpp:127] Top shape: 350 64 8 8 (1433600)
I0130 09:52:32.500593   644 layer_factory.hpp:74] Creating layer 5_pool3
I0130 09:52:32.500598   644 net.cpp:90] Creating Layer 5_pool3
I0130 09:52:32.500602   644 net.cpp:410] 5_pool3 <- 5_conv3
I0130 09:52:32.500609   644 net.cpp:368] 5_pool3 -> 5_pool3
I0130 09:52:32.500614   644 net.cpp:120] Setting up 5_pool3
I0130 09:52:32.500620   644 net.cpp:127] Top shape: 350 64 4 4 (358400)
I0130 09:52:32.500624   644 layer_factory.hpp:74] Creating layer 5_ip1
I0130 09:52:32.500630   644 net.cpp:90] Creating Layer 5_ip1
I0130 09:52:32.500633   644 net.cpp:410] 5_ip1 <- 5_pool3
I0130 09:52:32.500640   644 net.cpp:368] 5_ip1 -> 5_ip1
I0130 09:52:32.500646   644 net.cpp:120] Setting up 5_ip1
I0130 09:52:32.502123   644 net.cpp:127] Top shape: 350 64 (22400)
I0130 09:52:32.502130   644 layer_factory.hpp:74] Creating layer 5_ip2
I0130 09:52:32.502137   644 net.cpp:90] Creating Layer 5_ip2
I0130 09:52:32.502140   644 net.cpp:410] 5_ip2 <- 5_ip1
I0130 09:52:32.502149   644 net.cpp:368] 5_ip2 -> 5_ip2
I0130 09:52:32.502156   644 net.cpp:120] Setting up 5_ip2
I0130 09:52:32.502182   644 net.cpp:127] Top shape: 350 10 (3500)
I0130 09:52:32.502187   644 layer_factory.hpp:74] Creating layer 5_prob
I0130 09:52:32.502192   644 net.cpp:90] Creating Layer 5_prob
I0130 09:52:32.502197   644 net.cpp:410] 5_prob <- 5_ip2
I0130 09:52:32.502202   644 net.cpp:368] 5_prob -> 5_prob
I0130 09:52:32.502207   644 net.cpp:120] Setting up 5_prob
I0130 09:52:32.502213   644 net.cpp:127] Top shape: 350 10 (3500)
I0130 09:52:32.502218   644 layer_factory.hpp:74] Creating layer loss
I0130 09:52:32.502228   644 net.cpp:90] Creating Layer loss
I0130 09:52:32.502233   644 net.cpp:410] loss <- 1_prob
I0130 09:52:32.502236   644 net.cpp:410] loss <- 2_prob
I0130 09:52:32.502240   644 net.cpp:410] loss <- 3_prob
I0130 09:52:32.502244   644 net.cpp:410] loss <- 4_prob
I0130 09:52:32.502249   644 net.cpp:410] loss <- 5_prob
I0130 09:52:32.502252   644 net.cpp:410] loss <- label
I0130 09:52:32.502259   644 net.cpp:368] loss -> multiple-output loss
I0130 09:52:32.502266   644 net.cpp:368] loss -> batch-instance-counts
I0130 09:52:32.502274   644 net.cpp:368] loss -> train-instance-counts
I0130 09:52:32.502282   644 net.cpp:120] Setting up loss
I0130 09:52:32.502296   644 net.cpp:127] Top shape: 5 1 1 1 (5)
I0130 09:52:32.502300   644 net.cpp:129]     with loss weight 1
I0130 09:52:32.502318   644 net.cpp:127] Top shape: 5 1 1 1 (5)
I0130 09:52:32.502322   644 net.cpp:127] Top shape: 5 1 1 1 (5)
I0130 09:52:32.502326   644 net.cpp:192] loss needs backward computation.
I0130 09:52:32.502331   644 net.cpp:192] 5_prob needs backward computation.
I0130 09:52:32.502334   644 net.cpp:192] 5_ip2 needs backward computation.
I0130 09:52:32.502346   644 net.cpp:192] 5_ip1 needs backward computation.
I0130 09:52:32.502349   644 net.cpp:192] 5_pool3 needs backward computation.
I0130 09:52:32.502352   644 net.cpp:192] 5_relu3 needs backward computation.
…
I0130 09:52:32.503618   644 net.cpp:287] The NetState phase (1) differed from the phase (0) specified by a rule in layer loss
I0130 09:52:32.503823   644 net.cpp:42] Initializing net from parameters: 
name: "CIFAR10_quick"
state {
  phase: TEST
}
layer {
  name: "cifar"
  type: "Data"
  top: "data"
  top: "label"
  include {
    phase: TEST
  }
  transform_param {
    mean_file: "/home/mike/ml_lab/mod/MCL_Caffe/examples/cifar10/mean.binaryproto"
  }
  data_param {
    source: "/home/mike/ml_lab/mod/MCL_Caffe/examples/cifar10/cifar10_test_lmdb"
    batch_size: 100
    backend: LMDB
  }
}
layer {
  name: "1_conv1"
  type: "Convolution"
  bottom: "data"
  top: "1_conv1"
  param {
    lr_mult: 1
  }
  param {
    lr_mult: 2
  }
  convolution_param {
    num_output: 32
    pad: 2
    kernel_size: 5
    stride: 1
    weight_filler {
      type: "gaussian"
      std: 0.0001
    }
    bias_filler {
      type: "constant"
    }
  }
}
layer {
  name: "1_pool1"
  type: "Pooling"
  bottom: "1_conv1"
  top: "1_pool1"
  pooling_param {
    pool: MAX
    kernel_size: 3
    stride: 2
  }
}
layer {
  name: "1_relu1"
  type: "ReLU"
  bottom: "1_pool1"
  top: "1_pool1"
}
layer {
  name: "1_conv2"
  type: "Convolution"
  bottom: "1_pool1"
  top: "1_conv2"
  param {
    lr_mult: 1
  }
  param {
    lr_mult: 2
  }
  convolution_param {
    num_output: 32
    pad: 2
    kernel_size: 5
    stride: 1
    weight_filler {
      type: "gaussian"
      std: 0.01
    }
    bias_filler {
      type: "constant"
    }
  }
}
layer {
  name: "1_relu2"
  type: "ReLU"
  bottom: "1_conv2"
  top: "1_conv2"
}
layer {
  name: "1_pool2"
  type: "Pooling"
  bottom: "1_conv2"
  top: "1_pool2"
  pooling_param {
    pool: AVE
    kernel_size: 3
    stride: 2
  }
}
layer {
  name: "1_conv3"
  type: "Convolution"
  bottom: "1_pool2"
  top: "1_conv3"
  param {
    lr_mult: 1
  }
  param {
    lr_mult: 2
  }
  convolution_param {
    num_output: 64
    pad: 2
    kernel_size: 5
    stride: 1
    weight_filler {
      type: "gaussian"
      std: 0.01
    }
    bias_filler {
      type: "constant"
    }
  }
}
layer {
  name: "1_relu3"
  type: "ReLU"
  bottom: "1_conv3"
  top: "1_conv3"
}
layer {
  name: "1_pool3"
  type: "Pooling"
  bottom: "1_conv3"
  top: "1_pool3"
  pooling_param {
    pool: AVE
    kernel_size: 3
    stride: 2
  }
}
layer {
  name: "1_ip1"
  type: "InnerProduct"
  bottom: "1_pool3"
  top: "1_ip1"
  param {
    lr_mult: 1
  }
  param {
    lr_mult: 2
  }
  inner_product_param {
    num_output: 64
    weight_filler {
      type: "gaussian"
      std: 0.1
    }
    bias_filler {
      type: "constant"
    }
  }
}
layer {
  name: "1_ip2"
  type: "InnerProduct"
  bottom: "1_ip1"
  top: "1_ip2"
  param {
    lr_mult: 1
  }
  param {
    lr_mult: 2
  }
  inner_product_param {
    num_output: 10
    weight_filler {
      type: "gaussian"
      std: 0.1
    }
    bias_filler {
      type: "constant"
    }
  }
}
layer {
  name: "1_prob"
  type: "Softmax"
  bottom: "1_ip2"
  top: "1_prob"
}
layer {
  name: "2_conv1"
  type: "Convolution"
  bottom: "data"
  top: "2_conv1"
  param {
    lr_mult: 1
  }
  param {
    lr_mult: 2
  }
  convolution_param {
    num_output: 32
    pad: 2
    kernel_size: 5
    stride: 1
    weight_filler {
      type: "gaussian"
      std: 0.0001
    }
    bias_filler {
      type: "constant"
    }
  }
}
layer {
  name: "2_pool1"
  type: "Pooling"
  bottom: "2_conv1"
  top: "2_pool1"
  pooling_param {
    pool: MAX
    kernel_size: 3
    stride: 2
  }
}
layer {
  name: "2_relu1"
  type: "ReLU"
  bottom: "2_pool1"
  top: "2_pool1"
}
layer {
  name: "2_conv2"
  type: "Convolution"
  bottom: "2_pool1"
  top: "2_conv2"
  param {
    lr_mult: 1
  }
  param {
    lr_mult: 2
  }
  convolution_param {
    num_output: 32
    pad: 2
    kernel_size: 5
    stride: 1
    weight_filler {
      type: "gaussian"
      std: 0.01
    }
    bias_filler {
      type: "constant"
    }
  }
}
layer {
  name: "2_relu2"
  type: "ReLU"
  bottom: "2_conv2"
  top: "2_conv2"
}
layer {
  name: "2_pool2"
  type: "Pooling"
  bottom: "2_conv2"
  top: "2_pool2"
  pooling_param {
    pool: AVE
    kernel_size: 3
    stride: 2
  }
}
layer {
  name: "2_conv3"
  type: "Convolution"
  bottom: "2_pool2"
  top: "2_conv3"
  param {
    lr_mult: 1
  }
  param {
    lr_mult: 2
  }
  convolution_param {
    num_output: 64
    pad: 2
    kernel_size: 5
    stride: 1
    weight_filler {
      type: "gaussian"
      std: 0.01
    }
    bias_filler {
      type: "constant"
    }
  }
}
layer {
  name: "2_relu3"
  type: "ReLU"
  bottom: "2_conv3"
  top: "2_conv3"
}
layer {
  name: "2_pool3"
  type: "Pooling"
  bottom: "2_conv3"
  top: "2_pool3"
  pooling_param {
    pool: AVE
    kernel_size: 3
    stride: 2
  }
}
layer {
  name: "2_ip1"
  type: "InnerProduct"
  bottom: "2_pool3"
  top: "2_ip1"
  param {
    lr_mult: 1
  }
  param {
    lr_mult: 2
  }
  inner_product_param {
    num_output: 64
    weight_filler {
      type: "gaussian"
      std: 0.1
    }
    bias_filler {
      type: "constant"
    }
  }
}
layer {
  name: "2_ip2"
  type: "InnerProduct"
  bottom: "2_ip1"
  top: "2_ip2"
  param {
    lr_mult: 1
  }
  param {
    lr_mult: 2
  }
  inner_product_param {
    num_output: 10
    weight_filler {
      type: "gaussian"
      std: 0.1
    }
    bias_filler {
      type: "constant"
    }
  }
}
layer {
  name: "2_prob"
  type: "Softmax"
  bottom: "2_ip2"
  top: "2_prob"
}
layer {
  name: "3_conv1"
  type: "Convolution"
  bottom: "data"
  top: "3_conv1"
  param {
    lr_mult: 1
  }
  param {
    lr_mult: 2
  }
  convolution_param {
    num_output: 32
    pad: 2
    kernel_size: 5
    stride: 1
    weight_filler {
      type: "gaussian"
      std: 0.0001
    }
    bias_filler {
      type: "constant"
    }
  }
}
layer {
  name: "3_pool1"
  type: "Pooling"
  bottom: "3_conv1"
  top: "3_pool1"
  pooling_param {
    pool: MAX
    kernel_size: 3
    stride: 2
  }
}
layer {
  name: "3_relu1"
  type: "ReLU"
  bottom: "3_pool1"
  top: "3_pool1"
}
layer {
  name: "3_conv2"
  type: "Convolution"
  bottom: "3_pool1"
  top: "3_conv2"
  param {
    lr_mult: 1
  }
  param {
    lr_mult: 2
  }
  convolution_param {
    num_output: 32
    pad: 2
    kernel_size: 5
    stride: 1
    weight_filler {
      type: "gaussian"
      std: 0.01
    }
    bias_filler {
      type: "constant"
    }
  }
}
layer {
  name: "3_relu2"
  type: "ReLU"
  bottom: "3_conv2"
  top: "3_conv2"
}
layer {
  name: "3_pool2"
  type: "Pooling"
  bottom: "3_conv2"
  top: "3_pool2"
  pooling_param {
    pool: AVE
    kernel_size: 3
    stride: 2
  }
}
layer {
  name: "3_conv3"
  type: "Convolution"
  bottom: "3_pool2"
  top: "3_conv3"
  param {
    lr_mult: 1
  }
  param {
    lr_mult: 2
  }
  convolution_param {
    num_output: 64
    pad: 2
    kernel_size: 5
    stride: 1
    weight_filler {
      type: "gaussian"
      std: 0.01
    }
    bias_filler {
      type: "constant"
    }
  }
}
layer {
  name: "3_relu3"
  type: "ReLU"
  bottom: "3_conv3"
  top: "3_conv3"
}
layer {
  name: "3_pool3"
  type: "Pooling"
  bottom: "3_conv3"
  top: "3_pool3"
  pooling_param {
    pool: AVE
    kernel_size: 3
    stride: 2
  }
}
layer {
  name: "3_ip1"
  type: "InnerProduct"
  bottom: "3_pool3"
  top: "3_ip1"
  param {
    lr_mult: 1
  }
  param {
    lr_mult: 2
  }
  inner_product_param {
    num_output: 64
    weight_filler {
      type: "gaussian"
      std: 0.1
    }
    bias_filler {
      type: "constant"
    }
  }
}
layer {
  name: "3_ip2"
  type: "InnerProduct"
  bottom: "3_ip1"
  top: "3_ip2"
  param {
    lr_mult: 1
  }
  param {
    lr_mult: 2
  }
  inner_product_param {
    num_output: 10
    weight_filler {
      type: "gaussian"
      std: 0.1
    }
    bias_filler {
      type: "constant"
    }
  }
}
layer {
  name: "3_prob"
  type: "Softmax"
  bottom: "3_ip2"
  top: "3_prob"
}
layer {
  name: "4_conv1"
  type: "Convolution"
  bottom: "data"
  top: "4_conv1"
  param {
    lr_mult: 1
  }
  param {
    lr_mult: 2
  }
  convolution_param {
    num_output: 32
    pad: 2
    kernel_size: 5
    stride: 1
    weight_filler {
      type: "gaussian"
      std: 0.0001
    }
    bias_filler {
      type: "constant"
    }
  }
}
layer {
  name: "4_pool1"
  type: "Pooling"
  bottom: "4_conv1"
  top: "4_pool1"
  pooling_param {
    pool: MAX
    kernel_size: 3
    stride: 2
  }
}
layer {
  name: "4_relu1"
  type: "ReLU"
  bottom: "4_pool1"
  top: "4_pool1"
}
layer {
  name: "4_conv2"
  type: "Convolution"
  bottom: "4_pool1"
  top: "4_conv2"
  param {
    lr_mult: 1
  }
  param {
    lr_mult: 2
  }
  convolution_param {
    num_output: 32
    pad: 2
    kernel_size: 5
    stride: 1
    weight_filler {
      type: "gaussian"
      std: 0.01
    }
    bias_filler {
      type: "constant"
    }
  }
}
layer {
  name: "4_relu2"
  type: "ReLU"
  bottom: "4_conv2"
  top: "4_conv2"
}
layer {
  name: "4_pool2"
  type: "Pooling"
  bottom: "4_conv2"
  top: "4_pool2"
  pooling_param {
    pool: AVE
    kernel_size: 3
    stride: 2
  }
}
layer {
  name: "4_conv3"
  type: "Convolution"
  bottom: "4_pool2"
  top: "4_conv3"
  param {
    lr_mult: 1
  }
  param {
    lr_mult: 2
  }
  convolution_param {
    num_output: 64
    pad: 2
    kernel_size: 5
    stride: 1
    weight_filler {
      type: "gaussian"
      std: 0.01
    }
    bias_filler {
      type: "constant"
    }
  }
}
layer {
  name: "4_relu3"
  type: "ReLU"
  bottom: "4_conv3"
  top: "4_conv3"
}
layer {
  name: "4_pool3"
  type: "Pooling"
  bottom: "4_conv3"
  top: "4_pool3"
  pooling_param {
    pool: AVE
    kernel_size: 3
    stride: 2
  }
}
layer {
  name: "4_ip1"
  type: "InnerProduct"
  bottom: "4_pool3"
  top: "4_ip1"
  param {
    lr_mult: 1
  }
  param {
    lr_mult: 2
  }
  inner_product_param {
    num_output: 64
    weight_filler {
      type: "gaussian"
      std: 0.1
    }
    bias_filler {
      type: "constant"
    }
  }
}
layer {
  name: "4_ip2"
  type: "InnerProduct"
  bottom: "4_ip1"
  top: "4_ip2"
  param {
    lr_mult: 1
  }
  param {
    lr_mult: 2
  }
  inner_product_param {
    num_output: 10
    weight_filler {
      type: "gaussian"
      std: 0.1
    }
    bias_filler {
      type: "constant"
    }
  }
}
layer {
  name: "4_prob"
  type: "Softmax"
  bottom: "4_ip2"
  top: "4_prob"
}
layer {
  name: "5_conv1"
  type: "Convolution"
  bottom: "data"
  top: "5_conv1"
  param {
    lr_mult: 1
  }
  param {
    lr_mult: 2
  }
  convolution_param {
    num_output: 32
    pad: 2
    kernel_size: 5
    stride: 1
    weight_filler {
      type: "gaussian"
      std: 0.0001
    }
    bias_filler {
      type: "constant"
    }
  }
}
layer {
  name: "5_pool1"
  type: "Pooling"
  bottom: "5_conv1"
  top: "5_pool1"
  pooling_param {
    pool: MAX
    kernel_size: 3
    stride: 2
  }
}
layer {
  name: "5_relu1"
  type: "ReLU"
  bottom: "5_pool1"
  top: "5_pool1"
}
layer {
  name: "5_conv2"
  type: "Convolution"
  bottom: "5_pool1"
  top: "5_conv2"
  param {
    lr_mult: 1
  }
  param {
    lr_mult: 2
  }
  convolution_param {
    num_output: 32
    pad: 2
    kernel_size: 5
    stride: 1
    weight_filler {
      type: "gaussian"
      std: 0.01
    }
    bias_filler {
      type: "constant"
    }
  }
}
layer {
  name: "5_relu2"
  type: "ReLU"
  bottom: "5_conv2"
  top: "5_conv2"
}
layer {
  name: "5_pool2"
  type: "Pooling"
  bottom: "5_conv2"
  top: "5_pool2"
  pooling_param {
    pool: AVE
    kernel_size: 3
    stride: 2
  }
}
layer {
  name: "5_conv3"
  type: "Convolution"
  bottom: "5_pool2"
  top: "5_conv3"
  param {
    lr_mult: 1
  }
  param {
    lr_mult: 2
  }
  convolution_param {
    num_output: 64
    pad: 2
    kernel_size: 5
    stride: 1
    weight_filler {
      type: "gaussian"
      std: 0.01
    }
    bias_filler {
      type: "constant"
    }
  }
}
layer {
  name: "5_relu3"
  type: "ReLU"
  bottom: "5_conv3"
  top: "5_conv3"
}
layer {
  name: "5_pool3"
  type: "Pooling"
  bottom: "5_conv3"
  top: "5_pool3"
  pooling_param {
    pool: AVE
    kernel_size: 3
    stride: 2
  }
}
layer {
  name: "5_ip1"
  type: "InnerProduct"
  bottom: "5_pool3"
  top: "5_ip1"
  param {
    lr_mult: 1
  }
  param {
    lr_mult: 2
  }
  inner_product_param {
    num_output: 64
    weight_filler {
      type: "gaussian"
      std: 0.1
    }
    bias_filler {
      type: "constant"
    }
  }
}
layer {
  name: "5_ip2"
  type: "InnerProduct"
  bottom: "5_ip1"
  top: "5_ip2"
  param {
    lr_mult: 1
  }
  param {
    lr_mult: 2
  }
  inner_product_param {
    num_output: 10
    weight_filler {
      type: "gaussian"
      std: 0.1
    }
    bias_filler {
      type: "constant"
    }
  }
}
layer {
  name: "5_prob"
  type: "Softmax"
  bottom: "5_ip2"
  top: "5_prob"
}
layer {
  name: "1_accuracy"
  type: "Accuracy"
  bottom: "1_prob"
  bottom: "label"
  top: "1_accuracy"
  include {
    phase: TEST
  }
}
layer {
  name: "2_accuracy"
  type: "Accuracy"
  bottom: "2_prob"
  bottom: "label"
  top: "2_accuracy"
  include {
    phase: TEST
  }
}
layer {
  name: "3_accuracy"
  type: "Accuracy"
  bottom: "3_prob"
  bottom: "label"
  top: "3_accuracy"
  include {
    phase: TEST
  }
}
layer {
  name: "4_accuracy"
  type: "Accuracy"
  bottom: "4_prob"
  bottom: "label"
  top: "4_accuracy"
  include {
    phase: TEST
  }
}
layer {
  name: "5_accuracy"
  type: "Accuracy"
  bottom: "5_prob"
  bottom: "label"
  top: "5_accuracy"
  include {
    phase: TEST
  }
}
layer {
  name: "accuracy"
  type: "OracleAccuracy"
  bottom: "1_prob"
  bottom: "2_prob"
  bottom: "3_prob"
  bottom: "4_prob"
  bottom: "5_prob"
  bottom: "label"
  top: "oracle accuracy"
  include {
    phase: TEST
  }
}
I0130 09:52:32.504113   644 layer_factory.hpp:74] Creating layer cifar
I0130 09:52:32.504122   644 net.cpp:90] Creating Layer cifar
I0130 09:52:32.504127   644 net.cpp:368] cifar -> data
I0130 09:52:32.504134   644 net.cpp:368] cifar -> label
I0130 09:52:32.504140   644 net.cpp:120] Setting up cifar
I0130 09:52:32.504170   644 db.cpp:34] Opened lmdb /home/mike/ml_lab/mod/MCL_Caffe/examples/cifar10/cifar10_test_lmdb
I0130 09:52:32.504194   644 data_layer.cpp:67] output data size: 100,3,32,32
I0130 09:52:32.504200   644 data_transformer.cpp:22] Loading mean file from: /home/mike/ml_lab/mod/MCL_Caffe/examples/cifar10/mean.binaryproto
I0130 09:52:32.504577   644 net.cpp:127] Top shape: 100 3 32 32 (307200)
I0130 09:52:32.504585   644 net.cpp:127] Top shape: 100 (100)
I0130 09:52:32.504588   644 layer_factory.hpp:74] Creating layer data_cifar_0_split
I0130 09:52:32.504595   644 net.cpp:90] Creating Layer data_cifar_0_split
I0130 09:52:32.504597   644 net.cpp:410] data_cifar_0_split <- data
I0130 09:52:32.504602   644 net.cpp:368] data_cifar_0_split -> data_cifar_0_split_0
I0130 09:52:32.504609   644 net.cpp:368] data_cifar_0_split -> data_cifar_0_split_1
I0130 09:52:32.504616   644 net.cpp:368] data_cifar_0_split -> data_cifar_0_split_2
I0130 09:52:32.504621   644 net.cpp:368] data_cifar_0_split -> data_cifar_0_split_3
I0130 09:52:32.504626   644 net.cpp:368] data_cifar_0_split -> data_cifar_0_split_4
I0130 09:52:32.504639   644 net.cpp:120] Setting up data_cifar_0_split
I0130 09:52:32.504647   644 net.cpp:127] Top shape: 100 3 32 32 (307200)
I0130 09:52:32.504652   644 net.cpp:127] Top shape: 100 3 32 32 (307200)
I0130 09:52:32.504657   644 net.cpp:127] Top shape: 100 3 32 32 (307200)
I0130 09:52:32.504662   644 net.cpp:127] Top shape: 100 3 32 32 (307200)
I0130 09:52:32.504665   644 net.cpp:127] Top shape: 100 3 32 32 (307200)
I0130 09:52:32.504668   644 layer_factory.hpp:74] Creating layer label_cifar_1_split
I0130 09:52:32.504673   644 net.cpp:90] Creating Layer label_cifar_1_split
I0130 09:52:32.504676   644 net.cpp:410] label_cifar_1_split <- label
I0130 09:52:32.504681   644 net.cpp:368] label_cifar_1_split -> label_cifar_1_split_0
I0130 09:52:32.504688   644 net.cpp:368] label_cifar_1_split -> label_cifar_1_split_1
I0130 09:52:32.504693   644 net.cpp:368] label_cifar_1_split -> label_cifar_1_split_2
I0130 09:52:32.504699   644 net.cpp:368] label_cifar_1_split -> label_cifar_1_split_3
I0130 09:52:32.504704   644 net.cpp:368] label_cifar_1_split -> label_cifar_1_split_4
I0130 09:52:32.504709   644 net.cpp:368] label_cifar_1_split -> label_cifar_1_split_5
I0130 09:52:32.504714   644 net.cpp:120] Setting up label_cifar_1_split
I0130 09:52:32.504719   644 net.cpp:127] Top shape: 100 (100)
I0130 09:52:32.504724   644 net.cpp:127] Top shape: 100 (100)
I0130 09:52:32.504727   644 net.cpp:127] Top shape: 100 (100)
I0130 09:52:32.504731   644 net.cpp:127] Top shape: 100 (100)
I0130 09:52:32.504735   644 net.cpp:127] Top shape: 100 (100)
I0130 09:52:32.504739   644 net.cpp:127] Top shape: 100 (100)
I0130 09:52:32.504742   644 layer_factory.hpp:74] Creating layer 1_conv1
I0130 09:52:32.504748   644 net.cpp:90] Creating Layer 1_conv1
I0130 09:52:32.504752   644 net.cpp:410] 1_conv1 <- data_cifar_0_split_0
I0130 09:52:32.504757   644 net.cpp:368] 1_conv1 -> 1_conv1
I0130 09:52:32.504762   644 net.cpp:120] Setting up 1_conv1
I0130 09:52:32.504851   644 net.cpp:127] Top shape: 100 32 32 32 (3276800)
I0130 09:52:32.504860   644 layer_factory.hpp:74] Creating layer 1_pool1
I0130 09:52:32.504865   644 net.cpp:90] Creating Layer 1_pool1
I0130 09:52:32.504869   644 net.cpp:410] 1_pool1 <- 1_conv1
I0130 09:52:32.504874   644 net.cpp:368] 1_pool1 -> 1_pool1
I0130 09:52:32.504879   644 net.cpp:120] Setting up 1_pool1
I0130 09:52:32.504885   644 net.cpp:127] Top shape: 100 32 16 16 (819200)
I0130 09:52:32.504889   644 layer_factory.hpp:74] Creating layer 1_relu1
I0130 09:52:32.504894   644 net.cpp:90] Creating Layer 1_relu1
I0130 09:52:32.504896   644 net.cpp:410] 1_relu1 <- 1_pool1
I0130 09:52:32.504902   644 net.cpp:357] 1_relu1 -> 1_pool1 (in-place)
I0130 09:52:32.504907   644 net.cpp:120] Setting up 1_relu1
I0130 09:52:32.504912   644 net.cpp:127] Top shape: 100 32 16 16 (819200)
I0130 09:52:32.504915   644 layer_factory.hpp:74] Creating layer 1_conv2
I0130 09:52:32.504920   644 net.cpp:90] Creating Layer 1_conv2
I0130 09:52:32.504923   644 net.cpp:410] 1_conv2 <- 1_pool1
I0130 09:52:32.504928   644 net.cpp:368] 1_conv2 -> 1_conv2
I0130 09:52:32.504933   644 net.cpp:120] Setting up 1_conv2
I0130 09:52:32.505761   644 net.cpp:127] Top shape: 100 32 16 16 (819200)
I0130 09:52:32.505771   644 layer_factory.hpp:74] Creating layer 1_relu2
I0130 09:52:32.505776   644 net.cpp:90] Creating Layer 1_relu2
I0130 09:52:32.505779   644 net.cpp:410] 1_relu2 <- 1_conv2
I0130 09:52:32.505784   644 net.cpp:357] 1_relu2 -> 1_conv2 (in-place)
I0130 09:52:32.505789   644 net.cpp:120] Setting up 1_relu2
I0130 09:52:32.505795   644 net.cpp:127] Top shape: 100 32 16 16 (819200)
I0130 09:52:32.505797   644 layer_factory.hpp:74] Creating layer 1_pool2
I0130 09:52:32.505805   644 net.cpp:90] Creating Layer 1_pool2
I0130 09:52:32.505807   644 net.cpp:410] 1_pool2 <- 1_conv2
I0130 09:52:32.505812   644 net.cpp:368] 1_pool2 -> 1_pool2
I0130 09:52:32.505818   644 net.cpp:120] Setting up 1_pool2
I0130 09:52:32.505825   644 net.cpp:127] Top shape: 100 32 8 8 (204800)
I0130 09:52:32.505828   644 layer_factory.hpp:74] Creating layer 1_conv3
I0130 09:52:32.505834   644 net.cpp:90] Creating Layer 1_conv3
I0130 09:52:32.505846   644 net.cpp:410] 1_conv3 <- 1_pool2
I0130 09:52:32.505853   644 net.cpp:368] 1_conv3 -> 1_conv3
I0130 09:52:32.505858   644 net.cpp:120] Setting up 1_conv3
I0130 09:52:32.507218   644 net.cpp:127] Top shape: 100 64 8 8 (409600)
I0130 09:52:32.507227   644 layer_factory.hpp:74] Creating layer 1_relu3
I0130 09:52:32.507235   644 net.cpp:90] Creating Layer 1_relu3
I0130 09:52:32.507237   644 net.cpp:410] 1_relu3 <- 1_conv3
I0130 09:52:32.507242   644 net.cpp:357] 1_relu3 -> 1_conv3 (in-place)
I0130 09:52:32.507247   644 net.cpp:120] Setting up 1_relu3
I0130 09:52:32.507252   644 net.cpp:127] Top shape: 100 64 8 8 (409600)
I0130 09:52:32.507256   644 layer_factory.hpp:74] Creating layer 1_pool3
I0130 09:52:32.507261   644 net.cpp:90] Creating Layer 1_pool3
I0130 09:52:32.507264   644 net.cpp:410] 1_pool3 <- 1_conv3
I0130 09:52:32.507271   644 net.cpp:368] 1_pool3 -> 1_pool3
I0130 09:52:32.507275   644 net.cpp:120] Setting up 1_pool3
I0130 09:52:32.507282   644 net.cpp:127] Top shape: 100 64 4 4 (102400)
I0130 09:52:32.507284   644 layer_factory.hpp:74] Creating layer 1_ip1
I0130 09:52:32.507290   644 net.cpp:90] Creating Layer 1_ip1
I0130 09:52:32.507293   644 net.cpp:410] 1_ip1 <- 1_pool3
I0130 09:52:32.507300   644 net.cpp:368] 1_ip1 -> 1_ip1
I0130 09:52:32.507306   644 net.cpp:120] Setting up 1_ip1
I0130 09:52:32.508790   644 net.cpp:127] Top shape: 100 64 (6400)
I0130 09:52:32.508798   644 layer_factory.hpp:74] Creating layer 1_ip2
I0130 09:52:32.508805   644 net.cpp:90] Creating Layer 1_ip2
I0130 09:52:32.508808   644 net.cpp:410] 1_ip2 <- 1_ip1
I0130 09:52:32.508815   644 net.cpp:368] 1_ip2 -> 1_ip2
I0130 09:52:32.508821   644 net.cpp:120] Setting up 1_ip2
I0130 09:52:32.508847   644 net.cpp:127] Top shape: 100 10 (1000)
I0130 09:52:32.508857   644 layer_factory.hpp:74] Creating layer 1_prob
I0130 09:52:32.508862   644 net.cpp:90] Creating Layer 1_prob
I0130 09:52:32.508867   644 net.cpp:410] 1_prob <- 1_ip2
I0130 09:52:32.508872   644 net.cpp:368] 1_prob -> 1_prob
I0130 09:52:32.508877   644 net.cpp:120] Setting up 1_prob
I0130 09:52:32.508884   644 net.cpp:127] Top shape: 100 10 (1000)
I0130 09:52:32.508889   644 layer_factory.hpp:74] Creating layer 1_prob_1_prob_0_split
I0130 09:52:32.508894   644 net.cpp:90] Creating Layer 1_prob_1_prob_0_split
I0130 09:52:32.508898   644 net.cpp:410] 1_prob_1_prob_0_split <- 1_prob
I0130 09:52:32.508903   644 net.cpp:368] 1_prob_1_prob_0_split -> 1_prob_1_prob_0_split_0
I0130 09:52:32.508908   644 net.cpp:368] 1_prob_1_prob_0_split -> 1_prob_1_prob_0_split_1
I0130 09:52:32.508913   644 net.cpp:120] Setting up 1_prob_1_prob_0_split
I0130 09:52:32.508919   644 net.cpp:127] Top shape: 100 10 (1000)
I0130 09:52:32.508924   644 net.cpp:127] Top shape: 100 10 (1000)
I0130 09:52:32.508926   644 layer_factory.hpp:74] Creating layer 2_conv1
I0130 09:52:32.508934   644 net.cpp:90] Creating Layer 2_conv1
I0130 09:52:32.508939   644 net.cpp:410] 2_conv1 <- data_cifar_0_split_1
I0130 09:52:32.508945   644 net.cpp:368] 2_conv1 -> 2_conv1
I0130 09:52:32.508952   644 net.cpp:120] Setting up 2_conv1
I0130 09:52:32.509018   644 net.cpp:127] Top shape: 100 32 32 32 (3276800)
I0130 09:52:32.509024   644 layer_factory.hpp:74] Creating layer 2_pool1
I0130 09:52:32.509029   644 net.cpp:90] Creating Layer 2_pool1
I0130 09:52:32.509033   644 net.cpp:410] 2_pool1 <- 2_conv1
I0130 09:52:32.509038   644 net.cpp:368] 2_pool1 -> 2_pool1
I0130 09:52:32.509043   644 net.cpp:120] Setting up 2_pool1
I0130 09:52:32.509050   644 net.cpp:127] Top shape: 100 32 16 16 (819200)
I0130 09:52:32.509053   644 layer_factory.hpp:74] Creating layer 2_relu1
I0130 09:52:32.509058   644 net.cpp:90] Creating Layer 2_relu1
I0130 09:52:32.509062   644 net.cpp:410] 2_relu1 <- 2_pool1
I0130 09:52:32.509066   644 net.cpp:357] 2_relu1 -> 2_pool1 (in-place)
I0130 09:52:32.509070   644 net.cpp:120] Setting up 2_relu1
I0130 09:52:32.509075   644 net.cpp:127] Top shape: 100 32 16 16 (819200)
I0130 09:52:32.509079   644 layer_factory.hpp:74] Creating layer 2_conv2
I0130 09:52:32.509085   644 net.cpp:90] Creating Layer 2_conv2
I0130 09:52:32.509097   644 net.cpp:410] 2_conv2 <- 2_pool1
I0130 09:52:32.509104   644 net.cpp:368] 2_conv2 -> 2_conv2
I0130 09:52:32.509110   644 net.cpp:120] Setting up 2_conv2
I0130 09:52:32.509693   644 net.cpp:127] Top shape: 100 32 16 16 (819200)
I0130 09:52:32.509701   644 layer_factory.hpp:74] Creating layer 2_relu2
I0130 09:52:32.509706   644 net.cpp:90] Creating Layer 2_relu2
I0130 09:52:32.509711   644 net.cpp:410] 2_relu2 <- 2_conv2
I0130 09:52:32.509716   644 net.cpp:357] 2_relu2 -> 2_conv2 (in-place)
I0130 09:52:32.509719   644 net.cpp:120] Setting up 2_relu2
I0130 09:52:32.509724   644 net.cpp:127] Top shape: 100 32 16 16 (819200)
I0130 09:52:32.509728   644 layer_factory.hpp:74] Creating layer 2_pool2
I0130 09:52:32.509733   644 net.cpp:90] Creating Layer 2_pool2
I0130 09:52:32.509737   644 net.cpp:410] 2_pool2 <- 2_conv2
I0130 09:52:32.509742   644 net.cpp:368] 2_pool2 -> 2_pool2
I0130 09:52:32.509747   644 net.cpp:120] Setting up 2_pool2
I0130 09:52:32.509753   644 net.cpp:127] Top shape: 100 32 8 8 (204800)
I0130 09:52:32.509757   644 layer_factory.hpp:74] Creating layer 2_conv3
I0130 09:52:32.509763   644 net.cpp:90] Creating Layer 2_conv3
I0130 09:52:32.509765   644 net.cpp:410] 2_conv3 <- 2_pool2
I0130 09:52:32.509773   644 net.cpp:368] 2_conv3 -> 2_conv3
I0130 09:52:32.509778   644 net.cpp:120] Setting up 2_conv3
I0130 09:52:32.510927   644 net.cpp:127] Top shape: 100 64 8 8 (409600)
I0130 09:52:32.510934   644 layer_factory.hpp:74] Creating layer 2_relu3
I0130 09:52:32.510939   644 net.cpp:90] Creating Layer 2_relu3
I0130 09:52:32.510942   644 net.cpp:410] 2_relu3 <- 2_conv3
I0130 09:52:32.510947   644 net.cpp:357] 2_relu3 -> 2_conv3 (in-place)
I0130 09:52:32.510952   644 net.cpp:120] Setting up 2_relu3
I0130 09:52:32.510957   644 net.cpp:127] Top shape: 100 64 8 8 (409600)
I0130 09:52:32.510960   644 layer_factory.hpp:74] Creating layer 2_pool3
I0130 09:52:32.510965   644 net.cpp:90] Creating Layer 2_pool3
I0130 09:52:32.510969   644 net.cpp:410] 2_pool3 <- 2_conv3
I0130 09:52:32.510974   644 net.cpp:368] 2_pool3 -> 2_pool3
I0130 09:52:32.510979   644 net.cpp:120] Setting up 2_pool3
I0130 09:52:32.510984   644 net.cpp:127] Top shape: 100 64 4 4 (102400)
I0130 09:52:32.510988   644 layer_factory.hpp:74] Creating layer 2_ip1
I0130 09:52:32.510994   644 net.cpp:90] Creating Layer 2_ip1
I0130 09:52:32.510998   644 net.cpp:410] 2_ip1 <- 2_pool3
I0130 09:52:32.511003   644 net.cpp:368] 2_ip1 -> 2_ip1
I0130 09:52:32.511009   644 net.cpp:120] Setting up 2_ip1
I0130 09:52:32.512478   644 net.cpp:127] Top shape: 100 64 (6400)
I0130 09:52:32.512487   644 layer_factory.hpp:74] Creating layer 2_ip2
I0130 09:52:32.512495   644 net.cpp:90] Creating Layer 2_ip2
I0130 09:52:32.512498   644 net.cpp:410] 2_ip2 <- 2_ip1
I0130 09:52:32.512504   644 net.cpp:368] 2_ip2 -> 2_ip2
I0130 09:52:32.512511   644 net.cpp:120] Setting up 2_ip2
I0130 09:52:32.512537   644 net.cpp:127] Top shape: 100 10 (1000)
I0130 09:52:32.512542   644 layer_factory.hpp:74] Creating layer 2_prob
I0130 09:52:32.512547   644 net.cpp:90] Creating Layer 2_prob
I0130 09:52:32.512550   644 net.cpp:410] 2_prob <- 2_ip2
I0130 09:52:32.512557   644 net.cpp:368] 2_prob -> 2_prob
I0130 09:52:32.512563   644 net.cpp:120] Setting up 2_prob
I0130 09:52:32.512573   644 net.cpp:127] Top shape: 100 10 (1000)
I0130 09:52:32.512578   644 layer_factory.hpp:74] Creating layer 2_prob_2_prob_0_split
I0130 09:52:32.512583   644 net.cpp:90] Creating Layer 2_prob_2_prob_0_split
I0130 09:52:32.512586   644 net.cpp:410] 2_prob_2_prob_0_split <- 2_prob
I0130 09:52:32.512591   644 net.cpp:368] 2_prob_2_prob_0_split -> 2_prob_2_prob_0_split_0
I0130 09:52:32.512596   644 net.cpp:368] 2_prob_2_prob_0_split -> 2_prob_2_prob_0_split_1
I0130 09:52:32.512601   644 net.cpp:120] Setting up 2_prob_2_prob_0_split
I0130 09:52:32.512608   644 net.cpp:127] Top shape: 100 10 (1000)
I0130 09:52:32.512611   644 net.cpp:127] Top shape: 100 10 (1000)
I0130 09:52:32.512615   644 layer_factory.hpp:74] Creating layer 3_conv1
I0130 09:52:32.512621   644 net.cpp:90] Creating Layer 3_conv1
I0130 09:52:32.512634   644 net.cpp:410] 3_conv1 <- data_cifar_0_split_2
I0130 09:52:32.512642   644 net.cpp:368] 3_conv1 -> 3_conv1
I0130 09:52:32.512650   644 net.cpp:120] Setting up 3_conv1
I0130 09:52:32.512717   644 net.cpp:127] Top shape: 100 32 32 32 (3276800)
I0130 09:52:32.512722   644 layer_factory.hpp:74] Creating layer 3_pool1
I0130 09:52:32.512727   644 net.cpp:90] Creating Layer 3_pool1
I0130 09:52:32.512732   644 net.cpp:410] 3_pool1 <- 3_conv1
I0130 09:52:32.512737   644 net.cpp:368] 3_pool1 -> 3_pool1
I0130 09:52:32.512742   644 net.cpp:120] Setting up 3_pool1
I0130 09:52:32.512748   644 net.cpp:127] Top shape: 100 32 16 16 (819200)
I0130 09:52:32.512751   644 layer_factory.hpp:74] Creating layer 3_relu1
I0130 09:52:32.512755   644 net.cpp:90] Creating Layer 3_relu1
I0130 09:52:32.512759   644 net.cpp:410] 3_relu1 <- 3_pool1
I0130 09:52:32.512763   644 net.cpp:357] 3_relu1 -> 3_pool1 (in-place)
I0130 09:52:32.512768   644 net.cpp:120] Setting up 3_relu1
I0130 09:52:32.512773   644 net.cpp:127] Top shape: 100 32 16 16 (819200)
I0130 09:52:32.512776   644 layer_factory.hpp:74] Creating layer 3_conv2
I0130 09:52:32.512784   644 net.cpp:90] Creating Layer 3_conv2
I0130 09:52:32.512789   644 net.cpp:410] 3_conv2 <- 3_pool1
I0130 09:52:32.512794   644 net.cpp:368] 3_conv2 -> 3_conv2
I0130 09:52:32.512799   644 net.cpp:120] Setting up 3_conv2
I0130 09:52:32.513383   644 net.cpp:127] Top shape: 100 32 16 16 (819200)
I0130 09:52:32.513391   644 layer_factory.hpp:74] Creating layer 3_relu2
I0130 09:52:32.513394   644 net.cpp:90] Creating Layer 3_relu2
I0130 09:52:32.513398   644 net.cpp:410] 3_relu2 <- 3_conv2
I0130 09:52:32.513402   644 net.cpp:357] 3_relu2 -> 3_conv2 (in-place)
I0130 09:52:32.513408   644 net.cpp:120] Setting up 3_relu2
I0130 09:52:32.513413   644 net.cpp:127] Top shape: 100 32 16 16 (819200)
I0130 09:52:32.513417   644 layer_factory.hpp:74] Creating layer 3_pool2
I0130 09:52:32.513422   644 net.cpp:90] Creating Layer 3_pool2
I0130 09:52:32.513425   644 net.cpp:410] 3_pool2 <- 3_conv2
I0130 09:52:32.513429   644 net.cpp:368] 3_pool2 -> 3_pool2
I0130 09:52:32.513434   644 net.cpp:120] Setting up 3_pool2
I0130 09:52:32.513440   644 net.cpp:127] Top shape: 100 32 8 8 (204800)
I0130 09:52:32.513444   644 layer_factory.hpp:74] Creating layer 3_conv3
I0130 09:52:32.513450   644 net.cpp:90] Creating Layer 3_conv3
I0130 09:52:32.513454   644 net.cpp:410] 3_conv3 <- 3_pool2
I0130 09:52:32.513459   644 net.cpp:368] 3_conv3 -> 3_conv3
I0130 09:52:32.513464   644 net.cpp:120] Setting up 3_conv3
I0130 09:52:32.514613   644 net.cpp:127] Top shape: 100 64 8 8 (409600)
I0130 09:52:32.514621   644 layer_factory.hpp:74] Creating layer 3_relu3
I0130 09:52:32.514624   644 net.cpp:90] Creating Layer 3_relu3
I0130 09:52:32.514628   644 net.cpp:410] 3_relu3 <- 3_conv3
I0130 09:52:32.514633   644 net.cpp:357] 3_relu3 -> 3_conv3 (in-place)
I0130 09:52:32.514638   644 net.cpp:120] Setting up 3_relu3
I0130 09:52:32.514643   644 net.cpp:127] Top shape: 100 64 8 8 (409600)
I0130 09:52:32.514647   644 layer_factory.hpp:74] Creating layer 3_pool3
I0130 09:52:32.514652   644 net.cpp:90] Creating Layer 3_pool3
I0130 09:52:32.514654   644 net.cpp:410] 3_pool3 <- 3_conv3
I0130 09:52:32.514659   644 net.cpp:368] 3_pool3 -> 3_pool3
I0130 09:52:32.514664   644 net.cpp:120] Setting up 3_pool3
I0130 09:52:32.514672   644 net.cpp:127] Top shape: 100 64 4 4 (102400)
I0130 09:52:32.514675   644 layer_factory.hpp:74] Creating layer 3_ip1
I0130 09:52:32.514680   644 net.cpp:90] Creating Layer 3_ip1
I0130 09:52:32.514684   644 net.cpp:410] 3_ip1 <- 3_pool3
I0130 09:52:32.514689   644 net.cpp:368] 3_ip1 -> 3_ip1
I0130 09:52:32.514694   644 net.cpp:120] Setting up 3_ip1
I0130 09:52:32.516165   644 net.cpp:127] Top shape: 100 64 (6400)
I0130 09:52:32.516170   644 layer_factory.hpp:74] Creating layer 3_ip2
I0130 09:52:32.516177   644 net.cpp:90] Creating Layer 3_ip2
I0130 09:52:32.516181   644 net.cpp:410] 3_ip2 <- 3_ip1
I0130 09:52:32.516186   644 net.cpp:368] 3_ip2 -> 3_ip2
I0130 09:52:32.516192   644 net.cpp:120] Setting up 3_ip2
I0130 09:52:32.516225   644 net.cpp:127] Top shape: 100 10 (1000)
I0130 09:52:32.516232   644 layer_factory.hpp:74] Creating layer 3_prob
I0130 09:52:32.516237   644 net.cpp:90] Creating Layer 3_prob
I0130 09:52:32.516240   644 net.cpp:410] 3_prob <- 3_ip2
I0130 09:52:32.516247   644 net.cpp:368] 3_prob -> 3_prob
I0130 09:52:32.516252   644 net.cpp:120] Setting up 3_prob
I0130 09:52:32.516259   644 net.cpp:127] Top shape: 100 10 (1000)
I0130 09:52:32.516263   644 layer_factory.hpp:74] Creating layer 3_prob_3_prob_0_split
I0130 09:52:32.516268   644 net.cpp:90] Creating Layer 3_prob_3_prob_0_split
I0130 09:52:32.516270   644 net.cpp:410] 3_prob_3_prob_0_split <- 3_prob
I0130 09:52:32.516276   644 net.cpp:368] 3_prob_3_prob_0_split -> 3_prob_3_prob_0_split_0
I0130 09:52:32.516283   644 net.cpp:368] 3_prob_3_prob_0_split -> 3_prob_3_prob_0_split_1
I0130 09:52:32.516288   644 net.cpp:120] Setting up 3_prob_3_prob_0_split
I0130 09:52:32.516293   644 net.cpp:127] Top shape: 100 10 (1000)
I0130 09:52:32.516297   644 net.cpp:127] Top shape: 100 10 (1000)
I0130 09:52:32.516300   644 layer_factory.hpp:74] Creating layer 4_conv1
I0130 09:52:32.516305   644 net.cpp:90] Creating Layer 4_conv1
I0130 09:52:32.516309   644 net.cpp:410] 4_conv1 <- data_cifar_0_split_3
I0130 09:52:32.516316   644 net.cpp:368] 4_conv1 -> 4_conv1
I0130 09:52:32.516322   644 net.cpp:120] Setting up 4_conv1
I0130 09:52:32.516389   644 net.cpp:127] Top shape: 100 32 32 32 (3276800)
I0130 09:52:32.516396   644 layer_factory.hpp:74] Creating layer 4_pool1
I0130 09:52:32.516402   644 net.cpp:90] Creating Layer 4_pool1
I0130 09:52:32.516405   644 net.cpp:410] 4_pool1 <- 4_conv1
I0130 09:52:32.516410   644 net.cpp:368] 4_pool1 -> 4_pool1
I0130 09:52:32.516415   644 net.cpp:120] Setting up 4_pool1
I0130 09:52:32.516422   644 net.cpp:127] Top shape: 100 32 16 16 (819200)
I0130 09:52:32.516425   644 layer_factory.hpp:74] Creating layer 4_relu1
I0130 09:52:32.516429   644 net.cpp:90] Creating Layer 4_relu1
I0130 09:52:32.516433   644 net.cpp:410] 4_relu1 <- 4_pool1
I0130 09:52:32.516438   644 net.cpp:357] 4_relu1 -> 4_pool1 (in-place)
I0130 09:52:32.516441   644 net.cpp:120] Setting up 4_relu1
I0130 09:52:32.516446   644 net.cpp:127] Top shape: 100 32 16 16 (819200)
I0130 09:52:32.516450   644 layer_factory.hpp:74] Creating layer 4_conv2
I0130 09:52:32.516455   644 net.cpp:90] Creating Layer 4_conv2
I0130 09:52:32.516458   644 net.cpp:410] 4_conv2 <- 4_pool1
I0130 09:52:32.516465   644 net.cpp:368] 4_conv2 -> 4_conv2
I0130 09:52:32.516470   644 net.cpp:120] Setting up 4_conv2
I0130 09:52:32.517051   644 net.cpp:127] Top shape: 100 32 16 16 (819200)
I0130 09:52:32.517060   644 layer_factory.hpp:74] Creating layer 4_relu2
I0130 09:52:32.517066   644 net.cpp:90] Creating Layer 4_relu2
I0130 09:52:32.517071   644 net.cpp:410] 4_relu2 <- 4_conv2
I0130 09:52:32.517076   644 net.cpp:357] 4_relu2 -> 4_conv2 (in-place)
I0130 09:52:32.517081   644 net.cpp:120] Setting up 4_relu2
I0130 09:52:32.517086   644 net.cpp:127] Top shape: 100 32 16 16 (819200)
I0130 09:52:32.517088   644 layer_factory.hpp:74] Creating layer 4_pool2
I0130 09:52:32.517094   644 net.cpp:90] Creating Layer 4_pool2
I0130 09:52:32.517097   644 net.cpp:410] 4_pool2 <- 4_conv2
I0130 09:52:32.517102   644 net.cpp:368] 4_pool2 -> 4_pool2
I0130 09:52:32.517107   644 net.cpp:120] Setting up 4_pool2
I0130 09:52:32.517113   644 net.cpp:127] Top shape: 100 32 8 8 (204800)
I0130 09:52:32.517117   644 layer_factory.hpp:74] Creating layer 4_conv3
I0130 09:52:32.517129   644 net.cpp:90] Creating Layer 4_conv3
I0130 09:52:32.517134   644 net.cpp:410] 4_conv3 <- 4_pool2
I0130 09:52:32.517141   644 net.cpp:368] 4_conv3 -> 4_conv3
I0130 09:52:32.517148   644 net.cpp:120] Setting up 4_conv3
I0130 09:52:32.518298   644 net.cpp:127] Top shape: 100 64 8 8 (409600)
I0130 09:52:32.518306   644 layer_factory.hpp:74] Creating layer 4_relu3
I0130 09:52:32.518309   644 net.cpp:90] Creating Layer 4_relu3
I0130 09:52:32.518312   644 net.cpp:410] 4_relu3 <- 4_conv3
I0130 09:52:32.518317   644 net.cpp:357] 4_relu3 -> 4_conv3 (in-place)
I0130 09:52:32.518329   644 net.cpp:120] Setting up 4_relu3
I0130 09:52:32.518335   644 net.cpp:127] Top shape: 100 64 8 8 (409600)
I0130 09:52:32.518338   644 layer_factory.hpp:74] Creating layer 4_pool3
I0130 09:52:32.518344   644 net.cpp:90] Creating Layer 4_pool3
I0130 09:52:32.518348   644 net.cpp:410] 4_pool3 <- 4_conv3
I0130 09:52:32.518353   644 net.cpp:368] 4_pool3 -> 4_pool3
I0130 09:52:32.518358   644 net.cpp:120] Setting up 4_pool3
I0130 09:52:32.518364   644 net.cpp:127] Top shape: 100 64 4 4 (102400)
I0130 09:52:32.518368   644 layer_factory.hpp:74] Creating layer 4_ip1
I0130 09:52:32.518374   644 net.cpp:90] Creating Layer 4_ip1
I0130 09:52:32.518378   644 net.cpp:410] 4_ip1 <- 4_pool3
I0130 09:52:32.518383   644 net.cpp:368] 4_ip1 -> 4_ip1
I0130 09:52:32.518388   644 net.cpp:120] Setting up 4_ip1
I0130 09:52:32.519857   644 net.cpp:127] Top shape: 100 64 (6400)
I0130 09:52:32.519865   644 layer_factory.hpp:74] Creating layer 4_ip2
I0130 09:52:32.519870   644 net.cpp:90] Creating Layer 4_ip2
I0130 09:52:32.519875   644 net.cpp:410] 4_ip2 <- 4_ip1
I0130 09:52:32.519881   644 net.cpp:368] 4_ip2 -> 4_ip2
I0130 09:52:32.519886   644 net.cpp:120] Setting up 4_ip2
I0130 09:52:32.519912   644 net.cpp:127] Top shape: 100 10 (1000)
I0130 09:52:32.519918   644 layer_factory.hpp:74] Creating layer 4_prob
I0130 09:52:32.519923   644 net.cpp:90] Creating Layer 4_prob
I0130 09:52:32.519927   644 net.cpp:410] 4_prob <- 4_ip2
I0130 09:52:32.519932   644 net.cpp:368] 4_prob -> 4_prob
I0130 09:52:32.519937   644 net.cpp:120] Setting up 4_prob
I0130 09:52:32.519943   644 net.cpp:127] Top shape: 100 10 (1000)
I0130 09:52:32.519946   644 layer_factory.hpp:74] Creating layer 4_prob_4_prob_0_split
I0130 09:52:32.519953   644 net.cpp:90] Creating Layer 4_prob_4_prob_0_split
I0130 09:52:32.519956   644 net.cpp:410] 4_prob_4_prob_0_split <- 4_prob
I0130 09:52:32.519961   644 net.cpp:368] 4_prob_4_prob_0_split -> 4_prob_4_prob_0_split_0
I0130 09:52:32.519966   644 net.cpp:368] 4_prob_4_prob_0_split -> 4_prob_4_prob_0_split_1
I0130 09:52:32.519973   644 net.cpp:120] Setting up 4_prob_4_prob_0_split
I0130 09:52:32.519979   644 net.cpp:127] Top shape: 100 10 (1000)
I0130 09:52:32.519984   644 net.cpp:127] Top shape: 100 10 (1000)
I0130 09:52:32.519986   644 layer_factory.hpp:74] Creating layer 5_conv1
I0130 09:52:32.519992   644 net.cpp:90] Creating Layer 5_conv1
I0130 09:52:32.519995   644 net.cpp:410] 5_conv1 <- data_cifar_0_split_4
I0130 09:52:32.520002   644 net.cpp:368] 5_conv1 -> 5_conv1
I0130 09:52:32.520009   644 net.cpp:120] Setting up 5_conv1
I0130 09:52:32.520076   644 net.cpp:127] Top shape: 100 32 32 32 (3276800)
I0130 09:52:32.520082   644 layer_factory.hpp:74] Creating layer 5_pool1
I0130 09:52:32.520087   644 net.cpp:90] Creating Layer 5_pool1
I0130 09:52:32.520092   644 net.cpp:410] 5_pool1 <- 5_conv1
I0130 09:52:32.520097   644 net.cpp:368] 5_pool1 -> 5_pool1
I0130 09:52:32.520102   644 net.cpp:120] Setting up 5_pool1
I0130 09:52:32.520109   644 net.cpp:127] Top shape: 100 32 16 16 (819200)
I0130 09:52:32.520112   644 layer_factory.hpp:74] Creating layer 5_relu1
I0130 09:52:32.520117   644 net.cpp:90] Creating Layer 5_relu1
I0130 09:52:32.520120   644 net.cpp:410] 5_relu1 <- 5_pool1
I0130 09:52:32.520126   644 net.cpp:357] 5_relu1 -> 5_pool1 (in-place)
I0130 09:52:32.520131   644 net.cpp:120] Setting up 5_relu1
I0130 09:52:32.520136   644 net.cpp:127] Top shape: 100 32 16 16 (819200)
I0130 09:52:32.520139   644 layer_factory.hpp:74] Creating layer 5_conv2
I0130 09:52:32.520145   644 net.cpp:90] Creating Layer 5_conv2
I0130 09:52:32.520148   644 net.cpp:410] 5_conv2 <- 5_pool1
I0130 09:52:32.520153   644 net.cpp:368] 5_conv2 -> 5_conv2
I0130 09:52:32.520159   644 net.cpp:120] Setting up 5_conv2
I0130 09:52:32.520740   644 net.cpp:127] Top shape: 100 32 16 16 (819200)
I0130 09:52:32.520746   644 layer_factory.hpp:74] Creating layer 5_relu2
I0130 09:52:32.520751   644 net.cpp:90] Creating Layer 5_relu2
I0130 09:52:32.520756   644 net.cpp:410] 5_relu2 <- 5_conv2
I0130 09:52:32.520759   644 net.cpp:357] 5_relu2 -> 5_conv2 (in-place)
I0130 09:52:32.520771   644 net.cpp:120] Setting up 5_relu2
I0130 09:52:32.520776   644 net.cpp:127] Top shape: 100 32 16 16 (819200)
I0130 09:52:32.520781   644 layer_factory.hpp:74] Creating layer 5_pool2
I0130 09:52:32.520786   644 net.cpp:90] Creating Layer 5_pool2
I0130 09:52:32.520788   644 net.cpp:410] 5_pool2 <- 5_conv2
I0130 09:52:32.520795   644 net.cpp:368] 5_pool2 -> 5_pool2
I0130 09:52:32.520800   644 net.cpp:120] Setting up 5_pool2
I0130 09:52:32.520807   644 net.cpp:127] Top shape: 100 32 8 8 (204800)
I0130 09:52:32.520812   644 layer_factory.hpp:74] Creating layer 5_conv3
I0130 09:52:32.520818   644 net.cpp:90] Creating Layer 5_conv3
I0130 09:52:32.520824   644 net.cpp:410] 5_conv3 <- 5_pool2
I0130 09:52:32.520830   644 net.cpp:368] 5_conv3 -> 5_conv3
I0130 09:52:32.520835   644 net.cpp:120] Setting up 5_conv3
I0130 09:52:32.521987   644 net.cpp:127] Top shape: 100 64 8 8 (409600)
I0130 09:52:32.521996   644 layer_factory.hpp:74] Creating layer 5_relu3
I0130 09:52:32.522001   644 net.cpp:90] Creating Layer 5_relu3
I0130 09:52:32.522004   644 net.cpp:410] 5_relu3 <- 5_conv3
I0130 09:52:32.522008   644 net.cpp:357] 5_relu3 -> 5_conv3 (in-place)
I0130 09:52:32.522013   644 net.cpp:120] Setting up 5_relu3
I0130 09:52:32.522018   644 net.cpp:127] Top shape: 100 64 8 8 (409600)
I0130 09:52:32.522022   644 layer_factory.hpp:74] Creating layer 5_pool3
I0130 09:52:32.522027   644 net.cpp:90] Creating Layer 5_pool3
I0130 09:52:32.522030   644 net.cpp:410] 5_pool3 <- 5_conv3
I0130 09:52:32.522035   644 net.cpp:368] 5_pool3 -> 5_pool3
I0130 09:52:32.522040   644 net.cpp:120] Setting up 5_pool3
I0130 09:52:32.522047   644 net.cpp:127] Top shape: 100 64 4 4 (102400)
I0130 09:52:32.522050   644 layer_factory.hpp:74] Creating layer 5_ip1
I0130 09:52:32.522061   644 net.cpp:90] Creating Layer 5_ip1
I0130 09:52:32.522065   644 net.cpp:410] 5_ip1 <- 5_pool3
I0130 09:52:32.522071   644 net.cpp:368] 5_ip1 -> 5_ip1
I0130 09:52:32.522078   644 net.cpp:120] Setting up 5_ip1
I0130 09:52:32.523543   644 net.cpp:127] Top shape: 100 64 (6400)
I0130 09:52:32.523551   644 layer_factory.hpp:74] Creating layer 5_ip2
I0130 09:52:32.523560   644 net.cpp:90] Creating Layer 5_ip2
I0130 09:52:32.523563   644 net.cpp:410] 5_ip2 <- 5_ip1
I0130 09:52:32.523571   644 net.cpp:368] 5_ip2 -> 5_ip2
I0130 09:52:32.523579   644 net.cpp:120] Setting up 5_ip2
I0130 09:52:32.523607   644 net.cpp:127] Top shape: 100 10 (1000)
I0130 09:52:32.523613   644 layer_factory.hpp:74] Creating layer 5_prob
I0130 09:52:32.523619   644 net.cpp:90] Creating Layer 5_prob
I0130 09:52:32.523623   644 net.cpp:410] 5_prob <- 5_ip2
I0130 09:52:32.523628   644 net.cpp:368] 5_prob -> 5_prob
I0130 09:52:32.523633   644 net.cpp:120] Setting up 5_prob
I0130 09:52:32.523639   644 net.cpp:127] Top shape: 100 10 (1000)
I0130 09:52:32.523643   644 layer_factory.hpp:74] Creating layer 5_prob_5_prob_0_split
I0130 09:52:32.523648   644 net.cpp:90] Creating Layer 5_prob_5_prob_0_split
I0130 09:52:32.523653   644 net.cpp:410] 5_prob_5_prob_0_split <- 5_prob
I0130 09:52:32.523656   644 net.cpp:368] 5_prob_5_prob_0_split -> 5_prob_5_prob_0_split_0
I0130 09:52:32.523663   644 net.cpp:368] 5_prob_5_prob_0_split -> 5_prob_5_prob_0_split_1
I0130 09:52:32.523668   644 net.cpp:120] Setting up 5_prob_5_prob_0_split
I0130 09:52:32.523672   644 net.cpp:127] Top shape: 100 10 (1000)
I0130 09:52:32.523677   644 net.cpp:127] Top shape: 100 10 (1000)
I0130 09:52:32.523680   644 layer_factory.hpp:74] Creating layer 1_accuracy
I0130 09:52:32.523686   644 net.cpp:90] Creating Layer 1_accuracy
I0130 09:52:32.523689   644 net.cpp:410] 1_accuracy <- 1_prob_1_prob_0_split_0
I0130 09:52:32.523695   644 net.cpp:410] 1_accuracy <- label_cifar_1_split_0
I0130 09:52:32.523701   644 net.cpp:368] 1_accuracy -> 1_accuracy
I0130 09:52:32.523706   644 net.cpp:120] Setting up 1_accuracy
…
