…
I0126 15:26:31.198549 32468 net.cpp:287] The NetState phase (0) differed from the phase (1) specified by a rule in layer accuracy
I0126 15:26:31.198683 32468 net.cpp:42] Initializing net from parameters: 
name: "CIFAR10_quick"
state {
  phase: TRAIN
}
layer {
  name: "cifar"
  type: "Data"
  top: "data"
  top: "label"
  include {
    phase: TRAIN
  }
  transform_param {
    mean_file: "/home/mike/ml_lab/mod/MCL_Caffe/examples/cifar10/mean.binaryproto"
  }
  data_param {
    source: "/home/mike/ml_lab/mod/MCL_Caffe/examples/cifar10/cifar10_train_lmdb"
    batch_size: 350
    backend: LMDB
  }
}
layer {
  name: "1_conv1"
  type: "Convolution"
  bottom: "data"
  top: "1_conv1"
  param {
    lr_mult: 1
  }
  param {
    lr_mult: 2
  }
  convolution_param {
    num_output: 32
    pad: 2
    kernel_size: 5
    stride: 1
    weight_filler {
      type: "gaussian"
      std: 0.0001
    }
    bias_filler {
      type: "constant"
    }
  }
}
layer {
  name: "1_pool1"
  type: "Pooling"
  bottom: "1_conv1"
  top: "1_pool1"
  pooling_param {
    pool: MAX
    kernel_size: 3
    stride: 2
  }
}
layer {
  name: "1_relu1"
  type: "ReLU"
  bottom: "1_pool1"
  top: "1_pool1"
}
layer {
  name: "1_conv2"
  type: "Convolution"
  bottom: "1_pool1"
  top: "1_conv2"
  param {
    lr_mult: 1
  }
  param {
    lr_mult: 2
  }
  convolution_param {
    num_output: 32
    pad: 2
    kernel_size: 5
    stride: 1
    weight_filler {
      type: "gaussian"
      std: 0.01
    }
    bias_filler {
      type: "constant"
    }
  }
}
layer {
  name: "1_relu2"
  type: "ReLU"
  bottom: "1_conv2"
  top: "1_conv2"
}
layer {
  name: "1_pool2"
  type: "Pooling"
  bottom: "1_conv2"
  top: "1_pool2"
  pooling_param {
    pool: AVE
    kernel_size: 3
    stride: 2
  }
}
layer {
  name: "1_conv3"
  type: "Convolution"
  bottom: "1_pool2"
  top: "1_conv3"
  param {
    lr_mult: 1
  }
  param {
    lr_mult: 2
  }
  convolution_param {
    num_output: 64
    pad: 2
    kernel_size: 5
    stride: 1
    weight_filler {
      type: "gaussian"
      std: 0.01
    }
    bias_filler {
      type: "constant"
    }
  }
}
layer {
  name: "1_relu3"
  type: "ReLU"
  bottom: "1_conv3"
  top: "1_conv3"
}
layer {
  name: "1_pool3"
  type: "Pooling"
  bottom: "1_conv3"
  top: "1_pool3"
  pooling_param {
    pool: AVE
    kernel_size: 3
    stride: 2
  }
}
layer {
  name: "1_ip1"
  type: "InnerProduct"
  bottom: "1_pool3"
  top: "1_ip1"
  param {
    lr_mult: 1
  }
  param {
    lr_mult: 2
  }
  inner_product_param {
    num_output: 64
    weight_filler {
      type: "gaussian"
      std: 0.1
    }
    bias_filler {
      type: "constant"
    }
  }
}
layer {
  name: "1_ip2"
  type: "InnerProduct"
  bottom: "1_ip1"
  top: "1_ip2"
  param {
    lr_mult: 1
  }
  param {
    lr_mult: 2
  }
  inner_product_param {
    num_output: 10
    weight_filler {
      type: "gaussian"
      std: 0.1
    }
    bias_filler {
      type: "constant"
    }
  }
}
layer {
  name: "1_prob"
  type: "Softmax"
  bottom: "1_ip2"
  top: "1_prob"
}
layer {
  name: "2_conv1"
  type: "Convolution"
  bottom: "data"
  top: "2_conv1"
  param {
    lr_mult: 1
  }
  param {
    lr_mult: 2
  }
  convolution_param {
    num_output: 32
    pad: 2
    kernel_size: 5
    stride: 1
    weight_filler {
      type: "gaussian"
      std: 0.0001
    }
    bias_filler {
      type: "constant"
    }
  }
}
layer {
  name: "2_pool1"
  type: "Pooling"
  bottom: "2_conv1"
  top: "2_pool1"
  pooling_param {
    pool: MAX
    kernel_size: 3
    stride: 2
  }
}
layer {
  name: "2_relu1"
  type: "ReLU"
  bottom: "2_pool1"
  top: "2_pool1"
}
layer {
  name: "2_conv2"
  type: "Convolution"
  bottom: "2_pool1"
  top: "2_conv2"
  param {
    lr_mult: 1
  }
  param {
    lr_mult: 2
  }
  convolution_param {
    num_output: 32
    pad: 2
    kernel_size: 5
    stride: 1
    weight_filler {
      type: "gaussian"
      std: 0.01
    }
    bias_filler {
      type: "constant"
    }
  }
}
layer {
  name: "2_relu2"
  type: "ReLU"
  bottom: "2_conv2"
  top: "2_conv2"
}
layer {
  name: "2_pool2"
  type: "Pooling"
  bottom: "2_conv2"
  top: "2_pool2"
  pooling_param {
    pool: AVE
    kernel_size: 3
    stride: 2
  }
}
layer {
  name: "2_conv3"
  type: "Convolution"
  bottom: "2_pool2"
  top: "2_conv3"
  param {
    lr_mult: 1
  }
  param {
    lr_mult: 2
  }
  convolution_param {
    num_output: 64
    pad: 2
    kernel_size: 5
    stride: 1
    weight_filler {
      type: "gaussian"
      std: 0.01
    }
    bias_filler {
      type: "constant"
    }
  }
}
layer {
  name: "2_relu3"
  type: "ReLU"
  bottom: "2_conv3"
  top: "2_conv3"
}
layer {
  name: "2_pool3"
  type: "Pooling"
  bottom: "2_conv3"
  top: "2_pool3"
  pooling_param {
    pool: AVE
    kernel_size: 3
    stride: 2
  }
}
layer {
  name: "2_ip1"
  type: "InnerProduct"
  bottom: "2_pool3"
  top: "2_ip1"
  param {
    lr_mult: 1
  }
  param {
    lr_mult: 2
  }
  inner_product_param {
    num_output: 64
    weight_filler {
      type: "gaussian"
      std: 0.1
    }
    bias_filler {
      type: "constant"
    }
  }
}
layer {
  name: "2_ip2"
  type: "InnerProduct"
  bottom: "2_ip1"
  top: "2_ip2"
  param {
    lr_mult: 1
  }
  param {
    lr_mult: 2
  }
  inner_product_param {
    num_output: 10
    weight_filler {
      type: "gaussian"
      std: 0.1
    }
    bias_filler {
      type: "constant"
    }
  }
}
layer {
  name: "2_prob"
  type: "Softmax"
  bottom: "2_ip2"
  top: "2_prob"
}
layer {
  name: "3_conv1"
  type: "Convolution"
  bottom: "data"
  top: "3_conv1"
  param {
    lr_mult: 1
  }
  param {
    lr_mult: 2
  }
  convolution_param {
    num_output: 32
    pad: 2
    kernel_size: 5
    stride: 1
    weight_filler {
      type: "gaussian"
      std: 0.0001
    }
    bias_filler {
      type: "constant"
    }
  }
}
layer {
  name: "3_pool1"
  type: "Pooling"
  bottom: "3_conv1"
  top: "3_pool1"
  pooling_param {
    pool: MAX
    kernel_size: 3
    stride: 2
  }
}
layer {
  name: "3_relu1"
  type: "ReLU"
  bottom: "3_pool1"
  top: "3_pool1"
}
layer {
  name: "3_conv2"
  type: "Convolution"
  bottom: "3_pool1"
  top: "3_conv2"
  param {
    lr_mult: 1
  }
  param {
    lr_mult: 2
  }
  convolution_param {
    num_output: 32
    pad: 2
    kernel_size: 5
    stride: 1
    weight_filler {
      type: "gaussian"
      std: 0.01
    }
    bias_filler {
      type: "constant"
    }
  }
}
layer {
  name: "3_relu2"
  type: "ReLU"
  bottom: "3_conv2"
  top: "3_conv2"
}
layer {
  name: "3_pool2"
  type: "Pooling"
  bottom: "3_conv2"
  top: "3_pool2"
  pooling_param {
    pool: AVE
    kernel_size: 3
    stride: 2
  }
}
layer {
  name: "3_conv3"
  type: "Convolution"
  bottom: "3_pool2"
  top: "3_conv3"
  param {
    lr_mult: 1
  }
  param {
    lr_mult: 2
  }
  convolution_param {
    num_output: 64
    pad: 2
    kernel_size: 5
    stride: 1
    weight_filler {
      type: "gaussian"
      std: 0.01
    }
    bias_filler {
      type: "constant"
    }
  }
}
layer {
  name: "3_relu3"
  type: "ReLU"
  bottom: "3_conv3"
  top: "3_conv3"
}
layer {
  name: "3_pool3"
  type: "Pooling"
  bottom: "3_conv3"
  top: "3_pool3"
  pooling_param {
    pool: AVE
    kernel_size: 3
    stride: 2
  }
}
layer {
  name: "3_ip1"
  type: "InnerProduct"
  bottom: "3_pool3"
  top: "3_ip1"
  param {
    lr_mult: 1
  }
  param {
    lr_mult: 2
  }
  inner_product_param {
    num_output: 64
    weight_filler {
      type: "gaussian"
      std: 0.1
    }
    bias_filler {
      type: "constant"
    }
  }
}
layer {
  name: "3_ip2"
  type: "InnerProduct"
  bottom: "3_ip1"
  top: "3_ip2"
  param {
    lr_mult: 1
  }
  param {
    lr_mult: 2
  }
  inner_product_param {
    num_output: 10
    weight_filler {
      type: "gaussian"
      std: 0.1
    }
    bias_filler {
      type: "constant"
    }
  }
}
layer {
  name: "3_prob"
  type: "Softmax"
  bottom: "3_ip2"
  top: "3_prob"
}
layer {
  name: "loss"
  type: "ODMultinomialLogisticLoss"
  bottom: "1_prob"
  bottom: "2_prob"
  bottom: "3_prob"
  bottom: "label"
  top: "multiple-output loss"
  top: "batch-instance-counts"
  top: "train-instance-counts"
  loss_weight: 1
  loss_weight: 0
  loss_weight: 0
  include {
    phase: TRAIN
  }
}
I0126 15:26:31.198820 32468 layer_factory.hpp:74] Creating layer cifar
I0126 15:26:31.198835 32468 net.cpp:90] Creating Layer cifar
I0126 15:26:31.198842 32468 net.cpp:368] cifar -> data
I0126 15:26:31.198858 32468 net.cpp:368] cifar -> label
I0126 15:26:31.198866 32468 net.cpp:120] Setting up cifar
I0126 15:26:31.198916 32468 db.cpp:34] Opened lmdb /home/mike/ml_lab/mod/MCL_Caffe/examples/cifar10/cifar10_train_lmdb
I0126 15:26:31.198951 32468 data_layer.cpp:67] output data size: 350,3,32,32
I0126 15:26:31.198959 32468 data_transformer.cpp:22] Loading mean file from: /home/mike/ml_lab/mod/MCL_Caffe/examples/cifar10/mean.binaryproto
I0126 15:26:31.199615 32468 net.cpp:127] Top shape: 350 3 32 32 (1075200)
I0126 15:26:31.199622 32468 net.cpp:127] Top shape: 350 (350)
I0126 15:26:31.199625 32468 layer_factory.hpp:74] Creating layer data_cifar_0_split
I0126 15:26:31.199632 32468 net.cpp:90] Creating Layer data_cifar_0_split
I0126 15:26:31.199636 32468 net.cpp:410] data_cifar_0_split <- data
I0126 15:26:31.199652 32468 net.cpp:368] data_cifar_0_split -> data_cifar_0_split_0
I0126 15:26:31.199658 32468 net.cpp:368] data_cifar_0_split -> data_cifar_0_split_1
I0126 15:26:31.199662 32468 net.cpp:368] data_cifar_0_split -> data_cifar_0_split_2
I0126 15:26:31.199666 32468 net.cpp:120] Setting up data_cifar_0_split
I0126 15:26:31.199671 32468 net.cpp:127] Top shape: 350 3 32 32 (1075200)
I0126 15:26:31.199673 32468 net.cpp:127] Top shape: 350 3 32 32 (1075200)
I0126 15:26:31.199676 32468 net.cpp:127] Top shape: 350 3 32 32 (1075200)
I0126 15:26:31.199678 32468 layer_factory.hpp:74] Creating layer 1_conv1
I0126 15:26:31.199687 32468 net.cpp:90] Creating Layer 1_conv1
I0126 15:26:31.199688 32468 net.cpp:410] 1_conv1 <- data_cifar_0_split_0
I0126 15:26:31.199692 32468 net.cpp:368] 1_conv1 -> 1_conv1
I0126 15:26:31.199699 32468 net.cpp:120] Setting up 1_conv1
I0126 15:26:31.200098 32468 net.cpp:127] Top shape: 350 32 32 32 (11468800)
I0126 15:26:31.200108 32468 layer_factory.hpp:74] Creating layer 1_pool1
I0126 15:26:31.200111 32468 net.cpp:90] Creating Layer 1_pool1
I0126 15:26:31.200114 32468 net.cpp:410] 1_pool1 <- 1_conv1
I0126 15:26:31.200116 32468 net.cpp:368] 1_pool1 -> 1_pool1
I0126 15:26:31.200121 32468 net.cpp:120] Setting up 1_pool1
I0126 15:26:31.200131 32468 net.cpp:127] Top shape: 350 32 16 16 (2867200)
I0126 15:26:31.200134 32468 layer_factory.hpp:74] Creating layer 1_relu1
I0126 15:26:31.200139 32468 net.cpp:90] Creating Layer 1_relu1
I0126 15:26:31.200140 32468 net.cpp:410] 1_relu1 <- 1_pool1
I0126 15:26:31.200145 32468 net.cpp:357] 1_relu1 -> 1_pool1 (in-place)
I0126 15:26:31.200147 32468 net.cpp:120] Setting up 1_relu1
I0126 15:26:31.200152 32468 net.cpp:127] Top shape: 350 32 16 16 (2867200)
I0126 15:26:31.200155 32468 layer_factory.hpp:74] Creating layer 1_conv2
I0126 15:26:31.200160 32468 net.cpp:90] Creating Layer 1_conv2
I0126 15:26:31.200170 32468 net.cpp:410] 1_conv2 <- 1_pool1
I0126 15:26:31.200175 32468 net.cpp:368] 1_conv2 -> 1_conv2
I0126 15:26:31.200178 32468 net.cpp:120] Setting up 1_conv2
I0126 15:26:31.200778 32468 net.cpp:127] Top shape: 350 32 16 16 (2867200)
I0126 15:26:31.200784 32468 layer_factory.hpp:74] Creating layer 1_relu2
I0126 15:26:31.200788 32468 net.cpp:90] Creating Layer 1_relu2
I0126 15:26:31.200789 32468 net.cpp:410] 1_relu2 <- 1_conv2
I0126 15:26:31.200793 32468 net.cpp:357] 1_relu2 -> 1_conv2 (in-place)
I0126 15:26:31.200795 32468 net.cpp:120] Setting up 1_relu2
I0126 15:26:31.200798 32468 net.cpp:127] Top shape: 350 32 16 16 (2867200)
I0126 15:26:31.200800 32468 layer_factory.hpp:74] Creating layer 1_pool2
I0126 15:26:31.200803 32468 net.cpp:90] Creating Layer 1_pool2
I0126 15:26:31.200804 32468 net.cpp:410] 1_pool2 <- 1_conv2
I0126 15:26:31.200808 32468 net.cpp:368] 1_pool2 -> 1_pool2
I0126 15:26:31.200814 32468 net.cpp:120] Setting up 1_pool2
I0126 15:26:31.200817 32468 net.cpp:127] Top shape: 350 32 8 8 (716800)
I0126 15:26:31.200819 32468 layer_factory.hpp:74] Creating layer 1_conv3
I0126 15:26:31.200822 32468 net.cpp:90] Creating Layer 1_conv3
I0126 15:26:31.200824 32468 net.cpp:410] 1_conv3 <- 1_pool2
I0126 15:26:31.200829 32468 net.cpp:368] 1_conv3 -> 1_conv3
I0126 15:26:31.200832 32468 net.cpp:120] Setting up 1_conv3
I0126 15:26:31.201987 32468 net.cpp:127] Top shape: 350 64 8 8 (1433600)
I0126 15:26:31.201994 32468 layer_factory.hpp:74] Creating layer 1_relu3
I0126 15:26:31.201997 32468 net.cpp:90] Creating Layer 1_relu3
I0126 15:26:31.201999 32468 net.cpp:410] 1_relu3 <- 1_conv3
I0126 15:26:31.202003 32468 net.cpp:357] 1_relu3 -> 1_conv3 (in-place)
I0126 15:26:31.202004 32468 net.cpp:120] Setting up 1_relu3
I0126 15:26:31.202008 32468 net.cpp:127] Top shape: 350 64 8 8 (1433600)
I0126 15:26:31.202009 32468 layer_factory.hpp:74] Creating layer 1_pool3
I0126 15:26:31.202013 32468 net.cpp:90] Creating Layer 1_pool3
I0126 15:26:31.202014 32468 net.cpp:410] 1_pool3 <- 1_conv3
I0126 15:26:31.202018 32468 net.cpp:368] 1_pool3 -> 1_pool3
I0126 15:26:31.202023 32468 net.cpp:120] Setting up 1_pool3
I0126 15:26:31.202029 32468 net.cpp:127] Top shape: 350 64 4 4 (358400)
I0126 15:26:31.202033 32468 layer_factory.hpp:74] Creating layer 1_ip1
I0126 15:26:31.202039 32468 net.cpp:90] Creating Layer 1_ip1
I0126 15:26:31.202041 32468 net.cpp:410] 1_ip1 <- 1_pool3
I0126 15:26:31.202049 32468 net.cpp:368] 1_ip1 -> 1_ip1
I0126 15:26:31.202055 32468 net.cpp:120] Setting up 1_ip1
I0126 15:26:31.203567 32468 net.cpp:127] Top shape: 350 64 (22400)
I0126 15:26:31.203574 32468 layer_factory.hpp:74] Creating layer 1_ip2
I0126 15:26:31.203580 32468 net.cpp:90] Creating Layer 1_ip2
I0126 15:26:31.203583 32468 net.cpp:410] 1_ip2 <- 1_ip1
I0126 15:26:31.203590 32468 net.cpp:368] 1_ip2 -> 1_ip2
I0126 15:26:31.203596 32468 net.cpp:120] Setting up 1_ip2
I0126 15:26:31.203624 32468 net.cpp:127] Top shape: 350 10 (3500)
I0126 15:26:31.203632 32468 layer_factory.hpp:74] Creating layer 1_prob
I0126 15:26:31.203641 32468 net.cpp:90] Creating Layer 1_prob
I0126 15:26:31.203647 32468 net.cpp:410] 1_prob <- 1_ip2
I0126 15:26:31.203652 32468 net.cpp:368] 1_prob -> 1_prob
I0126 15:26:31.203660 32468 net.cpp:120] Setting up 1_prob
I0126 15:26:31.203676 32468 net.cpp:127] Top shape: 350 10 (3500)
I0126 15:26:31.203680 32468 layer_factory.hpp:74] Creating layer 2_conv1
I0126 15:26:31.203687 32468 net.cpp:90] Creating Layer 2_conv1
I0126 15:26:31.203691 32468 net.cpp:410] 2_conv1 <- data_cifar_0_split_1
I0126 15:26:31.203699 32468 net.cpp:368] 2_conv1 -> 2_conv1
I0126 15:26:31.203707 32468 net.cpp:120] Setting up 2_conv1
I0126 15:26:31.203779 32468 net.cpp:127] Top shape: 350 32 32 32 (11468800)
I0126 15:26:31.203785 32468 layer_factory.hpp:74] Creating layer 2_pool1
I0126 15:26:31.203791 32468 net.cpp:90] Creating Layer 2_pool1
I0126 15:26:31.203794 32468 net.cpp:410] 2_pool1 <- 2_conv1
I0126 15:26:31.203801 32468 net.cpp:368] 2_pool1 -> 2_pool1
I0126 15:26:31.203806 32468 net.cpp:120] Setting up 2_pool1
I0126 15:26:31.203814 32468 net.cpp:127] Top shape: 350 32 16 16 (2867200)
I0126 15:26:31.203824 32468 layer_factory.hpp:74] Creating layer 2_relu1
I0126 15:26:31.203830 32468 net.cpp:90] Creating Layer 2_relu1
I0126 15:26:31.203835 32468 net.cpp:410] 2_relu1 <- 2_pool1
I0126 15:26:31.203840 32468 net.cpp:357] 2_relu1 -> 2_pool1 (in-place)
I0126 15:26:31.203845 32468 net.cpp:120] Setting up 2_relu1
I0126 15:26:31.203850 32468 net.cpp:127] Top shape: 350 32 16 16 (2867200)
I0126 15:26:31.203855 32468 layer_factory.hpp:74] Creating layer 2_conv2
I0126 15:26:31.203860 32468 net.cpp:90] Creating Layer 2_conv2
I0126 15:26:31.203863 32468 net.cpp:410] 2_conv2 <- 2_pool1
I0126 15:26:31.203872 32468 net.cpp:368] 2_conv2 -> 2_conv2
I0126 15:26:31.203881 32468 net.cpp:120] Setting up 2_conv2
I0126 15:26:31.204484 32468 net.cpp:127] Top shape: 350 32 16 16 (2867200)
I0126 15:26:31.204493 32468 layer_factory.hpp:74] Creating layer 2_relu2
I0126 15:26:31.204499 32468 net.cpp:90] Creating Layer 2_relu2
I0126 15:26:31.204501 32468 net.cpp:410] 2_relu2 <- 2_conv2
I0126 15:26:31.204507 32468 net.cpp:357] 2_relu2 -> 2_conv2 (in-place)
I0126 15:26:31.204512 32468 net.cpp:120] Setting up 2_relu2
I0126 15:26:31.204519 32468 net.cpp:127] Top shape: 350 32 16 16 (2867200)
I0126 15:26:31.204521 32468 layer_factory.hpp:74] Creating layer 2_pool2
I0126 15:26:31.204526 32468 net.cpp:90] Creating Layer 2_pool2
I0126 15:26:31.204530 32468 net.cpp:410] 2_pool2 <- 2_conv2
I0126 15:26:31.204535 32468 net.cpp:368] 2_pool2 -> 2_pool2
I0126 15:26:31.204540 32468 net.cpp:120] Setting up 2_pool2
I0126 15:26:31.204547 32468 net.cpp:127] Top shape: 350 32 8 8 (716800)
I0126 15:26:31.204551 32468 layer_factory.hpp:74] Creating layer 2_conv3
I0126 15:26:31.204557 32468 net.cpp:90] Creating Layer 2_conv3
I0126 15:26:31.204560 32468 net.cpp:410] 2_conv3 <- 2_pool2
I0126 15:26:31.204566 32468 net.cpp:368] 2_conv3 -> 2_conv3
I0126 15:26:31.204571 32468 net.cpp:120] Setting up 2_conv3
I0126 15:26:31.205744 32468 net.cpp:127] Top shape: 350 64 8 8 (1433600)
I0126 15:26:31.205752 32468 layer_factory.hpp:74] Creating layer 2_relu3
I0126 15:26:31.205760 32468 net.cpp:90] Creating Layer 2_relu3
I0126 15:26:31.205762 32468 net.cpp:410] 2_relu3 <- 2_conv3
I0126 15:26:31.205768 32468 net.cpp:357] 2_relu3 -> 2_conv3 (in-place)
I0126 15:26:31.205773 32468 net.cpp:120] Setting up 2_relu3
I0126 15:26:31.205778 32468 net.cpp:127] Top shape: 350 64 8 8 (1433600)
I0126 15:26:31.205781 32468 layer_factory.hpp:74] Creating layer 2_pool3
I0126 15:26:31.205786 32468 net.cpp:90] Creating Layer 2_pool3
I0126 15:26:31.205790 32468 net.cpp:410] 2_pool3 <- 2_conv3
I0126 15:26:31.205796 32468 net.cpp:368] 2_pool3 -> 2_pool3
I0126 15:26:31.205801 32468 net.cpp:120] Setting up 2_pool3
I0126 15:26:31.205807 32468 net.cpp:127] Top shape: 350 64 4 4 (358400)
I0126 15:26:31.205811 32468 layer_factory.hpp:74] Creating layer 2_ip1
I0126 15:26:31.205818 32468 net.cpp:90] Creating Layer 2_ip1
I0126 15:26:31.205821 32468 net.cpp:410] 2_ip1 <- 2_pool3
I0126 15:26:31.205828 32468 net.cpp:368] 2_ip1 -> 2_ip1
I0126 15:26:31.205834 32468 net.cpp:120] Setting up 2_ip1
I0126 15:26:31.207317 32468 net.cpp:127] Top shape: 350 64 (22400)
I0126 15:26:31.207327 32468 layer_factory.hpp:74] Creating layer 2_ip2
I0126 15:26:31.207336 32468 net.cpp:90] Creating Layer 2_ip2
I0126 15:26:31.207342 32468 net.cpp:410] 2_ip2 <- 2_ip1
I0126 15:26:31.207348 32468 net.cpp:368] 2_ip2 -> 2_ip2
I0126 15:26:31.207355 32468 net.cpp:120] Setting up 2_ip2
I0126 15:26:31.207381 32468 net.cpp:127] Top shape: 350 10 (3500)
I0126 15:26:31.207387 32468 layer_factory.hpp:74] Creating layer 2_prob
I0126 15:26:31.207394 32468 net.cpp:90] Creating Layer 2_prob
I0126 15:26:31.207398 32468 net.cpp:410] 2_prob <- 2_ip2
I0126 15:26:31.207402 32468 net.cpp:368] 2_prob -> 2_prob
I0126 15:26:31.207408 32468 net.cpp:120] Setting up 2_prob
I0126 15:26:31.207417 32468 net.cpp:127] Top shape: 350 10 (3500)
I0126 15:26:31.207422 32468 layer_factory.hpp:74] Creating layer 3_conv1
I0126 15:26:31.207427 32468 net.cpp:90] Creating Layer 3_conv1
I0126 15:26:31.207432 32468 net.cpp:410] 3_conv1 <- data_cifar_0_split_2
I0126 15:26:31.207448 32468 net.cpp:368] 3_conv1 -> 3_conv1
I0126 15:26:31.207456 32468 net.cpp:120] Setting up 3_conv1
I0126 15:26:31.207523 32468 net.cpp:127] Top shape: 350 32 32 32 (11468800)
I0126 15:26:31.207530 32468 layer_factory.hpp:74] Creating layer 3_pool1
I0126 15:26:31.207535 32468 net.cpp:90] Creating Layer 3_pool1
I0126 15:26:31.207540 32468 net.cpp:410] 3_pool1 <- 3_conv1
I0126 15:26:31.207545 32468 net.cpp:368] 3_pool1 -> 3_pool1
I0126 15:26:31.207551 32468 net.cpp:120] Setting up 3_pool1
I0126 15:26:31.207557 32468 net.cpp:127] Top shape: 350 32 16 16 (2867200)
I0126 15:26:31.207562 32468 layer_factory.hpp:74] Creating layer 3_relu1
I0126 15:26:31.207567 32468 net.cpp:90] Creating Layer 3_relu1
I0126 15:26:31.207571 32468 net.cpp:410] 3_relu1 <- 3_pool1
I0126 15:26:31.207576 32468 net.cpp:357] 3_relu1 -> 3_pool1 (in-place)
I0126 15:26:31.207579 32468 net.cpp:120] Setting up 3_relu1
I0126 15:26:31.207584 32468 net.cpp:127] Top shape: 350 32 16 16 (2867200)
I0126 15:26:31.207588 32468 layer_factory.hpp:74] Creating layer 3_conv2
I0126 15:26:31.207594 32468 net.cpp:90] Creating Layer 3_conv2
I0126 15:26:31.207600 32468 net.cpp:410] 3_conv2 <- 3_pool1
I0126 15:26:31.207607 32468 net.cpp:368] 3_conv2 -> 3_conv2
I0126 15:26:31.207612 32468 net.cpp:120] Setting up 3_conv2
I0126 15:26:31.208194 32468 net.cpp:127] Top shape: 350 32 16 16 (2867200)
I0126 15:26:31.208200 32468 layer_factory.hpp:74] Creating layer 3_relu2
I0126 15:26:31.208206 32468 net.cpp:90] Creating Layer 3_relu2
I0126 15:26:31.208209 32468 net.cpp:410] 3_relu2 <- 3_conv2
I0126 15:26:31.208214 32468 net.cpp:357] 3_relu2 -> 3_conv2 (in-place)
I0126 15:26:31.208219 32468 net.cpp:120] Setting up 3_relu2
I0126 15:26:31.208223 32468 net.cpp:127] Top shape: 350 32 16 16 (2867200)
I0126 15:26:31.208226 32468 layer_factory.hpp:74] Creating layer 3_pool2
I0126 15:26:31.208231 32468 net.cpp:90] Creating Layer 3_pool2
I0126 15:26:31.208235 32468 net.cpp:410] 3_pool2 <- 3_conv2
I0126 15:26:31.208241 32468 net.cpp:368] 3_pool2 -> 3_pool2
I0126 15:26:31.208246 32468 net.cpp:120] Setting up 3_pool2
I0126 15:26:31.208252 32468 net.cpp:127] Top shape: 350 32 8 8 (716800)
I0126 15:26:31.208256 32468 layer_factory.hpp:74] Creating layer 3_conv3
I0126 15:26:31.208266 32468 net.cpp:90] Creating Layer 3_conv3
I0126 15:26:31.208271 32468 net.cpp:410] 3_conv3 <- 3_pool2
I0126 15:26:31.208276 32468 net.cpp:368] 3_conv3 -> 3_conv3
I0126 15:26:31.208281 32468 net.cpp:120] Setting up 3_conv3
I0126 15:26:31.209471 32468 net.cpp:127] Top shape: 350 64 8 8 (1433600)
I0126 15:26:31.209480 32468 layer_factory.hpp:74] Creating layer 3_relu3
I0126 15:26:31.209484 32468 net.cpp:90] Creating Layer 3_relu3
I0126 15:26:31.209488 32468 net.cpp:410] 3_relu3 <- 3_conv3
I0126 15:26:31.209494 32468 net.cpp:357] 3_relu3 -> 3_conv3 (in-place)
I0126 15:26:31.209499 32468 net.cpp:120] Setting up 3_relu3
I0126 15:26:31.209504 32468 net.cpp:127] Top shape: 350 64 8 8 (1433600)
I0126 15:26:31.209507 32468 layer_factory.hpp:74] Creating layer 3_pool3
I0126 15:26:31.209512 32468 net.cpp:90] Creating Layer 3_pool3
I0126 15:26:31.209517 32468 net.cpp:410] 3_pool3 <- 3_conv3
I0126 15:26:31.209522 32468 net.cpp:368] 3_pool3 -> 3_pool3
I0126 15:26:31.209527 32468 net.cpp:120] Setting up 3_pool3
I0126 15:26:31.209532 32468 net.cpp:127] Top shape: 350 64 4 4 (358400)
I0126 15:26:31.209535 32468 layer_factory.hpp:74] Creating layer 3_ip1
I0126 15:26:31.209543 32468 net.cpp:90] Creating Layer 3_ip1
I0126 15:26:31.209547 32468 net.cpp:410] 3_ip1 <- 3_pool3
I0126 15:26:31.209553 32468 net.cpp:368] 3_ip1 -> 3_ip1
I0126 15:26:31.209558 32468 net.cpp:120] Setting up 3_ip1
I0126 15:26:31.211040 32468 net.cpp:127] Top shape: 350 64 (22400)
I0126 15:26:31.211047 32468 layer_factory.hpp:74] Creating layer 3_ip2
I0126 15:26:31.211055 32468 net.cpp:90] Creating Layer 3_ip2
I0126 15:26:31.211062 32468 net.cpp:410] 3_ip2 <- 3_ip1
I0126 15:26:31.211069 32468 net.cpp:368] 3_ip2 -> 3_ip2
I0126 15:26:31.211076 32468 net.cpp:120] Setting up 3_ip2
I0126 15:26:31.211104 32468 net.cpp:127] Top shape: 350 10 (3500)
I0126 15:26:31.211117 32468 layer_factory.hpp:74] Creating layer 3_prob
I0126 15:26:31.211122 32468 net.cpp:90] Creating Layer 3_prob
I0126 15:26:31.211127 32468 net.cpp:410] 3_prob <- 3_ip2
I0126 15:26:31.211133 32468 net.cpp:368] 3_prob -> 3_prob
I0126 15:26:31.211138 32468 net.cpp:120] Setting up 3_prob
I0126 15:26:31.211144 32468 net.cpp:127] Top shape: 350 10 (3500)
I0126 15:26:31.211149 32468 layer_factory.hpp:74] Creating layer loss
I0126 15:26:31.211159 32468 net.cpp:90] Creating Layer loss
I0126 15:26:31.211164 32468 net.cpp:410] loss <- 1_prob
I0126 15:26:31.211169 32468 net.cpp:410] loss <- 2_prob
I0126 15:26:31.211172 32468 net.cpp:410] loss <- 3_prob
I0126 15:26:31.211175 32468 net.cpp:410] loss <- label
I0126 15:26:31.211182 32468 net.cpp:368] loss -> multiple-output loss
I0126 15:26:31.211191 32468 net.cpp:368] loss -> batch-instance-counts
I0126 15:26:31.211200 32468 net.cpp:368] loss -> train-instance-counts
I0126 15:26:31.211210 32468 net.cpp:120] Setting up loss
I0126 15:26:31.211222 32468 net.cpp:127] Top shape: 3 1 1 1 (3)
I0126 15:26:31.211225 32468 net.cpp:129]     with loss weight 1
I0126 15:26:31.211243 32468 net.cpp:127] Top shape: 3 1 1 1 (3)
I0126 15:26:31.211248 32468 net.cpp:127] Top shape: 3 1 1 1 (3)
I0126 15:26:31.211252 32468 net.cpp:192] loss needs backward computation.
I0126 15:26:31.211256 32468 net.cpp:192] 3_prob needs backward computation.
I0126 15:26:31.211259 32468 net.cpp:192] 3_ip2 needs backward computation.
I0126 15:26:31.211263 32468 net.cpp:192] 3_ip1 needs backward computation.
I0126 15:26:31.211266 32468 net.cpp:192] 3_pool3 needs backward computation.
I0126 15:26:31.211269 32468 net.cpp:192] 3_relu3 needs backward computation.
…
I0126 15:26:31.212093 32468 net.cpp:287] The NetState phase (1) differed from the phase (0) specified by a rule in layer loss
I0126 15:26:31.212232 32468 net.cpp:42] Initializing net from parameters: 
name: "CIFAR10_quick"
state {
  phase: TEST
}
layer {
  name: "cifar"
  type: "Data"
  top: "data"
  top: "label"
  include {
    phase: TEST
  }
  transform_param {
    mean_file: "/home/mike/ml_lab/mod/MCL_Caffe/examples/cifar10/mean.binaryproto"
  }
  data_param {
    source: "/home/mike/ml_lab/mod/MCL_Caffe/examples/cifar10/cifar10_test_lmdb"
    batch_size: 100
    backend: LMDB
  }
}
layer {
  name: "1_conv1"
  type: "Convolution"
  bottom: "data"
  top: "1_conv1"
  param {
    lr_mult: 1
  }
  param {
    lr_mult: 2
  }
  convolution_param {
    num_output: 32
    pad: 2
    kernel_size: 5
    stride: 1
    weight_filler {
      type: "gaussian"
      std: 0.0001
    }
    bias_filler {
      type: "constant"
    }
  }
}
layer {
  name: "1_pool1"
  type: "Pooling"
  bottom: "1_conv1"
  top: "1_pool1"
  pooling_param {
    pool: MAX
    kernel_size: 3
    stride: 2
  }
}
layer {
  name: "1_relu1"
  type: "ReLU"
  bottom: "1_pool1"
  top: "1_pool1"
}
layer {
  name: "1_conv2"
  type: "Convolution"
  bottom: "1_pool1"
  top: "1_conv2"
  param {
    lr_mult: 1
  }
  param {
    lr_mult: 2
  }
  convolution_param {
    num_output: 32
    pad: 2
    kernel_size: 5
    stride: 1
    weight_filler {
      type: "gaussian"
      std: 0.01
    }
    bias_filler {
      type: "constant"
    }
  }
}
layer {
  name: "1_relu2"
  type: "ReLU"
  bottom: "1_conv2"
  top: "1_conv2"
}
layer {
  name: "1_pool2"
  type: "Pooling"
  bottom: "1_conv2"
  top: "1_pool2"
  pooling_param {
    pool: AVE
    kernel_size: 3
    stride: 2
  }
}
layer {
  name: "1_conv3"
  type: "Convolution"
  bottom: "1_pool2"
  top: "1_conv3"
  param {
    lr_mult: 1
  }
  param {
    lr_mult: 2
  }
  convolution_param {
    num_output: 64
    pad: 2
    kernel_size: 5
    stride: 1
    weight_filler {
      type: "gaussian"
      std: 0.01
    }
    bias_filler {
      type: "constant"
    }
  }
}
layer {
  name: "1_relu3"
  type: "ReLU"
  bottom: "1_conv3"
  top: "1_conv3"
}
layer {
  name: "1_pool3"
  type: "Pooling"
  bottom: "1_conv3"
  top: "1_pool3"
  pooling_param {
    pool: AVE
    kernel_size: 3
    stride: 2
  }
}
layer {
  name: "1_ip1"
  type: "InnerProduct"
  bottom: "1_pool3"
  top: "1_ip1"
  param {
    lr_mult: 1
  }
  param {
    lr_mult: 2
  }
  inner_product_param {
    num_output: 64
    weight_filler {
      type: "gaussian"
      std: 0.1
    }
    bias_filler {
      type: "constant"
    }
  }
}
layer {
  name: "1_ip2"
  type: "InnerProduct"
  bottom: "1_ip1"
  top: "1_ip2"
  param {
    lr_mult: 1
  }
  param {
    lr_mult: 2
  }
  inner_product_param {
    num_output: 10
    weight_filler {
      type: "gaussian"
      std: 0.1
    }
    bias_filler {
      type: "constant"
    }
  }
}
layer {
  name: "1_prob"
  type: "Softmax"
  bottom: "1_ip2"
  top: "1_prob"
}
layer {
  name: "2_conv1"
  type: "Convolution"
  bottom: "data"
  top: "2_conv1"
  param {
    lr_mult: 1
  }
  param {
    lr_mult: 2
  }
  convolution_param {
    num_output: 32
    pad: 2
    kernel_size: 5
    stride: 1
    weight_filler {
      type: "gaussian"
      std: 0.0001
    }
    bias_filler {
      type: "constant"
    }
  }
}
layer {
  name: "2_pool1"
  type: "Pooling"
  bottom: "2_conv1"
  top: "2_pool1"
  pooling_param {
    pool: MAX
    kernel_size: 3
    stride: 2
  }
}
layer {
  name: "2_relu1"
  type: "ReLU"
  bottom: "2_pool1"
  top: "2_pool1"
}
layer {
  name: "2_conv2"
  type: "Convolution"
  bottom: "2_pool1"
  top: "2_conv2"
  param {
    lr_mult: 1
  }
  param {
    lr_mult: 2
  }
  convolution_param {
    num_output: 32
    pad: 2
    kernel_size: 5
    stride: 1
    weight_filler {
      type: "gaussian"
      std: 0.01
    }
    bias_filler {
      type: "constant"
    }
  }
}
layer {
  name: "2_relu2"
  type: "ReLU"
  bottom: "2_conv2"
  top: "2_conv2"
}
layer {
  name: "2_pool2"
  type: "Pooling"
  bottom: "2_conv2"
  top: "2_pool2"
  pooling_param {
    pool: AVE
    kernel_size: 3
    stride: 2
  }
}
layer {
  name: "2_conv3"
  type: "Convolution"
  bottom: "2_pool2"
  top: "2_conv3"
  param {
    lr_mult: 1
  }
  param {
    lr_mult: 2
  }
  convolution_param {
    num_output: 64
    pad: 2
    kernel_size: 5
    stride: 1
    weight_filler {
      type: "gaussian"
      std: 0.01
    }
    bias_filler {
      type: "constant"
    }
  }
}
layer {
  name: "2_relu3"
  type: "ReLU"
  bottom: "2_conv3"
  top: "2_conv3"
}
layer {
  name: "2_pool3"
  type: "Pooling"
  bottom: "2_conv3"
  top: "2_pool3"
  pooling_param {
    pool: AVE
    kernel_size: 3
    stride: 2
  }
}
layer {
  name: "2_ip1"
  type: "InnerProduct"
  bottom: "2_pool3"
  top: "2_ip1"
  param {
    lr_mult: 1
  }
  param {
    lr_mult: 2
  }
  inner_product_param {
    num_output: 64
    weight_filler {
      type: "gaussian"
      std: 0.1
    }
    bias_filler {
      type: "constant"
    }
  }
}
layer {
  name: "2_ip2"
  type: "InnerProduct"
  bottom: "2_ip1"
  top: "2_ip2"
  param {
    lr_mult: 1
  }
  param {
    lr_mult: 2
  }
  inner_product_param {
    num_output: 10
    weight_filler {
      type: "gaussian"
      std: 0.1
    }
    bias_filler {
      type: "constant"
    }
  }
}
layer {
  name: "2_prob"
  type: "Softmax"
  bottom: "2_ip2"
  top: "2_prob"
}
layer {
  name: "3_conv1"
  type: "Convolution"
  bottom: "data"
  top: "3_conv1"
  param {
    lr_mult: 1
  }
  param {
    lr_mult: 2
  }
  convolution_param {
    num_output: 32
    pad: 2
    kernel_size: 5
    stride: 1
    weight_filler {
      type: "gaussian"
      std: 0.0001
    }
    bias_filler {
      type: "constant"
    }
  }
}
layer {
  name: "3_pool1"
  type: "Pooling"
  bottom: "3_conv1"
  top: "3_pool1"
  pooling_param {
    pool: MAX
    kernel_size: 3
    stride: 2
  }
}
layer {
  name: "3_relu1"
  type: "ReLU"
  bottom: "3_pool1"
  top: "3_pool1"
}
layer {
  name: "3_conv2"
  type: "Convolution"
  bottom: "3_pool1"
  top: "3_conv2"
  param {
    lr_mult: 1
  }
  param {
    lr_mult: 2
  }
  convolution_param {
    num_output: 32
    pad: 2
    kernel_size: 5
    stride: 1
    weight_filler {
      type: "gaussian"
      std: 0.01
    }
    bias_filler {
      type: "constant"
    }
  }
}
layer {
  name: "3_relu2"
  type: "ReLU"
  bottom: "3_conv2"
  top: "3_conv2"
}
layer {
  name: "3_pool2"
  type: "Pooling"
  bottom: "3_conv2"
  top: "3_pool2"
  pooling_param {
    pool: AVE
    kernel_size: 3
    stride: 2
  }
}
layer {
  name: "3_conv3"
  type: "Convolution"
  bottom: "3_pool2"
  top: "3_conv3"
  param {
    lr_mult: 1
  }
  param {
    lr_mult: 2
  }
  convolution_param {
    num_output: 64
    pad: 2
    kernel_size: 5
    stride: 1
    weight_filler {
      type: "gaussian"
      std: 0.01
    }
    bias_filler {
      type: "constant"
    }
  }
}
layer {
  name: "3_relu3"
  type: "ReLU"
  bottom: "3_conv3"
  top: "3_conv3"
}
layer {
  name: "3_pool3"
  type: "Pooling"
  bottom: "3_conv3"
  top: "3_pool3"
  pooling_param {
    pool: AVE
    kernel_size: 3
    stride: 2
  }
}
layer {
  name: "3_ip1"
  type: "InnerProduct"
  bottom: "3_pool3"
  top: "3_ip1"
  param {
    lr_mult: 1
  }
  param {
    lr_mult: 2
  }
  inner_product_param {
    num_output: 64
    weight_filler {
      type: "gaussian"
      std: 0.1
    }
    bias_filler {
      type: "constant"
    }
  }
}
layer {
  name: "3_ip2"
  type: "InnerProduct"
  bottom: "3_ip1"
  top: "3_ip2"
  param {
    lr_mult: 1
  }
  param {
    lr_mult: 2
  }
  inner_product_param {
    num_output: 10
    weight_filler {
      type: "gaussian"
      std: 0.1
    }
    bias_filler {
      type: "constant"
    }
  }
}
layer {
  name: "3_prob"
  type: "Softmax"
  bottom: "3_ip2"
  top: "3_prob"
}
layer {
  name: "1_accuracy"
  type: "Accuracy"
  bottom: "1_prob"
  bottom: "label"
  top: "1_accuracy"
  include {
    phase: TEST
  }
}
layer {
  name: "2_accuracy"
  type: "Accuracy"
  bottom: "2_prob"
  bottom: "label"
  top: "2_accuracy"
  include {
    phase: TEST
  }
}
layer {
  name: "3_accuracy"
  type: "Accuracy"
  bottom: "3_prob"
  bottom: "label"
  top: "3_accuracy"
  include {
    phase: TEST
  }
}
layer {
  name: "accuracy"
  type: "OracleAccuracy"
  bottom: "1_prob"
  bottom: "2_prob"
  bottom: "3_prob"
  bottom: "label"
  top: "oracle accuracy"
  include {
    phase: TEST
  }
}
I0126 15:26:31.212424 32468 layer_factory.hpp:74] Creating layer cifar
I0126 15:26:31.212432 32468 net.cpp:90] Creating Layer cifar
I0126 15:26:31.212438 32468 net.cpp:368] cifar -> data
I0126 15:26:31.212446 32468 net.cpp:368] cifar -> label
I0126 15:26:31.212452 32468 net.cpp:120] Setting up cifar
I0126 15:26:31.212491 32468 db.cpp:34] Opened lmdb /home/mike/ml_lab/mod/MCL_Caffe/examples/cifar10/cifar10_test_lmdb
I0126 15:26:31.212508 32468 data_layer.cpp:67] output data size: 100,3,32,32
I0126 15:26:31.212514 32468 data_transformer.cpp:22] Loading mean file from: /home/mike/ml_lab/mod/MCL_Caffe/examples/cifar10/mean.binaryproto
I0126 15:26:31.212893 32468 net.cpp:127] Top shape: 100 3 32 32 (307200)
I0126 15:26:31.212899 32468 net.cpp:127] Top shape: 100 (100)
I0126 15:26:31.212903 32468 layer_factory.hpp:74] Creating layer data_cifar_0_split
I0126 15:26:31.212910 32468 net.cpp:90] Creating Layer data_cifar_0_split
I0126 15:26:31.212914 32468 net.cpp:410] data_cifar_0_split <- data
I0126 15:26:31.212919 32468 net.cpp:368] data_cifar_0_split -> data_cifar_0_split_0
I0126 15:26:31.212925 32468 net.cpp:368] data_cifar_0_split -> data_cifar_0_split_1
I0126 15:26:31.212931 32468 net.cpp:368] data_cifar_0_split -> data_cifar_0_split_2
I0126 15:26:31.212937 32468 net.cpp:120] Setting up data_cifar_0_split
I0126 15:26:31.212944 32468 net.cpp:127] Top shape: 100 3 32 32 (307200)
I0126 15:26:31.212949 32468 net.cpp:127] Top shape: 100 3 32 32 (307200)
I0126 15:26:31.212952 32468 net.cpp:127] Top shape: 100 3 32 32 (307200)
I0126 15:26:31.212955 32468 layer_factory.hpp:74] Creating layer label_cifar_1_split
I0126 15:26:31.212960 32468 net.cpp:90] Creating Layer label_cifar_1_split
I0126 15:26:31.212963 32468 net.cpp:410] label_cifar_1_split <- label
I0126 15:26:31.212968 32468 net.cpp:368] label_cifar_1_split -> label_cifar_1_split_0
I0126 15:26:31.212976 32468 net.cpp:368] label_cifar_1_split -> label_cifar_1_split_1
I0126 15:26:31.212981 32468 net.cpp:368] label_cifar_1_split -> label_cifar_1_split_2
I0126 15:26:31.212987 32468 net.cpp:368] label_cifar_1_split -> label_cifar_1_split_3
I0126 15:26:31.212992 32468 net.cpp:120] Setting up label_cifar_1_split
I0126 15:26:31.212997 32468 net.cpp:127] Top shape: 100 (100)
I0126 15:26:31.213001 32468 net.cpp:127] Top shape: 100 (100)
I0126 15:26:31.213006 32468 net.cpp:127] Top shape: 100 (100)
I0126 15:26:31.213009 32468 net.cpp:127] Top shape: 100 (100)
I0126 15:26:31.213012 32468 layer_factory.hpp:74] Creating layer 1_conv1
I0126 15:26:31.213018 32468 net.cpp:90] Creating Layer 1_conv1
I0126 15:26:31.213021 32468 net.cpp:410] 1_conv1 <- data_cifar_0_split_0
I0126 15:26:31.213027 32468 net.cpp:368] 1_conv1 -> 1_conv1
I0126 15:26:31.213032 32468 net.cpp:120] Setting up 1_conv1
I0126 15:26:31.213117 32468 net.cpp:127] Top shape: 100 32 32 32 (3276800)
I0126 15:26:31.213141 32468 layer_factory.hpp:74] Creating layer 1_pool1
I0126 15:26:31.213148 32468 net.cpp:90] Creating Layer 1_pool1
I0126 15:26:31.213152 32468 net.cpp:410] 1_pool1 <- 1_conv1
I0126 15:26:31.213157 32468 net.cpp:368] 1_pool1 -> 1_pool1
I0126 15:26:31.213162 32468 net.cpp:120] Setting up 1_pool1
I0126 15:26:31.213171 32468 net.cpp:127] Top shape: 100 32 16 16 (819200)
I0126 15:26:31.213174 32468 layer_factory.hpp:74] Creating layer 1_relu1
I0126 15:26:31.213179 32468 net.cpp:90] Creating Layer 1_relu1
I0126 15:26:31.213182 32468 net.cpp:410] 1_relu1 <- 1_pool1
I0126 15:26:31.213186 32468 net.cpp:357] 1_relu1 -> 1_pool1 (in-place)
I0126 15:26:31.213191 32468 net.cpp:120] Setting up 1_relu1
I0126 15:26:31.213196 32468 net.cpp:127] Top shape: 100 32 16 16 (819200)
I0126 15:26:31.213199 32468 layer_factory.hpp:74] Creating layer 1_conv2
I0126 15:26:31.213205 32468 net.cpp:90] Creating Layer 1_conv2
I0126 15:26:31.213208 32468 net.cpp:410] 1_conv2 <- 1_pool1
I0126 15:26:31.213213 32468 net.cpp:368] 1_conv2 -> 1_conv2
I0126 15:26:31.213218 32468 net.cpp:120] Setting up 1_conv2
I0126 15:26:31.214025 32468 net.cpp:127] Top shape: 100 32 16 16 (819200)
I0126 15:26:31.214035 32468 layer_factory.hpp:74] Creating layer 1_relu2
I0126 15:26:31.214040 32468 net.cpp:90] Creating Layer 1_relu2
I0126 15:26:31.214045 32468 net.cpp:410] 1_relu2 <- 1_conv2
I0126 15:26:31.214049 32468 net.cpp:357] 1_relu2 -> 1_conv2 (in-place)
I0126 15:26:31.214054 32468 net.cpp:120] Setting up 1_relu2
I0126 15:26:31.214059 32468 net.cpp:127] Top shape: 100 32 16 16 (819200)
I0126 15:26:31.214062 32468 layer_factory.hpp:74] Creating layer 1_pool2
I0126 15:26:31.214068 32468 net.cpp:90] Creating Layer 1_pool2
I0126 15:26:31.214071 32468 net.cpp:410] 1_pool2 <- 1_conv2
I0126 15:26:31.214077 32468 net.cpp:368] 1_pool2 -> 1_pool2
I0126 15:26:31.214083 32468 net.cpp:120] Setting up 1_pool2
I0126 15:26:31.214089 32468 net.cpp:127] Top shape: 100 32 8 8 (204800)
I0126 15:26:31.214092 32468 layer_factory.hpp:74] Creating layer 1_conv3
I0126 15:26:31.214099 32468 net.cpp:90] Creating Layer 1_conv3
I0126 15:26:31.214103 32468 net.cpp:410] 1_conv3 <- 1_pool2
I0126 15:26:31.214108 32468 net.cpp:368] 1_conv3 -> 1_conv3
I0126 15:26:31.214114 32468 net.cpp:120] Setting up 1_conv3
I0126 15:26:31.215276 32468 net.cpp:127] Top shape: 100 64 8 8 (409600)
I0126 15:26:31.215286 32468 layer_factory.hpp:74] Creating layer 1_relu3
I0126 15:26:31.215291 32468 net.cpp:90] Creating Layer 1_relu3
I0126 15:26:31.215294 32468 net.cpp:410] 1_relu3 <- 1_conv3
I0126 15:26:31.215299 32468 net.cpp:357] 1_relu3 -> 1_conv3 (in-place)
I0126 15:26:31.215304 32468 net.cpp:120] Setting up 1_relu3
I0126 15:26:31.215309 32468 net.cpp:127] Top shape: 100 64 8 8 (409600)
I0126 15:26:31.215313 32468 layer_factory.hpp:74] Creating layer 1_pool3
I0126 15:26:31.215317 32468 net.cpp:90] Creating Layer 1_pool3
I0126 15:26:31.215320 32468 net.cpp:410] 1_pool3 <- 1_conv3
I0126 15:26:31.215325 32468 net.cpp:368] 1_pool3 -> 1_pool3
I0126 15:26:31.215332 32468 net.cpp:120] Setting up 1_pool3
I0126 15:26:31.215337 32468 net.cpp:127] Top shape: 100 64 4 4 (102400)
I0126 15:26:31.215340 32468 layer_factory.hpp:74] Creating layer 1_ip1
I0126 15:26:31.215348 32468 net.cpp:90] Creating Layer 1_ip1
I0126 15:26:31.215351 32468 net.cpp:410] 1_ip1 <- 1_pool3
I0126 15:26:31.215356 32468 net.cpp:368] 1_ip1 -> 1_ip1
I0126 15:26:31.215363 32468 net.cpp:120] Setting up 1_ip1
I0126 15:26:31.216847 32468 net.cpp:127] Top shape: 100 64 (6400)
I0126 15:26:31.216856 32468 layer_factory.hpp:74] Creating layer 1_ip2
I0126 15:26:31.216861 32468 net.cpp:90] Creating Layer 1_ip2
I0126 15:26:31.216864 32468 net.cpp:410] 1_ip2 <- 1_ip1
I0126 15:26:31.216871 32468 net.cpp:368] 1_ip2 -> 1_ip2
I0126 15:26:31.216879 32468 net.cpp:120] Setting up 1_ip2
I0126 15:26:31.216905 32468 net.cpp:127] Top shape: 100 10 (1000)
I0126 15:26:31.216913 32468 layer_factory.hpp:74] Creating layer 1_prob
I0126 15:26:31.216918 32468 net.cpp:90] Creating Layer 1_prob
I0126 15:26:31.216922 32468 net.cpp:410] 1_prob <- 1_ip2
I0126 15:26:31.216935 32468 net.cpp:368] 1_prob -> 1_prob
I0126 15:26:31.216943 32468 net.cpp:120] Setting up 1_prob
I0126 15:26:31.216951 32468 net.cpp:127] Top shape: 100 10 (1000)
I0126 15:26:31.216956 32468 layer_factory.hpp:74] Creating layer 1_prob_1_prob_0_split
I0126 15:26:31.216960 32468 net.cpp:90] Creating Layer 1_prob_1_prob_0_split
I0126 15:26:31.216964 32468 net.cpp:410] 1_prob_1_prob_0_split <- 1_prob
I0126 15:26:31.216970 32468 net.cpp:368] 1_prob_1_prob_0_split -> 1_prob_1_prob_0_split_0
I0126 15:26:31.216975 32468 net.cpp:368] 1_prob_1_prob_0_split -> 1_prob_1_prob_0_split_1
I0126 15:26:31.216981 32468 net.cpp:120] Setting up 1_prob_1_prob_0_split
I0126 15:26:31.216986 32468 net.cpp:127] Top shape: 100 10 (1000)
I0126 15:26:31.216991 32468 net.cpp:127] Top shape: 100 10 (1000)
I0126 15:26:31.216995 32468 layer_factory.hpp:74] Creating layer 2_conv1
I0126 15:26:31.217003 32468 net.cpp:90] Creating Layer 2_conv1
I0126 15:26:31.217007 32468 net.cpp:410] 2_conv1 <- data_cifar_0_split_1
I0126 15:26:31.217013 32468 net.cpp:368] 2_conv1 -> 2_conv1
I0126 15:26:31.217020 32468 net.cpp:120] Setting up 2_conv1
I0126 15:26:31.217087 32468 net.cpp:127] Top shape: 100 32 32 32 (3276800)
I0126 15:26:31.217092 32468 layer_factory.hpp:74] Creating layer 2_pool1
I0126 15:26:31.217097 32468 net.cpp:90] Creating Layer 2_pool1
I0126 15:26:31.217100 32468 net.cpp:410] 2_pool1 <- 2_conv1
I0126 15:26:31.217105 32468 net.cpp:368] 2_pool1 -> 2_pool1
I0126 15:26:31.217111 32468 net.cpp:120] Setting up 2_pool1
I0126 15:26:31.217118 32468 net.cpp:127] Top shape: 100 32 16 16 (819200)
I0126 15:26:31.217121 32468 layer_factory.hpp:74] Creating layer 2_relu1
I0126 15:26:31.217138 32468 net.cpp:90] Creating Layer 2_relu1
I0126 15:26:31.217142 32468 net.cpp:410] 2_relu1 <- 2_pool1
I0126 15:26:31.217147 32468 net.cpp:357] 2_relu1 -> 2_pool1 (in-place)
I0126 15:26:31.217152 32468 net.cpp:120] Setting up 2_relu1
I0126 15:26:31.217157 32468 net.cpp:127] Top shape: 100 32 16 16 (819200)
I0126 15:26:31.217161 32468 layer_factory.hpp:74] Creating layer 2_conv2
I0126 15:26:31.217166 32468 net.cpp:90] Creating Layer 2_conv2
I0126 15:26:31.217170 32468 net.cpp:410] 2_conv2 <- 2_pool1
I0126 15:26:31.217175 32468 net.cpp:368] 2_conv2 -> 2_conv2
I0126 15:26:31.217180 32468 net.cpp:120] Setting up 2_conv2
I0126 15:26:31.217759 32468 net.cpp:127] Top shape: 100 32 16 16 (819200)
I0126 15:26:31.217767 32468 layer_factory.hpp:74] Creating layer 2_relu2
I0126 15:26:31.217773 32468 net.cpp:90] Creating Layer 2_relu2
I0126 15:26:31.217777 32468 net.cpp:410] 2_relu2 <- 2_conv2
I0126 15:26:31.217782 32468 net.cpp:357] 2_relu2 -> 2_conv2 (in-place)
I0126 15:26:31.217787 32468 net.cpp:120] Setting up 2_relu2
I0126 15:26:31.217792 32468 net.cpp:127] Top shape: 100 32 16 16 (819200)
I0126 15:26:31.217794 32468 layer_factory.hpp:74] Creating layer 2_pool2
I0126 15:26:31.217798 32468 net.cpp:90] Creating Layer 2_pool2
I0126 15:26:31.217803 32468 net.cpp:410] 2_pool2 <- 2_conv2
I0126 15:26:31.217808 32468 net.cpp:368] 2_pool2 -> 2_pool2
I0126 15:26:31.217813 32468 net.cpp:120] Setting up 2_pool2
I0126 15:26:31.217819 32468 net.cpp:127] Top shape: 100 32 8 8 (204800)
I0126 15:26:31.217823 32468 layer_factory.hpp:74] Creating layer 2_conv3
I0126 15:26:31.217828 32468 net.cpp:90] Creating Layer 2_conv3
I0126 15:26:31.217831 32468 net.cpp:410] 2_conv3 <- 2_pool2
I0126 15:26:31.217838 32468 net.cpp:368] 2_conv3 -> 2_conv3
I0126 15:26:31.217844 32468 net.cpp:120] Setting up 2_conv3
I0126 15:26:31.219013 32468 net.cpp:127] Top shape: 100 64 8 8 (409600)
I0126 15:26:31.219022 32468 layer_factory.hpp:74] Creating layer 2_relu3
I0126 15:26:31.219027 32468 net.cpp:90] Creating Layer 2_relu3
I0126 15:26:31.219030 32468 net.cpp:410] 2_relu3 <- 2_conv3
I0126 15:26:31.219035 32468 net.cpp:357] 2_relu3 -> 2_conv3 (in-place)
I0126 15:26:31.219040 32468 net.cpp:120] Setting up 2_relu3
I0126 15:26:31.219045 32468 net.cpp:127] Top shape: 100 64 8 8 (409600)
I0126 15:26:31.219048 32468 layer_factory.hpp:74] Creating layer 2_pool3
I0126 15:26:31.219053 32468 net.cpp:90] Creating Layer 2_pool3
I0126 15:26:31.219066 32468 net.cpp:410] 2_pool3 <- 2_conv3
I0126 15:26:31.219072 32468 net.cpp:368] 2_pool3 -> 2_pool3
I0126 15:26:31.219079 32468 net.cpp:120] Setting up 2_pool3
I0126 15:26:31.219084 32468 net.cpp:127] Top shape: 100 64 4 4 (102400)
I0126 15:26:31.219089 32468 layer_factory.hpp:74] Creating layer 2_ip1
I0126 15:26:31.219094 32468 net.cpp:90] Creating Layer 2_ip1
I0126 15:26:31.219099 32468 net.cpp:410] 2_ip1 <- 2_pool3
I0126 15:26:31.219105 32468 net.cpp:368] 2_ip1 -> 2_ip1
I0126 15:26:31.219110 32468 net.cpp:120] Setting up 2_ip1
I0126 15:26:31.220592 32468 net.cpp:127] Top shape: 100 64 (6400)
I0126 15:26:31.220602 32468 layer_factory.hpp:74] Creating layer 2_ip2
I0126 15:26:31.220607 32468 net.cpp:90] Creating Layer 2_ip2
I0126 15:26:31.220610 32468 net.cpp:410] 2_ip2 <- 2_ip1
I0126 15:26:31.220618 32468 net.cpp:368] 2_ip2 -> 2_ip2
I0126 15:26:31.220623 32468 net.cpp:120] Setting up 2_ip2
I0126 15:26:31.220649 32468 net.cpp:127] Top shape: 100 10 (1000)
I0126 15:26:31.220655 32468 layer_factory.hpp:74] Creating layer 2_prob
I0126 15:26:31.220660 32468 net.cpp:90] Creating Layer 2_prob
I0126 15:26:31.220664 32468 net.cpp:410] 2_prob <- 2_ip2
I0126 15:26:31.220670 32468 net.cpp:368] 2_prob -> 2_prob
I0126 15:26:31.220675 32468 net.cpp:120] Setting up 2_prob
I0126 15:26:31.220682 32468 net.cpp:127] Top shape: 100 10 (1000)
I0126 15:26:31.220685 32468 layer_factory.hpp:74] Creating layer 2_prob_2_prob_0_split
I0126 15:26:31.220690 32468 net.cpp:90] Creating Layer 2_prob_2_prob_0_split
I0126 15:26:31.220693 32468 net.cpp:410] 2_prob_2_prob_0_split <- 2_prob
I0126 15:26:31.220697 32468 net.cpp:368] 2_prob_2_prob_0_split -> 2_prob_2_prob_0_split_0
I0126 15:26:31.220703 32468 net.cpp:368] 2_prob_2_prob_0_split -> 2_prob_2_prob_0_split_1
I0126 15:26:31.220708 32468 net.cpp:120] Setting up 2_prob_2_prob_0_split
I0126 15:26:31.220715 32468 net.cpp:127] Top shape: 100 10 (1000)
I0126 15:26:31.220718 32468 net.cpp:127] Top shape: 100 10 (1000)
I0126 15:26:31.220721 32468 layer_factory.hpp:74] Creating layer 3_conv1
I0126 15:26:31.220728 32468 net.cpp:90] Creating Layer 3_conv1
I0126 15:26:31.220731 32468 net.cpp:410] 3_conv1 <- data_cifar_0_split_2
I0126 15:26:31.220738 32468 net.cpp:368] 3_conv1 -> 3_conv1
I0126 15:26:31.220743 32468 net.cpp:120] Setting up 3_conv1
I0126 15:26:31.220810 32468 net.cpp:127] Top shape: 100 32 32 32 (3276800)
I0126 15:26:31.220816 32468 layer_factory.hpp:74] Creating layer 3_pool1
I0126 15:26:31.220831 32468 net.cpp:90] Creating Layer 3_pool1
I0126 15:26:31.220835 32468 net.cpp:410] 3_pool1 <- 3_conv1
I0126 15:26:31.220840 32468 net.cpp:368] 3_pool1 -> 3_pool1
I0126 15:26:31.220849 32468 net.cpp:120] Setting up 3_pool1
I0126 15:26:31.220855 32468 net.cpp:127] Top shape: 100 32 16 16 (819200)
I0126 15:26:31.220860 32468 layer_factory.hpp:74] Creating layer 3_relu1
I0126 15:26:31.220866 32468 net.cpp:90] Creating Layer 3_relu1
I0126 15:26:31.220870 32468 net.cpp:410] 3_relu1 <- 3_pool1
I0126 15:26:31.220875 32468 net.cpp:357] 3_relu1 -> 3_pool1 (in-place)
I0126 15:26:31.220880 32468 net.cpp:120] Setting up 3_relu1
I0126 15:26:31.220885 32468 net.cpp:127] Top shape: 100 32 16 16 (819200)
I0126 15:26:31.220887 32468 layer_factory.hpp:74] Creating layer 3_conv2
I0126 15:26:31.220895 32468 net.cpp:90] Creating Layer 3_conv2
I0126 15:26:31.220898 32468 net.cpp:410] 3_conv2 <- 3_pool1
I0126 15:26:31.220903 32468 net.cpp:368] 3_conv2 -> 3_conv2
I0126 15:26:31.220909 32468 net.cpp:120] Setting up 3_conv2
I0126 15:26:31.221515 32468 net.cpp:127] Top shape: 100 32 16 16 (819200)
I0126 15:26:31.221524 32468 layer_factory.hpp:74] Creating layer 3_relu2
I0126 15:26:31.221529 32468 net.cpp:90] Creating Layer 3_relu2
I0126 15:26:31.221531 32468 net.cpp:410] 3_relu2 <- 3_conv2
I0126 15:26:31.221536 32468 net.cpp:357] 3_relu2 -> 3_conv2 (in-place)
I0126 15:26:31.221541 32468 net.cpp:120] Setting up 3_relu2
I0126 15:26:31.221546 32468 net.cpp:127] Top shape: 100 32 16 16 (819200)
I0126 15:26:31.221549 32468 layer_factory.hpp:74] Creating layer 3_pool2
I0126 15:26:31.221554 32468 net.cpp:90] Creating Layer 3_pool2
I0126 15:26:31.221565 32468 net.cpp:410] 3_pool2 <- 3_conv2
I0126 15:26:31.221573 32468 net.cpp:368] 3_pool2 -> 3_pool2
I0126 15:26:31.221580 32468 net.cpp:120] Setting up 3_pool2
I0126 15:26:31.221587 32468 net.cpp:127] Top shape: 100 32 8 8 (204800)
I0126 15:26:31.221592 32468 layer_factory.hpp:74] Creating layer 3_conv3
I0126 15:26:31.221598 32468 net.cpp:90] Creating Layer 3_conv3
I0126 15:26:31.221601 32468 net.cpp:410] 3_conv3 <- 3_pool2
I0126 15:26:31.221608 32468 net.cpp:368] 3_conv3 -> 3_conv3
I0126 15:26:31.221614 32468 net.cpp:120] Setting up 3_conv3
I0126 15:26:31.222764 32468 net.cpp:127] Top shape: 100 64 8 8 (409600)
I0126 15:26:31.222772 32468 layer_factory.hpp:74] Creating layer 3_relu3
I0126 15:26:31.222777 32468 net.cpp:90] Creating Layer 3_relu3
I0126 15:26:31.222780 32468 net.cpp:410] 3_relu3 <- 3_conv3
I0126 15:26:31.222785 32468 net.cpp:357] 3_relu3 -> 3_conv3 (in-place)
I0126 15:26:31.222790 32468 net.cpp:120] Setting up 3_relu3
I0126 15:26:31.222795 32468 net.cpp:127] Top shape: 100 64 8 8 (409600)
I0126 15:26:31.222798 32468 layer_factory.hpp:74] Creating layer 3_pool3
I0126 15:26:31.222803 32468 net.cpp:90] Creating Layer 3_pool3
I0126 15:26:31.222807 32468 net.cpp:410] 3_pool3 <- 3_conv3
I0126 15:26:31.222811 32468 net.cpp:368] 3_pool3 -> 3_pool3
I0126 15:26:31.222816 32468 net.cpp:120] Setting up 3_pool3
I0126 15:26:31.222823 32468 net.cpp:127] Top shape: 100 64 4 4 (102400)
I0126 15:26:31.222826 32468 layer_factory.hpp:74] Creating layer 3_ip1
I0126 15:26:31.222831 32468 net.cpp:90] Creating Layer 3_ip1
I0126 15:26:31.222836 32468 net.cpp:410] 3_ip1 <- 3_pool3
I0126 15:26:31.222841 32468 net.cpp:368] 3_ip1 -> 3_ip1
I0126 15:26:31.222846 32468 net.cpp:120] Setting up 3_ip1
I0126 15:26:31.224331 32468 net.cpp:127] Top shape: 100 64 (6400)
I0126 15:26:31.224339 32468 layer_factory.hpp:74] Creating layer 3_ip2
I0126 15:26:31.224344 32468 net.cpp:90] Creating Layer 3_ip2
I0126 15:26:31.224349 32468 net.cpp:410] 3_ip2 <- 3_ip1
I0126 15:26:31.224355 32468 net.cpp:368] 3_ip2 -> 3_ip2
I0126 15:26:31.224361 32468 net.cpp:120] Setting up 3_ip2
I0126 15:26:31.224386 32468 net.cpp:127] Top shape: 100 10 (1000)
I0126 15:26:31.224392 32468 layer_factory.hpp:74] Creating layer 3_prob
I0126 15:26:31.224398 32468 net.cpp:90] Creating Layer 3_prob
I0126 15:26:31.224401 32468 net.cpp:410] 3_prob <- 3_ip2
I0126 15:26:31.224407 32468 net.cpp:368] 3_prob -> 3_prob
I0126 15:26:31.224412 32468 net.cpp:120] Setting up 3_prob
I0126 15:26:31.224419 32468 net.cpp:127] Top shape: 100 10 (1000)
I0126 15:26:31.224422 32468 layer_factory.hpp:74] Creating layer 3_prob_3_prob_0_split
I0126 15:26:31.224426 32468 net.cpp:90] Creating Layer 3_prob_3_prob_0_split
I0126 15:26:31.224431 32468 net.cpp:410] 3_prob_3_prob_0_split <- 3_prob
I0126 15:26:31.224434 32468 net.cpp:368] 3_prob_3_prob_0_split -> 3_prob_3_prob_0_split_0
I0126 15:26:31.224441 32468 net.cpp:368] 3_prob_3_prob_0_split -> 3_prob_3_prob_0_split_1
I0126 15:26:31.224445 32468 net.cpp:120] Setting up 3_prob_3_prob_0_split
I0126 15:26:31.224452 32468 net.cpp:127] Top shape: 100 10 (1000)
I0126 15:26:31.224455 32468 net.cpp:127] Top shape: 100 10 (1000)
I0126 15:26:31.224458 32468 layer_factory.hpp:74] Creating layer 1_accuracy
I0126 15:26:31.224464 32468 net.cpp:90] Creating Layer 1_accuracy
I0126 15:26:31.224468 32468 net.cpp:410] 1_accuracy <- 1_prob_1_prob_0_split_0
I0126 15:26:31.224472 32468 net.cpp:410] 1_accuracy <- label_cifar_1_split_0
I0126 15:26:31.224478 32468 net.cpp:368] 1_accuracy -> 1_accuracy
I0126 15:26:31.224483 32468 net.cpp:120] Setting up 1_accuracy
…
