…
I0126 19:25:40.653914 18965 net.cpp:287] The NetState phase (0) differed from the phase (1) specified by a rule in layer accuracy
I0126 19:25:40.654047 18965 net.cpp:42] Initializing net from parameters: 
name: "CIFAR10_quick"
state {
  phase: TRAIN
}
layer {
  name: "cifar"
  type: "Data"
  top: "data"
  top: "label"
  include {
    phase: TRAIN
  }
  transform_param {
    mean_file: "/home/mike/ml_lab/mod/MCL_Caffe/examples/cifar10/mean.binaryproto"
  }
  data_param {
    source: "/home/mike/ml_lab/mod/MCL_Caffe/examples/cifar10/cifar10_train_lmdb"
    batch_size: 350
    backend: LMDB
  }
}
layer {
  name: "1_conv1"
  type: "Convolution"
  bottom: "data"
  top: "1_conv1"
  param {
    lr_mult: 1
  }
  param {
    lr_mult: 2
  }
  convolution_param {
    num_output: 32
    pad: 2
    kernel_size: 5
    stride: 1
    weight_filler {
      type: "gaussian"
      std: 0.0001
    }
    bias_filler {
      type: "constant"
    }
  }
}
layer {
  name: "1_pool1"
  type: "Pooling"
  bottom: "1_conv1"
  top: "1_pool1"
  pooling_param {
    pool: MAX
    kernel_size: 3
    stride: 2
  }
}
layer {
  name: "1_relu1"
  type: "ReLU"
  bottom: "1_pool1"
  top: "1_pool1"
}
layer {
  name: "1_conv2"
  type: "Convolution"
  bottom: "1_pool1"
  top: "1_conv2"
  param {
    lr_mult: 1
  }
  param {
    lr_mult: 2
  }
  convolution_param {
    num_output: 32
    pad: 2
    kernel_size: 5
    stride: 1
    weight_filler {
      type: "gaussian"
      std: 0.01
    }
    bias_filler {
      type: "constant"
    }
  }
}
layer {
  name: "1_relu2"
  type: "ReLU"
  bottom: "1_conv2"
  top: "1_conv2"
}
layer {
  name: "1_pool2"
  type: "Pooling"
  bottom: "1_conv2"
  top: "1_pool2"
  pooling_param {
    pool: AVE
    kernel_size: 3
    stride: 2
  }
}
layer {
  name: "1_conv3"
  type: "Convolution"
  bottom: "1_pool2"
  top: "1_conv3"
  param {
    lr_mult: 1
  }
  param {
    lr_mult: 2
  }
  convolution_param {
    num_output: 64
    pad: 2
    kernel_size: 5
    stride: 1
    weight_filler {
      type: "gaussian"
      std: 0.01
    }
    bias_filler {
      type: "constant"
    }
  }
}
layer {
  name: "1_relu3"
  type: "ReLU"
  bottom: "1_conv3"
  top: "1_conv3"
}
layer {
  name: "1_pool3"
  type: "Pooling"
  bottom: "1_conv3"
  top: "1_pool3"
  pooling_param {
    pool: AVE
    kernel_size: 3
    stride: 2
  }
}
layer {
  name: "1_ip1"
  type: "InnerProduct"
  bottom: "1_pool3"
  top: "1_ip1"
  param {
    lr_mult: 1
  }
  param {
    lr_mult: 2
  }
  inner_product_param {
    num_output: 64
    weight_filler {
      type: "gaussian"
      std: 0.1
    }
    bias_filler {
      type: "constant"
    }
  }
}
layer {
  name: "1_ip2"
  type: "InnerProduct"
  bottom: "1_ip1"
  top: "1_ip2"
  param {
    lr_mult: 1
  }
  param {
    lr_mult: 2
  }
  inner_product_param {
    num_output: 10
    weight_filler {
      type: "gaussian"
      std: 0.1
    }
    bias_filler {
      type: "constant"
    }
  }
}
layer {
  name: "1_prob"
  type: "Softmax"
  bottom: "1_ip2"
  top: "1_prob"
}
layer {
  name: "2_conv1"
  type: "Convolution"
  bottom: "data"
  top: "2_conv1"
  param {
    lr_mult: 1
  }
  param {
    lr_mult: 2
  }
  convolution_param {
    num_output: 32
    pad: 2
    kernel_size: 5
    stride: 1
    weight_filler {
      type: "gaussian"
      std: 0.0001
    }
    bias_filler {
      type: "constant"
    }
  }
}
layer {
  name: "2_pool1"
  type: "Pooling"
  bottom: "2_conv1"
  top: "2_pool1"
  pooling_param {
    pool: MAX
    kernel_size: 3
    stride: 2
  }
}
layer {
  name: "2_relu1"
  type: "ReLU"
  bottom: "2_pool1"
  top: "2_pool1"
}
layer {
  name: "2_conv2"
  type: "Convolution"
  bottom: "2_pool1"
  top: "2_conv2"
  param {
    lr_mult: 1
  }
  param {
    lr_mult: 2
  }
  convolution_param {
    num_output: 32
    pad: 2
    kernel_size: 5
    stride: 1
    weight_filler {
      type: "gaussian"
      std: 0.01
    }
    bias_filler {
      type: "constant"
    }
  }
}
layer {
  name: "2_relu2"
  type: "ReLU"
  bottom: "2_conv2"
  top: "2_conv2"
}
layer {
  name: "2_pool2"
  type: "Pooling"
  bottom: "2_conv2"
  top: "2_pool2"
  pooling_param {
    pool: AVE
    kernel_size: 3
    stride: 2
  }
}
layer {
  name: "2_conv3"
  type: "Convolution"
  bottom: "2_pool2"
  top: "2_conv3"
  param {
    lr_mult: 1
  }
  param {
    lr_mult: 2
  }
  convolution_param {
    num_output: 64
    pad: 2
    kernel_size: 5
    stride: 1
    weight_filler {
      type: "gaussian"
      std: 0.01
    }
    bias_filler {
      type: "constant"
    }
  }
}
layer {
  name: "2_relu3"
  type: "ReLU"
  bottom: "2_conv3"
  top: "2_conv3"
}
layer {
  name: "2_pool3"
  type: "Pooling"
  bottom: "2_conv3"
  top: "2_pool3"
  pooling_param {
    pool: AVE
    kernel_size: 3
    stride: 2
  }
}
layer {
  name: "2_ip1"
  type: "InnerProduct"
  bottom: "2_pool3"
  top: "2_ip1"
  param {
    lr_mult: 1
  }
  param {
    lr_mult: 2
  }
  inner_product_param {
    num_output: 64
    weight_filler {
      type: "gaussian"
      std: 0.1
    }
    bias_filler {
      type: "constant"
    }
  }
}
layer {
  name: "2_ip2"
  type: "InnerProduct"
  bottom: "2_ip1"
  top: "2_ip2"
  param {
    lr_mult: 1
  }
  param {
    lr_mult: 2
  }
  inner_product_param {
    num_output: 10
    weight_filler {
      type: "gaussian"
      std: 0.1
    }
    bias_filler {
      type: "constant"
    }
  }
}
layer {
  name: "2_prob"
  type: "Softmax"
  bottom: "2_ip2"
  top: "2_prob"
}
layer {
  name: "3_conv1"
  type: "Convolution"
  bottom: "data"
  top: "3_conv1"
  param {
    lr_mult: 1
  }
  param {
    lr_mult: 2
  }
  convolution_param {
    num_output: 32
    pad: 2
    kernel_size: 5
    stride: 1
    weight_filler {
      type: "gaussian"
      std: 0.0001
    }
    bias_filler {
      type: "constant"
    }
  }
}
layer {
  name: "3_pool1"
  type: "Pooling"
  bottom: "3_conv1"
  top: "3_pool1"
  pooling_param {
    pool: MAX
    kernel_size: 3
    stride: 2
  }
}
layer {
  name: "3_relu1"
  type: "ReLU"
  bottom: "3_pool1"
  top: "3_pool1"
}
layer {
  name: "3_conv2"
  type: "Convolution"
  bottom: "3_pool1"
  top: "3_conv2"
  param {
    lr_mult: 1
  }
  param {
    lr_mult: 2
  }
  convolution_param {
    num_output: 32
    pad: 2
    kernel_size: 5
    stride: 1
    weight_filler {
      type: "gaussian"
      std: 0.01
    }
    bias_filler {
      type: "constant"
    }
  }
}
layer {
  name: "3_relu2"
  type: "ReLU"
  bottom: "3_conv2"
  top: "3_conv2"
}
layer {
  name: "3_pool2"
  type: "Pooling"
  bottom: "3_conv2"
  top: "3_pool2"
  pooling_param {
    pool: AVE
    kernel_size: 3
    stride: 2
  }
}
layer {
  name: "3_conv3"
  type: "Convolution"
  bottom: "3_pool2"
  top: "3_conv3"
  param {
    lr_mult: 1
  }
  param {
    lr_mult: 2
  }
  convolution_param {
    num_output: 64
    pad: 2
    kernel_size: 5
    stride: 1
    weight_filler {
      type: "gaussian"
      std: 0.01
    }
    bias_filler {
      type: "constant"
    }
  }
}
layer {
  name: "3_relu3"
  type: "ReLU"
  bottom: "3_conv3"
  top: "3_conv3"
}
layer {
  name: "3_pool3"
  type: "Pooling"
  bottom: "3_conv3"
  top: "3_pool3"
  pooling_param {
    pool: AVE
    kernel_size: 3
    stride: 2
  }
}
layer {
  name: "3_ip1"
  type: "InnerProduct"
  bottom: "3_pool3"
  top: "3_ip1"
  param {
    lr_mult: 1
  }
  param {
    lr_mult: 2
  }
  inner_product_param {
    num_output: 64
    weight_filler {
      type: "gaussian"
      std: 0.1
    }
    bias_filler {
      type: "constant"
    }
  }
}
layer {
  name: "3_ip2"
  type: "InnerProduct"
  bottom: "3_ip1"
  top: "3_ip2"
  param {
    lr_mult: 1
  }
  param {
    lr_mult: 2
  }
  inner_product_param {
    num_output: 10
    weight_filler {
      type: "gaussian"
      std: 0.1
    }
    bias_filler {
      type: "constant"
    }
  }
}
layer {
  name: "3_prob"
  type: "Softmax"
  bottom: "3_ip2"
  top: "3_prob"
}
layer {
  name: "loss"
  type: "ODMultinomialLogisticLoss"
  bottom: "1_prob"
  bottom: "2_prob"
  bottom: "3_prob"
  bottom: "label"
  top: "multiple-output loss"
  top: "batch-instance-counts"
  top: "train-instance-counts"
  loss_weight: 1
  loss_weight: 0
  loss_weight: 0
  include {
    phase: TRAIN
  }
}
I0126 19:25:40.654186 18965 layer_factory.hpp:74] Creating layer cifar
I0126 19:25:40.654201 18965 net.cpp:90] Creating Layer cifar
I0126 19:25:40.654206 18965 net.cpp:368] cifar -> data
I0126 19:25:40.654224 18965 net.cpp:368] cifar -> label
I0126 19:25:40.654232 18965 net.cpp:120] Setting up cifar
I0126 19:25:40.654279 18965 db.cpp:34] Opened lmdb /home/mike/ml_lab/mod/MCL_Caffe/examples/cifar10/cifar10_train_lmdb
I0126 19:25:40.654310 18965 data_layer.cpp:67] output data size: 350,3,32,32
I0126 19:25:40.654317 18965 data_transformer.cpp:22] Loading mean file from: /home/mike/ml_lab/mod/MCL_Caffe/examples/cifar10/mean.binaryproto
I0126 19:25:40.655056 18965 net.cpp:127] Top shape: 350 3 32 32 (1075200)
I0126 19:25:40.655063 18965 net.cpp:127] Top shape: 350 (350)
I0126 19:25:40.655067 18965 layer_factory.hpp:74] Creating layer data_cifar_0_split
I0126 19:25:40.655074 18965 net.cpp:90] Creating Layer data_cifar_0_split
I0126 19:25:40.655077 18965 net.cpp:410] data_cifar_0_split <- data
I0126 19:25:40.655086 18965 net.cpp:368] data_cifar_0_split -> data_cifar_0_split_0
I0126 19:25:40.655091 18965 net.cpp:368] data_cifar_0_split -> data_cifar_0_split_1
I0126 19:25:40.655094 18965 net.cpp:368] data_cifar_0_split -> data_cifar_0_split_2
I0126 19:25:40.655097 18965 net.cpp:120] Setting up data_cifar_0_split
I0126 19:25:40.655102 18965 net.cpp:127] Top shape: 350 3 32 32 (1075200)
I0126 19:25:40.655104 18965 net.cpp:127] Top shape: 350 3 32 32 (1075200)
I0126 19:25:40.655107 18965 net.cpp:127] Top shape: 350 3 32 32 (1075200)
I0126 19:25:40.655108 18965 layer_factory.hpp:74] Creating layer 1_conv1
I0126 19:25:40.655114 18965 net.cpp:90] Creating Layer 1_conv1
I0126 19:25:40.655117 18965 net.cpp:410] 1_conv1 <- data_cifar_0_split_0
I0126 19:25:40.655120 18965 net.cpp:368] 1_conv1 -> 1_conv1
I0126 19:25:40.655127 18965 net.cpp:120] Setting up 1_conv1
I0126 19:25:40.655531 18965 net.cpp:127] Top shape: 350 32 32 32 (11468800)
I0126 19:25:40.655540 18965 layer_factory.hpp:74] Creating layer 1_pool1
I0126 19:25:40.655544 18965 net.cpp:90] Creating Layer 1_pool1
I0126 19:25:40.655546 18965 net.cpp:410] 1_pool1 <- 1_conv1
I0126 19:25:40.655550 18965 net.cpp:368] 1_pool1 -> 1_pool1
I0126 19:25:40.655555 18965 net.cpp:120] Setting up 1_pool1
I0126 19:25:40.655580 18965 net.cpp:127] Top shape: 350 32 16 16 (2867200)
I0126 19:25:40.655583 18965 layer_factory.hpp:74] Creating layer 1_relu1
I0126 19:25:40.655587 18965 net.cpp:90] Creating Layer 1_relu1
I0126 19:25:40.655589 18965 net.cpp:410] 1_relu1 <- 1_pool1
I0126 19:25:40.655592 18965 net.cpp:357] 1_relu1 -> 1_pool1 (in-place)
I0126 19:25:40.655596 18965 net.cpp:120] Setting up 1_relu1
I0126 19:25:40.655599 18965 net.cpp:127] Top shape: 350 32 16 16 (2867200)
I0126 19:25:40.655601 18965 layer_factory.hpp:74] Creating layer 1_conv2
I0126 19:25:40.655604 18965 net.cpp:90] Creating Layer 1_conv2
I0126 19:25:40.655614 18965 net.cpp:410] 1_conv2 <- 1_pool1
I0126 19:25:40.655622 18965 net.cpp:368] 1_conv2 -> 1_conv2
I0126 19:25:40.655625 18965 net.cpp:120] Setting up 1_conv2
I0126 19:25:40.656208 18965 net.cpp:127] Top shape: 350 32 16 16 (2867200)
I0126 19:25:40.656215 18965 layer_factory.hpp:74] Creating layer 1_relu2
I0126 19:25:40.656219 18965 net.cpp:90] Creating Layer 1_relu2
I0126 19:25:40.656220 18965 net.cpp:410] 1_relu2 <- 1_conv2
I0126 19:25:40.656222 18965 net.cpp:357] 1_relu2 -> 1_conv2 (in-place)
I0126 19:25:40.656225 18965 net.cpp:120] Setting up 1_relu2
I0126 19:25:40.656229 18965 net.cpp:127] Top shape: 350 32 16 16 (2867200)
I0126 19:25:40.656229 18965 layer_factory.hpp:74] Creating layer 1_pool2
I0126 19:25:40.656234 18965 net.cpp:90] Creating Layer 1_pool2
I0126 19:25:40.656235 18965 net.cpp:410] 1_pool2 <- 1_conv2
I0126 19:25:40.656239 18965 net.cpp:368] 1_pool2 -> 1_pool2
I0126 19:25:40.656241 18965 net.cpp:120] Setting up 1_pool2
I0126 19:25:40.656245 18965 net.cpp:127] Top shape: 350 32 8 8 (716800)
I0126 19:25:40.656247 18965 layer_factory.hpp:74] Creating layer 1_conv3
I0126 19:25:40.656252 18965 net.cpp:90] Creating Layer 1_conv3
I0126 19:25:40.656255 18965 net.cpp:410] 1_conv3 <- 1_pool2
I0126 19:25:40.656258 18965 net.cpp:368] 1_conv3 -> 1_conv3
I0126 19:25:40.656261 18965 net.cpp:120] Setting up 1_conv3
I0126 19:25:40.657438 18965 net.cpp:127] Top shape: 350 64 8 8 (1433600)
I0126 19:25:40.657444 18965 layer_factory.hpp:74] Creating layer 1_relu3
I0126 19:25:40.657447 18965 net.cpp:90] Creating Layer 1_relu3
I0126 19:25:40.657449 18965 net.cpp:410] 1_relu3 <- 1_conv3
I0126 19:25:40.657452 18965 net.cpp:357] 1_relu3 -> 1_conv3 (in-place)
I0126 19:25:40.657455 18965 net.cpp:120] Setting up 1_relu3
I0126 19:25:40.657457 18965 net.cpp:127] Top shape: 350 64 8 8 (1433600)
I0126 19:25:40.657459 18965 layer_factory.hpp:74] Creating layer 1_pool3
I0126 19:25:40.657462 18965 net.cpp:90] Creating Layer 1_pool3
I0126 19:25:40.657464 18965 net.cpp:410] 1_pool3 <- 1_conv3
I0126 19:25:40.657467 18965 net.cpp:368] 1_pool3 -> 1_pool3
I0126 19:25:40.657469 18965 net.cpp:120] Setting up 1_pool3
I0126 19:25:40.657472 18965 net.cpp:127] Top shape: 350 64 4 4 (358400)
I0126 19:25:40.657474 18965 layer_factory.hpp:74] Creating layer 1_ip1
I0126 19:25:40.657480 18965 net.cpp:90] Creating Layer 1_ip1
I0126 19:25:40.657481 18965 net.cpp:410] 1_ip1 <- 1_pool3
I0126 19:25:40.657485 18965 net.cpp:368] 1_ip1 -> 1_ip1
I0126 19:25:40.657490 18965 net.cpp:120] Setting up 1_ip1
I0126 19:25:40.658967 18965 net.cpp:127] Top shape: 350 64 (22400)
I0126 19:25:40.658972 18965 layer_factory.hpp:74] Creating layer 1_ip2
I0126 19:25:40.658975 18965 net.cpp:90] Creating Layer 1_ip2
I0126 19:25:40.658977 18965 net.cpp:410] 1_ip2 <- 1_ip1
I0126 19:25:40.658982 18965 net.cpp:368] 1_ip2 -> 1_ip2
I0126 19:25:40.658984 18965 net.cpp:120] Setting up 1_ip2
I0126 19:25:40.659004 18965 net.cpp:127] Top shape: 350 10 (3500)
I0126 19:25:40.659010 18965 layer_factory.hpp:74] Creating layer 1_prob
I0126 19:25:40.659014 18965 net.cpp:90] Creating Layer 1_prob
I0126 19:25:40.659016 18965 net.cpp:410] 1_prob <- 1_ip2
I0126 19:25:40.659019 18965 net.cpp:368] 1_prob -> 1_prob
I0126 19:25:40.659023 18965 net.cpp:120] Setting up 1_prob
I0126 19:25:40.659029 18965 net.cpp:127] Top shape: 350 10 (3500)
I0126 19:25:40.659029 18965 layer_factory.hpp:74] Creating layer 2_conv1
I0126 19:25:40.659034 18965 net.cpp:90] Creating Layer 2_conv1
I0126 19:25:40.659036 18965 net.cpp:410] 2_conv1 <- data_cifar_0_split_1
I0126 19:25:40.659039 18965 net.cpp:368] 2_conv1 -> 2_conv1
I0126 19:25:40.659042 18965 net.cpp:120] Setting up 2_conv1
I0126 19:25:40.659104 18965 net.cpp:127] Top shape: 350 32 32 32 (11468800)
I0126 19:25:40.659109 18965 layer_factory.hpp:74] Creating layer 2_pool1
I0126 19:25:40.659112 18965 net.cpp:90] Creating Layer 2_pool1
I0126 19:25:40.659114 18965 net.cpp:410] 2_pool1 <- 2_conv1
I0126 19:25:40.659116 18965 net.cpp:368] 2_pool1 -> 2_pool1
I0126 19:25:40.659119 18965 net.cpp:120] Setting up 2_pool1
I0126 19:25:40.659123 18965 net.cpp:127] Top shape: 350 32 16 16 (2867200)
I0126 19:25:40.659132 18965 layer_factory.hpp:74] Creating layer 2_relu1
I0126 19:25:40.659137 18965 net.cpp:90] Creating Layer 2_relu1
I0126 19:25:40.659138 18965 net.cpp:410] 2_relu1 <- 2_pool1
I0126 19:25:40.659140 18965 net.cpp:357] 2_relu1 -> 2_pool1 (in-place)
I0126 19:25:40.659143 18965 net.cpp:120] Setting up 2_relu1
I0126 19:25:40.659147 18965 net.cpp:127] Top shape: 350 32 16 16 (2867200)
I0126 19:25:40.659148 18965 layer_factory.hpp:74] Creating layer 2_conv2
I0126 19:25:40.659152 18965 net.cpp:90] Creating Layer 2_conv2
I0126 19:25:40.659154 18965 net.cpp:410] 2_conv2 <- 2_pool1
I0126 19:25:40.659157 18965 net.cpp:368] 2_conv2 -> 2_conv2
I0126 19:25:40.659160 18965 net.cpp:120] Setting up 2_conv2
I0126 19:25:40.659737 18965 net.cpp:127] Top shape: 350 32 16 16 (2867200)
I0126 19:25:40.659742 18965 layer_factory.hpp:74] Creating layer 2_relu2
I0126 19:25:40.659746 18965 net.cpp:90] Creating Layer 2_relu2
I0126 19:25:40.659747 18965 net.cpp:410] 2_relu2 <- 2_conv2
I0126 19:25:40.659750 18965 net.cpp:357] 2_relu2 -> 2_conv2 (in-place)
I0126 19:25:40.659754 18965 net.cpp:120] Setting up 2_relu2
I0126 19:25:40.659755 18965 net.cpp:127] Top shape: 350 32 16 16 (2867200)
I0126 19:25:40.659757 18965 layer_factory.hpp:74] Creating layer 2_pool2
I0126 19:25:40.659761 18965 net.cpp:90] Creating Layer 2_pool2
I0126 19:25:40.659764 18965 net.cpp:410] 2_pool2 <- 2_conv2
I0126 19:25:40.659766 18965 net.cpp:368] 2_pool2 -> 2_pool2
I0126 19:25:40.659770 18965 net.cpp:120] Setting up 2_pool2
I0126 19:25:40.659772 18965 net.cpp:127] Top shape: 350 32 8 8 (716800)
I0126 19:25:40.659773 18965 layer_factory.hpp:74] Creating layer 2_conv3
I0126 19:25:40.659778 18965 net.cpp:90] Creating Layer 2_conv3
I0126 19:25:40.659780 18965 net.cpp:410] 2_conv3 <- 2_pool2
I0126 19:25:40.659783 18965 net.cpp:368] 2_conv3 -> 2_conv3
I0126 19:25:40.659785 18965 net.cpp:120] Setting up 2_conv3
I0126 19:25:40.660933 18965 net.cpp:127] Top shape: 350 64 8 8 (1433600)
I0126 19:25:40.660938 18965 layer_factory.hpp:74] Creating layer 2_relu3
I0126 19:25:40.660941 18965 net.cpp:90] Creating Layer 2_relu3
I0126 19:25:40.660943 18965 net.cpp:410] 2_relu3 <- 2_conv3
I0126 19:25:40.660946 18965 net.cpp:357] 2_relu3 -> 2_conv3 (in-place)
I0126 19:25:40.660949 18965 net.cpp:120] Setting up 2_relu3
I0126 19:25:40.660951 18965 net.cpp:127] Top shape: 350 64 8 8 (1433600)
I0126 19:25:40.660953 18965 layer_factory.hpp:74] Creating layer 2_pool3
I0126 19:25:40.660956 18965 net.cpp:90] Creating Layer 2_pool3
I0126 19:25:40.660959 18965 net.cpp:410] 2_pool3 <- 2_conv3
I0126 19:25:40.660961 18965 net.cpp:368] 2_pool3 -> 2_pool3
I0126 19:25:40.660964 18965 net.cpp:120] Setting up 2_pool3
I0126 19:25:40.660967 18965 net.cpp:127] Top shape: 350 64 4 4 (358400)
I0126 19:25:40.660969 18965 layer_factory.hpp:74] Creating layer 2_ip1
I0126 19:25:40.660974 18965 net.cpp:90] Creating Layer 2_ip1
I0126 19:25:40.660974 18965 net.cpp:410] 2_ip1 <- 2_pool3
I0126 19:25:40.660977 18965 net.cpp:368] 2_ip1 -> 2_ip1
I0126 19:25:40.660980 18965 net.cpp:120] Setting up 2_ip1
I0126 19:25:40.662452 18965 net.cpp:127] Top shape: 350 64 (22400)
I0126 19:25:40.662461 18965 layer_factory.hpp:74] Creating layer 2_ip2
I0126 19:25:40.662464 18965 net.cpp:90] Creating Layer 2_ip2
I0126 19:25:40.662467 18965 net.cpp:410] 2_ip2 <- 2_ip1
I0126 19:25:40.662470 18965 net.cpp:368] 2_ip2 -> 2_ip2
I0126 19:25:40.662473 18965 net.cpp:120] Setting up 2_ip2
I0126 19:25:40.662494 18965 net.cpp:127] Top shape: 350 10 (3500)
I0126 19:25:40.662498 18965 layer_factory.hpp:74] Creating layer 2_prob
I0126 19:25:40.662503 18965 net.cpp:90] Creating Layer 2_prob
I0126 19:25:40.662508 18965 net.cpp:410] 2_prob <- 2_ip2
I0126 19:25:40.662511 18965 net.cpp:368] 2_prob -> 2_prob
I0126 19:25:40.662514 18965 net.cpp:120] Setting up 2_prob
I0126 19:25:40.662518 18965 net.cpp:127] Top shape: 350 10 (3500)
I0126 19:25:40.662520 18965 layer_factory.hpp:74] Creating layer 3_conv1
I0126 19:25:40.662524 18965 net.cpp:90] Creating Layer 3_conv1
I0126 19:25:40.662528 18965 net.cpp:410] 3_conv1 <- data_cifar_0_split_2
I0126 19:25:40.662536 18965 net.cpp:368] 3_conv1 -> 3_conv1
I0126 19:25:40.662539 18965 net.cpp:120] Setting up 3_conv1
I0126 19:25:40.662601 18965 net.cpp:127] Top shape: 350 32 32 32 (11468800)
I0126 19:25:40.662606 18965 layer_factory.hpp:74] Creating layer 3_pool1
I0126 19:25:40.662609 18965 net.cpp:90] Creating Layer 3_pool1
I0126 19:25:40.662611 18965 net.cpp:410] 3_pool1 <- 3_conv1
I0126 19:25:40.662613 18965 net.cpp:368] 3_pool1 -> 3_pool1
I0126 19:25:40.662616 18965 net.cpp:120] Setting up 3_pool1
I0126 19:25:40.662621 18965 net.cpp:127] Top shape: 350 32 16 16 (2867200)
I0126 19:25:40.662622 18965 layer_factory.hpp:74] Creating layer 3_relu1
I0126 19:25:40.662626 18965 net.cpp:90] Creating Layer 3_relu1
I0126 19:25:40.662627 18965 net.cpp:410] 3_relu1 <- 3_pool1
I0126 19:25:40.662631 18965 net.cpp:357] 3_relu1 -> 3_pool1 (in-place)
I0126 19:25:40.662632 18965 net.cpp:120] Setting up 3_relu1
I0126 19:25:40.662636 18965 net.cpp:127] Top shape: 350 32 16 16 (2867200)
I0126 19:25:40.662637 18965 layer_factory.hpp:74] Creating layer 3_conv2
I0126 19:25:40.662641 18965 net.cpp:90] Creating Layer 3_conv2
I0126 19:25:40.662642 18965 net.cpp:410] 3_conv2 <- 3_pool1
I0126 19:25:40.662645 18965 net.cpp:368] 3_conv2 -> 3_conv2
I0126 19:25:40.662648 18965 net.cpp:120] Setting up 3_conv2
I0126 19:25:40.663228 18965 net.cpp:127] Top shape: 350 32 16 16 (2867200)
I0126 19:25:40.663233 18965 layer_factory.hpp:74] Creating layer 3_relu2
I0126 19:25:40.663235 18965 net.cpp:90] Creating Layer 3_relu2
I0126 19:25:40.663238 18965 net.cpp:410] 3_relu2 <- 3_conv2
I0126 19:25:40.663240 18965 net.cpp:357] 3_relu2 -> 3_conv2 (in-place)
I0126 19:25:40.663244 18965 net.cpp:120] Setting up 3_relu2
I0126 19:25:40.663245 18965 net.cpp:127] Top shape: 350 32 16 16 (2867200)
I0126 19:25:40.663247 18965 layer_factory.hpp:74] Creating layer 3_pool2
I0126 19:25:40.663250 18965 net.cpp:90] Creating Layer 3_pool2
I0126 19:25:40.663252 18965 net.cpp:410] 3_pool2 <- 3_conv2
I0126 19:25:40.663254 18965 net.cpp:368] 3_pool2 -> 3_pool2
I0126 19:25:40.663257 18965 net.cpp:120] Setting up 3_pool2
I0126 19:25:40.663260 18965 net.cpp:127] Top shape: 350 32 8 8 (716800)
I0126 19:25:40.663262 18965 layer_factory.hpp:74] Creating layer 3_conv3
I0126 19:25:40.663269 18965 net.cpp:90] Creating Layer 3_conv3
I0126 19:25:40.663271 18965 net.cpp:410] 3_conv3 <- 3_pool2
I0126 19:25:40.663275 18965 net.cpp:368] 3_conv3 -> 3_conv3
I0126 19:25:40.663277 18965 net.cpp:120] Setting up 3_conv3
I0126 19:25:40.664422 18965 net.cpp:127] Top shape: 350 64 8 8 (1433600)
I0126 19:25:40.664427 18965 layer_factory.hpp:74] Creating layer 3_relu3
I0126 19:25:40.664429 18965 net.cpp:90] Creating Layer 3_relu3
I0126 19:25:40.664432 18965 net.cpp:410] 3_relu3 <- 3_conv3
I0126 19:25:40.664434 18965 net.cpp:357] 3_relu3 -> 3_conv3 (in-place)
I0126 19:25:40.664436 18965 net.cpp:120] Setting up 3_relu3
I0126 19:25:40.664439 18965 net.cpp:127] Top shape: 350 64 8 8 (1433600)
I0126 19:25:40.664440 18965 layer_factory.hpp:74] Creating layer 3_pool3
I0126 19:25:40.664444 18965 net.cpp:90] Creating Layer 3_pool3
I0126 19:25:40.664446 18965 net.cpp:410] 3_pool3 <- 3_conv3
I0126 19:25:40.664449 18965 net.cpp:368] 3_pool3 -> 3_pool3
I0126 19:25:40.664453 18965 net.cpp:120] Setting up 3_pool3
I0126 19:25:40.664455 18965 net.cpp:127] Top shape: 350 64 4 4 (358400)
I0126 19:25:40.664458 18965 layer_factory.hpp:74] Creating layer 3_ip1
I0126 19:25:40.664460 18965 net.cpp:90] Creating Layer 3_ip1
I0126 19:25:40.664463 18965 net.cpp:410] 3_ip1 <- 3_pool3
I0126 19:25:40.664468 18965 net.cpp:368] 3_ip1 -> 3_ip1
I0126 19:25:40.664470 18965 net.cpp:120] Setting up 3_ip1
I0126 19:25:40.665943 18965 net.cpp:127] Top shape: 350 64 (22400)
I0126 19:25:40.665948 18965 layer_factory.hpp:74] Creating layer 3_ip2
I0126 19:25:40.665952 18965 net.cpp:90] Creating Layer 3_ip2
I0126 19:25:40.665954 18965 net.cpp:410] 3_ip2 <- 3_ip1
I0126 19:25:40.665957 18965 net.cpp:368] 3_ip2 -> 3_ip2
I0126 19:25:40.665961 18965 net.cpp:120] Setting up 3_ip2
I0126 19:25:40.665982 18965 net.cpp:127] Top shape: 350 10 (3500)
I0126 19:25:40.665992 18965 layer_factory.hpp:74] Creating layer 3_prob
I0126 19:25:40.665995 18965 net.cpp:90] Creating Layer 3_prob
I0126 19:25:40.665997 18965 net.cpp:410] 3_prob <- 3_ip2
I0126 19:25:40.666000 18965 net.cpp:368] 3_prob -> 3_prob
I0126 19:25:40.666003 18965 net.cpp:120] Setting up 3_prob
I0126 19:25:40.666007 18965 net.cpp:127] Top shape: 350 10 (3500)
I0126 19:25:40.666008 18965 layer_factory.hpp:74] Creating layer loss
I0126 19:25:40.666015 18965 net.cpp:90] Creating Layer loss
I0126 19:25:40.666018 18965 net.cpp:410] loss <- 1_prob
I0126 19:25:40.666020 18965 net.cpp:410] loss <- 2_prob
I0126 19:25:40.666023 18965 net.cpp:410] loss <- 3_prob
I0126 19:25:40.666025 18965 net.cpp:410] loss <- label
I0126 19:25:40.666029 18965 net.cpp:368] loss -> multiple-output loss
I0126 19:25:40.666035 18965 net.cpp:368] loss -> batch-instance-counts
I0126 19:25:40.666039 18965 net.cpp:368] loss -> train-instance-counts
I0126 19:25:40.666044 18965 net.cpp:120] Setting up loss
I0126 19:25:40.666052 18965 net.cpp:127] Top shape: 3 1 1 1 (3)
I0126 19:25:40.666054 18965 net.cpp:129]     with loss weight 1
I0126 19:25:40.666069 18965 net.cpp:127] Top shape: 3 1 1 1 (3)
I0126 19:25:40.666071 18965 net.cpp:127] Top shape: 3 1 1 1 (3)
I0126 19:25:40.666074 18965 net.cpp:192] loss needs backward computation.
I0126 19:25:40.666076 18965 net.cpp:192] 3_prob needs backward computation.
I0126 19:25:40.666079 18965 net.cpp:192] 3_ip2 needs backward computation.
I0126 19:25:40.666080 18965 net.cpp:192] 3_ip1 needs backward computation.
I0126 19:25:40.666082 18965 net.cpp:192] 3_pool3 needs backward computation.
I0126 19:25:40.666085 18965 net.cpp:192] 3_relu3 needs backward computation.
…
I0126 19:25:40.666826 18965 net.cpp:287] The NetState phase (1) differed from the phase (0) specified by a rule in layer loss
I0126 19:25:40.666960 18965 net.cpp:42] Initializing net from parameters: 
name: "CIFAR10_quick"
state {
  phase: TEST
}
layer {
  name: "cifar"
  type: "Data"
  top: "data"
  top: "label"
  include {
    phase: TEST
  }
  transform_param {
    mean_file: "/home/mike/ml_lab/mod/MCL_Caffe/examples/cifar10/mean.binaryproto"
  }
  data_param {
    source: "/home/mike/ml_lab/mod/MCL_Caffe/examples/cifar10/cifar10_test_lmdb"
    batch_size: 100
    backend: LMDB
  }
}
layer {
  name: "1_conv1"
  type: "Convolution"
  bottom: "data"
  top: "1_conv1"
  param {
    lr_mult: 1
  }
  param {
    lr_mult: 2
  }
  convolution_param {
    num_output: 32
    pad: 2
    kernel_size: 5
    stride: 1
    weight_filler {
      type: "gaussian"
      std: 0.0001
    }
    bias_filler {
      type: "constant"
    }
  }
}
layer {
  name: "1_pool1"
  type: "Pooling"
  bottom: "1_conv1"
  top: "1_pool1"
  pooling_param {
    pool: MAX
    kernel_size: 3
    stride: 2
  }
}
layer {
  name: "1_relu1"
  type: "ReLU"
  bottom: "1_pool1"
  top: "1_pool1"
}
layer {
  name: "1_conv2"
  type: "Convolution"
  bottom: "1_pool1"
  top: "1_conv2"
  param {
    lr_mult: 1
  }
  param {
    lr_mult: 2
  }
  convolution_param {
    num_output: 32
    pad: 2
    kernel_size: 5
    stride: 1
    weight_filler {
      type: "gaussian"
      std: 0.01
    }
    bias_filler {
      type: "constant"
    }
  }
}
layer {
  name: "1_relu2"
  type: "ReLU"
  bottom: "1_conv2"
  top: "1_conv2"
}
layer {
  name: "1_pool2"
  type: "Pooling"
  bottom: "1_conv2"
  top: "1_pool2"
  pooling_param {
    pool: AVE
    kernel_size: 3
    stride: 2
  }
}
layer {
  name: "1_conv3"
  type: "Convolution"
  bottom: "1_pool2"
  top: "1_conv3"
  param {
    lr_mult: 1
  }
  param {
    lr_mult: 2
  }
  convolution_param {
    num_output: 64
    pad: 2
    kernel_size: 5
    stride: 1
    weight_filler {
      type: "gaussian"
      std: 0.01
    }
    bias_filler {
      type: "constant"
    }
  }
}
layer {
  name: "1_relu3"
  type: "ReLU"
  bottom: "1_conv3"
  top: "1_conv3"
}
layer {
  name: "1_pool3"
  type: "Pooling"
  bottom: "1_conv3"
  top: "1_pool3"
  pooling_param {
    pool: AVE
    kernel_size: 3
    stride: 2
  }
}
layer {
  name: "1_ip1"
  type: "InnerProduct"
  bottom: "1_pool3"
  top: "1_ip1"
  param {
    lr_mult: 1
  }
  param {
    lr_mult: 2
  }
  inner_product_param {
    num_output: 64
    weight_filler {
      type: "gaussian"
      std: 0.1
    }
    bias_filler {
      type: "constant"
    }
  }
}
layer {
  name: "1_ip2"
  type: "InnerProduct"
  bottom: "1_ip1"
  top: "1_ip2"
  param {
    lr_mult: 1
  }
  param {
    lr_mult: 2
  }
  inner_product_param {
    num_output: 10
    weight_filler {
      type: "gaussian"
      std: 0.1
    }
    bias_filler {
      type: "constant"
    }
  }
}
layer {
  name: "1_prob"
  type: "Softmax"
  bottom: "1_ip2"
  top: "1_prob"
}
layer {
  name: "2_conv1"
  type: "Convolution"
  bottom: "data"
  top: "2_conv1"
  param {
    lr_mult: 1
  }
  param {
    lr_mult: 2
  }
  convolution_param {
    num_output: 32
    pad: 2
    kernel_size: 5
    stride: 1
    weight_filler {
      type: "gaussian"
      std: 0.0001
    }
    bias_filler {
      type: "constant"
    }
  }
}
layer {
  name: "2_pool1"
  type: "Pooling"
  bottom: "2_conv1"
  top: "2_pool1"
  pooling_param {
    pool: MAX
    kernel_size: 3
    stride: 2
  }
}
layer {
  name: "2_relu1"
  type: "ReLU"
  bottom: "2_pool1"
  top: "2_pool1"
}
layer {
  name: "2_conv2"
  type: "Convolution"
  bottom: "2_pool1"
  top: "2_conv2"
  param {
    lr_mult: 1
  }
  param {
    lr_mult: 2
  }
  convolution_param {
    num_output: 32
    pad: 2
    kernel_size: 5
    stride: 1
    weight_filler {
      type: "gaussian"
      std: 0.01
    }
    bias_filler {
      type: "constant"
    }
  }
}
layer {
  name: "2_relu2"
  type: "ReLU"
  bottom: "2_conv2"
  top: "2_conv2"
}
layer {
  name: "2_pool2"
  type: "Pooling"
  bottom: "2_conv2"
  top: "2_pool2"
  pooling_param {
    pool: AVE
    kernel_size: 3
    stride: 2
  }
}
layer {
  name: "2_conv3"
  type: "Convolution"
  bottom: "2_pool2"
  top: "2_conv3"
  param {
    lr_mult: 1
  }
  param {
    lr_mult: 2
  }
  convolution_param {
    num_output: 64
    pad: 2
    kernel_size: 5
    stride: 1
    weight_filler {
      type: "gaussian"
      std: 0.01
    }
    bias_filler {
      type: "constant"
    }
  }
}
layer {
  name: "2_relu3"
  type: "ReLU"
  bottom: "2_conv3"
  top: "2_conv3"
}
layer {
  name: "2_pool3"
  type: "Pooling"
  bottom: "2_conv3"
  top: "2_pool3"
  pooling_param {
    pool: AVE
    kernel_size: 3
    stride: 2
  }
}
layer {
  name: "2_ip1"
  type: "InnerProduct"
  bottom: "2_pool3"
  top: "2_ip1"
  param {
    lr_mult: 1
  }
  param {
    lr_mult: 2
  }
  inner_product_param {
    num_output: 64
    weight_filler {
      type: "gaussian"
      std: 0.1
    }
    bias_filler {
      type: "constant"
    }
  }
}
layer {
  name: "2_ip2"
  type: "InnerProduct"
  bottom: "2_ip1"
  top: "2_ip2"
  param {
    lr_mult: 1
  }
  param {
    lr_mult: 2
  }
  inner_product_param {
    num_output: 10
    weight_filler {
      type: "gaussian"
      std: 0.1
    }
    bias_filler {
      type: "constant"
    }
  }
}
layer {
  name: "2_prob"
  type: "Softmax"
  bottom: "2_ip2"
  top: "2_prob"
}
layer {
  name: "3_conv1"
  type: "Convolution"
  bottom: "data"
  top: "3_conv1"
  param {
    lr_mult: 1
  }
  param {
    lr_mult: 2
  }
  convolution_param {
    num_output: 32
    pad: 2
    kernel_size: 5
    stride: 1
    weight_filler {
      type: "gaussian"
      std: 0.0001
    }
    bias_filler {
      type: "constant"
    }
  }
}
layer {
  name: "3_pool1"
  type: "Pooling"
  bottom: "3_conv1"
  top: "3_pool1"
  pooling_param {
    pool: MAX
    kernel_size: 3
    stride: 2
  }
}
layer {
  name: "3_relu1"
  type: "ReLU"
  bottom: "3_pool1"
  top: "3_pool1"
}
layer {
  name: "3_conv2"
  type: "Convolution"
  bottom: "3_pool1"
  top: "3_conv2"
  param {
    lr_mult: 1
  }
  param {
    lr_mult: 2
  }
  convolution_param {
    num_output: 32
    pad: 2
    kernel_size: 5
    stride: 1
    weight_filler {
      type: "gaussian"
      std: 0.01
    }
    bias_filler {
      type: "constant"
    }
  }
}
layer {
  name: "3_relu2"
  type: "ReLU"
  bottom: "3_conv2"
  top: "3_conv2"
}
layer {
  name: "3_pool2"
  type: "Pooling"
  bottom: "3_conv2"
  top: "3_pool2"
  pooling_param {
    pool: AVE
    kernel_size: 3
    stride: 2
  }
}
layer {
  name: "3_conv3"
  type: "Convolution"
  bottom: "3_pool2"
  top: "3_conv3"
  param {
    lr_mult: 1
  }
  param {
    lr_mult: 2
  }
  convolution_param {
    num_output: 64
    pad: 2
    kernel_size: 5
    stride: 1
    weight_filler {
      type: "gaussian"
      std: 0.01
    }
    bias_filler {
      type: "constant"
    }
  }
}
layer {
  name: "3_relu3"
  type: "ReLU"
  bottom: "3_conv3"
  top: "3_conv3"
}
layer {
  name: "3_pool3"
  type: "Pooling"
  bottom: "3_conv3"
  top: "3_pool3"
  pooling_param {
    pool: AVE
    kernel_size: 3
    stride: 2
  }
}
layer {
  name: "3_ip1"
  type: "InnerProduct"
  bottom: "3_pool3"
  top: "3_ip1"
  param {
    lr_mult: 1
  }
  param {
    lr_mult: 2
  }
  inner_product_param {
    num_output: 64
    weight_filler {
      type: "gaussian"
      std: 0.1
    }
    bias_filler {
      type: "constant"
    }
  }
}
layer {
  name: "3_ip2"
  type: "InnerProduct"
  bottom: "3_ip1"
  top: "3_ip2"
  param {
    lr_mult: 1
  }
  param {
    lr_mult: 2
  }
  inner_product_param {
    num_output: 10
    weight_filler {
      type: "gaussian"
      std: 0.1
    }
    bias_filler {
      type: "constant"
    }
  }
}
layer {
  name: "3_prob"
  type: "Softmax"
  bottom: "3_ip2"
  top: "3_prob"
}
layer {
  name: "1_accuracy"
  type: "Accuracy"
  bottom: "1_prob"
  bottom: "label"
  top: "1_accuracy"
  include {
    phase: TEST
  }
}
layer {
  name: "2_accuracy"
  type: "Accuracy"
  bottom: "2_prob"
  bottom: "label"
  top: "2_accuracy"
  include {
    phase: TEST
  }
}
layer {
  name: "3_accuracy"
  type: "Accuracy"
  bottom: "3_prob"
  bottom: "label"
  top: "3_accuracy"
  include {
    phase: TEST
  }
}
layer {
  name: "accuracy"
  type: "OracleAccuracy"
  bottom: "1_prob"
  bottom: "2_prob"
  bottom: "3_prob"
  bottom: "label"
  top: "oracle accuracy"
  include {
    phase: TEST
  }
}
I0126 19:25:40.667080 18965 layer_factory.hpp:74] Creating layer cifar
I0126 19:25:40.667085 18965 net.cpp:90] Creating Layer cifar
I0126 19:25:40.667088 18965 net.cpp:368] cifar -> data
I0126 19:25:40.667093 18965 net.cpp:368] cifar -> label
I0126 19:25:40.667096 18965 net.cpp:120] Setting up cifar
I0126 19:25:40.667122 18965 db.cpp:34] Opened lmdb /home/mike/ml_lab/mod/MCL_Caffe/examples/cifar10/cifar10_test_lmdb
I0126 19:25:40.667135 18965 data_layer.cpp:67] output data size: 100,3,32,32
I0126 19:25:40.667140 18965 data_transformer.cpp:22] Loading mean file from: /home/mike/ml_lab/mod/MCL_Caffe/examples/cifar10/mean.binaryproto
I0126 19:25:40.667414 18965 net.cpp:127] Top shape: 100 3 32 32 (307200)
I0126 19:25:40.667418 18965 net.cpp:127] Top shape: 100 (100)
I0126 19:25:40.667420 18965 layer_factory.hpp:74] Creating layer data_cifar_0_split
I0126 19:25:40.667424 18965 net.cpp:90] Creating Layer data_cifar_0_split
I0126 19:25:40.667426 18965 net.cpp:410] data_cifar_0_split <- data
I0126 19:25:40.667430 18965 net.cpp:368] data_cifar_0_split -> data_cifar_0_split_0
I0126 19:25:40.667434 18965 net.cpp:368] data_cifar_0_split -> data_cifar_0_split_1
I0126 19:25:40.667438 18965 net.cpp:368] data_cifar_0_split -> data_cifar_0_split_2
I0126 19:25:40.667440 18965 net.cpp:120] Setting up data_cifar_0_split
I0126 19:25:40.667444 18965 net.cpp:127] Top shape: 100 3 32 32 (307200)
I0126 19:25:40.667446 18965 net.cpp:127] Top shape: 100 3 32 32 (307200)
I0126 19:25:40.667449 18965 net.cpp:127] Top shape: 100 3 32 32 (307200)
I0126 19:25:40.667450 18965 layer_factory.hpp:74] Creating layer label_cifar_1_split
I0126 19:25:40.667454 18965 net.cpp:90] Creating Layer label_cifar_1_split
I0126 19:25:40.667455 18965 net.cpp:410] label_cifar_1_split <- label
I0126 19:25:40.667459 18965 net.cpp:368] label_cifar_1_split -> label_cifar_1_split_0
I0126 19:25:40.667460 18965 net.cpp:368] label_cifar_1_split -> label_cifar_1_split_1
I0126 19:25:40.667464 18965 net.cpp:368] label_cifar_1_split -> label_cifar_1_split_2
I0126 19:25:40.667466 18965 net.cpp:368] label_cifar_1_split -> label_cifar_1_split_3
I0126 19:25:40.667469 18965 net.cpp:120] Setting up label_cifar_1_split
I0126 19:25:40.667474 18965 net.cpp:127] Top shape: 100 (100)
I0126 19:25:40.667475 18965 net.cpp:127] Top shape: 100 (100)
I0126 19:25:40.667477 18965 net.cpp:127] Top shape: 100 (100)
I0126 19:25:40.667480 18965 net.cpp:127] Top shape: 100 (100)
I0126 19:25:40.667481 18965 layer_factory.hpp:74] Creating layer 1_conv1
I0126 19:25:40.667485 18965 net.cpp:90] Creating Layer 1_conv1
I0126 19:25:40.667486 18965 net.cpp:410] 1_conv1 <- data_cifar_0_split_0
I0126 19:25:40.667490 18965 net.cpp:368] 1_conv1 -> 1_conv1
I0126 19:25:40.667493 18965 net.cpp:120] Setting up 1_conv1
I0126 19:25:40.667554 18965 net.cpp:127] Top shape: 100 32 32 32 (3276800)
I0126 19:25:40.667565 18965 layer_factory.hpp:74] Creating layer 1_pool1
I0126 19:25:40.667569 18965 net.cpp:90] Creating Layer 1_pool1
I0126 19:25:40.667572 18965 net.cpp:410] 1_pool1 <- 1_conv1
I0126 19:25:40.667574 18965 net.cpp:368] 1_pool1 -> 1_pool1
I0126 19:25:40.667577 18965 net.cpp:120] Setting up 1_pool1
I0126 19:25:40.667582 18965 net.cpp:127] Top shape: 100 32 16 16 (819200)
I0126 19:25:40.667583 18965 layer_factory.hpp:74] Creating layer 1_relu1
I0126 19:25:40.667585 18965 net.cpp:90] Creating Layer 1_relu1
I0126 19:25:40.667587 18965 net.cpp:410] 1_relu1 <- 1_pool1
I0126 19:25:40.667590 18965 net.cpp:357] 1_relu1 -> 1_pool1 (in-place)
I0126 19:25:40.667593 18965 net.cpp:120] Setting up 1_relu1
I0126 19:25:40.667595 18965 net.cpp:127] Top shape: 100 32 16 16 (819200)
I0126 19:25:40.667598 18965 layer_factory.hpp:74] Creating layer 1_conv2
I0126 19:25:40.667600 18965 net.cpp:90] Creating Layer 1_conv2
I0126 19:25:40.667603 18965 net.cpp:410] 1_conv2 <- 1_pool1
I0126 19:25:40.667605 18965 net.cpp:368] 1_conv2 -> 1_conv2
I0126 19:25:40.667608 18965 net.cpp:120] Setting up 1_conv2
I0126 19:25:40.668185 18965 net.cpp:127] Top shape: 100 32 16 16 (819200)
I0126 19:25:40.668191 18965 layer_factory.hpp:74] Creating layer 1_relu2
I0126 19:25:40.668195 18965 net.cpp:90] Creating Layer 1_relu2
I0126 19:25:40.668197 18965 net.cpp:410] 1_relu2 <- 1_conv2
I0126 19:25:40.668200 18965 net.cpp:357] 1_relu2 -> 1_conv2 (in-place)
I0126 19:25:40.668203 18965 net.cpp:120] Setting up 1_relu2
I0126 19:25:40.668206 18965 net.cpp:127] Top shape: 100 32 16 16 (819200)
I0126 19:25:40.668208 18965 layer_factory.hpp:74] Creating layer 1_pool2
I0126 19:25:40.668211 18965 net.cpp:90] Creating Layer 1_pool2
I0126 19:25:40.668212 18965 net.cpp:410] 1_pool2 <- 1_conv2
I0126 19:25:40.668215 18965 net.cpp:368] 1_pool2 -> 1_pool2
I0126 19:25:40.668218 18965 net.cpp:120] Setting up 1_pool2
I0126 19:25:40.668221 18965 net.cpp:127] Top shape: 100 32 8 8 (204800)
I0126 19:25:40.668223 18965 layer_factory.hpp:74] Creating layer 1_conv3
I0126 19:25:40.668227 18965 net.cpp:90] Creating Layer 1_conv3
I0126 19:25:40.668229 18965 net.cpp:410] 1_conv3 <- 1_pool2
I0126 19:25:40.668232 18965 net.cpp:368] 1_conv3 -> 1_conv3
I0126 19:25:40.668236 18965 net.cpp:120] Setting up 1_conv3
I0126 19:25:40.669387 18965 net.cpp:127] Top shape: 100 64 8 8 (409600)
I0126 19:25:40.669394 18965 layer_factory.hpp:74] Creating layer 1_relu3
I0126 19:25:40.669397 18965 net.cpp:90] Creating Layer 1_relu3
I0126 19:25:40.669399 18965 net.cpp:410] 1_relu3 <- 1_conv3
I0126 19:25:40.669401 18965 net.cpp:357] 1_relu3 -> 1_conv3 (in-place)
I0126 19:25:40.669404 18965 net.cpp:120] Setting up 1_relu3
I0126 19:25:40.669407 18965 net.cpp:127] Top shape: 100 64 8 8 (409600)
I0126 19:25:40.669409 18965 layer_factory.hpp:74] Creating layer 1_pool3
I0126 19:25:40.669412 18965 net.cpp:90] Creating Layer 1_pool3
I0126 19:25:40.669414 18965 net.cpp:410] 1_pool3 <- 1_conv3
I0126 19:25:40.669417 18965 net.cpp:368] 1_pool3 -> 1_pool3
I0126 19:25:40.669420 18965 net.cpp:120] Setting up 1_pool3
I0126 19:25:40.669423 18965 net.cpp:127] Top shape: 100 64 4 4 (102400)
I0126 19:25:40.669425 18965 layer_factory.hpp:74] Creating layer 1_ip1
I0126 19:25:40.669428 18965 net.cpp:90] Creating Layer 1_ip1
I0126 19:25:40.669430 18965 net.cpp:410] 1_ip1 <- 1_pool3
I0126 19:25:40.669433 18965 net.cpp:368] 1_ip1 -> 1_ip1
I0126 19:25:40.669436 18965 net.cpp:120] Setting up 1_ip1
I0126 19:25:40.670899 18965 net.cpp:127] Top shape: 100 64 (6400)
I0126 19:25:40.670904 18965 layer_factory.hpp:74] Creating layer 1_ip2
I0126 19:25:40.670907 18965 net.cpp:90] Creating Layer 1_ip2
I0126 19:25:40.670909 18965 net.cpp:410] 1_ip2 <- 1_ip1
I0126 19:25:40.670914 18965 net.cpp:368] 1_ip2 -> 1_ip2
I0126 19:25:40.670918 18965 net.cpp:120] Setting up 1_ip2
I0126 19:25:40.670939 18965 net.cpp:127] Top shape: 100 10 (1000)
I0126 19:25:40.670944 18965 layer_factory.hpp:74] Creating layer 1_prob
I0126 19:25:40.670948 18965 net.cpp:90] Creating Layer 1_prob
I0126 19:25:40.670949 18965 net.cpp:410] 1_prob <- 1_ip2
I0126 19:25:40.670963 18965 net.cpp:368] 1_prob -> 1_prob
I0126 19:25:40.670965 18965 net.cpp:120] Setting up 1_prob
I0126 19:25:40.670969 18965 net.cpp:127] Top shape: 100 10 (1000)
I0126 19:25:40.670971 18965 layer_factory.hpp:74] Creating layer 1_prob_1_prob_0_split
I0126 19:25:40.670974 18965 net.cpp:90] Creating Layer 1_prob_1_prob_0_split
I0126 19:25:40.670975 18965 net.cpp:410] 1_prob_1_prob_0_split <- 1_prob
I0126 19:25:40.670979 18965 net.cpp:368] 1_prob_1_prob_0_split -> 1_prob_1_prob_0_split_0
I0126 19:25:40.670982 18965 net.cpp:368] 1_prob_1_prob_0_split -> 1_prob_1_prob_0_split_1
I0126 19:25:40.670985 18965 net.cpp:120] Setting up 1_prob_1_prob_0_split
I0126 19:25:40.670989 18965 net.cpp:127] Top shape: 100 10 (1000)
I0126 19:25:40.670990 18965 net.cpp:127] Top shape: 100 10 (1000)
I0126 19:25:40.670992 18965 layer_factory.hpp:74] Creating layer 2_conv1
I0126 19:25:40.670997 18965 net.cpp:90] Creating Layer 2_conv1
I0126 19:25:40.671000 18965 net.cpp:410] 2_conv1 <- data_cifar_0_split_1
I0126 19:25:40.671002 18965 net.cpp:368] 2_conv1 -> 2_conv1
I0126 19:25:40.671005 18965 net.cpp:120] Setting up 2_conv1
I0126 19:25:40.671066 18965 net.cpp:127] Top shape: 100 32 32 32 (3276800)
I0126 19:25:40.671070 18965 layer_factory.hpp:74] Creating layer 2_pool1
I0126 19:25:40.671073 18965 net.cpp:90] Creating Layer 2_pool1
I0126 19:25:40.671075 18965 net.cpp:410] 2_pool1 <- 2_conv1
I0126 19:25:40.671078 18965 net.cpp:368] 2_pool1 -> 2_pool1
I0126 19:25:40.671082 18965 net.cpp:120] Setting up 2_pool1
I0126 19:25:40.671084 18965 net.cpp:127] Top shape: 100 32 16 16 (819200)
I0126 19:25:40.671087 18965 layer_factory.hpp:74] Creating layer 2_relu1
I0126 19:25:40.671089 18965 net.cpp:90] Creating Layer 2_relu1
I0126 19:25:40.671092 18965 net.cpp:410] 2_relu1 <- 2_pool1
I0126 19:25:40.671094 18965 net.cpp:357] 2_relu1 -> 2_pool1 (in-place)
I0126 19:25:40.671097 18965 net.cpp:120] Setting up 2_relu1
I0126 19:25:40.671099 18965 net.cpp:127] Top shape: 100 32 16 16 (819200)
I0126 19:25:40.671102 18965 layer_factory.hpp:74] Creating layer 2_conv2
I0126 19:25:40.671103 18965 net.cpp:90] Creating Layer 2_conv2
I0126 19:25:40.671105 18965 net.cpp:410] 2_conv2 <- 2_pool1
I0126 19:25:40.671108 18965 net.cpp:368] 2_conv2 -> 2_conv2
I0126 19:25:40.671111 18965 net.cpp:120] Setting up 2_conv2
I0126 19:25:40.671685 18965 net.cpp:127] Top shape: 100 32 16 16 (819200)
I0126 19:25:40.671690 18965 layer_factory.hpp:74] Creating layer 2_relu2
I0126 19:25:40.671694 18965 net.cpp:90] Creating Layer 2_relu2
I0126 19:25:40.671695 18965 net.cpp:410] 2_relu2 <- 2_conv2
I0126 19:25:40.671699 18965 net.cpp:357] 2_relu2 -> 2_conv2 (in-place)
I0126 19:25:40.671701 18965 net.cpp:120] Setting up 2_relu2
I0126 19:25:40.671703 18965 net.cpp:127] Top shape: 100 32 16 16 (819200)
I0126 19:25:40.671705 18965 layer_factory.hpp:74] Creating layer 2_pool2
I0126 19:25:40.671707 18965 net.cpp:90] Creating Layer 2_pool2
I0126 19:25:40.671710 18965 net.cpp:410] 2_pool2 <- 2_conv2
I0126 19:25:40.671712 18965 net.cpp:368] 2_pool2 -> 2_pool2
I0126 19:25:40.671715 18965 net.cpp:120] Setting up 2_pool2
I0126 19:25:40.671718 18965 net.cpp:127] Top shape: 100 32 8 8 (204800)
I0126 19:25:40.671720 18965 layer_factory.hpp:74] Creating layer 2_conv3
I0126 19:25:40.671723 18965 net.cpp:90] Creating Layer 2_conv3
I0126 19:25:40.671725 18965 net.cpp:410] 2_conv3 <- 2_pool2
I0126 19:25:40.671730 18965 net.cpp:368] 2_conv3 -> 2_conv3
I0126 19:25:40.671732 18965 net.cpp:120] Setting up 2_conv3
I0126 19:25:40.672873 18965 net.cpp:127] Top shape: 100 64 8 8 (409600)
I0126 19:25:40.672878 18965 layer_factory.hpp:74] Creating layer 2_relu3
I0126 19:25:40.672881 18965 net.cpp:90] Creating Layer 2_relu3
I0126 19:25:40.672883 18965 net.cpp:410] 2_relu3 <- 2_conv3
I0126 19:25:40.672886 18965 net.cpp:357] 2_relu3 -> 2_conv3 (in-place)
I0126 19:25:40.672889 18965 net.cpp:120] Setting up 2_relu3
I0126 19:25:40.672891 18965 net.cpp:127] Top shape: 100 64 8 8 (409600)
I0126 19:25:40.672894 18965 layer_factory.hpp:74] Creating layer 2_pool3
I0126 19:25:40.672895 18965 net.cpp:90] Creating Layer 2_pool3
I0126 19:25:40.672902 18965 net.cpp:410] 2_pool3 <- 2_conv3
I0126 19:25:40.672905 18965 net.cpp:368] 2_pool3 -> 2_pool3
I0126 19:25:40.672909 18965 net.cpp:120] Setting up 2_pool3
I0126 19:25:40.672911 18965 net.cpp:127] Top shape: 100 64 4 4 (102400)
I0126 19:25:40.672914 18965 layer_factory.hpp:74] Creating layer 2_ip1
I0126 19:25:40.672916 18965 net.cpp:90] Creating Layer 2_ip1
I0126 19:25:40.672919 18965 net.cpp:410] 2_ip1 <- 2_pool3
I0126 19:25:40.672920 18965 net.cpp:368] 2_ip1 -> 2_ip1
I0126 19:25:40.672924 18965 net.cpp:120] Setting up 2_ip1
I0126 19:25:40.674394 18965 net.cpp:127] Top shape: 100 64 (6400)
I0126 19:25:40.674401 18965 layer_factory.hpp:74] Creating layer 2_ip2
I0126 19:25:40.674406 18965 net.cpp:90] Creating Layer 2_ip2
I0126 19:25:40.674407 18965 net.cpp:410] 2_ip2 <- 2_ip1
I0126 19:25:40.674412 18965 net.cpp:368] 2_ip2 -> 2_ip2
I0126 19:25:40.674414 18965 net.cpp:120] Setting up 2_ip2
I0126 19:25:40.674434 18965 net.cpp:127] Top shape: 100 10 (1000)
I0126 19:25:40.674437 18965 layer_factory.hpp:74] Creating layer 2_prob
I0126 19:25:40.674443 18965 net.cpp:90] Creating Layer 2_prob
I0126 19:25:40.674444 18965 net.cpp:410] 2_prob <- 2_ip2
I0126 19:25:40.674446 18965 net.cpp:368] 2_prob -> 2_prob
I0126 19:25:40.674449 18965 net.cpp:120] Setting up 2_prob
I0126 19:25:40.674453 18965 net.cpp:127] Top shape: 100 10 (1000)
I0126 19:25:40.674455 18965 layer_factory.hpp:74] Creating layer 2_prob_2_prob_0_split
I0126 19:25:40.674458 18965 net.cpp:90] Creating Layer 2_prob_2_prob_0_split
I0126 19:25:40.674459 18965 net.cpp:410] 2_prob_2_prob_0_split <- 2_prob
I0126 19:25:40.674463 18965 net.cpp:368] 2_prob_2_prob_0_split -> 2_prob_2_prob_0_split_0
I0126 19:25:40.674465 18965 net.cpp:368] 2_prob_2_prob_0_split -> 2_prob_2_prob_0_split_1
I0126 19:25:40.674468 18965 net.cpp:120] Setting up 2_prob_2_prob_0_split
I0126 19:25:40.674471 18965 net.cpp:127] Top shape: 100 10 (1000)
I0126 19:25:40.674474 18965 net.cpp:127] Top shape: 100 10 (1000)
I0126 19:25:40.674475 18965 layer_factory.hpp:74] Creating layer 3_conv1
I0126 19:25:40.674479 18965 net.cpp:90] Creating Layer 3_conv1
I0126 19:25:40.674481 18965 net.cpp:410] 3_conv1 <- data_cifar_0_split_2
I0126 19:25:40.674485 18965 net.cpp:368] 3_conv1 -> 3_conv1
I0126 19:25:40.674489 18965 net.cpp:120] Setting up 3_conv1
I0126 19:25:40.674549 18965 net.cpp:127] Top shape: 100 32 32 32 (3276800)
I0126 19:25:40.674553 18965 layer_factory.hpp:74] Creating layer 3_pool1
I0126 19:25:40.674556 18965 net.cpp:90] Creating Layer 3_pool1
I0126 19:25:40.674558 18965 net.cpp:410] 3_pool1 <- 3_conv1
I0126 19:25:40.674561 18965 net.cpp:368] 3_pool1 -> 3_pool1
I0126 19:25:40.674566 18965 net.cpp:120] Setting up 3_pool1
I0126 19:25:40.674569 18965 net.cpp:127] Top shape: 100 32 16 16 (819200)
I0126 19:25:40.674571 18965 layer_factory.hpp:74] Creating layer 3_relu1
I0126 19:25:40.674573 18965 net.cpp:90] Creating Layer 3_relu1
I0126 19:25:40.674576 18965 net.cpp:410] 3_relu1 <- 3_pool1
I0126 19:25:40.674578 18965 net.cpp:357] 3_relu1 -> 3_pool1 (in-place)
I0126 19:25:40.674581 18965 net.cpp:120] Setting up 3_relu1
I0126 19:25:40.674583 18965 net.cpp:127] Top shape: 100 32 16 16 (819200)
I0126 19:25:40.674584 18965 layer_factory.hpp:74] Creating layer 3_conv2
I0126 19:25:40.674589 18965 net.cpp:90] Creating Layer 3_conv2
I0126 19:25:40.674592 18965 net.cpp:410] 3_conv2 <- 3_pool1
I0126 19:25:40.674594 18965 net.cpp:368] 3_conv2 -> 3_conv2
I0126 19:25:40.674597 18965 net.cpp:120] Setting up 3_conv2
I0126 19:25:40.675169 18965 net.cpp:127] Top shape: 100 32 16 16 (819200)
I0126 19:25:40.675174 18965 layer_factory.hpp:74] Creating layer 3_relu2
I0126 19:25:40.675178 18965 net.cpp:90] Creating Layer 3_relu2
I0126 19:25:40.675179 18965 net.cpp:410] 3_relu2 <- 3_conv2
I0126 19:25:40.675184 18965 net.cpp:357] 3_relu2 -> 3_conv2 (in-place)
I0126 19:25:40.675186 18965 net.cpp:120] Setting up 3_relu2
I0126 19:25:40.675189 18965 net.cpp:127] Top shape: 100 32 16 16 (819200)
I0126 19:25:40.675190 18965 layer_factory.hpp:74] Creating layer 3_pool2
I0126 19:25:40.675194 18965 net.cpp:90] Creating Layer 3_pool2
I0126 19:25:40.675200 18965 net.cpp:410] 3_pool2 <- 3_conv2
I0126 19:25:40.675204 18965 net.cpp:368] 3_pool2 -> 3_pool2
I0126 19:25:40.675206 18965 net.cpp:120] Setting up 3_pool2
I0126 19:25:40.675209 18965 net.cpp:127] Top shape: 100 32 8 8 (204800)
I0126 19:25:40.675211 18965 layer_factory.hpp:74] Creating layer 3_conv3
I0126 19:25:40.675215 18965 net.cpp:90] Creating Layer 3_conv3
I0126 19:25:40.675217 18965 net.cpp:410] 3_conv3 <- 3_pool2
I0126 19:25:40.675220 18965 net.cpp:368] 3_conv3 -> 3_conv3
I0126 19:25:40.675223 18965 net.cpp:120] Setting up 3_conv3
I0126 19:25:40.676367 18965 net.cpp:127] Top shape: 100 64 8 8 (409600)
I0126 19:25:40.676372 18965 layer_factory.hpp:74] Creating layer 3_relu3
I0126 19:25:40.676374 18965 net.cpp:90] Creating Layer 3_relu3
I0126 19:25:40.676376 18965 net.cpp:410] 3_relu3 <- 3_conv3
I0126 19:25:40.676379 18965 net.cpp:357] 3_relu3 -> 3_conv3 (in-place)
I0126 19:25:40.676381 18965 net.cpp:120] Setting up 3_relu3
I0126 19:25:40.676384 18965 net.cpp:127] Top shape: 100 64 8 8 (409600)
I0126 19:25:40.676386 18965 layer_factory.hpp:74] Creating layer 3_pool3
I0126 19:25:40.676388 18965 net.cpp:90] Creating Layer 3_pool3
I0126 19:25:40.676390 18965 net.cpp:410] 3_pool3 <- 3_conv3
I0126 19:25:40.676393 18965 net.cpp:368] 3_pool3 -> 3_pool3
I0126 19:25:40.676396 18965 net.cpp:120] Setting up 3_pool3
I0126 19:25:40.676399 18965 net.cpp:127] Top shape: 100 64 4 4 (102400)
I0126 19:25:40.676400 18965 layer_factory.hpp:74] Creating layer 3_ip1
I0126 19:25:40.676403 18965 net.cpp:90] Creating Layer 3_ip1
I0126 19:25:40.676405 18965 net.cpp:410] 3_ip1 <- 3_pool3
I0126 19:25:40.676409 18965 net.cpp:368] 3_ip1 -> 3_ip1
I0126 19:25:40.676411 18965 net.cpp:120] Setting up 3_ip1
I0126 19:25:40.677883 18965 net.cpp:127] Top shape: 100 64 (6400)
I0126 19:25:40.677888 18965 layer_factory.hpp:74] Creating layer 3_ip2
I0126 19:25:40.677892 18965 net.cpp:90] Creating Layer 3_ip2
I0126 19:25:40.677894 18965 net.cpp:410] 3_ip2 <- 3_ip1
I0126 19:25:40.677897 18965 net.cpp:368] 3_ip2 -> 3_ip2
I0126 19:25:40.677901 18965 net.cpp:120] Setting up 3_ip2
I0126 19:25:40.677920 18965 net.cpp:127] Top shape: 100 10 (1000)
I0126 19:25:40.677924 18965 layer_factory.hpp:74] Creating layer 3_prob
I0126 19:25:40.677928 18965 net.cpp:90] Creating Layer 3_prob
I0126 19:25:40.677930 18965 net.cpp:410] 3_prob <- 3_ip2
I0126 19:25:40.677932 18965 net.cpp:368] 3_prob -> 3_prob
I0126 19:25:40.677935 18965 net.cpp:120] Setting up 3_prob
I0126 19:25:40.677939 18965 net.cpp:127] Top shape: 100 10 (1000)
I0126 19:25:40.677940 18965 layer_factory.hpp:74] Creating layer 3_prob_3_prob_0_split
I0126 19:25:40.677943 18965 net.cpp:90] Creating Layer 3_prob_3_prob_0_split
I0126 19:25:40.677945 18965 net.cpp:410] 3_prob_3_prob_0_split <- 3_prob
I0126 19:25:40.677948 18965 net.cpp:368] 3_prob_3_prob_0_split -> 3_prob_3_prob_0_split_0
I0126 19:25:40.677952 18965 net.cpp:368] 3_prob_3_prob_0_split -> 3_prob_3_prob_0_split_1
I0126 19:25:40.677954 18965 net.cpp:120] Setting up 3_prob_3_prob_0_split
I0126 19:25:40.677956 18965 net.cpp:127] Top shape: 100 10 (1000)
I0126 19:25:40.677959 18965 net.cpp:127] Top shape: 100 10 (1000)
I0126 19:25:40.677960 18965 layer_factory.hpp:74] Creating layer 1_accuracy
I0126 19:25:40.677963 18965 net.cpp:90] Creating Layer 1_accuracy
I0126 19:25:40.677965 18965 net.cpp:410] 1_accuracy <- 1_prob_1_prob_0_split_0
I0126 19:25:40.677969 18965 net.cpp:410] 1_accuracy <- label_cifar_1_split_0
I0126 19:25:40.677973 18965 net.cpp:368] 1_accuracy -> 1_accuracy
I0126 19:25:40.677974 18965 net.cpp:120] Setting up 1_accuracy
…
