…
I0126 15:36:49.456001  1571 net.cpp:287] The NetState phase (0) differed from the phase (1) specified by a rule in layer accuracy
I0126 15:36:49.456239  1571 net.cpp:42] Initializing net from parameters: 
name: "CIFAR10_quick"
state {
  phase: TRAIN
}
layer {
  name: "cifar"
  type: "Data"
  top: "data"
  top: "label"
  include {
    phase: TRAIN
  }
  transform_param {
    mean_file: "/home/mike/ml_lab/mod/MCL_Caffe/examples/cifar10/mean.binaryproto"
  }
  data_param {
    source: "/home/mike/ml_lab/mod/MCL_Caffe/examples/cifar10/cifar10_train_lmdb"
    batch_size: 350
    backend: LMDB
  }
}
layer {
  name: "1_conv1"
  type: "Convolution"
  bottom: "data"
  top: "1_conv1"
  param {
    lr_mult: 1
  }
  param {
    lr_mult: 2
  }
  convolution_param {
    num_output: 32
    pad: 2
    kernel_size: 5
    stride: 1
    weight_filler {
      type: "gaussian"
      std: 0.0001
    }
    bias_filler {
      type: "constant"
    }
  }
}
layer {
  name: "1_pool1"
  type: "Pooling"
  bottom: "1_conv1"
  top: "1_pool1"
  pooling_param {
    pool: MAX
    kernel_size: 3
    stride: 2
  }
}
layer {
  name: "1_relu1"
  type: "ReLU"
  bottom: "1_pool1"
  top: "1_pool1"
}
layer {
  name: "1_conv2"
  type: "Convolution"
  bottom: "1_pool1"
  top: "1_conv2"
  param {
    lr_mult: 1
  }
  param {
    lr_mult: 2
  }
  convolution_param {
    num_output: 32
    pad: 2
    kernel_size: 5
    stride: 1
    weight_filler {
      type: "gaussian"
      std: 0.01
    }
    bias_filler {
      type: "constant"
    }
  }
}
layer {
  name: "1_relu2"
  type: "ReLU"
  bottom: "1_conv2"
  top: "1_conv2"
}
layer {
  name: "1_pool2"
  type: "Pooling"
  bottom: "1_conv2"
  top: "1_pool2"
  pooling_param {
    pool: AVE
    kernel_size: 3
    stride: 2
  }
}
layer {
  name: "1_conv3"
  type: "Convolution"
  bottom: "1_pool2"
  top: "1_conv3"
  param {
    lr_mult: 1
  }
  param {
    lr_mult: 2
  }
  convolution_param {
    num_output: 64
    pad: 2
    kernel_size: 5
    stride: 1
    weight_filler {
      type: "gaussian"
      std: 0.01
    }
    bias_filler {
      type: "constant"
    }
  }
}
layer {
  name: "1_relu3"
  type: "ReLU"
  bottom: "1_conv3"
  top: "1_conv3"
}
layer {
  name: "1_pool3"
  type: "Pooling"
  bottom: "1_conv3"
  top: "1_pool3"
  pooling_param {
    pool: AVE
    kernel_size: 3
    stride: 2
  }
}
layer {
  name: "1_ip1"
  type: "InnerProduct"
  bottom: "1_pool3"
  top: "1_ip1"
  param {
    lr_mult: 1
  }
  param {
    lr_mult: 2
  }
  inner_product_param {
    num_output: 64
    weight_filler {
      type: "gaussian"
      std: 0.1
    }
    bias_filler {
      type: "constant"
    }
  }
}
layer {
  name: "1_ip2"
  type: "InnerProduct"
  bottom: "1_ip1"
  top: "1_ip2"
  param {
    lr_mult: 1
  }
  param {
    lr_mult: 2
  }
  inner_product_param {
    num_output: 10
    weight_filler {
      type: "gaussian"
      std: 0.1
    }
    bias_filler {
      type: "constant"
    }
  }
}
layer {
  name: "1_prob"
  type: "Softmax"
  bottom: "1_ip2"
  top: "1_prob"
}
layer {
  name: "2_conv1"
  type: "Convolution"
  bottom: "data"
  top: "2_conv1"
  param {
    lr_mult: 1
  }
  param {
    lr_mult: 2
  }
  convolution_param {
    num_output: 32
    pad: 2
    kernel_size: 5
    stride: 1
    weight_filler {
      type: "gaussian"
      std: 0.0001
    }
    bias_filler {
      type: "constant"
    }
  }
}
layer {
  name: "2_pool1"
  type: "Pooling"
  bottom: "2_conv1"
  top: "2_pool1"
  pooling_param {
    pool: MAX
    kernel_size: 3
    stride: 2
  }
}
layer {
  name: "2_relu1"
  type: "ReLU"
  bottom: "2_pool1"
  top: "2_pool1"
}
layer {
  name: "2_conv2"
  type: "Convolution"
  bottom: "2_pool1"
  top: "2_conv2"
  param {
    lr_mult: 1
  }
  param {
    lr_mult: 2
  }
  convolution_param {
    num_output: 32
    pad: 2
    kernel_size: 5
    stride: 1
    weight_filler {
      type: "gaussian"
      std: 0.01
    }
    bias_filler {
      type: "constant"
    }
  }
}
layer {
  name: "2_relu2"
  type: "ReLU"
  bottom: "2_conv2"
  top: "2_conv2"
}
layer {
  name: "2_pool2"
  type: "Pooling"
  bottom: "2_conv2"
  top: "2_pool2"
  pooling_param {
    pool: AVE
    kernel_size: 3
    stride: 2
  }
}
layer {
  name: "2_conv3"
  type: "Convolution"
  bottom: "2_pool2"
  top: "2_conv3"
  param {
    lr_mult: 1
  }
  param {
    lr_mult: 2
  }
  convolution_param {
    num_output: 64
    pad: 2
    kernel_size: 5
    stride: 1
    weight_filler {
      type: "gaussian"
      std: 0.01
    }
    bias_filler {
      type: "constant"
    }
  }
}
layer {
  name: "2_relu3"
  type: "ReLU"
  bottom: "2_conv3"
  top: "2_conv3"
}
layer {
  name: "2_pool3"
  type: "Pooling"
  bottom: "2_conv3"
  top: "2_pool3"
  pooling_param {
    pool: AVE
    kernel_size: 3
    stride: 2
  }
}
layer {
  name: "2_ip1"
  type: "InnerProduct"
  bottom: "2_pool3"
  top: "2_ip1"
  param {
    lr_mult: 1
  }
  param {
    lr_mult: 2
  }
  inner_product_param {
    num_output: 64
    weight_filler {
      type: "gaussian"
      std: 0.1
    }
    bias_filler {
      type: "constant"
    }
  }
}
layer {
  name: "2_ip2"
  type: "InnerProduct"
  bottom: "2_ip1"
  top: "2_ip2"
  param {
    lr_mult: 1
  }
  param {
    lr_mult: 2
  }
  inner_product_param {
    num_output: 10
    weight_filler {
      type: "gaussian"
      std: 0.1
    }
    bias_filler {
      type: "constant"
    }
  }
}
layer {
  name: "2_prob"
  type: "Softmax"
  bottom: "2_ip2"
  top: "2_prob"
}
layer {
  name: "3_conv1"
  type: "Convolution"
  bottom: "data"
  top: "3_conv1"
  param {
    lr_mult: 1
  }
  param {
    lr_mult: 2
  }
  convolution_param {
    num_output: 32
    pad: 2
    kernel_size: 5
    stride: 1
    weight_filler {
      type: "gaussian"
      std: 0.0001
    }
    bias_filler {
      type: "constant"
    }
  }
}
layer {
  name: "3_pool1"
  type: "Pooling"
  bottom: "3_conv1"
  top: "3_pool1"
  pooling_param {
    pool: MAX
    kernel_size: 3
    stride: 2
  }
}
layer {
  name: "3_relu1"
  type: "ReLU"
  bottom: "3_pool1"
  top: "3_pool1"
}
layer {
  name: "3_conv2"
  type: "Convolution"
  bottom: "3_pool1"
  top: "3_conv2"
  param {
    lr_mult: 1
  }
  param {
    lr_mult: 2
  }
  convolution_param {
    num_output: 32
    pad: 2
    kernel_size: 5
    stride: 1
    weight_filler {
      type: "gaussian"
      std: 0.01
    }
    bias_filler {
      type: "constant"
    }
  }
}
layer {
  name: "3_relu2"
  type: "ReLU"
  bottom: "3_conv2"
  top: "3_conv2"
}
layer {
  name: "3_pool2"
  type: "Pooling"
  bottom: "3_conv2"
  top: "3_pool2"
  pooling_param {
    pool: AVE
    kernel_size: 3
    stride: 2
  }
}
layer {
  name: "3_conv3"
  type: "Convolution"
  bottom: "3_pool2"
  top: "3_conv3"
  param {
    lr_mult: 1
  }
  param {
    lr_mult: 2
  }
  convolution_param {
    num_output: 64
    pad: 2
    kernel_size: 5
    stride: 1
    weight_filler {
      type: "gaussian"
      std: 0.01
    }
    bias_filler {
      type: "constant"
    }
  }
}
layer {
  name: "3_relu3"
  type: "ReLU"
  bottom: "3_conv3"
  top: "3_conv3"
}
layer {
  name: "3_pool3"
  type: "Pooling"
  bottom: "3_conv3"
  top: "3_pool3"
  pooling_param {
    pool: AVE
    kernel_size: 3
    stride: 2
  }
}
layer {
  name: "3_ip1"
  type: "InnerProduct"
  bottom: "3_pool3"
  top: "3_ip1"
  param {
    lr_mult: 1
  }
  param {
    lr_mult: 2
  }
  inner_product_param {
    num_output: 64
    weight_filler {
      type: "gaussian"
      std: 0.1
    }
    bias_filler {
      type: "constant"
    }
  }
}
layer {
  name: "3_ip2"
  type: "InnerProduct"
  bottom: "3_ip1"
  top: "3_ip2"
  param {
    lr_mult: 1
  }
  param {
    lr_mult: 2
  }
  inner_product_param {
    num_output: 10
    weight_filler {
      type: "gaussian"
      std: 0.1
    }
    bias_filler {
      type: "constant"
    }
  }
}
layer {
  name: "3_prob"
  type: "Softmax"
  bottom: "3_ip2"
  top: "3_prob"
}
layer {
  name: "loss"
  type: "ODMultinomialLogisticLoss"
  bottom: "1_prob"
  bottom: "2_prob"
  bottom: "3_prob"
  bottom: "label"
  top: "multiple-output loss"
  top: "batch-instance-counts"
  top: "train-instance-counts"
  loss_weight: 1
  loss_weight: 0
  loss_weight: 0
  include {
    phase: TRAIN
  }
}
I0126 15:36:49.456446  1571 layer_factory.hpp:74] Creating layer cifar
I0126 15:36:49.456465  1571 net.cpp:90] Creating Layer cifar
I0126 15:36:49.456472  1571 net.cpp:368] cifar -> data
I0126 15:36:49.456496  1571 net.cpp:368] cifar -> label
I0126 15:36:49.456506  1571 net.cpp:120] Setting up cifar
I0126 15:36:49.456559  1571 db.cpp:34] Opened lmdb /home/mike/ml_lab/mod/MCL_Caffe/examples/cifar10/cifar10_train_lmdb
I0126 15:36:49.456605  1571 data_layer.cpp:67] output data size: 350,3,32,32
I0126 15:36:49.456614  1571 data_transformer.cpp:22] Loading mean file from: /home/mike/ml_lab/mod/MCL_Caffe/examples/cifar10/mean.binaryproto
I0126 15:36:49.457448  1571 net.cpp:127] Top shape: 350 3 32 32 (1075200)
I0126 15:36:49.457473  1571 net.cpp:127] Top shape: 350 (350)
I0126 15:36:49.457489  1571 layer_factory.hpp:74] Creating layer data_cifar_0_split
I0126 15:36:49.457506  1571 net.cpp:90] Creating Layer data_cifar_0_split
I0126 15:36:49.457521  1571 net.cpp:410] data_cifar_0_split <- data
I0126 15:36:49.457540  1571 net.cpp:368] data_cifar_0_split -> data_cifar_0_split_0
I0126 15:36:49.457557  1571 net.cpp:368] data_cifar_0_split -> data_cifar_0_split_1
I0126 15:36:49.457573  1571 net.cpp:368] data_cifar_0_split -> data_cifar_0_split_2
I0126 15:36:49.457589  1571 net.cpp:120] Setting up data_cifar_0_split
I0126 15:36:49.457605  1571 net.cpp:127] Top shape: 350 3 32 32 (1075200)
I0126 15:36:49.457619  1571 net.cpp:127] Top shape: 350 3 32 32 (1075200)
I0126 15:36:49.457633  1571 net.cpp:127] Top shape: 350 3 32 32 (1075200)
I0126 15:36:49.457643  1571 layer_factory.hpp:74] Creating layer 1_conv1
I0126 15:36:49.457661  1571 net.cpp:90] Creating Layer 1_conv1
I0126 15:36:49.457674  1571 net.cpp:410] 1_conv1 <- data_cifar_0_split_0
I0126 15:36:49.457689  1571 net.cpp:368] 1_conv1 -> 1_conv1
I0126 15:36:49.457705  1571 net.cpp:120] Setting up 1_conv1
I0126 15:36:49.458289  1571 net.cpp:127] Top shape: 350 32 32 32 (11468800)
I0126 15:36:49.458318  1571 layer_factory.hpp:74] Creating layer 1_pool1
I0126 15:36:49.458334  1571 net.cpp:90] Creating Layer 1_pool1
I0126 15:36:49.458348  1571 net.cpp:410] 1_pool1 <- 1_conv1
I0126 15:36:49.458360  1571 net.cpp:368] 1_pool1 -> 1_pool1
I0126 15:36:49.458376  1571 net.cpp:120] Setting up 1_pool1
I0126 15:36:49.458400  1571 net.cpp:127] Top shape: 350 32 16 16 (2867200)
I0126 15:36:49.458412  1571 layer_factory.hpp:74] Creating layer 1_relu1
I0126 15:36:49.458425  1571 net.cpp:90] Creating Layer 1_relu1
I0126 15:36:49.458437  1571 net.cpp:410] 1_relu1 <- 1_pool1
I0126 15:36:49.458449  1571 net.cpp:357] 1_relu1 -> 1_pool1 (in-place)
I0126 15:36:49.458462  1571 net.cpp:120] Setting up 1_relu1
I0126 15:36:49.458477  1571 net.cpp:127] Top shape: 350 32 16 16 (2867200)
I0126 15:36:49.458489  1571 layer_factory.hpp:74] Creating layer 1_conv2
I0126 15:36:49.458508  1571 net.cpp:90] Creating Layer 1_conv2
I0126 15:36:49.458525  1571 net.cpp:410] 1_conv2 <- 1_pool1
I0126 15:36:49.458540  1571 net.cpp:368] 1_conv2 -> 1_conv2
I0126 15:36:49.458554  1571 net.cpp:120] Setting up 1_conv2
I0126 15:36:49.459359  1571 net.cpp:127] Top shape: 350 32 16 16 (2867200)
I0126 15:36:49.459378  1571 layer_factory.hpp:74] Creating layer 1_relu2
I0126 15:36:49.459391  1571 net.cpp:90] Creating Layer 1_relu2
I0126 15:36:49.459403  1571 net.cpp:410] 1_relu2 <- 1_conv2
I0126 15:36:49.459417  1571 net.cpp:357] 1_relu2 -> 1_conv2 (in-place)
I0126 15:36:49.459430  1571 net.cpp:120] Setting up 1_relu2
I0126 15:36:49.459444  1571 net.cpp:127] Top shape: 350 32 16 16 (2867200)
I0126 15:36:49.459455  1571 layer_factory.hpp:74] Creating layer 1_pool2
I0126 15:36:49.459467  1571 net.cpp:90] Creating Layer 1_pool2
I0126 15:36:49.459480  1571 net.cpp:410] 1_pool2 <- 1_conv2
I0126 15:36:49.459491  1571 net.cpp:368] 1_pool2 -> 1_pool2
I0126 15:36:49.459507  1571 net.cpp:120] Setting up 1_pool2
I0126 15:36:49.459522  1571 net.cpp:127] Top shape: 350 32 8 8 (716800)
I0126 15:36:49.459534  1571 layer_factory.hpp:74] Creating layer 1_conv3
I0126 15:36:49.459548  1571 net.cpp:90] Creating Layer 1_conv3
I0126 15:36:49.459559  1571 net.cpp:410] 1_conv3 <- 1_pool2
I0126 15:36:49.459574  1571 net.cpp:368] 1_conv3 -> 1_conv3
I0126 15:36:49.459589  1571 net.cpp:120] Setting up 1_conv3
I0126 15:36:49.461182  1571 net.cpp:127] Top shape: 350 64 8 8 (1433600)
I0126 15:36:49.461205  1571 layer_factory.hpp:74] Creating layer 1_relu3
I0126 15:36:49.461220  1571 net.cpp:90] Creating Layer 1_relu3
I0126 15:36:49.461231  1571 net.cpp:410] 1_relu3 <- 1_conv3
I0126 15:36:49.461244  1571 net.cpp:357] 1_relu3 -> 1_conv3 (in-place)
I0126 15:36:49.461258  1571 net.cpp:120] Setting up 1_relu3
I0126 15:36:49.461272  1571 net.cpp:127] Top shape: 350 64 8 8 (1433600)
I0126 15:36:49.461284  1571 layer_factory.hpp:74] Creating layer 1_pool3
I0126 15:36:49.461297  1571 net.cpp:90] Creating Layer 1_pool3
I0126 15:36:49.461309  1571 net.cpp:410] 1_pool3 <- 1_conv3
I0126 15:36:49.461323  1571 net.cpp:368] 1_pool3 -> 1_pool3
I0126 15:36:49.461338  1571 net.cpp:120] Setting up 1_pool3
I0126 15:36:49.461354  1571 net.cpp:127] Top shape: 350 64 4 4 (358400)
I0126 15:36:49.461365  1571 layer_factory.hpp:74] Creating layer 1_ip1
I0126 15:36:49.461380  1571 net.cpp:90] Creating Layer 1_ip1
I0126 15:36:49.461391  1571 net.cpp:410] 1_ip1 <- 1_pool3
I0126 15:36:49.461406  1571 net.cpp:368] 1_ip1 -> 1_ip1
I0126 15:36:49.461422  1571 net.cpp:120] Setting up 1_ip1
I0126 15:36:49.463464  1571 net.cpp:127] Top shape: 350 64 (22400)
I0126 15:36:49.463490  1571 layer_factory.hpp:74] Creating layer 1_ip2
I0126 15:36:49.463510  1571 net.cpp:90] Creating Layer 1_ip2
I0126 15:36:49.463522  1571 net.cpp:410] 1_ip2 <- 1_ip1
I0126 15:36:49.463538  1571 net.cpp:368] 1_ip2 -> 1_ip2
I0126 15:36:49.463554  1571 net.cpp:120] Setting up 1_ip2
I0126 15:36:49.463596  1571 net.cpp:127] Top shape: 350 10 (3500)
I0126 15:36:49.463614  1571 layer_factory.hpp:74] Creating layer 1_prob
I0126 15:36:49.463629  1571 net.cpp:90] Creating Layer 1_prob
I0126 15:36:49.463640  1571 net.cpp:410] 1_prob <- 1_ip2
I0126 15:36:49.463654  1571 net.cpp:368] 1_prob -> 1_prob
I0126 15:36:49.463668  1571 net.cpp:120] Setting up 1_prob
I0126 15:36:49.463687  1571 net.cpp:127] Top shape: 350 10 (3500)
I0126 15:36:49.463701  1571 layer_factory.hpp:74] Creating layer 2_conv1
I0126 15:36:49.463717  1571 net.cpp:90] Creating Layer 2_conv1
I0126 15:36:49.463731  1571 net.cpp:410] 2_conv1 <- data_cifar_0_split_1
I0126 15:36:49.463749  1571 net.cpp:368] 2_conv1 -> 2_conv1
I0126 15:36:49.463768  1571 net.cpp:120] Setting up 2_conv1
I0126 15:36:49.463867  1571 net.cpp:127] Top shape: 350 32 32 32 (11468800)
I0126 15:36:49.463884  1571 layer_factory.hpp:74] Creating layer 2_pool1
I0126 15:36:49.463898  1571 net.cpp:90] Creating Layer 2_pool1
I0126 15:36:49.463910  1571 net.cpp:410] 2_pool1 <- 2_conv1
I0126 15:36:49.463925  1571 net.cpp:368] 2_pool1 -> 2_pool1
I0126 15:36:49.463944  1571 net.cpp:120] Setting up 2_pool1
I0126 15:36:49.463961  1571 net.cpp:127] Top shape: 350 32 16 16 (2867200)
I0126 15:36:49.463979  1571 layer_factory.hpp:74] Creating layer 2_relu1
I0126 15:36:49.463994  1571 net.cpp:90] Creating Layer 2_relu1
I0126 15:36:49.464005  1571 net.cpp:410] 2_relu1 <- 2_pool1
I0126 15:36:49.464018  1571 net.cpp:357] 2_relu1 -> 2_pool1 (in-place)
I0126 15:36:49.464031  1571 net.cpp:120] Setting up 2_relu1
I0126 15:36:49.464046  1571 net.cpp:127] Top shape: 350 32 16 16 (2867200)
I0126 15:36:49.464056  1571 layer_factory.hpp:74] Creating layer 2_conv2
I0126 15:36:49.464071  1571 net.cpp:90] Creating Layer 2_conv2
I0126 15:36:49.464082  1571 net.cpp:410] 2_conv2 <- 2_pool1
I0126 15:36:49.464099  1571 net.cpp:368] 2_conv2 -> 2_conv2
I0126 15:36:49.464117  1571 net.cpp:120] Setting up 2_conv2
I0126 15:36:49.464929  1571 net.cpp:127] Top shape: 350 32 16 16 (2867200)
I0126 15:36:49.464953  1571 layer_factory.hpp:74] Creating layer 2_relu2
I0126 15:36:49.464969  1571 net.cpp:90] Creating Layer 2_relu2
I0126 15:36:49.464982  1571 net.cpp:410] 2_relu2 <- 2_conv2
I0126 15:36:49.464996  1571 net.cpp:357] 2_relu2 -> 2_conv2 (in-place)
I0126 15:36:49.465011  1571 net.cpp:120] Setting up 2_relu2
I0126 15:36:49.465024  1571 net.cpp:127] Top shape: 350 32 16 16 (2867200)
I0126 15:36:49.465036  1571 layer_factory.hpp:74] Creating layer 2_pool2
I0126 15:36:49.465049  1571 net.cpp:90] Creating Layer 2_pool2
I0126 15:36:49.465061  1571 net.cpp:410] 2_pool2 <- 2_conv2
I0126 15:36:49.465075  1571 net.cpp:368] 2_pool2 -> 2_pool2
I0126 15:36:49.465088  1571 net.cpp:120] Setting up 2_pool2
I0126 15:36:49.465106  1571 net.cpp:127] Top shape: 350 32 8 8 (716800)
I0126 15:36:49.465118  1571 layer_factory.hpp:74] Creating layer 2_conv3
I0126 15:36:49.465138  1571 net.cpp:90] Creating Layer 2_conv3
I0126 15:36:49.465152  1571 net.cpp:410] 2_conv3 <- 2_pool2
I0126 15:36:49.465165  1571 net.cpp:368] 2_conv3 -> 2_conv3
I0126 15:36:49.465183  1571 net.cpp:120] Setting up 2_conv3
I0126 15:36:49.466778  1571 net.cpp:127] Top shape: 350 64 8 8 (1433600)
I0126 15:36:49.466802  1571 layer_factory.hpp:74] Creating layer 2_relu3
I0126 15:36:49.466820  1571 net.cpp:90] Creating Layer 2_relu3
I0126 15:36:49.466833  1571 net.cpp:410] 2_relu3 <- 2_conv3
I0126 15:36:49.466846  1571 net.cpp:357] 2_relu3 -> 2_conv3 (in-place)
I0126 15:36:49.466861  1571 net.cpp:120] Setting up 2_relu3
I0126 15:36:49.466874  1571 net.cpp:127] Top shape: 350 64 8 8 (1433600)
I0126 15:36:49.466886  1571 layer_factory.hpp:74] Creating layer 2_pool3
I0126 15:36:49.466899  1571 net.cpp:90] Creating Layer 2_pool3
I0126 15:36:49.466910  1571 net.cpp:410] 2_pool3 <- 2_conv3
I0126 15:36:49.466923  1571 net.cpp:368] 2_pool3 -> 2_pool3
I0126 15:36:49.466938  1571 net.cpp:120] Setting up 2_pool3
I0126 15:36:49.466953  1571 net.cpp:127] Top shape: 350 64 4 4 (358400)
I0126 15:36:49.466965  1571 layer_factory.hpp:74] Creating layer 2_ip1
I0126 15:36:49.466980  1571 net.cpp:90] Creating Layer 2_ip1
I0126 15:36:49.466992  1571 net.cpp:410] 2_ip1 <- 2_pool3
I0126 15:36:49.467007  1571 net.cpp:368] 2_ip1 -> 2_ip1
I0126 15:36:49.467023  1571 net.cpp:120] Setting up 2_ip1
I0126 15:36:49.469071  1571 net.cpp:127] Top shape: 350 64 (22400)
I0126 15:36:49.469100  1571 layer_factory.hpp:74] Creating layer 2_ip2
I0126 15:36:49.469121  1571 net.cpp:90] Creating Layer 2_ip2
I0126 15:36:49.469141  1571 net.cpp:410] 2_ip2 <- 2_ip1
I0126 15:36:49.469156  1571 net.cpp:368] 2_ip2 -> 2_ip2
I0126 15:36:49.469172  1571 net.cpp:120] Setting up 2_ip2
I0126 15:36:49.469213  1571 net.cpp:127] Top shape: 350 10 (3500)
I0126 15:36:49.469229  1571 layer_factory.hpp:74] Creating layer 2_prob
I0126 15:36:49.469244  1571 net.cpp:90] Creating Layer 2_prob
I0126 15:36:49.469256  1571 net.cpp:410] 2_prob <- 2_ip2
I0126 15:36:49.469269  1571 net.cpp:368] 2_prob -> 2_prob
I0126 15:36:49.469283  1571 net.cpp:120] Setting up 2_prob
I0126 15:36:49.469300  1571 net.cpp:127] Top shape: 350 10 (3500)
I0126 15:36:49.469313  1571 layer_factory.hpp:74] Creating layer 3_conv1
I0126 15:36:49.469331  1571 net.cpp:90] Creating Layer 3_conv1
I0126 15:36:49.469347  1571 net.cpp:410] 3_conv1 <- data_cifar_0_split_2
I0126 15:36:49.469368  1571 net.cpp:368] 3_conv1 -> 3_conv1
I0126 15:36:49.469384  1571 net.cpp:120] Setting up 3_conv1
I0126 15:36:49.469485  1571 net.cpp:127] Top shape: 350 32 32 32 (11468800)
I0126 15:36:49.469502  1571 layer_factory.hpp:74] Creating layer 3_pool1
I0126 15:36:49.469516  1571 net.cpp:90] Creating Layer 3_pool1
I0126 15:36:49.469528  1571 net.cpp:410] 3_pool1 <- 3_conv1
I0126 15:36:49.469543  1571 net.cpp:368] 3_pool1 -> 3_pool1
I0126 15:36:49.469558  1571 net.cpp:120] Setting up 3_pool1
I0126 15:36:49.469573  1571 net.cpp:127] Top shape: 350 32 16 16 (2867200)
I0126 15:36:49.469585  1571 layer_factory.hpp:74] Creating layer 3_relu1
I0126 15:36:49.469599  1571 net.cpp:90] Creating Layer 3_relu1
I0126 15:36:49.469610  1571 net.cpp:410] 3_relu1 <- 3_pool1
I0126 15:36:49.469624  1571 net.cpp:357] 3_relu1 -> 3_pool1 (in-place)
I0126 15:36:49.469637  1571 net.cpp:120] Setting up 3_relu1
I0126 15:36:49.469653  1571 net.cpp:127] Top shape: 350 32 16 16 (2867200)
I0126 15:36:49.469666  1571 layer_factory.hpp:74] Creating layer 3_conv2
I0126 15:36:49.469681  1571 net.cpp:90] Creating Layer 3_conv2
I0126 15:36:49.469692  1571 net.cpp:410] 3_conv2 <- 3_pool1
I0126 15:36:49.469705  1571 net.cpp:368] 3_conv2 -> 3_conv2
I0126 15:36:49.469720  1571 net.cpp:120] Setting up 3_conv2
I0126 15:36:49.470485  1571 net.cpp:127] Top shape: 350 32 16 16 (2867200)
I0126 15:36:49.470494  1571 layer_factory.hpp:74] Creating layer 3_relu2
I0126 15:36:49.470499  1571 net.cpp:90] Creating Layer 3_relu2
I0126 15:36:49.470504  1571 net.cpp:410] 3_relu2 <- 3_conv2
I0126 15:36:49.470507  1571 net.cpp:357] 3_relu2 -> 3_conv2 (in-place)
I0126 15:36:49.470513  1571 net.cpp:120] Setting up 3_relu2
I0126 15:36:49.470518  1571 net.cpp:127] Top shape: 350 32 16 16 (2867200)
I0126 15:36:49.470522  1571 layer_factory.hpp:74] Creating layer 3_pool2
I0126 15:36:49.470527  1571 net.cpp:90] Creating Layer 3_pool2
I0126 15:36:49.470530  1571 net.cpp:410] 3_pool2 <- 3_conv2
I0126 15:36:49.470536  1571 net.cpp:368] 3_pool2 -> 3_pool2
I0126 15:36:49.470542  1571 net.cpp:120] Setting up 3_pool2
I0126 15:36:49.470548  1571 net.cpp:127] Top shape: 350 32 8 8 (716800)
I0126 15:36:49.470552  1571 layer_factory.hpp:74] Creating layer 3_conv3
I0126 15:36:49.470566  1571 net.cpp:90] Creating Layer 3_conv3
I0126 15:36:49.470571  1571 net.cpp:410] 3_conv3 <- 3_pool2
I0126 15:36:49.470576  1571 net.cpp:368] 3_conv3 -> 3_conv3
I0126 15:36:49.470582  1571 net.cpp:120] Setting up 3_conv3
I0126 15:36:49.472239  1571 net.cpp:127] Top shape: 350 64 8 8 (1433600)
I0126 15:36:49.472247  1571 layer_factory.hpp:74] Creating layer 3_relu3
I0126 15:36:49.472252  1571 net.cpp:90] Creating Layer 3_relu3
I0126 15:36:49.472256  1571 net.cpp:410] 3_relu3 <- 3_conv3
I0126 15:36:49.472262  1571 net.cpp:357] 3_relu3 -> 3_conv3 (in-place)
I0126 15:36:49.472267  1571 net.cpp:120] Setting up 3_relu3
I0126 15:36:49.472272  1571 net.cpp:127] Top shape: 350 64 8 8 (1433600)
I0126 15:36:49.472275  1571 layer_factory.hpp:74] Creating layer 3_pool3
I0126 15:36:49.472280  1571 net.cpp:90] Creating Layer 3_pool3
I0126 15:36:49.472283  1571 net.cpp:410] 3_pool3 <- 3_conv3
I0126 15:36:49.472287  1571 net.cpp:368] 3_pool3 -> 3_pool3
I0126 15:36:49.472293  1571 net.cpp:120] Setting up 3_pool3
I0126 15:36:49.472299  1571 net.cpp:127] Top shape: 350 64 4 4 (358400)
I0126 15:36:49.472303  1571 layer_factory.hpp:74] Creating layer 3_ip1
I0126 15:36:49.472311  1571 net.cpp:90] Creating Layer 3_ip1
I0126 15:36:49.472314  1571 net.cpp:410] 3_ip1 <- 3_pool3
I0126 15:36:49.472321  1571 net.cpp:368] 3_ip1 -> 3_ip1
I0126 15:36:49.472327  1571 net.cpp:120] Setting up 3_ip1
I0126 15:36:49.474370  1571 net.cpp:127] Top shape: 350 64 (22400)
I0126 15:36:49.474380  1571 layer_factory.hpp:74] Creating layer 3_ip2
I0126 15:36:49.474386  1571 net.cpp:90] Creating Layer 3_ip2
I0126 15:36:49.474390  1571 net.cpp:410] 3_ip2 <- 3_ip1
I0126 15:36:49.474397  1571 net.cpp:368] 3_ip2 -> 3_ip2
I0126 15:36:49.474403  1571 net.cpp:120] Setting up 3_ip2
I0126 15:36:49.474433  1571 net.cpp:127] Top shape: 350 10 (3500)
I0126 15:36:49.474447  1571 layer_factory.hpp:74] Creating layer 3_prob
I0126 15:36:49.474452  1571 net.cpp:90] Creating Layer 3_prob
I0126 15:36:49.474455  1571 net.cpp:410] 3_prob <- 3_ip2
I0126 15:36:49.474462  1571 net.cpp:368] 3_prob -> 3_prob
I0126 15:36:49.474467  1571 net.cpp:120] Setting up 3_prob
I0126 15:36:49.474473  1571 net.cpp:127] Top shape: 350 10 (3500)
I0126 15:36:49.474476  1571 layer_factory.hpp:74] Creating layer loss
I0126 15:36:49.474485  1571 net.cpp:90] Creating Layer loss
I0126 15:36:49.474488  1571 net.cpp:410] loss <- 1_prob
I0126 15:36:49.474493  1571 net.cpp:410] loss <- 2_prob
I0126 15:36:49.474496  1571 net.cpp:410] loss <- 3_prob
I0126 15:36:49.474500  1571 net.cpp:410] loss <- label
I0126 15:36:49.474505  1571 net.cpp:368] loss -> multiple-output loss
I0126 15:36:49.474514  1571 net.cpp:368] loss -> batch-instance-counts
I0126 15:36:49.474522  1571 net.cpp:368] loss -> train-instance-counts
I0126 15:36:49.474530  1571 net.cpp:120] Setting up loss
I0126 15:36:49.474542  1571 net.cpp:127] Top shape: 3 1 1 1 (3)
I0126 15:36:49.474545  1571 net.cpp:129]     with loss weight 1
I0126 15:36:49.474562  1571 net.cpp:127] Top shape: 3 1 1 1 (3)
I0126 15:36:49.474566  1571 net.cpp:127] Top shape: 3 1 1 1 (3)
I0126 15:36:49.474570  1571 net.cpp:192] loss needs backward computation.
I0126 15:36:49.474573  1571 net.cpp:192] 3_prob needs backward computation.
I0126 15:36:49.474576  1571 net.cpp:192] 3_ip2 needs backward computation.
I0126 15:36:49.474580  1571 net.cpp:192] 3_ip1 needs backward computation.
I0126 15:36:49.474583  1571 net.cpp:192] 3_pool3 needs backward computation.
I0126 15:36:49.474586  1571 net.cpp:192] 3_relu3 needs backward computation.
…
I0126 15:36:49.475812  1571 net.cpp:287] The NetState phase (1) differed from the phase (0) specified by a rule in layer loss
I0126 15:36:49.476052  1571 net.cpp:42] Initializing net from parameters: 
name: "CIFAR10_quick"
state {
  phase: TEST
}
layer {
  name: "cifar"
  type: "Data"
  top: "data"
  top: "label"
  include {
    phase: TEST
  }
  transform_param {
    mean_file: "/home/mike/ml_lab/mod/MCL_Caffe/examples/cifar10/mean.binaryproto"
  }
  data_param {
    source: "/home/mike/ml_lab/mod/MCL_Caffe/examples/cifar10/cifar10_test_lmdb"
    batch_size: 100
    backend: LMDB
  }
}
layer {
  name: "1_conv1"
  type: "Convolution"
  bottom: "data"
  top: "1_conv1"
  param {
    lr_mult: 1
  }
  param {
    lr_mult: 2
  }
  convolution_param {
    num_output: 32
    pad: 2
    kernel_size: 5
    stride: 1
    weight_filler {
      type: "gaussian"
      std: 0.0001
    }
    bias_filler {
      type: "constant"
    }
  }
}
layer {
  name: "1_pool1"
  type: "Pooling"
  bottom: "1_conv1"
  top: "1_pool1"
  pooling_param {
    pool: MAX
    kernel_size: 3
    stride: 2
  }
}
layer {
  name: "1_relu1"
  type: "ReLU"
  bottom: "1_pool1"
  top: "1_pool1"
}
layer {
  name: "1_conv2"
  type: "Convolution"
  bottom: "1_pool1"
  top: "1_conv2"
  param {
    lr_mult: 1
  }
  param {
    lr_mult: 2
  }
  convolution_param {
    num_output: 32
    pad: 2
    kernel_size: 5
    stride: 1
    weight_filler {
      type: "gaussian"
      std: 0.01
    }
    bias_filler {
      type: "constant"
    }
  }
}
layer {
  name: "1_relu2"
  type: "ReLU"
  bottom: "1_conv2"
  top: "1_conv2"
}
layer {
  name: "1_pool2"
  type: "Pooling"
  bottom: "1_conv2"
  top: "1_pool2"
  pooling_param {
    pool: AVE
    kernel_size: 3
    stride: 2
  }
}
layer {
  name: "1_conv3"
  type: "Convolution"
  bottom: "1_pool2"
  top: "1_conv3"
  param {
    lr_mult: 1
  }
  param {
    lr_mult: 2
  }
  convolution_param {
    num_output: 64
    pad: 2
    kernel_size: 5
    stride: 1
    weight_filler {
      type: "gaussian"
      std: 0.01
    }
    bias_filler {
      type: "constant"
    }
  }
}
layer {
  name: "1_relu3"
  type: "ReLU"
  bottom: "1_conv3"
  top: "1_conv3"
}
layer {
  name: "1_pool3"
  type: "Pooling"
  bottom: "1_conv3"
  top: "1_pool3"
  pooling_param {
    pool: AVE
    kernel_size: 3
    stride: 2
  }
}
layer {
  name: "1_ip1"
  type: "InnerProduct"
  bottom: "1_pool3"
  top: "1_ip1"
  param {
    lr_mult: 1
  }
  param {
    lr_mult: 2
  }
  inner_product_param {
    num_output: 64
    weight_filler {
      type: "gaussian"
      std: 0.1
    }
    bias_filler {
      type: "constant"
    }
  }
}
layer {
  name: "1_ip2"
  type: "InnerProduct"
  bottom: "1_ip1"
  top: "1_ip2"
  param {
    lr_mult: 1
  }
  param {
    lr_mult: 2
  }
  inner_product_param {
    num_output: 10
    weight_filler {
      type: "gaussian"
      std: 0.1
    }
    bias_filler {
      type: "constant"
    }
  }
}
layer {
  name: "1_prob"
  type: "Softmax"
  bottom: "1_ip2"
  top: "1_prob"
}
layer {
  name: "2_conv1"
  type: "Convolution"
  bottom: "data"
  top: "2_conv1"
  param {
    lr_mult: 1
  }
  param {
    lr_mult: 2
  }
  convolution_param {
    num_output: 32
    pad: 2
    kernel_size: 5
    stride: 1
    weight_filler {
      type: "gaussian"
      std: 0.0001
    }
    bias_filler {
      type: "constant"
    }
  }
}
layer {
  name: "2_pool1"
  type: "Pooling"
  bottom: "2_conv1"
  top: "2_pool1"
  pooling_param {
    pool: MAX
    kernel_size: 3
    stride: 2
  }
}
layer {
  name: "2_relu1"
  type: "ReLU"
  bottom: "2_pool1"
  top: "2_pool1"
}
layer {
  name: "2_conv2"
  type: "Convolution"
  bottom: "2_pool1"
  top: "2_conv2"
  param {
    lr_mult: 1
  }
  param {
    lr_mult: 2
  }
  convolution_param {
    num_output: 32
    pad: 2
    kernel_size: 5
    stride: 1
    weight_filler {
      type: "gaussian"
      std: 0.01
    }
    bias_filler {
      type: "constant"
    }
  }
}
layer {
  name: "2_relu2"
  type: "ReLU"
  bottom: "2_conv2"
  top: "2_conv2"
}
layer {
  name: "2_pool2"
  type: "Pooling"
  bottom: "2_conv2"
  top: "2_pool2"
  pooling_param {
    pool: AVE
    kernel_size: 3
    stride: 2
  }
}
layer {
  name: "2_conv3"
  type: "Convolution"
  bottom: "2_pool2"
  top: "2_conv3"
  param {
    lr_mult: 1
  }
  param {
    lr_mult: 2
  }
  convolution_param {
    num_output: 64
    pad: 2
    kernel_size: 5
    stride: 1
    weight_filler {
      type: "gaussian"
      std: 0.01
    }
    bias_filler {
      type: "constant"
    }
  }
}
layer {
  name: "2_relu3"
  type: "ReLU"
  bottom: "2_conv3"
  top: "2_conv3"
}
layer {
  name: "2_pool3"
  type: "Pooling"
  bottom: "2_conv3"
  top: "2_pool3"
  pooling_param {
    pool: AVE
    kernel_size: 3
    stride: 2
  }
}
layer {
  name: "2_ip1"
  type: "InnerProduct"
  bottom: "2_pool3"
  top: "2_ip1"
  param {
    lr_mult: 1
  }
  param {
    lr_mult: 2
  }
  inner_product_param {
    num_output: 64
    weight_filler {
      type: "gaussian"
      std: 0.1
    }
    bias_filler {
      type: "constant"
    }
  }
}
layer {
  name: "2_ip2"
  type: "InnerProduct"
  bottom: "2_ip1"
  top: "2_ip2"
  param {
    lr_mult: 1
  }
  param {
    lr_mult: 2
  }
  inner_product_param {
    num_output: 10
    weight_filler {
      type: "gaussian"
      std: 0.1
    }
    bias_filler {
      type: "constant"
    }
  }
}
layer {
  name: "2_prob"
  type: "Softmax"
  bottom: "2_ip2"
  top: "2_prob"
}
layer {
  name: "3_conv1"
  type: "Convolution"
  bottom: "data"
  top: "3_conv1"
  param {
    lr_mult: 1
  }
  param {
    lr_mult: 2
  }
  convolution_param {
    num_output: 32
    pad: 2
    kernel_size: 5
    stride: 1
    weight_filler {
      type: "gaussian"
      std: 0.0001
    }
    bias_filler {
      type: "constant"
    }
  }
}
layer {
  name: "3_pool1"
  type: "Pooling"
  bottom: "3_conv1"
  top: "3_pool1"
  pooling_param {
    pool: MAX
    kernel_size: 3
    stride: 2
  }
}
layer {
  name: "3_relu1"
  type: "ReLU"
  bottom: "3_pool1"
  top: "3_pool1"
}
layer {
  name: "3_conv2"
  type: "Convolution"
  bottom: "3_pool1"
  top: "3_conv2"
  param {
    lr_mult: 1
  }
  param {
    lr_mult: 2
  }
  convolution_param {
    num_output: 32
    pad: 2
    kernel_size: 5
    stride: 1
    weight_filler {
      type: "gaussian"
      std: 0.01
    }
    bias_filler {
      type: "constant"
    }
  }
}
layer {
  name: "3_relu2"
  type: "ReLU"
  bottom: "3_conv2"
  top: "3_conv2"
}
layer {
  name: "3_pool2"
  type: "Pooling"
  bottom: "3_conv2"
  top: "3_pool2"
  pooling_param {
    pool: AVE
    kernel_size: 3
    stride: 2
  }
}
layer {
  name: "3_conv3"
  type: "Convolution"
  bottom: "3_pool2"
  top: "3_conv3"
  param {
    lr_mult: 1
  }
  param {
    lr_mult: 2
  }
  convolution_param {
    num_output: 64
    pad: 2
    kernel_size: 5
    stride: 1
    weight_filler {
      type: "gaussian"
      std: 0.01
    }
    bias_filler {
      type: "constant"
    }
  }
}
layer {
  name: "3_relu3"
  type: "ReLU"
  bottom: "3_conv3"
  top: "3_conv3"
}
layer {
  name: "3_pool3"
  type: "Pooling"
  bottom: "3_conv3"
  top: "3_pool3"
  pooling_param {
    pool: AVE
    kernel_size: 3
    stride: 2
  }
}
layer {
  name: "3_ip1"
  type: "InnerProduct"
  bottom: "3_pool3"
  top: "3_ip1"
  param {
    lr_mult: 1
  }
  param {
    lr_mult: 2
  }
  inner_product_param {
    num_output: 64
    weight_filler {
      type: "gaussian"
      std: 0.1
    }
    bias_filler {
      type: "constant"
    }
  }
}
layer {
  name: "3_ip2"
  type: "InnerProduct"
  bottom: "3_ip1"
  top: "3_ip2"
  param {
    lr_mult: 1
  }
  param {
    lr_mult: 2
  }
  inner_product_param {
    num_output: 10
    weight_filler {
      type: "gaussian"
      std: 0.1
    }
    bias_filler {
      type: "constant"
    }
  }
}
layer {
  name: "3_prob"
  type: "Softmax"
  bottom: "3_ip2"
  top: "3_prob"
}
layer {
  name: "1_accuracy"
  type: "Accuracy"
  bottom: "1_prob"
  bottom: "label"
  top: "1_accuracy"
  include {
    phase: TEST
  }
}
layer {
  name: "2_accuracy"
  type: "Accuracy"
  bottom: "2_prob"
  bottom: "label"
  top: "2_accuracy"
  include {
    phase: TEST
  }
}
layer {
  name: "3_accuracy"
  type: "Accuracy"
  bottom: "3_prob"
  bottom: "label"
  top: "3_accuracy"
  include {
    phase: TEST
  }
}
layer {
  name: "accuracy"
  type: "OracleAccuracy"
  bottom: "1_prob"
  bottom: "2_prob"
  bottom: "3_prob"
  bottom: "label"
  top: "oracle accuracy"
  include {
    phase: TEST
  }
}
I0126 15:36:49.476248  1571 layer_factory.hpp:74] Creating layer cifar
I0126 15:36:49.476258  1571 net.cpp:90] Creating Layer cifar
I0126 15:36:49.476264  1571 net.cpp:368] cifar -> data
I0126 15:36:49.476272  1571 net.cpp:368] cifar -> label
I0126 15:36:49.476279  1571 net.cpp:120] Setting up cifar
I0126 15:36:49.476310  1571 db.cpp:34] Opened lmdb /home/mike/ml_lab/mod/MCL_Caffe/examples/cifar10/cifar10_test_lmdb
I0126 15:36:49.476335  1571 data_layer.cpp:67] output data size: 100,3,32,32
I0126 15:36:49.476342  1571 data_transformer.cpp:22] Loading mean file from: /home/mike/ml_lab/mod/MCL_Caffe/examples/cifar10/mean.binaryproto
I0126 15:36:49.476708  1571 net.cpp:127] Top shape: 100 3 32 32 (307200)
I0126 15:36:49.476716  1571 net.cpp:127] Top shape: 100 (100)
I0126 15:36:49.476721  1571 layer_factory.hpp:74] Creating layer data_cifar_0_split
I0126 15:36:49.476727  1571 net.cpp:90] Creating Layer data_cifar_0_split
I0126 15:36:49.476730  1571 net.cpp:410] data_cifar_0_split <- data
I0126 15:36:49.476735  1571 net.cpp:368] data_cifar_0_split -> data_cifar_0_split_0
I0126 15:36:49.476742  1571 net.cpp:368] data_cifar_0_split -> data_cifar_0_split_1
I0126 15:36:49.476748  1571 net.cpp:368] data_cifar_0_split -> data_cifar_0_split_2
I0126 15:36:49.476753  1571 net.cpp:120] Setting up data_cifar_0_split
I0126 15:36:49.476760  1571 net.cpp:127] Top shape: 100 3 32 32 (307200)
I0126 15:36:49.476764  1571 net.cpp:127] Top shape: 100 3 32 32 (307200)
I0126 15:36:49.476768  1571 net.cpp:127] Top shape: 100 3 32 32 (307200)
I0126 15:36:49.476773  1571 layer_factory.hpp:74] Creating layer label_cifar_1_split
I0126 15:36:49.476776  1571 net.cpp:90] Creating Layer label_cifar_1_split
I0126 15:36:49.476779  1571 net.cpp:410] label_cifar_1_split <- label
I0126 15:36:49.476784  1571 net.cpp:368] label_cifar_1_split -> label_cifar_1_split_0
I0126 15:36:49.476790  1571 net.cpp:368] label_cifar_1_split -> label_cifar_1_split_1
I0126 15:36:49.476796  1571 net.cpp:368] label_cifar_1_split -> label_cifar_1_split_2
I0126 15:36:49.476801  1571 net.cpp:368] label_cifar_1_split -> label_cifar_1_split_3
I0126 15:36:49.476807  1571 net.cpp:120] Setting up label_cifar_1_split
I0126 15:36:49.476814  1571 net.cpp:127] Top shape: 100 (100)
I0126 15:36:49.476817  1571 net.cpp:127] Top shape: 100 (100)
I0126 15:36:49.476821  1571 net.cpp:127] Top shape: 100 (100)
I0126 15:36:49.476825  1571 net.cpp:127] Top shape: 100 (100)
I0126 15:36:49.476829  1571 layer_factory.hpp:74] Creating layer 1_conv1
I0126 15:36:49.476835  1571 net.cpp:90] Creating Layer 1_conv1
I0126 15:36:49.476837  1571 net.cpp:410] 1_conv1 <- data_cifar_0_split_0
I0126 15:36:49.476842  1571 net.cpp:368] 1_conv1 -> 1_conv1
I0126 15:36:49.476848  1571 net.cpp:120] Setting up 1_conv1
I0126 15:36:49.476936  1571 net.cpp:127] Top shape: 100 32 32 32 (3276800)
I0126 15:36:49.476951  1571 layer_factory.hpp:74] Creating layer 1_pool1
I0126 15:36:49.476958  1571 net.cpp:90] Creating Layer 1_pool1
I0126 15:36:49.476961  1571 net.cpp:410] 1_pool1 <- 1_conv1
I0126 15:36:49.476965  1571 net.cpp:368] 1_pool1 -> 1_pool1
I0126 15:36:49.476971  1571 net.cpp:120] Setting up 1_pool1
I0126 15:36:49.476979  1571 net.cpp:127] Top shape: 100 32 16 16 (819200)
I0126 15:36:49.476982  1571 layer_factory.hpp:74] Creating layer 1_relu1
I0126 15:36:49.476986  1571 net.cpp:90] Creating Layer 1_relu1
I0126 15:36:49.476989  1571 net.cpp:410] 1_relu1 <- 1_pool1
I0126 15:36:49.476994  1571 net.cpp:357] 1_relu1 -> 1_pool1 (in-place)
I0126 15:36:49.476999  1571 net.cpp:120] Setting up 1_relu1
I0126 15:36:49.477002  1571 net.cpp:127] Top shape: 100 32 16 16 (819200)
I0126 15:36:49.477006  1571 layer_factory.hpp:74] Creating layer 1_conv2
I0126 15:36:49.477011  1571 net.cpp:90] Creating Layer 1_conv2
I0126 15:36:49.477015  1571 net.cpp:410] 1_conv2 <- 1_pool1
I0126 15:36:49.477020  1571 net.cpp:368] 1_conv2 -> 1_conv2
I0126 15:36:49.477025  1571 net.cpp:120] Setting up 1_conv2
I0126 15:36:49.477833  1571 net.cpp:127] Top shape: 100 32 16 16 (819200)
I0126 15:36:49.477843  1571 layer_factory.hpp:74] Creating layer 1_relu2
I0126 15:36:49.477849  1571 net.cpp:90] Creating Layer 1_relu2
I0126 15:36:49.477854  1571 net.cpp:410] 1_relu2 <- 1_conv2
I0126 15:36:49.477857  1571 net.cpp:357] 1_relu2 -> 1_conv2 (in-place)
I0126 15:36:49.477862  1571 net.cpp:120] Setting up 1_relu2
I0126 15:36:49.477867  1571 net.cpp:127] Top shape: 100 32 16 16 (819200)
I0126 15:36:49.477870  1571 layer_factory.hpp:74] Creating layer 1_pool2
I0126 15:36:49.477876  1571 net.cpp:90] Creating Layer 1_pool2
I0126 15:36:49.477880  1571 net.cpp:410] 1_pool2 <- 1_conv2
I0126 15:36:49.477885  1571 net.cpp:368] 1_pool2 -> 1_pool2
I0126 15:36:49.477890  1571 net.cpp:120] Setting up 1_pool2
I0126 15:36:49.477896  1571 net.cpp:127] Top shape: 100 32 8 8 (204800)
I0126 15:36:49.477900  1571 layer_factory.hpp:74] Creating layer 1_conv3
I0126 15:36:49.477905  1571 net.cpp:90] Creating Layer 1_conv3
I0126 15:36:49.477908  1571 net.cpp:410] 1_conv3 <- 1_pool2
I0126 15:36:49.477913  1571 net.cpp:368] 1_conv3 -> 1_conv3
I0126 15:36:49.477918  1571 net.cpp:120] Setting up 1_conv3
I0126 15:36:49.479513  1571 net.cpp:127] Top shape: 100 64 8 8 (409600)
I0126 15:36:49.479523  1571 layer_factory.hpp:74] Creating layer 1_relu3
I0126 15:36:49.479528  1571 net.cpp:90] Creating Layer 1_relu3
I0126 15:36:49.479532  1571 net.cpp:410] 1_relu3 <- 1_conv3
I0126 15:36:49.479537  1571 net.cpp:357] 1_relu3 -> 1_conv3 (in-place)
I0126 15:36:49.479542  1571 net.cpp:120] Setting up 1_relu3
I0126 15:36:49.479547  1571 net.cpp:127] Top shape: 100 64 8 8 (409600)
I0126 15:36:49.479550  1571 layer_factory.hpp:74] Creating layer 1_pool3
I0126 15:36:49.479554  1571 net.cpp:90] Creating Layer 1_pool3
I0126 15:36:49.479557  1571 net.cpp:410] 1_pool3 <- 1_conv3
I0126 15:36:49.479562  1571 net.cpp:368] 1_pool3 -> 1_pool3
I0126 15:36:49.479568  1571 net.cpp:120] Setting up 1_pool3
I0126 15:36:49.479573  1571 net.cpp:127] Top shape: 100 64 4 4 (102400)
I0126 15:36:49.479576  1571 layer_factory.hpp:74] Creating layer 1_ip1
I0126 15:36:49.479583  1571 net.cpp:90] Creating Layer 1_ip1
I0126 15:36:49.479585  1571 net.cpp:410] 1_ip1 <- 1_pool3
I0126 15:36:49.479590  1571 net.cpp:368] 1_ip1 -> 1_ip1
I0126 15:36:49.479596  1571 net.cpp:120] Setting up 1_ip1
I0126 15:36:49.481633  1571 net.cpp:127] Top shape: 100 64 (6400)
I0126 15:36:49.481642  1571 layer_factory.hpp:74] Creating layer 1_ip2
I0126 15:36:49.481648  1571 net.cpp:90] Creating Layer 1_ip2
I0126 15:36:49.481652  1571 net.cpp:410] 1_ip2 <- 1_ip1
I0126 15:36:49.481659  1571 net.cpp:368] 1_ip2 -> 1_ip2
I0126 15:36:49.481667  1571 net.cpp:120] Setting up 1_ip2
I0126 15:36:49.481699  1571 net.cpp:127] Top shape: 100 10 (1000)
I0126 15:36:49.481706  1571 layer_factory.hpp:74] Creating layer 1_prob
I0126 15:36:49.481711  1571 net.cpp:90] Creating Layer 1_prob
I0126 15:36:49.481714  1571 net.cpp:410] 1_prob <- 1_ip2
I0126 15:36:49.481729  1571 net.cpp:368] 1_prob -> 1_prob
I0126 15:36:49.481734  1571 net.cpp:120] Setting up 1_prob
I0126 15:36:49.481740  1571 net.cpp:127] Top shape: 100 10 (1000)
I0126 15:36:49.481744  1571 layer_factory.hpp:74] Creating layer 1_prob_1_prob_0_split
I0126 15:36:49.481748  1571 net.cpp:90] Creating Layer 1_prob_1_prob_0_split
I0126 15:36:49.481751  1571 net.cpp:410] 1_prob_1_prob_0_split <- 1_prob
I0126 15:36:49.481756  1571 net.cpp:368] 1_prob_1_prob_0_split -> 1_prob_1_prob_0_split_0
I0126 15:36:49.481762  1571 net.cpp:368] 1_prob_1_prob_0_split -> 1_prob_1_prob_0_split_1
I0126 15:36:49.481767  1571 net.cpp:120] Setting up 1_prob_1_prob_0_split
I0126 15:36:49.481773  1571 net.cpp:127] Top shape: 100 10 (1000)
I0126 15:36:49.481777  1571 net.cpp:127] Top shape: 100 10 (1000)
I0126 15:36:49.481781  1571 layer_factory.hpp:74] Creating layer 2_conv1
I0126 15:36:49.481787  1571 net.cpp:90] Creating Layer 2_conv1
I0126 15:36:49.481791  1571 net.cpp:410] 2_conv1 <- data_cifar_0_split_1
I0126 15:36:49.481796  1571 net.cpp:368] 2_conv1 -> 2_conv1
I0126 15:36:49.481801  1571 net.cpp:120] Setting up 2_conv1
I0126 15:36:49.481889  1571 net.cpp:127] Top shape: 100 32 32 32 (3276800)
I0126 15:36:49.481895  1571 layer_factory.hpp:74] Creating layer 2_pool1
I0126 15:36:49.481900  1571 net.cpp:90] Creating Layer 2_pool1
I0126 15:36:49.481904  1571 net.cpp:410] 2_pool1 <- 2_conv1
I0126 15:36:49.481907  1571 net.cpp:368] 2_pool1 -> 2_pool1
I0126 15:36:49.481912  1571 net.cpp:120] Setting up 2_pool1
I0126 15:36:49.481920  1571 net.cpp:127] Top shape: 100 32 16 16 (819200)
I0126 15:36:49.481922  1571 layer_factory.hpp:74] Creating layer 2_relu1
I0126 15:36:49.481927  1571 net.cpp:90] Creating Layer 2_relu1
I0126 15:36:49.481930  1571 net.cpp:410] 2_relu1 <- 2_pool1
I0126 15:36:49.481935  1571 net.cpp:357] 2_relu1 -> 2_pool1 (in-place)
I0126 15:36:49.481940  1571 net.cpp:120] Setting up 2_relu1
I0126 15:36:49.481945  1571 net.cpp:127] Top shape: 100 32 16 16 (819200)
I0126 15:36:49.481948  1571 layer_factory.hpp:74] Creating layer 2_conv2
I0126 15:36:49.481953  1571 net.cpp:90] Creating Layer 2_conv2
I0126 15:36:49.481956  1571 net.cpp:410] 2_conv2 <- 2_pool1
I0126 15:36:49.481961  1571 net.cpp:368] 2_conv2 -> 2_conv2
I0126 15:36:49.481966  1571 net.cpp:120] Setting up 2_conv2
I0126 15:36:49.482771  1571 net.cpp:127] Top shape: 100 32 16 16 (819200)
I0126 15:36:49.482780  1571 layer_factory.hpp:74] Creating layer 2_relu2
I0126 15:36:49.482785  1571 net.cpp:90] Creating Layer 2_relu2
I0126 15:36:49.482789  1571 net.cpp:410] 2_relu2 <- 2_conv2
I0126 15:36:49.482794  1571 net.cpp:357] 2_relu2 -> 2_conv2 (in-place)
I0126 15:36:49.482798  1571 net.cpp:120] Setting up 2_relu2
I0126 15:36:49.482803  1571 net.cpp:127] Top shape: 100 32 16 16 (819200)
I0126 15:36:49.482806  1571 layer_factory.hpp:74] Creating layer 2_pool2
I0126 15:36:49.482810  1571 net.cpp:90] Creating Layer 2_pool2
I0126 15:36:49.482815  1571 net.cpp:410] 2_pool2 <- 2_conv2
I0126 15:36:49.482820  1571 net.cpp:368] 2_pool2 -> 2_pool2
I0126 15:36:49.482825  1571 net.cpp:120] Setting up 2_pool2
I0126 15:36:49.482832  1571 net.cpp:127] Top shape: 100 32 8 8 (204800)
I0126 15:36:49.482836  1571 layer_factory.hpp:74] Creating layer 2_conv3
I0126 15:36:49.482841  1571 net.cpp:90] Creating Layer 2_conv3
I0126 15:36:49.482844  1571 net.cpp:410] 2_conv3 <- 2_pool2
I0126 15:36:49.482851  1571 net.cpp:368] 2_conv3 -> 2_conv3
I0126 15:36:49.482856  1571 net.cpp:120] Setting up 2_conv3
I0126 15:36:49.484457  1571 net.cpp:127] Top shape: 100 64 8 8 (409600)
I0126 15:36:49.484464  1571 layer_factory.hpp:74] Creating layer 2_relu3
I0126 15:36:49.484470  1571 net.cpp:90] Creating Layer 2_relu3
I0126 15:36:49.484473  1571 net.cpp:410] 2_relu3 <- 2_conv3
I0126 15:36:49.484478  1571 net.cpp:357] 2_relu3 -> 2_conv3 (in-place)
I0126 15:36:49.484483  1571 net.cpp:120] Setting up 2_relu3
I0126 15:36:49.484488  1571 net.cpp:127] Top shape: 100 64 8 8 (409600)
I0126 15:36:49.484491  1571 layer_factory.hpp:74] Creating layer 2_pool3
I0126 15:36:49.484496  1571 net.cpp:90] Creating Layer 2_pool3
I0126 15:36:49.484508  1571 net.cpp:410] 2_pool3 <- 2_conv3
I0126 15:36:49.484513  1571 net.cpp:368] 2_pool3 -> 2_pool3
I0126 15:36:49.484518  1571 net.cpp:120] Setting up 2_pool3
I0126 15:36:49.484524  1571 net.cpp:127] Top shape: 100 64 4 4 (102400)
I0126 15:36:49.484527  1571 layer_factory.hpp:74] Creating layer 2_ip1
I0126 15:36:49.484532  1571 net.cpp:90] Creating Layer 2_ip1
I0126 15:36:49.484535  1571 net.cpp:410] 2_ip1 <- 2_pool3
I0126 15:36:49.484541  1571 net.cpp:368] 2_ip1 -> 2_ip1
I0126 15:36:49.484547  1571 net.cpp:120] Setting up 2_ip1
I0126 15:36:49.486593  1571 net.cpp:127] Top shape: 100 64 (6400)
I0126 15:36:49.486604  1571 layer_factory.hpp:74] Creating layer 2_ip2
I0126 15:36:49.486610  1571 net.cpp:90] Creating Layer 2_ip2
I0126 15:36:49.486613  1571 net.cpp:410] 2_ip2 <- 2_ip1
I0126 15:36:49.486620  1571 net.cpp:368] 2_ip2 -> 2_ip2
I0126 15:36:49.486626  1571 net.cpp:120] Setting up 2_ip2
I0126 15:36:49.486657  1571 net.cpp:127] Top shape: 100 10 (1000)
I0126 15:36:49.486663  1571 layer_factory.hpp:74] Creating layer 2_prob
I0126 15:36:49.486668  1571 net.cpp:90] Creating Layer 2_prob
I0126 15:36:49.486671  1571 net.cpp:410] 2_prob <- 2_ip2
I0126 15:36:49.486676  1571 net.cpp:368] 2_prob -> 2_prob
I0126 15:36:49.486682  1571 net.cpp:120] Setting up 2_prob
I0126 15:36:49.486688  1571 net.cpp:127] Top shape: 100 10 (1000)
I0126 15:36:49.486691  1571 layer_factory.hpp:74] Creating layer 2_prob_2_prob_0_split
I0126 15:36:49.486696  1571 net.cpp:90] Creating Layer 2_prob_2_prob_0_split
I0126 15:36:49.486699  1571 net.cpp:410] 2_prob_2_prob_0_split <- 2_prob
I0126 15:36:49.486703  1571 net.cpp:368] 2_prob_2_prob_0_split -> 2_prob_2_prob_0_split_0
I0126 15:36:49.486709  1571 net.cpp:368] 2_prob_2_prob_0_split -> 2_prob_2_prob_0_split_1
I0126 15:36:49.486714  1571 net.cpp:120] Setting up 2_prob_2_prob_0_split
I0126 15:36:49.486719  1571 net.cpp:127] Top shape: 100 10 (1000)
I0126 15:36:49.486724  1571 net.cpp:127] Top shape: 100 10 (1000)
I0126 15:36:49.486727  1571 layer_factory.hpp:74] Creating layer 3_conv1
I0126 15:36:49.486733  1571 net.cpp:90] Creating Layer 3_conv1
I0126 15:36:49.486737  1571 net.cpp:410] 3_conv1 <- data_cifar_0_split_2
I0126 15:36:49.486742  1571 net.cpp:368] 3_conv1 -> 3_conv1
I0126 15:36:49.486748  1571 net.cpp:120] Setting up 3_conv1
I0126 15:36:49.486835  1571 net.cpp:127] Top shape: 100 32 32 32 (3276800)
I0126 15:36:49.486841  1571 layer_factory.hpp:74] Creating layer 3_pool1
I0126 15:36:49.486846  1571 net.cpp:90] Creating Layer 3_pool1
I0126 15:36:49.486850  1571 net.cpp:410] 3_pool1 <- 3_conv1
I0126 15:36:49.486853  1571 net.cpp:368] 3_pool1 -> 3_pool1
I0126 15:36:49.486860  1571 net.cpp:120] Setting up 3_pool1
I0126 15:36:49.486867  1571 net.cpp:127] Top shape: 100 32 16 16 (819200)
I0126 15:36:49.486871  1571 layer_factory.hpp:74] Creating layer 3_relu1
I0126 15:36:49.486876  1571 net.cpp:90] Creating Layer 3_relu1
I0126 15:36:49.486879  1571 net.cpp:410] 3_relu1 <- 3_pool1
I0126 15:36:49.486883  1571 net.cpp:357] 3_relu1 -> 3_pool1 (in-place)
I0126 15:36:49.486888  1571 net.cpp:120] Setting up 3_relu1
I0126 15:36:49.486893  1571 net.cpp:127] Top shape: 100 32 16 16 (819200)
I0126 15:36:49.486896  1571 layer_factory.hpp:74] Creating layer 3_conv2
I0126 15:36:49.486903  1571 net.cpp:90] Creating Layer 3_conv2
I0126 15:36:49.486907  1571 net.cpp:410] 3_conv2 <- 3_pool1
I0126 15:36:49.486912  1571 net.cpp:368] 3_conv2 -> 3_conv2
I0126 15:36:49.486917  1571 net.cpp:120] Setting up 3_conv2
I0126 15:36:49.487722  1571 net.cpp:127] Top shape: 100 32 16 16 (819200)
I0126 15:36:49.487746  1571 layer_factory.hpp:74] Creating layer 3_relu2
I0126 15:36:49.487761  1571 net.cpp:90] Creating Layer 3_relu2
I0126 15:36:49.487772  1571 net.cpp:410] 3_relu2 <- 3_conv2
I0126 15:36:49.487785  1571 net.cpp:357] 3_relu2 -> 3_conv2 (in-place)
I0126 15:36:49.487799  1571 net.cpp:120] Setting up 3_relu2
I0126 15:36:49.487812  1571 net.cpp:127] Top shape: 100 32 16 16 (819200)
I0126 15:36:49.487824  1571 layer_factory.hpp:74] Creating layer 3_pool2
I0126 15:36:49.487841  1571 net.cpp:90] Creating Layer 3_pool2
I0126 15:36:49.487859  1571 net.cpp:410] 3_pool2 <- 3_conv2
I0126 15:36:49.487879  1571 net.cpp:368] 3_pool2 -> 3_pool2
I0126 15:36:49.487895  1571 net.cpp:120] Setting up 3_pool2
I0126 15:36:49.487911  1571 net.cpp:127] Top shape: 100 32 8 8 (204800)
I0126 15:36:49.487923  1571 layer_factory.hpp:74] Creating layer 3_conv3
I0126 15:36:49.487938  1571 net.cpp:90] Creating Layer 3_conv3
I0126 15:36:49.487951  1571 net.cpp:410] 3_conv3 <- 3_pool2
I0126 15:36:49.487967  1571 net.cpp:368] 3_conv3 -> 3_conv3
I0126 15:36:49.487982  1571 net.cpp:120] Setting up 3_conv3
I0126 15:36:49.489470  1571 net.cpp:127] Top shape: 100 64 8 8 (409600)
I0126 15:36:49.489481  1571 layer_factory.hpp:74] Creating layer 3_relu3
I0126 15:36:49.489487  1571 net.cpp:90] Creating Layer 3_relu3
I0126 15:36:49.489490  1571 net.cpp:410] 3_relu3 <- 3_conv3
I0126 15:36:49.489495  1571 net.cpp:357] 3_relu3 -> 3_conv3 (in-place)
I0126 15:36:49.489501  1571 net.cpp:120] Setting up 3_relu3
I0126 15:36:49.489506  1571 net.cpp:127] Top shape: 100 64 8 8 (409600)
I0126 15:36:49.489511  1571 layer_factory.hpp:74] Creating layer 3_pool3
I0126 15:36:49.489516  1571 net.cpp:90] Creating Layer 3_pool3
I0126 15:36:49.489519  1571 net.cpp:410] 3_pool3 <- 3_conv3
I0126 15:36:49.489524  1571 net.cpp:368] 3_pool3 -> 3_pool3
I0126 15:36:49.489531  1571 net.cpp:120] Setting up 3_pool3
I0126 15:36:49.489537  1571 net.cpp:127] Top shape: 100 64 4 4 (102400)
I0126 15:36:49.489540  1571 layer_factory.hpp:74] Creating layer 3_ip1
I0126 15:36:49.489545  1571 net.cpp:90] Creating Layer 3_ip1
I0126 15:36:49.489548  1571 net.cpp:410] 3_ip1 <- 3_pool3
I0126 15:36:49.489555  1571 net.cpp:368] 3_ip1 -> 3_ip1
I0126 15:36:49.489562  1571 net.cpp:120] Setting up 3_ip1
I0126 15:36:49.491152  1571 net.cpp:127] Top shape: 100 64 (6400)
I0126 15:36:49.491159  1571 layer_factory.hpp:74] Creating layer 3_ip2
I0126 15:36:49.491166  1571 net.cpp:90] Creating Layer 3_ip2
I0126 15:36:49.491169  1571 net.cpp:410] 3_ip2 <- 3_ip1
I0126 15:36:49.491178  1571 net.cpp:368] 3_ip2 -> 3_ip2
I0126 15:36:49.491183  1571 net.cpp:120] Setting up 3_ip2
I0126 15:36:49.491215  1571 net.cpp:127] Top shape: 100 10 (1000)
I0126 15:36:49.491236  1571 layer_factory.hpp:74] Creating layer 3_prob
I0126 15:36:49.491255  1571 net.cpp:90] Creating Layer 3_prob
I0126 15:36:49.491266  1571 net.cpp:410] 3_prob <- 3_ip2
I0126 15:36:49.491281  1571 net.cpp:368] 3_prob -> 3_prob
I0126 15:36:49.491297  1571 net.cpp:120] Setting up 3_prob
I0126 15:36:49.491313  1571 net.cpp:127] Top shape: 100 10 (1000)
I0126 15:36:49.491325  1571 layer_factory.hpp:74] Creating layer 3_prob_3_prob_0_split
I0126 15:36:49.491338  1571 net.cpp:90] Creating Layer 3_prob_3_prob_0_split
I0126 15:36:49.491350  1571 net.cpp:410] 3_prob_3_prob_0_split <- 3_prob
I0126 15:36:49.491364  1571 net.cpp:368] 3_prob_3_prob_0_split -> 3_prob_3_prob_0_split_0
I0126 15:36:49.491379  1571 net.cpp:368] 3_prob_3_prob_0_split -> 3_prob_3_prob_0_split_1
I0126 15:36:49.491394  1571 net.cpp:120] Setting up 3_prob_3_prob_0_split
I0126 15:36:49.491408  1571 net.cpp:127] Top shape: 100 10 (1000)
I0126 15:36:49.491421  1571 net.cpp:127] Top shape: 100 10 (1000)
I0126 15:36:49.491432  1571 layer_factory.hpp:74] Creating layer 1_accuracy
I0126 15:36:49.491447  1571 net.cpp:90] Creating Layer 1_accuracy
I0126 15:36:49.491461  1571 net.cpp:410] 1_accuracy <- 1_prob_1_prob_0_split_0
I0126 15:36:49.491475  1571 net.cpp:410] 1_accuracy <- label_cifar_1_split_0
I0126 15:36:49.491492  1571 net.cpp:368] 1_accuracy -> 1_accuracy
I0126 15:36:49.491508  1571 net.cpp:120] Setting up 1_accuracy
…
