…
I0127 01:22:08.200363  7219 net.cpp:287] The NetState phase (0) differed from the phase (1) specified by a rule in layer accuracy
I0127 01:22:08.200603  7219 net.cpp:42] Initializing net from parameters: 
name: "CIFAR10_quick"
state {
  phase: TRAIN
}
layer {
  name: "cifar"
  type: "Data"
  top: "data"
  top: "label"
  include {
    phase: TRAIN
  }
  transform_param {
    mean_file: "/home/mike/ml_lab/mod/MCL_Caffe/examples/cifar10/mean.binaryproto"
  }
  data_param {
    source: "/home/mike/ml_lab/mod/MCL_Caffe/examples/cifar10/cifar10_train_lmdb"
    batch_size: 350
    backend: LMDB
  }
}
layer {
  name: "1_conv1"
  type: "Convolution"
  bottom: "data"
  top: "1_conv1"
  param {
    lr_mult: 1
  }
  param {
    lr_mult: 2
  }
  convolution_param {
    num_output: 32
    pad: 2
    kernel_size: 5
    stride: 1
    weight_filler {
      type: "gaussian"
      std: 0.0001
    }
    bias_filler {
      type: "constant"
    }
  }
}
layer {
  name: "1_pool1"
  type: "Pooling"
  bottom: "1_conv1"
  top: "1_pool1"
  pooling_param {
    pool: MAX
    kernel_size: 3
    stride: 2
  }
}
layer {
  name: "1_relu1"
  type: "ReLU"
  bottom: "1_pool1"
  top: "1_pool1"
}
layer {
  name: "1_conv2"
  type: "Convolution"
  bottom: "1_pool1"
  top: "1_conv2"
  param {
    lr_mult: 1
  }
  param {
    lr_mult: 2
  }
  convolution_param {
    num_output: 32
    pad: 2
    kernel_size: 5
    stride: 1
    weight_filler {
      type: "gaussian"
      std: 0.01
    }
    bias_filler {
      type: "constant"
    }
  }
}
layer {
  name: "1_relu2"
  type: "ReLU"
  bottom: "1_conv2"
  top: "1_conv2"
}
layer {
  name: "1_pool2"
  type: "Pooling"
  bottom: "1_conv2"
  top: "1_pool2"
  pooling_param {
    pool: AVE
    kernel_size: 3
    stride: 2
  }
}
layer {
  name: "1_conv3"
  type: "Convolution"
  bottom: "1_pool2"
  top: "1_conv3"
  param {
    lr_mult: 1
  }
  param {
    lr_mult: 2
  }
  convolution_param {
    num_output: 64
    pad: 2
    kernel_size: 5
    stride: 1
    weight_filler {
      type: "gaussian"
      std: 0.01
    }
    bias_filler {
      type: "constant"
    }
  }
}
layer {
  name: "1_relu3"
  type: "ReLU"
  bottom: "1_conv3"
  top: "1_conv3"
}
layer {
  name: "1_pool3"
  type: "Pooling"
  bottom: "1_conv3"
  top: "1_pool3"
  pooling_param {
    pool: AVE
    kernel_size: 3
    stride: 2
  }
}
layer {
  name: "1_ip1"
  type: "InnerProduct"
  bottom: "1_pool3"
  top: "1_ip1"
  param {
    lr_mult: 1
  }
  param {
    lr_mult: 2
  }
  inner_product_param {
    num_output: 64
    weight_filler {
      type: "gaussian"
      std: 0.1
    }
    bias_filler {
      type: "constant"
    }
  }
}
layer {
  name: "1_ip2"
  type: "InnerProduct"
  bottom: "1_ip1"
  top: "1_ip2"
  param {
    lr_mult: 1
  }
  param {
    lr_mult: 2
  }
  inner_product_param {
    num_output: 10
    weight_filler {
      type: "gaussian"
      std: 0.1
    }
    bias_filler {
      type: "constant"
    }
  }
}
layer {
  name: "1_prob"
  type: "Softmax"
  bottom: "1_ip2"
  top: "1_prob"
}
layer {
  name: "2_conv1"
  type: "Convolution"
  bottom: "data"
  top: "2_conv1"
  param {
    lr_mult: 1
  }
  param {
    lr_mult: 2
  }
  convolution_param {
    num_output: 32
    pad: 2
    kernel_size: 5
    stride: 1
    weight_filler {
      type: "gaussian"
      std: 0.0001
    }
    bias_filler {
      type: "constant"
    }
  }
}
layer {
  name: "2_pool1"
  type: "Pooling"
  bottom: "2_conv1"
  top: "2_pool1"
  pooling_param {
    pool: MAX
    kernel_size: 3
    stride: 2
  }
}
layer {
  name: "2_relu1"
  type: "ReLU"
  bottom: "2_pool1"
  top: "2_pool1"
}
layer {
  name: "2_conv2"
  type: "Convolution"
  bottom: "2_pool1"
  top: "2_conv2"
  param {
    lr_mult: 1
  }
  param {
    lr_mult: 2
  }
  convolution_param {
    num_output: 32
    pad: 2
    kernel_size: 5
    stride: 1
    weight_filler {
      type: "gaussian"
      std: 0.01
    }
    bias_filler {
      type: "constant"
    }
  }
}
layer {
  name: "2_relu2"
  type: "ReLU"
  bottom: "2_conv2"
  top: "2_conv2"
}
layer {
  name: "2_pool2"
  type: "Pooling"
  bottom: "2_conv2"
  top: "2_pool2"
  pooling_param {
    pool: AVE
    kernel_size: 3
    stride: 2
  }
}
layer {
  name: "2_conv3"
  type: "Convolution"
  bottom: "2_pool2"
  top: "2_conv3"
  param {
    lr_mult: 1
  }
  param {
    lr_mult: 2
  }
  convolution_param {
    num_output: 64
    pad: 2
    kernel_size: 5
    stride: 1
    weight_filler {
      type: "gaussian"
      std: 0.01
    }
    bias_filler {
      type: "constant"
    }
  }
}
layer {
  name: "2_relu3"
  type: "ReLU"
  bottom: "2_conv3"
  top: "2_conv3"
}
layer {
  name: "2_pool3"
  type: "Pooling"
  bottom: "2_conv3"
  top: "2_pool3"
  pooling_param {
    pool: AVE
    kernel_size: 3
    stride: 2
  }
}
layer {
  name: "2_ip1"
  type: "InnerProduct"
  bottom: "2_pool3"
  top: "2_ip1"
  param {
    lr_mult: 1
  }
  param {
    lr_mult: 2
  }
  inner_product_param {
    num_output: 64
    weight_filler {
      type: "gaussian"
      std: 0.1
    }
    bias_filler {
      type: "constant"
    }
  }
}
layer {
  name: "2_ip2"
  type: "InnerProduct"
  bottom: "2_ip1"
  top: "2_ip2"
  param {
    lr_mult: 1
  }
  param {
    lr_mult: 2
  }
  inner_product_param {
    num_output: 10
    weight_filler {
      type: "gaussian"
      std: 0.1
    }
    bias_filler {
      type: "constant"
    }
  }
}
layer {
  name: "2_prob"
  type: "Softmax"
  bottom: "2_ip2"
  top: "2_prob"
}
layer {
  name: "3_conv1"
  type: "Convolution"
  bottom: "data"
  top: "3_conv1"
  param {
    lr_mult: 1
  }
  param {
    lr_mult: 2
  }
  convolution_param {
    num_output: 32
    pad: 2
    kernel_size: 5
    stride: 1
    weight_filler {
      type: "gaussian"
      std: 0.0001
    }
    bias_filler {
      type: "constant"
    }
  }
}
layer {
  name: "3_pool1"
  type: "Pooling"
  bottom: "3_conv1"
  top: "3_pool1"
  pooling_param {
    pool: MAX
    kernel_size: 3
    stride: 2
  }
}
layer {
  name: "3_relu1"
  type: "ReLU"
  bottom: "3_pool1"
  top: "3_pool1"
}
layer {
  name: "3_conv2"
  type: "Convolution"
  bottom: "3_pool1"
  top: "3_conv2"
  param {
    lr_mult: 1
  }
  param {
    lr_mult: 2
  }
  convolution_param {
    num_output: 32
    pad: 2
    kernel_size: 5
    stride: 1
    weight_filler {
      type: "gaussian"
      std: 0.01
    }
    bias_filler {
      type: "constant"
    }
  }
}
layer {
  name: "3_relu2"
  type: "ReLU"
  bottom: "3_conv2"
  top: "3_conv2"
}
layer {
  name: "3_pool2"
  type: "Pooling"
  bottom: "3_conv2"
  top: "3_pool2"
  pooling_param {
    pool: AVE
    kernel_size: 3
    stride: 2
  }
}
layer {
  name: "3_conv3"
  type: "Convolution"
  bottom: "3_pool2"
  top: "3_conv3"
  param {
    lr_mult: 1
  }
  param {
    lr_mult: 2
  }
  convolution_param {
    num_output: 64
    pad: 2
    kernel_size: 5
    stride: 1
    weight_filler {
      type: "gaussian"
      std: 0.01
    }
    bias_filler {
      type: "constant"
    }
  }
}
layer {
  name: "3_relu3"
  type: "ReLU"
  bottom: "3_conv3"
  top: "3_conv3"
}
layer {
  name: "3_pool3"
  type: "Pooling"
  bottom: "3_conv3"
  top: "3_pool3"
  pooling_param {
    pool: AVE
    kernel_size: 3
    stride: 2
  }
}
layer {
  name: "3_ip1"
  type: "InnerProduct"
  bottom: "3_pool3"
  top: "3_ip1"
  param {
    lr_mult: 1
  }
  param {
    lr_mult: 2
  }
  inner_product_param {
    num_output: 64
    weight_filler {
      type: "gaussian"
      std: 0.1
    }
    bias_filler {
      type: "constant"
    }
  }
}
layer {
  name: "3_ip2"
  type: "InnerProduct"
  bottom: "3_ip1"
  top: "3_ip2"
  param {
    lr_mult: 1
  }
  param {
    lr_mult: 2
  }
  inner_product_param {
    num_output: 10
    weight_filler {
      type: "gaussian"
      std: 0.1
    }
    bias_filler {
      type: "constant"
    }
  }
}
layer {
  name: "3_prob"
  type: "Softmax"
  bottom: "3_ip2"
  top: "3_prob"
}
layer {
  name: "4_conv1"
  type: "Convolution"
  bottom: "data"
  top: "4_conv1"
  param {
    lr_mult: 1
  }
  param {
    lr_mult: 2
  }
  convolution_param {
    num_output: 32
    pad: 2
    kernel_size: 5
    stride: 1
    weight_filler {
      type: "gaussian"
      std: 0.0001
    }
    bias_filler {
      type: "constant"
    }
  }
}
layer {
  name: "4_pool1"
  type: "Pooling"
  bottom: "4_conv1"
  top: "4_pool1"
  pooling_param {
    pool: MAX
    kernel_size: 3
    stride: 2
  }
}
layer {
  name: "4_relu1"
  type: "ReLU"
  bottom: "4_pool1"
  top: "4_pool1"
}
layer {
  name: "4_conv2"
  type: "Convolution"
  bottom: "4_pool1"
  top: "4_conv2"
  param {
    lr_mult: 1
  }
  param {
    lr_mult: 2
  }
  convolution_param {
    num_output: 32
    pad: 2
    kernel_size: 5
    stride: 1
    weight_filler {
      type: "gaussian"
      std: 0.01
    }
    bias_filler {
      type: "constant"
    }
  }
}
layer {
  name: "4_relu2"
  type: "ReLU"
  bottom: "4_conv2"
  top: "4_conv2"
}
layer {
  name: "4_pool2"
  type: "Pooling"
  bottom: "4_conv2"
  top: "4_pool2"
  pooling_param {
    pool: AVE
    kernel_size: 3
    stride: 2
  }
}
layer {
  name: "4_conv3"
  type: "Convolution"
  bottom: "4_pool2"
  top: "4_conv3"
  param {
    lr_mult: 1
  }
  param {
    lr_mult: 2
  }
  convolution_param {
    num_output: 64
    pad: 2
    kernel_size: 5
    stride: 1
    weight_filler {
      type: "gaussian"
      std: 0.01
    }
    bias_filler {
      type: "constant"
    }
  }
}
layer {
  name: "4_relu3"
  type: "ReLU"
  bottom: "4_conv3"
  top: "4_conv3"
}
layer {
  name: "4_pool3"
  type: "Pooling"
  bottom: "4_conv3"
  top: "4_pool3"
  pooling_param {
    pool: AVE
    kernel_size: 3
    stride: 2
  }
}
layer {
  name: "4_ip1"
  type: "InnerProduct"
  bottom: "4_pool3"
  top: "4_ip1"
  param {
    lr_mult: 1
  }
  param {
    lr_mult: 2
  }
  inner_product_param {
    num_output: 64
    weight_filler {
      type: "gaussian"
      std: 0.1
    }
    bias_filler {
      type: "constant"
    }
  }
}
layer {
  name: "4_ip2"
  type: "InnerProduct"
  bottom: "4_ip1"
  top: "4_ip2"
  param {
    lr_mult: 1
  }
  param {
    lr_mult: 2
  }
  inner_product_param {
    num_output: 10
    weight_filler {
      type: "gaussian"
      std: 0.1
    }
    bias_filler {
      type: "constant"
    }
  }
}
layer {
  name: "4_prob"
  type: "Softmax"
  bottom: "4_ip2"
  top: "4_prob"
}
layer {
  name: "loss"
  type: "ODMultinomialLogisticLoss"
  bottom: "1_prob"
  bottom: "2_prob"
  bottom: "3_prob"
  bottom: "4_prob"
  bottom: "label"
  top: "multiple-output loss"
  top: "batch-instance-counts"
  top: "train-instance-counts"
  loss_weight: 1
  loss_weight: 0
  loss_weight: 0
  include {
    phase: TRAIN
  }
}
I0127 01:22:08.200762  7219 layer_factory.hpp:74] Creating layer cifar
I0127 01:22:08.200775  7219 net.cpp:90] Creating Layer cifar
I0127 01:22:08.200781  7219 net.cpp:368] cifar -> data
I0127 01:22:08.200798  7219 net.cpp:368] cifar -> label
I0127 01:22:08.200804  7219 net.cpp:120] Setting up cifar
I0127 01:22:08.200850  7219 db.cpp:34] Opened lmdb /home/mike/ml_lab/mod/MCL_Caffe/examples/cifar10/cifar10_train_lmdb
I0127 01:22:08.200898  7219 data_layer.cpp:67] output data size: 350,3,32,32
I0127 01:22:08.200908  7219 data_transformer.cpp:22] Loading mean file from: /home/mike/ml_lab/mod/MCL_Caffe/examples/cifar10/mean.binaryproto
I0127 01:22:08.201748  7219 net.cpp:127] Top shape: 350 3 32 32 (1075200)
I0127 01:22:08.201758  7219 net.cpp:127] Top shape: 350 (350)
I0127 01:22:08.201763  7219 layer_factory.hpp:74] Creating layer data_cifar_0_split
I0127 01:22:08.201774  7219 net.cpp:90] Creating Layer data_cifar_0_split
I0127 01:22:08.201779  7219 net.cpp:410] data_cifar_0_split <- data
I0127 01:22:08.201791  7219 net.cpp:368] data_cifar_0_split -> data_cifar_0_split_0
I0127 01:22:08.201798  7219 net.cpp:368] data_cifar_0_split -> data_cifar_0_split_1
I0127 01:22:08.201804  7219 net.cpp:368] data_cifar_0_split -> data_cifar_0_split_2
I0127 01:22:08.201810  7219 net.cpp:368] data_cifar_0_split -> data_cifar_0_split_3
I0127 01:22:08.201817  7219 net.cpp:120] Setting up data_cifar_0_split
I0127 01:22:08.201828  7219 net.cpp:127] Top shape: 350 3 32 32 (1075200)
I0127 01:22:08.201833  7219 net.cpp:127] Top shape: 350 3 32 32 (1075200)
I0127 01:22:08.201838  7219 net.cpp:127] Top shape: 350 3 32 32 (1075200)
I0127 01:22:08.201843  7219 net.cpp:127] Top shape: 350 3 32 32 (1075200)
I0127 01:22:08.201845  7219 layer_factory.hpp:74] Creating layer 1_conv1
I0127 01:22:08.201855  7219 net.cpp:90] Creating Layer 1_conv1
I0127 01:22:08.201860  7219 net.cpp:410] 1_conv1 <- data_cifar_0_split_0
I0127 01:22:08.201865  7219 net.cpp:368] 1_conv1 -> 1_conv1
I0127 01:22:08.201874  7219 net.cpp:120] Setting up 1_conv1
I0127 01:22:08.202463  7219 net.cpp:127] Top shape: 350 32 32 32 (11468800)
I0127 01:22:08.202477  7219 layer_factory.hpp:74] Creating layer 1_pool1
I0127 01:22:08.202484  7219 net.cpp:90] Creating Layer 1_pool1
I0127 01:22:08.202488  7219 net.cpp:410] 1_pool1 <- 1_conv1
I0127 01:22:08.202493  7219 net.cpp:368] 1_pool1 -> 1_pool1
I0127 01:22:08.202500  7219 net.cpp:120] Setting up 1_pool1
I0127 01:22:08.202518  7219 net.cpp:127] Top shape: 350 32 16 16 (2867200)
I0127 01:22:08.202522  7219 layer_factory.hpp:74] Creating layer 1_relu1
I0127 01:22:08.202528  7219 net.cpp:90] Creating Layer 1_relu1
I0127 01:22:08.202531  7219 net.cpp:410] 1_relu1 <- 1_pool1
I0127 01:22:08.202536  7219 net.cpp:357] 1_relu1 -> 1_pool1 (in-place)
I0127 01:22:08.202540  7219 net.cpp:120] Setting up 1_relu1
I0127 01:22:08.202548  7219 net.cpp:127] Top shape: 350 32 16 16 (2867200)
I0127 01:22:08.202550  7219 layer_factory.hpp:74] Creating layer 1_conv2
I0127 01:22:08.202556  7219 net.cpp:90] Creating Layer 1_conv2
I0127 01:22:08.202559  7219 net.cpp:410] 1_conv2 <- 1_pool1
I0127 01:22:08.202565  7219 net.cpp:368] 1_conv2 -> 1_conv2
I0127 01:22:08.202574  7219 net.cpp:120] Setting up 1_conv2
I0127 01:22:08.203320  7219 net.cpp:127] Top shape: 350 32 16 16 (2867200)
I0127 01:22:08.203328  7219 layer_factory.hpp:74] Creating layer 1_relu2
I0127 01:22:08.203335  7219 net.cpp:90] Creating Layer 1_relu2
I0127 01:22:08.203339  7219 net.cpp:410] 1_relu2 <- 1_conv2
I0127 01:22:08.203346  7219 net.cpp:357] 1_relu2 -> 1_conv2 (in-place)
I0127 01:22:08.203351  7219 net.cpp:120] Setting up 1_relu2
I0127 01:22:08.203357  7219 net.cpp:127] Top shape: 350 32 16 16 (2867200)
I0127 01:22:08.203361  7219 layer_factory.hpp:74] Creating layer 1_pool2
I0127 01:22:08.203366  7219 net.cpp:90] Creating Layer 1_pool2
I0127 01:22:08.203371  7219 net.cpp:410] 1_pool2 <- 1_conv2
I0127 01:22:08.203377  7219 net.cpp:368] 1_pool2 -> 1_pool2
I0127 01:22:08.203382  7219 net.cpp:120] Setting up 1_pool2
I0127 01:22:08.203389  7219 net.cpp:127] Top shape: 350 32 8 8 (716800)
I0127 01:22:08.203393  7219 layer_factory.hpp:74] Creating layer 1_conv3
I0127 01:22:08.203400  7219 net.cpp:90] Creating Layer 1_conv3
I0127 01:22:08.203404  7219 net.cpp:410] 1_conv3 <- 1_pool2
I0127 01:22:08.203410  7219 net.cpp:368] 1_conv3 -> 1_conv3
I0127 01:22:08.203418  7219 net.cpp:120] Setting up 1_conv3
I0127 01:22:08.204613  7219 net.cpp:127] Top shape: 350 64 8 8 (1433600)
I0127 01:22:08.204622  7219 layer_factory.hpp:74] Creating layer 1_relu3
I0127 01:22:08.204627  7219 net.cpp:90] Creating Layer 1_relu3
I0127 01:22:08.204632  7219 net.cpp:410] 1_relu3 <- 1_conv3
I0127 01:22:08.204637  7219 net.cpp:357] 1_relu3 -> 1_conv3 (in-place)
I0127 01:22:08.204643  7219 net.cpp:120] Setting up 1_relu3
I0127 01:22:08.204648  7219 net.cpp:127] Top shape: 350 64 8 8 (1433600)
I0127 01:22:08.204653  7219 layer_factory.hpp:74] Creating layer 1_pool3
I0127 01:22:08.204658  7219 net.cpp:90] Creating Layer 1_pool3
I0127 01:22:08.204661  7219 net.cpp:410] 1_pool3 <- 1_conv3
I0127 01:22:08.204668  7219 net.cpp:368] 1_pool3 -> 1_pool3
I0127 01:22:08.204674  7219 net.cpp:120] Setting up 1_pool3
I0127 01:22:08.204680  7219 net.cpp:127] Top shape: 350 64 4 4 (358400)
I0127 01:22:08.204684  7219 layer_factory.hpp:74] Creating layer 1_ip1
I0127 01:22:08.204690  7219 net.cpp:90] Creating Layer 1_ip1
I0127 01:22:08.204694  7219 net.cpp:410] 1_ip1 <- 1_pool3
I0127 01:22:08.204700  7219 net.cpp:368] 1_ip1 -> 1_ip1
I0127 01:22:08.204708  7219 net.cpp:120] Setting up 1_ip1
I0127 01:22:08.206220  7219 net.cpp:127] Top shape: 350 64 (22400)
I0127 01:22:08.206228  7219 layer_factory.hpp:74] Creating layer 1_ip2
I0127 01:22:08.206234  7219 net.cpp:90] Creating Layer 1_ip2
I0127 01:22:08.206238  7219 net.cpp:410] 1_ip2 <- 1_ip1
I0127 01:22:08.206244  7219 net.cpp:368] 1_ip2 -> 1_ip2
I0127 01:22:08.206251  7219 net.cpp:120] Setting up 1_ip2
I0127 01:22:08.206284  7219 net.cpp:127] Top shape: 350 10 (3500)
I0127 01:22:08.206293  7219 layer_factory.hpp:74] Creating layer 1_prob
I0127 01:22:08.206300  7219 net.cpp:90] Creating Layer 1_prob
I0127 01:22:08.206305  7219 net.cpp:410] 1_prob <- 1_ip2
I0127 01:22:08.206310  7219 net.cpp:368] 1_prob -> 1_prob
I0127 01:22:08.206316  7219 net.cpp:120] Setting up 1_prob
I0127 01:22:08.206326  7219 net.cpp:127] Top shape: 350 10 (3500)
I0127 01:22:08.206331  7219 layer_factory.hpp:74] Creating layer 2_conv1
I0127 01:22:08.206336  7219 net.cpp:90] Creating Layer 2_conv1
I0127 01:22:08.206341  7219 net.cpp:410] 2_conv1 <- data_cifar_0_split_1
I0127 01:22:08.206347  7219 net.cpp:368] 2_conv1 -> 2_conv1
I0127 01:22:08.206353  7219 net.cpp:120] Setting up 2_conv1
I0127 01:22:08.206441  7219 net.cpp:127] Top shape: 350 32 32 32 (11468800)
I0127 01:22:08.206449  7219 layer_factory.hpp:74] Creating layer 2_pool1
I0127 01:22:08.206455  7219 net.cpp:90] Creating Layer 2_pool1
I0127 01:22:08.206460  7219 net.cpp:410] 2_pool1 <- 2_conv1
I0127 01:22:08.206466  7219 net.cpp:368] 2_pool1 -> 2_pool1
I0127 01:22:08.206473  7219 net.cpp:120] Setting up 2_pool1
I0127 01:22:08.206481  7219 net.cpp:127] Top shape: 350 32 16 16 (2867200)
I0127 01:22:08.206486  7219 layer_factory.hpp:74] Creating layer 2_relu1
I0127 01:22:08.206491  7219 net.cpp:90] Creating Layer 2_relu1
I0127 01:22:08.206496  7219 net.cpp:410] 2_relu1 <- 2_pool1
I0127 01:22:08.206501  7219 net.cpp:357] 2_relu1 -> 2_pool1 (in-place)
I0127 01:22:08.206506  7219 net.cpp:120] Setting up 2_relu1
I0127 01:22:08.206511  7219 net.cpp:127] Top shape: 350 32 16 16 (2867200)
I0127 01:22:08.206516  7219 layer_factory.hpp:74] Creating layer 2_conv2
I0127 01:22:08.206521  7219 net.cpp:90] Creating Layer 2_conv2
I0127 01:22:08.206526  7219 net.cpp:410] 2_conv2 <- 2_pool1
I0127 01:22:08.206532  7219 net.cpp:368] 2_conv2 -> 2_conv2
I0127 01:22:08.206537  7219 net.cpp:120] Setting up 2_conv2
I0127 01:22:08.207160  7219 net.cpp:127] Top shape: 350 32 16 16 (2867200)
I0127 01:22:08.207166  7219 layer_factory.hpp:74] Creating layer 2_relu2
I0127 01:22:08.207171  7219 net.cpp:90] Creating Layer 2_relu2
I0127 01:22:08.207175  7219 net.cpp:410] 2_relu2 <- 2_conv2
I0127 01:22:08.207180  7219 net.cpp:357] 2_relu2 -> 2_conv2 (in-place)
I0127 01:22:08.207186  7219 net.cpp:120] Setting up 2_relu2
I0127 01:22:08.207192  7219 net.cpp:127] Top shape: 350 32 16 16 (2867200)
I0127 01:22:08.207197  7219 layer_factory.hpp:74] Creating layer 2_pool2
I0127 01:22:08.207201  7219 net.cpp:90] Creating Layer 2_pool2
I0127 01:22:08.207214  7219 net.cpp:410] 2_pool2 <- 2_conv2
I0127 01:22:08.207221  7219 net.cpp:368] 2_pool2 -> 2_pool2
I0127 01:22:08.207226  7219 net.cpp:120] Setting up 2_pool2
I0127 01:22:08.207236  7219 net.cpp:127] Top shape: 350 32 8 8 (716800)
I0127 01:22:08.207239  7219 layer_factory.hpp:74] Creating layer 2_conv3
I0127 01:22:08.207245  7219 net.cpp:90] Creating Layer 2_conv3
I0127 01:22:08.207250  7219 net.cpp:410] 2_conv3 <- 2_pool2
I0127 01:22:08.207257  7219 net.cpp:368] 2_conv3 -> 2_conv3
I0127 01:22:08.207262  7219 net.cpp:120] Setting up 2_conv3
I0127 01:22:08.208448  7219 net.cpp:127] Top shape: 350 64 8 8 (1433600)
I0127 01:22:08.208454  7219 layer_factory.hpp:74] Creating layer 2_relu3
I0127 01:22:08.208461  7219 net.cpp:90] Creating Layer 2_relu3
I0127 01:22:08.208465  7219 net.cpp:410] 2_relu3 <- 2_conv3
I0127 01:22:08.208469  7219 net.cpp:357] 2_relu3 -> 2_conv3 (in-place)
I0127 01:22:08.208475  7219 net.cpp:120] Setting up 2_relu3
I0127 01:22:08.208482  7219 net.cpp:127] Top shape: 350 64 8 8 (1433600)
I0127 01:22:08.208485  7219 layer_factory.hpp:74] Creating layer 2_pool3
I0127 01:22:08.208490  7219 net.cpp:90] Creating Layer 2_pool3
I0127 01:22:08.208494  7219 net.cpp:410] 2_pool3 <- 2_conv3
I0127 01:22:08.208499  7219 net.cpp:368] 2_pool3 -> 2_pool3
I0127 01:22:08.208504  7219 net.cpp:120] Setting up 2_pool3
I0127 01:22:08.208511  7219 net.cpp:127] Top shape: 350 64 4 4 (358400)
I0127 01:22:08.208515  7219 layer_factory.hpp:74] Creating layer 2_ip1
I0127 01:22:08.208523  7219 net.cpp:90] Creating Layer 2_ip1
I0127 01:22:08.208526  7219 net.cpp:410] 2_ip1 <- 2_pool3
I0127 01:22:08.208533  7219 net.cpp:368] 2_ip1 -> 2_ip1
I0127 01:22:08.208539  7219 net.cpp:120] Setting up 2_ip1
I0127 01:22:08.210049  7219 net.cpp:127] Top shape: 350 64 (22400)
I0127 01:22:08.210057  7219 layer_factory.hpp:74] Creating layer 2_ip2
I0127 01:22:08.210067  7219 net.cpp:90] Creating Layer 2_ip2
I0127 01:22:08.210070  7219 net.cpp:410] 2_ip2 <- 2_ip1
I0127 01:22:08.210077  7219 net.cpp:368] 2_ip2 -> 2_ip2
I0127 01:22:08.210083  7219 net.cpp:120] Setting up 2_ip2
I0127 01:22:08.210115  7219 net.cpp:127] Top shape: 350 10 (3500)
I0127 01:22:08.210122  7219 layer_factory.hpp:74] Creating layer 2_prob
I0127 01:22:08.210129  7219 net.cpp:90] Creating Layer 2_prob
I0127 01:22:08.210134  7219 net.cpp:410] 2_prob <- 2_ip2
I0127 01:22:08.210139  7219 net.cpp:368] 2_prob -> 2_prob
I0127 01:22:08.210144  7219 net.cpp:120] Setting up 2_prob
I0127 01:22:08.210152  7219 net.cpp:127] Top shape: 350 10 (3500)
I0127 01:22:08.210157  7219 layer_factory.hpp:74] Creating layer 3_conv1
I0127 01:22:08.210163  7219 net.cpp:90] Creating Layer 3_conv1
I0127 01:22:08.210167  7219 net.cpp:410] 3_conv1 <- data_cifar_0_split_2
I0127 01:22:08.210173  7219 net.cpp:368] 3_conv1 -> 3_conv1
I0127 01:22:08.210180  7219 net.cpp:120] Setting up 3_conv1
I0127 01:22:08.210268  7219 net.cpp:127] Top shape: 350 32 32 32 (11468800)
I0127 01:22:08.210275  7219 layer_factory.hpp:74] Creating layer 3_pool1
I0127 01:22:08.210281  7219 net.cpp:90] Creating Layer 3_pool1
I0127 01:22:08.210285  7219 net.cpp:410] 3_pool1 <- 3_conv1
I0127 01:22:08.210291  7219 net.cpp:368] 3_pool1 -> 3_pool1
I0127 01:22:08.210297  7219 net.cpp:120] Setting up 3_pool1
I0127 01:22:08.210304  7219 net.cpp:127] Top shape: 350 32 16 16 (2867200)
I0127 01:22:08.210309  7219 layer_factory.hpp:74] Creating layer 3_relu1
I0127 01:22:08.210314  7219 net.cpp:90] Creating Layer 3_relu1
I0127 01:22:08.210319  7219 net.cpp:410] 3_relu1 <- 3_pool1
I0127 01:22:08.210322  7219 net.cpp:357] 3_relu1 -> 3_pool1 (in-place)
I0127 01:22:08.210326  7219 net.cpp:120] Setting up 3_relu1
I0127 01:22:08.210332  7219 net.cpp:127] Top shape: 350 32 16 16 (2867200)
I0127 01:22:08.210337  7219 layer_factory.hpp:74] Creating layer 3_conv2
I0127 01:22:08.210342  7219 net.cpp:90] Creating Layer 3_conv2
I0127 01:22:08.210346  7219 net.cpp:410] 3_conv2 <- 3_pool1
I0127 01:22:08.210351  7219 net.cpp:368] 3_conv2 -> 3_conv2
I0127 01:22:08.210357  7219 net.cpp:120] Setting up 3_conv2
I0127 01:22:08.210978  7219 net.cpp:127] Top shape: 350 32 16 16 (2867200)
I0127 01:22:08.210989  7219 layer_factory.hpp:74] Creating layer 3_relu2
I0127 01:22:08.210994  7219 net.cpp:90] Creating Layer 3_relu2
I0127 01:22:08.210999  7219 net.cpp:410] 3_relu2 <- 3_conv2
I0127 01:22:08.211004  7219 net.cpp:357] 3_relu2 -> 3_conv2 (in-place)
I0127 01:22:08.211009  7219 net.cpp:120] Setting up 3_relu2
I0127 01:22:08.211015  7219 net.cpp:127] Top shape: 350 32 16 16 (2867200)
I0127 01:22:08.211020  7219 layer_factory.hpp:74] Creating layer 3_pool2
I0127 01:22:08.211025  7219 net.cpp:90] Creating Layer 3_pool2
I0127 01:22:08.211030  7219 net.cpp:410] 3_pool2 <- 3_conv2
I0127 01:22:08.211035  7219 net.cpp:368] 3_pool2 -> 3_pool2
I0127 01:22:08.211041  7219 net.cpp:120] Setting up 3_pool2
I0127 01:22:08.211048  7219 net.cpp:127] Top shape: 350 32 8 8 (716800)
I0127 01:22:08.211053  7219 layer_factory.hpp:74] Creating layer 3_conv3
I0127 01:22:08.211061  7219 net.cpp:90] Creating Layer 3_conv3
I0127 01:22:08.211066  7219 net.cpp:410] 3_conv3 <- 3_pool2
I0127 01:22:08.211071  7219 net.cpp:368] 3_conv3 -> 3_conv3
I0127 01:22:08.211077  7219 net.cpp:120] Setting up 3_conv3
I0127 01:22:08.212265  7219 net.cpp:127] Top shape: 350 64 8 8 (1433600)
I0127 01:22:08.212275  7219 layer_factory.hpp:74] Creating layer 3_relu3
I0127 01:22:08.212280  7219 net.cpp:90] Creating Layer 3_relu3
I0127 01:22:08.212285  7219 net.cpp:410] 3_relu3 <- 3_conv3
I0127 01:22:08.212291  7219 net.cpp:357] 3_relu3 -> 3_conv3 (in-place)
I0127 01:22:08.212296  7219 net.cpp:120] Setting up 3_relu3
I0127 01:22:08.212302  7219 net.cpp:127] Top shape: 350 64 8 8 (1433600)
I0127 01:22:08.212307  7219 layer_factory.hpp:74] Creating layer 3_pool3
I0127 01:22:08.212312  7219 net.cpp:90] Creating Layer 3_pool3
I0127 01:22:08.212316  7219 net.cpp:410] 3_pool3 <- 3_conv3
I0127 01:22:08.212321  7219 net.cpp:368] 3_pool3 -> 3_pool3
I0127 01:22:08.212327  7219 net.cpp:120] Setting up 3_pool3
I0127 01:22:08.212333  7219 net.cpp:127] Top shape: 350 64 4 4 (358400)
I0127 01:22:08.212338  7219 layer_factory.hpp:74] Creating layer 3_ip1
I0127 01:22:08.212345  7219 net.cpp:90] Creating Layer 3_ip1
I0127 01:22:08.212349  7219 net.cpp:410] 3_ip1 <- 3_pool3
I0127 01:22:08.212355  7219 net.cpp:368] 3_ip1 -> 3_ip1
I0127 01:22:08.212362  7219 net.cpp:120] Setting up 3_ip1
I0127 01:22:08.213874  7219 net.cpp:127] Top shape: 350 64 (22400)
I0127 01:22:08.213881  7219 layer_factory.hpp:74] Creating layer 3_ip2
I0127 01:22:08.213888  7219 net.cpp:90] Creating Layer 3_ip2
I0127 01:22:08.213892  7219 net.cpp:410] 3_ip2 <- 3_ip1
I0127 01:22:08.213901  7219 net.cpp:368] 3_ip2 -> 3_ip2
I0127 01:22:08.213907  7219 net.cpp:120] Setting up 3_ip2
I0127 01:22:08.213938  7219 net.cpp:127] Top shape: 350 10 (3500)
I0127 01:22:08.213946  7219 layer_factory.hpp:74] Creating layer 3_prob
I0127 01:22:08.213953  7219 net.cpp:90] Creating Layer 3_prob
I0127 01:22:08.213956  7219 net.cpp:410] 3_prob <- 3_ip2
I0127 01:22:08.213961  7219 net.cpp:368] 3_prob -> 3_prob
I0127 01:22:08.213969  7219 net.cpp:120] Setting up 3_prob
I0127 01:22:08.213979  7219 net.cpp:127] Top shape: 350 10 (3500)
I0127 01:22:08.213984  7219 layer_factory.hpp:74] Creating layer 4_conv1
I0127 01:22:08.213989  7219 net.cpp:90] Creating Layer 4_conv1
I0127 01:22:08.213994  7219 net.cpp:410] 4_conv1 <- data_cifar_0_split_3
I0127 01:22:08.213999  7219 net.cpp:368] 4_conv1 -> 4_conv1
I0127 01:22:08.214006  7219 net.cpp:120] Setting up 4_conv1
I0127 01:22:08.214094  7219 net.cpp:127] Top shape: 350 32 32 32 (11468800)
I0127 01:22:08.214102  7219 layer_factory.hpp:74] Creating layer 4_pool1
I0127 01:22:08.214108  7219 net.cpp:90] Creating Layer 4_pool1
I0127 01:22:08.214113  7219 net.cpp:410] 4_pool1 <- 4_conv1
I0127 01:22:08.214119  7219 net.cpp:368] 4_pool1 -> 4_pool1
I0127 01:22:08.214124  7219 net.cpp:120] Setting up 4_pool1
I0127 01:22:08.214133  7219 net.cpp:127] Top shape: 350 32 16 16 (2867200)
I0127 01:22:08.214136  7219 layer_factory.hpp:74] Creating layer 4_relu1
I0127 01:22:08.214141  7219 net.cpp:90] Creating Layer 4_relu1
I0127 01:22:08.214145  7219 net.cpp:410] 4_relu1 <- 4_pool1
I0127 01:22:08.214159  7219 net.cpp:357] 4_relu1 -> 4_pool1 (in-place)
I0127 01:22:08.214165  7219 net.cpp:120] Setting up 4_relu1
I0127 01:22:08.214171  7219 net.cpp:127] Top shape: 350 32 16 16 (2867200)
I0127 01:22:08.214176  7219 layer_factory.hpp:74] Creating layer 4_conv2
I0127 01:22:08.214182  7219 net.cpp:90] Creating Layer 4_conv2
I0127 01:22:08.214186  7219 net.cpp:410] 4_conv2 <- 4_pool1
I0127 01:22:08.214191  7219 net.cpp:368] 4_conv2 -> 4_conv2
I0127 01:22:08.214197  7219 net.cpp:120] Setting up 4_conv2
I0127 01:22:08.214812  7219 net.cpp:127] Top shape: 350 32 16 16 (2867200)
I0127 01:22:08.214821  7219 layer_factory.hpp:74] Creating layer 4_relu2
I0127 01:22:08.214828  7219 net.cpp:90] Creating Layer 4_relu2
I0127 01:22:08.214831  7219 net.cpp:410] 4_relu2 <- 4_conv2
I0127 01:22:08.214838  7219 net.cpp:357] 4_relu2 -> 4_conv2 (in-place)
I0127 01:22:08.214843  7219 net.cpp:120] Setting up 4_relu2
I0127 01:22:08.214849  7219 net.cpp:127] Top shape: 350 32 16 16 (2867200)
I0127 01:22:08.214854  7219 layer_factory.hpp:74] Creating layer 4_pool2
I0127 01:22:08.214859  7219 net.cpp:90] Creating Layer 4_pool2
I0127 01:22:08.214862  7219 net.cpp:410] 4_pool2 <- 4_conv2
I0127 01:22:08.214867  7219 net.cpp:368] 4_pool2 -> 4_pool2
I0127 01:22:08.214874  7219 net.cpp:120] Setting up 4_pool2
I0127 01:22:08.214881  7219 net.cpp:127] Top shape: 350 32 8 8 (716800)
I0127 01:22:08.214886  7219 layer_factory.hpp:74] Creating layer 4_conv3
I0127 01:22:08.214892  7219 net.cpp:90] Creating Layer 4_conv3
I0127 01:22:08.214896  7219 net.cpp:410] 4_conv3 <- 4_pool2
I0127 01:22:08.214900  7219 net.cpp:368] 4_conv3 -> 4_conv3
I0127 01:22:08.214907  7219 net.cpp:120] Setting up 4_conv3
I0127 01:22:08.216094  7219 net.cpp:127] Top shape: 350 64 8 8 (1433600)
I0127 01:22:08.216100  7219 layer_factory.hpp:74] Creating layer 4_relu3
I0127 01:22:08.216107  7219 net.cpp:90] Creating Layer 4_relu3
I0127 01:22:08.216112  7219 net.cpp:410] 4_relu3 <- 4_conv3
I0127 01:22:08.216116  7219 net.cpp:357] 4_relu3 -> 4_conv3 (in-place)
I0127 01:22:08.216122  7219 net.cpp:120] Setting up 4_relu3
I0127 01:22:08.216128  7219 net.cpp:127] Top shape: 350 64 8 8 (1433600)
I0127 01:22:08.216133  7219 layer_factory.hpp:74] Creating layer 4_pool3
I0127 01:22:08.216138  7219 net.cpp:90] Creating Layer 4_pool3
I0127 01:22:08.216142  7219 net.cpp:410] 4_pool3 <- 4_conv3
I0127 01:22:08.216146  7219 net.cpp:368] 4_pool3 -> 4_pool3
I0127 01:22:08.216151  7219 net.cpp:120] Setting up 4_pool3
I0127 01:22:08.216158  7219 net.cpp:127] Top shape: 350 64 4 4 (358400)
I0127 01:22:08.216163  7219 layer_factory.hpp:74] Creating layer 4_ip1
I0127 01:22:08.216171  7219 net.cpp:90] Creating Layer 4_ip1
I0127 01:22:08.216174  7219 net.cpp:410] 4_ip1 <- 4_pool3
I0127 01:22:08.216181  7219 net.cpp:368] 4_ip1 -> 4_ip1
I0127 01:22:08.216187  7219 net.cpp:120] Setting up 4_ip1
I0127 01:22:08.217706  7219 net.cpp:127] Top shape: 350 64 (22400)
I0127 01:22:08.217712  7219 layer_factory.hpp:74] Creating layer 4_ip2
I0127 01:22:08.217718  7219 net.cpp:90] Creating Layer 4_ip2
I0127 01:22:08.217723  7219 net.cpp:410] 4_ip2 <- 4_ip1
I0127 01:22:08.217730  7219 net.cpp:368] 4_ip2 -> 4_ip2
I0127 01:22:08.217737  7219 net.cpp:120] Setting up 4_ip2
I0127 01:22:08.217772  7219 net.cpp:127] Top shape: 350 10 (3500)
I0127 01:22:08.217778  7219 layer_factory.hpp:74] Creating layer 4_prob
I0127 01:22:08.217784  7219 net.cpp:90] Creating Layer 4_prob
I0127 01:22:08.217789  7219 net.cpp:410] 4_prob <- 4_ip2
I0127 01:22:08.217794  7219 net.cpp:368] 4_prob -> 4_prob
I0127 01:22:08.217800  7219 net.cpp:120] Setting up 4_prob
I0127 01:22:08.217808  7219 net.cpp:127] Top shape: 350 10 (3500)
I0127 01:22:08.217813  7219 layer_factory.hpp:74] Creating layer loss
I0127 01:22:08.217823  7219 net.cpp:90] Creating Layer loss
I0127 01:22:08.217828  7219 net.cpp:410] loss <- 1_prob
I0127 01:22:08.217831  7219 net.cpp:410] loss <- 2_prob
I0127 01:22:08.217836  7219 net.cpp:410] loss <- 3_prob
I0127 01:22:08.217839  7219 net.cpp:410] loss <- 4_prob
I0127 01:22:08.217844  7219 net.cpp:410] loss <- label
I0127 01:22:08.217859  7219 net.cpp:368] loss -> multiple-output loss
I0127 01:22:08.217867  7219 net.cpp:368] loss -> batch-instance-counts
I0127 01:22:08.217875  7219 net.cpp:368] loss -> train-instance-counts
I0127 01:22:08.217883  7219 net.cpp:120] Setting up loss
I0127 01:22:08.217900  7219 net.cpp:127] Top shape: 4 1 1 1 (4)
I0127 01:22:08.217905  7219 net.cpp:129]     with loss weight 1
I0127 01:22:08.217923  7219 net.cpp:127] Top shape: 4 1 1 1 (4)
I0127 01:22:08.217929  7219 net.cpp:127] Top shape: 4 1 1 1 (4)
I0127 01:22:08.217934  7219 net.cpp:192] loss needs backward computation.
I0127 01:22:08.217938  7219 net.cpp:192] 4_prob needs backward computation.
I0127 01:22:08.217942  7219 net.cpp:192] 4_ip2 needs backward computation.
I0127 01:22:08.217947  7219 net.cpp:192] 4_ip1 needs backward computation.
I0127 01:22:08.217949  7219 net.cpp:192] 4_pool3 needs backward computation.
I0127 01:22:08.217952  7219 net.cpp:192] 4_relu3 needs backward computation.
…
I0127 01:22:08.219322  7219 net.cpp:287] The NetState phase (1) differed from the phase (0) specified by a rule in layer loss
I0127 01:22:08.219506  7219 net.cpp:42] Initializing net from parameters: 
name: "CIFAR10_quick"
state {
  phase: TEST
}
layer {
  name: "cifar"
  type: "Data"
  top: "data"
  top: "label"
  include {
    phase: TEST
  }
  transform_param {
    mean_file: "/home/mike/ml_lab/mod/MCL_Caffe/examples/cifar10/mean.binaryproto"
  }
  data_param {
    source: "/home/mike/ml_lab/mod/MCL_Caffe/examples/cifar10/cifar10_test_lmdb"
    batch_size: 100
    backend: LMDB
  }
}
layer {
  name: "1_conv1"
  type: "Convolution"
  bottom: "data"
  top: "1_conv1"
  param {
    lr_mult: 1
  }
  param {
    lr_mult: 2
  }
  convolution_param {
    num_output: 32
    pad: 2
    kernel_size: 5
    stride: 1
    weight_filler {
      type: "gaussian"
      std: 0.0001
    }
    bias_filler {
      type: "constant"
    }
  }
}
layer {
  name: "1_pool1"
  type: "Pooling"
  bottom: "1_conv1"
  top: "1_pool1"
  pooling_param {
    pool: MAX
    kernel_size: 3
    stride: 2
  }
}
layer {
  name: "1_relu1"
  type: "ReLU"
  bottom: "1_pool1"
  top: "1_pool1"
}
layer {
  name: "1_conv2"
  type: "Convolution"
  bottom: "1_pool1"
  top: "1_conv2"
  param {
    lr_mult: 1
  }
  param {
    lr_mult: 2
  }
  convolution_param {
    num_output: 32
    pad: 2
    kernel_size: 5
    stride: 1
    weight_filler {
      type: "gaussian"
      std: 0.01
    }
    bias_filler {
      type: "constant"
    }
  }
}
layer {
  name: "1_relu2"
  type: "ReLU"
  bottom: "1_conv2"
  top: "1_conv2"
}
layer {
  name: "1_pool2"
  type: "Pooling"
  bottom: "1_conv2"
  top: "1_pool2"
  pooling_param {
    pool: AVE
    kernel_size: 3
    stride: 2
  }
}
layer {
  name: "1_conv3"
  type: "Convolution"
  bottom: "1_pool2"
  top: "1_conv3"
  param {
    lr_mult: 1
  }
  param {
    lr_mult: 2
  }
  convolution_param {
    num_output: 64
    pad: 2
    kernel_size: 5
    stride: 1
    weight_filler {
      type: "gaussian"
      std: 0.01
    }
    bias_filler {
      type: "constant"
    }
  }
}
layer {
  name: "1_relu3"
  type: "ReLU"
  bottom: "1_conv3"
  top: "1_conv3"
}
layer {
  name: "1_pool3"
  type: "Pooling"
  bottom: "1_conv3"
  top: "1_pool3"
  pooling_param {
    pool: AVE
    kernel_size: 3
    stride: 2
  }
}
layer {
  name: "1_ip1"
  type: "InnerProduct"
  bottom: "1_pool3"
  top: "1_ip1"
  param {
    lr_mult: 1
  }
  param {
    lr_mult: 2
  }
  inner_product_param {
    num_output: 64
    weight_filler {
      type: "gaussian"
      std: 0.1
    }
    bias_filler {
      type: "constant"
    }
  }
}
layer {
  name: "1_ip2"
  type: "InnerProduct"
  bottom: "1_ip1"
  top: "1_ip2"
  param {
    lr_mult: 1
  }
  param {
    lr_mult: 2
  }
  inner_product_param {
    num_output: 10
    weight_filler {
      type: "gaussian"
      std: 0.1
    }
    bias_filler {
      type: "constant"
    }
  }
}
layer {
  name: "1_prob"
  type: "Softmax"
  bottom: "1_ip2"
  top: "1_prob"
}
layer {
  name: "2_conv1"
  type: "Convolution"
  bottom: "data"
  top: "2_conv1"
  param {
    lr_mult: 1
  }
  param {
    lr_mult: 2
  }
  convolution_param {
    num_output: 32
    pad: 2
    kernel_size: 5
    stride: 1
    weight_filler {
      type: "gaussian"
      std: 0.0001
    }
    bias_filler {
      type: "constant"
    }
  }
}
layer {
  name: "2_pool1"
  type: "Pooling"
  bottom: "2_conv1"
  top: "2_pool1"
  pooling_param {
    pool: MAX
    kernel_size: 3
    stride: 2
  }
}
layer {
  name: "2_relu1"
  type: "ReLU"
  bottom: "2_pool1"
  top: "2_pool1"
}
layer {
  name: "2_conv2"
  type: "Convolution"
  bottom: "2_pool1"
  top: "2_conv2"
  param {
    lr_mult: 1
  }
  param {
    lr_mult: 2
  }
  convolution_param {
    num_output: 32
    pad: 2
    kernel_size: 5
    stride: 1
    weight_filler {
      type: "gaussian"
      std: 0.01
    }
    bias_filler {
      type: "constant"
    }
  }
}
layer {
  name: "2_relu2"
  type: "ReLU"
  bottom: "2_conv2"
  top: "2_conv2"
}
layer {
  name: "2_pool2"
  type: "Pooling"
  bottom: "2_conv2"
  top: "2_pool2"
  pooling_param {
    pool: AVE
    kernel_size: 3
    stride: 2
  }
}
layer {
  name: "2_conv3"
  type: "Convolution"
  bottom: "2_pool2"
  top: "2_conv3"
  param {
    lr_mult: 1
  }
  param {
    lr_mult: 2
  }
  convolution_param {
    num_output: 64
    pad: 2
    kernel_size: 5
    stride: 1
    weight_filler {
      type: "gaussian"
      std: 0.01
    }
    bias_filler {
      type: "constant"
    }
  }
}
layer {
  name: "2_relu3"
  type: "ReLU"
  bottom: "2_conv3"
  top: "2_conv3"
}
layer {
  name: "2_pool3"
  type: "Pooling"
  bottom: "2_conv3"
  top: "2_pool3"
  pooling_param {
    pool: AVE
    kernel_size: 3
    stride: 2
  }
}
layer {
  name: "2_ip1"
  type: "InnerProduct"
  bottom: "2_pool3"
  top: "2_ip1"
  param {
    lr_mult: 1
  }
  param {
    lr_mult: 2
  }
  inner_product_param {
    num_output: 64
    weight_filler {
      type: "gaussian"
      std: 0.1
    }
    bias_filler {
      type: "constant"
    }
  }
}
layer {
  name: "2_ip2"
  type: "InnerProduct"
  bottom: "2_ip1"
  top: "2_ip2"
  param {
    lr_mult: 1
  }
  param {
    lr_mult: 2
  }
  inner_product_param {
    num_output: 10
    weight_filler {
      type: "gaussian"
      std: 0.1
    }
    bias_filler {
      type: "constant"
    }
  }
}
layer {
  name: "2_prob"
  type: "Softmax"
  bottom: "2_ip2"
  top: "2_prob"
}
layer {
  name: "3_conv1"
  type: "Convolution"
  bottom: "data"
  top: "3_conv1"
  param {
    lr_mult: 1
  }
  param {
    lr_mult: 2
  }
  convolution_param {
    num_output: 32
    pad: 2
    kernel_size: 5
    stride: 1
    weight_filler {
      type: "gaussian"
      std: 0.0001
    }
    bias_filler {
      type: "constant"
    }
  }
}
layer {
  name: "3_pool1"
  type: "Pooling"
  bottom: "3_conv1"
  top: "3_pool1"
  pooling_param {
    pool: MAX
    kernel_size: 3
    stride: 2
  }
}
layer {
  name: "3_relu1"
  type: "ReLU"
  bottom: "3_pool1"
  top: "3_pool1"
}
layer {
  name: "3_conv2"
  type: "Convolution"
  bottom: "3_pool1"
  top: "3_conv2"
  param {
    lr_mult: 1
  }
  param {
    lr_mult: 2
  }
  convolution_param {
    num_output: 32
    pad: 2
    kernel_size: 5
    stride: 1
    weight_filler {
      type: "gaussian"
      std: 0.01
    }
    bias_filler {
      type: "constant"
    }
  }
}
layer {
  name: "3_relu2"
  type: "ReLU"
  bottom: "3_conv2"
  top: "3_conv2"
}
layer {
  name: "3_pool2"
  type: "Pooling"
  bottom: "3_conv2"
  top: "3_pool2"
  pooling_param {
    pool: AVE
    kernel_size: 3
    stride: 2
  }
}
layer {
  name: "3_conv3"
  type: "Convolution"
  bottom: "3_pool2"
  top: "3_conv3"
  param {
    lr_mult: 1
  }
  param {
    lr_mult: 2
  }
  convolution_param {
    num_output: 64
    pad: 2
    kernel_size: 5
    stride: 1
    weight_filler {
      type: "gaussian"
      std: 0.01
    }
    bias_filler {
      type: "constant"
    }
  }
}
layer {
  name: "3_relu3"
  type: "ReLU"
  bottom: "3_conv3"
  top: "3_conv3"
}
layer {
  name: "3_pool3"
  type: "Pooling"
  bottom: "3_conv3"
  top: "3_pool3"
  pooling_param {
    pool: AVE
    kernel_size: 3
    stride: 2
  }
}
layer {
  name: "3_ip1"
  type: "InnerProduct"
  bottom: "3_pool3"
  top: "3_ip1"
  param {
    lr_mult: 1
  }
  param {
    lr_mult: 2
  }
  inner_product_param {
    num_output: 64
    weight_filler {
      type: "gaussian"
      std: 0.1
    }
    bias_filler {
      type: "constant"
    }
  }
}
layer {
  name: "3_ip2"
  type: "InnerProduct"
  bottom: "3_ip1"
  top: "3_ip2"
  param {
    lr_mult: 1
  }
  param {
    lr_mult: 2
  }
  inner_product_param {
    num_output: 10
    weight_filler {
      type: "gaussian"
      std: 0.1
    }
    bias_filler {
      type: "constant"
    }
  }
}
layer {
  name: "3_prob"
  type: "Softmax"
  bottom: "3_ip2"
  top: "3_prob"
}
layer {
  name: "4_conv1"
  type: "Convolution"
  bottom: "data"
  top: "4_conv1"
  param {
    lr_mult: 1
  }
  param {
    lr_mult: 2
  }
  convolution_param {
    num_output: 32
    pad: 2
    kernel_size: 5
    stride: 1
    weight_filler {
      type: "gaussian"
      std: 0.0001
    }
    bias_filler {
      type: "constant"
    }
  }
}
layer {
  name: "4_pool1"
  type: "Pooling"
  bottom: "4_conv1"
  top: "4_pool1"
  pooling_param {
    pool: MAX
    kernel_size: 3
    stride: 2
  }
}
layer {
  name: "4_relu1"
  type: "ReLU"
  bottom: "4_pool1"
  top: "4_pool1"
}
layer {
  name: "4_conv2"
  type: "Convolution"
  bottom: "4_pool1"
  top: "4_conv2"
  param {
    lr_mult: 1
  }
  param {
    lr_mult: 2
  }
  convolution_param {
    num_output: 32
    pad: 2
    kernel_size: 5
    stride: 1
    weight_filler {
      type: "gaussian"
      std: 0.01
    }
    bias_filler {
      type: "constant"
    }
  }
}
layer {
  name: "4_relu2"
  type: "ReLU"
  bottom: "4_conv2"
  top: "4_conv2"
}
layer {
  name: "4_pool2"
  type: "Pooling"
  bottom: "4_conv2"
  top: "4_pool2"
  pooling_param {
    pool: AVE
    kernel_size: 3
    stride: 2
  }
}
layer {
  name: "4_conv3"
  type: "Convolution"
  bottom: "4_pool2"
  top: "4_conv3"
  param {
    lr_mult: 1
  }
  param {
    lr_mult: 2
  }
  convolution_param {
    num_output: 64
    pad: 2
    kernel_size: 5
    stride: 1
    weight_filler {
      type: "gaussian"
      std: 0.01
    }
    bias_filler {
      type: "constant"
    }
  }
}
layer {
  name: "4_relu3"
  type: "ReLU"
  bottom: "4_conv3"
  top: "4_conv3"
}
layer {
  name: "4_pool3"
  type: "Pooling"
  bottom: "4_conv3"
  top: "4_pool3"
  pooling_param {
    pool: AVE
    kernel_size: 3
    stride: 2
  }
}
layer {
  name: "4_ip1"
  type: "InnerProduct"
  bottom: "4_pool3"
  top: "4_ip1"
  param {
    lr_mult: 1
  }
  param {
    lr_mult: 2
  }
  inner_product_param {
    num_output: 64
    weight_filler {
      type: "gaussian"
      std: 0.1
    }
    bias_filler {
      type: "constant"
    }
  }
}
layer {
  name: "4_ip2"
  type: "InnerProduct"
  bottom: "4_ip1"
  top: "4_ip2"
  param {
    lr_mult: 1
  }
  param {
    lr_mult: 2
  }
  inner_product_param {
    num_output: 10
    weight_filler {
      type: "gaussian"
      std: 0.1
    }
    bias_filler {
      type: "constant"
    }
  }
}
layer {
  name: "4_prob"
  type: "Softmax"
  bottom: "4_ip2"
  top: "4_prob"
}
layer {
  name: "1_accuracy"
  type: "Accuracy"
  bottom: "1_prob"
  bottom: "label"
  top: "1_accuracy"
  include {
    phase: TEST
  }
}
layer {
  name: "2_accuracy"
  type: "Accuracy"
  bottom: "2_prob"
  bottom: "label"
  top: "2_accuracy"
  include {
    phase: TEST
  }
}
layer {
  name: "3_accuracy"
  type: "Accuracy"
  bottom: "3_prob"
  bottom: "label"
  top: "3_accuracy"
  include {
    phase: TEST
  }
}
layer {
  name: "4_accuracy"
  type: "Accuracy"
  bottom: "4_prob"
  bottom: "label"
  top: "4_accuracy"
  include {
    phase: TEST
  }
}
layer {
  name: "accuracy"
  type: "OracleAccuracy"
  bottom: "1_prob"
  bottom: "2_prob"
  bottom: "3_prob"
  bottom: "4_prob"
  bottom: "label"
  top: "oracle accuracy"
  include {
    phase: TEST
  }
}
I0127 01:22:08.219743  7219 layer_factory.hpp:74] Creating layer cifar
I0127 01:22:08.219759  7219 net.cpp:90] Creating Layer cifar
I0127 01:22:08.219763  7219 net.cpp:368] cifar -> data
I0127 01:22:08.219771  7219 net.cpp:368] cifar -> label
I0127 01:22:08.219777  7219 net.cpp:120] Setting up cifar
I0127 01:22:08.219806  7219 db.cpp:34] Opened lmdb /home/mike/ml_lab/mod/MCL_Caffe/examples/cifar10/cifar10_test_lmdb
I0127 01:22:08.219831  7219 data_layer.cpp:67] output data size: 100,3,32,32
I0127 01:22:08.219836  7219 data_transformer.cpp:22] Loading mean file from: /home/mike/ml_lab/mod/MCL_Caffe/examples/cifar10/mean.binaryproto
I0127 01:22:08.220208  7219 net.cpp:127] Top shape: 100 3 32 32 (307200)
I0127 01:22:08.220216  7219 net.cpp:127] Top shape: 100 (100)
I0127 01:22:08.220219  7219 layer_factory.hpp:74] Creating layer data_cifar_0_split
I0127 01:22:08.220226  7219 net.cpp:90] Creating Layer data_cifar_0_split
I0127 01:22:08.220229  7219 net.cpp:410] data_cifar_0_split <- data
I0127 01:22:08.220234  7219 net.cpp:368] data_cifar_0_split -> data_cifar_0_split_0
I0127 01:22:08.220240  7219 net.cpp:368] data_cifar_0_split -> data_cifar_0_split_1
I0127 01:22:08.220245  7219 net.cpp:368] data_cifar_0_split -> data_cifar_0_split_2
I0127 01:22:08.220252  7219 net.cpp:368] data_cifar_0_split -> data_cifar_0_split_3
I0127 01:22:08.220257  7219 net.cpp:120] Setting up data_cifar_0_split
I0127 01:22:08.220263  7219 net.cpp:127] Top shape: 100 3 32 32 (307200)
I0127 01:22:08.220268  7219 net.cpp:127] Top shape: 100 3 32 32 (307200)
I0127 01:22:08.220271  7219 net.cpp:127] Top shape: 100 3 32 32 (307200)
I0127 01:22:08.220276  7219 net.cpp:127] Top shape: 100 3 32 32 (307200)
I0127 01:22:08.220279  7219 layer_factory.hpp:74] Creating layer label_cifar_1_split
I0127 01:22:08.220285  7219 net.cpp:90] Creating Layer label_cifar_1_split
I0127 01:22:08.220288  7219 net.cpp:410] label_cifar_1_split <- label
I0127 01:22:08.220293  7219 net.cpp:368] label_cifar_1_split -> label_cifar_1_split_0
I0127 01:22:08.220299  7219 net.cpp:368] label_cifar_1_split -> label_cifar_1_split_1
I0127 01:22:08.220304  7219 net.cpp:368] label_cifar_1_split -> label_cifar_1_split_2
I0127 01:22:08.220309  7219 net.cpp:368] label_cifar_1_split -> label_cifar_1_split_3
I0127 01:22:08.220312  7219 net.cpp:368] label_cifar_1_split -> label_cifar_1_split_4
I0127 01:22:08.220316  7219 net.cpp:120] Setting up label_cifar_1_split
I0127 01:22:08.220320  7219 net.cpp:127] Top shape: 100 (100)
I0127 01:22:08.220324  7219 net.cpp:127] Top shape: 100 (100)
I0127 01:22:08.220329  7219 net.cpp:127] Top shape: 100 (100)
I0127 01:22:08.220331  7219 net.cpp:127] Top shape: 100 (100)
I0127 01:22:08.220335  7219 net.cpp:127] Top shape: 100 (100)
I0127 01:22:08.220338  7219 layer_factory.hpp:74] Creating layer 1_conv1
I0127 01:22:08.220345  7219 net.cpp:90] Creating Layer 1_conv1
I0127 01:22:08.220348  7219 net.cpp:410] 1_conv1 <- data_cifar_0_split_0
I0127 01:22:08.220353  7219 net.cpp:368] 1_conv1 -> 1_conv1
I0127 01:22:08.220358  7219 net.cpp:120] Setting up 1_conv1
I0127 01:22:08.220444  7219 net.cpp:127] Top shape: 100 32 32 32 (3276800)
I0127 01:22:08.220453  7219 layer_factory.hpp:74] Creating layer 1_pool1
I0127 01:22:08.220458  7219 net.cpp:90] Creating Layer 1_pool1
I0127 01:22:08.220463  7219 net.cpp:410] 1_pool1 <- 1_conv1
I0127 01:22:08.220466  7219 net.cpp:368] 1_pool1 -> 1_pool1
I0127 01:22:08.220471  7219 net.cpp:120] Setting up 1_pool1
I0127 01:22:08.220479  7219 net.cpp:127] Top shape: 100 32 16 16 (819200)
I0127 01:22:08.220481  7219 layer_factory.hpp:74] Creating layer 1_relu1
I0127 01:22:08.220485  7219 net.cpp:90] Creating Layer 1_relu1
I0127 01:22:08.220489  7219 net.cpp:410] 1_relu1 <- 1_pool1
I0127 01:22:08.220494  7219 net.cpp:357] 1_relu1 -> 1_pool1 (in-place)
I0127 01:22:08.220497  7219 net.cpp:120] Setting up 1_relu1
I0127 01:22:08.220502  7219 net.cpp:127] Top shape: 100 32 16 16 (819200)
I0127 01:22:08.220505  7219 layer_factory.hpp:74] Creating layer 1_conv2
I0127 01:22:08.220510  7219 net.cpp:90] Creating Layer 1_conv2
I0127 01:22:08.220513  7219 net.cpp:410] 1_conv2 <- 1_pool1
I0127 01:22:08.220520  7219 net.cpp:368] 1_conv2 -> 1_conv2
I0127 01:22:08.220535  7219 net.cpp:120] Setting up 1_conv2
I0127 01:22:08.221338  7219 net.cpp:127] Top shape: 100 32 16 16 (819200)
I0127 01:22:08.221349  7219 layer_factory.hpp:74] Creating layer 1_relu2
I0127 01:22:08.221354  7219 net.cpp:90] Creating Layer 1_relu2
I0127 01:22:08.221359  7219 net.cpp:410] 1_relu2 <- 1_conv2
I0127 01:22:08.221364  7219 net.cpp:357] 1_relu2 -> 1_conv2 (in-place)
I0127 01:22:08.221369  7219 net.cpp:120] Setting up 1_relu2
I0127 01:22:08.221374  7219 net.cpp:127] Top shape: 100 32 16 16 (819200)
I0127 01:22:08.221377  7219 layer_factory.hpp:74] Creating layer 1_pool2
I0127 01:22:08.221382  7219 net.cpp:90] Creating Layer 1_pool2
I0127 01:22:08.221385  7219 net.cpp:410] 1_pool2 <- 1_conv2
I0127 01:22:08.221391  7219 net.cpp:368] 1_pool2 -> 1_pool2
I0127 01:22:08.221397  7219 net.cpp:120] Setting up 1_pool2
I0127 01:22:08.221405  7219 net.cpp:127] Top shape: 100 32 8 8 (204800)
I0127 01:22:08.221408  7219 layer_factory.hpp:74] Creating layer 1_conv3
I0127 01:22:08.221415  7219 net.cpp:90] Creating Layer 1_conv3
I0127 01:22:08.221420  7219 net.cpp:410] 1_conv3 <- 1_pool2
I0127 01:22:08.221426  7219 net.cpp:368] 1_conv3 -> 1_conv3
I0127 01:22:08.221431  7219 net.cpp:120] Setting up 1_conv3
I0127 01:22:08.222846  7219 net.cpp:127] Top shape: 100 64 8 8 (409600)
I0127 01:22:08.222852  7219 layer_factory.hpp:74] Creating layer 1_relu3
I0127 01:22:08.222856  7219 net.cpp:90] Creating Layer 1_relu3
I0127 01:22:08.222857  7219 net.cpp:410] 1_relu3 <- 1_conv3
I0127 01:22:08.222861  7219 net.cpp:357] 1_relu3 -> 1_conv3 (in-place)
I0127 01:22:08.222862  7219 net.cpp:120] Setting up 1_relu3
I0127 01:22:08.222865  7219 net.cpp:127] Top shape: 100 64 8 8 (409600)
I0127 01:22:08.222867  7219 layer_factory.hpp:74] Creating layer 1_pool3
I0127 01:22:08.222872  7219 net.cpp:90] Creating Layer 1_pool3
I0127 01:22:08.222874  7219 net.cpp:410] 1_pool3 <- 1_conv3
I0127 01:22:08.222879  7219 net.cpp:368] 1_pool3 -> 1_pool3
I0127 01:22:08.222885  7219 net.cpp:120] Setting up 1_pool3
I0127 01:22:08.222892  7219 net.cpp:127] Top shape: 100 64 4 4 (102400)
I0127 01:22:08.222894  7219 layer_factory.hpp:74] Creating layer 1_ip1
I0127 01:22:08.222901  7219 net.cpp:90] Creating Layer 1_ip1
I0127 01:22:08.222906  7219 net.cpp:410] 1_ip1 <- 1_pool3
I0127 01:22:08.222911  7219 net.cpp:368] 1_ip1 -> 1_ip1
I0127 01:22:08.222916  7219 net.cpp:120] Setting up 1_ip1
I0127 01:22:08.224433  7219 net.cpp:127] Top shape: 100 64 (6400)
I0127 01:22:08.224439  7219 layer_factory.hpp:74] Creating layer 1_ip2
I0127 01:22:08.224447  7219 net.cpp:90] Creating Layer 1_ip2
I0127 01:22:08.224450  7219 net.cpp:410] 1_ip2 <- 1_ip1
I0127 01:22:08.224455  7219 net.cpp:368] 1_ip2 -> 1_ip2
I0127 01:22:08.224462  7219 net.cpp:120] Setting up 1_ip2
I0127 01:22:08.224494  7219 net.cpp:127] Top shape: 100 10 (1000)
I0127 01:22:08.224503  7219 layer_factory.hpp:74] Creating layer 1_prob
I0127 01:22:08.224509  7219 net.cpp:90] Creating Layer 1_prob
I0127 01:22:08.224514  7219 net.cpp:410] 1_prob <- 1_ip2
I0127 01:22:08.224520  7219 net.cpp:368] 1_prob -> 1_prob
I0127 01:22:08.224526  7219 net.cpp:120] Setting up 1_prob
I0127 01:22:08.224534  7219 net.cpp:127] Top shape: 100 10 (1000)
I0127 01:22:08.224539  7219 layer_factory.hpp:74] Creating layer 1_prob_1_prob_0_split
I0127 01:22:08.224542  7219 net.cpp:90] Creating Layer 1_prob_1_prob_0_split
I0127 01:22:08.224547  7219 net.cpp:410] 1_prob_1_prob_0_split <- 1_prob
I0127 01:22:08.224556  7219 net.cpp:368] 1_prob_1_prob_0_split -> 1_prob_1_prob_0_split_0
I0127 01:22:08.224562  7219 net.cpp:368] 1_prob_1_prob_0_split -> 1_prob_1_prob_0_split_1
I0127 01:22:08.224568  7219 net.cpp:120] Setting up 1_prob_1_prob_0_split
I0127 01:22:08.224575  7219 net.cpp:127] Top shape: 100 10 (1000)
I0127 01:22:08.224581  7219 net.cpp:127] Top shape: 100 10 (1000)
I0127 01:22:08.224584  7219 layer_factory.hpp:74] Creating layer 2_conv1
I0127 01:22:08.224592  7219 net.cpp:90] Creating Layer 2_conv1
I0127 01:22:08.224596  7219 net.cpp:410] 2_conv1 <- data_cifar_0_split_1
I0127 01:22:08.224602  7219 net.cpp:368] 2_conv1 -> 2_conv1
I0127 01:22:08.224617  7219 net.cpp:120] Setting up 2_conv1
I0127 01:22:08.224707  7219 net.cpp:127] Top shape: 100 32 32 32 (3276800)
I0127 01:22:08.224715  7219 layer_factory.hpp:74] Creating layer 2_pool1
I0127 01:22:08.224722  7219 net.cpp:90] Creating Layer 2_pool1
I0127 01:22:08.224726  7219 net.cpp:410] 2_pool1 <- 2_conv1
I0127 01:22:08.224731  7219 net.cpp:368] 2_pool1 -> 2_pool1
I0127 01:22:08.224737  7219 net.cpp:120] Setting up 2_pool1
I0127 01:22:08.224745  7219 net.cpp:127] Top shape: 100 32 16 16 (819200)
I0127 01:22:08.224750  7219 layer_factory.hpp:74] Creating layer 2_relu1
I0127 01:22:08.224753  7219 net.cpp:90] Creating Layer 2_relu1
I0127 01:22:08.224758  7219 net.cpp:410] 2_relu1 <- 2_pool1
I0127 01:22:08.224762  7219 net.cpp:357] 2_relu1 -> 2_pool1 (in-place)
I0127 01:22:08.224767  7219 net.cpp:120] Setting up 2_relu1
I0127 01:22:08.224774  7219 net.cpp:127] Top shape: 100 32 16 16 (819200)
I0127 01:22:08.224778  7219 layer_factory.hpp:74] Creating layer 2_conv2
I0127 01:22:08.224782  7219 net.cpp:90] Creating Layer 2_conv2
I0127 01:22:08.224786  7219 net.cpp:410] 2_conv2 <- 2_pool1
I0127 01:22:08.224791  7219 net.cpp:368] 2_conv2 -> 2_conv2
I0127 01:22:08.224797  7219 net.cpp:120] Setting up 2_conv2
I0127 01:22:08.225447  7219 net.cpp:127] Top shape: 100 32 16 16 (819200)
I0127 01:22:08.225455  7219 layer_factory.hpp:74] Creating layer 2_relu2
I0127 01:22:08.225458  7219 net.cpp:90] Creating Layer 2_relu2
I0127 01:22:08.225461  7219 net.cpp:410] 2_relu2 <- 2_conv2
I0127 01:22:08.225467  7219 net.cpp:357] 2_relu2 -> 2_conv2 (in-place)
I0127 01:22:08.225473  7219 net.cpp:120] Setting up 2_relu2
I0127 01:22:08.225479  7219 net.cpp:127] Top shape: 100 32 16 16 (819200)
I0127 01:22:08.225483  7219 layer_factory.hpp:74] Creating layer 2_pool2
I0127 01:22:08.225488  7219 net.cpp:90] Creating Layer 2_pool2
I0127 01:22:08.225492  7219 net.cpp:410] 2_pool2 <- 2_conv2
I0127 01:22:08.225497  7219 net.cpp:368] 2_pool2 -> 2_pool2
I0127 01:22:08.225504  7219 net.cpp:120] Setting up 2_pool2
I0127 01:22:08.225510  7219 net.cpp:127] Top shape: 100 32 8 8 (204800)
I0127 01:22:08.225515  7219 layer_factory.hpp:74] Creating layer 2_conv3
I0127 01:22:08.225520  7219 net.cpp:90] Creating Layer 2_conv3
I0127 01:22:08.225525  7219 net.cpp:410] 2_conv3 <- 2_pool2
I0127 01:22:08.225531  7219 net.cpp:368] 2_conv3 -> 2_conv3
I0127 01:22:08.225538  7219 net.cpp:120] Setting up 2_conv3
I0127 01:22:08.226729  7219 net.cpp:127] Top shape: 100 64 8 8 (409600)
I0127 01:22:08.226737  7219 layer_factory.hpp:74] Creating layer 2_relu3
I0127 01:22:08.226742  7219 net.cpp:90] Creating Layer 2_relu3
I0127 01:22:08.226747  7219 net.cpp:410] 2_relu3 <- 2_conv3
I0127 01:22:08.226750  7219 net.cpp:357] 2_relu3 -> 2_conv3 (in-place)
I0127 01:22:08.226757  7219 net.cpp:120] Setting up 2_relu3
I0127 01:22:08.226763  7219 net.cpp:127] Top shape: 100 64 8 8 (409600)
I0127 01:22:08.226766  7219 layer_factory.hpp:74] Creating layer 2_pool3
I0127 01:22:08.226770  7219 net.cpp:90] Creating Layer 2_pool3
I0127 01:22:08.226775  7219 net.cpp:410] 2_pool3 <- 2_conv3
I0127 01:22:08.226781  7219 net.cpp:368] 2_pool3 -> 2_pool3
I0127 01:22:08.226788  7219 net.cpp:120] Setting up 2_pool3
I0127 01:22:08.226795  7219 net.cpp:127] Top shape: 100 64 4 4 (102400)
I0127 01:22:08.226799  7219 layer_factory.hpp:74] Creating layer 2_ip1
I0127 01:22:08.226805  7219 net.cpp:90] Creating Layer 2_ip1
I0127 01:22:08.226809  7219 net.cpp:410] 2_ip1 <- 2_pool3
I0127 01:22:08.226815  7219 net.cpp:368] 2_ip1 -> 2_ip1
I0127 01:22:08.226821  7219 net.cpp:120] Setting up 2_ip1
I0127 01:22:08.228337  7219 net.cpp:127] Top shape: 100 64 (6400)
I0127 01:22:08.228345  7219 layer_factory.hpp:74] Creating layer 2_ip2
I0127 01:22:08.228353  7219 net.cpp:90] Creating Layer 2_ip2
I0127 01:22:08.228356  7219 net.cpp:410] 2_ip2 <- 2_ip1
I0127 01:22:08.228363  7219 net.cpp:368] 2_ip2 -> 2_ip2
I0127 01:22:08.228369  7219 net.cpp:120] Setting up 2_ip2
I0127 01:22:08.228401  7219 net.cpp:127] Top shape: 100 10 (1000)
I0127 01:22:08.228410  7219 layer_factory.hpp:74] Creating layer 2_prob
I0127 01:22:08.228423  7219 net.cpp:90] Creating Layer 2_prob
I0127 01:22:08.228428  7219 net.cpp:410] 2_prob <- 2_ip2
I0127 01:22:08.228433  7219 net.cpp:368] 2_prob -> 2_prob
I0127 01:22:08.228440  7219 net.cpp:120] Setting up 2_prob
I0127 01:22:08.228447  7219 net.cpp:127] Top shape: 100 10 (1000)
I0127 01:22:08.228451  7219 layer_factory.hpp:74] Creating layer 2_prob_2_prob_0_split
I0127 01:22:08.228457  7219 net.cpp:90] Creating Layer 2_prob_2_prob_0_split
I0127 01:22:08.228462  7219 net.cpp:410] 2_prob_2_prob_0_split <- 2_prob
I0127 01:22:08.228466  7219 net.cpp:368] 2_prob_2_prob_0_split -> 2_prob_2_prob_0_split_0
I0127 01:22:08.228473  7219 net.cpp:368] 2_prob_2_prob_0_split -> 2_prob_2_prob_0_split_1
I0127 01:22:08.228482  7219 net.cpp:120] Setting up 2_prob_2_prob_0_split
I0127 01:22:08.228488  7219 net.cpp:127] Top shape: 100 10 (1000)
I0127 01:22:08.228494  7219 net.cpp:127] Top shape: 100 10 (1000)
I0127 01:22:08.228498  7219 layer_factory.hpp:74] Creating layer 3_conv1
I0127 01:22:08.228504  7219 net.cpp:90] Creating Layer 3_conv1
I0127 01:22:08.228508  7219 net.cpp:410] 3_conv1 <- data_cifar_0_split_2
I0127 01:22:08.228514  7219 net.cpp:368] 3_conv1 -> 3_conv1
I0127 01:22:08.228521  7219 net.cpp:120] Setting up 3_conv1
I0127 01:22:08.228610  7219 net.cpp:127] Top shape: 100 32 32 32 (3276800)
I0127 01:22:08.228618  7219 layer_factory.hpp:74] Creating layer 3_pool1
I0127 01:22:08.228626  7219 net.cpp:90] Creating Layer 3_pool1
I0127 01:22:08.228629  7219 net.cpp:410] 3_pool1 <- 3_conv1
I0127 01:22:08.228634  7219 net.cpp:368] 3_pool1 -> 3_pool1
I0127 01:22:08.228641  7219 net.cpp:120] Setting up 3_pool1
I0127 01:22:08.228647  7219 net.cpp:127] Top shape: 100 32 16 16 (819200)
I0127 01:22:08.228652  7219 layer_factory.hpp:74] Creating layer 3_relu1
I0127 01:22:08.228657  7219 net.cpp:90] Creating Layer 3_relu1
I0127 01:22:08.228660  7219 net.cpp:410] 3_relu1 <- 3_pool1
I0127 01:22:08.228664  7219 net.cpp:357] 3_relu1 -> 3_pool1 (in-place)
I0127 01:22:08.228670  7219 net.cpp:120] Setting up 3_relu1
I0127 01:22:08.228674  7219 net.cpp:127] Top shape: 100 32 16 16 (819200)
I0127 01:22:08.228679  7219 layer_factory.hpp:74] Creating layer 3_conv2
I0127 01:22:08.228688  7219 net.cpp:90] Creating Layer 3_conv2
I0127 01:22:08.228691  7219 net.cpp:410] 3_conv2 <- 3_pool1
I0127 01:22:08.228696  7219 net.cpp:368] 3_conv2 -> 3_conv2
I0127 01:22:08.228703  7219 net.cpp:120] Setting up 3_conv2
I0127 01:22:08.229351  7219 net.cpp:127] Top shape: 100 32 16 16 (819200)
I0127 01:22:08.229358  7219 layer_factory.hpp:74] Creating layer 3_relu2
I0127 01:22:08.229362  7219 net.cpp:90] Creating Layer 3_relu2
I0127 01:22:08.229367  7219 net.cpp:410] 3_relu2 <- 3_conv2
I0127 01:22:08.229372  7219 net.cpp:357] 3_relu2 -> 3_conv2 (in-place)
I0127 01:22:08.229378  7219 net.cpp:120] Setting up 3_relu2
I0127 01:22:08.229384  7219 net.cpp:127] Top shape: 100 32 16 16 (819200)
I0127 01:22:08.229388  7219 layer_factory.hpp:74] Creating layer 3_pool2
I0127 01:22:08.229393  7219 net.cpp:90] Creating Layer 3_pool2
I0127 01:22:08.229398  7219 net.cpp:410] 3_pool2 <- 3_conv2
I0127 01:22:08.229403  7219 net.cpp:368] 3_pool2 -> 3_pool2
I0127 01:22:08.229409  7219 net.cpp:120] Setting up 3_pool2
I0127 01:22:08.229416  7219 net.cpp:127] Top shape: 100 32 8 8 (204800)
I0127 01:22:08.229420  7219 layer_factory.hpp:74] Creating layer 3_conv3
I0127 01:22:08.229425  7219 net.cpp:90] Creating Layer 3_conv3
I0127 01:22:08.229430  7219 net.cpp:410] 3_conv3 <- 3_pool2
I0127 01:22:08.229436  7219 net.cpp:368] 3_conv3 -> 3_conv3
I0127 01:22:08.229442  7219 net.cpp:120] Setting up 3_conv3
I0127 01:22:08.230635  7219 net.cpp:127] Top shape: 100 64 8 8 (409600)
I0127 01:22:08.230641  7219 layer_factory.hpp:74] Creating layer 3_relu3
I0127 01:22:08.230648  7219 net.cpp:90] Creating Layer 3_relu3
I0127 01:22:08.230650  7219 net.cpp:410] 3_relu3 <- 3_conv3
I0127 01:22:08.230654  7219 net.cpp:357] 3_relu3 -> 3_conv3 (in-place)
I0127 01:22:08.230660  7219 net.cpp:120] Setting up 3_relu3
I0127 01:22:08.230666  7219 net.cpp:127] Top shape: 100 64 8 8 (409600)
I0127 01:22:08.230679  7219 layer_factory.hpp:74] Creating layer 3_pool3
I0127 01:22:08.230684  7219 net.cpp:90] Creating Layer 3_pool3
I0127 01:22:08.230689  7219 net.cpp:410] 3_pool3 <- 3_conv3
I0127 01:22:08.230695  7219 net.cpp:368] 3_pool3 -> 3_pool3
I0127 01:22:08.230700  7219 net.cpp:120] Setting up 3_pool3
I0127 01:22:08.230708  7219 net.cpp:127] Top shape: 100 64 4 4 (102400)
I0127 01:22:08.230712  7219 layer_factory.hpp:74] Creating layer 3_ip1
I0127 01:22:08.230718  7219 net.cpp:90] Creating Layer 3_ip1
I0127 01:22:08.230722  7219 net.cpp:410] 3_ip1 <- 3_pool3
I0127 01:22:08.230729  7219 net.cpp:368] 3_ip1 -> 3_ip1
I0127 01:22:08.230736  7219 net.cpp:120] Setting up 3_ip1
I0127 01:22:08.232245  7219 net.cpp:127] Top shape: 100 64 (6400)
I0127 01:22:08.232251  7219 layer_factory.hpp:74] Creating layer 3_ip2
I0127 01:22:08.232259  7219 net.cpp:90] Creating Layer 3_ip2
I0127 01:22:08.232264  7219 net.cpp:410] 3_ip2 <- 3_ip1
I0127 01:22:08.232270  7219 net.cpp:368] 3_ip2 -> 3_ip2
I0127 01:22:08.232276  7219 net.cpp:120] Setting up 3_ip2
I0127 01:22:08.232308  7219 net.cpp:127] Top shape: 100 10 (1000)
I0127 01:22:08.232316  7219 layer_factory.hpp:74] Creating layer 3_prob
I0127 01:22:08.232321  7219 net.cpp:90] Creating Layer 3_prob
I0127 01:22:08.232326  7219 net.cpp:410] 3_prob <- 3_ip2
I0127 01:22:08.232331  7219 net.cpp:368] 3_prob -> 3_prob
I0127 01:22:08.232336  7219 net.cpp:120] Setting up 3_prob
I0127 01:22:08.232343  7219 net.cpp:127] Top shape: 100 10 (1000)
I0127 01:22:08.232348  7219 layer_factory.hpp:74] Creating layer 3_prob_3_prob_0_split
I0127 01:22:08.232353  7219 net.cpp:90] Creating Layer 3_prob_3_prob_0_split
I0127 01:22:08.232358  7219 net.cpp:410] 3_prob_3_prob_0_split <- 3_prob
I0127 01:22:08.232362  7219 net.cpp:368] 3_prob_3_prob_0_split -> 3_prob_3_prob_0_split_0
I0127 01:22:08.232369  7219 net.cpp:368] 3_prob_3_prob_0_split -> 3_prob_3_prob_0_split_1
I0127 01:22:08.232375  7219 net.cpp:120] Setting up 3_prob_3_prob_0_split
I0127 01:22:08.232383  7219 net.cpp:127] Top shape: 100 10 (1000)
I0127 01:22:08.232388  7219 net.cpp:127] Top shape: 100 10 (1000)
I0127 01:22:08.232393  7219 layer_factory.hpp:74] Creating layer 4_conv1
I0127 01:22:08.232398  7219 net.cpp:90] Creating Layer 4_conv1
I0127 01:22:08.232401  7219 net.cpp:410] 4_conv1 <- data_cifar_0_split_3
I0127 01:22:08.232409  7219 net.cpp:368] 4_conv1 -> 4_conv1
I0127 01:22:08.232415  7219 net.cpp:120] Setting up 4_conv1
I0127 01:22:08.232504  7219 net.cpp:127] Top shape: 100 32 32 32 (3276800)
I0127 01:22:08.232512  7219 layer_factory.hpp:74] Creating layer 4_pool1
I0127 01:22:08.232518  7219 net.cpp:90] Creating Layer 4_pool1
I0127 01:22:08.232522  7219 net.cpp:410] 4_pool1 <- 4_conv1
I0127 01:22:08.232527  7219 net.cpp:368] 4_pool1 -> 4_pool1
I0127 01:22:08.232533  7219 net.cpp:120] Setting up 4_pool1
I0127 01:22:08.232542  7219 net.cpp:127] Top shape: 100 32 16 16 (819200)
I0127 01:22:08.232547  7219 layer_factory.hpp:74] Creating layer 4_relu1
I0127 01:22:08.232552  7219 net.cpp:90] Creating Layer 4_relu1
I0127 01:22:08.232555  7219 net.cpp:410] 4_relu1 <- 4_pool1
I0127 01:22:08.232560  7219 net.cpp:357] 4_relu1 -> 4_pool1 (in-place)
I0127 01:22:08.232565  7219 net.cpp:120] Setting up 4_relu1
I0127 01:22:08.232571  7219 net.cpp:127] Top shape: 100 32 16 16 (819200)
I0127 01:22:08.232576  7219 layer_factory.hpp:74] Creating layer 4_conv2
I0127 01:22:08.232581  7219 net.cpp:90] Creating Layer 4_conv2
I0127 01:22:08.232585  7219 net.cpp:410] 4_conv2 <- 4_pool1
I0127 01:22:08.232590  7219 net.cpp:368] 4_conv2 -> 4_conv2
I0127 01:22:08.232596  7219 net.cpp:120] Setting up 4_conv2
I0127 01:22:08.233243  7219 net.cpp:127] Top shape: 100 32 16 16 (819200)
I0127 01:22:08.233253  7219 layer_factory.hpp:74] Creating layer 4_relu2
I0127 01:22:08.233258  7219 net.cpp:90] Creating Layer 4_relu2
I0127 01:22:08.233263  7219 net.cpp:410] 4_relu2 <- 4_conv2
I0127 01:22:08.233269  7219 net.cpp:357] 4_relu2 -> 4_conv2 (in-place)
I0127 01:22:08.233274  7219 net.cpp:120] Setting up 4_relu2
I0127 01:22:08.233280  7219 net.cpp:127] Top shape: 100 32 16 16 (819200)
I0127 01:22:08.233294  7219 layer_factory.hpp:74] Creating layer 4_pool2
I0127 01:22:08.233299  7219 net.cpp:90] Creating Layer 4_pool2
I0127 01:22:08.233302  7219 net.cpp:410] 4_pool2 <- 4_conv2
I0127 01:22:08.233307  7219 net.cpp:368] 4_pool2 -> 4_pool2
I0127 01:22:08.233314  7219 net.cpp:120] Setting up 4_pool2
I0127 01:22:08.233322  7219 net.cpp:127] Top shape: 100 32 8 8 (204800)
I0127 01:22:08.233326  7219 layer_factory.hpp:74] Creating layer 4_conv3
I0127 01:22:08.233332  7219 net.cpp:90] Creating Layer 4_conv3
I0127 01:22:08.233336  7219 net.cpp:410] 4_conv3 <- 4_pool2
I0127 01:22:08.233341  7219 net.cpp:368] 4_conv3 -> 4_conv3
I0127 01:22:08.233347  7219 net.cpp:120] Setting up 4_conv3
I0127 01:22:08.234540  7219 net.cpp:127] Top shape: 100 64 8 8 (409600)
I0127 01:22:08.234546  7219 layer_factory.hpp:74] Creating layer 4_relu3
I0127 01:22:08.234550  7219 net.cpp:90] Creating Layer 4_relu3
I0127 01:22:08.234553  7219 net.cpp:410] 4_relu3 <- 4_conv3
I0127 01:22:08.234562  7219 net.cpp:357] 4_relu3 -> 4_conv3 (in-place)
I0127 01:22:08.234568  7219 net.cpp:120] Setting up 4_relu3
I0127 01:22:08.234575  7219 net.cpp:127] Top shape: 100 64 8 8 (409600)
I0127 01:22:08.234578  7219 layer_factory.hpp:74] Creating layer 4_pool3
I0127 01:22:08.234583  7219 net.cpp:90] Creating Layer 4_pool3
I0127 01:22:08.234587  7219 net.cpp:410] 4_pool3 <- 4_conv3
I0127 01:22:08.234592  7219 net.cpp:368] 4_pool3 -> 4_pool3
I0127 01:22:08.234598  7219 net.cpp:120] Setting up 4_pool3
I0127 01:22:08.234606  7219 net.cpp:127] Top shape: 100 64 4 4 (102400)
I0127 01:22:08.234609  7219 layer_factory.hpp:74] Creating layer 4_ip1
I0127 01:22:08.234616  7219 net.cpp:90] Creating Layer 4_ip1
I0127 01:22:08.234621  7219 net.cpp:410] 4_ip1 <- 4_pool3
I0127 01:22:08.234625  7219 net.cpp:368] 4_ip1 -> 4_ip1
I0127 01:22:08.234632  7219 net.cpp:120] Setting up 4_ip1
I0127 01:22:08.236152  7219 net.cpp:127] Top shape: 100 64 (6400)
I0127 01:22:08.236158  7219 layer_factory.hpp:74] Creating layer 4_ip2
I0127 01:22:08.236165  7219 net.cpp:90] Creating Layer 4_ip2
I0127 01:22:08.236168  7219 net.cpp:410] 4_ip2 <- 4_ip1
I0127 01:22:08.236174  7219 net.cpp:368] 4_ip2 -> 4_ip2
I0127 01:22:08.236181  7219 net.cpp:120] Setting up 4_ip2
I0127 01:22:08.236212  7219 net.cpp:127] Top shape: 100 10 (1000)
I0127 01:22:08.236220  7219 layer_factory.hpp:74] Creating layer 4_prob
I0127 01:22:08.236227  7219 net.cpp:90] Creating Layer 4_prob
I0127 01:22:08.236232  7219 net.cpp:410] 4_prob <- 4_ip2
I0127 01:22:08.236237  7219 net.cpp:368] 4_prob -> 4_prob
I0127 01:22:08.236243  7219 net.cpp:120] Setting up 4_prob
I0127 01:22:08.236249  7219 net.cpp:127] Top shape: 100 10 (1000)
I0127 01:22:08.236253  7219 layer_factory.hpp:74] Creating layer 4_prob_4_prob_0_split
I0127 01:22:08.236258  7219 net.cpp:90] Creating Layer 4_prob_4_prob_0_split
I0127 01:22:08.236261  7219 net.cpp:410] 4_prob_4_prob_0_split <- 4_prob
I0127 01:22:08.236266  7219 net.cpp:368] 4_prob_4_prob_0_split -> 4_prob_4_prob_0_split_0
I0127 01:22:08.236274  7219 net.cpp:368] 4_prob_4_prob_0_split -> 4_prob_4_prob_0_split_1
I0127 01:22:08.236279  7219 net.cpp:120] Setting up 4_prob_4_prob_0_split
I0127 01:22:08.236285  7219 net.cpp:127] Top shape: 100 10 (1000)
I0127 01:22:08.236291  7219 net.cpp:127] Top shape: 100 10 (1000)
I0127 01:22:08.236295  7219 layer_factory.hpp:74] Creating layer 1_accuracy
I0127 01:22:08.236300  7219 net.cpp:90] Creating Layer 1_accuracy
I0127 01:22:08.236305  7219 net.cpp:410] 1_accuracy <- 1_prob_1_prob_0_split_0
I0127 01:22:08.236310  7219 net.cpp:410] 1_accuracy <- label_cifar_1_split_0
I0127 01:22:08.236316  7219 net.cpp:368] 1_accuracy -> 1_accuracy
I0127 01:22:08.236323  7219 net.cpp:120] Setting up 1_accuracy
…
