…
I0126 21:28:30.191181 24822 net.cpp:287] The NetState phase (0) differed from the phase (1) specified by a rule in layer accuracy
I0126 21:28:30.191478 24822 net.cpp:42] Initializing net from parameters: 
name: "CIFAR10_quick"
state {
  phase: TRAIN
}
layer {
  name: "cifar"
  type: "Data"
  top: "data"
  top: "label"
  include {
    phase: TRAIN
  }
  transform_param {
    mean_file: "/home/mike/ml_lab/mod/MCL_Caffe/examples/cifar10/mean.binaryproto"
  }
  data_param {
    source: "/home/mike/ml_lab/mod/MCL_Caffe/examples/cifar10/cifar10_train_lmdb"
    batch_size: 350
    backend: LMDB
  }
}
layer {
  name: "1_conv1"
  type: "Convolution"
  bottom: "data"
  top: "1_conv1"
  param {
    lr_mult: 1
  }
  param {
    lr_mult: 2
  }
  convolution_param {
    num_output: 32
    pad: 2
    kernel_size: 5
    stride: 1
    weight_filler {
      type: "gaussian"
      std: 0.0001
    }
    bias_filler {
      type: "constant"
    }
  }
}
layer {
  name: "1_pool1"
  type: "Pooling"
  bottom: "1_conv1"
  top: "1_pool1"
  pooling_param {
    pool: MAX
    kernel_size: 3
    stride: 2
  }
}
layer {
  name: "1_relu1"
  type: "ReLU"
  bottom: "1_pool1"
  top: "1_pool1"
}
layer {
  name: "1_conv2"
  type: "Convolution"
  bottom: "1_pool1"
  top: "1_conv2"
  param {
    lr_mult: 1
  }
  param {
    lr_mult: 2
  }
  convolution_param {
    num_output: 32
    pad: 2
    kernel_size: 5
    stride: 1
    weight_filler {
      type: "gaussian"
      std: 0.01
    }
    bias_filler {
      type: "constant"
    }
  }
}
layer {
  name: "1_relu2"
  type: "ReLU"
  bottom: "1_conv2"
  top: "1_conv2"
}
layer {
  name: "1_pool2"
  type: "Pooling"
  bottom: "1_conv2"
  top: "1_pool2"
  pooling_param {
    pool: AVE
    kernel_size: 3
    stride: 2
  }
}
layer {
  name: "1_conv3"
  type: "Convolution"
  bottom: "1_pool2"
  top: "1_conv3"
  param {
    lr_mult: 1
  }
  param {
    lr_mult: 2
  }
  convolution_param {
    num_output: 64
    pad: 2
    kernel_size: 5
    stride: 1
    weight_filler {
      type: "gaussian"
      std: 0.01
    }
    bias_filler {
      type: "constant"
    }
  }
}
layer {
  name: "1_relu3"
  type: "ReLU"
  bottom: "1_conv3"
  top: "1_conv3"
}
layer {
  name: "1_pool3"
  type: "Pooling"
  bottom: "1_conv3"
  top: "1_pool3"
  pooling_param {
    pool: AVE
    kernel_size: 3
    stride: 2
  }
}
layer {
  name: "1_ip1"
  type: "InnerProduct"
  bottom: "1_pool3"
  top: "1_ip1"
  param {
    lr_mult: 1
  }
  param {
    lr_mult: 2
  }
  inner_product_param {
    num_output: 64
    weight_filler {
      type: "gaussian"
      std: 0.1
    }
    bias_filler {
      type: "constant"
    }
  }
}
layer {
  name: "1_ip2"
  type: "InnerProduct"
  bottom: "1_ip1"
  top: "1_ip2"
  param {
    lr_mult: 1
  }
  param {
    lr_mult: 2
  }
  inner_product_param {
    num_output: 10
    weight_filler {
      type: "gaussian"
      std: 0.1
    }
    bias_filler {
      type: "constant"
    }
  }
}
layer {
  name: "1_prob"
  type: "Softmax"
  bottom: "1_ip2"
  top: "1_prob"
}
layer {
  name: "2_conv1"
  type: "Convolution"
  bottom: "data"
  top: "2_conv1"
  param {
    lr_mult: 1
  }
  param {
    lr_mult: 2
  }
  convolution_param {
    num_output: 32
    pad: 2
    kernel_size: 5
    stride: 1
    weight_filler {
      type: "gaussian"
      std: 0.0001
    }
    bias_filler {
      type: "constant"
    }
  }
}
layer {
  name: "2_pool1"
  type: "Pooling"
  bottom: "2_conv1"
  top: "2_pool1"
  pooling_param {
    pool: MAX
    kernel_size: 3
    stride: 2
  }
}
layer {
  name: "2_relu1"
  type: "ReLU"
  bottom: "2_pool1"
  top: "2_pool1"
}
layer {
  name: "2_conv2"
  type: "Convolution"
  bottom: "2_pool1"
  top: "2_conv2"
  param {
    lr_mult: 1
  }
  param {
    lr_mult: 2
  }
  convolution_param {
    num_output: 32
    pad: 2
    kernel_size: 5
    stride: 1
    weight_filler {
      type: "gaussian"
      std: 0.01
    }
    bias_filler {
      type: "constant"
    }
  }
}
layer {
  name: "2_relu2"
  type: "ReLU"
  bottom: "2_conv2"
  top: "2_conv2"
}
layer {
  name: "2_pool2"
  type: "Pooling"
  bottom: "2_conv2"
  top: "2_pool2"
  pooling_param {
    pool: AVE
    kernel_size: 3
    stride: 2
  }
}
layer {
  name: "2_conv3"
  type: "Convolution"
  bottom: "2_pool2"
  top: "2_conv3"
  param {
    lr_mult: 1
  }
  param {
    lr_mult: 2
  }
  convolution_param {
    num_output: 64
    pad: 2
    kernel_size: 5
    stride: 1
    weight_filler {
      type: "gaussian"
      std: 0.01
    }
    bias_filler {
      type: "constant"
    }
  }
}
layer {
  name: "2_relu3"
  type: "ReLU"
  bottom: "2_conv3"
  top: "2_conv3"
}
layer {
  name: "2_pool3"
  type: "Pooling"
  bottom: "2_conv3"
  top: "2_pool3"
  pooling_param {
    pool: AVE
    kernel_size: 3
    stride: 2
  }
}
layer {
  name: "2_ip1"
  type: "InnerProduct"
  bottom: "2_pool3"
  top: "2_ip1"
  param {
    lr_mult: 1
  }
  param {
    lr_mult: 2
  }
  inner_product_param {
    num_output: 64
    weight_filler {
      type: "gaussian"
      std: 0.1
    }
    bias_filler {
      type: "constant"
    }
  }
}
layer {
  name: "2_ip2"
  type: "InnerProduct"
  bottom: "2_ip1"
  top: "2_ip2"
  param {
    lr_mult: 1
  }
  param {
    lr_mult: 2
  }
  inner_product_param {
    num_output: 10
    weight_filler {
      type: "gaussian"
      std: 0.1
    }
    bias_filler {
      type: "constant"
    }
  }
}
layer {
  name: "2_prob"
  type: "Softmax"
  bottom: "2_ip2"
  top: "2_prob"
}
layer {
  name: "3_conv1"
  type: "Convolution"
  bottom: "data"
  top: "3_conv1"
  param {
    lr_mult: 1
  }
  param {
    lr_mult: 2
  }
  convolution_param {
    num_output: 32
    pad: 2
    kernel_size: 5
    stride: 1
    weight_filler {
      type: "gaussian"
      std: 0.0001
    }
    bias_filler {
      type: "constant"
    }
  }
}
layer {
  name: "3_pool1"
  type: "Pooling"
  bottom: "3_conv1"
  top: "3_pool1"
  pooling_param {
    pool: MAX
    kernel_size: 3
    stride: 2
  }
}
layer {
  name: "3_relu1"
  type: "ReLU"
  bottom: "3_pool1"
  top: "3_pool1"
}
layer {
  name: "3_conv2"
  type: "Convolution"
  bottom: "3_pool1"
  top: "3_conv2"
  param {
    lr_mult: 1
  }
  param {
    lr_mult: 2
  }
  convolution_param {
    num_output: 32
    pad: 2
    kernel_size: 5
    stride: 1
    weight_filler {
      type: "gaussian"
      std: 0.01
    }
    bias_filler {
      type: "constant"
    }
  }
}
layer {
  name: "3_relu2"
  type: "ReLU"
  bottom: "3_conv2"
  top: "3_conv2"
}
layer {
  name: "3_pool2"
  type: "Pooling"
  bottom: "3_conv2"
  top: "3_pool2"
  pooling_param {
    pool: AVE
    kernel_size: 3
    stride: 2
  }
}
layer {
  name: "3_conv3"
  type: "Convolution"
  bottom: "3_pool2"
  top: "3_conv3"
  param {
    lr_mult: 1
  }
  param {
    lr_mult: 2
  }
  convolution_param {
    num_output: 64
    pad: 2
    kernel_size: 5
    stride: 1
    weight_filler {
      type: "gaussian"
      std: 0.01
    }
    bias_filler {
      type: "constant"
    }
  }
}
layer {
  name: "3_relu3"
  type: "ReLU"
  bottom: "3_conv3"
  top: "3_conv3"
}
layer {
  name: "3_pool3"
  type: "Pooling"
  bottom: "3_conv3"
  top: "3_pool3"
  pooling_param {
    pool: AVE
    kernel_size: 3
    stride: 2
  }
}
layer {
  name: "3_ip1"
  type: "InnerProduct"
  bottom: "3_pool3"
  top: "3_ip1"
  param {
    lr_mult: 1
  }
  param {
    lr_mult: 2
  }
  inner_product_param {
    num_output: 64
    weight_filler {
      type: "gaussian"
      std: 0.1
    }
    bias_filler {
      type: "constant"
    }
  }
}
layer {
  name: "3_ip2"
  type: "InnerProduct"
  bottom: "3_ip1"
  top: "3_ip2"
  param {
    lr_mult: 1
  }
  param {
    lr_mult: 2
  }
  inner_product_param {
    num_output: 10
    weight_filler {
      type: "gaussian"
      std: 0.1
    }
    bias_filler {
      type: "constant"
    }
  }
}
layer {
  name: "3_prob"
  type: "Softmax"
  bottom: "3_ip2"
  top: "3_prob"
}
layer {
  name: "4_conv1"
  type: "Convolution"
  bottom: "data"
  top: "4_conv1"
  param {
    lr_mult: 1
  }
  param {
    lr_mult: 2
  }
  convolution_param {
    num_output: 32
    pad: 2
    kernel_size: 5
    stride: 1
    weight_filler {
      type: "gaussian"
      std: 0.0001
    }
    bias_filler {
      type: "constant"
    }
  }
}
layer {
  name: "4_pool1"
  type: "Pooling"
  bottom: "4_conv1"
  top: "4_pool1"
  pooling_param {
    pool: MAX
    kernel_size: 3
    stride: 2
  }
}
layer {
  name: "4_relu1"
  type: "ReLU"
  bottom: "4_pool1"
  top: "4_pool1"
}
layer {
  name: "4_conv2"
  type: "Convolution"
  bottom: "4_pool1"
  top: "4_conv2"
  param {
    lr_mult: 1
  }
  param {
    lr_mult: 2
  }
  convolution_param {
    num_output: 32
    pad: 2
    kernel_size: 5
    stride: 1
    weight_filler {
      type: "gaussian"
      std: 0.01
    }
    bias_filler {
      type: "constant"
    }
  }
}
layer {
  name: "4_relu2"
  type: "ReLU"
  bottom: "4_conv2"
  top: "4_conv2"
}
layer {
  name: "4_pool2"
  type: "Pooling"
  bottom: "4_conv2"
  top: "4_pool2"
  pooling_param {
    pool: AVE
    kernel_size: 3
    stride: 2
  }
}
layer {
  name: "4_conv3"
  type: "Convolution"
  bottom: "4_pool2"
  top: "4_conv3"
  param {
    lr_mult: 1
  }
  param {
    lr_mult: 2
  }
  convolution_param {
    num_output: 64
    pad: 2
    kernel_size: 5
    stride: 1
    weight_filler {
      type: "gaussian"
      std: 0.01
    }
    bias_filler {
      type: "constant"
    }
  }
}
layer {
  name: "4_relu3"
  type: "ReLU"
  bottom: "4_conv3"
  top: "4_conv3"
}
layer {
  name: "4_pool3"
  type: "Pooling"
  bottom: "4_conv3"
  top: "4_pool3"
  pooling_param {
    pool: AVE
    kernel_size: 3
    stride: 2
  }
}
layer {
  name: "4_ip1"
  type: "InnerProduct"
  bottom: "4_pool3"
  top: "4_ip1"
  param {
    lr_mult: 1
  }
  param {
    lr_mult: 2
  }
  inner_product_param {
    num_output: 64
    weight_filler {
      type: "gaussian"
      std: 0.1
    }
    bias_filler {
      type: "constant"
    }
  }
}
layer {
  name: "4_ip2"
  type: "InnerProduct"
  bottom: "4_ip1"
  top: "4_ip2"
  param {
    lr_mult: 1
  }
  param {
    lr_mult: 2
  }
  inner_product_param {
    num_output: 10
    weight_filler {
      type: "gaussian"
      std: 0.1
    }
    bias_filler {
      type: "constant"
    }
  }
}
layer {
  name: "4_prob"
  type: "Softmax"
  bottom: "4_ip2"
  top: "4_prob"
}
layer {
  name: "loss"
  type: "ODMultinomialLogisticLoss"
  bottom: "1_prob"
  bottom: "2_prob"
  bottom: "3_prob"
  bottom: "4_prob"
  bottom: "label"
  top: "multiple-output loss"
  top: "batch-instance-counts"
  top: "train-instance-counts"
  loss_weight: 1
  loss_weight: 0
  loss_weight: 0
  include {
    phase: TRAIN
  }
}
I0126 21:28:30.191709 24822 layer_factory.hpp:74] Creating layer cifar
I0126 21:28:30.191726 24822 net.cpp:90] Creating Layer cifar
I0126 21:28:30.191735 24822 net.cpp:368] cifar -> data
I0126 21:28:30.191756 24822 net.cpp:368] cifar -> label
I0126 21:28:30.191766 24822 net.cpp:120] Setting up cifar
I0126 21:28:30.191826 24822 db.cpp:34] Opened lmdb /home/mike/ml_lab/mod/MCL_Caffe/examples/cifar10/cifar10_train_lmdb
I0126 21:28:30.191870 24822 data_layer.cpp:67] output data size: 350,3,32,32
I0126 21:28:30.191879 24822 data_transformer.cpp:22] Loading mean file from: /home/mike/ml_lab/mod/MCL_Caffe/examples/cifar10/mean.binaryproto
I0126 21:28:30.192695 24822 net.cpp:127] Top shape: 350 3 32 32 (1075200)
I0126 21:28:30.192703 24822 net.cpp:127] Top shape: 350 (350)
I0126 21:28:30.192708 24822 layer_factory.hpp:74] Creating layer data_cifar_0_split
I0126 21:28:30.192716 24822 net.cpp:90] Creating Layer data_cifar_0_split
I0126 21:28:30.192721 24822 net.cpp:410] data_cifar_0_split <- data
I0126 21:28:30.192731 24822 net.cpp:368] data_cifar_0_split -> data_cifar_0_split_0
I0126 21:28:30.192739 24822 net.cpp:368] data_cifar_0_split -> data_cifar_0_split_1
I0126 21:28:30.192745 24822 net.cpp:368] data_cifar_0_split -> data_cifar_0_split_2
I0126 21:28:30.192752 24822 net.cpp:368] data_cifar_0_split -> data_cifar_0_split_3
I0126 21:28:30.192757 24822 net.cpp:120] Setting up data_cifar_0_split
I0126 21:28:30.192764 24822 net.cpp:127] Top shape: 350 3 32 32 (1075200)
I0126 21:28:30.192770 24822 net.cpp:127] Top shape: 350 3 32 32 (1075200)
I0126 21:28:30.192773 24822 net.cpp:127] Top shape: 350 3 32 32 (1075200)
I0126 21:28:30.192777 24822 net.cpp:127] Top shape: 350 3 32 32 (1075200)
I0126 21:28:30.192781 24822 layer_factory.hpp:74] Creating layer 1_conv1
I0126 21:28:30.192790 24822 net.cpp:90] Creating Layer 1_conv1
I0126 21:28:30.192793 24822 net.cpp:410] 1_conv1 <- data_cifar_0_split_0
I0126 21:28:30.192800 24822 net.cpp:368] 1_conv1 -> 1_conv1
I0126 21:28:30.192806 24822 net.cpp:120] Setting up 1_conv1
I0126 21:28:30.193397 24822 net.cpp:127] Top shape: 350 32 32 32 (11468800)
I0126 21:28:30.193409 24822 layer_factory.hpp:74] Creating layer 1_pool1
I0126 21:28:30.193415 24822 net.cpp:90] Creating Layer 1_pool1
I0126 21:28:30.193418 24822 net.cpp:410] 1_pool1 <- 1_conv1
I0126 21:28:30.193425 24822 net.cpp:368] 1_pool1 -> 1_pool1
I0126 21:28:30.193433 24822 net.cpp:120] Setting up 1_pool1
I0126 21:28:30.193446 24822 net.cpp:127] Top shape: 350 32 16 16 (2867200)
I0126 21:28:30.193449 24822 layer_factory.hpp:74] Creating layer 1_relu1
I0126 21:28:30.193454 24822 net.cpp:90] Creating Layer 1_relu1
I0126 21:28:30.193457 24822 net.cpp:410] 1_relu1 <- 1_pool1
I0126 21:28:30.193462 24822 net.cpp:357] 1_relu1 -> 1_pool1 (in-place)
I0126 21:28:30.193466 24822 net.cpp:120] Setting up 1_relu1
I0126 21:28:30.193472 24822 net.cpp:127] Top shape: 350 32 16 16 (2867200)
I0126 21:28:30.193475 24822 layer_factory.hpp:74] Creating layer 1_conv2
I0126 21:28:30.193480 24822 net.cpp:90] Creating Layer 1_conv2
I0126 21:28:30.193483 24822 net.cpp:410] 1_conv2 <- 1_pool1
I0126 21:28:30.193488 24822 net.cpp:368] 1_conv2 -> 1_conv2
I0126 21:28:30.193495 24822 net.cpp:120] Setting up 1_conv2
I0126 21:28:30.194289 24822 net.cpp:127] Top shape: 350 32 16 16 (2867200)
I0126 21:28:30.194298 24822 layer_factory.hpp:74] Creating layer 1_relu2
I0126 21:28:30.194301 24822 net.cpp:90] Creating Layer 1_relu2
I0126 21:28:30.194304 24822 net.cpp:410] 1_relu2 <- 1_conv2
I0126 21:28:30.194308 24822 net.cpp:357] 1_relu2 -> 1_conv2 (in-place)
I0126 21:28:30.194314 24822 net.cpp:120] Setting up 1_relu2
I0126 21:28:30.194317 24822 net.cpp:127] Top shape: 350 32 16 16 (2867200)
I0126 21:28:30.194320 24822 layer_factory.hpp:74] Creating layer 1_pool2
I0126 21:28:30.194325 24822 net.cpp:90] Creating Layer 1_pool2
I0126 21:28:30.194329 24822 net.cpp:410] 1_pool2 <- 1_conv2
I0126 21:28:30.194332 24822 net.cpp:368] 1_pool2 -> 1_pool2
I0126 21:28:30.194337 24822 net.cpp:120] Setting up 1_pool2
I0126 21:28:30.194344 24822 net.cpp:127] Top shape: 350 32 8 8 (716800)
I0126 21:28:30.194346 24822 layer_factory.hpp:74] Creating layer 1_conv3
I0126 21:28:30.194353 24822 net.cpp:90] Creating Layer 1_conv3
I0126 21:28:30.194356 24822 net.cpp:410] 1_conv3 <- 1_pool2
I0126 21:28:30.194361 24822 net.cpp:368] 1_conv3 -> 1_conv3
I0126 21:28:30.194366 24822 net.cpp:120] Setting up 1_conv3
I0126 21:28:30.195960 24822 net.cpp:127] Top shape: 350 64 8 8 (1433600)
I0126 21:28:30.195967 24822 layer_factory.hpp:74] Creating layer 1_relu3
I0126 21:28:30.195971 24822 net.cpp:90] Creating Layer 1_relu3
I0126 21:28:30.195976 24822 net.cpp:410] 1_relu3 <- 1_conv3
I0126 21:28:30.195981 24822 net.cpp:357] 1_relu3 -> 1_conv3 (in-place)
I0126 21:28:30.195984 24822 net.cpp:120] Setting up 1_relu3
I0126 21:28:30.195988 24822 net.cpp:127] Top shape: 350 64 8 8 (1433600)
I0126 21:28:30.195991 24822 layer_factory.hpp:74] Creating layer 1_pool3
I0126 21:28:30.195996 24822 net.cpp:90] Creating Layer 1_pool3
I0126 21:28:30.195998 24822 net.cpp:410] 1_pool3 <- 1_conv3
I0126 21:28:30.196003 24822 net.cpp:368] 1_pool3 -> 1_pool3
I0126 21:28:30.196008 24822 net.cpp:120] Setting up 1_pool3
I0126 21:28:30.196013 24822 net.cpp:127] Top shape: 350 64 4 4 (358400)
I0126 21:28:30.196017 24822 layer_factory.hpp:74] Creating layer 1_ip1
I0126 21:28:30.196022 24822 net.cpp:90] Creating Layer 1_ip1
I0126 21:28:30.196025 24822 net.cpp:410] 1_ip1 <- 1_pool3
I0126 21:28:30.196032 24822 net.cpp:368] 1_ip1 -> 1_ip1
I0126 21:28:30.196038 24822 net.cpp:120] Setting up 1_ip1
I0126 21:28:30.198065 24822 net.cpp:127] Top shape: 350 64 (22400)
I0126 21:28:30.198071 24822 layer_factory.hpp:74] Creating layer 1_ip2
I0126 21:28:30.198077 24822 net.cpp:90] Creating Layer 1_ip2
I0126 21:28:30.198081 24822 net.cpp:410] 1_ip2 <- 1_ip1
I0126 21:28:30.198086 24822 net.cpp:368] 1_ip2 -> 1_ip2
I0126 21:28:30.198091 24822 net.cpp:120] Setting up 1_ip2
I0126 21:28:30.198122 24822 net.cpp:127] Top shape: 350 10 (3500)
I0126 21:28:30.198128 24822 layer_factory.hpp:74] Creating layer 1_prob
I0126 21:28:30.198133 24822 net.cpp:90] Creating Layer 1_prob
I0126 21:28:30.198137 24822 net.cpp:410] 1_prob <- 1_ip2
I0126 21:28:30.198142 24822 net.cpp:368] 1_prob -> 1_prob
I0126 21:28:30.198146 24822 net.cpp:120] Setting up 1_prob
I0126 21:28:30.198154 24822 net.cpp:127] Top shape: 350 10 (3500)
I0126 21:28:30.198158 24822 layer_factory.hpp:74] Creating layer 2_conv1
I0126 21:28:30.198163 24822 net.cpp:90] Creating Layer 2_conv1
I0126 21:28:30.198166 24822 net.cpp:410] 2_conv1 <- data_cifar_0_split_1
I0126 21:28:30.198171 24822 net.cpp:368] 2_conv1 -> 2_conv1
I0126 21:28:30.198176 24822 net.cpp:120] Setting up 2_conv1
I0126 21:28:30.198262 24822 net.cpp:127] Top shape: 350 32 32 32 (11468800)
I0126 21:28:30.198268 24822 layer_factory.hpp:74] Creating layer 2_pool1
I0126 21:28:30.198272 24822 net.cpp:90] Creating Layer 2_pool1
I0126 21:28:30.198276 24822 net.cpp:410] 2_pool1 <- 2_conv1
I0126 21:28:30.198279 24822 net.cpp:368] 2_pool1 -> 2_pool1
I0126 21:28:30.198285 24822 net.cpp:120] Setting up 2_pool1
I0126 21:28:30.198292 24822 net.cpp:127] Top shape: 350 32 16 16 (2867200)
I0126 21:28:30.198295 24822 layer_factory.hpp:74] Creating layer 2_relu1
I0126 21:28:30.198302 24822 net.cpp:90] Creating Layer 2_relu1
I0126 21:28:30.198304 24822 net.cpp:410] 2_relu1 <- 2_pool1
I0126 21:28:30.198308 24822 net.cpp:357] 2_relu1 -> 2_pool1 (in-place)
I0126 21:28:30.198312 24822 net.cpp:120] Setting up 2_relu1
I0126 21:28:30.198317 24822 net.cpp:127] Top shape: 350 32 16 16 (2867200)
I0126 21:28:30.198319 24822 layer_factory.hpp:74] Creating layer 2_conv2
I0126 21:28:30.198324 24822 net.cpp:90] Creating Layer 2_conv2
I0126 21:28:30.198328 24822 net.cpp:410] 2_conv2 <- 2_pool1
I0126 21:28:30.198333 24822 net.cpp:368] 2_conv2 -> 2_conv2
I0126 21:28:30.198338 24822 net.cpp:120] Setting up 2_conv2
I0126 21:28:30.199133 24822 net.cpp:127] Top shape: 350 32 16 16 (2867200)
I0126 21:28:30.199139 24822 layer_factory.hpp:74] Creating layer 2_relu2
I0126 21:28:30.199143 24822 net.cpp:90] Creating Layer 2_relu2
I0126 21:28:30.199146 24822 net.cpp:410] 2_relu2 <- 2_conv2
I0126 21:28:30.199151 24822 net.cpp:357] 2_relu2 -> 2_conv2 (in-place)
I0126 21:28:30.199156 24822 net.cpp:120] Setting up 2_relu2
I0126 21:28:30.199159 24822 net.cpp:127] Top shape: 350 32 16 16 (2867200)
I0126 21:28:30.199162 24822 layer_factory.hpp:74] Creating layer 2_pool2
I0126 21:28:30.199167 24822 net.cpp:90] Creating Layer 2_pool2
I0126 21:28:30.199177 24822 net.cpp:410] 2_pool2 <- 2_conv2
I0126 21:28:30.199182 24822 net.cpp:368] 2_pool2 -> 2_pool2
I0126 21:28:30.199187 24822 net.cpp:120] Setting up 2_pool2
I0126 21:28:30.199193 24822 net.cpp:127] Top shape: 350 32 8 8 (716800)
I0126 21:28:30.199196 24822 layer_factory.hpp:74] Creating layer 2_conv3
I0126 21:28:30.199201 24822 net.cpp:90] Creating Layer 2_conv3
I0126 21:28:30.199204 24822 net.cpp:410] 2_conv3 <- 2_pool2
I0126 21:28:30.199209 24822 net.cpp:368] 2_conv3 -> 2_conv3
I0126 21:28:30.199214 24822 net.cpp:120] Setting up 2_conv3
I0126 21:28:30.200798 24822 net.cpp:127] Top shape: 350 64 8 8 (1433600)
I0126 21:28:30.200805 24822 layer_factory.hpp:74] Creating layer 2_relu3
I0126 21:28:30.200809 24822 net.cpp:90] Creating Layer 2_relu3
I0126 21:28:30.200812 24822 net.cpp:410] 2_relu3 <- 2_conv3
I0126 21:28:30.200816 24822 net.cpp:357] 2_relu3 -> 2_conv3 (in-place)
I0126 21:28:30.200820 24822 net.cpp:120] Setting up 2_relu3
I0126 21:28:30.200825 24822 net.cpp:127] Top shape: 350 64 8 8 (1433600)
I0126 21:28:30.200829 24822 layer_factory.hpp:74] Creating layer 2_pool3
I0126 21:28:30.200834 24822 net.cpp:90] Creating Layer 2_pool3
I0126 21:28:30.200836 24822 net.cpp:410] 2_pool3 <- 2_conv3
I0126 21:28:30.200840 24822 net.cpp:368] 2_pool3 -> 2_pool3
I0126 21:28:30.200845 24822 net.cpp:120] Setting up 2_pool3
I0126 21:28:30.200850 24822 net.cpp:127] Top shape: 350 64 4 4 (358400)
I0126 21:28:30.200853 24822 layer_factory.hpp:74] Creating layer 2_ip1
I0126 21:28:30.200858 24822 net.cpp:90] Creating Layer 2_ip1
I0126 21:28:30.200861 24822 net.cpp:410] 2_ip1 <- 2_pool3
I0126 21:28:30.200866 24822 net.cpp:368] 2_ip1 -> 2_ip1
I0126 21:28:30.200872 24822 net.cpp:120] Setting up 2_ip1
I0126 21:28:30.202901 24822 net.cpp:127] Top shape: 350 64 (22400)
I0126 21:28:30.202929 24822 layer_factory.hpp:74] Creating layer 2_ip2
I0126 21:28:30.202945 24822 net.cpp:90] Creating Layer 2_ip2
I0126 21:28:30.202958 24822 net.cpp:410] 2_ip2 <- 2_ip1
I0126 21:28:30.202973 24822 net.cpp:368] 2_ip2 -> 2_ip2
I0126 21:28:30.202988 24822 net.cpp:120] Setting up 2_ip2
I0126 21:28:30.203027 24822 net.cpp:127] Top shape: 350 10 (3500)
I0126 21:28:30.203043 24822 layer_factory.hpp:74] Creating layer 2_prob
I0126 21:28:30.203058 24822 net.cpp:90] Creating Layer 2_prob
I0126 21:28:30.203068 24822 net.cpp:410] 2_prob <- 2_ip2
I0126 21:28:30.203083 24822 net.cpp:368] 2_prob -> 2_prob
I0126 21:28:30.203095 24822 net.cpp:120] Setting up 2_prob
I0126 21:28:30.203110 24822 net.cpp:127] Top shape: 350 10 (3500)
I0126 21:28:30.203122 24822 layer_factory.hpp:74] Creating layer 3_conv1
I0126 21:28:30.203137 24822 net.cpp:90] Creating Layer 3_conv1
I0126 21:28:30.203148 24822 net.cpp:410] 3_conv1 <- data_cifar_0_split_2
I0126 21:28:30.203162 24822 net.cpp:368] 3_conv1 -> 3_conv1
I0126 21:28:30.203176 24822 net.cpp:120] Setting up 3_conv1
I0126 21:28:30.203271 24822 net.cpp:127] Top shape: 350 32 32 32 (11468800)
I0126 21:28:30.203287 24822 layer_factory.hpp:74] Creating layer 3_pool1
I0126 21:28:30.203301 24822 net.cpp:90] Creating Layer 3_pool1
I0126 21:28:30.203312 24822 net.cpp:410] 3_pool1 <- 3_conv1
I0126 21:28:30.203325 24822 net.cpp:368] 3_pool1 -> 3_pool1
I0126 21:28:30.203339 24822 net.cpp:120] Setting up 3_pool1
I0126 21:28:30.203354 24822 net.cpp:127] Top shape: 350 32 16 16 (2867200)
I0126 21:28:30.203366 24822 layer_factory.hpp:74] Creating layer 3_relu1
I0126 21:28:30.203378 24822 net.cpp:90] Creating Layer 3_relu1
I0126 21:28:30.203390 24822 net.cpp:410] 3_relu1 <- 3_pool1
I0126 21:28:30.203403 24822 net.cpp:357] 3_relu1 -> 3_pool1 (in-place)
I0126 21:28:30.203416 24822 net.cpp:120] Setting up 3_relu1
I0126 21:28:30.203429 24822 net.cpp:127] Top shape: 350 32 16 16 (2867200)
I0126 21:28:30.203440 24822 layer_factory.hpp:74] Creating layer 3_conv2
I0126 21:28:30.203454 24822 net.cpp:90] Creating Layer 3_conv2
I0126 21:28:30.203465 24822 net.cpp:410] 3_conv2 <- 3_pool1
I0126 21:28:30.203479 24822 net.cpp:368] 3_conv2 -> 3_conv2
I0126 21:28:30.203492 24822 net.cpp:120] Setting up 3_conv2
I0126 21:28:30.204301 24822 net.cpp:127] Top shape: 350 32 16 16 (2867200)
I0126 21:28:30.204327 24822 layer_factory.hpp:74] Creating layer 3_relu2
I0126 21:28:30.204340 24822 net.cpp:90] Creating Layer 3_relu2
I0126 21:28:30.204352 24822 net.cpp:410] 3_relu2 <- 3_conv2
I0126 21:28:30.204365 24822 net.cpp:357] 3_relu2 -> 3_conv2 (in-place)
I0126 21:28:30.204378 24822 net.cpp:120] Setting up 3_relu2
I0126 21:28:30.204392 24822 net.cpp:127] Top shape: 350 32 16 16 (2867200)
I0126 21:28:30.204404 24822 layer_factory.hpp:74] Creating layer 3_pool2
I0126 21:28:30.204416 24822 net.cpp:90] Creating Layer 3_pool2
I0126 21:28:30.204428 24822 net.cpp:410] 3_pool2 <- 3_conv2
I0126 21:28:30.204440 24822 net.cpp:368] 3_pool2 -> 3_pool2
I0126 21:28:30.204454 24822 net.cpp:120] Setting up 3_pool2
I0126 21:28:30.204468 24822 net.cpp:127] Top shape: 350 32 8 8 (716800)
I0126 21:28:30.204480 24822 layer_factory.hpp:74] Creating layer 3_conv3
I0126 21:28:30.204497 24822 net.cpp:90] Creating Layer 3_conv3
I0126 21:28:30.204509 24822 net.cpp:410] 3_conv3 <- 3_pool2
I0126 21:28:30.204524 24822 net.cpp:368] 3_conv3 -> 3_conv3
I0126 21:28:30.204537 24822 net.cpp:120] Setting up 3_conv3
I0126 21:28:30.206133 24822 net.cpp:127] Top shape: 350 64 8 8 (1433600)
I0126 21:28:30.206154 24822 layer_factory.hpp:74] Creating layer 3_relu3
I0126 21:28:30.206169 24822 net.cpp:90] Creating Layer 3_relu3
I0126 21:28:30.206182 24822 net.cpp:410] 3_relu3 <- 3_conv3
I0126 21:28:30.206193 24822 net.cpp:357] 3_relu3 -> 3_conv3 (in-place)
I0126 21:28:30.206207 24822 net.cpp:120] Setting up 3_relu3
I0126 21:28:30.206219 24822 net.cpp:127] Top shape: 350 64 8 8 (1433600)
I0126 21:28:30.206231 24822 layer_factory.hpp:74] Creating layer 3_pool3
I0126 21:28:30.206245 24822 net.cpp:90] Creating Layer 3_pool3
I0126 21:28:30.206256 24822 net.cpp:410] 3_pool3 <- 3_conv3
I0126 21:28:30.206269 24822 net.cpp:368] 3_pool3 -> 3_pool3
I0126 21:28:30.206282 24822 net.cpp:120] Setting up 3_pool3
I0126 21:28:30.206296 24822 net.cpp:127] Top shape: 350 64 4 4 (358400)
I0126 21:28:30.206308 24822 layer_factory.hpp:74] Creating layer 3_ip1
I0126 21:28:30.206322 24822 net.cpp:90] Creating Layer 3_ip1
I0126 21:28:30.206333 24822 net.cpp:410] 3_ip1 <- 3_pool3
I0126 21:28:30.206347 24822 net.cpp:368] 3_ip1 -> 3_ip1
I0126 21:28:30.206362 24822 net.cpp:120] Setting up 3_ip1
I0126 21:28:30.208390 24822 net.cpp:127] Top shape: 350 64 (22400)
I0126 21:28:30.208410 24822 layer_factory.hpp:74] Creating layer 3_ip2
I0126 21:28:30.208423 24822 net.cpp:90] Creating Layer 3_ip2
I0126 21:28:30.208436 24822 net.cpp:410] 3_ip2 <- 3_ip1
I0126 21:28:30.208451 24822 net.cpp:368] 3_ip2 -> 3_ip2
I0126 21:28:30.208465 24822 net.cpp:120] Setting up 3_ip2
I0126 21:28:30.208505 24822 net.cpp:127] Top shape: 350 10 (3500)
I0126 21:28:30.208521 24822 layer_factory.hpp:74] Creating layer 3_prob
I0126 21:28:30.208534 24822 net.cpp:90] Creating Layer 3_prob
I0126 21:28:30.208545 24822 net.cpp:410] 3_prob <- 3_ip2
I0126 21:28:30.208559 24822 net.cpp:368] 3_prob -> 3_prob
I0126 21:28:30.208573 24822 net.cpp:120] Setting up 3_prob
I0126 21:28:30.208590 24822 net.cpp:127] Top shape: 350 10 (3500)
I0126 21:28:30.208601 24822 layer_factory.hpp:74] Creating layer 4_conv1
I0126 21:28:30.208616 24822 net.cpp:90] Creating Layer 4_conv1
I0126 21:28:30.208627 24822 net.cpp:410] 4_conv1 <- data_cifar_0_split_3
I0126 21:28:30.208642 24822 net.cpp:368] 4_conv1 -> 4_conv1
I0126 21:28:30.208655 24822 net.cpp:120] Setting up 4_conv1
I0126 21:28:30.208750 24822 net.cpp:127] Top shape: 350 32 32 32 (11468800)
I0126 21:28:30.208766 24822 layer_factory.hpp:74] Creating layer 4_pool1
I0126 21:28:30.208780 24822 net.cpp:90] Creating Layer 4_pool1
I0126 21:28:30.208791 24822 net.cpp:410] 4_pool1 <- 4_conv1
I0126 21:28:30.208803 24822 net.cpp:368] 4_pool1 -> 4_pool1
I0126 21:28:30.208817 24822 net.cpp:120] Setting up 4_pool1
I0126 21:28:30.208832 24822 net.cpp:127] Top shape: 350 32 16 16 (2867200)
I0126 21:28:30.208843 24822 layer_factory.hpp:74] Creating layer 4_relu1
I0126 21:28:30.208855 24822 net.cpp:90] Creating Layer 4_relu1
I0126 21:28:30.208870 24822 net.cpp:410] 4_relu1 <- 4_pool1
I0126 21:28:30.208889 24822 net.cpp:357] 4_relu1 -> 4_pool1 (in-place)
I0126 21:28:30.208902 24822 net.cpp:120] Setting up 4_relu1
I0126 21:28:30.208915 24822 net.cpp:127] Top shape: 350 32 16 16 (2867200)
I0126 21:28:30.208927 24822 layer_factory.hpp:74] Creating layer 4_conv2
I0126 21:28:30.208940 24822 net.cpp:90] Creating Layer 4_conv2
I0126 21:28:30.208952 24822 net.cpp:410] 4_conv2 <- 4_pool1
I0126 21:28:30.208966 24822 net.cpp:368] 4_conv2 -> 4_conv2
I0126 21:28:30.208978 24822 net.cpp:120] Setting up 4_conv2
I0126 21:28:30.209789 24822 net.cpp:127] Top shape: 350 32 16 16 (2867200)
I0126 21:28:30.209812 24822 layer_factory.hpp:74] Creating layer 4_relu2
I0126 21:28:30.209826 24822 net.cpp:90] Creating Layer 4_relu2
I0126 21:28:30.209838 24822 net.cpp:410] 4_relu2 <- 4_conv2
I0126 21:28:30.209851 24822 net.cpp:357] 4_relu2 -> 4_conv2 (in-place)
I0126 21:28:30.209863 24822 net.cpp:120] Setting up 4_relu2
I0126 21:28:30.209877 24822 net.cpp:127] Top shape: 350 32 16 16 (2867200)
I0126 21:28:30.209888 24822 layer_factory.hpp:74] Creating layer 4_pool2
I0126 21:28:30.209900 24822 net.cpp:90] Creating Layer 4_pool2
I0126 21:28:30.209913 24822 net.cpp:410] 4_pool2 <- 4_conv2
I0126 21:28:30.209926 24822 net.cpp:368] 4_pool2 -> 4_pool2
I0126 21:28:30.209939 24822 net.cpp:120] Setting up 4_pool2
I0126 21:28:30.209954 24822 net.cpp:127] Top shape: 350 32 8 8 (716800)
I0126 21:28:30.209966 24822 layer_factory.hpp:74] Creating layer 4_conv3
I0126 21:28:30.209980 24822 net.cpp:90] Creating Layer 4_conv3
I0126 21:28:30.209991 24822 net.cpp:410] 4_conv3 <- 4_pool2
I0126 21:28:30.210005 24822 net.cpp:368] 4_conv3 -> 4_conv3
I0126 21:28:30.210019 24822 net.cpp:120] Setting up 4_conv3
I0126 21:28:30.211612 24822 net.cpp:127] Top shape: 350 64 8 8 (1433600)
I0126 21:28:30.211632 24822 layer_factory.hpp:74] Creating layer 4_relu3
I0126 21:28:30.211647 24822 net.cpp:90] Creating Layer 4_relu3
I0126 21:28:30.211658 24822 net.cpp:410] 4_relu3 <- 4_conv3
I0126 21:28:30.211670 24822 net.cpp:357] 4_relu3 -> 4_conv3 (in-place)
I0126 21:28:30.211683 24822 net.cpp:120] Setting up 4_relu3
I0126 21:28:30.211695 24822 net.cpp:127] Top shape: 350 64 8 8 (1433600)
I0126 21:28:30.211707 24822 layer_factory.hpp:74] Creating layer 4_pool3
I0126 21:28:30.211721 24822 net.cpp:90] Creating Layer 4_pool3
I0126 21:28:30.211732 24822 net.cpp:410] 4_pool3 <- 4_conv3
I0126 21:28:30.211745 24822 net.cpp:368] 4_pool3 -> 4_pool3
I0126 21:28:30.211758 24822 net.cpp:120] Setting up 4_pool3
I0126 21:28:30.211772 24822 net.cpp:127] Top shape: 350 64 4 4 (358400)
I0126 21:28:30.211784 24822 layer_factory.hpp:74] Creating layer 4_ip1
I0126 21:28:30.211798 24822 net.cpp:90] Creating Layer 4_ip1
I0126 21:28:30.211809 24822 net.cpp:410] 4_ip1 <- 4_pool3
I0126 21:28:30.211823 24822 net.cpp:368] 4_ip1 -> 4_ip1
I0126 21:28:30.211838 24822 net.cpp:120] Setting up 4_ip1
I0126 21:28:30.213872 24822 net.cpp:127] Top shape: 350 64 (22400)
I0126 21:28:30.213893 24822 layer_factory.hpp:74] Creating layer 4_ip2
I0126 21:28:30.213909 24822 net.cpp:90] Creating Layer 4_ip2
I0126 21:28:30.213922 24822 net.cpp:410] 4_ip2 <- 4_ip1
I0126 21:28:30.213935 24822 net.cpp:368] 4_ip2 -> 4_ip2
I0126 21:28:30.213949 24822 net.cpp:120] Setting up 4_ip2
I0126 21:28:30.213990 24822 net.cpp:127] Top shape: 350 10 (3500)
I0126 21:28:30.214005 24822 layer_factory.hpp:74] Creating layer 4_prob
I0126 21:28:30.214020 24822 net.cpp:90] Creating Layer 4_prob
I0126 21:28:30.214030 24822 net.cpp:410] 4_prob <- 4_ip2
I0126 21:28:30.214042 24822 net.cpp:368] 4_prob -> 4_prob
I0126 21:28:30.214056 24822 net.cpp:120] Setting up 4_prob
I0126 21:28:30.214071 24822 net.cpp:127] Top shape: 350 10 (3500)
I0126 21:28:30.214082 24822 layer_factory.hpp:74] Creating layer loss
I0126 21:28:30.214098 24822 net.cpp:90] Creating Layer loss
I0126 21:28:30.214110 24822 net.cpp:410] loss <- 1_prob
I0126 21:28:30.214121 24822 net.cpp:410] loss <- 2_prob
I0126 21:28:30.214133 24822 net.cpp:410] loss <- 3_prob
I0126 21:28:30.214145 24822 net.cpp:410] loss <- 4_prob
I0126 21:28:30.214159 24822 net.cpp:410] loss <- label
I0126 21:28:30.214180 24822 net.cpp:368] loss -> multiple-output loss
I0126 21:28:30.214196 24822 net.cpp:368] loss -> batch-instance-counts
I0126 21:28:30.214211 24822 net.cpp:368] loss -> train-instance-counts
I0126 21:28:30.214227 24822 net.cpp:120] Setting up loss
I0126 21:28:30.214247 24822 net.cpp:127] Top shape: 4 1 1 1 (4)
I0126 21:28:30.214259 24822 net.cpp:129]     with loss weight 1
I0126 21:28:30.214284 24822 net.cpp:127] Top shape: 4 1 1 1 (4)
I0126 21:28:30.214298 24822 net.cpp:127] Top shape: 4 1 1 1 (4)
I0126 21:28:30.214308 24822 net.cpp:192] loss needs backward computation.
I0126 21:28:30.214321 24822 net.cpp:192] 4_prob needs backward computation.
I0126 21:28:30.214332 24822 net.cpp:192] 4_ip2 needs backward computation.
I0126 21:28:30.214344 24822 net.cpp:192] 4_ip1 needs backward computation.
I0126 21:28:30.214354 24822 net.cpp:192] 4_pool3 needs backward computation.
I0126 21:28:30.214365 24822 net.cpp:192] 4_relu3 needs backward computation.
…
I0126 21:28:30.216343 24822 net.cpp:287] The NetState phase (1) differed from the phase (0) specified by a rule in layer loss
I0126 21:28:30.216652 24822 net.cpp:42] Initializing net from parameters: 
name: "CIFAR10_quick"
state {
  phase: TEST
}
layer {
  name: "cifar"
  type: "Data"
  top: "data"
  top: "label"
  include {
    phase: TEST
  }
  transform_param {
    mean_file: "/home/mike/ml_lab/mod/MCL_Caffe/examples/cifar10/mean.binaryproto"
  }
  data_param {
    source: "/home/mike/ml_lab/mod/MCL_Caffe/examples/cifar10/cifar10_test_lmdb"
    batch_size: 100
    backend: LMDB
  }
}
layer {
  name: "1_conv1"
  type: "Convolution"
  bottom: "data"
  top: "1_conv1"
  param {
    lr_mult: 1
  }
  param {
    lr_mult: 2
  }
  convolution_param {
    num_output: 32
    pad: 2
    kernel_size: 5
    stride: 1
    weight_filler {
      type: "gaussian"
      std: 0.0001
    }
    bias_filler {
      type: "constant"
    }
  }
}
layer {
  name: "1_pool1"
  type: "Pooling"
  bottom: "1_conv1"
  top: "1_pool1"
  pooling_param {
    pool: MAX
    kernel_size: 3
    stride: 2
  }
}
layer {
  name: "1_relu1"
  type: "ReLU"
  bottom: "1_pool1"
  top: "1_pool1"
}
layer {
  name: "1_conv2"
  type: "Convolution"
  bottom: "1_pool1"
  top: "1_conv2"
  param {
    lr_mult: 1
  }
  param {
    lr_mult: 2
  }
  convolution_param {
    num_output: 32
    pad: 2
    kernel_size: 5
    stride: 1
    weight_filler {
      type: "gaussian"
      std: 0.01
    }
    bias_filler {
      type: "constant"
    }
  }
}
layer {
  name: "1_relu2"
  type: "ReLU"
  bottom: "1_conv2"
  top: "1_conv2"
}
layer {
  name: "1_pool2"
  type: "Pooling"
  bottom: "1_conv2"
  top: "1_pool2"
  pooling_param {
    pool: AVE
    kernel_size: 3
    stride: 2
  }
}
layer {
  name: "1_conv3"
  type: "Convolution"
  bottom: "1_pool2"
  top: "1_conv3"
  param {
    lr_mult: 1
  }
  param {
    lr_mult: 2
  }
  convolution_param {
    num_output: 64
    pad: 2
    kernel_size: 5
    stride: 1
    weight_filler {
      type: "gaussian"
      std: 0.01
    }
    bias_filler {
      type: "constant"
    }
  }
}
layer {
  name: "1_relu3"
  type: "ReLU"
  bottom: "1_conv3"
  top: "1_conv3"
}
layer {
  name: "1_pool3"
  type: "Pooling"
  bottom: "1_conv3"
  top: "1_pool3"
  pooling_param {
    pool: AVE
    kernel_size: 3
    stride: 2
  }
}
layer {
  name: "1_ip1"
  type: "InnerProduct"
  bottom: "1_pool3"
  top: "1_ip1"
  param {
    lr_mult: 1
  }
  param {
    lr_mult: 2
  }
  inner_product_param {
    num_output: 64
    weight_filler {
      type: "gaussian"
      std: 0.1
    }
    bias_filler {
      type: "constant"
    }
  }
}
layer {
  name: "1_ip2"
  type: "InnerProduct"
  bottom: "1_ip1"
  top: "1_ip2"
  param {
    lr_mult: 1
  }
  param {
    lr_mult: 2
  }
  inner_product_param {
    num_output: 10
    weight_filler {
      type: "gaussian"
      std: 0.1
    }
    bias_filler {
      type: "constant"
    }
  }
}
layer {
  name: "1_prob"
  type: "Softmax"
  bottom: "1_ip2"
  top: "1_prob"
}
layer {
  name: "2_conv1"
  type: "Convolution"
  bottom: "data"
  top: "2_conv1"
  param {
    lr_mult: 1
  }
  param {
    lr_mult: 2
  }
  convolution_param {
    num_output: 32
    pad: 2
    kernel_size: 5
    stride: 1
    weight_filler {
      type: "gaussian"
      std: 0.0001
    }
    bias_filler {
      type: "constant"
    }
  }
}
layer {
  name: "2_pool1"
  type: "Pooling"
  bottom: "2_conv1"
  top: "2_pool1"
  pooling_param {
    pool: MAX
    kernel_size: 3
    stride: 2
  }
}
layer {
  name: "2_relu1"
  type: "ReLU"
  bottom: "2_pool1"
  top: "2_pool1"
}
layer {
  name: "2_conv2"
  type: "Convolution"
  bottom: "2_pool1"
  top: "2_conv2"
  param {
    lr_mult: 1
  }
  param {
    lr_mult: 2
  }
  convolution_param {
    num_output: 32
    pad: 2
    kernel_size: 5
    stride: 1
    weight_filler {
      type: "gaussian"
      std: 0.01
    }
    bias_filler {
      type: "constant"
    }
  }
}
layer {
  name: "2_relu2"
  type: "ReLU"
  bottom: "2_conv2"
  top: "2_conv2"
}
layer {
  name: "2_pool2"
  type: "Pooling"
  bottom: "2_conv2"
  top: "2_pool2"
  pooling_param {
    pool: AVE
    kernel_size: 3
    stride: 2
  }
}
layer {
  name: "2_conv3"
  type: "Convolution"
  bottom: "2_pool2"
  top: "2_conv3"
  param {
    lr_mult: 1
  }
  param {
    lr_mult: 2
  }
  convolution_param {
    num_output: 64
    pad: 2
    kernel_size: 5
    stride: 1
    weight_filler {
      type: "gaussian"
      std: 0.01
    }
    bias_filler {
      type: "constant"
    }
  }
}
layer {
  name: "2_relu3"
  type: "ReLU"
  bottom: "2_conv3"
  top: "2_conv3"
}
layer {
  name: "2_pool3"
  type: "Pooling"
  bottom: "2_conv3"
  top: "2_pool3"
  pooling_param {
    pool: AVE
    kernel_size: 3
    stride: 2
  }
}
layer {
  name: "2_ip1"
  type: "InnerProduct"
  bottom: "2_pool3"
  top: "2_ip1"
  param {
    lr_mult: 1
  }
  param {
    lr_mult: 2
  }
  inner_product_param {
    num_output: 64
    weight_filler {
      type: "gaussian"
      std: 0.1
    }
    bias_filler {
      type: "constant"
    }
  }
}
layer {
  name: "2_ip2"
  type: "InnerProduct"
  bottom: "2_ip1"
  top: "2_ip2"
  param {
    lr_mult: 1
  }
  param {
    lr_mult: 2
  }
  inner_product_param {
    num_output: 10
    weight_filler {
      type: "gaussian"
      std: 0.1
    }
    bias_filler {
      type: "constant"
    }
  }
}
layer {
  name: "2_prob"
  type: "Softmax"
  bottom: "2_ip2"
  top: "2_prob"
}
layer {
  name: "3_conv1"
  type: "Convolution"
  bottom: "data"
  top: "3_conv1"
  param {
    lr_mult: 1
  }
  param {
    lr_mult: 2
  }
  convolution_param {
    num_output: 32
    pad: 2
    kernel_size: 5
    stride: 1
    weight_filler {
      type: "gaussian"
      std: 0.0001
    }
    bias_filler {
      type: "constant"
    }
  }
}
layer {
  name: "3_pool1"
  type: "Pooling"
  bottom: "3_conv1"
  top: "3_pool1"
  pooling_param {
    pool: MAX
    kernel_size: 3
    stride: 2
  }
}
layer {
  name: "3_relu1"
  type: "ReLU"
  bottom: "3_pool1"
  top: "3_pool1"
}
layer {
  name: "3_conv2"
  type: "Convolution"
  bottom: "3_pool1"
  top: "3_conv2"
  param {
    lr_mult: 1
  }
  param {
    lr_mult: 2
  }
  convolution_param {
    num_output: 32
    pad: 2
    kernel_size: 5
    stride: 1
    weight_filler {
      type: "gaussian"
      std: 0.01
    }
    bias_filler {
      type: "constant"
    }
  }
}
layer {
  name: "3_relu2"
  type: "ReLU"
  bottom: "3_conv2"
  top: "3_conv2"
}
layer {
  name: "3_pool2"
  type: "Pooling"
  bottom: "3_conv2"
  top: "3_pool2"
  pooling_param {
    pool: AVE
    kernel_size: 3
    stride: 2
  }
}
layer {
  name: "3_conv3"
  type: "Convolution"
  bottom: "3_pool2"
  top: "3_conv3"
  param {
    lr_mult: 1
  }
  param {
    lr_mult: 2
  }
  convolution_param {
    num_output: 64
    pad: 2
    kernel_size: 5
    stride: 1
    weight_filler {
      type: "gaussian"
      std: 0.01
    }
    bias_filler {
      type: "constant"
    }
  }
}
layer {
  name: "3_relu3"
  type: "ReLU"
  bottom: "3_conv3"
  top: "3_conv3"
}
layer {
  name: "3_pool3"
  type: "Pooling"
  bottom: "3_conv3"
  top: "3_pool3"
  pooling_param {
    pool: AVE
    kernel_size: 3
    stride: 2
  }
}
layer {
  name: "3_ip1"
  type: "InnerProduct"
  bottom: "3_pool3"
  top: "3_ip1"
  param {
    lr_mult: 1
  }
  param {
    lr_mult: 2
  }
  inner_product_param {
    num_output: 64
    weight_filler {
      type: "gaussian"
      std: 0.1
    }
    bias_filler {
      type: "constant"
    }
  }
}
layer {
  name: "3_ip2"
  type: "InnerProduct"
  bottom: "3_ip1"
  top: "3_ip2"
  param {
    lr_mult: 1
  }
  param {
    lr_mult: 2
  }
  inner_product_param {
    num_output: 10
    weight_filler {
      type: "gaussian"
      std: 0.1
    }
    bias_filler {
      type: "constant"
    }
  }
}
layer {
  name: "3_prob"
  type: "Softmax"
  bottom: "3_ip2"
  top: "3_prob"
}
layer {
  name: "4_conv1"
  type: "Convolution"
  bottom: "data"
  top: "4_conv1"
  param {
    lr_mult: 1
  }
  param {
    lr_mult: 2
  }
  convolution_param {
    num_output: 32
    pad: 2
    kernel_size: 5
    stride: 1
    weight_filler {
      type: "gaussian"
      std: 0.0001
    }
    bias_filler {
      type: "constant"
    }
  }
}
layer {
  name: "4_pool1"
  type: "Pooling"
  bottom: "4_conv1"
  top: "4_pool1"
  pooling_param {
    pool: MAX
    kernel_size: 3
    stride: 2
  }
}
layer {
  name: "4_relu1"
  type: "ReLU"
  bottom: "4_pool1"
  top: "4_pool1"
}
layer {
  name: "4_conv2"
  type: "Convolution"
  bottom: "4_pool1"
  top: "4_conv2"
  param {
    lr_mult: 1
  }
  param {
    lr_mult: 2
  }
  convolution_param {
    num_output: 32
    pad: 2
    kernel_size: 5
    stride: 1
    weight_filler {
      type: "gaussian"
      std: 0.01
    }
    bias_filler {
      type: "constant"
    }
  }
}
layer {
  name: "4_relu2"
  type: "ReLU"
  bottom: "4_conv2"
  top: "4_conv2"
}
layer {
  name: "4_pool2"
  type: "Pooling"
  bottom: "4_conv2"
  top: "4_pool2"
  pooling_param {
    pool: AVE
    kernel_size: 3
    stride: 2
  }
}
layer {
  name: "4_conv3"
  type: "Convolution"
  bottom: "4_pool2"
  top: "4_conv3"
  param {
    lr_mult: 1
  }
  param {
    lr_mult: 2
  }
  convolution_param {
    num_output: 64
    pad: 2
    kernel_size: 5
    stride: 1
    weight_filler {
      type: "gaussian"
      std: 0.01
    }
    bias_filler {
      type: "constant"
    }
  }
}
layer {
  name: "4_relu3"
  type: "ReLU"
  bottom: "4_conv3"
  top: "4_conv3"
}
layer {
  name: "4_pool3"
  type: "Pooling"
  bottom: "4_conv3"
  top: "4_pool3"
  pooling_param {
    pool: AVE
    kernel_size: 3
    stride: 2
  }
}
layer {
  name: "4_ip1"
  type: "InnerProduct"
  bottom: "4_pool3"
  top: "4_ip1"
  param {
    lr_mult: 1
  }
  param {
    lr_mult: 2
  }
  inner_product_param {
    num_output: 64
    weight_filler {
      type: "gaussian"
      std: 0.1
    }
    bias_filler {
      type: "constant"
    }
  }
}
layer {
  name: "4_ip2"
  type: "InnerProduct"
  bottom: "4_ip1"
  top: "4_ip2"
  param {
    lr_mult: 1
  }
  param {
    lr_mult: 2
  }
  inner_product_param {
    num_output: 10
    weight_filler {
      type: "gaussian"
      std: 0.1
    }
    bias_filler {
      type: "constant"
    }
  }
}
layer {
  name: "4_prob"
  type: "Softmax"
  bottom: "4_ip2"
  top: "4_prob"
}
layer {
  name: "1_accuracy"
  type: "Accuracy"
  bottom: "1_prob"
  bottom: "label"
  top: "1_accuracy"
  include {
    phase: TEST
  }
}
layer {
  name: "2_accuracy"
  type: "Accuracy"
  bottom: "2_prob"
  bottom: "label"
  top: "2_accuracy"
  include {
    phase: TEST
  }
}
layer {
  name: "3_accuracy"
  type: "Accuracy"
  bottom: "3_prob"
  bottom: "label"
  top: "3_accuracy"
  include {
    phase: TEST
  }
}
layer {
  name: "4_accuracy"
  type: "Accuracy"
  bottom: "4_prob"
  bottom: "label"
  top: "4_accuracy"
  include {
    phase: TEST
  }
}
layer {
  name: "accuracy"
  type: "OracleAccuracy"
  bottom: "1_prob"
  bottom: "2_prob"
  bottom: "3_prob"
  bottom: "4_prob"
  bottom: "label"
  top: "oracle accuracy"
  include {
    phase: TEST
  }
}
I0126 21:28:30.217368 24822 layer_factory.hpp:74] Creating layer cifar
I0126 21:28:30.217389 24822 net.cpp:90] Creating Layer cifar
I0126 21:28:30.217394 24822 net.cpp:368] cifar -> data
I0126 21:28:30.217406 24822 net.cpp:368] cifar -> label
I0126 21:28:30.217411 24822 net.cpp:120] Setting up cifar
I0126 21:28:30.217442 24822 db.cpp:34] Opened lmdb /home/mike/ml_lab/mod/MCL_Caffe/examples/cifar10/cifar10_test_lmdb
I0126 21:28:30.217468 24822 data_layer.cpp:67] output data size: 100,3,32,32
I0126 21:28:30.217473 24822 data_transformer.cpp:22] Loading mean file from: /home/mike/ml_lab/mod/MCL_Caffe/examples/cifar10/mean.binaryproto
I0126 21:28:30.217932 24822 net.cpp:127] Top shape: 100 3 32 32 (307200)
I0126 21:28:30.217939 24822 net.cpp:127] Top shape: 100 (100)
I0126 21:28:30.217943 24822 layer_factory.hpp:74] Creating layer data_cifar_0_split
I0126 21:28:30.217950 24822 net.cpp:90] Creating Layer data_cifar_0_split
I0126 21:28:30.217953 24822 net.cpp:410] data_cifar_0_split <- data
I0126 21:28:30.217958 24822 net.cpp:368] data_cifar_0_split -> data_cifar_0_split_0
I0126 21:28:30.217965 24822 net.cpp:368] data_cifar_0_split -> data_cifar_0_split_1
I0126 21:28:30.217972 24822 net.cpp:368] data_cifar_0_split -> data_cifar_0_split_2
I0126 21:28:30.217978 24822 net.cpp:368] data_cifar_0_split -> data_cifar_0_split_3
I0126 21:28:30.217983 24822 net.cpp:120] Setting up data_cifar_0_split
I0126 21:28:30.217988 24822 net.cpp:127] Top shape: 100 3 32 32 (307200)
I0126 21:28:30.217993 24822 net.cpp:127] Top shape: 100 3 32 32 (307200)
I0126 21:28:30.217998 24822 net.cpp:127] Top shape: 100 3 32 32 (307200)
I0126 21:28:30.218001 24822 net.cpp:127] Top shape: 100 3 32 32 (307200)
I0126 21:28:30.218004 24822 layer_factory.hpp:74] Creating layer label_cifar_1_split
I0126 21:28:30.218009 24822 net.cpp:90] Creating Layer label_cifar_1_split
I0126 21:28:30.218013 24822 net.cpp:410] label_cifar_1_split <- label
I0126 21:28:30.218016 24822 net.cpp:368] label_cifar_1_split -> label_cifar_1_split_0
I0126 21:28:30.218022 24822 net.cpp:368] label_cifar_1_split -> label_cifar_1_split_1
I0126 21:28:30.218029 24822 net.cpp:368] label_cifar_1_split -> label_cifar_1_split_2
I0126 21:28:30.218034 24822 net.cpp:368] label_cifar_1_split -> label_cifar_1_split_3
I0126 21:28:30.218039 24822 net.cpp:368] label_cifar_1_split -> label_cifar_1_split_4
I0126 21:28:30.218044 24822 net.cpp:120] Setting up label_cifar_1_split
I0126 21:28:30.218050 24822 net.cpp:127] Top shape: 100 (100)
I0126 21:28:30.218055 24822 net.cpp:127] Top shape: 100 (100)
I0126 21:28:30.218058 24822 net.cpp:127] Top shape: 100 (100)
I0126 21:28:30.218062 24822 net.cpp:127] Top shape: 100 (100)
I0126 21:28:30.218065 24822 net.cpp:127] Top shape: 100 (100)
I0126 21:28:30.218068 24822 layer_factory.hpp:74] Creating layer 1_conv1
I0126 21:28:30.218075 24822 net.cpp:90] Creating Layer 1_conv1
I0126 21:28:30.218077 24822 net.cpp:410] 1_conv1 <- data_cifar_0_split_0
I0126 21:28:30.218083 24822 net.cpp:368] 1_conv1 -> 1_conv1
I0126 21:28:30.218088 24822 net.cpp:120] Setting up 1_conv1
I0126 21:28:30.218174 24822 net.cpp:127] Top shape: 100 32 32 32 (3276800)
I0126 21:28:30.218181 24822 layer_factory.hpp:74] Creating layer 1_pool1
I0126 21:28:30.218188 24822 net.cpp:90] Creating Layer 1_pool1
I0126 21:28:30.218190 24822 net.cpp:410] 1_pool1 <- 1_conv1
I0126 21:28:30.218195 24822 net.cpp:368] 1_pool1 -> 1_pool1
I0126 21:28:30.218200 24822 net.cpp:120] Setting up 1_pool1
I0126 21:28:30.218207 24822 net.cpp:127] Top shape: 100 32 16 16 (819200)
I0126 21:28:30.218210 24822 layer_factory.hpp:74] Creating layer 1_relu1
I0126 21:28:30.218214 24822 net.cpp:90] Creating Layer 1_relu1
I0126 21:28:30.218217 24822 net.cpp:410] 1_relu1 <- 1_pool1
I0126 21:28:30.218221 24822 net.cpp:357] 1_relu1 -> 1_pool1 (in-place)
I0126 21:28:30.218225 24822 net.cpp:120] Setting up 1_relu1
I0126 21:28:30.218230 24822 net.cpp:127] Top shape: 100 32 16 16 (819200)
I0126 21:28:30.218233 24822 layer_factory.hpp:74] Creating layer 1_conv2
I0126 21:28:30.218237 24822 net.cpp:90] Creating Layer 1_conv2
I0126 21:28:30.218240 24822 net.cpp:410] 1_conv2 <- 1_pool1
I0126 21:28:30.218247 24822 net.cpp:368] 1_conv2 -> 1_conv2
I0126 21:28:30.218261 24822 net.cpp:120] Setting up 1_conv2
I0126 21:28:30.219050 24822 net.cpp:127] Top shape: 100 32 16 16 (819200)
I0126 21:28:30.219059 24822 layer_factory.hpp:74] Creating layer 1_relu2
I0126 21:28:30.219064 24822 net.cpp:90] Creating Layer 1_relu2
I0126 21:28:30.219068 24822 net.cpp:410] 1_relu2 <- 1_conv2
I0126 21:28:30.219071 24822 net.cpp:357] 1_relu2 -> 1_conv2 (in-place)
I0126 21:28:30.219075 24822 net.cpp:120] Setting up 1_relu2
I0126 21:28:30.219080 24822 net.cpp:127] Top shape: 100 32 16 16 (819200)
I0126 21:28:30.219084 24822 layer_factory.hpp:74] Creating layer 1_pool2
I0126 21:28:30.219089 24822 net.cpp:90] Creating Layer 1_pool2
I0126 21:28:30.219092 24822 net.cpp:410] 1_pool2 <- 1_conv2
I0126 21:28:30.219096 24822 net.cpp:368] 1_pool2 -> 1_pool2
I0126 21:28:30.219101 24822 net.cpp:120] Setting up 1_pool2
I0126 21:28:30.219107 24822 net.cpp:127] Top shape: 100 32 8 8 (204800)
I0126 21:28:30.219110 24822 layer_factory.hpp:74] Creating layer 1_conv3
I0126 21:28:30.219116 24822 net.cpp:90] Creating Layer 1_conv3
I0126 21:28:30.219120 24822 net.cpp:410] 1_conv3 <- 1_pool2
I0126 21:28:30.219123 24822 net.cpp:368] 1_conv3 -> 1_conv3
I0126 21:28:30.219128 24822 net.cpp:120] Setting up 1_conv3
I0126 21:28:30.220713 24822 net.cpp:127] Top shape: 100 64 8 8 (409600)
I0126 21:28:30.220722 24822 layer_factory.hpp:74] Creating layer 1_relu3
I0126 21:28:30.220727 24822 net.cpp:90] Creating Layer 1_relu3
I0126 21:28:30.220731 24822 net.cpp:410] 1_relu3 <- 1_conv3
I0126 21:28:30.220736 24822 net.cpp:357] 1_relu3 -> 1_conv3 (in-place)
I0126 21:28:30.220739 24822 net.cpp:120] Setting up 1_relu3
I0126 21:28:30.220744 24822 net.cpp:127] Top shape: 100 64 8 8 (409600)
I0126 21:28:30.220747 24822 layer_factory.hpp:74] Creating layer 1_pool3
I0126 21:28:30.220752 24822 net.cpp:90] Creating Layer 1_pool3
I0126 21:28:30.220754 24822 net.cpp:410] 1_pool3 <- 1_conv3
I0126 21:28:30.220759 24822 net.cpp:368] 1_pool3 -> 1_pool3
I0126 21:28:30.220767 24822 net.cpp:120] Setting up 1_pool3
I0126 21:28:30.220773 24822 net.cpp:127] Top shape: 100 64 4 4 (102400)
I0126 21:28:30.220777 24822 layer_factory.hpp:74] Creating layer 1_ip1
I0126 21:28:30.220782 24822 net.cpp:90] Creating Layer 1_ip1
I0126 21:28:30.220784 24822 net.cpp:410] 1_ip1 <- 1_pool3
I0126 21:28:30.220790 24822 net.cpp:368] 1_ip1 -> 1_ip1
I0126 21:28:30.220795 24822 net.cpp:120] Setting up 1_ip1
I0126 21:28:30.222818 24822 net.cpp:127] Top shape: 100 64 (6400)
I0126 21:28:30.222827 24822 layer_factory.hpp:74] Creating layer 1_ip2
I0126 21:28:30.222833 24822 net.cpp:90] Creating Layer 1_ip2
I0126 21:28:30.222836 24822 net.cpp:410] 1_ip2 <- 1_ip1
I0126 21:28:30.222842 24822 net.cpp:368] 1_ip2 -> 1_ip2
I0126 21:28:30.222848 24822 net.cpp:120] Setting up 1_ip2
I0126 21:28:30.222877 24822 net.cpp:127] Top shape: 100 10 (1000)
I0126 21:28:30.222885 24822 layer_factory.hpp:74] Creating layer 1_prob
I0126 21:28:30.222893 24822 net.cpp:90] Creating Layer 1_prob
I0126 21:28:30.222896 24822 net.cpp:410] 1_prob <- 1_ip2
I0126 21:28:30.222901 24822 net.cpp:368] 1_prob -> 1_prob
I0126 21:28:30.222905 24822 net.cpp:120] Setting up 1_prob
I0126 21:28:30.222913 24822 net.cpp:127] Top shape: 100 10 (1000)
I0126 21:28:30.222915 24822 layer_factory.hpp:74] Creating layer 1_prob_1_prob_0_split
I0126 21:28:30.222920 24822 net.cpp:90] Creating Layer 1_prob_1_prob_0_split
I0126 21:28:30.222923 24822 net.cpp:410] 1_prob_1_prob_0_split <- 1_prob
I0126 21:28:30.222928 24822 net.cpp:368] 1_prob_1_prob_0_split -> 1_prob_1_prob_0_split_0
I0126 21:28:30.222934 24822 net.cpp:368] 1_prob_1_prob_0_split -> 1_prob_1_prob_0_split_1
I0126 21:28:30.222939 24822 net.cpp:120] Setting up 1_prob_1_prob_0_split
I0126 21:28:30.222945 24822 net.cpp:127] Top shape: 100 10 (1000)
I0126 21:28:30.222949 24822 net.cpp:127] Top shape: 100 10 (1000)
I0126 21:28:30.222952 24822 layer_factory.hpp:74] Creating layer 2_conv1
I0126 21:28:30.222959 24822 net.cpp:90] Creating Layer 2_conv1
I0126 21:28:30.222961 24822 net.cpp:410] 2_conv1 <- data_cifar_0_split_1
I0126 21:28:30.222967 24822 net.cpp:368] 2_conv1 -> 2_conv1
I0126 21:28:30.222982 24822 net.cpp:120] Setting up 2_conv1
I0126 21:28:30.223069 24822 net.cpp:127] Top shape: 100 32 32 32 (3276800)
I0126 21:28:30.223076 24822 layer_factory.hpp:74] Creating layer 2_pool1
I0126 21:28:30.223080 24822 net.cpp:90] Creating Layer 2_pool1
I0126 21:28:30.223083 24822 net.cpp:410] 2_pool1 <- 2_conv1
I0126 21:28:30.223089 24822 net.cpp:368] 2_pool1 -> 2_pool1
I0126 21:28:30.223093 24822 net.cpp:120] Setting up 2_pool1
I0126 21:28:30.223100 24822 net.cpp:127] Top shape: 100 32 16 16 (819200)
I0126 21:28:30.223104 24822 layer_factory.hpp:74] Creating layer 2_relu1
I0126 21:28:30.223107 24822 net.cpp:90] Creating Layer 2_relu1
I0126 21:28:30.223110 24822 net.cpp:410] 2_relu1 <- 2_pool1
I0126 21:28:30.223114 24822 net.cpp:357] 2_relu1 -> 2_pool1 (in-place)
I0126 21:28:30.223119 24822 net.cpp:120] Setting up 2_relu1
I0126 21:28:30.223124 24822 net.cpp:127] Top shape: 100 32 16 16 (819200)
I0126 21:28:30.223126 24822 layer_factory.hpp:74] Creating layer 2_conv2
I0126 21:28:30.223131 24822 net.cpp:90] Creating Layer 2_conv2
I0126 21:28:30.223134 24822 net.cpp:410] 2_conv2 <- 2_pool1
I0126 21:28:30.223140 24822 net.cpp:368] 2_conv2 -> 2_conv2
I0126 21:28:30.223145 24822 net.cpp:120] Setting up 2_conv2
I0126 21:28:30.223935 24822 net.cpp:127] Top shape: 100 32 16 16 (819200)
I0126 21:28:30.223943 24822 layer_factory.hpp:74] Creating layer 2_relu2
I0126 21:28:30.223948 24822 net.cpp:90] Creating Layer 2_relu2
I0126 21:28:30.223950 24822 net.cpp:410] 2_relu2 <- 2_conv2
I0126 21:28:30.223954 24822 net.cpp:357] 2_relu2 -> 2_conv2 (in-place)
I0126 21:28:30.223958 24822 net.cpp:120] Setting up 2_relu2
I0126 21:28:30.223963 24822 net.cpp:127] Top shape: 100 32 16 16 (819200)
I0126 21:28:30.223966 24822 layer_factory.hpp:74] Creating layer 2_pool2
I0126 21:28:30.223970 24822 net.cpp:90] Creating Layer 2_pool2
I0126 21:28:30.223973 24822 net.cpp:410] 2_pool2 <- 2_conv2
I0126 21:28:30.223978 24822 net.cpp:368] 2_pool2 -> 2_pool2
I0126 21:28:30.223984 24822 net.cpp:120] Setting up 2_pool2
I0126 21:28:30.223989 24822 net.cpp:127] Top shape: 100 32 8 8 (204800)
I0126 21:28:30.223991 24822 layer_factory.hpp:74] Creating layer 2_conv3
I0126 21:28:30.223997 24822 net.cpp:90] Creating Layer 2_conv3
I0126 21:28:30.224000 24822 net.cpp:410] 2_conv3 <- 2_pool2
I0126 21:28:30.224005 24822 net.cpp:368] 2_conv3 -> 2_conv3
I0126 21:28:30.224010 24822 net.cpp:120] Setting up 2_conv3
I0126 21:28:30.225591 24822 net.cpp:127] Top shape: 100 64 8 8 (409600)
I0126 21:28:30.225600 24822 layer_factory.hpp:74] Creating layer 2_relu3
I0126 21:28:30.225605 24822 net.cpp:90] Creating Layer 2_relu3
I0126 21:28:30.225608 24822 net.cpp:410] 2_relu3 <- 2_conv3
I0126 21:28:30.225612 24822 net.cpp:357] 2_relu3 -> 2_conv3 (in-place)
I0126 21:28:30.225616 24822 net.cpp:120] Setting up 2_relu3
I0126 21:28:30.225621 24822 net.cpp:127] Top shape: 100 64 8 8 (409600)
I0126 21:28:30.225625 24822 layer_factory.hpp:74] Creating layer 2_pool3
I0126 21:28:30.225630 24822 net.cpp:90] Creating Layer 2_pool3
I0126 21:28:30.225632 24822 net.cpp:410] 2_pool3 <- 2_conv3
I0126 21:28:30.225636 24822 net.cpp:368] 2_pool3 -> 2_pool3
I0126 21:28:30.225641 24822 net.cpp:120] Setting up 2_pool3
I0126 21:28:30.225647 24822 net.cpp:127] Top shape: 100 64 4 4 (102400)
I0126 21:28:30.225651 24822 layer_factory.hpp:74] Creating layer 2_ip1
I0126 21:28:30.225656 24822 net.cpp:90] Creating Layer 2_ip1
I0126 21:28:30.225658 24822 net.cpp:410] 2_ip1 <- 2_pool3
I0126 21:28:30.225663 24822 net.cpp:368] 2_ip1 -> 2_ip1
I0126 21:28:30.225669 24822 net.cpp:120] Setting up 2_ip1
I0126 21:28:30.227679 24822 net.cpp:127] Top shape: 100 64 (6400)
I0126 21:28:30.227687 24822 layer_factory.hpp:74] Creating layer 2_ip2
I0126 21:28:30.227695 24822 net.cpp:90] Creating Layer 2_ip2
I0126 21:28:30.227700 24822 net.cpp:410] 2_ip2 <- 2_ip1
I0126 21:28:30.227705 24822 net.cpp:368] 2_ip2 -> 2_ip2
I0126 21:28:30.227710 24822 net.cpp:120] Setting up 2_ip2
I0126 21:28:30.227740 24822 net.cpp:127] Top shape: 100 10 (1000)
I0126 21:28:30.227746 24822 layer_factory.hpp:74] Creating layer 2_prob
I0126 21:28:30.227761 24822 net.cpp:90] Creating Layer 2_prob
I0126 21:28:30.227764 24822 net.cpp:410] 2_prob <- 2_ip2
I0126 21:28:30.227768 24822 net.cpp:368] 2_prob -> 2_prob
I0126 21:28:30.227773 24822 net.cpp:120] Setting up 2_prob
I0126 21:28:30.227779 24822 net.cpp:127] Top shape: 100 10 (1000)
I0126 21:28:30.227782 24822 layer_factory.hpp:74] Creating layer 2_prob_2_prob_0_split
I0126 21:28:30.227787 24822 net.cpp:90] Creating Layer 2_prob_2_prob_0_split
I0126 21:28:30.227790 24822 net.cpp:410] 2_prob_2_prob_0_split <- 2_prob
I0126 21:28:30.227795 24822 net.cpp:368] 2_prob_2_prob_0_split -> 2_prob_2_prob_0_split_0
I0126 21:28:30.227800 24822 net.cpp:368] 2_prob_2_prob_0_split -> 2_prob_2_prob_0_split_1
I0126 21:28:30.227807 24822 net.cpp:120] Setting up 2_prob_2_prob_0_split
I0126 21:28:30.227813 24822 net.cpp:127] Top shape: 100 10 (1000)
I0126 21:28:30.227818 24822 net.cpp:127] Top shape: 100 10 (1000)
I0126 21:28:30.227821 24822 layer_factory.hpp:74] Creating layer 3_conv1
I0126 21:28:30.227826 24822 net.cpp:90] Creating Layer 3_conv1
I0126 21:28:30.227829 24822 net.cpp:410] 3_conv1 <- data_cifar_0_split_2
I0126 21:28:30.227835 24822 net.cpp:368] 3_conv1 -> 3_conv1
I0126 21:28:30.227840 24822 net.cpp:120] Setting up 3_conv1
I0126 21:28:30.227926 24822 net.cpp:127] Top shape: 100 32 32 32 (3276800)
I0126 21:28:30.227933 24822 layer_factory.hpp:74] Creating layer 3_pool1
I0126 21:28:30.227937 24822 net.cpp:90] Creating Layer 3_pool1
I0126 21:28:30.227941 24822 net.cpp:410] 3_pool1 <- 3_conv1
I0126 21:28:30.227944 24822 net.cpp:368] 3_pool1 -> 3_pool1
I0126 21:28:30.227949 24822 net.cpp:120] Setting up 3_pool1
I0126 21:28:30.227955 24822 net.cpp:127] Top shape: 100 32 16 16 (819200)
I0126 21:28:30.227958 24822 layer_factory.hpp:74] Creating layer 3_relu1
I0126 21:28:30.227963 24822 net.cpp:90] Creating Layer 3_relu1
I0126 21:28:30.227967 24822 net.cpp:410] 3_relu1 <- 3_pool1
I0126 21:28:30.227972 24822 net.cpp:357] 3_relu1 -> 3_pool1 (in-place)
I0126 21:28:30.227975 24822 net.cpp:120] Setting up 3_relu1
I0126 21:28:30.227979 24822 net.cpp:127] Top shape: 100 32 16 16 (819200)
I0126 21:28:30.227982 24822 layer_factory.hpp:74] Creating layer 3_conv2
I0126 21:28:30.227989 24822 net.cpp:90] Creating Layer 3_conv2
I0126 21:28:30.227993 24822 net.cpp:410] 3_conv2 <- 3_pool1
I0126 21:28:30.227998 24822 net.cpp:368] 3_conv2 -> 3_conv2
I0126 21:28:30.228003 24822 net.cpp:120] Setting up 3_conv2
I0126 21:28:30.228792 24822 net.cpp:127] Top shape: 100 32 16 16 (819200)
I0126 21:28:30.228801 24822 layer_factory.hpp:74] Creating layer 3_relu2
I0126 21:28:30.228804 24822 net.cpp:90] Creating Layer 3_relu2
I0126 21:28:30.228807 24822 net.cpp:410] 3_relu2 <- 3_conv2
I0126 21:28:30.228811 24822 net.cpp:357] 3_relu2 -> 3_conv2 (in-place)
I0126 21:28:30.228816 24822 net.cpp:120] Setting up 3_relu2
I0126 21:28:30.228821 24822 net.cpp:127] Top shape: 100 32 16 16 (819200)
I0126 21:28:30.228823 24822 layer_factory.hpp:74] Creating layer 3_pool2
I0126 21:28:30.228829 24822 net.cpp:90] Creating Layer 3_pool2
I0126 21:28:30.228832 24822 net.cpp:410] 3_pool2 <- 3_conv2
I0126 21:28:30.228837 24822 net.cpp:368] 3_pool2 -> 3_pool2
I0126 21:28:30.228842 24822 net.cpp:120] Setting up 3_pool2
I0126 21:28:30.228847 24822 net.cpp:127] Top shape: 100 32 8 8 (204800)
I0126 21:28:30.228849 24822 layer_factory.hpp:74] Creating layer 3_conv3
I0126 21:28:30.228855 24822 net.cpp:90] Creating Layer 3_conv3
I0126 21:28:30.228858 24822 net.cpp:410] 3_conv3 <- 3_pool2
I0126 21:28:30.228863 24822 net.cpp:368] 3_conv3 -> 3_conv3
I0126 21:28:30.228868 24822 net.cpp:120] Setting up 3_conv3
I0126 21:28:30.230460 24822 net.cpp:127] Top shape: 100 64 8 8 (409600)
I0126 21:28:30.230469 24822 layer_factory.hpp:74] Creating layer 3_relu3
I0126 21:28:30.230474 24822 net.cpp:90] Creating Layer 3_relu3
I0126 21:28:30.230478 24822 net.cpp:410] 3_relu3 <- 3_conv3
I0126 21:28:30.230484 24822 net.cpp:357] 3_relu3 -> 3_conv3 (in-place)
I0126 21:28:30.230489 24822 net.cpp:120] Setting up 3_relu3
I0126 21:28:30.230492 24822 net.cpp:127] Top shape: 100 64 8 8 (409600)
I0126 21:28:30.230505 24822 layer_factory.hpp:74] Creating layer 3_pool3
I0126 21:28:30.230509 24822 net.cpp:90] Creating Layer 3_pool3
I0126 21:28:30.230512 24822 net.cpp:410] 3_pool3 <- 3_conv3
I0126 21:28:30.230517 24822 net.cpp:368] 3_pool3 -> 3_pool3
I0126 21:28:30.230522 24822 net.cpp:120] Setting up 3_pool3
I0126 21:28:30.230527 24822 net.cpp:127] Top shape: 100 64 4 4 (102400)
I0126 21:28:30.230530 24822 layer_factory.hpp:74] Creating layer 3_ip1
I0126 21:28:30.230537 24822 net.cpp:90] Creating Layer 3_ip1
I0126 21:28:30.230540 24822 net.cpp:410] 3_ip1 <- 3_pool3
I0126 21:28:30.230545 24822 net.cpp:368] 3_ip1 -> 3_ip1
I0126 21:28:30.230551 24822 net.cpp:120] Setting up 3_ip1
I0126 21:28:30.232556 24822 net.cpp:127] Top shape: 100 64 (6400)
I0126 21:28:30.232563 24822 layer_factory.hpp:74] Creating layer 3_ip2
I0126 21:28:30.232568 24822 net.cpp:90] Creating Layer 3_ip2
I0126 21:28:30.232573 24822 net.cpp:410] 3_ip2 <- 3_ip1
I0126 21:28:30.232578 24822 net.cpp:368] 3_ip2 -> 3_ip2
I0126 21:28:30.232583 24822 net.cpp:120] Setting up 3_ip2
I0126 21:28:30.232614 24822 net.cpp:127] Top shape: 100 10 (1000)
I0126 21:28:30.232620 24822 layer_factory.hpp:74] Creating layer 3_prob
I0126 21:28:30.232625 24822 net.cpp:90] Creating Layer 3_prob
I0126 21:28:30.232627 24822 net.cpp:410] 3_prob <- 3_ip2
I0126 21:28:30.232632 24822 net.cpp:368] 3_prob -> 3_prob
I0126 21:28:30.232637 24822 net.cpp:120] Setting up 3_prob
I0126 21:28:30.232643 24822 net.cpp:127] Top shape: 100 10 (1000)
I0126 21:28:30.232646 24822 layer_factory.hpp:74] Creating layer 3_prob_3_prob_0_split
I0126 21:28:30.232650 24822 net.cpp:90] Creating Layer 3_prob_3_prob_0_split
I0126 21:28:30.232653 24822 net.cpp:410] 3_prob_3_prob_0_split <- 3_prob
I0126 21:28:30.232657 24822 net.cpp:368] 3_prob_3_prob_0_split -> 3_prob_3_prob_0_split_0
I0126 21:28:30.232664 24822 net.cpp:368] 3_prob_3_prob_0_split -> 3_prob_3_prob_0_split_1
I0126 21:28:30.232669 24822 net.cpp:120] Setting up 3_prob_3_prob_0_split
I0126 21:28:30.232674 24822 net.cpp:127] Top shape: 100 10 (1000)
I0126 21:28:30.232678 24822 net.cpp:127] Top shape: 100 10 (1000)
I0126 21:28:30.232681 24822 layer_factory.hpp:74] Creating layer 4_conv1
I0126 21:28:30.232686 24822 net.cpp:90] Creating Layer 4_conv1
I0126 21:28:30.232691 24822 net.cpp:410] 4_conv1 <- data_cifar_0_split_3
I0126 21:28:30.232695 24822 net.cpp:368] 4_conv1 -> 4_conv1
I0126 21:28:30.232702 24822 net.cpp:120] Setting up 4_conv1
I0126 21:28:30.232786 24822 net.cpp:127] Top shape: 100 32 32 32 (3276800)
I0126 21:28:30.232794 24822 layer_factory.hpp:74] Creating layer 4_pool1
I0126 21:28:30.232797 24822 net.cpp:90] Creating Layer 4_pool1
I0126 21:28:30.232800 24822 net.cpp:410] 4_pool1 <- 4_conv1
I0126 21:28:30.232805 24822 net.cpp:368] 4_pool1 -> 4_pool1
I0126 21:28:30.232810 24822 net.cpp:120] Setting up 4_pool1
I0126 21:28:30.232816 24822 net.cpp:127] Top shape: 100 32 16 16 (819200)
I0126 21:28:30.232820 24822 layer_factory.hpp:74] Creating layer 4_relu1
I0126 21:28:30.232823 24822 net.cpp:90] Creating Layer 4_relu1
I0126 21:28:30.232827 24822 net.cpp:410] 4_relu1 <- 4_pool1
I0126 21:28:30.232832 24822 net.cpp:357] 4_relu1 -> 4_pool1 (in-place)
I0126 21:28:30.232836 24822 net.cpp:120] Setting up 4_relu1
I0126 21:28:30.232841 24822 net.cpp:127] Top shape: 100 32 16 16 (819200)
I0126 21:28:30.232843 24822 layer_factory.hpp:74] Creating layer 4_conv2
I0126 21:28:30.232848 24822 net.cpp:90] Creating Layer 4_conv2
I0126 21:28:30.232851 24822 net.cpp:410] 4_conv2 <- 4_pool1
I0126 21:28:30.232856 24822 net.cpp:368] 4_conv2 -> 4_conv2
I0126 21:28:30.232861 24822 net.cpp:120] Setting up 4_conv2
I0126 21:28:30.233654 24822 net.cpp:127] Top shape: 100 32 16 16 (819200)
I0126 21:28:30.233665 24822 layer_factory.hpp:74] Creating layer 4_relu2
I0126 21:28:30.233671 24822 net.cpp:90] Creating Layer 4_relu2
I0126 21:28:30.233675 24822 net.cpp:410] 4_relu2 <- 4_conv2
I0126 21:28:30.233680 24822 net.cpp:357] 4_relu2 -> 4_conv2 (in-place)
I0126 21:28:30.233685 24822 net.cpp:120] Setting up 4_relu2
I0126 21:28:30.233688 24822 net.cpp:127] Top shape: 100 32 16 16 (819200)
I0126 21:28:30.233698 24822 layer_factory.hpp:74] Creating layer 4_pool2
I0126 21:28:30.233703 24822 net.cpp:90] Creating Layer 4_pool2
I0126 21:28:30.233706 24822 net.cpp:410] 4_pool2 <- 4_conv2
I0126 21:28:30.233712 24822 net.cpp:368] 4_pool2 -> 4_pool2
I0126 21:28:30.233718 24822 net.cpp:120] Setting up 4_pool2
I0126 21:28:30.233723 24822 net.cpp:127] Top shape: 100 32 8 8 (204800)
I0126 21:28:30.233726 24822 layer_factory.hpp:74] Creating layer 4_conv3
I0126 21:28:30.233732 24822 net.cpp:90] Creating Layer 4_conv3
I0126 21:28:30.233736 24822 net.cpp:410] 4_conv3 <- 4_pool2
I0126 21:28:30.233741 24822 net.cpp:368] 4_conv3 -> 4_conv3
I0126 21:28:30.233747 24822 net.cpp:120] Setting up 4_conv3
I0126 21:28:30.235317 24822 net.cpp:127] Top shape: 100 64 8 8 (409600)
I0126 21:28:30.235324 24822 layer_factory.hpp:74] Creating layer 4_relu3
I0126 21:28:30.235330 24822 net.cpp:90] Creating Layer 4_relu3
I0126 21:28:30.235333 24822 net.cpp:410] 4_relu3 <- 4_conv3
I0126 21:28:30.235337 24822 net.cpp:357] 4_relu3 -> 4_conv3 (in-place)
I0126 21:28:30.235342 24822 net.cpp:120] Setting up 4_relu3
I0126 21:28:30.235347 24822 net.cpp:127] Top shape: 100 64 8 8 (409600)
I0126 21:28:30.235349 24822 layer_factory.hpp:74] Creating layer 4_pool3
I0126 21:28:30.235354 24822 net.cpp:90] Creating Layer 4_pool3
I0126 21:28:30.235357 24822 net.cpp:410] 4_pool3 <- 4_conv3
I0126 21:28:30.235361 24822 net.cpp:368] 4_pool3 -> 4_pool3
I0126 21:28:30.235366 24822 net.cpp:120] Setting up 4_pool3
I0126 21:28:30.235373 24822 net.cpp:127] Top shape: 100 64 4 4 (102400)
I0126 21:28:30.235375 24822 layer_factory.hpp:74] Creating layer 4_ip1
I0126 21:28:30.235380 24822 net.cpp:90] Creating Layer 4_ip1
I0126 21:28:30.235383 24822 net.cpp:410] 4_ip1 <- 4_pool3
I0126 21:28:30.235388 24822 net.cpp:368] 4_ip1 -> 4_ip1
I0126 21:28:30.235394 24822 net.cpp:120] Setting up 4_ip1
I0126 21:28:30.237423 24822 net.cpp:127] Top shape: 100 64 (6400)
I0126 21:28:30.237432 24822 layer_factory.hpp:74] Creating layer 4_ip2
I0126 21:28:30.237438 24822 net.cpp:90] Creating Layer 4_ip2
I0126 21:28:30.237442 24822 net.cpp:410] 4_ip2 <- 4_ip1
I0126 21:28:30.237448 24822 net.cpp:368] 4_ip2 -> 4_ip2
I0126 21:28:30.237453 24822 net.cpp:120] Setting up 4_ip2
I0126 21:28:30.237483 24822 net.cpp:127] Top shape: 100 10 (1000)
I0126 21:28:30.237488 24822 layer_factory.hpp:74] Creating layer 4_prob
I0126 21:28:30.237493 24822 net.cpp:90] Creating Layer 4_prob
I0126 21:28:30.237498 24822 net.cpp:410] 4_prob <- 4_ip2
I0126 21:28:30.237501 24822 net.cpp:368] 4_prob -> 4_prob
I0126 21:28:30.237506 24822 net.cpp:120] Setting up 4_prob
I0126 21:28:30.237512 24822 net.cpp:127] Top shape: 100 10 (1000)
I0126 21:28:30.237515 24822 layer_factory.hpp:74] Creating layer 4_prob_4_prob_0_split
I0126 21:28:30.237519 24822 net.cpp:90] Creating Layer 4_prob_4_prob_0_split
I0126 21:28:30.237524 24822 net.cpp:410] 4_prob_4_prob_0_split <- 4_prob
I0126 21:28:30.237527 24822 net.cpp:368] 4_prob_4_prob_0_split -> 4_prob_4_prob_0_split_0
I0126 21:28:30.237532 24822 net.cpp:368] 4_prob_4_prob_0_split -> 4_prob_4_prob_0_split_1
I0126 21:28:30.237537 24822 net.cpp:120] Setting up 4_prob_4_prob_0_split
I0126 21:28:30.237542 24822 net.cpp:127] Top shape: 100 10 (1000)
I0126 21:28:30.237547 24822 net.cpp:127] Top shape: 100 10 (1000)
I0126 21:28:30.237550 24822 layer_factory.hpp:74] Creating layer 1_accuracy
I0126 21:28:30.237556 24822 net.cpp:90] Creating Layer 1_accuracy
I0126 21:28:30.237560 24822 net.cpp:410] 1_accuracy <- 1_prob_1_prob_0_split_0
I0126 21:28:30.237563 24822 net.cpp:410] 1_accuracy <- label_cifar_1_split_0
I0126 21:28:30.237568 24822 net.cpp:368] 1_accuracy -> 1_accuracy
I0126 21:28:30.237572 24822 net.cpp:120] Setting up 1_accuracy
…
