…
I0520 08:58:58.780704 11183 net.cpp:287] The NetState phase (0) differed from the phase (1) specified by a rule in layer accuracy
I0520 08:58:58.780891 11183 net.cpp:42] Initializing net from parameters: 
name: "CIFAR10_quick"
state {
  phase: TRAIN
}
layer {
  name: "cifar"
  type: "Data"
  top: "data"
  top: "label"
  include {
    phase: TRAIN
  }
  transform_param {
    mean_file: "/home/mike/ml_lab/mod/MCL_Caffe/examples/cifar10/mean.binaryproto"
  }
  data_param {
    source: "/home/mike/ml_lab/mod/MCL_Caffe/examples/cifar10/cifar10_train_lmdb"
    batch_size: 350
    backend: LMDB
  }
}
layer {
  name: "1_conv1"
  type: "Convolution"
  bottom: "data"
  top: "1_conv1"
  param {
    lr_mult: 1
  }
  param {
    lr_mult: 2
  }
  convolution_param {
    num_output: 32
    pad: 2
    kernel_size: 5
    stride: 1
    weight_filler {
      type: "gaussian"
      std: 0.0001
    }
    bias_filler {
      type: "constant"
    }
  }
}
layer {
  name: "1_pool1"
  type: "Pooling"
  bottom: "1_conv1"
  top: "1_pool1"
  pooling_param {
    pool: MAX
    kernel_size: 3
    stride: 2
  }
}
layer {
  name: "1_relu1"
  type: "ReLU"
  bottom: "1_pool1"
  top: "1_pool1"
}
layer {
  name: "1_conv2"
  type: "Convolution"
  bottom: "1_pool1"
  top: "1_conv2"
  param {
    lr_mult: 1
  }
  param {
    lr_mult: 2
  }
  convolution_param {
    num_output: 32
    pad: 2
    kernel_size: 5
    stride: 1
    weight_filler {
      type: "gaussian"
      std: 0.01
    }
    bias_filler {
      type: "constant"
    }
  }
}
layer {
  name: "1_relu2"
  type: "ReLU"
  bottom: "1_conv2"
  top: "1_conv2"
}
layer {
  name: "1_pool2"
  type: "Pooling"
  bottom: "1_conv2"
  top: "1_pool2"
  pooling_param {
    pool: AVE
    kernel_size: 3
    stride: 2
  }
}
layer {
  name: "1_conv3"
  type: "Convolution"
  bottom: "1_pool2"
  top: "1_conv3"
  param {
    lr_mult: 1
  }
  param {
    lr_mult: 2
  }
  convolution_param {
    num_output: 64
    pad: 2
    kernel_size: 5
    stride: 1
    weight_filler {
      type: "gaussian"
      std: 0.01
    }
    bias_filler {
      type: "constant"
    }
  }
}
layer {
  name: "1_relu3"
  type: "ReLU"
  bottom: "1_conv3"
  top: "1_conv3"
}
layer {
  name: "1_pool3"
  type: "Pooling"
  bottom: "1_conv3"
  top: "1_pool3"
  pooling_param {
    pool: AVE
    kernel_size: 3
    stride: 2
  }
}
layer {
  name: "1_ip1"
  type: "InnerProduct"
  bottom: "1_pool3"
  top: "1_ip1"
  param {
    lr_mult: 1
  }
  param {
    lr_mult: 2
  }
  inner_product_param {
    num_output: 64
    weight_filler {
      type: "gaussian"
      std: 0.1
    }
    bias_filler {
      type: "constant"
    }
  }
}
layer {
  name: "1_ip2"
  type: "InnerProduct"
  bottom: "1_ip1"
  top: "1_ip2"
  param {
    lr_mult: 1
  }
  param {
    lr_mult: 2
  }
  inner_product_param {
    num_output: 10
    weight_filler {
      type: "gaussian"
      std: 0.1
    }
    bias_filler {
      type: "constant"
    }
  }
}
layer {
  name: "1_prob"
  type: "Softmax"
  bottom: "1_ip2"
  top: "1_prob"
}
layer {
  name: "2_conv1"
  type: "Convolution"
  bottom: "data"
  top: "2_conv1"
  param {
    lr_mult: 1
  }
  param {
    lr_mult: 2
  }
  convolution_param {
    num_output: 32
    pad: 2
    kernel_size: 5
    stride: 1
    weight_filler {
      type: "gaussian"
      std: 0.0001
    }
    bias_filler {
      type: "constant"
    }
  }
}
layer {
  name: "2_pool1"
  type: "Pooling"
  bottom: "2_conv1"
  top: "2_pool1"
  pooling_param {
    pool: MAX
    kernel_size: 3
    stride: 2
  }
}
layer {
  name: "2_relu1"
  type: "ReLU"
  bottom: "2_pool1"
  top: "2_pool1"
}
layer {
  name: "2_conv2"
  type: "Convolution"
  bottom: "2_pool1"
  top: "2_conv2"
  param {
    lr_mult: 1
  }
  param {
    lr_mult: 2
  }
  convolution_param {
    num_output: 32
    pad: 2
    kernel_size: 5
    stride: 1
    weight_filler {
      type: "gaussian"
      std: 0.01
    }
    bias_filler {
      type: "constant"
    }
  }
}
layer {
  name: "2_relu2"
  type: "ReLU"
  bottom: "2_conv2"
  top: "2_conv2"
}
layer {
  name: "2_pool2"
  type: "Pooling"
  bottom: "2_conv2"
  top: "2_pool2"
  pooling_param {
    pool: AVE
    kernel_size: 3
    stride: 2
  }
}
layer {
  name: "2_conv3"
  type: "Convolution"
  bottom: "2_pool2"
  top: "2_conv3"
  param {
    lr_mult: 1
  }
  param {
    lr_mult: 2
  }
  convolution_param {
    num_output: 64
    pad: 2
    kernel_size: 5
    stride: 1
    weight_filler {
      type: "gaussian"
      std: 0.01
    }
    bias_filler {
      type: "constant"
    }
  }
}
layer {
  name: "2_relu3"
  type: "ReLU"
  bottom: "2_conv3"
  top: "2_conv3"
}
layer {
  name: "2_pool3"
  type: "Pooling"
  bottom: "2_conv3"
  top: "2_pool3"
  pooling_param {
    pool: AVE
    kernel_size: 3
    stride: 2
  }
}
layer {
  name: "2_ip1"
  type: "InnerProduct"
  bottom: "2_pool3"
  top: "2_ip1"
  param {
    lr_mult: 1
  }
  param {
    lr_mult: 2
  }
  inner_product_param {
    num_output: 64
    weight_filler {
      type: "gaussian"
      std: 0.1
    }
    bias_filler {
      type: "constant"
    }
  }
}
layer {
  name: "2_ip2"
  type: "InnerProduct"
  bottom: "2_ip1"
  top: "2_ip2"
  param {
    lr_mult: 1
  }
  param {
    lr_mult: 2
  }
  inner_product_param {
    num_output: 10
    weight_filler {
      type: "gaussian"
      std: 0.1
    }
    bias_filler {
      type: "constant"
    }
  }
}
layer {
  name: "2_prob"
  type: "Softmax"
  bottom: "2_ip2"
  top: "2_prob"
}
layer {
  name: "3_conv1"
  type: "Convolution"
  bottom: "data"
  top: "3_conv1"
  param {
    lr_mult: 1
  }
  param {
    lr_mult: 2
  }
  convolution_param {
    num_output: 32
    pad: 2
    kernel_size: 5
    stride: 1
    weight_filler {
      type: "gaussian"
      std: 0.0001
    }
    bias_filler {
      type: "constant"
    }
  }
}
layer {
  name: "3_pool1"
  type: "Pooling"
  bottom: "3_conv1"
  top: "3_pool1"
  pooling_param {
    pool: MAX
    kernel_size: 3
    stride: 2
  }
}
layer {
  name: "3_relu1"
  type: "ReLU"
  bottom: "3_pool1"
  top: "3_pool1"
}
layer {
  name: "3_conv2"
  type: "Convolution"
  bottom: "3_pool1"
  top: "3_conv2"
  param {
    lr_mult: 1
  }
  param {
    lr_mult: 2
  }
  convolution_param {
    num_output: 32
    pad: 2
    kernel_size: 5
    stride: 1
    weight_filler {
      type: "gaussian"
      std: 0.01
    }
    bias_filler {
      type: "constant"
    }
  }
}
layer {
  name: "3_relu2"
  type: "ReLU"
  bottom: "3_conv2"
  top: "3_conv2"
}
layer {
  name: "3_pool2"
  type: "Pooling"
  bottom: "3_conv2"
  top: "3_pool2"
  pooling_param {
    pool: AVE
    kernel_size: 3
    stride: 2
  }
}
layer {
  name: "3_conv3"
  type: "Convolution"
  bottom: "3_pool2"
  top: "3_conv3"
  param {
    lr_mult: 1
  }
  param {
    lr_mult: 2
  }
  convolution_param {
    num_output: 64
    pad: 2
    kernel_size: 5
    stride: 1
    weight_filler {
      type: "gaussian"
      std: 0.01
    }
    bias_filler {
      type: "constant"
    }
  }
}
layer {
  name: "3_relu3"
  type: "ReLU"
  bottom: "3_conv3"
  top: "3_conv3"
}
layer {
  name: "3_pool3"
  type: "Pooling"
  bottom: "3_conv3"
  top: "3_pool3"
  pooling_param {
    pool: AVE
    kernel_size: 3
    stride: 2
  }
}
layer {
  name: "3_ip1"
  type: "InnerProduct"
  bottom: "3_pool3"
  top: "3_ip1"
  param {
    lr_mult: 1
  }
  param {
    lr_mult: 2
  }
  inner_product_param {
    num_output: 64
    weight_filler {
      type: "gaussian"
      std: 0.1
    }
    bias_filler {
      type: "constant"
    }
  }
}
layer {
  name: "3_ip2"
  type: "InnerProduct"
  bottom: "3_ip1"
  top: "3_ip2"
  param {
    lr_mult: 1
  }
  param {
    lr_mult: 2
  }
  inner_product_param {
    num_output: 10
    weight_filler {
      type: "gaussian"
      std: 0.1
    }
    bias_filler {
      type: "constant"
    }
  }
}
layer {
  name: "3_prob"
  type: "Softmax"
  bottom: "3_ip2"
  top: "3_prob"
}
layer {
  name: "4_conv1"
  type: "Convolution"
  bottom: "data"
  top: "4_conv1"
  param {
    lr_mult: 1
  }
  param {
    lr_mult: 2
  }
  convolution_param {
    num_output: 32
    pad: 2
    kernel_size: 5
    stride: 1
    weight_filler {
      type: "gaussian"
      std: 0.0001
    }
    bias_filler {
      type: "constant"
    }
  }
}
layer {
  name: "4_pool1"
  type: "Pooling"
  bottom: "4_conv1"
  top: "4_pool1"
  pooling_param {
    pool: MAX
    kernel_size: 3
    stride: 2
  }
}
layer {
  name: "4_relu1"
  type: "ReLU"
  bottom: "4_pool1"
  top: "4_pool1"
}
layer {
  name: "4_conv2"
  type: "Convolution"
  bottom: "4_pool1"
  top: "4_conv2"
  param {
    lr_mult: 1
  }
  param {
    lr_mult: 2
  }
  convolution_param {
    num_output: 32
    pad: 2
    kernel_size: 5
    stride: 1
    weight_filler {
      type: "gaussian"
      std: 0.01
    }
    bias_filler {
      type: "constant"
    }
  }
}
layer {
  name: "4_relu2"
  type: "ReLU"
  bottom: "4_conv2"
  top: "4_conv2"
}
layer {
  name: "4_pool2"
  type: "Pooling"
  bottom: "4_conv2"
  top: "4_pool2"
  pooling_param {
    pool: AVE
    kernel_size: 3
    stride: 2
  }
}
layer {
  name: "4_conv3"
  type: "Convolution"
  bottom: "4_pool2"
  top: "4_conv3"
  param {
    lr_mult: 1
  }
  param {
    lr_mult: 2
  }
  convolution_param {
    num_output: 64
    pad: 2
    kernel_size: 5
    stride: 1
    weight_filler {
      type: "gaussian"
      std: 0.01
    }
    bias_filler {
      type: "constant"
    }
  }
}
layer {
  name: "4_relu3"
  type: "ReLU"
  bottom: "4_conv3"
  top: "4_conv3"
}
layer {
  name: "4_pool3"
  type: "Pooling"
  bottom: "4_conv3"
  top: "4_pool3"
  pooling_param {
    pool: AVE
    kernel_size: 3
    stride: 2
  }
}
layer {
  name: "4_ip1"
  type: "InnerProduct"
  bottom: "4_pool3"
  top: "4_ip1"
  param {
    lr_mult: 1
  }
  param {
    lr_mult: 2
  }
  inner_product_param {
    num_output: 64
    weight_filler {
      type: "gaussian"
      std: 0.1
    }
    bias_filler {
      type: "constant"
    }
  }
}
layer {
  name: "4_ip2"
  type: "InnerProduct"
  bottom: "4_ip1"
  top: "4_ip2"
  param {
    lr_mult: 1
  }
  param {
    lr_mult: 2
  }
  inner_product_param {
    num_output: 10
    weight_filler {
      type: "gaussian"
      std: 0.1
    }
    bias_filler {
      type: "constant"
    }
  }
}
layer {
  name: "4_prob"
  type: "Softmax"
  bottom: "4_ip2"
  top: "4_prob"
}
layer {
  name: "1_remove"
  type: "Remove"
  bottom: "1_prob"
  bottom: "label"
  top: "1_remove_pre"
  include {
    phase: TRAIN
  }
}
layer {
  name: "1_remove_softmax"
  type: "Softmax"
  bottom: "1_remove_pre"
  top: "1_remove"
  include {
    phase: TRAIN
  }
}
layer {
  name: "2_remove"
  type: "Remove"
  bottom: "2_prob"
  bottom: "label"
  top: "2_remove_pre"
  include {
    phase: TRAIN
  }
}
layer {
  name: "2_remove_softmax"
  type: "Softmax"
  bottom: "2_remove_pre"
  top: "2_remove"
  include {
    phase: TRAIN
  }
}
layer {
  name: "3_remove"
  type: "Remove"
  bottom: "3_prob"
  bottom: "label"
  top: "3_remove_pre"
  include {
    phase: TRAIN
  }
}
layer {
  name: "3_remove_softmax"
  type: "Softmax"
  bottom: "3_remove_pre"
  top: "3_remove"
  include {
    phase: TRAIN
  }
}
layer {
  name: "4_remove"
  type: "Remove"
  bottom: "4_prob"
  bottom: "label"
  top: "4_remove_pre"
  include {
    phase: TRAIN
  }
}
layer {
  name: "4_remove_softmax"
  type: "Softmax"
  bottom: "4_remove_pre"
  top: "4_remove"
  include {
    phase: TRAIN
  }
}
layer {
  name: "div"
  type: "Python"
  bottom: "1_remove"
  bottom: "2_remove"
  bottom: "3_remove"
  bottom: "4_remove"
  top: "1_div"
  top: "2_div"
  top: "3_div"
  top: "4_div"
  include {
    phase: TRAIN
  }
  python_param {
    module: "calc_jsd_layer"
    layer: "CalcJSDLayer"
  }
}
layer {
  name: "loss"
  type: "MCLJSD"
  bottom: "1_prob"
  bottom: "2_prob"
  bottom: "3_prob"
  bottom: "4_prob"
  bottom: "label"
  bottom: "1_div"
  bottom: "2_div"
  bottom: "3_div"
  bottom: "4_div"
  top: "multiple-output loss"
  top: "jsd-diversity"
  loss_weight: 1
  loss_weight: 1
  include {
    phase: TRAIN
  }
}
I0520 08:58:58.781102 11183 layer_factory.hpp:74] Creating layer cifar
I0520 08:58:58.781116 11183 net.cpp:90] Creating Layer cifar
I0520 08:58:58.781121 11183 net.cpp:368] cifar -> data
I0520 08:58:58.781138 11183 net.cpp:368] cifar -> label
I0520 08:58:58.781146 11183 net.cpp:120] Setting up cifar
I0520 08:58:58.781188 11183 db.cpp:34] Opened lmdb /home/mike/ml_lab/mod/MCL_Caffe/examples/cifar10/cifar10_train_lmdb
I0520 08:58:58.781222 11183 data_layer.cpp:67] output data size: 350,3,32,32
I0520 08:58:58.781229 11183 data_transformer.cpp:22] Loading mean file from: /home/mike/ml_lab/mod/MCL_Caffe/examples/cifar10/mean.binaryproto
I0520 08:58:58.781888 11183 net.cpp:127] Top shape: 350 3 32 32 (1075200)
I0520 08:58:58.781893 11183 net.cpp:127] Top shape: 350 (350)
I0520 08:58:58.781895 11183 layer_factory.hpp:74] Creating layer data_cifar_0_split
I0520 08:58:58.781903 11183 net.cpp:90] Creating Layer data_cifar_0_split
I0520 08:58:58.781905 11183 net.cpp:410] data_cifar_0_split <- data
I0520 08:58:58.781925 11183 net.cpp:368] data_cifar_0_split -> data_cifar_0_split_0
I0520 08:58:58.781930 11183 net.cpp:368] data_cifar_0_split -> data_cifar_0_split_1
I0520 08:58:58.781934 11183 net.cpp:368] data_cifar_0_split -> data_cifar_0_split_2
I0520 08:58:58.781939 11183 net.cpp:368] data_cifar_0_split -> data_cifar_0_split_3
I0520 08:58:58.781941 11183 net.cpp:120] Setting up data_cifar_0_split
I0520 08:58:58.781946 11183 net.cpp:127] Top shape: 350 3 32 32 (1075200)
I0520 08:58:58.781949 11183 net.cpp:127] Top shape: 350 3 32 32 (1075200)
I0520 08:58:58.781950 11183 net.cpp:127] Top shape: 350 3 32 32 (1075200)
I0520 08:58:58.781954 11183 net.cpp:127] Top shape: 350 3 32 32 (1075200)
I0520 08:58:58.781955 11183 layer_factory.hpp:74] Creating layer label_cifar_1_split
I0520 08:58:58.781958 11183 net.cpp:90] Creating Layer label_cifar_1_split
I0520 08:58:58.781960 11183 net.cpp:410] label_cifar_1_split <- label
I0520 08:58:58.781962 11183 net.cpp:368] label_cifar_1_split -> label_cifar_1_split_0
I0520 08:58:58.781966 11183 net.cpp:368] label_cifar_1_split -> label_cifar_1_split_1
I0520 08:58:58.781970 11183 net.cpp:368] label_cifar_1_split -> label_cifar_1_split_2
I0520 08:58:58.781973 11183 net.cpp:368] label_cifar_1_split -> label_cifar_1_split_3
I0520 08:58:58.781977 11183 net.cpp:368] label_cifar_1_split -> label_cifar_1_split_4
I0520 08:58:58.781980 11183 net.cpp:120] Setting up label_cifar_1_split
I0520 08:58:58.781983 11183 net.cpp:127] Top shape: 350 (350)
I0520 08:58:58.781985 11183 net.cpp:127] Top shape: 350 (350)
I0520 08:58:58.781987 11183 net.cpp:127] Top shape: 350 (350)
I0520 08:58:58.781991 11183 net.cpp:127] Top shape: 350 (350)
I0520 08:58:58.781992 11183 net.cpp:127] Top shape: 350 (350)
I0520 08:58:58.781994 11183 layer_factory.hpp:74] Creating layer 1_conv1
I0520 08:58:58.781998 11183 net.cpp:90] Creating Layer 1_conv1
I0520 08:58:58.782001 11183 net.cpp:410] 1_conv1 <- data_cifar_0_split_0
I0520 08:58:58.782004 11183 net.cpp:368] 1_conv1 -> 1_conv1
I0520 08:58:58.782011 11183 net.cpp:120] Setting up 1_conv1
I0520 08:58:58.782426 11183 net.cpp:127] Top shape: 350 32 32 32 (11468800)
I0520 08:58:58.782443 11183 layer_factory.hpp:74] Creating layer 1_pool1
I0520 08:58:58.782449 11183 net.cpp:90] Creating Layer 1_pool1
I0520 08:58:58.782450 11183 net.cpp:410] 1_pool1 <- 1_conv1
I0520 08:58:58.782454 11183 net.cpp:368] 1_pool1 -> 1_pool1
I0520 08:58:58.782459 11183 net.cpp:120] Setting up 1_pool1
I0520 08:58:58.782467 11183 net.cpp:127] Top shape: 350 32 16 16 (2867200)
I0520 08:58:58.782470 11183 layer_factory.hpp:74] Creating layer 1_relu1
I0520 08:58:58.782474 11183 net.cpp:90] Creating Layer 1_relu1
I0520 08:58:58.782475 11183 net.cpp:410] 1_relu1 <- 1_pool1
I0520 08:58:58.782480 11183 net.cpp:357] 1_relu1 -> 1_pool1 (in-place)
I0520 08:58:58.782481 11183 net.cpp:120] Setting up 1_relu1
I0520 08:58:58.782486 11183 net.cpp:127] Top shape: 350 32 16 16 (2867200)
I0520 08:58:58.782488 11183 layer_factory.hpp:74] Creating layer 1_conv2
I0520 08:58:58.782491 11183 net.cpp:90] Creating Layer 1_conv2
I0520 08:58:58.782493 11183 net.cpp:410] 1_conv2 <- 1_pool1
I0520 08:58:58.782496 11183 net.cpp:368] 1_conv2 -> 1_conv2
I0520 08:58:58.782500 11183 net.cpp:120] Setting up 1_conv2
I0520 08:58:58.783077 11183 net.cpp:127] Top shape: 350 32 16 16 (2867200)
I0520 08:58:58.783082 11183 layer_factory.hpp:74] Creating layer 1_relu2
I0520 08:58:58.783085 11183 net.cpp:90] Creating Layer 1_relu2
I0520 08:58:58.783087 11183 net.cpp:410] 1_relu2 <- 1_conv2
I0520 08:58:58.783090 11183 net.cpp:357] 1_relu2 -> 1_conv2 (in-place)
I0520 08:58:58.783095 11183 net.cpp:120] Setting up 1_relu2
I0520 08:58:58.783098 11183 net.cpp:127] Top shape: 350 32 16 16 (2867200)
I0520 08:58:58.783100 11183 layer_factory.hpp:74] Creating layer 1_pool2
I0520 08:58:58.783103 11183 net.cpp:90] Creating Layer 1_pool2
I0520 08:58:58.783105 11183 net.cpp:410] 1_pool2 <- 1_conv2
I0520 08:58:58.783108 11183 net.cpp:368] 1_pool2 -> 1_pool2
I0520 08:58:58.783112 11183 net.cpp:120] Setting up 1_pool2
I0520 08:58:58.783114 11183 net.cpp:127] Top shape: 350 32 8 8 (716800)
I0520 08:58:58.783116 11183 layer_factory.hpp:74] Creating layer 1_conv3
I0520 08:58:58.783121 11183 net.cpp:90] Creating Layer 1_conv3
I0520 08:58:58.783123 11183 net.cpp:410] 1_conv3 <- 1_pool2
I0520 08:58:58.783128 11183 net.cpp:368] 1_conv3 -> 1_conv3
I0520 08:58:58.783130 11183 net.cpp:120] Setting up 1_conv3
I0520 08:58:58.784281 11183 net.cpp:127] Top shape: 350 64 8 8 (1433600)
I0520 08:58:58.784286 11183 layer_factory.hpp:74] Creating layer 1_relu3
I0520 08:58:58.784289 11183 net.cpp:90] Creating Layer 1_relu3
I0520 08:58:58.784291 11183 net.cpp:410] 1_relu3 <- 1_conv3
I0520 08:58:58.784294 11183 net.cpp:357] 1_relu3 -> 1_conv3 (in-place)
I0520 08:58:58.784296 11183 net.cpp:120] Setting up 1_relu3
I0520 08:58:58.784299 11183 net.cpp:127] Top shape: 350 64 8 8 (1433600)
I0520 08:58:58.784301 11183 layer_factory.hpp:74] Creating layer 1_pool3
I0520 08:58:58.784304 11183 net.cpp:90] Creating Layer 1_pool3
I0520 08:58:58.784306 11183 net.cpp:410] 1_pool3 <- 1_conv3
I0520 08:58:58.784309 11183 net.cpp:368] 1_pool3 -> 1_pool3
I0520 08:58:58.784312 11183 net.cpp:120] Setting up 1_pool3
I0520 08:58:58.784317 11183 net.cpp:127] Top shape: 350 64 4 4 (358400)
I0520 08:58:58.784318 11183 layer_factory.hpp:74] Creating layer 1_ip1
I0520 08:58:58.784322 11183 net.cpp:90] Creating Layer 1_ip1
I0520 08:58:58.784324 11183 net.cpp:410] 1_ip1 <- 1_pool3
I0520 08:58:58.784327 11183 net.cpp:368] 1_ip1 -> 1_ip1
I0520 08:58:58.784332 11183 net.cpp:120] Setting up 1_ip1
I0520 08:58:58.785805 11183 net.cpp:127] Top shape: 350 64 (22400)
I0520 08:58:58.785810 11183 layer_factory.hpp:74] Creating layer 1_ip2
I0520 08:58:58.785815 11183 net.cpp:90] Creating Layer 1_ip2
I0520 08:58:58.785817 11183 net.cpp:410] 1_ip2 <- 1_ip1
I0520 08:58:58.785820 11183 net.cpp:368] 1_ip2 -> 1_ip2
I0520 08:58:58.785823 11183 net.cpp:120] Setting up 1_ip2
I0520 08:58:58.785845 11183 net.cpp:127] Top shape: 350 10 (3500)
I0520 08:58:58.785850 11183 layer_factory.hpp:74] Creating layer 1_prob
I0520 08:58:58.785853 11183 net.cpp:90] Creating Layer 1_prob
I0520 08:58:58.785856 11183 net.cpp:410] 1_prob <- 1_ip2
I0520 08:58:58.785863 11183 net.cpp:368] 1_prob -> 1_prob
I0520 08:58:58.785866 11183 net.cpp:120] Setting up 1_prob
I0520 08:58:58.785872 11183 net.cpp:127] Top shape: 350 10 (3500)
I0520 08:58:58.785874 11183 layer_factory.hpp:74] Creating layer 1_prob_1_prob_0_split
I0520 08:58:58.785878 11183 net.cpp:90] Creating Layer 1_prob_1_prob_0_split
I0520 08:58:58.785881 11183 net.cpp:410] 1_prob_1_prob_0_split <- 1_prob
I0520 08:58:58.785882 11183 net.cpp:368] 1_prob_1_prob_0_split -> 1_prob_1_prob_0_split_0
I0520 08:58:58.785887 11183 net.cpp:368] 1_prob_1_prob_0_split -> 1_prob_1_prob_0_split_1
I0520 08:58:58.785889 11183 net.cpp:120] Setting up 1_prob_1_prob_0_split
I0520 08:58:58.785893 11183 net.cpp:127] Top shape: 350 10 (3500)
I0520 08:58:58.785895 11183 net.cpp:127] Top shape: 350 10 (3500)
I0520 08:58:58.785897 11183 layer_factory.hpp:74] Creating layer 2_conv1
I0520 08:58:58.785902 11183 net.cpp:90] Creating Layer 2_conv1
I0520 08:58:58.785903 11183 net.cpp:410] 2_conv1 <- data_cifar_0_split_1
I0520 08:58:58.785908 11183 net.cpp:368] 2_conv1 -> 2_conv1
I0520 08:58:58.785912 11183 net.cpp:120] Setting up 2_conv1
I0520 08:58:58.785974 11183 net.cpp:127] Top shape: 350 32 32 32 (11468800)
I0520 08:58:58.785979 11183 layer_factory.hpp:74] Creating layer 2_pool1
I0520 08:58:58.785981 11183 net.cpp:90] Creating Layer 2_pool1
I0520 08:58:58.785984 11183 net.cpp:410] 2_pool1 <- 2_conv1
I0520 08:58:58.785986 11183 net.cpp:368] 2_pool1 -> 2_pool1
I0520 08:58:58.785989 11183 net.cpp:120] Setting up 2_pool1
I0520 08:58:58.785993 11183 net.cpp:127] Top shape: 350 32 16 16 (2867200)
I0520 08:58:58.785995 11183 layer_factory.hpp:74] Creating layer 2_relu1
I0520 08:58:58.785998 11183 net.cpp:90] Creating Layer 2_relu1
I0520 08:58:58.786000 11183 net.cpp:410] 2_relu1 <- 2_pool1
I0520 08:58:58.786002 11183 net.cpp:357] 2_relu1 -> 2_pool1 (in-place)
I0520 08:58:58.786005 11183 net.cpp:120] Setting up 2_relu1
I0520 08:58:58.786007 11183 net.cpp:127] Top shape: 350 32 16 16 (2867200)
I0520 08:58:58.786010 11183 layer_factory.hpp:74] Creating layer 2_conv2
I0520 08:58:58.786012 11183 net.cpp:90] Creating Layer 2_conv2
I0520 08:58:58.786015 11183 net.cpp:410] 2_conv2 <- 2_pool1
I0520 08:58:58.786017 11183 net.cpp:368] 2_conv2 -> 2_conv2
I0520 08:58:58.786020 11183 net.cpp:120] Setting up 2_conv2
I0520 08:58:58.786599 11183 net.cpp:127] Top shape: 350 32 16 16 (2867200)
I0520 08:58:58.786604 11183 layer_factory.hpp:74] Creating layer 2_relu2
I0520 08:58:58.786607 11183 net.cpp:90] Creating Layer 2_relu2
I0520 08:58:58.786608 11183 net.cpp:410] 2_relu2 <- 2_conv2
I0520 08:58:58.786612 11183 net.cpp:357] 2_relu2 -> 2_conv2 (in-place)
I0520 08:58:58.786613 11183 net.cpp:120] Setting up 2_relu2
I0520 08:58:58.786617 11183 net.cpp:127] Top shape: 350 32 16 16 (2867200)
I0520 08:58:58.786618 11183 layer_factory.hpp:74] Creating layer 2_pool2
I0520 08:58:58.786623 11183 net.cpp:90] Creating Layer 2_pool2
I0520 08:58:58.786624 11183 net.cpp:410] 2_pool2 <- 2_conv2
I0520 08:58:58.786626 11183 net.cpp:368] 2_pool2 -> 2_pool2
I0520 08:58:58.786629 11183 net.cpp:120] Setting up 2_pool2
I0520 08:58:58.786633 11183 net.cpp:127] Top shape: 350 32 8 8 (716800)
I0520 08:58:58.786635 11183 layer_factory.hpp:74] Creating layer 2_conv3
I0520 08:58:58.786639 11183 net.cpp:90] Creating Layer 2_conv3
I0520 08:58:58.786641 11183 net.cpp:410] 2_conv3 <- 2_pool2
I0520 08:58:58.786643 11183 net.cpp:368] 2_conv3 -> 2_conv3
I0520 08:58:58.786646 11183 net.cpp:120] Setting up 2_conv3
I0520 08:58:58.787798 11183 net.cpp:127] Top shape: 350 64 8 8 (1433600)
I0520 08:58:58.787803 11183 layer_factory.hpp:74] Creating layer 2_relu3
I0520 08:58:58.787806 11183 net.cpp:90] Creating Layer 2_relu3
I0520 08:58:58.787808 11183 net.cpp:410] 2_relu3 <- 2_conv3
I0520 08:58:58.787811 11183 net.cpp:357] 2_relu3 -> 2_conv3 (in-place)
I0520 08:58:58.787813 11183 net.cpp:120] Setting up 2_relu3
I0520 08:58:58.787817 11183 net.cpp:127] Top shape: 350 64 8 8 (1433600)
I0520 08:58:58.787818 11183 layer_factory.hpp:74] Creating layer 2_pool3
I0520 08:58:58.787827 11183 net.cpp:90] Creating Layer 2_pool3
I0520 08:58:58.787828 11183 net.cpp:410] 2_pool3 <- 2_conv3
I0520 08:58:58.787832 11183 net.cpp:368] 2_pool3 -> 2_pool3
I0520 08:58:58.787834 11183 net.cpp:120] Setting up 2_pool3
I0520 08:58:58.787837 11183 net.cpp:127] Top shape: 350 64 4 4 (358400)
I0520 08:58:58.787839 11183 layer_factory.hpp:74] Creating layer 2_ip1
I0520 08:58:58.787843 11183 net.cpp:90] Creating Layer 2_ip1
I0520 08:58:58.787845 11183 net.cpp:410] 2_ip1 <- 2_pool3
I0520 08:58:58.787848 11183 net.cpp:368] 2_ip1 -> 2_ip1
I0520 08:58:58.787853 11183 net.cpp:120] Setting up 2_ip1
I0520 08:58:58.789324 11183 net.cpp:127] Top shape: 350 64 (22400)
I0520 08:58:58.789330 11183 layer_factory.hpp:74] Creating layer 2_ip2
I0520 08:58:58.789333 11183 net.cpp:90] Creating Layer 2_ip2
I0520 08:58:58.789335 11183 net.cpp:410] 2_ip2 <- 2_ip1
I0520 08:58:58.789340 11183 net.cpp:368] 2_ip2 -> 2_ip2
I0520 08:58:58.789343 11183 net.cpp:120] Setting up 2_ip2
I0520 08:58:58.789364 11183 net.cpp:127] Top shape: 350 10 (3500)
I0520 08:58:58.789367 11183 layer_factory.hpp:74] Creating layer 2_prob
I0520 08:58:58.789371 11183 net.cpp:90] Creating Layer 2_prob
I0520 08:58:58.789373 11183 net.cpp:410] 2_prob <- 2_ip2
I0520 08:58:58.789376 11183 net.cpp:368] 2_prob -> 2_prob
I0520 08:58:58.789378 11183 net.cpp:120] Setting up 2_prob
I0520 08:58:58.789382 11183 net.cpp:127] Top shape: 350 10 (3500)
I0520 08:58:58.789384 11183 layer_factory.hpp:74] Creating layer 2_prob_2_prob_0_split
I0520 08:58:58.789387 11183 net.cpp:90] Creating Layer 2_prob_2_prob_0_split
I0520 08:58:58.789389 11183 net.cpp:410] 2_prob_2_prob_0_split <- 2_prob
I0520 08:58:58.789392 11183 net.cpp:368] 2_prob_2_prob_0_split -> 2_prob_2_prob_0_split_0
I0520 08:58:58.789396 11183 net.cpp:368] 2_prob_2_prob_0_split -> 2_prob_2_prob_0_split_1
I0520 08:58:58.789399 11183 net.cpp:120] Setting up 2_prob_2_prob_0_split
I0520 08:58:58.789402 11183 net.cpp:127] Top shape: 350 10 (3500)
I0520 08:58:58.789407 11183 net.cpp:127] Top shape: 350 10 (3500)
I0520 08:58:58.789408 11183 layer_factory.hpp:74] Creating layer 3_conv1
I0520 08:58:58.789412 11183 net.cpp:90] Creating Layer 3_conv1
I0520 08:58:58.789413 11183 net.cpp:410] 3_conv1 <- data_cifar_0_split_2
I0520 08:58:58.789417 11183 net.cpp:368] 3_conv1 -> 3_conv1
I0520 08:58:58.789420 11183 net.cpp:120] Setting up 3_conv1
I0520 08:58:58.789484 11183 net.cpp:127] Top shape: 350 32 32 32 (11468800)
I0520 08:58:58.789489 11183 layer_factory.hpp:74] Creating layer 3_pool1
I0520 08:58:58.789490 11183 net.cpp:90] Creating Layer 3_pool1
I0520 08:58:58.789492 11183 net.cpp:410] 3_pool1 <- 3_conv1
I0520 08:58:58.789495 11183 net.cpp:368] 3_pool1 -> 3_pool1
I0520 08:58:58.789499 11183 net.cpp:120] Setting up 3_pool1
I0520 08:58:58.789502 11183 net.cpp:127] Top shape: 350 32 16 16 (2867200)
I0520 08:58:58.789505 11183 layer_factory.hpp:74] Creating layer 3_relu1
I0520 08:58:58.789506 11183 net.cpp:90] Creating Layer 3_relu1
I0520 08:58:58.789508 11183 net.cpp:410] 3_relu1 <- 3_pool1
I0520 08:58:58.789511 11183 net.cpp:357] 3_relu1 -> 3_pool1 (in-place)
I0520 08:58:58.789515 11183 net.cpp:120] Setting up 3_relu1
I0520 08:58:58.789517 11183 net.cpp:127] Top shape: 350 32 16 16 (2867200)
I0520 08:58:58.789520 11183 layer_factory.hpp:74] Creating layer 3_conv2
I0520 08:58:58.789523 11183 net.cpp:90] Creating Layer 3_conv2
I0520 08:58:58.789525 11183 net.cpp:410] 3_conv2 <- 3_pool1
I0520 08:58:58.789528 11183 net.cpp:368] 3_conv2 -> 3_conv2
I0520 08:58:58.789531 11183 net.cpp:120] Setting up 3_conv2
I0520 08:58:58.790138 11183 net.cpp:127] Top shape: 350 32 16 16 (2867200)
I0520 08:58:58.790143 11183 layer_factory.hpp:74] Creating layer 3_relu2
I0520 08:58:58.790145 11183 net.cpp:90] Creating Layer 3_relu2
I0520 08:58:58.790148 11183 net.cpp:410] 3_relu2 <- 3_conv2
I0520 08:58:58.790150 11183 net.cpp:357] 3_relu2 -> 3_conv2 (in-place)
I0520 08:58:58.790153 11183 net.cpp:120] Setting up 3_relu2
I0520 08:58:58.790156 11183 net.cpp:127] Top shape: 350 32 16 16 (2867200)
I0520 08:58:58.790158 11183 layer_factory.hpp:74] Creating layer 3_pool2
I0520 08:58:58.790166 11183 net.cpp:90] Creating Layer 3_pool2
I0520 08:58:58.790169 11183 net.cpp:410] 3_pool2 <- 3_conv2
I0520 08:58:58.790171 11183 net.cpp:368] 3_pool2 -> 3_pool2
I0520 08:58:58.790174 11183 net.cpp:120] Setting up 3_pool2
I0520 08:58:58.790177 11183 net.cpp:127] Top shape: 350 32 8 8 (716800)
I0520 08:58:58.790179 11183 layer_factory.hpp:74] Creating layer 3_conv3
I0520 08:58:58.790184 11183 net.cpp:90] Creating Layer 3_conv3
I0520 08:58:58.790185 11183 net.cpp:410] 3_conv3 <- 3_pool2
I0520 08:58:58.790189 11183 net.cpp:368] 3_conv3 -> 3_conv3
I0520 08:58:58.790192 11183 net.cpp:120] Setting up 3_conv3
I0520 08:58:58.791345 11183 net.cpp:127] Top shape: 350 64 8 8 (1433600)
I0520 08:58:58.791350 11183 layer_factory.hpp:74] Creating layer 3_relu3
I0520 08:58:58.791353 11183 net.cpp:90] Creating Layer 3_relu3
I0520 08:58:58.791355 11183 net.cpp:410] 3_relu3 <- 3_conv3
I0520 08:58:58.791358 11183 net.cpp:357] 3_relu3 -> 3_conv3 (in-place)
I0520 08:58:58.791362 11183 net.cpp:120] Setting up 3_relu3
I0520 08:58:58.791364 11183 net.cpp:127] Top shape: 350 64 8 8 (1433600)
I0520 08:58:58.791365 11183 layer_factory.hpp:74] Creating layer 3_pool3
I0520 08:58:58.791368 11183 net.cpp:90] Creating Layer 3_pool3
I0520 08:58:58.791370 11183 net.cpp:410] 3_pool3 <- 3_conv3
I0520 08:58:58.791373 11183 net.cpp:368] 3_pool3 -> 3_pool3
I0520 08:58:58.791376 11183 net.cpp:120] Setting up 3_pool3
I0520 08:58:58.791379 11183 net.cpp:127] Top shape: 350 64 4 4 (358400)
I0520 08:58:58.791381 11183 layer_factory.hpp:74] Creating layer 3_ip1
I0520 08:58:58.791385 11183 net.cpp:90] Creating Layer 3_ip1
I0520 08:58:58.791386 11183 net.cpp:410] 3_ip1 <- 3_pool3
I0520 08:58:58.791390 11183 net.cpp:368] 3_ip1 -> 3_ip1
I0520 08:58:58.791393 11183 net.cpp:120] Setting up 3_ip1
I0520 08:58:58.792865 11183 net.cpp:127] Top shape: 350 64 (22400)
I0520 08:58:58.792870 11183 layer_factory.hpp:74] Creating layer 3_ip2
I0520 08:58:58.792873 11183 net.cpp:90] Creating Layer 3_ip2
I0520 08:58:58.792876 11183 net.cpp:410] 3_ip2 <- 3_ip1
I0520 08:58:58.792878 11183 net.cpp:368] 3_ip2 -> 3_ip2
I0520 08:58:58.792882 11183 net.cpp:120] Setting up 3_ip2
I0520 08:58:58.792903 11183 net.cpp:127] Top shape: 350 10 (3500)
I0520 08:58:58.792906 11183 layer_factory.hpp:74] Creating layer 3_prob
I0520 08:58:58.792910 11183 net.cpp:90] Creating Layer 3_prob
I0520 08:58:58.792912 11183 net.cpp:410] 3_prob <- 3_ip2
I0520 08:58:58.792914 11183 net.cpp:368] 3_prob -> 3_prob
I0520 08:58:58.792917 11183 net.cpp:120] Setting up 3_prob
I0520 08:58:58.792922 11183 net.cpp:127] Top shape: 350 10 (3500)
I0520 08:58:58.792923 11183 layer_factory.hpp:74] Creating layer 3_prob_3_prob_0_split
I0520 08:58:58.792925 11183 net.cpp:90] Creating Layer 3_prob_3_prob_0_split
I0520 08:58:58.792927 11183 net.cpp:410] 3_prob_3_prob_0_split <- 3_prob
I0520 08:58:58.792932 11183 net.cpp:368] 3_prob_3_prob_0_split -> 3_prob_3_prob_0_split_0
I0520 08:58:58.792934 11183 net.cpp:368] 3_prob_3_prob_0_split -> 3_prob_3_prob_0_split_1
I0520 08:58:58.792937 11183 net.cpp:120] Setting up 3_prob_3_prob_0_split
I0520 08:58:58.792940 11183 net.cpp:127] Top shape: 350 10 (3500)
I0520 08:58:58.792943 11183 net.cpp:127] Top shape: 350 10 (3500)
I0520 08:58:58.792945 11183 layer_factory.hpp:74] Creating layer 4_conv1
I0520 08:58:58.792949 11183 net.cpp:90] Creating Layer 4_conv1
I0520 08:58:58.792951 11183 net.cpp:410] 4_conv1 <- data_cifar_0_split_3
I0520 08:58:58.792954 11183 net.cpp:368] 4_conv1 -> 4_conv1
I0520 08:58:58.792958 11183 net.cpp:120] Setting up 4_conv1
I0520 08:58:58.793020 11183 net.cpp:127] Top shape: 350 32 32 32 (11468800)
I0520 08:58:58.793023 11183 layer_factory.hpp:74] Creating layer 4_pool1
I0520 08:58:58.793026 11183 net.cpp:90] Creating Layer 4_pool1
I0520 08:58:58.793028 11183 net.cpp:410] 4_pool1 <- 4_conv1
I0520 08:58:58.793030 11183 net.cpp:368] 4_pool1 -> 4_pool1
I0520 08:58:58.793033 11183 net.cpp:120] Setting up 4_pool1
I0520 08:58:58.793037 11183 net.cpp:127] Top shape: 350 32 16 16 (2867200)
I0520 08:58:58.793040 11183 layer_factory.hpp:74] Creating layer 4_relu1
I0520 08:58:58.793050 11183 net.cpp:90] Creating Layer 4_relu1
I0520 08:58:58.793051 11183 net.cpp:410] 4_relu1 <- 4_pool1
I0520 08:58:58.793054 11183 net.cpp:357] 4_relu1 -> 4_pool1 (in-place)
I0520 08:58:58.793056 11183 net.cpp:120] Setting up 4_relu1
I0520 08:58:58.793059 11183 net.cpp:127] Top shape: 350 32 16 16 (2867200)
I0520 08:58:58.793061 11183 layer_factory.hpp:74] Creating layer 4_conv2
I0520 08:58:58.793064 11183 net.cpp:90] Creating Layer 4_conv2
I0520 08:58:58.793066 11183 net.cpp:410] 4_conv2 <- 4_pool1
I0520 08:58:58.793069 11183 net.cpp:368] 4_conv2 -> 4_conv2
I0520 08:58:58.793072 11183 net.cpp:120] Setting up 4_conv2
I0520 08:58:58.793649 11183 net.cpp:127] Top shape: 350 32 16 16 (2867200)
I0520 08:58:58.793656 11183 layer_factory.hpp:74] Creating layer 4_relu2
I0520 08:58:58.793659 11183 net.cpp:90] Creating Layer 4_relu2
I0520 08:58:58.793661 11183 net.cpp:410] 4_relu2 <- 4_conv2
I0520 08:58:58.793664 11183 net.cpp:357] 4_relu2 -> 4_conv2 (in-place)
I0520 08:58:58.793668 11183 net.cpp:120] Setting up 4_relu2
I0520 08:58:58.793669 11183 net.cpp:127] Top shape: 350 32 16 16 (2867200)
I0520 08:58:58.793671 11183 layer_factory.hpp:74] Creating layer 4_pool2
I0520 08:58:58.793675 11183 net.cpp:90] Creating Layer 4_pool2
I0520 08:58:58.793676 11183 net.cpp:410] 4_pool2 <- 4_conv2
I0520 08:58:58.793679 11183 net.cpp:368] 4_pool2 -> 4_pool2
I0520 08:58:58.793682 11183 net.cpp:120] Setting up 4_pool2
I0520 08:58:58.793686 11183 net.cpp:127] Top shape: 350 32 8 8 (716800)
I0520 08:58:58.793687 11183 layer_factory.hpp:74] Creating layer 4_conv3
I0520 08:58:58.793691 11183 net.cpp:90] Creating Layer 4_conv3
I0520 08:58:58.793694 11183 net.cpp:410] 4_conv3 <- 4_pool2
I0520 08:58:58.793696 11183 net.cpp:368] 4_conv3 -> 4_conv3
I0520 08:58:58.793699 11183 net.cpp:120] Setting up 4_conv3
I0520 08:58:58.794860 11183 net.cpp:127] Top shape: 350 64 8 8 (1433600)
I0520 08:58:58.794865 11183 layer_factory.hpp:74] Creating layer 4_relu3
I0520 08:58:58.794868 11183 net.cpp:90] Creating Layer 4_relu3
I0520 08:58:58.794870 11183 net.cpp:410] 4_relu3 <- 4_conv3
I0520 08:58:58.794874 11183 net.cpp:357] 4_relu3 -> 4_conv3 (in-place)
I0520 08:58:58.794876 11183 net.cpp:120] Setting up 4_relu3
I0520 08:58:58.794879 11183 net.cpp:127] Top shape: 350 64 8 8 (1433600)
I0520 08:58:58.794881 11183 layer_factory.hpp:74] Creating layer 4_pool3
I0520 08:58:58.794884 11183 net.cpp:90] Creating Layer 4_pool3
I0520 08:58:58.794885 11183 net.cpp:410] 4_pool3 <- 4_conv3
I0520 08:58:58.794888 11183 net.cpp:368] 4_pool3 -> 4_pool3
I0520 08:58:58.794891 11183 net.cpp:120] Setting up 4_pool3
I0520 08:58:58.794894 11183 net.cpp:127] Top shape: 350 64 4 4 (358400)
I0520 08:58:58.794896 11183 layer_factory.hpp:74] Creating layer 4_ip1
I0520 08:58:58.794900 11183 net.cpp:90] Creating Layer 4_ip1
I0520 08:58:58.794903 11183 net.cpp:410] 4_ip1 <- 4_pool3
I0520 08:58:58.794906 11183 net.cpp:368] 4_ip1 -> 4_ip1
I0520 08:58:58.794909 11183 net.cpp:120] Setting up 4_ip1
I0520 08:58:58.796380 11183 net.cpp:127] Top shape: 350 64 (22400)
I0520 08:58:58.796386 11183 layer_factory.hpp:74] Creating layer 4_ip2
I0520 08:58:58.796389 11183 net.cpp:90] Creating Layer 4_ip2
I0520 08:58:58.796391 11183 net.cpp:410] 4_ip2 <- 4_ip1
I0520 08:58:58.796396 11183 net.cpp:368] 4_ip2 -> 4_ip2
I0520 08:58:58.796398 11183 net.cpp:120] Setting up 4_ip2
I0520 08:58:58.796419 11183 net.cpp:127] Top shape: 350 10 (3500)
I0520 08:58:58.796423 11183 layer_factory.hpp:74] Creating layer 4_prob
I0520 08:58:58.796427 11183 net.cpp:90] Creating Layer 4_prob
I0520 08:58:58.796427 11183 net.cpp:410] 4_prob <- 4_ip2
I0520 08:58:58.796432 11183 net.cpp:368] 4_prob -> 4_prob
I0520 08:58:58.796433 11183 net.cpp:120] Setting up 4_prob
I0520 08:58:58.796437 11183 net.cpp:127] Top shape: 350 10 (3500)
I0520 08:58:58.796439 11183 layer_factory.hpp:74] Creating layer 4_prob_4_prob_0_split
I0520 08:58:58.796442 11183 net.cpp:90] Creating Layer 4_prob_4_prob_0_split
I0520 08:58:58.796444 11183 net.cpp:410] 4_prob_4_prob_0_split <- 4_prob
I0520 08:58:58.796449 11183 net.cpp:368] 4_prob_4_prob_0_split -> 4_prob_4_prob_0_split_0
I0520 08:58:58.796458 11183 net.cpp:368] 4_prob_4_prob_0_split -> 4_prob_4_prob_0_split_1
I0520 08:58:58.796463 11183 net.cpp:120] Setting up 4_prob_4_prob_0_split
I0520 08:58:58.796465 11183 net.cpp:127] Top shape: 350 10 (3500)
I0520 08:58:58.796468 11183 net.cpp:127] Top shape: 350 10 (3500)
I0520 08:58:58.796469 11183 layer_factory.hpp:74] Creating layer 1_remove
I0520 08:58:58.796474 11183 net.cpp:90] Creating Layer 1_remove
I0520 08:58:58.796476 11183 net.cpp:410] 1_remove <- 1_prob_1_prob_0_split_0
I0520 08:58:58.796479 11183 net.cpp:410] 1_remove <- label_cifar_1_split_0
I0520 08:58:58.796483 11183 net.cpp:368] 1_remove -> 1_remove_pre
I0520 08:58:58.796488 11183 net.cpp:120] Setting up 1_remove
I0520 08:58:58.796492 11183 net.cpp:127] Top shape: 350 9 (3150)
I0520 08:58:58.796494 11183 layer_factory.hpp:74] Creating layer 1_remove_softmax
I0520 08:58:58.796497 11183 net.cpp:90] Creating Layer 1_remove_softmax
I0520 08:58:58.796499 11183 net.cpp:410] 1_remove_softmax <- 1_remove_pre
I0520 08:58:58.796502 11183 net.cpp:368] 1_remove_softmax -> 1_remove
I0520 08:58:58.796505 11183 net.cpp:120] Setting up 1_remove_softmax
I0520 08:58:58.796509 11183 net.cpp:127] Top shape: 350 9 (3150)
I0520 08:58:58.796511 11183 layer_factory.hpp:74] Creating layer 2_remove
I0520 08:58:58.796514 11183 net.cpp:90] Creating Layer 2_remove
I0520 08:58:58.796516 11183 net.cpp:410] 2_remove <- 2_prob_2_prob_0_split_0
I0520 08:58:58.796519 11183 net.cpp:410] 2_remove <- label_cifar_1_split_1
I0520 08:58:58.796521 11183 net.cpp:368] 2_remove -> 2_remove_pre
I0520 08:58:58.796525 11183 net.cpp:120] Setting up 2_remove
I0520 08:58:58.796527 11183 net.cpp:127] Top shape: 350 9 (3150)
I0520 08:58:58.796530 11183 layer_factory.hpp:74] Creating layer 2_remove_softmax
I0520 08:58:58.796532 11183 net.cpp:90] Creating Layer 2_remove_softmax
I0520 08:58:58.796535 11183 net.cpp:410] 2_remove_softmax <- 2_remove_pre
I0520 08:58:58.796537 11183 net.cpp:368] 2_remove_softmax -> 2_remove
I0520 08:58:58.796540 11183 net.cpp:120] Setting up 2_remove_softmax
I0520 08:58:58.796545 11183 net.cpp:127] Top shape: 350 9 (3150)
I0520 08:58:58.796546 11183 layer_factory.hpp:74] Creating layer 3_remove
I0520 08:58:58.796550 11183 net.cpp:90] Creating Layer 3_remove
I0520 08:58:58.796551 11183 net.cpp:410] 3_remove <- 3_prob_3_prob_0_split_0
I0520 08:58:58.796553 11183 net.cpp:410] 3_remove <- label_cifar_1_split_2
I0520 08:58:58.796556 11183 net.cpp:368] 3_remove -> 3_remove_pre
I0520 08:58:58.796560 11183 net.cpp:120] Setting up 3_remove
I0520 08:58:58.796561 11183 net.cpp:127] Top shape: 350 9 (3150)
I0520 08:58:58.796563 11183 layer_factory.hpp:74] Creating layer 3_remove_softmax
I0520 08:58:58.796566 11183 net.cpp:90] Creating Layer 3_remove_softmax
I0520 08:58:58.796568 11183 net.cpp:410] 3_remove_softmax <- 3_remove_pre
I0520 08:58:58.796571 11183 net.cpp:368] 3_remove_softmax -> 3_remove
I0520 08:58:58.796574 11183 net.cpp:120] Setting up 3_remove_softmax
I0520 08:58:58.796577 11183 net.cpp:127] Top shape: 350 9 (3150)
I0520 08:58:58.796579 11183 layer_factory.hpp:74] Creating layer 4_remove
I0520 08:58:58.796582 11183 net.cpp:90] Creating Layer 4_remove
I0520 08:58:58.796584 11183 net.cpp:410] 4_remove <- 4_prob_4_prob_0_split_0
I0520 08:58:58.796586 11183 net.cpp:410] 4_remove <- label_cifar_1_split_3
I0520 08:58:58.796589 11183 net.cpp:368] 4_remove -> 4_remove_pre
I0520 08:58:58.796592 11183 net.cpp:120] Setting up 4_remove
I0520 08:58:58.796594 11183 net.cpp:127] Top shape: 350 9 (3150)
I0520 08:58:58.796597 11183 layer_factory.hpp:74] Creating layer 4_remove_softmax
I0520 08:58:58.796599 11183 net.cpp:90] Creating Layer 4_remove_softmax
I0520 08:58:58.796602 11183 net.cpp:410] 4_remove_softmax <- 4_remove_pre
I0520 08:58:58.796604 11183 net.cpp:368] 4_remove_softmax -> 4_remove
I0520 08:58:58.796607 11183 net.cpp:120] Setting up 4_remove_softmax
I0520 08:58:58.796610 11183 net.cpp:127] Top shape: 350 9 (3150)
I0520 08:58:58.796612 11183 layer_factory.hpp:74] Creating layer div
I0520 08:58:59.318840 11183 net.cpp:90] Creating Layer div
I0520 08:58:59.318876 11183 net.cpp:410] div <- 1_remove
I0520 08:58:59.318882 11183 net.cpp:410] div <- 2_remove
I0520 08:58:59.318886 11183 net.cpp:410] div <- 3_remove
I0520 08:58:59.318889 11183 net.cpp:410] div <- 4_remove
I0520 08:58:59.318894 11183 net.cpp:368] div -> 1_div
I0520 08:58:59.318900 11183 net.cpp:368] div -> 2_div
I0520 08:58:59.318910 11183 net.cpp:368] div -> 3_div
I0520 08:58:59.318914 11183 net.cpp:368] div -> 4_div
I0520 08:58:59.318918 11183 net.cpp:120] Setting up div
I0520 08:58:59.318972 11183 net.cpp:127] Top shape: 350 (350)
I0520 08:58:59.318979 11183 net.cpp:127] Top shape: 350 (350)
I0520 08:58:59.318981 11183 net.cpp:127] Top shape: 350 (350)
I0520 08:58:59.318984 11183 net.cpp:127] Top shape: 350 (350)
I0520 08:58:59.318986 11183 layer_factory.hpp:74] Creating layer loss
I0520 08:58:59.318997 11183 net.cpp:90] Creating Layer loss
I0520 08:58:59.319000 11183 net.cpp:410] loss <- 1_prob_1_prob_0_split_1
I0520 08:58:59.319003 11183 net.cpp:410] loss <- 2_prob_2_prob_0_split_1
I0520 08:58:59.319006 11183 net.cpp:410] loss <- 3_prob_3_prob_0_split_1
I0520 08:58:59.319008 11183 net.cpp:410] loss <- 4_prob_4_prob_0_split_1
I0520 08:58:59.319010 11183 net.cpp:410] loss <- label_cifar_1_split_4
I0520 08:58:59.319013 11183 net.cpp:410] loss <- 1_div
I0520 08:58:59.319015 11183 net.cpp:410] loss <- 2_div
I0520 08:58:59.319017 11183 net.cpp:410] loss <- 3_div
I0520 08:58:59.319020 11183 net.cpp:410] loss <- 4_div
I0520 08:58:59.319023 11183 net.cpp:368] loss -> multiple-output loss
I0520 08:58:59.319030 11183 net.cpp:368] loss -> jsd-diversity
I0520 08:58:59.319036 11183 net.cpp:120] Setting up loss
I0520 08:58:59.319046 11183 net.cpp:127] Top shape: 4 1 1 1 (4)
I0520 08:58:59.319049 11183 net.cpp:129]     with loss weight 1
I0520 08:58:59.319066 11183 net.cpp:127] Top shape: 4 1 1 1 (4)
I0520 08:58:59.319067 11183 net.cpp:129]     with loss weight 1
I0520 08:58:59.319070 11183 net.cpp:192] loss needs backward computation.
I0520 08:58:59.319073 11183 net.cpp:192] div needs backward computation.
I0520 08:58:59.319077 11183 net.cpp:192] 4_remove_softmax needs backward computation.
I0520 08:58:59.319078 11183 net.cpp:192] 4_remove needs backward computation.
I0520 08:58:59.319082 11183 net.cpp:192] 3_remove_softmax needs backward computation.
…
I0520 08:58:59.320240 11183 net.cpp:287] The NetState phase (1) differed from the phase (0) specified by a rule in layer loss
I0520 08:58:59.320412 11183 net.cpp:42] Initializing net from parameters: 
name: "CIFAR10_quick"
state {
  phase: TEST
}
layer {
  name: "cifar"
  type: "Data"
  top: "data"
  top: "label"
  include {
    phase: TEST
  }
  transform_param {
    mean_file: "/home/mike/ml_lab/mod/MCL_Caffe/examples/cifar10/mean.binaryproto"
  }
  data_param {
    source: "/home/mike/ml_lab/mod/MCL_Caffe/examples/cifar10/cifar10_test_lmdb"
    batch_size: 100
    backend: LMDB
  }
}
layer {
  name: "1_conv1"
  type: "Convolution"
  bottom: "data"
  top: "1_conv1"
  param {
    lr_mult: 1
  }
  param {
    lr_mult: 2
  }
  convolution_param {
    num_output: 32
    pad: 2
    kernel_size: 5
    stride: 1
    weight_filler {
      type: "gaussian"
      std: 0.0001
    }
    bias_filler {
      type: "constant"
    }
  }
}
layer {
  name: "1_pool1"
  type: "Pooling"
  bottom: "1_conv1"
  top: "1_pool1"
  pooling_param {
    pool: MAX
    kernel_size: 3
    stride: 2
  }
}
layer {
  name: "1_relu1"
  type: "ReLU"
  bottom: "1_pool1"
  top: "1_pool1"
}
layer {
  name: "1_conv2"
  type: "Convolution"
  bottom: "1_pool1"
  top: "1_conv2"
  param {
    lr_mult: 1
  }
  param {
    lr_mult: 2
  }
  convolution_param {
    num_output: 32
    pad: 2
    kernel_size: 5
    stride: 1
    weight_filler {
      type: "gaussian"
      std: 0.01
    }
    bias_filler {
      type: "constant"
    }
  }
}
layer {
  name: "1_relu2"
  type: "ReLU"
  bottom: "1_conv2"
  top: "1_conv2"
}
layer {
  name: "1_pool2"
  type: "Pooling"
  bottom: "1_conv2"
  top: "1_pool2"
  pooling_param {
    pool: AVE
    kernel_size: 3
    stride: 2
  }
}
layer {
  name: "1_conv3"
  type: "Convolution"
  bottom: "1_pool2"
  top: "1_conv3"
  param {
    lr_mult: 1
  }
  param {
    lr_mult: 2
  }
  convolution_param {
    num_output: 64
    pad: 2
    kernel_size: 5
    stride: 1
    weight_filler {
      type: "gaussian"
      std: 0.01
    }
    bias_filler {
      type: "constant"
    }
  }
}
layer {
  name: "1_relu3"
  type: "ReLU"
  bottom: "1_conv3"
  top: "1_conv3"
}
layer {
  name: "1_pool3"
  type: "Pooling"
  bottom: "1_conv3"
  top: "1_pool3"
  pooling_param {
    pool: AVE
    kernel_size: 3
    stride: 2
  }
}
layer {
  name: "1_ip1"
  type: "InnerProduct"
  bottom: "1_pool3"
  top: "1_ip1"
  param {
    lr_mult: 1
  }
  param {
    lr_mult: 2
  }
  inner_product_param {
    num_output: 64
    weight_filler {
      type: "gaussian"
      std: 0.1
    }
    bias_filler {
      type: "constant"
    }
  }
}
layer {
  name: "1_ip2"
  type: "InnerProduct"
  bottom: "1_ip1"
  top: "1_ip2"
  param {
    lr_mult: 1
  }
  param {
    lr_mult: 2
  }
  inner_product_param {
    num_output: 10
    weight_filler {
      type: "gaussian"
      std: 0.1
    }
    bias_filler {
      type: "constant"
    }
  }
}
layer {
  name: "1_prob"
  type: "Softmax"
  bottom: "1_ip2"
  top: "1_prob"
}
layer {
  name: "2_conv1"
  type: "Convolution"
  bottom: "data"
  top: "2_conv1"
  param {
    lr_mult: 1
  }
  param {
    lr_mult: 2
  }
  convolution_param {
    num_output: 32
    pad: 2
    kernel_size: 5
    stride: 1
    weight_filler {
      type: "gaussian"
      std: 0.0001
    }
    bias_filler {
      type: "constant"
    }
  }
}
layer {
  name: "2_pool1"
  type: "Pooling"
  bottom: "2_conv1"
  top: "2_pool1"
  pooling_param {
    pool: MAX
    kernel_size: 3
    stride: 2
  }
}
layer {
  name: "2_relu1"
  type: "ReLU"
  bottom: "2_pool1"
  top: "2_pool1"
}
layer {
  name: "2_conv2"
  type: "Convolution"
  bottom: "2_pool1"
  top: "2_conv2"
  param {
    lr_mult: 1
  }
  param {
    lr_mult: 2
  }
  convolution_param {
    num_output: 32
    pad: 2
    kernel_size: 5
    stride: 1
    weight_filler {
      type: "gaussian"
      std: 0.01
    }
    bias_filler {
      type: "constant"
    }
  }
}
layer {
  name: "2_relu2"
  type: "ReLU"
  bottom: "2_conv2"
  top: "2_conv2"
}
layer {
  name: "2_pool2"
  type: "Pooling"
  bottom: "2_conv2"
  top: "2_pool2"
  pooling_param {
    pool: AVE
    kernel_size: 3
    stride: 2
  }
}
layer {
  name: "2_conv3"
  type: "Convolution"
  bottom: "2_pool2"
  top: "2_conv3"
  param {
    lr_mult: 1
  }
  param {
    lr_mult: 2
  }
  convolution_param {
    num_output: 64
    pad: 2
    kernel_size: 5
    stride: 1
    weight_filler {
      type: "gaussian"
      std: 0.01
    }
    bias_filler {
      type: "constant"
    }
  }
}
layer {
  name: "2_relu3"
  type: "ReLU"
  bottom: "2_conv3"
  top: "2_conv3"
}
layer {
  name: "2_pool3"
  type: "Pooling"
  bottom: "2_conv3"
  top: "2_pool3"
  pooling_param {
    pool: AVE
    kernel_size: 3
    stride: 2
  }
}
layer {
  name: "2_ip1"
  type: "InnerProduct"
  bottom: "2_pool3"
  top: "2_ip1"
  param {
    lr_mult: 1
  }
  param {
    lr_mult: 2
  }
  inner_product_param {
    num_output: 64
    weight_filler {
      type: "gaussian"
      std: 0.1
    }
    bias_filler {
      type: "constant"
    }
  }
}
layer {
  name: "2_ip2"
  type: "InnerProduct"
  bottom: "2_ip1"
  top: "2_ip2"
  param {
    lr_mult: 1
  }
  param {
    lr_mult: 2
  }
  inner_product_param {
    num_output: 10
    weight_filler {
      type: "gaussian"
      std: 0.1
    }
    bias_filler {
      type: "constant"
    }
  }
}
layer {
  name: "2_prob"
  type: "Softmax"
  bottom: "2_ip2"
  top: "2_prob"
}
layer {
  name: "3_conv1"
  type: "Convolution"
  bottom: "data"
  top: "3_conv1"
  param {
    lr_mult: 1
  }
  param {
    lr_mult: 2
  }
  convolution_param {
    num_output: 32
    pad: 2
    kernel_size: 5
    stride: 1
    weight_filler {
      type: "gaussian"
      std: 0.0001
    }
    bias_filler {
      type: "constant"
    }
  }
}
layer {
  name: "3_pool1"
  type: "Pooling"
  bottom: "3_conv1"
  top: "3_pool1"
  pooling_param {
    pool: MAX
    kernel_size: 3
    stride: 2
  }
}
layer {
  name: "3_relu1"
  type: "ReLU"
  bottom: "3_pool1"
  top: "3_pool1"
}
layer {
  name: "3_conv2"
  type: "Convolution"
  bottom: "3_pool1"
  top: "3_conv2"
  param {
    lr_mult: 1
  }
  param {
    lr_mult: 2
  }
  convolution_param {
    num_output: 32
    pad: 2
    kernel_size: 5
    stride: 1
    weight_filler {
      type: "gaussian"
      std: 0.01
    }
    bias_filler {
      type: "constant"
    }
  }
}
layer {
  name: "3_relu2"
  type: "ReLU"
  bottom: "3_conv2"
  top: "3_conv2"
}
layer {
  name: "3_pool2"
  type: "Pooling"
  bottom: "3_conv2"
  top: "3_pool2"
  pooling_param {
    pool: AVE
    kernel_size: 3
    stride: 2
  }
}
layer {
  name: "3_conv3"
  type: "Convolution"
  bottom: "3_pool2"
  top: "3_conv3"
  param {
    lr_mult: 1
  }
  param {
    lr_mult: 2
  }
  convolution_param {
    num_output: 64
    pad: 2
    kernel_size: 5
    stride: 1
    weight_filler {
      type: "gaussian"
      std: 0.01
    }
    bias_filler {
      type: "constant"
    }
  }
}
layer {
  name: "3_relu3"
  type: "ReLU"
  bottom: "3_conv3"
  top: "3_conv3"
}
layer {
  name: "3_pool3"
  type: "Pooling"
  bottom: "3_conv3"
  top: "3_pool3"
  pooling_param {
    pool: AVE
    kernel_size: 3
    stride: 2
  }
}
layer {
  name: "3_ip1"
  type: "InnerProduct"
  bottom: "3_pool3"
  top: "3_ip1"
  param {
    lr_mult: 1
  }
  param {
    lr_mult: 2
  }
  inner_product_param {
    num_output: 64
    weight_filler {
      type: "gaussian"
      std: 0.1
    }
    bias_filler {
      type: "constant"
    }
  }
}
layer {
  name: "3_ip2"
  type: "InnerProduct"
  bottom: "3_ip1"
  top: "3_ip2"
  param {
    lr_mult: 1
  }
  param {
    lr_mult: 2
  }
  inner_product_param {
    num_output: 10
    weight_filler {
      type: "gaussian"
      std: 0.1
    }
    bias_filler {
      type: "constant"
    }
  }
}
layer {
  name: "3_prob"
  type: "Softmax"
  bottom: "3_ip2"
  top: "3_prob"
}
layer {
  name: "4_conv1"
  type: "Convolution"
  bottom: "data"
  top: "4_conv1"
  param {
    lr_mult: 1
  }
  param {
    lr_mult: 2
  }
  convolution_param {
    num_output: 32
    pad: 2
    kernel_size: 5
    stride: 1
    weight_filler {
      type: "gaussian"
      std: 0.0001
    }
    bias_filler {
      type: "constant"
    }
  }
}
layer {
  name: "4_pool1"
  type: "Pooling"
  bottom: "4_conv1"
  top: "4_pool1"
  pooling_param {
    pool: MAX
    kernel_size: 3
    stride: 2
  }
}
layer {
  name: "4_relu1"
  type: "ReLU"
  bottom: "4_pool1"
  top: "4_pool1"
}
layer {
  name: "4_conv2"
  type: "Convolution"
  bottom: "4_pool1"
  top: "4_conv2"
  param {
    lr_mult: 1
  }
  param {
    lr_mult: 2
  }
  convolution_param {
    num_output: 32
    pad: 2
    kernel_size: 5
    stride: 1
    weight_filler {
      type: "gaussian"
      std: 0.01
    }
    bias_filler {
      type: "constant"
    }
  }
}
layer {
  name: "4_relu2"
  type: "ReLU"
  bottom: "4_conv2"
  top: "4_conv2"
}
layer {
  name: "4_pool2"
  type: "Pooling"
  bottom: "4_conv2"
  top: "4_pool2"
  pooling_param {
    pool: AVE
    kernel_size: 3
    stride: 2
  }
}
layer {
  name: "4_conv3"
  type: "Convolution"
  bottom: "4_pool2"
  top: "4_conv3"
  param {
    lr_mult: 1
  }
  param {
    lr_mult: 2
  }
  convolution_param {
    num_output: 64
    pad: 2
    kernel_size: 5
    stride: 1
    weight_filler {
      type: "gaussian"
      std: 0.01
    }
    bias_filler {
      type: "constant"
    }
  }
}
layer {
  name: "4_relu3"
  type: "ReLU"
  bottom: "4_conv3"
  top: "4_conv3"
}
layer {
  name: "4_pool3"
  type: "Pooling"
  bottom: "4_conv3"
  top: "4_pool3"
  pooling_param {
    pool: AVE
    kernel_size: 3
    stride: 2
  }
}
layer {
  name: "4_ip1"
  type: "InnerProduct"
  bottom: "4_pool3"
  top: "4_ip1"
  param {
    lr_mult: 1
  }
  param {
    lr_mult: 2
  }
  inner_product_param {
    num_output: 64
    weight_filler {
      type: "gaussian"
      std: 0.1
    }
    bias_filler {
      type: "constant"
    }
  }
}
layer {
  name: "4_ip2"
  type: "InnerProduct"
  bottom: "4_ip1"
  top: "4_ip2"
  param {
    lr_mult: 1
  }
  param {
    lr_mult: 2
  }
  inner_product_param {
    num_output: 10
    weight_filler {
      type: "gaussian"
      std: 0.1
    }
    bias_filler {
      type: "constant"
    }
  }
}
layer {
  name: "4_prob"
  type: "Softmax"
  bottom: "4_ip2"
  top: "4_prob"
}
layer {
  name: "1_accuracy"
  type: "Accuracy"
  bottom: "1_prob"
  bottom: "label"
  top: "1_accuracy"
  include {
    phase: TEST
  }
}
layer {
  name: "2_accuracy"
  type: "Accuracy"
  bottom: "2_prob"
  bottom: "label"
  top: "2_accuracy"
  include {
    phase: TEST
  }
}
layer {
  name: "3_accuracy"
  type: "Accuracy"
  bottom: "3_prob"
  bottom: "label"
  top: "3_accuracy"
  include {
    phase: TEST
  }
}
layer {
  name: "4_accuracy"
  type: "Accuracy"
  bottom: "4_prob"
  bottom: "label"
  top: "4_accuracy"
  include {
    phase: TEST
  }
}
layer {
  name: "accuracy"
  type: "OracleAccuracy"
  bottom: "1_prob"
  bottom: "2_prob"
  bottom: "3_prob"
  bottom: "4_prob"
  bottom: "label"
  top: "oracle accuracy"
  include {
    phase: TEST
  }
}
I0520 08:58:59.320560 11183 layer_factory.hpp:74] Creating layer cifar
I0520 08:58:59.320566 11183 net.cpp:90] Creating Layer cifar
I0520 08:58:59.320569 11183 net.cpp:368] cifar -> data
I0520 08:58:59.320574 11183 net.cpp:368] cifar -> label
I0520 08:58:59.320578 11183 net.cpp:120] Setting up cifar
I0520 08:58:59.320602 11183 db.cpp:34] Opened lmdb /home/mike/ml_lab/mod/MCL_Caffe/examples/cifar10/cifar10_test_lmdb
I0520 08:58:59.320619 11183 data_layer.cpp:67] output data size: 100,3,32,32
I0520 08:58:59.320627 11183 data_transformer.cpp:22] Loading mean file from: /home/mike/ml_lab/mod/MCL_Caffe/examples/cifar10/mean.binaryproto
I0520 08:58:59.320904 11183 net.cpp:127] Top shape: 100 3 32 32 (307200)
I0520 08:58:59.320909 11183 net.cpp:127] Top shape: 100 (100)
I0520 08:58:59.320911 11183 layer_factory.hpp:74] Creating layer data_cifar_0_split
I0520 08:58:59.320915 11183 net.cpp:90] Creating Layer data_cifar_0_split
I0520 08:58:59.320919 11183 net.cpp:410] data_cifar_0_split <- data
I0520 08:58:59.320922 11183 net.cpp:368] data_cifar_0_split -> data_cifar_0_split_0
I0520 08:58:59.320931 11183 net.cpp:368] data_cifar_0_split -> data_cifar_0_split_1
I0520 08:58:59.320937 11183 net.cpp:368] data_cifar_0_split -> data_cifar_0_split_2
I0520 08:58:59.320943 11183 net.cpp:368] data_cifar_0_split -> data_cifar_0_split_3
I0520 08:58:59.320955 11183 net.cpp:120] Setting up data_cifar_0_split
I0520 08:58:59.320962 11183 net.cpp:127] Top shape: 100 3 32 32 (307200)
I0520 08:58:59.320967 11183 net.cpp:127] Top shape: 100 3 32 32 (307200)
I0520 08:58:59.320972 11183 net.cpp:127] Top shape: 100 3 32 32 (307200)
I0520 08:58:59.320976 11183 net.cpp:127] Top shape: 100 3 32 32 (307200)
I0520 08:58:59.320981 11183 layer_factory.hpp:74] Creating layer label_cifar_1_split
I0520 08:58:59.320986 11183 net.cpp:90] Creating Layer label_cifar_1_split
I0520 08:58:59.320989 11183 net.cpp:410] label_cifar_1_split <- label
I0520 08:58:59.320994 11183 net.cpp:368] label_cifar_1_split -> label_cifar_1_split_0
I0520 08:58:59.321000 11183 net.cpp:368] label_cifar_1_split -> label_cifar_1_split_1
I0520 08:58:59.321007 11183 net.cpp:368] label_cifar_1_split -> label_cifar_1_split_2
I0520 08:58:59.321014 11183 net.cpp:368] label_cifar_1_split -> label_cifar_1_split_3
I0520 08:58:59.321024 11183 net.cpp:368] label_cifar_1_split -> label_cifar_1_split_4
I0520 08:58:59.321030 11183 net.cpp:120] Setting up label_cifar_1_split
I0520 08:58:59.321036 11183 net.cpp:127] Top shape: 100 (100)
I0520 08:58:59.321043 11183 net.cpp:127] Top shape: 100 (100)
I0520 08:58:59.321048 11183 net.cpp:127] Top shape: 100 (100)
I0520 08:58:59.321053 11183 net.cpp:127] Top shape: 100 (100)
I0520 08:58:59.321056 11183 net.cpp:127] Top shape: 100 (100)
I0520 08:58:59.321059 11183 layer_factory.hpp:74] Creating layer 1_conv1
I0520 08:58:59.321066 11183 net.cpp:90] Creating Layer 1_conv1
I0520 08:58:59.321074 11183 net.cpp:410] 1_conv1 <- data_cifar_0_split_0
I0520 08:58:59.321080 11183 net.cpp:368] 1_conv1 -> 1_conv1
I0520 08:58:59.321086 11183 net.cpp:120] Setting up 1_conv1
I0520 08:58:59.321157 11183 net.cpp:127] Top shape: 100 32 32 32 (3276800)
I0520 08:58:59.321168 11183 layer_factory.hpp:74] Creating layer 1_pool1
I0520 08:58:59.321174 11183 net.cpp:90] Creating Layer 1_pool1
I0520 08:58:59.321180 11183 net.cpp:410] 1_pool1 <- 1_conv1
I0520 08:58:59.321187 11183 net.cpp:368] 1_pool1 -> 1_pool1
I0520 08:58:59.321192 11183 net.cpp:120] Setting up 1_pool1
I0520 08:58:59.321200 11183 net.cpp:127] Top shape: 100 32 16 16 (819200)
I0520 08:58:59.321205 11183 layer_factory.hpp:74] Creating layer 1_relu1
I0520 08:58:59.321210 11183 net.cpp:90] Creating Layer 1_relu1
I0520 08:58:59.321214 11183 net.cpp:410] 1_relu1 <- 1_pool1
I0520 08:58:59.321219 11183 net.cpp:357] 1_relu1 -> 1_pool1 (in-place)
I0520 08:58:59.321224 11183 net.cpp:120] Setting up 1_relu1
I0520 08:58:59.321229 11183 net.cpp:127] Top shape: 100 32 16 16 (819200)
I0520 08:58:59.321233 11183 layer_factory.hpp:74] Creating layer 1_conv2
I0520 08:58:59.321238 11183 net.cpp:90] Creating Layer 1_conv2
I0520 08:58:59.321243 11183 net.cpp:410] 1_conv2 <- 1_pool1
I0520 08:58:59.321249 11183 net.cpp:368] 1_conv2 -> 1_conv2
I0520 08:58:59.321254 11183 net.cpp:120] Setting up 1_conv2
I0520 08:58:59.321841 11183 net.cpp:127] Top shape: 100 32 16 16 (819200)
I0520 08:58:59.321849 11183 layer_factory.hpp:74] Creating layer 1_relu2
I0520 08:58:59.321854 11183 net.cpp:90] Creating Layer 1_relu2
I0520 08:58:59.321858 11183 net.cpp:410] 1_relu2 <- 1_conv2
I0520 08:58:59.321863 11183 net.cpp:357] 1_relu2 -> 1_conv2 (in-place)
I0520 08:58:59.321877 11183 net.cpp:120] Setting up 1_relu2
I0520 08:58:59.321882 11183 net.cpp:127] Top shape: 100 32 16 16 (819200)
I0520 08:58:59.321885 11183 layer_factory.hpp:74] Creating layer 1_pool2
I0520 08:58:59.321895 11183 net.cpp:90] Creating Layer 1_pool2
I0520 08:58:59.321899 11183 net.cpp:410] 1_pool2 <- 1_conv2
I0520 08:58:59.321904 11183 net.cpp:368] 1_pool2 -> 1_pool2
I0520 08:58:59.321910 11183 net.cpp:120] Setting up 1_pool2
I0520 08:58:59.321916 11183 net.cpp:127] Top shape: 100 32 8 8 (204800)
I0520 08:58:59.321920 11183 layer_factory.hpp:74] Creating layer 1_conv3
I0520 08:58:59.321926 11183 net.cpp:90] Creating Layer 1_conv3
I0520 08:58:59.321930 11183 net.cpp:410] 1_conv3 <- 1_pool2
I0520 08:58:59.321935 11183 net.cpp:368] 1_conv3 -> 1_conv3
I0520 08:58:59.321941 11183 net.cpp:120] Setting up 1_conv3
I0520 08:58:59.323107 11183 net.cpp:127] Top shape: 100 64 8 8 (409600)
I0520 08:58:59.323115 11183 layer_factory.hpp:74] Creating layer 1_relu3
I0520 08:58:59.323122 11183 net.cpp:90] Creating Layer 1_relu3
I0520 08:58:59.323124 11183 net.cpp:410] 1_relu3 <- 1_conv3
I0520 08:58:59.323130 11183 net.cpp:357] 1_relu3 -> 1_conv3 (in-place)
I0520 08:58:59.323135 11183 net.cpp:120] Setting up 1_relu3
I0520 08:58:59.323140 11183 net.cpp:127] Top shape: 100 64 8 8 (409600)
I0520 08:58:59.323144 11183 layer_factory.hpp:74] Creating layer 1_pool3
I0520 08:58:59.323148 11183 net.cpp:90] Creating Layer 1_pool3
I0520 08:58:59.323153 11183 net.cpp:410] 1_pool3 <- 1_conv3
I0520 08:58:59.323158 11183 net.cpp:368] 1_pool3 -> 1_pool3
I0520 08:58:59.323164 11183 net.cpp:120] Setting up 1_pool3
I0520 08:58:59.323170 11183 net.cpp:127] Top shape: 100 64 4 4 (102400)
I0520 08:58:59.323174 11183 layer_factory.hpp:74] Creating layer 1_ip1
I0520 08:58:59.323180 11183 net.cpp:90] Creating Layer 1_ip1
I0520 08:58:59.323184 11183 net.cpp:410] 1_ip1 <- 1_pool3
I0520 08:58:59.323189 11183 net.cpp:368] 1_ip1 -> 1_ip1
I0520 08:58:59.323195 11183 net.cpp:120] Setting up 1_ip1
I0520 08:58:59.324671 11183 net.cpp:127] Top shape: 100 64 (6400)
I0520 08:58:59.324678 11183 layer_factory.hpp:74] Creating layer 1_ip2
I0520 08:58:59.324684 11183 net.cpp:90] Creating Layer 1_ip2
I0520 08:58:59.324688 11183 net.cpp:410] 1_ip2 <- 1_ip1
I0520 08:58:59.324694 11183 net.cpp:368] 1_ip2 -> 1_ip2
I0520 08:58:59.324700 11183 net.cpp:120] Setting up 1_ip2
I0520 08:58:59.324726 11183 net.cpp:127] Top shape: 100 10 (1000)
I0520 08:58:59.324734 11183 layer_factory.hpp:74] Creating layer 1_prob
I0520 08:58:59.324739 11183 net.cpp:90] Creating Layer 1_prob
I0520 08:58:59.324743 11183 net.cpp:410] 1_prob <- 1_ip2
I0520 08:58:59.324748 11183 net.cpp:368] 1_prob -> 1_prob
I0520 08:58:59.324753 11183 net.cpp:120] Setting up 1_prob
I0520 08:58:59.324760 11183 net.cpp:127] Top shape: 100 10 (1000)
I0520 08:58:59.324764 11183 layer_factory.hpp:74] Creating layer 1_prob_1_prob_0_split
I0520 08:58:59.324769 11183 net.cpp:90] Creating Layer 1_prob_1_prob_0_split
I0520 08:58:59.324772 11183 net.cpp:410] 1_prob_1_prob_0_split <- 1_prob
I0520 08:58:59.324777 11183 net.cpp:368] 1_prob_1_prob_0_split -> 1_prob_1_prob_0_split_0
I0520 08:58:59.324784 11183 net.cpp:368] 1_prob_1_prob_0_split -> 1_prob_1_prob_0_split_1
I0520 08:58:59.324790 11183 net.cpp:120] Setting up 1_prob_1_prob_0_split
I0520 08:58:59.324795 11183 net.cpp:127] Top shape: 100 10 (1000)
I0520 08:58:59.324798 11183 net.cpp:127] Top shape: 100 10 (1000)
I0520 08:58:59.324802 11183 layer_factory.hpp:74] Creating layer 2_conv1
I0520 08:58:59.324810 11183 net.cpp:90] Creating Layer 2_conv1
I0520 08:58:59.324813 11183 net.cpp:410] 2_conv1 <- data_cifar_0_split_1
I0520 08:58:59.324818 11183 net.cpp:368] 2_conv1 -> 2_conv1
I0520 08:58:59.324825 11183 net.cpp:120] Setting up 2_conv1
I0520 08:58:59.324890 11183 net.cpp:127] Top shape: 100 32 32 32 (3276800)
I0520 08:58:59.324898 11183 layer_factory.hpp:74] Creating layer 2_pool1
I0520 08:58:59.324903 11183 net.cpp:90] Creating Layer 2_pool1
I0520 08:58:59.324905 11183 net.cpp:410] 2_pool1 <- 2_conv1
I0520 08:58:59.324911 11183 net.cpp:368] 2_pool1 -> 2_pool1
I0520 08:58:59.324916 11183 net.cpp:120] Setting up 2_pool1
I0520 08:58:59.324931 11183 net.cpp:127] Top shape: 100 32 16 16 (819200)
I0520 08:58:59.324936 11183 layer_factory.hpp:74] Creating layer 2_relu1
I0520 08:58:59.324942 11183 net.cpp:90] Creating Layer 2_relu1
I0520 08:58:59.324946 11183 net.cpp:410] 2_relu1 <- 2_pool1
I0520 08:58:59.324951 11183 net.cpp:357] 2_relu1 -> 2_pool1 (in-place)
I0520 08:58:59.324957 11183 net.cpp:120] Setting up 2_relu1
I0520 08:58:59.324962 11183 net.cpp:127] Top shape: 100 32 16 16 (819200)
I0520 08:58:59.324966 11183 layer_factory.hpp:74] Creating layer 2_conv2
I0520 08:58:59.324971 11183 net.cpp:90] Creating Layer 2_conv2
I0520 08:58:59.324975 11183 net.cpp:410] 2_conv2 <- 2_pool1
I0520 08:58:59.324980 11183 net.cpp:368] 2_conv2 -> 2_conv2
I0520 08:58:59.324986 11183 net.cpp:120] Setting up 2_conv2
I0520 08:58:59.325573 11183 net.cpp:127] Top shape: 100 32 16 16 (819200)
I0520 08:58:59.325582 11183 layer_factory.hpp:74] Creating layer 2_relu2
I0520 08:58:59.325587 11183 net.cpp:90] Creating Layer 2_relu2
I0520 08:58:59.325589 11183 net.cpp:410] 2_relu2 <- 2_conv2
I0520 08:58:59.325594 11183 net.cpp:357] 2_relu2 -> 2_conv2 (in-place)
I0520 08:58:59.325599 11183 net.cpp:120] Setting up 2_relu2
I0520 08:58:59.325605 11183 net.cpp:127] Top shape: 100 32 16 16 (819200)
I0520 08:58:59.325608 11183 layer_factory.hpp:74] Creating layer 2_pool2
I0520 08:58:59.325613 11183 net.cpp:90] Creating Layer 2_pool2
I0520 08:58:59.325616 11183 net.cpp:410] 2_pool2 <- 2_conv2
I0520 08:58:59.325621 11183 net.cpp:368] 2_pool2 -> 2_pool2
I0520 08:58:59.325626 11183 net.cpp:120] Setting up 2_pool2
I0520 08:58:59.325633 11183 net.cpp:127] Top shape: 100 32 8 8 (204800)
I0520 08:58:59.325636 11183 layer_factory.hpp:74] Creating layer 2_conv3
I0520 08:58:59.325641 11183 net.cpp:90] Creating Layer 2_conv3
I0520 08:58:59.325644 11183 net.cpp:410] 2_conv3 <- 2_pool2
I0520 08:58:59.325650 11183 net.cpp:368] 2_conv3 -> 2_conv3
I0520 08:58:59.325656 11183 net.cpp:120] Setting up 2_conv3
I0520 08:58:59.326814 11183 net.cpp:127] Top shape: 100 64 8 8 (409600)
I0520 08:58:59.326822 11183 layer_factory.hpp:74] Creating layer 2_relu3
I0520 08:58:59.326828 11183 net.cpp:90] Creating Layer 2_relu3
I0520 08:58:59.326831 11183 net.cpp:410] 2_relu3 <- 2_conv3
I0520 08:58:59.326835 11183 net.cpp:357] 2_relu3 -> 2_conv3 (in-place)
I0520 08:58:59.326841 11183 net.cpp:120] Setting up 2_relu3
I0520 08:58:59.326846 11183 net.cpp:127] Top shape: 100 64 8 8 (409600)
I0520 08:58:59.326849 11183 layer_factory.hpp:74] Creating layer 2_pool3
I0520 08:58:59.326854 11183 net.cpp:90] Creating Layer 2_pool3
I0520 08:58:59.326858 11183 net.cpp:410] 2_pool3 <- 2_conv3
I0520 08:58:59.326863 11183 net.cpp:368] 2_pool3 -> 2_pool3
I0520 08:58:59.326869 11183 net.cpp:120] Setting up 2_pool3
I0520 08:58:59.326874 11183 net.cpp:127] Top shape: 100 64 4 4 (102400)
I0520 08:58:59.326877 11183 layer_factory.hpp:74] Creating layer 2_ip1
I0520 08:58:59.326884 11183 net.cpp:90] Creating Layer 2_ip1
I0520 08:58:59.326886 11183 net.cpp:410] 2_ip1 <- 2_pool3
I0520 08:58:59.326892 11183 net.cpp:368] 2_ip1 -> 2_ip1
I0520 08:58:59.326897 11183 net.cpp:120] Setting up 2_ip1
I0520 08:58:59.328373 11183 net.cpp:127] Top shape: 100 64 (6400)
I0520 08:58:59.328382 11183 layer_factory.hpp:74] Creating layer 2_ip2
I0520 08:58:59.328388 11183 net.cpp:90] Creating Layer 2_ip2
I0520 08:58:59.328392 11183 net.cpp:410] 2_ip2 <- 2_ip1
I0520 08:58:59.328398 11183 net.cpp:368] 2_ip2 -> 2_ip2
I0520 08:58:59.328404 11183 net.cpp:120] Setting up 2_ip2
I0520 08:58:59.328430 11183 net.cpp:127] Top shape: 100 10 (1000)
I0520 08:58:59.328436 11183 layer_factory.hpp:74] Creating layer 2_prob
I0520 08:58:59.328441 11183 net.cpp:90] Creating Layer 2_prob
I0520 08:58:59.328444 11183 net.cpp:410] 2_prob <- 2_ip2
I0520 08:58:59.328450 11183 net.cpp:368] 2_prob -> 2_prob
I0520 08:58:59.328455 11183 net.cpp:120] Setting up 2_prob
I0520 08:58:59.328462 11183 net.cpp:127] Top shape: 100 10 (1000)
I0520 08:58:59.328465 11183 layer_factory.hpp:74] Creating layer 2_prob_2_prob_0_split
I0520 08:58:59.328470 11183 net.cpp:90] Creating Layer 2_prob_2_prob_0_split
I0520 08:58:59.328481 11183 net.cpp:410] 2_prob_2_prob_0_split <- 2_prob
I0520 08:58:59.328487 11183 net.cpp:368] 2_prob_2_prob_0_split -> 2_prob_2_prob_0_split_0
I0520 08:58:59.328493 11183 net.cpp:368] 2_prob_2_prob_0_split -> 2_prob_2_prob_0_split_1
I0520 08:58:59.328501 11183 net.cpp:120] Setting up 2_prob_2_prob_0_split
I0520 08:58:59.328508 11183 net.cpp:127] Top shape: 100 10 (1000)
I0520 08:58:59.328513 11183 net.cpp:127] Top shape: 100 10 (1000)
I0520 08:58:59.328516 11183 layer_factory.hpp:74] Creating layer 3_conv1
I0520 08:58:59.328522 11183 net.cpp:90] Creating Layer 3_conv1
I0520 08:58:59.328526 11183 net.cpp:410] 3_conv1 <- data_cifar_0_split_2
I0520 08:58:59.328532 11183 net.cpp:368] 3_conv1 -> 3_conv1
I0520 08:58:59.328538 11183 net.cpp:120] Setting up 3_conv1
I0520 08:58:59.328606 11183 net.cpp:127] Top shape: 100 32 32 32 (3276800)
I0520 08:58:59.328613 11183 layer_factory.hpp:74] Creating layer 3_pool1
I0520 08:58:59.328619 11183 net.cpp:90] Creating Layer 3_pool1
I0520 08:58:59.328621 11183 net.cpp:410] 3_pool1 <- 3_conv1
I0520 08:58:59.328627 11183 net.cpp:368] 3_pool1 -> 3_pool1
I0520 08:58:59.328632 11183 net.cpp:120] Setting up 3_pool1
I0520 08:58:59.328639 11183 net.cpp:127] Top shape: 100 32 16 16 (819200)
I0520 08:58:59.328644 11183 layer_factory.hpp:74] Creating layer 3_relu1
I0520 08:58:59.328647 11183 net.cpp:90] Creating Layer 3_relu1
I0520 08:58:59.328651 11183 net.cpp:410] 3_relu1 <- 3_pool1
I0520 08:58:59.328657 11183 net.cpp:357] 3_relu1 -> 3_pool1 (in-place)
I0520 08:58:59.328662 11183 net.cpp:120] Setting up 3_relu1
I0520 08:58:59.328667 11183 net.cpp:127] Top shape: 100 32 16 16 (819200)
I0520 08:58:59.328670 11183 layer_factory.hpp:74] Creating layer 3_conv2
I0520 08:58:59.328680 11183 net.cpp:90] Creating Layer 3_conv2
I0520 08:58:59.328685 11183 net.cpp:410] 3_conv2 <- 3_pool1
I0520 08:58:59.328691 11183 net.cpp:368] 3_conv2 -> 3_conv2
I0520 08:58:59.328697 11183 net.cpp:120] Setting up 3_conv2
I0520 08:58:59.329280 11183 net.cpp:127] Top shape: 100 32 16 16 (819200)
I0520 08:58:59.329288 11183 layer_factory.hpp:74] Creating layer 3_relu2
I0520 08:58:59.329294 11183 net.cpp:90] Creating Layer 3_relu2
I0520 08:58:59.329298 11183 net.cpp:410] 3_relu2 <- 3_conv2
I0520 08:58:59.329303 11183 net.cpp:357] 3_relu2 -> 3_conv2 (in-place)
I0520 08:58:59.329308 11183 net.cpp:120] Setting up 3_relu2
I0520 08:58:59.329313 11183 net.cpp:127] Top shape: 100 32 16 16 (819200)
I0520 08:58:59.329316 11183 layer_factory.hpp:74] Creating layer 3_pool2
I0520 08:58:59.329321 11183 net.cpp:90] Creating Layer 3_pool2
I0520 08:58:59.329324 11183 net.cpp:410] 3_pool2 <- 3_conv2
I0520 08:58:59.329329 11183 net.cpp:368] 3_pool2 -> 3_pool2
I0520 08:58:59.329335 11183 net.cpp:120] Setting up 3_pool2
I0520 08:58:59.329342 11183 net.cpp:127] Top shape: 100 32 8 8 (204800)
I0520 08:58:59.329345 11183 layer_factory.hpp:74] Creating layer 3_conv3
I0520 08:58:59.329351 11183 net.cpp:90] Creating Layer 3_conv3
I0520 08:58:59.329355 11183 net.cpp:410] 3_conv3 <- 3_pool2
I0520 08:58:59.329361 11183 net.cpp:368] 3_conv3 -> 3_conv3
I0520 08:58:59.329367 11183 net.cpp:120] Setting up 3_conv3
I0520 08:58:59.330528 11183 net.cpp:127] Top shape: 100 64 8 8 (409600)
I0520 08:58:59.330534 11183 layer_factory.hpp:74] Creating layer 3_relu3
I0520 08:58:59.330541 11183 net.cpp:90] Creating Layer 3_relu3
I0520 08:58:59.330544 11183 net.cpp:410] 3_relu3 <- 3_conv3
I0520 08:58:59.330549 11183 net.cpp:357] 3_relu3 -> 3_conv3 (in-place)
I0520 08:58:59.330554 11183 net.cpp:120] Setting up 3_relu3
I0520 08:58:59.330559 11183 net.cpp:127] Top shape: 100 64 8 8 (409600)
I0520 08:58:59.330564 11183 layer_factory.hpp:74] Creating layer 3_pool3
I0520 08:58:59.330569 11183 net.cpp:90] Creating Layer 3_pool3
I0520 08:58:59.330572 11183 net.cpp:410] 3_pool3 <- 3_conv3
I0520 08:58:59.330577 11183 net.cpp:368] 3_pool3 -> 3_pool3
I0520 08:58:59.330582 11183 net.cpp:120] Setting up 3_pool3
I0520 08:58:59.330588 11183 net.cpp:127] Top shape: 100 64 4 4 (102400)
I0520 08:58:59.330592 11183 layer_factory.hpp:74] Creating layer 3_ip1
I0520 08:58:59.330605 11183 net.cpp:90] Creating Layer 3_ip1
I0520 08:58:59.330611 11183 net.cpp:410] 3_ip1 <- 3_pool3
I0520 08:58:59.330618 11183 net.cpp:368] 3_ip1 -> 3_ip1
I0520 08:58:59.330624 11183 net.cpp:120] Setting up 3_ip1
I0520 08:58:59.332101 11183 net.cpp:127] Top shape: 100 64 (6400)
I0520 08:58:59.332108 11183 layer_factory.hpp:74] Creating layer 3_ip2
I0520 08:58:59.332114 11183 net.cpp:90] Creating Layer 3_ip2
I0520 08:58:59.332118 11183 net.cpp:410] 3_ip2 <- 3_ip1
I0520 08:58:59.332125 11183 net.cpp:368] 3_ip2 -> 3_ip2
I0520 08:58:59.332131 11183 net.cpp:120] Setting up 3_ip2
I0520 08:58:59.332157 11183 net.cpp:127] Top shape: 100 10 (1000)
I0520 08:58:59.332164 11183 layer_factory.hpp:74] Creating layer 3_prob
I0520 08:58:59.332170 11183 net.cpp:90] Creating Layer 3_prob
I0520 08:58:59.332175 11183 net.cpp:410] 3_prob <- 3_ip2
I0520 08:58:59.332180 11183 net.cpp:368] 3_prob -> 3_prob
I0520 08:58:59.332185 11183 net.cpp:120] Setting up 3_prob
I0520 08:58:59.332192 11183 net.cpp:127] Top shape: 100 10 (1000)
I0520 08:58:59.332197 11183 layer_factory.hpp:74] Creating layer 3_prob_3_prob_0_split
I0520 08:58:59.332202 11183 net.cpp:90] Creating Layer 3_prob_3_prob_0_split
I0520 08:58:59.332206 11183 net.cpp:410] 3_prob_3_prob_0_split <- 3_prob
I0520 08:58:59.332211 11183 net.cpp:368] 3_prob_3_prob_0_split -> 3_prob_3_prob_0_split_0
I0520 08:58:59.332216 11183 net.cpp:368] 3_prob_3_prob_0_split -> 3_prob_3_prob_0_split_1
I0520 08:58:59.332221 11183 net.cpp:120] Setting up 3_prob_3_prob_0_split
I0520 08:58:59.332227 11183 net.cpp:127] Top shape: 100 10 (1000)
I0520 08:58:59.332231 11183 net.cpp:127] Top shape: 100 10 (1000)
I0520 08:58:59.332235 11183 layer_factory.hpp:74] Creating layer 4_conv1
I0520 08:58:59.332242 11183 net.cpp:90] Creating Layer 4_conv1
I0520 08:58:59.332247 11183 net.cpp:410] 4_conv1 <- data_cifar_0_split_3
I0520 08:58:59.332253 11183 net.cpp:368] 4_conv1 -> 4_conv1
I0520 08:58:59.332259 11183 net.cpp:120] Setting up 4_conv1
I0520 08:58:59.332329 11183 net.cpp:127] Top shape: 100 32 32 32 (3276800)
I0520 08:58:59.332334 11183 layer_factory.hpp:74] Creating layer 4_pool1
I0520 08:58:59.332340 11183 net.cpp:90] Creating Layer 4_pool1
I0520 08:58:59.332343 11183 net.cpp:410] 4_pool1 <- 4_conv1
I0520 08:58:59.332348 11183 net.cpp:368] 4_pool1 -> 4_pool1
I0520 08:58:59.332353 11183 net.cpp:120] Setting up 4_pool1
I0520 08:58:59.332360 11183 net.cpp:127] Top shape: 100 32 16 16 (819200)
I0520 08:58:59.332365 11183 layer_factory.hpp:74] Creating layer 4_relu1
I0520 08:58:59.332370 11183 net.cpp:90] Creating Layer 4_relu1
I0520 08:58:59.332372 11183 net.cpp:410] 4_relu1 <- 4_pool1
I0520 08:58:59.332377 11183 net.cpp:357] 4_relu1 -> 4_pool1 (in-place)
I0520 08:58:59.332381 11183 net.cpp:120] Setting up 4_relu1
I0520 08:58:59.332386 11183 net.cpp:127] Top shape: 100 32 16 16 (819200)
I0520 08:58:59.332391 11183 layer_factory.hpp:74] Creating layer 4_conv2
I0520 08:58:59.332397 11183 net.cpp:90] Creating Layer 4_conv2
I0520 08:58:59.332401 11183 net.cpp:410] 4_conv2 <- 4_pool1
I0520 08:58:59.332406 11183 net.cpp:368] 4_conv2 -> 4_conv2
I0520 08:58:59.332412 11183 net.cpp:120] Setting up 4_conv2
I0520 08:58:59.332995 11183 net.cpp:127] Top shape: 100 32 16 16 (819200)
I0520 08:58:59.333006 11183 layer_factory.hpp:74] Creating layer 4_relu2
I0520 08:58:59.333012 11183 net.cpp:90] Creating Layer 4_relu2
I0520 08:58:59.333017 11183 net.cpp:410] 4_relu2 <- 4_conv2
I0520 08:58:59.333022 11183 net.cpp:357] 4_relu2 -> 4_conv2 (in-place)
I0520 08:58:59.333027 11183 net.cpp:120] Setting up 4_relu2
I0520 08:58:59.333032 11183 net.cpp:127] Top shape: 100 32 16 16 (819200)
I0520 08:58:59.333036 11183 layer_factory.hpp:74] Creating layer 4_pool2
I0520 08:58:59.333041 11183 net.cpp:90] Creating Layer 4_pool2
I0520 08:58:59.333045 11183 net.cpp:410] 4_pool2 <- 4_conv2
I0520 08:58:59.333050 11183 net.cpp:368] 4_pool2 -> 4_pool2
I0520 08:58:59.333055 11183 net.cpp:120] Setting up 4_pool2
I0520 08:58:59.333060 11183 net.cpp:127] Top shape: 100 32 8 8 (204800)
I0520 08:58:59.333065 11183 layer_factory.hpp:74] Creating layer 4_conv3
I0520 08:58:59.333078 11183 net.cpp:90] Creating Layer 4_conv3
I0520 08:58:59.333084 11183 net.cpp:410] 4_conv3 <- 4_pool2
I0520 08:58:59.333091 11183 net.cpp:368] 4_conv3 -> 4_conv3
I0520 08:58:59.333097 11183 net.cpp:120] Setting up 4_conv3
I0520 08:58:59.334260 11183 net.cpp:127] Top shape: 100 64 8 8 (409600)
I0520 08:58:59.334269 11183 layer_factory.hpp:74] Creating layer 4_relu3
I0520 08:58:59.334273 11183 net.cpp:90] Creating Layer 4_relu3
I0520 08:58:59.334277 11183 net.cpp:410] 4_relu3 <- 4_conv3
I0520 08:58:59.334283 11183 net.cpp:357] 4_relu3 -> 4_conv3 (in-place)
I0520 08:58:59.334290 11183 net.cpp:120] Setting up 4_relu3
I0520 08:58:59.334295 11183 net.cpp:127] Top shape: 100 64 8 8 (409600)
I0520 08:58:59.334297 11183 layer_factory.hpp:74] Creating layer 4_pool3
I0520 08:58:59.334302 11183 net.cpp:90] Creating Layer 4_pool3
I0520 08:58:59.334306 11183 net.cpp:410] 4_pool3 <- 4_conv3
I0520 08:58:59.334312 11183 net.cpp:368] 4_pool3 -> 4_pool3
I0520 08:58:59.334317 11183 net.cpp:120] Setting up 4_pool3
I0520 08:58:59.334324 11183 net.cpp:127] Top shape: 100 64 4 4 (102400)
I0520 08:58:59.334327 11183 layer_factory.hpp:74] Creating layer 4_ip1
I0520 08:58:59.334333 11183 net.cpp:90] Creating Layer 4_ip1
I0520 08:58:59.334336 11183 net.cpp:410] 4_ip1 <- 4_pool3
I0520 08:58:59.334343 11183 net.cpp:368] 4_ip1 -> 4_ip1
I0520 08:58:59.334349 11183 net.cpp:120] Setting up 4_ip1
I0520 08:58:59.335820 11183 net.cpp:127] Top shape: 100 64 (6400)
I0520 08:58:59.335829 11183 layer_factory.hpp:74] Creating layer 4_ip2
I0520 08:58:59.335834 11183 net.cpp:90] Creating Layer 4_ip2
I0520 08:58:59.335839 11183 net.cpp:410] 4_ip2 <- 4_ip1
I0520 08:58:59.335844 11183 net.cpp:368] 4_ip2 -> 4_ip2
I0520 08:58:59.335850 11183 net.cpp:120] Setting up 4_ip2
I0520 08:58:59.335876 11183 net.cpp:127] Top shape: 100 10 (1000)
I0520 08:58:59.335882 11183 layer_factory.hpp:74] Creating layer 4_prob
I0520 08:58:59.335888 11183 net.cpp:90] Creating Layer 4_prob
I0520 08:58:59.335892 11183 net.cpp:410] 4_prob <- 4_ip2
I0520 08:58:59.335897 11183 net.cpp:368] 4_prob -> 4_prob
I0520 08:58:59.335902 11183 net.cpp:120] Setting up 4_prob
I0520 08:58:59.335909 11183 net.cpp:127] Top shape: 100 10 (1000)
I0520 08:58:59.335912 11183 layer_factory.hpp:74] Creating layer 4_prob_4_prob_0_split
I0520 08:58:59.335918 11183 net.cpp:90] Creating Layer 4_prob_4_prob_0_split
I0520 08:58:59.335922 11183 net.cpp:410] 4_prob_4_prob_0_split <- 4_prob
I0520 08:58:59.335927 11183 net.cpp:368] 4_prob_4_prob_0_split -> 4_prob_4_prob_0_split_0
I0520 08:58:59.335932 11183 net.cpp:368] 4_prob_4_prob_0_split -> 4_prob_4_prob_0_split_1
I0520 08:58:59.335938 11183 net.cpp:120] Setting up 4_prob_4_prob_0_split
I0520 08:58:59.335943 11183 net.cpp:127] Top shape: 100 10 (1000)
I0520 08:58:59.335948 11183 net.cpp:127] Top shape: 100 10 (1000)
I0520 08:58:59.335952 11183 layer_factory.hpp:74] Creating layer 1_accuracy
I0520 08:58:59.335958 11183 net.cpp:90] Creating Layer 1_accuracy
I0520 08:58:59.335960 11183 net.cpp:410] 1_accuracy <- 1_prob_1_prob_0_split_0
I0520 08:58:59.335965 11183 net.cpp:410] 1_accuracy <- label_cifar_1_split_0
I0520 08:58:59.335973 11183 net.cpp:368] 1_accuracy -> 1_accuracy
I0520 08:58:59.335978 11183 net.cpp:120] Setting up 1_accuracy
…
