…
I0520 08:57:24.233770 10875 net.cpp:287] The NetState phase (0) differed from the phase (1) specified by a rule in layer accuracy
I0520 08:57:24.233958 10875 net.cpp:42] Initializing net from parameters: 
name: "CIFAR10_quick"
state {
  phase: TRAIN
}
layer {
  name: "cifar"
  type: "Data"
  top: "data"
  top: "label"
  include {
    phase: TRAIN
  }
  transform_param {
    mean_file: "/home/mike/ml_lab/mod/MCL_Caffe/examples/cifar10/mean.binaryproto"
  }
  data_param {
    source: "/home/mike/ml_lab/mod/MCL_Caffe/examples/cifar10/cifar10_train_lmdb"
    batch_size: 350
    backend: LMDB
  }
}
layer {
  name: "1_conv1"
  type: "Convolution"
  bottom: "data"
  top: "1_conv1"
  param {
    lr_mult: 1
  }
  param {
    lr_mult: 2
  }
  convolution_param {
    num_output: 32
    pad: 2
    kernel_size: 5
    stride: 1
    weight_filler {
      type: "gaussian"
      std: 0.0001
    }
    bias_filler {
      type: "constant"
    }
  }
}
layer {
  name: "1_pool1"
  type: "Pooling"
  bottom: "1_conv1"
  top: "1_pool1"
  pooling_param {
    pool: MAX
    kernel_size: 3
    stride: 2
  }
}
layer {
  name: "1_relu1"
  type: "ReLU"
  bottom: "1_pool1"
  top: "1_pool1"
}
layer {
  name: "1_conv2"
  type: "Convolution"
  bottom: "1_pool1"
  top: "1_conv2"
  param {
    lr_mult: 1
  }
  param {
    lr_mult: 2
  }
  convolution_param {
    num_output: 32
    pad: 2
    kernel_size: 5
    stride: 1
    weight_filler {
      type: "gaussian"
      std: 0.01
    }
    bias_filler {
      type: "constant"
    }
  }
}
layer {
  name: "1_relu2"
  type: "ReLU"
  bottom: "1_conv2"
  top: "1_conv2"
}
layer {
  name: "1_pool2"
  type: "Pooling"
  bottom: "1_conv2"
  top: "1_pool2"
  pooling_param {
    pool: AVE
    kernel_size: 3
    stride: 2
  }
}
layer {
  name: "1_conv3"
  type: "Convolution"
  bottom: "1_pool2"
  top: "1_conv3"
  param {
    lr_mult: 1
  }
  param {
    lr_mult: 2
  }
  convolution_param {
    num_output: 64
    pad: 2
    kernel_size: 5
    stride: 1
    weight_filler {
      type: "gaussian"
      std: 0.01
    }
    bias_filler {
      type: "constant"
    }
  }
}
layer {
  name: "1_relu3"
  type: "ReLU"
  bottom: "1_conv3"
  top: "1_conv3"
}
layer {
  name: "1_pool3"
  type: "Pooling"
  bottom: "1_conv3"
  top: "1_pool3"
  pooling_param {
    pool: AVE
    kernel_size: 3
    stride: 2
  }
}
layer {
  name: "1_ip1"
  type: "InnerProduct"
  bottom: "1_pool3"
  top: "1_ip1"
  param {
    lr_mult: 1
  }
  param {
    lr_mult: 2
  }
  inner_product_param {
    num_output: 64
    weight_filler {
      type: "gaussian"
      std: 0.1
    }
    bias_filler {
      type: "constant"
    }
  }
}
layer {
  name: "1_ip2"
  type: "InnerProduct"
  bottom: "1_ip1"
  top: "1_ip2"
  param {
    lr_mult: 1
  }
  param {
    lr_mult: 2
  }
  inner_product_param {
    num_output: 10
    weight_filler {
      type: "gaussian"
      std: 0.1
    }
    bias_filler {
      type: "constant"
    }
  }
}
layer {
  name: "1_prob"
  type: "Softmax"
  bottom: "1_ip2"
  top: "1_prob"
}
layer {
  name: "2_conv1"
  type: "Convolution"
  bottom: "data"
  top: "2_conv1"
  param {
    lr_mult: 1
  }
  param {
    lr_mult: 2
  }
  convolution_param {
    num_output: 32
    pad: 2
    kernel_size: 5
    stride: 1
    weight_filler {
      type: "gaussian"
      std: 0.0001
    }
    bias_filler {
      type: "constant"
    }
  }
}
layer {
  name: "2_pool1"
  type: "Pooling"
  bottom: "2_conv1"
  top: "2_pool1"
  pooling_param {
    pool: MAX
    kernel_size: 3
    stride: 2
  }
}
layer {
  name: "2_relu1"
  type: "ReLU"
  bottom: "2_pool1"
  top: "2_pool1"
}
layer {
  name: "2_conv2"
  type: "Convolution"
  bottom: "2_pool1"
  top: "2_conv2"
  param {
    lr_mult: 1
  }
  param {
    lr_mult: 2
  }
  convolution_param {
    num_output: 32
    pad: 2
    kernel_size: 5
    stride: 1
    weight_filler {
      type: "gaussian"
      std: 0.01
    }
    bias_filler {
      type: "constant"
    }
  }
}
layer {
  name: "2_relu2"
  type: "ReLU"
  bottom: "2_conv2"
  top: "2_conv2"
}
layer {
  name: "2_pool2"
  type: "Pooling"
  bottom: "2_conv2"
  top: "2_pool2"
  pooling_param {
    pool: AVE
    kernel_size: 3
    stride: 2
  }
}
layer {
  name: "2_conv3"
  type: "Convolution"
  bottom: "2_pool2"
  top: "2_conv3"
  param {
    lr_mult: 1
  }
  param {
    lr_mult: 2
  }
  convolution_param {
    num_output: 64
    pad: 2
    kernel_size: 5
    stride: 1
    weight_filler {
      type: "gaussian"
      std: 0.01
    }
    bias_filler {
      type: "constant"
    }
  }
}
layer {
  name: "2_relu3"
  type: "ReLU"
  bottom: "2_conv3"
  top: "2_conv3"
}
layer {
  name: "2_pool3"
  type: "Pooling"
  bottom: "2_conv3"
  top: "2_pool3"
  pooling_param {
    pool: AVE
    kernel_size: 3
    stride: 2
  }
}
layer {
  name: "2_ip1"
  type: "InnerProduct"
  bottom: "2_pool3"
  top: "2_ip1"
  param {
    lr_mult: 1
  }
  param {
    lr_mult: 2
  }
  inner_product_param {
    num_output: 64
    weight_filler {
      type: "gaussian"
      std: 0.1
    }
    bias_filler {
      type: "constant"
    }
  }
}
layer {
  name: "2_ip2"
  type: "InnerProduct"
  bottom: "2_ip1"
  top: "2_ip2"
  param {
    lr_mult: 1
  }
  param {
    lr_mult: 2
  }
  inner_product_param {
    num_output: 10
    weight_filler {
      type: "gaussian"
      std: 0.1
    }
    bias_filler {
      type: "constant"
    }
  }
}
layer {
  name: "2_prob"
  type: "Softmax"
  bottom: "2_ip2"
  top: "2_prob"
}
layer {
  name: "3_conv1"
  type: "Convolution"
  bottom: "data"
  top: "3_conv1"
  param {
    lr_mult: 1
  }
  param {
    lr_mult: 2
  }
  convolution_param {
    num_output: 32
    pad: 2
    kernel_size: 5
    stride: 1
    weight_filler {
      type: "gaussian"
      std: 0.0001
    }
    bias_filler {
      type: "constant"
    }
  }
}
layer {
  name: "3_pool1"
  type: "Pooling"
  bottom: "3_conv1"
  top: "3_pool1"
  pooling_param {
    pool: MAX
    kernel_size: 3
    stride: 2
  }
}
layer {
  name: "3_relu1"
  type: "ReLU"
  bottom: "3_pool1"
  top: "3_pool1"
}
layer {
  name: "3_conv2"
  type: "Convolution"
  bottom: "3_pool1"
  top: "3_conv2"
  param {
    lr_mult: 1
  }
  param {
    lr_mult: 2
  }
  convolution_param {
    num_output: 32
    pad: 2
    kernel_size: 5
    stride: 1
    weight_filler {
      type: "gaussian"
      std: 0.01
    }
    bias_filler {
      type: "constant"
    }
  }
}
layer {
  name: "3_relu2"
  type: "ReLU"
  bottom: "3_conv2"
  top: "3_conv2"
}
layer {
  name: "3_pool2"
  type: "Pooling"
  bottom: "3_conv2"
  top: "3_pool2"
  pooling_param {
    pool: AVE
    kernel_size: 3
    stride: 2
  }
}
layer {
  name: "3_conv3"
  type: "Convolution"
  bottom: "3_pool2"
  top: "3_conv3"
  param {
    lr_mult: 1
  }
  param {
    lr_mult: 2
  }
  convolution_param {
    num_output: 64
    pad: 2
    kernel_size: 5
    stride: 1
    weight_filler {
      type: "gaussian"
      std: 0.01
    }
    bias_filler {
      type: "constant"
    }
  }
}
layer {
  name: "3_relu3"
  type: "ReLU"
  bottom: "3_conv3"
  top: "3_conv3"
}
layer {
  name: "3_pool3"
  type: "Pooling"
  bottom: "3_conv3"
  top: "3_pool3"
  pooling_param {
    pool: AVE
    kernel_size: 3
    stride: 2
  }
}
layer {
  name: "3_ip1"
  type: "InnerProduct"
  bottom: "3_pool3"
  top: "3_ip1"
  param {
    lr_mult: 1
  }
  param {
    lr_mult: 2
  }
  inner_product_param {
    num_output: 64
    weight_filler {
      type: "gaussian"
      std: 0.1
    }
    bias_filler {
      type: "constant"
    }
  }
}
layer {
  name: "3_ip2"
  type: "InnerProduct"
  bottom: "3_ip1"
  top: "3_ip2"
  param {
    lr_mult: 1
  }
  param {
    lr_mult: 2
  }
  inner_product_param {
    num_output: 10
    weight_filler {
      type: "gaussian"
      std: 0.1
    }
    bias_filler {
      type: "constant"
    }
  }
}
layer {
  name: "3_prob"
  type: "Softmax"
  bottom: "3_ip2"
  top: "3_prob"
}
layer {
  name: "4_conv1"
  type: "Convolution"
  bottom: "data"
  top: "4_conv1"
  param {
    lr_mult: 1
  }
  param {
    lr_mult: 2
  }
  convolution_param {
    num_output: 32
    pad: 2
    kernel_size: 5
    stride: 1
    weight_filler {
      type: "gaussian"
      std: 0.0001
    }
    bias_filler {
      type: "constant"
    }
  }
}
layer {
  name: "4_pool1"
  type: "Pooling"
  bottom: "4_conv1"
  top: "4_pool1"
  pooling_param {
    pool: MAX
    kernel_size: 3
    stride: 2
  }
}
layer {
  name: "4_relu1"
  type: "ReLU"
  bottom: "4_pool1"
  top: "4_pool1"
}
layer {
  name: "4_conv2"
  type: "Convolution"
  bottom: "4_pool1"
  top: "4_conv2"
  param {
    lr_mult: 1
  }
  param {
    lr_mult: 2
  }
  convolution_param {
    num_output: 32
    pad: 2
    kernel_size: 5
    stride: 1
    weight_filler {
      type: "gaussian"
      std: 0.01
    }
    bias_filler {
      type: "constant"
    }
  }
}
layer {
  name: "4_relu2"
  type: "ReLU"
  bottom: "4_conv2"
  top: "4_conv2"
}
layer {
  name: "4_pool2"
  type: "Pooling"
  bottom: "4_conv2"
  top: "4_pool2"
  pooling_param {
    pool: AVE
    kernel_size: 3
    stride: 2
  }
}
layer {
  name: "4_conv3"
  type: "Convolution"
  bottom: "4_pool2"
  top: "4_conv3"
  param {
    lr_mult: 1
  }
  param {
    lr_mult: 2
  }
  convolution_param {
    num_output: 64
    pad: 2
    kernel_size: 5
    stride: 1
    weight_filler {
      type: "gaussian"
      std: 0.01
    }
    bias_filler {
      type: "constant"
    }
  }
}
layer {
  name: "4_relu3"
  type: "ReLU"
  bottom: "4_conv3"
  top: "4_conv3"
}
layer {
  name: "4_pool3"
  type: "Pooling"
  bottom: "4_conv3"
  top: "4_pool3"
  pooling_param {
    pool: AVE
    kernel_size: 3
    stride: 2
  }
}
layer {
  name: "4_ip1"
  type: "InnerProduct"
  bottom: "4_pool3"
  top: "4_ip1"
  param {
    lr_mult: 1
  }
  param {
    lr_mult: 2
  }
  inner_product_param {
    num_output: 64
    weight_filler {
      type: "gaussian"
      std: 0.1
    }
    bias_filler {
      type: "constant"
    }
  }
}
layer {
  name: "4_ip2"
  type: "InnerProduct"
  bottom: "4_ip1"
  top: "4_ip2"
  param {
    lr_mult: 1
  }
  param {
    lr_mult: 2
  }
  inner_product_param {
    num_output: 10
    weight_filler {
      type: "gaussian"
      std: 0.1
    }
    bias_filler {
      type: "constant"
    }
  }
}
layer {
  name: "4_prob"
  type: "Softmax"
  bottom: "4_ip2"
  top: "4_prob"
}
layer {
  name: "1_remove"
  type: "Remove"
  bottom: "1_prob"
  bottom: "label"
  top: "1_remove_pre"
  include {
    phase: TRAIN
  }
}
layer {
  name: "1_remove_softmax"
  type: "Softmax"
  bottom: "1_remove_pre"
  top: "1_remove"
  include {
    phase: TRAIN
  }
}
layer {
  name: "2_remove"
  type: "Remove"
  bottom: "2_prob"
  bottom: "label"
  top: "2_remove_pre"
  include {
    phase: TRAIN
  }
}
layer {
  name: "2_remove_softmax"
  type: "Softmax"
  bottom: "2_remove_pre"
  top: "2_remove"
  include {
    phase: TRAIN
  }
}
layer {
  name: "3_remove"
  type: "Remove"
  bottom: "3_prob"
  bottom: "label"
  top: "3_remove_pre"
  include {
    phase: TRAIN
  }
}
layer {
  name: "3_remove_softmax"
  type: "Softmax"
  bottom: "3_remove_pre"
  top: "3_remove"
  include {
    phase: TRAIN
  }
}
layer {
  name: "4_remove"
  type: "Remove"
  bottom: "4_prob"
  bottom: "label"
  top: "4_remove_pre"
  include {
    phase: TRAIN
  }
}
layer {
  name: "4_remove_softmax"
  type: "Softmax"
  bottom: "4_remove_pre"
  top: "4_remove"
  include {
    phase: TRAIN
  }
}
layer {
  name: "div"
  type: "Python"
  bottom: "1_remove"
  bottom: "2_remove"
  bottom: "3_remove"
  bottom: "4_remove"
  top: "1_div"
  top: "2_div"
  top: "3_div"
  top: "4_div"
  include {
    phase: TRAIN
  }
  python_param {
    module: "calc_jsd_layer"
    layer: "CalcJSDLayer"
  }
}
layer {
  name: "loss"
  type: "MCLJSD"
  bottom: "1_prob"
  bottom: "2_prob"
  bottom: "3_prob"
  bottom: "4_prob"
  bottom: "label"
  bottom: "1_div"
  bottom: "2_div"
  bottom: "3_div"
  bottom: "4_div"
  top: "multiple-output loss"
  top: "jsd-diversity"
  loss_weight: 1
  loss_weight: 1
  include {
    phase: TRAIN
  }
}
I0520 08:57:24.234167 10875 layer_factory.hpp:74] Creating layer cifar
I0520 08:57:24.234180 10875 net.cpp:90] Creating Layer cifar
I0520 08:57:24.234185 10875 net.cpp:368] cifar -> data
I0520 08:57:24.234202 10875 net.cpp:368] cifar -> label
I0520 08:57:24.234210 10875 net.cpp:120] Setting up cifar
I0520 08:57:24.234261 10875 db.cpp:34] Opened lmdb /home/mike/ml_lab/mod/MCL_Caffe/examples/cifar10/cifar10_train_lmdb
I0520 08:57:24.234295 10875 data_layer.cpp:67] output data size: 350,3,32,32
I0520 08:57:24.234302 10875 data_transformer.cpp:22] Loading mean file from: /home/mike/ml_lab/mod/MCL_Caffe/examples/cifar10/mean.binaryproto
I0520 08:57:24.234961 10875 net.cpp:127] Top shape: 350 3 32 32 (1075200)
I0520 08:57:24.234966 10875 net.cpp:127] Top shape: 350 (350)
I0520 08:57:24.234971 10875 layer_factory.hpp:74] Creating layer data_cifar_0_split
I0520 08:57:24.234977 10875 net.cpp:90] Creating Layer data_cifar_0_split
I0520 08:57:24.234979 10875 net.cpp:410] data_cifar_0_split <- data
I0520 08:57:24.234988 10875 net.cpp:368] data_cifar_0_split -> data_cifar_0_split_0
I0520 08:57:24.234994 10875 net.cpp:368] data_cifar_0_split -> data_cifar_0_split_1
I0520 08:57:24.234997 10875 net.cpp:368] data_cifar_0_split -> data_cifar_0_split_2
I0520 08:57:24.235002 10875 net.cpp:368] data_cifar_0_split -> data_cifar_0_split_3
I0520 08:57:24.235007 10875 net.cpp:120] Setting up data_cifar_0_split
I0520 08:57:24.235014 10875 net.cpp:127] Top shape: 350 3 32 32 (1075200)
I0520 08:57:24.235018 10875 net.cpp:127] Top shape: 350 3 32 32 (1075200)
I0520 08:57:24.235023 10875 net.cpp:127] Top shape: 350 3 32 32 (1075200)
I0520 08:57:24.235026 10875 net.cpp:127] Top shape: 350 3 32 32 (1075200)
I0520 08:57:24.235044 10875 layer_factory.hpp:74] Creating layer label_cifar_1_split
I0520 08:57:24.235051 10875 net.cpp:90] Creating Layer label_cifar_1_split
I0520 08:57:24.235055 10875 net.cpp:410] label_cifar_1_split <- label
I0520 08:57:24.235060 10875 net.cpp:368] label_cifar_1_split -> label_cifar_1_split_0
I0520 08:57:24.235070 10875 net.cpp:368] label_cifar_1_split -> label_cifar_1_split_1
I0520 08:57:24.235077 10875 net.cpp:368] label_cifar_1_split -> label_cifar_1_split_2
I0520 08:57:24.235085 10875 net.cpp:368] label_cifar_1_split -> label_cifar_1_split_3
I0520 08:57:24.235090 10875 net.cpp:368] label_cifar_1_split -> label_cifar_1_split_4
I0520 08:57:24.235095 10875 net.cpp:120] Setting up label_cifar_1_split
I0520 08:57:24.235103 10875 net.cpp:127] Top shape: 350 (350)
I0520 08:57:24.235108 10875 net.cpp:127] Top shape: 350 (350)
I0520 08:57:24.235112 10875 net.cpp:127] Top shape: 350 (350)
I0520 08:57:24.235117 10875 net.cpp:127] Top shape: 350 (350)
I0520 08:57:24.235123 10875 net.cpp:127] Top shape: 350 (350)
I0520 08:57:24.235127 10875 layer_factory.hpp:74] Creating layer 1_conv1
I0520 08:57:24.235134 10875 net.cpp:90] Creating Layer 1_conv1
I0520 08:57:24.235138 10875 net.cpp:410] 1_conv1 <- data_cifar_0_split_0
I0520 08:57:24.235146 10875 net.cpp:368] 1_conv1 -> 1_conv1
I0520 08:57:24.235154 10875 net.cpp:120] Setting up 1_conv1
I0520 08:57:24.235556 10875 net.cpp:127] Top shape: 350 32 32 32 (11468800)
I0520 08:57:24.235575 10875 layer_factory.hpp:74] Creating layer 1_pool1
I0520 08:57:24.235585 10875 net.cpp:90] Creating Layer 1_pool1
I0520 08:57:24.235590 10875 net.cpp:410] 1_pool1 <- 1_conv1
I0520 08:57:24.235595 10875 net.cpp:368] 1_pool1 -> 1_pool1
I0520 08:57:24.235604 10875 net.cpp:120] Setting up 1_pool1
I0520 08:57:24.235616 10875 net.cpp:127] Top shape: 350 32 16 16 (2867200)
I0520 08:57:24.235620 10875 layer_factory.hpp:74] Creating layer 1_relu1
I0520 08:57:24.235625 10875 net.cpp:90] Creating Layer 1_relu1
I0520 08:57:24.235630 10875 net.cpp:410] 1_relu1 <- 1_pool1
I0520 08:57:24.235636 10875 net.cpp:357] 1_relu1 -> 1_pool1 (in-place)
I0520 08:57:24.235641 10875 net.cpp:120] Setting up 1_relu1
I0520 08:57:24.235651 10875 net.cpp:127] Top shape: 350 32 16 16 (2867200)
I0520 08:57:24.235653 10875 layer_factory.hpp:74] Creating layer 1_conv2
I0520 08:57:24.235659 10875 net.cpp:90] Creating Layer 1_conv2
I0520 08:57:24.235663 10875 net.cpp:410] 1_conv2 <- 1_pool1
I0520 08:57:24.235669 10875 net.cpp:368] 1_conv2 -> 1_conv2
I0520 08:57:24.235676 10875 net.cpp:120] Setting up 1_conv2
I0520 08:57:24.236258 10875 net.cpp:127] Top shape: 350 32 16 16 (2867200)
I0520 08:57:24.236265 10875 layer_factory.hpp:74] Creating layer 1_relu2
I0520 08:57:24.236271 10875 net.cpp:90] Creating Layer 1_relu2
I0520 08:57:24.236276 10875 net.cpp:410] 1_relu2 <- 1_conv2
I0520 08:57:24.236282 10875 net.cpp:357] 1_relu2 -> 1_conv2 (in-place)
I0520 08:57:24.236289 10875 net.cpp:120] Setting up 1_relu2
I0520 08:57:24.236294 10875 net.cpp:127] Top shape: 350 32 16 16 (2867200)
I0520 08:57:24.236299 10875 layer_factory.hpp:74] Creating layer 1_pool2
I0520 08:57:24.236304 10875 net.cpp:90] Creating Layer 1_pool2
I0520 08:57:24.236309 10875 net.cpp:410] 1_pool2 <- 1_conv2
I0520 08:57:24.236313 10875 net.cpp:368] 1_pool2 -> 1_pool2
I0520 08:57:24.236318 10875 net.cpp:120] Setting up 1_pool2
I0520 08:57:24.236326 10875 net.cpp:127] Top shape: 350 32 8 8 (716800)
I0520 08:57:24.236330 10875 layer_factory.hpp:74] Creating layer 1_conv3
I0520 08:57:24.236337 10875 net.cpp:90] Creating Layer 1_conv3
I0520 08:57:24.236341 10875 net.cpp:410] 1_conv3 <- 1_pool2
I0520 08:57:24.236348 10875 net.cpp:368] 1_conv3 -> 1_conv3
I0520 08:57:24.236354 10875 net.cpp:120] Setting up 1_conv3
I0520 08:57:24.237519 10875 net.cpp:127] Top shape: 350 64 8 8 (1433600)
I0520 08:57:24.237527 10875 layer_factory.hpp:74] Creating layer 1_relu3
I0520 08:57:24.237534 10875 net.cpp:90] Creating Layer 1_relu3
I0520 08:57:24.237536 10875 net.cpp:410] 1_relu3 <- 1_conv3
I0520 08:57:24.237540 10875 net.cpp:357] 1_relu3 -> 1_conv3 (in-place)
I0520 08:57:24.237543 10875 net.cpp:120] Setting up 1_relu3
I0520 08:57:24.237545 10875 net.cpp:127] Top shape: 350 64 8 8 (1433600)
I0520 08:57:24.237547 10875 layer_factory.hpp:74] Creating layer 1_pool3
I0520 08:57:24.237550 10875 net.cpp:90] Creating Layer 1_pool3
I0520 08:57:24.237552 10875 net.cpp:410] 1_pool3 <- 1_conv3
I0520 08:57:24.237555 10875 net.cpp:368] 1_pool3 -> 1_pool3
I0520 08:57:24.237560 10875 net.cpp:120] Setting up 1_pool3
I0520 08:57:24.237563 10875 net.cpp:127] Top shape: 350 64 4 4 (358400)
I0520 08:57:24.237565 10875 layer_factory.hpp:74] Creating layer 1_ip1
I0520 08:57:24.237570 10875 net.cpp:90] Creating Layer 1_ip1
I0520 08:57:24.237571 10875 net.cpp:410] 1_ip1 <- 1_pool3
I0520 08:57:24.237574 10875 net.cpp:368] 1_ip1 -> 1_ip1
I0520 08:57:24.237579 10875 net.cpp:120] Setting up 1_ip1
I0520 08:57:24.239081 10875 net.cpp:127] Top shape: 350 64 (22400)
I0520 08:57:24.239087 10875 layer_factory.hpp:74] Creating layer 1_ip2
I0520 08:57:24.239090 10875 net.cpp:90] Creating Layer 1_ip2
I0520 08:57:24.239092 10875 net.cpp:410] 1_ip2 <- 1_ip1
I0520 08:57:24.239096 10875 net.cpp:368] 1_ip2 -> 1_ip2
I0520 08:57:24.239100 10875 net.cpp:120] Setting up 1_ip2
I0520 08:57:24.239121 10875 net.cpp:127] Top shape: 350 10 (3500)
I0520 08:57:24.239125 10875 layer_factory.hpp:74] Creating layer 1_prob
I0520 08:57:24.239130 10875 net.cpp:90] Creating Layer 1_prob
I0520 08:57:24.239131 10875 net.cpp:410] 1_prob <- 1_ip2
I0520 08:57:24.239140 10875 net.cpp:368] 1_prob -> 1_prob
I0520 08:57:24.239145 10875 net.cpp:120] Setting up 1_prob
I0520 08:57:24.239151 10875 net.cpp:127] Top shape: 350 10 (3500)
I0520 08:57:24.239152 10875 layer_factory.hpp:74] Creating layer 1_prob_1_prob_0_split
I0520 08:57:24.239156 10875 net.cpp:90] Creating Layer 1_prob_1_prob_0_split
I0520 08:57:24.239157 10875 net.cpp:410] 1_prob_1_prob_0_split <- 1_prob
I0520 08:57:24.239161 10875 net.cpp:368] 1_prob_1_prob_0_split -> 1_prob_1_prob_0_split_0
I0520 08:57:24.239163 10875 net.cpp:368] 1_prob_1_prob_0_split -> 1_prob_1_prob_0_split_1
I0520 08:57:24.239167 10875 net.cpp:120] Setting up 1_prob_1_prob_0_split
I0520 08:57:24.239169 10875 net.cpp:127] Top shape: 350 10 (3500)
I0520 08:57:24.239172 10875 net.cpp:127] Top shape: 350 10 (3500)
I0520 08:57:24.239174 10875 layer_factory.hpp:74] Creating layer 2_conv1
I0520 08:57:24.239178 10875 net.cpp:90] Creating Layer 2_conv1
I0520 08:57:24.239181 10875 net.cpp:410] 2_conv1 <- data_cifar_0_split_1
I0520 08:57:24.239184 10875 net.cpp:368] 2_conv1 -> 2_conv1
I0520 08:57:24.239187 10875 net.cpp:120] Setting up 2_conv1
I0520 08:57:24.239251 10875 net.cpp:127] Top shape: 350 32 32 32 (11468800)
I0520 08:57:24.239256 10875 layer_factory.hpp:74] Creating layer 2_pool1
I0520 08:57:24.239259 10875 net.cpp:90] Creating Layer 2_pool1
I0520 08:57:24.239261 10875 net.cpp:410] 2_pool1 <- 2_conv1
I0520 08:57:24.239264 10875 net.cpp:368] 2_pool1 -> 2_pool1
I0520 08:57:24.239267 10875 net.cpp:120] Setting up 2_pool1
I0520 08:57:24.239271 10875 net.cpp:127] Top shape: 350 32 16 16 (2867200)
I0520 08:57:24.239272 10875 layer_factory.hpp:74] Creating layer 2_relu1
I0520 08:57:24.239275 10875 net.cpp:90] Creating Layer 2_relu1
I0520 08:57:24.239277 10875 net.cpp:410] 2_relu1 <- 2_pool1
I0520 08:57:24.239279 10875 net.cpp:357] 2_relu1 -> 2_pool1 (in-place)
I0520 08:57:24.239282 10875 net.cpp:120] Setting up 2_relu1
I0520 08:57:24.239284 10875 net.cpp:127] Top shape: 350 32 16 16 (2867200)
I0520 08:57:24.239286 10875 layer_factory.hpp:74] Creating layer 2_conv2
I0520 08:57:24.239289 10875 net.cpp:90] Creating Layer 2_conv2
I0520 08:57:24.239291 10875 net.cpp:410] 2_conv2 <- 2_pool1
I0520 08:57:24.239295 10875 net.cpp:368] 2_conv2 -> 2_conv2
I0520 08:57:24.239297 10875 net.cpp:120] Setting up 2_conv2
I0520 08:57:24.239872 10875 net.cpp:127] Top shape: 350 32 16 16 (2867200)
I0520 08:57:24.239877 10875 layer_factory.hpp:74] Creating layer 2_relu2
I0520 08:57:24.239881 10875 net.cpp:90] Creating Layer 2_relu2
I0520 08:57:24.239882 10875 net.cpp:410] 2_relu2 <- 2_conv2
I0520 08:57:24.239884 10875 net.cpp:357] 2_relu2 -> 2_conv2 (in-place)
I0520 08:57:24.239887 10875 net.cpp:120] Setting up 2_relu2
I0520 08:57:24.239889 10875 net.cpp:127] Top shape: 350 32 16 16 (2867200)
I0520 08:57:24.239892 10875 layer_factory.hpp:74] Creating layer 2_pool2
I0520 08:57:24.239894 10875 net.cpp:90] Creating Layer 2_pool2
I0520 08:57:24.239897 10875 net.cpp:410] 2_pool2 <- 2_conv2
I0520 08:57:24.239898 10875 net.cpp:368] 2_pool2 -> 2_pool2
I0520 08:57:24.239902 10875 net.cpp:120] Setting up 2_pool2
I0520 08:57:24.239904 10875 net.cpp:127] Top shape: 350 32 8 8 (716800)
I0520 08:57:24.239907 10875 layer_factory.hpp:74] Creating layer 2_conv3
I0520 08:57:24.239910 10875 net.cpp:90] Creating Layer 2_conv3
I0520 08:57:24.239912 10875 net.cpp:410] 2_conv3 <- 2_pool2
I0520 08:57:24.239914 10875 net.cpp:368] 2_conv3 -> 2_conv3
I0520 08:57:24.239917 10875 net.cpp:120] Setting up 2_conv3
I0520 08:57:24.241068 10875 net.cpp:127] Top shape: 350 64 8 8 (1433600)
I0520 08:57:24.241073 10875 layer_factory.hpp:74] Creating layer 2_relu3
I0520 08:57:24.241076 10875 net.cpp:90] Creating Layer 2_relu3
I0520 08:57:24.241077 10875 net.cpp:410] 2_relu3 <- 2_conv3
I0520 08:57:24.241081 10875 net.cpp:357] 2_relu3 -> 2_conv3 (in-place)
I0520 08:57:24.241083 10875 net.cpp:120] Setting up 2_relu3
I0520 08:57:24.241086 10875 net.cpp:127] Top shape: 350 64 8 8 (1433600)
I0520 08:57:24.241087 10875 layer_factory.hpp:74] Creating layer 2_pool3
I0520 08:57:24.241096 10875 net.cpp:90] Creating Layer 2_pool3
I0520 08:57:24.241098 10875 net.cpp:410] 2_pool3 <- 2_conv3
I0520 08:57:24.241101 10875 net.cpp:368] 2_pool3 -> 2_pool3
I0520 08:57:24.241103 10875 net.cpp:120] Setting up 2_pool3
I0520 08:57:24.241106 10875 net.cpp:127] Top shape: 350 64 4 4 (358400)
I0520 08:57:24.241109 10875 layer_factory.hpp:74] Creating layer 2_ip1
I0520 08:57:24.241113 10875 net.cpp:90] Creating Layer 2_ip1
I0520 08:57:24.241116 10875 net.cpp:410] 2_ip1 <- 2_pool3
I0520 08:57:24.241117 10875 net.cpp:368] 2_ip1 -> 2_ip1
I0520 08:57:24.241122 10875 net.cpp:120] Setting up 2_ip1
I0520 08:57:24.242604 10875 net.cpp:127] Top shape: 350 64 (22400)
I0520 08:57:24.242611 10875 layer_factory.hpp:74] Creating layer 2_ip2
I0520 08:57:24.242614 10875 net.cpp:90] Creating Layer 2_ip2
I0520 08:57:24.242616 10875 net.cpp:410] 2_ip2 <- 2_ip1
I0520 08:57:24.242620 10875 net.cpp:368] 2_ip2 -> 2_ip2
I0520 08:57:24.242624 10875 net.cpp:120] Setting up 2_ip2
I0520 08:57:24.242645 10875 net.cpp:127] Top shape: 350 10 (3500)
I0520 08:57:24.242647 10875 layer_factory.hpp:74] Creating layer 2_prob
I0520 08:57:24.242650 10875 net.cpp:90] Creating Layer 2_prob
I0520 08:57:24.242652 10875 net.cpp:410] 2_prob <- 2_ip2
I0520 08:57:24.242655 10875 net.cpp:368] 2_prob -> 2_prob
I0520 08:57:24.242658 10875 net.cpp:120] Setting up 2_prob
I0520 08:57:24.242661 10875 net.cpp:127] Top shape: 350 10 (3500)
I0520 08:57:24.242663 10875 layer_factory.hpp:74] Creating layer 2_prob_2_prob_0_split
I0520 08:57:24.242666 10875 net.cpp:90] Creating Layer 2_prob_2_prob_0_split
I0520 08:57:24.242668 10875 net.cpp:410] 2_prob_2_prob_0_split <- 2_prob
I0520 08:57:24.242671 10875 net.cpp:368] 2_prob_2_prob_0_split -> 2_prob_2_prob_0_split_0
I0520 08:57:24.242674 10875 net.cpp:368] 2_prob_2_prob_0_split -> 2_prob_2_prob_0_split_1
I0520 08:57:24.242678 10875 net.cpp:120] Setting up 2_prob_2_prob_0_split
I0520 08:57:24.242681 10875 net.cpp:127] Top shape: 350 10 (3500)
I0520 08:57:24.242683 10875 net.cpp:127] Top shape: 350 10 (3500)
I0520 08:57:24.242686 10875 layer_factory.hpp:74] Creating layer 3_conv1
I0520 08:57:24.242689 10875 net.cpp:90] Creating Layer 3_conv1
I0520 08:57:24.242691 10875 net.cpp:410] 3_conv1 <- data_cifar_0_split_2
I0520 08:57:24.242696 10875 net.cpp:368] 3_conv1 -> 3_conv1
I0520 08:57:24.242698 10875 net.cpp:120] Setting up 3_conv1
I0520 08:57:24.242758 10875 net.cpp:127] Top shape: 350 32 32 32 (11468800)
I0520 08:57:24.242763 10875 layer_factory.hpp:74] Creating layer 3_pool1
I0520 08:57:24.242765 10875 net.cpp:90] Creating Layer 3_pool1
I0520 08:57:24.242766 10875 net.cpp:410] 3_pool1 <- 3_conv1
I0520 08:57:24.242769 10875 net.cpp:368] 3_pool1 -> 3_pool1
I0520 08:57:24.242772 10875 net.cpp:120] Setting up 3_pool1
I0520 08:57:24.242775 10875 net.cpp:127] Top shape: 350 32 16 16 (2867200)
I0520 08:57:24.242777 10875 layer_factory.hpp:74] Creating layer 3_relu1
I0520 08:57:24.242780 10875 net.cpp:90] Creating Layer 3_relu1
I0520 08:57:24.242781 10875 net.cpp:410] 3_relu1 <- 3_pool1
I0520 08:57:24.242784 10875 net.cpp:357] 3_relu1 -> 3_pool1 (in-place)
I0520 08:57:24.242786 10875 net.cpp:120] Setting up 3_relu1
I0520 08:57:24.242789 10875 net.cpp:127] Top shape: 350 32 16 16 (2867200)
I0520 08:57:24.242791 10875 layer_factory.hpp:74] Creating layer 3_conv2
I0520 08:57:24.242796 10875 net.cpp:90] Creating Layer 3_conv2
I0520 08:57:24.242797 10875 net.cpp:410] 3_conv2 <- 3_pool1
I0520 08:57:24.242800 10875 net.cpp:368] 3_conv2 -> 3_conv2
I0520 08:57:24.242804 10875 net.cpp:120] Setting up 3_conv2
I0520 08:57:24.243382 10875 net.cpp:127] Top shape: 350 32 16 16 (2867200)
I0520 08:57:24.243387 10875 layer_factory.hpp:74] Creating layer 3_relu2
I0520 08:57:24.243389 10875 net.cpp:90] Creating Layer 3_relu2
I0520 08:57:24.243391 10875 net.cpp:410] 3_relu2 <- 3_conv2
I0520 08:57:24.243394 10875 net.cpp:357] 3_relu2 -> 3_conv2 (in-place)
I0520 08:57:24.243397 10875 net.cpp:120] Setting up 3_relu2
I0520 08:57:24.243401 10875 net.cpp:127] Top shape: 350 32 16 16 (2867200)
I0520 08:57:24.243402 10875 layer_factory.hpp:74] Creating layer 3_pool2
I0520 08:57:24.243410 10875 net.cpp:90] Creating Layer 3_pool2
I0520 08:57:24.243412 10875 net.cpp:410] 3_pool2 <- 3_conv2
I0520 08:57:24.243415 10875 net.cpp:368] 3_pool2 -> 3_pool2
I0520 08:57:24.243417 10875 net.cpp:120] Setting up 3_pool2
I0520 08:57:24.243422 10875 net.cpp:127] Top shape: 350 32 8 8 (716800)
I0520 08:57:24.243423 10875 layer_factory.hpp:74] Creating layer 3_conv3
I0520 08:57:24.243427 10875 net.cpp:90] Creating Layer 3_conv3
I0520 08:57:24.243428 10875 net.cpp:410] 3_conv3 <- 3_pool2
I0520 08:57:24.243432 10875 net.cpp:368] 3_conv3 -> 3_conv3
I0520 08:57:24.243435 10875 net.cpp:120] Setting up 3_conv3
I0520 08:57:24.244585 10875 net.cpp:127] Top shape: 350 64 8 8 (1433600)
I0520 08:57:24.244590 10875 layer_factory.hpp:74] Creating layer 3_relu3
I0520 08:57:24.244593 10875 net.cpp:90] Creating Layer 3_relu3
I0520 08:57:24.244596 10875 net.cpp:410] 3_relu3 <- 3_conv3
I0520 08:57:24.244598 10875 net.cpp:357] 3_relu3 -> 3_conv3 (in-place)
I0520 08:57:24.244601 10875 net.cpp:120] Setting up 3_relu3
I0520 08:57:24.244603 10875 net.cpp:127] Top shape: 350 64 8 8 (1433600)
I0520 08:57:24.244606 10875 layer_factory.hpp:74] Creating layer 3_pool3
I0520 08:57:24.244607 10875 net.cpp:90] Creating Layer 3_pool3
I0520 08:57:24.244609 10875 net.cpp:410] 3_pool3 <- 3_conv3
I0520 08:57:24.244612 10875 net.cpp:368] 3_pool3 -> 3_pool3
I0520 08:57:24.244616 10875 net.cpp:120] Setting up 3_pool3
I0520 08:57:24.244618 10875 net.cpp:127] Top shape: 350 64 4 4 (358400)
I0520 08:57:24.244619 10875 layer_factory.hpp:74] Creating layer 3_ip1
I0520 08:57:24.244622 10875 net.cpp:90] Creating Layer 3_ip1
I0520 08:57:24.244624 10875 net.cpp:410] 3_ip1 <- 3_pool3
I0520 08:57:24.244628 10875 net.cpp:368] 3_ip1 -> 3_ip1
I0520 08:57:24.244632 10875 net.cpp:120] Setting up 3_ip1
I0520 08:57:24.246101 10875 net.cpp:127] Top shape: 350 64 (22400)
I0520 08:57:24.246106 10875 layer_factory.hpp:74] Creating layer 3_ip2
I0520 08:57:24.246109 10875 net.cpp:90] Creating Layer 3_ip2
I0520 08:57:24.246111 10875 net.cpp:410] 3_ip2 <- 3_ip1
I0520 08:57:24.246115 10875 net.cpp:368] 3_ip2 -> 3_ip2
I0520 08:57:24.246119 10875 net.cpp:120] Setting up 3_ip2
I0520 08:57:24.246139 10875 net.cpp:127] Top shape: 350 10 (3500)
I0520 08:57:24.246142 10875 layer_factory.hpp:74] Creating layer 3_prob
I0520 08:57:24.246145 10875 net.cpp:90] Creating Layer 3_prob
I0520 08:57:24.246147 10875 net.cpp:410] 3_prob <- 3_ip2
I0520 08:57:24.246150 10875 net.cpp:368] 3_prob -> 3_prob
I0520 08:57:24.246152 10875 net.cpp:120] Setting up 3_prob
I0520 08:57:24.246155 10875 net.cpp:127] Top shape: 350 10 (3500)
I0520 08:57:24.246157 10875 layer_factory.hpp:74] Creating layer 3_prob_3_prob_0_split
I0520 08:57:24.246160 10875 net.cpp:90] Creating Layer 3_prob_3_prob_0_split
I0520 08:57:24.246161 10875 net.cpp:410] 3_prob_3_prob_0_split <- 3_prob
I0520 08:57:24.246165 10875 net.cpp:368] 3_prob_3_prob_0_split -> 3_prob_3_prob_0_split_0
I0520 08:57:24.246167 10875 net.cpp:368] 3_prob_3_prob_0_split -> 3_prob_3_prob_0_split_1
I0520 08:57:24.246170 10875 net.cpp:120] Setting up 3_prob_3_prob_0_split
I0520 08:57:24.246173 10875 net.cpp:127] Top shape: 350 10 (3500)
I0520 08:57:24.246176 10875 net.cpp:127] Top shape: 350 10 (3500)
I0520 08:57:24.246177 10875 layer_factory.hpp:74] Creating layer 4_conv1
I0520 08:57:24.246181 10875 net.cpp:90] Creating Layer 4_conv1
I0520 08:57:24.246183 10875 net.cpp:410] 4_conv1 <- data_cifar_0_split_3
I0520 08:57:24.246186 10875 net.cpp:368] 4_conv1 -> 4_conv1
I0520 08:57:24.246189 10875 net.cpp:120] Setting up 4_conv1
I0520 08:57:24.246256 10875 net.cpp:127] Top shape: 350 32 32 32 (11468800)
I0520 08:57:24.246261 10875 layer_factory.hpp:74] Creating layer 4_pool1
I0520 08:57:24.246264 10875 net.cpp:90] Creating Layer 4_pool1
I0520 08:57:24.246266 10875 net.cpp:410] 4_pool1 <- 4_conv1
I0520 08:57:24.246268 10875 net.cpp:368] 4_pool1 -> 4_pool1
I0520 08:57:24.246271 10875 net.cpp:120] Setting up 4_pool1
I0520 08:57:24.246275 10875 net.cpp:127] Top shape: 350 32 16 16 (2867200)
I0520 08:57:24.246276 10875 layer_factory.hpp:74] Creating layer 4_relu1
I0520 08:57:24.246286 10875 net.cpp:90] Creating Layer 4_relu1
I0520 08:57:24.246289 10875 net.cpp:410] 4_relu1 <- 4_pool1
I0520 08:57:24.246291 10875 net.cpp:357] 4_relu1 -> 4_pool1 (in-place)
I0520 08:57:24.246294 10875 net.cpp:120] Setting up 4_relu1
I0520 08:57:24.246296 10875 net.cpp:127] Top shape: 350 32 16 16 (2867200)
I0520 08:57:24.246299 10875 layer_factory.hpp:74] Creating layer 4_conv2
I0520 08:57:24.246301 10875 net.cpp:90] Creating Layer 4_conv2
I0520 08:57:24.246304 10875 net.cpp:410] 4_conv2 <- 4_pool1
I0520 08:57:24.246305 10875 net.cpp:368] 4_conv2 -> 4_conv2
I0520 08:57:24.246309 10875 net.cpp:120] Setting up 4_conv2
I0520 08:57:24.246886 10875 net.cpp:127] Top shape: 350 32 16 16 (2867200)
I0520 08:57:24.246893 10875 layer_factory.hpp:74] Creating layer 4_relu2
I0520 08:57:24.246897 10875 net.cpp:90] Creating Layer 4_relu2
I0520 08:57:24.246899 10875 net.cpp:410] 4_relu2 <- 4_conv2
I0520 08:57:24.246902 10875 net.cpp:357] 4_relu2 -> 4_conv2 (in-place)
I0520 08:57:24.246904 10875 net.cpp:120] Setting up 4_relu2
I0520 08:57:24.246907 10875 net.cpp:127] Top shape: 350 32 16 16 (2867200)
I0520 08:57:24.246908 10875 layer_factory.hpp:74] Creating layer 4_pool2
I0520 08:57:24.246912 10875 net.cpp:90] Creating Layer 4_pool2
I0520 08:57:24.246913 10875 net.cpp:410] 4_pool2 <- 4_conv2
I0520 08:57:24.246917 10875 net.cpp:368] 4_pool2 -> 4_pool2
I0520 08:57:24.246919 10875 net.cpp:120] Setting up 4_pool2
I0520 08:57:24.246922 10875 net.cpp:127] Top shape: 350 32 8 8 (716800)
I0520 08:57:24.246924 10875 layer_factory.hpp:74] Creating layer 4_conv3
I0520 08:57:24.246928 10875 net.cpp:90] Creating Layer 4_conv3
I0520 08:57:24.246929 10875 net.cpp:410] 4_conv3 <- 4_pool2
I0520 08:57:24.246932 10875 net.cpp:368] 4_conv3 -> 4_conv3
I0520 08:57:24.246935 10875 net.cpp:120] Setting up 4_conv3
I0520 08:57:24.248086 10875 net.cpp:127] Top shape: 350 64 8 8 (1433600)
I0520 08:57:24.248090 10875 layer_factory.hpp:74] Creating layer 4_relu3
I0520 08:57:24.248093 10875 net.cpp:90] Creating Layer 4_relu3
I0520 08:57:24.248095 10875 net.cpp:410] 4_relu3 <- 4_conv3
I0520 08:57:24.248098 10875 net.cpp:357] 4_relu3 -> 4_conv3 (in-place)
I0520 08:57:24.248100 10875 net.cpp:120] Setting up 4_relu3
I0520 08:57:24.248103 10875 net.cpp:127] Top shape: 350 64 8 8 (1433600)
I0520 08:57:24.248106 10875 layer_factory.hpp:74] Creating layer 4_pool3
I0520 08:57:24.248108 10875 net.cpp:90] Creating Layer 4_pool3
I0520 08:57:24.248109 10875 net.cpp:410] 4_pool3 <- 4_conv3
I0520 08:57:24.248112 10875 net.cpp:368] 4_pool3 -> 4_pool3
I0520 08:57:24.248116 10875 net.cpp:120] Setting up 4_pool3
I0520 08:57:24.248117 10875 net.cpp:127] Top shape: 350 64 4 4 (358400)
I0520 08:57:24.248119 10875 layer_factory.hpp:74] Creating layer 4_ip1
I0520 08:57:24.248123 10875 net.cpp:90] Creating Layer 4_ip1
I0520 08:57:24.248126 10875 net.cpp:410] 4_ip1 <- 4_pool3
I0520 08:57:24.248128 10875 net.cpp:368] 4_ip1 -> 4_ip1
I0520 08:57:24.248131 10875 net.cpp:120] Setting up 4_ip1
I0520 08:57:24.249601 10875 net.cpp:127] Top shape: 350 64 (22400)
I0520 08:57:24.249605 10875 layer_factory.hpp:74] Creating layer 4_ip2
I0520 08:57:24.249609 10875 net.cpp:90] Creating Layer 4_ip2
I0520 08:57:24.249611 10875 net.cpp:410] 4_ip2 <- 4_ip1
I0520 08:57:24.249615 10875 net.cpp:368] 4_ip2 -> 4_ip2
I0520 08:57:24.249619 10875 net.cpp:120] Setting up 4_ip2
I0520 08:57:24.249639 10875 net.cpp:127] Top shape: 350 10 (3500)
I0520 08:57:24.249644 10875 layer_factory.hpp:74] Creating layer 4_prob
I0520 08:57:24.249645 10875 net.cpp:90] Creating Layer 4_prob
I0520 08:57:24.249647 10875 net.cpp:410] 4_prob <- 4_ip2
I0520 08:57:24.249650 10875 net.cpp:368] 4_prob -> 4_prob
I0520 08:57:24.249653 10875 net.cpp:120] Setting up 4_prob
I0520 08:57:24.249657 10875 net.cpp:127] Top shape: 350 10 (3500)
I0520 08:57:24.249658 10875 layer_factory.hpp:74] Creating layer 4_prob_4_prob_0_split
I0520 08:57:24.249661 10875 net.cpp:90] Creating Layer 4_prob_4_prob_0_split
I0520 08:57:24.249663 10875 net.cpp:410] 4_prob_4_prob_0_split <- 4_prob
I0520 08:57:24.249666 10875 net.cpp:368] 4_prob_4_prob_0_split -> 4_prob_4_prob_0_split_0
I0520 08:57:24.249675 10875 net.cpp:368] 4_prob_4_prob_0_split -> 4_prob_4_prob_0_split_1
I0520 08:57:24.249678 10875 net.cpp:120] Setting up 4_prob_4_prob_0_split
I0520 08:57:24.249681 10875 net.cpp:127] Top shape: 350 10 (3500)
I0520 08:57:24.249683 10875 net.cpp:127] Top shape: 350 10 (3500)
I0520 08:57:24.249686 10875 layer_factory.hpp:74] Creating layer 1_remove
I0520 08:57:24.249691 10875 net.cpp:90] Creating Layer 1_remove
I0520 08:57:24.249692 10875 net.cpp:410] 1_remove <- 1_prob_1_prob_0_split_0
I0520 08:57:24.249694 10875 net.cpp:410] 1_remove <- label_cifar_1_split_0
I0520 08:57:24.249698 10875 net.cpp:368] 1_remove -> 1_remove_pre
I0520 08:57:24.249701 10875 net.cpp:120] Setting up 1_remove
I0520 08:57:24.249706 10875 net.cpp:127] Top shape: 350 9 (3150)
I0520 08:57:24.249708 10875 layer_factory.hpp:74] Creating layer 1_remove_softmax
I0520 08:57:24.249711 10875 net.cpp:90] Creating Layer 1_remove_softmax
I0520 08:57:24.249713 10875 net.cpp:410] 1_remove_softmax <- 1_remove_pre
I0520 08:57:24.249717 10875 net.cpp:368] 1_remove_softmax -> 1_remove
I0520 08:57:24.249721 10875 net.cpp:120] Setting up 1_remove_softmax
I0520 08:57:24.249723 10875 net.cpp:127] Top shape: 350 9 (3150)
I0520 08:57:24.249725 10875 layer_factory.hpp:74] Creating layer 2_remove
I0520 08:57:24.249728 10875 net.cpp:90] Creating Layer 2_remove
I0520 08:57:24.249730 10875 net.cpp:410] 2_remove <- 2_prob_2_prob_0_split_0
I0520 08:57:24.249733 10875 net.cpp:410] 2_remove <- label_cifar_1_split_1
I0520 08:57:24.249735 10875 net.cpp:368] 2_remove -> 2_remove_pre
I0520 08:57:24.249738 10875 net.cpp:120] Setting up 2_remove
I0520 08:57:24.249742 10875 net.cpp:127] Top shape: 350 9 (3150)
I0520 08:57:24.249743 10875 layer_factory.hpp:74] Creating layer 2_remove_softmax
I0520 08:57:24.249747 10875 net.cpp:90] Creating Layer 2_remove_softmax
I0520 08:57:24.249748 10875 net.cpp:410] 2_remove_softmax <- 2_remove_pre
I0520 08:57:24.249752 10875 net.cpp:368] 2_remove_softmax -> 2_remove
I0520 08:57:24.249754 10875 net.cpp:120] Setting up 2_remove_softmax
I0520 08:57:24.249758 10875 net.cpp:127] Top shape: 350 9 (3150)
I0520 08:57:24.249759 10875 layer_factory.hpp:74] Creating layer 3_remove
I0520 08:57:24.249763 10875 net.cpp:90] Creating Layer 3_remove
I0520 08:57:24.249764 10875 net.cpp:410] 3_remove <- 3_prob_3_prob_0_split_0
I0520 08:57:24.249766 10875 net.cpp:410] 3_remove <- label_cifar_1_split_2
I0520 08:57:24.249769 10875 net.cpp:368] 3_remove -> 3_remove_pre
I0520 08:57:24.249771 10875 net.cpp:120] Setting up 3_remove
I0520 08:57:24.249774 10875 net.cpp:127] Top shape: 350 9 (3150)
I0520 08:57:24.249776 10875 layer_factory.hpp:74] Creating layer 3_remove_softmax
I0520 08:57:24.249779 10875 net.cpp:90] Creating Layer 3_remove_softmax
I0520 08:57:24.249781 10875 net.cpp:410] 3_remove_softmax <- 3_remove_pre
I0520 08:57:24.249783 10875 net.cpp:368] 3_remove_softmax -> 3_remove
I0520 08:57:24.249786 10875 net.cpp:120] Setting up 3_remove_softmax
I0520 08:57:24.249788 10875 net.cpp:127] Top shape: 350 9 (3150)
I0520 08:57:24.249790 10875 layer_factory.hpp:74] Creating layer 4_remove
I0520 08:57:24.249794 10875 net.cpp:90] Creating Layer 4_remove
I0520 08:57:24.249795 10875 net.cpp:410] 4_remove <- 4_prob_4_prob_0_split_0
I0520 08:57:24.249797 10875 net.cpp:410] 4_remove <- label_cifar_1_split_3
I0520 08:57:24.249800 10875 net.cpp:368] 4_remove -> 4_remove_pre
I0520 08:57:24.249804 10875 net.cpp:120] Setting up 4_remove
I0520 08:57:24.249805 10875 net.cpp:127] Top shape: 350 9 (3150)
I0520 08:57:24.249807 10875 layer_factory.hpp:74] Creating layer 4_remove_softmax
I0520 08:57:24.249810 10875 net.cpp:90] Creating Layer 4_remove_softmax
I0520 08:57:24.249812 10875 net.cpp:410] 4_remove_softmax <- 4_remove_pre
I0520 08:57:24.249815 10875 net.cpp:368] 4_remove_softmax -> 4_remove
I0520 08:57:24.249819 10875 net.cpp:120] Setting up 4_remove_softmax
I0520 08:57:24.249821 10875 net.cpp:127] Top shape: 350 9 (3150)
I0520 08:57:24.249822 10875 layer_factory.hpp:74] Creating layer div
I0520 08:57:24.756958 10875 net.cpp:90] Creating Layer div
I0520 08:57:24.756994 10875 net.cpp:410] div <- 1_remove
I0520 08:57:24.757000 10875 net.cpp:410] div <- 2_remove
I0520 08:57:24.757004 10875 net.cpp:410] div <- 3_remove
I0520 08:57:24.757009 10875 net.cpp:410] div <- 4_remove
I0520 08:57:24.757012 10875 net.cpp:368] div -> 1_div
I0520 08:57:24.757020 10875 net.cpp:368] div -> 2_div
I0520 08:57:24.757032 10875 net.cpp:368] div -> 3_div
I0520 08:57:24.757038 10875 net.cpp:368] div -> 4_div
I0520 08:57:24.757042 10875 net.cpp:120] Setting up div
I0520 08:57:24.757114 10875 net.cpp:127] Top shape: 350 (350)
I0520 08:57:24.757123 10875 net.cpp:127] Top shape: 350 (350)
I0520 08:57:24.757128 10875 net.cpp:127] Top shape: 350 (350)
I0520 08:57:24.757133 10875 net.cpp:127] Top shape: 350 (350)
I0520 08:57:24.757136 10875 layer_factory.hpp:74] Creating layer loss
I0520 08:57:24.757153 10875 net.cpp:90] Creating Layer loss
I0520 08:57:24.757158 10875 net.cpp:410] loss <- 1_prob_1_prob_0_split_1
I0520 08:57:24.757164 10875 net.cpp:410] loss <- 2_prob_2_prob_0_split_1
I0520 08:57:24.757169 10875 net.cpp:410] loss <- 3_prob_3_prob_0_split_1
I0520 08:57:24.757172 10875 net.cpp:410] loss <- 4_prob_4_prob_0_split_1
I0520 08:57:24.757179 10875 net.cpp:410] loss <- label_cifar_1_split_4
I0520 08:57:24.757182 10875 net.cpp:410] loss <- 1_div
I0520 08:57:24.757187 10875 net.cpp:410] loss <- 2_div
I0520 08:57:24.757191 10875 net.cpp:410] loss <- 3_div
I0520 08:57:24.757194 10875 net.cpp:410] loss <- 4_div
I0520 08:57:24.757200 10875 net.cpp:368] loss -> multiple-output loss
I0520 08:57:24.757210 10875 net.cpp:368] loss -> jsd-diversity
I0520 08:57:24.757217 10875 net.cpp:120] Setting up loss
I0520 08:57:24.757227 10875 net.cpp:127] Top shape: 4 1 1 1 (4)
I0520 08:57:24.757231 10875 net.cpp:129]     with loss weight 1
I0520 08:57:24.757251 10875 net.cpp:127] Top shape: 4 1 1 1 (4)
I0520 08:57:24.757254 10875 net.cpp:129]     with loss weight 1
I0520 08:57:24.757259 10875 net.cpp:192] loss needs backward computation.
I0520 08:57:24.757264 10875 net.cpp:192] div needs backward computation.
I0520 08:57:24.757268 10875 net.cpp:192] 4_remove_softmax needs backward computation.
I0520 08:57:24.757272 10875 net.cpp:192] 4_remove needs backward computation.
I0520 08:57:24.757275 10875 net.cpp:192] 3_remove_softmax needs backward computation.
…
I0520 08:57:24.759203 10875 net.cpp:287] The NetState phase (1) differed from the phase (0) specified by a rule in layer loss
I0520 08:57:24.759513 10875 net.cpp:42] Initializing net from parameters: 
name: "CIFAR10_quick"
state {
  phase: TEST
}
layer {
  name: "cifar"
  type: "Data"
  top: "data"
  top: "label"
  include {
    phase: TEST
  }
  transform_param {
    mean_file: "/home/mike/ml_lab/mod/MCL_Caffe/examples/cifar10/mean.binaryproto"
  }
  data_param {
    source: "/home/mike/ml_lab/mod/MCL_Caffe/examples/cifar10/cifar10_test_lmdb"
    batch_size: 100
    backend: LMDB
  }
}
layer {
  name: "1_conv1"
  type: "Convolution"
  bottom: "data"
  top: "1_conv1"
  param {
    lr_mult: 1
  }
  param {
    lr_mult: 2
  }
  convolution_param {
    num_output: 32
    pad: 2
    kernel_size: 5
    stride: 1
    weight_filler {
      type: "gaussian"
      std: 0.0001
    }
    bias_filler {
      type: "constant"
    }
  }
}
layer {
  name: "1_pool1"
  type: "Pooling"
  bottom: "1_conv1"
  top: "1_pool1"
  pooling_param {
    pool: MAX
    kernel_size: 3
    stride: 2
  }
}
layer {
  name: "1_relu1"
  type: "ReLU"
  bottom: "1_pool1"
  top: "1_pool1"
}
layer {
  name: "1_conv2"
  type: "Convolution"
  bottom: "1_pool1"
  top: "1_conv2"
  param {
    lr_mult: 1
  }
  param {
    lr_mult: 2
  }
  convolution_param {
    num_output: 32
    pad: 2
    kernel_size: 5
    stride: 1
    weight_filler {
      type: "gaussian"
      std: 0.01
    }
    bias_filler {
      type: "constant"
    }
  }
}
layer {
  name: "1_relu2"
  type: "ReLU"
  bottom: "1_conv2"
  top: "1_conv2"
}
layer {
  name: "1_pool2"
  type: "Pooling"
  bottom: "1_conv2"
  top: "1_pool2"
  pooling_param {
    pool: AVE
    kernel_size: 3
    stride: 2
  }
}
layer {
  name: "1_conv3"
  type: "Convolution"
  bottom: "1_pool2"
  top: "1_conv3"
  param {
    lr_mult: 1
  }
  param {
    lr_mult: 2
  }
  convolution_param {
    num_output: 64
    pad: 2
    kernel_size: 5
    stride: 1
    weight_filler {
      type: "gaussian"
      std: 0.01
    }
    bias_filler {
      type: "constant"
    }
  }
}
layer {
  name: "1_relu3"
  type: "ReLU"
  bottom: "1_conv3"
  top: "1_conv3"
}
layer {
  name: "1_pool3"
  type: "Pooling"
  bottom: "1_conv3"
  top: "1_pool3"
  pooling_param {
    pool: AVE
    kernel_size: 3
    stride: 2
  }
}
layer {
  name: "1_ip1"
  type: "InnerProduct"
  bottom: "1_pool3"
  top: "1_ip1"
  param {
    lr_mult: 1
  }
  param {
    lr_mult: 2
  }
  inner_product_param {
    num_output: 64
    weight_filler {
      type: "gaussian"
      std: 0.1
    }
    bias_filler {
      type: "constant"
    }
  }
}
layer {
  name: "1_ip2"
  type: "InnerProduct"
  bottom: "1_ip1"
  top: "1_ip2"
  param {
    lr_mult: 1
  }
  param {
    lr_mult: 2
  }
  inner_product_param {
    num_output: 10
    weight_filler {
      type: "gaussian"
      std: 0.1
    }
    bias_filler {
      type: "constant"
    }
  }
}
layer {
  name: "1_prob"
  type: "Softmax"
  bottom: "1_ip2"
  top: "1_prob"
}
layer {
  name: "2_conv1"
  type: "Convolution"
  bottom: "data"
  top: "2_conv1"
  param {
    lr_mult: 1
  }
  param {
    lr_mult: 2
  }
  convolution_param {
    num_output: 32
    pad: 2
    kernel_size: 5
    stride: 1
    weight_filler {
      type: "gaussian"
      std: 0.0001
    }
    bias_filler {
      type: "constant"
    }
  }
}
layer {
  name: "2_pool1"
  type: "Pooling"
  bottom: "2_conv1"
  top: "2_pool1"
  pooling_param {
    pool: MAX
    kernel_size: 3
    stride: 2
  }
}
layer {
  name: "2_relu1"
  type: "ReLU"
  bottom: "2_pool1"
  top: "2_pool1"
}
layer {
  name: "2_conv2"
  type: "Convolution"
  bottom: "2_pool1"
  top: "2_conv2"
  param {
    lr_mult: 1
  }
  param {
    lr_mult: 2
  }
  convolution_param {
    num_output: 32
    pad: 2
    kernel_size: 5
    stride: 1
    weight_filler {
      type: "gaussian"
      std: 0.01
    }
    bias_filler {
      type: "constant"
    }
  }
}
layer {
  name: "2_relu2"
  type: "ReLU"
  bottom: "2_conv2"
  top: "2_conv2"
}
layer {
  name: "2_pool2"
  type: "Pooling"
  bottom: "2_conv2"
  top: "2_pool2"
  pooling_param {
    pool: AVE
    kernel_size: 3
    stride: 2
  }
}
layer {
  name: "2_conv3"
  type: "Convolution"
  bottom: "2_pool2"
  top: "2_conv3"
  param {
    lr_mult: 1
  }
  param {
    lr_mult: 2
  }
  convolution_param {
    num_output: 64
    pad: 2
    kernel_size: 5
    stride: 1
    weight_filler {
      type: "gaussian"
      std: 0.01
    }
    bias_filler {
      type: "constant"
    }
  }
}
layer {
  name: "2_relu3"
  type: "ReLU"
  bottom: "2_conv3"
  top: "2_conv3"
}
layer {
  name: "2_pool3"
  type: "Pooling"
  bottom: "2_conv3"
  top: "2_pool3"
  pooling_param {
    pool: AVE
    kernel_size: 3
    stride: 2
  }
}
layer {
  name: "2_ip1"
  type: "InnerProduct"
  bottom: "2_pool3"
  top: "2_ip1"
  param {
    lr_mult: 1
  }
  param {
    lr_mult: 2
  }
  inner_product_param {
    num_output: 64
    weight_filler {
      type: "gaussian"
      std: 0.1
    }
    bias_filler {
      type: "constant"
    }
  }
}
layer {
  name: "2_ip2"
  type: "InnerProduct"
  bottom: "2_ip1"
  top: "2_ip2"
  param {
    lr_mult: 1
  }
  param {
    lr_mult: 2
  }
  inner_product_param {
    num_output: 10
    weight_filler {
      type: "gaussian"
      std: 0.1
    }
    bias_filler {
      type: "constant"
    }
  }
}
layer {
  name: "2_prob"
  type: "Softmax"
  bottom: "2_ip2"
  top: "2_prob"
}
layer {
  name: "3_conv1"
  type: "Convolution"
  bottom: "data"
  top: "3_conv1"
  param {
    lr_mult: 1
  }
  param {
    lr_mult: 2
  }
  convolution_param {
    num_output: 32
    pad: 2
    kernel_size: 5
    stride: 1
    weight_filler {
      type: "gaussian"
      std: 0.0001
    }
    bias_filler {
      type: "constant"
    }
  }
}
layer {
  name: "3_pool1"
  type: "Pooling"
  bottom: "3_conv1"
  top: "3_pool1"
  pooling_param {
    pool: MAX
    kernel_size: 3
    stride: 2
  }
}
layer {
  name: "3_relu1"
  type: "ReLU"
  bottom: "3_pool1"
  top: "3_pool1"
}
layer {
  name: "3_conv2"
  type: "Convolution"
  bottom: "3_pool1"
  top: "3_conv2"
  param {
    lr_mult: 1
  }
  param {
    lr_mult: 2
  }
  convolution_param {
    num_output: 32
    pad: 2
    kernel_size: 5
    stride: 1
    weight_filler {
      type: "gaussian"
      std: 0.01
    }
    bias_filler {
      type: "constant"
    }
  }
}
layer {
  name: "3_relu2"
  type: "ReLU"
  bottom: "3_conv2"
  top: "3_conv2"
}
layer {
  name: "3_pool2"
  type: "Pooling"
  bottom: "3_conv2"
  top: "3_pool2"
  pooling_param {
    pool: AVE
    kernel_size: 3
    stride: 2
  }
}
layer {
  name: "3_conv3"
  type: "Convolution"
  bottom: "3_pool2"
  top: "3_conv3"
  param {
    lr_mult: 1
  }
  param {
    lr_mult: 2
  }
  convolution_param {
    num_output: 64
    pad: 2
    kernel_size: 5
    stride: 1
    weight_filler {
      type: "gaussian"
      std: 0.01
    }
    bias_filler {
      type: "constant"
    }
  }
}
layer {
  name: "3_relu3"
  type: "ReLU"
  bottom: "3_conv3"
  top: "3_conv3"
}
layer {
  name: "3_pool3"
  type: "Pooling"
  bottom: "3_conv3"
  top: "3_pool3"
  pooling_param {
    pool: AVE
    kernel_size: 3
    stride: 2
  }
}
layer {
  name: "3_ip1"
  type: "InnerProduct"
  bottom: "3_pool3"
  top: "3_ip1"
  param {
    lr_mult: 1
  }
  param {
    lr_mult: 2
  }
  inner_product_param {
    num_output: 64
    weight_filler {
      type: "gaussian"
      std: 0.1
    }
    bias_filler {
      type: "constant"
    }
  }
}
layer {
  name: "3_ip2"
  type: "InnerProduct"
  bottom: "3_ip1"
  top: "3_ip2"
  param {
    lr_mult: 1
  }
  param {
    lr_mult: 2
  }
  inner_product_param {
    num_output: 10
    weight_filler {
      type: "gaussian"
      std: 0.1
    }
    bias_filler {
      type: "constant"
    }
  }
}
layer {
  name: "3_prob"
  type: "Softmax"
  bottom: "3_ip2"
  top: "3_prob"
}
layer {
  name: "4_conv1"
  type: "Convolution"
  bottom: "data"
  top: "4_conv1"
  param {
    lr_mult: 1
  }
  param {
    lr_mult: 2
  }
  convolution_param {
    num_output: 32
    pad: 2
    kernel_size: 5
    stride: 1
    weight_filler {
      type: "gaussian"
      std: 0.0001
    }
    bias_filler {
      type: "constant"
    }
  }
}
layer {
  name: "4_pool1"
  type: "Pooling"
  bottom: "4_conv1"
  top: "4_pool1"
  pooling_param {
    pool: MAX
    kernel_size: 3
    stride: 2
  }
}
layer {
  name: "4_relu1"
  type: "ReLU"
  bottom: "4_pool1"
  top: "4_pool1"
}
layer {
  name: "4_conv2"
  type: "Convolution"
  bottom: "4_pool1"
  top: "4_conv2"
  param {
    lr_mult: 1
  }
  param {
    lr_mult: 2
  }
  convolution_param {
    num_output: 32
    pad: 2
    kernel_size: 5
    stride: 1
    weight_filler {
      type: "gaussian"
      std: 0.01
    }
    bias_filler {
      type: "constant"
    }
  }
}
layer {
  name: "4_relu2"
  type: "ReLU"
  bottom: "4_conv2"
  top: "4_conv2"
}
layer {
  name: "4_pool2"
  type: "Pooling"
  bottom: "4_conv2"
  top: "4_pool2"
  pooling_param {
    pool: AVE
    kernel_size: 3
    stride: 2
  }
}
layer {
  name: "4_conv3"
  type: "Convolution"
  bottom: "4_pool2"
  top: "4_conv3"
  param {
    lr_mult: 1
  }
  param {
    lr_mult: 2
  }
  convolution_param {
    num_output: 64
    pad: 2
    kernel_size: 5
    stride: 1
    weight_filler {
      type: "gaussian"
      std: 0.01
    }
    bias_filler {
      type: "constant"
    }
  }
}
layer {
  name: "4_relu3"
  type: "ReLU"
  bottom: "4_conv3"
  top: "4_conv3"
}
layer {
  name: "4_pool3"
  type: "Pooling"
  bottom: "4_conv3"
  top: "4_pool3"
  pooling_param {
    pool: AVE
    kernel_size: 3
    stride: 2
  }
}
layer {
  name: "4_ip1"
  type: "InnerProduct"
  bottom: "4_pool3"
  top: "4_ip1"
  param {
    lr_mult: 1
  }
  param {
    lr_mult: 2
  }
  inner_product_param {
    num_output: 64
    weight_filler {
      type: "gaussian"
      std: 0.1
    }
    bias_filler {
      type: "constant"
    }
  }
}
layer {
  name: "4_ip2"
  type: "InnerProduct"
  bottom: "4_ip1"
  top: "4_ip2"
  param {
    lr_mult: 1
  }
  param {
    lr_mult: 2
  }
  inner_product_param {
    num_output: 10
    weight_filler {
      type: "gaussian"
      std: 0.1
    }
    bias_filler {
      type: "constant"
    }
  }
}
layer {
  name: "4_prob"
  type: "Softmax"
  bottom: "4_ip2"
  top: "4_prob"
}
layer {
  name: "1_accuracy"
  type: "Accuracy"
  bottom: "1_prob"
  bottom: "label"
  top: "1_accuracy"
  include {
    phase: TEST
  }
}
layer {
  name: "2_accuracy"
  type: "Accuracy"
  bottom: "2_prob"
  bottom: "label"
  top: "2_accuracy"
  include {
    phase: TEST
  }
}
layer {
  name: "3_accuracy"
  type: "Accuracy"
  bottom: "3_prob"
  bottom: "label"
  top: "3_accuracy"
  include {
    phase: TEST
  }
}
layer {
  name: "4_accuracy"
  type: "Accuracy"
  bottom: "4_prob"
  bottom: "label"
  top: "4_accuracy"
  include {
    phase: TEST
  }
}
layer {
  name: "accuracy"
  type: "OracleAccuracy"
  bottom: "1_prob"
  bottom: "2_prob"
  bottom: "3_prob"
  bottom: "4_prob"
  bottom: "label"
  top: "oracle accuracy"
  include {
    phase: TEST
  }
}
I0520 08:57:24.759753 10875 layer_factory.hpp:74] Creating layer cifar
I0520 08:57:24.759763 10875 net.cpp:90] Creating Layer cifar
I0520 08:57:24.759768 10875 net.cpp:368] cifar -> data
I0520 08:57:24.759775 10875 net.cpp:368] cifar -> label
I0520 08:57:24.759781 10875 net.cpp:120] Setting up cifar
I0520 08:57:24.759814 10875 db.cpp:34] Opened lmdb /home/mike/ml_lab/mod/MCL_Caffe/examples/cifar10/cifar10_test_lmdb
I0520 08:57:24.759837 10875 data_layer.cpp:67] output data size: 100,3,32,32
I0520 08:57:24.759850 10875 data_transformer.cpp:22] Loading mean file from: /home/mike/ml_lab/mod/MCL_Caffe/examples/cifar10/mean.binaryproto
I0520 08:57:24.760226 10875 net.cpp:127] Top shape: 100 3 32 32 (307200)
I0520 08:57:24.760233 10875 net.cpp:127] Top shape: 100 (100)
I0520 08:57:24.760237 10875 layer_factory.hpp:74] Creating layer data_cifar_0_split
I0520 08:57:24.760244 10875 net.cpp:90] Creating Layer data_cifar_0_split
I0520 08:57:24.760247 10875 net.cpp:410] data_cifar_0_split <- data
I0520 08:57:24.760253 10875 net.cpp:368] data_cifar_0_split -> data_cifar_0_split_0
I0520 08:57:24.760259 10875 net.cpp:368] data_cifar_0_split -> data_cifar_0_split_1
I0520 08:57:24.760265 10875 net.cpp:368] data_cifar_0_split -> data_cifar_0_split_2
I0520 08:57:24.760272 10875 net.cpp:368] data_cifar_0_split -> data_cifar_0_split_3
I0520 08:57:24.760277 10875 net.cpp:120] Setting up data_cifar_0_split
I0520 08:57:24.760283 10875 net.cpp:127] Top shape: 100 3 32 32 (307200)
I0520 08:57:24.760288 10875 net.cpp:127] Top shape: 100 3 32 32 (307200)
I0520 08:57:24.760293 10875 net.cpp:127] Top shape: 100 3 32 32 (307200)
I0520 08:57:24.760296 10875 net.cpp:127] Top shape: 100 3 32 32 (307200)
I0520 08:57:24.760299 10875 layer_factory.hpp:74] Creating layer label_cifar_1_split
I0520 08:57:24.760304 10875 net.cpp:90] Creating Layer label_cifar_1_split
I0520 08:57:24.760308 10875 net.cpp:410] label_cifar_1_split <- label
I0520 08:57:24.760313 10875 net.cpp:368] label_cifar_1_split -> label_cifar_1_split_0
I0520 08:57:24.760318 10875 net.cpp:368] label_cifar_1_split -> label_cifar_1_split_1
I0520 08:57:24.760324 10875 net.cpp:368] label_cifar_1_split -> label_cifar_1_split_2
I0520 08:57:24.760330 10875 net.cpp:368] label_cifar_1_split -> label_cifar_1_split_3
I0520 08:57:24.760336 10875 net.cpp:368] label_cifar_1_split -> label_cifar_1_split_4
I0520 08:57:24.760341 10875 net.cpp:120] Setting up label_cifar_1_split
I0520 08:57:24.760347 10875 net.cpp:127] Top shape: 100 (100)
I0520 08:57:24.760351 10875 net.cpp:127] Top shape: 100 (100)
I0520 08:57:24.760355 10875 net.cpp:127] Top shape: 100 (100)
I0520 08:57:24.760360 10875 net.cpp:127] Top shape: 100 (100)
I0520 08:57:24.760363 10875 net.cpp:127] Top shape: 100 (100)
I0520 08:57:24.760366 10875 layer_factory.hpp:74] Creating layer 1_conv1
I0520 08:57:24.760372 10875 net.cpp:90] Creating Layer 1_conv1
I0520 08:57:24.760375 10875 net.cpp:410] 1_conv1 <- data_cifar_0_split_0
I0520 08:57:24.760381 10875 net.cpp:368] 1_conv1 -> 1_conv1
I0520 08:57:24.760387 10875 net.cpp:120] Setting up 1_conv1
I0520 08:57:24.760476 10875 net.cpp:127] Top shape: 100 32 32 32 (3276800)
I0520 08:57:24.760484 10875 layer_factory.hpp:74] Creating layer 1_pool1
I0520 08:57:24.760491 10875 net.cpp:90] Creating Layer 1_pool1
I0520 08:57:24.760494 10875 net.cpp:410] 1_pool1 <- 1_conv1
I0520 08:57:24.760499 10875 net.cpp:368] 1_pool1 -> 1_pool1
I0520 08:57:24.760504 10875 net.cpp:120] Setting up 1_pool1
I0520 08:57:24.760511 10875 net.cpp:127] Top shape: 100 32 16 16 (819200)
I0520 08:57:24.760514 10875 layer_factory.hpp:74] Creating layer 1_relu1
I0520 08:57:24.760519 10875 net.cpp:90] Creating Layer 1_relu1
I0520 08:57:24.760524 10875 net.cpp:410] 1_relu1 <- 1_pool1
I0520 08:57:24.760527 10875 net.cpp:357] 1_relu1 -> 1_pool1 (in-place)
I0520 08:57:24.760531 10875 net.cpp:120] Setting up 1_relu1
I0520 08:57:24.760536 10875 net.cpp:127] Top shape: 100 32 16 16 (819200)
I0520 08:57:24.760540 10875 layer_factory.hpp:74] Creating layer 1_conv2
I0520 08:57:24.760545 10875 net.cpp:90] Creating Layer 1_conv2
I0520 08:57:24.760547 10875 net.cpp:410] 1_conv2 <- 1_pool1
I0520 08:57:24.760553 10875 net.cpp:368] 1_conv2 -> 1_conv2
I0520 08:57:24.760558 10875 net.cpp:120] Setting up 1_conv2
I0520 08:57:24.761364 10875 net.cpp:127] Top shape: 100 32 16 16 (819200)
I0520 08:57:24.761374 10875 layer_factory.hpp:74] Creating layer 1_relu2
I0520 08:57:24.761379 10875 net.cpp:90] Creating Layer 1_relu2
I0520 08:57:24.761384 10875 net.cpp:410] 1_relu2 <- 1_conv2
I0520 08:57:24.761387 10875 net.cpp:357] 1_relu2 -> 1_conv2 (in-place)
I0520 08:57:24.761400 10875 net.cpp:120] Setting up 1_relu2
I0520 08:57:24.761406 10875 net.cpp:127] Top shape: 100 32 16 16 (819200)
I0520 08:57:24.761409 10875 layer_factory.hpp:74] Creating layer 1_pool2
I0520 08:57:24.761415 10875 net.cpp:90] Creating Layer 1_pool2
I0520 08:57:24.761421 10875 net.cpp:410] 1_pool2 <- 1_conv2
I0520 08:57:24.761427 10875 net.cpp:368] 1_pool2 -> 1_pool2
I0520 08:57:24.761433 10875 net.cpp:120] Setting up 1_pool2
I0520 08:57:24.761441 10875 net.cpp:127] Top shape: 100 32 8 8 (204800)
I0520 08:57:24.761445 10875 layer_factory.hpp:74] Creating layer 1_conv3
I0520 08:57:24.761451 10875 net.cpp:90] Creating Layer 1_conv3
I0520 08:57:24.761454 10875 net.cpp:410] 1_conv3 <- 1_pool2
I0520 08:57:24.761458 10875 net.cpp:368] 1_conv3 -> 1_conv3
I0520 08:57:24.761466 10875 net.cpp:120] Setting up 1_conv3
I0520 08:57:24.763078 10875 net.cpp:127] Top shape: 100 64 8 8 (409600)
I0520 08:57:24.763090 10875 layer_factory.hpp:74] Creating layer 1_relu3
I0520 08:57:24.763097 10875 net.cpp:90] Creating Layer 1_relu3
I0520 08:57:24.763101 10875 net.cpp:410] 1_relu3 <- 1_conv3
I0520 08:57:24.763106 10875 net.cpp:357] 1_relu3 -> 1_conv3 (in-place)
I0520 08:57:24.763113 10875 net.cpp:120] Setting up 1_relu3
I0520 08:57:24.763118 10875 net.cpp:127] Top shape: 100 64 8 8 (409600)
I0520 08:57:24.763123 10875 layer_factory.hpp:74] Creating layer 1_pool3
I0520 08:57:24.763128 10875 net.cpp:90] Creating Layer 1_pool3
I0520 08:57:24.763133 10875 net.cpp:410] 1_pool3 <- 1_conv3
I0520 08:57:24.763136 10875 net.cpp:368] 1_pool3 -> 1_pool3
I0520 08:57:24.763144 10875 net.cpp:120] Setting up 1_pool3
I0520 08:57:24.763150 10875 net.cpp:127] Top shape: 100 64 4 4 (102400)
I0520 08:57:24.763154 10875 layer_factory.hpp:74] Creating layer 1_ip1
I0520 08:57:24.763160 10875 net.cpp:90] Creating Layer 1_ip1
I0520 08:57:24.763165 10875 net.cpp:410] 1_ip1 <- 1_pool3
I0520 08:57:24.763170 10875 net.cpp:368] 1_ip1 -> 1_ip1
I0520 08:57:24.763176 10875 net.cpp:120] Setting up 1_ip1
I0520 08:57:24.764932 10875 net.cpp:127] Top shape: 100 64 (6400)
I0520 08:57:24.764940 10875 layer_factory.hpp:74] Creating layer 1_ip2
I0520 08:57:24.764945 10875 net.cpp:90] Creating Layer 1_ip2
I0520 08:57:24.764950 10875 net.cpp:410] 1_ip2 <- 1_ip1
I0520 08:57:24.764955 10875 net.cpp:368] 1_ip2 -> 1_ip2
I0520 08:57:24.764962 10875 net.cpp:120] Setting up 1_ip2
I0520 08:57:24.764992 10875 net.cpp:127] Top shape: 100 10 (1000)
I0520 08:57:24.765000 10875 layer_factory.hpp:74] Creating layer 1_prob
I0520 08:57:24.765007 10875 net.cpp:90] Creating Layer 1_prob
I0520 08:57:24.765012 10875 net.cpp:410] 1_prob <- 1_ip2
I0520 08:57:24.765017 10875 net.cpp:368] 1_prob -> 1_prob
I0520 08:57:24.765022 10875 net.cpp:120] Setting up 1_prob
I0520 08:57:24.765030 10875 net.cpp:127] Top shape: 100 10 (1000)
I0520 08:57:24.765034 10875 layer_factory.hpp:74] Creating layer 1_prob_1_prob_0_split
I0520 08:57:24.765038 10875 net.cpp:90] Creating Layer 1_prob_1_prob_0_split
I0520 08:57:24.765043 10875 net.cpp:410] 1_prob_1_prob_0_split <- 1_prob
I0520 08:57:24.765048 10875 net.cpp:368] 1_prob_1_prob_0_split -> 1_prob_1_prob_0_split_0
I0520 08:57:24.765054 10875 net.cpp:368] 1_prob_1_prob_0_split -> 1_prob_1_prob_0_split_1
I0520 08:57:24.765060 10875 net.cpp:120] Setting up 1_prob_1_prob_0_split
I0520 08:57:24.765066 10875 net.cpp:127] Top shape: 100 10 (1000)
I0520 08:57:24.765071 10875 net.cpp:127] Top shape: 100 10 (1000)
I0520 08:57:24.765074 10875 layer_factory.hpp:74] Creating layer 2_conv1
I0520 08:57:24.765081 10875 net.cpp:90] Creating Layer 2_conv1
I0520 08:57:24.765085 10875 net.cpp:410] 2_conv1 <- data_cifar_0_split_1
I0520 08:57:24.765091 10875 net.cpp:368] 2_conv1 -> 2_conv1
I0520 08:57:24.765097 10875 net.cpp:120] Setting up 2_conv1
I0520 08:57:24.765183 10875 net.cpp:127] Top shape: 100 32 32 32 (3276800)
I0520 08:57:24.765190 10875 layer_factory.hpp:74] Creating layer 2_pool1
I0520 08:57:24.765197 10875 net.cpp:90] Creating Layer 2_pool1
I0520 08:57:24.765200 10875 net.cpp:410] 2_pool1 <- 2_conv1
I0520 08:57:24.765205 10875 net.cpp:368] 2_pool1 -> 2_pool1
I0520 08:57:24.765210 10875 net.cpp:120] Setting up 2_pool1
I0520 08:57:24.765226 10875 net.cpp:127] Top shape: 100 32 16 16 (819200)
I0520 08:57:24.765231 10875 layer_factory.hpp:74] Creating layer 2_relu1
I0520 08:57:24.765235 10875 net.cpp:90] Creating Layer 2_relu1
I0520 08:57:24.765240 10875 net.cpp:410] 2_relu1 <- 2_pool1
I0520 08:57:24.765244 10875 net.cpp:357] 2_relu1 -> 2_pool1 (in-place)
I0520 08:57:24.765249 10875 net.cpp:120] Setting up 2_relu1
I0520 08:57:24.765255 10875 net.cpp:127] Top shape: 100 32 16 16 (819200)
I0520 08:57:24.765259 10875 layer_factory.hpp:74] Creating layer 2_conv2
I0520 08:57:24.765264 10875 net.cpp:90] Creating Layer 2_conv2
I0520 08:57:24.765269 10875 net.cpp:410] 2_conv2 <- 2_pool1
I0520 08:57:24.765274 10875 net.cpp:368] 2_conv2 -> 2_conv2
I0520 08:57:24.765280 10875 net.cpp:120] Setting up 2_conv2
I0520 08:57:24.766085 10875 net.cpp:127] Top shape: 100 32 16 16 (819200)
I0520 08:57:24.766095 10875 layer_factory.hpp:74] Creating layer 2_relu2
I0520 08:57:24.766101 10875 net.cpp:90] Creating Layer 2_relu2
I0520 08:57:24.766105 10875 net.cpp:410] 2_relu2 <- 2_conv2
I0520 08:57:24.766110 10875 net.cpp:357] 2_relu2 -> 2_conv2 (in-place)
I0520 08:57:24.766116 10875 net.cpp:120] Setting up 2_relu2
I0520 08:57:24.766122 10875 net.cpp:127] Top shape: 100 32 16 16 (819200)
I0520 08:57:24.766126 10875 layer_factory.hpp:74] Creating layer 2_pool2
I0520 08:57:24.766130 10875 net.cpp:90] Creating Layer 2_pool2
I0520 08:57:24.766135 10875 net.cpp:410] 2_pool2 <- 2_conv2
I0520 08:57:24.766139 10875 net.cpp:368] 2_pool2 -> 2_pool2
I0520 08:57:24.766145 10875 net.cpp:120] Setting up 2_pool2
I0520 08:57:24.766152 10875 net.cpp:127] Top shape: 100 32 8 8 (204800)
I0520 08:57:24.766156 10875 layer_factory.hpp:74] Creating layer 2_conv3
I0520 08:57:24.766161 10875 net.cpp:90] Creating Layer 2_conv3
I0520 08:57:24.766165 10875 net.cpp:410] 2_conv3 <- 2_pool2
I0520 08:57:24.766170 10875 net.cpp:368] 2_conv3 -> 2_conv3
I0520 08:57:24.766177 10875 net.cpp:120] Setting up 2_conv3
I0520 08:57:24.767591 10875 net.cpp:127] Top shape: 100 64 8 8 (409600)
I0520 08:57:24.767599 10875 layer_factory.hpp:74] Creating layer 2_relu3
I0520 08:57:24.767603 10875 net.cpp:90] Creating Layer 2_relu3
I0520 08:57:24.767607 10875 net.cpp:410] 2_relu3 <- 2_conv3
I0520 08:57:24.767612 10875 net.cpp:357] 2_relu3 -> 2_conv3 (in-place)
I0520 08:57:24.767618 10875 net.cpp:120] Setting up 2_relu3
I0520 08:57:24.767624 10875 net.cpp:127] Top shape: 100 64 8 8 (409600)
I0520 08:57:24.767628 10875 layer_factory.hpp:74] Creating layer 2_pool3
I0520 08:57:24.767633 10875 net.cpp:90] Creating Layer 2_pool3
I0520 08:57:24.767637 10875 net.cpp:410] 2_pool3 <- 2_conv3
I0520 08:57:24.767642 10875 net.cpp:368] 2_pool3 -> 2_pool3
I0520 08:57:24.767648 10875 net.cpp:120] Setting up 2_pool3
I0520 08:57:24.767654 10875 net.cpp:127] Top shape: 100 64 4 4 (102400)
I0520 08:57:24.767659 10875 layer_factory.hpp:74] Creating layer 2_ip1
I0520 08:57:24.767664 10875 net.cpp:90] Creating Layer 2_ip1
I0520 08:57:24.767668 10875 net.cpp:410] 2_ip1 <- 2_pool3
I0520 08:57:24.767673 10875 net.cpp:368] 2_ip1 -> 2_ip1
I0520 08:57:24.767680 10875 net.cpp:120] Setting up 2_ip1
I0520 08:57:24.769291 10875 net.cpp:127] Top shape: 100 64 (6400)
I0520 08:57:24.769300 10875 layer_factory.hpp:74] Creating layer 2_ip2
I0520 08:57:24.769306 10875 net.cpp:90] Creating Layer 2_ip2
I0520 08:57:24.769310 10875 net.cpp:410] 2_ip2 <- 2_ip1
I0520 08:57:24.769316 10875 net.cpp:368] 2_ip2 -> 2_ip2
I0520 08:57:24.769322 10875 net.cpp:120] Setting up 2_ip2
I0520 08:57:24.769353 10875 net.cpp:127] Top shape: 100 10 (1000)
I0520 08:57:24.769361 10875 layer_factory.hpp:74] Creating layer 2_prob
I0520 08:57:24.769367 10875 net.cpp:90] Creating Layer 2_prob
I0520 08:57:24.769372 10875 net.cpp:410] 2_prob <- 2_ip2
I0520 08:57:24.769377 10875 net.cpp:368] 2_prob -> 2_prob
I0520 08:57:24.769383 10875 net.cpp:120] Setting up 2_prob
I0520 08:57:24.769390 10875 net.cpp:127] Top shape: 100 10 (1000)
I0520 08:57:24.769394 10875 layer_factory.hpp:74] Creating layer 2_prob_2_prob_0_split
I0520 08:57:24.769399 10875 net.cpp:90] Creating Layer 2_prob_2_prob_0_split
I0520 08:57:24.769417 10875 net.cpp:410] 2_prob_2_prob_0_split <- 2_prob
I0520 08:57:24.769421 10875 net.cpp:368] 2_prob_2_prob_0_split -> 2_prob_2_prob_0_split_0
I0520 08:57:24.769428 10875 net.cpp:368] 2_prob_2_prob_0_split -> 2_prob_2_prob_0_split_1
I0520 08:57:24.769438 10875 net.cpp:120] Setting up 2_prob_2_prob_0_split
I0520 08:57:24.769443 10875 net.cpp:127] Top shape: 100 10 (1000)
I0520 08:57:24.769449 10875 net.cpp:127] Top shape: 100 10 (1000)
I0520 08:57:24.769454 10875 layer_factory.hpp:74] Creating layer 3_conv1
I0520 08:57:24.769461 10875 net.cpp:90] Creating Layer 3_conv1
I0520 08:57:24.769465 10875 net.cpp:410] 3_conv1 <- data_cifar_0_split_2
I0520 08:57:24.769471 10875 net.cpp:368] 3_conv1 -> 3_conv1
I0520 08:57:24.769479 10875 net.cpp:120] Setting up 3_conv1
I0520 08:57:24.769568 10875 net.cpp:127] Top shape: 100 32 32 32 (3276800)
I0520 08:57:24.769577 10875 layer_factory.hpp:74] Creating layer 3_pool1
I0520 08:57:24.769582 10875 net.cpp:90] Creating Layer 3_pool1
I0520 08:57:24.769587 10875 net.cpp:410] 3_pool1 <- 3_conv1
I0520 08:57:24.769592 10875 net.cpp:368] 3_pool1 -> 3_pool1
I0520 08:57:24.769598 10875 net.cpp:120] Setting up 3_pool1
I0520 08:57:24.769605 10875 net.cpp:127] Top shape: 100 32 16 16 (819200)
I0520 08:57:24.769609 10875 layer_factory.hpp:74] Creating layer 3_relu1
I0520 08:57:24.769613 10875 net.cpp:90] Creating Layer 3_relu1
I0520 08:57:24.769618 10875 net.cpp:410] 3_relu1 <- 3_pool1
I0520 08:57:24.769623 10875 net.cpp:357] 3_relu1 -> 3_pool1 (in-place)
I0520 08:57:24.769628 10875 net.cpp:120] Setting up 3_relu1
I0520 08:57:24.769634 10875 net.cpp:127] Top shape: 100 32 16 16 (819200)
I0520 08:57:24.769637 10875 layer_factory.hpp:74] Creating layer 3_conv2
I0520 08:57:24.769645 10875 net.cpp:90] Creating Layer 3_conv2
I0520 08:57:24.769649 10875 net.cpp:410] 3_conv2 <- 3_pool1
I0520 08:57:24.769654 10875 net.cpp:368] 3_conv2 -> 3_conv2
I0520 08:57:24.769661 10875 net.cpp:120] Setting up 3_conv2
I0520 08:57:24.770474 10875 net.cpp:127] Top shape: 100 32 16 16 (819200)
I0520 08:57:24.770484 10875 layer_factory.hpp:74] Creating layer 3_relu2
I0520 08:57:24.770490 10875 net.cpp:90] Creating Layer 3_relu2
I0520 08:57:24.770494 10875 net.cpp:410] 3_relu2 <- 3_conv2
I0520 08:57:24.770500 10875 net.cpp:357] 3_relu2 -> 3_conv2 (in-place)
I0520 08:57:24.770506 10875 net.cpp:120] Setting up 3_relu2
I0520 08:57:24.770512 10875 net.cpp:127] Top shape: 100 32 16 16 (819200)
I0520 08:57:24.770516 10875 layer_factory.hpp:74] Creating layer 3_pool2
I0520 08:57:24.770521 10875 net.cpp:90] Creating Layer 3_pool2
I0520 08:57:24.770525 10875 net.cpp:410] 3_pool2 <- 3_conv2
I0520 08:57:24.770530 10875 net.cpp:368] 3_pool2 -> 3_pool2
I0520 08:57:24.770536 10875 net.cpp:120] Setting up 3_pool2
I0520 08:57:24.770543 10875 net.cpp:127] Top shape: 100 32 8 8 (204800)
I0520 08:57:24.770547 10875 layer_factory.hpp:74] Creating layer 3_conv3
I0520 08:57:24.770553 10875 net.cpp:90] Creating Layer 3_conv3
I0520 08:57:24.770558 10875 net.cpp:410] 3_conv3 <- 3_pool2
I0520 08:57:24.770565 10875 net.cpp:368] 3_conv3 -> 3_conv3
I0520 08:57:24.770570 10875 net.cpp:120] Setting up 3_conv3
I0520 08:57:24.771828 10875 net.cpp:127] Top shape: 100 64 8 8 (409600)
I0520 08:57:24.771836 10875 layer_factory.hpp:74] Creating layer 3_relu3
I0520 08:57:24.771842 10875 net.cpp:90] Creating Layer 3_relu3
I0520 08:57:24.771844 10875 net.cpp:410] 3_relu3 <- 3_conv3
I0520 08:57:24.771850 10875 net.cpp:357] 3_relu3 -> 3_conv3 (in-place)
I0520 08:57:24.771857 10875 net.cpp:120] Setting up 3_relu3
I0520 08:57:24.771862 10875 net.cpp:127] Top shape: 100 64 8 8 (409600)
I0520 08:57:24.771867 10875 layer_factory.hpp:74] Creating layer 3_pool3
I0520 08:57:24.771872 10875 net.cpp:90] Creating Layer 3_pool3
I0520 08:57:24.771875 10875 net.cpp:410] 3_pool3 <- 3_conv3
I0520 08:57:24.771881 10875 net.cpp:368] 3_pool3 -> 3_pool3
I0520 08:57:24.771888 10875 net.cpp:120] Setting up 3_pool3
I0520 08:57:24.771894 10875 net.cpp:127] Top shape: 100 64 4 4 (102400)
I0520 08:57:24.771899 10875 layer_factory.hpp:74] Creating layer 3_ip1
I0520 08:57:24.771914 10875 net.cpp:90] Creating Layer 3_ip1
I0520 08:57:24.771919 10875 net.cpp:410] 3_ip1 <- 3_pool3
I0520 08:57:24.771924 10875 net.cpp:368] 3_ip1 -> 3_ip1
I0520 08:57:24.771930 10875 net.cpp:120] Setting up 3_ip1
I0520 08:57:24.773553 10875 net.cpp:127] Top shape: 100 64 (6400)
I0520 08:57:24.773561 10875 layer_factory.hpp:74] Creating layer 3_ip2
I0520 08:57:24.773567 10875 net.cpp:90] Creating Layer 3_ip2
I0520 08:57:24.773572 10875 net.cpp:410] 3_ip2 <- 3_ip1
I0520 08:57:24.773578 10875 net.cpp:368] 3_ip2 -> 3_ip2
I0520 08:57:24.773586 10875 net.cpp:120] Setting up 3_ip2
I0520 08:57:24.773618 10875 net.cpp:127] Top shape: 100 10 (1000)
I0520 08:57:24.773625 10875 layer_factory.hpp:74] Creating layer 3_prob
I0520 08:57:24.773633 10875 net.cpp:90] Creating Layer 3_prob
I0520 08:57:24.773636 10875 net.cpp:410] 3_prob <- 3_ip2
I0520 08:57:24.773641 10875 net.cpp:368] 3_prob -> 3_prob
I0520 08:57:24.773648 10875 net.cpp:120] Setting up 3_prob
I0520 08:57:24.773655 10875 net.cpp:127] Top shape: 100 10 (1000)
I0520 08:57:24.773660 10875 layer_factory.hpp:74] Creating layer 3_prob_3_prob_0_split
I0520 08:57:24.773664 10875 net.cpp:90] Creating Layer 3_prob_3_prob_0_split
I0520 08:57:24.773670 10875 net.cpp:410] 3_prob_3_prob_0_split <- 3_prob
I0520 08:57:24.773675 10875 net.cpp:368] 3_prob_3_prob_0_split -> 3_prob_3_prob_0_split_0
I0520 08:57:24.773681 10875 net.cpp:368] 3_prob_3_prob_0_split -> 3_prob_3_prob_0_split_1
I0520 08:57:24.773689 10875 net.cpp:120] Setting up 3_prob_3_prob_0_split
I0520 08:57:24.773694 10875 net.cpp:127] Top shape: 100 10 (1000)
I0520 08:57:24.773699 10875 net.cpp:127] Top shape: 100 10 (1000)
I0520 08:57:24.773703 10875 layer_factory.hpp:74] Creating layer 4_conv1
I0520 08:57:24.773712 10875 net.cpp:90] Creating Layer 4_conv1
I0520 08:57:24.773716 10875 net.cpp:410] 4_conv1 <- data_cifar_0_split_3
I0520 08:57:24.773721 10875 net.cpp:368] 4_conv1 -> 4_conv1
I0520 08:57:24.773728 10875 net.cpp:120] Setting up 4_conv1
I0520 08:57:24.773818 10875 net.cpp:127] Top shape: 100 32 32 32 (3276800)
I0520 08:57:24.773825 10875 layer_factory.hpp:74] Creating layer 4_pool1
I0520 08:57:24.773833 10875 net.cpp:90] Creating Layer 4_pool1
I0520 08:57:24.773836 10875 net.cpp:410] 4_pool1 <- 4_conv1
I0520 08:57:24.773841 10875 net.cpp:368] 4_pool1 -> 4_pool1
I0520 08:57:24.773846 10875 net.cpp:120] Setting up 4_pool1
I0520 08:57:24.773854 10875 net.cpp:127] Top shape: 100 32 16 16 (819200)
I0520 08:57:24.773859 10875 layer_factory.hpp:74] Creating layer 4_relu1
I0520 08:57:24.773862 10875 net.cpp:90] Creating Layer 4_relu1
I0520 08:57:24.773867 10875 net.cpp:410] 4_relu1 <- 4_pool1
I0520 08:57:24.773871 10875 net.cpp:357] 4_relu1 -> 4_pool1 (in-place)
I0520 08:57:24.773876 10875 net.cpp:120] Setting up 4_relu1
I0520 08:57:24.773882 10875 net.cpp:127] Top shape: 100 32 16 16 (819200)
I0520 08:57:24.773886 10875 layer_factory.hpp:74] Creating layer 4_conv2
I0520 08:57:24.773891 10875 net.cpp:90] Creating Layer 4_conv2
I0520 08:57:24.773895 10875 net.cpp:410] 4_conv2 <- 4_pool1
I0520 08:57:24.773901 10875 net.cpp:368] 4_conv2 -> 4_conv2
I0520 08:57:24.773910 10875 net.cpp:120] Setting up 4_conv2
I0520 08:57:24.774722 10875 net.cpp:127] Top shape: 100 32 16 16 (819200)
I0520 08:57:24.774735 10875 layer_factory.hpp:74] Creating layer 4_relu2
I0520 08:57:24.774741 10875 net.cpp:90] Creating Layer 4_relu2
I0520 08:57:24.774746 10875 net.cpp:410] 4_relu2 <- 4_conv2
I0520 08:57:24.774751 10875 net.cpp:357] 4_relu2 -> 4_conv2 (in-place)
I0520 08:57:24.774757 10875 net.cpp:120] Setting up 4_relu2
I0520 08:57:24.774763 10875 net.cpp:127] Top shape: 100 32 16 16 (819200)
I0520 08:57:24.774767 10875 layer_factory.hpp:74] Creating layer 4_pool2
I0520 08:57:24.774773 10875 net.cpp:90] Creating Layer 4_pool2
I0520 08:57:24.774777 10875 net.cpp:410] 4_pool2 <- 4_conv2
I0520 08:57:24.774782 10875 net.cpp:368] 4_pool2 -> 4_pool2
I0520 08:57:24.774788 10875 net.cpp:120] Setting up 4_pool2
I0520 08:57:24.774796 10875 net.cpp:127] Top shape: 100 32 8 8 (204800)
I0520 08:57:24.774799 10875 layer_factory.hpp:74] Creating layer 4_conv3
I0520 08:57:24.774816 10875 net.cpp:90] Creating Layer 4_conv3
I0520 08:57:24.774821 10875 net.cpp:410] 4_conv3 <- 4_pool2
I0520 08:57:24.774827 10875 net.cpp:368] 4_conv3 -> 4_conv3
I0520 08:57:24.774833 10875 net.cpp:120] Setting up 4_conv3
I0520 08:57:24.776157 10875 net.cpp:127] Top shape: 100 64 8 8 (409600)
I0520 08:57:24.776165 10875 layer_factory.hpp:74] Creating layer 4_relu3
I0520 08:57:24.776167 10875 net.cpp:90] Creating Layer 4_relu3
I0520 08:57:24.776170 10875 net.cpp:410] 4_relu3 <- 4_conv3
I0520 08:57:24.776172 10875 net.cpp:357] 4_relu3 -> 4_conv3 (in-place)
I0520 08:57:24.776175 10875 net.cpp:120] Setting up 4_relu3
I0520 08:57:24.776178 10875 net.cpp:127] Top shape: 100 64 8 8 (409600)
I0520 08:57:24.776180 10875 layer_factory.hpp:74] Creating layer 4_pool3
I0520 08:57:24.776183 10875 net.cpp:90] Creating Layer 4_pool3
I0520 08:57:24.776185 10875 net.cpp:410] 4_pool3 <- 4_conv3
I0520 08:57:24.776188 10875 net.cpp:368] 4_pool3 -> 4_pool3
I0520 08:57:24.776191 10875 net.cpp:120] Setting up 4_pool3
I0520 08:57:24.776196 10875 net.cpp:127] Top shape: 100 64 4 4 (102400)
I0520 08:57:24.776197 10875 layer_factory.hpp:74] Creating layer 4_ip1
I0520 08:57:24.776201 10875 net.cpp:90] Creating Layer 4_ip1
I0520 08:57:24.776202 10875 net.cpp:410] 4_ip1 <- 4_pool3
I0520 08:57:24.776207 10875 net.cpp:368] 4_ip1 -> 4_ip1
I0520 08:57:24.776212 10875 net.cpp:120] Setting up 4_ip1
I0520 08:57:24.777834 10875 net.cpp:127] Top shape: 100 64 (6400)
I0520 08:57:24.777842 10875 layer_factory.hpp:74] Creating layer 4_ip2
I0520 08:57:24.777849 10875 net.cpp:90] Creating Layer 4_ip2
I0520 08:57:24.777854 10875 net.cpp:410] 4_ip2 <- 4_ip1
I0520 08:57:24.777860 10875 net.cpp:368] 4_ip2 -> 4_ip2
I0520 08:57:24.777868 10875 net.cpp:120] Setting up 4_ip2
I0520 08:57:24.777899 10875 net.cpp:127] Top shape: 100 10 (1000)
I0520 08:57:24.777906 10875 layer_factory.hpp:74] Creating layer 4_prob
I0520 08:57:24.777911 10875 net.cpp:90] Creating Layer 4_prob
I0520 08:57:24.777916 10875 net.cpp:410] 4_prob <- 4_ip2
I0520 08:57:24.777922 10875 net.cpp:368] 4_prob -> 4_prob
I0520 08:57:24.777930 10875 net.cpp:120] Setting up 4_prob
I0520 08:57:24.777937 10875 net.cpp:127] Top shape: 100 10 (1000)
I0520 08:57:24.777941 10875 layer_factory.hpp:74] Creating layer 4_prob_4_prob_0_split
I0520 08:57:24.777946 10875 net.cpp:90] Creating Layer 4_prob_4_prob_0_split
I0520 08:57:24.777951 10875 net.cpp:410] 4_prob_4_prob_0_split <- 4_prob
I0520 08:57:24.777956 10875 net.cpp:368] 4_prob_4_prob_0_split -> 4_prob_4_prob_0_split_0
I0520 08:57:24.777963 10875 net.cpp:368] 4_prob_4_prob_0_split -> 4_prob_4_prob_0_split_1
I0520 08:57:24.777969 10875 net.cpp:120] Setting up 4_prob_4_prob_0_split
I0520 08:57:24.777976 10875 net.cpp:127] Top shape: 100 10 (1000)
I0520 08:57:24.777981 10875 net.cpp:127] Top shape: 100 10 (1000)
I0520 08:57:24.777984 10875 layer_factory.hpp:74] Creating layer 1_accuracy
I0520 08:57:24.777990 10875 net.cpp:90] Creating Layer 1_accuracy
I0520 08:57:24.777995 10875 net.cpp:410] 1_accuracy <- 1_prob_1_prob_0_split_0
I0520 08:57:24.777999 10875 net.cpp:410] 1_accuracy <- label_cifar_1_split_0
I0520 08:57:24.778007 10875 net.cpp:368] 1_accuracy -> 1_accuracy
I0520 08:57:24.778013 10875 net.cpp:120] Setting up 1_accuracy
…
