…
I0208 13:55:41.585531 17326 net.cpp:287] The NetState phase (0) differed from the phase (1) specified by a rule in layer accuracy
I0208 13:55:41.585717 17326 net.cpp:42] Initializing net from parameters: 
name: "CIFAR10_quick"
state {
  phase: TRAIN
}
layer {
  name: "cifar"
  type: "Data"
  top: "data"
  top: "label"
  include {
    phase: TRAIN
  }
  transform_param {
    mean_file: "/home/mike/ml_lab/mod/MCL_Caffe/examples/cifar10/mean.binaryproto"
  }
  data_param {
    source: "/home/mike/ml_lab/mod/MCL_Caffe/examples/cifar10/cifar10_train_lmdb"
    batch_size: 350
    backend: LMDB
  }
}
layer {
  name: "1_conv1"
  type: "Convolution"
  bottom: "data"
  top: "1_conv1"
  param {
    lr_mult: 1
  }
  param {
    lr_mult: 2
  }
  convolution_param {
    num_output: 32
    pad: 2
    kernel_size: 5
    stride: 1
    weight_filler {
      type: "gaussian"
      std: 0.0001
    }
    bias_filler {
      type: "constant"
    }
  }
}
layer {
  name: "1_pool1"
  type: "Pooling"
  bottom: "1_conv1"
  top: "1_pool1"
  pooling_param {
    pool: MAX
    kernel_size: 3
    stride: 2
  }
}
layer {
  name: "1_relu1"
  type: "ReLU"
  bottom: "1_pool1"
  top: "1_pool1"
}
layer {
  name: "1_conv2"
  type: "Convolution"
  bottom: "1_pool1"
  top: "1_conv2"
  param {
    lr_mult: 1
  }
  param {
    lr_mult: 2
  }
  convolution_param {
    num_output: 32
    pad: 2
    kernel_size: 5
    stride: 1
    weight_filler {
      type: "gaussian"
      std: 0.01
    }
    bias_filler {
      type: "constant"
    }
  }
}
layer {
  name: "1_relu2"
  type: "ReLU"
  bottom: "1_conv2"
  top: "1_conv2"
}
layer {
  name: "1_pool2"
  type: "Pooling"
  bottom: "1_conv2"
  top: "1_pool2"
  pooling_param {
    pool: AVE
    kernel_size: 3
    stride: 2
  }
}
layer {
  name: "1_conv3"
  type: "Convolution"
  bottom: "1_pool2"
  top: "1_conv3"
  param {
    lr_mult: 1
  }
  param {
    lr_mult: 2
  }
  convolution_param {
    num_output: 64
    pad: 2
    kernel_size: 5
    stride: 1
    weight_filler {
      type: "gaussian"
      std: 0.01
    }
    bias_filler {
      type: "constant"
    }
  }
}
layer {
  name: "1_relu3"
  type: "ReLU"
  bottom: "1_conv3"
  top: "1_conv3"
}
layer {
  name: "1_pool3"
  type: "Pooling"
  bottom: "1_conv3"
  top: "1_pool3"
  pooling_param {
    pool: AVE
    kernel_size: 3
    stride: 2
  }
}
layer {
  name: "1_ip1"
  type: "InnerProduct"
  bottom: "1_pool3"
  top: "1_ip1"
  param {
    lr_mult: 1
  }
  param {
    lr_mult: 2
  }
  inner_product_param {
    num_output: 64
    weight_filler {
      type: "gaussian"
      std: 0.1
    }
    bias_filler {
      type: "constant"
    }
  }
}
layer {
  name: "1_ip2"
  type: "InnerProduct"
  bottom: "1_ip1"
  top: "1_ip2"
  param {
    lr_mult: 1
  }
  param {
    lr_mult: 2
  }
  inner_product_param {
    num_output: 10
    weight_filler {
      type: "gaussian"
      std: 0.1
    }
    bias_filler {
      type: "constant"
    }
  }
}
layer {
  name: "1_prob"
  type: "Softmax"
  bottom: "1_ip2"
  top: "1_prob"
}
layer {
  name: "2_conv1"
  type: "Convolution"
  bottom: "data"
  top: "2_conv1"
  param {
    lr_mult: 1
  }
  param {
    lr_mult: 2
  }
  convolution_param {
    num_output: 32
    pad: 2
    kernel_size: 5
    stride: 1
    weight_filler {
      type: "gaussian"
      std: 0.0001
    }
    bias_filler {
      type: "constant"
    }
  }
}
layer {
  name: "2_pool1"
  type: "Pooling"
  bottom: "2_conv1"
  top: "2_pool1"
  pooling_param {
    pool: MAX
    kernel_size: 3
    stride: 2
  }
}
layer {
  name: "2_relu1"
  type: "ReLU"
  bottom: "2_pool1"
  top: "2_pool1"
}
layer {
  name: "2_conv2"
  type: "Convolution"
  bottom: "2_pool1"
  top: "2_conv2"
  param {
    lr_mult: 1
  }
  param {
    lr_mult: 2
  }
  convolution_param {
    num_output: 32
    pad: 2
    kernel_size: 5
    stride: 1
    weight_filler {
      type: "gaussian"
      std: 0.01
    }
    bias_filler {
      type: "constant"
    }
  }
}
layer {
  name: "2_relu2"
  type: "ReLU"
  bottom: "2_conv2"
  top: "2_conv2"
}
layer {
  name: "2_pool2"
  type: "Pooling"
  bottom: "2_conv2"
  top: "2_pool2"
  pooling_param {
    pool: AVE
    kernel_size: 3
    stride: 2
  }
}
layer {
  name: "2_conv3"
  type: "Convolution"
  bottom: "2_pool2"
  top: "2_conv3"
  param {
    lr_mult: 1
  }
  param {
    lr_mult: 2
  }
  convolution_param {
    num_output: 64
    pad: 2
    kernel_size: 5
    stride: 1
    weight_filler {
      type: "gaussian"
      std: 0.01
    }
    bias_filler {
      type: "constant"
    }
  }
}
layer {
  name: "2_relu3"
  type: "ReLU"
  bottom: "2_conv3"
  top: "2_conv3"
}
layer {
  name: "2_pool3"
  type: "Pooling"
  bottom: "2_conv3"
  top: "2_pool3"
  pooling_param {
    pool: AVE
    kernel_size: 3
    stride: 2
  }
}
layer {
  name: "2_ip1"
  type: "InnerProduct"
  bottom: "2_pool3"
  top: "2_ip1"
  param {
    lr_mult: 1
  }
  param {
    lr_mult: 2
  }
  inner_product_param {
    num_output: 64
    weight_filler {
      type: "gaussian"
      std: 0.1
    }
    bias_filler {
      type: "constant"
    }
  }
}
layer {
  name: "2_ip2"
  type: "InnerProduct"
  bottom: "2_ip1"
  top: "2_ip2"
  param {
    lr_mult: 1
  }
  param {
    lr_mult: 2
  }
  inner_product_param {
    num_output: 10
    weight_filler {
      type: "gaussian"
      std: 0.1
    }
    bias_filler {
      type: "constant"
    }
  }
}
layer {
  name: "2_prob"
  type: "Softmax"
  bottom: "2_ip2"
  top: "2_prob"
}
layer {
  name: "3_conv1"
  type: "Convolution"
  bottom: "data"
  top: "3_conv1"
  param {
    lr_mult: 1
  }
  param {
    lr_mult: 2
  }
  convolution_param {
    num_output: 32
    pad: 2
    kernel_size: 5
    stride: 1
    weight_filler {
      type: "gaussian"
      std: 0.0001
    }
    bias_filler {
      type: "constant"
    }
  }
}
layer {
  name: "3_pool1"
  type: "Pooling"
  bottom: "3_conv1"
  top: "3_pool1"
  pooling_param {
    pool: MAX
    kernel_size: 3
    stride: 2
  }
}
layer {
  name: "3_relu1"
  type: "ReLU"
  bottom: "3_pool1"
  top: "3_pool1"
}
layer {
  name: "3_conv2"
  type: "Convolution"
  bottom: "3_pool1"
  top: "3_conv2"
  param {
    lr_mult: 1
  }
  param {
    lr_mult: 2
  }
  convolution_param {
    num_output: 32
    pad: 2
    kernel_size: 5
    stride: 1
    weight_filler {
      type: "gaussian"
      std: 0.01
    }
    bias_filler {
      type: "constant"
    }
  }
}
layer {
  name: "3_relu2"
  type: "ReLU"
  bottom: "3_conv2"
  top: "3_conv2"
}
layer {
  name: "3_pool2"
  type: "Pooling"
  bottom: "3_conv2"
  top: "3_pool2"
  pooling_param {
    pool: AVE
    kernel_size: 3
    stride: 2
  }
}
layer {
  name: "3_conv3"
  type: "Convolution"
  bottom: "3_pool2"
  top: "3_conv3"
  param {
    lr_mult: 1
  }
  param {
    lr_mult: 2
  }
  convolution_param {
    num_output: 64
    pad: 2
    kernel_size: 5
    stride: 1
    weight_filler {
      type: "gaussian"
      std: 0.01
    }
    bias_filler {
      type: "constant"
    }
  }
}
layer {
  name: "3_relu3"
  type: "ReLU"
  bottom: "3_conv3"
  top: "3_conv3"
}
layer {
  name: "3_pool3"
  type: "Pooling"
  bottom: "3_conv3"
  top: "3_pool3"
  pooling_param {
    pool: AVE
    kernel_size: 3
    stride: 2
  }
}
layer {
  name: "3_ip1"
  type: "InnerProduct"
  bottom: "3_pool3"
  top: "3_ip1"
  param {
    lr_mult: 1
  }
  param {
    lr_mult: 2
  }
  inner_product_param {
    num_output: 64
    weight_filler {
      type: "gaussian"
      std: 0.1
    }
    bias_filler {
      type: "constant"
    }
  }
}
layer {
  name: "3_ip2"
  type: "InnerProduct"
  bottom: "3_ip1"
  top: "3_ip2"
  param {
    lr_mult: 1
  }
  param {
    lr_mult: 2
  }
  inner_product_param {
    num_output: 10
    weight_filler {
      type: "gaussian"
      std: 0.1
    }
    bias_filler {
      type: "constant"
    }
  }
}
layer {
  name: "3_prob"
  type: "Softmax"
  bottom: "3_ip2"
  top: "3_prob"
}
layer {
  name: "4_conv1"
  type: "Convolution"
  bottom: "data"
  top: "4_conv1"
  param {
    lr_mult: 1
  }
  param {
    lr_mult: 2
  }
  convolution_param {
    num_output: 32
    pad: 2
    kernel_size: 5
    stride: 1
    weight_filler {
      type: "gaussian"
      std: 0.0001
    }
    bias_filler {
      type: "constant"
    }
  }
}
layer {
  name: "4_pool1"
  type: "Pooling"
  bottom: "4_conv1"
  top: "4_pool1"
  pooling_param {
    pool: MAX
    kernel_size: 3
    stride: 2
  }
}
layer {
  name: "4_relu1"
  type: "ReLU"
  bottom: "4_pool1"
  top: "4_pool1"
}
layer {
  name: "4_conv2"
  type: "Convolution"
  bottom: "4_pool1"
  top: "4_conv2"
  param {
    lr_mult: 1
  }
  param {
    lr_mult: 2
  }
  convolution_param {
    num_output: 32
    pad: 2
    kernel_size: 5
    stride: 1
    weight_filler {
      type: "gaussian"
      std: 0.01
    }
    bias_filler {
      type: "constant"
    }
  }
}
layer {
  name: "4_relu2"
  type: "ReLU"
  bottom: "4_conv2"
  top: "4_conv2"
}
layer {
  name: "4_pool2"
  type: "Pooling"
  bottom: "4_conv2"
  top: "4_pool2"
  pooling_param {
    pool: AVE
    kernel_size: 3
    stride: 2
  }
}
layer {
  name: "4_conv3"
  type: "Convolution"
  bottom: "4_pool2"
  top: "4_conv3"
  param {
    lr_mult: 1
  }
  param {
    lr_mult: 2
  }
  convolution_param {
    num_output: 64
    pad: 2
    kernel_size: 5
    stride: 1
    weight_filler {
      type: "gaussian"
      std: 0.01
    }
    bias_filler {
      type: "constant"
    }
  }
}
layer {
  name: "4_relu3"
  type: "ReLU"
  bottom: "4_conv3"
  top: "4_conv3"
}
layer {
  name: "4_pool3"
  type: "Pooling"
  bottom: "4_conv3"
  top: "4_pool3"
  pooling_param {
    pool: AVE
    kernel_size: 3
    stride: 2
  }
}
layer {
  name: "4_ip1"
  type: "InnerProduct"
  bottom: "4_pool3"
  top: "4_ip1"
  param {
    lr_mult: 1
  }
  param {
    lr_mult: 2
  }
  inner_product_param {
    num_output: 64
    weight_filler {
      type: "gaussian"
      std: 0.1
    }
    bias_filler {
      type: "constant"
    }
  }
}
layer {
  name: "4_ip2"
  type: "InnerProduct"
  bottom: "4_ip1"
  top: "4_ip2"
  param {
    lr_mult: 1
  }
  param {
    lr_mult: 2
  }
  inner_product_param {
    num_output: 10
    weight_filler {
      type: "gaussian"
      std: 0.1
    }
    bias_filler {
      type: "constant"
    }
  }
}
layer {
  name: "4_prob"
  type: "Softmax"
  bottom: "4_ip2"
  top: "4_prob"
}
layer {
  name: "loss"
  type: "ODStochasticPoolingMultinomialLogisticLoss"
  bottom: "1_prob"
  bottom: "2_prob"
  bottom: "3_prob"
  bottom: "4_prob"
  bottom: "label"
  top: "multiple-output loss"
  top: "batch-instance-counts"
  top: "train-instance-counts"
  top: "curr-k-value"
  loss_weight: 1
  loss_weight: 0
  loss_weight: 0
  loss_weight: 0
  include {
    phase: TRAIN
  }
  odsp_param {
    temp_decay: 0.001
    update_k_models: 1
    temp: 2
  }
}
I0208 13:55:41.585881 17326 layer_factory.hpp:74] Creating layer cifar
I0208 13:55:41.585896 17326 net.cpp:90] Creating Layer cifar
I0208 13:55:41.585901 17326 net.cpp:368] cifar -> data
I0208 13:55:41.585918 17326 net.cpp:368] cifar -> label
I0208 13:55:41.585934 17326 net.cpp:120] Setting up cifar
I0208 13:55:41.585985 17326 db.cpp:34] Opened lmdb /home/mike/ml_lab/mod/MCL_Caffe/examples/cifar10/cifar10_train_lmdb
I0208 13:55:41.586015 17326 data_layer.cpp:67] output data size: 350,3,32,32
I0208 13:55:41.586022 17326 data_transformer.cpp:22] Loading mean file from: /home/mike/ml_lab/mod/MCL_Caffe/examples/cifar10/mean.binaryproto
I0208 13:55:41.586746 17326 net.cpp:127] Top shape: 350 3 32 32 (1075200)
I0208 13:55:41.586751 17326 net.cpp:127] Top shape: 350 (350)
I0208 13:55:41.586755 17326 layer_factory.hpp:74] Creating layer data_cifar_0_split
I0208 13:55:41.586761 17326 net.cpp:90] Creating Layer data_cifar_0_split
I0208 13:55:41.586765 17326 net.cpp:410] data_cifar_0_split <- data
I0208 13:55:41.586772 17326 net.cpp:368] data_cifar_0_split -> data_cifar_0_split_0
I0208 13:55:41.586778 17326 net.cpp:368] data_cifar_0_split -> data_cifar_0_split_1
I0208 13:55:41.586782 17326 net.cpp:368] data_cifar_0_split -> data_cifar_0_split_2
I0208 13:55:41.586787 17326 net.cpp:368] data_cifar_0_split -> data_cifar_0_split_3
I0208 13:55:41.586791 17326 net.cpp:120] Setting up data_cifar_0_split
I0208 13:55:41.586796 17326 net.cpp:127] Top shape: 350 3 32 32 (1075200)
I0208 13:55:41.586799 17326 net.cpp:127] Top shape: 350 3 32 32 (1075200)
I0208 13:55:41.586802 17326 net.cpp:127] Top shape: 350 3 32 32 (1075200)
I0208 13:55:41.586803 17326 net.cpp:127] Top shape: 350 3 32 32 (1075200)
I0208 13:55:41.586805 17326 layer_factory.hpp:74] Creating layer 1_conv1
I0208 13:55:41.586812 17326 net.cpp:90] Creating Layer 1_conv1
I0208 13:55:41.586815 17326 net.cpp:410] 1_conv1 <- data_cifar_0_split_0
I0208 13:55:41.586820 17326 net.cpp:368] 1_conv1 -> 1_conv1
I0208 13:55:41.586828 17326 net.cpp:120] Setting up 1_conv1
I0208 13:55:41.587237 17326 net.cpp:127] Top shape: 350 32 32 32 (11468800)
I0208 13:55:41.587249 17326 layer_factory.hpp:74] Creating layer 1_pool1
I0208 13:55:41.587262 17326 net.cpp:90] Creating Layer 1_pool1
I0208 13:55:41.587267 17326 net.cpp:410] 1_pool1 <- 1_conv1
I0208 13:55:41.587273 17326 net.cpp:368] 1_pool1 -> 1_pool1
I0208 13:55:41.587280 17326 net.cpp:120] Setting up 1_pool1
I0208 13:55:41.587296 17326 net.cpp:127] Top shape: 350 32 16 16 (2867200)
I0208 13:55:41.587299 17326 layer_factory.hpp:74] Creating layer 1_relu1
I0208 13:55:41.587306 17326 net.cpp:90] Creating Layer 1_relu1
I0208 13:55:41.587308 17326 net.cpp:410] 1_relu1 <- 1_pool1
I0208 13:55:41.587312 17326 net.cpp:357] 1_relu1 -> 1_pool1 (in-place)
I0208 13:55:41.587317 17326 net.cpp:120] Setting up 1_relu1
I0208 13:55:41.587326 17326 net.cpp:127] Top shape: 350 32 16 16 (2867200)
I0208 13:55:41.587328 17326 layer_factory.hpp:74] Creating layer 1_conv2
I0208 13:55:41.587334 17326 net.cpp:90] Creating Layer 1_conv2
I0208 13:55:41.587338 17326 net.cpp:410] 1_conv2 <- 1_pool1
I0208 13:55:41.587345 17326 net.cpp:368] 1_conv2 -> 1_conv2
I0208 13:55:41.587352 17326 net.cpp:120] Setting up 1_conv2
I0208 13:55:41.587949 17326 net.cpp:127] Top shape: 350 32 16 16 (2867200)
I0208 13:55:41.587959 17326 layer_factory.hpp:74] Creating layer 1_relu2
I0208 13:55:41.587963 17326 net.cpp:90] Creating Layer 1_relu2
I0208 13:55:41.587966 17326 net.cpp:410] 1_relu2 <- 1_conv2
I0208 13:55:41.587973 17326 net.cpp:357] 1_relu2 -> 1_conv2 (in-place)
I0208 13:55:41.587978 17326 net.cpp:120] Setting up 1_relu2
I0208 13:55:41.587983 17326 net.cpp:127] Top shape: 350 32 16 16 (2867200)
I0208 13:55:41.587987 17326 layer_factory.hpp:74] Creating layer 1_pool2
I0208 13:55:41.587992 17326 net.cpp:90] Creating Layer 1_pool2
I0208 13:55:41.587996 17326 net.cpp:410] 1_pool2 <- 1_conv2
I0208 13:55:41.588001 17326 net.cpp:368] 1_pool2 -> 1_pool2
I0208 13:55:41.588007 17326 net.cpp:120] Setting up 1_pool2
I0208 13:55:41.588013 17326 net.cpp:127] Top shape: 350 32 8 8 (716800)
I0208 13:55:41.588017 17326 layer_factory.hpp:74] Creating layer 1_conv3
I0208 13:55:41.588024 17326 net.cpp:90] Creating Layer 1_conv3
I0208 13:55:41.588027 17326 net.cpp:410] 1_conv3 <- 1_pool2
I0208 13:55:41.588035 17326 net.cpp:368] 1_conv3 -> 1_conv3
I0208 13:55:41.588052 17326 net.cpp:120] Setting up 1_conv3
I0208 13:55:41.589239 17326 net.cpp:127] Top shape: 350 64 8 8 (1433600)
I0208 13:55:41.589248 17326 layer_factory.hpp:74] Creating layer 1_relu3
I0208 13:55:41.589254 17326 net.cpp:90] Creating Layer 1_relu3
I0208 13:55:41.589258 17326 net.cpp:410] 1_relu3 <- 1_conv3
I0208 13:55:41.589263 17326 net.cpp:357] 1_relu3 -> 1_conv3 (in-place)
I0208 13:55:41.589268 17326 net.cpp:120] Setting up 1_relu3
I0208 13:55:41.589273 17326 net.cpp:127] Top shape: 350 64 8 8 (1433600)
I0208 13:55:41.589277 17326 layer_factory.hpp:74] Creating layer 1_pool3
I0208 13:55:41.589287 17326 net.cpp:90] Creating Layer 1_pool3
I0208 13:55:41.589293 17326 net.cpp:410] 1_pool3 <- 1_conv3
I0208 13:55:41.589298 17326 net.cpp:368] 1_pool3 -> 1_pool3
I0208 13:55:41.589303 17326 net.cpp:120] Setting up 1_pool3
I0208 13:55:41.589309 17326 net.cpp:127] Top shape: 350 64 4 4 (358400)
I0208 13:55:41.589313 17326 layer_factory.hpp:74] Creating layer 1_ip1
I0208 13:55:41.589320 17326 net.cpp:90] Creating Layer 1_ip1
I0208 13:55:41.589326 17326 net.cpp:410] 1_ip1 <- 1_pool3
I0208 13:55:41.589332 17326 net.cpp:368] 1_ip1 -> 1_ip1
I0208 13:55:41.589340 17326 net.cpp:120] Setting up 1_ip1
I0208 13:55:41.590832 17326 net.cpp:127] Top shape: 350 64 (22400)
I0208 13:55:41.590839 17326 layer_factory.hpp:74] Creating layer 1_ip2
I0208 13:55:41.590845 17326 net.cpp:90] Creating Layer 1_ip2
I0208 13:55:41.590849 17326 net.cpp:410] 1_ip2 <- 1_ip1
I0208 13:55:41.590855 17326 net.cpp:368] 1_ip2 -> 1_ip2
I0208 13:55:41.590862 17326 net.cpp:120] Setting up 1_ip2
I0208 13:55:41.590889 17326 net.cpp:127] Top shape: 350 10 (3500)
I0208 13:55:41.590898 17326 layer_factory.hpp:74] Creating layer 1_prob
I0208 13:55:41.590903 17326 net.cpp:90] Creating Layer 1_prob
I0208 13:55:41.590906 17326 net.cpp:410] 1_prob <- 1_ip2
I0208 13:55:41.590914 17326 net.cpp:368] 1_prob -> 1_prob
I0208 13:55:41.590919 17326 net.cpp:120] Setting up 1_prob
I0208 13:55:41.590930 17326 net.cpp:127] Top shape: 350 10 (3500)
I0208 13:55:41.590935 17326 layer_factory.hpp:74] Creating layer 2_conv1
I0208 13:55:41.590941 17326 net.cpp:90] Creating Layer 2_conv1
I0208 13:55:41.590945 17326 net.cpp:410] 2_conv1 <- data_cifar_0_split_1
I0208 13:55:41.590952 17326 net.cpp:368] 2_conv1 -> 2_conv1
I0208 13:55:41.590958 17326 net.cpp:120] Setting up 2_conv1
I0208 13:55:41.591027 17326 net.cpp:127] Top shape: 350 32 32 32 (11468800)
I0208 13:55:41.591034 17326 layer_factory.hpp:74] Creating layer 2_pool1
I0208 13:55:41.591042 17326 net.cpp:90] Creating Layer 2_pool1
I0208 13:55:41.591044 17326 net.cpp:410] 2_pool1 <- 2_conv1
I0208 13:55:41.591053 17326 net.cpp:368] 2_pool1 -> 2_pool1
I0208 13:55:41.591060 17326 net.cpp:120] Setting up 2_pool1
I0208 13:55:41.591070 17326 net.cpp:127] Top shape: 350 32 16 16 (2867200)
I0208 13:55:41.591075 17326 layer_factory.hpp:74] Creating layer 2_relu1
I0208 13:55:41.591083 17326 net.cpp:90] Creating Layer 2_relu1
I0208 13:55:41.591085 17326 net.cpp:410] 2_relu1 <- 2_pool1
I0208 13:55:41.591090 17326 net.cpp:357] 2_relu1 -> 2_pool1 (in-place)
I0208 13:55:41.591095 17326 net.cpp:120] Setting up 2_relu1
I0208 13:55:41.591100 17326 net.cpp:127] Top shape: 350 32 16 16 (2867200)
I0208 13:55:41.591104 17326 layer_factory.hpp:74] Creating layer 2_conv2
I0208 13:55:41.591114 17326 net.cpp:90] Creating Layer 2_conv2
I0208 13:55:41.591117 17326 net.cpp:410] 2_conv2 <- 2_pool1
I0208 13:55:41.591123 17326 net.cpp:368] 2_conv2 -> 2_conv2
I0208 13:55:41.591130 17326 net.cpp:120] Setting up 2_conv2
I0208 13:55:41.591713 17326 net.cpp:127] Top shape: 350 32 16 16 (2867200)
I0208 13:55:41.591722 17326 layer_factory.hpp:74] Creating layer 2_relu2
I0208 13:55:41.591727 17326 net.cpp:90] Creating Layer 2_relu2
I0208 13:55:41.591729 17326 net.cpp:410] 2_relu2 <- 2_conv2
I0208 13:55:41.591735 17326 net.cpp:357] 2_relu2 -> 2_conv2 (in-place)
I0208 13:55:41.591740 17326 net.cpp:120] Setting up 2_relu2
I0208 13:55:41.591745 17326 net.cpp:127] Top shape: 350 32 16 16 (2867200)
I0208 13:55:41.591749 17326 layer_factory.hpp:74] Creating layer 2_pool2
I0208 13:55:41.591763 17326 net.cpp:90] Creating Layer 2_pool2
I0208 13:55:41.591768 17326 net.cpp:410] 2_pool2 <- 2_conv2
I0208 13:55:41.591775 17326 net.cpp:368] 2_pool2 -> 2_pool2
I0208 13:55:41.591781 17326 net.cpp:120] Setting up 2_pool2
I0208 13:55:41.591789 17326 net.cpp:127] Top shape: 350 32 8 8 (716800)
I0208 13:55:41.591792 17326 layer_factory.hpp:74] Creating layer 2_conv3
I0208 13:55:41.591799 17326 net.cpp:90] Creating Layer 2_conv3
I0208 13:55:41.591802 17326 net.cpp:410] 2_conv3 <- 2_pool2
I0208 13:55:41.591809 17326 net.cpp:368] 2_conv3 -> 2_conv3
I0208 13:55:41.591817 17326 net.cpp:120] Setting up 2_conv3
I0208 13:55:41.592974 17326 net.cpp:127] Top shape: 350 64 8 8 (1433600)
I0208 13:55:41.592983 17326 layer_factory.hpp:74] Creating layer 2_relu3
I0208 13:55:41.592988 17326 net.cpp:90] Creating Layer 2_relu3
I0208 13:55:41.592990 17326 net.cpp:410] 2_relu3 <- 2_conv3
I0208 13:55:41.592995 17326 net.cpp:357] 2_relu3 -> 2_conv3 (in-place)
I0208 13:55:41.593000 17326 net.cpp:120] Setting up 2_relu3
I0208 13:55:41.593006 17326 net.cpp:127] Top shape: 350 64 8 8 (1433600)
I0208 13:55:41.593009 17326 layer_factory.hpp:74] Creating layer 2_pool3
I0208 13:55:41.593014 17326 net.cpp:90] Creating Layer 2_pool3
I0208 13:55:41.593019 17326 net.cpp:410] 2_pool3 <- 2_conv3
I0208 13:55:41.593024 17326 net.cpp:368] 2_pool3 -> 2_pool3
I0208 13:55:41.593030 17326 net.cpp:120] Setting up 2_pool3
I0208 13:55:41.593036 17326 net.cpp:127] Top shape: 350 64 4 4 (358400)
I0208 13:55:41.593039 17326 layer_factory.hpp:74] Creating layer 2_ip1
I0208 13:55:41.593046 17326 net.cpp:90] Creating Layer 2_ip1
I0208 13:55:41.593050 17326 net.cpp:410] 2_ip1 <- 2_pool3
I0208 13:55:41.593056 17326 net.cpp:368] 2_ip1 -> 2_ip1
I0208 13:55:41.593062 17326 net.cpp:120] Setting up 2_ip1
I0208 13:55:41.594548 17326 net.cpp:127] Top shape: 350 64 (22400)
I0208 13:55:41.594563 17326 layer_factory.hpp:74] Creating layer 2_ip2
I0208 13:55:41.594571 17326 net.cpp:90] Creating Layer 2_ip2
I0208 13:55:41.594576 17326 net.cpp:410] 2_ip2 <- 2_ip1
I0208 13:55:41.594583 17326 net.cpp:368] 2_ip2 -> 2_ip2
I0208 13:55:41.594589 17326 net.cpp:120] Setting up 2_ip2
I0208 13:55:41.594617 17326 net.cpp:127] Top shape: 350 10 (3500)
I0208 13:55:41.594624 17326 layer_factory.hpp:74] Creating layer 2_prob
I0208 13:55:41.594629 17326 net.cpp:90] Creating Layer 2_prob
I0208 13:55:41.594631 17326 net.cpp:410] 2_prob <- 2_ip2
I0208 13:55:41.594637 17326 net.cpp:368] 2_prob -> 2_prob
I0208 13:55:41.594643 17326 net.cpp:120] Setting up 2_prob
I0208 13:55:41.594650 17326 net.cpp:127] Top shape: 350 10 (3500)
I0208 13:55:41.594653 17326 layer_factory.hpp:74] Creating layer 3_conv1
I0208 13:55:41.594660 17326 net.cpp:90] Creating Layer 3_conv1
I0208 13:55:41.594663 17326 net.cpp:410] 3_conv1 <- data_cifar_0_split_2
I0208 13:55:41.594671 17326 net.cpp:368] 3_conv1 -> 3_conv1
I0208 13:55:41.594676 17326 net.cpp:120] Setting up 3_conv1
I0208 13:55:41.594743 17326 net.cpp:127] Top shape: 350 32 32 32 (11468800)
I0208 13:55:41.594749 17326 layer_factory.hpp:74] Creating layer 3_pool1
I0208 13:55:41.594755 17326 net.cpp:90] Creating Layer 3_pool1
I0208 13:55:41.594758 17326 net.cpp:410] 3_pool1 <- 3_conv1
I0208 13:55:41.594765 17326 net.cpp:368] 3_pool1 -> 3_pool1
I0208 13:55:41.594770 17326 net.cpp:120] Setting up 3_pool1
I0208 13:55:41.594777 17326 net.cpp:127] Top shape: 350 32 16 16 (2867200)
I0208 13:55:41.594781 17326 layer_factory.hpp:74] Creating layer 3_relu1
I0208 13:55:41.594786 17326 net.cpp:90] Creating Layer 3_relu1
I0208 13:55:41.594789 17326 net.cpp:410] 3_relu1 <- 3_pool1
I0208 13:55:41.594794 17326 net.cpp:357] 3_relu1 -> 3_pool1 (in-place)
I0208 13:55:41.594799 17326 net.cpp:120] Setting up 3_relu1
I0208 13:55:41.594805 17326 net.cpp:127] Top shape: 350 32 16 16 (2867200)
I0208 13:55:41.594807 17326 layer_factory.hpp:74] Creating layer 3_conv2
I0208 13:55:41.594813 17326 net.cpp:90] Creating Layer 3_conv2
I0208 13:55:41.594816 17326 net.cpp:410] 3_conv2 <- 3_pool1
I0208 13:55:41.594823 17326 net.cpp:368] 3_conv2 -> 3_conv2
I0208 13:55:41.594830 17326 net.cpp:120] Setting up 3_conv2
I0208 13:55:41.595424 17326 net.cpp:127] Top shape: 350 32 16 16 (2867200)
I0208 13:55:41.595432 17326 layer_factory.hpp:74] Creating layer 3_relu2
I0208 13:55:41.595437 17326 net.cpp:90] Creating Layer 3_relu2
I0208 13:55:41.595439 17326 net.cpp:410] 3_relu2 <- 3_conv2
I0208 13:55:41.595444 17326 net.cpp:357] 3_relu2 -> 3_conv2 (in-place)
I0208 13:55:41.595449 17326 net.cpp:120] Setting up 3_relu2
I0208 13:55:41.595454 17326 net.cpp:127] Top shape: 350 32 16 16 (2867200)
I0208 13:55:41.595458 17326 layer_factory.hpp:74] Creating layer 3_pool2
I0208 13:55:41.595464 17326 net.cpp:90] Creating Layer 3_pool2
I0208 13:55:41.595468 17326 net.cpp:410] 3_pool2 <- 3_conv2
I0208 13:55:41.595473 17326 net.cpp:368] 3_pool2 -> 3_pool2
I0208 13:55:41.595479 17326 net.cpp:120] Setting up 3_pool2
I0208 13:55:41.595485 17326 net.cpp:127] Top shape: 350 32 8 8 (716800)
I0208 13:55:41.595489 17326 layer_factory.hpp:74] Creating layer 3_conv3
I0208 13:55:41.595497 17326 net.cpp:90] Creating Layer 3_conv3
I0208 13:55:41.595501 17326 net.cpp:410] 3_conv3 <- 3_pool2
I0208 13:55:41.595508 17326 net.cpp:368] 3_conv3 -> 3_conv3
I0208 13:55:41.595515 17326 net.cpp:120] Setting up 3_conv3
I0208 13:55:41.596673 17326 net.cpp:127] Top shape: 350 64 8 8 (1433600)
I0208 13:55:41.596679 17326 layer_factory.hpp:74] Creating layer 3_relu3
I0208 13:55:41.596684 17326 net.cpp:90] Creating Layer 3_relu3
I0208 13:55:41.596688 17326 net.cpp:410] 3_relu3 <- 3_conv3
I0208 13:55:41.596693 17326 net.cpp:357] 3_relu3 -> 3_conv3 (in-place)
I0208 13:55:41.596698 17326 net.cpp:120] Setting up 3_relu3
I0208 13:55:41.596704 17326 net.cpp:127] Top shape: 350 64 8 8 (1433600)
I0208 13:55:41.596706 17326 layer_factory.hpp:74] Creating layer 3_pool3
I0208 13:55:41.596711 17326 net.cpp:90] Creating Layer 3_pool3
I0208 13:55:41.596714 17326 net.cpp:410] 3_pool3 <- 3_conv3
I0208 13:55:41.596721 17326 net.cpp:368] 3_pool3 -> 3_pool3
I0208 13:55:41.596726 17326 net.cpp:120] Setting up 3_pool3
I0208 13:55:41.596732 17326 net.cpp:127] Top shape: 350 64 4 4 (358400)
I0208 13:55:41.596735 17326 layer_factory.hpp:74] Creating layer 3_ip1
I0208 13:55:41.596742 17326 net.cpp:90] Creating Layer 3_ip1
I0208 13:55:41.596745 17326 net.cpp:410] 3_ip1 <- 3_pool3
I0208 13:55:41.596752 17326 net.cpp:368] 3_ip1 -> 3_ip1
I0208 13:55:41.596757 17326 net.cpp:120] Setting up 3_ip1
I0208 13:55:41.598244 17326 net.cpp:127] Top shape: 350 64 (22400)
I0208 13:55:41.598253 17326 layer_factory.hpp:74] Creating layer 3_ip2
I0208 13:55:41.598260 17326 net.cpp:90] Creating Layer 3_ip2
I0208 13:55:41.598264 17326 net.cpp:410] 3_ip2 <- 3_ip1
I0208 13:55:41.598270 17326 net.cpp:368] 3_ip2 -> 3_ip2
I0208 13:55:41.598276 17326 net.cpp:120] Setting up 3_ip2
I0208 13:55:41.598304 17326 net.cpp:127] Top shape: 350 10 (3500)
I0208 13:55:41.598309 17326 layer_factory.hpp:74] Creating layer 3_prob
I0208 13:55:41.598318 17326 net.cpp:90] Creating Layer 3_prob
I0208 13:55:41.598322 17326 net.cpp:410] 3_prob <- 3_ip2
I0208 13:55:41.598328 17326 net.cpp:368] 3_prob -> 3_prob
I0208 13:55:41.598336 17326 net.cpp:120] Setting up 3_prob
I0208 13:55:41.598345 17326 net.cpp:127] Top shape: 350 10 (3500)
I0208 13:55:41.598350 17326 layer_factory.hpp:74] Creating layer 4_conv1
I0208 13:55:41.598356 17326 net.cpp:90] Creating Layer 4_conv1
I0208 13:55:41.598359 17326 net.cpp:410] 4_conv1 <- data_cifar_0_split_3
I0208 13:55:41.598367 17326 net.cpp:368] 4_conv1 -> 4_conv1
I0208 13:55:41.598374 17326 net.cpp:120] Setting up 4_conv1
I0208 13:55:41.598443 17326 net.cpp:127] Top shape: 350 32 32 32 (11468800)
I0208 13:55:41.598449 17326 layer_factory.hpp:74] Creating layer 4_pool1
I0208 13:55:41.598456 17326 net.cpp:90] Creating Layer 4_pool1
I0208 13:55:41.598460 17326 net.cpp:410] 4_pool1 <- 4_conv1
I0208 13:55:41.598465 17326 net.cpp:368] 4_pool1 -> 4_pool1
I0208 13:55:41.598470 17326 net.cpp:120] Setting up 4_pool1
I0208 13:55:41.598477 17326 net.cpp:127] Top shape: 350 32 16 16 (2867200)
I0208 13:55:41.598480 17326 layer_factory.hpp:74] Creating layer 4_relu1
I0208 13:55:41.598485 17326 net.cpp:90] Creating Layer 4_relu1
I0208 13:55:41.598497 17326 net.cpp:410] 4_relu1 <- 4_pool1
I0208 13:55:41.598502 17326 net.cpp:357] 4_relu1 -> 4_pool1 (in-place)
I0208 13:55:41.598508 17326 net.cpp:120] Setting up 4_relu1
I0208 13:55:41.598513 17326 net.cpp:127] Top shape: 350 32 16 16 (2867200)
I0208 13:55:41.598516 17326 layer_factory.hpp:74] Creating layer 4_conv2
I0208 13:55:41.598523 17326 net.cpp:90] Creating Layer 4_conv2
I0208 13:55:41.598526 17326 net.cpp:410] 4_conv2 <- 4_pool1
I0208 13:55:41.598533 17326 net.cpp:368] 4_conv2 -> 4_conv2
I0208 13:55:41.598539 17326 net.cpp:120] Setting up 4_conv2
I0208 13:55:41.599123 17326 net.cpp:127] Top shape: 350 32 16 16 (2867200)
I0208 13:55:41.599133 17326 layer_factory.hpp:74] Creating layer 4_relu2
I0208 13:55:41.599139 17326 net.cpp:90] Creating Layer 4_relu2
I0208 13:55:41.599143 17326 net.cpp:410] 4_relu2 <- 4_conv2
I0208 13:55:41.599148 17326 net.cpp:357] 4_relu2 -> 4_conv2 (in-place)
I0208 13:55:41.599153 17326 net.cpp:120] Setting up 4_relu2
I0208 13:55:41.599159 17326 net.cpp:127] Top shape: 350 32 16 16 (2867200)
I0208 13:55:41.599162 17326 layer_factory.hpp:74] Creating layer 4_pool2
I0208 13:55:41.599169 17326 net.cpp:90] Creating Layer 4_pool2
I0208 13:55:41.599172 17326 net.cpp:410] 4_pool2 <- 4_conv2
I0208 13:55:41.599177 17326 net.cpp:368] 4_pool2 -> 4_pool2
I0208 13:55:41.599182 17326 net.cpp:120] Setting up 4_pool2
I0208 13:55:41.599189 17326 net.cpp:127] Top shape: 350 32 8 8 (716800)
I0208 13:55:41.599192 17326 layer_factory.hpp:74] Creating layer 4_conv3
I0208 13:55:41.599198 17326 net.cpp:90] Creating Layer 4_conv3
I0208 13:55:41.599202 17326 net.cpp:410] 4_conv3 <- 4_pool2
I0208 13:55:41.599208 17326 net.cpp:368] 4_conv3 -> 4_conv3
I0208 13:55:41.599215 17326 net.cpp:120] Setting up 4_conv3
I0208 13:55:41.600447 17326 net.cpp:127] Top shape: 350 64 8 8 (1433600)
I0208 13:55:41.600478 17326 layer_factory.hpp:74] Creating layer 4_relu3
I0208 13:55:41.600497 17326 net.cpp:90] Creating Layer 4_relu3
I0208 13:55:41.600513 17326 net.cpp:410] 4_relu3 <- 4_conv3
I0208 13:55:41.600520 17326 net.cpp:357] 4_relu3 -> 4_conv3 (in-place)
I0208 13:55:41.600527 17326 net.cpp:120] Setting up 4_relu3
I0208 13:55:41.600531 17326 net.cpp:127] Top shape: 350 64 8 8 (1433600)
I0208 13:55:41.600534 17326 layer_factory.hpp:74] Creating layer 4_pool3
I0208 13:55:41.600541 17326 net.cpp:90] Creating Layer 4_pool3
I0208 13:55:41.600545 17326 net.cpp:410] 4_pool3 <- 4_conv3
I0208 13:55:41.600549 17326 net.cpp:368] 4_pool3 -> 4_pool3
I0208 13:55:41.600555 17326 net.cpp:120] Setting up 4_pool3
I0208 13:55:41.600564 17326 net.cpp:127] Top shape: 350 64 4 4 (358400)
I0208 13:55:41.600569 17326 layer_factory.hpp:74] Creating layer 4_ip1
I0208 13:55:41.600576 17326 net.cpp:90] Creating Layer 4_ip1
I0208 13:55:41.600581 17326 net.cpp:410] 4_ip1 <- 4_pool3
I0208 13:55:41.600586 17326 net.cpp:368] 4_ip1 -> 4_ip1
I0208 13:55:41.600594 17326 net.cpp:120] Setting up 4_ip1
I0208 13:55:41.602504 17326 net.cpp:127] Top shape: 350 64 (22400)
I0208 13:55:41.602514 17326 layer_factory.hpp:74] Creating layer 4_ip2
I0208 13:55:41.602519 17326 net.cpp:90] Creating Layer 4_ip2
I0208 13:55:41.602524 17326 net.cpp:410] 4_ip2 <- 4_ip1
I0208 13:55:41.602526 17326 net.cpp:368] 4_ip2 -> 4_ip2
I0208 13:55:41.602531 17326 net.cpp:120] Setting up 4_ip2
I0208 13:55:41.602552 17326 net.cpp:127] Top shape: 350 10 (3500)
I0208 13:55:41.602557 17326 layer_factory.hpp:74] Creating layer 4_prob
I0208 13:55:41.602561 17326 net.cpp:90] Creating Layer 4_prob
I0208 13:55:41.602565 17326 net.cpp:410] 4_prob <- 4_ip2
I0208 13:55:41.602567 17326 net.cpp:368] 4_prob -> 4_prob
I0208 13:55:41.602571 17326 net.cpp:120] Setting up 4_prob
I0208 13:55:41.602576 17326 net.cpp:127] Top shape: 350 10 (3500)
I0208 13:55:41.602578 17326 layer_factory.hpp:74] Creating layer loss
I0208 13:55:41.602586 17326 net.cpp:90] Creating Layer loss
I0208 13:55:41.602589 17326 net.cpp:410] loss <- 1_prob
I0208 13:55:41.602591 17326 net.cpp:410] loss <- 2_prob
I0208 13:55:41.602593 17326 net.cpp:410] loss <- 3_prob
I0208 13:55:41.602597 17326 net.cpp:410] loss <- 4_prob
I0208 13:55:41.602607 17326 net.cpp:410] loss <- label
I0208 13:55:41.602617 17326 net.cpp:368] loss -> multiple-output loss
I0208 13:55:41.602623 17326 net.cpp:368] loss -> batch-instance-counts
I0208 13:55:41.602628 17326 net.cpp:368] loss -> train-instance-counts
I0208 13:55:41.602633 17326 net.cpp:368] loss -> curr-k-value
I0208 13:55:41.602638 17326 net.cpp:120] Setting up loss
I0208 13:55:41.602648 17326 net.cpp:127] Top shape: 4 1 1 1 (4)
I0208 13:55:41.602650 17326 net.cpp:129]     with loss weight 1
I0208 13:55:41.602665 17326 net.cpp:127] Top shape: 4 1 1 1 (4)
I0208 13:55:41.602668 17326 net.cpp:127] Top shape: 4 1 1 1 (4)
I0208 13:55:41.602670 17326 net.cpp:127] Top shape: 1 1 1 1 (1)
I0208 13:55:41.602672 17326 net.cpp:192] loss needs backward computation.
I0208 13:55:41.602676 17326 net.cpp:192] 4_prob needs backward computation.
I0208 13:55:41.602679 17326 net.cpp:192] 4_ip2 needs backward computation.
I0208 13:55:41.602680 17326 net.cpp:192] 4_ip1 needs backward computation.
I0208 13:55:41.602682 17326 net.cpp:192] 4_pool3 needs backward computation.
I0208 13:55:41.602684 17326 net.cpp:192] 4_relu3 needs backward computation.
…
I0208 13:55:41.603693 17326 net.cpp:287] The NetState phase (1) differed from the phase (0) specified by a rule in layer loss
I0208 13:55:41.603874 17326 net.cpp:42] Initializing net from parameters: 
name: "CIFAR10_quick"
state {
  phase: TEST
}
layer {
  name: "cifar"
  type: "Data"
  top: "data"
  top: "label"
  include {
    phase: TEST
  }
  transform_param {
    mean_file: "/home/mike/ml_lab/mod/MCL_Caffe/examples/cifar10/mean.binaryproto"
  }
  data_param {
    source: "/home/mike/ml_lab/mod/MCL_Caffe/examples/cifar10/cifar10_test_lmdb"
    batch_size: 100
    backend: LMDB
  }
}
layer {
  name: "1_conv1"
  type: "Convolution"
  bottom: "data"
  top: "1_conv1"
  param {
    lr_mult: 1
  }
  param {
    lr_mult: 2
  }
  convolution_param {
    num_output: 32
    pad: 2
    kernel_size: 5
    stride: 1
    weight_filler {
      type: "gaussian"
      std: 0.0001
    }
    bias_filler {
      type: "constant"
    }
  }
}
layer {
  name: "1_pool1"
  type: "Pooling"
  bottom: "1_conv1"
  top: "1_pool1"
  pooling_param {
    pool: MAX
    kernel_size: 3
    stride: 2
  }
}
layer {
  name: "1_relu1"
  type: "ReLU"
  bottom: "1_pool1"
  top: "1_pool1"
}
layer {
  name: "1_conv2"
  type: "Convolution"
  bottom: "1_pool1"
  top: "1_conv2"
  param {
    lr_mult: 1
  }
  param {
    lr_mult: 2
  }
  convolution_param {
    num_output: 32
    pad: 2
    kernel_size: 5
    stride: 1
    weight_filler {
      type: "gaussian"
      std: 0.01
    }
    bias_filler {
      type: "constant"
    }
  }
}
layer {
  name: "1_relu2"
  type: "ReLU"
  bottom: "1_conv2"
  top: "1_conv2"
}
layer {
  name: "1_pool2"
  type: "Pooling"
  bottom: "1_conv2"
  top: "1_pool2"
  pooling_param {
    pool: AVE
    kernel_size: 3
    stride: 2
  }
}
layer {
  name: "1_conv3"
  type: "Convolution"
  bottom: "1_pool2"
  top: "1_conv3"
  param {
    lr_mult: 1
  }
  param {
    lr_mult: 2
  }
  convolution_param {
    num_output: 64
    pad: 2
    kernel_size: 5
    stride: 1
    weight_filler {
      type: "gaussian"
      std: 0.01
    }
    bias_filler {
      type: "constant"
    }
  }
}
layer {
  name: "1_relu3"
  type: "ReLU"
  bottom: "1_conv3"
  top: "1_conv3"
}
layer {
  name: "1_pool3"
  type: "Pooling"
  bottom: "1_conv3"
  top: "1_pool3"
  pooling_param {
    pool: AVE
    kernel_size: 3
    stride: 2
  }
}
layer {
  name: "1_ip1"
  type: "InnerProduct"
  bottom: "1_pool3"
  top: "1_ip1"
  param {
    lr_mult: 1
  }
  param {
    lr_mult: 2
  }
  inner_product_param {
    num_output: 64
    weight_filler {
      type: "gaussian"
      std: 0.1
    }
    bias_filler {
      type: "constant"
    }
  }
}
layer {
  name: "1_ip2"
  type: "InnerProduct"
  bottom: "1_ip1"
  top: "1_ip2"
  param {
    lr_mult: 1
  }
  param {
    lr_mult: 2
  }
  inner_product_param {
    num_output: 10
    weight_filler {
      type: "gaussian"
      std: 0.1
    }
    bias_filler {
      type: "constant"
    }
  }
}
layer {
  name: "1_prob"
  type: "Softmax"
  bottom: "1_ip2"
  top: "1_prob"
}
layer {
  name: "2_conv1"
  type: "Convolution"
  bottom: "data"
  top: "2_conv1"
  param {
    lr_mult: 1
  }
  param {
    lr_mult: 2
  }
  convolution_param {
    num_output: 32
    pad: 2
    kernel_size: 5
    stride: 1
    weight_filler {
      type: "gaussian"
      std: 0.0001
    }
    bias_filler {
      type: "constant"
    }
  }
}
layer {
  name: "2_pool1"
  type: "Pooling"
  bottom: "2_conv1"
  top: "2_pool1"
  pooling_param {
    pool: MAX
    kernel_size: 3
    stride: 2
  }
}
layer {
  name: "2_relu1"
  type: "ReLU"
  bottom: "2_pool1"
  top: "2_pool1"
}
layer {
  name: "2_conv2"
  type: "Convolution"
  bottom: "2_pool1"
  top: "2_conv2"
  param {
    lr_mult: 1
  }
  param {
    lr_mult: 2
  }
  convolution_param {
    num_output: 32
    pad: 2
    kernel_size: 5
    stride: 1
    weight_filler {
      type: "gaussian"
      std: 0.01
    }
    bias_filler {
      type: "constant"
    }
  }
}
layer {
  name: "2_relu2"
  type: "ReLU"
  bottom: "2_conv2"
  top: "2_conv2"
}
layer {
  name: "2_pool2"
  type: "Pooling"
  bottom: "2_conv2"
  top: "2_pool2"
  pooling_param {
    pool: AVE
    kernel_size: 3
    stride: 2
  }
}
layer {
  name: "2_conv3"
  type: "Convolution"
  bottom: "2_pool2"
  top: "2_conv3"
  param {
    lr_mult: 1
  }
  param {
    lr_mult: 2
  }
  convolution_param {
    num_output: 64
    pad: 2
    kernel_size: 5
    stride: 1
    weight_filler {
      type: "gaussian"
      std: 0.01
    }
    bias_filler {
      type: "constant"
    }
  }
}
layer {
  name: "2_relu3"
  type: "ReLU"
  bottom: "2_conv3"
  top: "2_conv3"
}
layer {
  name: "2_pool3"
  type: "Pooling"
  bottom: "2_conv3"
  top: "2_pool3"
  pooling_param {
    pool: AVE
    kernel_size: 3
    stride: 2
  }
}
layer {
  name: "2_ip1"
  type: "InnerProduct"
  bottom: "2_pool3"
  top: "2_ip1"
  param {
    lr_mult: 1
  }
  param {
    lr_mult: 2
  }
  inner_product_param {
    num_output: 64
    weight_filler {
      type: "gaussian"
      std: 0.1
    }
    bias_filler {
      type: "constant"
    }
  }
}
layer {
  name: "2_ip2"
  type: "InnerProduct"
  bottom: "2_ip1"
  top: "2_ip2"
  param {
    lr_mult: 1
  }
  param {
    lr_mult: 2
  }
  inner_product_param {
    num_output: 10
    weight_filler {
      type: "gaussian"
      std: 0.1
    }
    bias_filler {
      type: "constant"
    }
  }
}
layer {
  name: "2_prob"
  type: "Softmax"
  bottom: "2_ip2"
  top: "2_prob"
}
layer {
  name: "3_conv1"
  type: "Convolution"
  bottom: "data"
  top: "3_conv1"
  param {
    lr_mult: 1
  }
  param {
    lr_mult: 2
  }
  convolution_param {
    num_output: 32
    pad: 2
    kernel_size: 5
    stride: 1
    weight_filler {
      type: "gaussian"
      std: 0.0001
    }
    bias_filler {
      type: "constant"
    }
  }
}
layer {
  name: "3_pool1"
  type: "Pooling"
  bottom: "3_conv1"
  top: "3_pool1"
  pooling_param {
    pool: MAX
    kernel_size: 3
    stride: 2
  }
}
layer {
  name: "3_relu1"
  type: "ReLU"
  bottom: "3_pool1"
  top: "3_pool1"
}
layer {
  name: "3_conv2"
  type: "Convolution"
  bottom: "3_pool1"
  top: "3_conv2"
  param {
    lr_mult: 1
  }
  param {
    lr_mult: 2
  }
  convolution_param {
    num_output: 32
    pad: 2
    kernel_size: 5
    stride: 1
    weight_filler {
      type: "gaussian"
      std: 0.01
    }
    bias_filler {
      type: "constant"
    }
  }
}
layer {
  name: "3_relu2"
  type: "ReLU"
  bottom: "3_conv2"
  top: "3_conv2"
}
layer {
  name: "3_pool2"
  type: "Pooling"
  bottom: "3_conv2"
  top: "3_pool2"
  pooling_param {
    pool: AVE
    kernel_size: 3
    stride: 2
  }
}
layer {
  name: "3_conv3"
  type: "Convolution"
  bottom: "3_pool2"
  top: "3_conv3"
  param {
    lr_mult: 1
  }
  param {
    lr_mult: 2
  }
  convolution_param {
    num_output: 64
    pad: 2
    kernel_size: 5
    stride: 1
    weight_filler {
      type: "gaussian"
      std: 0.01
    }
    bias_filler {
      type: "constant"
    }
  }
}
layer {
  name: "3_relu3"
  type: "ReLU"
  bottom: "3_conv3"
  top: "3_conv3"
}
layer {
  name: "3_pool3"
  type: "Pooling"
  bottom: "3_conv3"
  top: "3_pool3"
  pooling_param {
    pool: AVE
    kernel_size: 3
    stride: 2
  }
}
layer {
  name: "3_ip1"
  type: "InnerProduct"
  bottom: "3_pool3"
  top: "3_ip1"
  param {
    lr_mult: 1
  }
  param {
    lr_mult: 2
  }
  inner_product_param {
    num_output: 64
    weight_filler {
      type: "gaussian"
      std: 0.1
    }
    bias_filler {
      type: "constant"
    }
  }
}
layer {
  name: "3_ip2"
  type: "InnerProduct"
  bottom: "3_ip1"
  top: "3_ip2"
  param {
    lr_mult: 1
  }
  param {
    lr_mult: 2
  }
  inner_product_param {
    num_output: 10
    weight_filler {
      type: "gaussian"
      std: 0.1
    }
    bias_filler {
      type: "constant"
    }
  }
}
layer {
  name: "3_prob"
  type: "Softmax"
  bottom: "3_ip2"
  top: "3_prob"
}
layer {
  name: "4_conv1"
  type: "Convolution"
  bottom: "data"
  top: "4_conv1"
  param {
    lr_mult: 1
  }
  param {
    lr_mult: 2
  }
  convolution_param {
    num_output: 32
    pad: 2
    kernel_size: 5
    stride: 1
    weight_filler {
      type: "gaussian"
      std: 0.0001
    }
    bias_filler {
      type: "constant"
    }
  }
}
layer {
  name: "4_pool1"
  type: "Pooling"
  bottom: "4_conv1"
  top: "4_pool1"
  pooling_param {
    pool: MAX
    kernel_size: 3
    stride: 2
  }
}
layer {
  name: "4_relu1"
  type: "ReLU"
  bottom: "4_pool1"
  top: "4_pool1"
}
layer {
  name: "4_conv2"
  type: "Convolution"
  bottom: "4_pool1"
  top: "4_conv2"
  param {
    lr_mult: 1
  }
  param {
    lr_mult: 2
  }
  convolution_param {
    num_output: 32
    pad: 2
    kernel_size: 5
    stride: 1
    weight_filler {
      type: "gaussian"
      std: 0.01
    }
    bias_filler {
      type: "constant"
    }
  }
}
layer {
  name: "4_relu2"
  type: "ReLU"
  bottom: "4_conv2"
  top: "4_conv2"
}
layer {
  name: "4_pool2"
  type: "Pooling"
  bottom: "4_conv2"
  top: "4_pool2"
  pooling_param {
    pool: AVE
    kernel_size: 3
    stride: 2
  }
}
layer {
  name: "4_conv3"
  type: "Convolution"
  bottom: "4_pool2"
  top: "4_conv3"
  param {
    lr_mult: 1
  }
  param {
    lr_mult: 2
  }
  convolution_param {
    num_output: 64
    pad: 2
    kernel_size: 5
    stride: 1
    weight_filler {
      type: "gaussian"
      std: 0.01
    }
    bias_filler {
      type: "constant"
    }
  }
}
layer {
  name: "4_relu3"
  type: "ReLU"
  bottom: "4_conv3"
  top: "4_conv3"
}
layer {
  name: "4_pool3"
  type: "Pooling"
  bottom: "4_conv3"
  top: "4_pool3"
  pooling_param {
    pool: AVE
    kernel_size: 3
    stride: 2
  }
}
layer {
  name: "4_ip1"
  type: "InnerProduct"
  bottom: "4_pool3"
  top: "4_ip1"
  param {
    lr_mult: 1
  }
  param {
    lr_mult: 2
  }
  inner_product_param {
    num_output: 64
    weight_filler {
      type: "gaussian"
      std: 0.1
    }
    bias_filler {
      type: "constant"
    }
  }
}
layer {
  name: "4_ip2"
  type: "InnerProduct"
  bottom: "4_ip1"
  top: "4_ip2"
  param {
    lr_mult: 1
  }
  param {
    lr_mult: 2
  }
  inner_product_param {
    num_output: 10
    weight_filler {
      type: "gaussian"
      std: 0.1
    }
    bias_filler {
      type: "constant"
    }
  }
}
layer {
  name: "4_prob"
  type: "Softmax"
  bottom: "4_ip2"
  top: "4_prob"
}
layer {
  name: "1_accuracy"
  type: "Accuracy"
  bottom: "1_prob"
  bottom: "label"
  top: "1_accuracy"
  include {
    phase: TEST
  }
}
layer {
  name: "2_accuracy"
  type: "Accuracy"
  bottom: "2_prob"
  bottom: "label"
  top: "2_accuracy"
  include {
    phase: TEST
  }
}
layer {
  name: "3_accuracy"
  type: "Accuracy"
  bottom: "3_prob"
  bottom: "label"
  top: "3_accuracy"
  include {
    phase: TEST
  }
}
layer {
  name: "4_accuracy"
  type: "Accuracy"
  bottom: "4_prob"
  bottom: "label"
  top: "4_accuracy"
  include {
    phase: TEST
  }
}
layer {
  name: "accuracy"
  type: "OracleAccuracy"
  bottom: "1_prob"
  bottom: "2_prob"
  bottom: "3_prob"
  bottom: "4_prob"
  bottom: "label"
  top: "oracle accuracy"
  include {
    phase: TEST
  }
}
I0208 13:55:41.604122 17326 layer_factory.hpp:74] Creating layer cifar
I0208 13:55:41.604131 17326 net.cpp:90] Creating Layer cifar
I0208 13:55:41.604136 17326 net.cpp:368] cifar -> data
I0208 13:55:41.604145 17326 net.cpp:368] cifar -> label
I0208 13:55:41.604151 17326 net.cpp:120] Setting up cifar
I0208 13:55:41.604189 17326 db.cpp:34] Opened lmdb /home/mike/ml_lab/mod/MCL_Caffe/examples/cifar10/cifar10_test_lmdb
I0208 13:55:41.604208 17326 data_layer.cpp:67] output data size: 100,3,32,32
I0208 13:55:41.604215 17326 data_transformer.cpp:22] Loading mean file from: /home/mike/ml_lab/mod/MCL_Caffe/examples/cifar10/mean.binaryproto
I0208 13:55:41.604640 17326 net.cpp:127] Top shape: 100 3 32 32 (307200)
I0208 13:55:41.604647 17326 net.cpp:127] Top shape: 100 (100)
I0208 13:55:41.604651 17326 layer_factory.hpp:74] Creating layer data_cifar_0_split
I0208 13:55:41.604657 17326 net.cpp:90] Creating Layer data_cifar_0_split
I0208 13:55:41.604660 17326 net.cpp:410] data_cifar_0_split <- data
I0208 13:55:41.604667 17326 net.cpp:368] data_cifar_0_split -> data_cifar_0_split_0
I0208 13:55:41.604674 17326 net.cpp:368] data_cifar_0_split -> data_cifar_0_split_1
I0208 13:55:41.604681 17326 net.cpp:368] data_cifar_0_split -> data_cifar_0_split_2
I0208 13:55:41.604686 17326 net.cpp:368] data_cifar_0_split -> data_cifar_0_split_3
I0208 13:55:41.604691 17326 net.cpp:120] Setting up data_cifar_0_split
I0208 13:55:41.604697 17326 net.cpp:127] Top shape: 100 3 32 32 (307200)
I0208 13:55:41.604702 17326 net.cpp:127] Top shape: 100 3 32 32 (307200)
I0208 13:55:41.604707 17326 net.cpp:127] Top shape: 100 3 32 32 (307200)
I0208 13:55:41.604710 17326 net.cpp:127] Top shape: 100 3 32 32 (307200)
I0208 13:55:41.604714 17326 layer_factory.hpp:74] Creating layer label_cifar_1_split
I0208 13:55:41.604718 17326 net.cpp:90] Creating Layer label_cifar_1_split
I0208 13:55:41.604722 17326 net.cpp:410] label_cifar_1_split <- label
I0208 13:55:41.604727 17326 net.cpp:368] label_cifar_1_split -> label_cifar_1_split_0
I0208 13:55:41.604732 17326 net.cpp:368] label_cifar_1_split -> label_cifar_1_split_1
I0208 13:55:41.604738 17326 net.cpp:368] label_cifar_1_split -> label_cifar_1_split_2
I0208 13:55:41.604745 17326 net.cpp:368] label_cifar_1_split -> label_cifar_1_split_3
I0208 13:55:41.604751 17326 net.cpp:368] label_cifar_1_split -> label_cifar_1_split_4
I0208 13:55:41.604755 17326 net.cpp:120] Setting up label_cifar_1_split
I0208 13:55:41.604761 17326 net.cpp:127] Top shape: 100 (100)
I0208 13:55:41.604766 17326 net.cpp:127] Top shape: 100 (100)
I0208 13:55:41.604771 17326 net.cpp:127] Top shape: 100 (100)
I0208 13:55:41.604775 17326 net.cpp:127] Top shape: 100 (100)
I0208 13:55:41.604779 17326 net.cpp:127] Top shape: 100 (100)
I0208 13:55:41.604787 17326 layer_factory.hpp:74] Creating layer 1_conv1
I0208 13:55:41.604794 17326 net.cpp:90] Creating Layer 1_conv1
I0208 13:55:41.604796 17326 net.cpp:410] 1_conv1 <- data_cifar_0_split_0
I0208 13:55:41.604802 17326 net.cpp:368] 1_conv1 -> 1_conv1
I0208 13:55:41.604807 17326 net.cpp:120] Setting up 1_conv1
I0208 13:55:41.604895 17326 net.cpp:127] Top shape: 100 32 32 32 (3276800)
I0208 13:55:41.604903 17326 layer_factory.hpp:74] Creating layer 1_pool1
I0208 13:55:41.604909 17326 net.cpp:90] Creating Layer 1_pool1
I0208 13:55:41.604912 17326 net.cpp:410] 1_pool1 <- 1_conv1
I0208 13:55:41.604918 17326 net.cpp:368] 1_pool1 -> 1_pool1
I0208 13:55:41.604923 17326 net.cpp:120] Setting up 1_pool1
I0208 13:55:41.604930 17326 net.cpp:127] Top shape: 100 32 16 16 (819200)
I0208 13:55:41.604933 17326 layer_factory.hpp:74] Creating layer 1_relu1
I0208 13:55:41.604939 17326 net.cpp:90] Creating Layer 1_relu1
I0208 13:55:41.604943 17326 net.cpp:410] 1_relu1 <- 1_pool1
I0208 13:55:41.604948 17326 net.cpp:357] 1_relu1 -> 1_pool1 (in-place)
I0208 13:55:41.604953 17326 net.cpp:120] Setting up 1_relu1
I0208 13:55:41.604957 17326 net.cpp:127] Top shape: 100 32 16 16 (819200)
I0208 13:55:41.604969 17326 layer_factory.hpp:74] Creating layer 1_conv2
I0208 13:55:41.604974 17326 net.cpp:90] Creating Layer 1_conv2
I0208 13:55:41.604977 17326 net.cpp:410] 1_conv2 <- 1_pool1
I0208 13:55:41.604982 17326 net.cpp:368] 1_conv2 -> 1_conv2
I0208 13:55:41.604989 17326 net.cpp:120] Setting up 1_conv2
I0208 13:55:41.605809 17326 net.cpp:127] Top shape: 100 32 16 16 (819200)
I0208 13:55:41.605818 17326 layer_factory.hpp:74] Creating layer 1_relu2
I0208 13:55:41.605824 17326 net.cpp:90] Creating Layer 1_relu2
I0208 13:55:41.605829 17326 net.cpp:410] 1_relu2 <- 1_conv2
I0208 13:55:41.605834 17326 net.cpp:357] 1_relu2 -> 1_conv2 (in-place)
I0208 13:55:41.605839 17326 net.cpp:120] Setting up 1_relu2
I0208 13:55:41.605844 17326 net.cpp:127] Top shape: 100 32 16 16 (819200)
I0208 13:55:41.605846 17326 layer_factory.hpp:74] Creating layer 1_pool2
I0208 13:55:41.605852 17326 net.cpp:90] Creating Layer 1_pool2
I0208 13:55:41.605855 17326 net.cpp:410] 1_pool2 <- 1_conv2
I0208 13:55:41.605861 17326 net.cpp:368] 1_pool2 -> 1_pool2
I0208 13:55:41.605866 17326 net.cpp:120] Setting up 1_pool2
I0208 13:55:41.605872 17326 net.cpp:127] Top shape: 100 32 8 8 (204800)
I0208 13:55:41.605875 17326 layer_factory.hpp:74] Creating layer 1_conv3
I0208 13:55:41.605881 17326 net.cpp:90] Creating Layer 1_conv3
I0208 13:55:41.605885 17326 net.cpp:410] 1_conv3 <- 1_pool2
I0208 13:55:41.605891 17326 net.cpp:368] 1_conv3 -> 1_conv3
I0208 13:55:41.605896 17326 net.cpp:120] Setting up 1_conv3
I0208 13:55:41.607148 17326 net.cpp:127] Top shape: 100 64 8 8 (409600)
I0208 13:55:41.607156 17326 layer_factory.hpp:74] Creating layer 1_relu3
I0208 13:55:41.607163 17326 net.cpp:90] Creating Layer 1_relu3
I0208 13:55:41.607167 17326 net.cpp:410] 1_relu3 <- 1_conv3
I0208 13:55:41.607172 17326 net.cpp:357] 1_relu3 -> 1_conv3 (in-place)
I0208 13:55:41.607177 17326 net.cpp:120] Setting up 1_relu3
I0208 13:55:41.607182 17326 net.cpp:127] Top shape: 100 64 8 8 (409600)
I0208 13:55:41.607185 17326 layer_factory.hpp:74] Creating layer 1_pool3
I0208 13:55:41.607192 17326 net.cpp:90] Creating Layer 1_pool3
I0208 13:55:41.607195 17326 net.cpp:410] 1_pool3 <- 1_conv3
I0208 13:55:41.607200 17326 net.cpp:368] 1_pool3 -> 1_pool3
I0208 13:55:41.607206 17326 net.cpp:120] Setting up 1_pool3
I0208 13:55:41.607213 17326 net.cpp:127] Top shape: 100 64 4 4 (102400)
I0208 13:55:41.607216 17326 layer_factory.hpp:74] Creating layer 1_ip1
I0208 13:55:41.607224 17326 net.cpp:90] Creating Layer 1_ip1
I0208 13:55:41.607228 17326 net.cpp:410] 1_ip1 <- 1_pool3
I0208 13:55:41.607234 17326 net.cpp:368] 1_ip1 -> 1_ip1
I0208 13:55:41.607239 17326 net.cpp:120] Setting up 1_ip1
I0208 13:55:41.608716 17326 net.cpp:127] Top shape: 100 64 (6400)
I0208 13:55:41.608723 17326 layer_factory.hpp:74] Creating layer 1_ip2
I0208 13:55:41.608729 17326 net.cpp:90] Creating Layer 1_ip2
I0208 13:55:41.608733 17326 net.cpp:410] 1_ip2 <- 1_ip1
I0208 13:55:41.608741 17326 net.cpp:368] 1_ip2 -> 1_ip2
I0208 13:55:41.608747 17326 net.cpp:120] Setting up 1_ip2
I0208 13:55:41.608772 17326 net.cpp:127] Top shape: 100 10 (1000)
I0208 13:55:41.608779 17326 layer_factory.hpp:74] Creating layer 1_prob
I0208 13:55:41.608784 17326 net.cpp:90] Creating Layer 1_prob
I0208 13:55:41.608788 17326 net.cpp:410] 1_prob <- 1_ip2
I0208 13:55:41.608795 17326 net.cpp:368] 1_prob -> 1_prob
I0208 13:55:41.608801 17326 net.cpp:120] Setting up 1_prob
I0208 13:55:41.608808 17326 net.cpp:127] Top shape: 100 10 (1000)
I0208 13:55:41.608813 17326 layer_factory.hpp:74] Creating layer 1_prob_1_prob_0_split
I0208 13:55:41.608816 17326 net.cpp:90] Creating Layer 1_prob_1_prob_0_split
I0208 13:55:41.608820 17326 net.cpp:410] 1_prob_1_prob_0_split <- 1_prob
I0208 13:55:41.608826 17326 net.cpp:368] 1_prob_1_prob_0_split -> 1_prob_1_prob_0_split_0
I0208 13:55:41.608832 17326 net.cpp:368] 1_prob_1_prob_0_split -> 1_prob_1_prob_0_split_1
I0208 13:55:41.608837 17326 net.cpp:120] Setting up 1_prob_1_prob_0_split
I0208 13:55:41.608844 17326 net.cpp:127] Top shape: 100 10 (1000)
I0208 13:55:41.608847 17326 net.cpp:127] Top shape: 100 10 (1000)
I0208 13:55:41.608860 17326 layer_factory.hpp:74] Creating layer 2_conv1
I0208 13:55:41.608868 17326 net.cpp:90] Creating Layer 2_conv1
I0208 13:55:41.608873 17326 net.cpp:410] 2_conv1 <- data_cifar_0_split_1
I0208 13:55:41.608880 17326 net.cpp:368] 2_conv1 -> 2_conv1
I0208 13:55:41.608886 17326 net.cpp:120] Setting up 2_conv1
I0208 13:55:41.608954 17326 net.cpp:127] Top shape: 100 32 32 32 (3276800)
I0208 13:55:41.608961 17326 layer_factory.hpp:74] Creating layer 2_pool1
I0208 13:55:41.608966 17326 net.cpp:90] Creating Layer 2_pool1
I0208 13:55:41.608970 17326 net.cpp:410] 2_pool1 <- 2_conv1
I0208 13:55:41.608975 17326 net.cpp:368] 2_pool1 -> 2_pool1
I0208 13:55:41.608980 17326 net.cpp:120] Setting up 2_pool1
I0208 13:55:41.608988 17326 net.cpp:127] Top shape: 100 32 16 16 (819200)
I0208 13:55:41.608990 17326 layer_factory.hpp:74] Creating layer 2_relu1
I0208 13:55:41.608996 17326 net.cpp:90] Creating Layer 2_relu1
I0208 13:55:41.608999 17326 net.cpp:410] 2_relu1 <- 2_pool1
I0208 13:55:41.609004 17326 net.cpp:357] 2_relu1 -> 2_pool1 (in-place)
I0208 13:55:41.609009 17326 net.cpp:120] Setting up 2_relu1
I0208 13:55:41.609014 17326 net.cpp:127] Top shape: 100 32 16 16 (819200)
I0208 13:55:41.609019 17326 layer_factory.hpp:74] Creating layer 2_conv2
I0208 13:55:41.609024 17326 net.cpp:90] Creating Layer 2_conv2
I0208 13:55:41.609026 17326 net.cpp:410] 2_conv2 <- 2_pool1
I0208 13:55:41.609032 17326 net.cpp:368] 2_conv2 -> 2_conv2
I0208 13:55:41.609037 17326 net.cpp:120] Setting up 2_conv2
I0208 13:55:41.609632 17326 net.cpp:127] Top shape: 100 32 16 16 (819200)
I0208 13:55:41.609639 17326 layer_factory.hpp:74] Creating layer 2_relu2
I0208 13:55:41.609644 17326 net.cpp:90] Creating Layer 2_relu2
I0208 13:55:41.609647 17326 net.cpp:410] 2_relu2 <- 2_conv2
I0208 13:55:41.609653 17326 net.cpp:357] 2_relu2 -> 2_conv2 (in-place)
I0208 13:55:41.609659 17326 net.cpp:120] Setting up 2_relu2
I0208 13:55:41.609664 17326 net.cpp:127] Top shape: 100 32 16 16 (819200)
I0208 13:55:41.609668 17326 layer_factory.hpp:74] Creating layer 2_pool2
I0208 13:55:41.609673 17326 net.cpp:90] Creating Layer 2_pool2
I0208 13:55:41.609675 17326 net.cpp:410] 2_pool2 <- 2_conv2
I0208 13:55:41.609680 17326 net.cpp:368] 2_pool2 -> 2_pool2
I0208 13:55:41.609685 17326 net.cpp:120] Setting up 2_pool2
I0208 13:55:41.609691 17326 net.cpp:127] Top shape: 100 32 8 8 (204800)
I0208 13:55:41.609694 17326 layer_factory.hpp:74] Creating layer 2_conv3
I0208 13:55:41.609701 17326 net.cpp:90] Creating Layer 2_conv3
I0208 13:55:41.609705 17326 net.cpp:410] 2_conv3 <- 2_pool2
I0208 13:55:41.609712 17326 net.cpp:368] 2_conv3 -> 2_conv3
I0208 13:55:41.609719 17326 net.cpp:120] Setting up 2_conv3
I0208 13:55:41.610872 17326 net.cpp:127] Top shape: 100 64 8 8 (409600)
I0208 13:55:41.610879 17326 layer_factory.hpp:74] Creating layer 2_relu3
I0208 13:55:41.610885 17326 net.cpp:90] Creating Layer 2_relu3
I0208 13:55:41.610889 17326 net.cpp:410] 2_relu3 <- 2_conv3
I0208 13:55:41.610894 17326 net.cpp:357] 2_relu3 -> 2_conv3 (in-place)
I0208 13:55:41.610898 17326 net.cpp:120] Setting up 2_relu3
I0208 13:55:41.610903 17326 net.cpp:127] Top shape: 100 64 8 8 (409600)
I0208 13:55:41.610908 17326 layer_factory.hpp:74] Creating layer 2_pool3
I0208 13:55:41.610911 17326 net.cpp:90] Creating Layer 2_pool3
I0208 13:55:41.610915 17326 net.cpp:410] 2_pool3 <- 2_conv3
I0208 13:55:41.610925 17326 net.cpp:368] 2_pool3 -> 2_pool3
I0208 13:55:41.610931 17326 net.cpp:120] Setting up 2_pool3
I0208 13:55:41.610937 17326 net.cpp:127] Top shape: 100 64 4 4 (102400)
I0208 13:55:41.610942 17326 layer_factory.hpp:74] Creating layer 2_ip1
I0208 13:55:41.610947 17326 net.cpp:90] Creating Layer 2_ip1
I0208 13:55:41.610951 17326 net.cpp:410] 2_ip1 <- 2_pool3
I0208 13:55:41.610957 17326 net.cpp:368] 2_ip1 -> 2_ip1
I0208 13:55:41.610965 17326 net.cpp:120] Setting up 2_ip1
I0208 13:55:41.612438 17326 net.cpp:127] Top shape: 100 64 (6400)
I0208 13:55:41.612447 17326 layer_factory.hpp:74] Creating layer 2_ip2
I0208 13:55:41.612453 17326 net.cpp:90] Creating Layer 2_ip2
I0208 13:55:41.612457 17326 net.cpp:410] 2_ip2 <- 2_ip1
I0208 13:55:41.612473 17326 net.cpp:368] 2_ip2 -> 2_ip2
I0208 13:55:41.612481 17326 net.cpp:120] Setting up 2_ip2
I0208 13:55:41.612509 17326 net.cpp:127] Top shape: 100 10 (1000)
I0208 13:55:41.612514 17326 layer_factory.hpp:74] Creating layer 2_prob
I0208 13:55:41.612520 17326 net.cpp:90] Creating Layer 2_prob
I0208 13:55:41.612524 17326 net.cpp:410] 2_prob <- 2_ip2
I0208 13:55:41.612530 17326 net.cpp:368] 2_prob -> 2_prob
I0208 13:55:41.612536 17326 net.cpp:120] Setting up 2_prob
I0208 13:55:41.612542 17326 net.cpp:127] Top shape: 100 10 (1000)
I0208 13:55:41.612547 17326 layer_factory.hpp:74] Creating layer 2_prob_2_prob_0_split
I0208 13:55:41.612551 17326 net.cpp:90] Creating Layer 2_prob_2_prob_0_split
I0208 13:55:41.612555 17326 net.cpp:410] 2_prob_2_prob_0_split <- 2_prob
I0208 13:55:41.612560 17326 net.cpp:368] 2_prob_2_prob_0_split -> 2_prob_2_prob_0_split_0
I0208 13:55:41.612566 17326 net.cpp:368] 2_prob_2_prob_0_split -> 2_prob_2_prob_0_split_1
I0208 13:55:41.612576 17326 net.cpp:120] Setting up 2_prob_2_prob_0_split
I0208 13:55:41.612582 17326 net.cpp:127] Top shape: 100 10 (1000)
I0208 13:55:41.612587 17326 net.cpp:127] Top shape: 100 10 (1000)
I0208 13:55:41.612591 17326 layer_factory.hpp:74] Creating layer 3_conv1
I0208 13:55:41.612598 17326 net.cpp:90] Creating Layer 3_conv1
I0208 13:55:41.612601 17326 net.cpp:410] 3_conv1 <- data_cifar_0_split_2
I0208 13:55:41.612607 17326 net.cpp:368] 3_conv1 -> 3_conv1
I0208 13:55:41.612613 17326 net.cpp:120] Setting up 3_conv1
I0208 13:55:41.612680 17326 net.cpp:127] Top shape: 100 32 32 32 (3276800)
I0208 13:55:41.612686 17326 layer_factory.hpp:74] Creating layer 3_pool1
I0208 13:55:41.612691 17326 net.cpp:90] Creating Layer 3_pool1
I0208 13:55:41.612695 17326 net.cpp:410] 3_pool1 <- 3_conv1
I0208 13:55:41.612700 17326 net.cpp:368] 3_pool1 -> 3_pool1
I0208 13:55:41.612705 17326 net.cpp:120] Setting up 3_pool1
I0208 13:55:41.612712 17326 net.cpp:127] Top shape: 100 32 16 16 (819200)
I0208 13:55:41.612716 17326 layer_factory.hpp:74] Creating layer 3_relu1
I0208 13:55:41.612722 17326 net.cpp:90] Creating Layer 3_relu1
I0208 13:55:41.612725 17326 net.cpp:410] 3_relu1 <- 3_pool1
I0208 13:55:41.612730 17326 net.cpp:357] 3_relu1 -> 3_pool1 (in-place)
I0208 13:55:41.612735 17326 net.cpp:120] Setting up 3_relu1
I0208 13:55:41.612740 17326 net.cpp:127] Top shape: 100 32 16 16 (819200)
I0208 13:55:41.612743 17326 layer_factory.hpp:74] Creating layer 3_conv2
I0208 13:55:41.612751 17326 net.cpp:90] Creating Layer 3_conv2
I0208 13:55:41.612754 17326 net.cpp:410] 3_conv2 <- 3_pool1
I0208 13:55:41.612759 17326 net.cpp:368] 3_conv2 -> 3_conv2
I0208 13:55:41.612766 17326 net.cpp:120] Setting up 3_conv2
I0208 13:55:41.613358 17326 net.cpp:127] Top shape: 100 32 16 16 (819200)
I0208 13:55:41.613365 17326 layer_factory.hpp:74] Creating layer 3_relu2
I0208 13:55:41.613370 17326 net.cpp:90] Creating Layer 3_relu2
I0208 13:55:41.613373 17326 net.cpp:410] 3_relu2 <- 3_conv2
I0208 13:55:41.613379 17326 net.cpp:357] 3_relu2 -> 3_conv2 (in-place)
I0208 13:55:41.613384 17326 net.cpp:120] Setting up 3_relu2
I0208 13:55:41.613389 17326 net.cpp:127] Top shape: 100 32 16 16 (819200)
I0208 13:55:41.613391 17326 layer_factory.hpp:74] Creating layer 3_pool2
I0208 13:55:41.613396 17326 net.cpp:90] Creating Layer 3_pool2
I0208 13:55:41.613399 17326 net.cpp:410] 3_pool2 <- 3_conv2
I0208 13:55:41.613405 17326 net.cpp:368] 3_pool2 -> 3_pool2
I0208 13:55:41.613411 17326 net.cpp:120] Setting up 3_pool2
I0208 13:55:41.613417 17326 net.cpp:127] Top shape: 100 32 8 8 (204800)
I0208 13:55:41.613421 17326 layer_factory.hpp:74] Creating layer 3_conv3
I0208 13:55:41.613426 17326 net.cpp:90] Creating Layer 3_conv3
I0208 13:55:41.613430 17326 net.cpp:410] 3_conv3 <- 3_pool2
I0208 13:55:41.613436 17326 net.cpp:368] 3_conv3 -> 3_conv3
I0208 13:55:41.613442 17326 net.cpp:120] Setting up 3_conv3
I0208 13:55:41.614598 17326 net.cpp:127] Top shape: 100 64 8 8 (409600)
I0208 13:55:41.614605 17326 layer_factory.hpp:74] Creating layer 3_relu3
I0208 13:55:41.614610 17326 net.cpp:90] Creating Layer 3_relu3
I0208 13:55:41.614622 17326 net.cpp:410] 3_relu3 <- 3_conv3
I0208 13:55:41.614627 17326 net.cpp:357] 3_relu3 -> 3_conv3 (in-place)
I0208 13:55:41.614632 17326 net.cpp:120] Setting up 3_relu3
I0208 13:55:41.614637 17326 net.cpp:127] Top shape: 100 64 8 8 (409600)
I0208 13:55:41.614641 17326 layer_factory.hpp:74] Creating layer 3_pool3
I0208 13:55:41.614647 17326 net.cpp:90] Creating Layer 3_pool3
I0208 13:55:41.614651 17326 net.cpp:410] 3_pool3 <- 3_conv3
I0208 13:55:41.614656 17326 net.cpp:368] 3_pool3 -> 3_pool3
I0208 13:55:41.614661 17326 net.cpp:120] Setting up 3_pool3
I0208 13:55:41.614667 17326 net.cpp:127] Top shape: 100 64 4 4 (102400)
I0208 13:55:41.614671 17326 layer_factory.hpp:74] Creating layer 3_ip1
I0208 13:55:41.614676 17326 net.cpp:90] Creating Layer 3_ip1
I0208 13:55:41.614681 17326 net.cpp:410] 3_ip1 <- 3_pool3
I0208 13:55:41.614688 17326 net.cpp:368] 3_ip1 -> 3_ip1
I0208 13:55:41.614694 17326 net.cpp:120] Setting up 3_ip1
I0208 13:55:41.616175 17326 net.cpp:127] Top shape: 100 64 (6400)
I0208 13:55:41.616183 17326 layer_factory.hpp:74] Creating layer 3_ip2
I0208 13:55:41.616188 17326 net.cpp:90] Creating Layer 3_ip2
I0208 13:55:41.616191 17326 net.cpp:410] 3_ip2 <- 3_ip1
I0208 13:55:41.616199 17326 net.cpp:368] 3_ip2 -> 3_ip2
I0208 13:55:41.616204 17326 net.cpp:120] Setting up 3_ip2
I0208 13:55:41.616230 17326 net.cpp:127] Top shape: 100 10 (1000)
I0208 13:55:41.616236 17326 layer_factory.hpp:74] Creating layer 3_prob
I0208 13:55:41.616240 17326 net.cpp:90] Creating Layer 3_prob
I0208 13:55:41.616245 17326 net.cpp:410] 3_prob <- 3_ip2
I0208 13:55:41.616250 17326 net.cpp:368] 3_prob -> 3_prob
I0208 13:55:41.616256 17326 net.cpp:120] Setting up 3_prob
I0208 13:55:41.616263 17326 net.cpp:127] Top shape: 100 10 (1000)
I0208 13:55:41.616267 17326 layer_factory.hpp:74] Creating layer 3_prob_3_prob_0_split
I0208 13:55:41.616272 17326 net.cpp:90] Creating Layer 3_prob_3_prob_0_split
I0208 13:55:41.616276 17326 net.cpp:410] 3_prob_3_prob_0_split <- 3_prob
I0208 13:55:41.616281 17326 net.cpp:368] 3_prob_3_prob_0_split -> 3_prob_3_prob_0_split_0
I0208 13:55:41.616286 17326 net.cpp:368] 3_prob_3_prob_0_split -> 3_prob_3_prob_0_split_1
I0208 13:55:41.616292 17326 net.cpp:120] Setting up 3_prob_3_prob_0_split
I0208 13:55:41.616297 17326 net.cpp:127] Top shape: 100 10 (1000)
I0208 13:55:41.616302 17326 net.cpp:127] Top shape: 100 10 (1000)
I0208 13:55:41.616305 17326 layer_factory.hpp:74] Creating layer 4_conv1
I0208 13:55:41.616312 17326 net.cpp:90] Creating Layer 4_conv1
I0208 13:55:41.616317 17326 net.cpp:410] 4_conv1 <- data_cifar_0_split_3
I0208 13:55:41.616323 17326 net.cpp:368] 4_conv1 -> 4_conv1
I0208 13:55:41.616329 17326 net.cpp:120] Setting up 4_conv1
I0208 13:55:41.616396 17326 net.cpp:127] Top shape: 100 32 32 32 (3276800)
I0208 13:55:41.616402 17326 layer_factory.hpp:74] Creating layer 4_pool1
I0208 13:55:41.616407 17326 net.cpp:90] Creating Layer 4_pool1
I0208 13:55:41.616411 17326 net.cpp:410] 4_pool1 <- 4_conv1
I0208 13:55:41.616416 17326 net.cpp:368] 4_pool1 -> 4_pool1
I0208 13:55:41.616421 17326 net.cpp:120] Setting up 4_pool1
I0208 13:55:41.616428 17326 net.cpp:127] Top shape: 100 32 16 16 (819200)
I0208 13:55:41.616431 17326 layer_factory.hpp:74] Creating layer 4_relu1
I0208 13:55:41.616436 17326 net.cpp:90] Creating Layer 4_relu1
I0208 13:55:41.616439 17326 net.cpp:410] 4_relu1 <- 4_pool1
I0208 13:55:41.616444 17326 net.cpp:357] 4_relu1 -> 4_pool1 (in-place)
I0208 13:55:41.616449 17326 net.cpp:120] Setting up 4_relu1
I0208 13:55:41.616454 17326 net.cpp:127] Top shape: 100 32 16 16 (819200)
I0208 13:55:41.616457 17326 layer_factory.hpp:74] Creating layer 4_conv2
I0208 13:55:41.616464 17326 net.cpp:90] Creating Layer 4_conv2
I0208 13:55:41.616467 17326 net.cpp:410] 4_conv2 <- 4_pool1
I0208 13:55:41.616473 17326 net.cpp:368] 4_conv2 -> 4_conv2
I0208 13:55:41.616479 17326 net.cpp:120] Setting up 4_conv2
I0208 13:55:41.617063 17326 net.cpp:127] Top shape: 100 32 16 16 (819200)
I0208 13:55:41.617076 17326 layer_factory.hpp:74] Creating layer 4_relu2
I0208 13:55:41.617082 17326 net.cpp:90] Creating Layer 4_relu2
I0208 13:55:41.617094 17326 net.cpp:410] 4_relu2 <- 4_conv2
I0208 13:55:41.617100 17326 net.cpp:357] 4_relu2 -> 4_conv2 (in-place)
I0208 13:55:41.617111 17326 net.cpp:120] Setting up 4_relu2
I0208 13:55:41.617117 17326 net.cpp:127] Top shape: 100 32 16 16 (819200)
I0208 13:55:41.617120 17326 layer_factory.hpp:74] Creating layer 4_pool2
I0208 13:55:41.617126 17326 net.cpp:90] Creating Layer 4_pool2
I0208 13:55:41.617130 17326 net.cpp:410] 4_pool2 <- 4_conv2
I0208 13:55:41.617136 17326 net.cpp:368] 4_pool2 -> 4_pool2
I0208 13:55:41.617142 17326 net.cpp:120] Setting up 4_pool2
I0208 13:55:41.617148 17326 net.cpp:127] Top shape: 100 32 8 8 (204800)
I0208 13:55:41.617153 17326 layer_factory.hpp:74] Creating layer 4_conv3
I0208 13:55:41.617159 17326 net.cpp:90] Creating Layer 4_conv3
I0208 13:55:41.617163 17326 net.cpp:410] 4_conv3 <- 4_pool2
I0208 13:55:41.617171 17326 net.cpp:368] 4_conv3 -> 4_conv3
I0208 13:55:41.617177 17326 net.cpp:120] Setting up 4_conv3
I0208 13:55:41.618332 17326 net.cpp:127] Top shape: 100 64 8 8 (409600)
I0208 13:55:41.618340 17326 layer_factory.hpp:74] Creating layer 4_relu3
I0208 13:55:41.618345 17326 net.cpp:90] Creating Layer 4_relu3
I0208 13:55:41.618350 17326 net.cpp:410] 4_relu3 <- 4_conv3
I0208 13:55:41.618355 17326 net.cpp:357] 4_relu3 -> 4_conv3 (in-place)
I0208 13:55:41.618360 17326 net.cpp:120] Setting up 4_relu3
I0208 13:55:41.618365 17326 net.cpp:127] Top shape: 100 64 8 8 (409600)
I0208 13:55:41.618367 17326 layer_factory.hpp:74] Creating layer 4_pool3
I0208 13:55:41.618373 17326 net.cpp:90] Creating Layer 4_pool3
I0208 13:55:41.618377 17326 net.cpp:410] 4_pool3 <- 4_conv3
I0208 13:55:41.618382 17326 net.cpp:368] 4_pool3 -> 4_pool3
I0208 13:55:41.618387 17326 net.cpp:120] Setting up 4_pool3
I0208 13:55:41.618393 17326 net.cpp:127] Top shape: 100 64 4 4 (102400)
I0208 13:55:41.618396 17326 layer_factory.hpp:74] Creating layer 4_ip1
I0208 13:55:41.618402 17326 net.cpp:90] Creating Layer 4_ip1
I0208 13:55:41.618405 17326 net.cpp:410] 4_ip1 <- 4_pool3
I0208 13:55:41.618412 17326 net.cpp:368] 4_ip1 -> 4_ip1
I0208 13:55:41.618418 17326 net.cpp:120] Setting up 4_ip1
I0208 13:55:41.619897 17326 net.cpp:127] Top shape: 100 64 (6400)
I0208 13:55:41.619904 17326 layer_factory.hpp:74] Creating layer 4_ip2
I0208 13:55:41.619910 17326 net.cpp:90] Creating Layer 4_ip2
I0208 13:55:41.619913 17326 net.cpp:410] 4_ip2 <- 4_ip1
I0208 13:55:41.619920 17326 net.cpp:368] 4_ip2 -> 4_ip2
I0208 13:55:41.619926 17326 net.cpp:120] Setting up 4_ip2
I0208 13:55:41.619952 17326 net.cpp:127] Top shape: 100 10 (1000)
I0208 13:55:41.619958 17326 layer_factory.hpp:74] Creating layer 4_prob
I0208 13:55:41.619967 17326 net.cpp:90] Creating Layer 4_prob
I0208 13:55:41.619971 17326 net.cpp:410] 4_prob <- 4_ip2
I0208 13:55:41.619976 17326 net.cpp:368] 4_prob -> 4_prob
I0208 13:55:41.619982 17326 net.cpp:120] Setting up 4_prob
I0208 13:55:41.619990 17326 net.cpp:127] Top shape: 100 10 (1000)
I0208 13:55:41.619994 17326 layer_factory.hpp:74] Creating layer 4_prob_4_prob_0_split
I0208 13:55:41.619999 17326 net.cpp:90] Creating Layer 4_prob_4_prob_0_split
I0208 13:55:41.620002 17326 net.cpp:410] 4_prob_4_prob_0_split <- 4_prob
I0208 13:55:41.620007 17326 net.cpp:368] 4_prob_4_prob_0_split -> 4_prob_4_prob_0_split_0
I0208 13:55:41.620013 17326 net.cpp:368] 4_prob_4_prob_0_split -> 4_prob_4_prob_0_split_1
I0208 13:55:41.620019 17326 net.cpp:120] Setting up 4_prob_4_prob_0_split
I0208 13:55:41.620024 17326 net.cpp:127] Top shape: 100 10 (1000)
I0208 13:55:41.620029 17326 net.cpp:127] Top shape: 100 10 (1000)
I0208 13:55:41.620033 17326 layer_factory.hpp:74] Creating layer 1_accuracy
I0208 13:55:41.620039 17326 net.cpp:90] Creating Layer 1_accuracy
I0208 13:55:41.620043 17326 net.cpp:410] 1_accuracy <- 1_prob_1_prob_0_split_0
I0208 13:55:41.620048 17326 net.cpp:410] 1_accuracy <- label_cifar_1_split_0
I0208 13:55:41.620052 17326 net.cpp:368] 1_accuracy -> 1_accuracy
I0208 13:55:41.620059 17326 net.cpp:120] Setting up 1_accuracy
…
I0208 14:08:15.533080 18050 net.cpp:287] The NetState phase (0) differed from the phase (1) specified by a rule in layer accuracy
I0208 14:08:15.533265 18050 net.cpp:42] Initializing net from parameters: 
name: "CIFAR10_quick"
state {
  phase: TRAIN
}
layer {
  name: "cifar"
  type: "Data"
  top: "data"
  top: "label"
  include {
    phase: TRAIN
  }
  transform_param {
    mean_file: "/home/mike/ml_lab/mod/MCL_Caffe/examples/cifar10/mean.binaryproto"
  }
  data_param {
    source: "/home/mike/ml_lab/mod/MCL_Caffe/examples/cifar10/cifar10_train_lmdb"
    batch_size: 10
    backend: LMDB
  }
}
layer {
  name: "1_conv1"
  type: "Convolution"
  bottom: "data"
  top: "1_conv1"
  param {
    lr_mult: 1
  }
  param {
    lr_mult: 2
  }
  convolution_param {
    num_output: 32
    pad: 2
    kernel_size: 5
    stride: 1
    weight_filler {
      type: "gaussian"
      std: 0.0001
    }
    bias_filler {
      type: "constant"
    }
  }
}
layer {
  name: "1_pool1"
  type: "Pooling"
  bottom: "1_conv1"
  top: "1_pool1"
  pooling_param {
    pool: MAX
    kernel_size: 3
    stride: 2
  }
}
layer {
  name: "1_relu1"
  type: "ReLU"
  bottom: "1_pool1"
  top: "1_pool1"
}
layer {
  name: "1_conv2"
  type: "Convolution"
  bottom: "1_pool1"
  top: "1_conv2"
  param {
    lr_mult: 1
  }
  param {
    lr_mult: 2
  }
  convolution_param {
    num_output: 32
    pad: 2
    kernel_size: 5
    stride: 1
    weight_filler {
      type: "gaussian"
      std: 0.01
    }
    bias_filler {
      type: "constant"
    }
  }
}
layer {
  name: "1_relu2"
  type: "ReLU"
  bottom: "1_conv2"
  top: "1_conv2"
}
layer {
  name: "1_pool2"
  type: "Pooling"
  bottom: "1_conv2"
  top: "1_pool2"
  pooling_param {
    pool: AVE
    kernel_size: 3
    stride: 2
  }
}
layer {
  name: "1_conv3"
  type: "Convolution"
  bottom: "1_pool2"
  top: "1_conv3"
  param {
    lr_mult: 1
  }
  param {
    lr_mult: 2
  }
  convolution_param {
    num_output: 64
    pad: 2
    kernel_size: 5
    stride: 1
    weight_filler {
      type: "gaussian"
      std: 0.01
    }
    bias_filler {
      type: "constant"
    }
  }
}
layer {
  name: "1_relu3"
  type: "ReLU"
  bottom: "1_conv3"
  top: "1_conv3"
}
layer {
  name: "1_pool3"
  type: "Pooling"
  bottom: "1_conv3"
  top: "1_pool3"
  pooling_param {
    pool: AVE
    kernel_size: 3
    stride: 2
  }
}
layer {
  name: "1_ip1"
  type: "InnerProduct"
  bottom: "1_pool3"
  top: "1_ip1"
  param {
    lr_mult: 1
  }
  param {
    lr_mult: 2
  }
  inner_product_param {
    num_output: 64
    weight_filler {
      type: "gaussian"
      std: 0.1
    }
    bias_filler {
      type: "constant"
    }
  }
}
layer {
  name: "1_ip2"
  type: "InnerProduct"
  bottom: "1_ip1"
  top: "1_ip2"
  param {
    lr_mult: 1
  }
  param {
    lr_mult: 2
  }
  inner_product_param {
    num_output: 10
    weight_filler {
      type: "gaussian"
      std: 0.1
    }
    bias_filler {
      type: "constant"
    }
  }
}
layer {
  name: "1_prob"
  type: "Softmax"
  bottom: "1_ip2"
  top: "1_prob"
}
layer {
  name: "2_conv1"
  type: "Convolution"
  bottom: "data"
  top: "2_conv1"
  param {
    lr_mult: 1
  }
  param {
    lr_mult: 2
  }
  convolution_param {
    num_output: 32
    pad: 2
    kernel_size: 5
    stride: 1
    weight_filler {
      type: "gaussian"
      std: 0.0001
    }
    bias_filler {
      type: "constant"
    }
  }
}
layer {
  name: "2_pool1"
  type: "Pooling"
  bottom: "2_conv1"
  top: "2_pool1"
  pooling_param {
    pool: MAX
    kernel_size: 3
    stride: 2
  }
}
layer {
  name: "2_relu1"
  type: "ReLU"
  bottom: "2_pool1"
  top: "2_pool1"
}
layer {
  name: "2_conv2"
  type: "Convolution"
  bottom: "2_pool1"
  top: "2_conv2"
  param {
    lr_mult: 1
  }
  param {
    lr_mult: 2
  }
  convolution_param {
    num_output: 32
    pad: 2
    kernel_size: 5
    stride: 1
    weight_filler {
      type: "gaussian"
      std: 0.01
    }
    bias_filler {
      type: "constant"
    }
  }
}
layer {
  name: "2_relu2"
  type: "ReLU"
  bottom: "2_conv2"
  top: "2_conv2"
}
layer {
  name: "2_pool2"
  type: "Pooling"
  bottom: "2_conv2"
  top: "2_pool2"
  pooling_param {
    pool: AVE
    kernel_size: 3
    stride: 2
  }
}
layer {
  name: "2_conv3"
  type: "Convolution"
  bottom: "2_pool2"
  top: "2_conv3"
  param {
    lr_mult: 1
  }
  param {
    lr_mult: 2
  }
  convolution_param {
    num_output: 64
    pad: 2
    kernel_size: 5
    stride: 1
    weight_filler {
      type: "gaussian"
      std: 0.01
    }
    bias_filler {
      type: "constant"
    }
  }
}
layer {
  name: "2_relu3"
  type: "ReLU"
  bottom: "2_conv3"
  top: "2_conv3"
}
layer {
  name: "2_pool3"
  type: "Pooling"
  bottom: "2_conv3"
  top: "2_pool3"
  pooling_param {
    pool: AVE
    kernel_size: 3
    stride: 2
  }
}
layer {
  name: "2_ip1"
  type: "InnerProduct"
  bottom: "2_pool3"
  top: "2_ip1"
  param {
    lr_mult: 1
  }
  param {
    lr_mult: 2
  }
  inner_product_param {
    num_output: 64
    weight_filler {
      type: "gaussian"
      std: 0.1
    }
    bias_filler {
      type: "constant"
    }
  }
}
layer {
  name: "2_ip2"
  type: "InnerProduct"
  bottom: "2_ip1"
  top: "2_ip2"
  param {
    lr_mult: 1
  }
  param {
    lr_mult: 2
  }
  inner_product_param {
    num_output: 10
    weight_filler {
      type: "gaussian"
      std: 0.1
    }
    bias_filler {
      type: "constant"
    }
  }
}
layer {
  name: "2_prob"
  type: "Softmax"
  bottom: "2_ip2"
  top: "2_prob"
}
layer {
  name: "3_conv1"
  type: "Convolution"
  bottom: "data"
  top: "3_conv1"
  param {
    lr_mult: 1
  }
  param {
    lr_mult: 2
  }
  convolution_param {
    num_output: 32
    pad: 2
    kernel_size: 5
    stride: 1
    weight_filler {
      type: "gaussian"
      std: 0.0001
    }
    bias_filler {
      type: "constant"
    }
  }
}
layer {
  name: "3_pool1"
  type: "Pooling"
  bottom: "3_conv1"
  top: "3_pool1"
  pooling_param {
    pool: MAX
    kernel_size: 3
    stride: 2
  }
}
layer {
  name: "3_relu1"
  type: "ReLU"
  bottom: "3_pool1"
  top: "3_pool1"
}
layer {
  name: "3_conv2"
  type: "Convolution"
  bottom: "3_pool1"
  top: "3_conv2"
  param {
    lr_mult: 1
  }
  param {
    lr_mult: 2
  }
  convolution_param {
    num_output: 32
    pad: 2
    kernel_size: 5
    stride: 1
    weight_filler {
      type: "gaussian"
      std: 0.01
    }
    bias_filler {
      type: "constant"
    }
  }
}
layer {
  name: "3_relu2"
  type: "ReLU"
  bottom: "3_conv2"
  top: "3_conv2"
}
layer {
  name: "3_pool2"
  type: "Pooling"
  bottom: "3_conv2"
  top: "3_pool2"
  pooling_param {
    pool: AVE
    kernel_size: 3
    stride: 2
  }
}
layer {
  name: "3_conv3"
  type: "Convolution"
  bottom: "3_pool2"
  top: "3_conv3"
  param {
    lr_mult: 1
  }
  param {
    lr_mult: 2
  }
  convolution_param {
    num_output: 64
    pad: 2
    kernel_size: 5
    stride: 1
    weight_filler {
      type: "gaussian"
      std: 0.01
    }
    bias_filler {
      type: "constant"
    }
  }
}
layer {
  name: "3_relu3"
  type: "ReLU"
  bottom: "3_conv3"
  top: "3_conv3"
}
layer {
  name: "3_pool3"
  type: "Pooling"
  bottom: "3_conv3"
  top: "3_pool3"
  pooling_param {
    pool: AVE
    kernel_size: 3
    stride: 2
  }
}
layer {
  name: "3_ip1"
  type: "InnerProduct"
  bottom: "3_pool3"
  top: "3_ip1"
  param {
    lr_mult: 1
  }
  param {
    lr_mult: 2
  }
  inner_product_param {
    num_output: 64
    weight_filler {
      type: "gaussian"
      std: 0.1
    }
    bias_filler {
      type: "constant"
    }
  }
}
layer {
  name: "3_ip2"
  type: "InnerProduct"
  bottom: "3_ip1"
  top: "3_ip2"
  param {
    lr_mult: 1
  }
  param {
    lr_mult: 2
  }
  inner_product_param {
    num_output: 10
    weight_filler {
      type: "gaussian"
      std: 0.1
    }
    bias_filler {
      type: "constant"
    }
  }
}
layer {
  name: "3_prob"
  type: "Softmax"
  bottom: "3_ip2"
  top: "3_prob"
}
layer {
  name: "4_conv1"
  type: "Convolution"
  bottom: "data"
  top: "4_conv1"
  param {
    lr_mult: 1
  }
  param {
    lr_mult: 2
  }
  convolution_param {
    num_output: 32
    pad: 2
    kernel_size: 5
    stride: 1
    weight_filler {
      type: "gaussian"
      std: 0.0001
    }
    bias_filler {
      type: "constant"
    }
  }
}
layer {
  name: "4_pool1"
  type: "Pooling"
  bottom: "4_conv1"
  top: "4_pool1"
  pooling_param {
    pool: MAX
    kernel_size: 3
    stride: 2
  }
}
layer {
  name: "4_relu1"
  type: "ReLU"
  bottom: "4_pool1"
  top: "4_pool1"
}
layer {
  name: "4_conv2"
  type: "Convolution"
  bottom: "4_pool1"
  top: "4_conv2"
  param {
    lr_mult: 1
  }
  param {
    lr_mult: 2
  }
  convolution_param {
    num_output: 32
    pad: 2
    kernel_size: 5
    stride: 1
    weight_filler {
      type: "gaussian"
      std: 0.01
    }
    bias_filler {
      type: "constant"
    }
  }
}
layer {
  name: "4_relu2"
  type: "ReLU"
  bottom: "4_conv2"
  top: "4_conv2"
}
layer {
  name: "4_pool2"
  type: "Pooling"
  bottom: "4_conv2"
  top: "4_pool2"
  pooling_param {
    pool: AVE
    kernel_size: 3
    stride: 2
  }
}
layer {
  name: "4_conv3"
  type: "Convolution"
  bottom: "4_pool2"
  top: "4_conv3"
  param {
    lr_mult: 1
  }
  param {
    lr_mult: 2
  }
  convolution_param {
    num_output: 64
    pad: 2
    kernel_size: 5
    stride: 1
    weight_filler {
      type: "gaussian"
      std: 0.01
    }
    bias_filler {
      type: "constant"
    }
  }
}
layer {
  name: "4_relu3"
  type: "ReLU"
  bottom: "4_conv3"
  top: "4_conv3"
}
layer {
  name: "4_pool3"
  type: "Pooling"
  bottom: "4_conv3"
  top: "4_pool3"
  pooling_param {
    pool: AVE
    kernel_size: 3
    stride: 2
  }
}
layer {
  name: "4_ip1"
  type: "InnerProduct"
  bottom: "4_pool3"
  top: "4_ip1"
  param {
    lr_mult: 1
  }
  param {
    lr_mult: 2
  }
  inner_product_param {
    num_output: 64
    weight_filler {
      type: "gaussian"
      std: 0.1
    }
    bias_filler {
      type: "constant"
    }
  }
}
layer {
  name: "4_ip2"
  type: "InnerProduct"
  bottom: "4_ip1"
  top: "4_ip2"
  param {
    lr_mult: 1
  }
  param {
    lr_mult: 2
  }
  inner_product_param {
    num_output: 10
    weight_filler {
      type: "gaussian"
      std: 0.1
    }
    bias_filler {
      type: "constant"
    }
  }
}
layer {
  name: "4_prob"
  type: "Softmax"
  bottom: "4_ip2"
  top: "4_prob"
}
layer {
  name: "loss"
  type: "ODStochasticPoolingMultinomialLogisticLoss"
  bottom: "1_prob"
  bottom: "2_prob"
  bottom: "3_prob"
  bottom: "4_prob"
  bottom: "label"
  top: "multiple-output loss"
  top: "batch-instance-counts"
  top: "train-instance-counts"
  top: "curr-k-value"
  loss_weight: 1
  loss_weight: 0
  loss_weight: 0
  loss_weight: 0
  include {
    phase: TRAIN
  }
  odsp_param {
    temp_decay: 0.001
    update_k_models: 1
    temp: 2
  }
}
I0208 14:08:15.533427 18050 layer_factory.hpp:74] Creating layer cifar
I0208 14:08:15.533439 18050 net.cpp:90] Creating Layer cifar
I0208 14:08:15.533445 18050 net.cpp:368] cifar -> data
I0208 14:08:15.533463 18050 net.cpp:368] cifar -> label
I0208 14:08:15.533478 18050 net.cpp:120] Setting up cifar
I0208 14:08:15.533529 18050 db.cpp:34] Opened lmdb /home/mike/ml_lab/mod/MCL_Caffe/examples/cifar10/cifar10_train_lmdb
I0208 14:08:15.533555 18050 data_layer.cpp:67] output data size: 10,3,32,32
I0208 14:08:15.533561 18050 data_transformer.cpp:22] Loading mean file from: /home/mike/ml_lab/mod/MCL_Caffe/examples/cifar10/mean.binaryproto
I0208 14:08:15.533661 18050 net.cpp:127] Top shape: 10 3 32 32 (30720)
I0208 14:08:15.533665 18050 net.cpp:127] Top shape: 10 (10)
I0208 14:08:15.533668 18050 layer_factory.hpp:74] Creating layer data_cifar_0_split
I0208 14:08:15.533674 18050 net.cpp:90] Creating Layer data_cifar_0_split
I0208 14:08:15.533677 18050 net.cpp:410] data_cifar_0_split <- data
I0208 14:08:15.533685 18050 net.cpp:368] data_cifar_0_split -> data_cifar_0_split_0
I0208 14:08:15.533690 18050 net.cpp:368] data_cifar_0_split -> data_cifar_0_split_1
I0208 14:08:15.533694 18050 net.cpp:368] data_cifar_0_split -> data_cifar_0_split_2
I0208 14:08:15.533699 18050 net.cpp:368] data_cifar_0_split -> data_cifar_0_split_3
I0208 14:08:15.533701 18050 net.cpp:120] Setting up data_cifar_0_split
I0208 14:08:15.533707 18050 net.cpp:127] Top shape: 10 3 32 32 (30720)
I0208 14:08:15.533710 18050 net.cpp:127] Top shape: 10 3 32 32 (30720)
I0208 14:08:15.533712 18050 net.cpp:127] Top shape: 10 3 32 32 (30720)
I0208 14:08:15.533715 18050 net.cpp:127] Top shape: 10 3 32 32 (30720)
I0208 14:08:15.533716 18050 layer_factory.hpp:74] Creating layer 1_conv1
I0208 14:08:15.533721 18050 net.cpp:90] Creating Layer 1_conv1
I0208 14:08:15.533723 18050 net.cpp:410] 1_conv1 <- data_cifar_0_split_0
I0208 14:08:15.533726 18050 net.cpp:368] 1_conv1 -> 1_conv1
I0208 14:08:15.533732 18050 net.cpp:120] Setting up 1_conv1
I0208 14:08:15.534123 18050 net.cpp:127] Top shape: 10 32 32 32 (327680)
I0208 14:08:15.534132 18050 layer_factory.hpp:74] Creating layer 1_pool1
I0208 14:08:15.534137 18050 net.cpp:90] Creating Layer 1_pool1
I0208 14:08:15.534139 18050 net.cpp:410] 1_pool1 <- 1_conv1
I0208 14:08:15.534143 18050 net.cpp:368] 1_pool1 -> 1_pool1
I0208 14:08:15.534147 18050 net.cpp:120] Setting up 1_pool1
I0208 14:08:15.534157 18050 net.cpp:127] Top shape: 10 32 16 16 (81920)
I0208 14:08:15.534160 18050 layer_factory.hpp:74] Creating layer 1_relu1
I0208 14:08:15.534163 18050 net.cpp:90] Creating Layer 1_relu1
I0208 14:08:15.534165 18050 net.cpp:410] 1_relu1 <- 1_pool1
I0208 14:08:15.534168 18050 net.cpp:357] 1_relu1 -> 1_pool1 (in-place)
I0208 14:08:15.534170 18050 net.cpp:120] Setting up 1_relu1
I0208 14:08:15.534175 18050 net.cpp:127] Top shape: 10 32 16 16 (81920)
I0208 14:08:15.534178 18050 layer_factory.hpp:74] Creating layer 1_conv2
I0208 14:08:15.534181 18050 net.cpp:90] Creating Layer 1_conv2
I0208 14:08:15.534183 18050 net.cpp:410] 1_conv2 <- 1_pool1
I0208 14:08:15.534186 18050 net.cpp:368] 1_conv2 -> 1_conv2
I0208 14:08:15.534190 18050 net.cpp:120] Setting up 1_conv2
I0208 14:08:15.534777 18050 net.cpp:127] Top shape: 10 32 16 16 (81920)
I0208 14:08:15.534783 18050 layer_factory.hpp:74] Creating layer 1_relu2
I0208 14:08:15.534787 18050 net.cpp:90] Creating Layer 1_relu2
I0208 14:08:15.534788 18050 net.cpp:410] 1_relu2 <- 1_conv2
I0208 14:08:15.534791 18050 net.cpp:357] 1_relu2 -> 1_conv2 (in-place)
I0208 14:08:15.534795 18050 net.cpp:120] Setting up 1_relu2
I0208 14:08:15.534797 18050 net.cpp:127] Top shape: 10 32 16 16 (81920)
I0208 14:08:15.534798 18050 layer_factory.hpp:74] Creating layer 1_pool2
I0208 14:08:15.534802 18050 net.cpp:90] Creating Layer 1_pool2
I0208 14:08:15.534804 18050 net.cpp:410] 1_pool2 <- 1_conv2
I0208 14:08:15.534806 18050 net.cpp:368] 1_pool2 -> 1_pool2
I0208 14:08:15.534809 18050 net.cpp:120] Setting up 1_pool2
I0208 14:08:15.534813 18050 net.cpp:127] Top shape: 10 32 8 8 (20480)
I0208 14:08:15.534816 18050 layer_factory.hpp:74] Creating layer 1_conv3
I0208 14:08:15.534822 18050 net.cpp:90] Creating Layer 1_conv3
I0208 14:08:15.534824 18050 net.cpp:410] 1_conv3 <- 1_pool2
I0208 14:08:15.534827 18050 net.cpp:368] 1_conv3 -> 1_conv3
I0208 14:08:15.534832 18050 net.cpp:120] Setting up 1_conv3
I0208 14:08:15.536036 18050 net.cpp:127] Top shape: 10 64 8 8 (40960)
I0208 14:08:15.536042 18050 layer_factory.hpp:74] Creating layer 1_relu3
I0208 14:08:15.536046 18050 net.cpp:90] Creating Layer 1_relu3
I0208 14:08:15.536047 18050 net.cpp:410] 1_relu3 <- 1_conv3
I0208 14:08:15.536051 18050 net.cpp:357] 1_relu3 -> 1_conv3 (in-place)
I0208 14:08:15.536054 18050 net.cpp:120] Setting up 1_relu3
I0208 14:08:15.536057 18050 net.cpp:127] Top shape: 10 64 8 8 (40960)
I0208 14:08:15.536059 18050 layer_factory.hpp:74] Creating layer 1_pool3
I0208 14:08:15.536062 18050 net.cpp:90] Creating Layer 1_pool3
I0208 14:08:15.536063 18050 net.cpp:410] 1_pool3 <- 1_conv3
I0208 14:08:15.536067 18050 net.cpp:368] 1_pool3 -> 1_pool3
I0208 14:08:15.536069 18050 net.cpp:120] Setting up 1_pool3
I0208 14:08:15.536073 18050 net.cpp:127] Top shape: 10 64 4 4 (10240)
I0208 14:08:15.536075 18050 layer_factory.hpp:74] Creating layer 1_ip1
I0208 14:08:15.536079 18050 net.cpp:90] Creating Layer 1_ip1
I0208 14:08:15.536080 18050 net.cpp:410] 1_ip1 <- 1_pool3
I0208 14:08:15.536083 18050 net.cpp:368] 1_ip1 -> 1_ip1
I0208 14:08:15.536088 18050 net.cpp:120] Setting up 1_ip1
I0208 14:08:15.537593 18050 net.cpp:127] Top shape: 10 64 (640)
I0208 14:08:15.537600 18050 layer_factory.hpp:74] Creating layer 1_ip2
I0208 14:08:15.537605 18050 net.cpp:90] Creating Layer 1_ip2
I0208 14:08:15.537606 18050 net.cpp:410] 1_ip2 <- 1_ip1
I0208 14:08:15.537611 18050 net.cpp:368] 1_ip2 -> 1_ip2
I0208 14:08:15.537614 18050 net.cpp:120] Setting up 1_ip2
I0208 14:08:15.537633 18050 net.cpp:127] Top shape: 10 10 (100)
I0208 14:08:15.537641 18050 layer_factory.hpp:74] Creating layer 1_prob
I0208 14:08:15.537644 18050 net.cpp:90] Creating Layer 1_prob
I0208 14:08:15.537647 18050 net.cpp:410] 1_prob <- 1_ip2
I0208 14:08:15.537649 18050 net.cpp:368] 1_prob -> 1_prob
I0208 14:08:15.537652 18050 net.cpp:120] Setting up 1_prob
I0208 14:08:15.537660 18050 net.cpp:127] Top shape: 10 10 (100)
I0208 14:08:15.537663 18050 layer_factory.hpp:74] Creating layer 2_conv1
I0208 14:08:15.537667 18050 net.cpp:90] Creating Layer 2_conv1
I0208 14:08:15.537668 18050 net.cpp:410] 2_conv1 <- data_cifar_0_split_1
I0208 14:08:15.537672 18050 net.cpp:368] 2_conv1 -> 2_conv1
I0208 14:08:15.537677 18050 net.cpp:120] Setting up 2_conv1
I0208 14:08:15.537741 18050 net.cpp:127] Top shape: 10 32 32 32 (327680)
I0208 14:08:15.537745 18050 layer_factory.hpp:74] Creating layer 2_pool1
I0208 14:08:15.537750 18050 net.cpp:90] Creating Layer 2_pool1
I0208 14:08:15.537751 18050 net.cpp:410] 2_pool1 <- 2_conv1
I0208 14:08:15.537755 18050 net.cpp:368] 2_pool1 -> 2_pool1
I0208 14:08:15.537757 18050 net.cpp:120] Setting up 2_pool1
I0208 14:08:15.537762 18050 net.cpp:127] Top shape: 10 32 16 16 (81920)
I0208 14:08:15.537765 18050 layer_factory.hpp:74] Creating layer 2_relu1
I0208 14:08:15.537768 18050 net.cpp:90] Creating Layer 2_relu1
I0208 14:08:15.537770 18050 net.cpp:410] 2_relu1 <- 2_pool1
I0208 14:08:15.537773 18050 net.cpp:357] 2_relu1 -> 2_pool1 (in-place)
I0208 14:08:15.537776 18050 net.cpp:120] Setting up 2_relu1
I0208 14:08:15.537778 18050 net.cpp:127] Top shape: 10 32 16 16 (81920)
I0208 14:08:15.537781 18050 layer_factory.hpp:74] Creating layer 2_conv2
I0208 14:08:15.537784 18050 net.cpp:90] Creating Layer 2_conv2
I0208 14:08:15.537786 18050 net.cpp:410] 2_conv2 <- 2_pool1
I0208 14:08:15.537789 18050 net.cpp:368] 2_conv2 -> 2_conv2
I0208 14:08:15.537792 18050 net.cpp:120] Setting up 2_conv2
I0208 14:08:15.538372 18050 net.cpp:127] Top shape: 10 32 16 16 (81920)
I0208 14:08:15.538377 18050 layer_factory.hpp:74] Creating layer 2_relu2
I0208 14:08:15.538379 18050 net.cpp:90] Creating Layer 2_relu2
I0208 14:08:15.538381 18050 net.cpp:410] 2_relu2 <- 2_conv2
I0208 14:08:15.538384 18050 net.cpp:357] 2_relu2 -> 2_conv2 (in-place)
I0208 14:08:15.538386 18050 net.cpp:120] Setting up 2_relu2
I0208 14:08:15.538389 18050 net.cpp:127] Top shape: 10 32 16 16 (81920)
I0208 14:08:15.538391 18050 layer_factory.hpp:74] Creating layer 2_pool2
I0208 14:08:15.538393 18050 net.cpp:90] Creating Layer 2_pool2
I0208 14:08:15.538403 18050 net.cpp:410] 2_pool2 <- 2_conv2
I0208 14:08:15.538406 18050 net.cpp:368] 2_pool2 -> 2_pool2
I0208 14:08:15.538409 18050 net.cpp:120] Setting up 2_pool2
I0208 14:08:15.538414 18050 net.cpp:127] Top shape: 10 32 8 8 (20480)
I0208 14:08:15.538415 18050 layer_factory.hpp:74] Creating layer 2_conv3
I0208 14:08:15.538419 18050 net.cpp:90] Creating Layer 2_conv3
I0208 14:08:15.538420 18050 net.cpp:410] 2_conv3 <- 2_pool2
I0208 14:08:15.538426 18050 net.cpp:368] 2_conv3 -> 2_conv3
I0208 14:08:15.538429 18050 net.cpp:120] Setting up 2_conv3
I0208 14:08:15.539583 18050 net.cpp:127] Top shape: 10 64 8 8 (40960)
I0208 14:08:15.539589 18050 layer_factory.hpp:74] Creating layer 2_relu3
I0208 14:08:15.539592 18050 net.cpp:90] Creating Layer 2_relu3
I0208 14:08:15.539594 18050 net.cpp:410] 2_relu3 <- 2_conv3
I0208 14:08:15.539597 18050 net.cpp:357] 2_relu3 -> 2_conv3 (in-place)
I0208 14:08:15.539600 18050 net.cpp:120] Setting up 2_relu3
I0208 14:08:15.539603 18050 net.cpp:127] Top shape: 10 64 8 8 (40960)
I0208 14:08:15.539604 18050 layer_factory.hpp:74] Creating layer 2_pool3
I0208 14:08:15.539608 18050 net.cpp:90] Creating Layer 2_pool3
I0208 14:08:15.539610 18050 net.cpp:410] 2_pool3 <- 2_conv3
I0208 14:08:15.539613 18050 net.cpp:368] 2_pool3 -> 2_pool3
I0208 14:08:15.539615 18050 net.cpp:120] Setting up 2_pool3
I0208 14:08:15.539619 18050 net.cpp:127] Top shape: 10 64 4 4 (10240)
I0208 14:08:15.539621 18050 layer_factory.hpp:74] Creating layer 2_ip1
I0208 14:08:15.539624 18050 net.cpp:90] Creating Layer 2_ip1
I0208 14:08:15.539625 18050 net.cpp:410] 2_ip1 <- 2_pool3
I0208 14:08:15.539629 18050 net.cpp:368] 2_ip1 -> 2_ip1
I0208 14:08:15.539633 18050 net.cpp:120] Setting up 2_ip1
I0208 14:08:15.541123 18050 net.cpp:127] Top shape: 10 64 (640)
I0208 14:08:15.541131 18050 layer_factory.hpp:74] Creating layer 2_ip2
I0208 14:08:15.541134 18050 net.cpp:90] Creating Layer 2_ip2
I0208 14:08:15.541136 18050 net.cpp:410] 2_ip2 <- 2_ip1
I0208 14:08:15.541141 18050 net.cpp:368] 2_ip2 -> 2_ip2
I0208 14:08:15.541146 18050 net.cpp:120] Setting up 2_ip2
I0208 14:08:15.541165 18050 net.cpp:127] Top shape: 10 10 (100)
I0208 14:08:15.541169 18050 layer_factory.hpp:74] Creating layer 2_prob
I0208 14:08:15.541173 18050 net.cpp:90] Creating Layer 2_prob
I0208 14:08:15.541175 18050 net.cpp:410] 2_prob <- 2_ip2
I0208 14:08:15.541178 18050 net.cpp:368] 2_prob -> 2_prob
I0208 14:08:15.541182 18050 net.cpp:120] Setting up 2_prob
I0208 14:08:15.541185 18050 net.cpp:127] Top shape: 10 10 (100)
I0208 14:08:15.541188 18050 layer_factory.hpp:74] Creating layer 3_conv1
I0208 14:08:15.541190 18050 net.cpp:90] Creating Layer 3_conv1
I0208 14:08:15.541193 18050 net.cpp:410] 3_conv1 <- data_cifar_0_split_2
I0208 14:08:15.541196 18050 net.cpp:368] 3_conv1 -> 3_conv1
I0208 14:08:15.541200 18050 net.cpp:120] Setting up 3_conv1
I0208 14:08:15.541265 18050 net.cpp:127] Top shape: 10 32 32 32 (327680)
I0208 14:08:15.541270 18050 layer_factory.hpp:74] Creating layer 3_pool1
I0208 14:08:15.541272 18050 net.cpp:90] Creating Layer 3_pool1
I0208 14:08:15.541275 18050 net.cpp:410] 3_pool1 <- 3_conv1
I0208 14:08:15.541277 18050 net.cpp:368] 3_pool1 -> 3_pool1
I0208 14:08:15.541280 18050 net.cpp:120] Setting up 3_pool1
I0208 14:08:15.541285 18050 net.cpp:127] Top shape: 10 32 16 16 (81920)
I0208 14:08:15.541286 18050 layer_factory.hpp:74] Creating layer 3_relu1
I0208 14:08:15.541288 18050 net.cpp:90] Creating Layer 3_relu1
I0208 14:08:15.541290 18050 net.cpp:410] 3_relu1 <- 3_pool1
I0208 14:08:15.541293 18050 net.cpp:357] 3_relu1 -> 3_pool1 (in-place)
I0208 14:08:15.541296 18050 net.cpp:120] Setting up 3_relu1
I0208 14:08:15.541298 18050 net.cpp:127] Top shape: 10 32 16 16 (81920)
I0208 14:08:15.541301 18050 layer_factory.hpp:74] Creating layer 3_conv2
I0208 14:08:15.541303 18050 net.cpp:90] Creating Layer 3_conv2
I0208 14:08:15.541306 18050 net.cpp:410] 3_conv2 <- 3_pool1
I0208 14:08:15.541307 18050 net.cpp:368] 3_conv2 -> 3_conv2
I0208 14:08:15.541311 18050 net.cpp:120] Setting up 3_conv2
I0208 14:08:15.541910 18050 net.cpp:127] Top shape: 10 32 16 16 (81920)
I0208 14:08:15.541923 18050 layer_factory.hpp:74] Creating layer 3_relu2
I0208 14:08:15.541926 18050 net.cpp:90] Creating Layer 3_relu2
I0208 14:08:15.541929 18050 net.cpp:410] 3_relu2 <- 3_conv2
I0208 14:08:15.541931 18050 net.cpp:357] 3_relu2 -> 3_conv2 (in-place)
I0208 14:08:15.541934 18050 net.cpp:120] Setting up 3_relu2
I0208 14:08:15.541937 18050 net.cpp:127] Top shape: 10 32 16 16 (81920)
I0208 14:08:15.541939 18050 layer_factory.hpp:74] Creating layer 3_pool2
I0208 14:08:15.541942 18050 net.cpp:90] Creating Layer 3_pool2
I0208 14:08:15.541944 18050 net.cpp:410] 3_pool2 <- 3_conv2
I0208 14:08:15.541949 18050 net.cpp:368] 3_pool2 -> 3_pool2
I0208 14:08:15.541951 18050 net.cpp:120] Setting up 3_pool2
I0208 14:08:15.541955 18050 net.cpp:127] Top shape: 10 32 8 8 (20480)
I0208 14:08:15.541956 18050 layer_factory.hpp:74] Creating layer 3_conv3
I0208 14:08:15.541962 18050 net.cpp:90] Creating Layer 3_conv3
I0208 14:08:15.541965 18050 net.cpp:410] 3_conv3 <- 3_pool2
I0208 14:08:15.541967 18050 net.cpp:368] 3_conv3 -> 3_conv3
I0208 14:08:15.541970 18050 net.cpp:120] Setting up 3_conv3
I0208 14:08:15.543130 18050 net.cpp:127] Top shape: 10 64 8 8 (40960)
I0208 14:08:15.543135 18050 layer_factory.hpp:74] Creating layer 3_relu3
I0208 14:08:15.543138 18050 net.cpp:90] Creating Layer 3_relu3
I0208 14:08:15.543140 18050 net.cpp:410] 3_relu3 <- 3_conv3
I0208 14:08:15.543143 18050 net.cpp:357] 3_relu3 -> 3_conv3 (in-place)
I0208 14:08:15.543146 18050 net.cpp:120] Setting up 3_relu3
I0208 14:08:15.543149 18050 net.cpp:127] Top shape: 10 64 8 8 (40960)
I0208 14:08:15.543151 18050 layer_factory.hpp:74] Creating layer 3_pool3
I0208 14:08:15.543154 18050 net.cpp:90] Creating Layer 3_pool3
I0208 14:08:15.543155 18050 net.cpp:410] 3_pool3 <- 3_conv3
I0208 14:08:15.543159 18050 net.cpp:368] 3_pool3 -> 3_pool3
I0208 14:08:15.543161 18050 net.cpp:120] Setting up 3_pool3
I0208 14:08:15.543164 18050 net.cpp:127] Top shape: 10 64 4 4 (10240)
I0208 14:08:15.543166 18050 layer_factory.hpp:74] Creating layer 3_ip1
I0208 14:08:15.543170 18050 net.cpp:90] Creating Layer 3_ip1
I0208 14:08:15.543172 18050 net.cpp:410] 3_ip1 <- 3_pool3
I0208 14:08:15.543176 18050 net.cpp:368] 3_ip1 -> 3_ip1
I0208 14:08:15.543179 18050 net.cpp:120] Setting up 3_ip1
I0208 14:08:15.544657 18050 net.cpp:127] Top shape: 10 64 (640)
I0208 14:08:15.544662 18050 layer_factory.hpp:74] Creating layer 3_ip2
I0208 14:08:15.544666 18050 net.cpp:90] Creating Layer 3_ip2
I0208 14:08:15.544668 18050 net.cpp:410] 3_ip2 <- 3_ip1
I0208 14:08:15.544672 18050 net.cpp:368] 3_ip2 -> 3_ip2
I0208 14:08:15.544677 18050 net.cpp:120] Setting up 3_ip2
I0208 14:08:15.544697 18050 net.cpp:127] Top shape: 10 10 (100)
I0208 14:08:15.544700 18050 layer_factory.hpp:74] Creating layer 3_prob
I0208 14:08:15.544704 18050 net.cpp:90] Creating Layer 3_prob
I0208 14:08:15.544706 18050 net.cpp:410] 3_prob <- 3_ip2
I0208 14:08:15.544709 18050 net.cpp:368] 3_prob -> 3_prob
I0208 14:08:15.544713 18050 net.cpp:120] Setting up 3_prob
I0208 14:08:15.544718 18050 net.cpp:127] Top shape: 10 10 (100)
I0208 14:08:15.544720 18050 layer_factory.hpp:74] Creating layer 4_conv1
I0208 14:08:15.544724 18050 net.cpp:90] Creating Layer 4_conv1
I0208 14:08:15.544726 18050 net.cpp:410] 4_conv1 <- data_cifar_0_split_3
I0208 14:08:15.544730 18050 net.cpp:368] 4_conv1 -> 4_conv1
I0208 14:08:15.544734 18050 net.cpp:120] Setting up 4_conv1
I0208 14:08:15.544795 18050 net.cpp:127] Top shape: 10 32 32 32 (327680)
I0208 14:08:15.544800 18050 layer_factory.hpp:74] Creating layer 4_pool1
I0208 14:08:15.544803 18050 net.cpp:90] Creating Layer 4_pool1
I0208 14:08:15.544806 18050 net.cpp:410] 4_pool1 <- 4_conv1
I0208 14:08:15.544808 18050 net.cpp:368] 4_pool1 -> 4_pool1
I0208 14:08:15.544811 18050 net.cpp:120] Setting up 4_pool1
I0208 14:08:15.544814 18050 net.cpp:127] Top shape: 10 32 16 16 (81920)
I0208 14:08:15.544816 18050 layer_factory.hpp:74] Creating layer 4_relu1
I0208 14:08:15.544819 18050 net.cpp:90] Creating Layer 4_relu1
I0208 14:08:15.544821 18050 net.cpp:410] 4_relu1 <- 4_pool1
I0208 14:08:15.544823 18050 net.cpp:357] 4_relu1 -> 4_pool1 (in-place)
I0208 14:08:15.544831 18050 net.cpp:120] Setting up 4_relu1
I0208 14:08:15.544834 18050 net.cpp:127] Top shape: 10 32 16 16 (81920)
I0208 14:08:15.544836 18050 layer_factory.hpp:74] Creating layer 4_conv2
I0208 14:08:15.544841 18050 net.cpp:90] Creating Layer 4_conv2
I0208 14:08:15.544842 18050 net.cpp:410] 4_conv2 <- 4_pool1
I0208 14:08:15.544845 18050 net.cpp:368] 4_conv2 -> 4_conv2
I0208 14:08:15.544848 18050 net.cpp:120] Setting up 4_conv2
I0208 14:08:15.545439 18050 net.cpp:127] Top shape: 10 32 16 16 (81920)
I0208 14:08:15.545447 18050 layer_factory.hpp:74] Creating layer 4_relu2
I0208 14:08:15.545450 18050 net.cpp:90] Creating Layer 4_relu2
I0208 14:08:15.545452 18050 net.cpp:410] 4_relu2 <- 4_conv2
I0208 14:08:15.545456 18050 net.cpp:357] 4_relu2 -> 4_conv2 (in-place)
I0208 14:08:15.545459 18050 net.cpp:120] Setting up 4_relu2
I0208 14:08:15.545462 18050 net.cpp:127] Top shape: 10 32 16 16 (81920)
I0208 14:08:15.545464 18050 layer_factory.hpp:74] Creating layer 4_pool2
I0208 14:08:15.545466 18050 net.cpp:90] Creating Layer 4_pool2
I0208 14:08:15.545469 18050 net.cpp:410] 4_pool2 <- 4_conv2
I0208 14:08:15.545471 18050 net.cpp:368] 4_pool2 -> 4_pool2
I0208 14:08:15.545475 18050 net.cpp:120] Setting up 4_pool2
I0208 14:08:15.545478 18050 net.cpp:127] Top shape: 10 32 8 8 (20480)
I0208 14:08:15.545480 18050 layer_factory.hpp:74] Creating layer 4_conv3
I0208 14:08:15.545485 18050 net.cpp:90] Creating Layer 4_conv3
I0208 14:08:15.545486 18050 net.cpp:410] 4_conv3 <- 4_pool2
I0208 14:08:15.545488 18050 net.cpp:368] 4_conv3 -> 4_conv3
I0208 14:08:15.545492 18050 net.cpp:120] Setting up 4_conv3
I0208 14:08:15.546650 18050 net.cpp:127] Top shape: 10 64 8 8 (40960)
I0208 14:08:15.546655 18050 layer_factory.hpp:74] Creating layer 4_relu3
I0208 14:08:15.546658 18050 net.cpp:90] Creating Layer 4_relu3
I0208 14:08:15.546660 18050 net.cpp:410] 4_relu3 <- 4_conv3
I0208 14:08:15.546663 18050 net.cpp:357] 4_relu3 -> 4_conv3 (in-place)
I0208 14:08:15.546666 18050 net.cpp:120] Setting up 4_relu3
I0208 14:08:15.546669 18050 net.cpp:127] Top shape: 10 64 8 8 (40960)
I0208 14:08:15.546670 18050 layer_factory.hpp:74] Creating layer 4_pool3
I0208 14:08:15.546674 18050 net.cpp:90] Creating Layer 4_pool3
I0208 14:08:15.546675 18050 net.cpp:410] 4_pool3 <- 4_conv3
I0208 14:08:15.546679 18050 net.cpp:368] 4_pool3 -> 4_pool3
I0208 14:08:15.546681 18050 net.cpp:120] Setting up 4_pool3
I0208 14:08:15.546685 18050 net.cpp:127] Top shape: 10 64 4 4 (10240)
I0208 14:08:15.546687 18050 layer_factory.hpp:74] Creating layer 4_ip1
I0208 14:08:15.546690 18050 net.cpp:90] Creating Layer 4_ip1
I0208 14:08:15.546692 18050 net.cpp:410] 4_ip1 <- 4_pool3
I0208 14:08:15.546695 18050 net.cpp:368] 4_ip1 -> 4_ip1
I0208 14:08:15.546699 18050 net.cpp:120] Setting up 4_ip1
I0208 14:08:15.548178 18050 net.cpp:127] Top shape: 10 64 (640)
I0208 14:08:15.548183 18050 layer_factory.hpp:74] Creating layer 4_ip2
I0208 14:08:15.548187 18050 net.cpp:90] Creating Layer 4_ip2
I0208 14:08:15.548189 18050 net.cpp:410] 4_ip2 <- 4_ip1
I0208 14:08:15.548192 18050 net.cpp:368] 4_ip2 -> 4_ip2
I0208 14:08:15.548197 18050 net.cpp:120] Setting up 4_ip2
I0208 14:08:15.548216 18050 net.cpp:127] Top shape: 10 10 (100)
I0208 14:08:15.548221 18050 layer_factory.hpp:74] Creating layer 4_prob
I0208 14:08:15.548224 18050 net.cpp:90] Creating Layer 4_prob
I0208 14:08:15.548226 18050 net.cpp:410] 4_prob <- 4_ip2
I0208 14:08:15.548229 18050 net.cpp:368] 4_prob -> 4_prob
I0208 14:08:15.548233 18050 net.cpp:120] Setting up 4_prob
I0208 14:08:15.548236 18050 net.cpp:127] Top shape: 10 10 (100)
I0208 14:08:15.548238 18050 layer_factory.hpp:74] Creating layer loss
I0208 14:08:15.548247 18050 net.cpp:90] Creating Layer loss
I0208 14:08:15.548250 18050 net.cpp:410] loss <- 1_prob
I0208 14:08:15.548252 18050 net.cpp:410] loss <- 2_prob
I0208 14:08:15.548255 18050 net.cpp:410] loss <- 3_prob
I0208 14:08:15.548257 18050 net.cpp:410] loss <- 4_prob
I0208 14:08:15.548259 18050 net.cpp:410] loss <- label
I0208 14:08:15.548265 18050 net.cpp:368] loss -> multiple-output loss
I0208 14:08:15.548277 18050 net.cpp:368] loss -> batch-instance-counts
I0208 14:08:15.548282 18050 net.cpp:368] loss -> train-instance-counts
I0208 14:08:15.548287 18050 net.cpp:368] loss -> curr-k-value
I0208 14:08:15.548292 18050 net.cpp:120] Setting up loss
I0208 14:08:15.548301 18050 net.cpp:127] Top shape: 4 1 1 1 (4)
I0208 14:08:15.548305 18050 net.cpp:129]     with loss weight 1
I0208 14:08:15.548319 18050 net.cpp:127] Top shape: 4 1 1 1 (4)
I0208 14:08:15.548321 18050 net.cpp:127] Top shape: 4 1 1 1 (4)
I0208 14:08:15.548323 18050 net.cpp:127] Top shape: 1 1 1 1 (1)
I0208 14:08:15.548326 18050 net.cpp:192] loss needs backward computation.
I0208 14:08:15.548328 18050 net.cpp:192] 4_prob needs backward computation.
I0208 14:08:15.548331 18050 net.cpp:192] 4_ip2 needs backward computation.
I0208 14:08:15.548331 18050 net.cpp:192] 4_ip1 needs backward computation.
I0208 14:08:15.548333 18050 net.cpp:192] 4_pool3 needs backward computation.
I0208 14:08:15.548336 18050 net.cpp:192] 4_relu3 needs backward computation.
…
