…
I0127 06:35:34.233001  9703 net.cpp:287] The NetState phase (0) differed from the phase (1) specified by a rule in layer accuracy
I0127 06:35:34.233180  9703 net.cpp:42] Initializing net from parameters: 
name: "CIFAR10_quick"
state {
  phase: TRAIN
}
layer {
  name: "cifar"
  type: "Data"
  top: "data"
  top: "label"
  include {
    phase: TRAIN
  }
  transform_param {
    mean_file: "/home/mike/ml_lab/mod/MCL_Caffe/examples/cifar10/mean.binaryproto"
  }
  data_param {
    source: "/home/mike/ml_lab/mod/MCL_Caffe/examples/cifar10/cifar10_train_lmdb"
    batch_size: 350
    backend: LMDB
  }
}
layer {
  name: "1_conv1"
  type: "Convolution"
  bottom: "data"
  top: "1_conv1"
  param {
    lr_mult: 1
  }
  param {
    lr_mult: 2
  }
  convolution_param {
    num_output: 32
    pad: 2
    kernel_size: 5
    stride: 1
    weight_filler {
      type: "gaussian"
      std: 0.0001
    }
    bias_filler {
      type: "constant"
    }
  }
}
layer {
  name: "1_pool1"
  type: "Pooling"
  bottom: "1_conv1"
  top: "1_pool1"
  pooling_param {
    pool: MAX
    kernel_size: 3
    stride: 2
  }
}
layer {
  name: "1_relu1"
  type: "ReLU"
  bottom: "1_pool1"
  top: "1_pool1"
}
layer {
  name: "1_conv2"
  type: "Convolution"
  bottom: "1_pool1"
  top: "1_conv2"
  param {
    lr_mult: 1
  }
  param {
    lr_mult: 2
  }
  convolution_param {
    num_output: 32
    pad: 2
    kernel_size: 5
    stride: 1
    weight_filler {
      type: "gaussian"
      std: 0.01
    }
    bias_filler {
      type: "constant"
    }
  }
}
layer {
  name: "1_relu2"
  type: "ReLU"
  bottom: "1_conv2"
  top: "1_conv2"
}
layer {
  name: "1_pool2"
  type: "Pooling"
  bottom: "1_conv2"
  top: "1_pool2"
  pooling_param {
    pool: AVE
    kernel_size: 3
    stride: 2
  }
}
layer {
  name: "1_conv3"
  type: "Convolution"
  bottom: "1_pool2"
  top: "1_conv3"
  param {
    lr_mult: 1
  }
  param {
    lr_mult: 2
  }
  convolution_param {
    num_output: 64
    pad: 2
    kernel_size: 5
    stride: 1
    weight_filler {
      type: "gaussian"
      std: 0.01
    }
    bias_filler {
      type: "constant"
    }
  }
}
layer {
  name: "1_relu3"
  type: "ReLU"
  bottom: "1_conv3"
  top: "1_conv3"
}
layer {
  name: "1_pool3"
  type: "Pooling"
  bottom: "1_conv3"
  top: "1_pool3"
  pooling_param {
    pool: AVE
    kernel_size: 3
    stride: 2
  }
}
layer {
  name: "1_ip1"
  type: "InnerProduct"
  bottom: "1_pool3"
  top: "1_ip1"
  param {
    lr_mult: 1
  }
  param {
    lr_mult: 2
  }
  inner_product_param {
    num_output: 64
    weight_filler {
      type: "gaussian"
      std: 0.1
    }
    bias_filler {
      type: "constant"
    }
  }
}
layer {
  name: "1_ip2"
  type: "InnerProduct"
  bottom: "1_ip1"
  top: "1_ip2"
  param {
    lr_mult: 1
  }
  param {
    lr_mult: 2
  }
  inner_product_param {
    num_output: 10
    weight_filler {
      type: "gaussian"
      std: 0.1
    }
    bias_filler {
      type: "constant"
    }
  }
}
layer {
  name: "1_prob"
  type: "Softmax"
  bottom: "1_ip2"
  top: "1_prob"
}
layer {
  name: "2_conv1"
  type: "Convolution"
  bottom: "data"
  top: "2_conv1"
  param {
    lr_mult: 1
  }
  param {
    lr_mult: 2
  }
  convolution_param {
    num_output: 32
    pad: 2
    kernel_size: 5
    stride: 1
    weight_filler {
      type: "gaussian"
      std: 0.0001
    }
    bias_filler {
      type: "constant"
    }
  }
}
layer {
  name: "2_pool1"
  type: "Pooling"
  bottom: "2_conv1"
  top: "2_pool1"
  pooling_param {
    pool: MAX
    kernel_size: 3
    stride: 2
  }
}
layer {
  name: "2_relu1"
  type: "ReLU"
  bottom: "2_pool1"
  top: "2_pool1"
}
layer {
  name: "2_conv2"
  type: "Convolution"
  bottom: "2_pool1"
  top: "2_conv2"
  param {
    lr_mult: 1
  }
  param {
    lr_mult: 2
  }
  convolution_param {
    num_output: 32
    pad: 2
    kernel_size: 5
    stride: 1
    weight_filler {
      type: "gaussian"
      std: 0.01
    }
    bias_filler {
      type: "constant"
    }
  }
}
layer {
  name: "2_relu2"
  type: "ReLU"
  bottom: "2_conv2"
  top: "2_conv2"
}
layer {
  name: "2_pool2"
  type: "Pooling"
  bottom: "2_conv2"
  top: "2_pool2"
  pooling_param {
    pool: AVE
    kernel_size: 3
    stride: 2
  }
}
layer {
  name: "2_conv3"
  type: "Convolution"
  bottom: "2_pool2"
  top: "2_conv3"
  param {
    lr_mult: 1
  }
  param {
    lr_mult: 2
  }
  convolution_param {
    num_output: 64
    pad: 2
    kernel_size: 5
    stride: 1
    weight_filler {
      type: "gaussian"
      std: 0.01
    }
    bias_filler {
      type: "constant"
    }
  }
}
layer {
  name: "2_relu3"
  type: "ReLU"
  bottom: "2_conv3"
  top: "2_conv3"
}
layer {
  name: "2_pool3"
  type: "Pooling"
  bottom: "2_conv3"
  top: "2_pool3"
  pooling_param {
    pool: AVE
    kernel_size: 3
    stride: 2
  }
}
layer {
  name: "2_ip1"
  type: "InnerProduct"
  bottom: "2_pool3"
  top: "2_ip1"
  param {
    lr_mult: 1
  }
  param {
    lr_mult: 2
  }
  inner_product_param {
    num_output: 64
    weight_filler {
      type: "gaussian"
      std: 0.1
    }
    bias_filler {
      type: "constant"
    }
  }
}
layer {
  name: "2_ip2"
  type: "InnerProduct"
  bottom: "2_ip1"
  top: "2_ip2"
  param {
    lr_mult: 1
  }
  param {
    lr_mult: 2
  }
  inner_product_param {
    num_output: 10
    weight_filler {
      type: "gaussian"
      std: 0.1
    }
    bias_filler {
      type: "constant"
    }
  }
}
layer {
  name: "2_prob"
  type: "Softmax"
  bottom: "2_ip2"
  top: "2_prob"
}
layer {
  name: "3_conv1"
  type: "Convolution"
  bottom: "data"
  top: "3_conv1"
  param {
    lr_mult: 1
  }
  param {
    lr_mult: 2
  }
  convolution_param {
    num_output: 32
    pad: 2
    kernel_size: 5
    stride: 1
    weight_filler {
      type: "gaussian"
      std: 0.0001
    }
    bias_filler {
      type: "constant"
    }
  }
}
layer {
  name: "3_pool1"
  type: "Pooling"
  bottom: "3_conv1"
  top: "3_pool1"
  pooling_param {
    pool: MAX
    kernel_size: 3
    stride: 2
  }
}
layer {
  name: "3_relu1"
  type: "ReLU"
  bottom: "3_pool1"
  top: "3_pool1"
}
layer {
  name: "3_conv2"
  type: "Convolution"
  bottom: "3_pool1"
  top: "3_conv2"
  param {
    lr_mult: 1
  }
  param {
    lr_mult: 2
  }
  convolution_param {
    num_output: 32
    pad: 2
    kernel_size: 5
    stride: 1
    weight_filler {
      type: "gaussian"
      std: 0.01
    }
    bias_filler {
      type: "constant"
    }
  }
}
layer {
  name: "3_relu2"
  type: "ReLU"
  bottom: "3_conv2"
  top: "3_conv2"
}
layer {
  name: "3_pool2"
  type: "Pooling"
  bottom: "3_conv2"
  top: "3_pool2"
  pooling_param {
    pool: AVE
    kernel_size: 3
    stride: 2
  }
}
layer {
  name: "3_conv3"
  type: "Convolution"
  bottom: "3_pool2"
  top: "3_conv3"
  param {
    lr_mult: 1
  }
  param {
    lr_mult: 2
  }
  convolution_param {
    num_output: 64
    pad: 2
    kernel_size: 5
    stride: 1
    weight_filler {
      type: "gaussian"
      std: 0.01
    }
    bias_filler {
      type: "constant"
    }
  }
}
layer {
  name: "3_relu3"
  type: "ReLU"
  bottom: "3_conv3"
  top: "3_conv3"
}
layer {
  name: "3_pool3"
  type: "Pooling"
  bottom: "3_conv3"
  top: "3_pool3"
  pooling_param {
    pool: AVE
    kernel_size: 3
    stride: 2
  }
}
layer {
  name: "3_ip1"
  type: "InnerProduct"
  bottom: "3_pool3"
  top: "3_ip1"
  param {
    lr_mult: 1
  }
  param {
    lr_mult: 2
  }
  inner_product_param {
    num_output: 64
    weight_filler {
      type: "gaussian"
      std: 0.1
    }
    bias_filler {
      type: "constant"
    }
  }
}
layer {
  name: "3_ip2"
  type: "InnerProduct"
  bottom: "3_ip1"
  top: "3_ip2"
  param {
    lr_mult: 1
  }
  param {
    lr_mult: 2
  }
  inner_product_param {
    num_output: 10
    weight_filler {
      type: "gaussian"
      std: 0.1
    }
    bias_filler {
      type: "constant"
    }
  }
}
layer {
  name: "3_prob"
  type: "Softmax"
  bottom: "3_ip2"
  top: "3_prob"
}
layer {
  name: "4_conv1"
  type: "Convolution"
  bottom: "data"
  top: "4_conv1"
  param {
    lr_mult: 1
  }
  param {
    lr_mult: 2
  }
  convolution_param {
    num_output: 32
    pad: 2
    kernel_size: 5
    stride: 1
    weight_filler {
      type: "gaussian"
      std: 0.0001
    }
    bias_filler {
      type: "constant"
    }
  }
}
layer {
  name: "4_pool1"
  type: "Pooling"
  bottom: "4_conv1"
  top: "4_pool1"
  pooling_param {
    pool: MAX
    kernel_size: 3
    stride: 2
  }
}
layer {
  name: "4_relu1"
  type: "ReLU"
  bottom: "4_pool1"
  top: "4_pool1"
}
layer {
  name: "4_conv2"
  type: "Convolution"
  bottom: "4_pool1"
  top: "4_conv2"
  param {
    lr_mult: 1
  }
  param {
    lr_mult: 2
  }
  convolution_param {
    num_output: 32
    pad: 2
    kernel_size: 5
    stride: 1
    weight_filler {
      type: "gaussian"
      std: 0.01
    }
    bias_filler {
      type: "constant"
    }
  }
}
layer {
  name: "4_relu2"
  type: "ReLU"
  bottom: "4_conv2"
  top: "4_conv2"
}
layer {
  name: "4_pool2"
  type: "Pooling"
  bottom: "4_conv2"
  top: "4_pool2"
  pooling_param {
    pool: AVE
    kernel_size: 3
    stride: 2
  }
}
layer {
  name: "4_conv3"
  type: "Convolution"
  bottom: "4_pool2"
  top: "4_conv3"
  param {
    lr_mult: 1
  }
  param {
    lr_mult: 2
  }
  convolution_param {
    num_output: 64
    pad: 2
    kernel_size: 5
    stride: 1
    weight_filler {
      type: "gaussian"
      std: 0.01
    }
    bias_filler {
      type: "constant"
    }
  }
}
layer {
  name: "4_relu3"
  type: "ReLU"
  bottom: "4_conv3"
  top: "4_conv3"
}
layer {
  name: "4_pool3"
  type: "Pooling"
  bottom: "4_conv3"
  top: "4_pool3"
  pooling_param {
    pool: AVE
    kernel_size: 3
    stride: 2
  }
}
layer {
  name: "4_ip1"
  type: "InnerProduct"
  bottom: "4_pool3"
  top: "4_ip1"
  param {
    lr_mult: 1
  }
  param {
    lr_mult: 2
  }
  inner_product_param {
    num_output: 64
    weight_filler {
      type: "gaussian"
      std: 0.1
    }
    bias_filler {
      type: "constant"
    }
  }
}
layer {
  name: "4_ip2"
  type: "InnerProduct"
  bottom: "4_ip1"
  top: "4_ip2"
  param {
    lr_mult: 1
  }
  param {
    lr_mult: 2
  }
  inner_product_param {
    num_output: 10
    weight_filler {
      type: "gaussian"
      std: 0.1
    }
    bias_filler {
      type: "constant"
    }
  }
}
layer {
  name: "4_prob"
  type: "Softmax"
  bottom: "4_ip2"
  top: "4_prob"
}
layer {
  name: "loss"
  type: "ODMultinomialLogisticLoss"
  bottom: "1_prob"
  bottom: "2_prob"
  bottom: "3_prob"
  bottom: "4_prob"
  bottom: "label"
  top: "multiple-output loss"
  top: "batch-instance-counts"
  top: "train-instance-counts"
  loss_weight: 1
  loss_weight: 0
  loss_weight: 0
  include {
    phase: TRAIN
  }
}
I0127 06:35:34.233341  9703 layer_factory.hpp:74] Creating layer cifar
I0127 06:35:34.233355  9703 net.cpp:90] Creating Layer cifar
I0127 06:35:34.233359  9703 net.cpp:368] cifar -> data
I0127 06:35:34.233383  9703 net.cpp:368] cifar -> label
I0127 06:35:34.233397  9703 net.cpp:120] Setting up cifar
I0127 06:35:34.233448  9703 db.cpp:34] Opened lmdb /home/mike/ml_lab/mod/MCL_Caffe/examples/cifar10/cifar10_train_lmdb
I0127 06:35:34.233487  9703 data_layer.cpp:67] output data size: 350,3,32,32
I0127 06:35:34.233496  9703 data_transformer.cpp:22] Loading mean file from: /home/mike/ml_lab/mod/MCL_Caffe/examples/cifar10/mean.binaryproto
I0127 06:35:34.234153  9703 net.cpp:127] Top shape: 350 3 32 32 (1075200)
I0127 06:35:34.234158  9703 net.cpp:127] Top shape: 350 (350)
I0127 06:35:34.234163  9703 layer_factory.hpp:74] Creating layer data_cifar_0_split
I0127 06:35:34.234169  9703 net.cpp:90] Creating Layer data_cifar_0_split
I0127 06:35:34.234171  9703 net.cpp:410] data_cifar_0_split <- data
I0127 06:35:34.234184  9703 net.cpp:368] data_cifar_0_split -> data_cifar_0_split_0
I0127 06:35:34.234194  9703 net.cpp:368] data_cifar_0_split -> data_cifar_0_split_1
I0127 06:35:34.234197  9703 net.cpp:368] data_cifar_0_split -> data_cifar_0_split_2
I0127 06:35:34.234201  9703 net.cpp:368] data_cifar_0_split -> data_cifar_0_split_3
I0127 06:35:34.234205  9703 net.cpp:120] Setting up data_cifar_0_split
I0127 06:35:34.234210  9703 net.cpp:127] Top shape: 350 3 32 32 (1075200)
I0127 06:35:34.234211  9703 net.cpp:127] Top shape: 350 3 32 32 (1075200)
I0127 06:35:34.234215  9703 net.cpp:127] Top shape: 350 3 32 32 (1075200)
I0127 06:35:34.234216  9703 net.cpp:127] Top shape: 350 3 32 32 (1075200)
I0127 06:35:34.234218  9703 layer_factory.hpp:74] Creating layer 1_conv1
I0127 06:35:34.234225  9703 net.cpp:90] Creating Layer 1_conv1
I0127 06:35:34.234227  9703 net.cpp:410] 1_conv1 <- data_cifar_0_split_0
I0127 06:35:34.234230  9703 net.cpp:368] 1_conv1 -> 1_conv1
I0127 06:35:34.234236  9703 net.cpp:120] Setting up 1_conv1
I0127 06:35:34.234630  9703 net.cpp:127] Top shape: 350 32 32 32 (11468800)
I0127 06:35:34.234639  9703 layer_factory.hpp:74] Creating layer 1_pool1
I0127 06:35:34.234643  9703 net.cpp:90] Creating Layer 1_pool1
I0127 06:35:34.234645  9703 net.cpp:410] 1_pool1 <- 1_conv1
I0127 06:35:34.234648  9703 net.cpp:368] 1_pool1 -> 1_pool1
I0127 06:35:34.234652  9703 net.cpp:120] Setting up 1_pool1
I0127 06:35:34.234663  9703 net.cpp:127] Top shape: 350 32 16 16 (2867200)
I0127 06:35:34.234664  9703 layer_factory.hpp:74] Creating layer 1_relu1
I0127 06:35:34.234668  9703 net.cpp:90] Creating Layer 1_relu1
I0127 06:35:34.234670  9703 net.cpp:410] 1_relu1 <- 1_pool1
I0127 06:35:34.234673  9703 net.cpp:357] 1_relu1 -> 1_pool1 (in-place)
I0127 06:35:34.234675  9703 net.cpp:120] Setting up 1_relu1
I0127 06:35:34.234679  9703 net.cpp:127] Top shape: 350 32 16 16 (2867200)
I0127 06:35:34.234681  9703 layer_factory.hpp:74] Creating layer 1_conv2
I0127 06:35:34.234684  9703 net.cpp:90] Creating Layer 1_conv2
I0127 06:35:34.234686  9703 net.cpp:410] 1_conv2 <- 1_pool1
I0127 06:35:34.234689  9703 net.cpp:368] 1_conv2 -> 1_conv2
I0127 06:35:34.234694  9703 net.cpp:120] Setting up 1_conv2
I0127 06:35:34.235270  9703 net.cpp:127] Top shape: 350 32 16 16 (2867200)
I0127 06:35:34.235275  9703 layer_factory.hpp:74] Creating layer 1_relu2
I0127 06:35:34.235277  9703 net.cpp:90] Creating Layer 1_relu2
I0127 06:35:34.235280  9703 net.cpp:410] 1_relu2 <- 1_conv2
I0127 06:35:34.235282  9703 net.cpp:357] 1_relu2 -> 1_conv2 (in-place)
I0127 06:35:34.235285  9703 net.cpp:120] Setting up 1_relu2
I0127 06:35:34.235287  9703 net.cpp:127] Top shape: 350 32 16 16 (2867200)
I0127 06:35:34.235290  9703 layer_factory.hpp:74] Creating layer 1_pool2
I0127 06:35:34.235292  9703 net.cpp:90] Creating Layer 1_pool2
I0127 06:35:34.235294  9703 net.cpp:410] 1_pool2 <- 1_conv2
I0127 06:35:34.235297  9703 net.cpp:368] 1_pool2 -> 1_pool2
I0127 06:35:34.235301  9703 net.cpp:120] Setting up 1_pool2
I0127 06:35:34.235303  9703 net.cpp:127] Top shape: 350 32 8 8 (716800)
I0127 06:35:34.235306  9703 layer_factory.hpp:74] Creating layer 1_conv3
I0127 06:35:34.235308  9703 net.cpp:90] Creating Layer 1_conv3
I0127 06:35:34.235311  9703 net.cpp:410] 1_conv3 <- 1_pool2
I0127 06:35:34.235314  9703 net.cpp:368] 1_conv3 -> 1_conv3
I0127 06:35:34.235317  9703 net.cpp:120] Setting up 1_conv3
I0127 06:35:34.236469  9703 net.cpp:127] Top shape: 350 64 8 8 (1433600)
I0127 06:35:34.236474  9703 layer_factory.hpp:74] Creating layer 1_relu3
I0127 06:35:34.236477  9703 net.cpp:90] Creating Layer 1_relu3
I0127 06:35:34.236479  9703 net.cpp:410] 1_relu3 <- 1_conv3
I0127 06:35:34.236482  9703 net.cpp:357] 1_relu3 -> 1_conv3 (in-place)
I0127 06:35:34.236485  9703 net.cpp:120] Setting up 1_relu3
I0127 06:35:34.236487  9703 net.cpp:127] Top shape: 350 64 8 8 (1433600)
I0127 06:35:34.236490  9703 layer_factory.hpp:74] Creating layer 1_pool3
I0127 06:35:34.236491  9703 net.cpp:90] Creating Layer 1_pool3
I0127 06:35:34.236493  9703 net.cpp:410] 1_pool3 <- 1_conv3
I0127 06:35:34.236496  9703 net.cpp:368] 1_pool3 -> 1_pool3
I0127 06:35:34.236500  9703 net.cpp:120] Setting up 1_pool3
I0127 06:35:34.236503  9703 net.cpp:127] Top shape: 350 64 4 4 (358400)
I0127 06:35:34.236505  9703 layer_factory.hpp:74] Creating layer 1_ip1
I0127 06:35:34.236508  9703 net.cpp:90] Creating Layer 1_ip1
I0127 06:35:34.236510  9703 net.cpp:410] 1_ip1 <- 1_pool3
I0127 06:35:34.236518  9703 net.cpp:368] 1_ip1 -> 1_ip1
I0127 06:35:34.236523  9703 net.cpp:120] Setting up 1_ip1
I0127 06:35:34.238376  9703 net.cpp:127] Top shape: 350 64 (22400)
I0127 06:35:34.238386  9703 layer_factory.hpp:74] Creating layer 1_ip2
I0127 06:35:34.238396  9703 net.cpp:90] Creating Layer 1_ip2
I0127 06:35:34.238401  9703 net.cpp:410] 1_ip2 <- 1_ip1
I0127 06:35:34.238407  9703 net.cpp:368] 1_ip2 -> 1_ip2
I0127 06:35:34.238415  9703 net.cpp:120] Setting up 1_ip2
I0127 06:35:34.238448  9703 net.cpp:127] Top shape: 350 10 (3500)
I0127 06:35:34.238458  9703 layer_factory.hpp:74] Creating layer 1_prob
I0127 06:35:34.238466  9703 net.cpp:90] Creating Layer 1_prob
I0127 06:35:34.238469  9703 net.cpp:410] 1_prob <- 1_ip2
I0127 06:35:34.238474  9703 net.cpp:368] 1_prob -> 1_prob
I0127 06:35:34.238481  9703 net.cpp:120] Setting up 1_prob
I0127 06:35:34.238492  9703 net.cpp:127] Top shape: 350 10 (3500)
I0127 06:35:34.238495  9703 layer_factory.hpp:74] Creating layer 2_conv1
I0127 06:35:34.238502  9703 net.cpp:90] Creating Layer 2_conv1
I0127 06:35:34.238505  9703 net.cpp:410] 2_conv1 <- data_cifar_0_split_1
I0127 06:35:34.238512  9703 net.cpp:368] 2_conv1 -> 2_conv1
I0127 06:35:34.238519  9703 net.cpp:120] Setting up 2_conv1
I0127 06:35:34.238610  9703 net.cpp:127] Top shape: 350 32 32 32 (11468800)
I0127 06:35:34.238617  9703 layer_factory.hpp:74] Creating layer 2_pool1
I0127 06:35:34.238625  9703 net.cpp:90] Creating Layer 2_pool1
I0127 06:35:34.238628  9703 net.cpp:410] 2_pool1 <- 2_conv1
I0127 06:35:34.238634  9703 net.cpp:368] 2_pool1 -> 2_pool1
I0127 06:35:34.238642  9703 net.cpp:120] Setting up 2_pool1
I0127 06:35:34.238651  9703 net.cpp:127] Top shape: 350 32 16 16 (2867200)
I0127 06:35:34.238654  9703 layer_factory.hpp:74] Creating layer 2_relu1
I0127 06:35:34.238661  9703 net.cpp:90] Creating Layer 2_relu1
I0127 06:35:34.238664  9703 net.cpp:410] 2_relu1 <- 2_pool1
I0127 06:35:34.238669  9703 net.cpp:357] 2_relu1 -> 2_pool1 (in-place)
I0127 06:35:34.238674  9703 net.cpp:120] Setting up 2_relu1
I0127 06:35:34.238680  9703 net.cpp:127] Top shape: 350 32 16 16 (2867200)
I0127 06:35:34.238684  9703 layer_factory.hpp:74] Creating layer 2_conv2
I0127 06:35:34.238689  9703 net.cpp:90] Creating Layer 2_conv2
I0127 06:35:34.238693  9703 net.cpp:410] 2_conv2 <- 2_pool1
I0127 06:35:34.238700  9703 net.cpp:368] 2_conv2 -> 2_conv2
I0127 06:35:34.238706  9703 net.cpp:120] Setting up 2_conv2
I0127 06:35:34.239459  9703 net.cpp:127] Top shape: 350 32 16 16 (2867200)
I0127 06:35:34.239466  9703 layer_factory.hpp:74] Creating layer 2_relu2
I0127 06:35:34.239471  9703 net.cpp:90] Creating Layer 2_relu2
I0127 06:35:34.239475  9703 net.cpp:410] 2_relu2 <- 2_conv2
I0127 06:35:34.239481  9703 net.cpp:357] 2_relu2 -> 2_conv2 (in-place)
I0127 06:35:34.239487  9703 net.cpp:120] Setting up 2_relu2
I0127 06:35:34.239493  9703 net.cpp:127] Top shape: 350 32 16 16 (2867200)
I0127 06:35:34.239497  9703 layer_factory.hpp:74] Creating layer 2_pool2
I0127 06:35:34.239502  9703 net.cpp:90] Creating Layer 2_pool2
I0127 06:35:34.239517  9703 net.cpp:410] 2_pool2 <- 2_conv2
I0127 06:35:34.239522  9703 net.cpp:368] 2_pool2 -> 2_pool2
I0127 06:35:34.239529  9703 net.cpp:120] Setting up 2_pool2
I0127 06:35:34.239538  9703 net.cpp:127] Top shape: 350 32 8 8 (716800)
I0127 06:35:34.239542  9703 layer_factory.hpp:74] Creating layer 2_conv3
I0127 06:35:34.239548  9703 net.cpp:90] Creating Layer 2_conv3
I0127 06:35:34.239552  9703 net.cpp:410] 2_conv3 <- 2_pool2
I0127 06:35:34.239557  9703 net.cpp:368] 2_conv3 -> 2_conv3
I0127 06:35:34.239564  9703 net.cpp:120] Setting up 2_conv3
I0127 06:35:34.240849  9703 net.cpp:127] Top shape: 350 64 8 8 (1433600)
I0127 06:35:34.240857  9703 layer_factory.hpp:74] Creating layer 2_relu3
I0127 06:35:34.240862  9703 net.cpp:90] Creating Layer 2_relu3
I0127 06:35:34.240867  9703 net.cpp:410] 2_relu3 <- 2_conv3
I0127 06:35:34.240871  9703 net.cpp:357] 2_relu3 -> 2_conv3 (in-place)
I0127 06:35:34.240878  9703 net.cpp:120] Setting up 2_relu3
I0127 06:35:34.240885  9703 net.cpp:127] Top shape: 350 64 8 8 (1433600)
I0127 06:35:34.240888  9703 layer_factory.hpp:74] Creating layer 2_pool3
I0127 06:35:34.240893  9703 net.cpp:90] Creating Layer 2_pool3
I0127 06:35:34.240897  9703 net.cpp:410] 2_pool3 <- 2_conv3
I0127 06:35:34.240902  9703 net.cpp:368] 2_pool3 -> 2_pool3
I0127 06:35:34.240908  9703 net.cpp:120] Setting up 2_pool3
I0127 06:35:34.240916  9703 net.cpp:127] Top shape: 350 64 4 4 (358400)
I0127 06:35:34.240919  9703 layer_factory.hpp:74] Creating layer 2_ip1
I0127 06:35:34.240926  9703 net.cpp:90] Creating Layer 2_ip1
I0127 06:35:34.240931  9703 net.cpp:410] 2_ip1 <- 2_pool3
I0127 06:35:34.240936  9703 net.cpp:368] 2_ip1 -> 2_ip1
I0127 06:35:34.240942  9703 net.cpp:120] Setting up 2_ip1
I0127 06:35:34.242558  9703 net.cpp:127] Top shape: 350 64 (22400)
I0127 06:35:34.242568  9703 layer_factory.hpp:74] Creating layer 2_ip2
I0127 06:35:34.242575  9703 net.cpp:90] Creating Layer 2_ip2
I0127 06:35:34.242580  9703 net.cpp:410] 2_ip2 <- 2_ip1
I0127 06:35:34.242585  9703 net.cpp:368] 2_ip2 -> 2_ip2
I0127 06:35:34.242593  9703 net.cpp:120] Setting up 2_ip2
I0127 06:35:34.242625  9703 net.cpp:127] Top shape: 350 10 (3500)
I0127 06:35:34.242633  9703 layer_factory.hpp:74] Creating layer 2_prob
I0127 06:35:34.242640  9703 net.cpp:90] Creating Layer 2_prob
I0127 06:35:34.242645  9703 net.cpp:410] 2_prob <- 2_ip2
I0127 06:35:34.242650  9703 net.cpp:368] 2_prob -> 2_prob
I0127 06:35:34.242655  9703 net.cpp:120] Setting up 2_prob
I0127 06:35:34.242664  9703 net.cpp:127] Top shape: 350 10 (3500)
I0127 06:35:34.242669  9703 layer_factory.hpp:74] Creating layer 3_conv1
I0127 06:35:34.242674  9703 net.cpp:90] Creating Layer 3_conv1
I0127 06:35:34.242678  9703 net.cpp:410] 3_conv1 <- data_cifar_0_split_2
I0127 06:35:34.242686  9703 net.cpp:368] 3_conv1 -> 3_conv1
I0127 06:35:34.242691  9703 net.cpp:120] Setting up 3_conv1
I0127 06:35:34.242781  9703 net.cpp:127] Top shape: 350 32 32 32 (11468800)
I0127 06:35:34.242789  9703 layer_factory.hpp:74] Creating layer 3_pool1
I0127 06:35:34.242796  9703 net.cpp:90] Creating Layer 3_pool1
I0127 06:35:34.242800  9703 net.cpp:410] 3_pool1 <- 3_conv1
I0127 06:35:34.242807  9703 net.cpp:368] 3_pool1 -> 3_pool1
I0127 06:35:34.242813  9703 net.cpp:120] Setting up 3_pool1
I0127 06:35:34.242820  9703 net.cpp:127] Top shape: 350 32 16 16 (2867200)
I0127 06:35:34.242825  9703 layer_factory.hpp:74] Creating layer 3_relu1
I0127 06:35:34.242830  9703 net.cpp:90] Creating Layer 3_relu1
I0127 06:35:34.242833  9703 net.cpp:410] 3_relu1 <- 3_pool1
I0127 06:35:34.242837  9703 net.cpp:357] 3_relu1 -> 3_pool1 (in-place)
I0127 06:35:34.242843  9703 net.cpp:120] Setting up 3_relu1
I0127 06:35:34.242849  9703 net.cpp:127] Top shape: 350 32 16 16 (2867200)
I0127 06:35:34.242853  9703 layer_factory.hpp:74] Creating layer 3_conv2
I0127 06:35:34.242859  9703 net.cpp:90] Creating Layer 3_conv2
I0127 06:35:34.242863  9703 net.cpp:410] 3_conv2 <- 3_pool1
I0127 06:35:34.242868  9703 net.cpp:368] 3_conv2 -> 3_conv2
I0127 06:35:34.242875  9703 net.cpp:120] Setting up 3_conv2
I0127 06:35:34.243494  9703 net.cpp:127] Top shape: 350 32 16 16 (2867200)
I0127 06:35:34.243507  9703 layer_factory.hpp:74] Creating layer 3_relu2
I0127 06:35:34.243513  9703 net.cpp:90] Creating Layer 3_relu2
I0127 06:35:34.243516  9703 net.cpp:410] 3_relu2 <- 3_conv2
I0127 06:35:34.243521  9703 net.cpp:357] 3_relu2 -> 3_conv2 (in-place)
I0127 06:35:34.243527  9703 net.cpp:120] Setting up 3_relu2
I0127 06:35:34.243533  9703 net.cpp:127] Top shape: 350 32 16 16 (2867200)
I0127 06:35:34.243537  9703 layer_factory.hpp:74] Creating layer 3_pool2
I0127 06:35:34.243542  9703 net.cpp:90] Creating Layer 3_pool2
I0127 06:35:34.243546  9703 net.cpp:410] 3_pool2 <- 3_conv2
I0127 06:35:34.243552  9703 net.cpp:368] 3_pool2 -> 3_pool2
I0127 06:35:34.243559  9703 net.cpp:120] Setting up 3_pool2
I0127 06:35:34.243566  9703 net.cpp:127] Top shape: 350 32 8 8 (716800)
I0127 06:35:34.243571  9703 layer_factory.hpp:74] Creating layer 3_conv3
I0127 06:35:34.243578  9703 net.cpp:90] Creating Layer 3_conv3
I0127 06:35:34.243582  9703 net.cpp:410] 3_conv3 <- 3_pool2
I0127 06:35:34.243587  9703 net.cpp:368] 3_conv3 -> 3_conv3
I0127 06:35:34.243594  9703 net.cpp:120] Setting up 3_conv3
I0127 06:35:34.244877  9703 net.cpp:127] Top shape: 350 64 8 8 (1433600)
I0127 06:35:34.244885  9703 layer_factory.hpp:74] Creating layer 3_relu3
I0127 06:35:34.244891  9703 net.cpp:90] Creating Layer 3_relu3
I0127 06:35:34.244895  9703 net.cpp:410] 3_relu3 <- 3_conv3
I0127 06:35:34.244901  9703 net.cpp:357] 3_relu3 -> 3_conv3 (in-place)
I0127 06:35:34.244907  9703 net.cpp:120] Setting up 3_relu3
I0127 06:35:34.244913  9703 net.cpp:127] Top shape: 350 64 8 8 (1433600)
I0127 06:35:34.244918  9703 layer_factory.hpp:74] Creating layer 3_pool3
I0127 06:35:34.244923  9703 net.cpp:90] Creating Layer 3_pool3
I0127 06:35:34.244927  9703 net.cpp:410] 3_pool3 <- 3_conv3
I0127 06:35:34.244932  9703 net.cpp:368] 3_pool3 -> 3_pool3
I0127 06:35:34.244938  9703 net.cpp:120] Setting up 3_pool3
I0127 06:35:34.244945  9703 net.cpp:127] Top shape: 350 64 4 4 (358400)
I0127 06:35:34.244949  9703 layer_factory.hpp:74] Creating layer 3_ip1
I0127 06:35:34.244956  9703 net.cpp:90] Creating Layer 3_ip1
I0127 06:35:34.244961  9703 net.cpp:410] 3_ip1 <- 3_pool3
I0127 06:35:34.244967  9703 net.cpp:368] 3_ip1 -> 3_ip1
I0127 06:35:34.244973  9703 net.cpp:120] Setting up 3_ip1
I0127 06:35:34.246590  9703 net.cpp:127] Top shape: 350 64 (22400)
I0127 06:35:34.246598  9703 layer_factory.hpp:74] Creating layer 3_ip2
I0127 06:35:34.246605  9703 net.cpp:90] Creating Layer 3_ip2
I0127 06:35:34.246609  9703 net.cpp:410] 3_ip2 <- 3_ip1
I0127 06:35:34.246616  9703 net.cpp:368] 3_ip2 -> 3_ip2
I0127 06:35:34.246623  9703 net.cpp:120] Setting up 3_ip2
I0127 06:35:34.246655  9703 net.cpp:127] Top shape: 350 10 (3500)
I0127 06:35:34.246662  9703 layer_factory.hpp:74] Creating layer 3_prob
I0127 06:35:34.246668  9703 net.cpp:90] Creating Layer 3_prob
I0127 06:35:34.246673  9703 net.cpp:410] 3_prob <- 3_ip2
I0127 06:35:34.246678  9703 net.cpp:368] 3_prob -> 3_prob
I0127 06:35:34.246686  9703 net.cpp:120] Setting up 3_prob
I0127 06:35:34.246695  9703 net.cpp:127] Top shape: 350 10 (3500)
I0127 06:35:34.246698  9703 layer_factory.hpp:74] Creating layer 4_conv1
I0127 06:35:34.246706  9703 net.cpp:90] Creating Layer 4_conv1
I0127 06:35:34.246709  9703 net.cpp:410] 4_conv1 <- data_cifar_0_split_3
I0127 06:35:34.246716  9703 net.cpp:368] 4_conv1 -> 4_conv1
I0127 06:35:34.246722  9703 net.cpp:120] Setting up 4_conv1
I0127 06:35:34.246810  9703 net.cpp:127] Top shape: 350 32 32 32 (11468800)
I0127 06:35:34.246817  9703 layer_factory.hpp:74] Creating layer 4_pool1
I0127 06:35:34.246824  9703 net.cpp:90] Creating Layer 4_pool1
I0127 06:35:34.246827  9703 net.cpp:410] 4_pool1 <- 4_conv1
I0127 06:35:34.246834  9703 net.cpp:368] 4_pool1 -> 4_pool1
I0127 06:35:34.246840  9703 net.cpp:120] Setting up 4_pool1
I0127 06:35:34.246847  9703 net.cpp:127] Top shape: 350 32 16 16 (2867200)
I0127 06:35:34.246852  9703 layer_factory.hpp:74] Creating layer 4_relu1
I0127 06:35:34.246857  9703 net.cpp:90] Creating Layer 4_relu1
I0127 06:35:34.246861  9703 net.cpp:410] 4_relu1 <- 4_pool1
I0127 06:35:34.246876  9703 net.cpp:357] 4_relu1 -> 4_pool1 (in-place)
I0127 06:35:34.246882  9703 net.cpp:120] Setting up 4_relu1
I0127 06:35:34.246888  9703 net.cpp:127] Top shape: 350 32 16 16 (2867200)
I0127 06:35:34.246892  9703 layer_factory.hpp:74] Creating layer 4_conv2
I0127 06:35:34.246898  9703 net.cpp:90] Creating Layer 4_conv2
I0127 06:35:34.246902  9703 net.cpp:410] 4_conv2 <- 4_pool1
I0127 06:35:34.246907  9703 net.cpp:368] 4_conv2 -> 4_conv2
I0127 06:35:34.246913  9703 net.cpp:120] Setting up 4_conv2
I0127 06:35:34.247678  9703 net.cpp:127] Top shape: 350 32 16 16 (2867200)
I0127 06:35:34.247689  9703 layer_factory.hpp:74] Creating layer 4_relu2
I0127 06:35:34.247694  9703 net.cpp:90] Creating Layer 4_relu2
I0127 06:35:34.247699  9703 net.cpp:410] 4_relu2 <- 4_conv2
I0127 06:35:34.247705  9703 net.cpp:357] 4_relu2 -> 4_conv2 (in-place)
I0127 06:35:34.247711  9703 net.cpp:120] Setting up 4_relu2
I0127 06:35:34.247717  9703 net.cpp:127] Top shape: 350 32 16 16 (2867200)
I0127 06:35:34.247722  9703 layer_factory.hpp:74] Creating layer 4_pool2
I0127 06:35:34.247727  9703 net.cpp:90] Creating Layer 4_pool2
I0127 06:35:34.247731  9703 net.cpp:410] 4_pool2 <- 4_conv2
I0127 06:35:34.247736  9703 net.cpp:368] 4_pool2 -> 4_pool2
I0127 06:35:34.247742  9703 net.cpp:120] Setting up 4_pool2
I0127 06:35:34.247750  9703 net.cpp:127] Top shape: 350 32 8 8 (716800)
I0127 06:35:34.247755  9703 layer_factory.hpp:74] Creating layer 4_conv3
I0127 06:35:34.247761  9703 net.cpp:90] Creating Layer 4_conv3
I0127 06:35:34.247764  9703 net.cpp:410] 4_conv3 <- 4_pool2
I0127 06:35:34.247769  9703 net.cpp:368] 4_conv3 -> 4_conv3
I0127 06:35:34.247776  9703 net.cpp:120] Setting up 4_conv3
I0127 06:35:34.249069  9703 net.cpp:127] Top shape: 350 64 8 8 (1433600)
I0127 06:35:34.249076  9703 layer_factory.hpp:74] Creating layer 4_relu3
I0127 06:35:34.249083  9703 net.cpp:90] Creating Layer 4_relu3
I0127 06:35:34.249088  9703 net.cpp:410] 4_relu3 <- 4_conv3
I0127 06:35:34.249092  9703 net.cpp:357] 4_relu3 -> 4_conv3 (in-place)
I0127 06:35:34.249099  9703 net.cpp:120] Setting up 4_relu3
I0127 06:35:34.249104  9703 net.cpp:127] Top shape: 350 64 8 8 (1433600)
I0127 06:35:34.249109  9703 layer_factory.hpp:74] Creating layer 4_pool3
I0127 06:35:34.249114  9703 net.cpp:90] Creating Layer 4_pool3
I0127 06:35:34.249119  9703 net.cpp:410] 4_pool3 <- 4_conv3
I0127 06:35:34.249126  9703 net.cpp:368] 4_pool3 -> 4_pool3
I0127 06:35:34.249132  9703 net.cpp:120] Setting up 4_pool3
I0127 06:35:34.249138  9703 net.cpp:127] Top shape: 350 64 4 4 (358400)
I0127 06:35:34.249143  9703 layer_factory.hpp:74] Creating layer 4_ip1
I0127 06:35:34.249150  9703 net.cpp:90] Creating Layer 4_ip1
I0127 06:35:34.249155  9703 net.cpp:410] 4_ip1 <- 4_pool3
I0127 06:35:34.249161  9703 net.cpp:368] 4_ip1 -> 4_ip1
I0127 06:35:34.249167  9703 net.cpp:120] Setting up 4_ip1
I0127 06:35:34.250772  9703 net.cpp:127] Top shape: 350 64 (22400)
I0127 06:35:34.250779  9703 layer_factory.hpp:74] Creating layer 4_ip2
I0127 06:35:34.250787  9703 net.cpp:90] Creating Layer 4_ip2
I0127 06:35:34.250792  9703 net.cpp:410] 4_ip2 <- 4_ip1
I0127 06:35:34.250798  9703 net.cpp:368] 4_ip2 -> 4_ip2
I0127 06:35:34.250807  9703 net.cpp:120] Setting up 4_ip2
I0127 06:35:34.250838  9703 net.cpp:127] Top shape: 350 10 (3500)
I0127 06:35:34.250845  9703 layer_factory.hpp:74] Creating layer 4_prob
I0127 06:35:34.250851  9703 net.cpp:90] Creating Layer 4_prob
I0127 06:35:34.250855  9703 net.cpp:410] 4_prob <- 4_ip2
I0127 06:35:34.250861  9703 net.cpp:368] 4_prob -> 4_prob
I0127 06:35:34.250866  9703 net.cpp:120] Setting up 4_prob
I0127 06:35:34.250874  9703 net.cpp:127] Top shape: 350 10 (3500)
I0127 06:35:34.250879  9703 layer_factory.hpp:74] Creating layer loss
I0127 06:35:34.250887  9703 net.cpp:90] Creating Layer loss
I0127 06:35:34.250891  9703 net.cpp:410] loss <- 1_prob
I0127 06:35:34.250895  9703 net.cpp:410] loss <- 2_prob
I0127 06:35:34.250900  9703 net.cpp:410] loss <- 3_prob
I0127 06:35:34.250905  9703 net.cpp:410] loss <- 4_prob
I0127 06:35:34.250910  9703 net.cpp:410] loss <- label
I0127 06:35:34.250926  9703 net.cpp:368] loss -> multiple-output loss
I0127 06:35:34.250933  9703 net.cpp:368] loss -> batch-instance-counts
I0127 06:35:34.250941  9703 net.cpp:368] loss -> train-instance-counts
I0127 06:35:34.250948  9703 net.cpp:120] Setting up loss
I0127 06:35:34.250962  9703 net.cpp:127] Top shape: 4 1 1 1 (4)
I0127 06:35:34.250965  9703 net.cpp:129]     with loss weight 1
I0127 06:35:34.250983  9703 net.cpp:127] Top shape: 4 1 1 1 (4)
I0127 06:35:34.250989  9703 net.cpp:127] Top shape: 4 1 1 1 (4)
I0127 06:35:34.250993  9703 net.cpp:192] loss needs backward computation.
I0127 06:35:34.250998  9703 net.cpp:192] 4_prob needs backward computation.
I0127 06:35:34.251001  9703 net.cpp:192] 4_ip2 needs backward computation.
I0127 06:35:34.251004  9703 net.cpp:192] 4_ip1 needs backward computation.
I0127 06:35:34.251008  9703 net.cpp:192] 4_pool3 needs backward computation.
I0127 06:35:34.251010  9703 net.cpp:192] 4_relu3 needs backward computation.
…
I0127 06:35:34.252532  9703 net.cpp:287] The NetState phase (1) differed from the phase (0) specified by a rule in layer loss
I0127 06:35:34.252717  9703 net.cpp:42] Initializing net from parameters: 
name: "CIFAR10_quick"
state {
  phase: TEST
}
layer {
  name: "cifar"
  type: "Data"
  top: "data"
  top: "label"
  include {
    phase: TEST
  }
  transform_param {
    mean_file: "/home/mike/ml_lab/mod/MCL_Caffe/examples/cifar10/mean.binaryproto"
  }
  data_param {
    source: "/home/mike/ml_lab/mod/MCL_Caffe/examples/cifar10/cifar10_test_lmdb"
    batch_size: 100
    backend: LMDB
  }
}
layer {
  name: "1_conv1"
  type: "Convolution"
  bottom: "data"
  top: "1_conv1"
  param {
    lr_mult: 1
  }
  param {
    lr_mult: 2
  }
  convolution_param {
    num_output: 32
    pad: 2
    kernel_size: 5
    stride: 1
    weight_filler {
      type: "gaussian"
      std: 0.0001
    }
    bias_filler {
      type: "constant"
    }
  }
}
layer {
  name: "1_pool1"
  type: "Pooling"
  bottom: "1_conv1"
  top: "1_pool1"
  pooling_param {
    pool: MAX
    kernel_size: 3
    stride: 2
  }
}
layer {
  name: "1_relu1"
  type: "ReLU"
  bottom: "1_pool1"
  top: "1_pool1"
}
layer {
  name: "1_conv2"
  type: "Convolution"
  bottom: "1_pool1"
  top: "1_conv2"
  param {
    lr_mult: 1
  }
  param {
    lr_mult: 2
  }
  convolution_param {
    num_output: 32
    pad: 2
    kernel_size: 5
    stride: 1
    weight_filler {
      type: "gaussian"
      std: 0.01
    }
    bias_filler {
      type: "constant"
    }
  }
}
layer {
  name: "1_relu2"
  type: "ReLU"
  bottom: "1_conv2"
  top: "1_conv2"
}
layer {
  name: "1_pool2"
  type: "Pooling"
  bottom: "1_conv2"
  top: "1_pool2"
  pooling_param {
    pool: AVE
    kernel_size: 3
    stride: 2
  }
}
layer {
  name: "1_conv3"
  type: "Convolution"
  bottom: "1_pool2"
  top: "1_conv3"
  param {
    lr_mult: 1
  }
  param {
    lr_mult: 2
  }
  convolution_param {
    num_output: 64
    pad: 2
    kernel_size: 5
    stride: 1
    weight_filler {
      type: "gaussian"
      std: 0.01
    }
    bias_filler {
      type: "constant"
    }
  }
}
layer {
  name: "1_relu3"
  type: "ReLU"
  bottom: "1_conv3"
  top: "1_conv3"
}
layer {
  name: "1_pool3"
  type: "Pooling"
  bottom: "1_conv3"
  top: "1_pool3"
  pooling_param {
    pool: AVE
    kernel_size: 3
    stride: 2
  }
}
layer {
  name: "1_ip1"
  type: "InnerProduct"
  bottom: "1_pool3"
  top: "1_ip1"
  param {
    lr_mult: 1
  }
  param {
    lr_mult: 2
  }
  inner_product_param {
    num_output: 64
    weight_filler {
      type: "gaussian"
      std: 0.1
    }
    bias_filler {
      type: "constant"
    }
  }
}
layer {
  name: "1_ip2"
  type: "InnerProduct"
  bottom: "1_ip1"
  top: "1_ip2"
  param {
    lr_mult: 1
  }
  param {
    lr_mult: 2
  }
  inner_product_param {
    num_output: 10
    weight_filler {
      type: "gaussian"
      std: 0.1
    }
    bias_filler {
      type: "constant"
    }
  }
}
layer {
  name: "1_prob"
  type: "Softmax"
  bottom: "1_ip2"
  top: "1_prob"
}
layer {
  name: "2_conv1"
  type: "Convolution"
  bottom: "data"
  top: "2_conv1"
  param {
    lr_mult: 1
  }
  param {
    lr_mult: 2
  }
  convolution_param {
    num_output: 32
    pad: 2
    kernel_size: 5
    stride: 1
    weight_filler {
      type: "gaussian"
      std: 0.0001
    }
    bias_filler {
      type: "constant"
    }
  }
}
layer {
  name: "2_pool1"
  type: "Pooling"
  bottom: "2_conv1"
  top: "2_pool1"
  pooling_param {
    pool: MAX
    kernel_size: 3
    stride: 2
  }
}
layer {
  name: "2_relu1"
  type: "ReLU"
  bottom: "2_pool1"
  top: "2_pool1"
}
layer {
  name: "2_conv2"
  type: "Convolution"
  bottom: "2_pool1"
  top: "2_conv2"
  param {
    lr_mult: 1
  }
  param {
    lr_mult: 2
  }
  convolution_param {
    num_output: 32
    pad: 2
    kernel_size: 5
    stride: 1
    weight_filler {
      type: "gaussian"
      std: 0.01
    }
    bias_filler {
      type: "constant"
    }
  }
}
layer {
  name: "2_relu2"
  type: "ReLU"
  bottom: "2_conv2"
  top: "2_conv2"
}
layer {
  name: "2_pool2"
  type: "Pooling"
  bottom: "2_conv2"
  top: "2_pool2"
  pooling_param {
    pool: AVE
    kernel_size: 3
    stride: 2
  }
}
layer {
  name: "2_conv3"
  type: "Convolution"
  bottom: "2_pool2"
  top: "2_conv3"
  param {
    lr_mult: 1
  }
  param {
    lr_mult: 2
  }
  convolution_param {
    num_output: 64
    pad: 2
    kernel_size: 5
    stride: 1
    weight_filler {
      type: "gaussian"
      std: 0.01
    }
    bias_filler {
      type: "constant"
    }
  }
}
layer {
  name: "2_relu3"
  type: "ReLU"
  bottom: "2_conv3"
  top: "2_conv3"
}
layer {
  name: "2_pool3"
  type: "Pooling"
  bottom: "2_conv3"
  top: "2_pool3"
  pooling_param {
    pool: AVE
    kernel_size: 3
    stride: 2
  }
}
layer {
  name: "2_ip1"
  type: "InnerProduct"
  bottom: "2_pool3"
  top: "2_ip1"
  param {
    lr_mult: 1
  }
  param {
    lr_mult: 2
  }
  inner_product_param {
    num_output: 64
    weight_filler {
      type: "gaussian"
      std: 0.1
    }
    bias_filler {
      type: "constant"
    }
  }
}
layer {
  name: "2_ip2"
  type: "InnerProduct"
  bottom: "2_ip1"
  top: "2_ip2"
  param {
    lr_mult: 1
  }
  param {
    lr_mult: 2
  }
  inner_product_param {
    num_output: 10
    weight_filler {
      type: "gaussian"
      std: 0.1
    }
    bias_filler {
      type: "constant"
    }
  }
}
layer {
  name: "2_prob"
  type: "Softmax"
  bottom: "2_ip2"
  top: "2_prob"
}
layer {
  name: "3_conv1"
  type: "Convolution"
  bottom: "data"
  top: "3_conv1"
  param {
    lr_mult: 1
  }
  param {
    lr_mult: 2
  }
  convolution_param {
    num_output: 32
    pad: 2
    kernel_size: 5
    stride: 1
    weight_filler {
      type: "gaussian"
      std: 0.0001
    }
    bias_filler {
      type: "constant"
    }
  }
}
layer {
  name: "3_pool1"
  type: "Pooling"
  bottom: "3_conv1"
  top: "3_pool1"
  pooling_param {
    pool: MAX
    kernel_size: 3
    stride: 2
  }
}
layer {
  name: "3_relu1"
  type: "ReLU"
  bottom: "3_pool1"
  top: "3_pool1"
}
layer {
  name: "3_conv2"
  type: "Convolution"
  bottom: "3_pool1"
  top: "3_conv2"
  param {
    lr_mult: 1
  }
  param {
    lr_mult: 2
  }
  convolution_param {
    num_output: 32
    pad: 2
    kernel_size: 5
    stride: 1
    weight_filler {
      type: "gaussian"
      std: 0.01
    }
    bias_filler {
      type: "constant"
    }
  }
}
layer {
  name: "3_relu2"
  type: "ReLU"
  bottom: "3_conv2"
  top: "3_conv2"
}
layer {
  name: "3_pool2"
  type: "Pooling"
  bottom: "3_conv2"
  top: "3_pool2"
  pooling_param {
    pool: AVE
    kernel_size: 3
    stride: 2
  }
}
layer {
  name: "3_conv3"
  type: "Convolution"
  bottom: "3_pool2"
  top: "3_conv3"
  param {
    lr_mult: 1
  }
  param {
    lr_mult: 2
  }
  convolution_param {
    num_output: 64
    pad: 2
    kernel_size: 5
    stride: 1
    weight_filler {
      type: "gaussian"
      std: 0.01
    }
    bias_filler {
      type: "constant"
    }
  }
}
layer {
  name: "3_relu3"
  type: "ReLU"
  bottom: "3_conv3"
  top: "3_conv3"
}
layer {
  name: "3_pool3"
  type: "Pooling"
  bottom: "3_conv3"
  top: "3_pool3"
  pooling_param {
    pool: AVE
    kernel_size: 3
    stride: 2
  }
}
layer {
  name: "3_ip1"
  type: "InnerProduct"
  bottom: "3_pool3"
  top: "3_ip1"
  param {
    lr_mult: 1
  }
  param {
    lr_mult: 2
  }
  inner_product_param {
    num_output: 64
    weight_filler {
      type: "gaussian"
      std: 0.1
    }
    bias_filler {
      type: "constant"
    }
  }
}
layer {
  name: "3_ip2"
  type: "InnerProduct"
  bottom: "3_ip1"
  top: "3_ip2"
  param {
    lr_mult: 1
  }
  param {
    lr_mult: 2
  }
  inner_product_param {
    num_output: 10
    weight_filler {
      type: "gaussian"
      std: 0.1
    }
    bias_filler {
      type: "constant"
    }
  }
}
layer {
  name: "3_prob"
  type: "Softmax"
  bottom: "3_ip2"
  top: "3_prob"
}
layer {
  name: "4_conv1"
  type: "Convolution"
  bottom: "data"
  top: "4_conv1"
  param {
    lr_mult: 1
  }
  param {
    lr_mult: 2
  }
  convolution_param {
    num_output: 32
    pad: 2
    kernel_size: 5
    stride: 1
    weight_filler {
      type: "gaussian"
      std: 0.0001
    }
    bias_filler {
      type: "constant"
    }
  }
}
layer {
  name: "4_pool1"
  type: "Pooling"
  bottom: "4_conv1"
  top: "4_pool1"
  pooling_param {
    pool: MAX
    kernel_size: 3
    stride: 2
  }
}
layer {
  name: "4_relu1"
  type: "ReLU"
  bottom: "4_pool1"
  top: "4_pool1"
}
layer {
  name: "4_conv2"
  type: "Convolution"
  bottom: "4_pool1"
  top: "4_conv2"
  param {
    lr_mult: 1
  }
  param {
    lr_mult: 2
  }
  convolution_param {
    num_output: 32
    pad: 2
    kernel_size: 5
    stride: 1
    weight_filler {
      type: "gaussian"
      std: 0.01
    }
    bias_filler {
      type: "constant"
    }
  }
}
layer {
  name: "4_relu2"
  type: "ReLU"
  bottom: "4_conv2"
  top: "4_conv2"
}
layer {
  name: "4_pool2"
  type: "Pooling"
  bottom: "4_conv2"
  top: "4_pool2"
  pooling_param {
    pool: AVE
    kernel_size: 3
    stride: 2
  }
}
layer {
  name: "4_conv3"
  type: "Convolution"
  bottom: "4_pool2"
  top: "4_conv3"
  param {
    lr_mult: 1
  }
  param {
    lr_mult: 2
  }
  convolution_param {
    num_output: 64
    pad: 2
    kernel_size: 5
    stride: 1
    weight_filler {
      type: "gaussian"
      std: 0.01
    }
    bias_filler {
      type: "constant"
    }
  }
}
layer {
  name: "4_relu3"
  type: "ReLU"
  bottom: "4_conv3"
  top: "4_conv3"
}
layer {
  name: "4_pool3"
  type: "Pooling"
  bottom: "4_conv3"
  top: "4_pool3"
  pooling_param {
    pool: AVE
    kernel_size: 3
    stride: 2
  }
}
layer {
  name: "4_ip1"
  type: "InnerProduct"
  bottom: "4_pool3"
  top: "4_ip1"
  param {
    lr_mult: 1
  }
  param {
    lr_mult: 2
  }
  inner_product_param {
    num_output: 64
    weight_filler {
      type: "gaussian"
      std: 0.1
    }
    bias_filler {
      type: "constant"
    }
  }
}
layer {
  name: "4_ip2"
  type: "InnerProduct"
  bottom: "4_ip1"
  top: "4_ip2"
  param {
    lr_mult: 1
  }
  param {
    lr_mult: 2
  }
  inner_product_param {
    num_output: 10
    weight_filler {
      type: "gaussian"
      std: 0.1
    }
    bias_filler {
      type: "constant"
    }
  }
}
layer {
  name: "4_prob"
  type: "Softmax"
  bottom: "4_ip2"
  top: "4_prob"
}
layer {
  name: "1_accuracy"
  type: "Accuracy"
  bottom: "1_prob"
  bottom: "label"
  top: "1_accuracy"
  include {
    phase: TEST
  }
}
layer {
  name: "2_accuracy"
  type: "Accuracy"
  bottom: "2_prob"
  bottom: "label"
  top: "2_accuracy"
  include {
    phase: TEST
  }
}
layer {
  name: "3_accuracy"
  type: "Accuracy"
  bottom: "3_prob"
  bottom: "label"
  top: "3_accuracy"
  include {
    phase: TEST
  }
}
layer {
  name: "4_accuracy"
  type: "Accuracy"
  bottom: "4_prob"
  bottom: "label"
  top: "4_accuracy"
  include {
    phase: TEST
  }
}
layer {
  name: "accuracy"
  type: "OracleAccuracy"
  bottom: "1_prob"
  bottom: "2_prob"
  bottom: "3_prob"
  bottom: "4_prob"
  bottom: "label"
  top: "oracle accuracy"
  include {
    phase: TEST
  }
}
I0127 06:35:34.252955  9703 layer_factory.hpp:74] Creating layer cifar
I0127 06:35:34.252971  9703 net.cpp:90] Creating Layer cifar
I0127 06:35:34.252976  9703 net.cpp:368] cifar -> data
I0127 06:35:34.252984  9703 net.cpp:368] cifar -> label
I0127 06:35:34.252990  9703 net.cpp:120] Setting up cifar
I0127 06:35:34.253022  9703 db.cpp:34] Opened lmdb /home/mike/ml_lab/mod/MCL_Caffe/examples/cifar10/cifar10_test_lmdb
I0127 06:35:34.253048  9703 data_layer.cpp:67] output data size: 100,3,32,32
I0127 06:35:34.253054  9703 data_transformer.cpp:22] Loading mean file from: /home/mike/ml_lab/mod/MCL_Caffe/examples/cifar10/mean.binaryproto
I0127 06:35:34.253530  9703 net.cpp:127] Top shape: 100 3 32 32 (307200)
I0127 06:35:34.253537  9703 net.cpp:127] Top shape: 100 (100)
I0127 06:35:34.253541  9703 layer_factory.hpp:74] Creating layer data_cifar_0_split
I0127 06:35:34.253547  9703 net.cpp:90] Creating Layer data_cifar_0_split
I0127 06:35:34.253551  9703 net.cpp:410] data_cifar_0_split <- data
I0127 06:35:34.253556  9703 net.cpp:368] data_cifar_0_split -> data_cifar_0_split_0
I0127 06:35:34.253563  9703 net.cpp:368] data_cifar_0_split -> data_cifar_0_split_1
I0127 06:35:34.253568  9703 net.cpp:368] data_cifar_0_split -> data_cifar_0_split_2
I0127 06:35:34.253574  9703 net.cpp:368] data_cifar_0_split -> data_cifar_0_split_3
I0127 06:35:34.253579  9703 net.cpp:120] Setting up data_cifar_0_split
I0127 06:35:34.253585  9703 net.cpp:127] Top shape: 100 3 32 32 (307200)
I0127 06:35:34.253590  9703 net.cpp:127] Top shape: 100 3 32 32 (307200)
I0127 06:35:34.253594  9703 net.cpp:127] Top shape: 100 3 32 32 (307200)
I0127 06:35:34.253598  9703 net.cpp:127] Top shape: 100 3 32 32 (307200)
I0127 06:35:34.253602  9703 layer_factory.hpp:74] Creating layer label_cifar_1_split
I0127 06:35:34.253607  9703 net.cpp:90] Creating Layer label_cifar_1_split
I0127 06:35:34.253612  9703 net.cpp:410] label_cifar_1_split <- label
I0127 06:35:34.253615  9703 net.cpp:368] label_cifar_1_split -> label_cifar_1_split_0
I0127 06:35:34.253621  9703 net.cpp:368] label_cifar_1_split -> label_cifar_1_split_1
I0127 06:35:34.253626  9703 net.cpp:368] label_cifar_1_split -> label_cifar_1_split_2
I0127 06:35:34.253631  9703 net.cpp:368] label_cifar_1_split -> label_cifar_1_split_3
I0127 06:35:34.253636  9703 net.cpp:368] label_cifar_1_split -> label_cifar_1_split_4
I0127 06:35:34.253641  9703 net.cpp:120] Setting up label_cifar_1_split
I0127 06:35:34.253648  9703 net.cpp:127] Top shape: 100 (100)
I0127 06:35:34.253651  9703 net.cpp:127] Top shape: 100 (100)
I0127 06:35:34.253655  9703 net.cpp:127] Top shape: 100 (100)
I0127 06:35:34.253659  9703 net.cpp:127] Top shape: 100 (100)
I0127 06:35:34.253662  9703 net.cpp:127] Top shape: 100 (100)
I0127 06:35:34.253665  9703 layer_factory.hpp:74] Creating layer 1_conv1
I0127 06:35:34.253672  9703 net.cpp:90] Creating Layer 1_conv1
I0127 06:35:34.253675  9703 net.cpp:410] 1_conv1 <- data_cifar_0_split_0
I0127 06:35:34.253680  9703 net.cpp:368] 1_conv1 -> 1_conv1
I0127 06:35:34.253686  9703 net.cpp:120] Setting up 1_conv1
I0127 06:35:34.253772  9703 net.cpp:127] Top shape: 100 32 32 32 (3276800)
I0127 06:35:34.253780  9703 layer_factory.hpp:74] Creating layer 1_pool1
I0127 06:35:34.253787  9703 net.cpp:90] Creating Layer 1_pool1
I0127 06:35:34.253790  9703 net.cpp:410] 1_pool1 <- 1_conv1
I0127 06:35:34.253795  9703 net.cpp:368] 1_pool1 -> 1_pool1
I0127 06:35:34.253800  9703 net.cpp:120] Setting up 1_pool1
I0127 06:35:34.253808  9703 net.cpp:127] Top shape: 100 32 16 16 (819200)
I0127 06:35:34.253810  9703 layer_factory.hpp:74] Creating layer 1_relu1
I0127 06:35:34.253814  9703 net.cpp:90] Creating Layer 1_relu1
I0127 06:35:34.253818  9703 net.cpp:410] 1_relu1 <- 1_pool1
I0127 06:35:34.253823  9703 net.cpp:357] 1_relu1 -> 1_pool1 (in-place)
I0127 06:35:34.253826  9703 net.cpp:120] Setting up 1_relu1
I0127 06:35:34.253831  9703 net.cpp:127] Top shape: 100 32 16 16 (819200)
I0127 06:35:34.253834  9703 layer_factory.hpp:74] Creating layer 1_conv2
I0127 06:35:34.253839  9703 net.cpp:90] Creating Layer 1_conv2
I0127 06:35:34.253842  9703 net.cpp:410] 1_conv2 <- 1_pool1
I0127 06:35:34.253849  9703 net.cpp:368] 1_conv2 -> 1_conv2
I0127 06:35:34.253864  9703 net.cpp:120] Setting up 1_conv2
I0127 06:35:34.254664  9703 net.cpp:127] Top shape: 100 32 16 16 (819200)
I0127 06:35:34.254675  9703 layer_factory.hpp:74] Creating layer 1_relu2
I0127 06:35:34.254680  9703 net.cpp:90] Creating Layer 1_relu2
I0127 06:35:34.254683  9703 net.cpp:410] 1_relu2 <- 1_conv2
I0127 06:35:34.254689  9703 net.cpp:357] 1_relu2 -> 1_conv2 (in-place)
I0127 06:35:34.254694  9703 net.cpp:120] Setting up 1_relu2
I0127 06:35:34.254699  9703 net.cpp:127] Top shape: 100 32 16 16 (819200)
I0127 06:35:34.254703  9703 layer_factory.hpp:74] Creating layer 1_pool2
I0127 06:35:34.254709  9703 net.cpp:90] Creating Layer 1_pool2
I0127 06:35:34.254711  9703 net.cpp:410] 1_pool2 <- 1_conv2
I0127 06:35:34.254717  9703 net.cpp:368] 1_pool2 -> 1_pool2
I0127 06:35:34.254724  9703 net.cpp:120] Setting up 1_pool2
I0127 06:35:34.254729  9703 net.cpp:127] Top shape: 100 32 8 8 (204800)
I0127 06:35:34.254732  9703 layer_factory.hpp:74] Creating layer 1_conv3
I0127 06:35:34.254737  9703 net.cpp:90] Creating Layer 1_conv3
I0127 06:35:34.254742  9703 net.cpp:410] 1_conv3 <- 1_pool2
I0127 06:35:34.254748  9703 net.cpp:368] 1_conv3 -> 1_conv3
I0127 06:35:34.254755  9703 net.cpp:120] Setting up 1_conv3
I0127 06:35:34.256166  9703 net.cpp:127] Top shape: 100 64 8 8 (409600)
I0127 06:35:34.256175  9703 layer_factory.hpp:74] Creating layer 1_relu3
I0127 06:35:34.256178  9703 net.cpp:90] Creating Layer 1_relu3
I0127 06:35:34.256181  9703 net.cpp:410] 1_relu3 <- 1_conv3
I0127 06:35:34.256183  9703 net.cpp:357] 1_relu3 -> 1_conv3 (in-place)
I0127 06:35:34.256186  9703 net.cpp:120] Setting up 1_relu3
I0127 06:35:34.256191  9703 net.cpp:127] Top shape: 100 64 8 8 (409600)
I0127 06:35:34.256194  9703 layer_factory.hpp:74] Creating layer 1_pool3
I0127 06:35:34.256198  9703 net.cpp:90] Creating Layer 1_pool3
I0127 06:35:34.256201  9703 net.cpp:410] 1_pool3 <- 1_conv3
I0127 06:35:34.256208  9703 net.cpp:368] 1_pool3 -> 1_pool3
I0127 06:35:34.256217  9703 net.cpp:120] Setting up 1_pool3
I0127 06:35:34.256224  9703 net.cpp:127] Top shape: 100 64 4 4 (102400)
I0127 06:35:34.256228  9703 layer_factory.hpp:74] Creating layer 1_ip1
I0127 06:35:34.256235  9703 net.cpp:90] Creating Layer 1_ip1
I0127 06:35:34.256239  9703 net.cpp:410] 1_ip1 <- 1_pool3
I0127 06:35:34.256244  9703 net.cpp:368] 1_ip1 -> 1_ip1
I0127 06:35:34.256252  9703 net.cpp:120] Setting up 1_ip1
I0127 06:35:34.257879  9703 net.cpp:127] Top shape: 100 64 (6400)
I0127 06:35:34.257886  9703 layer_factory.hpp:74] Creating layer 1_ip2
I0127 06:35:34.257892  9703 net.cpp:90] Creating Layer 1_ip2
I0127 06:35:34.257897  9703 net.cpp:410] 1_ip2 <- 1_ip1
I0127 06:35:34.257903  9703 net.cpp:368] 1_ip2 -> 1_ip2
I0127 06:35:34.257910  9703 net.cpp:120] Setting up 1_ip2
I0127 06:35:34.257943  9703 net.cpp:127] Top shape: 100 10 (1000)
I0127 06:35:34.257951  9703 layer_factory.hpp:74] Creating layer 1_prob
I0127 06:35:34.257957  9703 net.cpp:90] Creating Layer 1_prob
I0127 06:35:34.257962  9703 net.cpp:410] 1_prob <- 1_ip2
I0127 06:35:34.257967  9703 net.cpp:368] 1_prob -> 1_prob
I0127 06:35:34.257973  9703 net.cpp:120] Setting up 1_prob
I0127 06:35:34.257980  9703 net.cpp:127] Top shape: 100 10 (1000)
I0127 06:35:34.257985  9703 layer_factory.hpp:74] Creating layer 1_prob_1_prob_0_split
I0127 06:35:34.257989  9703 net.cpp:90] Creating Layer 1_prob_1_prob_0_split
I0127 06:35:34.257992  9703 net.cpp:410] 1_prob_1_prob_0_split <- 1_prob
I0127 06:35:34.257998  9703 net.cpp:368] 1_prob_1_prob_0_split -> 1_prob_1_prob_0_split_0
I0127 06:35:34.258004  9703 net.cpp:368] 1_prob_1_prob_0_split -> 1_prob_1_prob_0_split_1
I0127 06:35:34.258010  9703 net.cpp:120] Setting up 1_prob_1_prob_0_split
I0127 06:35:34.258016  9703 net.cpp:127] Top shape: 100 10 (1000)
I0127 06:35:34.258021  9703 net.cpp:127] Top shape: 100 10 (1000)
I0127 06:35:34.258024  9703 layer_factory.hpp:74] Creating layer 2_conv1
I0127 06:35:34.258033  9703 net.cpp:90] Creating Layer 2_conv1
I0127 06:35:34.258036  9703 net.cpp:410] 2_conv1 <- data_cifar_0_split_1
I0127 06:35:34.258043  9703 net.cpp:368] 2_conv1 -> 2_conv1
I0127 06:35:34.258057  9703 net.cpp:120] Setting up 2_conv1
I0127 06:35:34.258148  9703 net.cpp:127] Top shape: 100 32 32 32 (3276800)
I0127 06:35:34.258157  9703 layer_factory.hpp:74] Creating layer 2_pool1
I0127 06:35:34.258164  9703 net.cpp:90] Creating Layer 2_pool1
I0127 06:35:34.258168  9703 net.cpp:410] 2_pool1 <- 2_conv1
I0127 06:35:34.258173  9703 net.cpp:368] 2_pool1 -> 2_pool1
I0127 06:35:34.258179  9703 net.cpp:120] Setting up 2_pool1
I0127 06:35:34.258188  9703 net.cpp:127] Top shape: 100 32 16 16 (819200)
I0127 06:35:34.258191  9703 layer_factory.hpp:74] Creating layer 2_relu1
I0127 06:35:34.258195  9703 net.cpp:90] Creating Layer 2_relu1
I0127 06:35:34.258199  9703 net.cpp:410] 2_relu1 <- 2_pool1
I0127 06:35:34.258204  9703 net.cpp:357] 2_relu1 -> 2_pool1 (in-place)
I0127 06:35:34.258209  9703 net.cpp:120] Setting up 2_relu1
I0127 06:35:34.258214  9703 net.cpp:127] Top shape: 100 32 16 16 (819200)
I0127 06:35:34.258219  9703 layer_factory.hpp:74] Creating layer 2_conv2
I0127 06:35:34.258224  9703 net.cpp:90] Creating Layer 2_conv2
I0127 06:35:34.258229  9703 net.cpp:410] 2_conv2 <- 2_pool1
I0127 06:35:34.258234  9703 net.cpp:368] 2_conv2 -> 2_conv2
I0127 06:35:34.258240  9703 net.cpp:120] Setting up 2_conv2
I0127 06:35:34.259033  9703 net.cpp:127] Top shape: 100 32 16 16 (819200)
I0127 06:35:34.259040  9703 layer_factory.hpp:74] Creating layer 2_relu2
I0127 06:35:34.259045  9703 net.cpp:90] Creating Layer 2_relu2
I0127 06:35:34.259048  9703 net.cpp:410] 2_relu2 <- 2_conv2
I0127 06:35:34.259054  9703 net.cpp:357] 2_relu2 -> 2_conv2 (in-place)
I0127 06:35:34.259060  9703 net.cpp:120] Setting up 2_relu2
I0127 06:35:34.259066  9703 net.cpp:127] Top shape: 100 32 16 16 (819200)
I0127 06:35:34.259071  9703 layer_factory.hpp:74] Creating layer 2_pool2
I0127 06:35:34.259075  9703 net.cpp:90] Creating Layer 2_pool2
I0127 06:35:34.259080  9703 net.cpp:410] 2_pool2 <- 2_conv2
I0127 06:35:34.259084  9703 net.cpp:368] 2_pool2 -> 2_pool2
I0127 06:35:34.259090  9703 net.cpp:120] Setting up 2_pool2
I0127 06:35:34.259099  9703 net.cpp:127] Top shape: 100 32 8 8 (204800)
I0127 06:35:34.259104  9703 layer_factory.hpp:74] Creating layer 2_conv3
I0127 06:35:34.259109  9703 net.cpp:90] Creating Layer 2_conv3
I0127 06:35:34.259112  9703 net.cpp:410] 2_conv3 <- 2_pool2
I0127 06:35:34.259119  9703 net.cpp:368] 2_conv3 -> 2_conv3
I0127 06:35:34.259124  9703 net.cpp:120] Setting up 2_conv3
I0127 06:35:34.260419  9703 net.cpp:127] Top shape: 100 64 8 8 (409600)
I0127 06:35:34.260426  9703 layer_factory.hpp:74] Creating layer 2_relu3
I0127 06:35:34.260432  9703 net.cpp:90] Creating Layer 2_relu3
I0127 06:35:34.260437  9703 net.cpp:410] 2_relu3 <- 2_conv3
I0127 06:35:34.260442  9703 net.cpp:357] 2_relu3 -> 2_conv3 (in-place)
I0127 06:35:34.260447  9703 net.cpp:120] Setting up 2_relu3
I0127 06:35:34.260454  9703 net.cpp:127] Top shape: 100 64 8 8 (409600)
I0127 06:35:34.260458  9703 layer_factory.hpp:74] Creating layer 2_pool3
I0127 06:35:34.260463  9703 net.cpp:90] Creating Layer 2_pool3
I0127 06:35:34.260468  9703 net.cpp:410] 2_pool3 <- 2_conv3
I0127 06:35:34.260473  9703 net.cpp:368] 2_pool3 -> 2_pool3
I0127 06:35:34.260478  9703 net.cpp:120] Setting up 2_pool3
I0127 06:35:34.260484  9703 net.cpp:127] Top shape: 100 64 4 4 (102400)
I0127 06:35:34.260489  9703 layer_factory.hpp:74] Creating layer 2_ip1
I0127 06:35:34.260495  9703 net.cpp:90] Creating Layer 2_ip1
I0127 06:35:34.260500  9703 net.cpp:410] 2_ip1 <- 2_pool3
I0127 06:35:34.260506  9703 net.cpp:368] 2_ip1 -> 2_ip1
I0127 06:35:34.260512  9703 net.cpp:120] Setting up 2_ip1
I0127 06:35:34.262125  9703 net.cpp:127] Top shape: 100 64 (6400)
I0127 06:35:34.262135  9703 layer_factory.hpp:74] Creating layer 2_ip2
I0127 06:35:34.262142  9703 net.cpp:90] Creating Layer 2_ip2
I0127 06:35:34.262146  9703 net.cpp:410] 2_ip2 <- 2_ip1
I0127 06:35:34.262153  9703 net.cpp:368] 2_ip2 -> 2_ip2
I0127 06:35:34.262161  9703 net.cpp:120] Setting up 2_ip2
I0127 06:35:34.262193  9703 net.cpp:127] Top shape: 100 10 (1000)
I0127 06:35:34.262202  9703 layer_factory.hpp:74] Creating layer 2_prob
I0127 06:35:34.262215  9703 net.cpp:90] Creating Layer 2_prob
I0127 06:35:34.262219  9703 net.cpp:410] 2_prob <- 2_ip2
I0127 06:35:34.262224  9703 net.cpp:368] 2_prob -> 2_prob
I0127 06:35:34.262230  9703 net.cpp:120] Setting up 2_prob
I0127 06:35:34.262238  9703 net.cpp:127] Top shape: 100 10 (1000)
I0127 06:35:34.262243  9703 layer_factory.hpp:74] Creating layer 2_prob_2_prob_0_split
I0127 06:35:34.262248  9703 net.cpp:90] Creating Layer 2_prob_2_prob_0_split
I0127 06:35:34.262251  9703 net.cpp:410] 2_prob_2_prob_0_split <- 2_prob
I0127 06:35:34.262256  9703 net.cpp:368] 2_prob_2_prob_0_split -> 2_prob_2_prob_0_split_0
I0127 06:35:34.262262  9703 net.cpp:368] 2_prob_2_prob_0_split -> 2_prob_2_prob_0_split_1
I0127 06:35:34.262271  9703 net.cpp:120] Setting up 2_prob_2_prob_0_split
I0127 06:35:34.262277  9703 net.cpp:127] Top shape: 100 10 (1000)
I0127 06:35:34.262282  9703 net.cpp:127] Top shape: 100 10 (1000)
I0127 06:35:34.262286  9703 layer_factory.hpp:74] Creating layer 3_conv1
I0127 06:35:34.262292  9703 net.cpp:90] Creating Layer 3_conv1
I0127 06:35:34.262296  9703 net.cpp:410] 3_conv1 <- data_cifar_0_split_2
I0127 06:35:34.262302  9703 net.cpp:368] 3_conv1 -> 3_conv1
I0127 06:35:34.262310  9703 net.cpp:120] Setting up 3_conv1
I0127 06:35:34.262398  9703 net.cpp:127] Top shape: 100 32 32 32 (3276800)
I0127 06:35:34.262406  9703 layer_factory.hpp:74] Creating layer 3_pool1
I0127 06:35:34.262413  9703 net.cpp:90] Creating Layer 3_pool1
I0127 06:35:34.262418  9703 net.cpp:410] 3_pool1 <- 3_conv1
I0127 06:35:34.262423  9703 net.cpp:368] 3_pool1 -> 3_pool1
I0127 06:35:34.262428  9703 net.cpp:120] Setting up 3_pool1
I0127 06:35:34.262436  9703 net.cpp:127] Top shape: 100 32 16 16 (819200)
I0127 06:35:34.262440  9703 layer_factory.hpp:74] Creating layer 3_relu1
I0127 06:35:34.262444  9703 net.cpp:90] Creating Layer 3_relu1
I0127 06:35:34.262449  9703 net.cpp:410] 3_relu1 <- 3_pool1
I0127 06:35:34.262454  9703 net.cpp:357] 3_relu1 -> 3_pool1 (in-place)
I0127 06:35:34.262459  9703 net.cpp:120] Setting up 3_relu1
I0127 06:35:34.262465  9703 net.cpp:127] Top shape: 100 32 16 16 (819200)
I0127 06:35:34.262468  9703 layer_factory.hpp:74] Creating layer 3_conv2
I0127 06:35:34.262477  9703 net.cpp:90] Creating Layer 3_conv2
I0127 06:35:34.262481  9703 net.cpp:410] 3_conv2 <- 3_pool1
I0127 06:35:34.262486  9703 net.cpp:368] 3_conv2 -> 3_conv2
I0127 06:35:34.262492  9703 net.cpp:120] Setting up 3_conv2
I0127 06:35:34.263278  9703 net.cpp:127] Top shape: 100 32 16 16 (819200)
I0127 06:35:34.263284  9703 layer_factory.hpp:74] Creating layer 3_relu2
I0127 06:35:34.263289  9703 net.cpp:90] Creating Layer 3_relu2
I0127 06:35:34.263294  9703 net.cpp:410] 3_relu2 <- 3_conv2
I0127 06:35:34.263300  9703 net.cpp:357] 3_relu2 -> 3_conv2 (in-place)
I0127 06:35:34.263306  9703 net.cpp:120] Setting up 3_relu2
I0127 06:35:34.263311  9703 net.cpp:127] Top shape: 100 32 16 16 (819200)
I0127 06:35:34.263316  9703 layer_factory.hpp:74] Creating layer 3_pool2
I0127 06:35:34.263320  9703 net.cpp:90] Creating Layer 3_pool2
I0127 06:35:34.263325  9703 net.cpp:410] 3_pool2 <- 3_conv2
I0127 06:35:34.263331  9703 net.cpp:368] 3_pool2 -> 3_pool2
I0127 06:35:34.263337  9703 net.cpp:120] Setting up 3_pool2
I0127 06:35:34.263345  9703 net.cpp:127] Top shape: 100 32 8 8 (204800)
I0127 06:35:34.263350  9703 layer_factory.hpp:74] Creating layer 3_conv3
I0127 06:35:34.263355  9703 net.cpp:90] Creating Layer 3_conv3
I0127 06:35:34.263360  9703 net.cpp:410] 3_conv3 <- 3_pool2
I0127 06:35:34.263365  9703 net.cpp:368] 3_conv3 -> 3_conv3
I0127 06:35:34.263371  9703 net.cpp:120] Setting up 3_conv3
I0127 06:35:34.264565  9703 net.cpp:127] Top shape: 100 64 8 8 (409600)
I0127 06:35:34.264571  9703 layer_factory.hpp:74] Creating layer 3_relu3
I0127 06:35:34.264577  9703 net.cpp:90] Creating Layer 3_relu3
I0127 06:35:34.264581  9703 net.cpp:410] 3_relu3 <- 3_conv3
I0127 06:35:34.264586  9703 net.cpp:357] 3_relu3 -> 3_conv3 (in-place)
I0127 06:35:34.264591  9703 net.cpp:120] Setting up 3_relu3
I0127 06:35:34.264597  9703 net.cpp:127] Top shape: 100 64 8 8 (409600)
I0127 06:35:34.264611  9703 layer_factory.hpp:74] Creating layer 3_pool3
I0127 06:35:34.264616  9703 net.cpp:90] Creating Layer 3_pool3
I0127 06:35:34.264619  9703 net.cpp:410] 3_pool3 <- 3_conv3
I0127 06:35:34.264627  9703 net.cpp:368] 3_pool3 -> 3_pool3
I0127 06:35:34.264633  9703 net.cpp:120] Setting up 3_pool3
I0127 06:35:34.264641  9703 net.cpp:127] Top shape: 100 64 4 4 (102400)
I0127 06:35:34.264645  9703 layer_factory.hpp:74] Creating layer 3_ip1
I0127 06:35:34.264650  9703 net.cpp:90] Creating Layer 3_ip1
I0127 06:35:34.264654  9703 net.cpp:410] 3_ip1 <- 3_pool3
I0127 06:35:34.264659  9703 net.cpp:368] 3_ip1 -> 3_ip1
I0127 06:35:34.264665  9703 net.cpp:120] Setting up 3_ip1
I0127 06:35:34.266239  9703 net.cpp:127] Top shape: 100 64 (6400)
I0127 06:35:34.266247  9703 layer_factory.hpp:74] Creating layer 3_ip2
I0127 06:35:34.266254  9703 net.cpp:90] Creating Layer 3_ip2
I0127 06:35:34.266259  9703 net.cpp:410] 3_ip2 <- 3_ip1
I0127 06:35:34.266265  9703 net.cpp:368] 3_ip2 -> 3_ip2
I0127 06:35:34.266273  9703 net.cpp:120] Setting up 3_ip2
I0127 06:35:34.266304  9703 net.cpp:127] Top shape: 100 10 (1000)
I0127 06:35:34.266311  9703 layer_factory.hpp:74] Creating layer 3_prob
I0127 06:35:34.266317  9703 net.cpp:90] Creating Layer 3_prob
I0127 06:35:34.266321  9703 net.cpp:410] 3_prob <- 3_ip2
I0127 06:35:34.266326  9703 net.cpp:368] 3_prob -> 3_prob
I0127 06:35:34.266332  9703 net.cpp:120] Setting up 3_prob
I0127 06:35:34.266340  9703 net.cpp:127] Top shape: 100 10 (1000)
I0127 06:35:34.266343  9703 layer_factory.hpp:74] Creating layer 3_prob_3_prob_0_split
I0127 06:35:34.266350  9703 net.cpp:90] Creating Layer 3_prob_3_prob_0_split
I0127 06:35:34.266355  9703 net.cpp:410] 3_prob_3_prob_0_split <- 3_prob
I0127 06:35:34.266358  9703 net.cpp:368] 3_prob_3_prob_0_split -> 3_prob_3_prob_0_split_0
I0127 06:35:34.266366  9703 net.cpp:368] 3_prob_3_prob_0_split -> 3_prob_3_prob_0_split_1
I0127 06:35:34.266371  9703 net.cpp:120] Setting up 3_prob_3_prob_0_split
I0127 06:35:34.266378  9703 net.cpp:127] Top shape: 100 10 (1000)
I0127 06:35:34.266383  9703 net.cpp:127] Top shape: 100 10 (1000)
I0127 06:35:34.266386  9703 layer_factory.hpp:74] Creating layer 4_conv1
I0127 06:35:34.266392  9703 net.cpp:90] Creating Layer 4_conv1
I0127 06:35:34.266396  9703 net.cpp:410] 4_conv1 <- data_cifar_0_split_3
I0127 06:35:34.266402  9703 net.cpp:368] 4_conv1 -> 4_conv1
I0127 06:35:34.266408  9703 net.cpp:120] Setting up 4_conv1
I0127 06:35:34.266497  9703 net.cpp:127] Top shape: 100 32 32 32 (3276800)
I0127 06:35:34.266505  9703 layer_factory.hpp:74] Creating layer 4_pool1
I0127 06:35:34.266511  9703 net.cpp:90] Creating Layer 4_pool1
I0127 06:35:34.266515  9703 net.cpp:410] 4_pool1 <- 4_conv1
I0127 06:35:34.266520  9703 net.cpp:368] 4_pool1 -> 4_pool1
I0127 06:35:34.266526  9703 net.cpp:120] Setting up 4_pool1
I0127 06:35:34.266535  9703 net.cpp:127] Top shape: 100 32 16 16 (819200)
I0127 06:35:34.266538  9703 layer_factory.hpp:74] Creating layer 4_relu1
I0127 06:35:34.266544  9703 net.cpp:90] Creating Layer 4_relu1
I0127 06:35:34.266548  9703 net.cpp:410] 4_relu1 <- 4_pool1
I0127 06:35:34.266553  9703 net.cpp:357] 4_relu1 -> 4_pool1 (in-place)
I0127 06:35:34.266558  9703 net.cpp:120] Setting up 4_relu1
I0127 06:35:34.266566  9703 net.cpp:127] Top shape: 100 32 16 16 (819200)
I0127 06:35:34.266569  9703 layer_factory.hpp:74] Creating layer 4_conv2
I0127 06:35:34.266576  9703 net.cpp:90] Creating Layer 4_conv2
I0127 06:35:34.266579  9703 net.cpp:410] 4_conv2 <- 4_pool1
I0127 06:35:34.266584  9703 net.cpp:368] 4_conv2 -> 4_conv2
I0127 06:35:34.266590  9703 net.cpp:120] Setting up 4_conv2
I0127 06:35:34.267388  9703 net.cpp:127] Top shape: 100 32 16 16 (819200)
I0127 06:35:34.267397  9703 layer_factory.hpp:74] Creating layer 4_relu2
I0127 06:35:34.267403  9703 net.cpp:90] Creating Layer 4_relu2
I0127 06:35:34.267408  9703 net.cpp:410] 4_relu2 <- 4_conv2
I0127 06:35:34.267415  9703 net.cpp:357] 4_relu2 -> 4_conv2 (in-place)
I0127 06:35:34.267421  9703 net.cpp:120] Setting up 4_relu2
I0127 06:35:34.267426  9703 net.cpp:127] Top shape: 100 32 16 16 (819200)
I0127 06:35:34.267439  9703 layer_factory.hpp:74] Creating layer 4_pool2
I0127 06:35:34.267444  9703 net.cpp:90] Creating Layer 4_pool2
I0127 06:35:34.267448  9703 net.cpp:410] 4_pool2 <- 4_conv2
I0127 06:35:34.267453  9703 net.cpp:368] 4_pool2 -> 4_pool2
I0127 06:35:34.267459  9703 net.cpp:120] Setting up 4_pool2
I0127 06:35:34.267468  9703 net.cpp:127] Top shape: 100 32 8 8 (204800)
I0127 06:35:34.267472  9703 layer_factory.hpp:74] Creating layer 4_conv3
I0127 06:35:34.267478  9703 net.cpp:90] Creating Layer 4_conv3
I0127 06:35:34.267482  9703 net.cpp:410] 4_conv3 <- 4_pool2
I0127 06:35:34.267488  9703 net.cpp:368] 4_conv3 -> 4_conv3
I0127 06:35:34.267493  9703 net.cpp:120] Setting up 4_conv3
I0127 06:35:34.268785  9703 net.cpp:127] Top shape: 100 64 8 8 (409600)
I0127 06:35:34.268792  9703 layer_factory.hpp:74] Creating layer 4_relu3
I0127 06:35:34.268798  9703 net.cpp:90] Creating Layer 4_relu3
I0127 06:35:34.268802  9703 net.cpp:410] 4_relu3 <- 4_conv3
I0127 06:35:34.268808  9703 net.cpp:357] 4_relu3 -> 4_conv3 (in-place)
I0127 06:35:34.268815  9703 net.cpp:120] Setting up 4_relu3
I0127 06:35:34.268821  9703 net.cpp:127] Top shape: 100 64 8 8 (409600)
I0127 06:35:34.268826  9703 layer_factory.hpp:74] Creating layer 4_pool3
I0127 06:35:34.268831  9703 net.cpp:90] Creating Layer 4_pool3
I0127 06:35:34.268834  9703 net.cpp:410] 4_pool3 <- 4_conv3
I0127 06:35:34.268839  9703 net.cpp:368] 4_pool3 -> 4_pool3
I0127 06:35:34.268846  9703 net.cpp:120] Setting up 4_pool3
I0127 06:35:34.268851  9703 net.cpp:127] Top shape: 100 64 4 4 (102400)
I0127 06:35:34.268857  9703 layer_factory.hpp:74] Creating layer 4_ip1
I0127 06:35:34.268863  9703 net.cpp:90] Creating Layer 4_ip1
I0127 06:35:34.268867  9703 net.cpp:410] 4_ip1 <- 4_pool3
I0127 06:35:34.268874  9703 net.cpp:368] 4_ip1 -> 4_ip1
I0127 06:35:34.268880  9703 net.cpp:120] Setting up 4_ip1
I0127 06:35:34.270500  9703 net.cpp:127] Top shape: 100 64 (6400)
I0127 06:35:34.270508  9703 layer_factory.hpp:74] Creating layer 4_ip2
I0127 06:35:34.270516  9703 net.cpp:90] Creating Layer 4_ip2
I0127 06:35:34.270520  9703 net.cpp:410] 4_ip2 <- 4_ip1
I0127 06:35:34.270526  9703 net.cpp:368] 4_ip2 -> 4_ip2
I0127 06:35:34.270534  9703 net.cpp:120] Setting up 4_ip2
I0127 06:35:34.270566  9703 net.cpp:127] Top shape: 100 10 (1000)
I0127 06:35:34.270573  9703 layer_factory.hpp:74] Creating layer 4_prob
I0127 06:35:34.270579  9703 net.cpp:90] Creating Layer 4_prob
I0127 06:35:34.270584  9703 net.cpp:410] 4_prob <- 4_ip2
I0127 06:35:34.270589  9703 net.cpp:368] 4_prob -> 4_prob
I0127 06:35:34.270594  9703 net.cpp:120] Setting up 4_prob
I0127 06:35:34.270602  9703 net.cpp:127] Top shape: 100 10 (1000)
I0127 06:35:34.270606  9703 layer_factory.hpp:74] Creating layer 4_prob_4_prob_0_split
I0127 06:35:34.270611  9703 net.cpp:90] Creating Layer 4_prob_4_prob_0_split
I0127 06:35:34.270613  9703 net.cpp:410] 4_prob_4_prob_0_split <- 4_prob
I0127 06:35:34.270620  9703 net.cpp:368] 4_prob_4_prob_0_split -> 4_prob_4_prob_0_split_0
I0127 06:35:34.270627  9703 net.cpp:368] 4_prob_4_prob_0_split -> 4_prob_4_prob_0_split_1
I0127 06:35:34.270632  9703 net.cpp:120] Setting up 4_prob_4_prob_0_split
I0127 06:35:34.270639  9703 net.cpp:127] Top shape: 100 10 (1000)
I0127 06:35:34.270644  9703 net.cpp:127] Top shape: 100 10 (1000)
I0127 06:35:34.270648  9703 layer_factory.hpp:74] Creating layer 1_accuracy
I0127 06:35:34.270653  9703 net.cpp:90] Creating Layer 1_accuracy
I0127 06:35:34.270658  9703 net.cpp:410] 1_accuracy <- 1_prob_1_prob_0_split_0
I0127 06:35:34.270663  9703 net.cpp:410] 1_accuracy <- label_cifar_1_split_0
I0127 06:35:34.270669  9703 net.cpp:368] 1_accuracy -> 1_accuracy
I0127 06:35:34.270675  9703 net.cpp:120] Setting up 1_accuracy
…
