…
I0126 15:33:06.115559   881 net.cpp:287] The NetState phase (0) differed from the phase (1) specified by a rule in layer accuracy
I0126 15:33:06.115694   881 net.cpp:42] Initializing net from parameters: 
name: "CIFAR10_quick"
state {
  phase: TRAIN
}
layer {
  name: "cifar"
  type: "Data"
  top: "data"
  top: "label"
  include {
    phase: TRAIN
  }
  transform_param {
    mean_file: "/home/mike/ml_lab/mod/MCL_Caffe/examples/cifar10/mean.binaryproto"
  }
  data_param {
    source: "/home/mike/ml_lab/mod/MCL_Caffe/examples/cifar10/cifar10_train_lmdb"
    batch_size: 350
    backend: LMDB
  }
}
layer {
  name: "1_conv1"
  type: "Convolution"
  bottom: "data"
  top: "1_conv1"
  param {
    lr_mult: 1
  }
  param {
    lr_mult: 2
  }
  convolution_param {
    num_output: 32
    pad: 2
    kernel_size: 5
    stride: 1
    weight_filler {
      type: "gaussian"
      std: 0.0001
    }
    bias_filler {
      type: "constant"
    }
  }
}
layer {
  name: "1_pool1"
  type: "Pooling"
  bottom: "1_conv1"
  top: "1_pool1"
  pooling_param {
    pool: MAX
    kernel_size: 3
    stride: 2
  }
}
layer {
  name: "1_relu1"
  type: "ReLU"
  bottom: "1_pool1"
  top: "1_pool1"
}
layer {
  name: "1_conv2"
  type: "Convolution"
  bottom: "1_pool1"
  top: "1_conv2"
  param {
    lr_mult: 1
  }
  param {
    lr_mult: 2
  }
  convolution_param {
    num_output: 32
    pad: 2
    kernel_size: 5
    stride: 1
    weight_filler {
      type: "gaussian"
      std: 0.01
    }
    bias_filler {
      type: "constant"
    }
  }
}
layer {
  name: "1_relu2"
  type: "ReLU"
  bottom: "1_conv2"
  top: "1_conv2"
}
layer {
  name: "1_pool2"
  type: "Pooling"
  bottom: "1_conv2"
  top: "1_pool2"
  pooling_param {
    pool: AVE
    kernel_size: 3
    stride: 2
  }
}
layer {
  name: "1_conv3"
  type: "Convolution"
  bottom: "1_pool2"
  top: "1_conv3"
  param {
    lr_mult: 1
  }
  param {
    lr_mult: 2
  }
  convolution_param {
    num_output: 64
    pad: 2
    kernel_size: 5
    stride: 1
    weight_filler {
      type: "gaussian"
      std: 0.01
    }
    bias_filler {
      type: "constant"
    }
  }
}
layer {
  name: "1_relu3"
  type: "ReLU"
  bottom: "1_conv3"
  top: "1_conv3"
}
layer {
  name: "1_pool3"
  type: "Pooling"
  bottom: "1_conv3"
  top: "1_pool3"
  pooling_param {
    pool: AVE
    kernel_size: 3
    stride: 2
  }
}
layer {
  name: "1_ip1"
  type: "InnerProduct"
  bottom: "1_pool3"
  top: "1_ip1"
  param {
    lr_mult: 1
  }
  param {
    lr_mult: 2
  }
  inner_product_param {
    num_output: 64
    weight_filler {
      type: "gaussian"
      std: 0.1
    }
    bias_filler {
      type: "constant"
    }
  }
}
layer {
  name: "1_ip2"
  type: "InnerProduct"
  bottom: "1_ip1"
  top: "1_ip2"
  param {
    lr_mult: 1
  }
  param {
    lr_mult: 2
  }
  inner_product_param {
    num_output: 10
    weight_filler {
      type: "gaussian"
      std: 0.1
    }
    bias_filler {
      type: "constant"
    }
  }
}
layer {
  name: "1_prob"
  type: "Softmax"
  bottom: "1_ip2"
  top: "1_prob"
}
layer {
  name: "2_conv1"
  type: "Convolution"
  bottom: "data"
  top: "2_conv1"
  param {
    lr_mult: 1
  }
  param {
    lr_mult: 2
  }
  convolution_param {
    num_output: 32
    pad: 2
    kernel_size: 5
    stride: 1
    weight_filler {
      type: "gaussian"
      std: 0.0001
    }
    bias_filler {
      type: "constant"
    }
  }
}
layer {
  name: "2_pool1"
  type: "Pooling"
  bottom: "2_conv1"
  top: "2_pool1"
  pooling_param {
    pool: MAX
    kernel_size: 3
    stride: 2
  }
}
layer {
  name: "2_relu1"
  type: "ReLU"
  bottom: "2_pool1"
  top: "2_pool1"
}
layer {
  name: "2_conv2"
  type: "Convolution"
  bottom: "2_pool1"
  top: "2_conv2"
  param {
    lr_mult: 1
  }
  param {
    lr_mult: 2
  }
  convolution_param {
    num_output: 32
    pad: 2
    kernel_size: 5
    stride: 1
    weight_filler {
      type: "gaussian"
      std: 0.01
    }
    bias_filler {
      type: "constant"
    }
  }
}
layer {
  name: "2_relu2"
  type: "ReLU"
  bottom: "2_conv2"
  top: "2_conv2"
}
layer {
  name: "2_pool2"
  type: "Pooling"
  bottom: "2_conv2"
  top: "2_pool2"
  pooling_param {
    pool: AVE
    kernel_size: 3
    stride: 2
  }
}
layer {
  name: "2_conv3"
  type: "Convolution"
  bottom: "2_pool2"
  top: "2_conv3"
  param {
    lr_mult: 1
  }
  param {
    lr_mult: 2
  }
  convolution_param {
    num_output: 64
    pad: 2
    kernel_size: 5
    stride: 1
    weight_filler {
      type: "gaussian"
      std: 0.01
    }
    bias_filler {
      type: "constant"
    }
  }
}
layer {
  name: "2_relu3"
  type: "ReLU"
  bottom: "2_conv3"
  top: "2_conv3"
}
layer {
  name: "2_pool3"
  type: "Pooling"
  bottom: "2_conv3"
  top: "2_pool3"
  pooling_param {
    pool: AVE
    kernel_size: 3
    stride: 2
  }
}
layer {
  name: "2_ip1"
  type: "InnerProduct"
  bottom: "2_pool3"
  top: "2_ip1"
  param {
    lr_mult: 1
  }
  param {
    lr_mult: 2
  }
  inner_product_param {
    num_output: 64
    weight_filler {
      type: "gaussian"
      std: 0.1
    }
    bias_filler {
      type: "constant"
    }
  }
}
layer {
  name: "2_ip2"
  type: "InnerProduct"
  bottom: "2_ip1"
  top: "2_ip2"
  param {
    lr_mult: 1
  }
  param {
    lr_mult: 2
  }
  inner_product_param {
    num_output: 10
    weight_filler {
      type: "gaussian"
      std: 0.1
    }
    bias_filler {
      type: "constant"
    }
  }
}
layer {
  name: "2_prob"
  type: "Softmax"
  bottom: "2_ip2"
  top: "2_prob"
}
layer {
  name: "3_conv1"
  type: "Convolution"
  bottom: "data"
  top: "3_conv1"
  param {
    lr_mult: 1
  }
  param {
    lr_mult: 2
  }
  convolution_param {
    num_output: 32
    pad: 2
    kernel_size: 5
    stride: 1
    weight_filler {
      type: "gaussian"
      std: 0.0001
    }
    bias_filler {
      type: "constant"
    }
  }
}
layer {
  name: "3_pool1"
  type: "Pooling"
  bottom: "3_conv1"
  top: "3_pool1"
  pooling_param {
    pool: MAX
    kernel_size: 3
    stride: 2
  }
}
layer {
  name: "3_relu1"
  type: "ReLU"
  bottom: "3_pool1"
  top: "3_pool1"
}
layer {
  name: "3_conv2"
  type: "Convolution"
  bottom: "3_pool1"
  top: "3_conv2"
  param {
    lr_mult: 1
  }
  param {
    lr_mult: 2
  }
  convolution_param {
    num_output: 32
    pad: 2
    kernel_size: 5
    stride: 1
    weight_filler {
      type: "gaussian"
      std: 0.01
    }
    bias_filler {
      type: "constant"
    }
  }
}
layer {
  name: "3_relu2"
  type: "ReLU"
  bottom: "3_conv2"
  top: "3_conv2"
}
layer {
  name: "3_pool2"
  type: "Pooling"
  bottom: "3_conv2"
  top: "3_pool2"
  pooling_param {
    pool: AVE
    kernel_size: 3
    stride: 2
  }
}
layer {
  name: "3_conv3"
  type: "Convolution"
  bottom: "3_pool2"
  top: "3_conv3"
  param {
    lr_mult: 1
  }
  param {
    lr_mult: 2
  }
  convolution_param {
    num_output: 64
    pad: 2
    kernel_size: 5
    stride: 1
    weight_filler {
      type: "gaussian"
      std: 0.01
    }
    bias_filler {
      type: "constant"
    }
  }
}
layer {
  name: "3_relu3"
  type: "ReLU"
  bottom: "3_conv3"
  top: "3_conv3"
}
layer {
  name: "3_pool3"
  type: "Pooling"
  bottom: "3_conv3"
  top: "3_pool3"
  pooling_param {
    pool: AVE
    kernel_size: 3
    stride: 2
  }
}
layer {
  name: "3_ip1"
  type: "InnerProduct"
  bottom: "3_pool3"
  top: "3_ip1"
  param {
    lr_mult: 1
  }
  param {
    lr_mult: 2
  }
  inner_product_param {
    num_output: 64
    weight_filler {
      type: "gaussian"
      std: 0.1
    }
    bias_filler {
      type: "constant"
    }
  }
}
layer {
  name: "3_ip2"
  type: "InnerProduct"
  bottom: "3_ip1"
  top: "3_ip2"
  param {
    lr_mult: 1
  }
  param {
    lr_mult: 2
  }
  inner_product_param {
    num_output: 10
    weight_filler {
      type: "gaussian"
      std: 0.1
    }
    bias_filler {
      type: "constant"
    }
  }
}
layer {
  name: "3_prob"
  type: "Softmax"
  bottom: "3_ip2"
  top: "3_prob"
}
layer {
  name: "loss"
  type: "ODMultinomialLogisticLoss"
  bottom: "1_prob"
  bottom: "2_prob"
  bottom: "3_prob"
  bottom: "label"
  top: "multiple-output loss"
  top: "batch-instance-counts"
  top: "train-instance-counts"
  loss_weight: 1
  loss_weight: 0
  loss_weight: 0
  include {
    phase: TRAIN
  }
}
I0126 15:33:06.115831   881 layer_factory.hpp:74] Creating layer cifar
I0126 15:33:06.115846   881 net.cpp:90] Creating Layer cifar
I0126 15:33:06.115852   881 net.cpp:368] cifar -> data
I0126 15:33:06.115870   881 net.cpp:368] cifar -> label
I0126 15:33:06.115877   881 net.cpp:120] Setting up cifar
I0126 15:33:06.115916   881 db.cpp:34] Opened lmdb /home/mike/ml_lab/mod/MCL_Caffe/examples/cifar10/cifar10_train_lmdb
I0126 15:33:06.115949   881 data_layer.cpp:67] output data size: 350,3,32,32
I0126 15:33:06.115957   881 data_transformer.cpp:22] Loading mean file from: /home/mike/ml_lab/mod/MCL_Caffe/examples/cifar10/mean.binaryproto
I0126 15:33:06.116611   881 net.cpp:127] Top shape: 350 3 32 32 (1075200)
I0126 15:33:06.116617   881 net.cpp:127] Top shape: 350 (350)
I0126 15:33:06.116621   881 layer_factory.hpp:74] Creating layer data_cifar_0_split
I0126 15:33:06.116627   881 net.cpp:90] Creating Layer data_cifar_0_split
I0126 15:33:06.116631   881 net.cpp:410] data_cifar_0_split <- data
I0126 15:33:06.116639   881 net.cpp:368] data_cifar_0_split -> data_cifar_0_split_0
I0126 15:33:06.116644   881 net.cpp:368] data_cifar_0_split -> data_cifar_0_split_1
I0126 15:33:06.116650   881 net.cpp:368] data_cifar_0_split -> data_cifar_0_split_2
I0126 15:33:06.116655   881 net.cpp:120] Setting up data_cifar_0_split
I0126 15:33:06.116662   881 net.cpp:127] Top shape: 350 3 32 32 (1075200)
I0126 15:33:06.116667   881 net.cpp:127] Top shape: 350 3 32 32 (1075200)
I0126 15:33:06.116672   881 net.cpp:127] Top shape: 350 3 32 32 (1075200)
I0126 15:33:06.116675   881 layer_factory.hpp:74] Creating layer 1_conv1
I0126 15:33:06.116684   881 net.cpp:90] Creating Layer 1_conv1
I0126 15:33:06.116688   881 net.cpp:410] 1_conv1 <- data_cifar_0_split_0
I0126 15:33:06.116694   881 net.cpp:368] 1_conv1 -> 1_conv1
I0126 15:33:06.116703   881 net.cpp:120] Setting up 1_conv1
I0126 15:33:06.117106   881 net.cpp:127] Top shape: 350 32 32 32 (11468800)
I0126 15:33:06.117118   881 layer_factory.hpp:74] Creating layer 1_pool1
I0126 15:33:06.117136   881 net.cpp:90] Creating Layer 1_pool1
I0126 15:33:06.117141   881 net.cpp:410] 1_pool1 <- 1_conv1
I0126 15:33:06.117147   881 net.cpp:368] 1_pool1 -> 1_pool1
I0126 15:33:06.117154   881 net.cpp:120] Setting up 1_pool1
I0126 15:33:06.117172   881 net.cpp:127] Top shape: 350 32 16 16 (2867200)
I0126 15:33:06.117175   881 layer_factory.hpp:74] Creating layer 1_relu1
I0126 15:33:06.117182   881 net.cpp:90] Creating Layer 1_relu1
I0126 15:33:06.117184   881 net.cpp:410] 1_relu1 <- 1_pool1
I0126 15:33:06.117189   881 net.cpp:357] 1_relu1 -> 1_pool1 (in-place)
I0126 15:33:06.117194   881 net.cpp:120] Setting up 1_relu1
I0126 15:33:06.117202   881 net.cpp:127] Top shape: 350 32 16 16 (2867200)
I0126 15:33:06.117205   881 layer_factory.hpp:74] Creating layer 1_conv2
I0126 15:33:06.117210   881 net.cpp:90] Creating Layer 1_conv2
I0126 15:33:06.117226   881 net.cpp:410] 1_conv2 <- 1_pool1
I0126 15:33:06.117233   881 net.cpp:368] 1_conv2 -> 1_conv2
I0126 15:33:06.117239   881 net.cpp:120] Setting up 1_conv2
I0126 15:33:06.117825   881 net.cpp:127] Top shape: 350 32 16 16 (2867200)
I0126 15:33:06.117832   881 layer_factory.hpp:74] Creating layer 1_relu2
I0126 15:33:06.117837   881 net.cpp:90] Creating Layer 1_relu2
I0126 15:33:06.117841   881 net.cpp:410] 1_relu2 <- 1_conv2
I0126 15:33:06.117846   881 net.cpp:357] 1_relu2 -> 1_conv2 (in-place)
I0126 15:33:06.117851   881 net.cpp:120] Setting up 1_relu2
I0126 15:33:06.117856   881 net.cpp:127] Top shape: 350 32 16 16 (2867200)
I0126 15:33:06.117859   881 layer_factory.hpp:74] Creating layer 1_pool2
I0126 15:33:06.117864   881 net.cpp:90] Creating Layer 1_pool2
I0126 15:33:06.117867   881 net.cpp:410] 1_pool2 <- 1_conv2
I0126 15:33:06.117873   881 net.cpp:368] 1_pool2 -> 1_pool2
I0126 15:33:06.117879   881 net.cpp:120] Setting up 1_pool2
I0126 15:33:06.117887   881 net.cpp:127] Top shape: 350 32 8 8 (716800)
I0126 15:33:06.117889   881 layer_factory.hpp:74] Creating layer 1_conv3
I0126 15:33:06.117897   881 net.cpp:90] Creating Layer 1_conv3
I0126 15:33:06.117902   881 net.cpp:410] 1_conv3 <- 1_pool2
I0126 15:33:06.117908   881 net.cpp:368] 1_conv3 -> 1_conv3
I0126 15:33:06.117913   881 net.cpp:120] Setting up 1_conv3
I0126 15:33:06.119082   881 net.cpp:127] Top shape: 350 64 8 8 (1433600)
I0126 15:33:06.119091   881 layer_factory.hpp:74] Creating layer 1_relu3
I0126 15:33:06.119096   881 net.cpp:90] Creating Layer 1_relu3
I0126 15:33:06.119101   881 net.cpp:410] 1_relu3 <- 1_conv3
I0126 15:33:06.119107   881 net.cpp:357] 1_relu3 -> 1_conv3 (in-place)
I0126 15:33:06.119112   881 net.cpp:120] Setting up 1_relu3
I0126 15:33:06.119117   881 net.cpp:127] Top shape: 350 64 8 8 (1433600)
I0126 15:33:06.119120   881 layer_factory.hpp:74] Creating layer 1_pool3
I0126 15:33:06.119124   881 net.cpp:90] Creating Layer 1_pool3
I0126 15:33:06.119127   881 net.cpp:410] 1_pool3 <- 1_conv3
I0126 15:33:06.119132   881 net.cpp:368] 1_pool3 -> 1_pool3
I0126 15:33:06.119138   881 net.cpp:120] Setting up 1_pool3
I0126 15:33:06.119144   881 net.cpp:127] Top shape: 350 64 4 4 (358400)
I0126 15:33:06.119148   881 layer_factory.hpp:74] Creating layer 1_ip1
I0126 15:33:06.119154   881 net.cpp:90] Creating Layer 1_ip1
I0126 15:33:06.119158   881 net.cpp:410] 1_ip1 <- 1_pool3
I0126 15:33:06.119166   881 net.cpp:368] 1_ip1 -> 1_ip1
I0126 15:33:06.119175   881 net.cpp:120] Setting up 1_ip1
I0126 15:33:06.120656   881 net.cpp:127] Top shape: 350 64 (22400)
I0126 15:33:06.120663   881 layer_factory.hpp:74] Creating layer 1_ip2
I0126 15:33:06.120671   881 net.cpp:90] Creating Layer 1_ip2
I0126 15:33:06.120673   881 net.cpp:410] 1_ip2 <- 1_ip1
I0126 15:33:06.120681   881 net.cpp:368] 1_ip2 -> 1_ip2
I0126 15:33:06.120687   881 net.cpp:120] Setting up 1_ip2
I0126 15:33:06.120713   881 net.cpp:127] Top shape: 350 10 (3500)
I0126 15:33:06.120720   881 layer_factory.hpp:74] Creating layer 1_prob
I0126 15:33:06.120725   881 net.cpp:90] Creating Layer 1_prob
I0126 15:33:06.120729   881 net.cpp:410] 1_prob <- 1_ip2
I0126 15:33:06.120735   881 net.cpp:368] 1_prob -> 1_prob
I0126 15:33:06.120741   881 net.cpp:120] Setting up 1_prob
I0126 15:33:06.120750   881 net.cpp:127] Top shape: 350 10 (3500)
I0126 15:33:06.120754   881 layer_factory.hpp:74] Creating layer 2_conv1
I0126 15:33:06.120761   881 net.cpp:90] Creating Layer 2_conv1
I0126 15:33:06.120765   881 net.cpp:410] 2_conv1 <- data_cifar_0_split_1
I0126 15:33:06.120770   881 net.cpp:368] 2_conv1 -> 2_conv1
I0126 15:33:06.120776   881 net.cpp:120] Setting up 2_conv1
I0126 15:33:06.120843   881 net.cpp:127] Top shape: 350 32 32 32 (11468800)
I0126 15:33:06.120851   881 layer_factory.hpp:74] Creating layer 2_pool1
I0126 15:33:06.120856   881 net.cpp:90] Creating Layer 2_pool1
I0126 15:33:06.120858   881 net.cpp:410] 2_pool1 <- 2_conv1
I0126 15:33:06.120863   881 net.cpp:368] 2_pool1 -> 2_pool1
I0126 15:33:06.120869   881 net.cpp:120] Setting up 2_pool1
I0126 15:33:06.120875   881 net.cpp:127] Top shape: 350 32 16 16 (2867200)
I0126 15:33:06.120887   881 layer_factory.hpp:74] Creating layer 2_relu1
I0126 15:33:06.120894   881 net.cpp:90] Creating Layer 2_relu1
I0126 15:33:06.120899   881 net.cpp:410] 2_relu1 <- 2_pool1
I0126 15:33:06.120904   881 net.cpp:357] 2_relu1 -> 2_pool1 (in-place)
I0126 15:33:06.120909   881 net.cpp:120] Setting up 2_relu1
I0126 15:33:06.120914   881 net.cpp:127] Top shape: 350 32 16 16 (2867200)
I0126 15:33:06.120918   881 layer_factory.hpp:74] Creating layer 2_conv2
I0126 15:33:06.120923   881 net.cpp:90] Creating Layer 2_conv2
I0126 15:33:06.120928   881 net.cpp:410] 2_conv2 <- 2_pool1
I0126 15:33:06.120932   881 net.cpp:368] 2_conv2 -> 2_conv2
I0126 15:33:06.120939   881 net.cpp:120] Setting up 2_conv2
I0126 15:33:06.121526   881 net.cpp:127] Top shape: 350 32 16 16 (2867200)
I0126 15:33:06.121533   881 layer_factory.hpp:74] Creating layer 2_relu2
I0126 15:33:06.121538   881 net.cpp:90] Creating Layer 2_relu2
I0126 15:33:06.121542   881 net.cpp:410] 2_relu2 <- 2_conv2
I0126 15:33:06.121546   881 net.cpp:357] 2_relu2 -> 2_conv2 (in-place)
I0126 15:33:06.121551   881 net.cpp:120] Setting up 2_relu2
I0126 15:33:06.121556   881 net.cpp:127] Top shape: 350 32 16 16 (2867200)
I0126 15:33:06.121561   881 layer_factory.hpp:74] Creating layer 2_pool2
I0126 15:33:06.121564   881 net.cpp:90] Creating Layer 2_pool2
I0126 15:33:06.121567   881 net.cpp:410] 2_pool2 <- 2_conv2
I0126 15:33:06.121574   881 net.cpp:368] 2_pool2 -> 2_pool2
I0126 15:33:06.121579   881 net.cpp:120] Setting up 2_pool2
I0126 15:33:06.121585   881 net.cpp:127] Top shape: 350 32 8 8 (716800)
I0126 15:33:06.121588   881 layer_factory.hpp:74] Creating layer 2_conv3
I0126 15:33:06.121594   881 net.cpp:90] Creating Layer 2_conv3
I0126 15:33:06.121598   881 net.cpp:410] 2_conv3 <- 2_pool2
I0126 15:33:06.121604   881 net.cpp:368] 2_conv3 -> 2_conv3
I0126 15:33:06.121609   881 net.cpp:120] Setting up 2_conv3
I0126 15:33:06.122773   881 net.cpp:127] Top shape: 350 64 8 8 (1433600)
I0126 15:33:06.122782   881 layer_factory.hpp:74] Creating layer 2_relu3
I0126 15:33:06.122787   881 net.cpp:90] Creating Layer 2_relu3
I0126 15:33:06.122791   881 net.cpp:410] 2_relu3 <- 2_conv3
I0126 15:33:06.122795   881 net.cpp:357] 2_relu3 -> 2_conv3 (in-place)
I0126 15:33:06.122800   881 net.cpp:120] Setting up 2_relu3
I0126 15:33:06.122805   881 net.cpp:127] Top shape: 350 64 8 8 (1433600)
I0126 15:33:06.122808   881 layer_factory.hpp:74] Creating layer 2_pool3
I0126 15:33:06.122814   881 net.cpp:90] Creating Layer 2_pool3
I0126 15:33:06.122817   881 net.cpp:410] 2_pool3 <- 2_conv3
I0126 15:33:06.122822   881 net.cpp:368] 2_pool3 -> 2_pool3
I0126 15:33:06.122828   881 net.cpp:120] Setting up 2_pool3
I0126 15:33:06.122833   881 net.cpp:127] Top shape: 350 64 4 4 (358400)
I0126 15:33:06.122838   881 layer_factory.hpp:74] Creating layer 2_ip1
I0126 15:33:06.122843   881 net.cpp:90] Creating Layer 2_ip1
I0126 15:33:06.122845   881 net.cpp:410] 2_ip1 <- 2_pool3
I0126 15:33:06.122853   881 net.cpp:368] 2_ip1 -> 2_ip1
I0126 15:33:06.122859   881 net.cpp:120] Setting up 2_ip1
I0126 15:33:06.124336   881 net.cpp:127] Top shape: 350 64 (22400)
I0126 15:33:06.124346   881 layer_factory.hpp:74] Creating layer 2_ip2
I0126 15:33:06.124353   881 net.cpp:90] Creating Layer 2_ip2
I0126 15:33:06.124357   881 net.cpp:410] 2_ip2 <- 2_ip1
I0126 15:33:06.124364   881 net.cpp:368] 2_ip2 -> 2_ip2
I0126 15:33:06.124371   881 net.cpp:120] Setting up 2_ip2
I0126 15:33:06.124397   881 net.cpp:127] Top shape: 350 10 (3500)
I0126 15:33:06.124402   881 layer_factory.hpp:74] Creating layer 2_prob
I0126 15:33:06.124408   881 net.cpp:90] Creating Layer 2_prob
I0126 15:33:06.124410   881 net.cpp:410] 2_prob <- 2_ip2
I0126 15:33:06.124416   881 net.cpp:368] 2_prob -> 2_prob
I0126 15:33:06.124423   881 net.cpp:120] Setting up 2_prob
I0126 15:33:06.124429   881 net.cpp:127] Top shape: 350 10 (3500)
I0126 15:33:06.124433   881 layer_factory.hpp:74] Creating layer 3_conv1
I0126 15:33:06.124439   881 net.cpp:90] Creating Layer 3_conv1
I0126 15:33:06.124444   881 net.cpp:410] 3_conv1 <- data_cifar_0_split_2
I0126 15:33:06.124459   881 net.cpp:368] 3_conv1 -> 3_conv1
I0126 15:33:06.124465   881 net.cpp:120] Setting up 3_conv1
I0126 15:33:06.124532   881 net.cpp:127] Top shape: 350 32 32 32 (11468800)
I0126 15:33:06.124539   881 layer_factory.hpp:74] Creating layer 3_pool1
I0126 15:33:06.124544   881 net.cpp:90] Creating Layer 3_pool1
I0126 15:33:06.124548   881 net.cpp:410] 3_pool1 <- 3_conv1
I0126 15:33:06.124553   881 net.cpp:368] 3_pool1 -> 3_pool1
I0126 15:33:06.124558   881 net.cpp:120] Setting up 3_pool1
I0126 15:33:06.124565   881 net.cpp:127] Top shape: 350 32 16 16 (2867200)
I0126 15:33:06.124569   881 layer_factory.hpp:74] Creating layer 3_relu1
I0126 15:33:06.124573   881 net.cpp:90] Creating Layer 3_relu1
I0126 15:33:06.124577   881 net.cpp:410] 3_relu1 <- 3_pool1
I0126 15:33:06.124583   881 net.cpp:357] 3_relu1 -> 3_pool1 (in-place)
I0126 15:33:06.124588   881 net.cpp:120] Setting up 3_relu1
I0126 15:33:06.124593   881 net.cpp:127] Top shape: 350 32 16 16 (2867200)
I0126 15:33:06.124596   881 layer_factory.hpp:74] Creating layer 3_conv2
I0126 15:33:06.124603   881 net.cpp:90] Creating Layer 3_conv2
I0126 15:33:06.124605   881 net.cpp:410] 3_conv2 <- 3_pool1
I0126 15:33:06.124610   881 net.cpp:368] 3_conv2 -> 3_conv2
I0126 15:33:06.124616   881 net.cpp:120] Setting up 3_conv2
I0126 15:33:06.125200   881 net.cpp:127] Top shape: 350 32 16 16 (2867200)
I0126 15:33:06.125207   881 layer_factory.hpp:74] Creating layer 3_relu2
I0126 15:33:06.125212   881 net.cpp:90] Creating Layer 3_relu2
I0126 15:33:06.125216   881 net.cpp:410] 3_relu2 <- 3_conv2
I0126 15:33:06.125221   881 net.cpp:357] 3_relu2 -> 3_conv2 (in-place)
I0126 15:33:06.125226   881 net.cpp:120] Setting up 3_relu2
I0126 15:33:06.125232   881 net.cpp:127] Top shape: 350 32 16 16 (2867200)
I0126 15:33:06.125236   881 layer_factory.hpp:74] Creating layer 3_pool2
I0126 15:33:06.125241   881 net.cpp:90] Creating Layer 3_pool2
I0126 15:33:06.125243   881 net.cpp:410] 3_pool2 <- 3_conv2
I0126 15:33:06.125248   881 net.cpp:368] 3_pool2 -> 3_pool2
I0126 15:33:06.125253   881 net.cpp:120] Setting up 3_pool2
I0126 15:33:06.125259   881 net.cpp:127] Top shape: 350 32 8 8 (716800)
I0126 15:33:06.125263   881 layer_factory.hpp:74] Creating layer 3_conv3
I0126 15:33:06.125272   881 net.cpp:90] Creating Layer 3_conv3
I0126 15:33:06.125275   881 net.cpp:410] 3_conv3 <- 3_pool2
I0126 15:33:06.125283   881 net.cpp:368] 3_conv3 -> 3_conv3
I0126 15:33:06.125288   881 net.cpp:120] Setting up 3_conv3
I0126 15:33:06.126451   881 net.cpp:127] Top shape: 350 64 8 8 (1433600)
I0126 15:33:06.126458   881 layer_factory.hpp:74] Creating layer 3_relu3
I0126 15:33:06.126464   881 net.cpp:90] Creating Layer 3_relu3
I0126 15:33:06.126467   881 net.cpp:410] 3_relu3 <- 3_conv3
I0126 15:33:06.126472   881 net.cpp:357] 3_relu3 -> 3_conv3 (in-place)
I0126 15:33:06.126477   881 net.cpp:120] Setting up 3_relu3
I0126 15:33:06.126483   881 net.cpp:127] Top shape: 350 64 8 8 (1433600)
I0126 15:33:06.126487   881 layer_factory.hpp:74] Creating layer 3_pool3
I0126 15:33:06.126492   881 net.cpp:90] Creating Layer 3_pool3
I0126 15:33:06.126497   881 net.cpp:410] 3_pool3 <- 3_conv3
I0126 15:33:06.126502   881 net.cpp:368] 3_pool3 -> 3_pool3
I0126 15:33:06.126507   881 net.cpp:120] Setting up 3_pool3
I0126 15:33:06.126513   881 net.cpp:127] Top shape: 350 64 4 4 (358400)
I0126 15:33:06.126515   881 layer_factory.hpp:74] Creating layer 3_ip1
I0126 15:33:06.126521   881 net.cpp:90] Creating Layer 3_ip1
I0126 15:33:06.126524   881 net.cpp:410] 3_ip1 <- 3_pool3
I0126 15:33:06.126531   881 net.cpp:368] 3_ip1 -> 3_ip1
I0126 15:33:06.126536   881 net.cpp:120] Setting up 3_ip1
I0126 15:33:06.128015   881 net.cpp:127] Top shape: 350 64 (22400)
I0126 15:33:06.128021   881 layer_factory.hpp:74] Creating layer 3_ip2
I0126 15:33:06.128031   881 net.cpp:90] Creating Layer 3_ip2
I0126 15:33:06.128034   881 net.cpp:410] 3_ip2 <- 3_ip1
I0126 15:33:06.128041   881 net.cpp:368] 3_ip2 -> 3_ip2
I0126 15:33:06.128046   881 net.cpp:120] Setting up 3_ip2
I0126 15:33:06.128075   881 net.cpp:127] Top shape: 350 10 (3500)
I0126 15:33:06.128087   881 layer_factory.hpp:74] Creating layer 3_prob
I0126 15:33:06.128093   881 net.cpp:90] Creating Layer 3_prob
I0126 15:33:06.128096   881 net.cpp:410] 3_prob <- 3_ip2
I0126 15:33:06.128101   881 net.cpp:368] 3_prob -> 3_prob
I0126 15:33:06.128106   881 net.cpp:120] Setting up 3_prob
I0126 15:33:06.128113   881 net.cpp:127] Top shape: 350 10 (3500)
I0126 15:33:06.128118   881 layer_factory.hpp:74] Creating layer loss
I0126 15:33:06.128126   881 net.cpp:90] Creating Layer loss
I0126 15:33:06.128130   881 net.cpp:410] loss <- 1_prob
I0126 15:33:06.128134   881 net.cpp:410] loss <- 2_prob
I0126 15:33:06.128139   881 net.cpp:410] loss <- 3_prob
I0126 15:33:06.128144   881 net.cpp:410] loss <- label
I0126 15:33:06.128150   881 net.cpp:368] loss -> multiple-output loss
I0126 15:33:06.128159   881 net.cpp:368] loss -> batch-instance-counts
I0126 15:33:06.128166   881 net.cpp:368] loss -> train-instance-counts
I0126 15:33:06.128175   881 net.cpp:120] Setting up loss
I0126 15:33:06.128187   881 net.cpp:127] Top shape: 3 1 1 1 (3)
I0126 15:33:06.128190   881 net.cpp:129]     with loss weight 1
I0126 15:33:06.128207   881 net.cpp:127] Top shape: 3 1 1 1 (3)
I0126 15:33:06.128211   881 net.cpp:127] Top shape: 3 1 1 1 (3)
I0126 15:33:06.128216   881 net.cpp:192] loss needs backward computation.
I0126 15:33:06.128219   881 net.cpp:192] 3_prob needs backward computation.
I0126 15:33:06.128222   881 net.cpp:192] 3_ip2 needs backward computation.
I0126 15:33:06.128226   881 net.cpp:192] 3_ip1 needs backward computation.
I0126 15:33:06.128229   881 net.cpp:192] 3_pool3 needs backward computation.
I0126 15:33:06.128232   881 net.cpp:192] 3_relu3 needs backward computation.
…
I0126 15:33:06.129081   881 net.cpp:287] The NetState phase (1) differed from the phase (0) specified by a rule in layer loss
I0126 15:33:06.129226   881 net.cpp:42] Initializing net from parameters: 
name: "CIFAR10_quick"
state {
  phase: TEST
}
layer {
  name: "cifar"
  type: "Data"
  top: "data"
  top: "label"
  include {
    phase: TEST
  }
  transform_param {
    mean_file: "/home/mike/ml_lab/mod/MCL_Caffe/examples/cifar10/mean.binaryproto"
  }
  data_param {
    source: "/home/mike/ml_lab/mod/MCL_Caffe/examples/cifar10/cifar10_test_lmdb"
    batch_size: 100
    backend: LMDB
  }
}
layer {
  name: "1_conv1"
  type: "Convolution"
  bottom: "data"
  top: "1_conv1"
  param {
    lr_mult: 1
  }
  param {
    lr_mult: 2
  }
  convolution_param {
    num_output: 32
    pad: 2
    kernel_size: 5
    stride: 1
    weight_filler {
      type: "gaussian"
      std: 0.0001
    }
    bias_filler {
      type: "constant"
    }
  }
}
layer {
  name: "1_pool1"
  type: "Pooling"
  bottom: "1_conv1"
  top: "1_pool1"
  pooling_param {
    pool: MAX
    kernel_size: 3
    stride: 2
  }
}
layer {
  name: "1_relu1"
  type: "ReLU"
  bottom: "1_pool1"
  top: "1_pool1"
}
layer {
  name: "1_conv2"
  type: "Convolution"
  bottom: "1_pool1"
  top: "1_conv2"
  param {
    lr_mult: 1
  }
  param {
    lr_mult: 2
  }
  convolution_param {
    num_output: 32
    pad: 2
    kernel_size: 5
    stride: 1
    weight_filler {
      type: "gaussian"
      std: 0.01
    }
    bias_filler {
      type: "constant"
    }
  }
}
layer {
  name: "1_relu2"
  type: "ReLU"
  bottom: "1_conv2"
  top: "1_conv2"
}
layer {
  name: "1_pool2"
  type: "Pooling"
  bottom: "1_conv2"
  top: "1_pool2"
  pooling_param {
    pool: AVE
    kernel_size: 3
    stride: 2
  }
}
layer {
  name: "1_conv3"
  type: "Convolution"
  bottom: "1_pool2"
  top: "1_conv3"
  param {
    lr_mult: 1
  }
  param {
    lr_mult: 2
  }
  convolution_param {
    num_output: 64
    pad: 2
    kernel_size: 5
    stride: 1
    weight_filler {
      type: "gaussian"
      std: 0.01
    }
    bias_filler {
      type: "constant"
    }
  }
}
layer {
  name: "1_relu3"
  type: "ReLU"
  bottom: "1_conv3"
  top: "1_conv3"
}
layer {
  name: "1_pool3"
  type: "Pooling"
  bottom: "1_conv3"
  top: "1_pool3"
  pooling_param {
    pool: AVE
    kernel_size: 3
    stride: 2
  }
}
layer {
  name: "1_ip1"
  type: "InnerProduct"
  bottom: "1_pool3"
  top: "1_ip1"
  param {
    lr_mult: 1
  }
  param {
    lr_mult: 2
  }
  inner_product_param {
    num_output: 64
    weight_filler {
      type: "gaussian"
      std: 0.1
    }
    bias_filler {
      type: "constant"
    }
  }
}
layer {
  name: "1_ip2"
  type: "InnerProduct"
  bottom: "1_ip1"
  top: "1_ip2"
  param {
    lr_mult: 1
  }
  param {
    lr_mult: 2
  }
  inner_product_param {
    num_output: 10
    weight_filler {
      type: "gaussian"
      std: 0.1
    }
    bias_filler {
      type: "constant"
    }
  }
}
layer {
  name: "1_prob"
  type: "Softmax"
  bottom: "1_ip2"
  top: "1_prob"
}
layer {
  name: "2_conv1"
  type: "Convolution"
  bottom: "data"
  top: "2_conv1"
  param {
    lr_mult: 1
  }
  param {
    lr_mult: 2
  }
  convolution_param {
    num_output: 32
    pad: 2
    kernel_size: 5
    stride: 1
    weight_filler {
      type: "gaussian"
      std: 0.0001
    }
    bias_filler {
      type: "constant"
    }
  }
}
layer {
  name: "2_pool1"
  type: "Pooling"
  bottom: "2_conv1"
  top: "2_pool1"
  pooling_param {
    pool: MAX
    kernel_size: 3
    stride: 2
  }
}
layer {
  name: "2_relu1"
  type: "ReLU"
  bottom: "2_pool1"
  top: "2_pool1"
}
layer {
  name: "2_conv2"
  type: "Convolution"
  bottom: "2_pool1"
  top: "2_conv2"
  param {
    lr_mult: 1
  }
  param {
    lr_mult: 2
  }
  convolution_param {
    num_output: 32
    pad: 2
    kernel_size: 5
    stride: 1
    weight_filler {
      type: "gaussian"
      std: 0.01
    }
    bias_filler {
      type: "constant"
    }
  }
}
layer {
  name: "2_relu2"
  type: "ReLU"
  bottom: "2_conv2"
  top: "2_conv2"
}
layer {
  name: "2_pool2"
  type: "Pooling"
  bottom: "2_conv2"
  top: "2_pool2"
  pooling_param {
    pool: AVE
    kernel_size: 3
    stride: 2
  }
}
layer {
  name: "2_conv3"
  type: "Convolution"
  bottom: "2_pool2"
  top: "2_conv3"
  param {
    lr_mult: 1
  }
  param {
    lr_mult: 2
  }
  convolution_param {
    num_output: 64
    pad: 2
    kernel_size: 5
    stride: 1
    weight_filler {
      type: "gaussian"
      std: 0.01
    }
    bias_filler {
      type: "constant"
    }
  }
}
layer {
  name: "2_relu3"
  type: "ReLU"
  bottom: "2_conv3"
  top: "2_conv3"
}
layer {
  name: "2_pool3"
  type: "Pooling"
  bottom: "2_conv3"
  top: "2_pool3"
  pooling_param {
    pool: AVE
    kernel_size: 3
    stride: 2
  }
}
layer {
  name: "2_ip1"
  type: "InnerProduct"
  bottom: "2_pool3"
  top: "2_ip1"
  param {
    lr_mult: 1
  }
  param {
    lr_mult: 2
  }
  inner_product_param {
    num_output: 64
    weight_filler {
      type: "gaussian"
      std: 0.1
    }
    bias_filler {
      type: "constant"
    }
  }
}
layer {
  name: "2_ip2"
  type: "InnerProduct"
  bottom: "2_ip1"
  top: "2_ip2"
  param {
    lr_mult: 1
  }
  param {
    lr_mult: 2
  }
  inner_product_param {
    num_output: 10
    weight_filler {
      type: "gaussian"
      std: 0.1
    }
    bias_filler {
      type: "constant"
    }
  }
}
layer {
  name: "2_prob"
  type: "Softmax"
  bottom: "2_ip2"
  top: "2_prob"
}
layer {
  name: "3_conv1"
  type: "Convolution"
  bottom: "data"
  top: "3_conv1"
  param {
    lr_mult: 1
  }
  param {
    lr_mult: 2
  }
  convolution_param {
    num_output: 32
    pad: 2
    kernel_size: 5
    stride: 1
    weight_filler {
      type: "gaussian"
      std: 0.0001
    }
    bias_filler {
      type: "constant"
    }
  }
}
layer {
  name: "3_pool1"
  type: "Pooling"
  bottom: "3_conv1"
  top: "3_pool1"
  pooling_param {
    pool: MAX
    kernel_size: 3
    stride: 2
  }
}
layer {
  name: "3_relu1"
  type: "ReLU"
  bottom: "3_pool1"
  top: "3_pool1"
}
layer {
  name: "3_conv2"
  type: "Convolution"
  bottom: "3_pool1"
  top: "3_conv2"
  param {
    lr_mult: 1
  }
  param {
    lr_mult: 2
  }
  convolution_param {
    num_output: 32
    pad: 2
    kernel_size: 5
    stride: 1
    weight_filler {
      type: "gaussian"
      std: 0.01
    }
    bias_filler {
      type: "constant"
    }
  }
}
layer {
  name: "3_relu2"
  type: "ReLU"
  bottom: "3_conv2"
  top: "3_conv2"
}
layer {
  name: "3_pool2"
  type: "Pooling"
  bottom: "3_conv2"
  top: "3_pool2"
  pooling_param {
    pool: AVE
    kernel_size: 3
    stride: 2
  }
}
layer {
  name: "3_conv3"
  type: "Convolution"
  bottom: "3_pool2"
  top: "3_conv3"
  param {
    lr_mult: 1
  }
  param {
    lr_mult: 2
  }
  convolution_param {
    num_output: 64
    pad: 2
    kernel_size: 5
    stride: 1
    weight_filler {
      type: "gaussian"
      std: 0.01
    }
    bias_filler {
      type: "constant"
    }
  }
}
layer {
  name: "3_relu3"
  type: "ReLU"
  bottom: "3_conv3"
  top: "3_conv3"
}
layer {
  name: "3_pool3"
  type: "Pooling"
  bottom: "3_conv3"
  top: "3_pool3"
  pooling_param {
    pool: AVE
    kernel_size: 3
    stride: 2
  }
}
layer {
  name: "3_ip1"
  type: "InnerProduct"
  bottom: "3_pool3"
  top: "3_ip1"
  param {
    lr_mult: 1
  }
  param {
    lr_mult: 2
  }
  inner_product_param {
    num_output: 64
    weight_filler {
      type: "gaussian"
      std: 0.1
    }
    bias_filler {
      type: "constant"
    }
  }
}
layer {
  name: "3_ip2"
  type: "InnerProduct"
  bottom: "3_ip1"
  top: "3_ip2"
  param {
    lr_mult: 1
  }
  param {
    lr_mult: 2
  }
  inner_product_param {
    num_output: 10
    weight_filler {
      type: "gaussian"
      std: 0.1
    }
    bias_filler {
      type: "constant"
    }
  }
}
layer {
  name: "3_prob"
  type: "Softmax"
  bottom: "3_ip2"
  top: "3_prob"
}
layer {
  name: "1_accuracy"
  type: "Accuracy"
  bottom: "1_prob"
  bottom: "label"
  top: "1_accuracy"
  include {
    phase: TEST
  }
}
layer {
  name: "2_accuracy"
  type: "Accuracy"
  bottom: "2_prob"
  bottom: "label"
  top: "2_accuracy"
  include {
    phase: TEST
  }
}
layer {
  name: "3_accuracy"
  type: "Accuracy"
  bottom: "3_prob"
  bottom: "label"
  top: "3_accuracy"
  include {
    phase: TEST
  }
}
layer {
  name: "accuracy"
  type: "OracleAccuracy"
  bottom: "1_prob"
  bottom: "2_prob"
  bottom: "3_prob"
  bottom: "label"
  top: "oracle accuracy"
  include {
    phase: TEST
  }
}
I0126 15:33:06.129411   881 layer_factory.hpp:74] Creating layer cifar
I0126 15:33:06.129422   881 net.cpp:90] Creating Layer cifar
I0126 15:33:06.129428   881 net.cpp:368] cifar -> data
I0126 15:33:06.129437   881 net.cpp:368] cifar -> label
I0126 15:33:06.129444   881 net.cpp:120] Setting up cifar
I0126 15:33:06.129468   881 db.cpp:34] Opened lmdb /home/mike/ml_lab/mod/MCL_Caffe/examples/cifar10/cifar10_test_lmdb
I0126 15:33:06.129490   881 data_layer.cpp:67] output data size: 100,3,32,32
I0126 15:33:06.129498   881 data_transformer.cpp:22] Loading mean file from: /home/mike/ml_lab/mod/MCL_Caffe/examples/cifar10/mean.binaryproto
I0126 15:33:06.129776   881 net.cpp:127] Top shape: 100 3 32 32 (307200)
I0126 15:33:06.129781   881 net.cpp:127] Top shape: 100 (100)
I0126 15:33:06.129786   881 layer_factory.hpp:74] Creating layer data_cifar_0_split
I0126 15:33:06.129791   881 net.cpp:90] Creating Layer data_cifar_0_split
I0126 15:33:06.129796   881 net.cpp:410] data_cifar_0_split <- data
I0126 15:33:06.129802   881 net.cpp:368] data_cifar_0_split -> data_cifar_0_split_0
I0126 15:33:06.129811   881 net.cpp:368] data_cifar_0_split -> data_cifar_0_split_1
I0126 15:33:06.129817   881 net.cpp:368] data_cifar_0_split -> data_cifar_0_split_2
I0126 15:33:06.129824   881 net.cpp:120] Setting up data_cifar_0_split
I0126 15:33:06.129832   881 net.cpp:127] Top shape: 100 3 32 32 (307200)
I0126 15:33:06.129837   881 net.cpp:127] Top shape: 100 3 32 32 (307200)
I0126 15:33:06.129843   881 net.cpp:127] Top shape: 100 3 32 32 (307200)
I0126 15:33:06.129848   881 layer_factory.hpp:74] Creating layer label_cifar_1_split
I0126 15:33:06.129853   881 net.cpp:90] Creating Layer label_cifar_1_split
I0126 15:33:06.129856   881 net.cpp:410] label_cifar_1_split <- label
I0126 15:33:06.129861   881 net.cpp:368] label_cifar_1_split -> label_cifar_1_split_0
I0126 15:33:06.129868   881 net.cpp:368] label_cifar_1_split -> label_cifar_1_split_1
I0126 15:33:06.129875   881 net.cpp:368] label_cifar_1_split -> label_cifar_1_split_2
I0126 15:33:06.129881   881 net.cpp:368] label_cifar_1_split -> label_cifar_1_split_3
I0126 15:33:06.129887   881 net.cpp:120] Setting up label_cifar_1_split
I0126 15:33:06.129896   881 net.cpp:127] Top shape: 100 (100)
I0126 15:33:06.129901   881 net.cpp:127] Top shape: 100 (100)
I0126 15:33:06.129905   881 net.cpp:127] Top shape: 100 (100)
I0126 15:33:06.129910   881 net.cpp:127] Top shape: 100 (100)
I0126 15:33:06.129925   881 layer_factory.hpp:74] Creating layer 1_conv1
I0126 15:33:06.129931   881 net.cpp:90] Creating Layer 1_conv1
I0126 15:33:06.129940   881 net.cpp:410] 1_conv1 <- data_cifar_0_split_0
I0126 15:33:06.129947   881 net.cpp:368] 1_conv1 -> 1_conv1
I0126 15:33:06.129956   881 net.cpp:120] Setting up 1_conv1
I0126 15:33:06.130023   881 net.cpp:127] Top shape: 100 32 32 32 (3276800)
I0126 15:33:06.130036   881 layer_factory.hpp:74] Creating layer 1_pool1
I0126 15:33:06.130044   881 net.cpp:90] Creating Layer 1_pool1
I0126 15:33:06.130048   881 net.cpp:410] 1_pool1 <- 1_conv1
I0126 15:33:06.130054   881 net.cpp:368] 1_pool1 -> 1_pool1
I0126 15:33:06.130060   881 net.cpp:120] Setting up 1_pool1
I0126 15:33:06.130069   881 net.cpp:127] Top shape: 100 32 16 16 (819200)
I0126 15:33:06.130072   881 layer_factory.hpp:74] Creating layer 1_relu1
I0126 15:33:06.130077   881 net.cpp:90] Creating Layer 1_relu1
I0126 15:33:06.130081   881 net.cpp:410] 1_relu1 <- 1_pool1
I0126 15:33:06.130089   881 net.cpp:357] 1_relu1 -> 1_pool1 (in-place)
I0126 15:33:06.130094   881 net.cpp:120] Setting up 1_relu1
I0126 15:33:06.130107   881 net.cpp:127] Top shape: 100 32 16 16 (819200)
I0126 15:33:06.130111   881 layer_factory.hpp:74] Creating layer 1_conv2
I0126 15:33:06.130117   881 net.cpp:90] Creating Layer 1_conv2
I0126 15:33:06.130121   881 net.cpp:410] 1_conv2 <- 1_pool1
I0126 15:33:06.130127   881 net.cpp:368] 1_conv2 -> 1_conv2
I0126 15:33:06.130134   881 net.cpp:120] Setting up 1_conv2
I0126 15:33:06.130715   881 net.cpp:127] Top shape: 100 32 16 16 (819200)
I0126 15:33:06.130724   881 layer_factory.hpp:74] Creating layer 1_relu2
I0126 15:33:06.130738   881 net.cpp:90] Creating Layer 1_relu2
I0126 15:33:06.130743   881 net.cpp:410] 1_relu2 <- 1_conv2
I0126 15:33:06.130749   881 net.cpp:357] 1_relu2 -> 1_conv2 (in-place)
I0126 15:33:06.130755   881 net.cpp:120] Setting up 1_relu2
I0126 15:33:06.130762   881 net.cpp:127] Top shape: 100 32 16 16 (819200)
I0126 15:33:06.130766   881 layer_factory.hpp:74] Creating layer 1_pool2
I0126 15:33:06.130771   881 net.cpp:90] Creating Layer 1_pool2
I0126 15:33:06.130776   881 net.cpp:410] 1_pool2 <- 1_conv2
I0126 15:33:06.130781   881 net.cpp:368] 1_pool2 -> 1_pool2
I0126 15:33:06.130787   881 net.cpp:120] Setting up 1_pool2
I0126 15:33:06.130795   881 net.cpp:127] Top shape: 100 32 8 8 (204800)
I0126 15:33:06.130798   881 layer_factory.hpp:74] Creating layer 1_conv3
I0126 15:33:06.130805   881 net.cpp:90] Creating Layer 1_conv3
I0126 15:33:06.130810   881 net.cpp:410] 1_conv3 <- 1_pool2
I0126 15:33:06.130815   881 net.cpp:368] 1_conv3 -> 1_conv3
I0126 15:33:06.130822   881 net.cpp:120] Setting up 1_conv3
I0126 15:33:06.131973   881 net.cpp:127] Top shape: 100 64 8 8 (409600)
I0126 15:33:06.131981   881 layer_factory.hpp:74] Creating layer 1_relu3
I0126 15:33:06.131986   881 net.cpp:90] Creating Layer 1_relu3
I0126 15:33:06.131999   881 net.cpp:410] 1_relu3 <- 1_conv3
I0126 15:33:06.132007   881 net.cpp:357] 1_relu3 -> 1_conv3 (in-place)
I0126 15:33:06.132014   881 net.cpp:120] Setting up 1_relu3
I0126 15:33:06.132020   881 net.cpp:127] Top shape: 100 64 8 8 (409600)
I0126 15:33:06.132025   881 layer_factory.hpp:74] Creating layer 1_pool3
I0126 15:33:06.132030   881 net.cpp:90] Creating Layer 1_pool3
I0126 15:33:06.132035   881 net.cpp:410] 1_pool3 <- 1_conv3
I0126 15:33:06.132040   881 net.cpp:368] 1_pool3 -> 1_pool3
I0126 15:33:06.132046   881 net.cpp:120] Setting up 1_pool3
I0126 15:33:06.132053   881 net.cpp:127] Top shape: 100 64 4 4 (102400)
I0126 15:33:06.132058   881 layer_factory.hpp:74] Creating layer 1_ip1
I0126 15:33:06.132063   881 net.cpp:90] Creating Layer 1_ip1
I0126 15:33:06.132067   881 net.cpp:410] 1_ip1 <- 1_pool3
I0126 15:33:06.132074   881 net.cpp:368] 1_ip1 -> 1_ip1
I0126 15:33:06.132081   881 net.cpp:120] Setting up 1_ip1
I0126 15:33:06.133551   881 net.cpp:127] Top shape: 100 64 (6400)
I0126 15:33:06.133558   881 layer_factory.hpp:74] Creating layer 1_ip2
I0126 15:33:06.133564   881 net.cpp:90] Creating Layer 1_ip2
I0126 15:33:06.133569   881 net.cpp:410] 1_ip2 <- 1_ip1
I0126 15:33:06.133575   881 net.cpp:368] 1_ip2 -> 1_ip2
I0126 15:33:06.133584   881 net.cpp:120] Setting up 1_ip2
I0126 15:33:06.133610   881 net.cpp:127] Top shape: 100 10 (1000)
I0126 15:33:06.133617   881 layer_factory.hpp:74] Creating layer 1_prob
I0126 15:33:06.133623   881 net.cpp:90] Creating Layer 1_prob
I0126 15:33:06.133627   881 net.cpp:410] 1_prob <- 1_ip2
I0126 15:33:06.133642   881 net.cpp:368] 1_prob -> 1_prob
I0126 15:33:06.133649   881 net.cpp:120] Setting up 1_prob
I0126 15:33:06.133657   881 net.cpp:127] Top shape: 100 10 (1000)
I0126 15:33:06.133661   881 layer_factory.hpp:74] Creating layer 1_prob_1_prob_0_split
I0126 15:33:06.133666   881 net.cpp:90] Creating Layer 1_prob_1_prob_0_split
I0126 15:33:06.133671   881 net.cpp:410] 1_prob_1_prob_0_split <- 1_prob
I0126 15:33:06.133675   881 net.cpp:368] 1_prob_1_prob_0_split -> 1_prob_1_prob_0_split_0
I0126 15:33:06.133682   881 net.cpp:368] 1_prob_1_prob_0_split -> 1_prob_1_prob_0_split_1
I0126 15:33:06.133687   881 net.cpp:120] Setting up 1_prob_1_prob_0_split
I0126 15:33:06.133693   881 net.cpp:127] Top shape: 100 10 (1000)
I0126 15:33:06.133698   881 net.cpp:127] Top shape: 100 10 (1000)
I0126 15:33:06.133713   881 layer_factory.hpp:74] Creating layer 2_conv1
I0126 15:33:06.133721   881 net.cpp:90] Creating Layer 2_conv1
I0126 15:33:06.133726   881 net.cpp:410] 2_conv1 <- data_cifar_0_split_1
I0126 15:33:06.133733   881 net.cpp:368] 2_conv1 -> 2_conv1
I0126 15:33:06.133739   881 net.cpp:120] Setting up 2_conv1
I0126 15:33:06.133806   881 net.cpp:127] Top shape: 100 32 32 32 (3276800)
I0126 15:33:06.133813   881 layer_factory.hpp:74] Creating layer 2_pool1
I0126 15:33:06.133819   881 net.cpp:90] Creating Layer 2_pool1
I0126 15:33:06.133823   881 net.cpp:410] 2_pool1 <- 2_conv1
I0126 15:33:06.133828   881 net.cpp:368] 2_pool1 -> 2_pool1
I0126 15:33:06.133834   881 net.cpp:120] Setting up 2_pool1
I0126 15:33:06.133842   881 net.cpp:127] Top shape: 100 32 16 16 (819200)
I0126 15:33:06.133846   881 layer_factory.hpp:74] Creating layer 2_relu1
I0126 15:33:06.133852   881 net.cpp:90] Creating Layer 2_relu1
I0126 15:33:06.133855   881 net.cpp:410] 2_relu1 <- 2_pool1
I0126 15:33:06.133862   881 net.cpp:357] 2_relu1 -> 2_pool1 (in-place)
I0126 15:33:06.133867   881 net.cpp:120] Setting up 2_relu1
I0126 15:33:06.133880   881 net.cpp:127] Top shape: 100 32 16 16 (819200)
I0126 15:33:06.133884   881 layer_factory.hpp:74] Creating layer 2_conv2
I0126 15:33:06.133889   881 net.cpp:90] Creating Layer 2_conv2
I0126 15:33:06.133894   881 net.cpp:410] 2_conv2 <- 2_pool1
I0126 15:33:06.133900   881 net.cpp:368] 2_conv2 -> 2_conv2
I0126 15:33:06.133906   881 net.cpp:120] Setting up 2_conv2
I0126 15:33:06.134488   881 net.cpp:127] Top shape: 100 32 16 16 (819200)
I0126 15:33:06.134495   881 layer_factory.hpp:74] Creating layer 2_relu2
I0126 15:33:06.134503   881 net.cpp:90] Creating Layer 2_relu2
I0126 15:33:06.134505   881 net.cpp:410] 2_relu2 <- 2_conv2
I0126 15:33:06.134508   881 net.cpp:357] 2_relu2 -> 2_conv2 (in-place)
I0126 15:33:06.134511   881 net.cpp:120] Setting up 2_relu2
I0126 15:33:06.134516   881 net.cpp:127] Top shape: 100 32 16 16 (819200)
I0126 15:33:06.134517   881 layer_factory.hpp:74] Creating layer 2_pool2
I0126 15:33:06.134519   881 net.cpp:90] Creating Layer 2_pool2
I0126 15:33:06.134521   881 net.cpp:410] 2_pool2 <- 2_conv2
I0126 15:33:06.134524   881 net.cpp:368] 2_pool2 -> 2_pool2
I0126 15:33:06.134527   881 net.cpp:120] Setting up 2_pool2
I0126 15:33:06.134533   881 net.cpp:127] Top shape: 100 32 8 8 (204800)
I0126 15:33:06.134536   881 layer_factory.hpp:74] Creating layer 2_conv3
I0126 15:33:06.134552   881 net.cpp:90] Creating Layer 2_conv3
I0126 15:33:06.134557   881 net.cpp:410] 2_conv3 <- 2_pool2
I0126 15:33:06.134562   881 net.cpp:368] 2_conv3 -> 2_conv3
I0126 15:33:06.134575   881 net.cpp:120] Setting up 2_conv3
I0126 15:33:06.135727   881 net.cpp:127] Top shape: 100 64 8 8 (409600)
I0126 15:33:06.135735   881 layer_factory.hpp:74] Creating layer 2_relu3
I0126 15:33:06.135741   881 net.cpp:90] Creating Layer 2_relu3
I0126 15:33:06.135743   881 net.cpp:410] 2_relu3 <- 2_conv3
I0126 15:33:06.135747   881 net.cpp:357] 2_relu3 -> 2_conv3 (in-place)
I0126 15:33:06.135749   881 net.cpp:120] Setting up 2_relu3
I0126 15:33:06.135752   881 net.cpp:127] Top shape: 100 64 8 8 (409600)
I0126 15:33:06.135754   881 layer_factory.hpp:74] Creating layer 2_pool3
I0126 15:33:06.135757   881 net.cpp:90] Creating Layer 2_pool3
I0126 15:33:06.135764   881 net.cpp:410] 2_pool3 <- 2_conv3
I0126 15:33:06.135768   881 net.cpp:368] 2_pool3 -> 2_pool3
I0126 15:33:06.135773   881 net.cpp:120] Setting up 2_pool3
I0126 15:33:06.135782   881 net.cpp:127] Top shape: 100 64 4 4 (102400)
I0126 15:33:06.135787   881 layer_factory.hpp:74] Creating layer 2_ip1
I0126 15:33:06.135792   881 net.cpp:90] Creating Layer 2_ip1
I0126 15:33:06.135797   881 net.cpp:410] 2_ip1 <- 2_pool3
I0126 15:33:06.135802   881 net.cpp:368] 2_ip1 -> 2_ip1
I0126 15:33:06.135808   881 net.cpp:120] Setting up 2_ip1
I0126 15:33:06.137279   881 net.cpp:127] Top shape: 100 64 (6400)
I0126 15:33:06.137289   881 layer_factory.hpp:74] Creating layer 2_ip2
I0126 15:33:06.137295   881 net.cpp:90] Creating Layer 2_ip2
I0126 15:33:06.137300   881 net.cpp:410] 2_ip2 <- 2_ip1
I0126 15:33:06.137316   881 net.cpp:368] 2_ip2 -> 2_ip2
I0126 15:33:06.137322   881 net.cpp:120] Setting up 2_ip2
I0126 15:33:06.137356   881 net.cpp:127] Top shape: 100 10 (1000)
I0126 15:33:06.137362   881 layer_factory.hpp:74] Creating layer 2_prob
I0126 15:33:06.137368   881 net.cpp:90] Creating Layer 2_prob
I0126 15:33:06.137372   881 net.cpp:410] 2_prob <- 2_ip2
I0126 15:33:06.137377   881 net.cpp:368] 2_prob -> 2_prob
I0126 15:33:06.137384   881 net.cpp:120] Setting up 2_prob
I0126 15:33:06.137392   881 net.cpp:127] Top shape: 100 10 (1000)
I0126 15:33:06.137395   881 layer_factory.hpp:74] Creating layer 2_prob_2_prob_0_split
I0126 15:33:06.137401   881 net.cpp:90] Creating Layer 2_prob_2_prob_0_split
I0126 15:33:06.137405   881 net.cpp:410] 2_prob_2_prob_0_split <- 2_prob
I0126 15:33:06.137410   881 net.cpp:368] 2_prob_2_prob_0_split -> 2_prob_2_prob_0_split_0
I0126 15:33:06.137418   881 net.cpp:368] 2_prob_2_prob_0_split -> 2_prob_2_prob_0_split_1
I0126 15:33:06.137423   881 net.cpp:120] Setting up 2_prob_2_prob_0_split
I0126 15:33:06.137430   881 net.cpp:127] Top shape: 100 10 (1000)
I0126 15:33:06.137435   881 net.cpp:127] Top shape: 100 10 (1000)
I0126 15:33:06.137447   881 layer_factory.hpp:74] Creating layer 3_conv1
I0126 15:33:06.137455   881 net.cpp:90] Creating Layer 3_conv1
I0126 15:33:06.137460   881 net.cpp:410] 3_conv1 <- data_cifar_0_split_2
I0126 15:33:06.137466   881 net.cpp:368] 3_conv1 -> 3_conv1
I0126 15:33:06.137472   881 net.cpp:120] Setting up 3_conv1
I0126 15:33:06.137542   881 net.cpp:127] Top shape: 100 32 32 32 (3276800)
I0126 15:33:06.137547   881 layer_factory.hpp:74] Creating layer 3_pool1
I0126 15:33:06.137555   881 net.cpp:90] Creating Layer 3_pool1
I0126 15:33:06.137559   881 net.cpp:410] 3_pool1 <- 3_conv1
I0126 15:33:06.137564   881 net.cpp:368] 3_pool1 -> 3_pool1
I0126 15:33:06.137573   881 net.cpp:120] Setting up 3_pool1
I0126 15:33:06.137580   881 net.cpp:127] Top shape: 100 32 16 16 (819200)
I0126 15:33:06.137584   881 layer_factory.hpp:74] Creating layer 3_relu1
I0126 15:33:06.137589   881 net.cpp:90] Creating Layer 3_relu1
I0126 15:33:06.137593   881 net.cpp:410] 3_relu1 <- 3_pool1
I0126 15:33:06.137598   881 net.cpp:357] 3_relu1 -> 3_pool1 (in-place)
I0126 15:33:06.137603   881 net.cpp:120] Setting up 3_relu1
I0126 15:33:06.137609   881 net.cpp:127] Top shape: 100 32 16 16 (819200)
I0126 15:33:06.137614   881 layer_factory.hpp:74] Creating layer 3_conv2
I0126 15:33:06.137622   881 net.cpp:90] Creating Layer 3_conv2
I0126 15:33:06.137626   881 net.cpp:410] 3_conv2 <- 3_pool1
I0126 15:33:06.137631   881 net.cpp:368] 3_conv2 -> 3_conv2
I0126 15:33:06.137639   881 net.cpp:120] Setting up 3_conv2
I0126 15:33:06.138218   881 net.cpp:127] Top shape: 100 32 16 16 (819200)
I0126 15:33:06.138226   881 layer_factory.hpp:74] Creating layer 3_relu2
I0126 15:33:06.138231   881 net.cpp:90] Creating Layer 3_relu2
I0126 15:33:06.138234   881 net.cpp:410] 3_relu2 <- 3_conv2
I0126 15:33:06.138238   881 net.cpp:357] 3_relu2 -> 3_conv2 (in-place)
I0126 15:33:06.138242   881 net.cpp:120] Setting up 3_relu2
I0126 15:33:06.138244   881 net.cpp:127] Top shape: 100 32 16 16 (819200)
I0126 15:33:06.138245   881 layer_factory.hpp:74] Creating layer 3_pool2
I0126 15:33:06.138248   881 net.cpp:90] Creating Layer 3_pool2
I0126 15:33:06.138257   881 net.cpp:410] 3_pool2 <- 3_conv2
I0126 15:33:06.138262   881 net.cpp:368] 3_pool2 -> 3_pool2
I0126 15:33:06.138267   881 net.cpp:120] Setting up 3_pool2
I0126 15:33:06.138275   881 net.cpp:127] Top shape: 100 32 8 8 (204800)
I0126 15:33:06.138279   881 layer_factory.hpp:74] Creating layer 3_conv3
I0126 15:33:06.138286   881 net.cpp:90] Creating Layer 3_conv3
I0126 15:33:06.138290   881 net.cpp:410] 3_conv3 <- 3_pool2
I0126 15:33:06.138296   881 net.cpp:368] 3_conv3 -> 3_conv3
I0126 15:33:06.138303   881 net.cpp:120] Setting up 3_conv3
I0126 15:33:06.139453   881 net.cpp:127] Top shape: 100 64 8 8 (409600)
I0126 15:33:06.139461   881 layer_factory.hpp:74] Creating layer 3_relu3
I0126 15:33:06.139466   881 net.cpp:90] Creating Layer 3_relu3
I0126 15:33:06.139469   881 net.cpp:410] 3_relu3 <- 3_conv3
I0126 15:33:06.139475   881 net.cpp:357] 3_relu3 -> 3_conv3 (in-place)
I0126 15:33:06.139480   881 net.cpp:120] Setting up 3_relu3
I0126 15:33:06.139485   881 net.cpp:127] Top shape: 100 64 8 8 (409600)
I0126 15:33:06.139488   881 layer_factory.hpp:74] Creating layer 3_pool3
I0126 15:33:06.139493   881 net.cpp:90] Creating Layer 3_pool3
I0126 15:33:06.139497   881 net.cpp:410] 3_pool3 <- 3_conv3
I0126 15:33:06.139503   881 net.cpp:368] 3_pool3 -> 3_pool3
I0126 15:33:06.139508   881 net.cpp:120] Setting up 3_pool3
I0126 15:33:06.139513   881 net.cpp:127] Top shape: 100 64 4 4 (102400)
I0126 15:33:06.139518   881 layer_factory.hpp:74] Creating layer 3_ip1
I0126 15:33:06.139523   881 net.cpp:90] Creating Layer 3_ip1
I0126 15:33:06.139525   881 net.cpp:410] 3_ip1 <- 3_pool3
I0126 15:33:06.139533   881 net.cpp:368] 3_ip1 -> 3_ip1
I0126 15:33:06.139538   881 net.cpp:120] Setting up 3_ip1
I0126 15:33:06.141005   881 net.cpp:127] Top shape: 100 64 (6400)
I0126 15:33:06.141012   881 layer_factory.hpp:74] Creating layer 3_ip2
I0126 15:33:06.141019   881 net.cpp:90] Creating Layer 3_ip2
I0126 15:33:06.141023   881 net.cpp:410] 3_ip2 <- 3_ip1
I0126 15:33:06.141028   881 net.cpp:368] 3_ip2 -> 3_ip2
I0126 15:33:06.141034   881 net.cpp:120] Setting up 3_ip2
I0126 15:33:06.141060   881 net.cpp:127] Top shape: 100 10 (1000)
I0126 15:33:06.141067   881 layer_factory.hpp:74] Creating layer 3_prob
I0126 15:33:06.141072   881 net.cpp:90] Creating Layer 3_prob
I0126 15:33:06.141077   881 net.cpp:410] 3_prob <- 3_ip2
I0126 15:33:06.141082   881 net.cpp:368] 3_prob -> 3_prob
I0126 15:33:06.141088   881 net.cpp:120] Setting up 3_prob
I0126 15:33:06.141093   881 net.cpp:127] Top shape: 100 10 (1000)
I0126 15:33:06.141098   881 layer_factory.hpp:74] Creating layer 3_prob_3_prob_0_split
I0126 15:33:06.141101   881 net.cpp:90] Creating Layer 3_prob_3_prob_0_split
I0126 15:33:06.141106   881 net.cpp:410] 3_prob_3_prob_0_split <- 3_prob
I0126 15:33:06.141111   881 net.cpp:368] 3_prob_3_prob_0_split -> 3_prob_3_prob_0_split_0
I0126 15:33:06.141116   881 net.cpp:368] 3_prob_3_prob_0_split -> 3_prob_3_prob_0_split_1
I0126 15:33:06.141129   881 net.cpp:120] Setting up 3_prob_3_prob_0_split
I0126 15:33:06.141135   881 net.cpp:127] Top shape: 100 10 (1000)
I0126 15:33:06.141140   881 net.cpp:127] Top shape: 100 10 (1000)
I0126 15:33:06.141144   881 layer_factory.hpp:74] Creating layer 1_accuracy
I0126 15:33:06.141149   881 net.cpp:90] Creating Layer 1_accuracy
I0126 15:33:06.141152   881 net.cpp:410] 1_accuracy <- 1_prob_1_prob_0_split_0
I0126 15:33:06.141157   881 net.cpp:410] 1_accuracy <- label_cifar_1_split_0
I0126 15:33:06.141165   881 net.cpp:368] 1_accuracy -> 1_accuracy
I0126 15:33:06.141170   881 net.cpp:120] Setting up 1_accuracy
…
