…
I0126 15:34:05.184651  1136 net.cpp:287] The NetState phase (0) differed from the phase (1) specified by a rule in layer accuracy
I0126 15:34:05.184785  1136 net.cpp:42] Initializing net from parameters: 
name: "CIFAR10_quick"
state {
  phase: TRAIN
}
layer {
  name: "cifar"
  type: "Data"
  top: "data"
  top: "label"
  include {
    phase: TRAIN
  }
  transform_param {
    mean_file: "/home/mike/ml_lab/mod/MCL_Caffe/examples/cifar10/mean.binaryproto"
  }
  data_param {
    source: "/home/mike/ml_lab/mod/MCL_Caffe/examples/cifar10/cifar10_train_lmdb"
    batch_size: 350
    backend: LMDB
  }
}
layer {
  name: "1_conv1"
  type: "Convolution"
  bottom: "data"
  top: "1_conv1"
  param {
    lr_mult: 1
  }
  param {
    lr_mult: 2
  }
  convolution_param {
    num_output: 32
    pad: 2
    kernel_size: 5
    stride: 1
    weight_filler {
      type: "gaussian"
      std: 0.0001
    }
    bias_filler {
      type: "constant"
    }
  }
}
layer {
  name: "1_pool1"
  type: "Pooling"
  bottom: "1_conv1"
  top: "1_pool1"
  pooling_param {
    pool: MAX
    kernel_size: 3
    stride: 2
  }
}
layer {
  name: "1_relu1"
  type: "ReLU"
  bottom: "1_pool1"
  top: "1_pool1"
}
layer {
  name: "1_conv2"
  type: "Convolution"
  bottom: "1_pool1"
  top: "1_conv2"
  param {
    lr_mult: 1
  }
  param {
    lr_mult: 2
  }
  convolution_param {
    num_output: 32
    pad: 2
    kernel_size: 5
    stride: 1
    weight_filler {
      type: "gaussian"
      std: 0.01
    }
    bias_filler {
      type: "constant"
    }
  }
}
layer {
  name: "1_relu2"
  type: "ReLU"
  bottom: "1_conv2"
  top: "1_conv2"
}
layer {
  name: "1_pool2"
  type: "Pooling"
  bottom: "1_conv2"
  top: "1_pool2"
  pooling_param {
    pool: AVE
    kernel_size: 3
    stride: 2
  }
}
layer {
  name: "1_conv3"
  type: "Convolution"
  bottom: "1_pool2"
  top: "1_conv3"
  param {
    lr_mult: 1
  }
  param {
    lr_mult: 2
  }
  convolution_param {
    num_output: 64
    pad: 2
    kernel_size: 5
    stride: 1
    weight_filler {
      type: "gaussian"
      std: 0.01
    }
    bias_filler {
      type: "constant"
    }
  }
}
layer {
  name: "1_relu3"
  type: "ReLU"
  bottom: "1_conv3"
  top: "1_conv3"
}
layer {
  name: "1_pool3"
  type: "Pooling"
  bottom: "1_conv3"
  top: "1_pool3"
  pooling_param {
    pool: AVE
    kernel_size: 3
    stride: 2
  }
}
layer {
  name: "1_ip1"
  type: "InnerProduct"
  bottom: "1_pool3"
  top: "1_ip1"
  param {
    lr_mult: 1
  }
  param {
    lr_mult: 2
  }
  inner_product_param {
    num_output: 64
    weight_filler {
      type: "gaussian"
      std: 0.1
    }
    bias_filler {
      type: "constant"
    }
  }
}
layer {
  name: "1_ip2"
  type: "InnerProduct"
  bottom: "1_ip1"
  top: "1_ip2"
  param {
    lr_mult: 1
  }
  param {
    lr_mult: 2
  }
  inner_product_param {
    num_output: 10
    weight_filler {
      type: "gaussian"
      std: 0.1
    }
    bias_filler {
      type: "constant"
    }
  }
}
layer {
  name: "1_prob"
  type: "Softmax"
  bottom: "1_ip2"
  top: "1_prob"
}
layer {
  name: "2_conv1"
  type: "Convolution"
  bottom: "data"
  top: "2_conv1"
  param {
    lr_mult: 1
  }
  param {
    lr_mult: 2
  }
  convolution_param {
    num_output: 32
    pad: 2
    kernel_size: 5
    stride: 1
    weight_filler {
      type: "gaussian"
      std: 0.0001
    }
    bias_filler {
      type: "constant"
    }
  }
}
layer {
  name: "2_pool1"
  type: "Pooling"
  bottom: "2_conv1"
  top: "2_pool1"
  pooling_param {
    pool: MAX
    kernel_size: 3
    stride: 2
  }
}
layer {
  name: "2_relu1"
  type: "ReLU"
  bottom: "2_pool1"
  top: "2_pool1"
}
layer {
  name: "2_conv2"
  type: "Convolution"
  bottom: "2_pool1"
  top: "2_conv2"
  param {
    lr_mult: 1
  }
  param {
    lr_mult: 2
  }
  convolution_param {
    num_output: 32
    pad: 2
    kernel_size: 5
    stride: 1
    weight_filler {
      type: "gaussian"
      std: 0.01
    }
    bias_filler {
      type: "constant"
    }
  }
}
layer {
  name: "2_relu2"
  type: "ReLU"
  bottom: "2_conv2"
  top: "2_conv2"
}
layer {
  name: "2_pool2"
  type: "Pooling"
  bottom: "2_conv2"
  top: "2_pool2"
  pooling_param {
    pool: AVE
    kernel_size: 3
    stride: 2
  }
}
layer {
  name: "2_conv3"
  type: "Convolution"
  bottom: "2_pool2"
  top: "2_conv3"
  param {
    lr_mult: 1
  }
  param {
    lr_mult: 2
  }
  convolution_param {
    num_output: 64
    pad: 2
    kernel_size: 5
    stride: 1
    weight_filler {
      type: "gaussian"
      std: 0.01
    }
    bias_filler {
      type: "constant"
    }
  }
}
layer {
  name: "2_relu3"
  type: "ReLU"
  bottom: "2_conv3"
  top: "2_conv3"
}
layer {
  name: "2_pool3"
  type: "Pooling"
  bottom: "2_conv3"
  top: "2_pool3"
  pooling_param {
    pool: AVE
    kernel_size: 3
    stride: 2
  }
}
layer {
  name: "2_ip1"
  type: "InnerProduct"
  bottom: "2_pool3"
  top: "2_ip1"
  param {
    lr_mult: 1
  }
  param {
    lr_mult: 2
  }
  inner_product_param {
    num_output: 64
    weight_filler {
      type: "gaussian"
      std: 0.1
    }
    bias_filler {
      type: "constant"
    }
  }
}
layer {
  name: "2_ip2"
  type: "InnerProduct"
  bottom: "2_ip1"
  top: "2_ip2"
  param {
    lr_mult: 1
  }
  param {
    lr_mult: 2
  }
  inner_product_param {
    num_output: 10
    weight_filler {
      type: "gaussian"
      std: 0.1
    }
    bias_filler {
      type: "constant"
    }
  }
}
layer {
  name: "2_prob"
  type: "Softmax"
  bottom: "2_ip2"
  top: "2_prob"
}
layer {
  name: "3_conv1"
  type: "Convolution"
  bottom: "data"
  top: "3_conv1"
  param {
    lr_mult: 1
  }
  param {
    lr_mult: 2
  }
  convolution_param {
    num_output: 32
    pad: 2
    kernel_size: 5
    stride: 1
    weight_filler {
      type: "gaussian"
      std: 0.0001
    }
    bias_filler {
      type: "constant"
    }
  }
}
layer {
  name: "3_pool1"
  type: "Pooling"
  bottom: "3_conv1"
  top: "3_pool1"
  pooling_param {
    pool: MAX
    kernel_size: 3
    stride: 2
  }
}
layer {
  name: "3_relu1"
  type: "ReLU"
  bottom: "3_pool1"
  top: "3_pool1"
}
layer {
  name: "3_conv2"
  type: "Convolution"
  bottom: "3_pool1"
  top: "3_conv2"
  param {
    lr_mult: 1
  }
  param {
    lr_mult: 2
  }
  convolution_param {
    num_output: 32
    pad: 2
    kernel_size: 5
    stride: 1
    weight_filler {
      type: "gaussian"
      std: 0.01
    }
    bias_filler {
      type: "constant"
    }
  }
}
layer {
  name: "3_relu2"
  type: "ReLU"
  bottom: "3_conv2"
  top: "3_conv2"
}
layer {
  name: "3_pool2"
  type: "Pooling"
  bottom: "3_conv2"
  top: "3_pool2"
  pooling_param {
    pool: AVE
    kernel_size: 3
    stride: 2
  }
}
layer {
  name: "3_conv3"
  type: "Convolution"
  bottom: "3_pool2"
  top: "3_conv3"
  param {
    lr_mult: 1
  }
  param {
    lr_mult: 2
  }
  convolution_param {
    num_output: 64
    pad: 2
    kernel_size: 5
    stride: 1
    weight_filler {
      type: "gaussian"
      std: 0.01
    }
    bias_filler {
      type: "constant"
    }
  }
}
layer {
  name: "3_relu3"
  type: "ReLU"
  bottom: "3_conv3"
  top: "3_conv3"
}
layer {
  name: "3_pool3"
  type: "Pooling"
  bottom: "3_conv3"
  top: "3_pool3"
  pooling_param {
    pool: AVE
    kernel_size: 3
    stride: 2
  }
}
layer {
  name: "3_ip1"
  type: "InnerProduct"
  bottom: "3_pool3"
  top: "3_ip1"
  param {
    lr_mult: 1
  }
  param {
    lr_mult: 2
  }
  inner_product_param {
    num_output: 64
    weight_filler {
      type: "gaussian"
      std: 0.1
    }
    bias_filler {
      type: "constant"
    }
  }
}
layer {
  name: "3_ip2"
  type: "InnerProduct"
  bottom: "3_ip1"
  top: "3_ip2"
  param {
    lr_mult: 1
  }
  param {
    lr_mult: 2
  }
  inner_product_param {
    num_output: 10
    weight_filler {
      type: "gaussian"
      std: 0.1
    }
    bias_filler {
      type: "constant"
    }
  }
}
layer {
  name: "3_prob"
  type: "Softmax"
  bottom: "3_ip2"
  top: "3_prob"
}
layer {
  name: "loss"
  type: "ODMultinomialLogisticLoss"
  bottom: "1_prob"
  bottom: "2_prob"
  bottom: "3_prob"
  bottom: "label"
  top: "multiple-output loss"
  top: "batch-instance-counts"
  top: "train-instance-counts"
  loss_weight: 1
  loss_weight: 0
  loss_weight: 0
  include {
    phase: TRAIN
  }
}
I0126 15:34:05.184922  1136 layer_factory.hpp:74] Creating layer cifar
I0126 15:34:05.184942  1136 net.cpp:90] Creating Layer cifar
I0126 15:34:05.184950  1136 net.cpp:368] cifar -> data
I0126 15:34:05.184983  1136 net.cpp:368] cifar -> label
I0126 15:34:05.184995  1136 net.cpp:120] Setting up cifar
I0126 15:34:05.185041  1136 db.cpp:34] Opened lmdb /home/mike/ml_lab/mod/MCL_Caffe/examples/cifar10/cifar10_train_lmdb
I0126 15:34:05.185080  1136 data_layer.cpp:67] output data size: 350,3,32,32
I0126 15:34:05.185088  1136 data_transformer.cpp:22] Loading mean file from: /home/mike/ml_lab/mod/MCL_Caffe/examples/cifar10/mean.binaryproto
I0126 15:34:05.185540  1136 net.cpp:127] Top shape: 350 3 32 32 (1075200)
I0126 15:34:05.185547  1136 net.cpp:127] Top shape: 350 (350)
I0126 15:34:05.185554  1136 layer_factory.hpp:74] Creating layer data_cifar_0_split
I0126 15:34:05.185562  1136 net.cpp:90] Creating Layer data_cifar_0_split
I0126 15:34:05.185569  1136 net.cpp:410] data_cifar_0_split <- data
I0126 15:34:05.185578  1136 net.cpp:368] data_cifar_0_split -> data_cifar_0_split_0
I0126 15:34:05.185586  1136 net.cpp:368] data_cifar_0_split -> data_cifar_0_split_1
I0126 15:34:05.185595  1136 net.cpp:368] data_cifar_0_split -> data_cifar_0_split_2
I0126 15:34:05.185601  1136 net.cpp:120] Setting up data_cifar_0_split
I0126 15:34:05.185611  1136 net.cpp:127] Top shape: 350 3 32 32 (1075200)
I0126 15:34:05.185614  1136 net.cpp:127] Top shape: 350 3 32 32 (1075200)
I0126 15:34:05.185629  1136 net.cpp:127] Top shape: 350 3 32 32 (1075200)
I0126 15:34:05.185634  1136 layer_factory.hpp:74] Creating layer 1_conv1
I0126 15:34:05.185643  1136 net.cpp:90] Creating Layer 1_conv1
I0126 15:34:05.185647  1136 net.cpp:410] 1_conv1 <- data_cifar_0_split_0
I0126 15:34:05.185654  1136 net.cpp:368] 1_conv1 -> 1_conv1
I0126 15:34:05.185663  1136 net.cpp:120] Setting up 1_conv1
I0126 15:34:05.186064  1136 net.cpp:127] Top shape: 350 32 32 32 (11468800)
I0126 15:34:05.186075  1136 layer_factory.hpp:74] Creating layer 1_pool1
I0126 15:34:05.186082  1136 net.cpp:90] Creating Layer 1_pool1
I0126 15:34:05.186086  1136 net.cpp:410] 1_pool1 <- 1_conv1
I0126 15:34:05.186091  1136 net.cpp:368] 1_pool1 -> 1_pool1
I0126 15:34:05.186100  1136 net.cpp:120] Setting up 1_pool1
I0126 15:34:05.186113  1136 net.cpp:127] Top shape: 350 32 16 16 (2867200)
I0126 15:34:05.186117  1136 layer_factory.hpp:74] Creating layer 1_relu1
I0126 15:34:05.186123  1136 net.cpp:90] Creating Layer 1_relu1
I0126 15:34:05.186127  1136 net.cpp:410] 1_relu1 <- 1_pool1
I0126 15:34:05.186131  1136 net.cpp:357] 1_relu1 -> 1_pool1 (in-place)
I0126 15:34:05.186137  1136 net.cpp:120] Setting up 1_relu1
I0126 15:34:05.186146  1136 net.cpp:127] Top shape: 350 32 16 16 (2867200)
I0126 15:34:05.186149  1136 layer_factory.hpp:74] Creating layer 1_conv2
I0126 15:34:05.186156  1136 net.cpp:90] Creating Layer 1_conv2
I0126 15:34:05.186167  1136 net.cpp:410] 1_conv2 <- 1_pool1
I0126 15:34:05.186174  1136 net.cpp:368] 1_conv2 -> 1_conv2
I0126 15:34:05.186182  1136 net.cpp:120] Setting up 1_conv2
I0126 15:34:05.186779  1136 net.cpp:127] Top shape: 350 32 16 16 (2867200)
I0126 15:34:05.186787  1136 layer_factory.hpp:74] Creating layer 1_relu2
I0126 15:34:05.186794  1136 net.cpp:90] Creating Layer 1_relu2
I0126 15:34:05.186800  1136 net.cpp:410] 1_relu2 <- 1_conv2
I0126 15:34:05.186803  1136 net.cpp:357] 1_relu2 -> 1_conv2 (in-place)
I0126 15:34:05.186810  1136 net.cpp:120] Setting up 1_relu2
I0126 15:34:05.186815  1136 net.cpp:127] Top shape: 350 32 16 16 (2867200)
I0126 15:34:05.186820  1136 layer_factory.hpp:74] Creating layer 1_pool2
I0126 15:34:05.186826  1136 net.cpp:90] Creating Layer 1_pool2
I0126 15:34:05.186830  1136 net.cpp:410] 1_pool2 <- 1_conv2
I0126 15:34:05.186836  1136 net.cpp:368] 1_pool2 -> 1_pool2
I0126 15:34:05.186842  1136 net.cpp:120] Setting up 1_pool2
I0126 15:34:05.186849  1136 net.cpp:127] Top shape: 350 32 8 8 (716800)
I0126 15:34:05.186853  1136 layer_factory.hpp:74] Creating layer 1_conv3
I0126 15:34:05.186862  1136 net.cpp:90] Creating Layer 1_conv3
I0126 15:34:05.186866  1136 net.cpp:410] 1_conv3 <- 1_pool2
I0126 15:34:05.186872  1136 net.cpp:368] 1_conv3 -> 1_conv3
I0126 15:34:05.186878  1136 net.cpp:120] Setting up 1_conv3
I0126 15:34:05.188060  1136 net.cpp:127] Top shape: 350 64 8 8 (1433600)
I0126 15:34:05.188068  1136 layer_factory.hpp:74] Creating layer 1_relu3
I0126 15:34:05.188074  1136 net.cpp:90] Creating Layer 1_relu3
I0126 15:34:05.188078  1136 net.cpp:410] 1_relu3 <- 1_conv3
I0126 15:34:05.188084  1136 net.cpp:357] 1_relu3 -> 1_conv3 (in-place)
I0126 15:34:05.188089  1136 net.cpp:120] Setting up 1_relu3
I0126 15:34:05.188097  1136 net.cpp:127] Top shape: 350 64 8 8 (1433600)
I0126 15:34:05.188100  1136 layer_factory.hpp:74] Creating layer 1_pool3
I0126 15:34:05.188105  1136 net.cpp:90] Creating Layer 1_pool3
I0126 15:34:05.188109  1136 net.cpp:410] 1_pool3 <- 1_conv3
I0126 15:34:05.188114  1136 net.cpp:368] 1_pool3 -> 1_pool3
I0126 15:34:05.188120  1136 net.cpp:120] Setting up 1_pool3
I0126 15:34:05.188128  1136 net.cpp:127] Top shape: 350 64 4 4 (358400)
I0126 15:34:05.188133  1136 layer_factory.hpp:74] Creating layer 1_ip1
I0126 15:34:05.188139  1136 net.cpp:90] Creating Layer 1_ip1
I0126 15:34:05.188143  1136 net.cpp:410] 1_ip1 <- 1_pool3
I0126 15:34:05.188148  1136 net.cpp:368] 1_ip1 -> 1_ip1
I0126 15:34:05.188156  1136 net.cpp:120] Setting up 1_ip1
I0126 15:34:05.189635  1136 net.cpp:127] Top shape: 350 64 (22400)
I0126 15:34:05.189643  1136 layer_factory.hpp:74] Creating layer 1_ip2
I0126 15:34:05.189649  1136 net.cpp:90] Creating Layer 1_ip2
I0126 15:34:05.189653  1136 net.cpp:410] 1_ip2 <- 1_ip1
I0126 15:34:05.189662  1136 net.cpp:368] 1_ip2 -> 1_ip2
I0126 15:34:05.189668  1136 net.cpp:120] Setting up 1_ip2
I0126 15:34:05.189695  1136 net.cpp:127] Top shape: 350 10 (3500)
I0126 15:34:05.189703  1136 layer_factory.hpp:74] Creating layer 1_prob
I0126 15:34:05.189710  1136 net.cpp:90] Creating Layer 1_prob
I0126 15:34:05.189714  1136 net.cpp:410] 1_prob <- 1_ip2
I0126 15:34:05.189719  1136 net.cpp:368] 1_prob -> 1_prob
I0126 15:34:05.189725  1136 net.cpp:120] Setting up 1_prob
I0126 15:34:05.189735  1136 net.cpp:127] Top shape: 350 10 (3500)
I0126 15:34:05.189739  1136 layer_factory.hpp:74] Creating layer 2_conv1
I0126 15:34:05.189748  1136 net.cpp:90] Creating Layer 2_conv1
I0126 15:34:05.189750  1136 net.cpp:410] 2_conv1 <- data_cifar_0_split_1
I0126 15:34:05.189756  1136 net.cpp:368] 2_conv1 -> 2_conv1
I0126 15:34:05.189762  1136 net.cpp:120] Setting up 2_conv1
I0126 15:34:05.189832  1136 net.cpp:127] Top shape: 350 32 32 32 (11468800)
I0126 15:34:05.189839  1136 layer_factory.hpp:74] Creating layer 2_pool1
I0126 15:34:05.189846  1136 net.cpp:90] Creating Layer 2_pool1
I0126 15:34:05.189851  1136 net.cpp:410] 2_pool1 <- 2_conv1
I0126 15:34:05.189855  1136 net.cpp:368] 2_pool1 -> 2_pool1
I0126 15:34:05.189862  1136 net.cpp:120] Setting up 2_pool1
I0126 15:34:05.189868  1136 net.cpp:127] Top shape: 350 32 16 16 (2867200)
I0126 15:34:05.189879  1136 layer_factory.hpp:74] Creating layer 2_relu1
I0126 15:34:05.189885  1136 net.cpp:90] Creating Layer 2_relu1
I0126 15:34:05.189889  1136 net.cpp:410] 2_relu1 <- 2_pool1
I0126 15:34:05.189894  1136 net.cpp:357] 2_relu1 -> 2_pool1 (in-place)
I0126 15:34:05.189900  1136 net.cpp:120] Setting up 2_relu1
I0126 15:34:05.189906  1136 net.cpp:127] Top shape: 350 32 16 16 (2867200)
I0126 15:34:05.189910  1136 layer_factory.hpp:74] Creating layer 2_conv2
I0126 15:34:05.189918  1136 net.cpp:90] Creating Layer 2_conv2
I0126 15:34:05.189921  1136 net.cpp:410] 2_conv2 <- 2_pool1
I0126 15:34:05.189927  1136 net.cpp:368] 2_conv2 -> 2_conv2
I0126 15:34:05.189935  1136 net.cpp:120] Setting up 2_conv2
I0126 15:34:05.190529  1136 net.cpp:127] Top shape: 350 32 16 16 (2867200)
I0126 15:34:05.190536  1136 layer_factory.hpp:74] Creating layer 2_relu2
I0126 15:34:05.190552  1136 net.cpp:90] Creating Layer 2_relu2
I0126 15:34:05.190557  1136 net.cpp:410] 2_relu2 <- 2_conv2
I0126 15:34:05.190562  1136 net.cpp:357] 2_relu2 -> 2_conv2 (in-place)
I0126 15:34:05.190568  1136 net.cpp:120] Setting up 2_relu2
I0126 15:34:05.190574  1136 net.cpp:127] Top shape: 350 32 16 16 (2867200)
I0126 15:34:05.190578  1136 layer_factory.hpp:74] Creating layer 2_pool2
I0126 15:34:05.190585  1136 net.cpp:90] Creating Layer 2_pool2
I0126 15:34:05.190589  1136 net.cpp:410] 2_pool2 <- 2_conv2
I0126 15:34:05.190594  1136 net.cpp:368] 2_pool2 -> 2_pool2
I0126 15:34:05.190600  1136 net.cpp:120] Setting up 2_pool2
I0126 15:34:05.190608  1136 net.cpp:127] Top shape: 350 32 8 8 (716800)
I0126 15:34:05.190613  1136 layer_factory.hpp:74] Creating layer 2_conv3
I0126 15:34:05.190618  1136 net.cpp:90] Creating Layer 2_conv3
I0126 15:34:05.190623  1136 net.cpp:410] 2_conv3 <- 2_pool2
I0126 15:34:05.190630  1136 net.cpp:368] 2_conv3 -> 2_conv3
I0126 15:34:05.190636  1136 net.cpp:120] Setting up 2_conv3
I0126 15:34:05.191818  1136 net.cpp:127] Top shape: 350 64 8 8 (1433600)
I0126 15:34:05.191825  1136 layer_factory.hpp:74] Creating layer 2_relu3
I0126 15:34:05.191833  1136 net.cpp:90] Creating Layer 2_relu3
I0126 15:34:05.191836  1136 net.cpp:410] 2_relu3 <- 2_conv3
I0126 15:34:05.191843  1136 net.cpp:357] 2_relu3 -> 2_conv3 (in-place)
I0126 15:34:05.191848  1136 net.cpp:120] Setting up 2_relu3
I0126 15:34:05.191854  1136 net.cpp:127] Top shape: 350 64 8 8 (1433600)
I0126 15:34:05.191859  1136 layer_factory.hpp:74] Creating layer 2_pool3
I0126 15:34:05.191864  1136 net.cpp:90] Creating Layer 2_pool3
I0126 15:34:05.191869  1136 net.cpp:410] 2_pool3 <- 2_conv3
I0126 15:34:05.191874  1136 net.cpp:368] 2_pool3 -> 2_pool3
I0126 15:34:05.191879  1136 net.cpp:120] Setting up 2_pool3
I0126 15:34:05.191885  1136 net.cpp:127] Top shape: 350 64 4 4 (358400)
I0126 15:34:05.191890  1136 layer_factory.hpp:74] Creating layer 2_ip1
I0126 15:34:05.191897  1136 net.cpp:90] Creating Layer 2_ip1
I0126 15:34:05.191900  1136 net.cpp:410] 2_ip1 <- 2_pool3
I0126 15:34:05.191905  1136 net.cpp:368] 2_ip1 -> 2_ip1
I0126 15:34:05.191912  1136 net.cpp:120] Setting up 2_ip1
I0126 15:34:05.193392  1136 net.cpp:127] Top shape: 350 64 (22400)
I0126 15:34:05.193402  1136 layer_factory.hpp:74] Creating layer 2_ip2
I0126 15:34:05.193418  1136 net.cpp:90] Creating Layer 2_ip2
I0126 15:34:05.193421  1136 net.cpp:410] 2_ip2 <- 2_ip1
I0126 15:34:05.193428  1136 net.cpp:368] 2_ip2 -> 2_ip2
I0126 15:34:05.193435  1136 net.cpp:120] Setting up 2_ip2
I0126 15:34:05.193462  1136 net.cpp:127] Top shape: 350 10 (3500)
I0126 15:34:05.193469  1136 layer_factory.hpp:74] Creating layer 2_prob
I0126 15:34:05.193475  1136 net.cpp:90] Creating Layer 2_prob
I0126 15:34:05.193478  1136 net.cpp:410] 2_prob <- 2_ip2
I0126 15:34:05.193485  1136 net.cpp:368] 2_prob -> 2_prob
I0126 15:34:05.193490  1136 net.cpp:120] Setting up 2_prob
I0126 15:34:05.193498  1136 net.cpp:127] Top shape: 350 10 (3500)
I0126 15:34:05.193502  1136 layer_factory.hpp:74] Creating layer 3_conv1
I0126 15:34:05.193509  1136 net.cpp:90] Creating Layer 3_conv1
I0126 15:34:05.193513  1136 net.cpp:410] 3_conv1 <- data_cifar_0_split_2
I0126 15:34:05.193526  1136 net.cpp:368] 3_conv1 -> 3_conv1
I0126 15:34:05.193533  1136 net.cpp:120] Setting up 3_conv1
I0126 15:34:05.193603  1136 net.cpp:127] Top shape: 350 32 32 32 (11468800)
I0126 15:34:05.193609  1136 layer_factory.hpp:74] Creating layer 3_pool1
I0126 15:34:05.193617  1136 net.cpp:90] Creating Layer 3_pool1
I0126 15:34:05.193621  1136 net.cpp:410] 3_pool1 <- 3_conv1
I0126 15:34:05.193626  1136 net.cpp:368] 3_pool1 -> 3_pool1
I0126 15:34:05.193632  1136 net.cpp:120] Setting up 3_pool1
I0126 15:34:05.193640  1136 net.cpp:127] Top shape: 350 32 16 16 (2867200)
I0126 15:34:05.193645  1136 layer_factory.hpp:74] Creating layer 3_relu1
I0126 15:34:05.193648  1136 net.cpp:90] Creating Layer 3_relu1
I0126 15:34:05.193653  1136 net.cpp:410] 3_relu1 <- 3_pool1
I0126 15:34:05.193657  1136 net.cpp:357] 3_relu1 -> 3_pool1 (in-place)
I0126 15:34:05.193663  1136 net.cpp:120] Setting up 3_relu1
I0126 15:34:05.193670  1136 net.cpp:127] Top shape: 350 32 16 16 (2867200)
I0126 15:34:05.193673  1136 layer_factory.hpp:74] Creating layer 3_conv2
I0126 15:34:05.193680  1136 net.cpp:90] Creating Layer 3_conv2
I0126 15:34:05.193683  1136 net.cpp:410] 3_conv2 <- 3_pool1
I0126 15:34:05.193691  1136 net.cpp:368] 3_conv2 -> 3_conv2
I0126 15:34:05.193696  1136 net.cpp:120] Setting up 3_conv2
I0126 15:34:05.194290  1136 net.cpp:127] Top shape: 350 32 16 16 (2867200)
I0126 15:34:05.194298  1136 layer_factory.hpp:74] Creating layer 3_relu2
I0126 15:34:05.194303  1136 net.cpp:90] Creating Layer 3_relu2
I0126 15:34:05.194308  1136 net.cpp:410] 3_relu2 <- 3_conv2
I0126 15:34:05.194314  1136 net.cpp:357] 3_relu2 -> 3_conv2 (in-place)
I0126 15:34:05.194319  1136 net.cpp:120] Setting up 3_relu2
I0126 15:34:05.194325  1136 net.cpp:127] Top shape: 350 32 16 16 (2867200)
I0126 15:34:05.194329  1136 layer_factory.hpp:74] Creating layer 3_pool2
I0126 15:34:05.194334  1136 net.cpp:90] Creating Layer 3_pool2
I0126 15:34:05.194339  1136 net.cpp:410] 3_pool2 <- 3_conv2
I0126 15:34:05.194344  1136 net.cpp:368] 3_pool2 -> 3_pool2
I0126 15:34:05.194350  1136 net.cpp:120] Setting up 3_pool2
I0126 15:34:05.194358  1136 net.cpp:127] Top shape: 350 32 8 8 (716800)
I0126 15:34:05.194362  1136 layer_factory.hpp:74] Creating layer 3_conv3
I0126 15:34:05.194370  1136 net.cpp:90] Creating Layer 3_conv3
I0126 15:34:05.194373  1136 net.cpp:410] 3_conv3 <- 3_pool2
I0126 15:34:05.194380  1136 net.cpp:368] 3_conv3 -> 3_conv3
I0126 15:34:05.194386  1136 net.cpp:120] Setting up 3_conv3
I0126 15:34:05.195569  1136 net.cpp:127] Top shape: 350 64 8 8 (1433600)
I0126 15:34:05.195575  1136 layer_factory.hpp:74] Creating layer 3_relu3
I0126 15:34:05.195581  1136 net.cpp:90] Creating Layer 3_relu3
I0126 15:34:05.195585  1136 net.cpp:410] 3_relu3 <- 3_conv3
I0126 15:34:05.195590  1136 net.cpp:357] 3_relu3 -> 3_conv3 (in-place)
I0126 15:34:05.195595  1136 net.cpp:120] Setting up 3_relu3
I0126 15:34:05.195602  1136 net.cpp:127] Top shape: 350 64 8 8 (1433600)
I0126 15:34:05.195606  1136 layer_factory.hpp:74] Creating layer 3_pool3
I0126 15:34:05.195613  1136 net.cpp:90] Creating Layer 3_pool3
I0126 15:34:05.195617  1136 net.cpp:410] 3_pool3 <- 3_conv3
I0126 15:34:05.195623  1136 net.cpp:368] 3_pool3 -> 3_pool3
I0126 15:34:05.195629  1136 net.cpp:120] Setting up 3_pool3
I0126 15:34:05.195636  1136 net.cpp:127] Top shape: 350 64 4 4 (358400)
I0126 15:34:05.195641  1136 layer_factory.hpp:74] Creating layer 3_ip1
I0126 15:34:05.195647  1136 net.cpp:90] Creating Layer 3_ip1
I0126 15:34:05.195650  1136 net.cpp:410] 3_ip1 <- 3_pool3
I0126 15:34:05.195657  1136 net.cpp:368] 3_ip1 -> 3_ip1
I0126 15:34:05.195663  1136 net.cpp:120] Setting up 3_ip1
I0126 15:34:05.197137  1136 net.cpp:127] Top shape: 350 64 (22400)
I0126 15:34:05.197144  1136 layer_factory.hpp:74] Creating layer 3_ip2
I0126 15:34:05.197152  1136 net.cpp:90] Creating Layer 3_ip2
I0126 15:34:05.197156  1136 net.cpp:410] 3_ip2 <- 3_ip1
I0126 15:34:05.197162  1136 net.cpp:368] 3_ip2 -> 3_ip2
I0126 15:34:05.197170  1136 net.cpp:120] Setting up 3_ip2
I0126 15:34:05.197197  1136 net.cpp:127] Top shape: 350 10 (3500)
I0126 15:34:05.197209  1136 layer_factory.hpp:74] Creating layer 3_prob
I0126 15:34:05.197226  1136 net.cpp:90] Creating Layer 3_prob
I0126 15:34:05.197229  1136 net.cpp:410] 3_prob <- 3_ip2
I0126 15:34:05.197234  1136 net.cpp:368] 3_prob -> 3_prob
I0126 15:34:05.197247  1136 net.cpp:120] Setting up 3_prob
I0126 15:34:05.197257  1136 net.cpp:127] Top shape: 350 10 (3500)
I0126 15:34:05.197262  1136 layer_factory.hpp:74] Creating layer loss
I0126 15:34:05.197269  1136 net.cpp:90] Creating Layer loss
I0126 15:34:05.197273  1136 net.cpp:410] loss <- 1_prob
I0126 15:34:05.197278  1136 net.cpp:410] loss <- 2_prob
I0126 15:34:05.197281  1136 net.cpp:410] loss <- 3_prob
I0126 15:34:05.197286  1136 net.cpp:410] loss <- label
I0126 15:34:05.197293  1136 net.cpp:368] loss -> multiple-output loss
I0126 15:34:05.197304  1136 net.cpp:368] loss -> batch-instance-counts
I0126 15:34:05.197311  1136 net.cpp:368] loss -> train-instance-counts
I0126 15:34:05.197320  1136 net.cpp:120] Setting up loss
I0126 15:34:05.197332  1136 net.cpp:127] Top shape: 3 1 1 1 (3)
I0126 15:34:05.197335  1136 net.cpp:129]     with loss weight 1
I0126 15:34:05.197351  1136 net.cpp:127] Top shape: 3 1 1 1 (3)
I0126 15:34:05.197357  1136 net.cpp:127] Top shape: 3 1 1 1 (3)
I0126 15:34:05.197361  1136 net.cpp:192] loss needs backward computation.
I0126 15:34:05.197366  1136 net.cpp:192] 3_prob needs backward computation.
I0126 15:34:05.197371  1136 net.cpp:192] 3_ip2 needs backward computation.
I0126 15:34:05.197373  1136 net.cpp:192] 3_ip1 needs backward computation.
I0126 15:34:05.197386  1136 net.cpp:192] 3_pool3 needs backward computation.
I0126 15:34:05.197389  1136 net.cpp:192] 3_relu3 needs backward computation.
…
I0126 15:34:05.198243  1136 net.cpp:287] The NetState phase (1) differed from the phase (0) specified by a rule in layer loss
I0126 15:34:05.198384  1136 net.cpp:42] Initializing net from parameters: 
name: "CIFAR10_quick"
state {
  phase: TEST
}
layer {
  name: "cifar"
  type: "Data"
  top: "data"
  top: "label"
  include {
    phase: TEST
  }
  transform_param {
    mean_file: "/home/mike/ml_lab/mod/MCL_Caffe/examples/cifar10/mean.binaryproto"
  }
  data_param {
    source: "/home/mike/ml_lab/mod/MCL_Caffe/examples/cifar10/cifar10_test_lmdb"
    batch_size: 100
    backend: LMDB
  }
}
layer {
  name: "1_conv1"
  type: "Convolution"
  bottom: "data"
  top: "1_conv1"
  param {
    lr_mult: 1
  }
  param {
    lr_mult: 2
  }
  convolution_param {
    num_output: 32
    pad: 2
    kernel_size: 5
    stride: 1
    weight_filler {
      type: "gaussian"
      std: 0.0001
    }
    bias_filler {
      type: "constant"
    }
  }
}
layer {
  name: "1_pool1"
  type: "Pooling"
  bottom: "1_conv1"
  top: "1_pool1"
  pooling_param {
    pool: MAX
    kernel_size: 3
    stride: 2
  }
}
layer {
  name: "1_relu1"
  type: "ReLU"
  bottom: "1_pool1"
  top: "1_pool1"
}
layer {
  name: "1_conv2"
  type: "Convolution"
  bottom: "1_pool1"
  top: "1_conv2"
  param {
    lr_mult: 1
  }
  param {
    lr_mult: 2
  }
  convolution_param {
    num_output: 32
    pad: 2
    kernel_size: 5
    stride: 1
    weight_filler {
      type: "gaussian"
      std: 0.01
    }
    bias_filler {
      type: "constant"
    }
  }
}
layer {
  name: "1_relu2"
  type: "ReLU"
  bottom: "1_conv2"
  top: "1_conv2"
}
layer {
  name: "1_pool2"
  type: "Pooling"
  bottom: "1_conv2"
  top: "1_pool2"
  pooling_param {
    pool: AVE
    kernel_size: 3
    stride: 2
  }
}
layer {
  name: "1_conv3"
  type: "Convolution"
  bottom: "1_pool2"
  top: "1_conv3"
  param {
    lr_mult: 1
  }
  param {
    lr_mult: 2
  }
  convolution_param {
    num_output: 64
    pad: 2
    kernel_size: 5
    stride: 1
    weight_filler {
      type: "gaussian"
      std: 0.01
    }
    bias_filler {
      type: "constant"
    }
  }
}
layer {
  name: "1_relu3"
  type: "ReLU"
  bottom: "1_conv3"
  top: "1_conv3"
}
layer {
  name: "1_pool3"
  type: "Pooling"
  bottom: "1_conv3"
  top: "1_pool3"
  pooling_param {
    pool: AVE
    kernel_size: 3
    stride: 2
  }
}
layer {
  name: "1_ip1"
  type: "InnerProduct"
  bottom: "1_pool3"
  top: "1_ip1"
  param {
    lr_mult: 1
  }
  param {
    lr_mult: 2
  }
  inner_product_param {
    num_output: 64
    weight_filler {
      type: "gaussian"
      std: 0.1
    }
    bias_filler {
      type: "constant"
    }
  }
}
layer {
  name: "1_ip2"
  type: "InnerProduct"
  bottom: "1_ip1"
  top: "1_ip2"
  param {
    lr_mult: 1
  }
  param {
    lr_mult: 2
  }
  inner_product_param {
    num_output: 10
    weight_filler {
      type: "gaussian"
      std: 0.1
    }
    bias_filler {
      type: "constant"
    }
  }
}
layer {
  name: "1_prob"
  type: "Softmax"
  bottom: "1_ip2"
  top: "1_prob"
}
layer {
  name: "2_conv1"
  type: "Convolution"
  bottom: "data"
  top: "2_conv1"
  param {
    lr_mult: 1
  }
  param {
    lr_mult: 2
  }
  convolution_param {
    num_output: 32
    pad: 2
    kernel_size: 5
    stride: 1
    weight_filler {
      type: "gaussian"
      std: 0.0001
    }
    bias_filler {
      type: "constant"
    }
  }
}
layer {
  name: "2_pool1"
  type: "Pooling"
  bottom: "2_conv1"
  top: "2_pool1"
  pooling_param {
    pool: MAX
    kernel_size: 3
    stride: 2
  }
}
layer {
  name: "2_relu1"
  type: "ReLU"
  bottom: "2_pool1"
  top: "2_pool1"
}
layer {
  name: "2_conv2"
  type: "Convolution"
  bottom: "2_pool1"
  top: "2_conv2"
  param {
    lr_mult: 1
  }
  param {
    lr_mult: 2
  }
  convolution_param {
    num_output: 32
    pad: 2
    kernel_size: 5
    stride: 1
    weight_filler {
      type: "gaussian"
      std: 0.01
    }
    bias_filler {
      type: "constant"
    }
  }
}
layer {
  name: "2_relu2"
  type: "ReLU"
  bottom: "2_conv2"
  top: "2_conv2"
}
layer {
  name: "2_pool2"
  type: "Pooling"
  bottom: "2_conv2"
  top: "2_pool2"
  pooling_param {
    pool: AVE
    kernel_size: 3
    stride: 2
  }
}
layer {
  name: "2_conv3"
  type: "Convolution"
  bottom: "2_pool2"
  top: "2_conv3"
  param {
    lr_mult: 1
  }
  param {
    lr_mult: 2
  }
  convolution_param {
    num_output: 64
    pad: 2
    kernel_size: 5
    stride: 1
    weight_filler {
      type: "gaussian"
      std: 0.01
    }
    bias_filler {
      type: "constant"
    }
  }
}
layer {
  name: "2_relu3"
  type: "ReLU"
  bottom: "2_conv3"
  top: "2_conv3"
}
layer {
  name: "2_pool3"
  type: "Pooling"
  bottom: "2_conv3"
  top: "2_pool3"
  pooling_param {
    pool: AVE
    kernel_size: 3
    stride: 2
  }
}
layer {
  name: "2_ip1"
  type: "InnerProduct"
  bottom: "2_pool3"
  top: "2_ip1"
  param {
    lr_mult: 1
  }
  param {
    lr_mult: 2
  }
  inner_product_param {
    num_output: 64
    weight_filler {
      type: "gaussian"
      std: 0.1
    }
    bias_filler {
      type: "constant"
    }
  }
}
layer {
  name: "2_ip2"
  type: "InnerProduct"
  bottom: "2_ip1"
  top: "2_ip2"
  param {
    lr_mult: 1
  }
  param {
    lr_mult: 2
  }
  inner_product_param {
    num_output: 10
    weight_filler {
      type: "gaussian"
      std: 0.1
    }
    bias_filler {
      type: "constant"
    }
  }
}
layer {
  name: "2_prob"
  type: "Softmax"
  bottom: "2_ip2"
  top: "2_prob"
}
layer {
  name: "3_conv1"
  type: "Convolution"
  bottom: "data"
  top: "3_conv1"
  param {
    lr_mult: 1
  }
  param {
    lr_mult: 2
  }
  convolution_param {
    num_output: 32
    pad: 2
    kernel_size: 5
    stride: 1
    weight_filler {
      type: "gaussian"
      std: 0.0001
    }
    bias_filler {
      type: "constant"
    }
  }
}
layer {
  name: "3_pool1"
  type: "Pooling"
  bottom: "3_conv1"
  top: "3_pool1"
  pooling_param {
    pool: MAX
    kernel_size: 3
    stride: 2
  }
}
layer {
  name: "3_relu1"
  type: "ReLU"
  bottom: "3_pool1"
  top: "3_pool1"
}
layer {
  name: "3_conv2"
  type: "Convolution"
  bottom: "3_pool1"
  top: "3_conv2"
  param {
    lr_mult: 1
  }
  param {
    lr_mult: 2
  }
  convolution_param {
    num_output: 32
    pad: 2
    kernel_size: 5
    stride: 1
    weight_filler {
      type: "gaussian"
      std: 0.01
    }
    bias_filler {
      type: "constant"
    }
  }
}
layer {
  name: "3_relu2"
  type: "ReLU"
  bottom: "3_conv2"
  top: "3_conv2"
}
layer {
  name: "3_pool2"
  type: "Pooling"
  bottom: "3_conv2"
  top: "3_pool2"
  pooling_param {
    pool: AVE
    kernel_size: 3
    stride: 2
  }
}
layer {
  name: "3_conv3"
  type: "Convolution"
  bottom: "3_pool2"
  top: "3_conv3"
  param {
    lr_mult: 1
  }
  param {
    lr_mult: 2
  }
  convolution_param {
    num_output: 64
    pad: 2
    kernel_size: 5
    stride: 1
    weight_filler {
      type: "gaussian"
      std: 0.01
    }
    bias_filler {
      type: "constant"
    }
  }
}
layer {
  name: "3_relu3"
  type: "ReLU"
  bottom: "3_conv3"
  top: "3_conv3"
}
layer {
  name: "3_pool3"
  type: "Pooling"
  bottom: "3_conv3"
  top: "3_pool3"
  pooling_param {
    pool: AVE
    kernel_size: 3
    stride: 2
  }
}
layer {
  name: "3_ip1"
  type: "InnerProduct"
  bottom: "3_pool3"
  top: "3_ip1"
  param {
    lr_mult: 1
  }
  param {
    lr_mult: 2
  }
  inner_product_param {
    num_output: 64
    weight_filler {
      type: "gaussian"
      std: 0.1
    }
    bias_filler {
      type: "constant"
    }
  }
}
layer {
  name: "3_ip2"
  type: "InnerProduct"
  bottom: "3_ip1"
  top: "3_ip2"
  param {
    lr_mult: 1
  }
  param {
    lr_mult: 2
  }
  inner_product_param {
    num_output: 10
    weight_filler {
      type: "gaussian"
      std: 0.1
    }
    bias_filler {
      type: "constant"
    }
  }
}
layer {
  name: "3_prob"
  type: "Softmax"
  bottom: "3_ip2"
  top: "3_prob"
}
layer {
  name: "1_accuracy"
  type: "Accuracy"
  bottom: "1_prob"
  bottom: "label"
  top: "1_accuracy"
  include {
    phase: TEST
  }
}
layer {
  name: "2_accuracy"
  type: "Accuracy"
  bottom: "2_prob"
  bottom: "label"
  top: "2_accuracy"
  include {
    phase: TEST
  }
}
layer {
  name: "3_accuracy"
  type: "Accuracy"
  bottom: "3_prob"
  bottom: "label"
  top: "3_accuracy"
  include {
    phase: TEST
  }
}
layer {
  name: "accuracy"
  type: "OracleAccuracy"
  bottom: "1_prob"
  bottom: "2_prob"
  bottom: "3_prob"
  bottom: "label"
  top: "oracle accuracy"
  include {
    phase: TEST
  }
}
I0126 15:34:05.198570  1136 layer_factory.hpp:74] Creating layer cifar
I0126 15:34:05.198580  1136 net.cpp:90] Creating Layer cifar
I0126 15:34:05.198585  1136 net.cpp:368] cifar -> data
I0126 15:34:05.198592  1136 net.cpp:368] cifar -> label
I0126 15:34:05.198599  1136 net.cpp:120] Setting up cifar
I0126 15:34:05.198624  1136 db.cpp:34] Opened lmdb /home/mike/ml_lab/mod/MCL_Caffe/examples/cifar10/cifar10_test_lmdb
I0126 15:34:05.198647  1136 data_layer.cpp:67] output data size: 100,3,32,32
I0126 15:34:05.198652  1136 data_transformer.cpp:22] Loading mean file from: /home/mike/ml_lab/mod/MCL_Caffe/examples/cifar10/mean.binaryproto
I0126 15:34:05.198930  1136 net.cpp:127] Top shape: 100 3 32 32 (307200)
I0126 15:34:05.198952  1136 net.cpp:127] Top shape: 100 (100)
I0126 15:34:05.198956  1136 layer_factory.hpp:74] Creating layer data_cifar_0_split
I0126 15:34:05.198962  1136 net.cpp:90] Creating Layer data_cifar_0_split
I0126 15:34:05.198966  1136 net.cpp:410] data_cifar_0_split <- data
I0126 15:34:05.198971  1136 net.cpp:368] data_cifar_0_split -> data_cifar_0_split_0
I0126 15:34:05.198979  1136 net.cpp:368] data_cifar_0_split -> data_cifar_0_split_1
I0126 15:34:05.198985  1136 net.cpp:368] data_cifar_0_split -> data_cifar_0_split_2
I0126 15:34:05.198992  1136 net.cpp:120] Setting up data_cifar_0_split
I0126 15:34:05.198997  1136 net.cpp:127] Top shape: 100 3 32 32 (307200)
I0126 15:34:05.199003  1136 net.cpp:127] Top shape: 100 3 32 32 (307200)
I0126 15:34:05.199007  1136 net.cpp:127] Top shape: 100 3 32 32 (307200)
I0126 15:34:05.199012  1136 layer_factory.hpp:74] Creating layer label_cifar_1_split
I0126 15:34:05.199018  1136 net.cpp:90] Creating Layer label_cifar_1_split
I0126 15:34:05.199023  1136 net.cpp:410] label_cifar_1_split <- label
I0126 15:34:05.199028  1136 net.cpp:368] label_cifar_1_split -> label_cifar_1_split_0
I0126 15:34:05.199033  1136 net.cpp:368] label_cifar_1_split -> label_cifar_1_split_1
I0126 15:34:05.199038  1136 net.cpp:368] label_cifar_1_split -> label_cifar_1_split_2
I0126 15:34:05.199043  1136 net.cpp:368] label_cifar_1_split -> label_cifar_1_split_3
I0126 15:34:05.199048  1136 net.cpp:120] Setting up label_cifar_1_split
I0126 15:34:05.199054  1136 net.cpp:127] Top shape: 100 (100)
I0126 15:34:05.199059  1136 net.cpp:127] Top shape: 100 (100)
I0126 15:34:05.199062  1136 net.cpp:127] Top shape: 100 (100)
I0126 15:34:05.199067  1136 net.cpp:127] Top shape: 100 (100)
I0126 15:34:05.199070  1136 layer_factory.hpp:74] Creating layer 1_conv1
I0126 15:34:05.199076  1136 net.cpp:90] Creating Layer 1_conv1
I0126 15:34:05.199079  1136 net.cpp:410] 1_conv1 <- data_cifar_0_split_0
I0126 15:34:05.199086  1136 net.cpp:368] 1_conv1 -> 1_conv1
I0126 15:34:05.199092  1136 net.cpp:120] Setting up 1_conv1
I0126 15:34:05.199159  1136 net.cpp:127] Top shape: 100 32 32 32 (3276800)
I0126 15:34:05.199173  1136 layer_factory.hpp:74] Creating layer 1_pool1
I0126 15:34:05.199182  1136 net.cpp:90] Creating Layer 1_pool1
I0126 15:34:05.199185  1136 net.cpp:410] 1_pool1 <- 1_conv1
I0126 15:34:05.199192  1136 net.cpp:368] 1_pool1 -> 1_pool1
I0126 15:34:05.199198  1136 net.cpp:120] Setting up 1_pool1
I0126 15:34:05.199204  1136 net.cpp:127] Top shape: 100 32 16 16 (819200)
I0126 15:34:05.199208  1136 layer_factory.hpp:74] Creating layer 1_relu1
I0126 15:34:05.199213  1136 net.cpp:90] Creating Layer 1_relu1
I0126 15:34:05.199216  1136 net.cpp:410] 1_relu1 <- 1_pool1
I0126 15:34:05.199221  1136 net.cpp:357] 1_relu1 -> 1_pool1 (in-place)
I0126 15:34:05.199226  1136 net.cpp:120] Setting up 1_relu1
I0126 15:34:05.199231  1136 net.cpp:127] Top shape: 100 32 16 16 (819200)
I0126 15:34:05.199234  1136 layer_factory.hpp:74] Creating layer 1_conv2
I0126 15:34:05.199239  1136 net.cpp:90] Creating Layer 1_conv2
I0126 15:34:05.199244  1136 net.cpp:410] 1_conv2 <- 1_pool1
I0126 15:34:05.199249  1136 net.cpp:368] 1_conv2 -> 1_conv2
I0126 15:34:05.199255  1136 net.cpp:120] Setting up 1_conv2
I0126 15:34:05.199843  1136 net.cpp:127] Top shape: 100 32 16 16 (819200)
I0126 15:34:05.199851  1136 layer_factory.hpp:74] Creating layer 1_relu2
I0126 15:34:05.199856  1136 net.cpp:90] Creating Layer 1_relu2
I0126 15:34:05.199859  1136 net.cpp:410] 1_relu2 <- 1_conv2
I0126 15:34:05.199864  1136 net.cpp:357] 1_relu2 -> 1_conv2 (in-place)
I0126 15:34:05.199869  1136 net.cpp:120] Setting up 1_relu2
I0126 15:34:05.199873  1136 net.cpp:127] Top shape: 100 32 16 16 (819200)
I0126 15:34:05.199877  1136 layer_factory.hpp:74] Creating layer 1_pool2
I0126 15:34:05.199883  1136 net.cpp:90] Creating Layer 1_pool2
I0126 15:34:05.199887  1136 net.cpp:410] 1_pool2 <- 1_conv2
I0126 15:34:05.199892  1136 net.cpp:368] 1_pool2 -> 1_pool2
I0126 15:34:05.199898  1136 net.cpp:120] Setting up 1_pool2
I0126 15:34:05.199903  1136 net.cpp:127] Top shape: 100 32 8 8 (204800)
I0126 15:34:05.199908  1136 layer_factory.hpp:74] Creating layer 1_conv3
I0126 15:34:05.199913  1136 net.cpp:90] Creating Layer 1_conv3
I0126 15:34:05.199916  1136 net.cpp:410] 1_conv3 <- 1_pool2
I0126 15:34:05.199923  1136 net.cpp:368] 1_conv3 -> 1_conv3
I0126 15:34:05.199928  1136 net.cpp:120] Setting up 1_conv3
I0126 15:34:05.201093  1136 net.cpp:127] Top shape: 100 64 8 8 (409600)
I0126 15:34:05.201102  1136 layer_factory.hpp:74] Creating layer 1_relu3
I0126 15:34:05.201107  1136 net.cpp:90] Creating Layer 1_relu3
I0126 15:34:05.201112  1136 net.cpp:410] 1_relu3 <- 1_conv3
I0126 15:34:05.201117  1136 net.cpp:357] 1_relu3 -> 1_conv3 (in-place)
I0126 15:34:05.201120  1136 net.cpp:120] Setting up 1_relu3
I0126 15:34:05.201133  1136 net.cpp:127] Top shape: 100 64 8 8 (409600)
I0126 15:34:05.201138  1136 layer_factory.hpp:74] Creating layer 1_pool3
I0126 15:34:05.201143  1136 net.cpp:90] Creating Layer 1_pool3
I0126 15:34:05.201145  1136 net.cpp:410] 1_pool3 <- 1_conv3
I0126 15:34:05.201151  1136 net.cpp:368] 1_pool3 -> 1_pool3
I0126 15:34:05.201158  1136 net.cpp:120] Setting up 1_pool3
I0126 15:34:05.201164  1136 net.cpp:127] Top shape: 100 64 4 4 (102400)
I0126 15:34:05.201167  1136 layer_factory.hpp:74] Creating layer 1_ip1
I0126 15:34:05.201172  1136 net.cpp:90] Creating Layer 1_ip1
I0126 15:34:05.201176  1136 net.cpp:410] 1_ip1 <- 1_pool3
I0126 15:34:05.201182  1136 net.cpp:368] 1_ip1 -> 1_ip1
I0126 15:34:05.201189  1136 net.cpp:120] Setting up 1_ip1
I0126 15:34:05.202656  1136 net.cpp:127] Top shape: 100 64 (6400)
I0126 15:34:05.202662  1136 layer_factory.hpp:74] Creating layer 1_ip2
I0126 15:34:05.202669  1136 net.cpp:90] Creating Layer 1_ip2
I0126 15:34:05.202672  1136 net.cpp:410] 1_ip2 <- 1_ip1
I0126 15:34:05.202679  1136 net.cpp:368] 1_ip2 -> 1_ip2
I0126 15:34:05.202687  1136 net.cpp:120] Setting up 1_ip2
I0126 15:34:05.202713  1136 net.cpp:127] Top shape: 100 10 (1000)
I0126 15:34:05.202719  1136 layer_factory.hpp:74] Creating layer 1_prob
I0126 15:34:05.202724  1136 net.cpp:90] Creating Layer 1_prob
I0126 15:34:05.202728  1136 net.cpp:410] 1_prob <- 1_ip2
I0126 15:34:05.202744  1136 net.cpp:368] 1_prob -> 1_prob
I0126 15:34:05.202750  1136 net.cpp:120] Setting up 1_prob
I0126 15:34:05.202759  1136 net.cpp:127] Top shape: 100 10 (1000)
I0126 15:34:05.202764  1136 layer_factory.hpp:74] Creating layer 1_prob_1_prob_0_split
I0126 15:34:05.202769  1136 net.cpp:90] Creating Layer 1_prob_1_prob_0_split
I0126 15:34:05.202772  1136 net.cpp:410] 1_prob_1_prob_0_split <- 1_prob
I0126 15:34:05.202777  1136 net.cpp:368] 1_prob_1_prob_0_split -> 1_prob_1_prob_0_split_0
I0126 15:34:05.202785  1136 net.cpp:368] 1_prob_1_prob_0_split -> 1_prob_1_prob_0_split_1
I0126 15:34:05.202790  1136 net.cpp:120] Setting up 1_prob_1_prob_0_split
I0126 15:34:05.202795  1136 net.cpp:127] Top shape: 100 10 (1000)
I0126 15:34:05.202800  1136 net.cpp:127] Top shape: 100 10 (1000)
I0126 15:34:05.202803  1136 layer_factory.hpp:74] Creating layer 2_conv1
I0126 15:34:05.202811  1136 net.cpp:90] Creating Layer 2_conv1
I0126 15:34:05.202813  1136 net.cpp:410] 2_conv1 <- data_cifar_0_split_1
I0126 15:34:05.202821  1136 net.cpp:368] 2_conv1 -> 2_conv1
I0126 15:34:05.202826  1136 net.cpp:120] Setting up 2_conv1
I0126 15:34:05.202894  1136 net.cpp:127] Top shape: 100 32 32 32 (3276800)
I0126 15:34:05.202901  1136 layer_factory.hpp:74] Creating layer 2_pool1
I0126 15:34:05.202905  1136 net.cpp:90] Creating Layer 2_pool1
I0126 15:34:05.202909  1136 net.cpp:410] 2_pool1 <- 2_conv1
I0126 15:34:05.202915  1136 net.cpp:368] 2_pool1 -> 2_pool1
I0126 15:34:05.202921  1136 net.cpp:120] Setting up 2_pool1
I0126 15:34:05.202927  1136 net.cpp:127] Top shape: 100 32 16 16 (819200)
I0126 15:34:05.202932  1136 layer_factory.hpp:74] Creating layer 2_relu1
I0126 15:34:05.202936  1136 net.cpp:90] Creating Layer 2_relu1
I0126 15:34:05.202940  1136 net.cpp:410] 2_relu1 <- 2_pool1
I0126 15:34:05.202944  1136 net.cpp:357] 2_relu1 -> 2_pool1 (in-place)
I0126 15:34:05.202950  1136 net.cpp:120] Setting up 2_relu1
I0126 15:34:05.202955  1136 net.cpp:127] Top shape: 100 32 16 16 (819200)
I0126 15:34:05.202957  1136 layer_factory.hpp:74] Creating layer 2_conv2
I0126 15:34:05.202963  1136 net.cpp:90] Creating Layer 2_conv2
I0126 15:34:05.202966  1136 net.cpp:410] 2_conv2 <- 2_pool1
I0126 15:34:05.202972  1136 net.cpp:368] 2_conv2 -> 2_conv2
I0126 15:34:05.202978  1136 net.cpp:120] Setting up 2_conv2
I0126 15:34:05.203567  1136 net.cpp:127] Top shape: 100 32 16 16 (819200)
I0126 15:34:05.203573  1136 layer_factory.hpp:74] Creating layer 2_relu2
I0126 15:34:05.203577  1136 net.cpp:90] Creating Layer 2_relu2
I0126 15:34:05.203580  1136 net.cpp:410] 2_relu2 <- 2_conv2
I0126 15:34:05.203585  1136 net.cpp:357] 2_relu2 -> 2_conv2 (in-place)
I0126 15:34:05.203590  1136 net.cpp:120] Setting up 2_relu2
I0126 15:34:05.203594  1136 net.cpp:127] Top shape: 100 32 16 16 (819200)
I0126 15:34:05.203598  1136 layer_factory.hpp:74] Creating layer 2_pool2
I0126 15:34:05.203603  1136 net.cpp:90] Creating Layer 2_pool2
I0126 15:34:05.203608  1136 net.cpp:410] 2_pool2 <- 2_conv2
I0126 15:34:05.203613  1136 net.cpp:368] 2_pool2 -> 2_pool2
I0126 15:34:05.203618  1136 net.cpp:120] Setting up 2_pool2
I0126 15:34:05.203624  1136 net.cpp:127] Top shape: 100 32 8 8 (204800)
I0126 15:34:05.203626  1136 layer_factory.hpp:74] Creating layer 2_conv3
I0126 15:34:05.203634  1136 net.cpp:90] Creating Layer 2_conv3
I0126 15:34:05.203636  1136 net.cpp:410] 2_conv3 <- 2_pool2
I0126 15:34:05.203641  1136 net.cpp:368] 2_conv3 -> 2_conv3
I0126 15:34:05.203647  1136 net.cpp:120] Setting up 2_conv3
I0126 15:34:05.204815  1136 net.cpp:127] Top shape: 100 64 8 8 (409600)
I0126 15:34:05.204823  1136 layer_factory.hpp:74] Creating layer 2_relu3
I0126 15:34:05.204826  1136 net.cpp:90] Creating Layer 2_relu3
I0126 15:34:05.204829  1136 net.cpp:410] 2_relu3 <- 2_conv3
I0126 15:34:05.204835  1136 net.cpp:357] 2_relu3 -> 2_conv3 (in-place)
I0126 15:34:05.204840  1136 net.cpp:120] Setting up 2_relu3
I0126 15:34:05.204845  1136 net.cpp:127] Top shape: 100 64 8 8 (409600)
I0126 15:34:05.204849  1136 layer_factory.hpp:74] Creating layer 2_pool3
I0126 15:34:05.204854  1136 net.cpp:90] Creating Layer 2_pool3
I0126 15:34:05.204864  1136 net.cpp:410] 2_pool3 <- 2_conv3
I0126 15:34:05.204869  1136 net.cpp:368] 2_pool3 -> 2_pool3
I0126 15:34:05.204874  1136 net.cpp:120] Setting up 2_pool3
I0126 15:34:05.204880  1136 net.cpp:127] Top shape: 100 64 4 4 (102400)
I0126 15:34:05.204885  1136 layer_factory.hpp:74] Creating layer 2_ip1
I0126 15:34:05.204892  1136 net.cpp:90] Creating Layer 2_ip1
I0126 15:34:05.204897  1136 net.cpp:410] 2_ip1 <- 2_pool3
I0126 15:34:05.204902  1136 net.cpp:368] 2_ip1 -> 2_ip1
I0126 15:34:05.204910  1136 net.cpp:120] Setting up 2_ip1
I0126 15:34:05.206389  1136 net.cpp:127] Top shape: 100 64 (6400)
I0126 15:34:05.206399  1136 layer_factory.hpp:74] Creating layer 2_ip2
I0126 15:34:05.206406  1136 net.cpp:90] Creating Layer 2_ip2
I0126 15:34:05.206410  1136 net.cpp:410] 2_ip2 <- 2_ip1
I0126 15:34:05.206418  1136 net.cpp:368] 2_ip2 -> 2_ip2
I0126 15:34:05.206423  1136 net.cpp:120] Setting up 2_ip2
I0126 15:34:05.206449  1136 net.cpp:127] Top shape: 100 10 (1000)
I0126 15:34:05.206455  1136 layer_factory.hpp:74] Creating layer 2_prob
I0126 15:34:05.206461  1136 net.cpp:90] Creating Layer 2_prob
I0126 15:34:05.206465  1136 net.cpp:410] 2_prob <- 2_ip2
I0126 15:34:05.206470  1136 net.cpp:368] 2_prob -> 2_prob
I0126 15:34:05.206475  1136 net.cpp:120] Setting up 2_prob
I0126 15:34:05.206482  1136 net.cpp:127] Top shape: 100 10 (1000)
I0126 15:34:05.206485  1136 layer_factory.hpp:74] Creating layer 2_prob_2_prob_0_split
I0126 15:34:05.206490  1136 net.cpp:90] Creating Layer 2_prob_2_prob_0_split
I0126 15:34:05.206493  1136 net.cpp:410] 2_prob_2_prob_0_split <- 2_prob
I0126 15:34:05.206499  1136 net.cpp:368] 2_prob_2_prob_0_split -> 2_prob_2_prob_0_split_0
I0126 15:34:05.206506  1136 net.cpp:368] 2_prob_2_prob_0_split -> 2_prob_2_prob_0_split_1
I0126 15:34:05.206511  1136 net.cpp:120] Setting up 2_prob_2_prob_0_split
I0126 15:34:05.206516  1136 net.cpp:127] Top shape: 100 10 (1000)
I0126 15:34:05.206521  1136 net.cpp:127] Top shape: 100 10 (1000)
I0126 15:34:05.206524  1136 layer_factory.hpp:74] Creating layer 3_conv1
I0126 15:34:05.206532  1136 net.cpp:90] Creating Layer 3_conv1
I0126 15:34:05.206537  1136 net.cpp:410] 3_conv1 <- data_cifar_0_split_2
I0126 15:34:05.206543  1136 net.cpp:368] 3_conv1 -> 3_conv1
I0126 15:34:05.206549  1136 net.cpp:120] Setting up 3_conv1
I0126 15:34:05.206620  1136 net.cpp:127] Top shape: 100 32 32 32 (3276800)
I0126 15:34:05.206626  1136 layer_factory.hpp:74] Creating layer 3_pool1
I0126 15:34:05.206631  1136 net.cpp:90] Creating Layer 3_pool1
I0126 15:34:05.206635  1136 net.cpp:410] 3_pool1 <- 3_conv1
I0126 15:34:05.206640  1136 net.cpp:368] 3_pool1 -> 3_pool1
I0126 15:34:05.206648  1136 net.cpp:120] Setting up 3_pool1
I0126 15:34:05.206656  1136 net.cpp:127] Top shape: 100 32 16 16 (819200)
I0126 15:34:05.206661  1136 layer_factory.hpp:74] Creating layer 3_relu1
I0126 15:34:05.206665  1136 net.cpp:90] Creating Layer 3_relu1
I0126 15:34:05.206668  1136 net.cpp:410] 3_relu1 <- 3_pool1
I0126 15:34:05.206673  1136 net.cpp:357] 3_relu1 -> 3_pool1 (in-place)
I0126 15:34:05.206678  1136 net.cpp:120] Setting up 3_relu1
I0126 15:34:05.206683  1136 net.cpp:127] Top shape: 100 32 16 16 (819200)
I0126 15:34:05.206686  1136 layer_factory.hpp:74] Creating layer 3_conv2
I0126 15:34:05.206694  1136 net.cpp:90] Creating Layer 3_conv2
I0126 15:34:05.206697  1136 net.cpp:410] 3_conv2 <- 3_pool1
I0126 15:34:05.206704  1136 net.cpp:368] 3_conv2 -> 3_conv2
I0126 15:34:05.206712  1136 net.cpp:120] Setting up 3_conv2
I0126 15:34:05.207314  1136 net.cpp:127] Top shape: 100 32 16 16 (819200)
I0126 15:34:05.207320  1136 layer_factory.hpp:74] Creating layer 3_relu2
I0126 15:34:05.207325  1136 net.cpp:90] Creating Layer 3_relu2
I0126 15:34:05.207329  1136 net.cpp:410] 3_relu2 <- 3_conv2
I0126 15:34:05.207332  1136 net.cpp:357] 3_relu2 -> 3_conv2 (in-place)
I0126 15:34:05.207337  1136 net.cpp:120] Setting up 3_relu2
I0126 15:34:05.207342  1136 net.cpp:127] Top shape: 100 32 16 16 (819200)
I0126 15:34:05.207346  1136 layer_factory.hpp:74] Creating layer 3_pool2
I0126 15:34:05.207351  1136 net.cpp:90] Creating Layer 3_pool2
I0126 15:34:05.207365  1136 net.cpp:410] 3_pool2 <- 3_conv2
I0126 15:34:05.207372  1136 net.cpp:368] 3_pool2 -> 3_pool2
I0126 15:34:05.207377  1136 net.cpp:120] Setting up 3_pool2
I0126 15:34:05.207386  1136 net.cpp:127] Top shape: 100 32 8 8 (204800)
I0126 15:34:05.207391  1136 layer_factory.hpp:74] Creating layer 3_conv3
I0126 15:34:05.207396  1136 net.cpp:90] Creating Layer 3_conv3
I0126 15:34:05.207399  1136 net.cpp:410] 3_conv3 <- 3_pool2
I0126 15:34:05.207404  1136 net.cpp:368] 3_conv3 -> 3_conv3
I0126 15:34:05.207411  1136 net.cpp:120] Setting up 3_conv3
I0126 15:34:05.208977  1136 net.cpp:127] Top shape: 100 64 8 8 (409600)
I0126 15:34:05.208988  1136 layer_factory.hpp:74] Creating layer 3_relu3
I0126 15:34:05.208993  1136 net.cpp:90] Creating Layer 3_relu3
I0126 15:34:05.208997  1136 net.cpp:410] 3_relu3 <- 3_conv3
I0126 15:34:05.209002  1136 net.cpp:357] 3_relu3 -> 3_conv3 (in-place)
I0126 15:34:05.209007  1136 net.cpp:120] Setting up 3_relu3
I0126 15:34:05.209012  1136 net.cpp:127] Top shape: 100 64 8 8 (409600)
I0126 15:34:05.209015  1136 layer_factory.hpp:74] Creating layer 3_pool3
I0126 15:34:05.209019  1136 net.cpp:90] Creating Layer 3_pool3
I0126 15:34:05.209022  1136 net.cpp:410] 3_pool3 <- 3_conv3
I0126 15:34:05.209028  1136 net.cpp:368] 3_pool3 -> 3_pool3
I0126 15:34:05.209033  1136 net.cpp:120] Setting up 3_pool3
I0126 15:34:05.209038  1136 net.cpp:127] Top shape: 100 64 4 4 (102400)
I0126 15:34:05.209040  1136 layer_factory.hpp:74] Creating layer 3_ip1
I0126 15:34:05.209048  1136 net.cpp:90] Creating Layer 3_ip1
I0126 15:34:05.209050  1136 net.cpp:410] 3_ip1 <- 3_pool3
I0126 15:34:05.209056  1136 net.cpp:368] 3_ip1 -> 3_ip1
I0126 15:34:05.209062  1136 net.cpp:120] Setting up 3_ip1
I0126 15:34:05.211134  1136 net.cpp:127] Top shape: 100 64 (6400)
I0126 15:34:05.211143  1136 layer_factory.hpp:74] Creating layer 3_ip2
I0126 15:34:05.211150  1136 net.cpp:90] Creating Layer 3_ip2
I0126 15:34:05.211171  1136 net.cpp:410] 3_ip2 <- 3_ip1
I0126 15:34:05.211187  1136 net.cpp:368] 3_ip2 -> 3_ip2
I0126 15:34:05.211205  1136 net.cpp:120] Setting up 3_ip2
I0126 15:34:05.211246  1136 net.cpp:127] Top shape: 100 10 (1000)
I0126 15:34:05.211262  1136 layer_factory.hpp:74] Creating layer 3_prob
I0126 15:34:05.211278  1136 net.cpp:90] Creating Layer 3_prob
I0126 15:34:05.211292  1136 net.cpp:410] 3_prob <- 3_ip2
I0126 15:34:05.211305  1136 net.cpp:368] 3_prob -> 3_prob
I0126 15:34:05.211319  1136 net.cpp:120] Setting up 3_prob
I0126 15:34:05.211335  1136 net.cpp:127] Top shape: 100 10 (1000)
I0126 15:34:05.211347  1136 layer_factory.hpp:74] Creating layer 3_prob_3_prob_0_split
I0126 15:34:05.211361  1136 net.cpp:90] Creating Layer 3_prob_3_prob_0_split
I0126 15:34:05.211374  1136 net.cpp:410] 3_prob_3_prob_0_split <- 3_prob
I0126 15:34:05.211390  1136 net.cpp:368] 3_prob_3_prob_0_split -> 3_prob_3_prob_0_split_0
I0126 15:34:05.211405  1136 net.cpp:368] 3_prob_3_prob_0_split -> 3_prob_3_prob_0_split_1
I0126 15:34:05.211421  1136 net.cpp:120] Setting up 3_prob_3_prob_0_split
I0126 15:34:05.211436  1136 net.cpp:127] Top shape: 100 10 (1000)
I0126 15:34:05.211448  1136 net.cpp:127] Top shape: 100 10 (1000)
I0126 15:34:05.211460  1136 layer_factory.hpp:74] Creating layer 1_accuracy
I0126 15:34:05.211475  1136 net.cpp:90] Creating Layer 1_accuracy
I0126 15:34:05.211489  1136 net.cpp:410] 1_accuracy <- 1_prob_1_prob_0_split_0
I0126 15:34:05.211503  1136 net.cpp:410] 1_accuracy <- label_cifar_1_split_0
I0126 15:34:05.211519  1136 net.cpp:368] 1_accuracy -> 1_accuracy
I0126 15:34:05.211534  1136 net.cpp:120] Setting up 1_accuracy
…
