…
I0208 08:41:38.519378 29722 net.cpp:287] The NetState phase (0) differed from the phase (1) specified by a rule in layer accuracy
I0208 08:41:38.519695 29722 net.cpp:42] Initializing net from parameters: 
name: "CIFAR10_quick"
state {
  phase: TRAIN
}
layer {
  name: "cifar"
  type: "Data"
  top: "data"
  top: "label"
  include {
    phase: TRAIN
  }
  transform_param {
    mean_file: "/home/mike/ml_lab/mod/MCL_Caffe/examples/cifar10/mean.binaryproto"
  }
  data_param {
    source: "/home/mike/ml_lab/mod/MCL_Caffe/examples/cifar10/cifar10_train_lmdb"
    batch_size: 350
    backend: LMDB
  }
}
layer {
  name: "1_conv1"
  type: "Convolution"
  bottom: "data"
  top: "1_conv1"
  param {
    lr_mult: 1
  }
  param {
    lr_mult: 2
  }
  convolution_param {
    num_output: 32
    pad: 2
    kernel_size: 5
    stride: 1
    weight_filler {
      type: "gaussian"
      std: 0.0001
    }
    bias_filler {
      type: "constant"
    }
  }
}
layer {
  name: "1_pool1"
  type: "Pooling"
  bottom: "1_conv1"
  top: "1_pool1"
  pooling_param {
    pool: MAX
    kernel_size: 3
    stride: 2
  }
}
layer {
  name: "1_relu1"
  type: "ReLU"
  bottom: "1_pool1"
  top: "1_pool1"
}
layer {
  name: "1_conv2"
  type: "Convolution"
  bottom: "1_pool1"
  top: "1_conv2"
  param {
    lr_mult: 1
  }
  param {
    lr_mult: 2
  }
  convolution_param {
    num_output: 32
    pad: 2
    kernel_size: 5
    stride: 1
    weight_filler {
      type: "gaussian"
      std: 0.01
    }
    bias_filler {
      type: "constant"
    }
  }
}
layer {
  name: "1_relu2"
  type: "ReLU"
  bottom: "1_conv2"
  top: "1_conv2"
}
layer {
  name: "1_pool2"
  type: "Pooling"
  bottom: "1_conv2"
  top: "1_pool2"
  pooling_param {
    pool: AVE
    kernel_size: 3
    stride: 2
  }
}
layer {
  name: "1_conv3"
  type: "Convolution"
  bottom: "1_pool2"
  top: "1_conv3"
  param {
    lr_mult: 1
  }
  param {
    lr_mult: 2
  }
  convolution_param {
    num_output: 64
    pad: 2
    kernel_size: 5
    stride: 1
    weight_filler {
      type: "gaussian"
      std: 0.01
    }
    bias_filler {
      type: "constant"
    }
  }
}
layer {
  name: "1_relu3"
  type: "ReLU"
  bottom: "1_conv3"
  top: "1_conv3"
}
layer {
  name: "1_pool3"
  type: "Pooling"
  bottom: "1_conv3"
  top: "1_pool3"
  pooling_param {
    pool: AVE
    kernel_size: 3
    stride: 2
  }
}
layer {
  name: "1_ip1"
  type: "InnerProduct"
  bottom: "1_pool3"
  top: "1_ip1"
  param {
    lr_mult: 1
  }
  param {
    lr_mult: 2
  }
  inner_product_param {
    num_output: 64
    weight_filler {
      type: "gaussian"
      std: 0.1
    }
    bias_filler {
      type: "constant"
    }
  }
}
layer {
  name: "1_ip2"
  type: "InnerProduct"
  bottom: "1_ip1"
  top: "1_ip2"
  param {
    lr_mult: 1
  }
  param {
    lr_mult: 2
  }
  inner_product_param {
    num_output: 10
    weight_filler {
      type: "gaussian"
      std: 0.1
    }
    bias_filler {
      type: "constant"
    }
  }
}
layer {
  name: "1_prob"
  type: "Softmax"
  bottom: "1_ip2"
  top: "1_prob"
}
layer {
  name: "2_conv1"
  type: "Convolution"
  bottom: "data"
  top: "2_conv1"
  param {
    lr_mult: 1
  }
  param {
    lr_mult: 2
  }
  convolution_param {
    num_output: 32
    pad: 2
    kernel_size: 5
    stride: 1
    weight_filler {
      type: "gaussian"
      std: 0.0001
    }
    bias_filler {
      type: "constant"
    }
  }
}
layer {
  name: "2_pool1"
  type: "Pooling"
  bottom: "2_conv1"
  top: "2_pool1"
  pooling_param {
    pool: MAX
    kernel_size: 3
    stride: 2
  }
}
layer {
  name: "2_relu1"
  type: "ReLU"
  bottom: "2_pool1"
  top: "2_pool1"
}
layer {
  name: "2_conv2"
  type: "Convolution"
  bottom: "2_pool1"
  top: "2_conv2"
  param {
    lr_mult: 1
  }
  param {
    lr_mult: 2
  }
  convolution_param {
    num_output: 32
    pad: 2
    kernel_size: 5
    stride: 1
    weight_filler {
      type: "gaussian"
      std: 0.01
    }
    bias_filler {
      type: "constant"
    }
  }
}
layer {
  name: "2_relu2"
  type: "ReLU"
  bottom: "2_conv2"
  top: "2_conv2"
}
layer {
  name: "2_pool2"
  type: "Pooling"
  bottom: "2_conv2"
  top: "2_pool2"
  pooling_param {
    pool: AVE
    kernel_size: 3
    stride: 2
  }
}
layer {
  name: "2_conv3"
  type: "Convolution"
  bottom: "2_pool2"
  top: "2_conv3"
  param {
    lr_mult: 1
  }
  param {
    lr_mult: 2
  }
  convolution_param {
    num_output: 64
    pad: 2
    kernel_size: 5
    stride: 1
    weight_filler {
      type: "gaussian"
      std: 0.01
    }
    bias_filler {
      type: "constant"
    }
  }
}
layer {
  name: "2_relu3"
  type: "ReLU"
  bottom: "2_conv3"
  top: "2_conv3"
}
layer {
  name: "2_pool3"
  type: "Pooling"
  bottom: "2_conv3"
  top: "2_pool3"
  pooling_param {
    pool: AVE
    kernel_size: 3
    stride: 2
  }
}
layer {
  name: "2_ip1"
  type: "InnerProduct"
  bottom: "2_pool3"
  top: "2_ip1"
  param {
    lr_mult: 1
  }
  param {
    lr_mult: 2
  }
  inner_product_param {
    num_output: 64
    weight_filler {
      type: "gaussian"
      std: 0.1
    }
    bias_filler {
      type: "constant"
    }
  }
}
layer {
  name: "2_ip2"
  type: "InnerProduct"
  bottom: "2_ip1"
  top: "2_ip2"
  param {
    lr_mult: 1
  }
  param {
    lr_mult: 2
  }
  inner_product_param {
    num_output: 10
    weight_filler {
      type: "gaussian"
      std: 0.1
    }
    bias_filler {
      type: "constant"
    }
  }
}
layer {
  name: "2_prob"
  type: "Softmax"
  bottom: "2_ip2"
  top: "2_prob"
}
layer {
  name: "3_conv1"
  type: "Convolution"
  bottom: "data"
  top: "3_conv1"
  param {
    lr_mult: 1
  }
  param {
    lr_mult: 2
  }
  convolution_param {
    num_output: 32
    pad: 2
    kernel_size: 5
    stride: 1
    weight_filler {
      type: "gaussian"
      std: 0.0001
    }
    bias_filler {
      type: "constant"
    }
  }
}
layer {
  name: "3_pool1"
  type: "Pooling"
  bottom: "3_conv1"
  top: "3_pool1"
  pooling_param {
    pool: MAX
    kernel_size: 3
    stride: 2
  }
}
layer {
  name: "3_relu1"
  type: "ReLU"
  bottom: "3_pool1"
  top: "3_pool1"
}
layer {
  name: "3_conv2"
  type: "Convolution"
  bottom: "3_pool1"
  top: "3_conv2"
  param {
    lr_mult: 1
  }
  param {
    lr_mult: 2
  }
  convolution_param {
    num_output: 32
    pad: 2
    kernel_size: 5
    stride: 1
    weight_filler {
      type: "gaussian"
      std: 0.01
    }
    bias_filler {
      type: "constant"
    }
  }
}
layer {
  name: "3_relu2"
  type: "ReLU"
  bottom: "3_conv2"
  top: "3_conv2"
}
layer {
  name: "3_pool2"
  type: "Pooling"
  bottom: "3_conv2"
  top: "3_pool2"
  pooling_param {
    pool: AVE
    kernel_size: 3
    stride: 2
  }
}
layer {
  name: "3_conv3"
  type: "Convolution"
  bottom: "3_pool2"
  top: "3_conv3"
  param {
    lr_mult: 1
  }
  param {
    lr_mult: 2
  }
  convolution_param {
    num_output: 64
    pad: 2
    kernel_size: 5
    stride: 1
    weight_filler {
      type: "gaussian"
      std: 0.01
    }
    bias_filler {
      type: "constant"
    }
  }
}
layer {
  name: "3_relu3"
  type: "ReLU"
  bottom: "3_conv3"
  top: "3_conv3"
}
layer {
  name: "3_pool3"
  type: "Pooling"
  bottom: "3_conv3"
  top: "3_pool3"
  pooling_param {
    pool: AVE
    kernel_size: 3
    stride: 2
  }
}
layer {
  name: "3_ip1"
  type: "InnerProduct"
  bottom: "3_pool3"
  top: "3_ip1"
  param {
    lr_mult: 1
  }
  param {
    lr_mult: 2
  }
  inner_product_param {
    num_output: 64
    weight_filler {
      type: "gaussian"
      std: 0.1
    }
    bias_filler {
      type: "constant"
    }
  }
}
layer {
  name: "3_ip2"
  type: "InnerProduct"
  bottom: "3_ip1"
  top: "3_ip2"
  param {
    lr_mult: 1
  }
  param {
    lr_mult: 2
  }
  inner_product_param {
    num_output: 10
    weight_filler {
      type: "gaussian"
      std: 0.1
    }
    bias_filler {
      type: "constant"
    }
  }
}
layer {
  name: "3_prob"
  type: "Softmax"
  bottom: "3_ip2"
  top: "3_prob"
}
layer {
  name: "4_conv1"
  type: "Convolution"
  bottom: "data"
  top: "4_conv1"
  param {
    lr_mult: 1
  }
  param {
    lr_mult: 2
  }
  convolution_param {
    num_output: 32
    pad: 2
    kernel_size: 5
    stride: 1
    weight_filler {
      type: "gaussian"
      std: 0.0001
    }
    bias_filler {
      type: "constant"
    }
  }
}
layer {
  name: "4_pool1"
  type: "Pooling"
  bottom: "4_conv1"
  top: "4_pool1"
  pooling_param {
    pool: MAX
    kernel_size: 3
    stride: 2
  }
}
layer {
  name: "4_relu1"
  type: "ReLU"
  bottom: "4_pool1"
  top: "4_pool1"
}
layer {
  name: "4_conv2"
  type: "Convolution"
  bottom: "4_pool1"
  top: "4_conv2"
  param {
    lr_mult: 1
  }
  param {
    lr_mult: 2
  }
  convolution_param {
    num_output: 32
    pad: 2
    kernel_size: 5
    stride: 1
    weight_filler {
      type: "gaussian"
      std: 0.01
    }
    bias_filler {
      type: "constant"
    }
  }
}
layer {
  name: "4_relu2"
  type: "ReLU"
  bottom: "4_conv2"
  top: "4_conv2"
}
layer {
  name: "4_pool2"
  type: "Pooling"
  bottom: "4_conv2"
  top: "4_pool2"
  pooling_param {
    pool: AVE
    kernel_size: 3
    stride: 2
  }
}
layer {
  name: "4_conv3"
  type: "Convolution"
  bottom: "4_pool2"
  top: "4_conv3"
  param {
    lr_mult: 1
  }
  param {
    lr_mult: 2
  }
  convolution_param {
    num_output: 64
    pad: 2
    kernel_size: 5
    stride: 1
    weight_filler {
      type: "gaussian"
      std: 0.01
    }
    bias_filler {
      type: "constant"
    }
  }
}
layer {
  name: "4_relu3"
  type: "ReLU"
  bottom: "4_conv3"
  top: "4_conv3"
}
layer {
  name: "4_pool3"
  type: "Pooling"
  bottom: "4_conv3"
  top: "4_pool3"
  pooling_param {
    pool: AVE
    kernel_size: 3
    stride: 2
  }
}
layer {
  name: "4_ip1"
  type: "InnerProduct"
  bottom: "4_pool3"
  top: "4_ip1"
  param {
    lr_mult: 1
  }
  param {
    lr_mult: 2
  }
  inner_product_param {
    num_output: 64
    weight_filler {
      type: "gaussian"
      std: 0.1
    }
    bias_filler {
      type: "constant"
    }
  }
}
layer {
  name: "4_ip2"
  type: "InnerProduct"
  bottom: "4_ip1"
  top: "4_ip2"
  param {
    lr_mult: 1
  }
  param {
    lr_mult: 2
  }
  inner_product_param {
    num_output: 10
    weight_filler {
      type: "gaussian"
      std: 0.1
    }
    bias_filler {
      type: "constant"
    }
  }
}
layer {
  name: "4_prob"
  type: "Softmax"
  bottom: "4_ip2"
  top: "4_prob"
}
layer {
  name: "loss"
  type: "ODRandomAwardBMultinomialLogisticLoss"
  bottom: "1_prob"
  bottom: "2_prob"
  bottom: "3_prob"
  bottom: "4_prob"
  bottom: "label"
  top: "multiple-output loss"
  top: "batch-instance-counts"
  top: "train-instance-counts"
  top: "curr-b-value"
  loss_weight: 1
  loss_weight: 0
  loss_weight: 0
  loss_weight: 0
  include {
    phase: TRAIN
  }
  od_param {
    start_rand_award: 0.5
    rand_select: true
    decrease_rand: true
    draw_m_minus_one: false
    rand_decay: 0.001
    award_all: false
  }
}
I0208 08:41:38.519922 29722 layer_factory.hpp:74] Creating layer cifar
I0208 08:41:38.519942 29722 net.cpp:90] Creating Layer cifar
I0208 08:41:38.519950 29722 net.cpp:368] cifar -> data
I0208 08:41:38.519984 29722 net.cpp:368] cifar -> label
I0208 08:41:38.519996 29722 net.cpp:120] Setting up cifar
I0208 08:41:38.520062 29722 db.cpp:34] Opened lmdb /home/mike/ml_lab/mod/MCL_Caffe/examples/cifar10/cifar10_train_lmdb
I0208 08:41:38.520102 29722 data_layer.cpp:67] output data size: 350,3,32,32
I0208 08:41:38.520112 29722 data_transformer.cpp:22] Loading mean file from: /home/mike/ml_lab/mod/MCL_Caffe/examples/cifar10/mean.binaryproto
I0208 08:41:38.520958 29722 net.cpp:127] Top shape: 350 3 32 32 (1075200)
I0208 08:41:38.520967 29722 net.cpp:127] Top shape: 350 (350)
I0208 08:41:38.520973 29722 layer_factory.hpp:74] Creating layer data_cifar_0_split
I0208 08:41:38.520982 29722 net.cpp:90] Creating Layer data_cifar_0_split
I0208 08:41:38.520987 29722 net.cpp:410] data_cifar_0_split <- data
I0208 08:41:38.520998 29722 net.cpp:368] data_cifar_0_split -> data_cifar_0_split_0
I0208 08:41:38.521006 29722 net.cpp:368] data_cifar_0_split -> data_cifar_0_split_1
I0208 08:41:38.521013 29722 net.cpp:368] data_cifar_0_split -> data_cifar_0_split_2
I0208 08:41:38.521018 29722 net.cpp:368] data_cifar_0_split -> data_cifar_0_split_3
I0208 08:41:38.521023 29722 net.cpp:120] Setting up data_cifar_0_split
I0208 08:41:38.521033 29722 net.cpp:127] Top shape: 350 3 32 32 (1075200)
I0208 08:41:38.521039 29722 net.cpp:127] Top shape: 350 3 32 32 (1075200)
I0208 08:41:38.521042 29722 net.cpp:127] Top shape: 350 3 32 32 (1075200)
I0208 08:41:38.521049 29722 net.cpp:127] Top shape: 350 3 32 32 (1075200)
I0208 08:41:38.521052 29722 layer_factory.hpp:74] Creating layer 1_conv1
I0208 08:41:38.521061 29722 net.cpp:90] Creating Layer 1_conv1
I0208 08:41:38.521065 29722 net.cpp:410] 1_conv1 <- data_cifar_0_split_0
I0208 08:41:38.521071 29722 net.cpp:368] 1_conv1 -> 1_conv1
I0208 08:41:38.521078 29722 net.cpp:120] Setting up 1_conv1
I0208 08:41:38.521687 29722 net.cpp:127] Top shape: 350 32 32 32 (11468800)
I0208 08:41:38.521703 29722 layer_factory.hpp:74] Creating layer 1_pool1
I0208 08:41:38.521708 29722 net.cpp:90] Creating Layer 1_pool1
I0208 08:41:38.521713 29722 net.cpp:410] 1_pool1 <- 1_conv1
I0208 08:41:38.521718 29722 net.cpp:368] 1_pool1 -> 1_pool1
I0208 08:41:38.521725 29722 net.cpp:120] Setting up 1_pool1
I0208 08:41:38.521739 29722 net.cpp:127] Top shape: 350 32 16 16 (2867200)
I0208 08:41:38.521744 29722 layer_factory.hpp:74] Creating layer 1_relu1
I0208 08:41:38.521750 29722 net.cpp:90] Creating Layer 1_relu1
I0208 08:41:38.521754 29722 net.cpp:410] 1_relu1 <- 1_pool1
I0208 08:41:38.521757 29722 net.cpp:357] 1_relu1 -> 1_pool1 (in-place)
I0208 08:41:38.521762 29722 net.cpp:120] Setting up 1_relu1
I0208 08:41:38.521769 29722 net.cpp:127] Top shape: 350 32 16 16 (2867200)
I0208 08:41:38.521772 29722 layer_factory.hpp:74] Creating layer 1_conv2
I0208 08:41:38.521777 29722 net.cpp:90] Creating Layer 1_conv2
I0208 08:41:38.521780 29722 net.cpp:410] 1_conv2 <- 1_pool1
I0208 08:41:38.521786 29722 net.cpp:368] 1_conv2 -> 1_conv2
I0208 08:41:38.521792 29722 net.cpp:120] Setting up 1_conv2
I0208 08:41:38.522594 29722 net.cpp:127] Top shape: 350 32 16 16 (2867200)
I0208 08:41:38.522605 29722 layer_factory.hpp:74] Creating layer 1_relu2
I0208 08:41:38.522611 29722 net.cpp:90] Creating Layer 1_relu2
I0208 08:41:38.522614 29722 net.cpp:410] 1_relu2 <- 1_conv2
I0208 08:41:38.522619 29722 net.cpp:357] 1_relu2 -> 1_conv2 (in-place)
I0208 08:41:38.522624 29722 net.cpp:120] Setting up 1_relu2
I0208 08:41:38.522629 29722 net.cpp:127] Top shape: 350 32 16 16 (2867200)
I0208 08:41:38.522632 29722 layer_factory.hpp:74] Creating layer 1_pool2
I0208 08:41:38.522639 29722 net.cpp:90] Creating Layer 1_pool2
I0208 08:41:38.522644 29722 net.cpp:410] 1_pool2 <- 1_conv2
I0208 08:41:38.522650 29722 net.cpp:368] 1_pool2 -> 1_pool2
I0208 08:41:38.522655 29722 net.cpp:120] Setting up 1_pool2
I0208 08:41:38.522663 29722 net.cpp:127] Top shape: 350 32 8 8 (716800)
I0208 08:41:38.522667 29722 layer_factory.hpp:74] Creating layer 1_conv3
I0208 08:41:38.522675 29722 net.cpp:90] Creating Layer 1_conv3
I0208 08:41:38.522678 29722 net.cpp:410] 1_conv3 <- 1_pool2
I0208 08:41:38.522694 29722 net.cpp:368] 1_conv3 -> 1_conv3
I0208 08:41:38.522701 29722 net.cpp:120] Setting up 1_conv3
I0208 08:41:38.524109 29722 net.cpp:127] Top shape: 350 64 8 8 (1433600)
I0208 08:41:38.524118 29722 layer_factory.hpp:74] Creating layer 1_relu3
I0208 08:41:38.524124 29722 net.cpp:90] Creating Layer 1_relu3
I0208 08:41:38.524128 29722 net.cpp:410] 1_relu3 <- 1_conv3
I0208 08:41:38.524133 29722 net.cpp:357] 1_relu3 -> 1_conv3 (in-place)
I0208 08:41:38.524139 29722 net.cpp:120] Setting up 1_relu3
I0208 08:41:38.524145 29722 net.cpp:127] Top shape: 350 64 8 8 (1433600)
I0208 08:41:38.524149 29722 layer_factory.hpp:74] Creating layer 1_pool3
I0208 08:41:38.524154 29722 net.cpp:90] Creating Layer 1_pool3
I0208 08:41:38.524159 29722 net.cpp:410] 1_pool3 <- 1_conv3
I0208 08:41:38.524165 29722 net.cpp:368] 1_pool3 -> 1_pool3
I0208 08:41:38.524171 29722 net.cpp:120] Setting up 1_pool3
I0208 08:41:38.524178 29722 net.cpp:127] Top shape: 350 64 4 4 (358400)
I0208 08:41:38.524183 29722 layer_factory.hpp:74] Creating layer 1_ip1
I0208 08:41:38.524188 29722 net.cpp:90] Creating Layer 1_ip1
I0208 08:41:38.524193 29722 net.cpp:410] 1_ip1 <- 1_pool3
I0208 08:41:38.524200 29722 net.cpp:368] 1_ip1 -> 1_ip1
I0208 08:41:38.524209 29722 net.cpp:120] Setting up 1_ip1
I0208 08:41:38.525852 29722 net.cpp:127] Top shape: 350 64 (22400)
I0208 08:41:38.525859 29722 layer_factory.hpp:74] Creating layer 1_ip2
I0208 08:41:38.525864 29722 net.cpp:90] Creating Layer 1_ip2
I0208 08:41:38.525866 29722 net.cpp:410] 1_ip2 <- 1_ip1
I0208 08:41:38.525871 29722 net.cpp:368] 1_ip2 -> 1_ip2
I0208 08:41:38.525874 29722 net.cpp:120] Setting up 1_ip2
I0208 08:41:38.525899 29722 net.cpp:127] Top shape: 350 10 (3500)
I0208 08:41:38.525909 29722 layer_factory.hpp:74] Creating layer 1_prob
I0208 08:41:38.525918 29722 net.cpp:90] Creating Layer 1_prob
I0208 08:41:38.525920 29722 net.cpp:410] 1_prob <- 1_ip2
I0208 08:41:38.525925 29722 net.cpp:368] 1_prob -> 1_prob
I0208 08:41:38.525933 29722 net.cpp:120] Setting up 1_prob
I0208 08:41:38.525943 29722 net.cpp:127] Top shape: 350 10 (3500)
I0208 08:41:38.525946 29722 layer_factory.hpp:74] Creating layer 2_conv1
I0208 08:41:38.525955 29722 net.cpp:90] Creating Layer 2_conv1
I0208 08:41:38.525959 29722 net.cpp:410] 2_conv1 <- data_cifar_0_split_1
I0208 08:41:38.525967 29722 net.cpp:368] 2_conv1 -> 2_conv1
I0208 08:41:38.525974 29722 net.cpp:120] Setting up 2_conv1
I0208 08:41:38.526064 29722 net.cpp:127] Top shape: 350 32 32 32 (11468800)
I0208 08:41:38.526072 29722 layer_factory.hpp:74] Creating layer 2_pool1
I0208 08:41:38.526078 29722 net.cpp:90] Creating Layer 2_pool1
I0208 08:41:38.526082 29722 net.cpp:410] 2_pool1 <- 2_conv1
I0208 08:41:38.526088 29722 net.cpp:368] 2_pool1 -> 2_pool1
I0208 08:41:38.526095 29722 net.cpp:120] Setting up 2_pool1
I0208 08:41:38.526103 29722 net.cpp:127] Top shape: 350 32 16 16 (2867200)
I0208 08:41:38.526108 29722 layer_factory.hpp:74] Creating layer 2_relu1
I0208 08:41:38.526115 29722 net.cpp:90] Creating Layer 2_relu1
I0208 08:41:38.526118 29722 net.cpp:410] 2_relu1 <- 2_pool1
I0208 08:41:38.526124 29722 net.cpp:357] 2_relu1 -> 2_pool1 (in-place)
I0208 08:41:38.526130 29722 net.cpp:120] Setting up 2_relu1
I0208 08:41:38.526134 29722 net.cpp:127] Top shape: 350 32 16 16 (2867200)
I0208 08:41:38.526139 29722 layer_factory.hpp:74] Creating layer 2_conv2
I0208 08:41:38.526144 29722 net.cpp:90] Creating Layer 2_conv2
I0208 08:41:38.526149 29722 net.cpp:410] 2_conv2 <- 2_pool1
I0208 08:41:38.526154 29722 net.cpp:368] 2_conv2 -> 2_conv2
I0208 08:41:38.526160 29722 net.cpp:120] Setting up 2_conv2
I0208 08:41:38.526952 29722 net.cpp:127] Top shape: 350 32 16 16 (2867200)
I0208 08:41:38.526960 29722 layer_factory.hpp:74] Creating layer 2_relu2
I0208 08:41:38.526965 29722 net.cpp:90] Creating Layer 2_relu2
I0208 08:41:38.526969 29722 net.cpp:410] 2_relu2 <- 2_conv2
I0208 08:41:38.526975 29722 net.cpp:357] 2_relu2 -> 2_conv2 (in-place)
I0208 08:41:38.526981 29722 net.cpp:120] Setting up 2_relu2
I0208 08:41:38.526988 29722 net.cpp:127] Top shape: 350 32 16 16 (2867200)
I0208 08:41:38.527001 29722 layer_factory.hpp:74] Creating layer 2_pool2
I0208 08:41:38.527010 29722 net.cpp:90] Creating Layer 2_pool2
I0208 08:41:38.527015 29722 net.cpp:410] 2_pool2 <- 2_conv2
I0208 08:41:38.527021 29722 net.cpp:368] 2_pool2 -> 2_pool2
I0208 08:41:38.527027 29722 net.cpp:120] Setting up 2_pool2
I0208 08:41:38.527035 29722 net.cpp:127] Top shape: 350 32 8 8 (716800)
I0208 08:41:38.527040 29722 layer_factory.hpp:74] Creating layer 2_conv3
I0208 08:41:38.527047 29722 net.cpp:90] Creating Layer 2_conv3
I0208 08:41:38.527052 29722 net.cpp:410] 2_conv3 <- 2_pool2
I0208 08:41:38.527058 29722 net.cpp:368] 2_conv3 -> 2_conv3
I0208 08:41:38.527065 29722 net.cpp:120] Setting up 2_conv3
I0208 08:41:38.528342 29722 net.cpp:127] Top shape: 350 64 8 8 (1433600)
I0208 08:41:38.528349 29722 layer_factory.hpp:74] Creating layer 2_relu3
I0208 08:41:38.528355 29722 net.cpp:90] Creating Layer 2_relu3
I0208 08:41:38.528359 29722 net.cpp:410] 2_relu3 <- 2_conv3
I0208 08:41:38.528367 29722 net.cpp:357] 2_relu3 -> 2_conv3 (in-place)
I0208 08:41:38.528373 29722 net.cpp:120] Setting up 2_relu3
I0208 08:41:38.528379 29722 net.cpp:127] Top shape: 350 64 8 8 (1433600)
I0208 08:41:38.528384 29722 layer_factory.hpp:74] Creating layer 2_pool3
I0208 08:41:38.528390 29722 net.cpp:90] Creating Layer 2_pool3
I0208 08:41:38.528394 29722 net.cpp:410] 2_pool3 <- 2_conv3
I0208 08:41:38.528400 29722 net.cpp:368] 2_pool3 -> 2_pool3
I0208 08:41:38.528406 29722 net.cpp:120] Setting up 2_pool3
I0208 08:41:38.528412 29722 net.cpp:127] Top shape: 350 64 4 4 (358400)
I0208 08:41:38.528417 29722 layer_factory.hpp:74] Creating layer 2_ip1
I0208 08:41:38.528425 29722 net.cpp:90] Creating Layer 2_ip1
I0208 08:41:38.528429 29722 net.cpp:410] 2_ip1 <- 2_pool3
I0208 08:41:38.528436 29722 net.cpp:368] 2_ip1 -> 2_ip1
I0208 08:41:38.528445 29722 net.cpp:120] Setting up 2_ip1
I0208 08:41:38.530050 29722 net.cpp:127] Top shape: 350 64 (22400)
I0208 08:41:38.530061 29722 layer_factory.hpp:74] Creating layer 2_ip2
I0208 08:41:38.530069 29722 net.cpp:90] Creating Layer 2_ip2
I0208 08:41:38.530074 29722 net.cpp:410] 2_ip2 <- 2_ip1
I0208 08:41:38.530081 29722 net.cpp:368] 2_ip2 -> 2_ip2
I0208 08:41:38.530088 29722 net.cpp:120] Setting up 2_ip2
I0208 08:41:38.530122 29722 net.cpp:127] Top shape: 350 10 (3500)
I0208 08:41:38.530130 29722 layer_factory.hpp:74] Creating layer 2_prob
I0208 08:41:38.530138 29722 net.cpp:90] Creating Layer 2_prob
I0208 08:41:38.530143 29722 net.cpp:410] 2_prob <- 2_ip2
I0208 08:41:38.530148 29722 net.cpp:368] 2_prob -> 2_prob
I0208 08:41:38.530153 29722 net.cpp:120] Setting up 2_prob
I0208 08:41:38.530161 29722 net.cpp:127] Top shape: 350 10 (3500)
I0208 08:41:38.530165 29722 layer_factory.hpp:74] Creating layer 3_conv1
I0208 08:41:38.530174 29722 net.cpp:90] Creating Layer 3_conv1
I0208 08:41:38.530179 29722 net.cpp:410] 3_conv1 <- data_cifar_0_split_2
I0208 08:41:38.530184 29722 net.cpp:368] 3_conv1 -> 3_conv1
I0208 08:41:38.530190 29722 net.cpp:120] Setting up 3_conv1
I0208 08:41:38.530282 29722 net.cpp:127] Top shape: 350 32 32 32 (11468800)
I0208 08:41:38.530290 29722 layer_factory.hpp:74] Creating layer 3_pool1
I0208 08:41:38.530297 29722 net.cpp:90] Creating Layer 3_pool1
I0208 08:41:38.530302 29722 net.cpp:410] 3_pool1 <- 3_conv1
I0208 08:41:38.530306 29722 net.cpp:368] 3_pool1 -> 3_pool1
I0208 08:41:38.530313 29722 net.cpp:120] Setting up 3_pool1
I0208 08:41:38.530321 29722 net.cpp:127] Top shape: 350 32 16 16 (2867200)
I0208 08:41:38.530325 29722 layer_factory.hpp:74] Creating layer 3_relu1
I0208 08:41:38.530331 29722 net.cpp:90] Creating Layer 3_relu1
I0208 08:41:38.530335 29722 net.cpp:410] 3_relu1 <- 3_pool1
I0208 08:41:38.530340 29722 net.cpp:357] 3_relu1 -> 3_pool1 (in-place)
I0208 08:41:38.530346 29722 net.cpp:120] Setting up 3_relu1
I0208 08:41:38.530351 29722 net.cpp:127] Top shape: 350 32 16 16 (2867200)
I0208 08:41:38.530356 29722 layer_factory.hpp:74] Creating layer 3_conv2
I0208 08:41:38.530362 29722 net.cpp:90] Creating Layer 3_conv2
I0208 08:41:38.530367 29722 net.cpp:410] 3_conv2 <- 3_pool1
I0208 08:41:38.530372 29722 net.cpp:368] 3_conv2 -> 3_conv2
I0208 08:41:38.530387 29722 net.cpp:120] Setting up 3_conv2
I0208 08:41:38.531095 29722 net.cpp:127] Top shape: 350 32 16 16 (2867200)
I0208 08:41:38.531101 29722 layer_factory.hpp:74] Creating layer 3_relu2
I0208 08:41:38.531106 29722 net.cpp:90] Creating Layer 3_relu2
I0208 08:41:38.531111 29722 net.cpp:410] 3_relu2 <- 3_conv2
I0208 08:41:38.531116 29722 net.cpp:357] 3_relu2 -> 3_conv2 (in-place)
I0208 08:41:38.531121 29722 net.cpp:120] Setting up 3_relu2
I0208 08:41:38.531126 29722 net.cpp:127] Top shape: 350 32 16 16 (2867200)
I0208 08:41:38.531131 29722 layer_factory.hpp:74] Creating layer 3_pool2
I0208 08:41:38.531136 29722 net.cpp:90] Creating Layer 3_pool2
I0208 08:41:38.531141 29722 net.cpp:410] 3_pool2 <- 3_conv2
I0208 08:41:38.531147 29722 net.cpp:368] 3_pool2 -> 3_pool2
I0208 08:41:38.531154 29722 net.cpp:120] Setting up 3_pool2
I0208 08:41:38.531162 29722 net.cpp:127] Top shape: 350 32 8 8 (716800)
I0208 08:41:38.531165 29722 layer_factory.hpp:74] Creating layer 3_conv3
I0208 08:41:38.531175 29722 net.cpp:90] Creating Layer 3_conv3
I0208 08:41:38.531180 29722 net.cpp:410] 3_conv3 <- 3_pool2
I0208 08:41:38.531186 29722 net.cpp:368] 3_conv3 -> 3_conv3
I0208 08:41:38.531193 29722 net.cpp:120] Setting up 3_conv3
I0208 08:41:38.532387 29722 net.cpp:127] Top shape: 350 64 8 8 (1433600)
I0208 08:41:38.532397 29722 layer_factory.hpp:74] Creating layer 3_relu3
I0208 08:41:38.532402 29722 net.cpp:90] Creating Layer 3_relu3
I0208 08:41:38.532407 29722 net.cpp:410] 3_relu3 <- 3_conv3
I0208 08:41:38.532413 29722 net.cpp:357] 3_relu3 -> 3_conv3 (in-place)
I0208 08:41:38.532419 29722 net.cpp:120] Setting up 3_relu3
I0208 08:41:38.532425 29722 net.cpp:127] Top shape: 350 64 8 8 (1433600)
I0208 08:41:38.532430 29722 layer_factory.hpp:74] Creating layer 3_pool3
I0208 08:41:38.532436 29722 net.cpp:90] Creating Layer 3_pool3
I0208 08:41:38.532440 29722 net.cpp:410] 3_pool3 <- 3_conv3
I0208 08:41:38.532446 29722 net.cpp:368] 3_pool3 -> 3_pool3
I0208 08:41:38.532452 29722 net.cpp:120] Setting up 3_pool3
I0208 08:41:38.532459 29722 net.cpp:127] Top shape: 350 64 4 4 (358400)
I0208 08:41:38.532464 29722 layer_factory.hpp:74] Creating layer 3_ip1
I0208 08:41:38.532471 29722 net.cpp:90] Creating Layer 3_ip1
I0208 08:41:38.532475 29722 net.cpp:410] 3_ip1 <- 3_pool3
I0208 08:41:38.532481 29722 net.cpp:368] 3_ip1 -> 3_ip1
I0208 08:41:38.532490 29722 net.cpp:120] Setting up 3_ip1
I0208 08:41:38.534152 29722 net.cpp:127] Top shape: 350 64 (22400)
I0208 08:41:38.534160 29722 layer_factory.hpp:74] Creating layer 3_ip2
I0208 08:41:38.534168 29722 net.cpp:90] Creating Layer 3_ip2
I0208 08:41:38.534174 29722 net.cpp:410] 3_ip2 <- 3_ip1
I0208 08:41:38.534183 29722 net.cpp:368] 3_ip2 -> 3_ip2
I0208 08:41:38.534191 29722 net.cpp:120] Setting up 3_ip2
I0208 08:41:38.534229 29722 net.cpp:127] Top shape: 350 10 (3500)
I0208 08:41:38.534236 29722 layer_factory.hpp:74] Creating layer 3_prob
I0208 08:41:38.534243 29722 net.cpp:90] Creating Layer 3_prob
I0208 08:41:38.534247 29722 net.cpp:410] 3_prob <- 3_ip2
I0208 08:41:38.534255 29722 net.cpp:368] 3_prob -> 3_prob
I0208 08:41:38.534265 29722 net.cpp:120] Setting up 3_prob
I0208 08:41:38.534276 29722 net.cpp:127] Top shape: 350 10 (3500)
I0208 08:41:38.534282 29722 layer_factory.hpp:74] Creating layer 4_conv1
I0208 08:41:38.534291 29722 net.cpp:90] Creating Layer 4_conv1
I0208 08:41:38.534296 29722 net.cpp:410] 4_conv1 <- data_cifar_0_split_3
I0208 08:41:38.534304 29722 net.cpp:368] 4_conv1 -> 4_conv1
I0208 08:41:38.534312 29722 net.cpp:120] Setting up 4_conv1
I0208 08:41:38.534415 29722 net.cpp:127] Top shape: 350 32 32 32 (11468800)
I0208 08:41:38.534425 29722 layer_factory.hpp:74] Creating layer 4_pool1
I0208 08:41:38.534430 29722 net.cpp:90] Creating Layer 4_pool1
I0208 08:41:38.534435 29722 net.cpp:410] 4_pool1 <- 4_conv1
I0208 08:41:38.534443 29722 net.cpp:368] 4_pool1 -> 4_pool1
I0208 08:41:38.534451 29722 net.cpp:120] Setting up 4_pool1
I0208 08:41:38.534458 29722 net.cpp:127] Top shape: 350 32 16 16 (2867200)
I0208 08:41:38.534463 29722 layer_factory.hpp:74] Creating layer 4_relu1
I0208 08:41:38.534481 29722 net.cpp:90] Creating Layer 4_relu1
I0208 08:41:38.534485 29722 net.cpp:410] 4_relu1 <- 4_pool1
I0208 08:41:38.534492 29722 net.cpp:357] 4_relu1 -> 4_pool1 (in-place)
I0208 08:41:38.534497 29722 net.cpp:120] Setting up 4_relu1
I0208 08:41:38.534504 29722 net.cpp:127] Top shape: 350 32 16 16 (2867200)
I0208 08:41:38.534509 29722 layer_factory.hpp:74] Creating layer 4_conv2
I0208 08:41:38.534518 29722 net.cpp:90] Creating Layer 4_conv2
I0208 08:41:38.534523 29722 net.cpp:410] 4_conv2 <- 4_pool1
I0208 08:41:38.534530 29722 net.cpp:368] 4_conv2 -> 4_conv2
I0208 08:41:38.534538 29722 net.cpp:120] Setting up 4_conv2
I0208 08:41:38.535374 29722 net.cpp:127] Top shape: 350 32 16 16 (2867200)
I0208 08:41:38.535384 29722 layer_factory.hpp:74] Creating layer 4_relu2
I0208 08:41:38.535390 29722 net.cpp:90] Creating Layer 4_relu2
I0208 08:41:38.535395 29722 net.cpp:410] 4_relu2 <- 4_conv2
I0208 08:41:38.535403 29722 net.cpp:357] 4_relu2 -> 4_conv2 (in-place)
I0208 08:41:38.535409 29722 net.cpp:120] Setting up 4_relu2
I0208 08:41:38.535415 29722 net.cpp:127] Top shape: 350 32 16 16 (2867200)
I0208 08:41:38.535419 29722 layer_factory.hpp:74] Creating layer 4_pool2
I0208 08:41:38.535425 29722 net.cpp:90] Creating Layer 4_pool2
I0208 08:41:38.535430 29722 net.cpp:410] 4_pool2 <- 4_conv2
I0208 08:41:38.535436 29722 net.cpp:368] 4_pool2 -> 4_pool2
I0208 08:41:38.535444 29722 net.cpp:120] Setting up 4_pool2
I0208 08:41:38.535454 29722 net.cpp:127] Top shape: 350 32 8 8 (716800)
I0208 08:41:38.535457 29722 layer_factory.hpp:74] Creating layer 4_conv3
I0208 08:41:38.535465 29722 net.cpp:90] Creating Layer 4_conv3
I0208 08:41:38.535470 29722 net.cpp:410] 4_conv3 <- 4_pool2
I0208 08:41:38.535475 29722 net.cpp:368] 4_conv3 -> 4_conv3
I0208 08:41:38.535482 29722 net.cpp:120] Setting up 4_conv3
I0208 08:41:38.536777 29722 net.cpp:127] Top shape: 350 64 8 8 (1433600)
I0208 08:41:38.536783 29722 layer_factory.hpp:74] Creating layer 4_relu3
I0208 08:41:38.536790 29722 net.cpp:90] Creating Layer 4_relu3
I0208 08:41:38.536795 29722 net.cpp:410] 4_relu3 <- 4_conv3
I0208 08:41:38.536800 29722 net.cpp:357] 4_relu3 -> 4_conv3 (in-place)
I0208 08:41:38.536806 29722 net.cpp:120] Setting up 4_relu3
I0208 08:41:38.536813 29722 net.cpp:127] Top shape: 350 64 8 8 (1433600)
I0208 08:41:38.536816 29722 layer_factory.hpp:74] Creating layer 4_pool3
I0208 08:41:38.536823 29722 net.cpp:90] Creating Layer 4_pool3
I0208 08:41:38.536828 29722 net.cpp:410] 4_pool3 <- 4_conv3
I0208 08:41:38.536833 29722 net.cpp:368] 4_pool3 -> 4_pool3
I0208 08:41:38.536841 29722 net.cpp:120] Setting up 4_pool3
I0208 08:41:38.536849 29722 net.cpp:127] Top shape: 350 64 4 4 (358400)
I0208 08:41:38.536854 29722 layer_factory.hpp:74] Creating layer 4_ip1
I0208 08:41:38.536860 29722 net.cpp:90] Creating Layer 4_ip1
I0208 08:41:38.536865 29722 net.cpp:410] 4_ip1 <- 4_pool3
I0208 08:41:38.536872 29722 net.cpp:368] 4_ip1 -> 4_ip1
I0208 08:41:38.536880 29722 net.cpp:120] Setting up 4_ip1
I0208 08:41:38.538483 29722 net.cpp:127] Top shape: 350 64 (22400)
I0208 08:41:38.538491 29722 layer_factory.hpp:74] Creating layer 4_ip2
I0208 08:41:38.538497 29722 net.cpp:90] Creating Layer 4_ip2
I0208 08:41:38.538502 29722 net.cpp:410] 4_ip2 <- 4_ip1
I0208 08:41:38.538511 29722 net.cpp:368] 4_ip2 -> 4_ip2
I0208 08:41:38.538517 29722 net.cpp:120] Setting up 4_ip2
I0208 08:41:38.538549 29722 net.cpp:127] Top shape: 350 10 (3500)
I0208 08:41:38.538556 29722 layer_factory.hpp:74] Creating layer 4_prob
I0208 08:41:38.538563 29722 net.cpp:90] Creating Layer 4_prob
I0208 08:41:38.538566 29722 net.cpp:410] 4_prob <- 4_ip2
I0208 08:41:38.538573 29722 net.cpp:368] 4_prob -> 4_prob
I0208 08:41:38.538580 29722 net.cpp:120] Setting up 4_prob
I0208 08:41:38.538589 29722 net.cpp:127] Top shape: 350 10 (3500)
I0208 08:41:38.538592 29722 layer_factory.hpp:74] Creating layer loss
I0208 08:41:38.538605 29722 net.cpp:90] Creating Layer loss
I0208 08:41:38.538609 29722 net.cpp:410] loss <- 1_prob
I0208 08:41:38.538615 29722 net.cpp:410] loss <- 2_prob
I0208 08:41:38.538619 29722 net.cpp:410] loss <- 3_prob
I0208 08:41:38.538632 29722 net.cpp:410] loss <- 4_prob
I0208 08:41:38.538636 29722 net.cpp:410] loss <- label
I0208 08:41:38.538645 29722 net.cpp:368] loss -> multiple-output loss
I0208 08:41:38.538655 29722 net.cpp:368] loss -> batch-instance-counts
I0208 08:41:38.538664 29722 net.cpp:368] loss -> train-instance-counts
I0208 08:41:38.538671 29722 net.cpp:368] loss -> curr-b-value
I0208 08:41:38.538679 29722 net.cpp:120] Setting up loss
I0208 08:41:38.538691 29722 net.cpp:127] Top shape: 4 1 1 1 (4)
I0208 08:41:38.538697 29722 net.cpp:129]     with loss weight 1
I0208 08:41:38.538717 29722 net.cpp:127] Top shape: 4 1 1 1 (4)
I0208 08:41:38.538722 29722 net.cpp:127] Top shape: 4 1 1 1 (4)
I0208 08:41:38.538727 29722 net.cpp:127] Top shape: 1 1 1 1 (1)
I0208 08:41:38.538730 29722 net.cpp:192] loss needs backward computation.
I0208 08:41:38.538736 29722 net.cpp:192] 4_prob needs backward computation.
I0208 08:41:38.538740 29722 net.cpp:192] 4_ip2 needs backward computation.
I0208 08:41:38.538744 29722 net.cpp:192] 4_ip1 needs backward computation.
I0208 08:41:38.538748 29722 net.cpp:192] 4_pool3 needs backward computation.
I0208 08:41:38.538753 29722 net.cpp:192] 4_relu3 needs backward computation.
…
I0208 08:41:38.540419 29722 net.cpp:287] The NetState phase (1) differed from the phase (0) specified by a rule in layer loss
I0208 08:41:38.540726 29722 net.cpp:42] Initializing net from parameters: 
name: "CIFAR10_quick"
state {
  phase: TEST
}
layer {
  name: "cifar"
  type: "Data"
  top: "data"
  top: "label"
  include {
    phase: TEST
  }
  transform_param {
    mean_file: "/home/mike/ml_lab/mod/MCL_Caffe/examples/cifar10/mean.binaryproto"
  }
  data_param {
    source: "/home/mike/ml_lab/mod/MCL_Caffe/examples/cifar10/cifar10_test_lmdb"
    batch_size: 100
    backend: LMDB
  }
}
layer {
  name: "1_conv1"
  type: "Convolution"
  bottom: "data"
  top: "1_conv1"
  param {
    lr_mult: 1
  }
  param {
    lr_mult: 2
  }
  convolution_param {
    num_output: 32
    pad: 2
    kernel_size: 5
    stride: 1
    weight_filler {
      type: "gaussian"
      std: 0.0001
    }
    bias_filler {
      type: "constant"
    }
  }
}
layer {
  name: "1_pool1"
  type: "Pooling"
  bottom: "1_conv1"
  top: "1_pool1"
  pooling_param {
    pool: MAX
    kernel_size: 3
    stride: 2
  }
}
layer {
  name: "1_relu1"
  type: "ReLU"
  bottom: "1_pool1"
  top: "1_pool1"
}
layer {
  name: "1_conv2"
  type: "Convolution"
  bottom: "1_pool1"
  top: "1_conv2"
  param {
    lr_mult: 1
  }
  param {
    lr_mult: 2
  }
  convolution_param {
    num_output: 32
    pad: 2
    kernel_size: 5
    stride: 1
    weight_filler {
      type: "gaussian"
      std: 0.01
    }
    bias_filler {
      type: "constant"
    }
  }
}
layer {
  name: "1_relu2"
  type: "ReLU"
  bottom: "1_conv2"
  top: "1_conv2"
}
layer {
  name: "1_pool2"
  type: "Pooling"
  bottom: "1_conv2"
  top: "1_pool2"
  pooling_param {
    pool: AVE
    kernel_size: 3
    stride: 2
  }
}
layer {
  name: "1_conv3"
  type: "Convolution"
  bottom: "1_pool2"
  top: "1_conv3"
  param {
    lr_mult: 1
  }
  param {
    lr_mult: 2
  }
  convolution_param {
    num_output: 64
    pad: 2
    kernel_size: 5
    stride: 1
    weight_filler {
      type: "gaussian"
      std: 0.01
    }
    bias_filler {
      type: "constant"
    }
  }
}
layer {
  name: "1_relu3"
  type: "ReLU"
  bottom: "1_conv3"
  top: "1_conv3"
}
layer {
  name: "1_pool3"
  type: "Pooling"
  bottom: "1_conv3"
  top: "1_pool3"
  pooling_param {
    pool: AVE
    kernel_size: 3
    stride: 2
  }
}
layer {
  name: "1_ip1"
  type: "InnerProduct"
  bottom: "1_pool3"
  top: "1_ip1"
  param {
    lr_mult: 1
  }
  param {
    lr_mult: 2
  }
  inner_product_param {
    num_output: 64
    weight_filler {
      type: "gaussian"
      std: 0.1
    }
    bias_filler {
      type: "constant"
    }
  }
}
layer {
  name: "1_ip2"
  type: "InnerProduct"
  bottom: "1_ip1"
  top: "1_ip2"
  param {
    lr_mult: 1
  }
  param {
    lr_mult: 2
  }
  inner_product_param {
    num_output: 10
    weight_filler {
      type: "gaussian"
      std: 0.1
    }
    bias_filler {
      type: "constant"
    }
  }
}
layer {
  name: "1_prob"
  type: "Softmax"
  bottom: "1_ip2"
  top: "1_prob"
}
layer {
  name: "2_conv1"
  type: "Convolution"
  bottom: "data"
  top: "2_conv1"
  param {
    lr_mult: 1
  }
  param {
    lr_mult: 2
  }
  convolution_param {
    num_output: 32
    pad: 2
    kernel_size: 5
    stride: 1
    weight_filler {
      type: "gaussian"
      std: 0.0001
    }
    bias_filler {
      type: "constant"
    }
  }
}
layer {
  name: "2_pool1"
  type: "Pooling"
  bottom: "2_conv1"
  top: "2_pool1"
  pooling_param {
    pool: MAX
    kernel_size: 3
    stride: 2
  }
}
layer {
  name: "2_relu1"
  type: "ReLU"
  bottom: "2_pool1"
  top: "2_pool1"
}
layer {
  name: "2_conv2"
  type: "Convolution"
  bottom: "2_pool1"
  top: "2_conv2"
  param {
    lr_mult: 1
  }
  param {
    lr_mult: 2
  }
  convolution_param {
    num_output: 32
    pad: 2
    kernel_size: 5
    stride: 1
    weight_filler {
      type: "gaussian"
      std: 0.01
    }
    bias_filler {
      type: "constant"
    }
  }
}
layer {
  name: "2_relu2"
  type: "ReLU"
  bottom: "2_conv2"
  top: "2_conv2"
}
layer {
  name: "2_pool2"
  type: "Pooling"
  bottom: "2_conv2"
  top: "2_pool2"
  pooling_param {
    pool: AVE
    kernel_size: 3
    stride: 2
  }
}
layer {
  name: "2_conv3"
  type: "Convolution"
  bottom: "2_pool2"
  top: "2_conv3"
  param {
    lr_mult: 1
  }
  param {
    lr_mult: 2
  }
  convolution_param {
    num_output: 64
    pad: 2
    kernel_size: 5
    stride: 1
    weight_filler {
      type: "gaussian"
      std: 0.01
    }
    bias_filler {
      type: "constant"
    }
  }
}
layer {
  name: "2_relu3"
  type: "ReLU"
  bottom: "2_conv3"
  top: "2_conv3"
}
layer {
  name: "2_pool3"
  type: "Pooling"
  bottom: "2_conv3"
  top: "2_pool3"
  pooling_param {
    pool: AVE
    kernel_size: 3
    stride: 2
  }
}
layer {
  name: "2_ip1"
  type: "InnerProduct"
  bottom: "2_pool3"
  top: "2_ip1"
  param {
    lr_mult: 1
  }
  param {
    lr_mult: 2
  }
  inner_product_param {
    num_output: 64
    weight_filler {
      type: "gaussian"
      std: 0.1
    }
    bias_filler {
      type: "constant"
    }
  }
}
layer {
  name: "2_ip2"
  type: "InnerProduct"
  bottom: "2_ip1"
  top: "2_ip2"
  param {
    lr_mult: 1
  }
  param {
    lr_mult: 2
  }
  inner_product_param {
    num_output: 10
    weight_filler {
      type: "gaussian"
      std: 0.1
    }
    bias_filler {
      type: "constant"
    }
  }
}
layer {
  name: "2_prob"
  type: "Softmax"
  bottom: "2_ip2"
  top: "2_prob"
}
layer {
  name: "3_conv1"
  type: "Convolution"
  bottom: "data"
  top: "3_conv1"
  param {
    lr_mult: 1
  }
  param {
    lr_mult: 2
  }
  convolution_param {
    num_output: 32
    pad: 2
    kernel_size: 5
    stride: 1
    weight_filler {
      type: "gaussian"
      std: 0.0001
    }
    bias_filler {
      type: "constant"
    }
  }
}
layer {
  name: "3_pool1"
  type: "Pooling"
  bottom: "3_conv1"
  top: "3_pool1"
  pooling_param {
    pool: MAX
    kernel_size: 3
    stride: 2
  }
}
layer {
  name: "3_relu1"
  type: "ReLU"
  bottom: "3_pool1"
  top: "3_pool1"
}
layer {
  name: "3_conv2"
  type: "Convolution"
  bottom: "3_pool1"
  top: "3_conv2"
  param {
    lr_mult: 1
  }
  param {
    lr_mult: 2
  }
  convolution_param {
    num_output: 32
    pad: 2
    kernel_size: 5
    stride: 1
    weight_filler {
      type: "gaussian"
      std: 0.01
    }
    bias_filler {
      type: "constant"
    }
  }
}
layer {
  name: "3_relu2"
  type: "ReLU"
  bottom: "3_conv2"
  top: "3_conv2"
}
layer {
  name: "3_pool2"
  type: "Pooling"
  bottom: "3_conv2"
  top: "3_pool2"
  pooling_param {
    pool: AVE
    kernel_size: 3
    stride: 2
  }
}
layer {
  name: "3_conv3"
  type: "Convolution"
  bottom: "3_pool2"
  top: "3_conv3"
  param {
    lr_mult: 1
  }
  param {
    lr_mult: 2
  }
  convolution_param {
    num_output: 64
    pad: 2
    kernel_size: 5
    stride: 1
    weight_filler {
      type: "gaussian"
      std: 0.01
    }
    bias_filler {
      type: "constant"
    }
  }
}
layer {
  name: "3_relu3"
  type: "ReLU"
  bottom: "3_conv3"
  top: "3_conv3"
}
layer {
  name: "3_pool3"
  type: "Pooling"
  bottom: "3_conv3"
  top: "3_pool3"
  pooling_param {
    pool: AVE
    kernel_size: 3
    stride: 2
  }
}
layer {
  name: "3_ip1"
  type: "InnerProduct"
  bottom: "3_pool3"
  top: "3_ip1"
  param {
    lr_mult: 1
  }
  param {
    lr_mult: 2
  }
  inner_product_param {
    num_output: 64
    weight_filler {
      type: "gaussian"
      std: 0.1
    }
    bias_filler {
      type: "constant"
    }
  }
}
layer {
  name: "3_ip2"
  type: "InnerProduct"
  bottom: "3_ip1"
  top: "3_ip2"
  param {
    lr_mult: 1
  }
  param {
    lr_mult: 2
  }
  inner_product_param {
    num_output: 10
    weight_filler {
      type: "gaussian"
      std: 0.1
    }
    bias_filler {
      type: "constant"
    }
  }
}
layer {
  name: "3_prob"
  type: "Softmax"
  bottom: "3_ip2"
  top: "3_prob"
}
layer {
  name: "4_conv1"
  type: "Convolution"
  bottom: "data"
  top: "4_conv1"
  param {
    lr_mult: 1
  }
  param {
    lr_mult: 2
  }
  convolution_param {
    num_output: 32
    pad: 2
    kernel_size: 5
    stride: 1
    weight_filler {
      type: "gaussian"
      std: 0.0001
    }
    bias_filler {
      type: "constant"
    }
  }
}
layer {
  name: "4_pool1"
  type: "Pooling"
  bottom: "4_conv1"
  top: "4_pool1"
  pooling_param {
    pool: MAX
    kernel_size: 3
    stride: 2
  }
}
layer {
  name: "4_relu1"
  type: "ReLU"
  bottom: "4_pool1"
  top: "4_pool1"
}
layer {
  name: "4_conv2"
  type: "Convolution"
  bottom: "4_pool1"
  top: "4_conv2"
  param {
    lr_mult: 1
  }
  param {
    lr_mult: 2
  }
  convolution_param {
    num_output: 32
    pad: 2
    kernel_size: 5
    stride: 1
    weight_filler {
      type: "gaussian"
      std: 0.01
    }
    bias_filler {
      type: "constant"
    }
  }
}
layer {
  name: "4_relu2"
  type: "ReLU"
  bottom: "4_conv2"
  top: "4_conv2"
}
layer {
  name: "4_pool2"
  type: "Pooling"
  bottom: "4_conv2"
  top: "4_pool2"
  pooling_param {
    pool: AVE
    kernel_size: 3
    stride: 2
  }
}
layer {
  name: "4_conv3"
  type: "Convolution"
  bottom: "4_pool2"
  top: "4_conv3"
  param {
    lr_mult: 1
  }
  param {
    lr_mult: 2
  }
  convolution_param {
    num_output: 64
    pad: 2
    kernel_size: 5
    stride: 1
    weight_filler {
      type: "gaussian"
      std: 0.01
    }
    bias_filler {
      type: "constant"
    }
  }
}
layer {
  name: "4_relu3"
  type: "ReLU"
  bottom: "4_conv3"
  top: "4_conv3"
}
layer {
  name: "4_pool3"
  type: "Pooling"
  bottom: "4_conv3"
  top: "4_pool3"
  pooling_param {
    pool: AVE
    kernel_size: 3
    stride: 2
  }
}
layer {
  name: "4_ip1"
  type: "InnerProduct"
  bottom: "4_pool3"
  top: "4_ip1"
  param {
    lr_mult: 1
  }
  param {
    lr_mult: 2
  }
  inner_product_param {
    num_output: 64
    weight_filler {
      type: "gaussian"
      std: 0.1
    }
    bias_filler {
      type: "constant"
    }
  }
}
layer {
  name: "4_ip2"
  type: "InnerProduct"
  bottom: "4_ip1"
  top: "4_ip2"
  param {
    lr_mult: 1
  }
  param {
    lr_mult: 2
  }
  inner_product_param {
    num_output: 10
    weight_filler {
      type: "gaussian"
      std: 0.1
    }
    bias_filler {
      type: "constant"
    }
  }
}
layer {
  name: "4_prob"
  type: "Softmax"
  bottom: "4_ip2"
  top: "4_prob"
}
layer {
  name: "1_accuracy"
  type: "Accuracy"
  bottom: "1_prob"
  bottom: "label"
  top: "1_accuracy"
  include {
    phase: TEST
  }
}
layer {
  name: "2_accuracy"
  type: "Accuracy"
  bottom: "2_prob"
  bottom: "label"
  top: "2_accuracy"
  include {
    phase: TEST
  }
}
layer {
  name: "3_accuracy"
  type: "Accuracy"
  bottom: "3_prob"
  bottom: "label"
  top: "3_accuracy"
  include {
    phase: TEST
  }
}
layer {
  name: "4_accuracy"
  type: "Accuracy"
  bottom: "4_prob"
  bottom: "label"
  top: "4_accuracy"
  include {
    phase: TEST
  }
}
layer {
  name: "accuracy"
  type: "OracleAccuracy"
  bottom: "1_prob"
  bottom: "2_prob"
  bottom: "3_prob"
  bottom: "4_prob"
  bottom: "label"
  top: "oracle accuracy"
  include {
    phase: TEST
  }
}
I0208 08:41:38.540909 29722 layer_factory.hpp:74] Creating layer cifar
I0208 08:41:38.540920 29722 net.cpp:90] Creating Layer cifar
I0208 08:41:38.540925 29722 net.cpp:368] cifar -> data
I0208 08:41:38.540932 29722 net.cpp:368] cifar -> label
I0208 08:41:38.540938 29722 net.cpp:120] Setting up cifar
I0208 08:41:38.540977 29722 db.cpp:34] Opened lmdb /home/mike/ml_lab/mod/MCL_Caffe/examples/cifar10/cifar10_test_lmdb
I0208 08:41:38.540997 29722 data_layer.cpp:67] output data size: 100,3,32,32
I0208 08:41:38.541003 29722 data_transformer.cpp:22] Loading mean file from: /home/mike/ml_lab/mod/MCL_Caffe/examples/cifar10/mean.binaryproto
I0208 08:41:38.541395 29722 net.cpp:127] Top shape: 100 3 32 32 (307200)
I0208 08:41:38.541404 29722 net.cpp:127] Top shape: 100 (100)
I0208 08:41:38.541409 29722 layer_factory.hpp:74] Creating layer data_cifar_0_split
I0208 08:41:38.541415 29722 net.cpp:90] Creating Layer data_cifar_0_split
I0208 08:41:38.541419 29722 net.cpp:410] data_cifar_0_split <- data
I0208 08:41:38.541424 29722 net.cpp:368] data_cifar_0_split -> data_cifar_0_split_0
I0208 08:41:38.541432 29722 net.cpp:368] data_cifar_0_split -> data_cifar_0_split_1
I0208 08:41:38.541440 29722 net.cpp:368] data_cifar_0_split -> data_cifar_0_split_2
I0208 08:41:38.541446 29722 net.cpp:368] data_cifar_0_split -> data_cifar_0_split_3
I0208 08:41:38.541452 29722 net.cpp:120] Setting up data_cifar_0_split
I0208 08:41:38.541460 29722 net.cpp:127] Top shape: 100 3 32 32 (307200)
I0208 08:41:38.541465 29722 net.cpp:127] Top shape: 100 3 32 32 (307200)
I0208 08:41:38.541471 29722 net.cpp:127] Top shape: 100 3 32 32 (307200)
I0208 08:41:38.541476 29722 net.cpp:127] Top shape: 100 3 32 32 (307200)
I0208 08:41:38.541479 29722 layer_factory.hpp:74] Creating layer label_cifar_1_split
I0208 08:41:38.541486 29722 net.cpp:90] Creating Layer label_cifar_1_split
I0208 08:41:38.541491 29722 net.cpp:410] label_cifar_1_split <- label
I0208 08:41:38.541496 29722 net.cpp:368] label_cifar_1_split -> label_cifar_1_split_0
I0208 08:41:38.541501 29722 net.cpp:368] label_cifar_1_split -> label_cifar_1_split_1
I0208 08:41:38.541508 29722 net.cpp:368] label_cifar_1_split -> label_cifar_1_split_2
I0208 08:41:38.541515 29722 net.cpp:368] label_cifar_1_split -> label_cifar_1_split_3
I0208 08:41:38.541520 29722 net.cpp:368] label_cifar_1_split -> label_cifar_1_split_4
I0208 08:41:38.541525 29722 net.cpp:120] Setting up label_cifar_1_split
I0208 08:41:38.541533 29722 net.cpp:127] Top shape: 100 (100)
I0208 08:41:38.541538 29722 net.cpp:127] Top shape: 100 (100)
I0208 08:41:38.541543 29722 net.cpp:127] Top shape: 100 (100)
I0208 08:41:38.541548 29722 net.cpp:127] Top shape: 100 (100)
I0208 08:41:38.541553 29722 net.cpp:127] Top shape: 100 (100)
I0208 08:41:38.541556 29722 layer_factory.hpp:74] Creating layer 1_conv1
I0208 08:41:38.541563 29722 net.cpp:90] Creating Layer 1_conv1
I0208 08:41:38.541568 29722 net.cpp:410] 1_conv1 <- data_cifar_0_split_0
I0208 08:41:38.541574 29722 net.cpp:368] 1_conv1 -> 1_conv1
I0208 08:41:38.541579 29722 net.cpp:120] Setting up 1_conv1
I0208 08:41:38.541667 29722 net.cpp:127] Top shape: 100 32 32 32 (3276800)
I0208 08:41:38.541676 29722 layer_factory.hpp:74] Creating layer 1_pool1
I0208 08:41:38.541683 29722 net.cpp:90] Creating Layer 1_pool1
I0208 08:41:38.541687 29722 net.cpp:410] 1_pool1 <- 1_conv1
I0208 08:41:38.541692 29722 net.cpp:368] 1_pool1 -> 1_pool1
I0208 08:41:38.541698 29722 net.cpp:120] Setting up 1_pool1
I0208 08:41:38.541707 29722 net.cpp:127] Top shape: 100 32 16 16 (819200)
I0208 08:41:38.541710 29722 layer_factory.hpp:74] Creating layer 1_relu1
I0208 08:41:38.541715 29722 net.cpp:90] Creating Layer 1_relu1
I0208 08:41:38.541719 29722 net.cpp:410] 1_relu1 <- 1_pool1
I0208 08:41:38.541723 29722 net.cpp:357] 1_relu1 -> 1_pool1 (in-place)
I0208 08:41:38.541728 29722 net.cpp:120] Setting up 1_relu1
I0208 08:41:38.541743 29722 net.cpp:127] Top shape: 100 32 16 16 (819200)
I0208 08:41:38.541748 29722 layer_factory.hpp:74] Creating layer 1_conv2
I0208 08:41:38.541754 29722 net.cpp:90] Creating Layer 1_conv2
I0208 08:41:38.541759 29722 net.cpp:410] 1_conv2 <- 1_pool1
I0208 08:41:38.541764 29722 net.cpp:368] 1_conv2 -> 1_conv2
I0208 08:41:38.541770 29722 net.cpp:120] Setting up 1_conv2
I0208 08:41:38.542572 29722 net.cpp:127] Top shape: 100 32 16 16 (819200)
I0208 08:41:38.542583 29722 layer_factory.hpp:74] Creating layer 1_relu2
I0208 08:41:38.542590 29722 net.cpp:90] Creating Layer 1_relu2
I0208 08:41:38.542594 29722 net.cpp:410] 1_relu2 <- 1_conv2
I0208 08:41:38.542599 29722 net.cpp:357] 1_relu2 -> 1_conv2 (in-place)
I0208 08:41:38.542604 29722 net.cpp:120] Setting up 1_relu2
I0208 08:41:38.542610 29722 net.cpp:127] Top shape: 100 32 16 16 (819200)
I0208 08:41:38.542614 29722 layer_factory.hpp:74] Creating layer 1_pool2
I0208 08:41:38.542621 29722 net.cpp:90] Creating Layer 1_pool2
I0208 08:41:38.542625 29722 net.cpp:410] 1_pool2 <- 1_conv2
I0208 08:41:38.542630 29722 net.cpp:368] 1_pool2 -> 1_pool2
I0208 08:41:38.542635 29722 net.cpp:120] Setting up 1_pool2
I0208 08:41:38.542642 29722 net.cpp:127] Top shape: 100 32 8 8 (204800)
I0208 08:41:38.542646 29722 layer_factory.hpp:74] Creating layer 1_conv3
I0208 08:41:38.542651 29722 net.cpp:90] Creating Layer 1_conv3
I0208 08:41:38.542655 29722 net.cpp:410] 1_conv3 <- 1_pool2
I0208 08:41:38.542661 29722 net.cpp:368] 1_conv3 -> 1_conv3
I0208 08:41:38.542667 29722 net.cpp:120] Setting up 1_conv3
I0208 08:41:38.544047 29722 net.cpp:127] Top shape: 100 64 8 8 (409600)
I0208 08:41:38.544056 29722 layer_factory.hpp:74] Creating layer 1_relu3
I0208 08:41:38.544062 29722 net.cpp:90] Creating Layer 1_relu3
I0208 08:41:38.544066 29722 net.cpp:410] 1_relu3 <- 1_conv3
I0208 08:41:38.544073 29722 net.cpp:357] 1_relu3 -> 1_conv3 (in-place)
I0208 08:41:38.544080 29722 net.cpp:120] Setting up 1_relu3
I0208 08:41:38.544085 29722 net.cpp:127] Top shape: 100 64 8 8 (409600)
I0208 08:41:38.544090 29722 layer_factory.hpp:74] Creating layer 1_pool3
I0208 08:41:38.544093 29722 net.cpp:90] Creating Layer 1_pool3
I0208 08:41:38.544098 29722 net.cpp:410] 1_pool3 <- 1_conv3
I0208 08:41:38.544102 29722 net.cpp:368] 1_pool3 -> 1_pool3
I0208 08:41:38.544111 29722 net.cpp:120] Setting up 1_pool3
I0208 08:41:38.544118 29722 net.cpp:127] Top shape: 100 64 4 4 (102400)
I0208 08:41:38.544122 29722 layer_factory.hpp:74] Creating layer 1_ip1
I0208 08:41:38.544127 29722 net.cpp:90] Creating Layer 1_ip1
I0208 08:41:38.544131 29722 net.cpp:410] 1_ip1 <- 1_pool3
I0208 08:41:38.544137 29722 net.cpp:368] 1_ip1 -> 1_ip1
I0208 08:41:38.544143 29722 net.cpp:120] Setting up 1_ip1
I0208 08:41:38.545828 29722 net.cpp:127] Top shape: 100 64 (6400)
I0208 08:41:38.545836 29722 layer_factory.hpp:74] Creating layer 1_ip2
I0208 08:41:38.545842 29722 net.cpp:90] Creating Layer 1_ip2
I0208 08:41:38.545847 29722 net.cpp:410] 1_ip2 <- 1_ip1
I0208 08:41:38.545853 29722 net.cpp:368] 1_ip2 -> 1_ip2
I0208 08:41:38.545861 29722 net.cpp:120] Setting up 1_ip2
I0208 08:41:38.545892 29722 net.cpp:127] Top shape: 100 10 (1000)
I0208 08:41:38.545900 29722 layer_factory.hpp:74] Creating layer 1_prob
I0208 08:41:38.545907 29722 net.cpp:90] Creating Layer 1_prob
I0208 08:41:38.545912 29722 net.cpp:410] 1_prob <- 1_ip2
I0208 08:41:38.545917 29722 net.cpp:368] 1_prob -> 1_prob
I0208 08:41:38.545923 29722 net.cpp:120] Setting up 1_prob
I0208 08:41:38.545933 29722 net.cpp:127] Top shape: 100 10 (1000)
I0208 08:41:38.545938 29722 layer_factory.hpp:74] Creating layer 1_prob_1_prob_0_split
I0208 08:41:38.545941 29722 net.cpp:90] Creating Layer 1_prob_1_prob_0_split
I0208 08:41:38.545945 29722 net.cpp:410] 1_prob_1_prob_0_split <- 1_prob
I0208 08:41:38.545950 29722 net.cpp:368] 1_prob_1_prob_0_split -> 1_prob_1_prob_0_split_0
I0208 08:41:38.545956 29722 net.cpp:368] 1_prob_1_prob_0_split -> 1_prob_1_prob_0_split_1
I0208 08:41:38.545963 29722 net.cpp:120] Setting up 1_prob_1_prob_0_split
I0208 08:41:38.545969 29722 net.cpp:127] Top shape: 100 10 (1000)
I0208 08:41:38.545984 29722 net.cpp:127] Top shape: 100 10 (1000)
I0208 08:41:38.545989 29722 layer_factory.hpp:74] Creating layer 2_conv1
I0208 08:41:38.545996 29722 net.cpp:90] Creating Layer 2_conv1
I0208 08:41:38.546001 29722 net.cpp:410] 2_conv1 <- data_cifar_0_split_1
I0208 08:41:38.546007 29722 net.cpp:368] 2_conv1 -> 2_conv1
I0208 08:41:38.546015 29722 net.cpp:120] Setting up 2_conv1
I0208 08:41:38.546103 29722 net.cpp:127] Top shape: 100 32 32 32 (3276800)
I0208 08:41:38.546110 29722 layer_factory.hpp:74] Creating layer 2_pool1
I0208 08:41:38.546116 29722 net.cpp:90] Creating Layer 2_pool1
I0208 08:41:38.546120 29722 net.cpp:410] 2_pool1 <- 2_conv1
I0208 08:41:38.546125 29722 net.cpp:368] 2_pool1 -> 2_pool1
I0208 08:41:38.546131 29722 net.cpp:120] Setting up 2_pool1
I0208 08:41:38.546139 29722 net.cpp:127] Top shape: 100 32 16 16 (819200)
I0208 08:41:38.546142 29722 layer_factory.hpp:74] Creating layer 2_relu1
I0208 08:41:38.546147 29722 net.cpp:90] Creating Layer 2_relu1
I0208 08:41:38.546151 29722 net.cpp:410] 2_relu1 <- 2_pool1
I0208 08:41:38.546155 29722 net.cpp:357] 2_relu1 -> 2_pool1 (in-place)
I0208 08:41:38.546160 29722 net.cpp:120] Setting up 2_relu1
I0208 08:41:38.546166 29722 net.cpp:127] Top shape: 100 32 16 16 (819200)
I0208 08:41:38.546170 29722 layer_factory.hpp:74] Creating layer 2_conv2
I0208 08:41:38.546177 29722 net.cpp:90] Creating Layer 2_conv2
I0208 08:41:38.546182 29722 net.cpp:410] 2_conv2 <- 2_pool1
I0208 08:41:38.546187 29722 net.cpp:368] 2_conv2 -> 2_conv2
I0208 08:41:38.546195 29722 net.cpp:120] Setting up 2_conv2
I0208 08:41:38.546993 29722 net.cpp:127] Top shape: 100 32 16 16 (819200)
I0208 08:41:38.547003 29722 layer_factory.hpp:74] Creating layer 2_relu2
I0208 08:41:38.547010 29722 net.cpp:90] Creating Layer 2_relu2
I0208 08:41:38.547015 29722 net.cpp:410] 2_relu2 <- 2_conv2
I0208 08:41:38.547019 29722 net.cpp:357] 2_relu2 -> 2_conv2 (in-place)
I0208 08:41:38.547025 29722 net.cpp:120] Setting up 2_relu2
I0208 08:41:38.547031 29722 net.cpp:127] Top shape: 100 32 16 16 (819200)
I0208 08:41:38.547035 29722 layer_factory.hpp:74] Creating layer 2_pool2
I0208 08:41:38.547041 29722 net.cpp:90] Creating Layer 2_pool2
I0208 08:41:38.547045 29722 net.cpp:410] 2_pool2 <- 2_conv2
I0208 08:41:38.547050 29722 net.cpp:368] 2_pool2 -> 2_pool2
I0208 08:41:38.547055 29722 net.cpp:120] Setting up 2_pool2
I0208 08:41:38.547062 29722 net.cpp:127] Top shape: 100 32 8 8 (204800)
I0208 08:41:38.547066 29722 layer_factory.hpp:74] Creating layer 2_conv3
I0208 08:41:38.547072 29722 net.cpp:90] Creating Layer 2_conv3
I0208 08:41:38.547076 29722 net.cpp:410] 2_conv3 <- 2_pool2
I0208 08:41:38.547082 29722 net.cpp:368] 2_conv3 -> 2_conv3
I0208 08:41:38.547088 29722 net.cpp:120] Setting up 2_conv3
I0208 08:41:38.548398 29722 net.cpp:127] Top shape: 100 64 8 8 (409600)
I0208 08:41:38.548404 29722 layer_factory.hpp:74] Creating layer 2_relu3
I0208 08:41:38.548409 29722 net.cpp:90] Creating Layer 2_relu3
I0208 08:41:38.548414 29722 net.cpp:410] 2_relu3 <- 2_conv3
I0208 08:41:38.548418 29722 net.cpp:357] 2_relu3 -> 2_conv3 (in-place)
I0208 08:41:38.548424 29722 net.cpp:120] Setting up 2_relu3
I0208 08:41:38.548430 29722 net.cpp:127] Top shape: 100 64 8 8 (409600)
I0208 08:41:38.548434 29722 layer_factory.hpp:74] Creating layer 2_pool3
I0208 08:41:38.548440 29722 net.cpp:90] Creating Layer 2_pool3
I0208 08:41:38.548444 29722 net.cpp:410] 2_pool3 <- 2_conv3
I0208 08:41:38.548449 29722 net.cpp:368] 2_pool3 -> 2_pool3
I0208 08:41:38.548455 29722 net.cpp:120] Setting up 2_pool3
I0208 08:41:38.548462 29722 net.cpp:127] Top shape: 100 64 4 4 (102400)
I0208 08:41:38.548466 29722 layer_factory.hpp:74] Creating layer 2_ip1
I0208 08:41:38.548472 29722 net.cpp:90] Creating Layer 2_ip1
I0208 08:41:38.548477 29722 net.cpp:410] 2_ip1 <- 2_pool3
I0208 08:41:38.548482 29722 net.cpp:368] 2_ip1 -> 2_ip1
I0208 08:41:38.548488 29722 net.cpp:120] Setting up 2_ip1
I0208 08:41:38.550097 29722 net.cpp:127] Top shape: 100 64 (6400)
I0208 08:41:38.550107 29722 layer_factory.hpp:74] Creating layer 2_ip2
I0208 08:41:38.550115 29722 net.cpp:90] Creating Layer 2_ip2
I0208 08:41:38.550128 29722 net.cpp:410] 2_ip2 <- 2_ip1
I0208 08:41:38.550137 29722 net.cpp:368] 2_ip2 -> 2_ip2
I0208 08:41:38.550143 29722 net.cpp:120] Setting up 2_ip2
I0208 08:41:38.550176 29722 net.cpp:127] Top shape: 100 10 (1000)
I0208 08:41:38.550185 29722 layer_factory.hpp:74] Creating layer 2_prob
I0208 08:41:38.550191 29722 net.cpp:90] Creating Layer 2_prob
I0208 08:41:38.550196 29722 net.cpp:410] 2_prob <- 2_ip2
I0208 08:41:38.550202 29722 net.cpp:368] 2_prob -> 2_prob
I0208 08:41:38.550209 29722 net.cpp:120] Setting up 2_prob
I0208 08:41:38.550215 29722 net.cpp:127] Top shape: 100 10 (1000)
I0208 08:41:38.550220 29722 layer_factory.hpp:74] Creating layer 2_prob_2_prob_0_split
I0208 08:41:38.550225 29722 net.cpp:90] Creating Layer 2_prob_2_prob_0_split
I0208 08:41:38.550228 29722 net.cpp:410] 2_prob_2_prob_0_split <- 2_prob
I0208 08:41:38.550235 29722 net.cpp:368] 2_prob_2_prob_0_split -> 2_prob_2_prob_0_split_0
I0208 08:41:38.550240 29722 net.cpp:368] 2_prob_2_prob_0_split -> 2_prob_2_prob_0_split_1
I0208 08:41:38.550248 29722 net.cpp:120] Setting up 2_prob_2_prob_0_split
I0208 08:41:38.550254 29722 net.cpp:127] Top shape: 100 10 (1000)
I0208 08:41:38.550261 29722 net.cpp:127] Top shape: 100 10 (1000)
I0208 08:41:38.550264 29722 layer_factory.hpp:74] Creating layer 3_conv1
I0208 08:41:38.550271 29722 net.cpp:90] Creating Layer 3_conv1
I0208 08:41:38.550276 29722 net.cpp:410] 3_conv1 <- data_cifar_0_split_2
I0208 08:41:38.550282 29722 net.cpp:368] 3_conv1 -> 3_conv1
I0208 08:41:38.550289 29722 net.cpp:120] Setting up 3_conv1
I0208 08:41:38.550379 29722 net.cpp:127] Top shape: 100 32 32 32 (3276800)
I0208 08:41:38.550389 29722 layer_factory.hpp:74] Creating layer 3_pool1
I0208 08:41:38.550395 29722 net.cpp:90] Creating Layer 3_pool1
I0208 08:41:38.550398 29722 net.cpp:410] 3_pool1 <- 3_conv1
I0208 08:41:38.550403 29722 net.cpp:368] 3_pool1 -> 3_pool1
I0208 08:41:38.550410 29722 net.cpp:120] Setting up 3_pool1
I0208 08:41:38.550416 29722 net.cpp:127] Top shape: 100 32 16 16 (819200)
I0208 08:41:38.550420 29722 layer_factory.hpp:74] Creating layer 3_relu1
I0208 08:41:38.550426 29722 net.cpp:90] Creating Layer 3_relu1
I0208 08:41:38.550429 29722 net.cpp:410] 3_relu1 <- 3_pool1
I0208 08:41:38.550433 29722 net.cpp:357] 3_relu1 -> 3_pool1 (in-place)
I0208 08:41:38.550439 29722 net.cpp:120] Setting up 3_relu1
I0208 08:41:38.550444 29722 net.cpp:127] Top shape: 100 32 16 16 (819200)
I0208 08:41:38.550448 29722 layer_factory.hpp:74] Creating layer 3_conv2
I0208 08:41:38.550457 29722 net.cpp:90] Creating Layer 3_conv2
I0208 08:41:38.550462 29722 net.cpp:410] 3_conv2 <- 3_pool1
I0208 08:41:38.550467 29722 net.cpp:368] 3_conv2 -> 3_conv2
I0208 08:41:38.550472 29722 net.cpp:120] Setting up 3_conv2
I0208 08:41:38.551244 29722 net.cpp:127] Top shape: 100 32 16 16 (819200)
I0208 08:41:38.551251 29722 layer_factory.hpp:74] Creating layer 3_relu2
I0208 08:41:38.551256 29722 net.cpp:90] Creating Layer 3_relu2
I0208 08:41:38.551260 29722 net.cpp:410] 3_relu2 <- 3_conv2
I0208 08:41:38.551266 29722 net.cpp:357] 3_relu2 -> 3_conv2 (in-place)
I0208 08:41:38.551273 29722 net.cpp:120] Setting up 3_relu2
I0208 08:41:38.551280 29722 net.cpp:127] Top shape: 100 32 16 16 (819200)
I0208 08:41:38.551283 29722 layer_factory.hpp:74] Creating layer 3_pool2
I0208 08:41:38.551288 29722 net.cpp:90] Creating Layer 3_pool2
I0208 08:41:38.551292 29722 net.cpp:410] 3_pool2 <- 3_conv2
I0208 08:41:38.551297 29722 net.cpp:368] 3_pool2 -> 3_pool2
I0208 08:41:38.551303 29722 net.cpp:120] Setting up 3_pool2
I0208 08:41:38.551311 29722 net.cpp:127] Top shape: 100 32 8 8 (204800)
I0208 08:41:38.551316 29722 layer_factory.hpp:74] Creating layer 3_conv3
I0208 08:41:38.551322 29722 net.cpp:90] Creating Layer 3_conv3
I0208 08:41:38.551326 29722 net.cpp:410] 3_conv3 <- 3_pool2
I0208 08:41:38.551331 29722 net.cpp:368] 3_conv3 -> 3_conv3
I0208 08:41:38.551337 29722 net.cpp:120] Setting up 3_conv3
I0208 08:41:38.552534 29722 net.cpp:127] Top shape: 100 64 8 8 (409600)
I0208 08:41:38.552541 29722 layer_factory.hpp:74] Creating layer 3_relu3
I0208 08:41:38.552556 29722 net.cpp:90] Creating Layer 3_relu3
I0208 08:41:38.552561 29722 net.cpp:410] 3_relu3 <- 3_conv3
I0208 08:41:38.552567 29722 net.cpp:357] 3_relu3 -> 3_conv3 (in-place)
I0208 08:41:38.552572 29722 net.cpp:120] Setting up 3_relu3
I0208 08:41:38.552578 29722 net.cpp:127] Top shape: 100 64 8 8 (409600)
I0208 08:41:38.552583 29722 layer_factory.hpp:74] Creating layer 3_pool3
I0208 08:41:38.552587 29722 net.cpp:90] Creating Layer 3_pool3
I0208 08:41:38.552592 29722 net.cpp:410] 3_pool3 <- 3_conv3
I0208 08:41:38.552597 29722 net.cpp:368] 3_pool3 -> 3_pool3
I0208 08:41:38.552603 29722 net.cpp:120] Setting up 3_pool3
I0208 08:41:38.552610 29722 net.cpp:127] Top shape: 100 64 4 4 (102400)
I0208 08:41:38.552615 29722 layer_factory.hpp:74] Creating layer 3_ip1
I0208 08:41:38.552620 29722 net.cpp:90] Creating Layer 3_ip1
I0208 08:41:38.552624 29722 net.cpp:410] 3_ip1 <- 3_pool3
I0208 08:41:38.552630 29722 net.cpp:368] 3_ip1 -> 3_ip1
I0208 08:41:38.552636 29722 net.cpp:120] Setting up 3_ip1
I0208 08:41:38.554265 29722 net.cpp:127] Top shape: 100 64 (6400)
I0208 08:41:38.554273 29722 layer_factory.hpp:74] Creating layer 3_ip2
I0208 08:41:38.554280 29722 net.cpp:90] Creating Layer 3_ip2
I0208 08:41:38.554286 29722 net.cpp:410] 3_ip2 <- 3_ip1
I0208 08:41:38.554291 29722 net.cpp:368] 3_ip2 -> 3_ip2
I0208 08:41:38.554298 29722 net.cpp:120] Setting up 3_ip2
I0208 08:41:38.554333 29722 net.cpp:127] Top shape: 100 10 (1000)
I0208 08:41:38.554340 29722 layer_factory.hpp:74] Creating layer 3_prob
I0208 08:41:38.554347 29722 net.cpp:90] Creating Layer 3_prob
I0208 08:41:38.554350 29722 net.cpp:410] 3_prob <- 3_ip2
I0208 08:41:38.554358 29722 net.cpp:368] 3_prob -> 3_prob
I0208 08:41:38.554364 29722 net.cpp:120] Setting up 3_prob
I0208 08:41:38.554373 29722 net.cpp:127] Top shape: 100 10 (1000)
I0208 08:41:38.554376 29722 layer_factory.hpp:74] Creating layer 3_prob_3_prob_0_split
I0208 08:41:38.554381 29722 net.cpp:90] Creating Layer 3_prob_3_prob_0_split
I0208 08:41:38.554385 29722 net.cpp:410] 3_prob_3_prob_0_split <- 3_prob
I0208 08:41:38.554391 29722 net.cpp:368] 3_prob_3_prob_0_split -> 3_prob_3_prob_0_split_0
I0208 08:41:38.554399 29722 net.cpp:368] 3_prob_3_prob_0_split -> 3_prob_3_prob_0_split_1
I0208 08:41:38.554404 29722 net.cpp:120] Setting up 3_prob_3_prob_0_split
I0208 08:41:38.554410 29722 net.cpp:127] Top shape: 100 10 (1000)
I0208 08:41:38.554416 29722 net.cpp:127] Top shape: 100 10 (1000)
I0208 08:41:38.554419 29722 layer_factory.hpp:74] Creating layer 4_conv1
I0208 08:41:38.554425 29722 net.cpp:90] Creating Layer 4_conv1
I0208 08:41:38.554430 29722 net.cpp:410] 4_conv1 <- data_cifar_0_split_3
I0208 08:41:38.554436 29722 net.cpp:368] 4_conv1 -> 4_conv1
I0208 08:41:38.554443 29722 net.cpp:120] Setting up 4_conv1
I0208 08:41:38.554536 29722 net.cpp:127] Top shape: 100 32 32 32 (3276800)
I0208 08:41:38.554543 29722 layer_factory.hpp:74] Creating layer 4_pool1
I0208 08:41:38.554550 29722 net.cpp:90] Creating Layer 4_pool1
I0208 08:41:38.554554 29722 net.cpp:410] 4_pool1 <- 4_conv1
I0208 08:41:38.554559 29722 net.cpp:368] 4_pool1 -> 4_pool1
I0208 08:41:38.554565 29722 net.cpp:120] Setting up 4_pool1
I0208 08:41:38.554574 29722 net.cpp:127] Top shape: 100 32 16 16 (819200)
I0208 08:41:38.554577 29722 layer_factory.hpp:74] Creating layer 4_relu1
I0208 08:41:38.554581 29722 net.cpp:90] Creating Layer 4_relu1
I0208 08:41:38.554586 29722 net.cpp:410] 4_relu1 <- 4_pool1
I0208 08:41:38.554590 29722 net.cpp:357] 4_relu1 -> 4_pool1 (in-place)
I0208 08:41:38.554597 29722 net.cpp:120] Setting up 4_relu1
I0208 08:41:38.554603 29722 net.cpp:127] Top shape: 100 32 16 16 (819200)
I0208 08:41:38.554607 29722 layer_factory.hpp:74] Creating layer 4_conv2
I0208 08:41:38.554613 29722 net.cpp:90] Creating Layer 4_conv2
I0208 08:41:38.554617 29722 net.cpp:410] 4_conv2 <- 4_pool1
I0208 08:41:38.554625 29722 net.cpp:368] 4_conv2 -> 4_conv2
I0208 08:41:38.554630 29722 net.cpp:120] Setting up 4_conv2
I0208 08:41:38.555444 29722 net.cpp:127] Top shape: 100 32 16 16 (819200)
I0208 08:41:38.555457 29722 layer_factory.hpp:74] Creating layer 4_relu2
I0208 08:41:38.555471 29722 net.cpp:90] Creating Layer 4_relu2
I0208 08:41:38.555476 29722 net.cpp:410] 4_relu2 <- 4_conv2
I0208 08:41:38.555481 29722 net.cpp:357] 4_relu2 -> 4_conv2 (in-place)
I0208 08:41:38.555487 29722 net.cpp:120] Setting up 4_relu2
I0208 08:41:38.555493 29722 net.cpp:127] Top shape: 100 32 16 16 (819200)
I0208 08:41:38.555497 29722 layer_factory.hpp:74] Creating layer 4_pool2
I0208 08:41:38.555505 29722 net.cpp:90] Creating Layer 4_pool2
I0208 08:41:38.555508 29722 net.cpp:410] 4_pool2 <- 4_conv2
I0208 08:41:38.555513 29722 net.cpp:368] 4_pool2 -> 4_pool2
I0208 08:41:38.555519 29722 net.cpp:120] Setting up 4_pool2
I0208 08:41:38.555526 29722 net.cpp:127] Top shape: 100 32 8 8 (204800)
I0208 08:41:38.555531 29722 layer_factory.hpp:74] Creating layer 4_conv3
I0208 08:41:38.555536 29722 net.cpp:90] Creating Layer 4_conv3
I0208 08:41:38.555541 29722 net.cpp:410] 4_conv3 <- 4_pool2
I0208 08:41:38.555546 29722 net.cpp:368] 4_conv3 -> 4_conv3
I0208 08:41:38.555552 29722 net.cpp:120] Setting up 4_conv3
I0208 08:41:38.556869 29722 net.cpp:127] Top shape: 100 64 8 8 (409600)
I0208 08:41:38.556876 29722 layer_factory.hpp:74] Creating layer 4_relu3
I0208 08:41:38.556881 29722 net.cpp:90] Creating Layer 4_relu3
I0208 08:41:38.556886 29722 net.cpp:410] 4_relu3 <- 4_conv3
I0208 08:41:38.556890 29722 net.cpp:357] 4_relu3 -> 4_conv3 (in-place)
I0208 08:41:38.556896 29722 net.cpp:120] Setting up 4_relu3
I0208 08:41:38.556902 29722 net.cpp:127] Top shape: 100 64 8 8 (409600)
I0208 08:41:38.556906 29722 layer_factory.hpp:74] Creating layer 4_pool3
I0208 08:41:38.556912 29722 net.cpp:90] Creating Layer 4_pool3
I0208 08:41:38.556917 29722 net.cpp:410] 4_pool3 <- 4_conv3
I0208 08:41:38.556921 29722 net.cpp:368] 4_pool3 -> 4_pool3
I0208 08:41:38.556927 29722 net.cpp:120] Setting up 4_pool3
I0208 08:41:38.556934 29722 net.cpp:127] Top shape: 100 64 4 4 (102400)
I0208 08:41:38.556938 29722 layer_factory.hpp:74] Creating layer 4_ip1
I0208 08:41:38.556944 29722 net.cpp:90] Creating Layer 4_ip1
I0208 08:41:38.556949 29722 net.cpp:410] 4_ip1 <- 4_pool3
I0208 08:41:38.556953 29722 net.cpp:368] 4_ip1 -> 4_ip1
I0208 08:41:38.556960 29722 net.cpp:120] Setting up 4_ip1
I0208 08:41:38.558564 29722 net.cpp:127] Top shape: 100 64 (6400)
I0208 08:41:38.558571 29722 layer_factory.hpp:74] Creating layer 4_ip2
I0208 08:41:38.558578 29722 net.cpp:90] Creating Layer 4_ip2
I0208 08:41:38.558583 29722 net.cpp:410] 4_ip2 <- 4_ip1
I0208 08:41:38.558589 29722 net.cpp:368] 4_ip2 -> 4_ip2
I0208 08:41:38.558596 29722 net.cpp:120] Setting up 4_ip2
I0208 08:41:38.558627 29722 net.cpp:127] Top shape: 100 10 (1000)
I0208 08:41:38.558634 29722 layer_factory.hpp:74] Creating layer 4_prob
I0208 08:41:38.558640 29722 net.cpp:90] Creating Layer 4_prob
I0208 08:41:38.558645 29722 net.cpp:410] 4_prob <- 4_ip2
I0208 08:41:38.558650 29722 net.cpp:368] 4_prob -> 4_prob
I0208 08:41:38.558656 29722 net.cpp:120] Setting up 4_prob
I0208 08:41:38.558665 29722 net.cpp:127] Top shape: 100 10 (1000)
I0208 08:41:38.558668 29722 layer_factory.hpp:74] Creating layer 4_prob_4_prob_0_split
I0208 08:41:38.558673 29722 net.cpp:90] Creating Layer 4_prob_4_prob_0_split
I0208 08:41:38.558677 29722 net.cpp:410] 4_prob_4_prob_0_split <- 4_prob
I0208 08:41:38.558686 29722 net.cpp:368] 4_prob_4_prob_0_split -> 4_prob_4_prob_0_split_0
I0208 08:41:38.558692 29722 net.cpp:368] 4_prob_4_prob_0_split -> 4_prob_4_prob_0_split_1
I0208 08:41:38.558698 29722 net.cpp:120] Setting up 4_prob_4_prob_0_split
I0208 08:41:38.558704 29722 net.cpp:127] Top shape: 100 10 (1000)
I0208 08:41:38.558709 29722 net.cpp:127] Top shape: 100 10 (1000)
I0208 08:41:38.558713 29722 layer_factory.hpp:74] Creating layer 1_accuracy
I0208 08:41:38.558719 29722 net.cpp:90] Creating Layer 1_accuracy
I0208 08:41:38.558723 29722 net.cpp:410] 1_accuracy <- 1_prob_1_prob_0_split_0
I0208 08:41:38.558727 29722 net.cpp:410] 1_accuracy <- label_cifar_1_split_0
I0208 08:41:38.558733 29722 net.cpp:368] 1_accuracy -> 1_accuracy
I0208 08:41:38.558739 29722 net.cpp:120] Setting up 1_accuracy
…
