…
I0130 09:50:51.505720   428 net.cpp:287] The NetState phase (0) differed from the phase (1) specified by a rule in layer accuracy
I0130 09:50:51.505921   428 net.cpp:42] Initializing net from parameters: 
name: "CIFAR10_quick"
state {
  phase: TRAIN
}
layer {
  name: "cifar"
  type: "Data"
  top: "data"
  top: "label"
  include {
    phase: TRAIN
  }
  transform_param {
    mean_file: "/home/mike/ml_lab/mod/MCL_Caffe/examples/cifar10/mean.binaryproto"
  }
  data_param {
    source: "/home/mike/ml_lab/mod/MCL_Caffe/examples/cifar10/cifar10_train_lmdb"
    batch_size: 350
    backend: LMDB
  }
}
layer {
  name: "1_conv1"
  type: "Convolution"
  bottom: "data"
  top: "1_conv1"
  param {
    lr_mult: 1
  }
  param {
    lr_mult: 2
  }
  convolution_param {
    num_output: 32
    pad: 2
    kernel_size: 5
    stride: 1
    weight_filler {
      type: "gaussian"
      std: 0.0001
    }
    bias_filler {
      type: "constant"
    }
  }
}
layer {
  name: "1_pool1"
  type: "Pooling"
  bottom: "1_conv1"
  top: "1_pool1"
  pooling_param {
    pool: MAX
    kernel_size: 3
    stride: 2
  }
}
layer {
  name: "1_relu1"
  type: "ReLU"
  bottom: "1_pool1"
  top: "1_pool1"
}
layer {
  name: "1_conv2"
  type: "Convolution"
  bottom: "1_pool1"
  top: "1_conv2"
  param {
    lr_mult: 1
  }
  param {
    lr_mult: 2
  }
  convolution_param {
    num_output: 32
    pad: 2
    kernel_size: 5
    stride: 1
    weight_filler {
      type: "gaussian"
      std: 0.01
    }
    bias_filler {
      type: "constant"
    }
  }
}
layer {
  name: "1_relu2"
  type: "ReLU"
  bottom: "1_conv2"
  top: "1_conv2"
}
layer {
  name: "1_pool2"
  type: "Pooling"
  bottom: "1_conv2"
  top: "1_pool2"
  pooling_param {
    pool: AVE
    kernel_size: 3
    stride: 2
  }
}
layer {
  name: "1_conv3"
  type: "Convolution"
  bottom: "1_pool2"
  top: "1_conv3"
  param {
    lr_mult: 1
  }
  param {
    lr_mult: 2
  }
  convolution_param {
    num_output: 64
    pad: 2
    kernel_size: 5
    stride: 1
    weight_filler {
      type: "gaussian"
      std: 0.01
    }
    bias_filler {
      type: "constant"
    }
  }
}
layer {
  name: "1_relu3"
  type: "ReLU"
  bottom: "1_conv3"
  top: "1_conv3"
}
layer {
  name: "1_pool3"
  type: "Pooling"
  bottom: "1_conv3"
  top: "1_pool3"
  pooling_param {
    pool: AVE
    kernel_size: 3
    stride: 2
  }
}
layer {
  name: "1_ip1"
  type: "InnerProduct"
  bottom: "1_pool3"
  top: "1_ip1"
  param {
    lr_mult: 1
  }
  param {
    lr_mult: 2
  }
  inner_product_param {
    num_output: 64
    weight_filler {
      type: "gaussian"
      std: 0.1
    }
    bias_filler {
      type: "constant"
    }
  }
}
layer {
  name: "1_ip2"
  type: "InnerProduct"
  bottom: "1_ip1"
  top: "1_ip2"
  param {
    lr_mult: 1
  }
  param {
    lr_mult: 2
  }
  inner_product_param {
    num_output: 10
    weight_filler {
      type: "gaussian"
      std: 0.1
    }
    bias_filler {
      type: "constant"
    }
  }
}
layer {
  name: "1_prob"
  type: "Softmax"
  bottom: "1_ip2"
  top: "1_prob"
}
layer {
  name: "2_conv1"
  type: "Convolution"
  bottom: "data"
  top: "2_conv1"
  param {
    lr_mult: 1
  }
  param {
    lr_mult: 2
  }
  convolution_param {
    num_output: 32
    pad: 2
    kernel_size: 5
    stride: 1
    weight_filler {
      type: "gaussian"
      std: 0.0001
    }
    bias_filler {
      type: "constant"
    }
  }
}
layer {
  name: "2_pool1"
  type: "Pooling"
  bottom: "2_conv1"
  top: "2_pool1"
  pooling_param {
    pool: MAX
    kernel_size: 3
    stride: 2
  }
}
layer {
  name: "2_relu1"
  type: "ReLU"
  bottom: "2_pool1"
  top: "2_pool1"
}
layer {
  name: "2_conv2"
  type: "Convolution"
  bottom: "2_pool1"
  top: "2_conv2"
  param {
    lr_mult: 1
  }
  param {
    lr_mult: 2
  }
  convolution_param {
    num_output: 32
    pad: 2
    kernel_size: 5
    stride: 1
    weight_filler {
      type: "gaussian"
      std: 0.01
    }
    bias_filler {
      type: "constant"
    }
  }
}
layer {
  name: "2_relu2"
  type: "ReLU"
  bottom: "2_conv2"
  top: "2_conv2"
}
layer {
  name: "2_pool2"
  type: "Pooling"
  bottom: "2_conv2"
  top: "2_pool2"
  pooling_param {
    pool: AVE
    kernel_size: 3
    stride: 2
  }
}
layer {
  name: "2_conv3"
  type: "Convolution"
  bottom: "2_pool2"
  top: "2_conv3"
  param {
    lr_mult: 1
  }
  param {
    lr_mult: 2
  }
  convolution_param {
    num_output: 64
    pad: 2
    kernel_size: 5
    stride: 1
    weight_filler {
      type: "gaussian"
      std: 0.01
    }
    bias_filler {
      type: "constant"
    }
  }
}
layer {
  name: "2_relu3"
  type: "ReLU"
  bottom: "2_conv3"
  top: "2_conv3"
}
layer {
  name: "2_pool3"
  type: "Pooling"
  bottom: "2_conv3"
  top: "2_pool3"
  pooling_param {
    pool: AVE
    kernel_size: 3
    stride: 2
  }
}
layer {
  name: "2_ip1"
  type: "InnerProduct"
  bottom: "2_pool3"
  top: "2_ip1"
  param {
    lr_mult: 1
  }
  param {
    lr_mult: 2
  }
  inner_product_param {
    num_output: 64
    weight_filler {
      type: "gaussian"
      std: 0.1
    }
    bias_filler {
      type: "constant"
    }
  }
}
layer {
  name: "2_ip2"
  type: "InnerProduct"
  bottom: "2_ip1"
  top: "2_ip2"
  param {
    lr_mult: 1
  }
  param {
    lr_mult: 2
  }
  inner_product_param {
    num_output: 10
    weight_filler {
      type: "gaussian"
      std: 0.1
    }
    bias_filler {
      type: "constant"
    }
  }
}
layer {
  name: "2_prob"
  type: "Softmax"
  bottom: "2_ip2"
  top: "2_prob"
}
layer {
  name: "3_conv1"
  type: "Convolution"
  bottom: "data"
  top: "3_conv1"
  param {
    lr_mult: 1
  }
  param {
    lr_mult: 2
  }
  convolution_param {
    num_output: 32
    pad: 2
    kernel_size: 5
    stride: 1
    weight_filler {
      type: "gaussian"
      std: 0.0001
    }
    bias_filler {
      type: "constant"
    }
  }
}
layer {
  name: "3_pool1"
  type: "Pooling"
  bottom: "3_conv1"
  top: "3_pool1"
  pooling_param {
    pool: MAX
    kernel_size: 3
    stride: 2
  }
}
layer {
  name: "3_relu1"
  type: "ReLU"
  bottom: "3_pool1"
  top: "3_pool1"
}
layer {
  name: "3_conv2"
  type: "Convolution"
  bottom: "3_pool1"
  top: "3_conv2"
  param {
    lr_mult: 1
  }
  param {
    lr_mult: 2
  }
  convolution_param {
    num_output: 32
    pad: 2
    kernel_size: 5
    stride: 1
    weight_filler {
      type: "gaussian"
      std: 0.01
    }
    bias_filler {
      type: "constant"
    }
  }
}
layer {
  name: "3_relu2"
  type: "ReLU"
  bottom: "3_conv2"
  top: "3_conv2"
}
layer {
  name: "3_pool2"
  type: "Pooling"
  bottom: "3_conv2"
  top: "3_pool2"
  pooling_param {
    pool: AVE
    kernel_size: 3
    stride: 2
  }
}
layer {
  name: "3_conv3"
  type: "Convolution"
  bottom: "3_pool2"
  top: "3_conv3"
  param {
    lr_mult: 1
  }
  param {
    lr_mult: 2
  }
  convolution_param {
    num_output: 64
    pad: 2
    kernel_size: 5
    stride: 1
    weight_filler {
      type: "gaussian"
      std: 0.01
    }
    bias_filler {
      type: "constant"
    }
  }
}
layer {
  name: "3_relu3"
  type: "ReLU"
  bottom: "3_conv3"
  top: "3_conv3"
}
layer {
  name: "3_pool3"
  type: "Pooling"
  bottom: "3_conv3"
  top: "3_pool3"
  pooling_param {
    pool: AVE
    kernel_size: 3
    stride: 2
  }
}
layer {
  name: "3_ip1"
  type: "InnerProduct"
  bottom: "3_pool3"
  top: "3_ip1"
  param {
    lr_mult: 1
  }
  param {
    lr_mult: 2
  }
  inner_product_param {
    num_output: 64
    weight_filler {
      type: "gaussian"
      std: 0.1
    }
    bias_filler {
      type: "constant"
    }
  }
}
layer {
  name: "3_ip2"
  type: "InnerProduct"
  bottom: "3_ip1"
  top: "3_ip2"
  param {
    lr_mult: 1
  }
  param {
    lr_mult: 2
  }
  inner_product_param {
    num_output: 10
    weight_filler {
      type: "gaussian"
      std: 0.1
    }
    bias_filler {
      type: "constant"
    }
  }
}
layer {
  name: "3_prob"
  type: "Softmax"
  bottom: "3_ip2"
  top: "3_prob"
}
layer {
  name: "4_conv1"
  type: "Convolution"
  bottom: "data"
  top: "4_conv1"
  param {
    lr_mult: 1
  }
  param {
    lr_mult: 2
  }
  convolution_param {
    num_output: 32
    pad: 2
    kernel_size: 5
    stride: 1
    weight_filler {
      type: "gaussian"
      std: 0.0001
    }
    bias_filler {
      type: "constant"
    }
  }
}
layer {
  name: "4_pool1"
  type: "Pooling"
  bottom: "4_conv1"
  top: "4_pool1"
  pooling_param {
    pool: MAX
    kernel_size: 3
    stride: 2
  }
}
layer {
  name: "4_relu1"
  type: "ReLU"
  bottom: "4_pool1"
  top: "4_pool1"
}
layer {
  name: "4_conv2"
  type: "Convolution"
  bottom: "4_pool1"
  top: "4_conv2"
  param {
    lr_mult: 1
  }
  param {
    lr_mult: 2
  }
  convolution_param {
    num_output: 32
    pad: 2
    kernel_size: 5
    stride: 1
    weight_filler {
      type: "gaussian"
      std: 0.01
    }
    bias_filler {
      type: "constant"
    }
  }
}
layer {
  name: "4_relu2"
  type: "ReLU"
  bottom: "4_conv2"
  top: "4_conv2"
}
layer {
  name: "4_pool2"
  type: "Pooling"
  bottom: "4_conv2"
  top: "4_pool2"
  pooling_param {
    pool: AVE
    kernel_size: 3
    stride: 2
  }
}
layer {
  name: "4_conv3"
  type: "Convolution"
  bottom: "4_pool2"
  top: "4_conv3"
  param {
    lr_mult: 1
  }
  param {
    lr_mult: 2
  }
  convolution_param {
    num_output: 64
    pad: 2
    kernel_size: 5
    stride: 1
    weight_filler {
      type: "gaussian"
      std: 0.01
    }
    bias_filler {
      type: "constant"
    }
  }
}
layer {
  name: "4_relu3"
  type: "ReLU"
  bottom: "4_conv3"
  top: "4_conv3"
}
layer {
  name: "4_pool3"
  type: "Pooling"
  bottom: "4_conv3"
  top: "4_pool3"
  pooling_param {
    pool: AVE
    kernel_size: 3
    stride: 2
  }
}
layer {
  name: "4_ip1"
  type: "InnerProduct"
  bottom: "4_pool3"
  top: "4_ip1"
  param {
    lr_mult: 1
  }
  param {
    lr_mult: 2
  }
  inner_product_param {
    num_output: 64
    weight_filler {
      type: "gaussian"
      std: 0.1
    }
    bias_filler {
      type: "constant"
    }
  }
}
layer {
  name: "4_ip2"
  type: "InnerProduct"
  bottom: "4_ip1"
  top: "4_ip2"
  param {
    lr_mult: 1
  }
  param {
    lr_mult: 2
  }
  inner_product_param {
    num_output: 10
    weight_filler {
      type: "gaussian"
      std: 0.1
    }
    bias_filler {
      type: "constant"
    }
  }
}
layer {
  name: "4_prob"
  type: "Softmax"
  bottom: "4_ip2"
  top: "4_prob"
}
layer {
  name: "5_conv1"
  type: "Convolution"
  bottom: "data"
  top: "5_conv1"
  param {
    lr_mult: 1
  }
  param {
    lr_mult: 2
  }
  convolution_param {
    num_output: 32
    pad: 2
    kernel_size: 5
    stride: 1
    weight_filler {
      type: "gaussian"
      std: 0.0001
    }
    bias_filler {
      type: "constant"
    }
  }
}
layer {
  name: "5_pool1"
  type: "Pooling"
  bottom: "5_conv1"
  top: "5_pool1"
  pooling_param {
    pool: MAX
    kernel_size: 3
    stride: 2
  }
}
layer {
  name: "5_relu1"
  type: "ReLU"
  bottom: "5_pool1"
  top: "5_pool1"
}
layer {
  name: "5_conv2"
  type: "Convolution"
  bottom: "5_pool1"
  top: "5_conv2"
  param {
    lr_mult: 1
  }
  param {
    lr_mult: 2
  }
  convolution_param {
    num_output: 32
    pad: 2
    kernel_size: 5
    stride: 1
    weight_filler {
      type: "gaussian"
      std: 0.01
    }
    bias_filler {
      type: "constant"
    }
  }
}
layer {
  name: "5_relu2"
  type: "ReLU"
  bottom: "5_conv2"
  top: "5_conv2"
}
layer {
  name: "5_pool2"
  type: "Pooling"
  bottom: "5_conv2"
  top: "5_pool2"
  pooling_param {
    pool: AVE
    kernel_size: 3
    stride: 2
  }
}
layer {
  name: "5_conv3"
  type: "Convolution"
  bottom: "5_pool2"
  top: "5_conv3"
  param {
    lr_mult: 1
  }
  param {
    lr_mult: 2
  }
  convolution_param {
    num_output: 64
    pad: 2
    kernel_size: 5
    stride: 1
    weight_filler {
      type: "gaussian"
      std: 0.01
    }
    bias_filler {
      type: "constant"
    }
  }
}
layer {
  name: "5_relu3"
  type: "ReLU"
  bottom: "5_conv3"
  top: "5_conv3"
}
layer {
  name: "5_pool3"
  type: "Pooling"
  bottom: "5_conv3"
  top: "5_pool3"
  pooling_param {
    pool: AVE
    kernel_size: 3
    stride: 2
  }
}
layer {
  name: "5_ip1"
  type: "InnerProduct"
  bottom: "5_pool3"
  top: "5_ip1"
  param {
    lr_mult: 1
  }
  param {
    lr_mult: 2
  }
  inner_product_param {
    num_output: 64
    weight_filler {
      type: "gaussian"
      std: 0.1
    }
    bias_filler {
      type: "constant"
    }
  }
}
layer {
  name: "5_ip2"
  type: "InnerProduct"
  bottom: "5_ip1"
  top: "5_ip2"
  param {
    lr_mult: 1
  }
  param {
    lr_mult: 2
  }
  inner_product_param {
    num_output: 10
    weight_filler {
      type: "gaussian"
      std: 0.1
    }
    bias_filler {
      type: "constant"
    }
  }
}
layer {
  name: "5_prob"
  type: "Softmax"
  bottom: "5_ip2"
  top: "5_prob"
}
layer {
  name: "loss"
  type: "ODMultinomialLogisticLoss"
  bottom: "1_prob"
  bottom: "2_prob"
  bottom: "3_prob"
  bottom: "4_prob"
  bottom: "5_prob"
  bottom: "label"
  top: "multiple-output loss"
  top: "batch-instance-counts"
  top: "train-instance-counts"
  loss_weight: 1
  loss_weight: 0
  loss_weight: 0
  include {
    phase: TRAIN
  }
}
I0130 09:50:51.506129   428 layer_factory.hpp:74] Creating layer cifar
I0130 09:50:51.506145   428 net.cpp:90] Creating Layer cifar
I0130 09:50:51.506152   428 net.cpp:368] cifar -> data
I0130 09:50:51.506170   428 net.cpp:368] cifar -> label
I0130 09:50:51.506176   428 net.cpp:120] Setting up cifar
I0130 09:50:51.506227   428 db.cpp:34] Opened lmdb /home/mike/ml_lab/mod/MCL_Caffe/examples/cifar10/cifar10_train_lmdb
I0130 09:50:51.506256   428 data_layer.cpp:67] output data size: 350,3,32,32
I0130 09:50:51.506263   428 data_transformer.cpp:22] Loading mean file from: /home/mike/ml_lab/mod/MCL_Caffe/examples/cifar10/mean.binaryproto
I0130 09:50:51.506938   428 net.cpp:127] Top shape: 350 3 32 32 (1075200)
I0130 09:50:51.506944   428 net.cpp:127] Top shape: 350 (350)
I0130 09:50:51.506947   428 layer_factory.hpp:74] Creating layer data_cifar_0_split
I0130 09:50:51.506956   428 net.cpp:90] Creating Layer data_cifar_0_split
I0130 09:50:51.506961   428 net.cpp:410] data_cifar_0_split <- data
I0130 09:50:51.506983   428 net.cpp:368] data_cifar_0_split -> data_cifar_0_split_0
I0130 09:50:51.506989   428 net.cpp:368] data_cifar_0_split -> data_cifar_0_split_1
I0130 09:50:51.506992   428 net.cpp:368] data_cifar_0_split -> data_cifar_0_split_2
I0130 09:50:51.506996   428 net.cpp:368] data_cifar_0_split -> data_cifar_0_split_3
I0130 09:50:51.506999   428 net.cpp:368] data_cifar_0_split -> data_cifar_0_split_4
I0130 09:50:51.507002   428 net.cpp:120] Setting up data_cifar_0_split
I0130 09:50:51.507007   428 net.cpp:127] Top shape: 350 3 32 32 (1075200)
I0130 09:50:51.507010   428 net.cpp:127] Top shape: 350 3 32 32 (1075200)
I0130 09:50:51.507012   428 net.cpp:127] Top shape: 350 3 32 32 (1075200)
I0130 09:50:51.507015   428 net.cpp:127] Top shape: 350 3 32 32 (1075200)
I0130 09:50:51.507017   428 net.cpp:127] Top shape: 350 3 32 32 (1075200)
I0130 09:50:51.507026   428 layer_factory.hpp:74] Creating layer 1_conv1
I0130 09:50:51.507032   428 net.cpp:90] Creating Layer 1_conv1
I0130 09:50:51.507035   428 net.cpp:410] 1_conv1 <- data_cifar_0_split_0
I0130 09:50:51.507037   428 net.cpp:368] 1_conv1 -> 1_conv1
I0130 09:50:51.507043   428 net.cpp:120] Setting up 1_conv1
I0130 09:50:51.507457   428 net.cpp:127] Top shape: 350 32 32 32 (11468800)
I0130 09:50:51.507473   428 layer_factory.hpp:74] Creating layer 1_pool1
I0130 09:50:51.507478   428 net.cpp:90] Creating Layer 1_pool1
I0130 09:50:51.507480   428 net.cpp:410] 1_pool1 <- 1_conv1
I0130 09:50:51.507484   428 net.cpp:368] 1_pool1 -> 1_pool1
I0130 09:50:51.507489   428 net.cpp:120] Setting up 1_pool1
I0130 09:50:51.507515   428 net.cpp:127] Top shape: 350 32 16 16 (2867200)
I0130 09:50:51.507519   428 layer_factory.hpp:74] Creating layer 1_relu1
I0130 09:50:51.507522   428 net.cpp:90] Creating Layer 1_relu1
I0130 09:50:51.507524   428 net.cpp:410] 1_relu1 <- 1_pool1
I0130 09:50:51.507526   428 net.cpp:357] 1_relu1 -> 1_pool1 (in-place)
I0130 09:50:51.507529   428 net.cpp:120] Setting up 1_relu1
I0130 09:50:51.507534   428 net.cpp:127] Top shape: 350 32 16 16 (2867200)
I0130 09:50:51.507535   428 layer_factory.hpp:74] Creating layer 1_conv2
I0130 09:50:51.507540   428 net.cpp:90] Creating Layer 1_conv2
I0130 09:50:51.507542   428 net.cpp:410] 1_conv2 <- 1_pool1
I0130 09:50:51.507550   428 net.cpp:368] 1_conv2 -> 1_conv2
I0130 09:50:51.507555   428 net.cpp:120] Setting up 1_conv2
I0130 09:50:51.508149   428 net.cpp:127] Top shape: 350 32 16 16 (2867200)
I0130 09:50:51.508157   428 layer_factory.hpp:74] Creating layer 1_relu2
I0130 09:50:51.508159   428 net.cpp:90] Creating Layer 1_relu2
I0130 09:50:51.508162   428 net.cpp:410] 1_relu2 <- 1_conv2
I0130 09:50:51.508164   428 net.cpp:357] 1_relu2 -> 1_conv2 (in-place)
I0130 09:50:51.508167   428 net.cpp:120] Setting up 1_relu2
I0130 09:50:51.508169   428 net.cpp:127] Top shape: 350 32 16 16 (2867200)
I0130 09:50:51.508172   428 layer_factory.hpp:74] Creating layer 1_pool2
I0130 09:50:51.508175   428 net.cpp:90] Creating Layer 1_pool2
I0130 09:50:51.508177   428 net.cpp:410] 1_pool2 <- 1_conv2
I0130 09:50:51.508179   428 net.cpp:368] 1_pool2 -> 1_pool2
I0130 09:50:51.508183   428 net.cpp:120] Setting up 1_pool2
I0130 09:50:51.508186   428 net.cpp:127] Top shape: 350 32 8 8 (716800)
I0130 09:50:51.508188   428 layer_factory.hpp:74] Creating layer 1_conv3
I0130 09:50:51.508193   428 net.cpp:90] Creating Layer 1_conv3
I0130 09:50:51.508194   428 net.cpp:410] 1_conv3 <- 1_pool2
I0130 09:50:51.508198   428 net.cpp:368] 1_conv3 -> 1_conv3
I0130 09:50:51.508200   428 net.cpp:120] Setting up 1_conv3
I0130 09:50:51.509368   428 net.cpp:127] Top shape: 350 64 8 8 (1433600)
I0130 09:50:51.509376   428 layer_factory.hpp:74] Creating layer 1_relu3
I0130 09:50:51.509378   428 net.cpp:90] Creating Layer 1_relu3
I0130 09:50:51.509380   428 net.cpp:410] 1_relu3 <- 1_conv3
I0130 09:50:51.509383   428 net.cpp:357] 1_relu3 -> 1_conv3 (in-place)
I0130 09:50:51.509387   428 net.cpp:120] Setting up 1_relu3
I0130 09:50:51.509389   428 net.cpp:127] Top shape: 350 64 8 8 (1433600)
I0130 09:50:51.509392   428 layer_factory.hpp:74] Creating layer 1_pool3
I0130 09:50:51.509394   428 net.cpp:90] Creating Layer 1_pool3
I0130 09:50:51.509397   428 net.cpp:410] 1_pool3 <- 1_conv3
I0130 09:50:51.509398   428 net.cpp:368] 1_pool3 -> 1_pool3
I0130 09:50:51.509402   428 net.cpp:120] Setting up 1_pool3
I0130 09:50:51.509405   428 net.cpp:127] Top shape: 350 64 4 4 (358400)
I0130 09:50:51.509407   428 layer_factory.hpp:74] Creating layer 1_ip1
I0130 09:50:51.509412   428 net.cpp:90] Creating Layer 1_ip1
I0130 09:50:51.509413   428 net.cpp:410] 1_ip1 <- 1_pool3
I0130 09:50:51.509418   428 net.cpp:368] 1_ip1 -> 1_ip1
I0130 09:50:51.509421   428 net.cpp:120] Setting up 1_ip1
I0130 09:50:51.510968   428 net.cpp:127] Top shape: 350 64 (22400)
I0130 09:50:51.510977   428 layer_factory.hpp:74] Creating layer 1_ip2
I0130 09:50:51.510980   428 net.cpp:90] Creating Layer 1_ip2
I0130 09:50:51.510989   428 net.cpp:410] 1_ip2 <- 1_ip1
I0130 09:50:51.510996   428 net.cpp:368] 1_ip2 -> 1_ip2
I0130 09:50:51.511001   428 net.cpp:120] Setting up 1_ip2
I0130 09:50:51.511023   428 net.cpp:127] Top shape: 350 10 (3500)
I0130 09:50:51.511029   428 layer_factory.hpp:74] Creating layer 1_prob
I0130 09:50:51.511032   428 net.cpp:90] Creating Layer 1_prob
I0130 09:50:51.511034   428 net.cpp:410] 1_prob <- 1_ip2
I0130 09:50:51.511037   428 net.cpp:368] 1_prob -> 1_prob
I0130 09:50:51.511040   428 net.cpp:120] Setting up 1_prob
I0130 09:50:51.511046   428 net.cpp:127] Top shape: 350 10 (3500)
I0130 09:50:51.511049   428 layer_factory.hpp:74] Creating layer 2_conv1
I0130 09:50:51.511052   428 net.cpp:90] Creating Layer 2_conv1
I0130 09:50:51.511054   428 net.cpp:410] 2_conv1 <- data_cifar_0_split_1
I0130 09:50:51.511057   428 net.cpp:368] 2_conv1 -> 2_conv1
I0130 09:50:51.511061   428 net.cpp:120] Setting up 2_conv1
I0130 09:50:51.511126   428 net.cpp:127] Top shape: 350 32 32 32 (11468800)
I0130 09:50:51.511133   428 layer_factory.hpp:74] Creating layer 2_pool1
I0130 09:50:51.511138   428 net.cpp:90] Creating Layer 2_pool1
I0130 09:50:51.511140   428 net.cpp:410] 2_pool1 <- 2_conv1
I0130 09:50:51.511144   428 net.cpp:368] 2_pool1 -> 2_pool1
I0130 09:50:51.511147   428 net.cpp:120] Setting up 2_pool1
I0130 09:50:51.511152   428 net.cpp:127] Top shape: 350 32 16 16 (2867200)
I0130 09:50:51.511153   428 layer_factory.hpp:74] Creating layer 2_relu1
I0130 09:50:51.511157   428 net.cpp:90] Creating Layer 2_relu1
I0130 09:50:51.511158   428 net.cpp:410] 2_relu1 <- 2_pool1
I0130 09:50:51.511162   428 net.cpp:357] 2_relu1 -> 2_pool1 (in-place)
I0130 09:50:51.511163   428 net.cpp:120] Setting up 2_relu1
I0130 09:50:51.511167   428 net.cpp:127] Top shape: 350 32 16 16 (2867200)
I0130 09:50:51.511168   428 layer_factory.hpp:74] Creating layer 2_conv2
I0130 09:50:51.511171   428 net.cpp:90] Creating Layer 2_conv2
I0130 09:50:51.511173   428 net.cpp:410] 2_conv2 <- 2_pool1
I0130 09:50:51.511178   428 net.cpp:368] 2_conv2 -> 2_conv2
I0130 09:50:51.511180   428 net.cpp:120] Setting up 2_conv2
I0130 09:50:51.511780   428 net.cpp:127] Top shape: 350 32 16 16 (2867200)
I0130 09:50:51.511786   428 layer_factory.hpp:74] Creating layer 2_relu2
I0130 09:50:51.511790   428 net.cpp:90] Creating Layer 2_relu2
I0130 09:50:51.511791   428 net.cpp:410] 2_relu2 <- 2_conv2
I0130 09:50:51.511795   428 net.cpp:357] 2_relu2 -> 2_conv2 (in-place)
I0130 09:50:51.511797   428 net.cpp:120] Setting up 2_relu2
I0130 09:50:51.511801   428 net.cpp:127] Top shape: 350 32 16 16 (2867200)
I0130 09:50:51.511802   428 layer_factory.hpp:74] Creating layer 2_pool2
I0130 09:50:51.511806   428 net.cpp:90] Creating Layer 2_pool2
I0130 09:50:51.511808   428 net.cpp:410] 2_pool2 <- 2_conv2
I0130 09:50:51.511811   428 net.cpp:368] 2_pool2 -> 2_pool2
I0130 09:50:51.511813   428 net.cpp:120] Setting up 2_pool2
I0130 09:50:51.511817   428 net.cpp:127] Top shape: 350 32 8 8 (716800)
I0130 09:50:51.511819   428 layer_factory.hpp:74] Creating layer 2_conv3
I0130 09:50:51.511823   428 net.cpp:90] Creating Layer 2_conv3
I0130 09:50:51.511826   428 net.cpp:410] 2_conv3 <- 2_pool2
I0130 09:50:51.511828   428 net.cpp:368] 2_conv3 -> 2_conv3
I0130 09:50:51.511831   428 net.cpp:120] Setting up 2_conv3
I0130 09:50:51.512996   428 net.cpp:127] Top shape: 350 64 8 8 (1433600)
I0130 09:50:51.513003   428 layer_factory.hpp:74] Creating layer 2_relu3
I0130 09:50:51.513006   428 net.cpp:90] Creating Layer 2_relu3
I0130 09:50:51.513010   428 net.cpp:410] 2_relu3 <- 2_conv3
I0130 09:50:51.513012   428 net.cpp:357] 2_relu3 -> 2_conv3 (in-place)
I0130 09:50:51.513015   428 net.cpp:120] Setting up 2_relu3
I0130 09:50:51.513018   428 net.cpp:127] Top shape: 350 64 8 8 (1433600)
I0130 09:50:51.513020   428 layer_factory.hpp:74] Creating layer 2_pool3
I0130 09:50:51.513023   428 net.cpp:90] Creating Layer 2_pool3
I0130 09:50:51.513025   428 net.cpp:410] 2_pool3 <- 2_conv3
I0130 09:50:51.513028   428 net.cpp:368] 2_pool3 -> 2_pool3
I0130 09:50:51.513031   428 net.cpp:120] Setting up 2_pool3
I0130 09:50:51.513041   428 net.cpp:127] Top shape: 350 64 4 4 (358400)
I0130 09:50:51.513043   428 layer_factory.hpp:74] Creating layer 2_ip1
I0130 09:50:51.513047   428 net.cpp:90] Creating Layer 2_ip1
I0130 09:50:51.513049   428 net.cpp:410] 2_ip1 <- 2_pool3
I0130 09:50:51.513052   428 net.cpp:368] 2_ip1 -> 2_ip1
I0130 09:50:51.513056   428 net.cpp:120] Setting up 2_ip1
I0130 09:50:51.514561   428 net.cpp:127] Top shape: 350 64 (22400)
I0130 09:50:51.514570   428 layer_factory.hpp:74] Creating layer 2_ip2
I0130 09:50:51.514575   428 net.cpp:90] Creating Layer 2_ip2
I0130 09:50:51.514577   428 net.cpp:410] 2_ip2 <- 2_ip1
I0130 09:50:51.514582   428 net.cpp:368] 2_ip2 -> 2_ip2
I0130 09:50:51.514586   428 net.cpp:120] Setting up 2_ip2
I0130 09:50:51.514608   428 net.cpp:127] Top shape: 350 10 (3500)
I0130 09:50:51.514613   428 layer_factory.hpp:74] Creating layer 2_prob
I0130 09:50:51.514616   428 net.cpp:90] Creating Layer 2_prob
I0130 09:50:51.514618   428 net.cpp:410] 2_prob <- 2_ip2
I0130 09:50:51.514622   428 net.cpp:368] 2_prob -> 2_prob
I0130 09:50:51.514626   428 net.cpp:120] Setting up 2_prob
I0130 09:50:51.514628   428 net.cpp:127] Top shape: 350 10 (3500)
I0130 09:50:51.514631   428 layer_factory.hpp:74] Creating layer 3_conv1
I0130 09:50:51.514636   428 net.cpp:90] Creating Layer 3_conv1
I0130 09:50:51.514637   428 net.cpp:410] 3_conv1 <- data_cifar_0_split_2
I0130 09:50:51.514641   428 net.cpp:368] 3_conv1 -> 3_conv1
I0130 09:50:51.514643   428 net.cpp:120] Setting up 3_conv1
I0130 09:50:51.514706   428 net.cpp:127] Top shape: 350 32 32 32 (11468800)
I0130 09:50:51.514710   428 layer_factory.hpp:74] Creating layer 3_pool1
I0130 09:50:51.514714   428 net.cpp:90] Creating Layer 3_pool1
I0130 09:50:51.514715   428 net.cpp:410] 3_pool1 <- 3_conv1
I0130 09:50:51.514719   428 net.cpp:368] 3_pool1 -> 3_pool1
I0130 09:50:51.514721   428 net.cpp:120] Setting up 3_pool1
I0130 09:50:51.514725   428 net.cpp:127] Top shape: 350 32 16 16 (2867200)
I0130 09:50:51.514727   428 layer_factory.hpp:74] Creating layer 3_relu1
I0130 09:50:51.514730   428 net.cpp:90] Creating Layer 3_relu1
I0130 09:50:51.514731   428 net.cpp:410] 3_relu1 <- 3_pool1
I0130 09:50:51.514735   428 net.cpp:357] 3_relu1 -> 3_pool1 (in-place)
I0130 09:50:51.514737   428 net.cpp:120] Setting up 3_relu1
I0130 09:50:51.514740   428 net.cpp:127] Top shape: 350 32 16 16 (2867200)
I0130 09:50:51.514742   428 layer_factory.hpp:74] Creating layer 3_conv2
I0130 09:50:51.514746   428 net.cpp:90] Creating Layer 3_conv2
I0130 09:50:51.514747   428 net.cpp:410] 3_conv2 <- 3_pool1
I0130 09:50:51.514750   428 net.cpp:368] 3_conv2 -> 3_conv2
I0130 09:50:51.514753   428 net.cpp:120] Setting up 3_conv2
I0130 09:50:51.515348   428 net.cpp:127] Top shape: 350 32 16 16 (2867200)
I0130 09:50:51.515357   428 layer_factory.hpp:74] Creating layer 3_relu2
I0130 09:50:51.515362   428 net.cpp:90] Creating Layer 3_relu2
I0130 09:50:51.515363   428 net.cpp:410] 3_relu2 <- 3_conv2
I0130 09:50:51.515368   428 net.cpp:357] 3_relu2 -> 3_conv2 (in-place)
I0130 09:50:51.515370   428 net.cpp:120] Setting up 3_relu2
I0130 09:50:51.515373   428 net.cpp:127] Top shape: 350 32 16 16 (2867200)
I0130 09:50:51.515375   428 layer_factory.hpp:74] Creating layer 3_pool2
I0130 09:50:51.515378   428 net.cpp:90] Creating Layer 3_pool2
I0130 09:50:51.515380   428 net.cpp:410] 3_pool2 <- 3_conv2
I0130 09:50:51.515383   428 net.cpp:368] 3_pool2 -> 3_pool2
I0130 09:50:51.515386   428 net.cpp:120] Setting up 3_pool2
I0130 09:50:51.515389   428 net.cpp:127] Top shape: 350 32 8 8 (716800)
I0130 09:50:51.515391   428 layer_factory.hpp:74] Creating layer 3_conv3
I0130 09:50:51.515398   428 net.cpp:90] Creating Layer 3_conv3
I0130 09:50:51.515400   428 net.cpp:410] 3_conv3 <- 3_pool2
I0130 09:50:51.515403   428 net.cpp:368] 3_conv3 -> 3_conv3
I0130 09:50:51.515406   428 net.cpp:120] Setting up 3_conv3
I0130 09:50:51.516566   428 net.cpp:127] Top shape: 350 64 8 8 (1433600)
I0130 09:50:51.516571   428 layer_factory.hpp:74] Creating layer 3_relu3
I0130 09:50:51.516577   428 net.cpp:90] Creating Layer 3_relu3
I0130 09:50:51.516578   428 net.cpp:410] 3_relu3 <- 3_conv3
I0130 09:50:51.516588   428 net.cpp:357] 3_relu3 -> 3_conv3 (in-place)
I0130 09:50:51.516592   428 net.cpp:120] Setting up 3_relu3
I0130 09:50:51.516594   428 net.cpp:127] Top shape: 350 64 8 8 (1433600)
I0130 09:50:51.516597   428 layer_factory.hpp:74] Creating layer 3_pool3
I0130 09:50:51.516600   428 net.cpp:90] Creating Layer 3_pool3
I0130 09:50:51.516602   428 net.cpp:410] 3_pool3 <- 3_conv3
I0130 09:50:51.516605   428 net.cpp:368] 3_pool3 -> 3_pool3
I0130 09:50:51.516608   428 net.cpp:120] Setting up 3_pool3
I0130 09:50:51.516611   428 net.cpp:127] Top shape: 350 64 4 4 (358400)
I0130 09:50:51.516613   428 layer_factory.hpp:74] Creating layer 3_ip1
I0130 09:50:51.516618   428 net.cpp:90] Creating Layer 3_ip1
I0130 09:50:51.516619   428 net.cpp:410] 3_ip1 <- 3_pool3
I0130 09:50:51.516623   428 net.cpp:368] 3_ip1 -> 3_ip1
I0130 09:50:51.516626   428 net.cpp:120] Setting up 3_ip1
I0130 09:50:51.518121   428 net.cpp:127] Top shape: 350 64 (22400)
I0130 09:50:51.518128   428 layer_factory.hpp:74] Creating layer 3_ip2
I0130 09:50:51.518133   428 net.cpp:90] Creating Layer 3_ip2
I0130 09:50:51.518136   428 net.cpp:410] 3_ip2 <- 3_ip1
I0130 09:50:51.518138   428 net.cpp:368] 3_ip2 -> 3_ip2
I0130 09:50:51.518144   428 net.cpp:120] Setting up 3_ip2
I0130 09:50:51.518167   428 net.cpp:127] Top shape: 350 10 (3500)
I0130 09:50:51.518172   428 layer_factory.hpp:74] Creating layer 3_prob
I0130 09:50:51.518175   428 net.cpp:90] Creating Layer 3_prob
I0130 09:50:51.518177   428 net.cpp:410] 3_prob <- 3_ip2
I0130 09:50:51.518180   428 net.cpp:368] 3_prob -> 3_prob
I0130 09:50:51.518183   428 net.cpp:120] Setting up 3_prob
I0130 09:50:51.518187   428 net.cpp:127] Top shape: 350 10 (3500)
I0130 09:50:51.518188   428 layer_factory.hpp:74] Creating layer 4_conv1
I0130 09:50:51.518193   428 net.cpp:90] Creating Layer 4_conv1
I0130 09:50:51.518195   428 net.cpp:410] 4_conv1 <- data_cifar_0_split_3
I0130 09:50:51.518198   428 net.cpp:368] 4_conv1 -> 4_conv1
I0130 09:50:51.518203   428 net.cpp:120] Setting up 4_conv1
I0130 09:50:51.518270   428 net.cpp:127] Top shape: 350 32 32 32 (11468800)
I0130 09:50:51.518275   428 layer_factory.hpp:74] Creating layer 4_pool1
I0130 09:50:51.518277   428 net.cpp:90] Creating Layer 4_pool1
I0130 09:50:51.518280   428 net.cpp:410] 4_pool1 <- 4_conv1
I0130 09:50:51.518282   428 net.cpp:368] 4_pool1 -> 4_pool1
I0130 09:50:51.518285   428 net.cpp:120] Setting up 4_pool1
I0130 09:50:51.518290   428 net.cpp:127] Top shape: 350 32 16 16 (2867200)
I0130 09:50:51.518291   428 layer_factory.hpp:74] Creating layer 4_relu1
I0130 09:50:51.518293   428 net.cpp:90] Creating Layer 4_relu1
I0130 09:50:51.518296   428 net.cpp:410] 4_relu1 <- 4_pool1
I0130 09:50:51.518299   428 net.cpp:357] 4_relu1 -> 4_pool1 (in-place)
I0130 09:50:51.518301   428 net.cpp:120] Setting up 4_relu1
I0130 09:50:51.518304   428 net.cpp:127] Top shape: 350 32 16 16 (2867200)
I0130 09:50:51.518306   428 layer_factory.hpp:74] Creating layer 4_conv2
I0130 09:50:51.518311   428 net.cpp:90] Creating Layer 4_conv2
I0130 09:50:51.518311   428 net.cpp:410] 4_conv2 <- 4_pool1
I0130 09:50:51.518314   428 net.cpp:368] 4_conv2 -> 4_conv2
I0130 09:50:51.518317   428 net.cpp:120] Setting up 4_conv2
I0130 09:50:51.518908   428 net.cpp:127] Top shape: 350 32 16 16 (2867200)
I0130 09:50:51.518918   428 layer_factory.hpp:74] Creating layer 4_relu2
I0130 09:50:51.518921   428 net.cpp:90] Creating Layer 4_relu2
I0130 09:50:51.518923   428 net.cpp:410] 4_relu2 <- 4_conv2
I0130 09:50:51.518928   428 net.cpp:357] 4_relu2 -> 4_conv2 (in-place)
I0130 09:50:51.518930   428 net.cpp:120] Setting up 4_relu2
I0130 09:50:51.518934   428 net.cpp:127] Top shape: 350 32 16 16 (2867200)
I0130 09:50:51.518934   428 layer_factory.hpp:74] Creating layer 4_pool2
I0130 09:50:51.518937   428 net.cpp:90] Creating Layer 4_pool2
I0130 09:50:51.518939   428 net.cpp:410] 4_pool2 <- 4_conv2
I0130 09:50:51.518944   428 net.cpp:368] 4_pool2 -> 4_pool2
I0130 09:50:51.518946   428 net.cpp:120] Setting up 4_pool2
I0130 09:50:51.518949   428 net.cpp:127] Top shape: 350 32 8 8 (716800)
I0130 09:50:51.518957   428 layer_factory.hpp:74] Creating layer 4_conv3
I0130 09:50:51.518962   428 net.cpp:90] Creating Layer 4_conv3
I0130 09:50:51.518965   428 net.cpp:410] 4_conv3 <- 4_pool2
I0130 09:50:51.518967   428 net.cpp:368] 4_conv3 -> 4_conv3
I0130 09:50:51.518970   428 net.cpp:120] Setting up 4_conv3
I0130 09:50:51.520134   428 net.cpp:127] Top shape: 350 64 8 8 (1433600)
I0130 09:50:51.520141   428 layer_factory.hpp:74] Creating layer 4_relu3
I0130 09:50:51.520145   428 net.cpp:90] Creating Layer 4_relu3
I0130 09:50:51.520148   428 net.cpp:410] 4_relu3 <- 4_conv3
I0130 09:50:51.520149   428 net.cpp:357] 4_relu3 -> 4_conv3 (in-place)
I0130 09:50:51.520153   428 net.cpp:120] Setting up 4_relu3
I0130 09:50:51.520156   428 net.cpp:127] Top shape: 350 64 8 8 (1433600)
I0130 09:50:51.520159   428 layer_factory.hpp:74] Creating layer 4_pool3
I0130 09:50:51.520161   428 net.cpp:90] Creating Layer 4_pool3
I0130 09:50:51.520164   428 net.cpp:410] 4_pool3 <- 4_conv3
I0130 09:50:51.520166   428 net.cpp:368] 4_pool3 -> 4_pool3
I0130 09:50:51.520169   428 net.cpp:120] Setting up 4_pool3
I0130 09:50:51.520172   428 net.cpp:127] Top shape: 350 64 4 4 (358400)
I0130 09:50:51.520174   428 layer_factory.hpp:74] Creating layer 4_ip1
I0130 09:50:51.520177   428 net.cpp:90] Creating Layer 4_ip1
I0130 09:50:51.520179   428 net.cpp:410] 4_ip1 <- 4_pool3
I0130 09:50:51.520184   428 net.cpp:368] 4_ip1 -> 4_ip1
I0130 09:50:51.520186   428 net.cpp:120] Setting up 4_ip1
I0130 09:50:51.521678   428 net.cpp:127] Top shape: 350 64 (22400)
I0130 09:50:51.521685   428 layer_factory.hpp:74] Creating layer 4_ip2
I0130 09:50:51.521690   428 net.cpp:90] Creating Layer 4_ip2
I0130 09:50:51.521692   428 net.cpp:410] 4_ip2 <- 4_ip1
I0130 09:50:51.521697   428 net.cpp:368] 4_ip2 -> 4_ip2
I0130 09:50:51.521700   428 net.cpp:120] Setting up 4_ip2
I0130 09:50:51.521721   428 net.cpp:127] Top shape: 350 10 (3500)
I0130 09:50:51.521725   428 layer_factory.hpp:74] Creating layer 4_prob
I0130 09:50:51.521728   428 net.cpp:90] Creating Layer 4_prob
I0130 09:50:51.521730   428 net.cpp:410] 4_prob <- 4_ip2
I0130 09:50:51.521733   428 net.cpp:368] 4_prob -> 4_prob
I0130 09:50:51.521736   428 net.cpp:120] Setting up 4_prob
I0130 09:50:51.521740   428 net.cpp:127] Top shape: 350 10 (3500)
I0130 09:50:51.521742   428 layer_factory.hpp:74] Creating layer 5_conv1
I0130 09:50:51.521746   428 net.cpp:90] Creating Layer 5_conv1
I0130 09:50:51.521749   428 net.cpp:410] 5_conv1 <- data_cifar_0_split_4
I0130 09:50:51.521754   428 net.cpp:368] 5_conv1 -> 5_conv1
I0130 09:50:51.521759   428 net.cpp:120] Setting up 5_conv1
I0130 09:50:51.521819   428 net.cpp:127] Top shape: 350 32 32 32 (11468800)
I0130 09:50:51.521823   428 layer_factory.hpp:74] Creating layer 5_pool1
I0130 09:50:51.521827   428 net.cpp:90] Creating Layer 5_pool1
I0130 09:50:51.521829   428 net.cpp:410] 5_pool1 <- 5_conv1
I0130 09:50:51.521831   428 net.cpp:368] 5_pool1 -> 5_pool1
I0130 09:50:51.521836   428 net.cpp:120] Setting up 5_pool1
I0130 09:50:51.521838   428 net.cpp:127] Top shape: 350 32 16 16 (2867200)
I0130 09:50:51.521841   428 layer_factory.hpp:74] Creating layer 5_relu1
I0130 09:50:51.521843   428 net.cpp:90] Creating Layer 5_relu1
I0130 09:50:51.521845   428 net.cpp:410] 5_relu1 <- 5_pool1
I0130 09:50:51.521848   428 net.cpp:357] 5_relu1 -> 5_pool1 (in-place)
I0130 09:50:51.521852   428 net.cpp:120] Setting up 5_relu1
I0130 09:50:51.521853   428 net.cpp:127] Top shape: 350 32 16 16 (2867200)
I0130 09:50:51.521855   428 layer_factory.hpp:74] Creating layer 5_conv2
I0130 09:50:51.521859   428 net.cpp:90] Creating Layer 5_conv2
I0130 09:50:51.521860   428 net.cpp:410] 5_conv2 <- 5_pool1
I0130 09:50:51.521863   428 net.cpp:368] 5_conv2 -> 5_conv2
I0130 09:50:51.521867   428 net.cpp:120] Setting up 5_conv2
I0130 09:50:51.522457   428 net.cpp:127] Top shape: 350 32 16 16 (2867200)
I0130 09:50:51.522466   428 layer_factory.hpp:74] Creating layer 5_relu2
I0130 09:50:51.522474   428 net.cpp:90] Creating Layer 5_relu2
I0130 09:50:51.522477   428 net.cpp:410] 5_relu2 <- 5_conv2
I0130 09:50:51.522486   428 net.cpp:357] 5_relu2 -> 5_conv2 (in-place)
I0130 09:50:51.522490   428 net.cpp:120] Setting up 5_relu2
I0130 09:50:51.522493   428 net.cpp:127] Top shape: 350 32 16 16 (2867200)
I0130 09:50:51.522495   428 layer_factory.hpp:74] Creating layer 5_pool2
I0130 09:50:51.522500   428 net.cpp:90] Creating Layer 5_pool2
I0130 09:50:51.522501   428 net.cpp:410] 5_pool2 <- 5_conv2
I0130 09:50:51.522505   428 net.cpp:368] 5_pool2 -> 5_pool2
I0130 09:50:51.522507   428 net.cpp:120] Setting up 5_pool2
I0130 09:50:51.522511   428 net.cpp:127] Top shape: 350 32 8 8 (716800)
I0130 09:50:51.522512   428 layer_factory.hpp:74] Creating layer 5_conv3
I0130 09:50:51.522518   428 net.cpp:90] Creating Layer 5_conv3
I0130 09:50:51.522521   428 net.cpp:410] 5_conv3 <- 5_pool2
I0130 09:50:51.522523   428 net.cpp:368] 5_conv3 -> 5_conv3
I0130 09:50:51.522526   428 net.cpp:120] Setting up 5_conv3
I0130 09:50:51.523681   428 net.cpp:127] Top shape: 350 64 8 8 (1433600)
I0130 09:50:51.523689   428 layer_factory.hpp:74] Creating layer 5_relu3
I0130 09:50:51.523691   428 net.cpp:90] Creating Layer 5_relu3
I0130 09:50:51.523694   428 net.cpp:410] 5_relu3 <- 5_conv3
I0130 09:50:51.523696   428 net.cpp:357] 5_relu3 -> 5_conv3 (in-place)
I0130 09:50:51.523701   428 net.cpp:120] Setting up 5_relu3
I0130 09:50:51.523705   428 net.cpp:127] Top shape: 350 64 8 8 (1433600)
I0130 09:50:51.523708   428 layer_factory.hpp:74] Creating layer 5_pool3
I0130 09:50:51.523712   428 net.cpp:90] Creating Layer 5_pool3
I0130 09:50:51.523715   428 net.cpp:410] 5_pool3 <- 5_conv3
I0130 09:50:51.523717   428 net.cpp:368] 5_pool3 -> 5_pool3
I0130 09:50:51.523720   428 net.cpp:120] Setting up 5_pool3
I0130 09:50:51.523725   428 net.cpp:127] Top shape: 350 64 4 4 (358400)
I0130 09:50:51.523726   428 layer_factory.hpp:74] Creating layer 5_ip1
I0130 09:50:51.523730   428 net.cpp:90] Creating Layer 5_ip1
I0130 09:50:51.523731   428 net.cpp:410] 5_ip1 <- 5_pool3
I0130 09:50:51.523735   428 net.cpp:368] 5_ip1 -> 5_ip1
I0130 09:50:51.523737   428 net.cpp:120] Setting up 5_ip1
I0130 09:50:51.525230   428 net.cpp:127] Top shape: 350 64 (22400)
I0130 09:50:51.525238   428 layer_factory.hpp:74] Creating layer 5_ip2
I0130 09:50:51.525243   428 net.cpp:90] Creating Layer 5_ip2
I0130 09:50:51.525244   428 net.cpp:410] 5_ip2 <- 5_ip1
I0130 09:50:51.525249   428 net.cpp:368] 5_ip2 -> 5_ip2
I0130 09:50:51.525252   428 net.cpp:120] Setting up 5_ip2
I0130 09:50:51.525274   428 net.cpp:127] Top shape: 350 10 (3500)
I0130 09:50:51.525277   428 layer_factory.hpp:74] Creating layer 5_prob
I0130 09:50:51.525285   428 net.cpp:90] Creating Layer 5_prob
I0130 09:50:51.525287   428 net.cpp:410] 5_prob <- 5_ip2
I0130 09:50:51.525290   428 net.cpp:368] 5_prob -> 5_prob
I0130 09:50:51.525293   428 net.cpp:120] Setting up 5_prob
I0130 09:50:51.525297   428 net.cpp:127] Top shape: 350 10 (3500)
I0130 09:50:51.525300   428 layer_factory.hpp:74] Creating layer loss
I0130 09:50:51.525305   428 net.cpp:90] Creating Layer loss
I0130 09:50:51.525308   428 net.cpp:410] loss <- 1_prob
I0130 09:50:51.525311   428 net.cpp:410] loss <- 2_prob
I0130 09:50:51.525313   428 net.cpp:410] loss <- 3_prob
I0130 09:50:51.525316   428 net.cpp:410] loss <- 4_prob
I0130 09:50:51.525318   428 net.cpp:410] loss <- 5_prob
I0130 09:50:51.525321   428 net.cpp:410] loss <- label
I0130 09:50:51.525326   428 net.cpp:368] loss -> multiple-output loss
I0130 09:50:51.525329   428 net.cpp:368] loss -> batch-instance-counts
I0130 09:50:51.525333   428 net.cpp:368] loss -> train-instance-counts
I0130 09:50:51.525338   428 net.cpp:120] Setting up loss
I0130 09:50:51.525346   428 net.cpp:127] Top shape: 5 1 1 1 (5)
I0130 09:50:51.525349   428 net.cpp:129]     with loss weight 1
I0130 09:50:51.525364   428 net.cpp:127] Top shape: 5 1 1 1 (5)
I0130 09:50:51.525367   428 net.cpp:127] Top shape: 5 1 1 1 (5)
I0130 09:50:51.525368   428 net.cpp:192] loss needs backward computation.
I0130 09:50:51.525372   428 net.cpp:192] 5_prob needs backward computation.
I0130 09:50:51.525373   428 net.cpp:192] 5_ip2 needs backward computation.
I0130 09:50:51.525382   428 net.cpp:192] 5_ip1 needs backward computation.
I0130 09:50:51.525383   428 net.cpp:192] 5_pool3 needs backward computation.
I0130 09:50:51.525385   428 net.cpp:192] 5_relu3 needs backward computation.
…
I0130 09:50:51.526566   428 net.cpp:287] The NetState phase (1) differed from the phase (0) specified by a rule in layer loss
I0130 09:50:51.526767   428 net.cpp:42] Initializing net from parameters: 
name: "CIFAR10_quick"
state {
  phase: TEST
}
layer {
  name: "cifar"
  type: "Data"
  top: "data"
  top: "label"
  include {
    phase: TEST
  }
  transform_param {
    mean_file: "/home/mike/ml_lab/mod/MCL_Caffe/examples/cifar10/mean.binaryproto"
  }
  data_param {
    source: "/home/mike/ml_lab/mod/MCL_Caffe/examples/cifar10/cifar10_test_lmdb"
    batch_size: 100
    backend: LMDB
  }
}
layer {
  name: "1_conv1"
  type: "Convolution"
  bottom: "data"
  top: "1_conv1"
  param {
    lr_mult: 1
  }
  param {
    lr_mult: 2
  }
  convolution_param {
    num_output: 32
    pad: 2
    kernel_size: 5
    stride: 1
    weight_filler {
      type: "gaussian"
      std: 0.0001
    }
    bias_filler {
      type: "constant"
    }
  }
}
layer {
  name: "1_pool1"
  type: "Pooling"
  bottom: "1_conv1"
  top: "1_pool1"
  pooling_param {
    pool: MAX
    kernel_size: 3
    stride: 2
  }
}
layer {
  name: "1_relu1"
  type: "ReLU"
  bottom: "1_pool1"
  top: "1_pool1"
}
layer {
  name: "1_conv2"
  type: "Convolution"
  bottom: "1_pool1"
  top: "1_conv2"
  param {
    lr_mult: 1
  }
  param {
    lr_mult: 2
  }
  convolution_param {
    num_output: 32
    pad: 2
    kernel_size: 5
    stride: 1
    weight_filler {
      type: "gaussian"
      std: 0.01
    }
    bias_filler {
      type: "constant"
    }
  }
}
layer {
  name: "1_relu2"
  type: "ReLU"
  bottom: "1_conv2"
  top: "1_conv2"
}
layer {
  name: "1_pool2"
  type: "Pooling"
  bottom: "1_conv2"
  top: "1_pool2"
  pooling_param {
    pool: AVE
    kernel_size: 3
    stride: 2
  }
}
layer {
  name: "1_conv3"
  type: "Convolution"
  bottom: "1_pool2"
  top: "1_conv3"
  param {
    lr_mult: 1
  }
  param {
    lr_mult: 2
  }
  convolution_param {
    num_output: 64
    pad: 2
    kernel_size: 5
    stride: 1
    weight_filler {
      type: "gaussian"
      std: 0.01
    }
    bias_filler {
      type: "constant"
    }
  }
}
layer {
  name: "1_relu3"
  type: "ReLU"
  bottom: "1_conv3"
  top: "1_conv3"
}
layer {
  name: "1_pool3"
  type: "Pooling"
  bottom: "1_conv3"
  top: "1_pool3"
  pooling_param {
    pool: AVE
    kernel_size: 3
    stride: 2
  }
}
layer {
  name: "1_ip1"
  type: "InnerProduct"
  bottom: "1_pool3"
  top: "1_ip1"
  param {
    lr_mult: 1
  }
  param {
    lr_mult: 2
  }
  inner_product_param {
    num_output: 64
    weight_filler {
      type: "gaussian"
      std: 0.1
    }
    bias_filler {
      type: "constant"
    }
  }
}
layer {
  name: "1_ip2"
  type: "InnerProduct"
  bottom: "1_ip1"
  top: "1_ip2"
  param {
    lr_mult: 1
  }
  param {
    lr_mult: 2
  }
  inner_product_param {
    num_output: 10
    weight_filler {
      type: "gaussian"
      std: 0.1
    }
    bias_filler {
      type: "constant"
    }
  }
}
layer {
  name: "1_prob"
  type: "Softmax"
  bottom: "1_ip2"
  top: "1_prob"
}
layer {
  name: "2_conv1"
  type: "Convolution"
  bottom: "data"
  top: "2_conv1"
  param {
    lr_mult: 1
  }
  param {
    lr_mult: 2
  }
  convolution_param {
    num_output: 32
    pad: 2
    kernel_size: 5
    stride: 1
    weight_filler {
      type: "gaussian"
      std: 0.0001
    }
    bias_filler {
      type: "constant"
    }
  }
}
layer {
  name: "2_pool1"
  type: "Pooling"
  bottom: "2_conv1"
  top: "2_pool1"
  pooling_param {
    pool: MAX
    kernel_size: 3
    stride: 2
  }
}
layer {
  name: "2_relu1"
  type: "ReLU"
  bottom: "2_pool1"
  top: "2_pool1"
}
layer {
  name: "2_conv2"
  type: "Convolution"
  bottom: "2_pool1"
  top: "2_conv2"
  param {
    lr_mult: 1
  }
  param {
    lr_mult: 2
  }
  convolution_param {
    num_output: 32
    pad: 2
    kernel_size: 5
    stride: 1
    weight_filler {
      type: "gaussian"
      std: 0.01
    }
    bias_filler {
      type: "constant"
    }
  }
}
layer {
  name: "2_relu2"
  type: "ReLU"
  bottom: "2_conv2"
  top: "2_conv2"
}
layer {
  name: "2_pool2"
  type: "Pooling"
  bottom: "2_conv2"
  top: "2_pool2"
  pooling_param {
    pool: AVE
    kernel_size: 3
    stride: 2
  }
}
layer {
  name: "2_conv3"
  type: "Convolution"
  bottom: "2_pool2"
  top: "2_conv3"
  param {
    lr_mult: 1
  }
  param {
    lr_mult: 2
  }
  convolution_param {
    num_output: 64
    pad: 2
    kernel_size: 5
    stride: 1
    weight_filler {
      type: "gaussian"
      std: 0.01
    }
    bias_filler {
      type: "constant"
    }
  }
}
layer {
  name: "2_relu3"
  type: "ReLU"
  bottom: "2_conv3"
  top: "2_conv3"
}
layer {
  name: "2_pool3"
  type: "Pooling"
  bottom: "2_conv3"
  top: "2_pool3"
  pooling_param {
    pool: AVE
    kernel_size: 3
    stride: 2
  }
}
layer {
  name: "2_ip1"
  type: "InnerProduct"
  bottom: "2_pool3"
  top: "2_ip1"
  param {
    lr_mult: 1
  }
  param {
    lr_mult: 2
  }
  inner_product_param {
    num_output: 64
    weight_filler {
      type: "gaussian"
      std: 0.1
    }
    bias_filler {
      type: "constant"
    }
  }
}
layer {
  name: "2_ip2"
  type: "InnerProduct"
  bottom: "2_ip1"
  top: "2_ip2"
  param {
    lr_mult: 1
  }
  param {
    lr_mult: 2
  }
  inner_product_param {
    num_output: 10
    weight_filler {
      type: "gaussian"
      std: 0.1
    }
    bias_filler {
      type: "constant"
    }
  }
}
layer {
  name: "2_prob"
  type: "Softmax"
  bottom: "2_ip2"
  top: "2_prob"
}
layer {
  name: "3_conv1"
  type: "Convolution"
  bottom: "data"
  top: "3_conv1"
  param {
    lr_mult: 1
  }
  param {
    lr_mult: 2
  }
  convolution_param {
    num_output: 32
    pad: 2
    kernel_size: 5
    stride: 1
    weight_filler {
      type: "gaussian"
      std: 0.0001
    }
    bias_filler {
      type: "constant"
    }
  }
}
layer {
  name: "3_pool1"
  type: "Pooling"
  bottom: "3_conv1"
  top: "3_pool1"
  pooling_param {
    pool: MAX
    kernel_size: 3
    stride: 2
  }
}
layer {
  name: "3_relu1"
  type: "ReLU"
  bottom: "3_pool1"
  top: "3_pool1"
}
layer {
  name: "3_conv2"
  type: "Convolution"
  bottom: "3_pool1"
  top: "3_conv2"
  param {
    lr_mult: 1
  }
  param {
    lr_mult: 2
  }
  convolution_param {
    num_output: 32
    pad: 2
    kernel_size: 5
    stride: 1
    weight_filler {
      type: "gaussian"
      std: 0.01
    }
    bias_filler {
      type: "constant"
    }
  }
}
layer {
  name: "3_relu2"
  type: "ReLU"
  bottom: "3_conv2"
  top: "3_conv2"
}
layer {
  name: "3_pool2"
  type: "Pooling"
  bottom: "3_conv2"
  top: "3_pool2"
  pooling_param {
    pool: AVE
    kernel_size: 3
    stride: 2
  }
}
layer {
  name: "3_conv3"
  type: "Convolution"
  bottom: "3_pool2"
  top: "3_conv3"
  param {
    lr_mult: 1
  }
  param {
    lr_mult: 2
  }
  convolution_param {
    num_output: 64
    pad: 2
    kernel_size: 5
    stride: 1
    weight_filler {
      type: "gaussian"
      std: 0.01
    }
    bias_filler {
      type: "constant"
    }
  }
}
layer {
  name: "3_relu3"
  type: "ReLU"
  bottom: "3_conv3"
  top: "3_conv3"
}
layer {
  name: "3_pool3"
  type: "Pooling"
  bottom: "3_conv3"
  top: "3_pool3"
  pooling_param {
    pool: AVE
    kernel_size: 3
    stride: 2
  }
}
layer {
  name: "3_ip1"
  type: "InnerProduct"
  bottom: "3_pool3"
  top: "3_ip1"
  param {
    lr_mult: 1
  }
  param {
    lr_mult: 2
  }
  inner_product_param {
    num_output: 64
    weight_filler {
      type: "gaussian"
      std: 0.1
    }
    bias_filler {
      type: "constant"
    }
  }
}
layer {
  name: "3_ip2"
  type: "InnerProduct"
  bottom: "3_ip1"
  top: "3_ip2"
  param {
    lr_mult: 1
  }
  param {
    lr_mult: 2
  }
  inner_product_param {
    num_output: 10
    weight_filler {
      type: "gaussian"
      std: 0.1
    }
    bias_filler {
      type: "constant"
    }
  }
}
layer {
  name: "3_prob"
  type: "Softmax"
  bottom: "3_ip2"
  top: "3_prob"
}
layer {
  name: "4_conv1"
  type: "Convolution"
  bottom: "data"
  top: "4_conv1"
  param {
    lr_mult: 1
  }
  param {
    lr_mult: 2
  }
  convolution_param {
    num_output: 32
    pad: 2
    kernel_size: 5
    stride: 1
    weight_filler {
      type: "gaussian"
      std: 0.0001
    }
    bias_filler {
      type: "constant"
    }
  }
}
layer {
  name: "4_pool1"
  type: "Pooling"
  bottom: "4_conv1"
  top: "4_pool1"
  pooling_param {
    pool: MAX
    kernel_size: 3
    stride: 2
  }
}
layer {
  name: "4_relu1"
  type: "ReLU"
  bottom: "4_pool1"
  top: "4_pool1"
}
layer {
  name: "4_conv2"
  type: "Convolution"
  bottom: "4_pool1"
  top: "4_conv2"
  param {
    lr_mult: 1
  }
  param {
    lr_mult: 2
  }
  convolution_param {
    num_output: 32
    pad: 2
    kernel_size: 5
    stride: 1
    weight_filler {
      type: "gaussian"
      std: 0.01
    }
    bias_filler {
      type: "constant"
    }
  }
}
layer {
  name: "4_relu2"
  type: "ReLU"
  bottom: "4_conv2"
  top: "4_conv2"
}
layer {
  name: "4_pool2"
  type: "Pooling"
  bottom: "4_conv2"
  top: "4_pool2"
  pooling_param {
    pool: AVE
    kernel_size: 3
    stride: 2
  }
}
layer {
  name: "4_conv3"
  type: "Convolution"
  bottom: "4_pool2"
  top: "4_conv3"
  param {
    lr_mult: 1
  }
  param {
    lr_mult: 2
  }
  convolution_param {
    num_output: 64
    pad: 2
    kernel_size: 5
    stride: 1
    weight_filler {
      type: "gaussian"
      std: 0.01
    }
    bias_filler {
      type: "constant"
    }
  }
}
layer {
  name: "4_relu3"
  type: "ReLU"
  bottom: "4_conv3"
  top: "4_conv3"
}
layer {
  name: "4_pool3"
  type: "Pooling"
  bottom: "4_conv3"
  top: "4_pool3"
  pooling_param {
    pool: AVE
    kernel_size: 3
    stride: 2
  }
}
layer {
  name: "4_ip1"
  type: "InnerProduct"
  bottom: "4_pool3"
  top: "4_ip1"
  param {
    lr_mult: 1
  }
  param {
    lr_mult: 2
  }
  inner_product_param {
    num_output: 64
    weight_filler {
      type: "gaussian"
      std: 0.1
    }
    bias_filler {
      type: "constant"
    }
  }
}
layer {
  name: "4_ip2"
  type: "InnerProduct"
  bottom: "4_ip1"
  top: "4_ip2"
  param {
    lr_mult: 1
  }
  param {
    lr_mult: 2
  }
  inner_product_param {
    num_output: 10
    weight_filler {
      type: "gaussian"
      std: 0.1
    }
    bias_filler {
      type: "constant"
    }
  }
}
layer {
  name: "4_prob"
  type: "Softmax"
  bottom: "4_ip2"
  top: "4_prob"
}
layer {
  name: "5_conv1"
  type: "Convolution"
  bottom: "data"
  top: "5_conv1"
  param {
    lr_mult: 1
  }
  param {
    lr_mult: 2
  }
  convolution_param {
    num_output: 32
    pad: 2
    kernel_size: 5
    stride: 1
    weight_filler {
      type: "gaussian"
      std: 0.0001
    }
    bias_filler {
      type: "constant"
    }
  }
}
layer {
  name: "5_pool1"
  type: "Pooling"
  bottom: "5_conv1"
  top: "5_pool1"
  pooling_param {
    pool: MAX
    kernel_size: 3
    stride: 2
  }
}
layer {
  name: "5_relu1"
  type: "ReLU"
  bottom: "5_pool1"
  top: "5_pool1"
}
layer {
  name: "5_conv2"
  type: "Convolution"
  bottom: "5_pool1"
  top: "5_conv2"
  param {
    lr_mult: 1
  }
  param {
    lr_mult: 2
  }
  convolution_param {
    num_output: 32
    pad: 2
    kernel_size: 5
    stride: 1
    weight_filler {
      type: "gaussian"
      std: 0.01
    }
    bias_filler {
      type: "constant"
    }
  }
}
layer {
  name: "5_relu2"
  type: "ReLU"
  bottom: "5_conv2"
  top: "5_conv2"
}
layer {
  name: "5_pool2"
  type: "Pooling"
  bottom: "5_conv2"
  top: "5_pool2"
  pooling_param {
    pool: AVE
    kernel_size: 3
    stride: 2
  }
}
layer {
  name: "5_conv3"
  type: "Convolution"
  bottom: "5_pool2"
  top: "5_conv3"
  param {
    lr_mult: 1
  }
  param {
    lr_mult: 2
  }
  convolution_param {
    num_output: 64
    pad: 2
    kernel_size: 5
    stride: 1
    weight_filler {
      type: "gaussian"
      std: 0.01
    }
    bias_filler {
      type: "constant"
    }
  }
}
layer {
  name: "5_relu3"
  type: "ReLU"
  bottom: "5_conv3"
  top: "5_conv3"
}
layer {
  name: "5_pool3"
  type: "Pooling"
  bottom: "5_conv3"
  top: "5_pool3"
  pooling_param {
    pool: AVE
    kernel_size: 3
    stride: 2
  }
}
layer {
  name: "5_ip1"
  type: "InnerProduct"
  bottom: "5_pool3"
  top: "5_ip1"
  param {
    lr_mult: 1
  }
  param {
    lr_mult: 2
  }
  inner_product_param {
    num_output: 64
    weight_filler {
      type: "gaussian"
      std: 0.1
    }
    bias_filler {
      type: "constant"
    }
  }
}
layer {
  name: "5_ip2"
  type: "InnerProduct"
  bottom: "5_ip1"
  top: "5_ip2"
  param {
    lr_mult: 1
  }
  param {
    lr_mult: 2
  }
  inner_product_param {
    num_output: 10
    weight_filler {
      type: "gaussian"
      std: 0.1
    }
    bias_filler {
      type: "constant"
    }
  }
}
layer {
  name: "5_prob"
  type: "Softmax"
  bottom: "5_ip2"
  top: "5_prob"
}
layer {
  name: "1_accuracy"
  type: "Accuracy"
  bottom: "1_prob"
  bottom: "label"
  top: "1_accuracy"
  include {
    phase: TEST
  }
}
layer {
  name: "2_accuracy"
  type: "Accuracy"
  bottom: "2_prob"
  bottom: "label"
  top: "2_accuracy"
  include {
    phase: TEST
  }
}
layer {
  name: "3_accuracy"
  type: "Accuracy"
  bottom: "3_prob"
  bottom: "label"
  top: "3_accuracy"
  include {
    phase: TEST
  }
}
layer {
  name: "4_accuracy"
  type: "Accuracy"
  bottom: "4_prob"
  bottom: "label"
  top: "4_accuracy"
  include {
    phase: TEST
  }
}
layer {
  name: "5_accuracy"
  type: "Accuracy"
  bottom: "5_prob"
  bottom: "label"
  top: "5_accuracy"
  include {
    phase: TEST
  }
}
layer {
  name: "accuracy"
  type: "OracleAccuracy"
  bottom: "1_prob"
  bottom: "2_prob"
  bottom: "3_prob"
  bottom: "4_prob"
  bottom: "5_prob"
  bottom: "label"
  top: "oracle accuracy"
  include {
    phase: TEST
  }
}
I0130 09:50:51.526950   428 layer_factory.hpp:74] Creating layer cifar
I0130 09:50:51.526957   428 net.cpp:90] Creating Layer cifar
I0130 09:50:51.526959   428 net.cpp:368] cifar -> data
I0130 09:50:51.526964   428 net.cpp:368] cifar -> label
I0130 09:50:51.526968   428 net.cpp:120] Setting up cifar
I0130 09:50:51.526998   428 db.cpp:34] Opened lmdb /home/mike/ml_lab/mod/MCL_Caffe/examples/cifar10/cifar10_test_lmdb
I0130 09:50:51.527011   428 data_layer.cpp:67] output data size: 100,3,32,32
I0130 09:50:51.527016   428 data_transformer.cpp:22] Loading mean file from: /home/mike/ml_lab/mod/MCL_Caffe/examples/cifar10/mean.binaryproto
I0130 09:50:51.527312   428 net.cpp:127] Top shape: 100 3 32 32 (307200)
I0130 09:50:51.527318   428 net.cpp:127] Top shape: 100 (100)
I0130 09:50:51.527319   428 layer_factory.hpp:74] Creating layer data_cifar_0_split
I0130 09:50:51.527324   428 net.cpp:90] Creating Layer data_cifar_0_split
I0130 09:50:51.527328   428 net.cpp:410] data_cifar_0_split <- data
I0130 09:50:51.527333   428 net.cpp:368] data_cifar_0_split -> data_cifar_0_split_0
I0130 09:50:51.527339   428 net.cpp:368] data_cifar_0_split -> data_cifar_0_split_1
I0130 09:50:51.527345   428 net.cpp:368] data_cifar_0_split -> data_cifar_0_split_2
I0130 09:50:51.527349   428 net.cpp:368] data_cifar_0_split -> data_cifar_0_split_3
I0130 09:50:51.527353   428 net.cpp:368] data_cifar_0_split -> data_cifar_0_split_4
I0130 09:50:51.527361   428 net.cpp:120] Setting up data_cifar_0_split
I0130 09:50:51.527366   428 net.cpp:127] Top shape: 100 3 32 32 (307200)
I0130 09:50:51.527369   428 net.cpp:127] Top shape: 100 3 32 32 (307200)
I0130 09:50:51.527371   428 net.cpp:127] Top shape: 100 3 32 32 (307200)
I0130 09:50:51.527374   428 net.cpp:127] Top shape: 100 3 32 32 (307200)
I0130 09:50:51.527375   428 net.cpp:127] Top shape: 100 3 32 32 (307200)
I0130 09:50:51.527377   428 layer_factory.hpp:74] Creating layer label_cifar_1_split
I0130 09:50:51.527380   428 net.cpp:90] Creating Layer label_cifar_1_split
I0130 09:50:51.527382   428 net.cpp:410] label_cifar_1_split <- label
I0130 09:50:51.527385   428 net.cpp:368] label_cifar_1_split -> label_cifar_1_split_0
I0130 09:50:51.527389   428 net.cpp:368] label_cifar_1_split -> label_cifar_1_split_1
I0130 09:50:51.527392   428 net.cpp:368] label_cifar_1_split -> label_cifar_1_split_2
I0130 09:50:51.527396   428 net.cpp:368] label_cifar_1_split -> label_cifar_1_split_3
I0130 09:50:51.527400   428 net.cpp:368] label_cifar_1_split -> label_cifar_1_split_4
I0130 09:50:51.527402   428 net.cpp:368] label_cifar_1_split -> label_cifar_1_split_5
I0130 09:50:51.527405   428 net.cpp:120] Setting up label_cifar_1_split
I0130 09:50:51.527408   428 net.cpp:127] Top shape: 100 (100)
I0130 09:50:51.527410   428 net.cpp:127] Top shape: 100 (100)
I0130 09:50:51.527412   428 net.cpp:127] Top shape: 100 (100)
I0130 09:50:51.527415   428 net.cpp:127] Top shape: 100 (100)
I0130 09:50:51.527417   428 net.cpp:127] Top shape: 100 (100)
I0130 09:50:51.527420   428 net.cpp:127] Top shape: 100 (100)
I0130 09:50:51.527420   428 layer_factory.hpp:74] Creating layer 1_conv1
I0130 09:50:51.527425   428 net.cpp:90] Creating Layer 1_conv1
I0130 09:50:51.527426   428 net.cpp:410] 1_conv1 <- data_cifar_0_split_0
I0130 09:50:51.527429   428 net.cpp:368] 1_conv1 -> 1_conv1
I0130 09:50:51.527432   428 net.cpp:120] Setting up 1_conv1
I0130 09:50:51.527494   428 net.cpp:127] Top shape: 100 32 32 32 (3276800)
I0130 09:50:51.527500   428 layer_factory.hpp:74] Creating layer 1_pool1
I0130 09:50:51.527503   428 net.cpp:90] Creating Layer 1_pool1
I0130 09:50:51.527505   428 net.cpp:410] 1_pool1 <- 1_conv1
I0130 09:50:51.527508   428 net.cpp:368] 1_pool1 -> 1_pool1
I0130 09:50:51.527511   428 net.cpp:120] Setting up 1_pool1
I0130 09:50:51.527516   428 net.cpp:127] Top shape: 100 32 16 16 (819200)
I0130 09:50:51.527518   428 layer_factory.hpp:74] Creating layer 1_relu1
I0130 09:50:51.527520   428 net.cpp:90] Creating Layer 1_relu1
I0130 09:50:51.527523   428 net.cpp:410] 1_relu1 <- 1_pool1
I0130 09:50:51.527525   428 net.cpp:357] 1_relu1 -> 1_pool1 (in-place)
I0130 09:50:51.527528   428 net.cpp:120] Setting up 1_relu1
I0130 09:50:51.527530   428 net.cpp:127] Top shape: 100 32 16 16 (819200)
I0130 09:50:51.527532   428 layer_factory.hpp:74] Creating layer 1_conv2
I0130 09:50:51.527535   428 net.cpp:90] Creating Layer 1_conv2
I0130 09:50:51.527536   428 net.cpp:410] 1_conv2 <- 1_pool1
I0130 09:50:51.527539   428 net.cpp:368] 1_conv2 -> 1_conv2
I0130 09:50:51.527542   428 net.cpp:120] Setting up 1_conv2
I0130 09:50:51.528129   428 net.cpp:127] Top shape: 100 32 16 16 (819200)
I0130 09:50:51.528134   428 layer_factory.hpp:74] Creating layer 1_relu2
I0130 09:50:51.528137   428 net.cpp:90] Creating Layer 1_relu2
I0130 09:50:51.528141   428 net.cpp:410] 1_relu2 <- 1_conv2
I0130 09:50:51.528144   428 net.cpp:357] 1_relu2 -> 1_conv2 (in-place)
I0130 09:50:51.528149   428 net.cpp:120] Setting up 1_relu2
I0130 09:50:51.528153   428 net.cpp:127] Top shape: 100 32 16 16 (819200)
I0130 09:50:51.528156   428 layer_factory.hpp:74] Creating layer 1_pool2
I0130 09:50:51.528159   428 net.cpp:90] Creating Layer 1_pool2
I0130 09:50:51.528161   428 net.cpp:410] 1_pool2 <- 1_conv2
I0130 09:50:51.528164   428 net.cpp:368] 1_pool2 -> 1_pool2
I0130 09:50:51.528168   428 net.cpp:120] Setting up 1_pool2
I0130 09:50:51.528172   428 net.cpp:127] Top shape: 100 32 8 8 (204800)
I0130 09:50:51.528174   428 layer_factory.hpp:74] Creating layer 1_conv3
I0130 09:50:51.528178   428 net.cpp:90] Creating Layer 1_conv3
I0130 09:50:51.528185   428 net.cpp:410] 1_conv3 <- 1_pool2
I0130 09:50:51.528188   428 net.cpp:368] 1_conv3 -> 1_conv3
I0130 09:50:51.528192   428 net.cpp:120] Setting up 1_conv3
I0130 09:50:51.529371   428 net.cpp:127] Top shape: 100 64 8 8 (409600)
I0130 09:50:51.529378   428 layer_factory.hpp:74] Creating layer 1_relu3
I0130 09:50:51.529382   428 net.cpp:90] Creating Layer 1_relu3
I0130 09:50:51.529384   428 net.cpp:410] 1_relu3 <- 1_conv3
I0130 09:50:51.529388   428 net.cpp:357] 1_relu3 -> 1_conv3 (in-place)
I0130 09:50:51.529392   428 net.cpp:120] Setting up 1_relu3
I0130 09:50:51.529394   428 net.cpp:127] Top shape: 100 64 8 8 (409600)
I0130 09:50:51.529397   428 layer_factory.hpp:74] Creating layer 1_pool3
I0130 09:50:51.529399   428 net.cpp:90] Creating Layer 1_pool3
I0130 09:50:51.529400   428 net.cpp:410] 1_pool3 <- 1_conv3
I0130 09:50:51.529403   428 net.cpp:368] 1_pool3 -> 1_pool3
I0130 09:50:51.529407   428 net.cpp:120] Setting up 1_pool3
I0130 09:50:51.529410   428 net.cpp:127] Top shape: 100 64 4 4 (102400)
I0130 09:50:51.529412   428 layer_factory.hpp:74] Creating layer 1_ip1
I0130 09:50:51.529417   428 net.cpp:90] Creating Layer 1_ip1
I0130 09:50:51.529418   428 net.cpp:410] 1_ip1 <- 1_pool3
I0130 09:50:51.529422   428 net.cpp:368] 1_ip1 -> 1_ip1
I0130 09:50:51.529425   428 net.cpp:120] Setting up 1_ip1
I0130 09:50:51.530900   428 net.cpp:127] Top shape: 100 64 (6400)
I0130 09:50:51.530906   428 layer_factory.hpp:74] Creating layer 1_ip2
I0130 09:50:51.530910   428 net.cpp:90] Creating Layer 1_ip2
I0130 09:50:51.530913   428 net.cpp:410] 1_ip2 <- 1_ip1
I0130 09:50:51.530916   428 net.cpp:368] 1_ip2 -> 1_ip2
I0130 09:50:51.530920   428 net.cpp:120] Setting up 1_ip2
I0130 09:50:51.530941   428 net.cpp:127] Top shape: 100 10 (1000)
I0130 09:50:51.530946   428 layer_factory.hpp:74] Creating layer 1_prob
I0130 09:50:51.530949   428 net.cpp:90] Creating Layer 1_prob
I0130 09:50:51.530951   428 net.cpp:410] 1_prob <- 1_ip2
I0130 09:50:51.530953   428 net.cpp:368] 1_prob -> 1_prob
I0130 09:50:51.530956   428 net.cpp:120] Setting up 1_prob
I0130 09:50:51.530961   428 net.cpp:127] Top shape: 100 10 (1000)
I0130 09:50:51.530962   428 layer_factory.hpp:74] Creating layer 1_prob_1_prob_0_split
I0130 09:50:51.530964   428 net.cpp:90] Creating Layer 1_prob_1_prob_0_split
I0130 09:50:51.530966   428 net.cpp:410] 1_prob_1_prob_0_split <- 1_prob
I0130 09:50:51.530971   428 net.cpp:368] 1_prob_1_prob_0_split -> 1_prob_1_prob_0_split_0
I0130 09:50:51.530973   428 net.cpp:368] 1_prob_1_prob_0_split -> 1_prob_1_prob_0_split_1
I0130 09:50:51.530977   428 net.cpp:120] Setting up 1_prob_1_prob_0_split
I0130 09:50:51.530979   428 net.cpp:127] Top shape: 100 10 (1000)
I0130 09:50:51.530982   428 net.cpp:127] Top shape: 100 10 (1000)
I0130 09:50:51.530983   428 layer_factory.hpp:74] Creating layer 2_conv1
I0130 09:50:51.530988   428 net.cpp:90] Creating Layer 2_conv1
I0130 09:50:51.530990   428 net.cpp:410] 2_conv1 <- data_cifar_0_split_1
I0130 09:50:51.530993   428 net.cpp:368] 2_conv1 -> 2_conv1
I0130 09:50:51.530997   428 net.cpp:120] Setting up 2_conv1
I0130 09:50:51.531059   428 net.cpp:127] Top shape: 100 32 32 32 (3276800)
I0130 09:50:51.531062   428 layer_factory.hpp:74] Creating layer 2_pool1
I0130 09:50:51.531065   428 net.cpp:90] Creating Layer 2_pool1
I0130 09:50:51.531067   428 net.cpp:410] 2_pool1 <- 2_conv1
I0130 09:50:51.531070   428 net.cpp:368] 2_pool1 -> 2_pool1
I0130 09:50:51.531072   428 net.cpp:120] Setting up 2_pool1
I0130 09:50:51.531076   428 net.cpp:127] Top shape: 100 32 16 16 (819200)
I0130 09:50:51.531078   428 layer_factory.hpp:74] Creating layer 2_relu1
I0130 09:50:51.531081   428 net.cpp:90] Creating Layer 2_relu1
I0130 09:50:51.531083   428 net.cpp:410] 2_relu1 <- 2_pool1
I0130 09:50:51.531086   428 net.cpp:357] 2_relu1 -> 2_pool1 (in-place)
I0130 09:50:51.531088   428 net.cpp:120] Setting up 2_relu1
I0130 09:50:51.531091   428 net.cpp:127] Top shape: 100 32 16 16 (819200)
I0130 09:50:51.531093   428 layer_factory.hpp:74] Creating layer 2_conv2
I0130 09:50:51.531096   428 net.cpp:90] Creating Layer 2_conv2
I0130 09:50:51.531105   428 net.cpp:410] 2_conv2 <- 2_pool1
I0130 09:50:51.531107   428 net.cpp:368] 2_conv2 -> 2_conv2
I0130 09:50:51.531111   428 net.cpp:120] Setting up 2_conv2
I0130 09:50:51.531700   428 net.cpp:127] Top shape: 100 32 16 16 (819200)
I0130 09:50:51.531707   428 layer_factory.hpp:74] Creating layer 2_relu2
I0130 09:50:51.531710   428 net.cpp:90] Creating Layer 2_relu2
I0130 09:50:51.531713   428 net.cpp:410] 2_relu2 <- 2_conv2
I0130 09:50:51.531715   428 net.cpp:357] 2_relu2 -> 2_conv2 (in-place)
I0130 09:50:51.531718   428 net.cpp:120] Setting up 2_relu2
I0130 09:50:51.531720   428 net.cpp:127] Top shape: 100 32 16 16 (819200)
I0130 09:50:51.531723   428 layer_factory.hpp:74] Creating layer 2_pool2
I0130 09:50:51.531725   428 net.cpp:90] Creating Layer 2_pool2
I0130 09:50:51.531728   428 net.cpp:410] 2_pool2 <- 2_conv2
I0130 09:50:51.531729   428 net.cpp:368] 2_pool2 -> 2_pool2
I0130 09:50:51.531733   428 net.cpp:120] Setting up 2_pool2
I0130 09:50:51.531735   428 net.cpp:127] Top shape: 100 32 8 8 (204800)
I0130 09:50:51.531738   428 layer_factory.hpp:74] Creating layer 2_conv3
I0130 09:50:51.531741   428 net.cpp:90] Creating Layer 2_conv3
I0130 09:50:51.531744   428 net.cpp:410] 2_conv3 <- 2_pool2
I0130 09:50:51.531746   428 net.cpp:368] 2_conv3 -> 2_conv3
I0130 09:50:51.531749   428 net.cpp:120] Setting up 2_conv3
I0130 09:50:51.532907   428 net.cpp:127] Top shape: 100 64 8 8 (409600)
I0130 09:50:51.532913   428 layer_factory.hpp:74] Creating layer 2_relu3
I0130 09:50:51.532917   428 net.cpp:90] Creating Layer 2_relu3
I0130 09:50:51.532919   428 net.cpp:410] 2_relu3 <- 2_conv3
I0130 09:50:51.532922   428 net.cpp:357] 2_relu3 -> 2_conv3 (in-place)
I0130 09:50:51.532924   428 net.cpp:120] Setting up 2_relu3
I0130 09:50:51.532927   428 net.cpp:127] Top shape: 100 64 8 8 (409600)
I0130 09:50:51.532929   428 layer_factory.hpp:74] Creating layer 2_pool3
I0130 09:50:51.532932   428 net.cpp:90] Creating Layer 2_pool3
I0130 09:50:51.532935   428 net.cpp:410] 2_pool3 <- 2_conv3
I0130 09:50:51.532938   428 net.cpp:368] 2_pool3 -> 2_pool3
I0130 09:50:51.532941   428 net.cpp:120] Setting up 2_pool3
I0130 09:50:51.532944   428 net.cpp:127] Top shape: 100 64 4 4 (102400)
I0130 09:50:51.532946   428 layer_factory.hpp:74] Creating layer 2_ip1
I0130 09:50:51.532949   428 net.cpp:90] Creating Layer 2_ip1
I0130 09:50:51.532951   428 net.cpp:410] 2_ip1 <- 2_pool3
I0130 09:50:51.532955   428 net.cpp:368] 2_ip1 -> 2_ip1
I0130 09:50:51.532958   428 net.cpp:120] Setting up 2_ip1
I0130 09:50:51.534437   428 net.cpp:127] Top shape: 100 64 (6400)
I0130 09:50:51.534446   428 layer_factory.hpp:74] Creating layer 2_ip2
I0130 09:50:51.534449   428 net.cpp:90] Creating Layer 2_ip2
I0130 09:50:51.534451   428 net.cpp:410] 2_ip2 <- 2_ip1
I0130 09:50:51.534456   428 net.cpp:368] 2_ip2 -> 2_ip2
I0130 09:50:51.534458   428 net.cpp:120] Setting up 2_ip2
I0130 09:50:51.534479   428 net.cpp:127] Top shape: 100 10 (1000)
I0130 09:50:51.534483   428 layer_factory.hpp:74] Creating layer 2_prob
I0130 09:50:51.534487   428 net.cpp:90] Creating Layer 2_prob
I0130 09:50:51.534488   428 net.cpp:410] 2_prob <- 2_ip2
I0130 09:50:51.534492   428 net.cpp:368] 2_prob -> 2_prob
I0130 09:50:51.534497   428 net.cpp:120] Setting up 2_prob
I0130 09:50:51.534507   428 net.cpp:127] Top shape: 100 10 (1000)
I0130 09:50:51.534510   428 layer_factory.hpp:74] Creating layer 2_prob_2_prob_0_split
I0130 09:50:51.534513   428 net.cpp:90] Creating Layer 2_prob_2_prob_0_split
I0130 09:50:51.534515   428 net.cpp:410] 2_prob_2_prob_0_split <- 2_prob
I0130 09:50:51.534519   428 net.cpp:368] 2_prob_2_prob_0_split -> 2_prob_2_prob_0_split_0
I0130 09:50:51.534523   428 net.cpp:368] 2_prob_2_prob_0_split -> 2_prob_2_prob_0_split_1
I0130 09:50:51.534528   428 net.cpp:120] Setting up 2_prob_2_prob_0_split
I0130 09:50:51.534533   428 net.cpp:127] Top shape: 100 10 (1000)
I0130 09:50:51.534536   428 net.cpp:127] Top shape: 100 10 (1000)
I0130 09:50:51.534538   428 layer_factory.hpp:74] Creating layer 3_conv1
I0130 09:50:51.534543   428 net.cpp:90] Creating Layer 3_conv1
I0130 09:50:51.534553   428 net.cpp:410] 3_conv1 <- data_cifar_0_split_2
I0130 09:50:51.534555   428 net.cpp:368] 3_conv1 -> 3_conv1
I0130 09:50:51.534559   428 net.cpp:120] Setting up 3_conv1
I0130 09:50:51.534621   428 net.cpp:127] Top shape: 100 32 32 32 (3276800)
I0130 09:50:51.534626   428 layer_factory.hpp:74] Creating layer 3_pool1
I0130 09:50:51.534628   428 net.cpp:90] Creating Layer 3_pool1
I0130 09:50:51.534631   428 net.cpp:410] 3_pool1 <- 3_conv1
I0130 09:50:51.534632   428 net.cpp:368] 3_pool1 -> 3_pool1
I0130 09:50:51.534636   428 net.cpp:120] Setting up 3_pool1
I0130 09:50:51.534639   428 net.cpp:127] Top shape: 100 32 16 16 (819200)
I0130 09:50:51.534641   428 layer_factory.hpp:74] Creating layer 3_relu1
I0130 09:50:51.534643   428 net.cpp:90] Creating Layer 3_relu1
I0130 09:50:51.534646   428 net.cpp:410] 3_relu1 <- 3_pool1
I0130 09:50:51.534648   428 net.cpp:357] 3_relu1 -> 3_pool1 (in-place)
I0130 09:50:51.534653   428 net.cpp:120] Setting up 3_relu1
I0130 09:50:51.534657   428 net.cpp:127] Top shape: 100 32 16 16 (819200)
I0130 09:50:51.534659   428 layer_factory.hpp:74] Creating layer 3_conv2
I0130 09:50:51.534663   428 net.cpp:90] Creating Layer 3_conv2
I0130 09:50:51.534665   428 net.cpp:410] 3_conv2 <- 3_pool1
I0130 09:50:51.534669   428 net.cpp:368] 3_conv2 -> 3_conv2
I0130 09:50:51.534672   428 net.cpp:120] Setting up 3_conv2
I0130 09:50:51.535265   428 net.cpp:127] Top shape: 100 32 16 16 (819200)
I0130 09:50:51.535271   428 layer_factory.hpp:74] Creating layer 3_relu2
I0130 09:50:51.535274   428 net.cpp:90] Creating Layer 3_relu2
I0130 09:50:51.535276   428 net.cpp:410] 3_relu2 <- 3_conv2
I0130 09:50:51.535279   428 net.cpp:357] 3_relu2 -> 3_conv2 (in-place)
I0130 09:50:51.535281   428 net.cpp:120] Setting up 3_relu2
I0130 09:50:51.535284   428 net.cpp:127] Top shape: 100 32 16 16 (819200)
I0130 09:50:51.535286   428 layer_factory.hpp:74] Creating layer 3_pool2
I0130 09:50:51.535290   428 net.cpp:90] Creating Layer 3_pool2
I0130 09:50:51.535290   428 net.cpp:410] 3_pool2 <- 3_conv2
I0130 09:50:51.535295   428 net.cpp:368] 3_pool2 -> 3_pool2
I0130 09:50:51.535297   428 net.cpp:120] Setting up 3_pool2
I0130 09:50:51.535300   428 net.cpp:127] Top shape: 100 32 8 8 (204800)
I0130 09:50:51.535302   428 layer_factory.hpp:74] Creating layer 3_conv3
I0130 09:50:51.535305   428 net.cpp:90] Creating Layer 3_conv3
I0130 09:50:51.535307   428 net.cpp:410] 3_conv3 <- 3_pool2
I0130 09:50:51.535310   428 net.cpp:368] 3_conv3 -> 3_conv3
I0130 09:50:51.535313   428 net.cpp:120] Setting up 3_conv3
I0130 09:50:51.536469   428 net.cpp:127] Top shape: 100 64 8 8 (409600)
I0130 09:50:51.536476   428 layer_factory.hpp:74] Creating layer 3_relu3
I0130 09:50:51.536480   428 net.cpp:90] Creating Layer 3_relu3
I0130 09:50:51.536483   428 net.cpp:410] 3_relu3 <- 3_conv3
I0130 09:50:51.536484   428 net.cpp:357] 3_relu3 -> 3_conv3 (in-place)
I0130 09:50:51.536487   428 net.cpp:120] Setting up 3_relu3
I0130 09:50:51.536490   428 net.cpp:127] Top shape: 100 64 8 8 (409600)
I0130 09:50:51.536492   428 layer_factory.hpp:74] Creating layer 3_pool3
I0130 09:50:51.536495   428 net.cpp:90] Creating Layer 3_pool3
I0130 09:50:51.536497   428 net.cpp:410] 3_pool3 <- 3_conv3
I0130 09:50:51.536500   428 net.cpp:368] 3_pool3 -> 3_pool3
I0130 09:50:51.536502   428 net.cpp:120] Setting up 3_pool3
I0130 09:50:51.536506   428 net.cpp:127] Top shape: 100 64 4 4 (102400)
I0130 09:50:51.536507   428 layer_factory.hpp:74] Creating layer 3_ip1
I0130 09:50:51.536510   428 net.cpp:90] Creating Layer 3_ip1
I0130 09:50:51.536512   428 net.cpp:410] 3_ip1 <- 3_pool3
I0130 09:50:51.536516   428 net.cpp:368] 3_ip1 -> 3_ip1
I0130 09:50:51.536520   428 net.cpp:120] Setting up 3_ip1
I0130 09:50:51.538019   428 net.cpp:127] Top shape: 100 64 (6400)
I0130 09:50:51.538027   428 layer_factory.hpp:74] Creating layer 3_ip2
I0130 09:50:51.538029   428 net.cpp:90] Creating Layer 3_ip2
I0130 09:50:51.538031   428 net.cpp:410] 3_ip2 <- 3_ip1
I0130 09:50:51.538038   428 net.cpp:368] 3_ip2 -> 3_ip2
I0130 09:50:51.538040   428 net.cpp:120] Setting up 3_ip2
I0130 09:50:51.538070   428 net.cpp:127] Top shape: 100 10 (1000)
I0130 09:50:51.538074   428 layer_factory.hpp:74] Creating layer 3_prob
I0130 09:50:51.538079   428 net.cpp:90] Creating Layer 3_prob
I0130 09:50:51.538080   428 net.cpp:410] 3_prob <- 3_ip2
I0130 09:50:51.538084   428 net.cpp:368] 3_prob -> 3_prob
I0130 09:50:51.538087   428 net.cpp:120] Setting up 3_prob
I0130 09:50:51.538091   428 net.cpp:127] Top shape: 100 10 (1000)
I0130 09:50:51.538094   428 layer_factory.hpp:74] Creating layer 3_prob_3_prob_0_split
I0130 09:50:51.538095   428 net.cpp:90] Creating Layer 3_prob_3_prob_0_split
I0130 09:50:51.538097   428 net.cpp:410] 3_prob_3_prob_0_split <- 3_prob
I0130 09:50:51.538100   428 net.cpp:368] 3_prob_3_prob_0_split -> 3_prob_3_prob_0_split_0
I0130 09:50:51.538103   428 net.cpp:368] 3_prob_3_prob_0_split -> 3_prob_3_prob_0_split_1
I0130 09:50:51.538106   428 net.cpp:120] Setting up 3_prob_3_prob_0_split
I0130 09:50:51.538110   428 net.cpp:127] Top shape: 100 10 (1000)
I0130 09:50:51.538111   428 net.cpp:127] Top shape: 100 10 (1000)
I0130 09:50:51.538113   428 layer_factory.hpp:74] Creating layer 4_conv1
I0130 09:50:51.538117   428 net.cpp:90] Creating Layer 4_conv1
I0130 09:50:51.538120   428 net.cpp:410] 4_conv1 <- data_cifar_0_split_3
I0130 09:50:51.538123   428 net.cpp:368] 4_conv1 -> 4_conv1
I0130 09:50:51.538126   428 net.cpp:120] Setting up 4_conv1
I0130 09:50:51.538188   428 net.cpp:127] Top shape: 100 32 32 32 (3276800)
I0130 09:50:51.538193   428 layer_factory.hpp:74] Creating layer 4_pool1
I0130 09:50:51.538197   428 net.cpp:90] Creating Layer 4_pool1
I0130 09:50:51.538198   428 net.cpp:410] 4_pool1 <- 4_conv1
I0130 09:50:51.538200   428 net.cpp:368] 4_pool1 -> 4_pool1
I0130 09:50:51.538203   428 net.cpp:120] Setting up 4_pool1
I0130 09:50:51.538208   428 net.cpp:127] Top shape: 100 32 16 16 (819200)
I0130 09:50:51.538209   428 layer_factory.hpp:74] Creating layer 4_relu1
I0130 09:50:51.538211   428 net.cpp:90] Creating Layer 4_relu1
I0130 09:50:51.538213   428 net.cpp:410] 4_relu1 <- 4_pool1
I0130 09:50:51.538216   428 net.cpp:357] 4_relu1 -> 4_pool1 (in-place)
I0130 09:50:51.538218   428 net.cpp:120] Setting up 4_relu1
I0130 09:50:51.538221   428 net.cpp:127] Top shape: 100 32 16 16 (819200)
I0130 09:50:51.538223   428 layer_factory.hpp:74] Creating layer 4_conv2
I0130 09:50:51.538226   428 net.cpp:90] Creating Layer 4_conv2
I0130 09:50:51.538228   428 net.cpp:410] 4_conv2 <- 4_pool1
I0130 09:50:51.538231   428 net.cpp:368] 4_conv2 -> 4_conv2
I0130 09:50:51.538234   428 net.cpp:120] Setting up 4_conv2
I0130 09:50:51.538826   428 net.cpp:127] Top shape: 100 32 16 16 (819200)
I0130 09:50:51.538836   428 layer_factory.hpp:74] Creating layer 4_relu2
I0130 09:50:51.538839   428 net.cpp:90] Creating Layer 4_relu2
I0130 09:50:51.538841   428 net.cpp:410] 4_relu2 <- 4_conv2
I0130 09:50:51.538844   428 net.cpp:357] 4_relu2 -> 4_conv2 (in-place)
I0130 09:50:51.538847   428 net.cpp:120] Setting up 4_relu2
I0130 09:50:51.538849   428 net.cpp:127] Top shape: 100 32 16 16 (819200)
I0130 09:50:51.538851   428 layer_factory.hpp:74] Creating layer 4_pool2
I0130 09:50:51.538854   428 net.cpp:90] Creating Layer 4_pool2
I0130 09:50:51.538856   428 net.cpp:410] 4_pool2 <- 4_conv2
I0130 09:50:51.538859   428 net.cpp:368] 4_pool2 -> 4_pool2
I0130 09:50:51.538862   428 net.cpp:120] Setting up 4_pool2
I0130 09:50:51.538866   428 net.cpp:127] Top shape: 100 32 8 8 (204800)
I0130 09:50:51.538866   428 layer_factory.hpp:74] Creating layer 4_conv3
I0130 09:50:51.538872   428 net.cpp:90] Creating Layer 4_conv3
I0130 09:50:51.538873   428 net.cpp:410] 4_conv3 <- 4_pool2
I0130 09:50:51.538877   428 net.cpp:368] 4_conv3 -> 4_conv3
I0130 09:50:51.538879   428 net.cpp:120] Setting up 4_conv3
I0130 09:50:51.540031   428 net.cpp:127] Top shape: 100 64 8 8 (409600)
I0130 09:50:51.540037   428 layer_factory.hpp:74] Creating layer 4_relu3
I0130 09:50:51.540040   428 net.cpp:90] Creating Layer 4_relu3
I0130 09:50:51.540042   428 net.cpp:410] 4_relu3 <- 4_conv3
I0130 09:50:51.540045   428 net.cpp:357] 4_relu3 -> 4_conv3 (in-place)
I0130 09:50:51.540055   428 net.cpp:120] Setting up 4_relu3
I0130 09:50:51.540057   428 net.cpp:127] Top shape: 100 64 8 8 (409600)
I0130 09:50:51.540060   428 layer_factory.hpp:74] Creating layer 4_pool3
I0130 09:50:51.540061   428 net.cpp:90] Creating Layer 4_pool3
I0130 09:50:51.540063   428 net.cpp:410] 4_pool3 <- 4_conv3
I0130 09:50:51.540067   428 net.cpp:368] 4_pool3 -> 4_pool3
I0130 09:50:51.540071   428 net.cpp:120] Setting up 4_pool3
I0130 09:50:51.540073   428 net.cpp:127] Top shape: 100 64 4 4 (102400)
I0130 09:50:51.540076   428 layer_factory.hpp:74] Creating layer 4_ip1
I0130 09:50:51.540078   428 net.cpp:90] Creating Layer 4_ip1
I0130 09:50:51.540081   428 net.cpp:410] 4_ip1 <- 4_pool3
I0130 09:50:51.540083   428 net.cpp:368] 4_ip1 -> 4_ip1
I0130 09:50:51.540086   428 net.cpp:120] Setting up 4_ip1
I0130 09:50:51.541576   428 net.cpp:127] Top shape: 100 64 (6400)
I0130 09:50:51.541582   428 layer_factory.hpp:74] Creating layer 4_ip2
I0130 09:50:51.541586   428 net.cpp:90] Creating Layer 4_ip2
I0130 09:50:51.541589   428 net.cpp:410] 4_ip2 <- 4_ip1
I0130 09:50:51.541591   428 net.cpp:368] 4_ip2 -> 4_ip2
I0130 09:50:51.541595   428 net.cpp:120] Setting up 4_ip2
I0130 09:50:51.541617   428 net.cpp:127] Top shape: 100 10 (1000)
I0130 09:50:51.541621   428 layer_factory.hpp:74] Creating layer 4_prob
I0130 09:50:51.541626   428 net.cpp:90] Creating Layer 4_prob
I0130 09:50:51.541630   428 net.cpp:410] 4_prob <- 4_ip2
I0130 09:50:51.541633   428 net.cpp:368] 4_prob -> 4_prob
I0130 09:50:51.541635   428 net.cpp:120] Setting up 4_prob
I0130 09:50:51.541640   428 net.cpp:127] Top shape: 100 10 (1000)
I0130 09:50:51.541641   428 layer_factory.hpp:74] Creating layer 4_prob_4_prob_0_split
I0130 09:50:51.541645   428 net.cpp:90] Creating Layer 4_prob_4_prob_0_split
I0130 09:50:51.541646   428 net.cpp:410] 4_prob_4_prob_0_split <- 4_prob
I0130 09:50:51.541649   428 net.cpp:368] 4_prob_4_prob_0_split -> 4_prob_4_prob_0_split_0
I0130 09:50:51.541652   428 net.cpp:368] 4_prob_4_prob_0_split -> 4_prob_4_prob_0_split_1
I0130 09:50:51.541656   428 net.cpp:120] Setting up 4_prob_4_prob_0_split
I0130 09:50:51.541658   428 net.cpp:127] Top shape: 100 10 (1000)
I0130 09:50:51.541661   428 net.cpp:127] Top shape: 100 10 (1000)
I0130 09:50:51.541662   428 layer_factory.hpp:74] Creating layer 5_conv1
I0130 09:50:51.541666   428 net.cpp:90] Creating Layer 5_conv1
I0130 09:50:51.541668   428 net.cpp:410] 5_conv1 <- data_cifar_0_split_4
I0130 09:50:51.541671   428 net.cpp:368] 5_conv1 -> 5_conv1
I0130 09:50:51.541676   428 net.cpp:120] Setting up 5_conv1
I0130 09:50:51.541738   428 net.cpp:127] Top shape: 100 32 32 32 (3276800)
I0130 09:50:51.541741   428 layer_factory.hpp:74] Creating layer 5_pool1
I0130 09:50:51.541744   428 net.cpp:90] Creating Layer 5_pool1
I0130 09:50:51.541746   428 net.cpp:410] 5_pool1 <- 5_conv1
I0130 09:50:51.541749   428 net.cpp:368] 5_pool1 -> 5_pool1
I0130 09:50:51.541752   428 net.cpp:120] Setting up 5_pool1
I0130 09:50:51.541756   428 net.cpp:127] Top shape: 100 32 16 16 (819200)
I0130 09:50:51.541757   428 layer_factory.hpp:74] Creating layer 5_relu1
I0130 09:50:51.541760   428 net.cpp:90] Creating Layer 5_relu1
I0130 09:50:51.541762   428 net.cpp:410] 5_relu1 <- 5_pool1
I0130 09:50:51.541764   428 net.cpp:357] 5_relu1 -> 5_pool1 (in-place)
I0130 09:50:51.541767   428 net.cpp:120] Setting up 5_relu1
I0130 09:50:51.541769   428 net.cpp:127] Top shape: 100 32 16 16 (819200)
I0130 09:50:51.541771   428 layer_factory.hpp:74] Creating layer 5_conv2
I0130 09:50:51.541774   428 net.cpp:90] Creating Layer 5_conv2
I0130 09:50:51.541776   428 net.cpp:410] 5_conv2 <- 5_pool1
I0130 09:50:51.541779   428 net.cpp:368] 5_conv2 -> 5_conv2
I0130 09:50:51.541782   428 net.cpp:120] Setting up 5_conv2
I0130 09:50:51.542371   428 net.cpp:127] Top shape: 100 32 16 16 (819200)
I0130 09:50:51.542377   428 layer_factory.hpp:74] Creating layer 5_relu2
I0130 09:50:51.542381   428 net.cpp:90] Creating Layer 5_relu2
I0130 09:50:51.542382   428 net.cpp:410] 5_relu2 <- 5_conv2
I0130 09:50:51.542387   428 net.cpp:357] 5_relu2 -> 5_conv2 (in-place)
I0130 09:50:51.542397   428 net.cpp:120] Setting up 5_relu2
I0130 09:50:51.542399   428 net.cpp:127] Top shape: 100 32 16 16 (819200)
I0130 09:50:51.542402   428 layer_factory.hpp:74] Creating layer 5_pool2
I0130 09:50:51.542404   428 net.cpp:90] Creating Layer 5_pool2
I0130 09:50:51.542407   428 net.cpp:410] 5_pool2 <- 5_conv2
I0130 09:50:51.542409   428 net.cpp:368] 5_pool2 -> 5_pool2
I0130 09:50:51.542412   428 net.cpp:120] Setting up 5_pool2
I0130 09:50:51.542417   428 net.cpp:127] Top shape: 100 32 8 8 (204800)
I0130 09:50:51.542418   428 layer_factory.hpp:74] Creating layer 5_conv3
I0130 09:50:51.542421   428 net.cpp:90] Creating Layer 5_conv3
I0130 09:50:51.542423   428 net.cpp:410] 5_conv3 <- 5_pool2
I0130 09:50:51.542426   428 net.cpp:368] 5_conv3 -> 5_conv3
I0130 09:50:51.542429   428 net.cpp:120] Setting up 5_conv3
I0130 09:50:51.543586   428 net.cpp:127] Top shape: 100 64 8 8 (409600)
I0130 09:50:51.543592   428 layer_factory.hpp:74] Creating layer 5_relu3
I0130 09:50:51.543596   428 net.cpp:90] Creating Layer 5_relu3
I0130 09:50:51.543598   428 net.cpp:410] 5_relu3 <- 5_conv3
I0130 09:50:51.543601   428 net.cpp:357] 5_relu3 -> 5_conv3 (in-place)
I0130 09:50:51.543603   428 net.cpp:120] Setting up 5_relu3
I0130 09:50:51.543606   428 net.cpp:127] Top shape: 100 64 8 8 (409600)
I0130 09:50:51.543608   428 layer_factory.hpp:74] Creating layer 5_pool3
I0130 09:50:51.543611   428 net.cpp:90] Creating Layer 5_pool3
I0130 09:50:51.543612   428 net.cpp:410] 5_pool3 <- 5_conv3
I0130 09:50:51.543617   428 net.cpp:368] 5_pool3 -> 5_pool3
I0130 09:50:51.543619   428 net.cpp:120] Setting up 5_pool3
I0130 09:50:51.543622   428 net.cpp:127] Top shape: 100 64 4 4 (102400)
I0130 09:50:51.543624   428 layer_factory.hpp:74] Creating layer 5_ip1
I0130 09:50:51.543630   428 net.cpp:90] Creating Layer 5_ip1
I0130 09:50:51.543632   428 net.cpp:410] 5_ip1 <- 5_pool3
I0130 09:50:51.543635   428 net.cpp:368] 5_ip1 -> 5_ip1
I0130 09:50:51.543638   428 net.cpp:120] Setting up 5_ip1
I0130 09:50:51.545120   428 net.cpp:127] Top shape: 100 64 (6400)
I0130 09:50:51.545128   428 layer_factory.hpp:74] Creating layer 5_ip2
I0130 09:50:51.545132   428 net.cpp:90] Creating Layer 5_ip2
I0130 09:50:51.545135   428 net.cpp:410] 5_ip2 <- 5_ip1
I0130 09:50:51.545138   428 net.cpp:368] 5_ip2 -> 5_ip2
I0130 09:50:51.545145   428 net.cpp:120] Setting up 5_ip2
I0130 09:50:51.545166   428 net.cpp:127] Top shape: 100 10 (1000)
I0130 09:50:51.545171   428 layer_factory.hpp:74] Creating layer 5_prob
I0130 09:50:51.545173   428 net.cpp:90] Creating Layer 5_prob
I0130 09:50:51.545176   428 net.cpp:410] 5_prob <- 5_ip2
I0130 09:50:51.545178   428 net.cpp:368] 5_prob -> 5_prob
I0130 09:50:51.545181   428 net.cpp:120] Setting up 5_prob
I0130 09:50:51.545186   428 net.cpp:127] Top shape: 100 10 (1000)
I0130 09:50:51.545186   428 layer_factory.hpp:74] Creating layer 5_prob_5_prob_0_split
I0130 09:50:51.545189   428 net.cpp:90] Creating Layer 5_prob_5_prob_0_split
I0130 09:50:51.545192   428 net.cpp:410] 5_prob_5_prob_0_split <- 5_prob
I0130 09:50:51.545195   428 net.cpp:368] 5_prob_5_prob_0_split -> 5_prob_5_prob_0_split_0
I0130 09:50:51.545198   428 net.cpp:368] 5_prob_5_prob_0_split -> 5_prob_5_prob_0_split_1
I0130 09:50:51.545202   428 net.cpp:120] Setting up 5_prob_5_prob_0_split
I0130 09:50:51.545204   428 net.cpp:127] Top shape: 100 10 (1000)
I0130 09:50:51.545207   428 net.cpp:127] Top shape: 100 10 (1000)
I0130 09:50:51.545208   428 layer_factory.hpp:74] Creating layer 1_accuracy
I0130 09:50:51.545212   428 net.cpp:90] Creating Layer 1_accuracy
I0130 09:50:51.545213   428 net.cpp:410] 1_accuracy <- 1_prob_1_prob_0_split_0
I0130 09:50:51.545217   428 net.cpp:410] 1_accuracy <- label_cifar_1_split_0
I0130 09:50:51.545222   428 net.cpp:368] 1_accuracy -> 1_accuracy
I0130 09:50:51.545224   428 net.cpp:120] Setting up 1_accuracy
…
