…
I0126 21:25:02.261204 24226 net.cpp:287] The NetState phase (0) differed from the phase (1) specified by a rule in layer accuracy
I0126 21:25:02.261348 24226 net.cpp:42] Initializing net from parameters: 
name: "CIFAR10_quick"
state {
  phase: TRAIN
}
layer {
  name: "cifar"
  type: "Data"
  top: "data"
  top: "label"
  include {
    phase: TRAIN
  }
  transform_param {
    mean_file: "/home/mike/ml_lab/mod/MCL_Caffe/examples/cifar10/mean.binaryproto"
  }
  data_param {
    source: "/home/mike/ml_lab/mod/MCL_Caffe/examples/cifar10/cifar10_train_lmdb"
    batch_size: 350
    backend: LMDB
  }
}
layer {
  name: "1_conv1"
  type: "Convolution"
  bottom: "data"
  top: "1_conv1"
  param {
    lr_mult: 1
  }
  param {
    lr_mult: 2
  }
  convolution_param {
    num_output: 32
    pad: 2
    kernel_size: 5
    stride: 1
    weight_filler {
      type: "gaussian"
      std: 0.0001
    }
    bias_filler {
      type: "constant"
    }
  }
}
layer {
  name: "1_pool1"
  type: "Pooling"
  bottom: "1_conv1"
  top: "1_pool1"
  pooling_param {
    pool: MAX
    kernel_size: 3
    stride: 2
  }
}
layer {
  name: "1_relu1"
  type: "ReLU"
  bottom: "1_pool1"
  top: "1_pool1"
}
layer {
  name: "1_conv2"
  type: "Convolution"
  bottom: "1_pool1"
  top: "1_conv2"
  param {
    lr_mult: 1
  }
  param {
    lr_mult: 2
  }
  convolution_param {
    num_output: 32
    pad: 2
    kernel_size: 5
    stride: 1
    weight_filler {
      type: "gaussian"
      std: 0.01
    }
    bias_filler {
      type: "constant"
    }
  }
}
layer {
  name: "1_relu2"
  type: "ReLU"
  bottom: "1_conv2"
  top: "1_conv2"
}
layer {
  name: "1_pool2"
  type: "Pooling"
  bottom: "1_conv2"
  top: "1_pool2"
  pooling_param {
    pool: AVE
    kernel_size: 3
    stride: 2
  }
}
layer {
  name: "1_conv3"
  type: "Convolution"
  bottom: "1_pool2"
  top: "1_conv3"
  param {
    lr_mult: 1
  }
  param {
    lr_mult: 2
  }
  convolution_param {
    num_output: 64
    pad: 2
    kernel_size: 5
    stride: 1
    weight_filler {
      type: "gaussian"
      std: 0.01
    }
    bias_filler {
      type: "constant"
    }
  }
}
layer {
  name: "1_relu3"
  type: "ReLU"
  bottom: "1_conv3"
  top: "1_conv3"
}
layer {
  name: "1_pool3"
  type: "Pooling"
  bottom: "1_conv3"
  top: "1_pool3"
  pooling_param {
    pool: AVE
    kernel_size: 3
    stride: 2
  }
}
layer {
  name: "1_ip1"
  type: "InnerProduct"
  bottom: "1_pool3"
  top: "1_ip1"
  param {
    lr_mult: 1
  }
  param {
    lr_mult: 2
  }
  inner_product_param {
    num_output: 64
    weight_filler {
      type: "gaussian"
      std: 0.1
    }
    bias_filler {
      type: "constant"
    }
  }
}
layer {
  name: "1_ip2"
  type: "InnerProduct"
  bottom: "1_ip1"
  top: "1_ip2"
  param {
    lr_mult: 1
  }
  param {
    lr_mult: 2
  }
  inner_product_param {
    num_output: 10
    weight_filler {
      type: "gaussian"
      std: 0.1
    }
    bias_filler {
      type: "constant"
    }
  }
}
layer {
  name: "1_prob"
  type: "Softmax"
  bottom: "1_ip2"
  top: "1_prob"
}
layer {
  name: "2_conv1"
  type: "Convolution"
  bottom: "data"
  top: "2_conv1"
  param {
    lr_mult: 1
  }
  param {
    lr_mult: 2
  }
  convolution_param {
    num_output: 32
    pad: 2
    kernel_size: 5
    stride: 1
    weight_filler {
      type: "gaussian"
      std: 0.0001
    }
    bias_filler {
      type: "constant"
    }
  }
}
layer {
  name: "2_pool1"
  type: "Pooling"
  bottom: "2_conv1"
  top: "2_pool1"
  pooling_param {
    pool: MAX
    kernel_size: 3
    stride: 2
  }
}
layer {
  name: "2_relu1"
  type: "ReLU"
  bottom: "2_pool1"
  top: "2_pool1"
}
layer {
  name: "2_conv2"
  type: "Convolution"
  bottom: "2_pool1"
  top: "2_conv2"
  param {
    lr_mult: 1
  }
  param {
    lr_mult: 2
  }
  convolution_param {
    num_output: 32
    pad: 2
    kernel_size: 5
    stride: 1
    weight_filler {
      type: "gaussian"
      std: 0.01
    }
    bias_filler {
      type: "constant"
    }
  }
}
layer {
  name: "2_relu2"
  type: "ReLU"
  bottom: "2_conv2"
  top: "2_conv2"
}
layer {
  name: "2_pool2"
  type: "Pooling"
  bottom: "2_conv2"
  top: "2_pool2"
  pooling_param {
    pool: AVE
    kernel_size: 3
    stride: 2
  }
}
layer {
  name: "2_conv3"
  type: "Convolution"
  bottom: "2_pool2"
  top: "2_conv3"
  param {
    lr_mult: 1
  }
  param {
    lr_mult: 2
  }
  convolution_param {
    num_output: 64
    pad: 2
    kernel_size: 5
    stride: 1
    weight_filler {
      type: "gaussian"
      std: 0.01
    }
    bias_filler {
      type: "constant"
    }
  }
}
layer {
  name: "2_relu3"
  type: "ReLU"
  bottom: "2_conv3"
  top: "2_conv3"
}
layer {
  name: "2_pool3"
  type: "Pooling"
  bottom: "2_conv3"
  top: "2_pool3"
  pooling_param {
    pool: AVE
    kernel_size: 3
    stride: 2
  }
}
layer {
  name: "2_ip1"
  type: "InnerProduct"
  bottom: "2_pool3"
  top: "2_ip1"
  param {
    lr_mult: 1
  }
  param {
    lr_mult: 2
  }
  inner_product_param {
    num_output: 64
    weight_filler {
      type: "gaussian"
      std: 0.1
    }
    bias_filler {
      type: "constant"
    }
  }
}
layer {
  name: "2_ip2"
  type: "InnerProduct"
  bottom: "2_ip1"
  top: "2_ip2"
  param {
    lr_mult: 1
  }
  param {
    lr_mult: 2
  }
  inner_product_param {
    num_output: 10
    weight_filler {
      type: "gaussian"
      std: 0.1
    }
    bias_filler {
      type: "constant"
    }
  }
}
layer {
  name: "2_prob"
  type: "Softmax"
  bottom: "2_ip2"
  top: "2_prob"
}
layer {
  name: "3_conv1"
  type: "Convolution"
  bottom: "data"
  top: "3_conv1"
  param {
    lr_mult: 1
  }
  param {
    lr_mult: 2
  }
  convolution_param {
    num_output: 32
    pad: 2
    kernel_size: 5
    stride: 1
    weight_filler {
      type: "gaussian"
      std: 0.0001
    }
    bias_filler {
      type: "constant"
    }
  }
}
layer {
  name: "3_pool1"
  type: "Pooling"
  bottom: "3_conv1"
  top: "3_pool1"
  pooling_param {
    pool: MAX
    kernel_size: 3
    stride: 2
  }
}
layer {
  name: "3_relu1"
  type: "ReLU"
  bottom: "3_pool1"
  top: "3_pool1"
}
layer {
  name: "3_conv2"
  type: "Convolution"
  bottom: "3_pool1"
  top: "3_conv2"
  param {
    lr_mult: 1
  }
  param {
    lr_mult: 2
  }
  convolution_param {
    num_output: 32
    pad: 2
    kernel_size: 5
    stride: 1
    weight_filler {
      type: "gaussian"
      std: 0.01
    }
    bias_filler {
      type: "constant"
    }
  }
}
layer {
  name: "3_relu2"
  type: "ReLU"
  bottom: "3_conv2"
  top: "3_conv2"
}
layer {
  name: "3_pool2"
  type: "Pooling"
  bottom: "3_conv2"
  top: "3_pool2"
  pooling_param {
    pool: AVE
    kernel_size: 3
    stride: 2
  }
}
layer {
  name: "3_conv3"
  type: "Convolution"
  bottom: "3_pool2"
  top: "3_conv3"
  param {
    lr_mult: 1
  }
  param {
    lr_mult: 2
  }
  convolution_param {
    num_output: 64
    pad: 2
    kernel_size: 5
    stride: 1
    weight_filler {
      type: "gaussian"
      std: 0.01
    }
    bias_filler {
      type: "constant"
    }
  }
}
layer {
  name: "3_relu3"
  type: "ReLU"
  bottom: "3_conv3"
  top: "3_conv3"
}
layer {
  name: "3_pool3"
  type: "Pooling"
  bottom: "3_conv3"
  top: "3_pool3"
  pooling_param {
    pool: AVE
    kernel_size: 3
    stride: 2
  }
}
layer {
  name: "3_ip1"
  type: "InnerProduct"
  bottom: "3_pool3"
  top: "3_ip1"
  param {
    lr_mult: 1
  }
  param {
    lr_mult: 2
  }
  inner_product_param {
    num_output: 64
    weight_filler {
      type: "gaussian"
      std: 0.1
    }
    bias_filler {
      type: "constant"
    }
  }
}
layer {
  name: "3_ip2"
  type: "InnerProduct"
  bottom: "3_ip1"
  top: "3_ip2"
  param {
    lr_mult: 1
  }
  param {
    lr_mult: 2
  }
  inner_product_param {
    num_output: 10
    weight_filler {
      type: "gaussian"
      std: 0.1
    }
    bias_filler {
      type: "constant"
    }
  }
}
layer {
  name: "3_prob"
  type: "Softmax"
  bottom: "3_ip2"
  top: "3_prob"
}
layer {
  name: "loss"
  type: "ODMultinomialLogisticLoss"
  bottom: "1_prob"
  bottom: "2_prob"
  bottom: "3_prob"
  bottom: "label"
  top: "multiple-output loss"
  top: "batch-instance-counts"
  top: "train-instance-counts"
  loss_weight: 1
  loss_weight: 0
  loss_weight: 0
  include {
    phase: TRAIN
  }
}
I0126 21:25:02.261540 24226 layer_factory.hpp:74] Creating layer cifar
I0126 21:25:02.261559 24226 net.cpp:90] Creating Layer cifar
I0126 21:25:02.261569 24226 net.cpp:368] cifar -> data
I0126 21:25:02.261590 24226 net.cpp:368] cifar -> label
I0126 21:25:02.261600 24226 net.cpp:120] Setting up cifar
I0126 21:25:02.261646 24226 db.cpp:34] Opened lmdb /home/mike/ml_lab/mod/MCL_Caffe/examples/cifar10/cifar10_train_lmdb
I0126 21:25:02.261682 24226 data_layer.cpp:67] output data size: 350,3,32,32
I0126 21:25:02.261692 24226 data_transformer.cpp:22] Loading mean file from: /home/mike/ml_lab/mod/MCL_Caffe/examples/cifar10/mean.binaryproto
I0126 21:25:02.262135 24226 net.cpp:127] Top shape: 350 3 32 32 (1075200)
I0126 21:25:02.262161 24226 net.cpp:127] Top shape: 350 (350)
I0126 21:25:02.262176 24226 layer_factory.hpp:74] Creating layer data_cifar_0_split
I0126 21:25:02.262194 24226 net.cpp:90] Creating Layer data_cifar_0_split
I0126 21:25:02.262210 24226 net.cpp:410] data_cifar_0_split <- data
I0126 21:25:02.262231 24226 net.cpp:368] data_cifar_0_split -> data_cifar_0_split_0
I0126 21:25:02.262251 24226 net.cpp:368] data_cifar_0_split -> data_cifar_0_split_1
I0126 21:25:02.262270 24226 net.cpp:368] data_cifar_0_split -> data_cifar_0_split_2
I0126 21:25:02.262289 24226 net.cpp:120] Setting up data_cifar_0_split
I0126 21:25:02.262306 24226 net.cpp:127] Top shape: 350 3 32 32 (1075200)
I0126 21:25:02.262321 24226 net.cpp:127] Top shape: 350 3 32 32 (1075200)
I0126 21:25:02.262336 24226 net.cpp:127] Top shape: 350 3 32 32 (1075200)
I0126 21:25:02.262351 24226 layer_factory.hpp:74] Creating layer 1_conv1
I0126 21:25:02.262369 24226 net.cpp:90] Creating Layer 1_conv1
I0126 21:25:02.262383 24226 net.cpp:410] 1_conv1 <- data_cifar_0_split_0
I0126 21:25:02.262399 24226 net.cpp:368] 1_conv1 -> 1_conv1
I0126 21:25:02.262418 24226 net.cpp:120] Setting up 1_conv1
I0126 21:25:02.263023 24226 net.cpp:127] Top shape: 350 32 32 32 (11468800)
I0126 21:25:02.263051 24226 layer_factory.hpp:74] Creating layer 1_pool1
I0126 21:25:02.263069 24226 net.cpp:90] Creating Layer 1_pool1
I0126 21:25:02.263082 24226 net.cpp:410] 1_pool1 <- 1_conv1
I0126 21:25:02.263097 24226 net.cpp:368] 1_pool1 -> 1_pool1
I0126 21:25:02.263113 24226 net.cpp:120] Setting up 1_pool1
I0126 21:25:02.263139 24226 net.cpp:127] Top shape: 350 32 16 16 (2867200)
I0126 21:25:02.263151 24226 layer_factory.hpp:74] Creating layer 1_relu1
I0126 21:25:02.263166 24226 net.cpp:90] Creating Layer 1_relu1
I0126 21:25:02.263178 24226 net.cpp:410] 1_relu1 <- 1_pool1
I0126 21:25:02.263191 24226 net.cpp:357] 1_relu1 -> 1_pool1 (in-place)
I0126 21:25:02.263206 24226 net.cpp:120] Setting up 1_relu1
I0126 21:25:02.263221 24226 net.cpp:127] Top shape: 350 32 16 16 (2867200)
I0126 21:25:02.263234 24226 layer_factory.hpp:74] Creating layer 1_conv2
I0126 21:25:02.263253 24226 net.cpp:90] Creating Layer 1_conv2
I0126 21:25:02.263273 24226 net.cpp:410] 1_conv2 <- 1_pool1
I0126 21:25:02.263288 24226 net.cpp:368] 1_conv2 -> 1_conv2
I0126 21:25:02.263303 24226 net.cpp:120] Setting up 1_conv2
I0126 21:25:02.264107 24226 net.cpp:127] Top shape: 350 32 16 16 (2867200)
I0126 21:25:02.264130 24226 layer_factory.hpp:74] Creating layer 1_relu2
I0126 21:25:02.264145 24226 net.cpp:90] Creating Layer 1_relu2
I0126 21:25:02.264158 24226 net.cpp:410] 1_relu2 <- 1_conv2
I0126 21:25:02.264171 24226 net.cpp:357] 1_relu2 -> 1_conv2 (in-place)
I0126 21:25:02.264185 24226 net.cpp:120] Setting up 1_relu2
I0126 21:25:02.264199 24226 net.cpp:127] Top shape: 350 32 16 16 (2867200)
I0126 21:25:02.264211 24226 layer_factory.hpp:74] Creating layer 1_pool2
I0126 21:25:02.264226 24226 net.cpp:90] Creating Layer 1_pool2
I0126 21:25:02.264238 24226 net.cpp:410] 1_pool2 <- 1_conv2
I0126 21:25:02.264252 24226 net.cpp:368] 1_pool2 -> 1_pool2
I0126 21:25:02.264269 24226 net.cpp:120] Setting up 1_pool2
I0126 21:25:02.264286 24226 net.cpp:127] Top shape: 350 32 8 8 (716800)
I0126 21:25:02.264297 24226 layer_factory.hpp:74] Creating layer 1_conv3
I0126 21:25:02.264313 24226 net.cpp:90] Creating Layer 1_conv3
I0126 21:25:02.264325 24226 net.cpp:410] 1_conv3 <- 1_pool2
I0126 21:25:02.264341 24226 net.cpp:368] 1_conv3 -> 1_conv3
I0126 21:25:02.264356 24226 net.cpp:120] Setting up 1_conv3
I0126 21:25:02.265955 24226 net.cpp:127] Top shape: 350 64 8 8 (1433600)
I0126 21:25:02.265980 24226 layer_factory.hpp:74] Creating layer 1_relu3
I0126 21:25:02.265995 24226 net.cpp:90] Creating Layer 1_relu3
I0126 21:25:02.266007 24226 net.cpp:410] 1_relu3 <- 1_conv3
I0126 21:25:02.266021 24226 net.cpp:357] 1_relu3 -> 1_conv3 (in-place)
I0126 21:25:02.266036 24226 net.cpp:120] Setting up 1_relu3
I0126 21:25:02.266049 24226 net.cpp:127] Top shape: 350 64 8 8 (1433600)
I0126 21:25:02.266062 24226 layer_factory.hpp:74] Creating layer 1_pool3
I0126 21:25:02.266075 24226 net.cpp:90] Creating Layer 1_pool3
I0126 21:25:02.266088 24226 net.cpp:410] 1_pool3 <- 1_conv3
I0126 21:25:02.266103 24226 net.cpp:368] 1_pool3 -> 1_pool3
I0126 21:25:02.266119 24226 net.cpp:120] Setting up 1_pool3
I0126 21:25:02.266134 24226 net.cpp:127] Top shape: 350 64 4 4 (358400)
I0126 21:25:02.266145 24226 layer_factory.hpp:74] Creating layer 1_ip1
I0126 21:25:02.266160 24226 net.cpp:90] Creating Layer 1_ip1
I0126 21:25:02.266172 24226 net.cpp:410] 1_ip1 <- 1_pool3
I0126 21:25:02.266188 24226 net.cpp:368] 1_ip1 -> 1_ip1
I0126 21:25:02.266204 24226 net.cpp:120] Setting up 1_ip1
I0126 21:25:02.268239 24226 net.cpp:127] Top shape: 350 64 (22400)
I0126 21:25:02.268265 24226 layer_factory.hpp:74] Creating layer 1_ip2
I0126 21:25:02.268282 24226 net.cpp:90] Creating Layer 1_ip2
I0126 21:25:02.268296 24226 net.cpp:410] 1_ip2 <- 1_ip1
I0126 21:25:02.268311 24226 net.cpp:368] 1_ip2 -> 1_ip2
I0126 21:25:02.268326 24226 net.cpp:120] Setting up 1_ip2
I0126 21:25:02.268366 24226 net.cpp:127] Top shape: 350 10 (3500)
I0126 21:25:02.268384 24226 layer_factory.hpp:74] Creating layer 1_prob
I0126 21:25:02.268400 24226 net.cpp:90] Creating Layer 1_prob
I0126 21:25:02.268412 24226 net.cpp:410] 1_prob <- 1_ip2
I0126 21:25:02.268426 24226 net.cpp:368] 1_prob -> 1_prob
I0126 21:25:02.268440 24226 net.cpp:120] Setting up 1_prob
I0126 21:25:02.268460 24226 net.cpp:127] Top shape: 350 10 (3500)
I0126 21:25:02.268473 24226 layer_factory.hpp:74] Creating layer 2_conv1
I0126 21:25:02.268488 24226 net.cpp:90] Creating Layer 2_conv1
I0126 21:25:02.268501 24226 net.cpp:410] 2_conv1 <- data_cifar_0_split_1
I0126 21:25:02.268517 24226 net.cpp:368] 2_conv1 -> 2_conv1
I0126 21:25:02.268532 24226 net.cpp:120] Setting up 2_conv1
I0126 21:25:02.268630 24226 net.cpp:127] Top shape: 350 32 32 32 (11468800)
I0126 21:25:02.268646 24226 layer_factory.hpp:74] Creating layer 2_pool1
I0126 21:25:02.268661 24226 net.cpp:90] Creating Layer 2_pool1
I0126 21:25:02.268672 24226 net.cpp:410] 2_pool1 <- 2_conv1
I0126 21:25:02.268687 24226 net.cpp:368] 2_pool1 -> 2_pool1
I0126 21:25:02.268707 24226 net.cpp:120] Setting up 2_pool1
I0126 21:25:02.268723 24226 net.cpp:127] Top shape: 350 32 16 16 (2867200)
I0126 21:25:02.268743 24226 layer_factory.hpp:74] Creating layer 2_relu1
I0126 21:25:02.268757 24226 net.cpp:90] Creating Layer 2_relu1
I0126 21:25:02.268769 24226 net.cpp:410] 2_relu1 <- 2_pool1
I0126 21:25:02.268782 24226 net.cpp:357] 2_relu1 -> 2_pool1 (in-place)
I0126 21:25:02.268796 24226 net.cpp:120] Setting up 2_relu1
I0126 21:25:02.268810 24226 net.cpp:127] Top shape: 350 32 16 16 (2867200)
I0126 21:25:02.268823 24226 layer_factory.hpp:74] Creating layer 2_conv2
I0126 21:25:02.268838 24226 net.cpp:90] Creating Layer 2_conv2
I0126 21:25:02.268851 24226 net.cpp:410] 2_conv2 <- 2_pool1
I0126 21:25:02.268867 24226 net.cpp:368] 2_conv2 -> 2_conv2
I0126 21:25:02.268882 24226 net.cpp:120] Setting up 2_conv2
I0126 21:25:02.269690 24226 net.cpp:127] Top shape: 350 32 16 16 (2867200)
I0126 21:25:02.269712 24226 layer_factory.hpp:74] Creating layer 2_relu2
I0126 21:25:02.269726 24226 net.cpp:90] Creating Layer 2_relu2
I0126 21:25:02.269739 24226 net.cpp:410] 2_relu2 <- 2_conv2
I0126 21:25:02.269752 24226 net.cpp:357] 2_relu2 -> 2_conv2 (in-place)
I0126 21:25:02.269767 24226 net.cpp:120] Setting up 2_relu2
I0126 21:25:02.269781 24226 net.cpp:127] Top shape: 350 32 16 16 (2867200)
I0126 21:25:02.269793 24226 layer_factory.hpp:74] Creating layer 2_pool2
I0126 21:25:02.269809 24226 net.cpp:90] Creating Layer 2_pool2
I0126 21:25:02.269821 24226 net.cpp:410] 2_pool2 <- 2_conv2
I0126 21:25:02.269835 24226 net.cpp:368] 2_pool2 -> 2_pool2
I0126 21:25:02.269850 24226 net.cpp:120] Setting up 2_pool2
I0126 21:25:02.269866 24226 net.cpp:127] Top shape: 350 32 8 8 (716800)
I0126 21:25:02.269879 24226 layer_factory.hpp:74] Creating layer 2_conv3
I0126 21:25:02.269894 24226 net.cpp:90] Creating Layer 2_conv3
I0126 21:25:02.269906 24226 net.cpp:410] 2_conv3 <- 2_pool2
I0126 21:25:02.269920 24226 net.cpp:368] 2_conv3 -> 2_conv3
I0126 21:25:02.269935 24226 net.cpp:120] Setting up 2_conv3
I0126 21:25:02.271533 24226 net.cpp:127] Top shape: 350 64 8 8 (1433600)
I0126 21:25:02.271558 24226 layer_factory.hpp:74] Creating layer 2_relu3
I0126 21:25:02.271574 24226 net.cpp:90] Creating Layer 2_relu3
I0126 21:25:02.271587 24226 net.cpp:410] 2_relu3 <- 2_conv3
I0126 21:25:02.271600 24226 net.cpp:357] 2_relu3 -> 2_conv3 (in-place)
I0126 21:25:02.271615 24226 net.cpp:120] Setting up 2_relu3
I0126 21:25:02.271630 24226 net.cpp:127] Top shape: 350 64 8 8 (1433600)
I0126 21:25:02.271641 24226 layer_factory.hpp:74] Creating layer 2_pool3
I0126 21:25:02.271656 24226 net.cpp:90] Creating Layer 2_pool3
I0126 21:25:02.271667 24226 net.cpp:410] 2_pool3 <- 2_conv3
I0126 21:25:02.271682 24226 net.cpp:368] 2_pool3 -> 2_pool3
I0126 21:25:02.271697 24226 net.cpp:120] Setting up 2_pool3
I0126 21:25:02.271711 24226 net.cpp:127] Top shape: 350 64 4 4 (358400)
I0126 21:25:02.271724 24226 layer_factory.hpp:74] Creating layer 2_ip1
I0126 21:25:02.271739 24226 net.cpp:90] Creating Layer 2_ip1
I0126 21:25:02.271752 24226 net.cpp:410] 2_ip1 <- 2_pool3
I0126 21:25:02.271767 24226 net.cpp:368] 2_ip1 -> 2_ip1
I0126 21:25:02.271783 24226 net.cpp:120] Setting up 2_ip1
I0126 21:25:02.273820 24226 net.cpp:127] Top shape: 350 64 (22400)
I0126 21:25:02.273849 24226 layer_factory.hpp:74] Creating layer 2_ip2
I0126 21:25:02.273866 24226 net.cpp:90] Creating Layer 2_ip2
I0126 21:25:02.273880 24226 net.cpp:410] 2_ip2 <- 2_ip1
I0126 21:25:02.273895 24226 net.cpp:368] 2_ip2 -> 2_ip2
I0126 21:25:02.273910 24226 net.cpp:120] Setting up 2_ip2
I0126 21:25:02.273952 24226 net.cpp:127] Top shape: 350 10 (3500)
I0126 21:25:02.273967 24226 layer_factory.hpp:74] Creating layer 2_prob
I0126 21:25:02.273983 24226 net.cpp:90] Creating Layer 2_prob
I0126 21:25:02.273995 24226 net.cpp:410] 2_prob <- 2_ip2
I0126 21:25:02.274009 24226 net.cpp:368] 2_prob -> 2_prob
I0126 21:25:02.274024 24226 net.cpp:120] Setting up 2_prob
I0126 21:25:02.274041 24226 net.cpp:127] Top shape: 350 10 (3500)
I0126 21:25:02.274055 24226 layer_factory.hpp:74] Creating layer 3_conv1
I0126 21:25:02.274068 24226 net.cpp:90] Creating Layer 3_conv1
I0126 21:25:02.274085 24226 net.cpp:410] 3_conv1 <- data_cifar_0_split_2
I0126 21:25:02.274106 24226 net.cpp:368] 3_conv1 -> 3_conv1
I0126 21:25:02.274122 24226 net.cpp:120] Setting up 3_conv1
I0126 21:25:02.274220 24226 net.cpp:127] Top shape: 350 32 32 32 (11468800)
I0126 21:25:02.274236 24226 layer_factory.hpp:74] Creating layer 3_pool1
I0126 21:25:02.274250 24226 net.cpp:90] Creating Layer 3_pool1
I0126 21:25:02.274263 24226 net.cpp:410] 3_pool1 <- 3_conv1
I0126 21:25:02.274277 24226 net.cpp:368] 3_pool1 -> 3_pool1
I0126 21:25:02.274291 24226 net.cpp:120] Setting up 3_pool1
I0126 21:25:02.274308 24226 net.cpp:127] Top shape: 350 32 16 16 (2867200)
I0126 21:25:02.274322 24226 layer_factory.hpp:74] Creating layer 3_relu1
I0126 21:25:02.274335 24226 net.cpp:90] Creating Layer 3_relu1
I0126 21:25:02.274348 24226 net.cpp:410] 3_relu1 <- 3_pool1
I0126 21:25:02.274361 24226 net.cpp:357] 3_relu1 -> 3_pool1 (in-place)
I0126 21:25:02.274375 24226 net.cpp:120] Setting up 3_relu1
I0126 21:25:02.274389 24226 net.cpp:127] Top shape: 350 32 16 16 (2867200)
I0126 21:25:02.274401 24226 layer_factory.hpp:74] Creating layer 3_conv2
I0126 21:25:02.274416 24226 net.cpp:90] Creating Layer 3_conv2
I0126 21:25:02.274428 24226 net.cpp:410] 3_conv2 <- 3_pool1
I0126 21:25:02.274443 24226 net.cpp:368] 3_conv2 -> 3_conv2
I0126 21:25:02.274458 24226 net.cpp:120] Setting up 3_conv2
I0126 21:25:02.275264 24226 net.cpp:127] Top shape: 350 32 16 16 (2867200)
I0126 21:25:02.275286 24226 layer_factory.hpp:74] Creating layer 3_relu2
I0126 21:25:02.275302 24226 net.cpp:90] Creating Layer 3_relu2
I0126 21:25:02.275315 24226 net.cpp:410] 3_relu2 <- 3_conv2
I0126 21:25:02.275328 24226 net.cpp:357] 3_relu2 -> 3_conv2 (in-place)
I0126 21:25:02.275343 24226 net.cpp:120] Setting up 3_relu2
I0126 21:25:02.275357 24226 net.cpp:127] Top shape: 350 32 16 16 (2867200)
I0126 21:25:02.275370 24226 layer_factory.hpp:74] Creating layer 3_pool2
I0126 21:25:02.275383 24226 net.cpp:90] Creating Layer 3_pool2
I0126 21:25:02.275395 24226 net.cpp:410] 3_pool2 <- 3_conv2
I0126 21:25:02.275411 24226 net.cpp:368] 3_pool2 -> 3_pool2
I0126 21:25:02.275426 24226 net.cpp:120] Setting up 3_pool2
I0126 21:25:02.275441 24226 net.cpp:127] Top shape: 350 32 8 8 (716800)
I0126 21:25:02.275454 24226 layer_factory.hpp:74] Creating layer 3_conv3
I0126 21:25:02.275471 24226 net.cpp:90] Creating Layer 3_conv3
I0126 21:25:02.275485 24226 net.cpp:410] 3_conv3 <- 3_pool2
I0126 21:25:02.275499 24226 net.cpp:368] 3_conv3 -> 3_conv3
I0126 21:25:02.275513 24226 net.cpp:120] Setting up 3_conv3
I0126 21:25:02.277108 24226 net.cpp:127] Top shape: 350 64 8 8 (1433600)
I0126 21:25:02.277138 24226 layer_factory.hpp:74] Creating layer 3_relu3
I0126 21:25:02.277156 24226 net.cpp:90] Creating Layer 3_relu3
I0126 21:25:02.277169 24226 net.cpp:410] 3_relu3 <- 3_conv3
I0126 21:25:02.277184 24226 net.cpp:357] 3_relu3 -> 3_conv3 (in-place)
I0126 21:25:02.277199 24226 net.cpp:120] Setting up 3_relu3
I0126 21:25:02.277215 24226 net.cpp:127] Top shape: 350 64 8 8 (1433600)
I0126 21:25:02.277226 24226 layer_factory.hpp:74] Creating layer 3_pool3
I0126 21:25:02.277240 24226 net.cpp:90] Creating Layer 3_pool3
I0126 21:25:02.277253 24226 net.cpp:410] 3_pool3 <- 3_conv3
I0126 21:25:02.277267 24226 net.cpp:368] 3_pool3 -> 3_pool3
I0126 21:25:02.277282 24226 net.cpp:120] Setting up 3_pool3
I0126 21:25:02.277297 24226 net.cpp:127] Top shape: 350 64 4 4 (358400)
I0126 21:25:02.277309 24226 layer_factory.hpp:74] Creating layer 3_ip1
I0126 21:25:02.277326 24226 net.cpp:90] Creating Layer 3_ip1
I0126 21:25:02.277340 24226 net.cpp:410] 3_ip1 <- 3_pool3
I0126 21:25:02.277354 24226 net.cpp:368] 3_ip1 -> 3_ip1
I0126 21:25:02.277371 24226 net.cpp:120] Setting up 3_ip1
I0126 21:25:02.279399 24226 net.cpp:127] Top shape: 350 64 (22400)
I0126 21:25:02.279419 24226 layer_factory.hpp:74] Creating layer 3_ip2
I0126 21:25:02.279436 24226 net.cpp:90] Creating Layer 3_ip2
I0126 21:25:02.279449 24226 net.cpp:410] 3_ip2 <- 3_ip1
I0126 21:25:02.279464 24226 net.cpp:368] 3_ip2 -> 3_ip2
I0126 21:25:02.279479 24226 net.cpp:120] Setting up 3_ip2
I0126 21:25:02.279523 24226 net.cpp:127] Top shape: 350 10 (3500)
I0126 21:25:02.279546 24226 layer_factory.hpp:74] Creating layer 3_prob
I0126 21:25:02.279559 24226 net.cpp:90] Creating Layer 3_prob
I0126 21:25:02.279572 24226 net.cpp:410] 3_prob <- 3_ip2
I0126 21:25:02.279587 24226 net.cpp:368] 3_prob -> 3_prob
I0126 21:25:02.279602 24226 net.cpp:120] Setting up 3_prob
I0126 21:25:02.279616 24226 net.cpp:127] Top shape: 350 10 (3500)
I0126 21:25:02.279629 24226 layer_factory.hpp:74] Creating layer loss
I0126 21:25:02.279647 24226 net.cpp:90] Creating Layer loss
I0126 21:25:02.279660 24226 net.cpp:410] loss <- 1_prob
I0126 21:25:02.279673 24226 net.cpp:410] loss <- 2_prob
I0126 21:25:02.279685 24226 net.cpp:410] loss <- 3_prob
I0126 21:25:02.279700 24226 net.cpp:410] loss <- label
I0126 21:25:02.279713 24226 net.cpp:368] loss -> multiple-output loss
I0126 21:25:02.279732 24226 net.cpp:368] loss -> batch-instance-counts
I0126 21:25:02.279747 24226 net.cpp:368] loss -> train-instance-counts
I0126 21:25:02.279764 24226 net.cpp:120] Setting up loss
I0126 21:25:02.279786 24226 net.cpp:127] Top shape: 3 1 1 1 (3)
I0126 21:25:02.279798 24226 net.cpp:129]     with loss weight 1
I0126 21:25:02.279825 24226 net.cpp:127] Top shape: 3 1 1 1 (3)
I0126 21:25:02.279839 24226 net.cpp:127] Top shape: 3 1 1 1 (3)
I0126 21:25:02.279850 24226 net.cpp:192] loss needs backward computation.
I0126 21:25:02.279863 24226 net.cpp:192] 3_prob needs backward computation.
I0126 21:25:02.279875 24226 net.cpp:192] 3_ip2 needs backward computation.
I0126 21:25:02.279887 24226 net.cpp:192] 3_ip1 needs backward computation.
I0126 21:25:02.279899 24226 net.cpp:192] 3_pool3 needs backward computation.
I0126 21:25:02.279911 24226 net.cpp:192] 3_relu3 needs backward computation.
…
I0126 21:25:02.281543 24226 net.cpp:287] The NetState phase (1) differed from the phase (0) specified by a rule in layer loss
I0126 21:25:02.281797 24226 net.cpp:42] Initializing net from parameters: 
name: "CIFAR10_quick"
state {
  phase: TEST
}
layer {
  name: "cifar"
  type: "Data"
  top: "data"
  top: "label"
  include {
    phase: TEST
  }
  transform_param {
    mean_file: "/home/mike/ml_lab/mod/MCL_Caffe/examples/cifar10/mean.binaryproto"
  }
  data_param {
    source: "/home/mike/ml_lab/mod/MCL_Caffe/examples/cifar10/cifar10_test_lmdb"
    batch_size: 100
    backend: LMDB
  }
}
layer {
  name: "1_conv1"
  type: "Convolution"
  bottom: "data"
  top: "1_conv1"
  param {
    lr_mult: 1
  }
  param {
    lr_mult: 2
  }
  convolution_param {
    num_output: 32
    pad: 2
    kernel_size: 5
    stride: 1
    weight_filler {
      type: "gaussian"
      std: 0.0001
    }
    bias_filler {
      type: "constant"
    }
  }
}
layer {
  name: "1_pool1"
  type: "Pooling"
  bottom: "1_conv1"
  top: "1_pool1"
  pooling_param {
    pool: MAX
    kernel_size: 3
    stride: 2
  }
}
layer {
  name: "1_relu1"
  type: "ReLU"
  bottom: "1_pool1"
  top: "1_pool1"
}
layer {
  name: "1_conv2"
  type: "Convolution"
  bottom: "1_pool1"
  top: "1_conv2"
  param {
    lr_mult: 1
  }
  param {
    lr_mult: 2
  }
  convolution_param {
    num_output: 32
    pad: 2
    kernel_size: 5
    stride: 1
    weight_filler {
      type: "gaussian"
      std: 0.01
    }
    bias_filler {
      type: "constant"
    }
  }
}
layer {
  name: "1_relu2"
  type: "ReLU"
  bottom: "1_conv2"
  top: "1_conv2"
}
layer {
  name: "1_pool2"
  type: "Pooling"
  bottom: "1_conv2"
  top: "1_pool2"
  pooling_param {
    pool: AVE
    kernel_size: 3
    stride: 2
  }
}
layer {
  name: "1_conv3"
  type: "Convolution"
  bottom: "1_pool2"
  top: "1_conv3"
  param {
    lr_mult: 1
  }
  param {
    lr_mult: 2
  }
  convolution_param {
    num_output: 64
    pad: 2
    kernel_size: 5
    stride: 1
    weight_filler {
      type: "gaussian"
      std: 0.01
    }
    bias_filler {
      type: "constant"
    }
  }
}
layer {
  name: "1_relu3"
  type: "ReLU"
  bottom: "1_conv3"
  top: "1_conv3"
}
layer {
  name: "1_pool3"
  type: "Pooling"
  bottom: "1_conv3"
  top: "1_pool3"
  pooling_param {
    pool: AVE
    kernel_size: 3
    stride: 2
  }
}
layer {
  name: "1_ip1"
  type: "InnerProduct"
  bottom: "1_pool3"
  top: "1_ip1"
  param {
    lr_mult: 1
  }
  param {
    lr_mult: 2
  }
  inner_product_param {
    num_output: 64
    weight_filler {
      type: "gaussian"
      std: 0.1
    }
    bias_filler {
      type: "constant"
    }
  }
}
layer {
  name: "1_ip2"
  type: "InnerProduct"
  bottom: "1_ip1"
  top: "1_ip2"
  param {
    lr_mult: 1
  }
  param {
    lr_mult: 2
  }
  inner_product_param {
    num_output: 10
    weight_filler {
      type: "gaussian"
      std: 0.1
    }
    bias_filler {
      type: "constant"
    }
  }
}
layer {
  name: "1_prob"
  type: "Softmax"
  bottom: "1_ip2"
  top: "1_prob"
}
layer {
  name: "2_conv1"
  type: "Convolution"
  bottom: "data"
  top: "2_conv1"
  param {
    lr_mult: 1
  }
  param {
    lr_mult: 2
  }
  convolution_param {
    num_output: 32
    pad: 2
    kernel_size: 5
    stride: 1
    weight_filler {
      type: "gaussian"
      std: 0.0001
    }
    bias_filler {
      type: "constant"
    }
  }
}
layer {
  name: "2_pool1"
  type: "Pooling"
  bottom: "2_conv1"
  top: "2_pool1"
  pooling_param {
    pool: MAX
    kernel_size: 3
    stride: 2
  }
}
layer {
  name: "2_relu1"
  type: "ReLU"
  bottom: "2_pool1"
  top: "2_pool1"
}
layer {
  name: "2_conv2"
  type: "Convolution"
  bottom: "2_pool1"
  top: "2_conv2"
  param {
    lr_mult: 1
  }
  param {
    lr_mult: 2
  }
  convolution_param {
    num_output: 32
    pad: 2
    kernel_size: 5
    stride: 1
    weight_filler {
      type: "gaussian"
      std: 0.01
    }
    bias_filler {
      type: "constant"
    }
  }
}
layer {
  name: "2_relu2"
  type: "ReLU"
  bottom: "2_conv2"
  top: "2_conv2"
}
layer {
  name: "2_pool2"
  type: "Pooling"
  bottom: "2_conv2"
  top: "2_pool2"
  pooling_param {
    pool: AVE
    kernel_size: 3
    stride: 2
  }
}
layer {
  name: "2_conv3"
  type: "Convolution"
  bottom: "2_pool2"
  top: "2_conv3"
  param {
    lr_mult: 1
  }
  param {
    lr_mult: 2
  }
  convolution_param {
    num_output: 64
    pad: 2
    kernel_size: 5
    stride: 1
    weight_filler {
      type: "gaussian"
      std: 0.01
    }
    bias_filler {
      type: "constant"
    }
  }
}
layer {
  name: "2_relu3"
  type: "ReLU"
  bottom: "2_conv3"
  top: "2_conv3"
}
layer {
  name: "2_pool3"
  type: "Pooling"
  bottom: "2_conv3"
  top: "2_pool3"
  pooling_param {
    pool: AVE
    kernel_size: 3
    stride: 2
  }
}
layer {
  name: "2_ip1"
  type: "InnerProduct"
  bottom: "2_pool3"
  top: "2_ip1"
  param {
    lr_mult: 1
  }
  param {
    lr_mult: 2
  }
  inner_product_param {
    num_output: 64
    weight_filler {
      type: "gaussian"
      std: 0.1
    }
    bias_filler {
      type: "constant"
    }
  }
}
layer {
  name: "2_ip2"
  type: "InnerProduct"
  bottom: "2_ip1"
  top: "2_ip2"
  param {
    lr_mult: 1
  }
  param {
    lr_mult: 2
  }
  inner_product_param {
    num_output: 10
    weight_filler {
      type: "gaussian"
      std: 0.1
    }
    bias_filler {
      type: "constant"
    }
  }
}
layer {
  name: "2_prob"
  type: "Softmax"
  bottom: "2_ip2"
  top: "2_prob"
}
layer {
  name: "3_conv1"
  type: "Convolution"
  bottom: "data"
  top: "3_conv1"
  param {
    lr_mult: 1
  }
  param {
    lr_mult: 2
  }
  convolution_param {
    num_output: 32
    pad: 2
    kernel_size: 5
    stride: 1
    weight_filler {
      type: "gaussian"
      std: 0.0001
    }
    bias_filler {
      type: "constant"
    }
  }
}
layer {
  name: "3_pool1"
  type: "Pooling"
  bottom: "3_conv1"
  top: "3_pool1"
  pooling_param {
    pool: MAX
    kernel_size: 3
    stride: 2
  }
}
layer {
  name: "3_relu1"
  type: "ReLU"
  bottom: "3_pool1"
  top: "3_pool1"
}
layer {
  name: "3_conv2"
  type: "Convolution"
  bottom: "3_pool1"
  top: "3_conv2"
  param {
    lr_mult: 1
  }
  param {
    lr_mult: 2
  }
  convolution_param {
    num_output: 32
    pad: 2
    kernel_size: 5
    stride: 1
    weight_filler {
      type: "gaussian"
      std: 0.01
    }
    bias_filler {
      type: "constant"
    }
  }
}
layer {
  name: "3_relu2"
  type: "ReLU"
  bottom: "3_conv2"
  top: "3_conv2"
}
layer {
  name: "3_pool2"
  type: "Pooling"
  bottom: "3_conv2"
  top: "3_pool2"
  pooling_param {
    pool: AVE
    kernel_size: 3
    stride: 2
  }
}
layer {
  name: "3_conv3"
  type: "Convolution"
  bottom: "3_pool2"
  top: "3_conv3"
  param {
    lr_mult: 1
  }
  param {
    lr_mult: 2
  }
  convolution_param {
    num_output: 64
    pad: 2
    kernel_size: 5
    stride: 1
    weight_filler {
      type: "gaussian"
      std: 0.01
    }
    bias_filler {
      type: "constant"
    }
  }
}
layer {
  name: "3_relu3"
  type: "ReLU"
  bottom: "3_conv3"
  top: "3_conv3"
}
layer {
  name: "3_pool3"
  type: "Pooling"
  bottom: "3_conv3"
  top: "3_pool3"
  pooling_param {
    pool: AVE
    kernel_size: 3
    stride: 2
  }
}
layer {
  name: "3_ip1"
  type: "InnerProduct"
  bottom: "3_pool3"
  top: "3_ip1"
  param {
    lr_mult: 1
  }
  param {
    lr_mult: 2
  }
  inner_product_param {
    num_output: 64
    weight_filler {
      type: "gaussian"
      std: 0.1
    }
    bias_filler {
      type: "constant"
    }
  }
}
layer {
  name: "3_ip2"
  type: "InnerProduct"
  bottom: "3_ip1"
  top: "3_ip2"
  param {
    lr_mult: 1
  }
  param {
    lr_mult: 2
  }
  inner_product_param {
    num_output: 10
    weight_filler {
      type: "gaussian"
      std: 0.1
    }
    bias_filler {
      type: "constant"
    }
  }
}
layer {
  name: "3_prob"
  type: "Softmax"
  bottom: "3_ip2"
  top: "3_prob"
}
layer {
  name: "1_accuracy"
  type: "Accuracy"
  bottom: "1_prob"
  bottom: "label"
  top: "1_accuracy"
  include {
    phase: TEST
  }
}
layer {
  name: "2_accuracy"
  type: "Accuracy"
  bottom: "2_prob"
  bottom: "label"
  top: "2_accuracy"
  include {
    phase: TEST
  }
}
layer {
  name: "3_accuracy"
  type: "Accuracy"
  bottom: "3_prob"
  bottom: "label"
  top: "3_accuracy"
  include {
    phase: TEST
  }
}
layer {
  name: "accuracy"
  type: "OracleAccuracy"
  bottom: "1_prob"
  bottom: "2_prob"
  bottom: "3_prob"
  bottom: "label"
  top: "oracle accuracy"
  include {
    phase: TEST
  }
}
I0126 21:25:02.283592 24226 layer_factory.hpp:74] Creating layer cifar
I0126 21:25:02.283613 24226 net.cpp:90] Creating Layer cifar
I0126 21:25:02.283628 24226 net.cpp:368] cifar -> data
I0126 21:25:02.283646 24226 net.cpp:368] cifar -> label
I0126 21:25:02.283663 24226 net.cpp:120] Setting up cifar
I0126 21:25:02.283706 24226 db.cpp:34] Opened lmdb /home/mike/ml_lab/mod/MCL_Caffe/examples/cifar10/cifar10_test_lmdb
I0126 21:25:02.283752 24226 data_layer.cpp:67] output data size: 100,3,32,32
I0126 21:25:02.283773 24226 data_transformer.cpp:22] Loading mean file from: /home/mike/ml_lab/mod/MCL_Caffe/examples/cifar10/mean.binaryproto
I0126 21:25:02.284248 24226 net.cpp:127] Top shape: 100 3 32 32 (307200)
I0126 21:25:02.284270 24226 net.cpp:127] Top shape: 100 (100)
I0126 21:25:02.284283 24226 layer_factory.hpp:74] Creating layer data_cifar_0_split
I0126 21:25:02.284301 24226 net.cpp:90] Creating Layer data_cifar_0_split
I0126 21:25:02.284312 24226 net.cpp:410] data_cifar_0_split <- data
I0126 21:25:02.284327 24226 net.cpp:368] data_cifar_0_split -> data_cifar_0_split_0
I0126 21:25:02.284343 24226 net.cpp:368] data_cifar_0_split -> data_cifar_0_split_1
I0126 21:25:02.284358 24226 net.cpp:368] data_cifar_0_split -> data_cifar_0_split_2
I0126 21:25:02.284374 24226 net.cpp:120] Setting up data_cifar_0_split
I0126 21:25:02.284390 24226 net.cpp:127] Top shape: 100 3 32 32 (307200)
I0126 21:25:02.284404 24226 net.cpp:127] Top shape: 100 3 32 32 (307200)
I0126 21:25:02.284417 24226 net.cpp:127] Top shape: 100 3 32 32 (307200)
I0126 21:25:02.284430 24226 layer_factory.hpp:74] Creating layer label_cifar_1_split
I0126 21:25:02.284443 24226 net.cpp:90] Creating Layer label_cifar_1_split
I0126 21:25:02.284456 24226 net.cpp:410] label_cifar_1_split <- label
I0126 21:25:02.284469 24226 net.cpp:368] label_cifar_1_split -> label_cifar_1_split_0
I0126 21:25:02.284484 24226 net.cpp:368] label_cifar_1_split -> label_cifar_1_split_1
I0126 21:25:02.284500 24226 net.cpp:368] label_cifar_1_split -> label_cifar_1_split_2
I0126 21:25:02.284515 24226 net.cpp:368] label_cifar_1_split -> label_cifar_1_split_3
I0126 21:25:02.284529 24226 net.cpp:120] Setting up label_cifar_1_split
I0126 21:25:02.284544 24226 net.cpp:127] Top shape: 100 (100)
I0126 21:25:02.284557 24226 net.cpp:127] Top shape: 100 (100)
I0126 21:25:02.284570 24226 net.cpp:127] Top shape: 100 (100)
I0126 21:25:02.284584 24226 net.cpp:127] Top shape: 100 (100)
I0126 21:25:02.284595 24226 layer_factory.hpp:74] Creating layer 1_conv1
I0126 21:25:02.284610 24226 net.cpp:90] Creating Layer 1_conv1
I0126 21:25:02.284621 24226 net.cpp:410] 1_conv1 <- data_cifar_0_split_0
I0126 21:25:02.284636 24226 net.cpp:368] 1_conv1 -> 1_conv1
I0126 21:25:02.284651 24226 net.cpp:120] Setting up 1_conv1
I0126 21:25:02.284754 24226 net.cpp:127] Top shape: 100 32 32 32 (3276800)
I0126 21:25:02.284777 24226 layer_factory.hpp:74] Creating layer 1_pool1
I0126 21:25:02.284793 24226 net.cpp:90] Creating Layer 1_pool1
I0126 21:25:02.284806 24226 net.cpp:410] 1_pool1 <- 1_conv1
I0126 21:25:02.284819 24226 net.cpp:368] 1_pool1 -> 1_pool1
I0126 21:25:02.284834 24226 net.cpp:120] Setting up 1_pool1
I0126 21:25:02.284850 24226 net.cpp:127] Top shape: 100 32 16 16 (819200)
I0126 21:25:02.284863 24226 layer_factory.hpp:74] Creating layer 1_relu1
I0126 21:25:02.284878 24226 net.cpp:90] Creating Layer 1_relu1
I0126 21:25:02.284890 24226 net.cpp:410] 1_relu1 <- 1_pool1
I0126 21:25:02.284904 24226 net.cpp:357] 1_relu1 -> 1_pool1 (in-place)
I0126 21:25:02.284919 24226 net.cpp:120] Setting up 1_relu1
I0126 21:25:02.284932 24226 net.cpp:127] Top shape: 100 32 16 16 (819200)
I0126 21:25:02.284945 24226 layer_factory.hpp:74] Creating layer 1_conv2
I0126 21:25:02.284958 24226 net.cpp:90] Creating Layer 1_conv2
I0126 21:25:02.284971 24226 net.cpp:410] 1_conv2 <- 1_pool1
I0126 21:25:02.284986 24226 net.cpp:368] 1_conv2 -> 1_conv2
I0126 21:25:02.285001 24226 net.cpp:120] Setting up 1_conv2
I0126 21:25:02.285807 24226 net.cpp:127] Top shape: 100 32 16 16 (819200)
I0126 21:25:02.285830 24226 layer_factory.hpp:74] Creating layer 1_relu2
I0126 21:25:02.285846 24226 net.cpp:90] Creating Layer 1_relu2
I0126 21:25:02.285859 24226 net.cpp:410] 1_relu2 <- 1_conv2
I0126 21:25:02.285872 24226 net.cpp:357] 1_relu2 -> 1_conv2 (in-place)
I0126 21:25:02.285887 24226 net.cpp:120] Setting up 1_relu2
I0126 21:25:02.285900 24226 net.cpp:127] Top shape: 100 32 16 16 (819200)
I0126 21:25:02.285912 24226 layer_factory.hpp:74] Creating layer 1_pool2
I0126 21:25:02.285928 24226 net.cpp:90] Creating Layer 1_pool2
I0126 21:25:02.285939 24226 net.cpp:410] 1_pool2 <- 1_conv2
I0126 21:25:02.285954 24226 net.cpp:368] 1_pool2 -> 1_pool2
I0126 21:25:02.285969 24226 net.cpp:120] Setting up 1_pool2
I0126 21:25:02.285984 24226 net.cpp:127] Top shape: 100 32 8 8 (204800)
I0126 21:25:02.285996 24226 layer_factory.hpp:74] Creating layer 1_conv3
I0126 21:25:02.286010 24226 net.cpp:90] Creating Layer 1_conv3
I0126 21:25:02.286022 24226 net.cpp:410] 1_conv3 <- 1_pool2
I0126 21:25:02.286037 24226 net.cpp:368] 1_conv3 -> 1_conv3
I0126 21:25:02.286052 24226 net.cpp:120] Setting up 1_conv3
I0126 21:25:02.287642 24226 net.cpp:127] Top shape: 100 64 8 8 (409600)
I0126 21:25:02.287662 24226 layer_factory.hpp:74] Creating layer 1_relu3
I0126 21:25:02.287678 24226 net.cpp:90] Creating Layer 1_relu3
I0126 21:25:02.287690 24226 net.cpp:410] 1_relu3 <- 1_conv3
I0126 21:25:02.287703 24226 net.cpp:357] 1_relu3 -> 1_conv3 (in-place)
I0126 21:25:02.287717 24226 net.cpp:120] Setting up 1_relu3
I0126 21:25:02.287731 24226 net.cpp:127] Top shape: 100 64 8 8 (409600)
I0126 21:25:02.287744 24226 layer_factory.hpp:74] Creating layer 1_pool3
I0126 21:25:02.287757 24226 net.cpp:90] Creating Layer 1_pool3
I0126 21:25:02.287770 24226 net.cpp:410] 1_pool3 <- 1_conv3
I0126 21:25:02.287783 24226 net.cpp:368] 1_pool3 -> 1_pool3
I0126 21:25:02.287798 24226 net.cpp:120] Setting up 1_pool3
I0126 21:25:02.287813 24226 net.cpp:127] Top shape: 100 64 4 4 (102400)
I0126 21:25:02.287825 24226 layer_factory.hpp:74] Creating layer 1_ip1
I0126 21:25:02.287839 24226 net.cpp:90] Creating Layer 1_ip1
I0126 21:25:02.287852 24226 net.cpp:410] 1_ip1 <- 1_pool3
I0126 21:25:02.287866 24226 net.cpp:368] 1_ip1 -> 1_ip1
I0126 21:25:02.287881 24226 net.cpp:120] Setting up 1_ip1
I0126 21:25:02.289938 24226 net.cpp:127] Top shape: 100 64 (6400)
I0126 21:25:02.289965 24226 layer_factory.hpp:74] Creating layer 1_ip2
I0126 21:25:02.289983 24226 net.cpp:90] Creating Layer 1_ip2
I0126 21:25:02.289995 24226 net.cpp:410] 1_ip2 <- 1_ip1
I0126 21:25:02.290011 24226 net.cpp:368] 1_ip2 -> 1_ip2
I0126 21:25:02.290030 24226 net.cpp:120] Setting up 1_ip2
I0126 21:25:02.290071 24226 net.cpp:127] Top shape: 100 10 (1000)
I0126 21:25:02.290087 24226 layer_factory.hpp:74] Creating layer 1_prob
I0126 21:25:02.290103 24226 net.cpp:90] Creating Layer 1_prob
I0126 21:25:02.290119 24226 net.cpp:410] 1_prob <- 1_ip2
I0126 21:25:02.290139 24226 net.cpp:368] 1_prob -> 1_prob
I0126 21:25:02.290153 24226 net.cpp:120] Setting up 1_prob
I0126 21:25:02.290169 24226 net.cpp:127] Top shape: 100 10 (1000)
I0126 21:25:02.290182 24226 layer_factory.hpp:74] Creating layer 1_prob_1_prob_0_split
I0126 21:25:02.290195 24226 net.cpp:90] Creating Layer 1_prob_1_prob_0_split
I0126 21:25:02.290207 24226 net.cpp:410] 1_prob_1_prob_0_split <- 1_prob
I0126 21:25:02.290222 24226 net.cpp:368] 1_prob_1_prob_0_split -> 1_prob_1_prob_0_split_0
I0126 21:25:02.290238 24226 net.cpp:368] 1_prob_1_prob_0_split -> 1_prob_1_prob_0_split_1
I0126 21:25:02.290252 24226 net.cpp:120] Setting up 1_prob_1_prob_0_split
I0126 21:25:02.290267 24226 net.cpp:127] Top shape: 100 10 (1000)
I0126 21:25:02.290280 24226 net.cpp:127] Top shape: 100 10 (1000)
I0126 21:25:02.290292 24226 layer_factory.hpp:74] Creating layer 2_conv1
I0126 21:25:02.290309 24226 net.cpp:90] Creating Layer 2_conv1
I0126 21:25:02.290323 24226 net.cpp:410] 2_conv1 <- data_cifar_0_split_1
I0126 21:25:02.290336 24226 net.cpp:368] 2_conv1 -> 2_conv1
I0126 21:25:02.290351 24226 net.cpp:120] Setting up 2_conv1
I0126 21:25:02.290452 24226 net.cpp:127] Top shape: 100 32 32 32 (3276800)
I0126 21:25:02.290467 24226 layer_factory.hpp:74] Creating layer 2_pool1
I0126 21:25:02.290482 24226 net.cpp:90] Creating Layer 2_pool1
I0126 21:25:02.290493 24226 net.cpp:410] 2_pool1 <- 2_conv1
I0126 21:25:02.290508 24226 net.cpp:368] 2_pool1 -> 2_pool1
I0126 21:25:02.290522 24226 net.cpp:120] Setting up 2_pool1
I0126 21:25:02.290539 24226 net.cpp:127] Top shape: 100 32 16 16 (819200)
I0126 21:25:02.290550 24226 layer_factory.hpp:74] Creating layer 2_relu1
I0126 21:25:02.290565 24226 net.cpp:90] Creating Layer 2_relu1
I0126 21:25:02.290577 24226 net.cpp:410] 2_relu1 <- 2_pool1
I0126 21:25:02.290591 24226 net.cpp:357] 2_relu1 -> 2_pool1 (in-place)
I0126 21:25:02.290606 24226 net.cpp:120] Setting up 2_relu1
I0126 21:25:02.290619 24226 net.cpp:127] Top shape: 100 32 16 16 (819200)
I0126 21:25:02.290632 24226 layer_factory.hpp:74] Creating layer 2_conv2
I0126 21:25:02.290645 24226 net.cpp:90] Creating Layer 2_conv2
I0126 21:25:02.290657 24226 net.cpp:410] 2_conv2 <- 2_pool1
I0126 21:25:02.290671 24226 net.cpp:368] 2_conv2 -> 2_conv2
I0126 21:25:02.290686 24226 net.cpp:120] Setting up 2_conv2
I0126 21:25:02.291491 24226 net.cpp:127] Top shape: 100 32 16 16 (819200)
I0126 21:25:02.291519 24226 layer_factory.hpp:74] Creating layer 2_relu2
I0126 21:25:02.291538 24226 net.cpp:90] Creating Layer 2_relu2
I0126 21:25:02.291553 24226 net.cpp:410] 2_relu2 <- 2_conv2
I0126 21:25:02.291571 24226 net.cpp:357] 2_relu2 -> 2_conv2 (in-place)
I0126 21:25:02.291589 24226 net.cpp:120] Setting up 2_relu2
I0126 21:25:02.291605 24226 net.cpp:127] Top shape: 100 32 16 16 (819200)
I0126 21:25:02.291620 24226 layer_factory.hpp:74] Creating layer 2_pool2
I0126 21:25:02.291636 24226 net.cpp:90] Creating Layer 2_pool2
I0126 21:25:02.291651 24226 net.cpp:410] 2_pool2 <- 2_conv2
I0126 21:25:02.291667 24226 net.cpp:368] 2_pool2 -> 2_pool2
I0126 21:25:02.291684 24226 net.cpp:120] Setting up 2_pool2
I0126 21:25:02.291702 24226 net.cpp:127] Top shape: 100 32 8 8 (204800)
I0126 21:25:02.291718 24226 layer_factory.hpp:74] Creating layer 2_conv3
I0126 21:25:02.291735 24226 net.cpp:90] Creating Layer 2_conv3
I0126 21:25:02.291750 24226 net.cpp:410] 2_conv3 <- 2_pool2
I0126 21:25:02.291770 24226 net.cpp:368] 2_conv3 -> 2_conv3
I0126 21:25:02.291790 24226 net.cpp:120] Setting up 2_conv3
I0126 21:25:02.293390 24226 net.cpp:127] Top shape: 100 64 8 8 (409600)
I0126 21:25:02.293413 24226 layer_factory.hpp:74] Creating layer 2_relu3
I0126 21:25:02.293429 24226 net.cpp:90] Creating Layer 2_relu3
I0126 21:25:02.293442 24226 net.cpp:410] 2_relu3 <- 2_conv3
I0126 21:25:02.293457 24226 net.cpp:357] 2_relu3 -> 2_conv3 (in-place)
I0126 21:25:02.293472 24226 net.cpp:120] Setting up 2_relu3
I0126 21:25:02.293485 24226 net.cpp:127] Top shape: 100 64 8 8 (409600)
I0126 21:25:02.293498 24226 layer_factory.hpp:74] Creating layer 2_pool3
I0126 21:25:02.293515 24226 net.cpp:90] Creating Layer 2_pool3
I0126 21:25:02.293534 24226 net.cpp:410] 2_pool3 <- 2_conv3
I0126 21:25:02.293548 24226 net.cpp:368] 2_pool3 -> 2_pool3
I0126 21:25:02.293565 24226 net.cpp:120] Setting up 2_pool3
I0126 21:25:02.293579 24226 net.cpp:127] Top shape: 100 64 4 4 (102400)
I0126 21:25:02.293591 24226 layer_factory.hpp:74] Creating layer 2_ip1
I0126 21:25:02.293606 24226 net.cpp:90] Creating Layer 2_ip1
I0126 21:25:02.293618 24226 net.cpp:410] 2_ip1 <- 2_pool3
I0126 21:25:02.293633 24226 net.cpp:368] 2_ip1 -> 2_ip1
I0126 21:25:02.293648 24226 net.cpp:120] Setting up 2_ip1
I0126 21:25:02.295680 24226 net.cpp:127] Top shape: 100 64 (6400)
I0126 21:25:02.295706 24226 layer_factory.hpp:74] Creating layer 2_ip2
I0126 21:25:02.295722 24226 net.cpp:90] Creating Layer 2_ip2
I0126 21:25:02.295735 24226 net.cpp:410] 2_ip2 <- 2_ip1
I0126 21:25:02.295752 24226 net.cpp:368] 2_ip2 -> 2_ip2
I0126 21:25:02.295768 24226 net.cpp:120] Setting up 2_ip2
I0126 21:25:02.295807 24226 net.cpp:127] Top shape: 100 10 (1000)
I0126 21:25:02.295824 24226 layer_factory.hpp:74] Creating layer 2_prob
I0126 21:25:02.295838 24226 net.cpp:90] Creating Layer 2_prob
I0126 21:25:02.295851 24226 net.cpp:410] 2_prob <- 2_ip2
I0126 21:25:02.295867 24226 net.cpp:368] 2_prob -> 2_prob
I0126 21:25:02.295881 24226 net.cpp:120] Setting up 2_prob
I0126 21:25:02.295897 24226 net.cpp:127] Top shape: 100 10 (1000)
I0126 21:25:02.295910 24226 layer_factory.hpp:74] Creating layer 2_prob_2_prob_0_split
I0126 21:25:02.295923 24226 net.cpp:90] Creating Layer 2_prob_2_prob_0_split
I0126 21:25:02.295935 24226 net.cpp:410] 2_prob_2_prob_0_split <- 2_prob
I0126 21:25:02.295949 24226 net.cpp:368] 2_prob_2_prob_0_split -> 2_prob_2_prob_0_split_0
I0126 21:25:02.295964 24226 net.cpp:368] 2_prob_2_prob_0_split -> 2_prob_2_prob_0_split_1
I0126 21:25:02.295979 24226 net.cpp:120] Setting up 2_prob_2_prob_0_split
I0126 21:25:02.295994 24226 net.cpp:127] Top shape: 100 10 (1000)
I0126 21:25:02.296007 24226 net.cpp:127] Top shape: 100 10 (1000)
I0126 21:25:02.296020 24226 layer_factory.hpp:74] Creating layer 3_conv1
I0126 21:25:02.296036 24226 net.cpp:90] Creating Layer 3_conv1
I0126 21:25:02.296047 24226 net.cpp:410] 3_conv1 <- data_cifar_0_split_2
I0126 21:25:02.296063 24226 net.cpp:368] 3_conv1 -> 3_conv1
I0126 21:25:02.296078 24226 net.cpp:120] Setting up 3_conv1
I0126 21:25:02.296177 24226 net.cpp:127] Top shape: 100 32 32 32 (3276800)
I0126 21:25:02.296193 24226 layer_factory.hpp:74] Creating layer 3_pool1
I0126 21:25:02.296207 24226 net.cpp:90] Creating Layer 3_pool1
I0126 21:25:02.296221 24226 net.cpp:410] 3_pool1 <- 3_conv1
I0126 21:25:02.296233 24226 net.cpp:368] 3_pool1 -> 3_pool1
I0126 21:25:02.296250 24226 net.cpp:120] Setting up 3_pool1
I0126 21:25:02.296267 24226 net.cpp:127] Top shape: 100 32 16 16 (819200)
I0126 21:25:02.296279 24226 layer_factory.hpp:74] Creating layer 3_relu1
I0126 21:25:02.296293 24226 net.cpp:90] Creating Layer 3_relu1
I0126 21:25:02.296304 24226 net.cpp:410] 3_relu1 <- 3_pool1
I0126 21:25:02.296320 24226 net.cpp:357] 3_relu1 -> 3_pool1 (in-place)
I0126 21:25:02.296334 24226 net.cpp:120] Setting up 3_relu1
I0126 21:25:02.296349 24226 net.cpp:127] Top shape: 100 32 16 16 (819200)
I0126 21:25:02.296361 24226 layer_factory.hpp:74] Creating layer 3_conv2
I0126 21:25:02.296377 24226 net.cpp:90] Creating Layer 3_conv2
I0126 21:25:02.296389 24226 net.cpp:410] 3_conv2 <- 3_pool1
I0126 21:25:02.296404 24226 net.cpp:368] 3_conv2 -> 3_conv2
I0126 21:25:02.296419 24226 net.cpp:120] Setting up 3_conv2
I0126 21:25:02.297225 24226 net.cpp:127] Top shape: 100 32 16 16 (819200)
I0126 21:25:02.297247 24226 layer_factory.hpp:74] Creating layer 3_relu2
I0126 21:25:02.297261 24226 net.cpp:90] Creating Layer 3_relu2
I0126 21:25:02.297274 24226 net.cpp:410] 3_relu2 <- 3_conv2
I0126 21:25:02.297287 24226 net.cpp:357] 3_relu2 -> 3_conv2 (in-place)
I0126 21:25:02.297302 24226 net.cpp:120] Setting up 3_relu2
I0126 21:25:02.297315 24226 net.cpp:127] Top shape: 100 32 16 16 (819200)
I0126 21:25:02.297328 24226 layer_factory.hpp:74] Creating layer 3_pool2
I0126 21:25:02.297345 24226 net.cpp:90] Creating Layer 3_pool2
I0126 21:25:02.297363 24226 net.cpp:410] 3_pool2 <- 3_conv2
I0126 21:25:02.297379 24226 net.cpp:368] 3_pool2 -> 3_pool2
I0126 21:25:02.297394 24226 net.cpp:120] Setting up 3_pool2
I0126 21:25:02.297410 24226 net.cpp:127] Top shape: 100 32 8 8 (204800)
I0126 21:25:02.297421 24226 layer_factory.hpp:74] Creating layer 3_conv3
I0126 21:25:02.297435 24226 net.cpp:90] Creating Layer 3_conv3
I0126 21:25:02.297448 24226 net.cpp:410] 3_conv3 <- 3_pool2
I0126 21:25:02.297463 24226 net.cpp:368] 3_conv3 -> 3_conv3
I0126 21:25:02.297478 24226 net.cpp:120] Setting up 3_conv3
I0126 21:25:02.299073 24226 net.cpp:127] Top shape: 100 64 8 8 (409600)
I0126 21:25:02.299098 24226 layer_factory.hpp:74] Creating layer 3_relu3
I0126 21:25:02.299114 24226 net.cpp:90] Creating Layer 3_relu3
I0126 21:25:02.299127 24226 net.cpp:410] 3_relu3 <- 3_conv3
I0126 21:25:02.299140 24226 net.cpp:357] 3_relu3 -> 3_conv3 (in-place)
I0126 21:25:02.299155 24226 net.cpp:120] Setting up 3_relu3
I0126 21:25:02.299170 24226 net.cpp:127] Top shape: 100 64 8 8 (409600)
I0126 21:25:02.299181 24226 layer_factory.hpp:74] Creating layer 3_pool3
I0126 21:25:02.299196 24226 net.cpp:90] Creating Layer 3_pool3
I0126 21:25:02.299209 24226 net.cpp:410] 3_pool3 <- 3_conv3
I0126 21:25:02.299223 24226 net.cpp:368] 3_pool3 -> 3_pool3
I0126 21:25:02.299238 24226 net.cpp:120] Setting up 3_pool3
I0126 21:25:02.299253 24226 net.cpp:127] Top shape: 100 64 4 4 (102400)
I0126 21:25:02.299266 24226 layer_factory.hpp:74] Creating layer 3_ip1
I0126 21:25:02.299280 24226 net.cpp:90] Creating Layer 3_ip1
I0126 21:25:02.299293 24226 net.cpp:410] 3_ip1 <- 3_pool3
I0126 21:25:02.299309 24226 net.cpp:368] 3_ip1 -> 3_ip1
I0126 21:25:02.299324 24226 net.cpp:120] Setting up 3_ip1
I0126 21:25:02.301362 24226 net.cpp:127] Top shape: 100 64 (6400)
I0126 21:25:02.301386 24226 layer_factory.hpp:74] Creating layer 3_ip2
I0126 21:25:02.301403 24226 net.cpp:90] Creating Layer 3_ip2
I0126 21:25:02.301415 24226 net.cpp:410] 3_ip2 <- 3_ip1
I0126 21:25:02.301432 24226 net.cpp:368] 3_ip2 -> 3_ip2
I0126 21:25:02.301448 24226 net.cpp:120] Setting up 3_ip2
I0126 21:25:02.301488 24226 net.cpp:127] Top shape: 100 10 (1000)
I0126 21:25:02.301504 24226 layer_factory.hpp:74] Creating layer 3_prob
I0126 21:25:02.301519 24226 net.cpp:90] Creating Layer 3_prob
I0126 21:25:02.301532 24226 net.cpp:410] 3_prob <- 3_ip2
I0126 21:25:02.301547 24226 net.cpp:368] 3_prob -> 3_prob
I0126 21:25:02.301561 24226 net.cpp:120] Setting up 3_prob
I0126 21:25:02.301578 24226 net.cpp:127] Top shape: 100 10 (1000)
I0126 21:25:02.301590 24226 layer_factory.hpp:74] Creating layer 3_prob_3_prob_0_split
I0126 21:25:02.301604 24226 net.cpp:90] Creating Layer 3_prob_3_prob_0_split
I0126 21:25:02.301617 24226 net.cpp:410] 3_prob_3_prob_0_split <- 3_prob
I0126 21:25:02.301631 24226 net.cpp:368] 3_prob_3_prob_0_split -> 3_prob_3_prob_0_split_0
I0126 21:25:02.301646 24226 net.cpp:368] 3_prob_3_prob_0_split -> 3_prob_3_prob_0_split_1
I0126 21:25:02.301661 24226 net.cpp:120] Setting up 3_prob_3_prob_0_split
I0126 21:25:02.301676 24226 net.cpp:127] Top shape: 100 10 (1000)
I0126 21:25:02.301689 24226 net.cpp:127] Top shape: 100 10 (1000)
I0126 21:25:02.301702 24226 layer_factory.hpp:74] Creating layer 1_accuracy
I0126 21:25:02.301717 24226 net.cpp:90] Creating Layer 1_accuracy
I0126 21:25:02.301730 24226 net.cpp:410] 1_accuracy <- 1_prob_1_prob_0_split_0
I0126 21:25:02.301743 24226 net.cpp:410] 1_accuracy <- label_cifar_1_split_0
I0126 21:25:02.301759 24226 net.cpp:368] 1_accuracy -> 1_accuracy
I0126 21:25:02.301772 24226 net.cpp:120] Setting up 1_accuracy
…
