…
I0207 17:39:27.575942  6959 net.cpp:287] The NetState phase (0) differed from the phase (1) specified by a rule in layer accuracy
I0207 17:39:27.576256  6959 net.cpp:42] Initializing net from parameters: 
name: "CIFAR10_quick"
state {
  phase: TRAIN
}
layer {
  name: "cifar"
  type: "Data"
  top: "data"
  top: "label"
  include {
    phase: TRAIN
  }
  transform_param {
    mean_file: "/home/mike/ml_lab/mod/MCL_Caffe/examples/cifar10/mean.binaryproto"
  }
  data_param {
    source: "/home/mike/ml_lab/mod/MCL_Caffe/examples/cifar10/cifar10_train_lmdb"
    batch_size: 350
    backend: LMDB
  }
}
layer {
  name: "1_conv1"
  type: "Convolution"
  bottom: "data"
  top: "1_conv1"
  param {
    lr_mult: 1
  }
  param {
    lr_mult: 2
  }
  convolution_param {
    num_output: 32
    pad: 2
    kernel_size: 5
    stride: 1
    weight_filler {
      type: "gaussian"
      std: 0.0001
    }
    bias_filler {
      type: "constant"
    }
  }
}
layer {
  name: "1_pool1"
  type: "Pooling"
  bottom: "1_conv1"
  top: "1_pool1"
  pooling_param {
    pool: MAX
    kernel_size: 3
    stride: 2
  }
}
layer {
  name: "1_relu1"
  type: "ReLU"
  bottom: "1_pool1"
  top: "1_pool1"
}
layer {
  name: "1_conv2"
  type: "Convolution"
  bottom: "1_pool1"
  top: "1_conv2"
  param {
    lr_mult: 1
  }
  param {
    lr_mult: 2
  }
  convolution_param {
    num_output: 32
    pad: 2
    kernel_size: 5
    stride: 1
    weight_filler {
      type: "gaussian"
      std: 0.01
    }
    bias_filler {
      type: "constant"
    }
  }
}
layer {
  name: "1_relu2"
  type: "ReLU"
  bottom: "1_conv2"
  top: "1_conv2"
}
layer {
  name: "1_pool2"
  type: "Pooling"
  bottom: "1_conv2"
  top: "1_pool2"
  pooling_param {
    pool: AVE
    kernel_size: 3
    stride: 2
  }
}
layer {
  name: "1_conv3"
  type: "Convolution"
  bottom: "1_pool2"
  top: "1_conv3"
  param {
    lr_mult: 1
  }
  param {
    lr_mult: 2
  }
  convolution_param {
    num_output: 64
    pad: 2
    kernel_size: 5
    stride: 1
    weight_filler {
      type: "gaussian"
      std: 0.01
    }
    bias_filler {
      type: "constant"
    }
  }
}
layer {
  name: "1_relu3"
  type: "ReLU"
  bottom: "1_conv3"
  top: "1_conv3"
}
layer {
  name: "1_pool3"
  type: "Pooling"
  bottom: "1_conv3"
  top: "1_pool3"
  pooling_param {
    pool: AVE
    kernel_size: 3
    stride: 2
  }
}
layer {
  name: "1_ip1"
  type: "InnerProduct"
  bottom: "1_pool3"
  top: "1_ip1"
  param {
    lr_mult: 1
  }
  param {
    lr_mult: 2
  }
  inner_product_param {
    num_output: 64
    weight_filler {
      type: "gaussian"
      std: 0.1
    }
    bias_filler {
      type: "constant"
    }
  }
}
layer {
  name: "1_ip2"
  type: "InnerProduct"
  bottom: "1_ip1"
  top: "1_ip2"
  param {
    lr_mult: 1
  }
  param {
    lr_mult: 2
  }
  inner_product_param {
    num_output: 10
    weight_filler {
      type: "gaussian"
      std: 0.1
    }
    bias_filler {
      type: "constant"
    }
  }
}
layer {
  name: "1_prob"
  type: "Softmax"
  bottom: "1_ip2"
  top: "1_prob"
}
layer {
  name: "2_conv1"
  type: "Convolution"
  bottom: "data"
  top: "2_conv1"
  param {
    lr_mult: 1
  }
  param {
    lr_mult: 2
  }
  convolution_param {
    num_output: 32
    pad: 2
    kernel_size: 5
    stride: 1
    weight_filler {
      type: "gaussian"
      std: 0.0001
    }
    bias_filler {
      type: "constant"
    }
  }
}
layer {
  name: "2_pool1"
  type: "Pooling"
  bottom: "2_conv1"
  top: "2_pool1"
  pooling_param {
    pool: MAX
    kernel_size: 3
    stride: 2
  }
}
layer {
  name: "2_relu1"
  type: "ReLU"
  bottom: "2_pool1"
  top: "2_pool1"
}
layer {
  name: "2_conv2"
  type: "Convolution"
  bottom: "2_pool1"
  top: "2_conv2"
  param {
    lr_mult: 1
  }
  param {
    lr_mult: 2
  }
  convolution_param {
    num_output: 32
    pad: 2
    kernel_size: 5
    stride: 1
    weight_filler {
      type: "gaussian"
      std: 0.01
    }
    bias_filler {
      type: "constant"
    }
  }
}
layer {
  name: "2_relu2"
  type: "ReLU"
  bottom: "2_conv2"
  top: "2_conv2"
}
layer {
  name: "2_pool2"
  type: "Pooling"
  bottom: "2_conv2"
  top: "2_pool2"
  pooling_param {
    pool: AVE
    kernel_size: 3
    stride: 2
  }
}
layer {
  name: "2_conv3"
  type: "Convolution"
  bottom: "2_pool2"
  top: "2_conv3"
  param {
    lr_mult: 1
  }
  param {
    lr_mult: 2
  }
  convolution_param {
    num_output: 64
    pad: 2
    kernel_size: 5
    stride: 1
    weight_filler {
      type: "gaussian"
      std: 0.01
    }
    bias_filler {
      type: "constant"
    }
  }
}
layer {
  name: "2_relu3"
  type: "ReLU"
  bottom: "2_conv3"
  top: "2_conv3"
}
layer {
  name: "2_pool3"
  type: "Pooling"
  bottom: "2_conv3"
  top: "2_pool3"
  pooling_param {
    pool: AVE
    kernel_size: 3
    stride: 2
  }
}
layer {
  name: "2_ip1"
  type: "InnerProduct"
  bottom: "2_pool3"
  top: "2_ip1"
  param {
    lr_mult: 1
  }
  param {
    lr_mult: 2
  }
  inner_product_param {
    num_output: 64
    weight_filler {
      type: "gaussian"
      std: 0.1
    }
    bias_filler {
      type: "constant"
    }
  }
}
layer {
  name: "2_ip2"
  type: "InnerProduct"
  bottom: "2_ip1"
  top: "2_ip2"
  param {
    lr_mult: 1
  }
  param {
    lr_mult: 2
  }
  inner_product_param {
    num_output: 10
    weight_filler {
      type: "gaussian"
      std: 0.1
    }
    bias_filler {
      type: "constant"
    }
  }
}
layer {
  name: "2_prob"
  type: "Softmax"
  bottom: "2_ip2"
  top: "2_prob"
}
layer {
  name: "3_conv1"
  type: "Convolution"
  bottom: "data"
  top: "3_conv1"
  param {
    lr_mult: 1
  }
  param {
    lr_mult: 2
  }
  convolution_param {
    num_output: 32
    pad: 2
    kernel_size: 5
    stride: 1
    weight_filler {
      type: "gaussian"
      std: 0.0001
    }
    bias_filler {
      type: "constant"
    }
  }
}
layer {
  name: "3_pool1"
  type: "Pooling"
  bottom: "3_conv1"
  top: "3_pool1"
  pooling_param {
    pool: MAX
    kernel_size: 3
    stride: 2
  }
}
layer {
  name: "3_relu1"
  type: "ReLU"
  bottom: "3_pool1"
  top: "3_pool1"
}
layer {
  name: "3_conv2"
  type: "Convolution"
  bottom: "3_pool1"
  top: "3_conv2"
  param {
    lr_mult: 1
  }
  param {
    lr_mult: 2
  }
  convolution_param {
    num_output: 32
    pad: 2
    kernel_size: 5
    stride: 1
    weight_filler {
      type: "gaussian"
      std: 0.01
    }
    bias_filler {
      type: "constant"
    }
  }
}
layer {
  name: "3_relu2"
  type: "ReLU"
  bottom: "3_conv2"
  top: "3_conv2"
}
layer {
  name: "3_pool2"
  type: "Pooling"
  bottom: "3_conv2"
  top: "3_pool2"
  pooling_param {
    pool: AVE
    kernel_size: 3
    stride: 2
  }
}
layer {
  name: "3_conv3"
  type: "Convolution"
  bottom: "3_pool2"
  top: "3_conv3"
  param {
    lr_mult: 1
  }
  param {
    lr_mult: 2
  }
  convolution_param {
    num_output: 64
    pad: 2
    kernel_size: 5
    stride: 1
    weight_filler {
      type: "gaussian"
      std: 0.01
    }
    bias_filler {
      type: "constant"
    }
  }
}
layer {
  name: "3_relu3"
  type: "ReLU"
  bottom: "3_conv3"
  top: "3_conv3"
}
layer {
  name: "3_pool3"
  type: "Pooling"
  bottom: "3_conv3"
  top: "3_pool3"
  pooling_param {
    pool: AVE
    kernel_size: 3
    stride: 2
  }
}
layer {
  name: "3_ip1"
  type: "InnerProduct"
  bottom: "3_pool3"
  top: "3_ip1"
  param {
    lr_mult: 1
  }
  param {
    lr_mult: 2
  }
  inner_product_param {
    num_output: 64
    weight_filler {
      type: "gaussian"
      std: 0.1
    }
    bias_filler {
      type: "constant"
    }
  }
}
layer {
  name: "3_ip2"
  type: "InnerProduct"
  bottom: "3_ip1"
  top: "3_ip2"
  param {
    lr_mult: 1
  }
  param {
    lr_mult: 2
  }
  inner_product_param {
    num_output: 10
    weight_filler {
      type: "gaussian"
      std: 0.1
    }
    bias_filler {
      type: "constant"
    }
  }
}
layer {
  name: "3_prob"
  type: "Softmax"
  bottom: "3_ip2"
  top: "3_prob"
}
layer {
  name: "4_conv1"
  type: "Convolution"
  bottom: "data"
  top: "4_conv1"
  param {
    lr_mult: 1
  }
  param {
    lr_mult: 2
  }
  convolution_param {
    num_output: 32
    pad: 2
    kernel_size: 5
    stride: 1
    weight_filler {
      type: "gaussian"
      std: 0.0001
    }
    bias_filler {
      type: "constant"
    }
  }
}
layer {
  name: "4_pool1"
  type: "Pooling"
  bottom: "4_conv1"
  top: "4_pool1"
  pooling_param {
    pool: MAX
    kernel_size: 3
    stride: 2
  }
}
layer {
  name: "4_relu1"
  type: "ReLU"
  bottom: "4_pool1"
  top: "4_pool1"
}
layer {
  name: "4_conv2"
  type: "Convolution"
  bottom: "4_pool1"
  top: "4_conv2"
  param {
    lr_mult: 1
  }
  param {
    lr_mult: 2
  }
  convolution_param {
    num_output: 32
    pad: 2
    kernel_size: 5
    stride: 1
    weight_filler {
      type: "gaussian"
      std: 0.01
    }
    bias_filler {
      type: "constant"
    }
  }
}
layer {
  name: "4_relu2"
  type: "ReLU"
  bottom: "4_conv2"
  top: "4_conv2"
}
layer {
  name: "4_pool2"
  type: "Pooling"
  bottom: "4_conv2"
  top: "4_pool2"
  pooling_param {
    pool: AVE
    kernel_size: 3
    stride: 2
  }
}
layer {
  name: "4_conv3"
  type: "Convolution"
  bottom: "4_pool2"
  top: "4_conv3"
  param {
    lr_mult: 1
  }
  param {
    lr_mult: 2
  }
  convolution_param {
    num_output: 64
    pad: 2
    kernel_size: 5
    stride: 1
    weight_filler {
      type: "gaussian"
      std: 0.01
    }
    bias_filler {
      type: "constant"
    }
  }
}
layer {
  name: "4_relu3"
  type: "ReLU"
  bottom: "4_conv3"
  top: "4_conv3"
}
layer {
  name: "4_pool3"
  type: "Pooling"
  bottom: "4_conv3"
  top: "4_pool3"
  pooling_param {
    pool: AVE
    kernel_size: 3
    stride: 2
  }
}
layer {
  name: "4_ip1"
  type: "InnerProduct"
  bottom: "4_pool3"
  top: "4_ip1"
  param {
    lr_mult: 1
  }
  param {
    lr_mult: 2
  }
  inner_product_param {
    num_output: 64
    weight_filler {
      type: "gaussian"
      std: 0.1
    }
    bias_filler {
      type: "constant"
    }
  }
}
layer {
  name: "4_ip2"
  type: "InnerProduct"
  bottom: "4_ip1"
  top: "4_ip2"
  param {
    lr_mult: 1
  }
  param {
    lr_mult: 2
  }
  inner_product_param {
    num_output: 10
    weight_filler {
      type: "gaussian"
      std: 0.1
    }
    bias_filler {
      type: "constant"
    }
  }
}
layer {
  name: "4_prob"
  type: "Softmax"
  bottom: "4_ip2"
  top: "4_prob"
}
layer {
  name: "loss"
  type: "ODRandomAwardBMultinomialLogisticLoss"
  bottom: "1_prob"
  bottom: "2_prob"
  bottom: "3_prob"
  bottom: "4_prob"
  bottom: "label"
  top: "multiple-output loss"
  top: "batch-instance-counts"
  top: "train-instance-counts"
  top: "curr-b-value"
  loss_weight: 1
  loss_weight: 0
  loss_weight: 0
  loss_weight: 0
  include {
    phase: TRAIN
  }
  od_param {
    start_rand_award: 0.5
    rand_select: true
    decrease_rand: false
    draw_m_minus_one: false
    rand_decay: 0.001
    award_all: false
  }
}
I0207 17:39:27.576468  6959 layer_factory.hpp:74] Creating layer cifar
I0207 17:39:27.576488  6959 net.cpp:90] Creating Layer cifar
I0207 17:39:27.576496  6959 net.cpp:368] cifar -> data
I0207 17:39:27.576529  6959 net.cpp:368] cifar -> label
I0207 17:39:27.576539  6959 net.cpp:120] Setting up cifar
I0207 17:39:27.576592  6959 db.cpp:34] Opened lmdb /home/mike/ml_lab/mod/MCL_Caffe/examples/cifar10/cifar10_train_lmdb
I0207 17:39:27.576637  6959 data_layer.cpp:67] output data size: 350,3,32,32
I0207 17:39:27.576645  6959 data_transformer.cpp:22] Loading mean file from: /home/mike/ml_lab/mod/MCL_Caffe/examples/cifar10/mean.binaryproto
I0207 17:39:27.577620  6959 net.cpp:127] Top shape: 350 3 32 32 (1075200)
I0207 17:39:27.577631  6959 net.cpp:127] Top shape: 350 (350)
I0207 17:39:27.577659  6959 layer_factory.hpp:74] Creating layer data_cifar_0_split
I0207 17:39:27.577671  6959 net.cpp:90] Creating Layer data_cifar_0_split
I0207 17:39:27.577677  6959 net.cpp:410] data_cifar_0_split <- data
I0207 17:39:27.577689  6959 net.cpp:368] data_cifar_0_split -> data_cifar_0_split_0
I0207 17:39:27.577699  6959 net.cpp:368] data_cifar_0_split -> data_cifar_0_split_1
I0207 17:39:27.577706  6959 net.cpp:368] data_cifar_0_split -> data_cifar_0_split_2
I0207 17:39:27.577713  6959 net.cpp:368] data_cifar_0_split -> data_cifar_0_split_3
I0207 17:39:27.577719  6959 net.cpp:120] Setting up data_cifar_0_split
I0207 17:39:27.577729  6959 net.cpp:127] Top shape: 350 3 32 32 (1075200)
I0207 17:39:27.577735  6959 net.cpp:127] Top shape: 350 3 32 32 (1075200)
I0207 17:39:27.577741  6959 net.cpp:127] Top shape: 350 3 32 32 (1075200)
I0207 17:39:27.577746  6959 net.cpp:127] Top shape: 350 3 32 32 (1075200)
I0207 17:39:27.577750  6959 layer_factory.hpp:74] Creating layer 1_conv1
I0207 17:39:27.577760  6959 net.cpp:90] Creating Layer 1_conv1
I0207 17:39:27.577764  6959 net.cpp:410] 1_conv1 <- data_cifar_0_split_0
I0207 17:39:27.577771  6959 net.cpp:368] 1_conv1 -> 1_conv1
I0207 17:39:27.577780  6959 net.cpp:120] Setting up 1_conv1
I0207 17:39:27.578383  6959 net.cpp:127] Top shape: 350 32 32 32 (11468800)
I0207 17:39:27.578399  6959 layer_factory.hpp:74] Creating layer 1_pool1
I0207 17:39:27.578408  6959 net.cpp:90] Creating Layer 1_pool1
I0207 17:39:27.578413  6959 net.cpp:410] 1_pool1 <- 1_conv1
I0207 17:39:27.578419  6959 net.cpp:368] 1_pool1 -> 1_pool1
I0207 17:39:27.578428  6959 net.cpp:120] Setting up 1_pool1
I0207 17:39:27.578443  6959 net.cpp:127] Top shape: 350 32 16 16 (2867200)
I0207 17:39:27.578447  6959 layer_factory.hpp:74] Creating layer 1_relu1
I0207 17:39:27.578454  6959 net.cpp:90] Creating Layer 1_relu1
I0207 17:39:27.578459  6959 net.cpp:410] 1_relu1 <- 1_pool1
I0207 17:39:27.578464  6959 net.cpp:357] 1_relu1 -> 1_pool1 (in-place)
I0207 17:39:27.578470  6959 net.cpp:120] Setting up 1_relu1
I0207 17:39:27.578477  6959 net.cpp:127] Top shape: 350 32 16 16 (2867200)
I0207 17:39:27.578482  6959 layer_factory.hpp:74] Creating layer 1_conv2
I0207 17:39:27.578490  6959 net.cpp:90] Creating Layer 1_conv2
I0207 17:39:27.578493  6959 net.cpp:410] 1_conv2 <- 1_pool1
I0207 17:39:27.578502  6959 net.cpp:368] 1_conv2 -> 1_conv2
I0207 17:39:27.578508  6959 net.cpp:120] Setting up 1_conv2
I0207 17:39:27.579286  6959 net.cpp:127] Top shape: 350 32 16 16 (2867200)
I0207 17:39:27.579294  6959 layer_factory.hpp:74] Creating layer 1_relu2
I0207 17:39:27.579300  6959 net.cpp:90] Creating Layer 1_relu2
I0207 17:39:27.579305  6959 net.cpp:410] 1_relu2 <- 1_conv2
I0207 17:39:27.579313  6959 net.cpp:357] 1_relu2 -> 1_conv2 (in-place)
I0207 17:39:27.579319  6959 net.cpp:120] Setting up 1_relu2
I0207 17:39:27.579325  6959 net.cpp:127] Top shape: 350 32 16 16 (2867200)
I0207 17:39:27.579329  6959 layer_factory.hpp:74] Creating layer 1_pool2
I0207 17:39:27.579335  6959 net.cpp:90] Creating Layer 1_pool2
I0207 17:39:27.579339  6959 net.cpp:410] 1_pool2 <- 1_conv2
I0207 17:39:27.579347  6959 net.cpp:368] 1_pool2 -> 1_pool2
I0207 17:39:27.579354  6959 net.cpp:120] Setting up 1_pool2
I0207 17:39:27.579360  6959 net.cpp:127] Top shape: 350 32 8 8 (716800)
I0207 17:39:27.579365  6959 layer_factory.hpp:74] Creating layer 1_conv3
I0207 17:39:27.579372  6959 net.cpp:90] Creating Layer 1_conv3
I0207 17:39:27.579377  6959 net.cpp:410] 1_conv3 <- 1_pool2
I0207 17:39:27.579396  6959 net.cpp:368] 1_conv3 -> 1_conv3
I0207 17:39:27.579404  6959 net.cpp:120] Setting up 1_conv3
I0207 17:39:27.580605  6959 net.cpp:127] Top shape: 350 64 8 8 (1433600)
I0207 17:39:27.580615  6959 layer_factory.hpp:74] Creating layer 1_relu3
I0207 17:39:27.580621  6959 net.cpp:90] Creating Layer 1_relu3
I0207 17:39:27.580626  6959 net.cpp:410] 1_relu3 <- 1_conv3
I0207 17:39:27.580631  6959 net.cpp:357] 1_relu3 -> 1_conv3 (in-place)
I0207 17:39:27.580637  6959 net.cpp:120] Setting up 1_relu3
I0207 17:39:27.580642  6959 net.cpp:127] Top shape: 350 64 8 8 (1433600)
I0207 17:39:27.580647  6959 layer_factory.hpp:74] Creating layer 1_pool3
I0207 17:39:27.580653  6959 net.cpp:90] Creating Layer 1_pool3
I0207 17:39:27.580658  6959 net.cpp:410] 1_pool3 <- 1_conv3
I0207 17:39:27.580663  6959 net.cpp:368] 1_pool3 -> 1_pool3
I0207 17:39:27.580669  6959 net.cpp:120] Setting up 1_pool3
I0207 17:39:27.580677  6959 net.cpp:127] Top shape: 350 64 4 4 (358400)
I0207 17:39:27.580682  6959 layer_factory.hpp:74] Creating layer 1_ip1
I0207 17:39:27.580689  6959 net.cpp:90] Creating Layer 1_ip1
I0207 17:39:27.580693  6959 net.cpp:410] 1_ip1 <- 1_pool3
I0207 17:39:27.580699  6959 net.cpp:368] 1_ip1 -> 1_ip1
I0207 17:39:27.580708  6959 net.cpp:120] Setting up 1_ip1
I0207 17:39:27.582391  6959 net.cpp:127] Top shape: 350 64 (22400)
I0207 17:39:27.582398  6959 layer_factory.hpp:74] Creating layer 1_ip2
I0207 17:39:27.582407  6959 net.cpp:90] Creating Layer 1_ip2
I0207 17:39:27.582412  6959 net.cpp:410] 1_ip2 <- 1_ip1
I0207 17:39:27.582417  6959 net.cpp:368] 1_ip2 -> 1_ip2
I0207 17:39:27.582424  6959 net.cpp:120] Setting up 1_ip2
I0207 17:39:27.582459  6959 net.cpp:127] Top shape: 350 10 (3500)
I0207 17:39:27.582470  6959 layer_factory.hpp:74] Creating layer 1_prob
I0207 17:39:27.582478  6959 net.cpp:90] Creating Layer 1_prob
I0207 17:39:27.582482  6959 net.cpp:410] 1_prob <- 1_ip2
I0207 17:39:27.582489  6959 net.cpp:368] 1_prob -> 1_prob
I0207 17:39:27.582495  6959 net.cpp:120] Setting up 1_prob
I0207 17:39:27.582505  6959 net.cpp:127] Top shape: 350 10 (3500)
I0207 17:39:27.582510  6959 layer_factory.hpp:74] Creating layer 2_conv1
I0207 17:39:27.582517  6959 net.cpp:90] Creating Layer 2_conv1
I0207 17:39:27.582521  6959 net.cpp:410] 2_conv1 <- data_cifar_0_split_1
I0207 17:39:27.582530  6959 net.cpp:368] 2_conv1 -> 2_conv1
I0207 17:39:27.582536  6959 net.cpp:120] Setting up 2_conv1
I0207 17:39:27.582628  6959 net.cpp:127] Top shape: 350 32 32 32 (11468800)
I0207 17:39:27.582638  6959 layer_factory.hpp:74] Creating layer 2_pool1
I0207 17:39:27.582644  6959 net.cpp:90] Creating Layer 2_pool1
I0207 17:39:27.582649  6959 net.cpp:410] 2_pool1 <- 2_conv1
I0207 17:39:27.582656  6959 net.cpp:368] 2_pool1 -> 2_pool1
I0207 17:39:27.582664  6959 net.cpp:120] Setting up 2_pool1
I0207 17:39:27.582672  6959 net.cpp:127] Top shape: 350 32 16 16 (2867200)
I0207 17:39:27.582677  6959 layer_factory.hpp:74] Creating layer 2_relu1
I0207 17:39:27.582684  6959 net.cpp:90] Creating Layer 2_relu1
I0207 17:39:27.582689  6959 net.cpp:410] 2_relu1 <- 2_pool1
I0207 17:39:27.582693  6959 net.cpp:357] 2_relu1 -> 2_pool1 (in-place)
I0207 17:39:27.582700  6959 net.cpp:120] Setting up 2_relu1
I0207 17:39:27.582705  6959 net.cpp:127] Top shape: 350 32 16 16 (2867200)
I0207 17:39:27.582710  6959 layer_factory.hpp:74] Creating layer 2_conv2
I0207 17:39:27.582717  6959 net.cpp:90] Creating Layer 2_conv2
I0207 17:39:27.582721  6959 net.cpp:410] 2_conv2 <- 2_pool1
I0207 17:39:27.582727  6959 net.cpp:368] 2_conv2 -> 2_conv2
I0207 17:39:27.582734  6959 net.cpp:120] Setting up 2_conv2
I0207 17:39:27.583518  6959 net.cpp:127] Top shape: 350 32 16 16 (2867200)
I0207 17:39:27.583524  6959 layer_factory.hpp:74] Creating layer 2_relu2
I0207 17:39:27.583530  6959 net.cpp:90] Creating Layer 2_relu2
I0207 17:39:27.583534  6959 net.cpp:410] 2_relu2 <- 2_conv2
I0207 17:39:27.583542  6959 net.cpp:357] 2_relu2 -> 2_conv2 (in-place)
I0207 17:39:27.583549  6959 net.cpp:120] Setting up 2_relu2
I0207 17:39:27.583554  6959 net.cpp:127] Top shape: 350 32 16 16 (2867200)
I0207 17:39:27.583567  6959 layer_factory.hpp:74] Creating layer 2_pool2
I0207 17:39:27.583575  6959 net.cpp:90] Creating Layer 2_pool2
I0207 17:39:27.583578  6959 net.cpp:410] 2_pool2 <- 2_conv2
I0207 17:39:27.583586  6959 net.cpp:368] 2_pool2 -> 2_pool2
I0207 17:39:27.583592  6959 net.cpp:120] Setting up 2_pool2
I0207 17:39:27.583600  6959 net.cpp:127] Top shape: 350 32 8 8 (716800)
I0207 17:39:27.583605  6959 layer_factory.hpp:74] Creating layer 2_conv3
I0207 17:39:27.583612  6959 net.cpp:90] Creating Layer 2_conv3
I0207 17:39:27.583617  6959 net.cpp:410] 2_conv3 <- 2_pool2
I0207 17:39:27.583626  6959 net.cpp:368] 2_conv3 -> 2_conv3
I0207 17:39:27.583632  6959 net.cpp:120] Setting up 2_conv3
I0207 17:39:27.584913  6959 net.cpp:127] Top shape: 350 64 8 8 (1433600)
I0207 17:39:27.584920  6959 layer_factory.hpp:74] Creating layer 2_relu3
I0207 17:39:27.584926  6959 net.cpp:90] Creating Layer 2_relu3
I0207 17:39:27.584930  6959 net.cpp:410] 2_relu3 <- 2_conv3
I0207 17:39:27.584936  6959 net.cpp:357] 2_relu3 -> 2_conv3 (in-place)
I0207 17:39:27.584942  6959 net.cpp:120] Setting up 2_relu3
I0207 17:39:27.584949  6959 net.cpp:127] Top shape: 350 64 8 8 (1433600)
I0207 17:39:27.584954  6959 layer_factory.hpp:74] Creating layer 2_pool3
I0207 17:39:27.584959  6959 net.cpp:90] Creating Layer 2_pool3
I0207 17:39:27.584964  6959 net.cpp:410] 2_pool3 <- 2_conv3
I0207 17:39:27.584970  6959 net.cpp:368] 2_pool3 -> 2_pool3
I0207 17:39:27.584977  6959 net.cpp:120] Setting up 2_pool3
I0207 17:39:27.584985  6959 net.cpp:127] Top shape: 350 64 4 4 (358400)
I0207 17:39:27.584988  6959 layer_factory.hpp:74] Creating layer 2_ip1
I0207 17:39:27.584995  6959 net.cpp:90] Creating Layer 2_ip1
I0207 17:39:27.585000  6959 net.cpp:410] 2_ip1 <- 2_pool3
I0207 17:39:27.585008  6959 net.cpp:368] 2_ip1 -> 2_ip1
I0207 17:39:27.585016  6959 net.cpp:120] Setting up 2_ip1
I0207 17:39:27.586621  6959 net.cpp:127] Top shape: 350 64 (22400)
I0207 17:39:27.586632  6959 layer_factory.hpp:74] Creating layer 2_ip2
I0207 17:39:27.586639  6959 net.cpp:90] Creating Layer 2_ip2
I0207 17:39:27.586644  6959 net.cpp:410] 2_ip2 <- 2_ip1
I0207 17:39:27.586652  6959 net.cpp:368] 2_ip2 -> 2_ip2
I0207 17:39:27.586658  6959 net.cpp:120] Setting up 2_ip2
I0207 17:39:27.586694  6959 net.cpp:127] Top shape: 350 10 (3500)
I0207 17:39:27.586702  6959 layer_factory.hpp:74] Creating layer 2_prob
I0207 17:39:27.586709  6959 net.cpp:90] Creating Layer 2_prob
I0207 17:39:27.586714  6959 net.cpp:410] 2_prob <- 2_ip2
I0207 17:39:27.586719  6959 net.cpp:368] 2_prob -> 2_prob
I0207 17:39:27.586726  6959 net.cpp:120] Setting up 2_prob
I0207 17:39:27.586733  6959 net.cpp:127] Top shape: 350 10 (3500)
I0207 17:39:27.586738  6959 layer_factory.hpp:74] Creating layer 3_conv1
I0207 17:39:27.586745  6959 net.cpp:90] Creating Layer 3_conv1
I0207 17:39:27.586750  6959 net.cpp:410] 3_conv1 <- data_cifar_0_split_2
I0207 17:39:27.586757  6959 net.cpp:368] 3_conv1 -> 3_conv1
I0207 17:39:27.586763  6959 net.cpp:120] Setting up 3_conv1
I0207 17:39:27.586855  6959 net.cpp:127] Top shape: 350 32 32 32 (11468800)
I0207 17:39:27.586864  6959 layer_factory.hpp:74] Creating layer 3_pool1
I0207 17:39:27.586871  6959 net.cpp:90] Creating Layer 3_pool1
I0207 17:39:27.586875  6959 net.cpp:410] 3_pool1 <- 3_conv1
I0207 17:39:27.586882  6959 net.cpp:368] 3_pool1 -> 3_pool1
I0207 17:39:27.586889  6959 net.cpp:120] Setting up 3_pool1
I0207 17:39:27.586897  6959 net.cpp:127] Top shape: 350 32 16 16 (2867200)
I0207 17:39:27.586901  6959 layer_factory.hpp:74] Creating layer 3_relu1
I0207 17:39:27.586907  6959 net.cpp:90] Creating Layer 3_relu1
I0207 17:39:27.586911  6959 net.cpp:410] 3_relu1 <- 3_pool1
I0207 17:39:27.586917  6959 net.cpp:357] 3_relu1 -> 3_pool1 (in-place)
I0207 17:39:27.586922  6959 net.cpp:120] Setting up 3_relu1
I0207 17:39:27.586928  6959 net.cpp:127] Top shape: 350 32 16 16 (2867200)
I0207 17:39:27.586933  6959 layer_factory.hpp:74] Creating layer 3_conv2
I0207 17:39:27.586940  6959 net.cpp:90] Creating Layer 3_conv2
I0207 17:39:27.586944  6959 net.cpp:410] 3_conv2 <- 3_pool1
I0207 17:39:27.586951  6959 net.cpp:368] 3_conv2 -> 3_conv2
I0207 17:39:27.586966  6959 net.cpp:120] Setting up 3_conv2
I0207 17:39:27.587743  6959 net.cpp:127] Top shape: 350 32 16 16 (2867200)
I0207 17:39:27.587749  6959 layer_factory.hpp:74] Creating layer 3_relu2
I0207 17:39:27.587755  6959 net.cpp:90] Creating Layer 3_relu2
I0207 17:39:27.587759  6959 net.cpp:410] 3_relu2 <- 3_conv2
I0207 17:39:27.587765  6959 net.cpp:357] 3_relu2 -> 3_conv2 (in-place)
I0207 17:39:27.587771  6959 net.cpp:120] Setting up 3_relu2
I0207 17:39:27.587777  6959 net.cpp:127] Top shape: 350 32 16 16 (2867200)
I0207 17:39:27.587781  6959 layer_factory.hpp:74] Creating layer 3_pool2
I0207 17:39:27.587790  6959 net.cpp:90] Creating Layer 3_pool2
I0207 17:39:27.587793  6959 net.cpp:410] 3_pool2 <- 3_conv2
I0207 17:39:27.587800  6959 net.cpp:368] 3_pool2 -> 3_pool2
I0207 17:39:27.587806  6959 net.cpp:120] Setting up 3_pool2
I0207 17:39:27.587815  6959 net.cpp:127] Top shape: 350 32 8 8 (716800)
I0207 17:39:27.587818  6959 layer_factory.hpp:74] Creating layer 3_conv3
I0207 17:39:27.587828  6959 net.cpp:90] Creating Layer 3_conv3
I0207 17:39:27.587833  6959 net.cpp:410] 3_conv3 <- 3_pool2
I0207 17:39:27.587841  6959 net.cpp:368] 3_conv3 -> 3_conv3
I0207 17:39:27.587847  6959 net.cpp:120] Setting up 3_conv3
I0207 17:39:27.589043  6959 net.cpp:127] Top shape: 350 64 8 8 (1433600)
I0207 17:39:27.589051  6959 layer_factory.hpp:74] Creating layer 3_relu3
I0207 17:39:27.589056  6959 net.cpp:90] Creating Layer 3_relu3
I0207 17:39:27.589061  6959 net.cpp:410] 3_relu3 <- 3_conv3
I0207 17:39:27.589066  6959 net.cpp:357] 3_relu3 -> 3_conv3 (in-place)
I0207 17:39:27.589072  6959 net.cpp:120] Setting up 3_relu3
I0207 17:39:27.589078  6959 net.cpp:127] Top shape: 350 64 8 8 (1433600)
I0207 17:39:27.589083  6959 layer_factory.hpp:74] Creating layer 3_pool3
I0207 17:39:27.589089  6959 net.cpp:90] Creating Layer 3_pool3
I0207 17:39:27.589093  6959 net.cpp:410] 3_pool3 <- 3_conv3
I0207 17:39:27.589102  6959 net.cpp:368] 3_pool3 -> 3_pool3
I0207 17:39:27.589110  6959 net.cpp:120] Setting up 3_pool3
I0207 17:39:27.589118  6959 net.cpp:127] Top shape: 350 64 4 4 (358400)
I0207 17:39:27.589123  6959 layer_factory.hpp:74] Creating layer 3_ip1
I0207 17:39:27.589130  6959 net.cpp:90] Creating Layer 3_ip1
I0207 17:39:27.589135  6959 net.cpp:410] 3_ip1 <- 3_pool3
I0207 17:39:27.589143  6959 net.cpp:368] 3_ip1 -> 3_ip1
I0207 17:39:27.589149  6959 net.cpp:120] Setting up 3_ip1
I0207 17:39:27.590795  6959 net.cpp:127] Top shape: 350 64 (22400)
I0207 17:39:27.590807  6959 layer_factory.hpp:74] Creating layer 3_ip2
I0207 17:39:27.590817  6959 net.cpp:90] Creating Layer 3_ip2
I0207 17:39:27.590822  6959 net.cpp:410] 3_ip2 <- 3_ip1
I0207 17:39:27.590829  6959 net.cpp:368] 3_ip2 -> 3_ip2
I0207 17:39:27.590837  6959 net.cpp:120] Setting up 3_ip2
I0207 17:39:27.590872  6959 net.cpp:127] Top shape: 350 10 (3500)
I0207 17:39:27.590880  6959 layer_factory.hpp:74] Creating layer 3_prob
I0207 17:39:27.590888  6959 net.cpp:90] Creating Layer 3_prob
I0207 17:39:27.590893  6959 net.cpp:410] 3_prob <- 3_ip2
I0207 17:39:27.590899  6959 net.cpp:368] 3_prob -> 3_prob
I0207 17:39:27.590909  6959 net.cpp:120] Setting up 3_prob
I0207 17:39:27.590919  6959 net.cpp:127] Top shape: 350 10 (3500)
I0207 17:39:27.590924  6959 layer_factory.hpp:74] Creating layer 4_conv1
I0207 17:39:27.590930  6959 net.cpp:90] Creating Layer 4_conv1
I0207 17:39:27.590935  6959 net.cpp:410] 4_conv1 <- data_cifar_0_split_3
I0207 17:39:27.590944  6959 net.cpp:368] 4_conv1 -> 4_conv1
I0207 17:39:27.590950  6959 net.cpp:120] Setting up 4_conv1
I0207 17:39:27.591044  6959 net.cpp:127] Top shape: 350 32 32 32 (11468800)
I0207 17:39:27.591053  6959 layer_factory.hpp:74] Creating layer 4_pool1
I0207 17:39:27.591060  6959 net.cpp:90] Creating Layer 4_pool1
I0207 17:39:27.591065  6959 net.cpp:410] 4_pool1 <- 4_conv1
I0207 17:39:27.591073  6959 net.cpp:368] 4_pool1 -> 4_pool1
I0207 17:39:27.591079  6959 net.cpp:120] Setting up 4_pool1
I0207 17:39:27.591087  6959 net.cpp:127] Top shape: 350 32 16 16 (2867200)
I0207 17:39:27.591092  6959 layer_factory.hpp:74] Creating layer 4_relu1
I0207 17:39:27.591107  6959 net.cpp:90] Creating Layer 4_relu1
I0207 17:39:27.591112  6959 net.cpp:410] 4_relu1 <- 4_pool1
I0207 17:39:27.591119  6959 net.cpp:357] 4_relu1 -> 4_pool1 (in-place)
I0207 17:39:27.591125  6959 net.cpp:120] Setting up 4_relu1
I0207 17:39:27.591130  6959 net.cpp:127] Top shape: 350 32 16 16 (2867200)
I0207 17:39:27.591135  6959 layer_factory.hpp:74] Creating layer 4_conv2
I0207 17:39:27.591141  6959 net.cpp:90] Creating Layer 4_conv2
I0207 17:39:27.591145  6959 net.cpp:410] 4_conv2 <- 4_pool1
I0207 17:39:27.591153  6959 net.cpp:368] 4_conv2 -> 4_conv2
I0207 17:39:27.591161  6959 net.cpp:120] Setting up 4_conv2
I0207 17:39:27.591977  6959 net.cpp:127] Top shape: 350 32 16 16 (2867200)
I0207 17:39:27.591989  6959 layer_factory.hpp:74] Creating layer 4_relu2
I0207 17:39:27.591997  6959 net.cpp:90] Creating Layer 4_relu2
I0207 17:39:27.592003  6959 net.cpp:410] 4_relu2 <- 4_conv2
I0207 17:39:27.592010  6959 net.cpp:357] 4_relu2 -> 4_conv2 (in-place)
I0207 17:39:27.592015  6959 net.cpp:120] Setting up 4_relu2
I0207 17:39:27.592021  6959 net.cpp:127] Top shape: 350 32 16 16 (2867200)
I0207 17:39:27.592025  6959 layer_factory.hpp:74] Creating layer 4_pool2
I0207 17:39:27.592032  6959 net.cpp:90] Creating Layer 4_pool2
I0207 17:39:27.592038  6959 net.cpp:410] 4_pool2 <- 4_conv2
I0207 17:39:27.592046  6959 net.cpp:368] 4_pool2 -> 4_pool2
I0207 17:39:27.592052  6959 net.cpp:120] Setting up 4_pool2
I0207 17:39:27.592059  6959 net.cpp:127] Top shape: 350 32 8 8 (716800)
I0207 17:39:27.592064  6959 layer_factory.hpp:74] Creating layer 4_conv3
I0207 17:39:27.592072  6959 net.cpp:90] Creating Layer 4_conv3
I0207 17:39:27.592077  6959 net.cpp:410] 4_conv3 <- 4_pool2
I0207 17:39:27.592083  6959 net.cpp:368] 4_conv3 -> 4_conv3
I0207 17:39:27.592090  6959 net.cpp:120] Setting up 4_conv3
I0207 17:39:27.593381  6959 net.cpp:127] Top shape: 350 64 8 8 (1433600)
I0207 17:39:27.593389  6959 layer_factory.hpp:74] Creating layer 4_relu3
I0207 17:39:27.593394  6959 net.cpp:90] Creating Layer 4_relu3
I0207 17:39:27.593399  6959 net.cpp:410] 4_relu3 <- 4_conv3
I0207 17:39:27.593405  6959 net.cpp:357] 4_relu3 -> 4_conv3 (in-place)
I0207 17:39:27.593410  6959 net.cpp:120] Setting up 4_relu3
I0207 17:39:27.593417  6959 net.cpp:127] Top shape: 350 64 8 8 (1433600)
I0207 17:39:27.593421  6959 layer_factory.hpp:74] Creating layer 4_pool3
I0207 17:39:27.593428  6959 net.cpp:90] Creating Layer 4_pool3
I0207 17:39:27.593433  6959 net.cpp:410] 4_pool3 <- 4_conv3
I0207 17:39:27.593439  6959 net.cpp:368] 4_pool3 -> 4_pool3
I0207 17:39:27.593446  6959 net.cpp:120] Setting up 4_pool3
I0207 17:39:27.593452  6959 net.cpp:127] Top shape: 350 64 4 4 (358400)
I0207 17:39:27.593457  6959 layer_factory.hpp:74] Creating layer 4_ip1
I0207 17:39:27.593467  6959 net.cpp:90] Creating Layer 4_ip1
I0207 17:39:27.593472  6959 net.cpp:410] 4_ip1 <- 4_pool3
I0207 17:39:27.593479  6959 net.cpp:368] 4_ip1 -> 4_ip1
I0207 17:39:27.593487  6959 net.cpp:120] Setting up 4_ip1
I0207 17:39:27.595098  6959 net.cpp:127] Top shape: 350 64 (22400)
I0207 17:39:27.595104  6959 layer_factory.hpp:74] Creating layer 4_ip2
I0207 17:39:27.595113  6959 net.cpp:90] Creating Layer 4_ip2
I0207 17:39:27.595118  6959 net.cpp:410] 4_ip2 <- 4_ip1
I0207 17:39:27.595124  6959 net.cpp:368] 4_ip2 -> 4_ip2
I0207 17:39:27.595132  6959 net.cpp:120] Setting up 4_ip2
I0207 17:39:27.595167  6959 net.cpp:127] Top shape: 350 10 (3500)
I0207 17:39:27.595176  6959 layer_factory.hpp:74] Creating layer 4_prob
I0207 17:39:27.595185  6959 net.cpp:90] Creating Layer 4_prob
I0207 17:39:27.595190  6959 net.cpp:410] 4_prob <- 4_ip2
I0207 17:39:27.595194  6959 net.cpp:368] 4_prob -> 4_prob
I0207 17:39:27.595201  6959 net.cpp:120] Setting up 4_prob
I0207 17:39:27.595214  6959 net.cpp:127] Top shape: 350 10 (3500)
I0207 17:39:27.595218  6959 layer_factory.hpp:74] Creating layer loss
I0207 17:39:27.595229  6959 net.cpp:90] Creating Layer loss
I0207 17:39:27.595234  6959 net.cpp:410] loss <- 1_prob
I0207 17:39:27.595239  6959 net.cpp:410] loss <- 2_prob
I0207 17:39:27.595244  6959 net.cpp:410] loss <- 3_prob
I0207 17:39:27.595258  6959 net.cpp:410] loss <- 4_prob
I0207 17:39:27.595263  6959 net.cpp:410] loss <- label
I0207 17:39:27.595273  6959 net.cpp:368] loss -> multiple-output loss
I0207 17:39:27.595283  6959 net.cpp:368] loss -> batch-instance-counts
I0207 17:39:27.595290  6959 net.cpp:368] loss -> train-instance-counts
I0207 17:39:27.595299  6959 net.cpp:368] loss -> curr-b-value
I0207 17:39:27.595307  6959 net.cpp:120] Setting up loss
I0207 17:39:27.595322  6959 net.cpp:127] Top shape: 4 1 1 1 (4)
I0207 17:39:27.595326  6959 net.cpp:129]     with loss weight 1
I0207 17:39:27.595345  6959 net.cpp:127] Top shape: 4 1 1 1 (4)
I0207 17:39:27.595350  6959 net.cpp:127] Top shape: 4 1 1 1 (4)
I0207 17:39:27.595355  6959 net.cpp:127] Top shape: 1 1 1 1 (1)
I0207 17:39:27.595360  6959 net.cpp:192] loss needs backward computation.
I0207 17:39:27.595366  6959 net.cpp:192] 4_prob needs backward computation.
I0207 17:39:27.595371  6959 net.cpp:192] 4_ip2 needs backward computation.
I0207 17:39:27.595374  6959 net.cpp:192] 4_ip1 needs backward computation.
I0207 17:39:27.595378  6959 net.cpp:192] 4_pool3 needs backward computation.
I0207 17:39:27.595383  6959 net.cpp:192] 4_relu3 needs backward computation.
…
I0207 17:39:27.597028  6959 net.cpp:287] The NetState phase (1) differed from the phase (0) specified by a rule in layer loss
I0207 17:39:27.597340  6959 net.cpp:42] Initializing net from parameters: 
name: "CIFAR10_quick"
state {
  phase: TEST
}
layer {
  name: "cifar"
  type: "Data"
  top: "data"
  top: "label"
  include {
    phase: TEST
  }
  transform_param {
    mean_file: "/home/mike/ml_lab/mod/MCL_Caffe/examples/cifar10/mean.binaryproto"
  }
  data_param {
    source: "/home/mike/ml_lab/mod/MCL_Caffe/examples/cifar10/cifar10_test_lmdb"
    batch_size: 100
    backend: LMDB
  }
}
layer {
  name: "1_conv1"
  type: "Convolution"
  bottom: "data"
  top: "1_conv1"
  param {
    lr_mult: 1
  }
  param {
    lr_mult: 2
  }
  convolution_param {
    num_output: 32
    pad: 2
    kernel_size: 5
    stride: 1
    weight_filler {
      type: "gaussian"
      std: 0.0001
    }
    bias_filler {
      type: "constant"
    }
  }
}
layer {
  name: "1_pool1"
  type: "Pooling"
  bottom: "1_conv1"
  top: "1_pool1"
  pooling_param {
    pool: MAX
    kernel_size: 3
    stride: 2
  }
}
layer {
  name: "1_relu1"
  type: "ReLU"
  bottom: "1_pool1"
  top: "1_pool1"
}
layer {
  name: "1_conv2"
  type: "Convolution"
  bottom: "1_pool1"
  top: "1_conv2"
  param {
    lr_mult: 1
  }
  param {
    lr_mult: 2
  }
  convolution_param {
    num_output: 32
    pad: 2
    kernel_size: 5
    stride: 1
    weight_filler {
      type: "gaussian"
      std: 0.01
    }
    bias_filler {
      type: "constant"
    }
  }
}
layer {
  name: "1_relu2"
  type: "ReLU"
  bottom: "1_conv2"
  top: "1_conv2"
}
layer {
  name: "1_pool2"
  type: "Pooling"
  bottom: "1_conv2"
  top: "1_pool2"
  pooling_param {
    pool: AVE
    kernel_size: 3
    stride: 2
  }
}
layer {
  name: "1_conv3"
  type: "Convolution"
  bottom: "1_pool2"
  top: "1_conv3"
  param {
    lr_mult: 1
  }
  param {
    lr_mult: 2
  }
  convolution_param {
    num_output: 64
    pad: 2
    kernel_size: 5
    stride: 1
    weight_filler {
      type: "gaussian"
      std: 0.01
    }
    bias_filler {
      type: "constant"
    }
  }
}
layer {
  name: "1_relu3"
  type: "ReLU"
  bottom: "1_conv3"
  top: "1_conv3"
}
layer {
  name: "1_pool3"
  type: "Pooling"
  bottom: "1_conv3"
  top: "1_pool3"
  pooling_param {
    pool: AVE
    kernel_size: 3
    stride: 2
  }
}
layer {
  name: "1_ip1"
  type: "InnerProduct"
  bottom: "1_pool3"
  top: "1_ip1"
  param {
    lr_mult: 1
  }
  param {
    lr_mult: 2
  }
  inner_product_param {
    num_output: 64
    weight_filler {
      type: "gaussian"
      std: 0.1
    }
    bias_filler {
      type: "constant"
    }
  }
}
layer {
  name: "1_ip2"
  type: "InnerProduct"
  bottom: "1_ip1"
  top: "1_ip2"
  param {
    lr_mult: 1
  }
  param {
    lr_mult: 2
  }
  inner_product_param {
    num_output: 10
    weight_filler {
      type: "gaussian"
      std: 0.1
    }
    bias_filler {
      type: "constant"
    }
  }
}
layer {
  name: "1_prob"
  type: "Softmax"
  bottom: "1_ip2"
  top: "1_prob"
}
layer {
  name: "2_conv1"
  type: "Convolution"
  bottom: "data"
  top: "2_conv1"
  param {
    lr_mult: 1
  }
  param {
    lr_mult: 2
  }
  convolution_param {
    num_output: 32
    pad: 2
    kernel_size: 5
    stride: 1
    weight_filler {
      type: "gaussian"
      std: 0.0001
    }
    bias_filler {
      type: "constant"
    }
  }
}
layer {
  name: "2_pool1"
  type: "Pooling"
  bottom: "2_conv1"
  top: "2_pool1"
  pooling_param {
    pool: MAX
    kernel_size: 3
    stride: 2
  }
}
layer {
  name: "2_relu1"
  type: "ReLU"
  bottom: "2_pool1"
  top: "2_pool1"
}
layer {
  name: "2_conv2"
  type: "Convolution"
  bottom: "2_pool1"
  top: "2_conv2"
  param {
    lr_mult: 1
  }
  param {
    lr_mult: 2
  }
  convolution_param {
    num_output: 32
    pad: 2
    kernel_size: 5
    stride: 1
    weight_filler {
      type: "gaussian"
      std: 0.01
    }
    bias_filler {
      type: "constant"
    }
  }
}
layer {
  name: "2_relu2"
  type: "ReLU"
  bottom: "2_conv2"
  top: "2_conv2"
}
layer {
  name: "2_pool2"
  type: "Pooling"
  bottom: "2_conv2"
  top: "2_pool2"
  pooling_param {
    pool: AVE
    kernel_size: 3
    stride: 2
  }
}
layer {
  name: "2_conv3"
  type: "Convolution"
  bottom: "2_pool2"
  top: "2_conv3"
  param {
    lr_mult: 1
  }
  param {
    lr_mult: 2
  }
  convolution_param {
    num_output: 64
    pad: 2
    kernel_size: 5
    stride: 1
    weight_filler {
      type: "gaussian"
      std: 0.01
    }
    bias_filler {
      type: "constant"
    }
  }
}
layer {
  name: "2_relu3"
  type: "ReLU"
  bottom: "2_conv3"
  top: "2_conv3"
}
layer {
  name: "2_pool3"
  type: "Pooling"
  bottom: "2_conv3"
  top: "2_pool3"
  pooling_param {
    pool: AVE
    kernel_size: 3
    stride: 2
  }
}
layer {
  name: "2_ip1"
  type: "InnerProduct"
  bottom: "2_pool3"
  top: "2_ip1"
  param {
    lr_mult: 1
  }
  param {
    lr_mult: 2
  }
  inner_product_param {
    num_output: 64
    weight_filler {
      type: "gaussian"
      std: 0.1
    }
    bias_filler {
      type: "constant"
    }
  }
}
layer {
  name: "2_ip2"
  type: "InnerProduct"
  bottom: "2_ip1"
  top: "2_ip2"
  param {
    lr_mult: 1
  }
  param {
    lr_mult: 2
  }
  inner_product_param {
    num_output: 10
    weight_filler {
      type: "gaussian"
      std: 0.1
    }
    bias_filler {
      type: "constant"
    }
  }
}
layer {
  name: "2_prob"
  type: "Softmax"
  bottom: "2_ip2"
  top: "2_prob"
}
layer {
  name: "3_conv1"
  type: "Convolution"
  bottom: "data"
  top: "3_conv1"
  param {
    lr_mult: 1
  }
  param {
    lr_mult: 2
  }
  convolution_param {
    num_output: 32
    pad: 2
    kernel_size: 5
    stride: 1
    weight_filler {
      type: "gaussian"
      std: 0.0001
    }
    bias_filler {
      type: "constant"
    }
  }
}
layer {
  name: "3_pool1"
  type: "Pooling"
  bottom: "3_conv1"
  top: "3_pool1"
  pooling_param {
    pool: MAX
    kernel_size: 3
    stride: 2
  }
}
layer {
  name: "3_relu1"
  type: "ReLU"
  bottom: "3_pool1"
  top: "3_pool1"
}
layer {
  name: "3_conv2"
  type: "Convolution"
  bottom: "3_pool1"
  top: "3_conv2"
  param {
    lr_mult: 1
  }
  param {
    lr_mult: 2
  }
  convolution_param {
    num_output: 32
    pad: 2
    kernel_size: 5
    stride: 1
    weight_filler {
      type: "gaussian"
      std: 0.01
    }
    bias_filler {
      type: "constant"
    }
  }
}
layer {
  name: "3_relu2"
  type: "ReLU"
  bottom: "3_conv2"
  top: "3_conv2"
}
layer {
  name: "3_pool2"
  type: "Pooling"
  bottom: "3_conv2"
  top: "3_pool2"
  pooling_param {
    pool: AVE
    kernel_size: 3
    stride: 2
  }
}
layer {
  name: "3_conv3"
  type: "Convolution"
  bottom: "3_pool2"
  top: "3_conv3"
  param {
    lr_mult: 1
  }
  param {
    lr_mult: 2
  }
  convolution_param {
    num_output: 64
    pad: 2
    kernel_size: 5
    stride: 1
    weight_filler {
      type: "gaussian"
      std: 0.01
    }
    bias_filler {
      type: "constant"
    }
  }
}
layer {
  name: "3_relu3"
  type: "ReLU"
  bottom: "3_conv3"
  top: "3_conv3"
}
layer {
  name: "3_pool3"
  type: "Pooling"
  bottom: "3_conv3"
  top: "3_pool3"
  pooling_param {
    pool: AVE
    kernel_size: 3
    stride: 2
  }
}
layer {
  name: "3_ip1"
  type: "InnerProduct"
  bottom: "3_pool3"
  top: "3_ip1"
  param {
    lr_mult: 1
  }
  param {
    lr_mult: 2
  }
  inner_product_param {
    num_output: 64
    weight_filler {
      type: "gaussian"
      std: 0.1
    }
    bias_filler {
      type: "constant"
    }
  }
}
layer {
  name: "3_ip2"
  type: "InnerProduct"
  bottom: "3_ip1"
  top: "3_ip2"
  param {
    lr_mult: 1
  }
  param {
    lr_mult: 2
  }
  inner_product_param {
    num_output: 10
    weight_filler {
      type: "gaussian"
      std: 0.1
    }
    bias_filler {
      type: "constant"
    }
  }
}
layer {
  name: "3_prob"
  type: "Softmax"
  bottom: "3_ip2"
  top: "3_prob"
}
layer {
  name: "4_conv1"
  type: "Convolution"
  bottom: "data"
  top: "4_conv1"
  param {
    lr_mult: 1
  }
  param {
    lr_mult: 2
  }
  convolution_param {
    num_output: 32
    pad: 2
    kernel_size: 5
    stride: 1
    weight_filler {
      type: "gaussian"
      std: 0.0001
    }
    bias_filler {
      type: "constant"
    }
  }
}
layer {
  name: "4_pool1"
  type: "Pooling"
  bottom: "4_conv1"
  top: "4_pool1"
  pooling_param {
    pool: MAX
    kernel_size: 3
    stride: 2
  }
}
layer {
  name: "4_relu1"
  type: "ReLU"
  bottom: "4_pool1"
  top: "4_pool1"
}
layer {
  name: "4_conv2"
  type: "Convolution"
  bottom: "4_pool1"
  top: "4_conv2"
  param {
    lr_mult: 1
  }
  param {
    lr_mult: 2
  }
  convolution_param {
    num_output: 32
    pad: 2
    kernel_size: 5
    stride: 1
    weight_filler {
      type: "gaussian"
      std: 0.01
    }
    bias_filler {
      type: "constant"
    }
  }
}
layer {
  name: "4_relu2"
  type: "ReLU"
  bottom: "4_conv2"
  top: "4_conv2"
}
layer {
  name: "4_pool2"
  type: "Pooling"
  bottom: "4_conv2"
  top: "4_pool2"
  pooling_param {
    pool: AVE
    kernel_size: 3
    stride: 2
  }
}
layer {
  name: "4_conv3"
  type: "Convolution"
  bottom: "4_pool2"
  top: "4_conv3"
  param {
    lr_mult: 1
  }
  param {
    lr_mult: 2
  }
  convolution_param {
    num_output: 64
    pad: 2
    kernel_size: 5
    stride: 1
    weight_filler {
      type: "gaussian"
      std: 0.01
    }
    bias_filler {
      type: "constant"
    }
  }
}
layer {
  name: "4_relu3"
  type: "ReLU"
  bottom: "4_conv3"
  top: "4_conv3"
}
layer {
  name: "4_pool3"
  type: "Pooling"
  bottom: "4_conv3"
  top: "4_pool3"
  pooling_param {
    pool: AVE
    kernel_size: 3
    stride: 2
  }
}
layer {
  name: "4_ip1"
  type: "InnerProduct"
  bottom: "4_pool3"
  top: "4_ip1"
  param {
    lr_mult: 1
  }
  param {
    lr_mult: 2
  }
  inner_product_param {
    num_output: 64
    weight_filler {
      type: "gaussian"
      std: 0.1
    }
    bias_filler {
      type: "constant"
    }
  }
}
layer {
  name: "4_ip2"
  type: "InnerProduct"
  bottom: "4_ip1"
  top: "4_ip2"
  param {
    lr_mult: 1
  }
  param {
    lr_mult: 2
  }
  inner_product_param {
    num_output: 10
    weight_filler {
      type: "gaussian"
      std: 0.1
    }
    bias_filler {
      type: "constant"
    }
  }
}
layer {
  name: "4_prob"
  type: "Softmax"
  bottom: "4_ip2"
  top: "4_prob"
}
layer {
  name: "1_accuracy"
  type: "Accuracy"
  bottom: "1_prob"
  bottom: "label"
  top: "1_accuracy"
  include {
    phase: TEST
  }
}
layer {
  name: "2_accuracy"
  type: "Accuracy"
  bottom: "2_prob"
  bottom: "label"
  top: "2_accuracy"
  include {
    phase: TEST
  }
}
layer {
  name: "3_accuracy"
  type: "Accuracy"
  bottom: "3_prob"
  bottom: "label"
  top: "3_accuracy"
  include {
    phase: TEST
  }
}
layer {
  name: "4_accuracy"
  type: "Accuracy"
  bottom: "4_prob"
  bottom: "label"
  top: "4_accuracy"
  include {
    phase: TEST
  }
}
layer {
  name: "accuracy"
  type: "OracleAccuracy"
  bottom: "1_prob"
  bottom: "2_prob"
  bottom: "3_prob"
  bottom: "4_prob"
  bottom: "label"
  top: "oracle accuracy"
  include {
    phase: TEST
  }
}
I0207 17:39:27.597594  6959 layer_factory.hpp:74] Creating layer cifar
I0207 17:39:27.597604  6959 net.cpp:90] Creating Layer cifar
I0207 17:39:27.597607  6959 net.cpp:368] cifar -> data
I0207 17:39:27.597615  6959 net.cpp:368] cifar -> label
I0207 17:39:27.597621  6959 net.cpp:120] Setting up cifar
I0207 17:39:27.597651  6959 db.cpp:34] Opened lmdb /home/mike/ml_lab/mod/MCL_Caffe/examples/cifar10/cifar10_test_lmdb
I0207 17:39:27.597676  6959 data_layer.cpp:67] output data size: 100,3,32,32
I0207 17:39:27.597683  6959 data_transformer.cpp:22] Loading mean file from: /home/mike/ml_lab/mod/MCL_Caffe/examples/cifar10/mean.binaryproto
I0207 17:39:27.598126  6959 net.cpp:127] Top shape: 100 3 32 32 (307200)
I0207 17:39:27.598134  6959 net.cpp:127] Top shape: 100 (100)
I0207 17:39:27.598139  6959 layer_factory.hpp:74] Creating layer data_cifar_0_split
I0207 17:39:27.598145  6959 net.cpp:90] Creating Layer data_cifar_0_split
I0207 17:39:27.598148  6959 net.cpp:410] data_cifar_0_split <- data
I0207 17:39:27.598153  6959 net.cpp:368] data_cifar_0_split -> data_cifar_0_split_0
I0207 17:39:27.598160  6959 net.cpp:368] data_cifar_0_split -> data_cifar_0_split_1
I0207 17:39:27.598167  6959 net.cpp:368] data_cifar_0_split -> data_cifar_0_split_2
I0207 17:39:27.598173  6959 net.cpp:368] data_cifar_0_split -> data_cifar_0_split_3
I0207 17:39:27.598177  6959 net.cpp:120] Setting up data_cifar_0_split
I0207 17:39:27.598184  6959 net.cpp:127] Top shape: 100 3 32 32 (307200)
I0207 17:39:27.598189  6959 net.cpp:127] Top shape: 100 3 32 32 (307200)
I0207 17:39:27.598193  6959 net.cpp:127] Top shape: 100 3 32 32 (307200)
I0207 17:39:27.598197  6959 net.cpp:127] Top shape: 100 3 32 32 (307200)
I0207 17:39:27.598201  6959 layer_factory.hpp:74] Creating layer label_cifar_1_split
I0207 17:39:27.598206  6959 net.cpp:90] Creating Layer label_cifar_1_split
I0207 17:39:27.598209  6959 net.cpp:410] label_cifar_1_split <- label
I0207 17:39:27.598213  6959 net.cpp:368] label_cifar_1_split -> label_cifar_1_split_0
I0207 17:39:27.598219  6959 net.cpp:368] label_cifar_1_split -> label_cifar_1_split_1
I0207 17:39:27.598224  6959 net.cpp:368] label_cifar_1_split -> label_cifar_1_split_2
I0207 17:39:27.598230  6959 net.cpp:368] label_cifar_1_split -> label_cifar_1_split_3
I0207 17:39:27.598235  6959 net.cpp:368] label_cifar_1_split -> label_cifar_1_split_4
I0207 17:39:27.598239  6959 net.cpp:120] Setting up label_cifar_1_split
I0207 17:39:27.598245  6959 net.cpp:127] Top shape: 100 (100)
I0207 17:39:27.598250  6959 net.cpp:127] Top shape: 100 (100)
I0207 17:39:27.598255  6959 net.cpp:127] Top shape: 100 (100)
I0207 17:39:27.598259  6959 net.cpp:127] Top shape: 100 (100)
I0207 17:39:27.598263  6959 net.cpp:127] Top shape: 100 (100)
I0207 17:39:27.598266  6959 layer_factory.hpp:74] Creating layer 1_conv1
I0207 17:39:27.598273  6959 net.cpp:90] Creating Layer 1_conv1
I0207 17:39:27.598275  6959 net.cpp:410] 1_conv1 <- data_cifar_0_split_0
I0207 17:39:27.598280  6959 net.cpp:368] 1_conv1 -> 1_conv1
I0207 17:39:27.598286  6959 net.cpp:120] Setting up 1_conv1
I0207 17:39:27.598373  6959 net.cpp:127] Top shape: 100 32 32 32 (3276800)
I0207 17:39:27.598382  6959 layer_factory.hpp:74] Creating layer 1_pool1
I0207 17:39:27.598388  6959 net.cpp:90] Creating Layer 1_pool1
I0207 17:39:27.598392  6959 net.cpp:410] 1_pool1 <- 1_conv1
I0207 17:39:27.598397  6959 net.cpp:368] 1_pool1 -> 1_pool1
I0207 17:39:27.598402  6959 net.cpp:120] Setting up 1_pool1
I0207 17:39:27.598408  6959 net.cpp:127] Top shape: 100 32 16 16 (819200)
I0207 17:39:27.598412  6959 layer_factory.hpp:74] Creating layer 1_relu1
I0207 17:39:27.598417  6959 net.cpp:90] Creating Layer 1_relu1
I0207 17:39:27.598420  6959 net.cpp:410] 1_relu1 <- 1_pool1
I0207 17:39:27.598425  6959 net.cpp:357] 1_relu1 -> 1_pool1 (in-place)
I0207 17:39:27.598429  6959 net.cpp:120] Setting up 1_relu1
I0207 17:39:27.598443  6959 net.cpp:127] Top shape: 100 32 16 16 (819200)
I0207 17:39:27.598448  6959 layer_factory.hpp:74] Creating layer 1_conv2
I0207 17:39:27.598453  6959 net.cpp:90] Creating Layer 1_conv2
I0207 17:39:27.598456  6959 net.cpp:410] 1_conv2 <- 1_pool1
I0207 17:39:27.598461  6959 net.cpp:368] 1_conv2 -> 1_conv2
I0207 17:39:27.598467  6959 net.cpp:120] Setting up 1_conv2
I0207 17:39:27.599282  6959 net.cpp:127] Top shape: 100 32 16 16 (819200)
I0207 17:39:27.599292  6959 layer_factory.hpp:74] Creating layer 1_relu2
I0207 17:39:27.599298  6959 net.cpp:90] Creating Layer 1_relu2
I0207 17:39:27.599301  6959 net.cpp:410] 1_relu2 <- 1_conv2
I0207 17:39:27.599308  6959 net.cpp:357] 1_relu2 -> 1_conv2 (in-place)
I0207 17:39:27.599311  6959 net.cpp:120] Setting up 1_relu2
I0207 17:39:27.599318  6959 net.cpp:127] Top shape: 100 32 16 16 (819200)
I0207 17:39:27.599321  6959 layer_factory.hpp:74] Creating layer 1_pool2
I0207 17:39:27.599326  6959 net.cpp:90] Creating Layer 1_pool2
I0207 17:39:27.599330  6959 net.cpp:410] 1_pool2 <- 1_conv2
I0207 17:39:27.599334  6959 net.cpp:368] 1_pool2 -> 1_pool2
I0207 17:39:27.599339  6959 net.cpp:120] Setting up 1_pool2
I0207 17:39:27.599346  6959 net.cpp:127] Top shape: 100 32 8 8 (204800)
I0207 17:39:27.599350  6959 layer_factory.hpp:74] Creating layer 1_conv3
I0207 17:39:27.599356  6959 net.cpp:90] Creating Layer 1_conv3
I0207 17:39:27.599359  6959 net.cpp:410] 1_conv3 <- 1_pool2
I0207 17:39:27.599366  6959 net.cpp:368] 1_conv3 -> 1_conv3
I0207 17:39:27.599372  6959 net.cpp:120] Setting up 1_conv3
I0207 17:39:27.600796  6959 net.cpp:127] Top shape: 100 64 8 8 (409600)
I0207 17:39:27.600805  6959 layer_factory.hpp:74] Creating layer 1_relu3
I0207 17:39:27.600808  6959 net.cpp:90] Creating Layer 1_relu3
I0207 17:39:27.600811  6959 net.cpp:410] 1_relu3 <- 1_conv3
I0207 17:39:27.600813  6959 net.cpp:357] 1_relu3 -> 1_conv3 (in-place)
I0207 17:39:27.600818  6959 net.cpp:120] Setting up 1_relu3
I0207 17:39:27.600822  6959 net.cpp:127] Top shape: 100 64 8 8 (409600)
I0207 17:39:27.600826  6959 layer_factory.hpp:74] Creating layer 1_pool3
I0207 17:39:27.600831  6959 net.cpp:90] Creating Layer 1_pool3
I0207 17:39:27.600833  6959 net.cpp:410] 1_pool3 <- 1_conv3
I0207 17:39:27.600839  6959 net.cpp:368] 1_pool3 -> 1_pool3
I0207 17:39:27.600847  6959 net.cpp:120] Setting up 1_pool3
I0207 17:39:27.600854  6959 net.cpp:127] Top shape: 100 64 4 4 (102400)
I0207 17:39:27.600857  6959 layer_factory.hpp:74] Creating layer 1_ip1
I0207 17:39:27.600863  6959 net.cpp:90] Creating Layer 1_ip1
I0207 17:39:27.600868  6959 net.cpp:410] 1_ip1 <- 1_pool3
I0207 17:39:27.600874  6959 net.cpp:368] 1_ip1 -> 1_ip1
I0207 17:39:27.600880  6959 net.cpp:120] Setting up 1_ip1
I0207 17:39:27.602499  6959 net.cpp:127] Top shape: 100 64 (6400)
I0207 17:39:27.602506  6959 layer_factory.hpp:74] Creating layer 1_ip2
I0207 17:39:27.602510  6959 net.cpp:90] Creating Layer 1_ip2
I0207 17:39:27.602512  6959 net.cpp:410] 1_ip2 <- 1_ip1
I0207 17:39:27.602517  6959 net.cpp:368] 1_ip2 -> 1_ip2
I0207 17:39:27.602524  6959 net.cpp:120] Setting up 1_ip2
I0207 17:39:27.602555  6959 net.cpp:127] Top shape: 100 10 (1000)
I0207 17:39:27.602566  6959 layer_factory.hpp:74] Creating layer 1_prob
I0207 17:39:27.602571  6959 net.cpp:90] Creating Layer 1_prob
I0207 17:39:27.602574  6959 net.cpp:410] 1_prob <- 1_ip2
I0207 17:39:27.602581  6959 net.cpp:368] 1_prob -> 1_prob
I0207 17:39:27.602586  6959 net.cpp:120] Setting up 1_prob
I0207 17:39:27.602593  6959 net.cpp:127] Top shape: 100 10 (1000)
I0207 17:39:27.602597  6959 layer_factory.hpp:74] Creating layer 1_prob_1_prob_0_split
I0207 17:39:27.602602  6959 net.cpp:90] Creating Layer 1_prob_1_prob_0_split
I0207 17:39:27.602607  6959 net.cpp:410] 1_prob_1_prob_0_split <- 1_prob
I0207 17:39:27.602610  6959 net.cpp:368] 1_prob_1_prob_0_split -> 1_prob_1_prob_0_split_0
I0207 17:39:27.602617  6959 net.cpp:368] 1_prob_1_prob_0_split -> 1_prob_1_prob_0_split_1
I0207 17:39:27.602623  6959 net.cpp:120] Setting up 1_prob_1_prob_0_split
I0207 17:39:27.602632  6959 net.cpp:127] Top shape: 100 10 (1000)
I0207 17:39:27.602645  6959 net.cpp:127] Top shape: 100 10 (1000)
I0207 17:39:27.602650  6959 layer_factory.hpp:74] Creating layer 2_conv1
I0207 17:39:27.602659  6959 net.cpp:90] Creating Layer 2_conv1
I0207 17:39:27.602663  6959 net.cpp:410] 2_conv1 <- data_cifar_0_split_1
I0207 17:39:27.602669  6959 net.cpp:368] 2_conv1 -> 2_conv1
I0207 17:39:27.602676  6959 net.cpp:120] Setting up 2_conv1
I0207 17:39:27.602767  6959 net.cpp:127] Top shape: 100 32 32 32 (3276800)
I0207 17:39:27.602776  6959 layer_factory.hpp:74] Creating layer 2_pool1
I0207 17:39:27.602782  6959 net.cpp:90] Creating Layer 2_pool1
I0207 17:39:27.602785  6959 net.cpp:410] 2_pool1 <- 2_conv1
I0207 17:39:27.602790  6959 net.cpp:368] 2_pool1 -> 2_pool1
I0207 17:39:27.602797  6959 net.cpp:120] Setting up 2_pool1
I0207 17:39:27.602804  6959 net.cpp:127] Top shape: 100 32 16 16 (819200)
I0207 17:39:27.602809  6959 layer_factory.hpp:74] Creating layer 2_relu1
I0207 17:39:27.602813  6959 net.cpp:90] Creating Layer 2_relu1
I0207 17:39:27.602818  6959 net.cpp:410] 2_relu1 <- 2_pool1
I0207 17:39:27.602823  6959 net.cpp:357] 2_relu1 -> 2_pool1 (in-place)
I0207 17:39:27.602829  6959 net.cpp:120] Setting up 2_relu1
I0207 17:39:27.602835  6959 net.cpp:127] Top shape: 100 32 16 16 (819200)
I0207 17:39:27.602839  6959 layer_factory.hpp:74] Creating layer 2_conv2
I0207 17:39:27.602844  6959 net.cpp:90] Creating Layer 2_conv2
I0207 17:39:27.602849  6959 net.cpp:410] 2_conv2 <- 2_pool1
I0207 17:39:27.602854  6959 net.cpp:368] 2_conv2 -> 2_conv2
I0207 17:39:27.602860  6959 net.cpp:120] Setting up 2_conv2
I0207 17:39:27.603679  6959 net.cpp:127] Top shape: 100 32 16 16 (819200)
I0207 17:39:27.603689  6959 layer_factory.hpp:74] Creating layer 2_relu2
I0207 17:39:27.603695  6959 net.cpp:90] Creating Layer 2_relu2
I0207 17:39:27.603700  6959 net.cpp:410] 2_relu2 <- 2_conv2
I0207 17:39:27.603706  6959 net.cpp:357] 2_relu2 -> 2_conv2 (in-place)
I0207 17:39:27.603711  6959 net.cpp:120] Setting up 2_relu2
I0207 17:39:27.603718  6959 net.cpp:127] Top shape: 100 32 16 16 (819200)
I0207 17:39:27.603723  6959 layer_factory.hpp:74] Creating layer 2_pool2
I0207 17:39:27.603726  6959 net.cpp:90] Creating Layer 2_pool2
I0207 17:39:27.603731  6959 net.cpp:410] 2_pool2 <- 2_conv2
I0207 17:39:27.603735  6959 net.cpp:368] 2_pool2 -> 2_pool2
I0207 17:39:27.603742  6959 net.cpp:120] Setting up 2_pool2
I0207 17:39:27.603749  6959 net.cpp:127] Top shape: 100 32 8 8 (204800)
I0207 17:39:27.603754  6959 layer_factory.hpp:74] Creating layer 2_conv3
I0207 17:39:27.603760  6959 net.cpp:90] Creating Layer 2_conv3
I0207 17:39:27.603765  6959 net.cpp:410] 2_conv3 <- 2_pool2
I0207 17:39:27.603770  6959 net.cpp:368] 2_conv3 -> 2_conv3
I0207 17:39:27.603777  6959 net.cpp:120] Setting up 2_conv3
I0207 17:39:27.605080  6959 net.cpp:127] Top shape: 100 64 8 8 (409600)
I0207 17:39:27.605087  6959 layer_factory.hpp:74] Creating layer 2_relu3
I0207 17:39:27.605092  6959 net.cpp:90] Creating Layer 2_relu3
I0207 17:39:27.605096  6959 net.cpp:410] 2_relu3 <- 2_conv3
I0207 17:39:27.605100  6959 net.cpp:357] 2_relu3 -> 2_conv3 (in-place)
I0207 17:39:27.605114  6959 net.cpp:120] Setting up 2_relu3
I0207 17:39:27.605121  6959 net.cpp:127] Top shape: 100 64 8 8 (409600)
I0207 17:39:27.605124  6959 layer_factory.hpp:74] Creating layer 2_pool3
I0207 17:39:27.605129  6959 net.cpp:90] Creating Layer 2_pool3
I0207 17:39:27.605134  6959 net.cpp:410] 2_pool3 <- 2_conv3
I0207 17:39:27.605139  6959 net.cpp:368] 2_pool3 -> 2_pool3
I0207 17:39:27.605144  6959 net.cpp:120] Setting up 2_pool3
I0207 17:39:27.605150  6959 net.cpp:127] Top shape: 100 64 4 4 (102400)
I0207 17:39:27.605154  6959 layer_factory.hpp:74] Creating layer 2_ip1
I0207 17:39:27.605159  6959 net.cpp:90] Creating Layer 2_ip1
I0207 17:39:27.605164  6959 net.cpp:410] 2_ip1 <- 2_pool3
I0207 17:39:27.605170  6959 net.cpp:368] 2_ip1 -> 2_ip1
I0207 17:39:27.605175  6959 net.cpp:120] Setting up 2_ip1
I0207 17:39:27.606786  6959 net.cpp:127] Top shape: 100 64 (6400)
I0207 17:39:27.606798  6959 layer_factory.hpp:74] Creating layer 2_ip2
I0207 17:39:27.606806  6959 net.cpp:90] Creating Layer 2_ip2
I0207 17:39:27.606819  6959 net.cpp:410] 2_ip2 <- 2_ip1
I0207 17:39:27.606828  6959 net.cpp:368] 2_ip2 -> 2_ip2
I0207 17:39:27.606835  6959 net.cpp:120] Setting up 2_ip2
I0207 17:39:27.606868  6959 net.cpp:127] Top shape: 100 10 (1000)
I0207 17:39:27.606875  6959 layer_factory.hpp:74] Creating layer 2_prob
I0207 17:39:27.606884  6959 net.cpp:90] Creating Layer 2_prob
I0207 17:39:27.606887  6959 net.cpp:410] 2_prob <- 2_ip2
I0207 17:39:27.606892  6959 net.cpp:368] 2_prob -> 2_prob
I0207 17:39:27.606897  6959 net.cpp:120] Setting up 2_prob
I0207 17:39:27.606907  6959 net.cpp:127] Top shape: 100 10 (1000)
I0207 17:39:27.606911  6959 layer_factory.hpp:74] Creating layer 2_prob_2_prob_0_split
I0207 17:39:27.606916  6959 net.cpp:90] Creating Layer 2_prob_2_prob_0_split
I0207 17:39:27.606920  6959 net.cpp:410] 2_prob_2_prob_0_split <- 2_prob
I0207 17:39:27.606925  6959 net.cpp:368] 2_prob_2_prob_0_split -> 2_prob_2_prob_0_split_0
I0207 17:39:27.606931  6959 net.cpp:368] 2_prob_2_prob_0_split -> 2_prob_2_prob_0_split_1
I0207 17:39:27.606938  6959 net.cpp:120] Setting up 2_prob_2_prob_0_split
I0207 17:39:27.606945  6959 net.cpp:127] Top shape: 100 10 (1000)
I0207 17:39:27.606952  6959 net.cpp:127] Top shape: 100 10 (1000)
I0207 17:39:27.606957  6959 layer_factory.hpp:74] Creating layer 3_conv1
I0207 17:39:27.606964  6959 net.cpp:90] Creating Layer 3_conv1
I0207 17:39:27.606969  6959 net.cpp:410] 3_conv1 <- data_cifar_0_split_2
I0207 17:39:27.606976  6959 net.cpp:368] 3_conv1 -> 3_conv1
I0207 17:39:27.606982  6959 net.cpp:120] Setting up 3_conv1
I0207 17:39:27.607074  6959 net.cpp:127] Top shape: 100 32 32 32 (3276800)
I0207 17:39:27.607084  6959 layer_factory.hpp:74] Creating layer 3_pool1
I0207 17:39:27.607091  6959 net.cpp:90] Creating Layer 3_pool1
I0207 17:39:27.607095  6959 net.cpp:410] 3_pool1 <- 3_conv1
I0207 17:39:27.607100  6959 net.cpp:368] 3_pool1 -> 3_pool1
I0207 17:39:27.607107  6959 net.cpp:120] Setting up 3_pool1
I0207 17:39:27.607115  6959 net.cpp:127] Top shape: 100 32 16 16 (819200)
I0207 17:39:27.607120  6959 layer_factory.hpp:74] Creating layer 3_relu1
I0207 17:39:27.607125  6959 net.cpp:90] Creating Layer 3_relu1
I0207 17:39:27.607128  6959 net.cpp:410] 3_relu1 <- 3_pool1
I0207 17:39:27.607134  6959 net.cpp:357] 3_relu1 -> 3_pool1 (in-place)
I0207 17:39:27.607141  6959 net.cpp:120] Setting up 3_relu1
I0207 17:39:27.607146  6959 net.cpp:127] Top shape: 100 32 16 16 (819200)
I0207 17:39:27.607151  6959 layer_factory.hpp:74] Creating layer 3_conv2
I0207 17:39:27.607159  6959 net.cpp:90] Creating Layer 3_conv2
I0207 17:39:27.607163  6959 net.cpp:410] 3_conv2 <- 3_pool1
I0207 17:39:27.607169  6959 net.cpp:368] 3_conv2 -> 3_conv2
I0207 17:39:27.607177  6959 net.cpp:120] Setting up 3_conv2
I0207 17:39:27.607949  6959 net.cpp:127] Top shape: 100 32 16 16 (819200)
I0207 17:39:27.607955  6959 layer_factory.hpp:74] Creating layer 3_relu2
I0207 17:39:27.607962  6959 net.cpp:90] Creating Layer 3_relu2
I0207 17:39:27.607969  6959 net.cpp:410] 3_relu2 <- 3_conv2
I0207 17:39:27.607973  6959 net.cpp:357] 3_relu2 -> 3_conv2 (in-place)
I0207 17:39:27.607978  6959 net.cpp:120] Setting up 3_relu2
I0207 17:39:27.607985  6959 net.cpp:127] Top shape: 100 32 16 16 (819200)
I0207 17:39:27.607990  6959 layer_factory.hpp:74] Creating layer 3_pool2
I0207 17:39:27.607995  6959 net.cpp:90] Creating Layer 3_pool2
I0207 17:39:27.608000  6959 net.cpp:410] 3_pool2 <- 3_conv2
I0207 17:39:27.608005  6959 net.cpp:368] 3_pool2 -> 3_pool2
I0207 17:39:27.608011  6959 net.cpp:120] Setting up 3_pool2
I0207 17:39:27.608017  6959 net.cpp:127] Top shape: 100 32 8 8 (204800)
I0207 17:39:27.608022  6959 layer_factory.hpp:74] Creating layer 3_conv3
I0207 17:39:27.608029  6959 net.cpp:90] Creating Layer 3_conv3
I0207 17:39:27.608034  6959 net.cpp:410] 3_conv3 <- 3_pool2
I0207 17:39:27.608042  6959 net.cpp:368] 3_conv3 -> 3_conv3
I0207 17:39:27.608048  6959 net.cpp:120] Setting up 3_conv3
I0207 17:39:27.609257  6959 net.cpp:127] Top shape: 100 64 8 8 (409600)
I0207 17:39:27.609266  6959 layer_factory.hpp:74] Creating layer 3_relu3
I0207 17:39:27.609282  6959 net.cpp:90] Creating Layer 3_relu3
I0207 17:39:27.609287  6959 net.cpp:410] 3_relu3 <- 3_conv3
I0207 17:39:27.609292  6959 net.cpp:357] 3_relu3 -> 3_conv3 (in-place)
I0207 17:39:27.609297  6959 net.cpp:120] Setting up 3_relu3
I0207 17:39:27.609303  6959 net.cpp:127] Top shape: 100 64 8 8 (409600)
I0207 17:39:27.609308  6959 layer_factory.hpp:74] Creating layer 3_pool3
I0207 17:39:27.609313  6959 net.cpp:90] Creating Layer 3_pool3
I0207 17:39:27.609319  6959 net.cpp:410] 3_pool3 <- 3_conv3
I0207 17:39:27.609324  6959 net.cpp:368] 3_pool3 -> 3_pool3
I0207 17:39:27.609330  6959 net.cpp:120] Setting up 3_pool3
I0207 17:39:27.609338  6959 net.cpp:127] Top shape: 100 64 4 4 (102400)
I0207 17:39:27.609344  6959 layer_factory.hpp:74] Creating layer 3_ip1
I0207 17:39:27.609349  6959 net.cpp:90] Creating Layer 3_ip1
I0207 17:39:27.609354  6959 net.cpp:410] 3_ip1 <- 3_pool3
I0207 17:39:27.609361  6959 net.cpp:368] 3_ip1 -> 3_ip1
I0207 17:39:27.609369  6959 net.cpp:120] Setting up 3_ip1
I0207 17:39:27.610975  6959 net.cpp:127] Top shape: 100 64 (6400)
I0207 17:39:27.610982  6959 layer_factory.hpp:74] Creating layer 3_ip2
I0207 17:39:27.610991  6959 net.cpp:90] Creating Layer 3_ip2
I0207 17:39:27.610994  6959 net.cpp:410] 3_ip2 <- 3_ip1
I0207 17:39:27.611002  6959 net.cpp:368] 3_ip2 -> 3_ip2
I0207 17:39:27.611009  6959 net.cpp:120] Setting up 3_ip2
I0207 17:39:27.611042  6959 net.cpp:127] Top shape: 100 10 (1000)
I0207 17:39:27.611050  6959 layer_factory.hpp:74] Creating layer 3_prob
I0207 17:39:27.611058  6959 net.cpp:90] Creating Layer 3_prob
I0207 17:39:27.611063  6959 net.cpp:410] 3_prob <- 3_ip2
I0207 17:39:27.611068  6959 net.cpp:368] 3_prob -> 3_prob
I0207 17:39:27.611075  6959 net.cpp:120] Setting up 3_prob
I0207 17:39:27.611084  6959 net.cpp:127] Top shape: 100 10 (1000)
I0207 17:39:27.611088  6959 layer_factory.hpp:74] Creating layer 3_prob_3_prob_0_split
I0207 17:39:27.611093  6959 net.cpp:90] Creating Layer 3_prob_3_prob_0_split
I0207 17:39:27.611098  6959 net.cpp:410] 3_prob_3_prob_0_split <- 3_prob
I0207 17:39:27.611102  6959 net.cpp:368] 3_prob_3_prob_0_split -> 3_prob_3_prob_0_split_0
I0207 17:39:27.611109  6959 net.cpp:368] 3_prob_3_prob_0_split -> 3_prob_3_prob_0_split_1
I0207 17:39:27.611115  6959 net.cpp:120] Setting up 3_prob_3_prob_0_split
I0207 17:39:27.611122  6959 net.cpp:127] Top shape: 100 10 (1000)
I0207 17:39:27.611127  6959 net.cpp:127] Top shape: 100 10 (1000)
I0207 17:39:27.611131  6959 layer_factory.hpp:74] Creating layer 4_conv1
I0207 17:39:27.611140  6959 net.cpp:90] Creating Layer 4_conv1
I0207 17:39:27.611145  6959 net.cpp:410] 4_conv1 <- data_cifar_0_split_3
I0207 17:39:27.611150  6959 net.cpp:368] 4_conv1 -> 4_conv1
I0207 17:39:27.611157  6959 net.cpp:120] Setting up 4_conv1
I0207 17:39:27.611249  6959 net.cpp:127] Top shape: 100 32 32 32 (3276800)
I0207 17:39:27.611258  6959 layer_factory.hpp:74] Creating layer 4_pool1
I0207 17:39:27.611265  6959 net.cpp:90] Creating Layer 4_pool1
I0207 17:39:27.611270  6959 net.cpp:410] 4_pool1 <- 4_conv1
I0207 17:39:27.611275  6959 net.cpp:368] 4_pool1 -> 4_pool1
I0207 17:39:27.611281  6959 net.cpp:120] Setting up 4_pool1
I0207 17:39:27.611289  6959 net.cpp:127] Top shape: 100 32 16 16 (819200)
I0207 17:39:27.611294  6959 layer_factory.hpp:74] Creating layer 4_relu1
I0207 17:39:27.611299  6959 net.cpp:90] Creating Layer 4_relu1
I0207 17:39:27.611304  6959 net.cpp:410] 4_relu1 <- 4_pool1
I0207 17:39:27.611307  6959 net.cpp:357] 4_relu1 -> 4_pool1 (in-place)
I0207 17:39:27.611313  6959 net.cpp:120] Setting up 4_relu1
I0207 17:39:27.611320  6959 net.cpp:127] Top shape: 100 32 16 16 (819200)
I0207 17:39:27.611323  6959 layer_factory.hpp:74] Creating layer 4_conv2
I0207 17:39:27.611331  6959 net.cpp:90] Creating Layer 4_conv2
I0207 17:39:27.611335  6959 net.cpp:410] 4_conv2 <- 4_pool1
I0207 17:39:27.611340  6959 net.cpp:368] 4_conv2 -> 4_conv2
I0207 17:39:27.611347  6959 net.cpp:120] Setting up 4_conv2
I0207 17:39:27.612164  6959 net.cpp:127] Top shape: 100 32 16 16 (819200)
I0207 17:39:27.612177  6959 layer_factory.hpp:74] Creating layer 4_relu2
I0207 17:39:27.612195  6959 net.cpp:90] Creating Layer 4_relu2
I0207 17:39:27.612200  6959 net.cpp:410] 4_relu2 <- 4_conv2
I0207 17:39:27.612205  6959 net.cpp:357] 4_relu2 -> 4_conv2 (in-place)
I0207 17:39:27.612210  6959 net.cpp:120] Setting up 4_relu2
I0207 17:39:27.612216  6959 net.cpp:127] Top shape: 100 32 16 16 (819200)
I0207 17:39:27.612221  6959 layer_factory.hpp:74] Creating layer 4_pool2
I0207 17:39:27.612226  6959 net.cpp:90] Creating Layer 4_pool2
I0207 17:39:27.612231  6959 net.cpp:410] 4_pool2 <- 4_conv2
I0207 17:39:27.612236  6959 net.cpp:368] 4_pool2 -> 4_pool2
I0207 17:39:27.612242  6959 net.cpp:120] Setting up 4_pool2
I0207 17:39:27.612249  6959 net.cpp:127] Top shape: 100 32 8 8 (204800)
I0207 17:39:27.612254  6959 layer_factory.hpp:74] Creating layer 4_conv3
I0207 17:39:27.612262  6959 net.cpp:90] Creating Layer 4_conv3
I0207 17:39:27.612267  6959 net.cpp:410] 4_conv3 <- 4_pool2
I0207 17:39:27.612272  6959 net.cpp:368] 4_conv3 -> 4_conv3
I0207 17:39:27.612278  6959 net.cpp:120] Setting up 4_conv3
I0207 17:39:27.613600  6959 net.cpp:127] Top shape: 100 64 8 8 (409600)
I0207 17:39:27.613608  6959 layer_factory.hpp:74] Creating layer 4_relu3
I0207 17:39:27.613615  6959 net.cpp:90] Creating Layer 4_relu3
I0207 17:39:27.613620  6959 net.cpp:410] 4_relu3 <- 4_conv3
I0207 17:39:27.613627  6959 net.cpp:357] 4_relu3 -> 4_conv3 (in-place)
I0207 17:39:27.613633  6959 net.cpp:120] Setting up 4_relu3
I0207 17:39:27.613639  6959 net.cpp:127] Top shape: 100 64 8 8 (409600)
I0207 17:39:27.613644  6959 layer_factory.hpp:74] Creating layer 4_pool3
I0207 17:39:27.613649  6959 net.cpp:90] Creating Layer 4_pool3
I0207 17:39:27.613654  6959 net.cpp:410] 4_pool3 <- 4_conv3
I0207 17:39:27.613661  6959 net.cpp:368] 4_pool3 -> 4_pool3
I0207 17:39:27.613667  6959 net.cpp:120] Setting up 4_pool3
I0207 17:39:27.613675  6959 net.cpp:127] Top shape: 100 64 4 4 (102400)
I0207 17:39:27.613680  6959 layer_factory.hpp:74] Creating layer 4_ip1
I0207 17:39:27.613687  6959 net.cpp:90] Creating Layer 4_ip1
I0207 17:39:27.613692  6959 net.cpp:410] 4_ip1 <- 4_pool3
I0207 17:39:27.613698  6959 net.cpp:368] 4_ip1 -> 4_ip1
I0207 17:39:27.613705  6959 net.cpp:120] Setting up 4_ip1
I0207 17:39:27.615309  6959 net.cpp:127] Top shape: 100 64 (6400)
I0207 17:39:27.615315  6959 layer_factory.hpp:74] Creating layer 4_ip2
I0207 17:39:27.615324  6959 net.cpp:90] Creating Layer 4_ip2
I0207 17:39:27.615329  6959 net.cpp:410] 4_ip2 <- 4_ip1
I0207 17:39:27.615335  6959 net.cpp:368] 4_ip2 -> 4_ip2
I0207 17:39:27.615341  6959 net.cpp:120] Setting up 4_ip2
I0207 17:39:27.615375  6959 net.cpp:127] Top shape: 100 10 (1000)
I0207 17:39:27.615384  6959 layer_factory.hpp:74] Creating layer 4_prob
I0207 17:39:27.615391  6959 net.cpp:90] Creating Layer 4_prob
I0207 17:39:27.615396  6959 net.cpp:410] 4_prob <- 4_ip2
I0207 17:39:27.615401  6959 net.cpp:368] 4_prob -> 4_prob
I0207 17:39:27.615408  6959 net.cpp:120] Setting up 4_prob
I0207 17:39:27.615416  6959 net.cpp:127] Top shape: 100 10 (1000)
I0207 17:39:27.615420  6959 layer_factory.hpp:74] Creating layer 4_prob_4_prob_0_split
I0207 17:39:27.615427  6959 net.cpp:90] Creating Layer 4_prob_4_prob_0_split
I0207 17:39:27.615432  6959 net.cpp:410] 4_prob_4_prob_0_split <- 4_prob
I0207 17:39:27.615435  6959 net.cpp:368] 4_prob_4_prob_0_split -> 4_prob_4_prob_0_split_0
I0207 17:39:27.615442  6959 net.cpp:368] 4_prob_4_prob_0_split -> 4_prob_4_prob_0_split_1
I0207 17:39:27.615448  6959 net.cpp:120] Setting up 4_prob_4_prob_0_split
I0207 17:39:27.615455  6959 net.cpp:127] Top shape: 100 10 (1000)
I0207 17:39:27.615460  6959 net.cpp:127] Top shape: 100 10 (1000)
I0207 17:39:27.615465  6959 layer_factory.hpp:74] Creating layer 1_accuracy
I0207 17:39:27.615471  6959 net.cpp:90] Creating Layer 1_accuracy
I0207 17:39:27.615476  6959 net.cpp:410] 1_accuracy <- 1_prob_1_prob_0_split_0
I0207 17:39:27.615480  6959 net.cpp:410] 1_accuracy <- label_cifar_1_split_0
I0207 17:39:27.615489  6959 net.cpp:368] 1_accuracy -> 1_accuracy
I0207 17:39:27.615494  6959 net.cpp:120] Setting up 1_accuracy
…
