…
I0127 01:21:52.137137  7196 net.cpp:287] The NetState phase (0) differed from the phase (1) specified by a rule in layer accuracy
I0127 01:21:52.137315  7196 net.cpp:42] Initializing net from parameters: 
name: "CIFAR10_quick"
state {
  phase: TRAIN
}
layer {
  name: "cifar"
  type: "Data"
  top: "data"
  top: "label"
  include {
    phase: TRAIN
  }
  transform_param {
    mean_file: "/home/mike/ml_lab/mod/MCL_Caffe/examples/cifar10/mean.binaryproto"
  }
  data_param {
    source: "/home/mike/ml_lab/mod/MCL_Caffe/examples/cifar10/cifar10_train_lmdb"
    batch_size: 350
    backend: LMDB
  }
}
layer {
  name: "1_conv1"
  type: "Convolution"
  bottom: "data"
  top: "1_conv1"
  param {
    lr_mult: 1
  }
  param {
    lr_mult: 2
  }
  convolution_param {
    num_output: 32
    pad: 2
    kernel_size: 5
    stride: 1
    weight_filler {
      type: "gaussian"
      std: 0.0001
    }
    bias_filler {
      type: "constant"
    }
  }
}
layer {
  name: "1_pool1"
  type: "Pooling"
  bottom: "1_conv1"
  top: "1_pool1"
  pooling_param {
    pool: MAX
    kernel_size: 3
    stride: 2
  }
}
layer {
  name: "1_relu1"
  type: "ReLU"
  bottom: "1_pool1"
  top: "1_pool1"
}
layer {
  name: "1_conv2"
  type: "Convolution"
  bottom: "1_pool1"
  top: "1_conv2"
  param {
    lr_mult: 1
  }
  param {
    lr_mult: 2
  }
  convolution_param {
    num_output: 32
    pad: 2
    kernel_size: 5
    stride: 1
    weight_filler {
      type: "gaussian"
      std: 0.01
    }
    bias_filler {
      type: "constant"
    }
  }
}
layer {
  name: "1_relu2"
  type: "ReLU"
  bottom: "1_conv2"
  top: "1_conv2"
}
layer {
  name: "1_pool2"
  type: "Pooling"
  bottom: "1_conv2"
  top: "1_pool2"
  pooling_param {
    pool: AVE
    kernel_size: 3
    stride: 2
  }
}
layer {
  name: "1_conv3"
  type: "Convolution"
  bottom: "1_pool2"
  top: "1_conv3"
  param {
    lr_mult: 1
  }
  param {
    lr_mult: 2
  }
  convolution_param {
    num_output: 64
    pad: 2
    kernel_size: 5
    stride: 1
    weight_filler {
      type: "gaussian"
      std: 0.01
    }
    bias_filler {
      type: "constant"
    }
  }
}
layer {
  name: "1_relu3"
  type: "ReLU"
  bottom: "1_conv3"
  top: "1_conv3"
}
layer {
  name: "1_pool3"
  type: "Pooling"
  bottom: "1_conv3"
  top: "1_pool3"
  pooling_param {
    pool: AVE
    kernel_size: 3
    stride: 2
  }
}
layer {
  name: "1_ip1"
  type: "InnerProduct"
  bottom: "1_pool3"
  top: "1_ip1"
  param {
    lr_mult: 1
  }
  param {
    lr_mult: 2
  }
  inner_product_param {
    num_output: 64
    weight_filler {
      type: "gaussian"
      std: 0.1
    }
    bias_filler {
      type: "constant"
    }
  }
}
layer {
  name: "1_ip2"
  type: "InnerProduct"
  bottom: "1_ip1"
  top: "1_ip2"
  param {
    lr_mult: 1
  }
  param {
    lr_mult: 2
  }
  inner_product_param {
    num_output: 10
    weight_filler {
      type: "gaussian"
      std: 0.1
    }
    bias_filler {
      type: "constant"
    }
  }
}
layer {
  name: "1_prob"
  type: "Softmax"
  bottom: "1_ip2"
  top: "1_prob"
}
layer {
  name: "2_conv1"
  type: "Convolution"
  bottom: "data"
  top: "2_conv1"
  param {
    lr_mult: 1
  }
  param {
    lr_mult: 2
  }
  convolution_param {
    num_output: 32
    pad: 2
    kernel_size: 5
    stride: 1
    weight_filler {
      type: "gaussian"
      std: 0.0001
    }
    bias_filler {
      type: "constant"
    }
  }
}
layer {
  name: "2_pool1"
  type: "Pooling"
  bottom: "2_conv1"
  top: "2_pool1"
  pooling_param {
    pool: MAX
    kernel_size: 3
    stride: 2
  }
}
layer {
  name: "2_relu1"
  type: "ReLU"
  bottom: "2_pool1"
  top: "2_pool1"
}
layer {
  name: "2_conv2"
  type: "Convolution"
  bottom: "2_pool1"
  top: "2_conv2"
  param {
    lr_mult: 1
  }
  param {
    lr_mult: 2
  }
  convolution_param {
    num_output: 32
    pad: 2
    kernel_size: 5
    stride: 1
    weight_filler {
      type: "gaussian"
      std: 0.01
    }
    bias_filler {
      type: "constant"
    }
  }
}
layer {
  name: "2_relu2"
  type: "ReLU"
  bottom: "2_conv2"
  top: "2_conv2"
}
layer {
  name: "2_pool2"
  type: "Pooling"
  bottom: "2_conv2"
  top: "2_pool2"
  pooling_param {
    pool: AVE
    kernel_size: 3
    stride: 2
  }
}
layer {
  name: "2_conv3"
  type: "Convolution"
  bottom: "2_pool2"
  top: "2_conv3"
  param {
    lr_mult: 1
  }
  param {
    lr_mult: 2
  }
  convolution_param {
    num_output: 64
    pad: 2
    kernel_size: 5
    stride: 1
    weight_filler {
      type: "gaussian"
      std: 0.01
    }
    bias_filler {
      type: "constant"
    }
  }
}
layer {
  name: "2_relu3"
  type: "ReLU"
  bottom: "2_conv3"
  top: "2_conv3"
}
layer {
  name: "2_pool3"
  type: "Pooling"
  bottom: "2_conv3"
  top: "2_pool3"
  pooling_param {
    pool: AVE
    kernel_size: 3
    stride: 2
  }
}
layer {
  name: "2_ip1"
  type: "InnerProduct"
  bottom: "2_pool3"
  top: "2_ip1"
  param {
    lr_mult: 1
  }
  param {
    lr_mult: 2
  }
  inner_product_param {
    num_output: 64
    weight_filler {
      type: "gaussian"
      std: 0.1
    }
    bias_filler {
      type: "constant"
    }
  }
}
layer {
  name: "2_ip2"
  type: "InnerProduct"
  bottom: "2_ip1"
  top: "2_ip2"
  param {
    lr_mult: 1
  }
  param {
    lr_mult: 2
  }
  inner_product_param {
    num_output: 10
    weight_filler {
      type: "gaussian"
      std: 0.1
    }
    bias_filler {
      type: "constant"
    }
  }
}
layer {
  name: "2_prob"
  type: "Softmax"
  bottom: "2_ip2"
  top: "2_prob"
}
layer {
  name: "3_conv1"
  type: "Convolution"
  bottom: "data"
  top: "3_conv1"
  param {
    lr_mult: 1
  }
  param {
    lr_mult: 2
  }
  convolution_param {
    num_output: 32
    pad: 2
    kernel_size: 5
    stride: 1
    weight_filler {
      type: "gaussian"
      std: 0.0001
    }
    bias_filler {
      type: "constant"
    }
  }
}
layer {
  name: "3_pool1"
  type: "Pooling"
  bottom: "3_conv1"
  top: "3_pool1"
  pooling_param {
    pool: MAX
    kernel_size: 3
    stride: 2
  }
}
layer {
  name: "3_relu1"
  type: "ReLU"
  bottom: "3_pool1"
  top: "3_pool1"
}
layer {
  name: "3_conv2"
  type: "Convolution"
  bottom: "3_pool1"
  top: "3_conv2"
  param {
    lr_mult: 1
  }
  param {
    lr_mult: 2
  }
  convolution_param {
    num_output: 32
    pad: 2
    kernel_size: 5
    stride: 1
    weight_filler {
      type: "gaussian"
      std: 0.01
    }
    bias_filler {
      type: "constant"
    }
  }
}
layer {
  name: "3_relu2"
  type: "ReLU"
  bottom: "3_conv2"
  top: "3_conv2"
}
layer {
  name: "3_pool2"
  type: "Pooling"
  bottom: "3_conv2"
  top: "3_pool2"
  pooling_param {
    pool: AVE
    kernel_size: 3
    stride: 2
  }
}
layer {
  name: "3_conv3"
  type: "Convolution"
  bottom: "3_pool2"
  top: "3_conv3"
  param {
    lr_mult: 1
  }
  param {
    lr_mult: 2
  }
  convolution_param {
    num_output: 64
    pad: 2
    kernel_size: 5
    stride: 1
    weight_filler {
      type: "gaussian"
      std: 0.01
    }
    bias_filler {
      type: "constant"
    }
  }
}
layer {
  name: "3_relu3"
  type: "ReLU"
  bottom: "3_conv3"
  top: "3_conv3"
}
layer {
  name: "3_pool3"
  type: "Pooling"
  bottom: "3_conv3"
  top: "3_pool3"
  pooling_param {
    pool: AVE
    kernel_size: 3
    stride: 2
  }
}
layer {
  name: "3_ip1"
  type: "InnerProduct"
  bottom: "3_pool3"
  top: "3_ip1"
  param {
    lr_mult: 1
  }
  param {
    lr_mult: 2
  }
  inner_product_param {
    num_output: 64
    weight_filler {
      type: "gaussian"
      std: 0.1
    }
    bias_filler {
      type: "constant"
    }
  }
}
layer {
  name: "3_ip2"
  type: "InnerProduct"
  bottom: "3_ip1"
  top: "3_ip2"
  param {
    lr_mult: 1
  }
  param {
    lr_mult: 2
  }
  inner_product_param {
    num_output: 10
    weight_filler {
      type: "gaussian"
      std: 0.1
    }
    bias_filler {
      type: "constant"
    }
  }
}
layer {
  name: "3_prob"
  type: "Softmax"
  bottom: "3_ip2"
  top: "3_prob"
}
layer {
  name: "4_conv1"
  type: "Convolution"
  bottom: "data"
  top: "4_conv1"
  param {
    lr_mult: 1
  }
  param {
    lr_mult: 2
  }
  convolution_param {
    num_output: 32
    pad: 2
    kernel_size: 5
    stride: 1
    weight_filler {
      type: "gaussian"
      std: 0.0001
    }
    bias_filler {
      type: "constant"
    }
  }
}
layer {
  name: "4_pool1"
  type: "Pooling"
  bottom: "4_conv1"
  top: "4_pool1"
  pooling_param {
    pool: MAX
    kernel_size: 3
    stride: 2
  }
}
layer {
  name: "4_relu1"
  type: "ReLU"
  bottom: "4_pool1"
  top: "4_pool1"
}
layer {
  name: "4_conv2"
  type: "Convolution"
  bottom: "4_pool1"
  top: "4_conv2"
  param {
    lr_mult: 1
  }
  param {
    lr_mult: 2
  }
  convolution_param {
    num_output: 32
    pad: 2
    kernel_size: 5
    stride: 1
    weight_filler {
      type: "gaussian"
      std: 0.01
    }
    bias_filler {
      type: "constant"
    }
  }
}
layer {
  name: "4_relu2"
  type: "ReLU"
  bottom: "4_conv2"
  top: "4_conv2"
}
layer {
  name: "4_pool2"
  type: "Pooling"
  bottom: "4_conv2"
  top: "4_pool2"
  pooling_param {
    pool: AVE
    kernel_size: 3
    stride: 2
  }
}
layer {
  name: "4_conv3"
  type: "Convolution"
  bottom: "4_pool2"
  top: "4_conv3"
  param {
    lr_mult: 1
  }
  param {
    lr_mult: 2
  }
  convolution_param {
    num_output: 64
    pad: 2
    kernel_size: 5
    stride: 1
    weight_filler {
      type: "gaussian"
      std: 0.01
    }
    bias_filler {
      type: "constant"
    }
  }
}
layer {
  name: "4_relu3"
  type: "ReLU"
  bottom: "4_conv3"
  top: "4_conv3"
}
layer {
  name: "4_pool3"
  type: "Pooling"
  bottom: "4_conv3"
  top: "4_pool3"
  pooling_param {
    pool: AVE
    kernel_size: 3
    stride: 2
  }
}
layer {
  name: "4_ip1"
  type: "InnerProduct"
  bottom: "4_pool3"
  top: "4_ip1"
  param {
    lr_mult: 1
  }
  param {
    lr_mult: 2
  }
  inner_product_param {
    num_output: 64
    weight_filler {
      type: "gaussian"
      std: 0.1
    }
    bias_filler {
      type: "constant"
    }
  }
}
layer {
  name: "4_ip2"
  type: "InnerProduct"
  bottom: "4_ip1"
  top: "4_ip2"
  param {
    lr_mult: 1
  }
  param {
    lr_mult: 2
  }
  inner_product_param {
    num_output: 10
    weight_filler {
      type: "gaussian"
      std: 0.1
    }
    bias_filler {
      type: "constant"
    }
  }
}
layer {
  name: "4_prob"
  type: "Softmax"
  bottom: "4_ip2"
  top: "4_prob"
}
layer {
  name: "loss"
  type: "ODMultinomialLogisticLoss"
  bottom: "1_prob"
  bottom: "2_prob"
  bottom: "3_prob"
  bottom: "4_prob"
  bottom: "label"
  top: "multiple-output loss"
  top: "batch-instance-counts"
  top: "train-instance-counts"
  loss_weight: 1
  loss_weight: 0
  loss_weight: 0
  include {
    phase: TRAIN
  }
}
I0127 01:21:52.137543  7196 layer_factory.hpp:74] Creating layer cifar
I0127 01:21:52.137562  7196 net.cpp:90] Creating Layer cifar
I0127 01:21:52.137568  7196 net.cpp:368] cifar -> data
I0127 01:21:52.137586  7196 net.cpp:368] cifar -> label
I0127 01:21:52.137593  7196 net.cpp:120] Setting up cifar
I0127 01:21:52.137639  7196 db.cpp:34] Opened lmdb /home/mike/ml_lab/mod/MCL_Caffe/examples/cifar10/cifar10_train_lmdb
I0127 01:21:52.137675  7196 data_layer.cpp:67] output data size: 350,3,32,32
I0127 01:21:52.137681  7196 data_transformer.cpp:22] Loading mean file from: /home/mike/ml_lab/mod/MCL_Caffe/examples/cifar10/mean.binaryproto
I0127 01:21:52.138432  7196 net.cpp:127] Top shape: 350 3 32 32 (1075200)
I0127 01:21:52.138439  7196 net.cpp:127] Top shape: 350 (350)
I0127 01:21:52.138442  7196 layer_factory.hpp:74] Creating layer data_cifar_0_split
I0127 01:21:52.138449  7196 net.cpp:90] Creating Layer data_cifar_0_split
I0127 01:21:52.138453  7196 net.cpp:410] data_cifar_0_split <- data
I0127 01:21:52.138461  7196 net.cpp:368] data_cifar_0_split -> data_cifar_0_split_0
I0127 01:21:52.138468  7196 net.cpp:368] data_cifar_0_split -> data_cifar_0_split_1
I0127 01:21:52.138471  7196 net.cpp:368] data_cifar_0_split -> data_cifar_0_split_2
I0127 01:21:52.138475  7196 net.cpp:368] data_cifar_0_split -> data_cifar_0_split_3
I0127 01:21:52.138478  7196 net.cpp:120] Setting up data_cifar_0_split
I0127 01:21:52.138483  7196 net.cpp:127] Top shape: 350 3 32 32 (1075200)
I0127 01:21:52.138485  7196 net.cpp:127] Top shape: 350 3 32 32 (1075200)
I0127 01:21:52.138489  7196 net.cpp:127] Top shape: 350 3 32 32 (1075200)
I0127 01:21:52.138490  7196 net.cpp:127] Top shape: 350 3 32 32 (1075200)
I0127 01:21:52.138492  7196 layer_factory.hpp:74] Creating layer 1_conv1
I0127 01:21:52.138499  7196 net.cpp:90] Creating Layer 1_conv1
I0127 01:21:52.138500  7196 net.cpp:410] 1_conv1 <- data_cifar_0_split_0
I0127 01:21:52.138504  7196 net.cpp:368] 1_conv1 -> 1_conv1
I0127 01:21:52.138510  7196 net.cpp:120] Setting up 1_conv1
I0127 01:21:52.138908  7196 net.cpp:127] Top shape: 350 32 32 32 (11468800)
I0127 01:21:52.138917  7196 layer_factory.hpp:74] Creating layer 1_pool1
I0127 01:21:52.138921  7196 net.cpp:90] Creating Layer 1_pool1
I0127 01:21:52.138923  7196 net.cpp:410] 1_pool1 <- 1_conv1
I0127 01:21:52.138926  7196 net.cpp:368] 1_pool1 -> 1_pool1
I0127 01:21:52.138931  7196 net.cpp:120] Setting up 1_pool1
I0127 01:21:52.138942  7196 net.cpp:127] Top shape: 350 32 16 16 (2867200)
I0127 01:21:52.138943  7196 layer_factory.hpp:74] Creating layer 1_relu1
I0127 01:21:52.138947  7196 net.cpp:90] Creating Layer 1_relu1
I0127 01:21:52.138949  7196 net.cpp:410] 1_relu1 <- 1_pool1
I0127 01:21:52.138952  7196 net.cpp:357] 1_relu1 -> 1_pool1 (in-place)
I0127 01:21:52.138954  7196 net.cpp:120] Setting up 1_relu1
I0127 01:21:52.138959  7196 net.cpp:127] Top shape: 350 32 16 16 (2867200)
I0127 01:21:52.138962  7196 layer_factory.hpp:74] Creating layer 1_conv2
I0127 01:21:52.138964  7196 net.cpp:90] Creating Layer 1_conv2
I0127 01:21:52.138967  7196 net.cpp:410] 1_conv2 <- 1_pool1
I0127 01:21:52.138969  7196 net.cpp:368] 1_conv2 -> 1_conv2
I0127 01:21:52.138973  7196 net.cpp:120] Setting up 1_conv2
I0127 01:21:52.139550  7196 net.cpp:127] Top shape: 350 32 16 16 (2867200)
I0127 01:21:52.139556  7196 layer_factory.hpp:74] Creating layer 1_relu2
I0127 01:21:52.139559  7196 net.cpp:90] Creating Layer 1_relu2
I0127 01:21:52.139561  7196 net.cpp:410] 1_relu2 <- 1_conv2
I0127 01:21:52.139564  7196 net.cpp:357] 1_relu2 -> 1_conv2 (in-place)
I0127 01:21:52.139566  7196 net.cpp:120] Setting up 1_relu2
I0127 01:21:52.139569  7196 net.cpp:127] Top shape: 350 32 16 16 (2867200)
I0127 01:21:52.139570  7196 layer_factory.hpp:74] Creating layer 1_pool2
I0127 01:21:52.139574  7196 net.cpp:90] Creating Layer 1_pool2
I0127 01:21:52.139575  7196 net.cpp:410] 1_pool2 <- 1_conv2
I0127 01:21:52.139578  7196 net.cpp:368] 1_pool2 -> 1_pool2
I0127 01:21:52.139581  7196 net.cpp:120] Setting up 1_pool2
I0127 01:21:52.139585  7196 net.cpp:127] Top shape: 350 32 8 8 (716800)
I0127 01:21:52.139587  7196 layer_factory.hpp:74] Creating layer 1_conv3
I0127 01:21:52.139591  7196 net.cpp:90] Creating Layer 1_conv3
I0127 01:21:52.139593  7196 net.cpp:410] 1_conv3 <- 1_pool2
I0127 01:21:52.139596  7196 net.cpp:368] 1_conv3 -> 1_conv3
I0127 01:21:52.139600  7196 net.cpp:120] Setting up 1_conv3
I0127 01:21:52.140753  7196 net.cpp:127] Top shape: 350 64 8 8 (1433600)
I0127 01:21:52.140759  7196 layer_factory.hpp:74] Creating layer 1_relu3
I0127 01:21:52.140763  7196 net.cpp:90] Creating Layer 1_relu3
I0127 01:21:52.140764  7196 net.cpp:410] 1_relu3 <- 1_conv3
I0127 01:21:52.140768  7196 net.cpp:357] 1_relu3 -> 1_conv3 (in-place)
I0127 01:21:52.140770  7196 net.cpp:120] Setting up 1_relu3
I0127 01:21:52.140774  7196 net.cpp:127] Top shape: 350 64 8 8 (1433600)
I0127 01:21:52.140775  7196 layer_factory.hpp:74] Creating layer 1_pool3
I0127 01:21:52.140777  7196 net.cpp:90] Creating Layer 1_pool3
I0127 01:21:52.140779  7196 net.cpp:410] 1_pool3 <- 1_conv3
I0127 01:21:52.140782  7196 net.cpp:368] 1_pool3 -> 1_pool3
I0127 01:21:52.140785  7196 net.cpp:120] Setting up 1_pool3
I0127 01:21:52.140789  7196 net.cpp:127] Top shape: 350 64 4 4 (358400)
I0127 01:21:52.140790  7196 layer_factory.hpp:74] Creating layer 1_ip1
I0127 01:21:52.140795  7196 net.cpp:90] Creating Layer 1_ip1
I0127 01:21:52.140796  7196 net.cpp:410] 1_ip1 <- 1_pool3
I0127 01:21:52.140799  7196 net.cpp:368] 1_ip1 -> 1_ip1
I0127 01:21:52.140803  7196 net.cpp:120] Setting up 1_ip1
I0127 01:21:52.142276  7196 net.cpp:127] Top shape: 350 64 (22400)
I0127 01:21:52.142282  7196 layer_factory.hpp:74] Creating layer 1_ip2
I0127 01:21:52.142285  7196 net.cpp:90] Creating Layer 1_ip2
I0127 01:21:52.142287  7196 net.cpp:410] 1_ip2 <- 1_ip1
I0127 01:21:52.142292  7196 net.cpp:368] 1_ip2 -> 1_ip2
I0127 01:21:52.142294  7196 net.cpp:120] Setting up 1_ip2
I0127 01:21:52.142315  7196 net.cpp:127] Top shape: 350 10 (3500)
I0127 01:21:52.142320  7196 layer_factory.hpp:74] Creating layer 1_prob
I0127 01:21:52.142324  7196 net.cpp:90] Creating Layer 1_prob
I0127 01:21:52.142326  7196 net.cpp:410] 1_prob <- 1_ip2
I0127 01:21:52.142334  7196 net.cpp:368] 1_prob -> 1_prob
I0127 01:21:52.142338  7196 net.cpp:120] Setting up 1_prob
I0127 01:21:52.142346  7196 net.cpp:127] Top shape: 350 10 (3500)
I0127 01:21:52.142349  7196 layer_factory.hpp:74] Creating layer 2_conv1
I0127 01:21:52.142354  7196 net.cpp:90] Creating Layer 2_conv1
I0127 01:21:52.142355  7196 net.cpp:410] 2_conv1 <- data_cifar_0_split_1
I0127 01:21:52.142359  7196 net.cpp:368] 2_conv1 -> 2_conv1
I0127 01:21:52.142362  7196 net.cpp:120] Setting up 2_conv1
I0127 01:21:52.142424  7196 net.cpp:127] Top shape: 350 32 32 32 (11468800)
I0127 01:21:52.142429  7196 layer_factory.hpp:74] Creating layer 2_pool1
I0127 01:21:52.142432  7196 net.cpp:90] Creating Layer 2_pool1
I0127 01:21:52.142434  7196 net.cpp:410] 2_pool1 <- 2_conv1
I0127 01:21:52.142437  7196 net.cpp:368] 2_pool1 -> 2_pool1
I0127 01:21:52.142441  7196 net.cpp:120] Setting up 2_pool1
I0127 01:21:52.142446  7196 net.cpp:127] Top shape: 350 32 16 16 (2867200)
I0127 01:21:52.142446  7196 layer_factory.hpp:74] Creating layer 2_relu1
I0127 01:21:52.142452  7196 net.cpp:90] Creating Layer 2_relu1
I0127 01:21:52.142453  7196 net.cpp:410] 2_relu1 <- 2_pool1
I0127 01:21:52.142455  7196 net.cpp:357] 2_relu1 -> 2_pool1 (in-place)
I0127 01:21:52.142457  7196 net.cpp:120] Setting up 2_relu1
I0127 01:21:52.142460  7196 net.cpp:127] Top shape: 350 32 16 16 (2867200)
I0127 01:21:52.142462  7196 layer_factory.hpp:74] Creating layer 2_conv2
I0127 01:21:52.142465  7196 net.cpp:90] Creating Layer 2_conv2
I0127 01:21:52.142467  7196 net.cpp:410] 2_conv2 <- 2_pool1
I0127 01:21:52.142470  7196 net.cpp:368] 2_conv2 -> 2_conv2
I0127 01:21:52.142473  7196 net.cpp:120] Setting up 2_conv2
I0127 01:21:52.143067  7196 net.cpp:127] Top shape: 350 32 16 16 (2867200)
I0127 01:21:52.143072  7196 layer_factory.hpp:74] Creating layer 2_relu2
I0127 01:21:52.143075  7196 net.cpp:90] Creating Layer 2_relu2
I0127 01:21:52.143077  7196 net.cpp:410] 2_relu2 <- 2_conv2
I0127 01:21:52.143079  7196 net.cpp:357] 2_relu2 -> 2_conv2 (in-place)
I0127 01:21:52.143082  7196 net.cpp:120] Setting up 2_relu2
I0127 01:21:52.143085  7196 net.cpp:127] Top shape: 350 32 16 16 (2867200)
I0127 01:21:52.143087  7196 layer_factory.hpp:74] Creating layer 2_pool2
I0127 01:21:52.143090  7196 net.cpp:90] Creating Layer 2_pool2
I0127 01:21:52.143097  7196 net.cpp:410] 2_pool2 <- 2_conv2
I0127 01:21:52.143101  7196 net.cpp:368] 2_pool2 -> 2_pool2
I0127 01:21:52.143105  7196 net.cpp:120] Setting up 2_pool2
I0127 01:21:52.143108  7196 net.cpp:127] Top shape: 350 32 8 8 (716800)
I0127 01:21:52.143110  7196 layer_factory.hpp:74] Creating layer 2_conv3
I0127 01:21:52.143115  7196 net.cpp:90] Creating Layer 2_conv3
I0127 01:21:52.143115  7196 net.cpp:410] 2_conv3 <- 2_pool2
I0127 01:21:52.143120  7196 net.cpp:368] 2_conv3 -> 2_conv3
I0127 01:21:52.143122  7196 net.cpp:120] Setting up 2_conv3
I0127 01:21:52.144268  7196 net.cpp:127] Top shape: 350 64 8 8 (1433600)
I0127 01:21:52.144273  7196 layer_factory.hpp:74] Creating layer 2_relu3
I0127 01:21:52.144278  7196 net.cpp:90] Creating Layer 2_relu3
I0127 01:21:52.144279  7196 net.cpp:410] 2_relu3 <- 2_conv3
I0127 01:21:52.144281  7196 net.cpp:357] 2_relu3 -> 2_conv3 (in-place)
I0127 01:21:52.144284  7196 net.cpp:120] Setting up 2_relu3
I0127 01:21:52.144286  7196 net.cpp:127] Top shape: 350 64 8 8 (1433600)
I0127 01:21:52.144289  7196 layer_factory.hpp:74] Creating layer 2_pool3
I0127 01:21:52.144291  7196 net.cpp:90] Creating Layer 2_pool3
I0127 01:21:52.144294  7196 net.cpp:410] 2_pool3 <- 2_conv3
I0127 01:21:52.144296  7196 net.cpp:368] 2_pool3 -> 2_pool3
I0127 01:21:52.144299  7196 net.cpp:120] Setting up 2_pool3
I0127 01:21:52.144302  7196 net.cpp:127] Top shape: 350 64 4 4 (358400)
I0127 01:21:52.144304  7196 layer_factory.hpp:74] Creating layer 2_ip1
I0127 01:21:52.144307  7196 net.cpp:90] Creating Layer 2_ip1
I0127 01:21:52.144309  7196 net.cpp:410] 2_ip1 <- 2_pool3
I0127 01:21:52.144314  7196 net.cpp:368] 2_ip1 -> 2_ip1
I0127 01:21:52.144316  7196 net.cpp:120] Setting up 2_ip1
I0127 01:21:52.145781  7196 net.cpp:127] Top shape: 350 64 (22400)
I0127 01:21:52.145788  7196 layer_factory.hpp:74] Creating layer 2_ip2
I0127 01:21:52.145793  7196 net.cpp:90] Creating Layer 2_ip2
I0127 01:21:52.145795  7196 net.cpp:410] 2_ip2 <- 2_ip1
I0127 01:21:52.145798  7196 net.cpp:368] 2_ip2 -> 2_ip2
I0127 01:21:52.145802  7196 net.cpp:120] Setting up 2_ip2
I0127 01:21:52.145824  7196 net.cpp:127] Top shape: 350 10 (3500)
I0127 01:21:52.145828  7196 layer_factory.hpp:74] Creating layer 2_prob
I0127 01:21:52.145831  7196 net.cpp:90] Creating Layer 2_prob
I0127 01:21:52.145833  7196 net.cpp:410] 2_prob <- 2_ip2
I0127 01:21:52.145835  7196 net.cpp:368] 2_prob -> 2_prob
I0127 01:21:52.145838  7196 net.cpp:120] Setting up 2_prob
I0127 01:21:52.145843  7196 net.cpp:127] Top shape: 350 10 (3500)
I0127 01:21:52.145845  7196 layer_factory.hpp:74] Creating layer 3_conv1
I0127 01:21:52.145848  7196 net.cpp:90] Creating Layer 3_conv1
I0127 01:21:52.145850  7196 net.cpp:410] 3_conv1 <- data_cifar_0_split_2
I0127 01:21:52.145854  7196 net.cpp:368] 3_conv1 -> 3_conv1
I0127 01:21:52.145858  7196 net.cpp:120] Setting up 3_conv1
I0127 01:21:52.145918  7196 net.cpp:127] Top shape: 350 32 32 32 (11468800)
I0127 01:21:52.145922  7196 layer_factory.hpp:74] Creating layer 3_pool1
I0127 01:21:52.145925  7196 net.cpp:90] Creating Layer 3_pool1
I0127 01:21:52.145927  7196 net.cpp:410] 3_pool1 <- 3_conv1
I0127 01:21:52.145931  7196 net.cpp:368] 3_pool1 -> 3_pool1
I0127 01:21:52.145933  7196 net.cpp:120] Setting up 3_pool1
I0127 01:21:52.145936  7196 net.cpp:127] Top shape: 350 32 16 16 (2867200)
I0127 01:21:52.145938  7196 layer_factory.hpp:74] Creating layer 3_relu1
I0127 01:21:52.145941  7196 net.cpp:90] Creating Layer 3_relu1
I0127 01:21:52.145943  7196 net.cpp:410] 3_relu1 <- 3_pool1
I0127 01:21:52.145946  7196 net.cpp:357] 3_relu1 -> 3_pool1 (in-place)
I0127 01:21:52.145949  7196 net.cpp:120] Setting up 3_relu1
I0127 01:21:52.145951  7196 net.cpp:127] Top shape: 350 32 16 16 (2867200)
I0127 01:21:52.145953  7196 layer_factory.hpp:74] Creating layer 3_conv2
I0127 01:21:52.145957  7196 net.cpp:90] Creating Layer 3_conv2
I0127 01:21:52.145959  7196 net.cpp:410] 3_conv2 <- 3_pool1
I0127 01:21:52.145961  7196 net.cpp:368] 3_conv2 -> 3_conv2
I0127 01:21:52.145964  7196 net.cpp:120] Setting up 3_conv2
I0127 01:21:52.146540  7196 net.cpp:127] Top shape: 350 32 16 16 (2867200)
I0127 01:21:52.146551  7196 layer_factory.hpp:74] Creating layer 3_relu2
I0127 01:21:52.146554  7196 net.cpp:90] Creating Layer 3_relu2
I0127 01:21:52.146556  7196 net.cpp:410] 3_relu2 <- 3_conv2
I0127 01:21:52.146559  7196 net.cpp:357] 3_relu2 -> 3_conv2 (in-place)
I0127 01:21:52.146562  7196 net.cpp:120] Setting up 3_relu2
I0127 01:21:52.146565  7196 net.cpp:127] Top shape: 350 32 16 16 (2867200)
I0127 01:21:52.146567  7196 layer_factory.hpp:74] Creating layer 3_pool2
I0127 01:21:52.146569  7196 net.cpp:90] Creating Layer 3_pool2
I0127 01:21:52.146571  7196 net.cpp:410] 3_pool2 <- 3_conv2
I0127 01:21:52.146574  7196 net.cpp:368] 3_pool2 -> 3_pool2
I0127 01:21:52.146577  7196 net.cpp:120] Setting up 3_pool2
I0127 01:21:52.146580  7196 net.cpp:127] Top shape: 350 32 8 8 (716800)
I0127 01:21:52.146582  7196 layer_factory.hpp:74] Creating layer 3_conv3
I0127 01:21:52.146587  7196 net.cpp:90] Creating Layer 3_conv3
I0127 01:21:52.146589  7196 net.cpp:410] 3_conv3 <- 3_pool2
I0127 01:21:52.146594  7196 net.cpp:368] 3_conv3 -> 3_conv3
I0127 01:21:52.146596  7196 net.cpp:120] Setting up 3_conv3
I0127 01:21:52.147739  7196 net.cpp:127] Top shape: 350 64 8 8 (1433600)
I0127 01:21:52.147744  7196 layer_factory.hpp:74] Creating layer 3_relu3
I0127 01:21:52.147747  7196 net.cpp:90] Creating Layer 3_relu3
I0127 01:21:52.147749  7196 net.cpp:410] 3_relu3 <- 3_conv3
I0127 01:21:52.147753  7196 net.cpp:357] 3_relu3 -> 3_conv3 (in-place)
I0127 01:21:52.147755  7196 net.cpp:120] Setting up 3_relu3
I0127 01:21:52.147758  7196 net.cpp:127] Top shape: 350 64 8 8 (1433600)
I0127 01:21:52.147760  7196 layer_factory.hpp:74] Creating layer 3_pool3
I0127 01:21:52.147763  7196 net.cpp:90] Creating Layer 3_pool3
I0127 01:21:52.147764  7196 net.cpp:410] 3_pool3 <- 3_conv3
I0127 01:21:52.147768  7196 net.cpp:368] 3_pool3 -> 3_pool3
I0127 01:21:52.147771  7196 net.cpp:120] Setting up 3_pool3
I0127 01:21:52.147774  7196 net.cpp:127] Top shape: 350 64 4 4 (358400)
I0127 01:21:52.147776  7196 layer_factory.hpp:74] Creating layer 3_ip1
I0127 01:21:52.147779  7196 net.cpp:90] Creating Layer 3_ip1
I0127 01:21:52.147781  7196 net.cpp:410] 3_ip1 <- 3_pool3
I0127 01:21:52.147784  7196 net.cpp:368] 3_ip1 -> 3_ip1
I0127 01:21:52.147788  7196 net.cpp:120] Setting up 3_ip1
I0127 01:21:52.149278  7196 net.cpp:127] Top shape: 350 64 (22400)
I0127 01:21:52.149284  7196 layer_factory.hpp:74] Creating layer 3_ip2
I0127 01:21:52.149288  7196 net.cpp:90] Creating Layer 3_ip2
I0127 01:21:52.149291  7196 net.cpp:410] 3_ip2 <- 3_ip1
I0127 01:21:52.149294  7196 net.cpp:368] 3_ip2 -> 3_ip2
I0127 01:21:52.149297  7196 net.cpp:120] Setting up 3_ip2
I0127 01:21:52.149319  7196 net.cpp:127] Top shape: 350 10 (3500)
I0127 01:21:52.149323  7196 layer_factory.hpp:74] Creating layer 3_prob
I0127 01:21:52.149327  7196 net.cpp:90] Creating Layer 3_prob
I0127 01:21:52.149329  7196 net.cpp:410] 3_prob <- 3_ip2
I0127 01:21:52.149332  7196 net.cpp:368] 3_prob -> 3_prob
I0127 01:21:52.149335  7196 net.cpp:120] Setting up 3_prob
I0127 01:21:52.149340  7196 net.cpp:127] Top shape: 350 10 (3500)
I0127 01:21:52.149343  7196 layer_factory.hpp:74] Creating layer 4_conv1
I0127 01:21:52.149346  7196 net.cpp:90] Creating Layer 4_conv1
I0127 01:21:52.149348  7196 net.cpp:410] 4_conv1 <- data_cifar_0_split_3
I0127 01:21:52.149353  7196 net.cpp:368] 4_conv1 -> 4_conv1
I0127 01:21:52.149358  7196 net.cpp:120] Setting up 4_conv1
I0127 01:21:52.149417  7196 net.cpp:127] Top shape: 350 32 32 32 (11468800)
I0127 01:21:52.149422  7196 layer_factory.hpp:74] Creating layer 4_pool1
I0127 01:21:52.149425  7196 net.cpp:90] Creating Layer 4_pool1
I0127 01:21:52.149427  7196 net.cpp:410] 4_pool1 <- 4_conv1
I0127 01:21:52.149430  7196 net.cpp:368] 4_pool1 -> 4_pool1
I0127 01:21:52.149432  7196 net.cpp:120] Setting up 4_pool1
I0127 01:21:52.149436  7196 net.cpp:127] Top shape: 350 32 16 16 (2867200)
I0127 01:21:52.149438  7196 layer_factory.hpp:74] Creating layer 4_relu1
I0127 01:21:52.149441  7196 net.cpp:90] Creating Layer 4_relu1
I0127 01:21:52.149443  7196 net.cpp:410] 4_relu1 <- 4_pool1
I0127 01:21:52.149452  7196 net.cpp:357] 4_relu1 -> 4_pool1 (in-place)
I0127 01:21:52.149456  7196 net.cpp:120] Setting up 4_relu1
I0127 01:21:52.149458  7196 net.cpp:127] Top shape: 350 32 16 16 (2867200)
I0127 01:21:52.149461  7196 layer_factory.hpp:74] Creating layer 4_conv2
I0127 01:21:52.149464  7196 net.cpp:90] Creating Layer 4_conv2
I0127 01:21:52.149466  7196 net.cpp:410] 4_conv2 <- 4_pool1
I0127 01:21:52.149468  7196 net.cpp:368] 4_conv2 -> 4_conv2
I0127 01:21:52.149471  7196 net.cpp:120] Setting up 4_conv2
I0127 01:21:52.150045  7196 net.cpp:127] Top shape: 350 32 16 16 (2867200)
I0127 01:21:52.150053  7196 layer_factory.hpp:74] Creating layer 4_relu2
I0127 01:21:52.150056  7196 net.cpp:90] Creating Layer 4_relu2
I0127 01:21:52.150058  7196 net.cpp:410] 4_relu2 <- 4_conv2
I0127 01:21:52.150060  7196 net.cpp:357] 4_relu2 -> 4_conv2 (in-place)
I0127 01:21:52.150063  7196 net.cpp:120] Setting up 4_relu2
I0127 01:21:52.150066  7196 net.cpp:127] Top shape: 350 32 16 16 (2867200)
I0127 01:21:52.150068  7196 layer_factory.hpp:74] Creating layer 4_pool2
I0127 01:21:52.150070  7196 net.cpp:90] Creating Layer 4_pool2
I0127 01:21:52.150073  7196 net.cpp:410] 4_pool2 <- 4_conv2
I0127 01:21:52.150076  7196 net.cpp:368] 4_pool2 -> 4_pool2
I0127 01:21:52.150080  7196 net.cpp:120] Setting up 4_pool2
I0127 01:21:52.150084  7196 net.cpp:127] Top shape: 350 32 8 8 (716800)
I0127 01:21:52.150085  7196 layer_factory.hpp:74] Creating layer 4_conv3
I0127 01:21:52.150089  7196 net.cpp:90] Creating Layer 4_conv3
I0127 01:21:52.150090  7196 net.cpp:410] 4_conv3 <- 4_pool2
I0127 01:21:52.150094  7196 net.cpp:368] 4_conv3 -> 4_conv3
I0127 01:21:52.150097  7196 net.cpp:120] Setting up 4_conv3
I0127 01:21:52.151242  7196 net.cpp:127] Top shape: 350 64 8 8 (1433600)
I0127 01:21:52.151247  7196 layer_factory.hpp:74] Creating layer 4_relu3
I0127 01:21:52.151250  7196 net.cpp:90] Creating Layer 4_relu3
I0127 01:21:52.151252  7196 net.cpp:410] 4_relu3 <- 4_conv3
I0127 01:21:52.151254  7196 net.cpp:357] 4_relu3 -> 4_conv3 (in-place)
I0127 01:21:52.151257  7196 net.cpp:120] Setting up 4_relu3
I0127 01:21:52.151259  7196 net.cpp:127] Top shape: 350 64 8 8 (1433600)
I0127 01:21:52.151262  7196 layer_factory.hpp:74] Creating layer 4_pool3
I0127 01:21:52.151264  7196 net.cpp:90] Creating Layer 4_pool3
I0127 01:21:52.151267  7196 net.cpp:410] 4_pool3 <- 4_conv3
I0127 01:21:52.151269  7196 net.cpp:368] 4_pool3 -> 4_pool3
I0127 01:21:52.151271  7196 net.cpp:120] Setting up 4_pool3
I0127 01:21:52.151274  7196 net.cpp:127] Top shape: 350 64 4 4 (358400)
I0127 01:21:52.151276  7196 layer_factory.hpp:74] Creating layer 4_ip1
I0127 01:21:52.151280  7196 net.cpp:90] Creating Layer 4_ip1
I0127 01:21:52.151281  7196 net.cpp:410] 4_ip1 <- 4_pool3
I0127 01:21:52.151285  7196 net.cpp:368] 4_ip1 -> 4_ip1
I0127 01:21:52.151288  7196 net.cpp:120] Setting up 4_ip1
I0127 01:21:52.152750  7196 net.cpp:127] Top shape: 350 64 (22400)
I0127 01:21:52.152755  7196 layer_factory.hpp:74] Creating layer 4_ip2
I0127 01:21:52.152760  7196 net.cpp:90] Creating Layer 4_ip2
I0127 01:21:52.152761  7196 net.cpp:410] 4_ip2 <- 4_ip1
I0127 01:21:52.152765  7196 net.cpp:368] 4_ip2 -> 4_ip2
I0127 01:21:52.152767  7196 net.cpp:120] Setting up 4_ip2
I0127 01:21:52.152789  7196 net.cpp:127] Top shape: 350 10 (3500)
I0127 01:21:52.152793  7196 layer_factory.hpp:74] Creating layer 4_prob
I0127 01:21:52.152796  7196 net.cpp:90] Creating Layer 4_prob
I0127 01:21:52.152798  7196 net.cpp:410] 4_prob <- 4_ip2
I0127 01:21:52.152801  7196 net.cpp:368] 4_prob -> 4_prob
I0127 01:21:52.152803  7196 net.cpp:120] Setting up 4_prob
I0127 01:21:52.152807  7196 net.cpp:127] Top shape: 350 10 (3500)
I0127 01:21:52.152809  7196 layer_factory.hpp:74] Creating layer loss
I0127 01:21:52.152815  7196 net.cpp:90] Creating Layer loss
I0127 01:21:52.152817  7196 net.cpp:410] loss <- 1_prob
I0127 01:21:52.152819  7196 net.cpp:410] loss <- 2_prob
I0127 01:21:52.152822  7196 net.cpp:410] loss <- 3_prob
I0127 01:21:52.152824  7196 net.cpp:410] loss <- 4_prob
I0127 01:21:52.152827  7196 net.cpp:410] loss <- label
I0127 01:21:52.152835  7196 net.cpp:368] loss -> multiple-output loss
I0127 01:21:52.152840  7196 net.cpp:368] loss -> batch-instance-counts
I0127 01:21:52.152844  7196 net.cpp:368] loss -> train-instance-counts
I0127 01:21:52.152849  7196 net.cpp:120] Setting up loss
I0127 01:21:52.152856  7196 net.cpp:127] Top shape: 4 1 1 1 (4)
I0127 01:21:52.152858  7196 net.cpp:129]     with loss weight 1
I0127 01:21:52.152873  7196 net.cpp:127] Top shape: 4 1 1 1 (4)
I0127 01:21:52.152874  7196 net.cpp:127] Top shape: 4 1 1 1 (4)
I0127 01:21:52.152876  7196 net.cpp:192] loss needs backward computation.
I0127 01:21:52.152879  7196 net.cpp:192] 4_prob needs backward computation.
I0127 01:21:52.152881  7196 net.cpp:192] 4_ip2 needs backward computation.
I0127 01:21:52.152884  7196 net.cpp:192] 4_ip1 needs backward computation.
I0127 01:21:52.152885  7196 net.cpp:192] 4_pool3 needs backward computation.
I0127 01:21:52.152887  7196 net.cpp:192] 4_relu3 needs backward computation.
…
I0127 01:21:52.153834  7196 net.cpp:287] The NetState phase (1) differed from the phase (0) specified by a rule in layer loss
I0127 01:21:52.154002  7196 net.cpp:42] Initializing net from parameters: 
name: "CIFAR10_quick"
state {
  phase: TEST
}
layer {
  name: "cifar"
  type: "Data"
  top: "data"
  top: "label"
  include {
    phase: TEST
  }
  transform_param {
    mean_file: "/home/mike/ml_lab/mod/MCL_Caffe/examples/cifar10/mean.binaryproto"
  }
  data_param {
    source: "/home/mike/ml_lab/mod/MCL_Caffe/examples/cifar10/cifar10_test_lmdb"
    batch_size: 100
    backend: LMDB
  }
}
layer {
  name: "1_conv1"
  type: "Convolution"
  bottom: "data"
  top: "1_conv1"
  param {
    lr_mult: 1
  }
  param {
    lr_mult: 2
  }
  convolution_param {
    num_output: 32
    pad: 2
    kernel_size: 5
    stride: 1
    weight_filler {
      type: "gaussian"
      std: 0.0001
    }
    bias_filler {
      type: "constant"
    }
  }
}
layer {
  name: "1_pool1"
  type: "Pooling"
  bottom: "1_conv1"
  top: "1_pool1"
  pooling_param {
    pool: MAX
    kernel_size: 3
    stride: 2
  }
}
layer {
  name: "1_relu1"
  type: "ReLU"
  bottom: "1_pool1"
  top: "1_pool1"
}
layer {
  name: "1_conv2"
  type: "Convolution"
  bottom: "1_pool1"
  top: "1_conv2"
  param {
    lr_mult: 1
  }
  param {
    lr_mult: 2
  }
  convolution_param {
    num_output: 32
    pad: 2
    kernel_size: 5
    stride: 1
    weight_filler {
      type: "gaussian"
      std: 0.01
    }
    bias_filler {
      type: "constant"
    }
  }
}
layer {
  name: "1_relu2"
  type: "ReLU"
  bottom: "1_conv2"
  top: "1_conv2"
}
layer {
  name: "1_pool2"
  type: "Pooling"
  bottom: "1_conv2"
  top: "1_pool2"
  pooling_param {
    pool: AVE
    kernel_size: 3
    stride: 2
  }
}
layer {
  name: "1_conv3"
  type: "Convolution"
  bottom: "1_pool2"
  top: "1_conv3"
  param {
    lr_mult: 1
  }
  param {
    lr_mult: 2
  }
  convolution_param {
    num_output: 64
    pad: 2
    kernel_size: 5
    stride: 1
    weight_filler {
      type: "gaussian"
      std: 0.01
    }
    bias_filler {
      type: "constant"
    }
  }
}
layer {
  name: "1_relu3"
  type: "ReLU"
  bottom: "1_conv3"
  top: "1_conv3"
}
layer {
  name: "1_pool3"
  type: "Pooling"
  bottom: "1_conv3"
  top: "1_pool3"
  pooling_param {
    pool: AVE
    kernel_size: 3
    stride: 2
  }
}
layer {
  name: "1_ip1"
  type: "InnerProduct"
  bottom: "1_pool3"
  top: "1_ip1"
  param {
    lr_mult: 1
  }
  param {
    lr_mult: 2
  }
  inner_product_param {
    num_output: 64
    weight_filler {
      type: "gaussian"
      std: 0.1
    }
    bias_filler {
      type: "constant"
    }
  }
}
layer {
  name: "1_ip2"
  type: "InnerProduct"
  bottom: "1_ip1"
  top: "1_ip2"
  param {
    lr_mult: 1
  }
  param {
    lr_mult: 2
  }
  inner_product_param {
    num_output: 10
    weight_filler {
      type: "gaussian"
      std: 0.1
    }
    bias_filler {
      type: "constant"
    }
  }
}
layer {
  name: "1_prob"
  type: "Softmax"
  bottom: "1_ip2"
  top: "1_prob"
}
layer {
  name: "2_conv1"
  type: "Convolution"
  bottom: "data"
  top: "2_conv1"
  param {
    lr_mult: 1
  }
  param {
    lr_mult: 2
  }
  convolution_param {
    num_output: 32
    pad: 2
    kernel_size: 5
    stride: 1
    weight_filler {
      type: "gaussian"
      std: 0.0001
    }
    bias_filler {
      type: "constant"
    }
  }
}
layer {
  name: "2_pool1"
  type: "Pooling"
  bottom: "2_conv1"
  top: "2_pool1"
  pooling_param {
    pool: MAX
    kernel_size: 3
    stride: 2
  }
}
layer {
  name: "2_relu1"
  type: "ReLU"
  bottom: "2_pool1"
  top: "2_pool1"
}
layer {
  name: "2_conv2"
  type: "Convolution"
  bottom: "2_pool1"
  top: "2_conv2"
  param {
    lr_mult: 1
  }
  param {
    lr_mult: 2
  }
  convolution_param {
    num_output: 32
    pad: 2
    kernel_size: 5
    stride: 1
    weight_filler {
      type: "gaussian"
      std: 0.01
    }
    bias_filler {
      type: "constant"
    }
  }
}
layer {
  name: "2_relu2"
  type: "ReLU"
  bottom: "2_conv2"
  top: "2_conv2"
}
layer {
  name: "2_pool2"
  type: "Pooling"
  bottom: "2_conv2"
  top: "2_pool2"
  pooling_param {
    pool: AVE
    kernel_size: 3
    stride: 2
  }
}
layer {
  name: "2_conv3"
  type: "Convolution"
  bottom: "2_pool2"
  top: "2_conv3"
  param {
    lr_mult: 1
  }
  param {
    lr_mult: 2
  }
  convolution_param {
    num_output: 64
    pad: 2
    kernel_size: 5
    stride: 1
    weight_filler {
      type: "gaussian"
      std: 0.01
    }
    bias_filler {
      type: "constant"
    }
  }
}
layer {
  name: "2_relu3"
  type: "ReLU"
  bottom: "2_conv3"
  top: "2_conv3"
}
layer {
  name: "2_pool3"
  type: "Pooling"
  bottom: "2_conv3"
  top: "2_pool3"
  pooling_param {
    pool: AVE
    kernel_size: 3
    stride: 2
  }
}
layer {
  name: "2_ip1"
  type: "InnerProduct"
  bottom: "2_pool3"
  top: "2_ip1"
  param {
    lr_mult: 1
  }
  param {
    lr_mult: 2
  }
  inner_product_param {
    num_output: 64
    weight_filler {
      type: "gaussian"
      std: 0.1
    }
    bias_filler {
      type: "constant"
    }
  }
}
layer {
  name: "2_ip2"
  type: "InnerProduct"
  bottom: "2_ip1"
  top: "2_ip2"
  param {
    lr_mult: 1
  }
  param {
    lr_mult: 2
  }
  inner_product_param {
    num_output: 10
    weight_filler {
      type: "gaussian"
      std: 0.1
    }
    bias_filler {
      type: "constant"
    }
  }
}
layer {
  name: "2_prob"
  type: "Softmax"
  bottom: "2_ip2"
  top: "2_prob"
}
layer {
  name: "3_conv1"
  type: "Convolution"
  bottom: "data"
  top: "3_conv1"
  param {
    lr_mult: 1
  }
  param {
    lr_mult: 2
  }
  convolution_param {
    num_output: 32
    pad: 2
    kernel_size: 5
    stride: 1
    weight_filler {
      type: "gaussian"
      std: 0.0001
    }
    bias_filler {
      type: "constant"
    }
  }
}
layer {
  name: "3_pool1"
  type: "Pooling"
  bottom: "3_conv1"
  top: "3_pool1"
  pooling_param {
    pool: MAX
    kernel_size: 3
    stride: 2
  }
}
layer {
  name: "3_relu1"
  type: "ReLU"
  bottom: "3_pool1"
  top: "3_pool1"
}
layer {
  name: "3_conv2"
  type: "Convolution"
  bottom: "3_pool1"
  top: "3_conv2"
  param {
    lr_mult: 1
  }
  param {
    lr_mult: 2
  }
  convolution_param {
    num_output: 32
    pad: 2
    kernel_size: 5
    stride: 1
    weight_filler {
      type: "gaussian"
      std: 0.01
    }
    bias_filler {
      type: "constant"
    }
  }
}
layer {
  name: "3_relu2"
  type: "ReLU"
  bottom: "3_conv2"
  top: "3_conv2"
}
layer {
  name: "3_pool2"
  type: "Pooling"
  bottom: "3_conv2"
  top: "3_pool2"
  pooling_param {
    pool: AVE
    kernel_size: 3
    stride: 2
  }
}
layer {
  name: "3_conv3"
  type: "Convolution"
  bottom: "3_pool2"
  top: "3_conv3"
  param {
    lr_mult: 1
  }
  param {
    lr_mult: 2
  }
  convolution_param {
    num_output: 64
    pad: 2
    kernel_size: 5
    stride: 1
    weight_filler {
      type: "gaussian"
      std: 0.01
    }
    bias_filler {
      type: "constant"
    }
  }
}
layer {
  name: "3_relu3"
  type: "ReLU"
  bottom: "3_conv3"
  top: "3_conv3"
}
layer {
  name: "3_pool3"
  type: "Pooling"
  bottom: "3_conv3"
  top: "3_pool3"
  pooling_param {
    pool: AVE
    kernel_size: 3
    stride: 2
  }
}
layer {
  name: "3_ip1"
  type: "InnerProduct"
  bottom: "3_pool3"
  top: "3_ip1"
  param {
    lr_mult: 1
  }
  param {
    lr_mult: 2
  }
  inner_product_param {
    num_output: 64
    weight_filler {
      type: "gaussian"
      std: 0.1
    }
    bias_filler {
      type: "constant"
    }
  }
}
layer {
  name: "3_ip2"
  type: "InnerProduct"
  bottom: "3_ip1"
  top: "3_ip2"
  param {
    lr_mult: 1
  }
  param {
    lr_mult: 2
  }
  inner_product_param {
    num_output: 10
    weight_filler {
      type: "gaussian"
      std: 0.1
    }
    bias_filler {
      type: "constant"
    }
  }
}
layer {
  name: "3_prob"
  type: "Softmax"
  bottom: "3_ip2"
  top: "3_prob"
}
layer {
  name: "4_conv1"
  type: "Convolution"
  bottom: "data"
  top: "4_conv1"
  param {
    lr_mult: 1
  }
  param {
    lr_mult: 2
  }
  convolution_param {
    num_output: 32
    pad: 2
    kernel_size: 5
    stride: 1
    weight_filler {
      type: "gaussian"
      std: 0.0001
    }
    bias_filler {
      type: "constant"
    }
  }
}
layer {
  name: "4_pool1"
  type: "Pooling"
  bottom: "4_conv1"
  top: "4_pool1"
  pooling_param {
    pool: MAX
    kernel_size: 3
    stride: 2
  }
}
layer {
  name: "4_relu1"
  type: "ReLU"
  bottom: "4_pool1"
  top: "4_pool1"
}
layer {
  name: "4_conv2"
  type: "Convolution"
  bottom: "4_pool1"
  top: "4_conv2"
  param {
    lr_mult: 1
  }
  param {
    lr_mult: 2
  }
  convolution_param {
    num_output: 32
    pad: 2
    kernel_size: 5
    stride: 1
    weight_filler {
      type: "gaussian"
      std: 0.01
    }
    bias_filler {
      type: "constant"
    }
  }
}
layer {
  name: "4_relu2"
  type: "ReLU"
  bottom: "4_conv2"
  top: "4_conv2"
}
layer {
  name: "4_pool2"
  type: "Pooling"
  bottom: "4_conv2"
  top: "4_pool2"
  pooling_param {
    pool: AVE
    kernel_size: 3
    stride: 2
  }
}
layer {
  name: "4_conv3"
  type: "Convolution"
  bottom: "4_pool2"
  top: "4_conv3"
  param {
    lr_mult: 1
  }
  param {
    lr_mult: 2
  }
  convolution_param {
    num_output: 64
    pad: 2
    kernel_size: 5
    stride: 1
    weight_filler {
      type: "gaussian"
      std: 0.01
    }
    bias_filler {
      type: "constant"
    }
  }
}
layer {
  name: "4_relu3"
  type: "ReLU"
  bottom: "4_conv3"
  top: "4_conv3"
}
layer {
  name: "4_pool3"
  type: "Pooling"
  bottom: "4_conv3"
  top: "4_pool3"
  pooling_param {
    pool: AVE
    kernel_size: 3
    stride: 2
  }
}
layer {
  name: "4_ip1"
  type: "InnerProduct"
  bottom: "4_pool3"
  top: "4_ip1"
  param {
    lr_mult: 1
  }
  param {
    lr_mult: 2
  }
  inner_product_param {
    num_output: 64
    weight_filler {
      type: "gaussian"
      std: 0.1
    }
    bias_filler {
      type: "constant"
    }
  }
}
layer {
  name: "4_ip2"
  type: "InnerProduct"
  bottom: "4_ip1"
  top: "4_ip2"
  param {
    lr_mult: 1
  }
  param {
    lr_mult: 2
  }
  inner_product_param {
    num_output: 10
    weight_filler {
      type: "gaussian"
      std: 0.1
    }
    bias_filler {
      type: "constant"
    }
  }
}
layer {
  name: "4_prob"
  type: "Softmax"
  bottom: "4_ip2"
  top: "4_prob"
}
layer {
  name: "1_accuracy"
  type: "Accuracy"
  bottom: "1_prob"
  bottom: "label"
  top: "1_accuracy"
  include {
    phase: TEST
  }
}
layer {
  name: "2_accuracy"
  type: "Accuracy"
  bottom: "2_prob"
  bottom: "label"
  top: "2_accuracy"
  include {
    phase: TEST
  }
}
layer {
  name: "3_accuracy"
  type: "Accuracy"
  bottom: "3_prob"
  bottom: "label"
  top: "3_accuracy"
  include {
    phase: TEST
  }
}
layer {
  name: "4_accuracy"
  type: "Accuracy"
  bottom: "4_prob"
  bottom: "label"
  top: "4_accuracy"
  include {
    phase: TEST
  }
}
layer {
  name: "accuracy"
  type: "OracleAccuracy"
  bottom: "1_prob"
  bottom: "2_prob"
  bottom: "3_prob"
  bottom: "4_prob"
  bottom: "label"
  top: "oracle accuracy"
  include {
    phase: TEST
  }
}
I0127 01:21:52.154151  7196 layer_factory.hpp:74] Creating layer cifar
I0127 01:21:52.154162  7196 net.cpp:90] Creating Layer cifar
I0127 01:21:52.154165  7196 net.cpp:368] cifar -> data
I0127 01:21:52.154170  7196 net.cpp:368] cifar -> label
I0127 01:21:52.154175  7196 net.cpp:120] Setting up cifar
I0127 01:21:52.154196  7196 db.cpp:34] Opened lmdb /home/mike/ml_lab/mod/MCL_Caffe/examples/cifar10/cifar10_test_lmdb
I0127 01:21:52.154214  7196 data_layer.cpp:67] output data size: 100,3,32,32
I0127 01:21:52.154219  7196 data_transformer.cpp:22] Loading mean file from: /home/mike/ml_lab/mod/MCL_Caffe/examples/cifar10/mean.binaryproto
I0127 01:21:52.154494  7196 net.cpp:127] Top shape: 100 3 32 32 (307200)
I0127 01:21:52.154497  7196 net.cpp:127] Top shape: 100 (100)
I0127 01:21:52.154500  7196 layer_factory.hpp:74] Creating layer data_cifar_0_split
I0127 01:21:52.154505  7196 net.cpp:90] Creating Layer data_cifar_0_split
I0127 01:21:52.154506  7196 net.cpp:410] data_cifar_0_split <- data
I0127 01:21:52.154510  7196 net.cpp:368] data_cifar_0_split -> data_cifar_0_split_0
I0127 01:21:52.154515  7196 net.cpp:368] data_cifar_0_split -> data_cifar_0_split_1
I0127 01:21:52.154518  7196 net.cpp:368] data_cifar_0_split -> data_cifar_0_split_2
I0127 01:21:52.154522  7196 net.cpp:368] data_cifar_0_split -> data_cifar_0_split_3
I0127 01:21:52.154525  7196 net.cpp:120] Setting up data_cifar_0_split
I0127 01:21:52.154528  7196 net.cpp:127] Top shape: 100 3 32 32 (307200)
I0127 01:21:52.154531  7196 net.cpp:127] Top shape: 100 3 32 32 (307200)
I0127 01:21:52.154533  7196 net.cpp:127] Top shape: 100 3 32 32 (307200)
I0127 01:21:52.154536  7196 net.cpp:127] Top shape: 100 3 32 32 (307200)
I0127 01:21:52.154537  7196 layer_factory.hpp:74] Creating layer label_cifar_1_split
I0127 01:21:52.154541  7196 net.cpp:90] Creating Layer label_cifar_1_split
I0127 01:21:52.154542  7196 net.cpp:410] label_cifar_1_split <- label
I0127 01:21:52.154546  7196 net.cpp:368] label_cifar_1_split -> label_cifar_1_split_0
I0127 01:21:52.154548  7196 net.cpp:368] label_cifar_1_split -> label_cifar_1_split_1
I0127 01:21:52.154552  7196 net.cpp:368] label_cifar_1_split -> label_cifar_1_split_2
I0127 01:21:52.154556  7196 net.cpp:368] label_cifar_1_split -> label_cifar_1_split_3
I0127 01:21:52.154558  7196 net.cpp:368] label_cifar_1_split -> label_cifar_1_split_4
I0127 01:21:52.154561  7196 net.cpp:120] Setting up label_cifar_1_split
I0127 01:21:52.154566  7196 net.cpp:127] Top shape: 100 (100)
I0127 01:21:52.154567  7196 net.cpp:127] Top shape: 100 (100)
I0127 01:21:52.154569  7196 net.cpp:127] Top shape: 100 (100)
I0127 01:21:52.154572  7196 net.cpp:127] Top shape: 100 (100)
I0127 01:21:52.154574  7196 net.cpp:127] Top shape: 100 (100)
I0127 01:21:52.154575  7196 layer_factory.hpp:74] Creating layer 1_conv1
I0127 01:21:52.154579  7196 net.cpp:90] Creating Layer 1_conv1
I0127 01:21:52.154580  7196 net.cpp:410] 1_conv1 <- data_cifar_0_split_0
I0127 01:21:52.154583  7196 net.cpp:368] 1_conv1 -> 1_conv1
I0127 01:21:52.154587  7196 net.cpp:120] Setting up 1_conv1
I0127 01:21:52.154649  7196 net.cpp:127] Top shape: 100 32 32 32 (3276800)
I0127 01:21:52.154654  7196 layer_factory.hpp:74] Creating layer 1_pool1
I0127 01:21:52.154656  7196 net.cpp:90] Creating Layer 1_pool1
I0127 01:21:52.154659  7196 net.cpp:410] 1_pool1 <- 1_conv1
I0127 01:21:52.154662  7196 net.cpp:368] 1_pool1 -> 1_pool1
I0127 01:21:52.154665  7196 net.cpp:120] Setting up 1_pool1
I0127 01:21:52.154670  7196 net.cpp:127] Top shape: 100 32 16 16 (819200)
I0127 01:21:52.154671  7196 layer_factory.hpp:74] Creating layer 1_relu1
I0127 01:21:52.154673  7196 net.cpp:90] Creating Layer 1_relu1
I0127 01:21:52.154675  7196 net.cpp:410] 1_relu1 <- 1_pool1
I0127 01:21:52.154677  7196 net.cpp:357] 1_relu1 -> 1_pool1 (in-place)
I0127 01:21:52.154680  7196 net.cpp:120] Setting up 1_relu1
I0127 01:21:52.154683  7196 net.cpp:127] Top shape: 100 32 16 16 (819200)
I0127 01:21:52.154685  7196 layer_factory.hpp:74] Creating layer 1_conv2
I0127 01:21:52.154687  7196 net.cpp:90] Creating Layer 1_conv2
I0127 01:21:52.154690  7196 net.cpp:410] 1_conv2 <- 1_pool1
I0127 01:21:52.154692  7196 net.cpp:368] 1_conv2 -> 1_conv2
I0127 01:21:52.154701  7196 net.cpp:120] Setting up 1_conv2
I0127 01:21:52.155279  7196 net.cpp:127] Top shape: 100 32 16 16 (819200)
I0127 01:21:52.155284  7196 layer_factory.hpp:74] Creating layer 1_relu2
I0127 01:21:52.155287  7196 net.cpp:90] Creating Layer 1_relu2
I0127 01:21:52.155288  7196 net.cpp:410] 1_relu2 <- 1_conv2
I0127 01:21:52.155292  7196 net.cpp:357] 1_relu2 -> 1_conv2 (in-place)
I0127 01:21:52.155293  7196 net.cpp:120] Setting up 1_relu2
I0127 01:21:52.155297  7196 net.cpp:127] Top shape: 100 32 16 16 (819200)
I0127 01:21:52.155298  7196 layer_factory.hpp:74] Creating layer 1_pool2
I0127 01:21:52.155303  7196 net.cpp:90] Creating Layer 1_pool2
I0127 01:21:52.155303  7196 net.cpp:410] 1_pool2 <- 1_conv2
I0127 01:21:52.155306  7196 net.cpp:368] 1_pool2 -> 1_pool2
I0127 01:21:52.155309  7196 net.cpp:120] Setting up 1_pool2
I0127 01:21:52.155313  7196 net.cpp:127] Top shape: 100 32 8 8 (204800)
I0127 01:21:52.155314  7196 layer_factory.hpp:74] Creating layer 1_conv3
I0127 01:21:52.155318  7196 net.cpp:90] Creating Layer 1_conv3
I0127 01:21:52.155320  7196 net.cpp:410] 1_conv3 <- 1_pool2
I0127 01:21:52.155323  7196 net.cpp:368] 1_conv3 -> 1_conv3
I0127 01:21:52.155326  7196 net.cpp:120] Setting up 1_conv3
I0127 01:21:52.156471  7196 net.cpp:127] Top shape: 100 64 8 8 (409600)
I0127 01:21:52.156478  7196 layer_factory.hpp:74] Creating layer 1_relu3
I0127 01:21:52.156481  7196 net.cpp:90] Creating Layer 1_relu3
I0127 01:21:52.156483  7196 net.cpp:410] 1_relu3 <- 1_conv3
I0127 01:21:52.156488  7196 net.cpp:357] 1_relu3 -> 1_conv3 (in-place)
I0127 01:21:52.156491  7196 net.cpp:120] Setting up 1_relu3
I0127 01:21:52.156493  7196 net.cpp:127] Top shape: 100 64 8 8 (409600)
I0127 01:21:52.156496  7196 layer_factory.hpp:74] Creating layer 1_pool3
I0127 01:21:52.156497  7196 net.cpp:90] Creating Layer 1_pool3
I0127 01:21:52.156499  7196 net.cpp:410] 1_pool3 <- 1_conv3
I0127 01:21:52.156502  7196 net.cpp:368] 1_pool3 -> 1_pool3
I0127 01:21:52.156505  7196 net.cpp:120] Setting up 1_pool3
I0127 01:21:52.156509  7196 net.cpp:127] Top shape: 100 64 4 4 (102400)
I0127 01:21:52.156512  7196 layer_factory.hpp:74] Creating layer 1_ip1
I0127 01:21:52.156515  7196 net.cpp:90] Creating Layer 1_ip1
I0127 01:21:52.156517  7196 net.cpp:410] 1_ip1 <- 1_pool3
I0127 01:21:52.156520  7196 net.cpp:368] 1_ip1 -> 1_ip1
I0127 01:21:52.156523  7196 net.cpp:120] Setting up 1_ip1
I0127 01:21:52.157991  7196 net.cpp:127] Top shape: 100 64 (6400)
I0127 01:21:52.157997  7196 layer_factory.hpp:74] Creating layer 1_ip2
I0127 01:21:52.158001  7196 net.cpp:90] Creating Layer 1_ip2
I0127 01:21:52.158004  7196 net.cpp:410] 1_ip2 <- 1_ip1
I0127 01:21:52.158006  7196 net.cpp:368] 1_ip2 -> 1_ip2
I0127 01:21:52.158010  7196 net.cpp:120] Setting up 1_ip2
I0127 01:21:52.158033  7196 net.cpp:127] Top shape: 100 10 (1000)
I0127 01:21:52.158042  7196 layer_factory.hpp:74] Creating layer 1_prob
I0127 01:21:52.158048  7196 net.cpp:90] Creating Layer 1_prob
I0127 01:21:52.158051  7196 net.cpp:410] 1_prob <- 1_ip2
I0127 01:21:52.158056  7196 net.cpp:368] 1_prob -> 1_prob
I0127 01:21:52.158061  7196 net.cpp:120] Setting up 1_prob
I0127 01:21:52.158066  7196 net.cpp:127] Top shape: 100 10 (1000)
I0127 01:21:52.158069  7196 layer_factory.hpp:74] Creating layer 1_prob_1_prob_0_split
I0127 01:21:52.158073  7196 net.cpp:90] Creating Layer 1_prob_1_prob_0_split
I0127 01:21:52.158077  7196 net.cpp:410] 1_prob_1_prob_0_split <- 1_prob
I0127 01:21:52.158082  7196 net.cpp:368] 1_prob_1_prob_0_split -> 1_prob_1_prob_0_split_0
I0127 01:21:52.158087  7196 net.cpp:368] 1_prob_1_prob_0_split -> 1_prob_1_prob_0_split_1
I0127 01:21:52.158092  7196 net.cpp:120] Setting up 1_prob_1_prob_0_split
I0127 01:21:52.158097  7196 net.cpp:127] Top shape: 100 10 (1000)
I0127 01:21:52.158100  7196 net.cpp:127] Top shape: 100 10 (1000)
I0127 01:21:52.158103  7196 layer_factory.hpp:74] Creating layer 2_conv1
I0127 01:21:52.158110  7196 net.cpp:90] Creating Layer 2_conv1
I0127 01:21:52.158114  7196 net.cpp:410] 2_conv1 <- data_cifar_0_split_1
I0127 01:21:52.158120  7196 net.cpp:368] 2_conv1 -> 2_conv1
I0127 01:21:52.158135  7196 net.cpp:120] Setting up 2_conv1
I0127 01:21:52.158205  7196 net.cpp:127] Top shape: 100 32 32 32 (3276800)
I0127 01:21:52.158210  7196 layer_factory.hpp:74] Creating layer 2_pool1
I0127 01:21:52.158212  7196 net.cpp:90] Creating Layer 2_pool1
I0127 01:21:52.158215  7196 net.cpp:410] 2_pool1 <- 2_conv1
I0127 01:21:52.158217  7196 net.cpp:368] 2_pool1 -> 2_pool1
I0127 01:21:52.158221  7196 net.cpp:120] Setting up 2_pool1
I0127 01:21:52.158226  7196 net.cpp:127] Top shape: 100 32 16 16 (819200)
I0127 01:21:52.158227  7196 layer_factory.hpp:74] Creating layer 2_relu1
I0127 01:21:52.158231  7196 net.cpp:90] Creating Layer 2_relu1
I0127 01:21:52.158232  7196 net.cpp:410] 2_relu1 <- 2_pool1
I0127 01:21:52.158234  7196 net.cpp:357] 2_relu1 -> 2_pool1 (in-place)
I0127 01:21:52.158237  7196 net.cpp:120] Setting up 2_relu1
I0127 01:21:52.158239  7196 net.cpp:127] Top shape: 100 32 16 16 (819200)
I0127 01:21:52.158241  7196 layer_factory.hpp:74] Creating layer 2_conv2
I0127 01:21:52.158244  7196 net.cpp:90] Creating Layer 2_conv2
I0127 01:21:52.158246  7196 net.cpp:410] 2_conv2 <- 2_pool1
I0127 01:21:52.158249  7196 net.cpp:368] 2_conv2 -> 2_conv2
I0127 01:21:52.158252  7196 net.cpp:120] Setting up 2_conv2
I0127 01:21:52.158829  7196 net.cpp:127] Top shape: 100 32 16 16 (819200)
I0127 01:21:52.158834  7196 layer_factory.hpp:74] Creating layer 2_relu2
I0127 01:21:52.158838  7196 net.cpp:90] Creating Layer 2_relu2
I0127 01:21:52.158839  7196 net.cpp:410] 2_relu2 <- 2_conv2
I0127 01:21:52.158841  7196 net.cpp:357] 2_relu2 -> 2_conv2 (in-place)
I0127 01:21:52.158843  7196 net.cpp:120] Setting up 2_relu2
I0127 01:21:52.158846  7196 net.cpp:127] Top shape: 100 32 16 16 (819200)
I0127 01:21:52.158849  7196 layer_factory.hpp:74] Creating layer 2_pool2
I0127 01:21:52.158850  7196 net.cpp:90] Creating Layer 2_pool2
I0127 01:21:52.158852  7196 net.cpp:410] 2_pool2 <- 2_conv2
I0127 01:21:52.158856  7196 net.cpp:368] 2_pool2 -> 2_pool2
I0127 01:21:52.158859  7196 net.cpp:120] Setting up 2_pool2
I0127 01:21:52.158862  7196 net.cpp:127] Top shape: 100 32 8 8 (204800)
I0127 01:21:52.158864  7196 layer_factory.hpp:74] Creating layer 2_conv3
I0127 01:21:52.158867  7196 net.cpp:90] Creating Layer 2_conv3
I0127 01:21:52.158869  7196 net.cpp:410] 2_conv3 <- 2_pool2
I0127 01:21:52.158872  7196 net.cpp:368] 2_conv3 -> 2_conv3
I0127 01:21:52.158875  7196 net.cpp:120] Setting up 2_conv3
I0127 01:21:52.160019  7196 net.cpp:127] Top shape: 100 64 8 8 (409600)
I0127 01:21:52.160024  7196 layer_factory.hpp:74] Creating layer 2_relu3
I0127 01:21:52.160027  7196 net.cpp:90] Creating Layer 2_relu3
I0127 01:21:52.160029  7196 net.cpp:410] 2_relu3 <- 2_conv3
I0127 01:21:52.160032  7196 net.cpp:357] 2_relu3 -> 2_conv3 (in-place)
I0127 01:21:52.160034  7196 net.cpp:120] Setting up 2_relu3
I0127 01:21:52.160037  7196 net.cpp:127] Top shape: 100 64 8 8 (409600)
I0127 01:21:52.160039  7196 layer_factory.hpp:74] Creating layer 2_pool3
I0127 01:21:52.160043  7196 net.cpp:90] Creating Layer 2_pool3
I0127 01:21:52.160044  7196 net.cpp:410] 2_pool3 <- 2_conv3
I0127 01:21:52.160048  7196 net.cpp:368] 2_pool3 -> 2_pool3
I0127 01:21:52.160050  7196 net.cpp:120] Setting up 2_pool3
I0127 01:21:52.160053  7196 net.cpp:127] Top shape: 100 64 4 4 (102400)
I0127 01:21:52.160055  7196 layer_factory.hpp:74] Creating layer 2_ip1
I0127 01:21:52.160058  7196 net.cpp:90] Creating Layer 2_ip1
I0127 01:21:52.160060  7196 net.cpp:410] 2_ip1 <- 2_pool3
I0127 01:21:52.160063  7196 net.cpp:368] 2_ip1 -> 2_ip1
I0127 01:21:52.160066  7196 net.cpp:120] Setting up 2_ip1
I0127 01:21:52.161540  7196 net.cpp:127] Top shape: 100 64 (6400)
I0127 01:21:52.161546  7196 layer_factory.hpp:74] Creating layer 2_ip2
I0127 01:21:52.161550  7196 net.cpp:90] Creating Layer 2_ip2
I0127 01:21:52.161551  7196 net.cpp:410] 2_ip2 <- 2_ip1
I0127 01:21:52.161556  7196 net.cpp:368] 2_ip2 -> 2_ip2
I0127 01:21:52.161559  7196 net.cpp:120] Setting up 2_ip2
I0127 01:21:52.161581  7196 net.cpp:127] Top shape: 100 10 (1000)
I0127 01:21:52.161584  7196 layer_factory.hpp:74] Creating layer 2_prob
I0127 01:21:52.161593  7196 net.cpp:90] Creating Layer 2_prob
I0127 01:21:52.161595  7196 net.cpp:410] 2_prob <- 2_ip2
I0127 01:21:52.161599  7196 net.cpp:368] 2_prob -> 2_prob
I0127 01:21:52.161602  7196 net.cpp:120] Setting up 2_prob
I0127 01:21:52.161607  7196 net.cpp:127] Top shape: 100 10 (1000)
I0127 01:21:52.161608  7196 layer_factory.hpp:74] Creating layer 2_prob_2_prob_0_split
I0127 01:21:52.161610  7196 net.cpp:90] Creating Layer 2_prob_2_prob_0_split
I0127 01:21:52.161612  7196 net.cpp:410] 2_prob_2_prob_0_split <- 2_prob
I0127 01:21:52.161615  7196 net.cpp:368] 2_prob_2_prob_0_split -> 2_prob_2_prob_0_split_0
I0127 01:21:52.161619  7196 net.cpp:368] 2_prob_2_prob_0_split -> 2_prob_2_prob_0_split_1
I0127 01:21:52.161624  7196 net.cpp:120] Setting up 2_prob_2_prob_0_split
I0127 01:21:52.161628  7196 net.cpp:127] Top shape: 100 10 (1000)
I0127 01:21:52.161630  7196 net.cpp:127] Top shape: 100 10 (1000)
I0127 01:21:52.161633  7196 layer_factory.hpp:74] Creating layer 3_conv1
I0127 01:21:52.161636  7196 net.cpp:90] Creating Layer 3_conv1
I0127 01:21:52.161638  7196 net.cpp:410] 3_conv1 <- data_cifar_0_split_2
I0127 01:21:52.161641  7196 net.cpp:368] 3_conv1 -> 3_conv1
I0127 01:21:52.161644  7196 net.cpp:120] Setting up 3_conv1
I0127 01:21:52.161705  7196 net.cpp:127] Top shape: 100 32 32 32 (3276800)
I0127 01:21:52.161710  7196 layer_factory.hpp:74] Creating layer 3_pool1
I0127 01:21:52.161713  7196 net.cpp:90] Creating Layer 3_pool1
I0127 01:21:52.161715  7196 net.cpp:410] 3_pool1 <- 3_conv1
I0127 01:21:52.161717  7196 net.cpp:368] 3_pool1 -> 3_pool1
I0127 01:21:52.161720  7196 net.cpp:120] Setting up 3_pool1
I0127 01:21:52.161725  7196 net.cpp:127] Top shape: 100 32 16 16 (819200)
I0127 01:21:52.161726  7196 layer_factory.hpp:74] Creating layer 3_relu1
I0127 01:21:52.161730  7196 net.cpp:90] Creating Layer 3_relu1
I0127 01:21:52.161731  7196 net.cpp:410] 3_relu1 <- 3_pool1
I0127 01:21:52.161733  7196 net.cpp:357] 3_relu1 -> 3_pool1 (in-place)
I0127 01:21:52.161736  7196 net.cpp:120] Setting up 3_relu1
I0127 01:21:52.161738  7196 net.cpp:127] Top shape: 100 32 16 16 (819200)
I0127 01:21:52.161741  7196 layer_factory.hpp:74] Creating layer 3_conv2
I0127 01:21:52.161744  7196 net.cpp:90] Creating Layer 3_conv2
I0127 01:21:52.161746  7196 net.cpp:410] 3_conv2 <- 3_pool1
I0127 01:21:52.161751  7196 net.cpp:368] 3_conv2 -> 3_conv2
I0127 01:21:52.161753  7196 net.cpp:120] Setting up 3_conv2
I0127 01:21:52.162329  7196 net.cpp:127] Top shape: 100 32 16 16 (819200)
I0127 01:21:52.162333  7196 layer_factory.hpp:74] Creating layer 3_relu2
I0127 01:21:52.162336  7196 net.cpp:90] Creating Layer 3_relu2
I0127 01:21:52.162338  7196 net.cpp:410] 3_relu2 <- 3_conv2
I0127 01:21:52.162340  7196 net.cpp:357] 3_relu2 -> 3_conv2 (in-place)
I0127 01:21:52.162343  7196 net.cpp:120] Setting up 3_relu2
I0127 01:21:52.162346  7196 net.cpp:127] Top shape: 100 32 16 16 (819200)
I0127 01:21:52.162348  7196 layer_factory.hpp:74] Creating layer 3_pool2
I0127 01:21:52.162350  7196 net.cpp:90] Creating Layer 3_pool2
I0127 01:21:52.162351  7196 net.cpp:410] 3_pool2 <- 3_conv2
I0127 01:21:52.162355  7196 net.cpp:368] 3_pool2 -> 3_pool2
I0127 01:21:52.162358  7196 net.cpp:120] Setting up 3_pool2
I0127 01:21:52.162361  7196 net.cpp:127] Top shape: 100 32 8 8 (204800)
I0127 01:21:52.162364  7196 layer_factory.hpp:74] Creating layer 3_conv3
I0127 01:21:52.162366  7196 net.cpp:90] Creating Layer 3_conv3
I0127 01:21:52.162369  7196 net.cpp:410] 3_conv3 <- 3_pool2
I0127 01:21:52.162371  7196 net.cpp:368] 3_conv3 -> 3_conv3
I0127 01:21:52.162374  7196 net.cpp:120] Setting up 3_conv3
I0127 01:21:52.163518  7196 net.cpp:127] Top shape: 100 64 8 8 (409600)
I0127 01:21:52.163524  7196 layer_factory.hpp:74] Creating layer 3_relu3
I0127 01:21:52.163527  7196 net.cpp:90] Creating Layer 3_relu3
I0127 01:21:52.163529  7196 net.cpp:410] 3_relu3 <- 3_conv3
I0127 01:21:52.163532  7196 net.cpp:357] 3_relu3 -> 3_conv3 (in-place)
I0127 01:21:52.163534  7196 net.cpp:120] Setting up 3_relu3
I0127 01:21:52.163537  7196 net.cpp:127] Top shape: 100 64 8 8 (409600)
I0127 01:21:52.163544  7196 layer_factory.hpp:74] Creating layer 3_pool3
I0127 01:21:52.163547  7196 net.cpp:90] Creating Layer 3_pool3
I0127 01:21:52.163548  7196 net.cpp:410] 3_pool3 <- 3_conv3
I0127 01:21:52.163552  7196 net.cpp:368] 3_pool3 -> 3_pool3
I0127 01:21:52.163554  7196 net.cpp:120] Setting up 3_pool3
I0127 01:21:52.163558  7196 net.cpp:127] Top shape: 100 64 4 4 (102400)
I0127 01:21:52.163559  7196 layer_factory.hpp:74] Creating layer 3_ip1
I0127 01:21:52.163563  7196 net.cpp:90] Creating Layer 3_ip1
I0127 01:21:52.163563  7196 net.cpp:410] 3_ip1 <- 3_pool3
I0127 01:21:52.163568  7196 net.cpp:368] 3_ip1 -> 3_ip1
I0127 01:21:52.163571  7196 net.cpp:120] Setting up 3_ip1
I0127 01:21:52.165031  7196 net.cpp:127] Top shape: 100 64 (6400)
I0127 01:21:52.165036  7196 layer_factory.hpp:74] Creating layer 3_ip2
I0127 01:21:52.165040  7196 net.cpp:90] Creating Layer 3_ip2
I0127 01:21:52.165042  7196 net.cpp:410] 3_ip2 <- 3_ip1
I0127 01:21:52.165045  7196 net.cpp:368] 3_ip2 -> 3_ip2
I0127 01:21:52.165050  7196 net.cpp:120] Setting up 3_ip2
I0127 01:21:52.165071  7196 net.cpp:127] Top shape: 100 10 (1000)
I0127 01:21:52.165074  7196 layer_factory.hpp:74] Creating layer 3_prob
I0127 01:21:52.165077  7196 net.cpp:90] Creating Layer 3_prob
I0127 01:21:52.165079  7196 net.cpp:410] 3_prob <- 3_ip2
I0127 01:21:52.165082  7196 net.cpp:368] 3_prob -> 3_prob
I0127 01:21:52.165086  7196 net.cpp:120] Setting up 3_prob
I0127 01:21:52.165089  7196 net.cpp:127] Top shape: 100 10 (1000)
I0127 01:21:52.165091  7196 layer_factory.hpp:74] Creating layer 3_prob_3_prob_0_split
I0127 01:21:52.165093  7196 net.cpp:90] Creating Layer 3_prob_3_prob_0_split
I0127 01:21:52.165096  7196 net.cpp:410] 3_prob_3_prob_0_split <- 3_prob
I0127 01:21:52.165098  7196 net.cpp:368] 3_prob_3_prob_0_split -> 3_prob_3_prob_0_split_0
I0127 01:21:52.165102  7196 net.cpp:368] 3_prob_3_prob_0_split -> 3_prob_3_prob_0_split_1
I0127 01:21:52.165104  7196 net.cpp:120] Setting up 3_prob_3_prob_0_split
I0127 01:21:52.165108  7196 net.cpp:127] Top shape: 100 10 (1000)
I0127 01:21:52.165112  7196 net.cpp:127] Top shape: 100 10 (1000)
I0127 01:21:52.165112  7196 layer_factory.hpp:74] Creating layer 4_conv1
I0127 01:21:52.165117  7196 net.cpp:90] Creating Layer 4_conv1
I0127 01:21:52.165118  7196 net.cpp:410] 4_conv1 <- data_cifar_0_split_3
I0127 01:21:52.165122  7196 net.cpp:368] 4_conv1 -> 4_conv1
I0127 01:21:52.165130  7196 net.cpp:120] Setting up 4_conv1
I0127 01:21:52.165195  7196 net.cpp:127] Top shape: 100 32 32 32 (3276800)
I0127 01:21:52.165200  7196 layer_factory.hpp:74] Creating layer 4_pool1
I0127 01:21:52.165204  7196 net.cpp:90] Creating Layer 4_pool1
I0127 01:21:52.165205  7196 net.cpp:410] 4_pool1 <- 4_conv1
I0127 01:21:52.165208  7196 net.cpp:368] 4_pool1 -> 4_pool1
I0127 01:21:52.165211  7196 net.cpp:120] Setting up 4_pool1
I0127 01:21:52.165215  7196 net.cpp:127] Top shape: 100 32 16 16 (819200)
I0127 01:21:52.165217  7196 layer_factory.hpp:74] Creating layer 4_relu1
I0127 01:21:52.165220  7196 net.cpp:90] Creating Layer 4_relu1
I0127 01:21:52.165221  7196 net.cpp:410] 4_relu1 <- 4_pool1
I0127 01:21:52.165223  7196 net.cpp:357] 4_relu1 -> 4_pool1 (in-place)
I0127 01:21:52.165226  7196 net.cpp:120] Setting up 4_relu1
I0127 01:21:52.165228  7196 net.cpp:127] Top shape: 100 32 16 16 (819200)
I0127 01:21:52.165230  7196 layer_factory.hpp:74] Creating layer 4_conv2
I0127 01:21:52.165235  7196 net.cpp:90] Creating Layer 4_conv2
I0127 01:21:52.165236  7196 net.cpp:410] 4_conv2 <- 4_pool1
I0127 01:21:52.165238  7196 net.cpp:368] 4_conv2 -> 4_conv2
I0127 01:21:52.165241  7196 net.cpp:120] Setting up 4_conv2
I0127 01:21:52.165822  7196 net.cpp:127] Top shape: 100 32 16 16 (819200)
I0127 01:21:52.165833  7196 layer_factory.hpp:74] Creating layer 4_relu2
I0127 01:21:52.165837  7196 net.cpp:90] Creating Layer 4_relu2
I0127 01:21:52.165838  7196 net.cpp:410] 4_relu2 <- 4_conv2
I0127 01:21:52.165841  7196 net.cpp:357] 4_relu2 -> 4_conv2 (in-place)
I0127 01:21:52.165844  7196 net.cpp:120] Setting up 4_relu2
I0127 01:21:52.165848  7196 net.cpp:127] Top shape: 100 32 16 16 (819200)
I0127 01:21:52.165855  7196 layer_factory.hpp:74] Creating layer 4_pool2
I0127 01:21:52.165858  7196 net.cpp:90] Creating Layer 4_pool2
I0127 01:21:52.165859  7196 net.cpp:410] 4_pool2 <- 4_conv2
I0127 01:21:52.165863  7196 net.cpp:368] 4_pool2 -> 4_pool2
I0127 01:21:52.165865  7196 net.cpp:120] Setting up 4_pool2
I0127 01:21:52.165869  7196 net.cpp:127] Top shape: 100 32 8 8 (204800)
I0127 01:21:52.165871  7196 layer_factory.hpp:74] Creating layer 4_conv3
I0127 01:21:52.165875  7196 net.cpp:90] Creating Layer 4_conv3
I0127 01:21:52.165877  7196 net.cpp:410] 4_conv3 <- 4_pool2
I0127 01:21:52.165880  7196 net.cpp:368] 4_conv3 -> 4_conv3
I0127 01:21:52.165884  7196 net.cpp:120] Setting up 4_conv3
I0127 01:21:52.167026  7196 net.cpp:127] Top shape: 100 64 8 8 (409600)
I0127 01:21:52.167031  7196 layer_factory.hpp:74] Creating layer 4_relu3
I0127 01:21:52.167033  7196 net.cpp:90] Creating Layer 4_relu3
I0127 01:21:52.167035  7196 net.cpp:410] 4_relu3 <- 4_conv3
I0127 01:21:52.167038  7196 net.cpp:357] 4_relu3 -> 4_conv3 (in-place)
I0127 01:21:52.167040  7196 net.cpp:120] Setting up 4_relu3
I0127 01:21:52.167043  7196 net.cpp:127] Top shape: 100 64 8 8 (409600)
I0127 01:21:52.167045  7196 layer_factory.hpp:74] Creating layer 4_pool3
I0127 01:21:52.167047  7196 net.cpp:90] Creating Layer 4_pool3
I0127 01:21:52.167050  7196 net.cpp:410] 4_pool3 <- 4_conv3
I0127 01:21:52.167052  7196 net.cpp:368] 4_pool3 -> 4_pool3
I0127 01:21:52.167055  7196 net.cpp:120] Setting up 4_pool3
I0127 01:21:52.167058  7196 net.cpp:127] Top shape: 100 64 4 4 (102400)
I0127 01:21:52.167060  7196 layer_factory.hpp:74] Creating layer 4_ip1
I0127 01:21:52.167063  7196 net.cpp:90] Creating Layer 4_ip1
I0127 01:21:52.167065  7196 net.cpp:410] 4_ip1 <- 4_pool3
I0127 01:21:52.167069  7196 net.cpp:368] 4_ip1 -> 4_ip1
I0127 01:21:52.167073  7196 net.cpp:120] Setting up 4_ip1
I0127 01:21:52.168535  7196 net.cpp:127] Top shape: 100 64 (6400)
I0127 01:21:52.168540  7196 layer_factory.hpp:74] Creating layer 4_ip2
I0127 01:21:52.168543  7196 net.cpp:90] Creating Layer 4_ip2
I0127 01:21:52.168545  7196 net.cpp:410] 4_ip2 <- 4_ip1
I0127 01:21:52.168548  7196 net.cpp:368] 4_ip2 -> 4_ip2
I0127 01:21:52.168551  7196 net.cpp:120] Setting up 4_ip2
I0127 01:21:52.168571  7196 net.cpp:127] Top shape: 100 10 (1000)
I0127 01:21:52.168576  7196 layer_factory.hpp:74] Creating layer 4_prob
I0127 01:21:52.168578  7196 net.cpp:90] Creating Layer 4_prob
I0127 01:21:52.168581  7196 net.cpp:410] 4_prob <- 4_ip2
I0127 01:21:52.168583  7196 net.cpp:368] 4_prob -> 4_prob
I0127 01:21:52.168586  7196 net.cpp:120] Setting up 4_prob
I0127 01:21:52.168591  7196 net.cpp:127] Top shape: 100 10 (1000)
I0127 01:21:52.168593  7196 layer_factory.hpp:74] Creating layer 4_prob_4_prob_0_split
I0127 01:21:52.168596  7196 net.cpp:90] Creating Layer 4_prob_4_prob_0_split
I0127 01:21:52.168597  7196 net.cpp:410] 4_prob_4_prob_0_split <- 4_prob
I0127 01:21:52.168599  7196 net.cpp:368] 4_prob_4_prob_0_split -> 4_prob_4_prob_0_split_0
I0127 01:21:52.168603  7196 net.cpp:368] 4_prob_4_prob_0_split -> 4_prob_4_prob_0_split_1
I0127 01:21:52.168606  7196 net.cpp:120] Setting up 4_prob_4_prob_0_split
I0127 01:21:52.168609  7196 net.cpp:127] Top shape: 100 10 (1000)
I0127 01:21:52.168612  7196 net.cpp:127] Top shape: 100 10 (1000)
I0127 01:21:52.168613  7196 layer_factory.hpp:74] Creating layer 1_accuracy
I0127 01:21:52.168617  7196 net.cpp:90] Creating Layer 1_accuracy
I0127 01:21:52.168619  7196 net.cpp:410] 1_accuracy <- 1_prob_1_prob_0_split_0
I0127 01:21:52.168622  7196 net.cpp:410] 1_accuracy <- label_cifar_1_split_0
I0127 01:21:52.168625  7196 net.cpp:368] 1_accuracy -> 1_accuracy
I0127 01:21:52.168628  7196 net.cpp:120] Setting up 1_accuracy
…
