…
I0126 21:28:08.295596 24753 net.cpp:287] The NetState phase (0) differed from the phase (1) specified by a rule in layer accuracy
I0126 21:28:08.295909 24753 net.cpp:42] Initializing net from parameters: 
name: "CIFAR10_quick"
state {
  phase: TRAIN
}
layer {
  name: "cifar"
  type: "Data"
  top: "data"
  top: "label"
  include {
    phase: TRAIN
  }
  transform_param {
    mean_file: "/home/mike/ml_lab/mod/MCL_Caffe/examples/cifar10/mean.binaryproto"
  }
  data_param {
    source: "/home/mike/ml_lab/mod/MCL_Caffe/examples/cifar10/cifar10_train_lmdb"
    batch_size: 350
    backend: LMDB
  }
}
layer {
  name: "1_conv1"
  type: "Convolution"
  bottom: "data"
  top: "1_conv1"
  param {
    lr_mult: 1
  }
  param {
    lr_mult: 2
  }
  convolution_param {
    num_output: 32
    pad: 2
    kernel_size: 5
    stride: 1
    weight_filler {
      type: "gaussian"
      std: 0.0001
    }
    bias_filler {
      type: "constant"
    }
  }
}
layer {
  name: "1_pool1"
  type: "Pooling"
  bottom: "1_conv1"
  top: "1_pool1"
  pooling_param {
    pool: MAX
    kernel_size: 3
    stride: 2
  }
}
layer {
  name: "1_relu1"
  type: "ReLU"
  bottom: "1_pool1"
  top: "1_pool1"
}
layer {
  name: "1_conv2"
  type: "Convolution"
  bottom: "1_pool1"
  top: "1_conv2"
  param {
    lr_mult: 1
  }
  param {
    lr_mult: 2
  }
  convolution_param {
    num_output: 32
    pad: 2
    kernel_size: 5
    stride: 1
    weight_filler {
      type: "gaussian"
      std: 0.01
    }
    bias_filler {
      type: "constant"
    }
  }
}
layer {
  name: "1_relu2"
  type: "ReLU"
  bottom: "1_conv2"
  top: "1_conv2"
}
layer {
  name: "1_pool2"
  type: "Pooling"
  bottom: "1_conv2"
  top: "1_pool2"
  pooling_param {
    pool: AVE
    kernel_size: 3
    stride: 2
  }
}
layer {
  name: "1_conv3"
  type: "Convolution"
  bottom: "1_pool2"
  top: "1_conv3"
  param {
    lr_mult: 1
  }
  param {
    lr_mult: 2
  }
  convolution_param {
    num_output: 64
    pad: 2
    kernel_size: 5
    stride: 1
    weight_filler {
      type: "gaussian"
      std: 0.01
    }
    bias_filler {
      type: "constant"
    }
  }
}
layer {
  name: "1_relu3"
  type: "ReLU"
  bottom: "1_conv3"
  top: "1_conv3"
}
layer {
  name: "1_pool3"
  type: "Pooling"
  bottom: "1_conv3"
  top: "1_pool3"
  pooling_param {
    pool: AVE
    kernel_size: 3
    stride: 2
  }
}
layer {
  name: "1_ip1"
  type: "InnerProduct"
  bottom: "1_pool3"
  top: "1_ip1"
  param {
    lr_mult: 1
  }
  param {
    lr_mult: 2
  }
  inner_product_param {
    num_output: 64
    weight_filler {
      type: "gaussian"
      std: 0.1
    }
    bias_filler {
      type: "constant"
    }
  }
}
layer {
  name: "1_ip2"
  type: "InnerProduct"
  bottom: "1_ip1"
  top: "1_ip2"
  param {
    lr_mult: 1
  }
  param {
    lr_mult: 2
  }
  inner_product_param {
    num_output: 10
    weight_filler {
      type: "gaussian"
      std: 0.1
    }
    bias_filler {
      type: "constant"
    }
  }
}
layer {
  name: "1_prob"
  type: "Softmax"
  bottom: "1_ip2"
  top: "1_prob"
}
layer {
  name: "2_conv1"
  type: "Convolution"
  bottom: "data"
  top: "2_conv1"
  param {
    lr_mult: 1
  }
  param {
    lr_mult: 2
  }
  convolution_param {
    num_output: 32
    pad: 2
    kernel_size: 5
    stride: 1
    weight_filler {
      type: "gaussian"
      std: 0.0001
    }
    bias_filler {
      type: "constant"
    }
  }
}
layer {
  name: "2_pool1"
  type: "Pooling"
  bottom: "2_conv1"
  top: "2_pool1"
  pooling_param {
    pool: MAX
    kernel_size: 3
    stride: 2
  }
}
layer {
  name: "2_relu1"
  type: "ReLU"
  bottom: "2_pool1"
  top: "2_pool1"
}
layer {
  name: "2_conv2"
  type: "Convolution"
  bottom: "2_pool1"
  top: "2_conv2"
  param {
    lr_mult: 1
  }
  param {
    lr_mult: 2
  }
  convolution_param {
    num_output: 32
    pad: 2
    kernel_size: 5
    stride: 1
    weight_filler {
      type: "gaussian"
      std: 0.01
    }
    bias_filler {
      type: "constant"
    }
  }
}
layer {
  name: "2_relu2"
  type: "ReLU"
  bottom: "2_conv2"
  top: "2_conv2"
}
layer {
  name: "2_pool2"
  type: "Pooling"
  bottom: "2_conv2"
  top: "2_pool2"
  pooling_param {
    pool: AVE
    kernel_size: 3
    stride: 2
  }
}
layer {
  name: "2_conv3"
  type: "Convolution"
  bottom: "2_pool2"
  top: "2_conv3"
  param {
    lr_mult: 1
  }
  param {
    lr_mult: 2
  }
  convolution_param {
    num_output: 64
    pad: 2
    kernel_size: 5
    stride: 1
    weight_filler {
      type: "gaussian"
      std: 0.01
    }
    bias_filler {
      type: "constant"
    }
  }
}
layer {
  name: "2_relu3"
  type: "ReLU"
  bottom: "2_conv3"
  top: "2_conv3"
}
layer {
  name: "2_pool3"
  type: "Pooling"
  bottom: "2_conv3"
  top: "2_pool3"
  pooling_param {
    pool: AVE
    kernel_size: 3
    stride: 2
  }
}
layer {
  name: "2_ip1"
  type: "InnerProduct"
  bottom: "2_pool3"
  top: "2_ip1"
  param {
    lr_mult: 1
  }
  param {
    lr_mult: 2
  }
  inner_product_param {
    num_output: 64
    weight_filler {
      type: "gaussian"
      std: 0.1
    }
    bias_filler {
      type: "constant"
    }
  }
}
layer {
  name: "2_ip2"
  type: "InnerProduct"
  bottom: "2_ip1"
  top: "2_ip2"
  param {
    lr_mult: 1
  }
  param {
    lr_mult: 2
  }
  inner_product_param {
    num_output: 10
    weight_filler {
      type: "gaussian"
      std: 0.1
    }
    bias_filler {
      type: "constant"
    }
  }
}
layer {
  name: "2_prob"
  type: "Softmax"
  bottom: "2_ip2"
  top: "2_prob"
}
layer {
  name: "3_conv1"
  type: "Convolution"
  bottom: "data"
  top: "3_conv1"
  param {
    lr_mult: 1
  }
  param {
    lr_mult: 2
  }
  convolution_param {
    num_output: 32
    pad: 2
    kernel_size: 5
    stride: 1
    weight_filler {
      type: "gaussian"
      std: 0.0001
    }
    bias_filler {
      type: "constant"
    }
  }
}
layer {
  name: "3_pool1"
  type: "Pooling"
  bottom: "3_conv1"
  top: "3_pool1"
  pooling_param {
    pool: MAX
    kernel_size: 3
    stride: 2
  }
}
layer {
  name: "3_relu1"
  type: "ReLU"
  bottom: "3_pool1"
  top: "3_pool1"
}
layer {
  name: "3_conv2"
  type: "Convolution"
  bottom: "3_pool1"
  top: "3_conv2"
  param {
    lr_mult: 1
  }
  param {
    lr_mult: 2
  }
  convolution_param {
    num_output: 32
    pad: 2
    kernel_size: 5
    stride: 1
    weight_filler {
      type: "gaussian"
      std: 0.01
    }
    bias_filler {
      type: "constant"
    }
  }
}
layer {
  name: "3_relu2"
  type: "ReLU"
  bottom: "3_conv2"
  top: "3_conv2"
}
layer {
  name: "3_pool2"
  type: "Pooling"
  bottom: "3_conv2"
  top: "3_pool2"
  pooling_param {
    pool: AVE
    kernel_size: 3
    stride: 2
  }
}
layer {
  name: "3_conv3"
  type: "Convolution"
  bottom: "3_pool2"
  top: "3_conv3"
  param {
    lr_mult: 1
  }
  param {
    lr_mult: 2
  }
  convolution_param {
    num_output: 64
    pad: 2
    kernel_size: 5
    stride: 1
    weight_filler {
      type: "gaussian"
      std: 0.01
    }
    bias_filler {
      type: "constant"
    }
  }
}
layer {
  name: "3_relu3"
  type: "ReLU"
  bottom: "3_conv3"
  top: "3_conv3"
}
layer {
  name: "3_pool3"
  type: "Pooling"
  bottom: "3_conv3"
  top: "3_pool3"
  pooling_param {
    pool: AVE
    kernel_size: 3
    stride: 2
  }
}
layer {
  name: "3_ip1"
  type: "InnerProduct"
  bottom: "3_pool3"
  top: "3_ip1"
  param {
    lr_mult: 1
  }
  param {
    lr_mult: 2
  }
  inner_product_param {
    num_output: 64
    weight_filler {
      type: "gaussian"
      std: 0.1
    }
    bias_filler {
      type: "constant"
    }
  }
}
layer {
  name: "3_ip2"
  type: "InnerProduct"
  bottom: "3_ip1"
  top: "3_ip2"
  param {
    lr_mult: 1
  }
  param {
    lr_mult: 2
  }
  inner_product_param {
    num_output: 10
    weight_filler {
      type: "gaussian"
      std: 0.1
    }
    bias_filler {
      type: "constant"
    }
  }
}
layer {
  name: "3_prob"
  type: "Softmax"
  bottom: "3_ip2"
  top: "3_prob"
}
layer {
  name: "4_conv1"
  type: "Convolution"
  bottom: "data"
  top: "4_conv1"
  param {
    lr_mult: 1
  }
  param {
    lr_mult: 2
  }
  convolution_param {
    num_output: 32
    pad: 2
    kernel_size: 5
    stride: 1
    weight_filler {
      type: "gaussian"
      std: 0.0001
    }
    bias_filler {
      type: "constant"
    }
  }
}
layer {
  name: "4_pool1"
  type: "Pooling"
  bottom: "4_conv1"
  top: "4_pool1"
  pooling_param {
    pool: MAX
    kernel_size: 3
    stride: 2
  }
}
layer {
  name: "4_relu1"
  type: "ReLU"
  bottom: "4_pool1"
  top: "4_pool1"
}
layer {
  name: "4_conv2"
  type: "Convolution"
  bottom: "4_pool1"
  top: "4_conv2"
  param {
    lr_mult: 1
  }
  param {
    lr_mult: 2
  }
  convolution_param {
    num_output: 32
    pad: 2
    kernel_size: 5
    stride: 1
    weight_filler {
      type: "gaussian"
      std: 0.01
    }
    bias_filler {
      type: "constant"
    }
  }
}
layer {
  name: "4_relu2"
  type: "ReLU"
  bottom: "4_conv2"
  top: "4_conv2"
}
layer {
  name: "4_pool2"
  type: "Pooling"
  bottom: "4_conv2"
  top: "4_pool2"
  pooling_param {
    pool: AVE
    kernel_size: 3
    stride: 2
  }
}
layer {
  name: "4_conv3"
  type: "Convolution"
  bottom: "4_pool2"
  top: "4_conv3"
  param {
    lr_mult: 1
  }
  param {
    lr_mult: 2
  }
  convolution_param {
    num_output: 64
    pad: 2
    kernel_size: 5
    stride: 1
    weight_filler {
      type: "gaussian"
      std: 0.01
    }
    bias_filler {
      type: "constant"
    }
  }
}
layer {
  name: "4_relu3"
  type: "ReLU"
  bottom: "4_conv3"
  top: "4_conv3"
}
layer {
  name: "4_pool3"
  type: "Pooling"
  bottom: "4_conv3"
  top: "4_pool3"
  pooling_param {
    pool: AVE
    kernel_size: 3
    stride: 2
  }
}
layer {
  name: "4_ip1"
  type: "InnerProduct"
  bottom: "4_pool3"
  top: "4_ip1"
  param {
    lr_mult: 1
  }
  param {
    lr_mult: 2
  }
  inner_product_param {
    num_output: 64
    weight_filler {
      type: "gaussian"
      std: 0.1
    }
    bias_filler {
      type: "constant"
    }
  }
}
layer {
  name: "4_ip2"
  type: "InnerProduct"
  bottom: "4_ip1"
  top: "4_ip2"
  param {
    lr_mult: 1
  }
  param {
    lr_mult: 2
  }
  inner_product_param {
    num_output: 10
    weight_filler {
      type: "gaussian"
      std: 0.1
    }
    bias_filler {
      type: "constant"
    }
  }
}
layer {
  name: "4_prob"
  type: "Softmax"
  bottom: "4_ip2"
  top: "4_prob"
}
layer {
  name: "loss"
  type: "ODMultinomialLogisticLoss"
  bottom: "1_prob"
  bottom: "2_prob"
  bottom: "3_prob"
  bottom: "4_prob"
  bottom: "label"
  top: "multiple-output loss"
  top: "batch-instance-counts"
  top: "train-instance-counts"
  loss_weight: 1
  loss_weight: 0
  loss_weight: 0
  include {
    phase: TRAIN
  }
}
I0126 21:28:08.298333 24753 layer_factory.hpp:74] Creating layer cifar
I0126 21:28:08.298353 24753 net.cpp:90] Creating Layer cifar
I0126 21:28:08.298363 24753 net.cpp:368] cifar -> data
I0126 21:28:08.298384 24753 net.cpp:368] cifar -> label
I0126 21:28:08.298395 24753 net.cpp:120] Setting up cifar
I0126 21:28:08.298449 24753 db.cpp:34] Opened lmdb /home/mike/ml_lab/mod/MCL_Caffe/examples/cifar10/cifar10_train_lmdb
I0126 21:28:08.298490 24753 data_layer.cpp:67] output data size: 350,3,32,32
I0126 21:28:08.298498 24753 data_transformer.cpp:22] Loading mean file from: /home/mike/ml_lab/mod/MCL_Caffe/examples/cifar10/mean.binaryproto
I0126 21:28:08.299264 24753 net.cpp:127] Top shape: 350 3 32 32 (1075200)
I0126 21:28:08.299804 24753 net.cpp:127] Top shape: 350 (350)
I0126 21:28:08.300077 24753 layer_factory.hpp:74] Creating layer data_cifar_0_split
I0126 21:28:08.300364 24753 net.cpp:90] Creating Layer data_cifar_0_split
I0126 21:28:08.300643 24753 net.cpp:410] data_cifar_0_split <- data
I0126 21:28:08.300928 24753 net.cpp:368] data_cifar_0_split -> data_cifar_0_split_0
I0126 21:28:08.301234 24753 net.cpp:368] data_cifar_0_split -> data_cifar_0_split_1
I0126 21:28:08.301530 24753 net.cpp:368] data_cifar_0_split -> data_cifar_0_split_2
I0126 21:28:08.301828 24753 net.cpp:368] data_cifar_0_split -> data_cifar_0_split_3
I0126 21:28:08.302129 24753 net.cpp:120] Setting up data_cifar_0_split
I0126 21:28:08.302429 24753 net.cpp:127] Top shape: 350 3 32 32 (1075200)
I0126 21:28:08.302731 24753 net.cpp:127] Top shape: 350 3 32 32 (1075200)
I0126 21:28:08.303035 24753 net.cpp:127] Top shape: 350 3 32 32 (1075200)
I0126 21:28:08.303342 24753 net.cpp:127] Top shape: 350 3 32 32 (1075200)
I0126 21:28:08.303357 24753 layer_factory.hpp:74] Creating layer 1_conv1
I0126 21:28:08.303378 24753 net.cpp:90] Creating Layer 1_conv1
I0126 21:28:08.303390 24753 net.cpp:410] 1_conv1 <- data_cifar_0_split_0
I0126 21:28:08.303406 24753 net.cpp:368] 1_conv1 -> 1_conv1
I0126 21:28:08.303422 24753 net.cpp:120] Setting up 1_conv1
I0126 21:28:08.304008 24753 net.cpp:127] Top shape: 350 32 32 32 (11468800)
I0126 21:28:08.304631 24753 layer_factory.hpp:74] Creating layer 1_pool1
I0126 21:28:08.304952 24753 net.cpp:90] Creating Layer 1_pool1
I0126 21:28:08.305270 24753 net.cpp:410] 1_pool1 <- 1_conv1
I0126 21:28:08.305575 24753 net.cpp:368] 1_pool1 -> 1_pool1
I0126 21:28:08.305595 24753 net.cpp:120] Setting up 1_pool1
I0126 21:28:08.305620 24753 net.cpp:127] Top shape: 350 32 16 16 (2867200)
I0126 21:28:08.305634 24753 layer_factory.hpp:74] Creating layer 1_relu1
I0126 21:28:08.305647 24753 net.cpp:90] Creating Layer 1_relu1
I0126 21:28:08.305975 24753 net.cpp:410] 1_relu1 <- 1_pool1
I0126 21:28:08.305992 24753 net.cpp:357] 1_relu1 -> 1_pool1 (in-place)
I0126 21:28:08.306006 24753 net.cpp:120] Setting up 1_relu1
I0126 21:28:08.306022 24753 net.cpp:127] Top shape: 350 32 16 16 (2867200)
I0126 21:28:08.306035 24753 layer_factory.hpp:74] Creating layer 1_conv2
I0126 21:28:08.306048 24753 net.cpp:90] Creating Layer 1_conv2
I0126 21:28:08.306061 24753 net.cpp:410] 1_conv2 <- 1_pool1
I0126 21:28:08.306076 24753 net.cpp:368] 1_conv2 -> 1_conv2
I0126 21:28:08.306090 24753 net.cpp:120] Setting up 1_conv2
I0126 21:28:08.306905 24753 net.cpp:127] Top shape: 350 32 16 16 (2867200)
I0126 21:28:08.307513 24753 layer_factory.hpp:74] Creating layer 1_relu2
I0126 21:28:08.307823 24753 net.cpp:90] Creating Layer 1_relu2
I0126 21:28:08.308125 24753 net.cpp:410] 1_relu2 <- 1_conv2
I0126 21:28:08.308423 24753 net.cpp:357] 1_relu2 -> 1_conv2 (in-place)
I0126 21:28:08.308722 24753 net.cpp:120] Setting up 1_relu2
I0126 21:28:08.308794 24753 net.cpp:127] Top shape: 350 32 16 16 (2867200)
I0126 21:28:08.309054 24753 layer_factory.hpp:74] Creating layer 1_pool2
I0126 21:28:08.309073 24753 net.cpp:90] Creating Layer 1_pool2
I0126 21:28:08.309087 24753 net.cpp:410] 1_pool2 <- 1_conv2
I0126 21:28:08.309100 24753 net.cpp:368] 1_pool2 -> 1_pool2
I0126 21:28:08.309114 24753 net.cpp:120] Setting up 1_pool2
I0126 21:28:08.309137 24753 net.cpp:127] Top shape: 350 32 8 8 (716800)
I0126 21:28:08.309151 24753 layer_factory.hpp:74] Creating layer 1_conv3
I0126 21:28:08.309167 24753 net.cpp:90] Creating Layer 1_conv3
I0126 21:28:08.309178 24753 net.cpp:410] 1_conv3 <- 1_pool2
I0126 21:28:08.309192 24753 net.cpp:368] 1_conv3 -> 1_conv3
I0126 21:28:08.309211 24753 net.cpp:120] Setting up 1_conv3
I0126 21:28:08.310811 24753 net.cpp:127] Top shape: 350 64 8 8 (1433600)
I0126 21:28:08.310837 24753 layer_factory.hpp:74] Creating layer 1_relu3
I0126 21:28:08.310853 24753 net.cpp:90] Creating Layer 1_relu3
I0126 21:28:08.310864 24753 net.cpp:410] 1_relu3 <- 1_conv3
I0126 21:28:08.310878 24753 net.cpp:357] 1_relu3 -> 1_conv3 (in-place)
I0126 21:28:08.310891 24753 net.cpp:120] Setting up 1_relu3
I0126 21:28:08.310904 24753 net.cpp:127] Top shape: 350 64 8 8 (1433600)
I0126 21:28:08.310915 24753 layer_factory.hpp:74] Creating layer 1_pool3
I0126 21:28:08.310928 24753 net.cpp:90] Creating Layer 1_pool3
I0126 21:28:08.310940 24753 net.cpp:410] 1_pool3 <- 1_conv3
I0126 21:28:08.310952 24753 net.cpp:368] 1_pool3 -> 1_pool3
I0126 21:28:08.310966 24753 net.cpp:120] Setting up 1_pool3
I0126 21:28:08.310981 24753 net.cpp:127] Top shape: 350 64 4 4 (358400)
I0126 21:28:08.310992 24753 layer_factory.hpp:74] Creating layer 1_ip1
I0126 21:28:08.311007 24753 net.cpp:90] Creating Layer 1_ip1
I0126 21:28:08.311018 24753 net.cpp:410] 1_ip1 <- 1_pool3
I0126 21:28:08.311033 24753 net.cpp:368] 1_ip1 -> 1_ip1
I0126 21:28:08.311048 24753 net.cpp:120] Setting up 1_ip1
I0126 21:28:08.313076 24753 net.cpp:127] Top shape: 350 64 (22400)
I0126 21:28:08.313107 24753 layer_factory.hpp:74] Creating layer 1_ip2
I0126 21:28:08.313120 24753 net.cpp:90] Creating Layer 1_ip2
I0126 21:28:08.313141 24753 net.cpp:410] 1_ip2 <- 1_ip1
I0126 21:28:08.313158 24753 net.cpp:368] 1_ip2 -> 1_ip2
I0126 21:28:08.313172 24753 net.cpp:120] Setting up 1_ip2
I0126 21:28:08.313211 24753 net.cpp:127] Top shape: 350 10 (3500)
I0126 21:28:08.313228 24753 layer_factory.hpp:74] Creating layer 1_prob
I0126 21:28:08.313242 24753 net.cpp:90] Creating Layer 1_prob
I0126 21:28:08.313254 24753 net.cpp:410] 1_prob <- 1_ip2
I0126 21:28:08.313267 24753 net.cpp:368] 1_prob -> 1_prob
I0126 21:28:08.313280 24753 net.cpp:120] Setting up 1_prob
I0126 21:28:08.313297 24753 net.cpp:127] Top shape: 350 10 (3500)
I0126 21:28:08.313308 24753 layer_factory.hpp:74] Creating layer 2_conv1
I0126 21:28:08.313323 24753 net.cpp:90] Creating Layer 2_conv1
I0126 21:28:08.313334 24753 net.cpp:410] 2_conv1 <- data_cifar_0_split_1
I0126 21:28:08.313347 24753 net.cpp:368] 2_conv1 -> 2_conv1
I0126 21:28:08.313361 24753 net.cpp:120] Setting up 2_conv1
I0126 21:28:08.313459 24753 net.cpp:127] Top shape: 350 32 32 32 (11468800)
I0126 21:28:08.313474 24753 layer_factory.hpp:74] Creating layer 2_pool1
I0126 21:28:08.313488 24753 net.cpp:90] Creating Layer 2_pool1
I0126 21:28:08.313498 24753 net.cpp:410] 2_pool1 <- 2_conv1
I0126 21:28:08.313511 24753 net.cpp:368] 2_pool1 -> 2_pool1
I0126 21:28:08.313525 24753 net.cpp:120] Setting up 2_pool1
I0126 21:28:08.313542 24753 net.cpp:127] Top shape: 350 32 16 16 (2867200)
I0126 21:28:08.313555 24753 layer_factory.hpp:74] Creating layer 2_relu1
I0126 21:28:08.313567 24753 net.cpp:90] Creating Layer 2_relu1
I0126 21:28:08.313578 24753 net.cpp:410] 2_relu1 <- 2_pool1
I0126 21:28:08.313591 24753 net.cpp:357] 2_relu1 -> 2_pool1 (in-place)
I0126 21:28:08.313603 24753 net.cpp:120] Setting up 2_relu1
I0126 21:28:08.313616 24753 net.cpp:127] Top shape: 350 32 16 16 (2867200)
I0126 21:28:08.313627 24753 layer_factory.hpp:74] Creating layer 2_conv2
I0126 21:28:08.313640 24753 net.cpp:90] Creating Layer 2_conv2
I0126 21:28:08.313652 24753 net.cpp:410] 2_conv2 <- 2_pool1
I0126 21:28:08.313665 24753 net.cpp:368] 2_conv2 -> 2_conv2
I0126 21:28:08.313679 24753 net.cpp:120] Setting up 2_conv2
I0126 21:28:08.314482 24753 net.cpp:127] Top shape: 350 32 16 16 (2867200)
I0126 21:28:08.314507 24753 layer_factory.hpp:74] Creating layer 2_relu2
I0126 21:28:08.314520 24753 net.cpp:90] Creating Layer 2_relu2
I0126 21:28:08.314532 24753 net.cpp:410] 2_relu2 <- 2_conv2
I0126 21:28:08.314545 24753 net.cpp:357] 2_relu2 -> 2_conv2 (in-place)
I0126 21:28:08.314558 24753 net.cpp:120] Setting up 2_relu2
I0126 21:28:08.314571 24753 net.cpp:127] Top shape: 350 32 16 16 (2867200)
I0126 21:28:08.314584 24753 layer_factory.hpp:74] Creating layer 2_pool2
I0126 21:28:08.314601 24753 net.cpp:90] Creating Layer 2_pool2
I0126 21:28:08.314620 24753 net.cpp:410] 2_pool2 <- 2_conv2
I0126 21:28:08.314632 24753 net.cpp:368] 2_pool2 -> 2_pool2
I0126 21:28:08.314646 24753 net.cpp:120] Setting up 2_pool2
I0126 21:28:08.314661 24753 net.cpp:127] Top shape: 350 32 8 8 (716800)
I0126 21:28:08.314672 24753 layer_factory.hpp:74] Creating layer 2_conv3
I0126 21:28:08.314687 24753 net.cpp:90] Creating Layer 2_conv3
I0126 21:28:08.314698 24753 net.cpp:410] 2_conv3 <- 2_pool2
I0126 21:28:08.314712 24753 net.cpp:368] 2_conv3 -> 2_conv3
I0126 21:28:08.314725 24753 net.cpp:120] Setting up 2_conv3
I0126 21:28:08.316308 24753 net.cpp:127] Top shape: 350 64 8 8 (1433600)
I0126 21:28:08.316329 24753 layer_factory.hpp:74] Creating layer 2_relu3
I0126 21:28:08.316341 24753 net.cpp:90] Creating Layer 2_relu3
I0126 21:28:08.316354 24753 net.cpp:410] 2_relu3 <- 2_conv3
I0126 21:28:08.316366 24753 net.cpp:357] 2_relu3 -> 2_conv3 (in-place)
I0126 21:28:08.316380 24753 net.cpp:120] Setting up 2_relu3
I0126 21:28:08.316392 24753 net.cpp:127] Top shape: 350 64 8 8 (1433600)
I0126 21:28:08.316404 24753 layer_factory.hpp:74] Creating layer 2_pool3
I0126 21:28:08.316416 24753 net.cpp:90] Creating Layer 2_pool3
I0126 21:28:08.316427 24753 net.cpp:410] 2_pool3 <- 2_conv3
I0126 21:28:08.316440 24753 net.cpp:368] 2_pool3 -> 2_pool3
I0126 21:28:08.316453 24753 net.cpp:120] Setting up 2_pool3
I0126 21:28:08.316468 24753 net.cpp:127] Top shape: 350 64 4 4 (358400)
I0126 21:28:08.316479 24753 layer_factory.hpp:74] Creating layer 2_ip1
I0126 21:28:08.316493 24753 net.cpp:90] Creating Layer 2_ip1
I0126 21:28:08.316504 24753 net.cpp:410] 2_ip1 <- 2_pool3
I0126 21:28:08.316519 24753 net.cpp:368] 2_ip1 -> 2_ip1
I0126 21:28:08.316531 24753 net.cpp:120] Setting up 2_ip1
I0126 21:28:08.318557 24753 net.cpp:127] Top shape: 350 64 (22400)
I0126 21:28:08.318583 24753 layer_factory.hpp:74] Creating layer 2_ip2
I0126 21:28:08.318599 24753 net.cpp:90] Creating Layer 2_ip2
I0126 21:28:08.318611 24753 net.cpp:410] 2_ip2 <- 2_ip1
I0126 21:28:08.318626 24753 net.cpp:368] 2_ip2 -> 2_ip2
I0126 21:28:08.318641 24753 net.cpp:120] Setting up 2_ip2
I0126 21:28:08.318681 24753 net.cpp:127] Top shape: 350 10 (3500)
I0126 21:28:08.318696 24753 layer_factory.hpp:74] Creating layer 2_prob
I0126 21:28:08.318709 24753 net.cpp:90] Creating Layer 2_prob
I0126 21:28:08.318720 24753 net.cpp:410] 2_prob <- 2_ip2
I0126 21:28:08.318734 24753 net.cpp:368] 2_prob -> 2_prob
I0126 21:28:08.318747 24753 net.cpp:120] Setting up 2_prob
I0126 21:28:08.318763 24753 net.cpp:127] Top shape: 350 10 (3500)
I0126 21:28:08.318773 24753 layer_factory.hpp:74] Creating layer 3_conv1
I0126 21:28:08.318789 24753 net.cpp:90] Creating Layer 3_conv1
I0126 21:28:08.318799 24753 net.cpp:410] 3_conv1 <- data_cifar_0_split_2
I0126 21:28:08.318814 24753 net.cpp:368] 3_conv1 -> 3_conv1
I0126 21:28:08.318827 24753 net.cpp:120] Setting up 3_conv1
I0126 21:28:08.318923 24753 net.cpp:127] Top shape: 350 32 32 32 (11468800)
I0126 21:28:08.318938 24753 layer_factory.hpp:74] Creating layer 3_pool1
I0126 21:28:08.318951 24753 net.cpp:90] Creating Layer 3_pool1
I0126 21:28:08.318963 24753 net.cpp:410] 3_pool1 <- 3_conv1
I0126 21:28:08.318975 24753 net.cpp:368] 3_pool1 -> 3_pool1
I0126 21:28:08.318989 24753 net.cpp:120] Setting up 3_pool1
I0126 21:28:08.319003 24753 net.cpp:127] Top shape: 350 32 16 16 (2867200)
I0126 21:28:08.319015 24753 layer_factory.hpp:74] Creating layer 3_relu1
I0126 21:28:08.319030 24753 net.cpp:90] Creating Layer 3_relu1
I0126 21:28:08.319041 24753 net.cpp:410] 3_relu1 <- 3_pool1
I0126 21:28:08.319053 24753 net.cpp:357] 3_relu1 -> 3_pool1 (in-place)
I0126 21:28:08.319067 24753 net.cpp:120] Setting up 3_relu1
I0126 21:28:08.319079 24753 net.cpp:127] Top shape: 350 32 16 16 (2867200)
I0126 21:28:08.319090 24753 layer_factory.hpp:74] Creating layer 3_conv2
I0126 21:28:08.319103 24753 net.cpp:90] Creating Layer 3_conv2
I0126 21:28:08.319115 24753 net.cpp:410] 3_conv2 <- 3_pool1
I0126 21:28:08.319128 24753 net.cpp:368] 3_conv2 -> 3_conv2
I0126 21:28:08.319141 24753 net.cpp:120] Setting up 3_conv2
I0126 21:28:08.319943 24753 net.cpp:127] Top shape: 350 32 16 16 (2867200)
I0126 21:28:08.319967 24753 layer_factory.hpp:74] Creating layer 3_relu2
I0126 21:28:08.319982 24753 net.cpp:90] Creating Layer 3_relu2
I0126 21:28:08.319993 24753 net.cpp:410] 3_relu2 <- 3_conv2
I0126 21:28:08.320006 24753 net.cpp:357] 3_relu2 -> 3_conv2 (in-place)
I0126 21:28:08.320020 24753 net.cpp:120] Setting up 3_relu2
I0126 21:28:08.320034 24753 net.cpp:127] Top shape: 350 32 16 16 (2867200)
I0126 21:28:08.320044 24753 layer_factory.hpp:74] Creating layer 3_pool2
I0126 21:28:08.320057 24753 net.cpp:90] Creating Layer 3_pool2
I0126 21:28:08.320068 24753 net.cpp:410] 3_pool2 <- 3_conv2
I0126 21:28:08.320081 24753 net.cpp:368] 3_pool2 -> 3_pool2
I0126 21:28:08.320094 24753 net.cpp:120] Setting up 3_pool2
I0126 21:28:08.320108 24753 net.cpp:127] Top shape: 350 32 8 8 (716800)
I0126 21:28:08.320119 24753 layer_factory.hpp:74] Creating layer 3_conv3
I0126 21:28:08.320137 24753 net.cpp:90] Creating Layer 3_conv3
I0126 21:28:08.320148 24753 net.cpp:410] 3_conv3 <- 3_pool2
I0126 21:28:08.320163 24753 net.cpp:368] 3_conv3 -> 3_conv3
I0126 21:28:08.320175 24753 net.cpp:120] Setting up 3_conv3
I0126 21:28:08.321768 24753 net.cpp:127] Top shape: 350 64 8 8 (1433600)
I0126 21:28:08.321794 24753 layer_factory.hpp:74] Creating layer 3_relu3
I0126 21:28:08.321808 24753 net.cpp:90] Creating Layer 3_relu3
I0126 21:28:08.321820 24753 net.cpp:410] 3_relu3 <- 3_conv3
I0126 21:28:08.321833 24753 net.cpp:357] 3_relu3 -> 3_conv3 (in-place)
I0126 21:28:08.321847 24753 net.cpp:120] Setting up 3_relu3
I0126 21:28:08.321861 24753 net.cpp:127] Top shape: 350 64 8 8 (1433600)
I0126 21:28:08.321871 24753 layer_factory.hpp:74] Creating layer 3_pool3
I0126 21:28:08.321885 24753 net.cpp:90] Creating Layer 3_pool3
I0126 21:28:08.321897 24753 net.cpp:410] 3_pool3 <- 3_conv3
I0126 21:28:08.321910 24753 net.cpp:368] 3_pool3 -> 3_pool3
I0126 21:28:08.321923 24753 net.cpp:120] Setting up 3_pool3
I0126 21:28:08.321938 24753 net.cpp:127] Top shape: 350 64 4 4 (358400)
I0126 21:28:08.321949 24753 layer_factory.hpp:74] Creating layer 3_ip1
I0126 21:28:08.321962 24753 net.cpp:90] Creating Layer 3_ip1
I0126 21:28:08.321974 24753 net.cpp:410] 3_ip1 <- 3_pool3
I0126 21:28:08.321987 24753 net.cpp:368] 3_ip1 -> 3_ip1
I0126 21:28:08.322001 24753 net.cpp:120] Setting up 3_ip1
I0126 21:28:08.324031 24753 net.cpp:127] Top shape: 350 64 (22400)
I0126 21:28:08.324056 24753 layer_factory.hpp:74] Creating layer 3_ip2
I0126 21:28:08.324079 24753 net.cpp:90] Creating Layer 3_ip2
I0126 21:28:08.324093 24753 net.cpp:410] 3_ip2 <- 3_ip1
I0126 21:28:08.324110 24753 net.cpp:368] 3_ip2 -> 3_ip2
I0126 21:28:08.324128 24753 net.cpp:120] Setting up 3_ip2
I0126 21:28:08.324173 24753 net.cpp:127] Top shape: 350 10 (3500)
I0126 21:28:08.324193 24753 layer_factory.hpp:74] Creating layer 3_prob
I0126 21:28:08.324208 24753 net.cpp:90] Creating Layer 3_prob
I0126 21:28:08.324221 24753 net.cpp:410] 3_prob <- 3_ip2
I0126 21:28:08.324235 24753 net.cpp:368] 3_prob -> 3_prob
I0126 21:28:08.324254 24753 net.cpp:120] Setting up 3_prob
I0126 21:28:08.324272 24753 net.cpp:127] Top shape: 350 10 (3500)
I0126 21:28:08.324285 24753 layer_factory.hpp:74] Creating layer 4_conv1
I0126 21:28:08.324304 24753 net.cpp:90] Creating Layer 4_conv1
I0126 21:28:08.324319 24753 net.cpp:410] 4_conv1 <- data_cifar_0_split_3
I0126 21:28:08.324336 24753 net.cpp:368] 4_conv1 -> 4_conv1
I0126 21:28:08.324352 24753 net.cpp:120] Setting up 4_conv1
I0126 21:28:08.324455 24753 net.cpp:127] Top shape: 350 32 32 32 (11468800)
I0126 21:28:08.324472 24753 layer_factory.hpp:74] Creating layer 4_pool1
I0126 21:28:08.324487 24753 net.cpp:90] Creating Layer 4_pool1
I0126 21:28:08.324501 24753 net.cpp:410] 4_pool1 <- 4_conv1
I0126 21:28:08.324514 24753 net.cpp:368] 4_pool1 -> 4_pool1
I0126 21:28:08.324529 24753 net.cpp:120] Setting up 4_pool1
I0126 21:28:08.324546 24753 net.cpp:127] Top shape: 350 32 16 16 (2867200)
I0126 21:28:08.324558 24753 layer_factory.hpp:74] Creating layer 4_relu1
I0126 21:28:08.324574 24753 net.cpp:90] Creating Layer 4_relu1
I0126 21:28:08.324590 24753 net.cpp:410] 4_relu1 <- 4_pool1
I0126 21:28:08.324614 24753 net.cpp:357] 4_relu1 -> 4_pool1 (in-place)
I0126 21:28:08.324627 24753 net.cpp:120] Setting up 4_relu1
I0126 21:28:08.324640 24753 net.cpp:127] Top shape: 350 32 16 16 (2867200)
I0126 21:28:08.324651 24753 layer_factory.hpp:74] Creating layer 4_conv2
I0126 21:28:08.324666 24753 net.cpp:90] Creating Layer 4_conv2
I0126 21:28:08.324676 24753 net.cpp:410] 4_conv2 <- 4_pool1
I0126 21:28:08.324690 24753 net.cpp:368] 4_conv2 -> 4_conv2
I0126 21:28:08.324703 24753 net.cpp:120] Setting up 4_conv2
I0126 21:28:08.325511 24753 net.cpp:127] Top shape: 350 32 16 16 (2867200)
I0126 21:28:08.325536 24753 layer_factory.hpp:74] Creating layer 4_relu2
I0126 21:28:08.325549 24753 net.cpp:90] Creating Layer 4_relu2
I0126 21:28:08.325562 24753 net.cpp:410] 4_relu2 <- 4_conv2
I0126 21:28:08.325574 24753 net.cpp:357] 4_relu2 -> 4_conv2 (in-place)
I0126 21:28:08.325587 24753 net.cpp:120] Setting up 4_relu2
I0126 21:28:08.325600 24753 net.cpp:127] Top shape: 350 32 16 16 (2867200)
I0126 21:28:08.325611 24753 layer_factory.hpp:74] Creating layer 4_pool2
I0126 21:28:08.325625 24753 net.cpp:90] Creating Layer 4_pool2
I0126 21:28:08.325637 24753 net.cpp:410] 4_pool2 <- 4_conv2
I0126 21:28:08.325650 24753 net.cpp:368] 4_pool2 -> 4_pool2
I0126 21:28:08.325664 24753 net.cpp:120] Setting up 4_pool2
I0126 21:28:08.325677 24753 net.cpp:127] Top shape: 350 32 8 8 (716800)
I0126 21:28:08.325688 24753 layer_factory.hpp:74] Creating layer 4_conv3
I0126 21:28:08.325703 24753 net.cpp:90] Creating Layer 4_conv3
I0126 21:28:08.325714 24753 net.cpp:410] 4_conv3 <- 4_pool2
I0126 21:28:08.325727 24753 net.cpp:368] 4_conv3 -> 4_conv3
I0126 21:28:08.325742 24753 net.cpp:120] Setting up 4_conv3
I0126 21:28:08.327327 24753 net.cpp:127] Top shape: 350 64 8 8 (1433600)
I0126 21:28:08.327353 24753 layer_factory.hpp:74] Creating layer 4_relu3
I0126 21:28:08.327370 24753 net.cpp:90] Creating Layer 4_relu3
I0126 21:28:08.327383 24753 net.cpp:410] 4_relu3 <- 4_conv3
I0126 21:28:08.327399 24753 net.cpp:357] 4_relu3 -> 4_conv3 (in-place)
I0126 21:28:08.327414 24753 net.cpp:120] Setting up 4_relu3
I0126 21:28:08.327428 24753 net.cpp:127] Top shape: 350 64 8 8 (1433600)
I0126 21:28:08.327442 24753 layer_factory.hpp:74] Creating layer 4_pool3
I0126 21:28:08.327458 24753 net.cpp:90] Creating Layer 4_pool3
I0126 21:28:08.327472 24753 net.cpp:410] 4_pool3 <- 4_conv3
I0126 21:28:08.327488 24753 net.cpp:368] 4_pool3 -> 4_pool3
I0126 21:28:08.327505 24753 net.cpp:120] Setting up 4_pool3
I0126 21:28:08.327522 24753 net.cpp:127] Top shape: 350 64 4 4 (358400)
I0126 21:28:08.327536 24753 layer_factory.hpp:74] Creating layer 4_ip1
I0126 21:28:08.327554 24753 net.cpp:90] Creating Layer 4_ip1
I0126 21:28:08.327569 24753 net.cpp:410] 4_ip1 <- 4_pool3
I0126 21:28:08.327585 24753 net.cpp:368] 4_ip1 -> 4_ip1
I0126 21:28:08.327602 24753 net.cpp:120] Setting up 4_ip1
I0126 21:28:08.329679 24753 net.cpp:127] Top shape: 350 64 (22400)
I0126 21:28:08.329702 24753 layer_factory.hpp:74] Creating layer 4_ip2
I0126 21:28:08.329720 24753 net.cpp:90] Creating Layer 4_ip2
I0126 21:28:08.329731 24753 net.cpp:410] 4_ip2 <- 4_ip1
I0126 21:28:08.329746 24753 net.cpp:368] 4_ip2 -> 4_ip2
I0126 21:28:08.329761 24753 net.cpp:120] Setting up 4_ip2
I0126 21:28:08.329802 24753 net.cpp:127] Top shape: 350 10 (3500)
I0126 21:28:08.329816 24753 layer_factory.hpp:74] Creating layer 4_prob
I0126 21:28:08.329828 24753 net.cpp:90] Creating Layer 4_prob
I0126 21:28:08.329840 24753 net.cpp:410] 4_prob <- 4_ip2
I0126 21:28:08.329852 24753 net.cpp:368] 4_prob -> 4_prob
I0126 21:28:08.329866 24753 net.cpp:120] Setting up 4_prob
I0126 21:28:08.329881 24753 net.cpp:127] Top shape: 350 10 (3500)
I0126 21:28:08.329893 24753 layer_factory.hpp:74] Creating layer loss
I0126 21:28:08.329910 24753 net.cpp:90] Creating Layer loss
I0126 21:28:08.329921 24753 net.cpp:410] loss <- 1_prob
I0126 21:28:08.329932 24753 net.cpp:410] loss <- 2_prob
I0126 21:28:08.329944 24753 net.cpp:410] loss <- 3_prob
I0126 21:28:08.329957 24753 net.cpp:410] loss <- 4_prob
I0126 21:28:08.329972 24753 net.cpp:410] loss <- label
I0126 21:28:08.329993 24753 net.cpp:368] loss -> multiple-output loss
I0126 21:28:08.330008 24753 net.cpp:368] loss -> batch-instance-counts
I0126 21:28:08.330024 24753 net.cpp:368] loss -> train-instance-counts
I0126 21:28:08.330039 24753 net.cpp:120] Setting up loss
I0126 21:28:08.330060 24753 net.cpp:127] Top shape: 4 1 1 1 (4)
I0126 21:28:08.330071 24753 net.cpp:129]     with loss weight 1
I0126 21:28:08.330096 24753 net.cpp:127] Top shape: 4 1 1 1 (4)
I0126 21:28:08.330107 24753 net.cpp:127] Top shape: 4 1 1 1 (4)
I0126 21:28:08.330119 24753 net.cpp:192] loss needs backward computation.
I0126 21:28:08.330132 24753 net.cpp:192] 4_prob needs backward computation.
I0126 21:28:08.330142 24753 net.cpp:192] 4_ip2 needs backward computation.
I0126 21:28:08.330153 24753 net.cpp:192] 4_ip1 needs backward computation.
I0126 21:28:08.330164 24753 net.cpp:192] 4_pool3 needs backward computation.
I0126 21:28:08.330175 24753 net.cpp:192] 4_relu3 needs backward computation.
…
I0126 21:28:08.332186 24753 net.cpp:287] The NetState phase (1) differed from the phase (0) specified by a rule in layer loss
I0126 21:28:08.332494 24753 net.cpp:42] Initializing net from parameters: 
name: "CIFAR10_quick"
state {
  phase: TEST
}
layer {
  name: "cifar"
  type: "Data"
  top: "data"
  top: "label"
  include {
    phase: TEST
  }
  transform_param {
    mean_file: "/home/mike/ml_lab/mod/MCL_Caffe/examples/cifar10/mean.binaryproto"
  }
  data_param {
    source: "/home/mike/ml_lab/mod/MCL_Caffe/examples/cifar10/cifar10_test_lmdb"
    batch_size: 100
    backend: LMDB
  }
}
layer {
  name: "1_conv1"
  type: "Convolution"
  bottom: "data"
  top: "1_conv1"
  param {
    lr_mult: 1
  }
  param {
    lr_mult: 2
  }
  convolution_param {
    num_output: 32
    pad: 2
    kernel_size: 5
    stride: 1
    weight_filler {
      type: "gaussian"
      std: 0.0001
    }
    bias_filler {
      type: "constant"
    }
  }
}
layer {
  name: "1_pool1"
  type: "Pooling"
  bottom: "1_conv1"
  top: "1_pool1"
  pooling_param {
    pool: MAX
    kernel_size: 3
    stride: 2
  }
}
layer {
  name: "1_relu1"
  type: "ReLU"
  bottom: "1_pool1"
  top: "1_pool1"
}
layer {
  name: "1_conv2"
  type: "Convolution"
  bottom: "1_pool1"
  top: "1_conv2"
  param {
    lr_mult: 1
  }
  param {
    lr_mult: 2
  }
  convolution_param {
    num_output: 32
    pad: 2
    kernel_size: 5
    stride: 1
    weight_filler {
      type: "gaussian"
      std: 0.01
    }
    bias_filler {
      type: "constant"
    }
  }
}
layer {
  name: "1_relu2"
  type: "ReLU"
  bottom: "1_conv2"
  top: "1_conv2"
}
layer {
  name: "1_pool2"
  type: "Pooling"
  bottom: "1_conv2"
  top: "1_pool2"
  pooling_param {
    pool: AVE
    kernel_size: 3
    stride: 2
  }
}
layer {
  name: "1_conv3"
  type: "Convolution"
  bottom: "1_pool2"
  top: "1_conv3"
  param {
    lr_mult: 1
  }
  param {
    lr_mult: 2
  }
  convolution_param {
    num_output: 64
    pad: 2
    kernel_size: 5
    stride: 1
    weight_filler {
      type: "gaussian"
      std: 0.01
    }
    bias_filler {
      type: "constant"
    }
  }
}
layer {
  name: "1_relu3"
  type: "ReLU"
  bottom: "1_conv3"
  top: "1_conv3"
}
layer {
  name: "1_pool3"
  type: "Pooling"
  bottom: "1_conv3"
  top: "1_pool3"
  pooling_param {
    pool: AVE
    kernel_size: 3
    stride: 2
  }
}
layer {
  name: "1_ip1"
  type: "InnerProduct"
  bottom: "1_pool3"
  top: "1_ip1"
  param {
    lr_mult: 1
  }
  param {
    lr_mult: 2
  }
  inner_product_param {
    num_output: 64
    weight_filler {
      type: "gaussian"
      std: 0.1
    }
    bias_filler {
      type: "constant"
    }
  }
}
layer {
  name: "1_ip2"
  type: "InnerProduct"
  bottom: "1_ip1"
  top: "1_ip2"
  param {
    lr_mult: 1
  }
  param {
    lr_mult: 2
  }
  inner_product_param {
    num_output: 10
    weight_filler {
      type: "gaussian"
      std: 0.1
    }
    bias_filler {
      type: "constant"
    }
  }
}
layer {
  name: "1_prob"
  type: "Softmax"
  bottom: "1_ip2"
  top: "1_prob"
}
layer {
  name: "2_conv1"
  type: "Convolution"
  bottom: "data"
  top: "2_conv1"
  param {
    lr_mult: 1
  }
  param {
    lr_mult: 2
  }
  convolution_param {
    num_output: 32
    pad: 2
    kernel_size: 5
    stride: 1
    weight_filler {
      type: "gaussian"
      std: 0.0001
    }
    bias_filler {
      type: "constant"
    }
  }
}
layer {
  name: "2_pool1"
  type: "Pooling"
  bottom: "2_conv1"
  top: "2_pool1"
  pooling_param {
    pool: MAX
    kernel_size: 3
    stride: 2
  }
}
layer {
  name: "2_relu1"
  type: "ReLU"
  bottom: "2_pool1"
  top: "2_pool1"
}
layer {
  name: "2_conv2"
  type: "Convolution"
  bottom: "2_pool1"
  top: "2_conv2"
  param {
    lr_mult: 1
  }
  param {
    lr_mult: 2
  }
  convolution_param {
    num_output: 32
    pad: 2
    kernel_size: 5
    stride: 1
    weight_filler {
      type: "gaussian"
      std: 0.01
    }
    bias_filler {
      type: "constant"
    }
  }
}
layer {
  name: "2_relu2"
  type: "ReLU"
  bottom: "2_conv2"
  top: "2_conv2"
}
layer {
  name: "2_pool2"
  type: "Pooling"
  bottom: "2_conv2"
  top: "2_pool2"
  pooling_param {
    pool: AVE
    kernel_size: 3
    stride: 2
  }
}
layer {
  name: "2_conv3"
  type: "Convolution"
  bottom: "2_pool2"
  top: "2_conv3"
  param {
    lr_mult: 1
  }
  param {
    lr_mult: 2
  }
  convolution_param {
    num_output: 64
    pad: 2
    kernel_size: 5
    stride: 1
    weight_filler {
      type: "gaussian"
      std: 0.01
    }
    bias_filler {
      type: "constant"
    }
  }
}
layer {
  name: "2_relu3"
  type: "ReLU"
  bottom: "2_conv3"
  top: "2_conv3"
}
layer {
  name: "2_pool3"
  type: "Pooling"
  bottom: "2_conv3"
  top: "2_pool3"
  pooling_param {
    pool: AVE
    kernel_size: 3
    stride: 2
  }
}
layer {
  name: "2_ip1"
  type: "InnerProduct"
  bottom: "2_pool3"
  top: "2_ip1"
  param {
    lr_mult: 1
  }
  param {
    lr_mult: 2
  }
  inner_product_param {
    num_output: 64
    weight_filler {
      type: "gaussian"
      std: 0.1
    }
    bias_filler {
      type: "constant"
    }
  }
}
layer {
  name: "2_ip2"
  type: "InnerProduct"
  bottom: "2_ip1"
  top: "2_ip2"
  param {
    lr_mult: 1
  }
  param {
    lr_mult: 2
  }
  inner_product_param {
    num_output: 10
    weight_filler {
      type: "gaussian"
      std: 0.1
    }
    bias_filler {
      type: "constant"
    }
  }
}
layer {
  name: "2_prob"
  type: "Softmax"
  bottom: "2_ip2"
  top: "2_prob"
}
layer {
  name: "3_conv1"
  type: "Convolution"
  bottom: "data"
  top: "3_conv1"
  param {
    lr_mult: 1
  }
  param {
    lr_mult: 2
  }
  convolution_param {
    num_output: 32
    pad: 2
    kernel_size: 5
    stride: 1
    weight_filler {
      type: "gaussian"
      std: 0.0001
    }
    bias_filler {
      type: "constant"
    }
  }
}
layer {
  name: "3_pool1"
  type: "Pooling"
  bottom: "3_conv1"
  top: "3_pool1"
  pooling_param {
    pool: MAX
    kernel_size: 3
    stride: 2
  }
}
layer {
  name: "3_relu1"
  type: "ReLU"
  bottom: "3_pool1"
  top: "3_pool1"
}
layer {
  name: "3_conv2"
  type: "Convolution"
  bottom: "3_pool1"
  top: "3_conv2"
  param {
    lr_mult: 1
  }
  param {
    lr_mult: 2
  }
  convolution_param {
    num_output: 32
    pad: 2
    kernel_size: 5
    stride: 1
    weight_filler {
      type: "gaussian"
      std: 0.01
    }
    bias_filler {
      type: "constant"
    }
  }
}
layer {
  name: "3_relu2"
  type: "ReLU"
  bottom: "3_conv2"
  top: "3_conv2"
}
layer {
  name: "3_pool2"
  type: "Pooling"
  bottom: "3_conv2"
  top: "3_pool2"
  pooling_param {
    pool: AVE
    kernel_size: 3
    stride: 2
  }
}
layer {
  name: "3_conv3"
  type: "Convolution"
  bottom: "3_pool2"
  top: "3_conv3"
  param {
    lr_mult: 1
  }
  param {
    lr_mult: 2
  }
  convolution_param {
    num_output: 64
    pad: 2
    kernel_size: 5
    stride: 1
    weight_filler {
      type: "gaussian"
      std: 0.01
    }
    bias_filler {
      type: "constant"
    }
  }
}
layer {
  name: "3_relu3"
  type: "ReLU"
  bottom: "3_conv3"
  top: "3_conv3"
}
layer {
  name: "3_pool3"
  type: "Pooling"
  bottom: "3_conv3"
  top: "3_pool3"
  pooling_param {
    pool: AVE
    kernel_size: 3
    stride: 2
  }
}
layer {
  name: "3_ip1"
  type: "InnerProduct"
  bottom: "3_pool3"
  top: "3_ip1"
  param {
    lr_mult: 1
  }
  param {
    lr_mult: 2
  }
  inner_product_param {
    num_output: 64
    weight_filler {
      type: "gaussian"
      std: 0.1
    }
    bias_filler {
      type: "constant"
    }
  }
}
layer {
  name: "3_ip2"
  type: "InnerProduct"
  bottom: "3_ip1"
  top: "3_ip2"
  param {
    lr_mult: 1
  }
  param {
    lr_mult: 2
  }
  inner_product_param {
    num_output: 10
    weight_filler {
      type: "gaussian"
      std: 0.1
    }
    bias_filler {
      type: "constant"
    }
  }
}
layer {
  name: "3_prob"
  type: "Softmax"
  bottom: "3_ip2"
  top: "3_prob"
}
layer {
  name: "4_conv1"
  type: "Convolution"
  bottom: "data"
  top: "4_conv1"
  param {
    lr_mult: 1
  }
  param {
    lr_mult: 2
  }
  convolution_param {
    num_output: 32
    pad: 2
    kernel_size: 5
    stride: 1
    weight_filler {
      type: "gaussian"
      std: 0.0001
    }
    bias_filler {
      type: "constant"
    }
  }
}
layer {
  name: "4_pool1"
  type: "Pooling"
  bottom: "4_conv1"
  top: "4_pool1"
  pooling_param {
    pool: MAX
    kernel_size: 3
    stride: 2
  }
}
layer {
  name: "4_relu1"
  type: "ReLU"
  bottom: "4_pool1"
  top: "4_pool1"
}
layer {
  name: "4_conv2"
  type: "Convolution"
  bottom: "4_pool1"
  top: "4_conv2"
  param {
    lr_mult: 1
  }
  param {
    lr_mult: 2
  }
  convolution_param {
    num_output: 32
    pad: 2
    kernel_size: 5
    stride: 1
    weight_filler {
      type: "gaussian"
      std: 0.01
    }
    bias_filler {
      type: "constant"
    }
  }
}
layer {
  name: "4_relu2"
  type: "ReLU"
  bottom: "4_conv2"
  top: "4_conv2"
}
layer {
  name: "4_pool2"
  type: "Pooling"
  bottom: "4_conv2"
  top: "4_pool2"
  pooling_param {
    pool: AVE
    kernel_size: 3
    stride: 2
  }
}
layer {
  name: "4_conv3"
  type: "Convolution"
  bottom: "4_pool2"
  top: "4_conv3"
  param {
    lr_mult: 1
  }
  param {
    lr_mult: 2
  }
  convolution_param {
    num_output: 64
    pad: 2
    kernel_size: 5
    stride: 1
    weight_filler {
      type: "gaussian"
      std: 0.01
    }
    bias_filler {
      type: "constant"
    }
  }
}
layer {
  name: "4_relu3"
  type: "ReLU"
  bottom: "4_conv3"
  top: "4_conv3"
}
layer {
  name: "4_pool3"
  type: "Pooling"
  bottom: "4_conv3"
  top: "4_pool3"
  pooling_param {
    pool: AVE
    kernel_size: 3
    stride: 2
  }
}
layer {
  name: "4_ip1"
  type: "InnerProduct"
  bottom: "4_pool3"
  top: "4_ip1"
  param {
    lr_mult: 1
  }
  param {
    lr_mult: 2
  }
  inner_product_param {
    num_output: 64
    weight_filler {
      type: "gaussian"
      std: 0.1
    }
    bias_filler {
      type: "constant"
    }
  }
}
layer {
  name: "4_ip2"
  type: "InnerProduct"
  bottom: "4_ip1"
  top: "4_ip2"
  param {
    lr_mult: 1
  }
  param {
    lr_mult: 2
  }
  inner_product_param {
    num_output: 10
    weight_filler {
      type: "gaussian"
      std: 0.1
    }
    bias_filler {
      type: "constant"
    }
  }
}
layer {
  name: "4_prob"
  type: "Softmax"
  bottom: "4_ip2"
  top: "4_prob"
}
layer {
  name: "1_accuracy"
  type: "Accuracy"
  bottom: "1_prob"
  bottom: "label"
  top: "1_accuracy"
  include {
    phase: TEST
  }
}
layer {
  name: "2_accuracy"
  type: "Accuracy"
  bottom: "2_prob"
  bottom: "label"
  top: "2_accuracy"
  include {
    phase: TEST
  }
}
layer {
  name: "3_accuracy"
  type: "Accuracy"
  bottom: "3_prob"
  bottom: "label"
  top: "3_accuracy"
  include {
    phase: TEST
  }
}
layer {
  name: "4_accuracy"
  type: "Accuracy"
  bottom: "4_prob"
  bottom: "label"
  top: "4_accuracy"
  include {
    phase: TEST
  }
}
layer {
  name: "accuracy"
  type: "OracleAccuracy"
  bottom: "1_prob"
  bottom: "2_prob"
  bottom: "3_prob"
  bottom: "4_prob"
  bottom: "label"
  top: "oracle accuracy"
  include {
    phase: TEST
  }
}
I0126 21:28:08.334868 24753 layer_factory.hpp:74] Creating layer cifar
I0126 21:28:08.334895 24753 net.cpp:90] Creating Layer cifar
I0126 21:28:08.334909 24753 net.cpp:368] cifar -> data
I0126 21:28:08.334928 24753 net.cpp:368] cifar -> label
I0126 21:28:08.334944 24753 net.cpp:120] Setting up cifar
I0126 21:28:08.334980 24753 db.cpp:34] Opened lmdb /home/mike/ml_lab/mod/MCL_Caffe/examples/cifar10/cifar10_test_lmdb
I0126 21:28:08.335013 24753 data_layer.cpp:67] output data size: 100,3,32,32
I0126 21:28:08.335029 24753 data_transformer.cpp:22] Loading mean file from: /home/mike/ml_lab/mod/MCL_Caffe/examples/cifar10/mean.binaryproto
I0126 21:28:08.335407 24753 net.cpp:127] Top shape: 100 3 32 32 (307200)
I0126 21:28:08.335427 24753 net.cpp:127] Top shape: 100 (100)
I0126 21:28:08.335439 24753 layer_factory.hpp:74] Creating layer data_cifar_0_split
I0126 21:28:08.335455 24753 net.cpp:90] Creating Layer data_cifar_0_split
I0126 21:28:08.335467 24753 net.cpp:410] data_cifar_0_split <- data
I0126 21:28:08.335480 24753 net.cpp:368] data_cifar_0_split -> data_cifar_0_split_0
I0126 21:28:08.335495 24753 net.cpp:368] data_cifar_0_split -> data_cifar_0_split_1
I0126 21:28:08.335510 24753 net.cpp:368] data_cifar_0_split -> data_cifar_0_split_2
I0126 21:28:08.335525 24753 net.cpp:368] data_cifar_0_split -> data_cifar_0_split_3
I0126 21:28:08.335537 24753 net.cpp:120] Setting up data_cifar_0_split
I0126 21:28:08.335552 24753 net.cpp:127] Top shape: 100 3 32 32 (307200)
I0126 21:28:08.335564 24753 net.cpp:127] Top shape: 100 3 32 32 (307200)
I0126 21:28:08.335577 24753 net.cpp:127] Top shape: 100 3 32 32 (307200)
I0126 21:28:08.335589 24753 net.cpp:127] Top shape: 100 3 32 32 (307200)
I0126 21:28:08.335600 24753 layer_factory.hpp:74] Creating layer label_cifar_1_split
I0126 21:28:08.335613 24753 net.cpp:90] Creating Layer label_cifar_1_split
I0126 21:28:08.335624 24753 net.cpp:410] label_cifar_1_split <- label
I0126 21:28:08.335638 24753 net.cpp:368] label_cifar_1_split -> label_cifar_1_split_0
I0126 21:28:08.335652 24753 net.cpp:368] label_cifar_1_split -> label_cifar_1_split_1
I0126 21:28:08.335666 24753 net.cpp:368] label_cifar_1_split -> label_cifar_1_split_2
I0126 21:28:08.335680 24753 net.cpp:368] label_cifar_1_split -> label_cifar_1_split_3
I0126 21:28:08.335695 24753 net.cpp:368] label_cifar_1_split -> label_cifar_1_split_4
I0126 21:28:08.335707 24753 net.cpp:120] Setting up label_cifar_1_split
I0126 21:28:08.335721 24753 net.cpp:127] Top shape: 100 (100)
I0126 21:28:08.335733 24753 net.cpp:127] Top shape: 100 (100)
I0126 21:28:08.335746 24753 net.cpp:127] Top shape: 100 (100)
I0126 21:28:08.335757 24753 net.cpp:127] Top shape: 100 (100)
I0126 21:28:08.335769 24753 net.cpp:127] Top shape: 100 (100)
I0126 21:28:08.335780 24753 layer_factory.hpp:74] Creating layer 1_conv1
I0126 21:28:08.335794 24753 net.cpp:90] Creating Layer 1_conv1
I0126 21:28:08.335805 24753 net.cpp:410] 1_conv1 <- data_cifar_0_split_0
I0126 21:28:08.335819 24753 net.cpp:368] 1_conv1 -> 1_conv1
I0126 21:28:08.335834 24753 net.cpp:120] Setting up 1_conv1
I0126 21:28:08.335927 24753 net.cpp:127] Top shape: 100 32 32 32 (3276800)
I0126 21:28:08.335944 24753 layer_factory.hpp:74] Creating layer 1_pool1
I0126 21:28:08.335958 24753 net.cpp:90] Creating Layer 1_pool1
I0126 21:28:08.335970 24753 net.cpp:410] 1_pool1 <- 1_conv1
I0126 21:28:08.335984 24753 net.cpp:368] 1_pool1 -> 1_pool1
I0126 21:28:08.335997 24753 net.cpp:120] Setting up 1_pool1
I0126 21:28:08.336012 24753 net.cpp:127] Top shape: 100 32 16 16 (819200)
I0126 21:28:08.336024 24753 layer_factory.hpp:74] Creating layer 1_relu1
I0126 21:28:08.336036 24753 net.cpp:90] Creating Layer 1_relu1
I0126 21:28:08.336047 24753 net.cpp:410] 1_relu1 <- 1_pool1
I0126 21:28:08.336061 24753 net.cpp:357] 1_relu1 -> 1_pool1 (in-place)
I0126 21:28:08.336072 24753 net.cpp:120] Setting up 1_relu1
I0126 21:28:08.336086 24753 net.cpp:127] Top shape: 100 32 16 16 (819200)
I0126 21:28:08.336097 24753 layer_factory.hpp:74] Creating layer 1_conv2
I0126 21:28:08.336110 24753 net.cpp:90] Creating Layer 1_conv2
I0126 21:28:08.336122 24753 net.cpp:410] 1_conv2 <- 1_pool1
I0126 21:28:08.336141 24753 net.cpp:368] 1_conv2 -> 1_conv2
I0126 21:28:08.336161 24753 net.cpp:120] Setting up 1_conv2
I0126 21:28:08.336959 24753 net.cpp:127] Top shape: 100 32 16 16 (819200)
I0126 21:28:08.336978 24753 layer_factory.hpp:74] Creating layer 1_relu2
I0126 21:28:08.336992 24753 net.cpp:90] Creating Layer 1_relu2
I0126 21:28:08.337003 24753 net.cpp:410] 1_relu2 <- 1_conv2
I0126 21:28:08.337015 24753 net.cpp:357] 1_relu2 -> 1_conv2 (in-place)
I0126 21:28:08.337028 24753 net.cpp:120] Setting up 1_relu2
I0126 21:28:08.337040 24753 net.cpp:127] Top shape: 100 32 16 16 (819200)
I0126 21:28:08.337052 24753 layer_factory.hpp:74] Creating layer 1_pool2
I0126 21:28:08.337066 24753 net.cpp:90] Creating Layer 1_pool2
I0126 21:28:08.337077 24753 net.cpp:410] 1_pool2 <- 1_conv2
I0126 21:28:08.337090 24753 net.cpp:368] 1_pool2 -> 1_pool2
I0126 21:28:08.337103 24753 net.cpp:120] Setting up 1_pool2
I0126 21:28:08.337119 24753 net.cpp:127] Top shape: 100 32 8 8 (204800)
I0126 21:28:08.337141 24753 layer_factory.hpp:74] Creating layer 1_conv3
I0126 21:28:08.337158 24753 net.cpp:90] Creating Layer 1_conv3
I0126 21:28:08.337172 24753 net.cpp:410] 1_conv3 <- 1_pool2
I0126 21:28:08.337188 24753 net.cpp:368] 1_conv3 -> 1_conv3
I0126 21:28:08.337205 24753 net.cpp:120] Setting up 1_conv3
I0126 21:28:08.338793 24753 net.cpp:127] Top shape: 100 64 8 8 (409600)
I0126 21:28:08.338815 24753 layer_factory.hpp:74] Creating layer 1_relu3
I0126 21:28:08.338830 24753 net.cpp:90] Creating Layer 1_relu3
I0126 21:28:08.338841 24753 net.cpp:410] 1_relu3 <- 1_conv3
I0126 21:28:08.338855 24753 net.cpp:357] 1_relu3 -> 1_conv3 (in-place)
I0126 21:28:08.338867 24753 net.cpp:120] Setting up 1_relu3
I0126 21:28:08.338881 24753 net.cpp:127] Top shape: 100 64 8 8 (409600)
I0126 21:28:08.338891 24753 layer_factory.hpp:74] Creating layer 1_pool3
I0126 21:28:08.338904 24753 net.cpp:90] Creating Layer 1_pool3
I0126 21:28:08.338915 24753 net.cpp:410] 1_pool3 <- 1_conv3
I0126 21:28:08.338927 24753 net.cpp:368] 1_pool3 -> 1_pool3
I0126 21:28:08.338945 24753 net.cpp:120] Setting up 1_pool3
I0126 21:28:08.338959 24753 net.cpp:127] Top shape: 100 64 4 4 (102400)
I0126 21:28:08.338971 24753 layer_factory.hpp:74] Creating layer 1_ip1
I0126 21:28:08.338984 24753 net.cpp:90] Creating Layer 1_ip1
I0126 21:28:08.338995 24753 net.cpp:410] 1_ip1 <- 1_pool3
I0126 21:28:08.339010 24753 net.cpp:368] 1_ip1 -> 1_ip1
I0126 21:28:08.339025 24753 net.cpp:120] Setting up 1_ip1
I0126 21:28:08.341047 24753 net.cpp:127] Top shape: 100 64 (6400)
I0126 21:28:08.341070 24753 layer_factory.hpp:74] Creating layer 1_ip2
I0126 21:28:08.341086 24753 net.cpp:90] Creating Layer 1_ip2
I0126 21:28:08.341099 24753 net.cpp:410] 1_ip2 <- 1_ip1
I0126 21:28:08.341114 24753 net.cpp:368] 1_ip2 -> 1_ip2
I0126 21:28:08.341132 24753 net.cpp:120] Setting up 1_ip2
I0126 21:28:08.341174 24753 net.cpp:127] Top shape: 100 10 (1000)
I0126 21:28:08.341192 24753 layer_factory.hpp:74] Creating layer 1_prob
I0126 21:28:08.341204 24753 net.cpp:90] Creating Layer 1_prob
I0126 21:28:08.341215 24753 net.cpp:410] 1_prob <- 1_ip2
I0126 21:28:08.341228 24753 net.cpp:368] 1_prob -> 1_prob
I0126 21:28:08.341241 24753 net.cpp:120] Setting up 1_prob
I0126 21:28:08.341256 24753 net.cpp:127] Top shape: 100 10 (1000)
I0126 21:28:08.341269 24753 layer_factory.hpp:74] Creating layer 1_prob_1_prob_0_split
I0126 21:28:08.341281 24753 net.cpp:90] Creating Layer 1_prob_1_prob_0_split
I0126 21:28:08.341294 24753 net.cpp:410] 1_prob_1_prob_0_split <- 1_prob
I0126 21:28:08.341306 24753 net.cpp:368] 1_prob_1_prob_0_split -> 1_prob_1_prob_0_split_0
I0126 21:28:08.341320 24753 net.cpp:368] 1_prob_1_prob_0_split -> 1_prob_1_prob_0_split_1
I0126 21:28:08.341336 24753 net.cpp:120] Setting up 1_prob_1_prob_0_split
I0126 21:28:08.341348 24753 net.cpp:127] Top shape: 100 10 (1000)
I0126 21:28:08.341361 24753 net.cpp:127] Top shape: 100 10 (1000)
I0126 21:28:08.341372 24753 layer_factory.hpp:74] Creating layer 2_conv1
I0126 21:28:08.341387 24753 net.cpp:90] Creating Layer 2_conv1
I0126 21:28:08.341398 24753 net.cpp:410] 2_conv1 <- data_cifar_0_split_1
I0126 21:28:08.341418 24753 net.cpp:368] 2_conv1 -> 2_conv1
I0126 21:28:08.341437 24753 net.cpp:120] Setting up 2_conv1
I0126 21:28:08.341532 24753 net.cpp:127] Top shape: 100 32 32 32 (3276800)
I0126 21:28:08.341547 24753 layer_factory.hpp:74] Creating layer 2_pool1
I0126 21:28:08.341562 24753 net.cpp:90] Creating Layer 2_pool1
I0126 21:28:08.341572 24753 net.cpp:410] 2_pool1 <- 2_conv1
I0126 21:28:08.341586 24753 net.cpp:368] 2_pool1 -> 2_pool1
I0126 21:28:08.341600 24753 net.cpp:120] Setting up 2_pool1
I0126 21:28:08.341614 24753 net.cpp:127] Top shape: 100 32 16 16 (819200)
I0126 21:28:08.341626 24753 layer_factory.hpp:74] Creating layer 2_relu1
I0126 21:28:08.341639 24753 net.cpp:90] Creating Layer 2_relu1
I0126 21:28:08.341650 24753 net.cpp:410] 2_relu1 <- 2_pool1
I0126 21:28:08.341662 24753 net.cpp:357] 2_relu1 -> 2_pool1 (in-place)
I0126 21:28:08.341675 24753 net.cpp:120] Setting up 2_relu1
I0126 21:28:08.341688 24753 net.cpp:127] Top shape: 100 32 16 16 (819200)
I0126 21:28:08.341699 24753 layer_factory.hpp:74] Creating layer 2_conv2
I0126 21:28:08.341712 24753 net.cpp:90] Creating Layer 2_conv2
I0126 21:28:08.341724 24753 net.cpp:410] 2_conv2 <- 2_pool1
I0126 21:28:08.341738 24753 net.cpp:368] 2_conv2 -> 2_conv2
I0126 21:28:08.341753 24753 net.cpp:120] Setting up 2_conv2
I0126 21:28:08.342552 24753 net.cpp:127] Top shape: 100 32 16 16 (819200)
I0126 21:28:08.342569 24753 layer_factory.hpp:74] Creating layer 2_relu2
I0126 21:28:08.342582 24753 net.cpp:90] Creating Layer 2_relu2
I0126 21:28:08.342593 24753 net.cpp:410] 2_relu2 <- 2_conv2
I0126 21:28:08.342607 24753 net.cpp:357] 2_relu2 -> 2_conv2 (in-place)
I0126 21:28:08.342619 24753 net.cpp:120] Setting up 2_relu2
I0126 21:28:08.342633 24753 net.cpp:127] Top shape: 100 32 16 16 (819200)
I0126 21:28:08.342643 24753 layer_factory.hpp:74] Creating layer 2_pool2
I0126 21:28:08.342658 24753 net.cpp:90] Creating Layer 2_pool2
I0126 21:28:08.342669 24753 net.cpp:410] 2_pool2 <- 2_conv2
I0126 21:28:08.342681 24753 net.cpp:368] 2_pool2 -> 2_pool2
I0126 21:28:08.342694 24753 net.cpp:120] Setting up 2_pool2
I0126 21:28:08.342708 24753 net.cpp:127] Top shape: 100 32 8 8 (204800)
I0126 21:28:08.342720 24753 layer_factory.hpp:74] Creating layer 2_conv3
I0126 21:28:08.342734 24753 net.cpp:90] Creating Layer 2_conv3
I0126 21:28:08.342746 24753 net.cpp:410] 2_conv3 <- 2_pool2
I0126 21:28:08.342759 24753 net.cpp:368] 2_conv3 -> 2_conv3
I0126 21:28:08.342772 24753 net.cpp:120] Setting up 2_conv3
I0126 21:28:08.344369 24753 net.cpp:127] Top shape: 100 64 8 8 (409600)
I0126 21:28:08.344395 24753 layer_factory.hpp:74] Creating layer 2_relu3
I0126 21:28:08.344410 24753 net.cpp:90] Creating Layer 2_relu3
I0126 21:28:08.344422 24753 net.cpp:410] 2_relu3 <- 2_conv3
I0126 21:28:08.344436 24753 net.cpp:357] 2_relu3 -> 2_conv3 (in-place)
I0126 21:28:08.344450 24753 net.cpp:120] Setting up 2_relu3
I0126 21:28:08.344463 24753 net.cpp:127] Top shape: 100 64 8 8 (409600)
I0126 21:28:08.344475 24753 layer_factory.hpp:74] Creating layer 2_pool3
I0126 21:28:08.344487 24753 net.cpp:90] Creating Layer 2_pool3
I0126 21:28:08.344499 24753 net.cpp:410] 2_pool3 <- 2_conv3
I0126 21:28:08.344512 24753 net.cpp:368] 2_pool3 -> 2_pool3
I0126 21:28:08.344525 24753 net.cpp:120] Setting up 2_pool3
I0126 21:28:08.344539 24753 net.cpp:127] Top shape: 100 64 4 4 (102400)
I0126 21:28:08.344552 24753 layer_factory.hpp:74] Creating layer 2_ip1
I0126 21:28:08.344565 24753 net.cpp:90] Creating Layer 2_ip1
I0126 21:28:08.344578 24753 net.cpp:410] 2_ip1 <- 2_pool3
I0126 21:28:08.344590 24753 net.cpp:368] 2_ip1 -> 2_ip1
I0126 21:28:08.344604 24753 net.cpp:120] Setting up 2_ip1
I0126 21:28:08.346627 24753 net.cpp:127] Top shape: 100 64 (6400)
I0126 21:28:08.346650 24753 layer_factory.hpp:74] Creating layer 2_ip2
I0126 21:28:08.346665 24753 net.cpp:90] Creating Layer 2_ip2
I0126 21:28:08.346678 24753 net.cpp:410] 2_ip2 <- 2_ip1
I0126 21:28:08.346690 24753 net.cpp:368] 2_ip2 -> 2_ip2
I0126 21:28:08.346706 24753 net.cpp:120] Setting up 2_ip2
I0126 21:28:08.346745 24753 net.cpp:127] Top shape: 100 10 (1000)
I0126 21:28:08.346762 24753 layer_factory.hpp:74] Creating layer 2_prob
I0126 21:28:08.346783 24753 net.cpp:90] Creating Layer 2_prob
I0126 21:28:08.346796 24753 net.cpp:410] 2_prob <- 2_ip2
I0126 21:28:08.346808 24753 net.cpp:368] 2_prob -> 2_prob
I0126 21:28:08.346822 24753 net.cpp:120] Setting up 2_prob
I0126 21:28:08.346837 24753 net.cpp:127] Top shape: 100 10 (1000)
I0126 21:28:08.346848 24753 layer_factory.hpp:74] Creating layer 2_prob_2_prob_0_split
I0126 21:28:08.346860 24753 net.cpp:90] Creating Layer 2_prob_2_prob_0_split
I0126 21:28:08.346873 24753 net.cpp:410] 2_prob_2_prob_0_split <- 2_prob
I0126 21:28:08.346886 24753 net.cpp:368] 2_prob_2_prob_0_split -> 2_prob_2_prob_0_split_0
I0126 21:28:08.346900 24753 net.cpp:368] 2_prob_2_prob_0_split -> 2_prob_2_prob_0_split_1
I0126 21:28:08.346917 24753 net.cpp:120] Setting up 2_prob_2_prob_0_split
I0126 21:28:08.346931 24753 net.cpp:127] Top shape: 100 10 (1000)
I0126 21:28:08.346943 24753 net.cpp:127] Top shape: 100 10 (1000)
I0126 21:28:08.346956 24753 layer_factory.hpp:74] Creating layer 3_conv1
I0126 21:28:08.346969 24753 net.cpp:90] Creating Layer 3_conv1
I0126 21:28:08.346982 24753 net.cpp:410] 3_conv1 <- data_cifar_0_split_2
I0126 21:28:08.346995 24753 net.cpp:368] 3_conv1 -> 3_conv1
I0126 21:28:08.347009 24753 net.cpp:120] Setting up 3_conv1
I0126 21:28:08.347110 24753 net.cpp:127] Top shape: 100 32 32 32 (3276800)
I0126 21:28:08.347129 24753 layer_factory.hpp:74] Creating layer 3_pool1
I0126 21:28:08.347146 24753 net.cpp:90] Creating Layer 3_pool1
I0126 21:28:08.347159 24753 net.cpp:410] 3_pool1 <- 3_conv1
I0126 21:28:08.347177 24753 net.cpp:368] 3_pool1 -> 3_pool1
I0126 21:28:08.347193 24753 net.cpp:120] Setting up 3_pool1
I0126 21:28:08.347211 24753 net.cpp:127] Top shape: 100 32 16 16 (819200)
I0126 21:28:08.347223 24753 layer_factory.hpp:74] Creating layer 3_relu1
I0126 21:28:08.347235 24753 net.cpp:90] Creating Layer 3_relu1
I0126 21:28:08.347246 24753 net.cpp:410] 3_relu1 <- 3_pool1
I0126 21:28:08.347259 24753 net.cpp:357] 3_relu1 -> 3_pool1 (in-place)
I0126 21:28:08.347272 24753 net.cpp:120] Setting up 3_relu1
I0126 21:28:08.347285 24753 net.cpp:127] Top shape: 100 32 16 16 (819200)
I0126 21:28:08.347296 24753 layer_factory.hpp:74] Creating layer 3_conv2
I0126 21:28:08.347311 24753 net.cpp:90] Creating Layer 3_conv2
I0126 21:28:08.347322 24753 net.cpp:410] 3_conv2 <- 3_pool1
I0126 21:28:08.347337 24753 net.cpp:368] 3_conv2 -> 3_conv2
I0126 21:28:08.347352 24753 net.cpp:120] Setting up 3_conv2
I0126 21:28:08.348151 24753 net.cpp:127] Top shape: 100 32 16 16 (819200)
I0126 21:28:08.348170 24753 layer_factory.hpp:74] Creating layer 3_relu2
I0126 21:28:08.348182 24753 net.cpp:90] Creating Layer 3_relu2
I0126 21:28:08.348193 24753 net.cpp:410] 3_relu2 <- 3_conv2
I0126 21:28:08.348206 24753 net.cpp:357] 3_relu2 -> 3_conv2 (in-place)
I0126 21:28:08.348218 24753 net.cpp:120] Setting up 3_relu2
I0126 21:28:08.348232 24753 net.cpp:127] Top shape: 100 32 16 16 (819200)
I0126 21:28:08.348242 24753 layer_factory.hpp:74] Creating layer 3_pool2
I0126 21:28:08.348256 24753 net.cpp:90] Creating Layer 3_pool2
I0126 21:28:08.348268 24753 net.cpp:410] 3_pool2 <- 3_conv2
I0126 21:28:08.348280 24753 net.cpp:368] 3_pool2 -> 3_pool2
I0126 21:28:08.348294 24753 net.cpp:120] Setting up 3_pool2
I0126 21:28:08.348309 24753 net.cpp:127] Top shape: 100 32 8 8 (204800)
I0126 21:28:08.348320 24753 layer_factory.hpp:74] Creating layer 3_conv3
I0126 21:28:08.348332 24753 net.cpp:90] Creating Layer 3_conv3
I0126 21:28:08.348343 24753 net.cpp:410] 3_conv3 <- 3_pool2
I0126 21:28:08.348356 24753 net.cpp:368] 3_conv3 -> 3_conv3
I0126 21:28:08.348371 24753 net.cpp:120] Setting up 3_conv3
I0126 21:28:08.349979 24753 net.cpp:127] Top shape: 100 64 8 8 (409600)
I0126 21:28:08.350002 24753 layer_factory.hpp:74] Creating layer 3_relu3
I0126 21:28:08.350015 24753 net.cpp:90] Creating Layer 3_relu3
I0126 21:28:08.350026 24753 net.cpp:410] 3_relu3 <- 3_conv3
I0126 21:28:08.350040 24753 net.cpp:357] 3_relu3 -> 3_conv3 (in-place)
I0126 21:28:08.350054 24753 net.cpp:120] Setting up 3_relu3
I0126 21:28:08.350070 24753 net.cpp:127] Top shape: 100 64 8 8 (409600)
I0126 21:28:08.350087 24753 layer_factory.hpp:74] Creating layer 3_pool3
I0126 21:28:08.350100 24753 net.cpp:90] Creating Layer 3_pool3
I0126 21:28:08.350111 24753 net.cpp:410] 3_pool3 <- 3_conv3
I0126 21:28:08.350123 24753 net.cpp:368] 3_pool3 -> 3_pool3
I0126 21:28:08.350137 24753 net.cpp:120] Setting up 3_pool3
I0126 21:28:08.350152 24753 net.cpp:127] Top shape: 100 64 4 4 (102400)
I0126 21:28:08.350162 24753 layer_factory.hpp:74] Creating layer 3_ip1
I0126 21:28:08.350177 24753 net.cpp:90] Creating Layer 3_ip1
I0126 21:28:08.350188 24753 net.cpp:410] 3_ip1 <- 3_pool3
I0126 21:28:08.350203 24753 net.cpp:368] 3_ip1 -> 3_ip1
I0126 21:28:08.350217 24753 net.cpp:120] Setting up 3_ip1
I0126 21:28:08.352241 24753 net.cpp:127] Top shape: 100 64 (6400)
I0126 21:28:08.352264 24753 layer_factory.hpp:74] Creating layer 3_ip2
I0126 21:28:08.352282 24753 net.cpp:90] Creating Layer 3_ip2
I0126 21:28:08.352293 24753 net.cpp:410] 3_ip2 <- 3_ip1
I0126 21:28:08.352308 24753 net.cpp:368] 3_ip2 -> 3_ip2
I0126 21:28:08.352322 24753 net.cpp:120] Setting up 3_ip2
I0126 21:28:08.352362 24753 net.cpp:127] Top shape: 100 10 (1000)
I0126 21:28:08.352376 24753 layer_factory.hpp:74] Creating layer 3_prob
I0126 21:28:08.352391 24753 net.cpp:90] Creating Layer 3_prob
I0126 21:28:08.352402 24753 net.cpp:410] 3_prob <- 3_ip2
I0126 21:28:08.352416 24753 net.cpp:368] 3_prob -> 3_prob
I0126 21:28:08.352428 24753 net.cpp:120] Setting up 3_prob
I0126 21:28:08.352443 24753 net.cpp:127] Top shape: 100 10 (1000)
I0126 21:28:08.352454 24753 layer_factory.hpp:74] Creating layer 3_prob_3_prob_0_split
I0126 21:28:08.352468 24753 net.cpp:90] Creating Layer 3_prob_3_prob_0_split
I0126 21:28:08.352478 24753 net.cpp:410] 3_prob_3_prob_0_split <- 3_prob
I0126 21:28:08.352493 24753 net.cpp:368] 3_prob_3_prob_0_split -> 3_prob_3_prob_0_split_0
I0126 21:28:08.352506 24753 net.cpp:368] 3_prob_3_prob_0_split -> 3_prob_3_prob_0_split_1
I0126 21:28:08.352520 24753 net.cpp:120] Setting up 3_prob_3_prob_0_split
I0126 21:28:08.352535 24753 net.cpp:127] Top shape: 100 10 (1000)
I0126 21:28:08.352546 24753 net.cpp:127] Top shape: 100 10 (1000)
I0126 21:28:08.352557 24753 layer_factory.hpp:74] Creating layer 4_conv1
I0126 21:28:08.352572 24753 net.cpp:90] Creating Layer 4_conv1
I0126 21:28:08.352584 24753 net.cpp:410] 4_conv1 <- data_cifar_0_split_3
I0126 21:28:08.352597 24753 net.cpp:368] 4_conv1 -> 4_conv1
I0126 21:28:08.352612 24753 net.cpp:120] Setting up 4_conv1
I0126 21:28:08.352707 24753 net.cpp:127] Top shape: 100 32 32 32 (3276800)
I0126 21:28:08.352722 24753 layer_factory.hpp:74] Creating layer 4_pool1
I0126 21:28:08.352735 24753 net.cpp:90] Creating Layer 4_pool1
I0126 21:28:08.352746 24753 net.cpp:410] 4_pool1 <- 4_conv1
I0126 21:28:08.352759 24753 net.cpp:368] 4_pool1 -> 4_pool1
I0126 21:28:08.352772 24753 net.cpp:120] Setting up 4_pool1
I0126 21:28:08.352787 24753 net.cpp:127] Top shape: 100 32 16 16 (819200)
I0126 21:28:08.352799 24753 layer_factory.hpp:74] Creating layer 4_relu1
I0126 21:28:08.352812 24753 net.cpp:90] Creating Layer 4_relu1
I0126 21:28:08.352823 24753 net.cpp:410] 4_relu1 <- 4_pool1
I0126 21:28:08.352836 24753 net.cpp:357] 4_relu1 -> 4_pool1 (in-place)
I0126 21:28:08.352849 24753 net.cpp:120] Setting up 4_relu1
I0126 21:28:08.352862 24753 net.cpp:127] Top shape: 100 32 16 16 (819200)
I0126 21:28:08.352874 24753 layer_factory.hpp:74] Creating layer 4_conv2
I0126 21:28:08.352886 24753 net.cpp:90] Creating Layer 4_conv2
I0126 21:28:08.352898 24753 net.cpp:410] 4_conv2 <- 4_pool1
I0126 21:28:08.352911 24753 net.cpp:368] 4_conv2 -> 4_conv2
I0126 21:28:08.352926 24753 net.cpp:120] Setting up 4_conv2
I0126 21:28:08.353730 24753 net.cpp:127] Top shape: 100 32 16 16 (819200)
I0126 21:28:08.353760 24753 layer_factory.hpp:74] Creating layer 4_relu2
I0126 21:28:08.353777 24753 net.cpp:90] Creating Layer 4_relu2
I0126 21:28:08.353791 24753 net.cpp:410] 4_relu2 <- 4_conv2
I0126 21:28:08.353807 24753 net.cpp:357] 4_relu2 -> 4_conv2 (in-place)
I0126 21:28:08.353822 24753 net.cpp:120] Setting up 4_relu2
I0126 21:28:08.353842 24753 net.cpp:127] Top shape: 100 32 16 16 (819200)
I0126 21:28:08.353863 24753 layer_factory.hpp:74] Creating layer 4_pool2
I0126 21:28:08.353876 24753 net.cpp:90] Creating Layer 4_pool2
I0126 21:28:08.353888 24753 net.cpp:410] 4_pool2 <- 4_conv2
I0126 21:28:08.353904 24753 net.cpp:368] 4_pool2 -> 4_pool2
I0126 21:28:08.353917 24753 net.cpp:120] Setting up 4_pool2
I0126 21:28:08.353932 24753 net.cpp:127] Top shape: 100 32 8 8 (204800)
I0126 21:28:08.353943 24753 layer_factory.hpp:74] Creating layer 4_conv3
I0126 21:28:08.353958 24753 net.cpp:90] Creating Layer 4_conv3
I0126 21:28:08.353971 24753 net.cpp:410] 4_conv3 <- 4_pool2
I0126 21:28:08.353983 24753 net.cpp:368] 4_conv3 -> 4_conv3
I0126 21:28:08.353997 24753 net.cpp:120] Setting up 4_conv3
I0126 21:28:08.355579 24753 net.cpp:127] Top shape: 100 64 8 8 (409600)
I0126 21:28:08.355599 24753 layer_factory.hpp:74] Creating layer 4_relu3
I0126 21:28:08.355612 24753 net.cpp:90] Creating Layer 4_relu3
I0126 21:28:08.355624 24753 net.cpp:410] 4_relu3 <- 4_conv3
I0126 21:28:08.355636 24753 net.cpp:357] 4_relu3 -> 4_conv3 (in-place)
I0126 21:28:08.355649 24753 net.cpp:120] Setting up 4_relu3
I0126 21:28:08.355662 24753 net.cpp:127] Top shape: 100 64 8 8 (409600)
I0126 21:28:08.355674 24753 layer_factory.hpp:74] Creating layer 4_pool3
I0126 21:28:08.355687 24753 net.cpp:90] Creating Layer 4_pool3
I0126 21:28:08.355698 24753 net.cpp:410] 4_pool3 <- 4_conv3
I0126 21:28:08.355711 24753 net.cpp:368] 4_pool3 -> 4_pool3
I0126 21:28:08.355725 24753 net.cpp:120] Setting up 4_pool3
I0126 21:28:08.355738 24753 net.cpp:127] Top shape: 100 64 4 4 (102400)
I0126 21:28:08.355749 24753 layer_factory.hpp:74] Creating layer 4_ip1
I0126 21:28:08.355762 24753 net.cpp:90] Creating Layer 4_ip1
I0126 21:28:08.355773 24753 net.cpp:410] 4_ip1 <- 4_pool3
I0126 21:28:08.355787 24753 net.cpp:368] 4_ip1 -> 4_ip1
I0126 21:28:08.355801 24753 net.cpp:120] Setting up 4_ip1
I0126 21:28:08.357830 24753 net.cpp:127] Top shape: 100 64 (6400)
I0126 21:28:08.357853 24753 layer_factory.hpp:74] Creating layer 4_ip2
I0126 21:28:08.357868 24753 net.cpp:90] Creating Layer 4_ip2
I0126 21:28:08.357880 24753 net.cpp:410] 4_ip2 <- 4_ip1
I0126 21:28:08.357897 24753 net.cpp:368] 4_ip2 -> 4_ip2
I0126 21:28:08.357913 24753 net.cpp:120] Setting up 4_ip2
I0126 21:28:08.357952 24753 net.cpp:127] Top shape: 100 10 (1000)
I0126 21:28:08.357967 24753 layer_factory.hpp:74] Creating layer 4_prob
I0126 21:28:08.357980 24753 net.cpp:90] Creating Layer 4_prob
I0126 21:28:08.357991 24753 net.cpp:410] 4_prob <- 4_ip2
I0126 21:28:08.358006 24753 net.cpp:368] 4_prob -> 4_prob
I0126 21:28:08.358019 24753 net.cpp:120] Setting up 4_prob
I0126 21:28:08.358034 24753 net.cpp:127] Top shape: 100 10 (1000)
I0126 21:28:08.358045 24753 layer_factory.hpp:74] Creating layer 4_prob_4_prob_0_split
I0126 21:28:08.358057 24753 net.cpp:90] Creating Layer 4_prob_4_prob_0_split
I0126 21:28:08.358068 24753 net.cpp:410] 4_prob_4_prob_0_split <- 4_prob
I0126 21:28:08.358081 24753 net.cpp:368] 4_prob_4_prob_0_split -> 4_prob_4_prob_0_split_0
I0126 21:28:08.358095 24753 net.cpp:368] 4_prob_4_prob_0_split -> 4_prob_4_prob_0_split_1
I0126 21:28:08.358109 24753 net.cpp:120] Setting up 4_prob_4_prob_0_split
I0126 21:28:08.358124 24753 net.cpp:127] Top shape: 100 10 (1000)
I0126 21:28:08.358135 24753 net.cpp:127] Top shape: 100 10 (1000)
I0126 21:28:08.358146 24753 layer_factory.hpp:74] Creating layer 1_accuracy
I0126 21:28:08.358160 24753 net.cpp:90] Creating Layer 1_accuracy
I0126 21:28:08.358172 24753 net.cpp:410] 1_accuracy <- 1_prob_1_prob_0_split_0
I0126 21:28:08.358184 24753 net.cpp:410] 1_accuracy <- label_cifar_1_split_0
I0126 21:28:08.358199 24753 net.cpp:368] 1_accuracy -> 1_accuracy
I0126 21:28:08.358212 24753 net.cpp:120] Setting up 1_accuracy
…
