…
I0208 08:45:00.553138 30098 net.cpp:287] The NetState phase (0) differed from the phase (1) specified by a rule in layer accuracy
I0208 08:45:00.553447 30098 net.cpp:42] Initializing net from parameters: 
name: "CIFAR10_quick"
state {
  phase: TRAIN
}
layer {
  name: "cifar"
  type: "Data"
  top: "data"
  top: "label"
  include {
    phase: TRAIN
  }
  transform_param {
    mean_file: "/home/mike/ml_lab/mod/MCL_Caffe/examples/cifar10/mean.binaryproto"
  }
  data_param {
    source: "/home/mike/ml_lab/mod/MCL_Caffe/examples/cifar10/cifar10_train_lmdb"
    batch_size: 350
    backend: LMDB
  }
}
layer {
  name: "1_conv1"
  type: "Convolution"
  bottom: "data"
  top: "1_conv1"
  param {
    lr_mult: 1
  }
  param {
    lr_mult: 2
  }
  convolution_param {
    num_output: 32
    pad: 2
    kernel_size: 5
    stride: 1
    weight_filler {
      type: "gaussian"
      std: 0.0001
    }
    bias_filler {
      type: "constant"
    }
  }
}
layer {
  name: "1_pool1"
  type: "Pooling"
  bottom: "1_conv1"
  top: "1_pool1"
  pooling_param {
    pool: MAX
    kernel_size: 3
    stride: 2
  }
}
layer {
  name: "1_relu1"
  type: "ReLU"
  bottom: "1_pool1"
  top: "1_pool1"
}
layer {
  name: "1_conv2"
  type: "Convolution"
  bottom: "1_pool1"
  top: "1_conv2"
  param {
    lr_mult: 1
  }
  param {
    lr_mult: 2
  }
  convolution_param {
    num_output: 32
    pad: 2
    kernel_size: 5
    stride: 1
    weight_filler {
      type: "gaussian"
      std: 0.01
    }
    bias_filler {
      type: "constant"
    }
  }
}
layer {
  name: "1_relu2"
  type: "ReLU"
  bottom: "1_conv2"
  top: "1_conv2"
}
layer {
  name: "1_pool2"
  type: "Pooling"
  bottom: "1_conv2"
  top: "1_pool2"
  pooling_param {
    pool: AVE
    kernel_size: 3
    stride: 2
  }
}
layer {
  name: "1_conv3"
  type: "Convolution"
  bottom: "1_pool2"
  top: "1_conv3"
  param {
    lr_mult: 1
  }
  param {
    lr_mult: 2
  }
  convolution_param {
    num_output: 64
    pad: 2
    kernel_size: 5
    stride: 1
    weight_filler {
      type: "gaussian"
      std: 0.01
    }
    bias_filler {
      type: "constant"
    }
  }
}
layer {
  name: "1_relu3"
  type: "ReLU"
  bottom: "1_conv3"
  top: "1_conv3"
}
layer {
  name: "1_pool3"
  type: "Pooling"
  bottom: "1_conv3"
  top: "1_pool3"
  pooling_param {
    pool: AVE
    kernel_size: 3
    stride: 2
  }
}
layer {
  name: "1_ip1"
  type: "InnerProduct"
  bottom: "1_pool3"
  top: "1_ip1"
  param {
    lr_mult: 1
  }
  param {
    lr_mult: 2
  }
  inner_product_param {
    num_output: 64
    weight_filler {
      type: "gaussian"
      std: 0.1
    }
    bias_filler {
      type: "constant"
    }
  }
}
layer {
  name: "1_ip2"
  type: "InnerProduct"
  bottom: "1_ip1"
  top: "1_ip2"
  param {
    lr_mult: 1
  }
  param {
    lr_mult: 2
  }
  inner_product_param {
    num_output: 10
    weight_filler {
      type: "gaussian"
      std: 0.1
    }
    bias_filler {
      type: "constant"
    }
  }
}
layer {
  name: "1_prob"
  type: "Softmax"
  bottom: "1_ip2"
  top: "1_prob"
}
layer {
  name: "2_conv1"
  type: "Convolution"
  bottom: "data"
  top: "2_conv1"
  param {
    lr_mult: 1
  }
  param {
    lr_mult: 2
  }
  convolution_param {
    num_output: 32
    pad: 2
    kernel_size: 5
    stride: 1
    weight_filler {
      type: "gaussian"
      std: 0.0001
    }
    bias_filler {
      type: "constant"
    }
  }
}
layer {
  name: "2_pool1"
  type: "Pooling"
  bottom: "2_conv1"
  top: "2_pool1"
  pooling_param {
    pool: MAX
    kernel_size: 3
    stride: 2
  }
}
layer {
  name: "2_relu1"
  type: "ReLU"
  bottom: "2_pool1"
  top: "2_pool1"
}
layer {
  name: "2_conv2"
  type: "Convolution"
  bottom: "2_pool1"
  top: "2_conv2"
  param {
    lr_mult: 1
  }
  param {
    lr_mult: 2
  }
  convolution_param {
    num_output: 32
    pad: 2
    kernel_size: 5
    stride: 1
    weight_filler {
      type: "gaussian"
      std: 0.01
    }
    bias_filler {
      type: "constant"
    }
  }
}
layer {
  name: "2_relu2"
  type: "ReLU"
  bottom: "2_conv2"
  top: "2_conv2"
}
layer {
  name: "2_pool2"
  type: "Pooling"
  bottom: "2_conv2"
  top: "2_pool2"
  pooling_param {
    pool: AVE
    kernel_size: 3
    stride: 2
  }
}
layer {
  name: "2_conv3"
  type: "Convolution"
  bottom: "2_pool2"
  top: "2_conv3"
  param {
    lr_mult: 1
  }
  param {
    lr_mult: 2
  }
  convolution_param {
    num_output: 64
    pad: 2
    kernel_size: 5
    stride: 1
    weight_filler {
      type: "gaussian"
      std: 0.01
    }
    bias_filler {
      type: "constant"
    }
  }
}
layer {
  name: "2_relu3"
  type: "ReLU"
  bottom: "2_conv3"
  top: "2_conv3"
}
layer {
  name: "2_pool3"
  type: "Pooling"
  bottom: "2_conv3"
  top: "2_pool3"
  pooling_param {
    pool: AVE
    kernel_size: 3
    stride: 2
  }
}
layer {
  name: "2_ip1"
  type: "InnerProduct"
  bottom: "2_pool3"
  top: "2_ip1"
  param {
    lr_mult: 1
  }
  param {
    lr_mult: 2
  }
  inner_product_param {
    num_output: 64
    weight_filler {
      type: "gaussian"
      std: 0.1
    }
    bias_filler {
      type: "constant"
    }
  }
}
layer {
  name: "2_ip2"
  type: "InnerProduct"
  bottom: "2_ip1"
  top: "2_ip2"
  param {
    lr_mult: 1
  }
  param {
    lr_mult: 2
  }
  inner_product_param {
    num_output: 10
    weight_filler {
      type: "gaussian"
      std: 0.1
    }
    bias_filler {
      type: "constant"
    }
  }
}
layer {
  name: "2_prob"
  type: "Softmax"
  bottom: "2_ip2"
  top: "2_prob"
}
layer {
  name: "3_conv1"
  type: "Convolution"
  bottom: "data"
  top: "3_conv1"
  param {
    lr_mult: 1
  }
  param {
    lr_mult: 2
  }
  convolution_param {
    num_output: 32
    pad: 2
    kernel_size: 5
    stride: 1
    weight_filler {
      type: "gaussian"
      std: 0.0001
    }
    bias_filler {
      type: "constant"
    }
  }
}
layer {
  name: "3_pool1"
  type: "Pooling"
  bottom: "3_conv1"
  top: "3_pool1"
  pooling_param {
    pool: MAX
    kernel_size: 3
    stride: 2
  }
}
layer {
  name: "3_relu1"
  type: "ReLU"
  bottom: "3_pool1"
  top: "3_pool1"
}
layer {
  name: "3_conv2"
  type: "Convolution"
  bottom: "3_pool1"
  top: "3_conv2"
  param {
    lr_mult: 1
  }
  param {
    lr_mult: 2
  }
  convolution_param {
    num_output: 32
    pad: 2
    kernel_size: 5
    stride: 1
    weight_filler {
      type: "gaussian"
      std: 0.01
    }
    bias_filler {
      type: "constant"
    }
  }
}
layer {
  name: "3_relu2"
  type: "ReLU"
  bottom: "3_conv2"
  top: "3_conv2"
}
layer {
  name: "3_pool2"
  type: "Pooling"
  bottom: "3_conv2"
  top: "3_pool2"
  pooling_param {
    pool: AVE
    kernel_size: 3
    stride: 2
  }
}
layer {
  name: "3_conv3"
  type: "Convolution"
  bottom: "3_pool2"
  top: "3_conv3"
  param {
    lr_mult: 1
  }
  param {
    lr_mult: 2
  }
  convolution_param {
    num_output: 64
    pad: 2
    kernel_size: 5
    stride: 1
    weight_filler {
      type: "gaussian"
      std: 0.01
    }
    bias_filler {
      type: "constant"
    }
  }
}
layer {
  name: "3_relu3"
  type: "ReLU"
  bottom: "3_conv3"
  top: "3_conv3"
}
layer {
  name: "3_pool3"
  type: "Pooling"
  bottom: "3_conv3"
  top: "3_pool3"
  pooling_param {
    pool: AVE
    kernel_size: 3
    stride: 2
  }
}
layer {
  name: "3_ip1"
  type: "InnerProduct"
  bottom: "3_pool3"
  top: "3_ip1"
  param {
    lr_mult: 1
  }
  param {
    lr_mult: 2
  }
  inner_product_param {
    num_output: 64
    weight_filler {
      type: "gaussian"
      std: 0.1
    }
    bias_filler {
      type: "constant"
    }
  }
}
layer {
  name: "3_ip2"
  type: "InnerProduct"
  bottom: "3_ip1"
  top: "3_ip2"
  param {
    lr_mult: 1
  }
  param {
    lr_mult: 2
  }
  inner_product_param {
    num_output: 10
    weight_filler {
      type: "gaussian"
      std: 0.1
    }
    bias_filler {
      type: "constant"
    }
  }
}
layer {
  name: "3_prob"
  type: "Softmax"
  bottom: "3_ip2"
  top: "3_prob"
}
layer {
  name: "4_conv1"
  type: "Convolution"
  bottom: "data"
  top: "4_conv1"
  param {
    lr_mult: 1
  }
  param {
    lr_mult: 2
  }
  convolution_param {
    num_output: 32
    pad: 2
    kernel_size: 5
    stride: 1
    weight_filler {
      type: "gaussian"
      std: 0.0001
    }
    bias_filler {
      type: "constant"
    }
  }
}
layer {
  name: "4_pool1"
  type: "Pooling"
  bottom: "4_conv1"
  top: "4_pool1"
  pooling_param {
    pool: MAX
    kernel_size: 3
    stride: 2
  }
}
layer {
  name: "4_relu1"
  type: "ReLU"
  bottom: "4_pool1"
  top: "4_pool1"
}
layer {
  name: "4_conv2"
  type: "Convolution"
  bottom: "4_pool1"
  top: "4_conv2"
  param {
    lr_mult: 1
  }
  param {
    lr_mult: 2
  }
  convolution_param {
    num_output: 32
    pad: 2
    kernel_size: 5
    stride: 1
    weight_filler {
      type: "gaussian"
      std: 0.01
    }
    bias_filler {
      type: "constant"
    }
  }
}
layer {
  name: "4_relu2"
  type: "ReLU"
  bottom: "4_conv2"
  top: "4_conv2"
}
layer {
  name: "4_pool2"
  type: "Pooling"
  bottom: "4_conv2"
  top: "4_pool2"
  pooling_param {
    pool: AVE
    kernel_size: 3
    stride: 2
  }
}
layer {
  name: "4_conv3"
  type: "Convolution"
  bottom: "4_pool2"
  top: "4_conv3"
  param {
    lr_mult: 1
  }
  param {
    lr_mult: 2
  }
  convolution_param {
    num_output: 64
    pad: 2
    kernel_size: 5
    stride: 1
    weight_filler {
      type: "gaussian"
      std: 0.01
    }
    bias_filler {
      type: "constant"
    }
  }
}
layer {
  name: "4_relu3"
  type: "ReLU"
  bottom: "4_conv3"
  top: "4_conv3"
}
layer {
  name: "4_pool3"
  type: "Pooling"
  bottom: "4_conv3"
  top: "4_pool3"
  pooling_param {
    pool: AVE
    kernel_size: 3
    stride: 2
  }
}
layer {
  name: "4_ip1"
  type: "InnerProduct"
  bottom: "4_pool3"
  top: "4_ip1"
  param {
    lr_mult: 1
  }
  param {
    lr_mult: 2
  }
  inner_product_param {
    num_output: 64
    weight_filler {
      type: "gaussian"
      std: 0.1
    }
    bias_filler {
      type: "constant"
    }
  }
}
layer {
  name: "4_ip2"
  type: "InnerProduct"
  bottom: "4_ip1"
  top: "4_ip2"
  param {
    lr_mult: 1
  }
  param {
    lr_mult: 2
  }
  inner_product_param {
    num_output: 10
    weight_filler {
      type: "gaussian"
      std: 0.1
    }
    bias_filler {
      type: "constant"
    }
  }
}
layer {
  name: "4_prob"
  type: "Softmax"
  bottom: "4_ip2"
  top: "4_prob"
}
layer {
  name: "loss"
  type: "ODRandomAwardBMultinomialLogisticLoss"
  bottom: "1_prob"
  bottom: "2_prob"
  bottom: "3_prob"
  bottom: "4_prob"
  bottom: "label"
  top: "multiple-output loss"
  top: "batch-instance-counts"
  top: "train-instance-counts"
  top: "curr-b-value"
  loss_weight: 1
  loss_weight: 0
  loss_weight: 0
  loss_weight: 0
  include {
    phase: TRAIN
  }
  od_param {
    start_rand_award: 0.5
    rand_select: false
    decrease_rand: false
    draw_m_minus_one: true
    rand_decay: 0.001
    award_all: true
  }
}
I0208 08:45:00.553663 30098 layer_factory.hpp:74] Creating layer cifar
I0208 08:45:00.553683 30098 net.cpp:90] Creating Layer cifar
I0208 08:45:00.553689 30098 net.cpp:368] cifar -> data
I0208 08:45:00.553721 30098 net.cpp:368] cifar -> label
I0208 08:45:00.553733 30098 net.cpp:120] Setting up cifar
I0208 08:45:00.553787 30098 db.cpp:34] Opened lmdb /home/mike/ml_lab/mod/MCL_Caffe/examples/cifar10/cifar10_train_lmdb
I0208 08:45:00.553829 30098 data_layer.cpp:67] output data size: 350,3,32,32
I0208 08:45:00.553839 30098 data_transformer.cpp:22] Loading mean file from: /home/mike/ml_lab/mod/MCL_Caffe/examples/cifar10/mean.binaryproto
I0208 08:45:00.554682 30098 net.cpp:127] Top shape: 350 3 32 32 (1075200)
I0208 08:45:00.554692 30098 net.cpp:127] Top shape: 350 (350)
I0208 08:45:00.554697 30098 layer_factory.hpp:74] Creating layer data_cifar_0_split
I0208 08:45:00.554707 30098 net.cpp:90] Creating Layer data_cifar_0_split
I0208 08:45:00.554711 30098 net.cpp:410] data_cifar_0_split <- data
I0208 08:45:00.554744 30098 net.cpp:368] data_cifar_0_split -> data_cifar_0_split_0
I0208 08:45:00.554754 30098 net.cpp:368] data_cifar_0_split -> data_cifar_0_split_1
I0208 08:45:00.554759 30098 net.cpp:368] data_cifar_0_split -> data_cifar_0_split_2
I0208 08:45:00.554765 30098 net.cpp:368] data_cifar_0_split -> data_cifar_0_split_3
I0208 08:45:00.554770 30098 net.cpp:120] Setting up data_cifar_0_split
I0208 08:45:00.554792 30098 net.cpp:127] Top shape: 350 3 32 32 (1075200)
I0208 08:45:00.554798 30098 net.cpp:127] Top shape: 350 3 32 32 (1075200)
I0208 08:45:00.554802 30098 net.cpp:127] Top shape: 350 3 32 32 (1075200)
I0208 08:45:00.554806 30098 net.cpp:127] Top shape: 350 3 32 32 (1075200)
I0208 08:45:00.554811 30098 layer_factory.hpp:74] Creating layer 1_conv1
I0208 08:45:00.554818 30098 net.cpp:90] Creating Layer 1_conv1
I0208 08:45:00.554824 30098 net.cpp:410] 1_conv1 <- data_cifar_0_split_0
I0208 08:45:00.554831 30098 net.cpp:368] 1_conv1 -> 1_conv1
I0208 08:45:00.554839 30098 net.cpp:120] Setting up 1_conv1
I0208 08:45:00.555433 30098 net.cpp:127] Top shape: 350 32 32 32 (11468800)
I0208 08:45:00.555449 30098 layer_factory.hpp:74] Creating layer 1_pool1
I0208 08:45:00.555455 30098 net.cpp:90] Creating Layer 1_pool1
I0208 08:45:00.555459 30098 net.cpp:410] 1_pool1 <- 1_conv1
I0208 08:45:00.555464 30098 net.cpp:368] 1_pool1 -> 1_pool1
I0208 08:45:00.555474 30098 net.cpp:120] Setting up 1_pool1
I0208 08:45:00.555490 30098 net.cpp:127] Top shape: 350 32 16 16 (2867200)
I0208 08:45:00.555495 30098 layer_factory.hpp:74] Creating layer 1_relu1
I0208 08:45:00.555501 30098 net.cpp:90] Creating Layer 1_relu1
I0208 08:45:00.555505 30098 net.cpp:410] 1_relu1 <- 1_pool1
I0208 08:45:00.555510 30098 net.cpp:357] 1_relu1 -> 1_pool1 (in-place)
I0208 08:45:00.555515 30098 net.cpp:120] Setting up 1_relu1
I0208 08:45:00.555521 30098 net.cpp:127] Top shape: 350 32 16 16 (2867200)
I0208 08:45:00.555524 30098 layer_factory.hpp:74] Creating layer 1_conv2
I0208 08:45:00.555529 30098 net.cpp:90] Creating Layer 1_conv2
I0208 08:45:00.555532 30098 net.cpp:410] 1_conv2 <- 1_pool1
I0208 08:45:00.555537 30098 net.cpp:368] 1_conv2 -> 1_conv2
I0208 08:45:00.555544 30098 net.cpp:120] Setting up 1_conv2
I0208 08:45:00.556345 30098 net.cpp:127] Top shape: 350 32 16 16 (2867200)
I0208 08:45:00.556356 30098 layer_factory.hpp:74] Creating layer 1_relu2
I0208 08:45:00.556362 30098 net.cpp:90] Creating Layer 1_relu2
I0208 08:45:00.556366 30098 net.cpp:410] 1_relu2 <- 1_conv2
I0208 08:45:00.556370 30098 net.cpp:357] 1_relu2 -> 1_conv2 (in-place)
I0208 08:45:00.556375 30098 net.cpp:120] Setting up 1_relu2
I0208 08:45:00.556380 30098 net.cpp:127] Top shape: 350 32 16 16 (2867200)
I0208 08:45:00.556383 30098 layer_factory.hpp:74] Creating layer 1_pool2
I0208 08:45:00.556388 30098 net.cpp:90] Creating Layer 1_pool2
I0208 08:45:00.556391 30098 net.cpp:410] 1_pool2 <- 1_conv2
I0208 08:45:00.556397 30098 net.cpp:368] 1_pool2 -> 1_pool2
I0208 08:45:00.556403 30098 net.cpp:120] Setting up 1_pool2
I0208 08:45:00.556411 30098 net.cpp:127] Top shape: 350 32 8 8 (716800)
I0208 08:45:00.556414 30098 layer_factory.hpp:74] Creating layer 1_conv3
I0208 08:45:00.556421 30098 net.cpp:90] Creating Layer 1_conv3
I0208 08:45:00.556426 30098 net.cpp:410] 1_conv3 <- 1_pool2
I0208 08:45:00.556443 30098 net.cpp:368] 1_conv3 -> 1_conv3
I0208 08:45:00.556450 30098 net.cpp:120] Setting up 1_conv3
I0208 08:45:00.557785 30098 net.cpp:127] Top shape: 350 64 8 8 (1433600)
I0208 08:45:00.557795 30098 layer_factory.hpp:74] Creating layer 1_relu3
I0208 08:45:00.557799 30098 net.cpp:90] Creating Layer 1_relu3
I0208 08:45:00.557804 30098 net.cpp:410] 1_relu3 <- 1_conv3
I0208 08:45:00.557808 30098 net.cpp:357] 1_relu3 -> 1_conv3 (in-place)
I0208 08:45:00.557814 30098 net.cpp:120] Setting up 1_relu3
I0208 08:45:00.557821 30098 net.cpp:127] Top shape: 350 64 8 8 (1433600)
I0208 08:45:00.557826 30098 layer_factory.hpp:74] Creating layer 1_pool3
I0208 08:45:00.557832 30098 net.cpp:90] Creating Layer 1_pool3
I0208 08:45:00.557835 30098 net.cpp:410] 1_pool3 <- 1_conv3
I0208 08:45:00.557840 30098 net.cpp:368] 1_pool3 -> 1_pool3
I0208 08:45:00.557847 30098 net.cpp:120] Setting up 1_pool3
I0208 08:45:00.557853 30098 net.cpp:127] Top shape: 350 64 4 4 (358400)
I0208 08:45:00.557857 30098 layer_factory.hpp:74] Creating layer 1_ip1
I0208 08:45:00.557863 30098 net.cpp:90] Creating Layer 1_ip1
I0208 08:45:00.557868 30098 net.cpp:410] 1_ip1 <- 1_pool3
I0208 08:45:00.557873 30098 net.cpp:368] 1_ip1 -> 1_ip1
I0208 08:45:00.557883 30098 net.cpp:120] Setting up 1_ip1
I0208 08:45:00.559480 30098 net.cpp:127] Top shape: 350 64 (22400)
I0208 08:45:00.559487 30098 layer_factory.hpp:74] Creating layer 1_ip2
I0208 08:45:00.559494 30098 net.cpp:90] Creating Layer 1_ip2
I0208 08:45:00.559499 30098 net.cpp:410] 1_ip2 <- 1_ip1
I0208 08:45:00.559504 30098 net.cpp:368] 1_ip2 -> 1_ip2
I0208 08:45:00.559511 30098 net.cpp:120] Setting up 1_ip2
I0208 08:45:00.559545 30098 net.cpp:127] Top shape: 350 10 (3500)
I0208 08:45:00.559552 30098 layer_factory.hpp:74] Creating layer 1_prob
I0208 08:45:00.559559 30098 net.cpp:90] Creating Layer 1_prob
I0208 08:45:00.559563 30098 net.cpp:410] 1_prob <- 1_ip2
I0208 08:45:00.559568 30098 net.cpp:368] 1_prob -> 1_prob
I0208 08:45:00.559576 30098 net.cpp:120] Setting up 1_prob
I0208 08:45:00.559587 30098 net.cpp:127] Top shape: 350 10 (3500)
I0208 08:45:00.559592 30098 layer_factory.hpp:74] Creating layer 2_conv1
I0208 08:45:00.559599 30098 net.cpp:90] Creating Layer 2_conv1
I0208 08:45:00.559603 30098 net.cpp:410] 2_conv1 <- data_cifar_0_split_1
I0208 08:45:00.559609 30098 net.cpp:368] 2_conv1 -> 2_conv1
I0208 08:45:00.559617 30098 net.cpp:120] Setting up 2_conv1
I0208 08:45:00.559717 30098 net.cpp:127] Top shape: 350 32 32 32 (11468800)
I0208 08:45:00.559725 30098 layer_factory.hpp:74] Creating layer 2_pool1
I0208 08:45:00.559731 30098 net.cpp:90] Creating Layer 2_pool1
I0208 08:45:00.559736 30098 net.cpp:410] 2_pool1 <- 2_conv1
I0208 08:45:00.559741 30098 net.cpp:368] 2_pool1 -> 2_pool1
I0208 08:45:00.559747 30098 net.cpp:120] Setting up 2_pool1
I0208 08:45:00.559756 30098 net.cpp:127] Top shape: 350 32 16 16 (2867200)
I0208 08:45:00.559761 30098 layer_factory.hpp:74] Creating layer 2_relu1
I0208 08:45:00.559767 30098 net.cpp:90] Creating Layer 2_relu1
I0208 08:45:00.559772 30098 net.cpp:410] 2_relu1 <- 2_pool1
I0208 08:45:00.559775 30098 net.cpp:357] 2_relu1 -> 2_pool1 (in-place)
I0208 08:45:00.559782 30098 net.cpp:120] Setting up 2_relu1
I0208 08:45:00.559787 30098 net.cpp:127] Top shape: 350 32 16 16 (2867200)
I0208 08:45:00.559792 30098 layer_factory.hpp:74] Creating layer 2_conv2
I0208 08:45:00.559797 30098 net.cpp:90] Creating Layer 2_conv2
I0208 08:45:00.559800 30098 net.cpp:410] 2_conv2 <- 2_pool1
I0208 08:45:00.559805 30098 net.cpp:368] 2_conv2 -> 2_conv2
I0208 08:45:00.559811 30098 net.cpp:120] Setting up 2_conv2
I0208 08:45:00.560583 30098 net.cpp:127] Top shape: 350 32 16 16 (2867200)
I0208 08:45:00.560590 30098 layer_factory.hpp:74] Creating layer 2_relu2
I0208 08:45:00.560596 30098 net.cpp:90] Creating Layer 2_relu2
I0208 08:45:00.560600 30098 net.cpp:410] 2_relu2 <- 2_conv2
I0208 08:45:00.560606 30098 net.cpp:357] 2_relu2 -> 2_conv2 (in-place)
I0208 08:45:00.560611 30098 net.cpp:120] Setting up 2_relu2
I0208 08:45:00.560617 30098 net.cpp:127] Top shape: 350 32 16 16 (2867200)
I0208 08:45:00.560631 30098 layer_factory.hpp:74] Creating layer 2_pool2
I0208 08:45:00.560636 30098 net.cpp:90] Creating Layer 2_pool2
I0208 08:45:00.560642 30098 net.cpp:410] 2_pool2 <- 2_conv2
I0208 08:45:00.560647 30098 net.cpp:368] 2_pool2 -> 2_pool2
I0208 08:45:00.560654 30098 net.cpp:120] Setting up 2_pool2
I0208 08:45:00.560662 30098 net.cpp:127] Top shape: 350 32 8 8 (716800)
I0208 08:45:00.560667 30098 layer_factory.hpp:74] Creating layer 2_conv3
I0208 08:45:00.560672 30098 net.cpp:90] Creating Layer 2_conv3
I0208 08:45:00.560677 30098 net.cpp:410] 2_conv3 <- 2_pool2
I0208 08:45:00.560683 30098 net.cpp:368] 2_conv3 -> 2_conv3
I0208 08:45:00.560690 30098 net.cpp:120] Setting up 2_conv3
I0208 08:45:00.561972 30098 net.cpp:127] Top shape: 350 64 8 8 (1433600)
I0208 08:45:00.561980 30098 layer_factory.hpp:74] Creating layer 2_relu3
I0208 08:45:00.561986 30098 net.cpp:90] Creating Layer 2_relu3
I0208 08:45:00.561990 30098 net.cpp:410] 2_relu3 <- 2_conv3
I0208 08:45:00.561995 30098 net.cpp:357] 2_relu3 -> 2_conv3 (in-place)
I0208 08:45:00.562001 30098 net.cpp:120] Setting up 2_relu3
I0208 08:45:00.562007 30098 net.cpp:127] Top shape: 350 64 8 8 (1433600)
I0208 08:45:00.562012 30098 layer_factory.hpp:74] Creating layer 2_pool3
I0208 08:45:00.562018 30098 net.cpp:90] Creating Layer 2_pool3
I0208 08:45:00.562023 30098 net.cpp:410] 2_pool3 <- 2_conv3
I0208 08:45:00.562028 30098 net.cpp:368] 2_pool3 -> 2_pool3
I0208 08:45:00.562034 30098 net.cpp:120] Setting up 2_pool3
I0208 08:45:00.562041 30098 net.cpp:127] Top shape: 350 64 4 4 (358400)
I0208 08:45:00.562046 30098 layer_factory.hpp:74] Creating layer 2_ip1
I0208 08:45:00.562052 30098 net.cpp:90] Creating Layer 2_ip1
I0208 08:45:00.562055 30098 net.cpp:410] 2_ip1 <- 2_pool3
I0208 08:45:00.562062 30098 net.cpp:368] 2_ip1 -> 2_ip1
I0208 08:45:00.562068 30098 net.cpp:120] Setting up 2_ip1
I0208 08:45:00.563663 30098 net.cpp:127] Top shape: 350 64 (22400)
I0208 08:45:00.563673 30098 layer_factory.hpp:74] Creating layer 2_ip2
I0208 08:45:00.563681 30098 net.cpp:90] Creating Layer 2_ip2
I0208 08:45:00.563686 30098 net.cpp:410] 2_ip2 <- 2_ip1
I0208 08:45:00.563693 30098 net.cpp:368] 2_ip2 -> 2_ip2
I0208 08:45:00.563700 30098 net.cpp:120] Setting up 2_ip2
I0208 08:45:00.563733 30098 net.cpp:127] Top shape: 350 10 (3500)
I0208 08:45:00.563742 30098 layer_factory.hpp:74] Creating layer 2_prob
I0208 08:45:00.563748 30098 net.cpp:90] Creating Layer 2_prob
I0208 08:45:00.563752 30098 net.cpp:410] 2_prob <- 2_ip2
I0208 08:45:00.563757 30098 net.cpp:368] 2_prob -> 2_prob
I0208 08:45:00.563763 30098 net.cpp:120] Setting up 2_prob
I0208 08:45:00.563771 30098 net.cpp:127] Top shape: 350 10 (3500)
I0208 08:45:00.563776 30098 layer_factory.hpp:74] Creating layer 3_conv1
I0208 08:45:00.563781 30098 net.cpp:90] Creating Layer 3_conv1
I0208 08:45:00.563786 30098 net.cpp:410] 3_conv1 <- data_cifar_0_split_2
I0208 08:45:00.563792 30098 net.cpp:368] 3_conv1 -> 3_conv1
I0208 08:45:00.563799 30098 net.cpp:120] Setting up 3_conv1
I0208 08:45:00.563889 30098 net.cpp:127] Top shape: 350 32 32 32 (11468800)
I0208 08:45:00.563897 30098 layer_factory.hpp:74] Creating layer 3_pool1
I0208 08:45:00.563905 30098 net.cpp:90] Creating Layer 3_pool1
I0208 08:45:00.563908 30098 net.cpp:410] 3_pool1 <- 3_conv1
I0208 08:45:00.563913 30098 net.cpp:368] 3_pool1 -> 3_pool1
I0208 08:45:00.563920 30098 net.cpp:120] Setting up 3_pool1
I0208 08:45:00.563927 30098 net.cpp:127] Top shape: 350 32 16 16 (2867200)
I0208 08:45:00.563931 30098 layer_factory.hpp:74] Creating layer 3_relu1
I0208 08:45:00.563936 30098 net.cpp:90] Creating Layer 3_relu1
I0208 08:45:00.563941 30098 net.cpp:410] 3_relu1 <- 3_pool1
I0208 08:45:00.563946 30098 net.cpp:357] 3_relu1 -> 3_pool1 (in-place)
I0208 08:45:00.563951 30098 net.cpp:120] Setting up 3_relu1
I0208 08:45:00.563957 30098 net.cpp:127] Top shape: 350 32 16 16 (2867200)
I0208 08:45:00.563961 30098 layer_factory.hpp:74] Creating layer 3_conv2
I0208 08:45:00.563966 30098 net.cpp:90] Creating Layer 3_conv2
I0208 08:45:00.563971 30098 net.cpp:410] 3_conv2 <- 3_pool1
I0208 08:45:00.563977 30098 net.cpp:368] 3_conv2 -> 3_conv2
I0208 08:45:00.563993 30098 net.cpp:120] Setting up 3_conv2
I0208 08:45:00.564687 30098 net.cpp:127] Top shape: 350 32 16 16 (2867200)
I0208 08:45:00.564693 30098 layer_factory.hpp:74] Creating layer 3_relu2
I0208 08:45:00.564698 30098 net.cpp:90] Creating Layer 3_relu2
I0208 08:45:00.564702 30098 net.cpp:410] 3_relu2 <- 3_conv2
I0208 08:45:00.564708 30098 net.cpp:357] 3_relu2 -> 3_conv2 (in-place)
I0208 08:45:00.564714 30098 net.cpp:120] Setting up 3_relu2
I0208 08:45:00.564720 30098 net.cpp:127] Top shape: 350 32 16 16 (2867200)
I0208 08:45:00.564725 30098 layer_factory.hpp:74] Creating layer 3_pool2
I0208 08:45:00.564730 30098 net.cpp:90] Creating Layer 3_pool2
I0208 08:45:00.564734 30098 net.cpp:410] 3_pool2 <- 3_conv2
I0208 08:45:00.564739 30098 net.cpp:368] 3_pool2 -> 3_pool2
I0208 08:45:00.564745 30098 net.cpp:120] Setting up 3_pool2
I0208 08:45:00.564752 30098 net.cpp:127] Top shape: 350 32 8 8 (716800)
I0208 08:45:00.564757 30098 layer_factory.hpp:74] Creating layer 3_conv3
I0208 08:45:00.564766 30098 net.cpp:90] Creating Layer 3_conv3
I0208 08:45:00.564770 30098 net.cpp:410] 3_conv3 <- 3_pool2
I0208 08:45:00.564776 30098 net.cpp:368] 3_conv3 -> 3_conv3
I0208 08:45:00.564784 30098 net.cpp:120] Setting up 3_conv3
I0208 08:45:00.565979 30098 net.cpp:127] Top shape: 350 64 8 8 (1433600)
I0208 08:45:00.565989 30098 layer_factory.hpp:74] Creating layer 3_relu3
I0208 08:45:00.565997 30098 net.cpp:90] Creating Layer 3_relu3
I0208 08:45:00.566001 30098 net.cpp:410] 3_relu3 <- 3_conv3
I0208 08:45:00.566006 30098 net.cpp:357] 3_relu3 -> 3_conv3 (in-place)
I0208 08:45:00.566011 30098 net.cpp:120] Setting up 3_relu3
I0208 08:45:00.566017 30098 net.cpp:127] Top shape: 350 64 8 8 (1433600)
I0208 08:45:00.566022 30098 layer_factory.hpp:74] Creating layer 3_pool3
I0208 08:45:00.566027 30098 net.cpp:90] Creating Layer 3_pool3
I0208 08:45:00.566031 30098 net.cpp:410] 3_pool3 <- 3_conv3
I0208 08:45:00.566037 30098 net.cpp:368] 3_pool3 -> 3_pool3
I0208 08:45:00.566043 30098 net.cpp:120] Setting up 3_pool3
I0208 08:45:00.566051 30098 net.cpp:127] Top shape: 350 64 4 4 (358400)
I0208 08:45:00.566054 30098 layer_factory.hpp:74] Creating layer 3_ip1
I0208 08:45:00.566061 30098 net.cpp:90] Creating Layer 3_ip1
I0208 08:45:00.566064 30098 net.cpp:410] 3_ip1 <- 3_pool3
I0208 08:45:00.566071 30098 net.cpp:368] 3_ip1 -> 3_ip1
I0208 08:45:00.566077 30098 net.cpp:120] Setting up 3_ip1
I0208 08:45:00.567744 30098 net.cpp:127] Top shape: 350 64 (22400)
I0208 08:45:00.567752 30098 layer_factory.hpp:74] Creating layer 3_ip2
I0208 08:45:00.567757 30098 net.cpp:90] Creating Layer 3_ip2
I0208 08:45:00.567762 30098 net.cpp:410] 3_ip2 <- 3_ip1
I0208 08:45:00.567770 30098 net.cpp:368] 3_ip2 -> 3_ip2
I0208 08:45:00.567776 30098 net.cpp:120] Setting up 3_ip2
I0208 08:45:00.567811 30098 net.cpp:127] Top shape: 350 10 (3500)
I0208 08:45:00.567817 30098 layer_factory.hpp:74] Creating layer 3_prob
I0208 08:45:00.567823 30098 net.cpp:90] Creating Layer 3_prob
I0208 08:45:00.567827 30098 net.cpp:410] 3_prob <- 3_ip2
I0208 08:45:00.567832 30098 net.cpp:368] 3_prob -> 3_prob
I0208 08:45:00.567840 30098 net.cpp:120] Setting up 3_prob
I0208 08:45:00.567852 30098 net.cpp:127] Top shape: 350 10 (3500)
I0208 08:45:00.567855 30098 layer_factory.hpp:74] Creating layer 4_conv1
I0208 08:45:00.567863 30098 net.cpp:90] Creating Layer 4_conv1
I0208 08:45:00.567867 30098 net.cpp:410] 4_conv1 <- data_cifar_0_split_3
I0208 08:45:00.567873 30098 net.cpp:368] 4_conv1 -> 4_conv1
I0208 08:45:00.567879 30098 net.cpp:120] Setting up 4_conv1
I0208 08:45:00.567968 30098 net.cpp:127] Top shape: 350 32 32 32 (11468800)
I0208 08:45:00.567976 30098 layer_factory.hpp:74] Creating layer 4_pool1
I0208 08:45:00.567982 30098 net.cpp:90] Creating Layer 4_pool1
I0208 08:45:00.567986 30098 net.cpp:410] 4_pool1 <- 4_conv1
I0208 08:45:00.567991 30098 net.cpp:368] 4_pool1 -> 4_pool1
I0208 08:45:00.567996 30098 net.cpp:120] Setting up 4_pool1
I0208 08:45:00.568004 30098 net.cpp:127] Top shape: 350 32 16 16 (2867200)
I0208 08:45:00.568008 30098 layer_factory.hpp:74] Creating layer 4_relu1
I0208 08:45:00.568023 30098 net.cpp:90] Creating Layer 4_relu1
I0208 08:45:00.568028 30098 net.cpp:410] 4_relu1 <- 4_pool1
I0208 08:45:00.568034 30098 net.cpp:357] 4_relu1 -> 4_pool1 (in-place)
I0208 08:45:00.568040 30098 net.cpp:120] Setting up 4_relu1
I0208 08:45:00.568047 30098 net.cpp:127] Top shape: 350 32 16 16 (2867200)
I0208 08:45:00.568050 30098 layer_factory.hpp:74] Creating layer 4_conv2
I0208 08:45:00.568058 30098 net.cpp:90] Creating Layer 4_conv2
I0208 08:45:00.568061 30098 net.cpp:410] 4_conv2 <- 4_pool1
I0208 08:45:00.568068 30098 net.cpp:368] 4_conv2 -> 4_conv2
I0208 08:45:00.568073 30098 net.cpp:120] Setting up 4_conv2
I0208 08:45:00.568856 30098 net.cpp:127] Top shape: 350 32 16 16 (2867200)
I0208 08:45:00.568866 30098 layer_factory.hpp:74] Creating layer 4_relu2
I0208 08:45:00.568872 30098 net.cpp:90] Creating Layer 4_relu2
I0208 08:45:00.568877 30098 net.cpp:410] 4_relu2 <- 4_conv2
I0208 08:45:00.568882 30098 net.cpp:357] 4_relu2 -> 4_conv2 (in-place)
I0208 08:45:00.568888 30098 net.cpp:120] Setting up 4_relu2
I0208 08:45:00.568894 30098 net.cpp:127] Top shape: 350 32 16 16 (2867200)
I0208 08:45:00.568898 30098 layer_factory.hpp:74] Creating layer 4_pool2
I0208 08:45:00.568904 30098 net.cpp:90] Creating Layer 4_pool2
I0208 08:45:00.568908 30098 net.cpp:410] 4_pool2 <- 4_conv2
I0208 08:45:00.568914 30098 net.cpp:368] 4_pool2 -> 4_pool2
I0208 08:45:00.568922 30098 net.cpp:120] Setting up 4_pool2
I0208 08:45:00.568928 30098 net.cpp:127] Top shape: 350 32 8 8 (716800)
I0208 08:45:00.568933 30098 layer_factory.hpp:74] Creating layer 4_conv3
I0208 08:45:00.568939 30098 net.cpp:90] Creating Layer 4_conv3
I0208 08:45:00.568944 30098 net.cpp:410] 4_conv3 <- 4_pool2
I0208 08:45:00.568950 30098 net.cpp:368] 4_conv3 -> 4_conv3
I0208 08:45:00.568958 30098 net.cpp:120] Setting up 4_conv3
I0208 08:45:00.570242 30098 net.cpp:127] Top shape: 350 64 8 8 (1433600)
I0208 08:45:00.570251 30098 layer_factory.hpp:74] Creating layer 4_relu3
I0208 08:45:00.570258 30098 net.cpp:90] Creating Layer 4_relu3
I0208 08:45:00.570262 30098 net.cpp:410] 4_relu3 <- 4_conv3
I0208 08:45:00.570267 30098 net.cpp:357] 4_relu3 -> 4_conv3 (in-place)
I0208 08:45:00.570273 30098 net.cpp:120] Setting up 4_relu3
I0208 08:45:00.570279 30098 net.cpp:127] Top shape: 350 64 8 8 (1433600)
I0208 08:45:00.570284 30098 layer_factory.hpp:74] Creating layer 4_pool3
I0208 08:45:00.570291 30098 net.cpp:90] Creating Layer 4_pool3
I0208 08:45:00.570296 30098 net.cpp:410] 4_pool3 <- 4_conv3
I0208 08:45:00.570300 30098 net.cpp:368] 4_pool3 -> 4_pool3
I0208 08:45:00.570307 30098 net.cpp:120] Setting up 4_pool3
I0208 08:45:00.570313 30098 net.cpp:127] Top shape: 350 64 4 4 (358400)
I0208 08:45:00.570317 30098 layer_factory.hpp:74] Creating layer 4_ip1
I0208 08:45:00.570323 30098 net.cpp:90] Creating Layer 4_ip1
I0208 08:45:00.570327 30098 net.cpp:410] 4_ip1 <- 4_pool3
I0208 08:45:00.570334 30098 net.cpp:368] 4_ip1 -> 4_ip1
I0208 08:45:00.570341 30098 net.cpp:120] Setting up 4_ip1
I0208 08:45:00.571938 30098 net.cpp:127] Top shape: 350 64 (22400)
I0208 08:45:00.571944 30098 layer_factory.hpp:74] Creating layer 4_ip2
I0208 08:45:00.571951 30098 net.cpp:90] Creating Layer 4_ip2
I0208 08:45:00.571956 30098 net.cpp:410] 4_ip2 <- 4_ip1
I0208 08:45:00.571962 30098 net.cpp:368] 4_ip2 -> 4_ip2
I0208 08:45:00.571969 30098 net.cpp:120] Setting up 4_ip2
I0208 08:45:00.572003 30098 net.cpp:127] Top shape: 350 10 (3500)
I0208 08:45:00.572010 30098 layer_factory.hpp:74] Creating layer 4_prob
I0208 08:45:00.572016 30098 net.cpp:90] Creating Layer 4_prob
I0208 08:45:00.572021 30098 net.cpp:410] 4_prob <- 4_ip2
I0208 08:45:00.572026 30098 net.cpp:368] 4_prob -> 4_prob
I0208 08:45:00.572031 30098 net.cpp:120] Setting up 4_prob
I0208 08:45:00.572038 30098 net.cpp:127] Top shape: 350 10 (3500)
I0208 08:45:00.572043 30098 layer_factory.hpp:74] Creating layer loss
I0208 08:45:00.572054 30098 net.cpp:90] Creating Layer loss
I0208 08:45:00.572059 30098 net.cpp:410] loss <- 1_prob
I0208 08:45:00.572063 30098 net.cpp:410] loss <- 2_prob
I0208 08:45:00.572067 30098 net.cpp:410] loss <- 3_prob
I0208 08:45:00.572082 30098 net.cpp:410] loss <- 4_prob
I0208 08:45:00.572087 30098 net.cpp:410] loss <- label
I0208 08:45:00.572093 30098 net.cpp:368] loss -> multiple-output loss
I0208 08:45:00.572104 30098 net.cpp:368] loss -> batch-instance-counts
I0208 08:45:00.572113 30098 net.cpp:368] loss -> train-instance-counts
I0208 08:45:00.572119 30098 net.cpp:368] loss -> curr-b-value
I0208 08:45:00.572127 30098 net.cpp:120] Setting up loss
I0208 08:45:00.572140 30098 net.cpp:127] Top shape: 4 1 1 1 (4)
I0208 08:45:00.572144 30098 net.cpp:129]     with loss weight 1
I0208 08:45:00.572163 30098 net.cpp:127] Top shape: 4 1 1 1 (4)
I0208 08:45:00.572168 30098 net.cpp:127] Top shape: 4 1 1 1 (4)
I0208 08:45:00.572173 30098 net.cpp:127] Top shape: 1 1 1 1 (1)
I0208 08:45:00.572177 30098 net.cpp:192] loss needs backward computation.
I0208 08:45:00.572185 30098 net.cpp:192] 4_prob needs backward computation.
I0208 08:45:00.572190 30098 net.cpp:192] 4_ip2 needs backward computation.
I0208 08:45:00.572192 30098 net.cpp:192] 4_ip1 needs backward computation.
I0208 08:45:00.572196 30098 net.cpp:192] 4_pool3 needs backward computation.
I0208 08:45:00.572199 30098 net.cpp:192] 4_relu3 needs backward computation.
…
I0208 08:45:00.573807 30098 net.cpp:287] The NetState phase (1) differed from the phase (0) specified by a rule in layer loss
I0208 08:45:00.573992 30098 net.cpp:42] Initializing net from parameters: 
name: "CIFAR10_quick"
state {
  phase: TEST
}
layer {
  name: "cifar"
  type: "Data"
  top: "data"
  top: "label"
  include {
    phase: TEST
  }
  transform_param {
    mean_file: "/home/mike/ml_lab/mod/MCL_Caffe/examples/cifar10/mean.binaryproto"
  }
  data_param {
    source: "/home/mike/ml_lab/mod/MCL_Caffe/examples/cifar10/cifar10_test_lmdb"
    batch_size: 100
    backend: LMDB
  }
}
layer {
  name: "1_conv1"
  type: "Convolution"
  bottom: "data"
  top: "1_conv1"
  param {
    lr_mult: 1
  }
  param {
    lr_mult: 2
  }
  convolution_param {
    num_output: 32
    pad: 2
    kernel_size: 5
    stride: 1
    weight_filler {
      type: "gaussian"
      std: 0.0001
    }
    bias_filler {
      type: "constant"
    }
  }
}
layer {
  name: "1_pool1"
  type: "Pooling"
  bottom: "1_conv1"
  top: "1_pool1"
  pooling_param {
    pool: MAX
    kernel_size: 3
    stride: 2
  }
}
layer {
  name: "1_relu1"
  type: "ReLU"
  bottom: "1_pool1"
  top: "1_pool1"
}
layer {
  name: "1_conv2"
  type: "Convolution"
  bottom: "1_pool1"
  top: "1_conv2"
  param {
    lr_mult: 1
  }
  param {
    lr_mult: 2
  }
  convolution_param {
    num_output: 32
    pad: 2
    kernel_size: 5
    stride: 1
    weight_filler {
      type: "gaussian"
      std: 0.01
    }
    bias_filler {
      type: "constant"
    }
  }
}
layer {
  name: "1_relu2"
  type: "ReLU"
  bottom: "1_conv2"
  top: "1_conv2"
}
layer {
  name: "1_pool2"
  type: "Pooling"
  bottom: "1_conv2"
  top: "1_pool2"
  pooling_param {
    pool: AVE
    kernel_size: 3
    stride: 2
  }
}
layer {
  name: "1_conv3"
  type: "Convolution"
  bottom: "1_pool2"
  top: "1_conv3"
  param {
    lr_mult: 1
  }
  param {
    lr_mult: 2
  }
  convolution_param {
    num_output: 64
    pad: 2
    kernel_size: 5
    stride: 1
    weight_filler {
      type: "gaussian"
      std: 0.01
    }
    bias_filler {
      type: "constant"
    }
  }
}
layer {
  name: "1_relu3"
  type: "ReLU"
  bottom: "1_conv3"
  top: "1_conv3"
}
layer {
  name: "1_pool3"
  type: "Pooling"
  bottom: "1_conv3"
  top: "1_pool3"
  pooling_param {
    pool: AVE
    kernel_size: 3
    stride: 2
  }
}
layer {
  name: "1_ip1"
  type: "InnerProduct"
  bottom: "1_pool3"
  top: "1_ip1"
  param {
    lr_mult: 1
  }
  param {
    lr_mult: 2
  }
  inner_product_param {
    num_output: 64
    weight_filler {
      type: "gaussian"
      std: 0.1
    }
    bias_filler {
      type: "constant"
    }
  }
}
layer {
  name: "1_ip2"
  type: "InnerProduct"
  bottom: "1_ip1"
  top: "1_ip2"
  param {
    lr_mult: 1
  }
  param {
    lr_mult: 2
  }
  inner_product_param {
    num_output: 10
    weight_filler {
      type: "gaussian"
      std: 0.1
    }
    bias_filler {
      type: "constant"
    }
  }
}
layer {
  name: "1_prob"
  type: "Softmax"
  bottom: "1_ip2"
  top: "1_prob"
}
layer {
  name: "2_conv1"
  type: "Convolution"
  bottom: "data"
  top: "2_conv1"
  param {
    lr_mult: 1
  }
  param {
    lr_mult: 2
  }
  convolution_param {
    num_output: 32
    pad: 2
    kernel_size: 5
    stride: 1
    weight_filler {
      type: "gaussian"
      std: 0.0001
    }
    bias_filler {
      type: "constant"
    }
  }
}
layer {
  name: "2_pool1"
  type: "Pooling"
  bottom: "2_conv1"
  top: "2_pool1"
  pooling_param {
    pool: MAX
    kernel_size: 3
    stride: 2
  }
}
layer {
  name: "2_relu1"
  type: "ReLU"
  bottom: "2_pool1"
  top: "2_pool1"
}
layer {
  name: "2_conv2"
  type: "Convolution"
  bottom: "2_pool1"
  top: "2_conv2"
  param {
    lr_mult: 1
  }
  param {
    lr_mult: 2
  }
  convolution_param {
    num_output: 32
    pad: 2
    kernel_size: 5
    stride: 1
    weight_filler {
      type: "gaussian"
      std: 0.01
    }
    bias_filler {
      type: "constant"
    }
  }
}
layer {
  name: "2_relu2"
  type: "ReLU"
  bottom: "2_conv2"
  top: "2_conv2"
}
layer {
  name: "2_pool2"
  type: "Pooling"
  bottom: "2_conv2"
  top: "2_pool2"
  pooling_param {
    pool: AVE
    kernel_size: 3
    stride: 2
  }
}
layer {
  name: "2_conv3"
  type: "Convolution"
  bottom: "2_pool2"
  top: "2_conv3"
  param {
    lr_mult: 1
  }
  param {
    lr_mult: 2
  }
  convolution_param {
    num_output: 64
    pad: 2
    kernel_size: 5
    stride: 1
    weight_filler {
      type: "gaussian"
      std: 0.01
    }
    bias_filler {
      type: "constant"
    }
  }
}
layer {
  name: "2_relu3"
  type: "ReLU"
  bottom: "2_conv3"
  top: "2_conv3"
}
layer {
  name: "2_pool3"
  type: "Pooling"
  bottom: "2_conv3"
  top: "2_pool3"
  pooling_param {
    pool: AVE
    kernel_size: 3
    stride: 2
  }
}
layer {
  name: "2_ip1"
  type: "InnerProduct"
  bottom: "2_pool3"
  top: "2_ip1"
  param {
    lr_mult: 1
  }
  param {
    lr_mult: 2
  }
  inner_product_param {
    num_output: 64
    weight_filler {
      type: "gaussian"
      std: 0.1
    }
    bias_filler {
      type: "constant"
    }
  }
}
layer {
  name: "2_ip2"
  type: "InnerProduct"
  bottom: "2_ip1"
  top: "2_ip2"
  param {
    lr_mult: 1
  }
  param {
    lr_mult: 2
  }
  inner_product_param {
    num_output: 10
    weight_filler {
      type: "gaussian"
      std: 0.1
    }
    bias_filler {
      type: "constant"
    }
  }
}
layer {
  name: "2_prob"
  type: "Softmax"
  bottom: "2_ip2"
  top: "2_prob"
}
layer {
  name: "3_conv1"
  type: "Convolution"
  bottom: "data"
  top: "3_conv1"
  param {
    lr_mult: 1
  }
  param {
    lr_mult: 2
  }
  convolution_param {
    num_output: 32
    pad: 2
    kernel_size: 5
    stride: 1
    weight_filler {
      type: "gaussian"
      std: 0.0001
    }
    bias_filler {
      type: "constant"
    }
  }
}
layer {
  name: "3_pool1"
  type: "Pooling"
  bottom: "3_conv1"
  top: "3_pool1"
  pooling_param {
    pool: MAX
    kernel_size: 3
    stride: 2
  }
}
layer {
  name: "3_relu1"
  type: "ReLU"
  bottom: "3_pool1"
  top: "3_pool1"
}
layer {
  name: "3_conv2"
  type: "Convolution"
  bottom: "3_pool1"
  top: "3_conv2"
  param {
    lr_mult: 1
  }
  param {
    lr_mult: 2
  }
  convolution_param {
    num_output: 32
    pad: 2
    kernel_size: 5
    stride: 1
    weight_filler {
      type: "gaussian"
      std: 0.01
    }
    bias_filler {
      type: "constant"
    }
  }
}
layer {
  name: "3_relu2"
  type: "ReLU"
  bottom: "3_conv2"
  top: "3_conv2"
}
layer {
  name: "3_pool2"
  type: "Pooling"
  bottom: "3_conv2"
  top: "3_pool2"
  pooling_param {
    pool: AVE
    kernel_size: 3
    stride: 2
  }
}
layer {
  name: "3_conv3"
  type: "Convolution"
  bottom: "3_pool2"
  top: "3_conv3"
  param {
    lr_mult: 1
  }
  param {
    lr_mult: 2
  }
  convolution_param {
    num_output: 64
    pad: 2
    kernel_size: 5
    stride: 1
    weight_filler {
      type: "gaussian"
      std: 0.01
    }
    bias_filler {
      type: "constant"
    }
  }
}
layer {
  name: "3_relu3"
  type: "ReLU"
  bottom: "3_conv3"
  top: "3_conv3"
}
layer {
  name: "3_pool3"
  type: "Pooling"
  bottom: "3_conv3"
  top: "3_pool3"
  pooling_param {
    pool: AVE
    kernel_size: 3
    stride: 2
  }
}
layer {
  name: "3_ip1"
  type: "InnerProduct"
  bottom: "3_pool3"
  top: "3_ip1"
  param {
    lr_mult: 1
  }
  param {
    lr_mult: 2
  }
  inner_product_param {
    num_output: 64
    weight_filler {
      type: "gaussian"
      std: 0.1
    }
    bias_filler {
      type: "constant"
    }
  }
}
layer {
  name: "3_ip2"
  type: "InnerProduct"
  bottom: "3_ip1"
  top: "3_ip2"
  param {
    lr_mult: 1
  }
  param {
    lr_mult: 2
  }
  inner_product_param {
    num_output: 10
    weight_filler {
      type: "gaussian"
      std: 0.1
    }
    bias_filler {
      type: "constant"
    }
  }
}
layer {
  name: "3_prob"
  type: "Softmax"
  bottom: "3_ip2"
  top: "3_prob"
}
layer {
  name: "4_conv1"
  type: "Convolution"
  bottom: "data"
  top: "4_conv1"
  param {
    lr_mult: 1
  }
  param {
    lr_mult: 2
  }
  convolution_param {
    num_output: 32
    pad: 2
    kernel_size: 5
    stride: 1
    weight_filler {
      type: "gaussian"
      std: 0.0001
    }
    bias_filler {
      type: "constant"
    }
  }
}
layer {
  name: "4_pool1"
  type: "Pooling"
  bottom: "4_conv1"
  top: "4_pool1"
  pooling_param {
    pool: MAX
    kernel_size: 3
    stride: 2
  }
}
layer {
  name: "4_relu1"
  type: "ReLU"
  bottom: "4_pool1"
  top: "4_pool1"
}
layer {
  name: "4_conv2"
  type: "Convolution"
  bottom: "4_pool1"
  top: "4_conv2"
  param {
    lr_mult: 1
  }
  param {
    lr_mult: 2
  }
  convolution_param {
    num_output: 32
    pad: 2
    kernel_size: 5
    stride: 1
    weight_filler {
      type: "gaussian"
      std: 0.01
    }
    bias_filler {
      type: "constant"
    }
  }
}
layer {
  name: "4_relu2"
  type: "ReLU"
  bottom: "4_conv2"
  top: "4_conv2"
}
layer {
  name: "4_pool2"
  type: "Pooling"
  bottom: "4_conv2"
  top: "4_pool2"
  pooling_param {
    pool: AVE
    kernel_size: 3
    stride: 2
  }
}
layer {
  name: "4_conv3"
  type: "Convolution"
  bottom: "4_pool2"
  top: "4_conv3"
  param {
    lr_mult: 1
  }
  param {
    lr_mult: 2
  }
  convolution_param {
    num_output: 64
    pad: 2
    kernel_size: 5
    stride: 1
    weight_filler {
      type: "gaussian"
      std: 0.01
    }
    bias_filler {
      type: "constant"
    }
  }
}
layer {
  name: "4_relu3"
  type: "ReLU"
  bottom: "4_conv3"
  top: "4_conv3"
}
layer {
  name: "4_pool3"
  type: "Pooling"
  bottom: "4_conv3"
  top: "4_pool3"
  pooling_param {
    pool: AVE
    kernel_size: 3
    stride: 2
  }
}
layer {
  name: "4_ip1"
  type: "InnerProduct"
  bottom: "4_pool3"
  top: "4_ip1"
  param {
    lr_mult: 1
  }
  param {
    lr_mult: 2
  }
  inner_product_param {
    num_output: 64
    weight_filler {
      type: "gaussian"
      std: 0.1
    }
    bias_filler {
      type: "constant"
    }
  }
}
layer {
  name: "4_ip2"
  type: "InnerProduct"
  bottom: "4_ip1"
  top: "4_ip2"
  param {
    lr_mult: 1
  }
  param {
    lr_mult: 2
  }
  inner_product_param {
    num_output: 10
    weight_filler {
      type: "gaussian"
      std: 0.1
    }
    bias_filler {
      type: "constant"
    }
  }
}
layer {
  name: "4_prob"
  type: "Softmax"
  bottom: "4_ip2"
  top: "4_prob"
}
layer {
  name: "1_accuracy"
  type: "Accuracy"
  bottom: "1_prob"
  bottom: "label"
  top: "1_accuracy"
  include {
    phase: TEST
  }
}
layer {
  name: "2_accuracy"
  type: "Accuracy"
  bottom: "2_prob"
  bottom: "label"
  top: "2_accuracy"
  include {
    phase: TEST
  }
}
layer {
  name: "3_accuracy"
  type: "Accuracy"
  bottom: "3_prob"
  bottom: "label"
  top: "3_accuracy"
  include {
    phase: TEST
  }
}
layer {
  name: "4_accuracy"
  type: "Accuracy"
  bottom: "4_prob"
  bottom: "label"
  top: "4_accuracy"
  include {
    phase: TEST
  }
}
layer {
  name: "accuracy"
  type: "OracleAccuracy"
  bottom: "1_prob"
  bottom: "2_prob"
  bottom: "3_prob"
  bottom: "4_prob"
  bottom: "label"
  top: "oracle accuracy"
  include {
    phase: TEST
  }
}
I0208 08:45:00.574236 30098 layer_factory.hpp:74] Creating layer cifar
I0208 08:45:00.574246 30098 net.cpp:90] Creating Layer cifar
I0208 08:45:00.574250 30098 net.cpp:368] cifar -> data
I0208 08:45:00.574259 30098 net.cpp:368] cifar -> label
I0208 08:45:00.574265 30098 net.cpp:120] Setting up cifar
I0208 08:45:00.574295 30098 db.cpp:34] Opened lmdb /home/mike/ml_lab/mod/MCL_Caffe/examples/cifar10/cifar10_test_lmdb
I0208 08:45:00.574321 30098 data_layer.cpp:67] output data size: 100,3,32,32
I0208 08:45:00.574327 30098 data_transformer.cpp:22] Loading mean file from: /home/mike/ml_lab/mod/MCL_Caffe/examples/cifar10/mean.binaryproto
I0208 08:45:00.574853 30098 net.cpp:127] Top shape: 100 3 32 32 (307200)
I0208 08:45:00.574862 30098 net.cpp:127] Top shape: 100 (100)
I0208 08:45:00.574865 30098 layer_factory.hpp:74] Creating layer data_cifar_0_split
I0208 08:45:00.574873 30098 net.cpp:90] Creating Layer data_cifar_0_split
I0208 08:45:00.574877 30098 net.cpp:410] data_cifar_0_split <- data
I0208 08:45:00.574882 30098 net.cpp:368] data_cifar_0_split -> data_cifar_0_split_0
I0208 08:45:00.574888 30098 net.cpp:368] data_cifar_0_split -> data_cifar_0_split_1
I0208 08:45:00.574894 30098 net.cpp:368] data_cifar_0_split -> data_cifar_0_split_2
I0208 08:45:00.574900 30098 net.cpp:368] data_cifar_0_split -> data_cifar_0_split_3
I0208 08:45:00.574904 30098 net.cpp:120] Setting up data_cifar_0_split
I0208 08:45:00.574911 30098 net.cpp:127] Top shape: 100 3 32 32 (307200)
I0208 08:45:00.574915 30098 net.cpp:127] Top shape: 100 3 32 32 (307200)
I0208 08:45:00.574919 30098 net.cpp:127] Top shape: 100 3 32 32 (307200)
I0208 08:45:00.574923 30098 net.cpp:127] Top shape: 100 3 32 32 (307200)
I0208 08:45:00.574926 30098 layer_factory.hpp:74] Creating layer label_cifar_1_split
I0208 08:45:00.574931 30098 net.cpp:90] Creating Layer label_cifar_1_split
I0208 08:45:00.574935 30098 net.cpp:410] label_cifar_1_split <- label
I0208 08:45:00.574940 30098 net.cpp:368] label_cifar_1_split -> label_cifar_1_split_0
I0208 08:45:00.574946 30098 net.cpp:368] label_cifar_1_split -> label_cifar_1_split_1
I0208 08:45:00.574951 30098 net.cpp:368] label_cifar_1_split -> label_cifar_1_split_2
I0208 08:45:00.574957 30098 net.cpp:368] label_cifar_1_split -> label_cifar_1_split_3
I0208 08:45:00.574962 30098 net.cpp:368] label_cifar_1_split -> label_cifar_1_split_4
I0208 08:45:00.574967 30098 net.cpp:120] Setting up label_cifar_1_split
I0208 08:45:00.574973 30098 net.cpp:127] Top shape: 100 (100)
I0208 08:45:00.574977 30098 net.cpp:127] Top shape: 100 (100)
I0208 08:45:00.574981 30098 net.cpp:127] Top shape: 100 (100)
I0208 08:45:00.574985 30098 net.cpp:127] Top shape: 100 (100)
I0208 08:45:00.574990 30098 net.cpp:127] Top shape: 100 (100)
I0208 08:45:00.574992 30098 layer_factory.hpp:74] Creating layer 1_conv1
I0208 08:45:00.574997 30098 net.cpp:90] Creating Layer 1_conv1
I0208 08:45:00.575001 30098 net.cpp:410] 1_conv1 <- data_cifar_0_split_0
I0208 08:45:00.575007 30098 net.cpp:368] 1_conv1 -> 1_conv1
I0208 08:45:00.575012 30098 net.cpp:120] Setting up 1_conv1
I0208 08:45:00.575100 30098 net.cpp:127] Top shape: 100 32 32 32 (3276800)
I0208 08:45:00.575109 30098 layer_factory.hpp:74] Creating layer 1_pool1
I0208 08:45:00.575116 30098 net.cpp:90] Creating Layer 1_pool1
I0208 08:45:00.575119 30098 net.cpp:410] 1_pool1 <- 1_conv1
I0208 08:45:00.575124 30098 net.cpp:368] 1_pool1 -> 1_pool1
I0208 08:45:00.575129 30098 net.cpp:120] Setting up 1_pool1
I0208 08:45:00.575136 30098 net.cpp:127] Top shape: 100 32 16 16 (819200)
I0208 08:45:00.575139 30098 layer_factory.hpp:74] Creating layer 1_relu1
I0208 08:45:00.575145 30098 net.cpp:90] Creating Layer 1_relu1
I0208 08:45:00.575147 30098 net.cpp:410] 1_relu1 <- 1_pool1
I0208 08:45:00.575151 30098 net.cpp:357] 1_relu1 -> 1_pool1 (in-place)
I0208 08:45:00.575155 30098 net.cpp:120] Setting up 1_relu1
I0208 08:45:00.575170 30098 net.cpp:127] Top shape: 100 32 16 16 (819200)
I0208 08:45:00.575172 30098 layer_factory.hpp:74] Creating layer 1_conv2
I0208 08:45:00.575177 30098 net.cpp:90] Creating Layer 1_conv2
I0208 08:45:00.575181 30098 net.cpp:410] 1_conv2 <- 1_pool1
I0208 08:45:00.575189 30098 net.cpp:368] 1_conv2 -> 1_conv2
I0208 08:45:00.575196 30098 net.cpp:120] Setting up 1_conv2
I0208 08:45:00.575994 30098 net.cpp:127] Top shape: 100 32 16 16 (819200)
I0208 08:45:00.576004 30098 layer_factory.hpp:74] Creating layer 1_relu2
I0208 08:45:00.576009 30098 net.cpp:90] Creating Layer 1_relu2
I0208 08:45:00.576011 30098 net.cpp:410] 1_relu2 <- 1_conv2
I0208 08:45:00.576017 30098 net.cpp:357] 1_relu2 -> 1_conv2 (in-place)
I0208 08:45:00.576021 30098 net.cpp:120] Setting up 1_relu2
I0208 08:45:00.576026 30098 net.cpp:127] Top shape: 100 32 16 16 (819200)
I0208 08:45:00.576030 30098 layer_factory.hpp:74] Creating layer 1_pool2
I0208 08:45:00.576036 30098 net.cpp:90] Creating Layer 1_pool2
I0208 08:45:00.576041 30098 net.cpp:410] 1_pool2 <- 1_conv2
I0208 08:45:00.576046 30098 net.cpp:368] 1_pool2 -> 1_pool2
I0208 08:45:00.576053 30098 net.cpp:120] Setting up 1_pool2
I0208 08:45:00.576061 30098 net.cpp:127] Top shape: 100 32 8 8 (204800)
I0208 08:45:00.576064 30098 layer_factory.hpp:74] Creating layer 1_conv3
I0208 08:45:00.576071 30098 net.cpp:90] Creating Layer 1_conv3
I0208 08:45:00.576073 30098 net.cpp:410] 1_conv3 <- 1_pool2
I0208 08:45:00.576079 30098 net.cpp:368] 1_conv3 -> 1_conv3
I0208 08:45:00.576086 30098 net.cpp:120] Setting up 1_conv3
I0208 08:45:00.577487 30098 net.cpp:127] Top shape: 100 64 8 8 (409600)
I0208 08:45:00.577496 30098 layer_factory.hpp:74] Creating layer 1_relu3
I0208 08:45:00.577498 30098 net.cpp:90] Creating Layer 1_relu3
I0208 08:45:00.577500 30098 net.cpp:410] 1_relu3 <- 1_conv3
I0208 08:45:00.577503 30098 net.cpp:357] 1_relu3 -> 1_conv3 (in-place)
I0208 08:45:00.577507 30098 net.cpp:120] Setting up 1_relu3
I0208 08:45:00.577512 30098 net.cpp:127] Top shape: 100 64 8 8 (409600)
I0208 08:45:00.577514 30098 layer_factory.hpp:74] Creating layer 1_pool3
I0208 08:45:00.577518 30098 net.cpp:90] Creating Layer 1_pool3
I0208 08:45:00.577522 30098 net.cpp:410] 1_pool3 <- 1_conv3
I0208 08:45:00.577528 30098 net.cpp:368] 1_pool3 -> 1_pool3
I0208 08:45:00.577536 30098 net.cpp:120] Setting up 1_pool3
I0208 08:45:00.577544 30098 net.cpp:127] Top shape: 100 64 4 4 (102400)
I0208 08:45:00.577548 30098 layer_factory.hpp:74] Creating layer 1_ip1
I0208 08:45:00.577554 30098 net.cpp:90] Creating Layer 1_ip1
I0208 08:45:00.577558 30098 net.cpp:410] 1_ip1 <- 1_pool3
I0208 08:45:00.577564 30098 net.cpp:368] 1_ip1 -> 1_ip1
I0208 08:45:00.577569 30098 net.cpp:120] Setting up 1_ip1
I0208 08:45:00.579226 30098 net.cpp:127] Top shape: 100 64 (6400)
I0208 08:45:00.579233 30098 layer_factory.hpp:74] Creating layer 1_ip2
I0208 08:45:00.579239 30098 net.cpp:90] Creating Layer 1_ip2
I0208 08:45:00.579243 30098 net.cpp:410] 1_ip2 <- 1_ip1
I0208 08:45:00.579251 30098 net.cpp:368] 1_ip2 -> 1_ip2
I0208 08:45:00.579258 30098 net.cpp:120] Setting up 1_ip2
I0208 08:45:00.579293 30098 net.cpp:127] Top shape: 100 10 (1000)
I0208 08:45:00.579301 30098 layer_factory.hpp:74] Creating layer 1_prob
I0208 08:45:00.579308 30098 net.cpp:90] Creating Layer 1_prob
I0208 08:45:00.579311 30098 net.cpp:410] 1_prob <- 1_ip2
I0208 08:45:00.579316 30098 net.cpp:368] 1_prob -> 1_prob
I0208 08:45:00.579324 30098 net.cpp:120] Setting up 1_prob
I0208 08:45:00.579332 30098 net.cpp:127] Top shape: 100 10 (1000)
I0208 08:45:00.579337 30098 layer_factory.hpp:74] Creating layer 1_prob_1_prob_0_split
I0208 08:45:00.579341 30098 net.cpp:90] Creating Layer 1_prob_1_prob_0_split
I0208 08:45:00.579345 30098 net.cpp:410] 1_prob_1_prob_0_split <- 1_prob
I0208 08:45:00.579352 30098 net.cpp:368] 1_prob_1_prob_0_split -> 1_prob_1_prob_0_split_0
I0208 08:45:00.579360 30098 net.cpp:368] 1_prob_1_prob_0_split -> 1_prob_1_prob_0_split_1
I0208 08:45:00.579365 30098 net.cpp:120] Setting up 1_prob_1_prob_0_split
I0208 08:45:00.579372 30098 net.cpp:127] Top shape: 100 10 (1000)
I0208 08:45:00.579386 30098 net.cpp:127] Top shape: 100 10 (1000)
I0208 08:45:00.579391 30098 layer_factory.hpp:74] Creating layer 2_conv1
I0208 08:45:00.579398 30098 net.cpp:90] Creating Layer 2_conv1
I0208 08:45:00.579403 30098 net.cpp:410] 2_conv1 <- data_cifar_0_split_1
I0208 08:45:00.579411 30098 net.cpp:368] 2_conv1 -> 2_conv1
I0208 08:45:00.579417 30098 net.cpp:120] Setting up 2_conv1
I0208 08:45:00.579509 30098 net.cpp:127] Top shape: 100 32 32 32 (3276800)
I0208 08:45:00.579516 30098 layer_factory.hpp:74] Creating layer 2_pool1
I0208 08:45:00.579524 30098 net.cpp:90] Creating Layer 2_pool1
I0208 08:45:00.579527 30098 net.cpp:410] 2_pool1 <- 2_conv1
I0208 08:45:00.579532 30098 net.cpp:368] 2_pool1 -> 2_pool1
I0208 08:45:00.579538 30098 net.cpp:120] Setting up 2_pool1
I0208 08:45:00.579546 30098 net.cpp:127] Top shape: 100 32 16 16 (819200)
I0208 08:45:00.579550 30098 layer_factory.hpp:74] Creating layer 2_relu1
I0208 08:45:00.579555 30098 net.cpp:90] Creating Layer 2_relu1
I0208 08:45:00.579558 30098 net.cpp:410] 2_relu1 <- 2_pool1
I0208 08:45:00.579563 30098 net.cpp:357] 2_relu1 -> 2_pool1 (in-place)
I0208 08:45:00.579568 30098 net.cpp:120] Setting up 2_relu1
I0208 08:45:00.579574 30098 net.cpp:127] Top shape: 100 32 16 16 (819200)
I0208 08:45:00.579578 30098 layer_factory.hpp:74] Creating layer 2_conv2
I0208 08:45:00.579584 30098 net.cpp:90] Creating Layer 2_conv2
I0208 08:45:00.579588 30098 net.cpp:410] 2_conv2 <- 2_pool1
I0208 08:45:00.579596 30098 net.cpp:368] 2_conv2 -> 2_conv2
I0208 08:45:00.579602 30098 net.cpp:120] Setting up 2_conv2
I0208 08:45:00.580402 30098 net.cpp:127] Top shape: 100 32 16 16 (819200)
I0208 08:45:00.580411 30098 layer_factory.hpp:74] Creating layer 2_relu2
I0208 08:45:00.580417 30098 net.cpp:90] Creating Layer 2_relu2
I0208 08:45:00.580421 30098 net.cpp:410] 2_relu2 <- 2_conv2
I0208 08:45:00.580426 30098 net.cpp:357] 2_relu2 -> 2_conv2 (in-place)
I0208 08:45:00.580432 30098 net.cpp:120] Setting up 2_relu2
I0208 08:45:00.580437 30098 net.cpp:127] Top shape: 100 32 16 16 (819200)
I0208 08:45:00.580442 30098 layer_factory.hpp:74] Creating layer 2_pool2
I0208 08:45:00.580447 30098 net.cpp:90] Creating Layer 2_pool2
I0208 08:45:00.580452 30098 net.cpp:410] 2_pool2 <- 2_conv2
I0208 08:45:00.580457 30098 net.cpp:368] 2_pool2 -> 2_pool2
I0208 08:45:00.580463 30098 net.cpp:120] Setting up 2_pool2
I0208 08:45:00.580471 30098 net.cpp:127] Top shape: 100 32 8 8 (204800)
I0208 08:45:00.580476 30098 layer_factory.hpp:74] Creating layer 2_conv3
I0208 08:45:00.580482 30098 net.cpp:90] Creating Layer 2_conv3
I0208 08:45:00.580485 30098 net.cpp:410] 2_conv3 <- 2_pool2
I0208 08:45:00.580490 30098 net.cpp:368] 2_conv3 -> 2_conv3
I0208 08:45:00.580497 30098 net.cpp:120] Setting up 2_conv3
I0208 08:45:00.581809 30098 net.cpp:127] Top shape: 100 64 8 8 (409600)
I0208 08:45:00.581817 30098 layer_factory.hpp:74] Creating layer 2_relu3
I0208 08:45:00.581822 30098 net.cpp:90] Creating Layer 2_relu3
I0208 08:45:00.581828 30098 net.cpp:410] 2_relu3 <- 2_conv3
I0208 08:45:00.581832 30098 net.cpp:357] 2_relu3 -> 2_conv3 (in-place)
I0208 08:45:00.581840 30098 net.cpp:120] Setting up 2_relu3
I0208 08:45:00.581845 30098 net.cpp:127] Top shape: 100 64 8 8 (409600)
I0208 08:45:00.581851 30098 layer_factory.hpp:74] Creating layer 2_pool3
I0208 08:45:00.581854 30098 net.cpp:90] Creating Layer 2_pool3
I0208 08:45:00.581859 30098 net.cpp:410] 2_pool3 <- 2_conv3
I0208 08:45:00.581864 30098 net.cpp:368] 2_pool3 -> 2_pool3
I0208 08:45:00.581871 30098 net.cpp:120] Setting up 2_pool3
I0208 08:45:00.581877 30098 net.cpp:127] Top shape: 100 64 4 4 (102400)
I0208 08:45:00.581881 30098 layer_factory.hpp:74] Creating layer 2_ip1
I0208 08:45:00.581888 30098 net.cpp:90] Creating Layer 2_ip1
I0208 08:45:00.581892 30098 net.cpp:410] 2_ip1 <- 2_pool3
I0208 08:45:00.581900 30098 net.cpp:368] 2_ip1 -> 2_ip1
I0208 08:45:00.581907 30098 net.cpp:120] Setting up 2_ip1
I0208 08:45:00.583571 30098 net.cpp:127] Top shape: 100 64 (6400)
I0208 08:45:00.583580 30098 layer_factory.hpp:74] Creating layer 2_ip2
I0208 08:45:00.583588 30098 net.cpp:90] Creating Layer 2_ip2
I0208 08:45:00.583602 30098 net.cpp:410] 2_ip2 <- 2_ip1
I0208 08:45:00.583611 30098 net.cpp:368] 2_ip2 -> 2_ip2
I0208 08:45:00.583617 30098 net.cpp:120] Setting up 2_ip2
I0208 08:45:00.583653 30098 net.cpp:127] Top shape: 100 10 (1000)
I0208 08:45:00.583662 30098 layer_factory.hpp:74] Creating layer 2_prob
I0208 08:45:00.583668 30098 net.cpp:90] Creating Layer 2_prob
I0208 08:45:00.583673 30098 net.cpp:410] 2_prob <- 2_ip2
I0208 08:45:00.583678 30098 net.cpp:368] 2_prob -> 2_prob
I0208 08:45:00.583684 30098 net.cpp:120] Setting up 2_prob
I0208 08:45:00.583691 30098 net.cpp:127] Top shape: 100 10 (1000)
I0208 08:45:00.583695 30098 layer_factory.hpp:74] Creating layer 2_prob_2_prob_0_split
I0208 08:45:00.583701 30098 net.cpp:90] Creating Layer 2_prob_2_prob_0_split
I0208 08:45:00.583705 30098 net.cpp:410] 2_prob_2_prob_0_split <- 2_prob
I0208 08:45:00.583710 30098 net.cpp:368] 2_prob_2_prob_0_split -> 2_prob_2_prob_0_split_0
I0208 08:45:00.583716 30098 net.cpp:368] 2_prob_2_prob_0_split -> 2_prob_2_prob_0_split_1
I0208 08:45:00.583726 30098 net.cpp:120] Setting up 2_prob_2_prob_0_split
I0208 08:45:00.583734 30098 net.cpp:127] Top shape: 100 10 (1000)
I0208 08:45:00.583739 30098 net.cpp:127] Top shape: 100 10 (1000)
I0208 08:45:00.583744 30098 layer_factory.hpp:74] Creating layer 3_conv1
I0208 08:45:00.583748 30098 net.cpp:90] Creating Layer 3_conv1
I0208 08:45:00.583753 30098 net.cpp:410] 3_conv1 <- data_cifar_0_split_2
I0208 08:45:00.583760 30098 net.cpp:368] 3_conv1 -> 3_conv1
I0208 08:45:00.583766 30098 net.cpp:120] Setting up 3_conv1
I0208 08:45:00.583858 30098 net.cpp:127] Top shape: 100 32 32 32 (3276800)
I0208 08:45:00.583866 30098 layer_factory.hpp:74] Creating layer 3_pool1
I0208 08:45:00.583873 30098 net.cpp:90] Creating Layer 3_pool1
I0208 08:45:00.583878 30098 net.cpp:410] 3_pool1 <- 3_conv1
I0208 08:45:00.583883 30098 net.cpp:368] 3_pool1 -> 3_pool1
I0208 08:45:00.583889 30098 net.cpp:120] Setting up 3_pool1
I0208 08:45:00.583896 30098 net.cpp:127] Top shape: 100 32 16 16 (819200)
I0208 08:45:00.583900 30098 layer_factory.hpp:74] Creating layer 3_relu1
I0208 08:45:00.583905 30098 net.cpp:90] Creating Layer 3_relu1
I0208 08:45:00.583909 30098 net.cpp:410] 3_relu1 <- 3_pool1
I0208 08:45:00.583914 30098 net.cpp:357] 3_relu1 -> 3_pool1 (in-place)
I0208 08:45:00.583920 30098 net.cpp:120] Setting up 3_relu1
I0208 08:45:00.583925 30098 net.cpp:127] Top shape: 100 32 16 16 (819200)
I0208 08:45:00.583930 30098 layer_factory.hpp:74] Creating layer 3_conv2
I0208 08:45:00.583937 30098 net.cpp:90] Creating Layer 3_conv2
I0208 08:45:00.583942 30098 net.cpp:410] 3_conv2 <- 3_pool1
I0208 08:45:00.583947 30098 net.cpp:368] 3_conv2 -> 3_conv2
I0208 08:45:00.583953 30098 net.cpp:120] Setting up 3_conv2
I0208 08:45:00.584714 30098 net.cpp:127] Top shape: 100 32 16 16 (819200)
I0208 08:45:00.584722 30098 layer_factory.hpp:74] Creating layer 3_relu2
I0208 08:45:00.584727 30098 net.cpp:90] Creating Layer 3_relu2
I0208 08:45:00.584730 30098 net.cpp:410] 3_relu2 <- 3_conv2
I0208 08:45:00.584735 30098 net.cpp:357] 3_relu2 -> 3_conv2 (in-place)
I0208 08:45:00.584741 30098 net.cpp:120] Setting up 3_relu2
I0208 08:45:00.584748 30098 net.cpp:127] Top shape: 100 32 16 16 (819200)
I0208 08:45:00.584751 30098 layer_factory.hpp:74] Creating layer 3_pool2
I0208 08:45:00.584756 30098 net.cpp:90] Creating Layer 3_pool2
I0208 08:45:00.584760 30098 net.cpp:410] 3_pool2 <- 3_conv2
I0208 08:45:00.584765 30098 net.cpp:368] 3_pool2 -> 3_pool2
I0208 08:45:00.584770 30098 net.cpp:120] Setting up 3_pool2
I0208 08:45:00.584777 30098 net.cpp:127] Top shape: 100 32 8 8 (204800)
I0208 08:45:00.584781 30098 layer_factory.hpp:74] Creating layer 3_conv3
I0208 08:45:00.584787 30098 net.cpp:90] Creating Layer 3_conv3
I0208 08:45:00.584791 30098 net.cpp:410] 3_conv3 <- 3_pool2
I0208 08:45:00.584797 30098 net.cpp:368] 3_conv3 -> 3_conv3
I0208 08:45:00.584803 30098 net.cpp:120] Setting up 3_conv3
I0208 08:45:00.586004 30098 net.cpp:127] Top shape: 100 64 8 8 (409600)
I0208 08:45:00.586014 30098 layer_factory.hpp:74] Creating layer 3_relu3
I0208 08:45:00.586030 30098 net.cpp:90] Creating Layer 3_relu3
I0208 08:45:00.586035 30098 net.cpp:410] 3_relu3 <- 3_conv3
I0208 08:45:00.586040 30098 net.cpp:357] 3_relu3 -> 3_conv3 (in-place)
I0208 08:45:00.586045 30098 net.cpp:120] Setting up 3_relu3
I0208 08:45:00.586050 30098 net.cpp:127] Top shape: 100 64 8 8 (409600)
I0208 08:45:00.586053 30098 layer_factory.hpp:74] Creating layer 3_pool3
I0208 08:45:00.586058 30098 net.cpp:90] Creating Layer 3_pool3
I0208 08:45:00.586061 30098 net.cpp:410] 3_pool3 <- 3_conv3
I0208 08:45:00.586068 30098 net.cpp:368] 3_pool3 -> 3_pool3
I0208 08:45:00.586073 30098 net.cpp:120] Setting up 3_pool3
I0208 08:45:00.586079 30098 net.cpp:127] Top shape: 100 64 4 4 (102400)
I0208 08:45:00.586083 30098 layer_factory.hpp:74] Creating layer 3_ip1
I0208 08:45:00.586089 30098 net.cpp:90] Creating Layer 3_ip1
I0208 08:45:00.586093 30098 net.cpp:410] 3_ip1 <- 3_pool3
I0208 08:45:00.586099 30098 net.cpp:368] 3_ip1 -> 3_ip1
I0208 08:45:00.586105 30098 net.cpp:120] Setting up 3_ip1
I0208 08:45:00.587762 30098 net.cpp:127] Top shape: 100 64 (6400)
I0208 08:45:00.587770 30098 layer_factory.hpp:74] Creating layer 3_ip2
I0208 08:45:00.587775 30098 net.cpp:90] Creating Layer 3_ip2
I0208 08:45:00.587777 30098 net.cpp:410] 3_ip2 <- 3_ip1
I0208 08:45:00.587782 30098 net.cpp:368] 3_ip2 -> 3_ip2
I0208 08:45:00.587787 30098 net.cpp:120] Setting up 3_ip2
I0208 08:45:00.587819 30098 net.cpp:127] Top shape: 100 10 (1000)
I0208 08:45:00.587827 30098 layer_factory.hpp:74] Creating layer 3_prob
I0208 08:45:00.587833 30098 net.cpp:90] Creating Layer 3_prob
I0208 08:45:00.587836 30098 net.cpp:410] 3_prob <- 3_ip2
I0208 08:45:00.587841 30098 net.cpp:368] 3_prob -> 3_prob
I0208 08:45:00.587846 30098 net.cpp:120] Setting up 3_prob
I0208 08:45:00.587853 30098 net.cpp:127] Top shape: 100 10 (1000)
I0208 08:45:00.587858 30098 layer_factory.hpp:74] Creating layer 3_prob_3_prob_0_split
I0208 08:45:00.587864 30098 net.cpp:90] Creating Layer 3_prob_3_prob_0_split
I0208 08:45:00.587867 30098 net.cpp:410] 3_prob_3_prob_0_split <- 3_prob
I0208 08:45:00.587872 30098 net.cpp:368] 3_prob_3_prob_0_split -> 3_prob_3_prob_0_split_0
I0208 08:45:00.587878 30098 net.cpp:368] 3_prob_3_prob_0_split -> 3_prob_3_prob_0_split_1
I0208 08:45:00.587884 30098 net.cpp:120] Setting up 3_prob_3_prob_0_split
I0208 08:45:00.587891 30098 net.cpp:127] Top shape: 100 10 (1000)
I0208 08:45:00.587895 30098 net.cpp:127] Top shape: 100 10 (1000)
I0208 08:45:00.587899 30098 layer_factory.hpp:74] Creating layer 4_conv1
I0208 08:45:00.587906 30098 net.cpp:90] Creating Layer 4_conv1
I0208 08:45:00.587909 30098 net.cpp:410] 4_conv1 <- data_cifar_0_split_3
I0208 08:45:00.587916 30098 net.cpp:368] 4_conv1 -> 4_conv1
I0208 08:45:00.587924 30098 net.cpp:120] Setting up 4_conv1
I0208 08:45:00.588013 30098 net.cpp:127] Top shape: 100 32 32 32 (3276800)
I0208 08:45:00.588021 30098 layer_factory.hpp:74] Creating layer 4_pool1
I0208 08:45:00.588027 30098 net.cpp:90] Creating Layer 4_pool1
I0208 08:45:00.588032 30098 net.cpp:410] 4_pool1 <- 4_conv1
I0208 08:45:00.588037 30098 net.cpp:368] 4_pool1 -> 4_pool1
I0208 08:45:00.588042 30098 net.cpp:120] Setting up 4_pool1
I0208 08:45:00.588050 30098 net.cpp:127] Top shape: 100 32 16 16 (819200)
I0208 08:45:00.588053 30098 layer_factory.hpp:74] Creating layer 4_relu1
I0208 08:45:00.588058 30098 net.cpp:90] Creating Layer 4_relu1
I0208 08:45:00.588062 30098 net.cpp:410] 4_relu1 <- 4_pool1
I0208 08:45:00.588066 30098 net.cpp:357] 4_relu1 -> 4_pool1 (in-place)
I0208 08:45:00.588070 30098 net.cpp:120] Setting up 4_relu1
I0208 08:45:00.588076 30098 net.cpp:127] Top shape: 100 32 16 16 (819200)
I0208 08:45:00.588079 30098 layer_factory.hpp:74] Creating layer 4_conv2
I0208 08:45:00.588085 30098 net.cpp:90] Creating Layer 4_conv2
I0208 08:45:00.588089 30098 net.cpp:410] 4_conv2 <- 4_pool1
I0208 08:45:00.588095 30098 net.cpp:368] 4_conv2 -> 4_conv2
I0208 08:45:00.588101 30098 net.cpp:120] Setting up 4_conv2
I0208 08:45:00.588902 30098 net.cpp:127] Top shape: 100 32 16 16 (819200)
I0208 08:45:00.588917 30098 layer_factory.hpp:74] Creating layer 4_relu2
I0208 08:45:00.588932 30098 net.cpp:90] Creating Layer 4_relu2
I0208 08:45:00.588937 30098 net.cpp:410] 4_relu2 <- 4_conv2
I0208 08:45:00.588944 30098 net.cpp:357] 4_relu2 -> 4_conv2 (in-place)
I0208 08:45:00.588950 30098 net.cpp:120] Setting up 4_relu2
I0208 08:45:00.588956 30098 net.cpp:127] Top shape: 100 32 16 16 (819200)
I0208 08:45:00.588961 30098 layer_factory.hpp:74] Creating layer 4_pool2
I0208 08:45:00.588966 30098 net.cpp:90] Creating Layer 4_pool2
I0208 08:45:00.588971 30098 net.cpp:410] 4_pool2 <- 4_conv2
I0208 08:45:00.588975 30098 net.cpp:368] 4_pool2 -> 4_pool2
I0208 08:45:00.588982 30098 net.cpp:120] Setting up 4_pool2
I0208 08:45:00.588990 30098 net.cpp:127] Top shape: 100 32 8 8 (204800)
I0208 08:45:00.588995 30098 layer_factory.hpp:74] Creating layer 4_conv3
I0208 08:45:00.589001 30098 net.cpp:90] Creating Layer 4_conv3
I0208 08:45:00.589005 30098 net.cpp:410] 4_conv3 <- 4_pool2
I0208 08:45:00.589010 30098 net.cpp:368] 4_conv3 -> 4_conv3
I0208 08:45:00.589017 30098 net.cpp:120] Setting up 4_conv3
I0208 08:45:00.590347 30098 net.cpp:127] Top shape: 100 64 8 8 (409600)
I0208 08:45:00.590353 30098 layer_factory.hpp:74] Creating layer 4_relu3
I0208 08:45:00.590359 30098 net.cpp:90] Creating Layer 4_relu3
I0208 08:45:00.590364 30098 net.cpp:410] 4_relu3 <- 4_conv3
I0208 08:45:00.590368 30098 net.cpp:357] 4_relu3 -> 4_conv3 (in-place)
I0208 08:45:00.590375 30098 net.cpp:120] Setting up 4_relu3
I0208 08:45:00.590381 30098 net.cpp:127] Top shape: 100 64 8 8 (409600)
I0208 08:45:00.590385 30098 layer_factory.hpp:74] Creating layer 4_pool3
I0208 08:45:00.590391 30098 net.cpp:90] Creating Layer 4_pool3
I0208 08:45:00.590395 30098 net.cpp:410] 4_pool3 <- 4_conv3
I0208 08:45:00.590400 30098 net.cpp:368] 4_pool3 -> 4_pool3
I0208 08:45:00.590406 30098 net.cpp:120] Setting up 4_pool3
I0208 08:45:00.590414 30098 net.cpp:127] Top shape: 100 64 4 4 (102400)
I0208 08:45:00.590417 30098 layer_factory.hpp:74] Creating layer 4_ip1
I0208 08:45:00.590425 30098 net.cpp:90] Creating Layer 4_ip1
I0208 08:45:00.590430 30098 net.cpp:410] 4_ip1 <- 4_pool3
I0208 08:45:00.590435 30098 net.cpp:368] 4_ip1 -> 4_ip1
I0208 08:45:00.590442 30098 net.cpp:120] Setting up 4_ip1
I0208 08:45:00.592094 30098 net.cpp:127] Top shape: 100 64 (6400)
I0208 08:45:00.592102 30098 layer_factory.hpp:74] Creating layer 4_ip2
I0208 08:45:00.592109 30098 net.cpp:90] Creating Layer 4_ip2
I0208 08:45:00.592114 30098 net.cpp:410] 4_ip2 <- 4_ip1
I0208 08:45:00.592121 30098 net.cpp:368] 4_ip2 -> 4_ip2
I0208 08:45:00.592128 30098 net.cpp:120] Setting up 4_ip2
I0208 08:45:00.592161 30098 net.cpp:127] Top shape: 100 10 (1000)
I0208 08:45:00.592169 30098 layer_factory.hpp:74] Creating layer 4_prob
I0208 08:45:00.592175 30098 net.cpp:90] Creating Layer 4_prob
I0208 08:45:00.592180 30098 net.cpp:410] 4_prob <- 4_ip2
I0208 08:45:00.592185 30098 net.cpp:368] 4_prob -> 4_prob
I0208 08:45:00.592191 30098 net.cpp:120] Setting up 4_prob
I0208 08:45:00.592200 30098 net.cpp:127] Top shape: 100 10 (1000)
I0208 08:45:00.592205 30098 layer_factory.hpp:74] Creating layer 4_prob_4_prob_0_split
I0208 08:45:00.592209 30098 net.cpp:90] Creating Layer 4_prob_4_prob_0_split
I0208 08:45:00.592213 30098 net.cpp:410] 4_prob_4_prob_0_split <- 4_prob
I0208 08:45:00.592219 30098 net.cpp:368] 4_prob_4_prob_0_split -> 4_prob_4_prob_0_split_0
I0208 08:45:00.592226 30098 net.cpp:368] 4_prob_4_prob_0_split -> 4_prob_4_prob_0_split_1
I0208 08:45:00.592232 30098 net.cpp:120] Setting up 4_prob_4_prob_0_split
I0208 08:45:00.592239 30098 net.cpp:127] Top shape: 100 10 (1000)
I0208 08:45:00.592244 30098 net.cpp:127] Top shape: 100 10 (1000)
I0208 08:45:00.592248 30098 layer_factory.hpp:74] Creating layer 1_accuracy
I0208 08:45:00.592255 30098 net.cpp:90] Creating Layer 1_accuracy
I0208 08:45:00.592260 30098 net.cpp:410] 1_accuracy <- 1_prob_1_prob_0_split_0
I0208 08:45:00.592264 30098 net.cpp:410] 1_accuracy <- label_cifar_1_split_0
I0208 08:45:00.592272 30098 net.cpp:368] 1_accuracy -> 1_accuracy
I0208 08:45:00.592278 30098 net.cpp:120] Setting up 1_accuracy
…
