…
I0127 10:37:32.103178 24316 net.cpp:287] The NetState phase (0) differed from the phase (1) specified by a rule in layer accuracy
I0127 10:37:32.103346 24316 net.cpp:42] Initializing net from parameters: 
name: "CIFAR10_quick"
state {
  phase: TRAIN
}
layer {
  name: "cifar"
  type: "Data"
  top: "data"
  top: "label"
  include {
    phase: TRAIN
  }
  transform_param {
    mean_file: "/home/mike/ml_lab/mod/MCL_Caffe/examples/cifar10/mean.binaryproto"
  }
  data_param {
    source: "/home/mike/ml_lab/mod/MCL_Caffe/examples/cifar10/cifar10_train_lmdb"
    batch_size: 350
    backend: LMDB
  }
}
layer {
  name: "1_conv1"
  type: "Convolution"
  bottom: "data"
  top: "1_conv1"
  param {
    lr_mult: 1
  }
  param {
    lr_mult: 2
  }
  convolution_param {
    num_output: 32
    pad: 2
    kernel_size: 5
    stride: 1
    weight_filler {
      type: "gaussian"
      std: 0.0001
    }
    bias_filler {
      type: "constant"
    }
  }
}
layer {
  name: "1_pool1"
  type: "Pooling"
  bottom: "1_conv1"
  top: "1_pool1"
  pooling_param {
    pool: MAX
    kernel_size: 3
    stride: 2
  }
}
layer {
  name: "1_relu1"
  type: "ReLU"
  bottom: "1_pool1"
  top: "1_pool1"
}
layer {
  name: "1_conv2"
  type: "Convolution"
  bottom: "1_pool1"
  top: "1_conv2"
  param {
    lr_mult: 1
  }
  param {
    lr_mult: 2
  }
  convolution_param {
    num_output: 32
    pad: 2
    kernel_size: 5
    stride: 1
    weight_filler {
      type: "gaussian"
      std: 0.01
    }
    bias_filler {
      type: "constant"
    }
  }
}
layer {
  name: "1_relu2"
  type: "ReLU"
  bottom: "1_conv2"
  top: "1_conv2"
}
layer {
  name: "1_pool2"
  type: "Pooling"
  bottom: "1_conv2"
  top: "1_pool2"
  pooling_param {
    pool: AVE
    kernel_size: 3
    stride: 2
  }
}
layer {
  name: "1_conv3"
  type: "Convolution"
  bottom: "1_pool2"
  top: "1_conv3"
  param {
    lr_mult: 1
  }
  param {
    lr_mult: 2
  }
  convolution_param {
    num_output: 64
    pad: 2
    kernel_size: 5
    stride: 1
    weight_filler {
      type: "gaussian"
      std: 0.01
    }
    bias_filler {
      type: "constant"
    }
  }
}
layer {
  name: "1_relu3"
  type: "ReLU"
  bottom: "1_conv3"
  top: "1_conv3"
}
layer {
  name: "1_pool3"
  type: "Pooling"
  bottom: "1_conv3"
  top: "1_pool3"
  pooling_param {
    pool: AVE
    kernel_size: 3
    stride: 2
  }
}
layer {
  name: "1_ip1"
  type: "InnerProduct"
  bottom: "1_pool3"
  top: "1_ip1"
  param {
    lr_mult: 1
  }
  param {
    lr_mult: 2
  }
  inner_product_param {
    num_output: 64
    weight_filler {
      type: "gaussian"
      std: 0.1
    }
    bias_filler {
      type: "constant"
    }
  }
}
layer {
  name: "1_ip2"
  type: "InnerProduct"
  bottom: "1_ip1"
  top: "1_ip2"
  param {
    lr_mult: 1
  }
  param {
    lr_mult: 2
  }
  inner_product_param {
    num_output: 10
    weight_filler {
      type: "gaussian"
      std: 0.1
    }
    bias_filler {
      type: "constant"
    }
  }
}
layer {
  name: "1_prob"
  type: "Softmax"
  bottom: "1_ip2"
  top: "1_prob"
}
layer {
  name: "2_conv1"
  type: "Convolution"
  bottom: "data"
  top: "2_conv1"
  param {
    lr_mult: 1
  }
  param {
    lr_mult: 2
  }
  convolution_param {
    num_output: 32
    pad: 2
    kernel_size: 5
    stride: 1
    weight_filler {
      type: "gaussian"
      std: 0.0001
    }
    bias_filler {
      type: "constant"
    }
  }
}
layer {
  name: "2_pool1"
  type: "Pooling"
  bottom: "2_conv1"
  top: "2_pool1"
  pooling_param {
    pool: MAX
    kernel_size: 3
    stride: 2
  }
}
layer {
  name: "2_relu1"
  type: "ReLU"
  bottom: "2_pool1"
  top: "2_pool1"
}
layer {
  name: "2_conv2"
  type: "Convolution"
  bottom: "2_pool1"
  top: "2_conv2"
  param {
    lr_mult: 1
  }
  param {
    lr_mult: 2
  }
  convolution_param {
    num_output: 32
    pad: 2
    kernel_size: 5
    stride: 1
    weight_filler {
      type: "gaussian"
      std: 0.01
    }
    bias_filler {
      type: "constant"
    }
  }
}
layer {
  name: "2_relu2"
  type: "ReLU"
  bottom: "2_conv2"
  top: "2_conv2"
}
layer {
  name: "2_pool2"
  type: "Pooling"
  bottom: "2_conv2"
  top: "2_pool2"
  pooling_param {
    pool: AVE
    kernel_size: 3
    stride: 2
  }
}
layer {
  name: "2_conv3"
  type: "Convolution"
  bottom: "2_pool2"
  top: "2_conv3"
  param {
    lr_mult: 1
  }
  param {
    lr_mult: 2
  }
  convolution_param {
    num_output: 64
    pad: 2
    kernel_size: 5
    stride: 1
    weight_filler {
      type: "gaussian"
      std: 0.01
    }
    bias_filler {
      type: "constant"
    }
  }
}
layer {
  name: "2_relu3"
  type: "ReLU"
  bottom: "2_conv3"
  top: "2_conv3"
}
layer {
  name: "2_pool3"
  type: "Pooling"
  bottom: "2_conv3"
  top: "2_pool3"
  pooling_param {
    pool: AVE
    kernel_size: 3
    stride: 2
  }
}
layer {
  name: "2_ip1"
  type: "InnerProduct"
  bottom: "2_pool3"
  top: "2_ip1"
  param {
    lr_mult: 1
  }
  param {
    lr_mult: 2
  }
  inner_product_param {
    num_output: 64
    weight_filler {
      type: "gaussian"
      std: 0.1
    }
    bias_filler {
      type: "constant"
    }
  }
}
layer {
  name: "2_ip2"
  type: "InnerProduct"
  bottom: "2_ip1"
  top: "2_ip2"
  param {
    lr_mult: 1
  }
  param {
    lr_mult: 2
  }
  inner_product_param {
    num_output: 10
    weight_filler {
      type: "gaussian"
      std: 0.1
    }
    bias_filler {
      type: "constant"
    }
  }
}
layer {
  name: "2_prob"
  type: "Softmax"
  bottom: "2_ip2"
  top: "2_prob"
}
layer {
  name: "3_conv1"
  type: "Convolution"
  bottom: "data"
  top: "3_conv1"
  param {
    lr_mult: 1
  }
  param {
    lr_mult: 2
  }
  convolution_param {
    num_output: 32
    pad: 2
    kernel_size: 5
    stride: 1
    weight_filler {
      type: "gaussian"
      std: 0.0001
    }
    bias_filler {
      type: "constant"
    }
  }
}
layer {
  name: "3_pool1"
  type: "Pooling"
  bottom: "3_conv1"
  top: "3_pool1"
  pooling_param {
    pool: MAX
    kernel_size: 3
    stride: 2
  }
}
layer {
  name: "3_relu1"
  type: "ReLU"
  bottom: "3_pool1"
  top: "3_pool1"
}
layer {
  name: "3_conv2"
  type: "Convolution"
  bottom: "3_pool1"
  top: "3_conv2"
  param {
    lr_mult: 1
  }
  param {
    lr_mult: 2
  }
  convolution_param {
    num_output: 32
    pad: 2
    kernel_size: 5
    stride: 1
    weight_filler {
      type: "gaussian"
      std: 0.01
    }
    bias_filler {
      type: "constant"
    }
  }
}
layer {
  name: "3_relu2"
  type: "ReLU"
  bottom: "3_conv2"
  top: "3_conv2"
}
layer {
  name: "3_pool2"
  type: "Pooling"
  bottom: "3_conv2"
  top: "3_pool2"
  pooling_param {
    pool: AVE
    kernel_size: 3
    stride: 2
  }
}
layer {
  name: "3_conv3"
  type: "Convolution"
  bottom: "3_pool2"
  top: "3_conv3"
  param {
    lr_mult: 1
  }
  param {
    lr_mult: 2
  }
  convolution_param {
    num_output: 64
    pad: 2
    kernel_size: 5
    stride: 1
    weight_filler {
      type: "gaussian"
      std: 0.01
    }
    bias_filler {
      type: "constant"
    }
  }
}
layer {
  name: "3_relu3"
  type: "ReLU"
  bottom: "3_conv3"
  top: "3_conv3"
}
layer {
  name: "3_pool3"
  type: "Pooling"
  bottom: "3_conv3"
  top: "3_pool3"
  pooling_param {
    pool: AVE
    kernel_size: 3
    stride: 2
  }
}
layer {
  name: "3_ip1"
  type: "InnerProduct"
  bottom: "3_pool3"
  top: "3_ip1"
  param {
    lr_mult: 1
  }
  param {
    lr_mult: 2
  }
  inner_product_param {
    num_output: 64
    weight_filler {
      type: "gaussian"
      std: 0.1
    }
    bias_filler {
      type: "constant"
    }
  }
}
layer {
  name: "3_ip2"
  type: "InnerProduct"
  bottom: "3_ip1"
  top: "3_ip2"
  param {
    lr_mult: 1
  }
  param {
    lr_mult: 2
  }
  inner_product_param {
    num_output: 10
    weight_filler {
      type: "gaussian"
      std: 0.1
    }
    bias_filler {
      type: "constant"
    }
  }
}
layer {
  name: "3_prob"
  type: "Softmax"
  bottom: "3_ip2"
  top: "3_prob"
}
layer {
  name: "4_conv1"
  type: "Convolution"
  bottom: "data"
  top: "4_conv1"
  param {
    lr_mult: 1
  }
  param {
    lr_mult: 2
  }
  convolution_param {
    num_output: 32
    pad: 2
    kernel_size: 5
    stride: 1
    weight_filler {
      type: "gaussian"
      std: 0.0001
    }
    bias_filler {
      type: "constant"
    }
  }
}
layer {
  name: "4_pool1"
  type: "Pooling"
  bottom: "4_conv1"
  top: "4_pool1"
  pooling_param {
    pool: MAX
    kernel_size: 3
    stride: 2
  }
}
layer {
  name: "4_relu1"
  type: "ReLU"
  bottom: "4_pool1"
  top: "4_pool1"
}
layer {
  name: "4_conv2"
  type: "Convolution"
  bottom: "4_pool1"
  top: "4_conv2"
  param {
    lr_mult: 1
  }
  param {
    lr_mult: 2
  }
  convolution_param {
    num_output: 32
    pad: 2
    kernel_size: 5
    stride: 1
    weight_filler {
      type: "gaussian"
      std: 0.01
    }
    bias_filler {
      type: "constant"
    }
  }
}
layer {
  name: "4_relu2"
  type: "ReLU"
  bottom: "4_conv2"
  top: "4_conv2"
}
layer {
  name: "4_pool2"
  type: "Pooling"
  bottom: "4_conv2"
  top: "4_pool2"
  pooling_param {
    pool: AVE
    kernel_size: 3
    stride: 2
  }
}
layer {
  name: "4_conv3"
  type: "Convolution"
  bottom: "4_pool2"
  top: "4_conv3"
  param {
    lr_mult: 1
  }
  param {
    lr_mult: 2
  }
  convolution_param {
    num_output: 64
    pad: 2
    kernel_size: 5
    stride: 1
    weight_filler {
      type: "gaussian"
      std: 0.01
    }
    bias_filler {
      type: "constant"
    }
  }
}
layer {
  name: "4_relu3"
  type: "ReLU"
  bottom: "4_conv3"
  top: "4_conv3"
}
layer {
  name: "4_pool3"
  type: "Pooling"
  bottom: "4_conv3"
  top: "4_pool3"
  pooling_param {
    pool: AVE
    kernel_size: 3
    stride: 2
  }
}
layer {
  name: "4_ip1"
  type: "InnerProduct"
  bottom: "4_pool3"
  top: "4_ip1"
  param {
    lr_mult: 1
  }
  param {
    lr_mult: 2
  }
  inner_product_param {
    num_output: 64
    weight_filler {
      type: "gaussian"
      std: 0.1
    }
    bias_filler {
      type: "constant"
    }
  }
}
layer {
  name: "4_ip2"
  type: "InnerProduct"
  bottom: "4_ip1"
  top: "4_ip2"
  param {
    lr_mult: 1
  }
  param {
    lr_mult: 2
  }
  inner_product_param {
    num_output: 10
    weight_filler {
      type: "gaussian"
      std: 0.1
    }
    bias_filler {
      type: "constant"
    }
  }
}
layer {
  name: "4_prob"
  type: "Softmax"
  bottom: "4_ip2"
  top: "4_prob"
}
layer {
  name: "loss"
  type: "ODMultinomialLogisticLoss"
  bottom: "1_prob"
  bottom: "2_prob"
  bottom: "3_prob"
  bottom: "4_prob"
  bottom: "label"
  top: "multiple-output loss"
  top: "batch-instance-counts"
  top: "train-instance-counts"
  loss_weight: 1
  loss_weight: 0
  loss_weight: 0
  include {
    phase: TRAIN
  }
}
I0127 10:37:32.103505 24316 layer_factory.hpp:74] Creating layer cifar
I0127 10:37:32.103518 24316 net.cpp:90] Creating Layer cifar
I0127 10:37:32.103524 24316 net.cpp:368] cifar -> data
I0127 10:37:32.103543 24316 net.cpp:368] cifar -> label
I0127 10:37:32.103549 24316 net.cpp:120] Setting up cifar
I0127 10:37:32.103595 24316 db.cpp:34] Opened lmdb /home/mike/ml_lab/mod/MCL_Caffe/examples/cifar10/cifar10_train_lmdb
I0127 10:37:32.103627 24316 data_layer.cpp:67] output data size: 350,3,32,32
I0127 10:37:32.103633 24316 data_transformer.cpp:22] Loading mean file from: /home/mike/ml_lab/mod/MCL_Caffe/examples/cifar10/mean.binaryproto
I0127 10:37:32.104276 24316 net.cpp:127] Top shape: 350 3 32 32 (1075200)
I0127 10:37:32.104281 24316 net.cpp:127] Top shape: 350 (350)
I0127 10:37:32.104285 24316 layer_factory.hpp:74] Creating layer data_cifar_0_split
I0127 10:37:32.104291 24316 net.cpp:90] Creating Layer data_cifar_0_split
I0127 10:37:32.104295 24316 net.cpp:410] data_cifar_0_split <- data
I0127 10:37:32.104301 24316 net.cpp:368] data_cifar_0_split -> data_cifar_0_split_0
I0127 10:37:32.104306 24316 net.cpp:368] data_cifar_0_split -> data_cifar_0_split_1
I0127 10:37:32.104310 24316 net.cpp:368] data_cifar_0_split -> data_cifar_0_split_2
I0127 10:37:32.104315 24316 net.cpp:368] data_cifar_0_split -> data_cifar_0_split_3
I0127 10:37:32.104317 24316 net.cpp:120] Setting up data_cifar_0_split
I0127 10:37:32.104322 24316 net.cpp:127] Top shape: 350 3 32 32 (1075200)
I0127 10:37:32.104324 24316 net.cpp:127] Top shape: 350 3 32 32 (1075200)
I0127 10:37:32.104326 24316 net.cpp:127] Top shape: 350 3 32 32 (1075200)
I0127 10:37:32.104328 24316 net.cpp:127] Top shape: 350 3 32 32 (1075200)
I0127 10:37:32.104331 24316 layer_factory.hpp:74] Creating layer 1_conv1
I0127 10:37:32.104336 24316 net.cpp:90] Creating Layer 1_conv1
I0127 10:37:32.104338 24316 net.cpp:410] 1_conv1 <- data_cifar_0_split_0
I0127 10:37:32.104341 24316 net.cpp:368] 1_conv1 -> 1_conv1
I0127 10:37:32.104346 24316 net.cpp:120] Setting up 1_conv1
I0127 10:37:32.104735 24316 net.cpp:127] Top shape: 350 32 32 32 (11468800)
I0127 10:37:32.104743 24316 layer_factory.hpp:74] Creating layer 1_pool1
I0127 10:37:32.104746 24316 net.cpp:90] Creating Layer 1_pool1
I0127 10:37:32.104748 24316 net.cpp:410] 1_pool1 <- 1_conv1
I0127 10:37:32.104751 24316 net.cpp:368] 1_pool1 -> 1_pool1
I0127 10:37:32.104756 24316 net.cpp:120] Setting up 1_pool1
I0127 10:37:32.104765 24316 net.cpp:127] Top shape: 350 32 16 16 (2867200)
I0127 10:37:32.104768 24316 layer_factory.hpp:74] Creating layer 1_relu1
I0127 10:37:32.104771 24316 net.cpp:90] Creating Layer 1_relu1
I0127 10:37:32.104773 24316 net.cpp:410] 1_relu1 <- 1_pool1
I0127 10:37:32.104775 24316 net.cpp:357] 1_relu1 -> 1_pool1 (in-place)
I0127 10:37:32.104778 24316 net.cpp:120] Setting up 1_relu1
I0127 10:37:32.104782 24316 net.cpp:127] Top shape: 350 32 16 16 (2867200)
I0127 10:37:32.104784 24316 layer_factory.hpp:74] Creating layer 1_conv2
I0127 10:37:32.104787 24316 net.cpp:90] Creating Layer 1_conv2
I0127 10:37:32.104789 24316 net.cpp:410] 1_conv2 <- 1_pool1
I0127 10:37:32.104792 24316 net.cpp:368] 1_conv2 -> 1_conv2
I0127 10:37:32.104795 24316 net.cpp:120] Setting up 1_conv2
I0127 10:37:32.105376 24316 net.cpp:127] Top shape: 350 32 16 16 (2867200)
I0127 10:37:32.105381 24316 layer_factory.hpp:74] Creating layer 1_relu2
I0127 10:37:32.105384 24316 net.cpp:90] Creating Layer 1_relu2
I0127 10:37:32.105386 24316 net.cpp:410] 1_relu2 <- 1_conv2
I0127 10:37:32.105388 24316 net.cpp:357] 1_relu2 -> 1_conv2 (in-place)
I0127 10:37:32.105391 24316 net.cpp:120] Setting up 1_relu2
I0127 10:37:32.105394 24316 net.cpp:127] Top shape: 350 32 16 16 (2867200)
I0127 10:37:32.105396 24316 layer_factory.hpp:74] Creating layer 1_pool2
I0127 10:37:32.105398 24316 net.cpp:90] Creating Layer 1_pool2
I0127 10:37:32.105399 24316 net.cpp:410] 1_pool2 <- 1_conv2
I0127 10:37:32.105403 24316 net.cpp:368] 1_pool2 -> 1_pool2
I0127 10:37:32.105406 24316 net.cpp:120] Setting up 1_pool2
I0127 10:37:32.105409 24316 net.cpp:127] Top shape: 350 32 8 8 (716800)
I0127 10:37:32.105412 24316 layer_factory.hpp:74] Creating layer 1_conv3
I0127 10:37:32.105414 24316 net.cpp:90] Creating Layer 1_conv3
I0127 10:37:32.105417 24316 net.cpp:410] 1_conv3 <- 1_pool2
I0127 10:37:32.105420 24316 net.cpp:368] 1_conv3 -> 1_conv3
I0127 10:37:32.105423 24316 net.cpp:120] Setting up 1_conv3
I0127 10:37:32.106575 24316 net.cpp:127] Top shape: 350 64 8 8 (1433600)
I0127 10:37:32.106583 24316 layer_factory.hpp:74] Creating layer 1_relu3
I0127 10:37:32.106588 24316 net.cpp:90] Creating Layer 1_relu3
I0127 10:37:32.106591 24316 net.cpp:410] 1_relu3 <- 1_conv3
I0127 10:37:32.106595 24316 net.cpp:357] 1_relu3 -> 1_conv3 (in-place)
I0127 10:37:32.106617 24316 net.cpp:120] Setting up 1_relu3
I0127 10:37:32.106623 24316 net.cpp:127] Top shape: 350 64 8 8 (1433600)
I0127 10:37:32.106627 24316 layer_factory.hpp:74] Creating layer 1_pool3
I0127 10:37:32.106633 24316 net.cpp:90] Creating Layer 1_pool3
I0127 10:37:32.106638 24316 net.cpp:410] 1_pool3 <- 1_conv3
I0127 10:37:32.106643 24316 net.cpp:368] 1_pool3 -> 1_pool3
I0127 10:37:32.106650 24316 net.cpp:120] Setting up 1_pool3
I0127 10:37:32.106658 24316 net.cpp:127] Top shape: 350 64 4 4 (358400)
I0127 10:37:32.106662 24316 layer_factory.hpp:74] Creating layer 1_ip1
I0127 10:37:32.106669 24316 net.cpp:90] Creating Layer 1_ip1
I0127 10:37:32.106674 24316 net.cpp:410] 1_ip1 <- 1_pool3
I0127 10:37:32.106679 24316 net.cpp:368] 1_ip1 -> 1_ip1
I0127 10:37:32.106686 24316 net.cpp:120] Setting up 1_ip1
I0127 10:37:32.108157 24316 net.cpp:127] Top shape: 350 64 (22400)
I0127 10:37:32.108165 24316 layer_factory.hpp:74] Creating layer 1_ip2
I0127 10:37:32.108171 24316 net.cpp:90] Creating Layer 1_ip2
I0127 10:37:32.108175 24316 net.cpp:410] 1_ip2 <- 1_ip1
I0127 10:37:32.108181 24316 net.cpp:368] 1_ip2 -> 1_ip2
I0127 10:37:32.108188 24316 net.cpp:120] Setting up 1_ip2
I0127 10:37:32.108217 24316 net.cpp:127] Top shape: 350 10 (3500)
I0127 10:37:32.108224 24316 layer_factory.hpp:74] Creating layer 1_prob
I0127 10:37:32.108230 24316 net.cpp:90] Creating Layer 1_prob
I0127 10:37:32.108235 24316 net.cpp:410] 1_prob <- 1_ip2
I0127 10:37:32.108242 24316 net.cpp:368] 1_prob -> 1_prob
I0127 10:37:32.108247 24316 net.cpp:120] Setting up 1_prob
I0127 10:37:32.108258 24316 net.cpp:127] Top shape: 350 10 (3500)
I0127 10:37:32.108260 24316 layer_factory.hpp:74] Creating layer 2_conv1
I0127 10:37:32.108266 24316 net.cpp:90] Creating Layer 2_conv1
I0127 10:37:32.108271 24316 net.cpp:410] 2_conv1 <- data_cifar_0_split_1
I0127 10:37:32.108278 24316 net.cpp:368] 2_conv1 -> 2_conv1
I0127 10:37:32.108284 24316 net.cpp:120] Setting up 2_conv1
I0127 10:37:32.108351 24316 net.cpp:127] Top shape: 350 32 32 32 (11468800)
I0127 10:37:32.108358 24316 layer_factory.hpp:74] Creating layer 2_pool1
I0127 10:37:32.108366 24316 net.cpp:90] Creating Layer 2_pool1
I0127 10:37:32.108371 24316 net.cpp:410] 2_pool1 <- 2_conv1
I0127 10:37:32.108376 24316 net.cpp:368] 2_pool1 -> 2_pool1
I0127 10:37:32.108382 24316 net.cpp:120] Setting up 2_pool1
I0127 10:37:32.108391 24316 net.cpp:127] Top shape: 350 32 16 16 (2867200)
I0127 10:37:32.108394 24316 layer_factory.hpp:74] Creating layer 2_relu1
I0127 10:37:32.108400 24316 net.cpp:90] Creating Layer 2_relu1
I0127 10:37:32.108404 24316 net.cpp:410] 2_relu1 <- 2_pool1
I0127 10:37:32.108408 24316 net.cpp:357] 2_relu1 -> 2_pool1 (in-place)
I0127 10:37:32.108414 24316 net.cpp:120] Setting up 2_relu1
I0127 10:37:32.108420 24316 net.cpp:127] Top shape: 350 32 16 16 (2867200)
I0127 10:37:32.108424 24316 layer_factory.hpp:74] Creating layer 2_conv2
I0127 10:37:32.108431 24316 net.cpp:90] Creating Layer 2_conv2
I0127 10:37:32.108434 24316 net.cpp:410] 2_conv2 <- 2_pool1
I0127 10:37:32.108440 24316 net.cpp:368] 2_conv2 -> 2_conv2
I0127 10:37:32.108448 24316 net.cpp:120] Setting up 2_conv2
I0127 10:37:32.109025 24316 net.cpp:127] Top shape: 350 32 16 16 (2867200)
I0127 10:37:32.109031 24316 layer_factory.hpp:74] Creating layer 2_relu2
I0127 10:37:32.109038 24316 net.cpp:90] Creating Layer 2_relu2
I0127 10:37:32.109042 24316 net.cpp:410] 2_relu2 <- 2_conv2
I0127 10:37:32.109050 24316 net.cpp:357] 2_relu2 -> 2_conv2 (in-place)
I0127 10:37:32.109055 24316 net.cpp:120] Setting up 2_relu2
I0127 10:37:32.109061 24316 net.cpp:127] Top shape: 350 32 16 16 (2867200)
I0127 10:37:32.109066 24316 layer_factory.hpp:74] Creating layer 2_pool2
I0127 10:37:32.109071 24316 net.cpp:90] Creating Layer 2_pool2
I0127 10:37:32.109081 24316 net.cpp:410] 2_pool2 <- 2_conv2
I0127 10:37:32.109087 24316 net.cpp:368] 2_pool2 -> 2_pool2
I0127 10:37:32.109093 24316 net.cpp:120] Setting up 2_pool2
I0127 10:37:32.109102 24316 net.cpp:127] Top shape: 350 32 8 8 (716800)
I0127 10:37:32.109105 24316 layer_factory.hpp:74] Creating layer 2_conv3
I0127 10:37:32.109112 24316 net.cpp:90] Creating Layer 2_conv3
I0127 10:37:32.109115 24316 net.cpp:410] 2_conv3 <- 2_pool2
I0127 10:37:32.109122 24316 net.cpp:368] 2_conv3 -> 2_conv3
I0127 10:37:32.109136 24316 net.cpp:120] Setting up 2_conv3
I0127 10:37:32.110286 24316 net.cpp:127] Top shape: 350 64 8 8 (1433600)
I0127 10:37:32.110293 24316 layer_factory.hpp:74] Creating layer 2_relu3
I0127 10:37:32.110301 24316 net.cpp:90] Creating Layer 2_relu3
I0127 10:37:32.110304 24316 net.cpp:410] 2_relu3 <- 2_conv3
I0127 10:37:32.110309 24316 net.cpp:357] 2_relu3 -> 2_conv3 (in-place)
I0127 10:37:32.110314 24316 net.cpp:120] Setting up 2_relu3
I0127 10:37:32.110321 24316 net.cpp:127] Top shape: 350 64 8 8 (1433600)
I0127 10:37:32.110326 24316 layer_factory.hpp:74] Creating layer 2_pool3
I0127 10:37:32.110330 24316 net.cpp:90] Creating Layer 2_pool3
I0127 10:37:32.110333 24316 net.cpp:410] 2_pool3 <- 2_conv3
I0127 10:37:32.110340 24316 net.cpp:368] 2_pool3 -> 2_pool3
I0127 10:37:32.110347 24316 net.cpp:120] Setting up 2_pool3
I0127 10:37:32.110353 24316 net.cpp:127] Top shape: 350 64 4 4 (358400)
I0127 10:37:32.110357 24316 layer_factory.hpp:74] Creating layer 2_ip1
I0127 10:37:32.110363 24316 net.cpp:90] Creating Layer 2_ip1
I0127 10:37:32.110368 24316 net.cpp:410] 2_ip1 <- 2_pool3
I0127 10:37:32.110374 24316 net.cpp:368] 2_ip1 -> 2_ip1
I0127 10:37:32.110380 24316 net.cpp:120] Setting up 2_ip1
I0127 10:37:32.111850 24316 net.cpp:127] Top shape: 350 64 (22400)
I0127 10:37:32.111860 24316 layer_factory.hpp:74] Creating layer 2_ip2
I0127 10:37:32.111866 24316 net.cpp:90] Creating Layer 2_ip2
I0127 10:37:32.111871 24316 net.cpp:410] 2_ip2 <- 2_ip1
I0127 10:37:32.111876 24316 net.cpp:368] 2_ip2 -> 2_ip2
I0127 10:37:32.111882 24316 net.cpp:120] Setting up 2_ip2
I0127 10:37:32.111908 24316 net.cpp:127] Top shape: 350 10 (3500)
I0127 10:37:32.111914 24316 layer_factory.hpp:74] Creating layer 2_prob
I0127 10:37:32.111922 24316 net.cpp:90] Creating Layer 2_prob
I0127 10:37:32.111925 24316 net.cpp:410] 2_prob <- 2_ip2
I0127 10:37:32.111930 24316 net.cpp:368] 2_prob -> 2_prob
I0127 10:37:32.111937 24316 net.cpp:120] Setting up 2_prob
I0127 10:37:32.111944 24316 net.cpp:127] Top shape: 350 10 (3500)
I0127 10:37:32.111948 24316 layer_factory.hpp:74] Creating layer 3_conv1
I0127 10:37:32.111954 24316 net.cpp:90] Creating Layer 3_conv1
I0127 10:37:32.111958 24316 net.cpp:410] 3_conv1 <- data_cifar_0_split_2
I0127 10:37:32.111965 24316 net.cpp:368] 3_conv1 -> 3_conv1
I0127 10:37:32.111971 24316 net.cpp:120] Setting up 3_conv1
I0127 10:37:32.112040 24316 net.cpp:127] Top shape: 350 32 32 32 (11468800)
I0127 10:37:32.112046 24316 layer_factory.hpp:74] Creating layer 3_pool1
I0127 10:37:32.112051 24316 net.cpp:90] Creating Layer 3_pool1
I0127 10:37:32.112056 24316 net.cpp:410] 3_pool1 <- 3_conv1
I0127 10:37:32.112061 24316 net.cpp:368] 3_pool1 -> 3_pool1
I0127 10:37:32.112067 24316 net.cpp:120] Setting up 3_pool1
I0127 10:37:32.112074 24316 net.cpp:127] Top shape: 350 32 16 16 (2867200)
I0127 10:37:32.112078 24316 layer_factory.hpp:74] Creating layer 3_relu1
I0127 10:37:32.112083 24316 net.cpp:90] Creating Layer 3_relu1
I0127 10:37:32.112087 24316 net.cpp:410] 3_relu1 <- 3_pool1
I0127 10:37:32.112092 24316 net.cpp:357] 3_relu1 -> 3_pool1 (in-place)
I0127 10:37:32.112097 24316 net.cpp:120] Setting up 3_relu1
I0127 10:37:32.112103 24316 net.cpp:127] Top shape: 350 32 16 16 (2867200)
I0127 10:37:32.112107 24316 layer_factory.hpp:74] Creating layer 3_conv2
I0127 10:37:32.112113 24316 net.cpp:90] Creating Layer 3_conv2
I0127 10:37:32.112118 24316 net.cpp:410] 3_conv2 <- 3_pool1
I0127 10:37:32.112123 24316 net.cpp:368] 3_conv2 -> 3_conv2
I0127 10:37:32.112130 24316 net.cpp:120] Setting up 3_conv2
I0127 10:37:32.112711 24316 net.cpp:127] Top shape: 350 32 16 16 (2867200)
I0127 10:37:32.112725 24316 layer_factory.hpp:74] Creating layer 3_relu2
I0127 10:37:32.112740 24316 net.cpp:90] Creating Layer 3_relu2
I0127 10:37:32.112745 24316 net.cpp:410] 3_relu2 <- 3_conv2
I0127 10:37:32.112749 24316 net.cpp:357] 3_relu2 -> 3_conv2 (in-place)
I0127 10:37:32.112756 24316 net.cpp:120] Setting up 3_relu2
I0127 10:37:32.112762 24316 net.cpp:127] Top shape: 350 32 16 16 (2867200)
I0127 10:37:32.112766 24316 layer_factory.hpp:74] Creating layer 3_pool2
I0127 10:37:32.112773 24316 net.cpp:90] Creating Layer 3_pool2
I0127 10:37:32.112777 24316 net.cpp:410] 3_pool2 <- 3_conv2
I0127 10:37:32.112782 24316 net.cpp:368] 3_pool2 -> 3_pool2
I0127 10:37:32.112788 24316 net.cpp:120] Setting up 3_pool2
I0127 10:37:32.112795 24316 net.cpp:127] Top shape: 350 32 8 8 (716800)
I0127 10:37:32.112799 24316 layer_factory.hpp:74] Creating layer 3_conv3
I0127 10:37:32.112808 24316 net.cpp:90] Creating Layer 3_conv3
I0127 10:37:32.112812 24316 net.cpp:410] 3_conv3 <- 3_pool2
I0127 10:37:32.112820 24316 net.cpp:368] 3_conv3 -> 3_conv3
I0127 10:37:32.112826 24316 net.cpp:120] Setting up 3_conv3
I0127 10:37:32.113981 24316 net.cpp:127] Top shape: 350 64 8 8 (1433600)
I0127 10:37:32.113987 24316 layer_factory.hpp:74] Creating layer 3_relu3
I0127 10:37:32.113993 24316 net.cpp:90] Creating Layer 3_relu3
I0127 10:37:32.113998 24316 net.cpp:410] 3_relu3 <- 3_conv3
I0127 10:37:32.114004 24316 net.cpp:357] 3_relu3 -> 3_conv3 (in-place)
I0127 10:37:32.114011 24316 net.cpp:120] Setting up 3_relu3
I0127 10:37:32.114017 24316 net.cpp:127] Top shape: 350 64 8 8 (1433600)
I0127 10:37:32.114020 24316 layer_factory.hpp:74] Creating layer 3_pool3
I0127 10:37:32.114025 24316 net.cpp:90] Creating Layer 3_pool3
I0127 10:37:32.114029 24316 net.cpp:410] 3_pool3 <- 3_conv3
I0127 10:37:32.114034 24316 net.cpp:368] 3_pool3 -> 3_pool3
I0127 10:37:32.114042 24316 net.cpp:120] Setting up 3_pool3
I0127 10:37:32.114049 24316 net.cpp:127] Top shape: 350 64 4 4 (358400)
I0127 10:37:32.114053 24316 layer_factory.hpp:74] Creating layer 3_ip1
I0127 10:37:32.114058 24316 net.cpp:90] Creating Layer 3_ip1
I0127 10:37:32.114063 24316 net.cpp:410] 3_ip1 <- 3_pool3
I0127 10:37:32.114069 24316 net.cpp:368] 3_ip1 -> 3_ip1
I0127 10:37:32.114075 24316 net.cpp:120] Setting up 3_ip1
I0127 10:37:32.115542 24316 net.cpp:127] Top shape: 350 64 (22400)
I0127 10:37:32.115550 24316 layer_factory.hpp:74] Creating layer 3_ip2
I0127 10:37:32.115556 24316 net.cpp:90] Creating Layer 3_ip2
I0127 10:37:32.115561 24316 net.cpp:410] 3_ip2 <- 3_ip1
I0127 10:37:32.115568 24316 net.cpp:368] 3_ip2 -> 3_ip2
I0127 10:37:32.115574 24316 net.cpp:120] Setting up 3_ip2
I0127 10:37:32.115600 24316 net.cpp:127] Top shape: 350 10 (3500)
I0127 10:37:32.115607 24316 layer_factory.hpp:74] Creating layer 3_prob
I0127 10:37:32.115612 24316 net.cpp:90] Creating Layer 3_prob
I0127 10:37:32.115617 24316 net.cpp:410] 3_prob <- 3_ip2
I0127 10:37:32.115622 24316 net.cpp:368] 3_prob -> 3_prob
I0127 10:37:32.115629 24316 net.cpp:120] Setting up 3_prob
I0127 10:37:32.115638 24316 net.cpp:127] Top shape: 350 10 (3500)
I0127 10:37:32.115643 24316 layer_factory.hpp:74] Creating layer 4_conv1
I0127 10:37:32.115648 24316 net.cpp:90] Creating Layer 4_conv1
I0127 10:37:32.115653 24316 net.cpp:410] 4_conv1 <- data_cifar_0_split_3
I0127 10:37:32.115659 24316 net.cpp:368] 4_conv1 -> 4_conv1
I0127 10:37:32.115665 24316 net.cpp:120] Setting up 4_conv1
I0127 10:37:32.115732 24316 net.cpp:127] Top shape: 350 32 32 32 (11468800)
I0127 10:37:32.115739 24316 layer_factory.hpp:74] Creating layer 4_pool1
I0127 10:37:32.115744 24316 net.cpp:90] Creating Layer 4_pool1
I0127 10:37:32.115749 24316 net.cpp:410] 4_pool1 <- 4_conv1
I0127 10:37:32.115756 24316 net.cpp:368] 4_pool1 -> 4_pool1
I0127 10:37:32.115761 24316 net.cpp:120] Setting up 4_pool1
I0127 10:37:32.115768 24316 net.cpp:127] Top shape: 350 32 16 16 (2867200)
I0127 10:37:32.115772 24316 layer_factory.hpp:74] Creating layer 4_relu1
I0127 10:37:32.115777 24316 net.cpp:90] Creating Layer 4_relu1
I0127 10:37:32.115780 24316 net.cpp:410] 4_relu1 <- 4_pool1
I0127 10:37:32.115793 24316 net.cpp:357] 4_relu1 -> 4_pool1 (in-place)
I0127 10:37:32.115800 24316 net.cpp:120] Setting up 4_relu1
I0127 10:37:32.115806 24316 net.cpp:127] Top shape: 350 32 16 16 (2867200)
I0127 10:37:32.115810 24316 layer_factory.hpp:74] Creating layer 4_conv2
I0127 10:37:32.115816 24316 net.cpp:90] Creating Layer 4_conv2
I0127 10:37:32.115820 24316 net.cpp:410] 4_conv2 <- 4_pool1
I0127 10:37:32.115828 24316 net.cpp:368] 4_conv2 -> 4_conv2
I0127 10:37:32.115833 24316 net.cpp:120] Setting up 4_conv2
I0127 10:37:32.116412 24316 net.cpp:127] Top shape: 350 32 16 16 (2867200)
I0127 10:37:32.116422 24316 layer_factory.hpp:74] Creating layer 4_relu2
I0127 10:37:32.116430 24316 net.cpp:90] Creating Layer 4_relu2
I0127 10:37:32.116435 24316 net.cpp:410] 4_relu2 <- 4_conv2
I0127 10:37:32.116439 24316 net.cpp:357] 4_relu2 -> 4_conv2 (in-place)
I0127 10:37:32.116444 24316 net.cpp:120] Setting up 4_relu2
I0127 10:37:32.116451 24316 net.cpp:127] Top shape: 350 32 16 16 (2867200)
I0127 10:37:32.116454 24316 layer_factory.hpp:74] Creating layer 4_pool2
I0127 10:37:32.116459 24316 net.cpp:90] Creating Layer 4_pool2
I0127 10:37:32.116463 24316 net.cpp:410] 4_pool2 <- 4_conv2
I0127 10:37:32.116470 24316 net.cpp:368] 4_pool2 -> 4_pool2
I0127 10:37:32.116477 24316 net.cpp:120] Setting up 4_pool2
I0127 10:37:32.116483 24316 net.cpp:127] Top shape: 350 32 8 8 (716800)
I0127 10:37:32.116487 24316 layer_factory.hpp:74] Creating layer 4_conv3
I0127 10:37:32.116493 24316 net.cpp:90] Creating Layer 4_conv3
I0127 10:37:32.116497 24316 net.cpp:410] 4_conv3 <- 4_pool2
I0127 10:37:32.116503 24316 net.cpp:368] 4_conv3 -> 4_conv3
I0127 10:37:32.116510 24316 net.cpp:120] Setting up 4_conv3
I0127 10:37:32.117667 24316 net.cpp:127] Top shape: 350 64 8 8 (1433600)
I0127 10:37:32.117676 24316 layer_factory.hpp:74] Creating layer 4_relu3
I0127 10:37:32.117681 24316 net.cpp:90] Creating Layer 4_relu3
I0127 10:37:32.117693 24316 net.cpp:410] 4_relu3 <- 4_conv3
I0127 10:37:32.117699 24316 net.cpp:357] 4_relu3 -> 4_conv3 (in-place)
I0127 10:37:32.117704 24316 net.cpp:120] Setting up 4_relu3
I0127 10:37:32.117710 24316 net.cpp:127] Top shape: 350 64 8 8 (1433600)
I0127 10:37:32.117715 24316 layer_factory.hpp:74] Creating layer 4_pool3
I0127 10:37:32.117720 24316 net.cpp:90] Creating Layer 4_pool3
I0127 10:37:32.117724 24316 net.cpp:410] 4_pool3 <- 4_conv3
I0127 10:37:32.117732 24316 net.cpp:368] 4_pool3 -> 4_pool3
I0127 10:37:32.117736 24316 net.cpp:120] Setting up 4_pool3
I0127 10:37:32.117744 24316 net.cpp:127] Top shape: 350 64 4 4 (358400)
I0127 10:37:32.117748 24316 layer_factory.hpp:74] Creating layer 4_ip1
I0127 10:37:32.117754 24316 net.cpp:90] Creating Layer 4_ip1
I0127 10:37:32.117758 24316 net.cpp:410] 4_ip1 <- 4_pool3
I0127 10:37:32.117764 24316 net.cpp:368] 4_ip1 -> 4_ip1
I0127 10:37:32.117771 24316 net.cpp:120] Setting up 4_ip1
I0127 10:37:32.119241 24316 net.cpp:127] Top shape: 350 64 (22400)
I0127 10:37:32.119248 24316 layer_factory.hpp:74] Creating layer 4_ip2
I0127 10:37:32.119266 24316 net.cpp:90] Creating Layer 4_ip2
I0127 10:37:32.119269 24316 net.cpp:410] 4_ip2 <- 4_ip1
I0127 10:37:32.119274 24316 net.cpp:368] 4_ip2 -> 4_ip2
I0127 10:37:32.119282 24316 net.cpp:120] Setting up 4_ip2
I0127 10:37:32.119309 24316 net.cpp:127] Top shape: 350 10 (3500)
I0127 10:37:32.119316 24316 layer_factory.hpp:74] Creating layer 4_prob
I0127 10:37:32.119323 24316 net.cpp:90] Creating Layer 4_prob
I0127 10:37:32.119328 24316 net.cpp:410] 4_prob <- 4_ip2
I0127 10:37:32.119333 24316 net.cpp:368] 4_prob -> 4_prob
I0127 10:37:32.119338 24316 net.cpp:120] Setting up 4_prob
I0127 10:37:32.119348 24316 net.cpp:127] Top shape: 350 10 (3500)
I0127 10:37:32.119351 24316 layer_factory.hpp:74] Creating layer loss
I0127 10:37:32.119359 24316 net.cpp:90] Creating Layer loss
I0127 10:37:32.119362 24316 net.cpp:410] loss <- 1_prob
I0127 10:37:32.119366 24316 net.cpp:410] loss <- 2_prob
I0127 10:37:32.119371 24316 net.cpp:410] loss <- 3_prob
I0127 10:37:32.119376 24316 net.cpp:410] loss <- 4_prob
I0127 10:37:32.119380 24316 net.cpp:410] loss <- label
I0127 10:37:32.119395 24316 net.cpp:368] loss -> multiple-output loss
I0127 10:37:32.119405 24316 net.cpp:368] loss -> batch-instance-counts
I0127 10:37:32.119413 24316 net.cpp:368] loss -> train-instance-counts
I0127 10:37:32.119422 24316 net.cpp:120] Setting up loss
I0127 10:37:32.119433 24316 net.cpp:127] Top shape: 4 1 1 1 (4)
I0127 10:37:32.119436 24316 net.cpp:129]     with loss weight 1
I0127 10:37:32.119453 24316 net.cpp:127] Top shape: 4 1 1 1 (4)
I0127 10:37:32.119459 24316 net.cpp:127] Top shape: 4 1 1 1 (4)
I0127 10:37:32.119463 24316 net.cpp:192] loss needs backward computation.
I0127 10:37:32.119468 24316 net.cpp:192] 4_prob needs backward computation.
I0127 10:37:32.119472 24316 net.cpp:192] 4_ip2 needs backward computation.
I0127 10:37:32.119475 24316 net.cpp:192] 4_ip1 needs backward computation.
I0127 10:37:32.119480 24316 net.cpp:192] 4_pool3 needs backward computation.
I0127 10:37:32.119484 24316 net.cpp:192] 4_relu3 needs backward computation.
…
I0127 10:37:32.120537 24316 net.cpp:287] The NetState phase (1) differed from the phase (0) specified by a rule in layer loss
I0127 10:37:32.120708 24316 net.cpp:42] Initializing net from parameters: 
name: "CIFAR10_quick"
state {
  phase: TEST
}
layer {
  name: "cifar"
  type: "Data"
  top: "data"
  top: "label"
  include {
    phase: TEST
  }
  transform_param {
    mean_file: "/home/mike/ml_lab/mod/MCL_Caffe/examples/cifar10/mean.binaryproto"
  }
  data_param {
    source: "/home/mike/ml_lab/mod/MCL_Caffe/examples/cifar10/cifar10_test_lmdb"
    batch_size: 100
    backend: LMDB
  }
}
layer {
  name: "1_conv1"
  type: "Convolution"
  bottom: "data"
  top: "1_conv1"
  param {
    lr_mult: 1
  }
  param {
    lr_mult: 2
  }
  convolution_param {
    num_output: 32
    pad: 2
    kernel_size: 5
    stride: 1
    weight_filler {
      type: "gaussian"
      std: 0.0001
    }
    bias_filler {
      type: "constant"
    }
  }
}
layer {
  name: "1_pool1"
  type: "Pooling"
  bottom: "1_conv1"
  top: "1_pool1"
  pooling_param {
    pool: MAX
    kernel_size: 3
    stride: 2
  }
}
layer {
  name: "1_relu1"
  type: "ReLU"
  bottom: "1_pool1"
  top: "1_pool1"
}
layer {
  name: "1_conv2"
  type: "Convolution"
  bottom: "1_pool1"
  top: "1_conv2"
  param {
    lr_mult: 1
  }
  param {
    lr_mult: 2
  }
  convolution_param {
    num_output: 32
    pad: 2
    kernel_size: 5
    stride: 1
    weight_filler {
      type: "gaussian"
      std: 0.01
    }
    bias_filler {
      type: "constant"
    }
  }
}
layer {
  name: "1_relu2"
  type: "ReLU"
  bottom: "1_conv2"
  top: "1_conv2"
}
layer {
  name: "1_pool2"
  type: "Pooling"
  bottom: "1_conv2"
  top: "1_pool2"
  pooling_param {
    pool: AVE
    kernel_size: 3
    stride: 2
  }
}
layer {
  name: "1_conv3"
  type: "Convolution"
  bottom: "1_pool2"
  top: "1_conv3"
  param {
    lr_mult: 1
  }
  param {
    lr_mult: 2
  }
  convolution_param {
    num_output: 64
    pad: 2
    kernel_size: 5
    stride: 1
    weight_filler {
      type: "gaussian"
      std: 0.01
    }
    bias_filler {
      type: "constant"
    }
  }
}
layer {
  name: "1_relu3"
  type: "ReLU"
  bottom: "1_conv3"
  top: "1_conv3"
}
layer {
  name: "1_pool3"
  type: "Pooling"
  bottom: "1_conv3"
  top: "1_pool3"
  pooling_param {
    pool: AVE
    kernel_size: 3
    stride: 2
  }
}
layer {
  name: "1_ip1"
  type: "InnerProduct"
  bottom: "1_pool3"
  top: "1_ip1"
  param {
    lr_mult: 1
  }
  param {
    lr_mult: 2
  }
  inner_product_param {
    num_output: 64
    weight_filler {
      type: "gaussian"
      std: 0.1
    }
    bias_filler {
      type: "constant"
    }
  }
}
layer {
  name: "1_ip2"
  type: "InnerProduct"
  bottom: "1_ip1"
  top: "1_ip2"
  param {
    lr_mult: 1
  }
  param {
    lr_mult: 2
  }
  inner_product_param {
    num_output: 10
    weight_filler {
      type: "gaussian"
      std: 0.1
    }
    bias_filler {
      type: "constant"
    }
  }
}
layer {
  name: "1_prob"
  type: "Softmax"
  bottom: "1_ip2"
  top: "1_prob"
}
layer {
  name: "2_conv1"
  type: "Convolution"
  bottom: "data"
  top: "2_conv1"
  param {
    lr_mult: 1
  }
  param {
    lr_mult: 2
  }
  convolution_param {
    num_output: 32
    pad: 2
    kernel_size: 5
    stride: 1
    weight_filler {
      type: "gaussian"
      std: 0.0001
    }
    bias_filler {
      type: "constant"
    }
  }
}
layer {
  name: "2_pool1"
  type: "Pooling"
  bottom: "2_conv1"
  top: "2_pool1"
  pooling_param {
    pool: MAX
    kernel_size: 3
    stride: 2
  }
}
layer {
  name: "2_relu1"
  type: "ReLU"
  bottom: "2_pool1"
  top: "2_pool1"
}
layer {
  name: "2_conv2"
  type: "Convolution"
  bottom: "2_pool1"
  top: "2_conv2"
  param {
    lr_mult: 1
  }
  param {
    lr_mult: 2
  }
  convolution_param {
    num_output: 32
    pad: 2
    kernel_size: 5
    stride: 1
    weight_filler {
      type: "gaussian"
      std: 0.01
    }
    bias_filler {
      type: "constant"
    }
  }
}
layer {
  name: "2_relu2"
  type: "ReLU"
  bottom: "2_conv2"
  top: "2_conv2"
}
layer {
  name: "2_pool2"
  type: "Pooling"
  bottom: "2_conv2"
  top: "2_pool2"
  pooling_param {
    pool: AVE
    kernel_size: 3
    stride: 2
  }
}
layer {
  name: "2_conv3"
  type: "Convolution"
  bottom: "2_pool2"
  top: "2_conv3"
  param {
    lr_mult: 1
  }
  param {
    lr_mult: 2
  }
  convolution_param {
    num_output: 64
    pad: 2
    kernel_size: 5
    stride: 1
    weight_filler {
      type: "gaussian"
      std: 0.01
    }
    bias_filler {
      type: "constant"
    }
  }
}
layer {
  name: "2_relu3"
  type: "ReLU"
  bottom: "2_conv3"
  top: "2_conv3"
}
layer {
  name: "2_pool3"
  type: "Pooling"
  bottom: "2_conv3"
  top: "2_pool3"
  pooling_param {
    pool: AVE
    kernel_size: 3
    stride: 2
  }
}
layer {
  name: "2_ip1"
  type: "InnerProduct"
  bottom: "2_pool3"
  top: "2_ip1"
  param {
    lr_mult: 1
  }
  param {
    lr_mult: 2
  }
  inner_product_param {
    num_output: 64
    weight_filler {
      type: "gaussian"
      std: 0.1
    }
    bias_filler {
      type: "constant"
    }
  }
}
layer {
  name: "2_ip2"
  type: "InnerProduct"
  bottom: "2_ip1"
  top: "2_ip2"
  param {
    lr_mult: 1
  }
  param {
    lr_mult: 2
  }
  inner_product_param {
    num_output: 10
    weight_filler {
      type: "gaussian"
      std: 0.1
    }
    bias_filler {
      type: "constant"
    }
  }
}
layer {
  name: "2_prob"
  type: "Softmax"
  bottom: "2_ip2"
  top: "2_prob"
}
layer {
  name: "3_conv1"
  type: "Convolution"
  bottom: "data"
  top: "3_conv1"
  param {
    lr_mult: 1
  }
  param {
    lr_mult: 2
  }
  convolution_param {
    num_output: 32
    pad: 2
    kernel_size: 5
    stride: 1
    weight_filler {
      type: "gaussian"
      std: 0.0001
    }
    bias_filler {
      type: "constant"
    }
  }
}
layer {
  name: "3_pool1"
  type: "Pooling"
  bottom: "3_conv1"
  top: "3_pool1"
  pooling_param {
    pool: MAX
    kernel_size: 3
    stride: 2
  }
}
layer {
  name: "3_relu1"
  type: "ReLU"
  bottom: "3_pool1"
  top: "3_pool1"
}
layer {
  name: "3_conv2"
  type: "Convolution"
  bottom: "3_pool1"
  top: "3_conv2"
  param {
    lr_mult: 1
  }
  param {
    lr_mult: 2
  }
  convolution_param {
    num_output: 32
    pad: 2
    kernel_size: 5
    stride: 1
    weight_filler {
      type: "gaussian"
      std: 0.01
    }
    bias_filler {
      type: "constant"
    }
  }
}
layer {
  name: "3_relu2"
  type: "ReLU"
  bottom: "3_conv2"
  top: "3_conv2"
}
layer {
  name: "3_pool2"
  type: "Pooling"
  bottom: "3_conv2"
  top: "3_pool2"
  pooling_param {
    pool: AVE
    kernel_size: 3
    stride: 2
  }
}
layer {
  name: "3_conv3"
  type: "Convolution"
  bottom: "3_pool2"
  top: "3_conv3"
  param {
    lr_mult: 1
  }
  param {
    lr_mult: 2
  }
  convolution_param {
    num_output: 64
    pad: 2
    kernel_size: 5
    stride: 1
    weight_filler {
      type: "gaussian"
      std: 0.01
    }
    bias_filler {
      type: "constant"
    }
  }
}
layer {
  name: "3_relu3"
  type: "ReLU"
  bottom: "3_conv3"
  top: "3_conv3"
}
layer {
  name: "3_pool3"
  type: "Pooling"
  bottom: "3_conv3"
  top: "3_pool3"
  pooling_param {
    pool: AVE
    kernel_size: 3
    stride: 2
  }
}
layer {
  name: "3_ip1"
  type: "InnerProduct"
  bottom: "3_pool3"
  top: "3_ip1"
  param {
    lr_mult: 1
  }
  param {
    lr_mult: 2
  }
  inner_product_param {
    num_output: 64
    weight_filler {
      type: "gaussian"
      std: 0.1
    }
    bias_filler {
      type: "constant"
    }
  }
}
layer {
  name: "3_ip2"
  type: "InnerProduct"
  bottom: "3_ip1"
  top: "3_ip2"
  param {
    lr_mult: 1
  }
  param {
    lr_mult: 2
  }
  inner_product_param {
    num_output: 10
    weight_filler {
      type: "gaussian"
      std: 0.1
    }
    bias_filler {
      type: "constant"
    }
  }
}
layer {
  name: "3_prob"
  type: "Softmax"
  bottom: "3_ip2"
  top: "3_prob"
}
layer {
  name: "4_conv1"
  type: "Convolution"
  bottom: "data"
  top: "4_conv1"
  param {
    lr_mult: 1
  }
  param {
    lr_mult: 2
  }
  convolution_param {
    num_output: 32
    pad: 2
    kernel_size: 5
    stride: 1
    weight_filler {
      type: "gaussian"
      std: 0.0001
    }
    bias_filler {
      type: "constant"
    }
  }
}
layer {
  name: "4_pool1"
  type: "Pooling"
  bottom: "4_conv1"
  top: "4_pool1"
  pooling_param {
    pool: MAX
    kernel_size: 3
    stride: 2
  }
}
layer {
  name: "4_relu1"
  type: "ReLU"
  bottom: "4_pool1"
  top: "4_pool1"
}
layer {
  name: "4_conv2"
  type: "Convolution"
  bottom: "4_pool1"
  top: "4_conv2"
  param {
    lr_mult: 1
  }
  param {
    lr_mult: 2
  }
  convolution_param {
    num_output: 32
    pad: 2
    kernel_size: 5
    stride: 1
    weight_filler {
      type: "gaussian"
      std: 0.01
    }
    bias_filler {
      type: "constant"
    }
  }
}
layer {
  name: "4_relu2"
  type: "ReLU"
  bottom: "4_conv2"
  top: "4_conv2"
}
layer {
  name: "4_pool2"
  type: "Pooling"
  bottom: "4_conv2"
  top: "4_pool2"
  pooling_param {
    pool: AVE
    kernel_size: 3
    stride: 2
  }
}
layer {
  name: "4_conv3"
  type: "Convolution"
  bottom: "4_pool2"
  top: "4_conv3"
  param {
    lr_mult: 1
  }
  param {
    lr_mult: 2
  }
  convolution_param {
    num_output: 64
    pad: 2
    kernel_size: 5
    stride: 1
    weight_filler {
      type: "gaussian"
      std: 0.01
    }
    bias_filler {
      type: "constant"
    }
  }
}
layer {
  name: "4_relu3"
  type: "ReLU"
  bottom: "4_conv3"
  top: "4_conv3"
}
layer {
  name: "4_pool3"
  type: "Pooling"
  bottom: "4_conv3"
  top: "4_pool3"
  pooling_param {
    pool: AVE
    kernel_size: 3
    stride: 2
  }
}
layer {
  name: "4_ip1"
  type: "InnerProduct"
  bottom: "4_pool3"
  top: "4_ip1"
  param {
    lr_mult: 1
  }
  param {
    lr_mult: 2
  }
  inner_product_param {
    num_output: 64
    weight_filler {
      type: "gaussian"
      std: 0.1
    }
    bias_filler {
      type: "constant"
    }
  }
}
layer {
  name: "4_ip2"
  type: "InnerProduct"
  bottom: "4_ip1"
  top: "4_ip2"
  param {
    lr_mult: 1
  }
  param {
    lr_mult: 2
  }
  inner_product_param {
    num_output: 10
    weight_filler {
      type: "gaussian"
      std: 0.1
    }
    bias_filler {
      type: "constant"
    }
  }
}
layer {
  name: "4_prob"
  type: "Softmax"
  bottom: "4_ip2"
  top: "4_prob"
}
layer {
  name: "1_accuracy"
  type: "Accuracy"
  bottom: "1_prob"
  bottom: "label"
  top: "1_accuracy"
  include {
    phase: TEST
  }
}
layer {
  name: "2_accuracy"
  type: "Accuracy"
  bottom: "2_prob"
  bottom: "label"
  top: "2_accuracy"
  include {
    phase: TEST
  }
}
layer {
  name: "3_accuracy"
  type: "Accuracy"
  bottom: "3_prob"
  bottom: "label"
  top: "3_accuracy"
  include {
    phase: TEST
  }
}
layer {
  name: "4_accuracy"
  type: "Accuracy"
  bottom: "4_prob"
  bottom: "label"
  top: "4_accuracy"
  include {
    phase: TEST
  }
}
layer {
  name: "accuracy"
  type: "OracleAccuracy"
  bottom: "1_prob"
  bottom: "2_prob"
  bottom: "3_prob"
  bottom: "4_prob"
  bottom: "label"
  top: "oracle accuracy"
  include {
    phase: TEST
  }
}
I0127 10:37:32.120937 24316 layer_factory.hpp:74] Creating layer cifar
I0127 10:37:32.120954 24316 net.cpp:90] Creating Layer cifar
I0127 10:37:32.120961 24316 net.cpp:368] cifar -> data
I0127 10:37:32.120970 24316 net.cpp:368] cifar -> label
I0127 10:37:32.120978 24316 net.cpp:120] Setting up cifar
I0127 10:37:32.121004 24316 db.cpp:34] Opened lmdb /home/mike/ml_lab/mod/MCL_Caffe/examples/cifar10/cifar10_test_lmdb
I0127 10:37:32.121026 24316 data_layer.cpp:67] output data size: 100,3,32,32
I0127 10:37:32.121032 24316 data_transformer.cpp:22] Loading mean file from: /home/mike/ml_lab/mod/MCL_Caffe/examples/cifar10/mean.binaryproto
I0127 10:37:32.121320 24316 net.cpp:127] Top shape: 100 3 32 32 (307200)
I0127 10:37:32.121341 24316 net.cpp:127] Top shape: 100 (100)
I0127 10:37:32.121346 24316 layer_factory.hpp:74] Creating layer data_cifar_0_split
I0127 10:37:32.121352 24316 net.cpp:90] Creating Layer data_cifar_0_split
I0127 10:37:32.121356 24316 net.cpp:410] data_cifar_0_split <- data
I0127 10:37:32.121362 24316 net.cpp:368] data_cifar_0_split -> data_cifar_0_split_0
I0127 10:37:32.121371 24316 net.cpp:368] data_cifar_0_split -> data_cifar_0_split_1
I0127 10:37:32.121377 24316 net.cpp:368] data_cifar_0_split -> data_cifar_0_split_2
I0127 10:37:32.121384 24316 net.cpp:368] data_cifar_0_split -> data_cifar_0_split_3
I0127 10:37:32.121392 24316 net.cpp:120] Setting up data_cifar_0_split
I0127 10:37:32.121399 24316 net.cpp:127] Top shape: 100 3 32 32 (307200)
I0127 10:37:32.121404 24316 net.cpp:127] Top shape: 100 3 32 32 (307200)
I0127 10:37:32.121408 24316 net.cpp:127] Top shape: 100 3 32 32 (307200)
I0127 10:37:32.121413 24316 net.cpp:127] Top shape: 100 3 32 32 (307200)
I0127 10:37:32.121417 24316 layer_factory.hpp:74] Creating layer label_cifar_1_split
I0127 10:37:32.121424 24316 net.cpp:90] Creating Layer label_cifar_1_split
I0127 10:37:32.121428 24316 net.cpp:410] label_cifar_1_split <- label
I0127 10:37:32.121433 24316 net.cpp:368] label_cifar_1_split -> label_cifar_1_split_0
I0127 10:37:32.121439 24316 net.cpp:368] label_cifar_1_split -> label_cifar_1_split_1
I0127 10:37:32.121446 24316 net.cpp:368] label_cifar_1_split -> label_cifar_1_split_2
I0127 10:37:32.121454 24316 net.cpp:368] label_cifar_1_split -> label_cifar_1_split_3
I0127 10:37:32.121460 24316 net.cpp:368] label_cifar_1_split -> label_cifar_1_split_4
I0127 10:37:32.121466 24316 net.cpp:120] Setting up label_cifar_1_split
I0127 10:37:32.121474 24316 net.cpp:127] Top shape: 100 (100)
I0127 10:37:32.121479 24316 net.cpp:127] Top shape: 100 (100)
I0127 10:37:32.121484 24316 net.cpp:127] Top shape: 100 (100)
I0127 10:37:32.121490 24316 net.cpp:127] Top shape: 100 (100)
I0127 10:37:32.121495 24316 net.cpp:127] Top shape: 100 (100)
I0127 10:37:32.121500 24316 layer_factory.hpp:74] Creating layer 1_conv1
I0127 10:37:32.121506 24316 net.cpp:90] Creating Layer 1_conv1
I0127 10:37:32.121510 24316 net.cpp:410] 1_conv1 <- data_cifar_0_split_0
I0127 10:37:32.121515 24316 net.cpp:368] 1_conv1 -> 1_conv1
I0127 10:37:32.121522 24316 net.cpp:120] Setting up 1_conv1
I0127 10:37:32.121588 24316 net.cpp:127] Top shape: 100 32 32 32 (3276800)
I0127 10:37:32.121598 24316 layer_factory.hpp:74] Creating layer 1_pool1
I0127 10:37:32.121604 24316 net.cpp:90] Creating Layer 1_pool1
I0127 10:37:32.121608 24316 net.cpp:410] 1_pool1 <- 1_conv1
I0127 10:37:32.121613 24316 net.cpp:368] 1_pool1 -> 1_pool1
I0127 10:37:32.121619 24316 net.cpp:120] Setting up 1_pool1
I0127 10:37:32.121628 24316 net.cpp:127] Top shape: 100 32 16 16 (819200)
I0127 10:37:32.121631 24316 layer_factory.hpp:74] Creating layer 1_relu1
I0127 10:37:32.121636 24316 net.cpp:90] Creating Layer 1_relu1
I0127 10:37:32.121640 24316 net.cpp:410] 1_relu1 <- 1_pool1
I0127 10:37:32.121644 24316 net.cpp:357] 1_relu1 -> 1_pool1 (in-place)
I0127 10:37:32.121649 24316 net.cpp:120] Setting up 1_relu1
I0127 10:37:32.121656 24316 net.cpp:127] Top shape: 100 32 16 16 (819200)
I0127 10:37:32.121660 24316 layer_factory.hpp:74] Creating layer 1_conv2
I0127 10:37:32.121667 24316 net.cpp:90] Creating Layer 1_conv2
I0127 10:37:32.121670 24316 net.cpp:410] 1_conv2 <- 1_pool1
I0127 10:37:32.121675 24316 net.cpp:368] 1_conv2 -> 1_conv2
I0127 10:37:32.121690 24316 net.cpp:120] Setting up 1_conv2
I0127 10:37:32.122269 24316 net.cpp:127] Top shape: 100 32 16 16 (819200)
I0127 10:37:32.122278 24316 layer_factory.hpp:74] Creating layer 1_relu2
I0127 10:37:32.122285 24316 net.cpp:90] Creating Layer 1_relu2
I0127 10:37:32.122289 24316 net.cpp:410] 1_relu2 <- 1_conv2
I0127 10:37:32.122294 24316 net.cpp:357] 1_relu2 -> 1_conv2 (in-place)
I0127 10:37:32.122299 24316 net.cpp:120] Setting up 1_relu2
I0127 10:37:32.122306 24316 net.cpp:127] Top shape: 100 32 16 16 (819200)
I0127 10:37:32.122310 24316 layer_factory.hpp:74] Creating layer 1_pool2
I0127 10:37:32.122316 24316 net.cpp:90] Creating Layer 1_pool2
I0127 10:37:32.122320 24316 net.cpp:410] 1_pool2 <- 1_conv2
I0127 10:37:32.122325 24316 net.cpp:368] 1_pool2 -> 1_pool2
I0127 10:37:32.122331 24316 net.cpp:120] Setting up 1_pool2
I0127 10:37:32.122339 24316 net.cpp:127] Top shape: 100 32 8 8 (204800)
I0127 10:37:32.122342 24316 layer_factory.hpp:74] Creating layer 1_conv3
I0127 10:37:32.122349 24316 net.cpp:90] Creating Layer 1_conv3
I0127 10:37:32.122352 24316 net.cpp:410] 1_conv3 <- 1_pool2
I0127 10:37:32.122359 24316 net.cpp:368] 1_conv3 -> 1_conv3
I0127 10:37:32.122364 24316 net.cpp:120] Setting up 1_conv3
I0127 10:37:32.123515 24316 net.cpp:127] Top shape: 100 64 8 8 (409600)
I0127 10:37:32.123523 24316 layer_factory.hpp:74] Creating layer 1_relu3
I0127 10:37:32.123529 24316 net.cpp:90] Creating Layer 1_relu3
I0127 10:37:32.123533 24316 net.cpp:410] 1_relu3 <- 1_conv3
I0127 10:37:32.123538 24316 net.cpp:357] 1_relu3 -> 1_conv3 (in-place)
I0127 10:37:32.123543 24316 net.cpp:120] Setting up 1_relu3
I0127 10:37:32.123549 24316 net.cpp:127] Top shape: 100 64 8 8 (409600)
I0127 10:37:32.123553 24316 layer_factory.hpp:74] Creating layer 1_pool3
I0127 10:37:32.123559 24316 net.cpp:90] Creating Layer 1_pool3
I0127 10:37:32.123564 24316 net.cpp:410] 1_pool3 <- 1_conv3
I0127 10:37:32.123569 24316 net.cpp:368] 1_pool3 -> 1_pool3
I0127 10:37:32.123575 24316 net.cpp:120] Setting up 1_pool3
I0127 10:37:32.123584 24316 net.cpp:127] Top shape: 100 64 4 4 (102400)
I0127 10:37:32.123587 24316 layer_factory.hpp:74] Creating layer 1_ip1
I0127 10:37:32.123594 24316 net.cpp:90] Creating Layer 1_ip1
I0127 10:37:32.123597 24316 net.cpp:410] 1_ip1 <- 1_pool3
I0127 10:37:32.123602 24316 net.cpp:368] 1_ip1 -> 1_ip1
I0127 10:37:32.123610 24316 net.cpp:120] Setting up 1_ip1
I0127 10:37:32.125074 24316 net.cpp:127] Top shape: 100 64 (6400)
I0127 10:37:32.125082 24316 layer_factory.hpp:74] Creating layer 1_ip2
I0127 10:37:32.125089 24316 net.cpp:90] Creating Layer 1_ip2
I0127 10:37:32.125094 24316 net.cpp:410] 1_ip2 <- 1_ip1
I0127 10:37:32.125099 24316 net.cpp:368] 1_ip2 -> 1_ip2
I0127 10:37:32.125107 24316 net.cpp:120] Setting up 1_ip2
I0127 10:37:32.125135 24316 net.cpp:127] Top shape: 100 10 (1000)
I0127 10:37:32.125144 24316 layer_factory.hpp:74] Creating layer 1_prob
I0127 10:37:32.125150 24316 net.cpp:90] Creating Layer 1_prob
I0127 10:37:32.125154 24316 net.cpp:410] 1_prob <- 1_ip2
I0127 10:37:32.125161 24316 net.cpp:368] 1_prob -> 1_prob
I0127 10:37:32.125167 24316 net.cpp:120] Setting up 1_prob
I0127 10:37:32.125175 24316 net.cpp:127] Top shape: 100 10 (1000)
I0127 10:37:32.125178 24316 layer_factory.hpp:74] Creating layer 1_prob_1_prob_0_split
I0127 10:37:32.125185 24316 net.cpp:90] Creating Layer 1_prob_1_prob_0_split
I0127 10:37:32.125188 24316 net.cpp:410] 1_prob_1_prob_0_split <- 1_prob
I0127 10:37:32.125193 24316 net.cpp:368] 1_prob_1_prob_0_split -> 1_prob_1_prob_0_split_0
I0127 10:37:32.125200 24316 net.cpp:368] 1_prob_1_prob_0_split -> 1_prob_1_prob_0_split_1
I0127 10:37:32.125206 24316 net.cpp:120] Setting up 1_prob_1_prob_0_split
I0127 10:37:32.125213 24316 net.cpp:127] Top shape: 100 10 (1000)
I0127 10:37:32.125218 24316 net.cpp:127] Top shape: 100 10 (1000)
I0127 10:37:32.125232 24316 layer_factory.hpp:74] Creating layer 2_conv1
I0127 10:37:32.125241 24316 net.cpp:90] Creating Layer 2_conv1
I0127 10:37:32.125247 24316 net.cpp:410] 2_conv1 <- data_cifar_0_split_1
I0127 10:37:32.125253 24316 net.cpp:368] 2_conv1 -> 2_conv1
I0127 10:37:32.125267 24316 net.cpp:120] Setting up 2_conv1
I0127 10:37:32.125334 24316 net.cpp:127] Top shape: 100 32 32 32 (3276800)
I0127 10:37:32.125341 24316 layer_factory.hpp:74] Creating layer 2_pool1
I0127 10:37:32.125349 24316 net.cpp:90] Creating Layer 2_pool1
I0127 10:37:32.125352 24316 net.cpp:410] 2_pool1 <- 2_conv1
I0127 10:37:32.125357 24316 net.cpp:368] 2_pool1 -> 2_pool1
I0127 10:37:32.125365 24316 net.cpp:120] Setting up 2_pool1
I0127 10:37:32.125372 24316 net.cpp:127] Top shape: 100 32 16 16 (819200)
I0127 10:37:32.125376 24316 layer_factory.hpp:74] Creating layer 2_relu1
I0127 10:37:32.125380 24316 net.cpp:90] Creating Layer 2_relu1
I0127 10:37:32.125385 24316 net.cpp:410] 2_relu1 <- 2_pool1
I0127 10:37:32.125389 24316 net.cpp:357] 2_relu1 -> 2_pool1 (in-place)
I0127 10:37:32.125394 24316 net.cpp:120] Setting up 2_relu1
I0127 10:37:32.125401 24316 net.cpp:127] Top shape: 100 32 16 16 (819200)
I0127 10:37:32.125404 24316 layer_factory.hpp:74] Creating layer 2_conv2
I0127 10:37:32.125411 24316 net.cpp:90] Creating Layer 2_conv2
I0127 10:37:32.125416 24316 net.cpp:410] 2_conv2 <- 2_pool1
I0127 10:37:32.125421 24316 net.cpp:368] 2_conv2 -> 2_conv2
I0127 10:37:32.125427 24316 net.cpp:120] Setting up 2_conv2
I0127 10:37:32.126008 24316 net.cpp:127] Top shape: 100 32 16 16 (819200)
I0127 10:37:32.126014 24316 layer_factory.hpp:74] Creating layer 2_relu2
I0127 10:37:32.126029 24316 net.cpp:90] Creating Layer 2_relu2
I0127 10:37:32.126034 24316 net.cpp:410] 2_relu2 <- 2_conv2
I0127 10:37:32.126039 24316 net.cpp:357] 2_relu2 -> 2_conv2 (in-place)
I0127 10:37:32.126045 24316 net.cpp:120] Setting up 2_relu2
I0127 10:37:32.126051 24316 net.cpp:127] Top shape: 100 32 16 16 (819200)
I0127 10:37:32.126056 24316 layer_factory.hpp:74] Creating layer 2_pool2
I0127 10:37:32.126061 24316 net.cpp:90] Creating Layer 2_pool2
I0127 10:37:32.126065 24316 net.cpp:410] 2_pool2 <- 2_conv2
I0127 10:37:32.126071 24316 net.cpp:368] 2_pool2 -> 2_pool2
I0127 10:37:32.126077 24316 net.cpp:120] Setting up 2_pool2
I0127 10:37:32.126085 24316 net.cpp:127] Top shape: 100 32 8 8 (204800)
I0127 10:37:32.126088 24316 layer_factory.hpp:74] Creating layer 2_conv3
I0127 10:37:32.126094 24316 net.cpp:90] Creating Layer 2_conv3
I0127 10:37:32.126098 24316 net.cpp:410] 2_conv3 <- 2_pool2
I0127 10:37:32.126106 24316 net.cpp:368] 2_conv3 -> 2_conv3
I0127 10:37:32.126111 24316 net.cpp:120] Setting up 2_conv3
I0127 10:37:32.127259 24316 net.cpp:127] Top shape: 100 64 8 8 (409600)
I0127 10:37:32.127266 24316 layer_factory.hpp:74] Creating layer 2_relu3
I0127 10:37:32.127274 24316 net.cpp:90] Creating Layer 2_relu3
I0127 10:37:32.127277 24316 net.cpp:410] 2_relu3 <- 2_conv3
I0127 10:37:32.127284 24316 net.cpp:357] 2_relu3 -> 2_conv3 (in-place)
I0127 10:37:32.127290 24316 net.cpp:120] Setting up 2_relu3
I0127 10:37:32.127295 24316 net.cpp:127] Top shape: 100 64 8 8 (409600)
I0127 10:37:32.127300 24316 layer_factory.hpp:74] Creating layer 2_pool3
I0127 10:37:32.127303 24316 net.cpp:90] Creating Layer 2_pool3
I0127 10:37:32.127307 24316 net.cpp:410] 2_pool3 <- 2_conv3
I0127 10:37:32.127315 24316 net.cpp:368] 2_pool3 -> 2_pool3
I0127 10:37:32.127320 24316 net.cpp:120] Setting up 2_pool3
I0127 10:37:32.127327 24316 net.cpp:127] Top shape: 100 64 4 4 (102400)
I0127 10:37:32.127331 24316 layer_factory.hpp:74] Creating layer 2_ip1
I0127 10:37:32.127336 24316 net.cpp:90] Creating Layer 2_ip1
I0127 10:37:32.127341 24316 net.cpp:410] 2_ip1 <- 2_pool3
I0127 10:37:32.127347 24316 net.cpp:368] 2_ip1 -> 2_ip1
I0127 10:37:32.127353 24316 net.cpp:120] Setting up 2_ip1
I0127 10:37:32.128818 24316 net.cpp:127] Top shape: 100 64 (6400)
I0127 10:37:32.128829 24316 layer_factory.hpp:74] Creating layer 2_ip2
I0127 10:37:32.128834 24316 net.cpp:90] Creating Layer 2_ip2
I0127 10:37:32.128839 24316 net.cpp:410] 2_ip2 <- 2_ip1
I0127 10:37:32.128847 24316 net.cpp:368] 2_ip2 -> 2_ip2
I0127 10:37:32.128854 24316 net.cpp:120] Setting up 2_ip2
I0127 10:37:32.128878 24316 net.cpp:127] Top shape: 100 10 (1000)
I0127 10:37:32.128885 24316 layer_factory.hpp:74] Creating layer 2_prob
I0127 10:37:32.128896 24316 net.cpp:90] Creating Layer 2_prob
I0127 10:37:32.128901 24316 net.cpp:410] 2_prob <- 2_ip2
I0127 10:37:32.128907 24316 net.cpp:368] 2_prob -> 2_prob
I0127 10:37:32.128913 24316 net.cpp:120] Setting up 2_prob
I0127 10:37:32.128923 24316 net.cpp:127] Top shape: 100 10 (1000)
I0127 10:37:32.128927 24316 layer_factory.hpp:74] Creating layer 2_prob_2_prob_0_split
I0127 10:37:32.128931 24316 net.cpp:90] Creating Layer 2_prob_2_prob_0_split
I0127 10:37:32.128935 24316 net.cpp:410] 2_prob_2_prob_0_split <- 2_prob
I0127 10:37:32.128942 24316 net.cpp:368] 2_prob_2_prob_0_split -> 2_prob_2_prob_0_split_0
I0127 10:37:32.128949 24316 net.cpp:368] 2_prob_2_prob_0_split -> 2_prob_2_prob_0_split_1
I0127 10:37:32.128958 24316 net.cpp:120] Setting up 2_prob_2_prob_0_split
I0127 10:37:32.128964 24316 net.cpp:127] Top shape: 100 10 (1000)
I0127 10:37:32.128970 24316 net.cpp:127] Top shape: 100 10 (1000)
I0127 10:37:32.128974 24316 layer_factory.hpp:74] Creating layer 3_conv1
I0127 10:37:32.128981 24316 net.cpp:90] Creating Layer 3_conv1
I0127 10:37:32.128985 24316 net.cpp:410] 3_conv1 <- data_cifar_0_split_2
I0127 10:37:32.128990 24316 net.cpp:368] 3_conv1 -> 3_conv1
I0127 10:37:32.128998 24316 net.cpp:120] Setting up 3_conv1
I0127 10:37:32.129063 24316 net.cpp:127] Top shape: 100 32 32 32 (3276800)
I0127 10:37:32.129070 24316 layer_factory.hpp:74] Creating layer 3_pool1
I0127 10:37:32.129077 24316 net.cpp:90] Creating Layer 3_pool1
I0127 10:37:32.129081 24316 net.cpp:410] 3_pool1 <- 3_conv1
I0127 10:37:32.129086 24316 net.cpp:368] 3_pool1 -> 3_pool1
I0127 10:37:32.129092 24316 net.cpp:120] Setting up 3_pool1
I0127 10:37:32.129101 24316 net.cpp:127] Top shape: 100 32 16 16 (819200)
I0127 10:37:32.129103 24316 layer_factory.hpp:74] Creating layer 3_relu1
I0127 10:37:32.129108 24316 net.cpp:90] Creating Layer 3_relu1
I0127 10:37:32.129112 24316 net.cpp:410] 3_relu1 <- 3_pool1
I0127 10:37:32.129117 24316 net.cpp:357] 3_relu1 -> 3_pool1 (in-place)
I0127 10:37:32.129127 24316 net.cpp:120] Setting up 3_relu1
I0127 10:37:32.129133 24316 net.cpp:127] Top shape: 100 32 16 16 (819200)
I0127 10:37:32.129146 24316 layer_factory.hpp:74] Creating layer 3_conv2
I0127 10:37:32.129156 24316 net.cpp:90] Creating Layer 3_conv2
I0127 10:37:32.129161 24316 net.cpp:410] 3_conv2 <- 3_pool1
I0127 10:37:32.129168 24316 net.cpp:368] 3_conv2 -> 3_conv2
I0127 10:37:32.129174 24316 net.cpp:120] Setting up 3_conv2
I0127 10:37:32.129755 24316 net.cpp:127] Top shape: 100 32 16 16 (819200)
I0127 10:37:32.129762 24316 layer_factory.hpp:74] Creating layer 3_relu2
I0127 10:37:32.129778 24316 net.cpp:90] Creating Layer 3_relu2
I0127 10:37:32.129782 24316 net.cpp:410] 3_relu2 <- 3_conv2
I0127 10:37:32.129786 24316 net.cpp:357] 3_relu2 -> 3_conv2 (in-place)
I0127 10:37:32.129791 24316 net.cpp:120] Setting up 3_relu2
I0127 10:37:32.129798 24316 net.cpp:127] Top shape: 100 32 16 16 (819200)
I0127 10:37:32.129802 24316 layer_factory.hpp:74] Creating layer 3_pool2
I0127 10:37:32.129808 24316 net.cpp:90] Creating Layer 3_pool2
I0127 10:37:32.129812 24316 net.cpp:410] 3_pool2 <- 3_conv2
I0127 10:37:32.129817 24316 net.cpp:368] 3_pool2 -> 3_pool2
I0127 10:37:32.129823 24316 net.cpp:120] Setting up 3_pool2
I0127 10:37:32.129830 24316 net.cpp:127] Top shape: 100 32 8 8 (204800)
I0127 10:37:32.129834 24316 layer_factory.hpp:74] Creating layer 3_conv3
I0127 10:37:32.129840 24316 net.cpp:90] Creating Layer 3_conv3
I0127 10:37:32.129844 24316 net.cpp:410] 3_conv3 <- 3_pool2
I0127 10:37:32.129851 24316 net.cpp:368] 3_conv3 -> 3_conv3
I0127 10:37:32.129858 24316 net.cpp:120] Setting up 3_conv3
I0127 10:37:32.131006 24316 net.cpp:127] Top shape: 100 64 8 8 (409600)
I0127 10:37:32.131013 24316 layer_factory.hpp:74] Creating layer 3_relu3
I0127 10:37:32.131021 24316 net.cpp:90] Creating Layer 3_relu3
I0127 10:37:32.131024 24316 net.cpp:410] 3_relu3 <- 3_conv3
I0127 10:37:32.131029 24316 net.cpp:357] 3_relu3 -> 3_conv3 (in-place)
I0127 10:37:32.131034 24316 net.cpp:120] Setting up 3_relu3
I0127 10:37:32.131041 24316 net.cpp:127] Top shape: 100 64 8 8 (409600)
I0127 10:37:32.131052 24316 layer_factory.hpp:74] Creating layer 3_pool3
I0127 10:37:32.131058 24316 net.cpp:90] Creating Layer 3_pool3
I0127 10:37:32.131062 24316 net.cpp:410] 3_pool3 <- 3_conv3
I0127 10:37:32.131067 24316 net.cpp:368] 3_pool3 -> 3_pool3
I0127 10:37:32.131073 24316 net.cpp:120] Setting up 3_pool3
I0127 10:37:32.131081 24316 net.cpp:127] Top shape: 100 64 4 4 (102400)
I0127 10:37:32.131085 24316 layer_factory.hpp:74] Creating layer 3_ip1
I0127 10:37:32.131093 24316 net.cpp:90] Creating Layer 3_ip1
I0127 10:37:32.131096 24316 net.cpp:410] 3_ip1 <- 3_pool3
I0127 10:37:32.131101 24316 net.cpp:368] 3_ip1 -> 3_ip1
I0127 10:37:32.131108 24316 net.cpp:120] Setting up 3_ip1
I0127 10:37:32.132575 24316 net.cpp:127] Top shape: 100 64 (6400)
I0127 10:37:32.132581 24316 layer_factory.hpp:74] Creating layer 3_ip2
I0127 10:37:32.132588 24316 net.cpp:90] Creating Layer 3_ip2
I0127 10:37:32.132593 24316 net.cpp:410] 3_ip2 <- 3_ip1
I0127 10:37:32.132601 24316 net.cpp:368] 3_ip2 -> 3_ip2
I0127 10:37:32.132606 24316 net.cpp:120] Setting up 3_ip2
I0127 10:37:32.132632 24316 net.cpp:127] Top shape: 100 10 (1000)
I0127 10:37:32.132637 24316 layer_factory.hpp:74] Creating layer 3_prob
I0127 10:37:32.132643 24316 net.cpp:90] Creating Layer 3_prob
I0127 10:37:32.132647 24316 net.cpp:410] 3_prob <- 3_ip2
I0127 10:37:32.132653 24316 net.cpp:368] 3_prob -> 3_prob
I0127 10:37:32.132659 24316 net.cpp:120] Setting up 3_prob
I0127 10:37:32.132666 24316 net.cpp:127] Top shape: 100 10 (1000)
I0127 10:37:32.132670 24316 layer_factory.hpp:74] Creating layer 3_prob_3_prob_0_split
I0127 10:37:32.132676 24316 net.cpp:90] Creating Layer 3_prob_3_prob_0_split
I0127 10:37:32.132680 24316 net.cpp:410] 3_prob_3_prob_0_split <- 3_prob
I0127 10:37:32.132685 24316 net.cpp:368] 3_prob_3_prob_0_split -> 3_prob_3_prob_0_split_0
I0127 10:37:32.132694 24316 net.cpp:368] 3_prob_3_prob_0_split -> 3_prob_3_prob_0_split_1
I0127 10:37:32.132699 24316 net.cpp:120] Setting up 3_prob_3_prob_0_split
I0127 10:37:32.132706 24316 net.cpp:127] Top shape: 100 10 (1000)
I0127 10:37:32.132711 24316 net.cpp:127] Top shape: 100 10 (1000)
I0127 10:37:32.132716 24316 layer_factory.hpp:74] Creating layer 4_conv1
I0127 10:37:32.132724 24316 net.cpp:90] Creating Layer 4_conv1
I0127 10:37:32.132727 24316 net.cpp:410] 4_conv1 <- data_cifar_0_split_3
I0127 10:37:32.132735 24316 net.cpp:368] 4_conv1 -> 4_conv1
I0127 10:37:32.132740 24316 net.cpp:120] Setting up 4_conv1
I0127 10:37:32.132808 24316 net.cpp:127] Top shape: 100 32 32 32 (3276800)
I0127 10:37:32.132814 24316 layer_factory.hpp:74] Creating layer 4_pool1
I0127 10:37:32.132820 24316 net.cpp:90] Creating Layer 4_pool1
I0127 10:37:32.132824 24316 net.cpp:410] 4_pool1 <- 4_conv1
I0127 10:37:32.132830 24316 net.cpp:368] 4_pool1 -> 4_pool1
I0127 10:37:32.132836 24316 net.cpp:120] Setting up 4_pool1
I0127 10:37:32.132844 24316 net.cpp:127] Top shape: 100 32 16 16 (819200)
I0127 10:37:32.132848 24316 layer_factory.hpp:74] Creating layer 4_relu1
I0127 10:37:32.132853 24316 net.cpp:90] Creating Layer 4_relu1
I0127 10:37:32.132856 24316 net.cpp:410] 4_relu1 <- 4_pool1
I0127 10:37:32.132861 24316 net.cpp:357] 4_relu1 -> 4_pool1 (in-place)
I0127 10:37:32.132866 24316 net.cpp:120] Setting up 4_relu1
I0127 10:37:32.132872 24316 net.cpp:127] Top shape: 100 32 16 16 (819200)
I0127 10:37:32.132877 24316 layer_factory.hpp:74] Creating layer 4_conv2
I0127 10:37:32.132882 24316 net.cpp:90] Creating Layer 4_conv2
I0127 10:37:32.132886 24316 net.cpp:410] 4_conv2 <- 4_pool1
I0127 10:37:32.132892 24316 net.cpp:368] 4_conv2 -> 4_conv2
I0127 10:37:32.132899 24316 net.cpp:120] Setting up 4_conv2
I0127 10:37:32.133486 24316 net.cpp:127] Top shape: 100 32 16 16 (819200)
I0127 10:37:32.133497 24316 layer_factory.hpp:74] Creating layer 4_relu2
I0127 10:37:32.133512 24316 net.cpp:90] Creating Layer 4_relu2
I0127 10:37:32.133517 24316 net.cpp:410] 4_relu2 <- 4_conv2
I0127 10:37:32.133523 24316 net.cpp:357] 4_relu2 -> 4_conv2 (in-place)
I0127 10:37:32.133529 24316 net.cpp:120] Setting up 4_relu2
I0127 10:37:32.133535 24316 net.cpp:127] Top shape: 100 32 16 16 (819200)
I0127 10:37:32.133546 24316 layer_factory.hpp:74] Creating layer 4_pool2
I0127 10:37:32.133553 24316 net.cpp:90] Creating Layer 4_pool2
I0127 10:37:32.133556 24316 net.cpp:410] 4_pool2 <- 4_conv2
I0127 10:37:32.133563 24316 net.cpp:368] 4_pool2 -> 4_pool2
I0127 10:37:32.133569 24316 net.cpp:120] Setting up 4_pool2
I0127 10:37:32.133576 24316 net.cpp:127] Top shape: 100 32 8 8 (204800)
I0127 10:37:32.133580 24316 layer_factory.hpp:74] Creating layer 4_conv3
I0127 10:37:32.133586 24316 net.cpp:90] Creating Layer 4_conv3
I0127 10:37:32.133590 24316 net.cpp:410] 4_conv3 <- 4_pool2
I0127 10:37:32.133597 24316 net.cpp:368] 4_conv3 -> 4_conv3
I0127 10:37:32.133604 24316 net.cpp:120] Setting up 4_conv3
I0127 10:37:32.134754 24316 net.cpp:127] Top shape: 100 64 8 8 (409600)
I0127 10:37:32.134762 24316 layer_factory.hpp:74] Creating layer 4_relu3
I0127 10:37:32.134776 24316 net.cpp:90] Creating Layer 4_relu3
I0127 10:37:32.134780 24316 net.cpp:410] 4_relu3 <- 4_conv3
I0127 10:37:32.134785 24316 net.cpp:357] 4_relu3 -> 4_conv3 (in-place)
I0127 10:37:32.134790 24316 net.cpp:120] Setting up 4_relu3
I0127 10:37:32.134796 24316 net.cpp:127] Top shape: 100 64 8 8 (409600)
I0127 10:37:32.134801 24316 layer_factory.hpp:74] Creating layer 4_pool3
I0127 10:37:32.134805 24316 net.cpp:90] Creating Layer 4_pool3
I0127 10:37:32.134809 24316 net.cpp:410] 4_pool3 <- 4_conv3
I0127 10:37:32.134816 24316 net.cpp:368] 4_pool3 -> 4_pool3
I0127 10:37:32.134822 24316 net.cpp:120] Setting up 4_pool3
I0127 10:37:32.134829 24316 net.cpp:127] Top shape: 100 64 4 4 (102400)
I0127 10:37:32.134834 24316 layer_factory.hpp:74] Creating layer 4_ip1
I0127 10:37:32.134840 24316 net.cpp:90] Creating Layer 4_ip1
I0127 10:37:32.134843 24316 net.cpp:410] 4_ip1 <- 4_pool3
I0127 10:37:32.134850 24316 net.cpp:368] 4_ip1 -> 4_ip1
I0127 10:37:32.134856 24316 net.cpp:120] Setting up 4_ip1
I0127 10:37:32.136323 24316 net.cpp:127] Top shape: 100 64 (6400)
I0127 10:37:32.136330 24316 layer_factory.hpp:74] Creating layer 4_ip2
I0127 10:37:32.136337 24316 net.cpp:90] Creating Layer 4_ip2
I0127 10:37:32.136342 24316 net.cpp:410] 4_ip2 <- 4_ip1
I0127 10:37:32.136348 24316 net.cpp:368] 4_ip2 -> 4_ip2
I0127 10:37:32.136354 24316 net.cpp:120] Setting up 4_ip2
I0127 10:37:32.136379 24316 net.cpp:127] Top shape: 100 10 (1000)
I0127 10:37:32.136385 24316 layer_factory.hpp:74] Creating layer 4_prob
I0127 10:37:32.136391 24316 net.cpp:90] Creating Layer 4_prob
I0127 10:37:32.136395 24316 net.cpp:410] 4_prob <- 4_ip2
I0127 10:37:32.136401 24316 net.cpp:368] 4_prob -> 4_prob
I0127 10:37:32.136407 24316 net.cpp:120] Setting up 4_prob
I0127 10:37:32.136415 24316 net.cpp:127] Top shape: 100 10 (1000)
I0127 10:37:32.136418 24316 layer_factory.hpp:74] Creating layer 4_prob_4_prob_0_split
I0127 10:37:32.136423 24316 net.cpp:90] Creating Layer 4_prob_4_prob_0_split
I0127 10:37:32.136427 24316 net.cpp:410] 4_prob_4_prob_0_split <- 4_prob
I0127 10:37:32.136433 24316 net.cpp:368] 4_prob_4_prob_0_split -> 4_prob_4_prob_0_split_0
I0127 10:37:32.136440 24316 net.cpp:368] 4_prob_4_prob_0_split -> 4_prob_4_prob_0_split_1
I0127 10:37:32.136446 24316 net.cpp:120] Setting up 4_prob_4_prob_0_split
I0127 10:37:32.136454 24316 net.cpp:127] Top shape: 100 10 (1000)
I0127 10:37:32.136459 24316 net.cpp:127] Top shape: 100 10 (1000)
I0127 10:37:32.136463 24316 layer_factory.hpp:74] Creating layer 1_accuracy
I0127 10:37:32.136471 24316 net.cpp:90] Creating Layer 1_accuracy
I0127 10:37:32.136474 24316 net.cpp:410] 1_accuracy <- 1_prob_1_prob_0_split_0
I0127 10:37:32.136479 24316 net.cpp:410] 1_accuracy <- label_cifar_1_split_0
I0127 10:37:32.136485 24316 net.cpp:368] 1_accuracy -> 1_accuracy
I0127 10:37:32.136492 24316 net.cpp:120] Setting up 1_accuracy
…
