…
I0127 06:36:26.790837  9881 net.cpp:287] The NetState phase (0) differed from the phase (1) specified by a rule in layer accuracy
I0127 06:36:26.791007  9881 net.cpp:42] Initializing net from parameters: 
name: "CIFAR10_quick"
state {
  phase: TRAIN
}
layer {
  name: "cifar"
  type: "Data"
  top: "data"
  top: "label"
  include {
    phase: TRAIN
  }
  transform_param {
    mean_file: "/home/mike/ml_lab/mod/MCL_Caffe/examples/cifar10/mean.binaryproto"
  }
  data_param {
    source: "/home/mike/ml_lab/mod/MCL_Caffe/examples/cifar10/cifar10_train_lmdb"
    batch_size: 350
    backend: LMDB
  }
}
layer {
  name: "1_conv1"
  type: "Convolution"
  bottom: "data"
  top: "1_conv1"
  param {
    lr_mult: 1
  }
  param {
    lr_mult: 2
  }
  convolution_param {
    num_output: 32
    pad: 2
    kernel_size: 5
    stride: 1
    weight_filler {
      type: "gaussian"
      std: 0.0001
    }
    bias_filler {
      type: "constant"
    }
  }
}
layer {
  name: "1_pool1"
  type: "Pooling"
  bottom: "1_conv1"
  top: "1_pool1"
  pooling_param {
    pool: MAX
    kernel_size: 3
    stride: 2
  }
}
layer {
  name: "1_relu1"
  type: "ReLU"
  bottom: "1_pool1"
  top: "1_pool1"
}
layer {
  name: "1_conv2"
  type: "Convolution"
  bottom: "1_pool1"
  top: "1_conv2"
  param {
    lr_mult: 1
  }
  param {
    lr_mult: 2
  }
  convolution_param {
    num_output: 32
    pad: 2
    kernel_size: 5
    stride: 1
    weight_filler {
      type: "gaussian"
      std: 0.01
    }
    bias_filler {
      type: "constant"
    }
  }
}
layer {
  name: "1_relu2"
  type: "ReLU"
  bottom: "1_conv2"
  top: "1_conv2"
}
layer {
  name: "1_pool2"
  type: "Pooling"
  bottom: "1_conv2"
  top: "1_pool2"
  pooling_param {
    pool: AVE
    kernel_size: 3
    stride: 2
  }
}
layer {
  name: "1_conv3"
  type: "Convolution"
  bottom: "1_pool2"
  top: "1_conv3"
  param {
    lr_mult: 1
  }
  param {
    lr_mult: 2
  }
  convolution_param {
    num_output: 64
    pad: 2
    kernel_size: 5
    stride: 1
    weight_filler {
      type: "gaussian"
      std: 0.01
    }
    bias_filler {
      type: "constant"
    }
  }
}
layer {
  name: "1_relu3"
  type: "ReLU"
  bottom: "1_conv3"
  top: "1_conv3"
}
layer {
  name: "1_pool3"
  type: "Pooling"
  bottom: "1_conv3"
  top: "1_pool3"
  pooling_param {
    pool: AVE
    kernel_size: 3
    stride: 2
  }
}
layer {
  name: "1_ip1"
  type: "InnerProduct"
  bottom: "1_pool3"
  top: "1_ip1"
  param {
    lr_mult: 1
  }
  param {
    lr_mult: 2
  }
  inner_product_param {
    num_output: 64
    weight_filler {
      type: "gaussian"
      std: 0.1
    }
    bias_filler {
      type: "constant"
    }
  }
}
layer {
  name: "1_ip2"
  type: "InnerProduct"
  bottom: "1_ip1"
  top: "1_ip2"
  param {
    lr_mult: 1
  }
  param {
    lr_mult: 2
  }
  inner_product_param {
    num_output: 10
    weight_filler {
      type: "gaussian"
      std: 0.1
    }
    bias_filler {
      type: "constant"
    }
  }
}
layer {
  name: "1_prob"
  type: "Softmax"
  bottom: "1_ip2"
  top: "1_prob"
}
layer {
  name: "2_conv1"
  type: "Convolution"
  bottom: "data"
  top: "2_conv1"
  param {
    lr_mult: 1
  }
  param {
    lr_mult: 2
  }
  convolution_param {
    num_output: 32
    pad: 2
    kernel_size: 5
    stride: 1
    weight_filler {
      type: "gaussian"
      std: 0.0001
    }
    bias_filler {
      type: "constant"
    }
  }
}
layer {
  name: "2_pool1"
  type: "Pooling"
  bottom: "2_conv1"
  top: "2_pool1"
  pooling_param {
    pool: MAX
    kernel_size: 3
    stride: 2
  }
}
layer {
  name: "2_relu1"
  type: "ReLU"
  bottom: "2_pool1"
  top: "2_pool1"
}
layer {
  name: "2_conv2"
  type: "Convolution"
  bottom: "2_pool1"
  top: "2_conv2"
  param {
    lr_mult: 1
  }
  param {
    lr_mult: 2
  }
  convolution_param {
    num_output: 32
    pad: 2
    kernel_size: 5
    stride: 1
    weight_filler {
      type: "gaussian"
      std: 0.01
    }
    bias_filler {
      type: "constant"
    }
  }
}
layer {
  name: "2_relu2"
  type: "ReLU"
  bottom: "2_conv2"
  top: "2_conv2"
}
layer {
  name: "2_pool2"
  type: "Pooling"
  bottom: "2_conv2"
  top: "2_pool2"
  pooling_param {
    pool: AVE
    kernel_size: 3
    stride: 2
  }
}
layer {
  name: "2_conv3"
  type: "Convolution"
  bottom: "2_pool2"
  top: "2_conv3"
  param {
    lr_mult: 1
  }
  param {
    lr_mult: 2
  }
  convolution_param {
    num_output: 64
    pad: 2
    kernel_size: 5
    stride: 1
    weight_filler {
      type: "gaussian"
      std: 0.01
    }
    bias_filler {
      type: "constant"
    }
  }
}
layer {
  name: "2_relu3"
  type: "ReLU"
  bottom: "2_conv3"
  top: "2_conv3"
}
layer {
  name: "2_pool3"
  type: "Pooling"
  bottom: "2_conv3"
  top: "2_pool3"
  pooling_param {
    pool: AVE
    kernel_size: 3
    stride: 2
  }
}
layer {
  name: "2_ip1"
  type: "InnerProduct"
  bottom: "2_pool3"
  top: "2_ip1"
  param {
    lr_mult: 1
  }
  param {
    lr_mult: 2
  }
  inner_product_param {
    num_output: 64
    weight_filler {
      type: "gaussian"
      std: 0.1
    }
    bias_filler {
      type: "constant"
    }
  }
}
layer {
  name: "2_ip2"
  type: "InnerProduct"
  bottom: "2_ip1"
  top: "2_ip2"
  param {
    lr_mult: 1
  }
  param {
    lr_mult: 2
  }
  inner_product_param {
    num_output: 10
    weight_filler {
      type: "gaussian"
      std: 0.1
    }
    bias_filler {
      type: "constant"
    }
  }
}
layer {
  name: "2_prob"
  type: "Softmax"
  bottom: "2_ip2"
  top: "2_prob"
}
layer {
  name: "3_conv1"
  type: "Convolution"
  bottom: "data"
  top: "3_conv1"
  param {
    lr_mult: 1
  }
  param {
    lr_mult: 2
  }
  convolution_param {
    num_output: 32
    pad: 2
    kernel_size: 5
    stride: 1
    weight_filler {
      type: "gaussian"
      std: 0.0001
    }
    bias_filler {
      type: "constant"
    }
  }
}
layer {
  name: "3_pool1"
  type: "Pooling"
  bottom: "3_conv1"
  top: "3_pool1"
  pooling_param {
    pool: MAX
    kernel_size: 3
    stride: 2
  }
}
layer {
  name: "3_relu1"
  type: "ReLU"
  bottom: "3_pool1"
  top: "3_pool1"
}
layer {
  name: "3_conv2"
  type: "Convolution"
  bottom: "3_pool1"
  top: "3_conv2"
  param {
    lr_mult: 1
  }
  param {
    lr_mult: 2
  }
  convolution_param {
    num_output: 32
    pad: 2
    kernel_size: 5
    stride: 1
    weight_filler {
      type: "gaussian"
      std: 0.01
    }
    bias_filler {
      type: "constant"
    }
  }
}
layer {
  name: "3_relu2"
  type: "ReLU"
  bottom: "3_conv2"
  top: "3_conv2"
}
layer {
  name: "3_pool2"
  type: "Pooling"
  bottom: "3_conv2"
  top: "3_pool2"
  pooling_param {
    pool: AVE
    kernel_size: 3
    stride: 2
  }
}
layer {
  name: "3_conv3"
  type: "Convolution"
  bottom: "3_pool2"
  top: "3_conv3"
  param {
    lr_mult: 1
  }
  param {
    lr_mult: 2
  }
  convolution_param {
    num_output: 64
    pad: 2
    kernel_size: 5
    stride: 1
    weight_filler {
      type: "gaussian"
      std: 0.01
    }
    bias_filler {
      type: "constant"
    }
  }
}
layer {
  name: "3_relu3"
  type: "ReLU"
  bottom: "3_conv3"
  top: "3_conv3"
}
layer {
  name: "3_pool3"
  type: "Pooling"
  bottom: "3_conv3"
  top: "3_pool3"
  pooling_param {
    pool: AVE
    kernel_size: 3
    stride: 2
  }
}
layer {
  name: "3_ip1"
  type: "InnerProduct"
  bottom: "3_pool3"
  top: "3_ip1"
  param {
    lr_mult: 1
  }
  param {
    lr_mult: 2
  }
  inner_product_param {
    num_output: 64
    weight_filler {
      type: "gaussian"
      std: 0.1
    }
    bias_filler {
      type: "constant"
    }
  }
}
layer {
  name: "3_ip2"
  type: "InnerProduct"
  bottom: "3_ip1"
  top: "3_ip2"
  param {
    lr_mult: 1
  }
  param {
    lr_mult: 2
  }
  inner_product_param {
    num_output: 10
    weight_filler {
      type: "gaussian"
      std: 0.1
    }
    bias_filler {
      type: "constant"
    }
  }
}
layer {
  name: "3_prob"
  type: "Softmax"
  bottom: "3_ip2"
  top: "3_prob"
}
layer {
  name: "4_conv1"
  type: "Convolution"
  bottom: "data"
  top: "4_conv1"
  param {
    lr_mult: 1
  }
  param {
    lr_mult: 2
  }
  convolution_param {
    num_output: 32
    pad: 2
    kernel_size: 5
    stride: 1
    weight_filler {
      type: "gaussian"
      std: 0.0001
    }
    bias_filler {
      type: "constant"
    }
  }
}
layer {
  name: "4_pool1"
  type: "Pooling"
  bottom: "4_conv1"
  top: "4_pool1"
  pooling_param {
    pool: MAX
    kernel_size: 3
    stride: 2
  }
}
layer {
  name: "4_relu1"
  type: "ReLU"
  bottom: "4_pool1"
  top: "4_pool1"
}
layer {
  name: "4_conv2"
  type: "Convolution"
  bottom: "4_pool1"
  top: "4_conv2"
  param {
    lr_mult: 1
  }
  param {
    lr_mult: 2
  }
  convolution_param {
    num_output: 32
    pad: 2
    kernel_size: 5
    stride: 1
    weight_filler {
      type: "gaussian"
      std: 0.01
    }
    bias_filler {
      type: "constant"
    }
  }
}
layer {
  name: "4_relu2"
  type: "ReLU"
  bottom: "4_conv2"
  top: "4_conv2"
}
layer {
  name: "4_pool2"
  type: "Pooling"
  bottom: "4_conv2"
  top: "4_pool2"
  pooling_param {
    pool: AVE
    kernel_size: 3
    stride: 2
  }
}
layer {
  name: "4_conv3"
  type: "Convolution"
  bottom: "4_pool2"
  top: "4_conv3"
  param {
    lr_mult: 1
  }
  param {
    lr_mult: 2
  }
  convolution_param {
    num_output: 64
    pad: 2
    kernel_size: 5
    stride: 1
    weight_filler {
      type: "gaussian"
      std: 0.01
    }
    bias_filler {
      type: "constant"
    }
  }
}
layer {
  name: "4_relu3"
  type: "ReLU"
  bottom: "4_conv3"
  top: "4_conv3"
}
layer {
  name: "4_pool3"
  type: "Pooling"
  bottom: "4_conv3"
  top: "4_pool3"
  pooling_param {
    pool: AVE
    kernel_size: 3
    stride: 2
  }
}
layer {
  name: "4_ip1"
  type: "InnerProduct"
  bottom: "4_pool3"
  top: "4_ip1"
  param {
    lr_mult: 1
  }
  param {
    lr_mult: 2
  }
  inner_product_param {
    num_output: 64
    weight_filler {
      type: "gaussian"
      std: 0.1
    }
    bias_filler {
      type: "constant"
    }
  }
}
layer {
  name: "4_ip2"
  type: "InnerProduct"
  bottom: "4_ip1"
  top: "4_ip2"
  param {
    lr_mult: 1
  }
  param {
    lr_mult: 2
  }
  inner_product_param {
    num_output: 10
    weight_filler {
      type: "gaussian"
      std: 0.1
    }
    bias_filler {
      type: "constant"
    }
  }
}
layer {
  name: "4_prob"
  type: "Softmax"
  bottom: "4_ip2"
  top: "4_prob"
}
layer {
  name: "loss"
  type: "ODMultinomialLogisticLoss"
  bottom: "1_prob"
  bottom: "2_prob"
  bottom: "3_prob"
  bottom: "4_prob"
  bottom: "label"
  top: "multiple-output loss"
  top: "batch-instance-counts"
  top: "train-instance-counts"
  loss_weight: 1
  loss_weight: 0
  loss_weight: 0
  include {
    phase: TRAIN
  }
}
I0127 06:36:26.791239  9881 layer_factory.hpp:74] Creating layer cifar
I0127 06:36:26.791257  9881 net.cpp:90] Creating Layer cifar
I0127 06:36:26.791265  9881 net.cpp:368] cifar -> data
I0127 06:36:26.791287  9881 net.cpp:368] cifar -> label
I0127 06:36:26.791298  9881 net.cpp:120] Setting up cifar
I0127 06:36:26.791357  9881 db.cpp:34] Opened lmdb /home/mike/ml_lab/mod/MCL_Caffe/examples/cifar10/cifar10_train_lmdb
I0127 06:36:26.791401  9881 data_layer.cpp:67] output data size: 350,3,32,32
I0127 06:36:26.791410  9881 data_transformer.cpp:22] Loading mean file from: /home/mike/ml_lab/mod/MCL_Caffe/examples/cifar10/mean.binaryproto
I0127 06:36:26.792019  9881 net.cpp:127] Top shape: 350 3 32 32 (1075200)
I0127 06:36:26.792031  9881 net.cpp:127] Top shape: 350 (350)
I0127 06:36:26.792037  9881 layer_factory.hpp:74] Creating layer data_cifar_0_split
I0127 06:36:26.792065  9881 net.cpp:90] Creating Layer data_cifar_0_split
I0127 06:36:26.792071  9881 net.cpp:410] data_cifar_0_split <- data
I0127 06:36:26.792083  9881 net.cpp:368] data_cifar_0_split -> data_cifar_0_split_0
I0127 06:36:26.792093  9881 net.cpp:368] data_cifar_0_split -> data_cifar_0_split_1
I0127 06:36:26.792098  9881 net.cpp:368] data_cifar_0_split -> data_cifar_0_split_2
I0127 06:36:26.792105  9881 net.cpp:368] data_cifar_0_split -> data_cifar_0_split_3
I0127 06:36:26.792110  9881 net.cpp:120] Setting up data_cifar_0_split
I0127 06:36:26.792119  9881 net.cpp:127] Top shape: 350 3 32 32 (1075200)
I0127 06:36:26.792122  9881 net.cpp:127] Top shape: 350 3 32 32 (1075200)
I0127 06:36:26.792126  9881 net.cpp:127] Top shape: 350 3 32 32 (1075200)
I0127 06:36:26.792131  9881 net.cpp:127] Top shape: 350 3 32 32 (1075200)
I0127 06:36:26.792135  9881 layer_factory.hpp:74] Creating layer 1_conv1
I0127 06:36:26.792145  9881 net.cpp:90] Creating Layer 1_conv1
I0127 06:36:26.792150  9881 net.cpp:410] 1_conv1 <- data_cifar_0_split_0
I0127 06:36:26.792155  9881 net.cpp:368] 1_conv1 -> 1_conv1
I0127 06:36:26.792165  9881 net.cpp:120] Setting up 1_conv1
I0127 06:36:26.792572  9881 net.cpp:127] Top shape: 350 32 32 32 (11468800)
I0127 06:36:26.792583  9881 layer_factory.hpp:74] Creating layer 1_pool1
I0127 06:36:26.792592  9881 net.cpp:90] Creating Layer 1_pool1
I0127 06:36:26.792596  9881 net.cpp:410] 1_pool1 <- 1_conv1
I0127 06:36:26.792601  9881 net.cpp:368] 1_pool1 -> 1_pool1
I0127 06:36:26.792609  9881 net.cpp:120] Setting up 1_pool1
I0127 06:36:26.792623  9881 net.cpp:127] Top shape: 350 32 16 16 (2867200)
I0127 06:36:26.792628  9881 layer_factory.hpp:74] Creating layer 1_relu1
I0127 06:36:26.792634  9881 net.cpp:90] Creating Layer 1_relu1
I0127 06:36:26.792637  9881 net.cpp:410] 1_relu1 <- 1_pool1
I0127 06:36:26.792642  9881 net.cpp:357] 1_relu1 -> 1_pool1 (in-place)
I0127 06:36:26.792647  9881 net.cpp:120] Setting up 1_relu1
I0127 06:36:26.792654  9881 net.cpp:127] Top shape: 350 32 16 16 (2867200)
I0127 06:36:26.792659  9881 layer_factory.hpp:74] Creating layer 1_conv2
I0127 06:36:26.792665  9881 net.cpp:90] Creating Layer 1_conv2
I0127 06:36:26.792668  9881 net.cpp:410] 1_conv2 <- 1_pool1
I0127 06:36:26.792673  9881 net.cpp:368] 1_conv2 -> 1_conv2
I0127 06:36:26.792680  9881 net.cpp:120] Setting up 1_conv2
I0127 06:36:26.793272  9881 net.cpp:127] Top shape: 350 32 16 16 (2867200)
I0127 06:36:26.793282  9881 layer_factory.hpp:74] Creating layer 1_relu2
I0127 06:36:26.793288  9881 net.cpp:90] Creating Layer 1_relu2
I0127 06:36:26.793292  9881 net.cpp:410] 1_relu2 <- 1_conv2
I0127 06:36:26.793298  9881 net.cpp:357] 1_relu2 -> 1_conv2 (in-place)
I0127 06:36:26.793303  9881 net.cpp:120] Setting up 1_relu2
I0127 06:36:26.793308  9881 net.cpp:127] Top shape: 350 32 16 16 (2867200)
I0127 06:36:26.793313  9881 layer_factory.hpp:74] Creating layer 1_pool2
I0127 06:36:26.793318  9881 net.cpp:90] Creating Layer 1_pool2
I0127 06:36:26.793321  9881 net.cpp:410] 1_pool2 <- 1_conv2
I0127 06:36:26.793326  9881 net.cpp:368] 1_pool2 -> 1_pool2
I0127 06:36:26.793332  9881 net.cpp:120] Setting up 1_pool2
I0127 06:36:26.793339  9881 net.cpp:127] Top shape: 350 32 8 8 (716800)
I0127 06:36:26.793344  9881 layer_factory.hpp:74] Creating layer 1_conv3
I0127 06:36:26.793352  9881 net.cpp:90] Creating Layer 1_conv3
I0127 06:36:26.793356  9881 net.cpp:410] 1_conv3 <- 1_pool2
I0127 06:36:26.793361  9881 net.cpp:368] 1_conv3 -> 1_conv3
I0127 06:36:26.793367  9881 net.cpp:120] Setting up 1_conv3
I0127 06:36:26.794523  9881 net.cpp:127] Top shape: 350 64 8 8 (1433600)
I0127 06:36:26.794533  9881 layer_factory.hpp:74] Creating layer 1_relu3
I0127 06:36:26.794549  9881 net.cpp:90] Creating Layer 1_relu3
I0127 06:36:26.794553  9881 net.cpp:410] 1_relu3 <- 1_conv3
I0127 06:36:26.794559  9881 net.cpp:357] 1_relu3 -> 1_conv3 (in-place)
I0127 06:36:26.794572  9881 net.cpp:120] Setting up 1_relu3
I0127 06:36:26.794577  9881 net.cpp:127] Top shape: 350 64 8 8 (1433600)
I0127 06:36:26.794581  9881 layer_factory.hpp:74] Creating layer 1_pool3
I0127 06:36:26.794594  9881 net.cpp:90] Creating Layer 1_pool3
I0127 06:36:26.794597  9881 net.cpp:410] 1_pool3 <- 1_conv3
I0127 06:36:26.794602  9881 net.cpp:368] 1_pool3 -> 1_pool3
I0127 06:36:26.794615  9881 net.cpp:120] Setting up 1_pool3
I0127 06:36:26.794623  9881 net.cpp:127] Top shape: 350 64 4 4 (358400)
I0127 06:36:26.794627  9881 layer_factory.hpp:74] Creating layer 1_ip1
I0127 06:36:26.794634  9881 net.cpp:90] Creating Layer 1_ip1
I0127 06:36:26.794638  9881 net.cpp:410] 1_ip1 <- 1_pool3
I0127 06:36:26.794643  9881 net.cpp:368] 1_ip1 -> 1_ip1
I0127 06:36:26.794651  9881 net.cpp:120] Setting up 1_ip1
I0127 06:36:26.796123  9881 net.cpp:127] Top shape: 350 64 (22400)
I0127 06:36:26.796130  9881 layer_factory.hpp:74] Creating layer 1_ip2
I0127 06:36:26.796145  9881 net.cpp:90] Creating Layer 1_ip2
I0127 06:36:26.796149  9881 net.cpp:410] 1_ip2 <- 1_ip1
I0127 06:36:26.796156  9881 net.cpp:368] 1_ip2 -> 1_ip2
I0127 06:36:26.796164  9881 net.cpp:120] Setting up 1_ip2
I0127 06:36:26.796191  9881 net.cpp:127] Top shape: 350 10 (3500)
I0127 06:36:26.796198  9881 layer_factory.hpp:74] Creating layer 1_prob
I0127 06:36:26.796206  9881 net.cpp:90] Creating Layer 1_prob
I0127 06:36:26.796211  9881 net.cpp:410] 1_prob <- 1_ip2
I0127 06:36:26.796216  9881 net.cpp:368] 1_prob -> 1_prob
I0127 06:36:26.796222  9881 net.cpp:120] Setting up 1_prob
I0127 06:36:26.796232  9881 net.cpp:127] Top shape: 350 10 (3500)
I0127 06:36:26.796236  9881 layer_factory.hpp:74] Creating layer 2_conv1
I0127 06:36:26.796243  9881 net.cpp:90] Creating Layer 2_conv1
I0127 06:36:26.796247  9881 net.cpp:410] 2_conv1 <- data_cifar_0_split_1
I0127 06:36:26.796252  9881 net.cpp:368] 2_conv1 -> 2_conv1
I0127 06:36:26.796258  9881 net.cpp:120] Setting up 2_conv1
I0127 06:36:26.796326  9881 net.cpp:127] Top shape: 350 32 32 32 (11468800)
I0127 06:36:26.796332  9881 layer_factory.hpp:74] Creating layer 2_pool1
I0127 06:36:26.796340  9881 net.cpp:90] Creating Layer 2_pool1
I0127 06:36:26.796344  9881 net.cpp:410] 2_pool1 <- 2_conv1
I0127 06:36:26.796350  9881 net.cpp:368] 2_pool1 -> 2_pool1
I0127 06:36:26.796356  9881 net.cpp:120] Setting up 2_pool1
I0127 06:36:26.796365  9881 net.cpp:127] Top shape: 350 32 16 16 (2867200)
I0127 06:36:26.796370  9881 layer_factory.hpp:74] Creating layer 2_relu1
I0127 06:36:26.796375  9881 net.cpp:90] Creating Layer 2_relu1
I0127 06:36:26.796378  9881 net.cpp:410] 2_relu1 <- 2_pool1
I0127 06:36:26.796383  9881 net.cpp:357] 2_relu1 -> 2_pool1 (in-place)
I0127 06:36:26.796388  9881 net.cpp:120] Setting up 2_relu1
I0127 06:36:26.796402  9881 net.cpp:127] Top shape: 350 32 16 16 (2867200)
I0127 06:36:26.796406  9881 layer_factory.hpp:74] Creating layer 2_conv2
I0127 06:36:26.796414  9881 net.cpp:90] Creating Layer 2_conv2
I0127 06:36:26.796418  9881 net.cpp:410] 2_conv2 <- 2_pool1
I0127 06:36:26.796424  9881 net.cpp:368] 2_conv2 -> 2_conv2
I0127 06:36:26.796432  9881 net.cpp:120] Setting up 2_conv2
I0127 06:36:26.797011  9881 net.cpp:127] Top shape: 350 32 16 16 (2867200)
I0127 06:36:26.797019  9881 layer_factory.hpp:74] Creating layer 2_relu2
I0127 06:36:26.797034  9881 net.cpp:90] Creating Layer 2_relu2
I0127 06:36:26.797037  9881 net.cpp:410] 2_relu2 <- 2_conv2
I0127 06:36:26.797042  9881 net.cpp:357] 2_relu2 -> 2_conv2 (in-place)
I0127 06:36:26.797047  9881 net.cpp:120] Setting up 2_relu2
I0127 06:36:26.797053  9881 net.cpp:127] Top shape: 350 32 16 16 (2867200)
I0127 06:36:26.797058  9881 layer_factory.hpp:74] Creating layer 2_pool2
I0127 06:36:26.797065  9881 net.cpp:90] Creating Layer 2_pool2
I0127 06:36:26.797075  9881 net.cpp:410] 2_pool2 <- 2_conv2
I0127 06:36:26.797080  9881 net.cpp:368] 2_pool2 -> 2_pool2
I0127 06:36:26.797086  9881 net.cpp:120] Setting up 2_pool2
I0127 06:36:26.797094  9881 net.cpp:127] Top shape: 350 32 8 8 (716800)
I0127 06:36:26.797098  9881 layer_factory.hpp:74] Creating layer 2_conv3
I0127 06:36:26.797104  9881 net.cpp:90] Creating Layer 2_conv3
I0127 06:36:26.797108  9881 net.cpp:410] 2_conv3 <- 2_pool2
I0127 06:36:26.797116  9881 net.cpp:368] 2_conv3 -> 2_conv3
I0127 06:36:26.797122  9881 net.cpp:120] Setting up 2_conv3
I0127 06:36:26.798285  9881 net.cpp:127] Top shape: 350 64 8 8 (1433600)
I0127 06:36:26.798293  9881 layer_factory.hpp:74] Creating layer 2_relu3
I0127 06:36:26.798298  9881 net.cpp:90] Creating Layer 2_relu3
I0127 06:36:26.798310  9881 net.cpp:410] 2_relu3 <- 2_conv3
I0127 06:36:26.798316  9881 net.cpp:357] 2_relu3 -> 2_conv3 (in-place)
I0127 06:36:26.798321  9881 net.cpp:120] Setting up 2_relu3
I0127 06:36:26.798327  9881 net.cpp:127] Top shape: 350 64 8 8 (1433600)
I0127 06:36:26.798332  9881 layer_factory.hpp:74] Creating layer 2_pool3
I0127 06:36:26.798339  9881 net.cpp:90] Creating Layer 2_pool3
I0127 06:36:26.798342  9881 net.cpp:410] 2_pool3 <- 2_conv3
I0127 06:36:26.798347  9881 net.cpp:368] 2_pool3 -> 2_pool3
I0127 06:36:26.798353  9881 net.cpp:120] Setting up 2_pool3
I0127 06:36:26.798362  9881 net.cpp:127] Top shape: 350 64 4 4 (358400)
I0127 06:36:26.798365  9881 layer_factory.hpp:74] Creating layer 2_ip1
I0127 06:36:26.798373  9881 net.cpp:90] Creating Layer 2_ip1
I0127 06:36:26.798377  9881 net.cpp:410] 2_ip1 <- 2_pool3
I0127 06:36:26.798382  9881 net.cpp:368] 2_ip1 -> 2_ip1
I0127 06:36:26.798388  9881 net.cpp:120] Setting up 2_ip1
I0127 06:36:26.799857  9881 net.cpp:127] Top shape: 350 64 (22400)
I0127 06:36:26.799867  9881 layer_factory.hpp:74] Creating layer 2_ip2
I0127 06:36:26.799875  9881 net.cpp:90] Creating Layer 2_ip2
I0127 06:36:26.799880  9881 net.cpp:410] 2_ip2 <- 2_ip1
I0127 06:36:26.799885  9881 net.cpp:368] 2_ip2 -> 2_ip2
I0127 06:36:26.799891  9881 net.cpp:120] Setting up 2_ip2
I0127 06:36:26.799919  9881 net.cpp:127] Top shape: 350 10 (3500)
I0127 06:36:26.799926  9881 layer_factory.hpp:74] Creating layer 2_prob
I0127 06:36:26.799932  9881 net.cpp:90] Creating Layer 2_prob
I0127 06:36:26.799937  9881 net.cpp:410] 2_prob <- 2_ip2
I0127 06:36:26.799952  9881 net.cpp:368] 2_prob -> 2_prob
I0127 06:36:26.799957  9881 net.cpp:120] Setting up 2_prob
I0127 06:36:26.799964  9881 net.cpp:127] Top shape: 350 10 (3500)
I0127 06:36:26.799968  9881 layer_factory.hpp:74] Creating layer 3_conv1
I0127 06:36:26.799974  9881 net.cpp:90] Creating Layer 3_conv1
I0127 06:36:26.799978  9881 net.cpp:410] 3_conv1 <- data_cifar_0_split_2
I0127 06:36:26.799985  9881 net.cpp:368] 3_conv1 -> 3_conv1
I0127 06:36:26.799991  9881 net.cpp:120] Setting up 3_conv1
I0127 06:36:26.800058  9881 net.cpp:127] Top shape: 350 32 32 32 (11468800)
I0127 06:36:26.800065  9881 layer_factory.hpp:74] Creating layer 3_pool1
I0127 06:36:26.800072  9881 net.cpp:90] Creating Layer 3_pool1
I0127 06:36:26.800077  9881 net.cpp:410] 3_pool1 <- 3_conv1
I0127 06:36:26.800081  9881 net.cpp:368] 3_pool1 -> 3_pool1
I0127 06:36:26.800088  9881 net.cpp:120] Setting up 3_pool1
I0127 06:36:26.800096  9881 net.cpp:127] Top shape: 350 32 16 16 (2867200)
I0127 06:36:26.800099  9881 layer_factory.hpp:74] Creating layer 3_relu1
I0127 06:36:26.800104  9881 net.cpp:90] Creating Layer 3_relu1
I0127 06:36:26.800108  9881 net.cpp:410] 3_relu1 <- 3_pool1
I0127 06:36:26.800113  9881 net.cpp:357] 3_relu1 -> 3_pool1 (in-place)
I0127 06:36:26.800118  9881 net.cpp:120] Setting up 3_relu1
I0127 06:36:26.800124  9881 net.cpp:127] Top shape: 350 32 16 16 (2867200)
I0127 06:36:26.800128  9881 layer_factory.hpp:74] Creating layer 3_conv2
I0127 06:36:26.800134  9881 net.cpp:90] Creating Layer 3_conv2
I0127 06:36:26.800138  9881 net.cpp:410] 3_conv2 <- 3_pool1
I0127 06:36:26.800145  9881 net.cpp:368] 3_conv2 -> 3_conv2
I0127 06:36:26.800151  9881 net.cpp:120] Setting up 3_conv2
I0127 06:36:26.800731  9881 net.cpp:127] Top shape: 350 32 16 16 (2867200)
I0127 06:36:26.800746  9881 layer_factory.hpp:74] Creating layer 3_relu2
I0127 06:36:26.800760  9881 net.cpp:90] Creating Layer 3_relu2
I0127 06:36:26.800765  9881 net.cpp:410] 3_relu2 <- 3_conv2
I0127 06:36:26.800770  9881 net.cpp:357] 3_relu2 -> 3_conv2 (in-place)
I0127 06:36:26.800775  9881 net.cpp:120] Setting up 3_relu2
I0127 06:36:26.800781  9881 net.cpp:127] Top shape: 350 32 16 16 (2867200)
I0127 06:36:26.800786  9881 layer_factory.hpp:74] Creating layer 3_pool2
I0127 06:36:26.800791  9881 net.cpp:90] Creating Layer 3_pool2
I0127 06:36:26.800796  9881 net.cpp:410] 3_pool2 <- 3_conv2
I0127 06:36:26.800801  9881 net.cpp:368] 3_pool2 -> 3_pool2
I0127 06:36:26.800806  9881 net.cpp:120] Setting up 3_pool2
I0127 06:36:26.800815  9881 net.cpp:127] Top shape: 350 32 8 8 (716800)
I0127 06:36:26.800819  9881 layer_factory.hpp:74] Creating layer 3_conv3
I0127 06:36:26.800827  9881 net.cpp:90] Creating Layer 3_conv3
I0127 06:36:26.800830  9881 net.cpp:410] 3_conv3 <- 3_pool2
I0127 06:36:26.800837  9881 net.cpp:368] 3_conv3 -> 3_conv3
I0127 06:36:26.800843  9881 net.cpp:120] Setting up 3_conv3
I0127 06:36:26.801996  9881 net.cpp:127] Top shape: 350 64 8 8 (1433600)
I0127 06:36:26.802004  9881 layer_factory.hpp:74] Creating layer 3_relu3
I0127 06:36:26.802009  9881 net.cpp:90] Creating Layer 3_relu3
I0127 06:36:26.802022  9881 net.cpp:410] 3_relu3 <- 3_conv3
I0127 06:36:26.802027  9881 net.cpp:357] 3_relu3 -> 3_conv3 (in-place)
I0127 06:36:26.802032  9881 net.cpp:120] Setting up 3_relu3
I0127 06:36:26.802038  9881 net.cpp:127] Top shape: 350 64 8 8 (1433600)
I0127 06:36:26.802043  9881 layer_factory.hpp:74] Creating layer 3_pool3
I0127 06:36:26.802048  9881 net.cpp:90] Creating Layer 3_pool3
I0127 06:36:26.802052  9881 net.cpp:410] 3_pool3 <- 3_conv3
I0127 06:36:26.802059  9881 net.cpp:368] 3_pool3 -> 3_pool3
I0127 06:36:26.802065  9881 net.cpp:120] Setting up 3_pool3
I0127 06:36:26.802073  9881 net.cpp:127] Top shape: 350 64 4 4 (358400)
I0127 06:36:26.802078  9881 layer_factory.hpp:74] Creating layer 3_ip1
I0127 06:36:26.802083  9881 net.cpp:90] Creating Layer 3_ip1
I0127 06:36:26.802088  9881 net.cpp:410] 3_ip1 <- 3_pool3
I0127 06:36:26.802093  9881 net.cpp:368] 3_ip1 -> 3_ip1
I0127 06:36:26.802100  9881 net.cpp:120] Setting up 3_ip1
I0127 06:36:26.803570  9881 net.cpp:127] Top shape: 350 64 (22400)
I0127 06:36:26.803577  9881 layer_factory.hpp:74] Creating layer 3_ip2
I0127 06:36:26.803594  9881 net.cpp:90] Creating Layer 3_ip2
I0127 06:36:26.803598  9881 net.cpp:410] 3_ip2 <- 3_ip1
I0127 06:36:26.803604  9881 net.cpp:368] 3_ip2 -> 3_ip2
I0127 06:36:26.803617  9881 net.cpp:120] Setting up 3_ip2
I0127 06:36:26.803645  9881 net.cpp:127] Top shape: 350 10 (3500)
I0127 06:36:26.803652  9881 layer_factory.hpp:74] Creating layer 3_prob
I0127 06:36:26.803658  9881 net.cpp:90] Creating Layer 3_prob
I0127 06:36:26.803663  9881 net.cpp:410] 3_prob <- 3_ip2
I0127 06:36:26.803668  9881 net.cpp:368] 3_prob -> 3_prob
I0127 06:36:26.803676  9881 net.cpp:120] Setting up 3_prob
I0127 06:36:26.803684  9881 net.cpp:127] Top shape: 350 10 (3500)
I0127 06:36:26.803689  9881 layer_factory.hpp:74] Creating layer 4_conv1
I0127 06:36:26.803694  9881 net.cpp:90] Creating Layer 4_conv1
I0127 06:36:26.803699  9881 net.cpp:410] 4_conv1 <- data_cifar_0_split_3
I0127 06:36:26.803705  9881 net.cpp:368] 4_conv1 -> 4_conv1
I0127 06:36:26.803711  9881 net.cpp:120] Setting up 4_conv1
I0127 06:36:26.803778  9881 net.cpp:127] Top shape: 350 32 32 32 (11468800)
I0127 06:36:26.803786  9881 layer_factory.hpp:74] Creating layer 4_pool1
I0127 06:36:26.803792  9881 net.cpp:90] Creating Layer 4_pool1
I0127 06:36:26.803797  9881 net.cpp:410] 4_pool1 <- 4_conv1
I0127 06:36:26.803802  9881 net.cpp:368] 4_pool1 -> 4_pool1
I0127 06:36:26.803807  9881 net.cpp:120] Setting up 4_pool1
I0127 06:36:26.803815  9881 net.cpp:127] Top shape: 350 32 16 16 (2867200)
I0127 06:36:26.803819  9881 layer_factory.hpp:74] Creating layer 4_relu1
I0127 06:36:26.803824  9881 net.cpp:90] Creating Layer 4_relu1
I0127 06:36:26.803828  9881 net.cpp:410] 4_relu1 <- 4_pool1
I0127 06:36:26.803840  9881 net.cpp:357] 4_relu1 -> 4_pool1 (in-place)
I0127 06:36:26.803848  9881 net.cpp:120] Setting up 4_relu1
I0127 06:36:26.803853  9881 net.cpp:127] Top shape: 350 32 16 16 (2867200)
I0127 06:36:26.803858  9881 layer_factory.hpp:74] Creating layer 4_conv2
I0127 06:36:26.803864  9881 net.cpp:90] Creating Layer 4_conv2
I0127 06:36:26.803867  9881 net.cpp:410] 4_conv2 <- 4_pool1
I0127 06:36:26.803874  9881 net.cpp:368] 4_conv2 -> 4_conv2
I0127 06:36:26.803880  9881 net.cpp:120] Setting up 4_conv2
I0127 06:36:26.804458  9881 net.cpp:127] Top shape: 350 32 16 16 (2867200)
I0127 06:36:26.804469  9881 layer_factory.hpp:74] Creating layer 4_relu2
I0127 06:36:26.804476  9881 net.cpp:90] Creating Layer 4_relu2
I0127 06:36:26.804488  9881 net.cpp:410] 4_relu2 <- 4_conv2
I0127 06:36:26.804493  9881 net.cpp:357] 4_relu2 -> 4_conv2 (in-place)
I0127 06:36:26.804507  9881 net.cpp:120] Setting up 4_relu2
I0127 06:36:26.804512  9881 net.cpp:127] Top shape: 350 32 16 16 (2867200)
I0127 06:36:26.804517  9881 layer_factory.hpp:74] Creating layer 4_pool2
I0127 06:36:26.804529  9881 net.cpp:90] Creating Layer 4_pool2
I0127 06:36:26.804533  9881 net.cpp:410] 4_pool2 <- 4_conv2
I0127 06:36:26.804538  9881 net.cpp:368] 4_pool2 -> 4_pool2
I0127 06:36:26.804551  9881 net.cpp:120] Setting up 4_pool2
I0127 06:36:26.804558  9881 net.cpp:127] Top shape: 350 32 8 8 (716800)
I0127 06:36:26.804569  9881 layer_factory.hpp:74] Creating layer 4_conv3
I0127 06:36:26.804576  9881 net.cpp:90] Creating Layer 4_conv3
I0127 06:36:26.804580  9881 net.cpp:410] 4_conv3 <- 4_pool2
I0127 06:36:26.804589  9881 net.cpp:368] 4_conv3 -> 4_conv3
I0127 06:36:26.804595  9881 net.cpp:120] Setting up 4_conv3
I0127 06:36:26.805752  9881 net.cpp:127] Top shape: 350 64 8 8 (1433600)
I0127 06:36:26.805759  9881 layer_factory.hpp:74] Creating layer 4_relu3
I0127 06:36:26.805764  9881 net.cpp:90] Creating Layer 4_relu3
I0127 06:36:26.805778  9881 net.cpp:410] 4_relu3 <- 4_conv3
I0127 06:36:26.805783  9881 net.cpp:357] 4_relu3 -> 4_conv3 (in-place)
I0127 06:36:26.805788  9881 net.cpp:120] Setting up 4_relu3
I0127 06:36:26.805794  9881 net.cpp:127] Top shape: 350 64 8 8 (1433600)
I0127 06:36:26.805799  9881 layer_factory.hpp:74] Creating layer 4_pool3
I0127 06:36:26.805814  9881 net.cpp:90] Creating Layer 4_pool3
I0127 06:36:26.805817  9881 net.cpp:410] 4_pool3 <- 4_conv3
I0127 06:36:26.805822  9881 net.cpp:368] 4_pool3 -> 4_pool3
I0127 06:36:26.805835  9881 net.cpp:120] Setting up 4_pool3
I0127 06:36:26.805842  9881 net.cpp:127] Top shape: 350 64 4 4 (358400)
I0127 06:36:26.805852  9881 layer_factory.hpp:74] Creating layer 4_ip1
I0127 06:36:26.805860  9881 net.cpp:90] Creating Layer 4_ip1
I0127 06:36:26.805866  9881 net.cpp:410] 4_ip1 <- 4_pool3
I0127 06:36:26.805871  9881 net.cpp:368] 4_ip1 -> 4_ip1
I0127 06:36:26.805878  9881 net.cpp:120] Setting up 4_ip1
I0127 06:36:26.807348  9881 net.cpp:127] Top shape: 350 64 (22400)
I0127 06:36:26.807355  9881 layer_factory.hpp:74] Creating layer 4_ip2
I0127 06:36:26.807363  9881 net.cpp:90] Creating Layer 4_ip2
I0127 06:36:26.807366  9881 net.cpp:410] 4_ip2 <- 4_ip1
I0127 06:36:26.807371  9881 net.cpp:368] 4_ip2 -> 4_ip2
I0127 06:36:26.807377  9881 net.cpp:120] Setting up 4_ip2
I0127 06:36:26.807404  9881 net.cpp:127] Top shape: 350 10 (3500)
I0127 06:36:26.807410  9881 layer_factory.hpp:74] Creating layer 4_prob
I0127 06:36:26.807417  9881 net.cpp:90] Creating Layer 4_prob
I0127 06:36:26.807421  9881 net.cpp:410] 4_prob <- 4_ip2
I0127 06:36:26.807426  9881 net.cpp:368] 4_prob -> 4_prob
I0127 06:36:26.807432  9881 net.cpp:120] Setting up 4_prob
I0127 06:36:26.807440  9881 net.cpp:127] Top shape: 350 10 (3500)
I0127 06:36:26.807443  9881 layer_factory.hpp:74] Creating layer loss
I0127 06:36:26.807452  9881 net.cpp:90] Creating Layer loss
I0127 06:36:26.807456  9881 net.cpp:410] loss <- 1_prob
I0127 06:36:26.807461  9881 net.cpp:410] loss <- 2_prob
I0127 06:36:26.807464  9881 net.cpp:410] loss <- 3_prob
I0127 06:36:26.807468  9881 net.cpp:410] loss <- 4_prob
I0127 06:36:26.807472  9881 net.cpp:410] loss <- label
I0127 06:36:26.807488  9881 net.cpp:368] loss -> multiple-output loss
I0127 06:36:26.807497  9881 net.cpp:368] loss -> batch-instance-counts
I0127 06:36:26.807504  9881 net.cpp:368] loss -> train-instance-counts
I0127 06:36:26.807513  9881 net.cpp:120] Setting up loss
I0127 06:36:26.807525  9881 net.cpp:127] Top shape: 4 1 1 1 (4)
I0127 06:36:26.807529  9881 net.cpp:129]     with loss weight 1
I0127 06:36:26.807546  9881 net.cpp:127] Top shape: 4 1 1 1 (4)
I0127 06:36:26.807551  9881 net.cpp:127] Top shape: 4 1 1 1 (4)
I0127 06:36:26.807555  9881 net.cpp:192] loss needs backward computation.
I0127 06:36:26.807559  9881 net.cpp:192] 4_prob needs backward computation.
I0127 06:36:26.807564  9881 net.cpp:192] 4_ip2 needs backward computation.
I0127 06:36:26.807566  9881 net.cpp:192] 4_ip1 needs backward computation.
I0127 06:36:26.807569  9881 net.cpp:192] 4_pool3 needs backward computation.
I0127 06:36:26.807574  9881 net.cpp:192] 4_relu3 needs backward computation.
…
I0127 06:36:26.808614  9881 net.cpp:287] The NetState phase (1) differed from the phase (0) specified by a rule in layer loss
I0127 06:36:26.808789  9881 net.cpp:42] Initializing net from parameters: 
name: "CIFAR10_quick"
state {
  phase: TEST
}
layer {
  name: "cifar"
  type: "Data"
  top: "data"
  top: "label"
  include {
    phase: TEST
  }
  transform_param {
    mean_file: "/home/mike/ml_lab/mod/MCL_Caffe/examples/cifar10/mean.binaryproto"
  }
  data_param {
    source: "/home/mike/ml_lab/mod/MCL_Caffe/examples/cifar10/cifar10_test_lmdb"
    batch_size: 100
    backend: LMDB
  }
}
layer {
  name: "1_conv1"
  type: "Convolution"
  bottom: "data"
  top: "1_conv1"
  param {
    lr_mult: 1
  }
  param {
    lr_mult: 2
  }
  convolution_param {
    num_output: 32
    pad: 2
    kernel_size: 5
    stride: 1
    weight_filler {
      type: "gaussian"
      std: 0.0001
    }
    bias_filler {
      type: "constant"
    }
  }
}
layer {
  name: "1_pool1"
  type: "Pooling"
  bottom: "1_conv1"
  top: "1_pool1"
  pooling_param {
    pool: MAX
    kernel_size: 3
    stride: 2
  }
}
layer {
  name: "1_relu1"
  type: "ReLU"
  bottom: "1_pool1"
  top: "1_pool1"
}
layer {
  name: "1_conv2"
  type: "Convolution"
  bottom: "1_pool1"
  top: "1_conv2"
  param {
    lr_mult: 1
  }
  param {
    lr_mult: 2
  }
  convolution_param {
    num_output: 32
    pad: 2
    kernel_size: 5
    stride: 1
    weight_filler {
      type: "gaussian"
      std: 0.01
    }
    bias_filler {
      type: "constant"
    }
  }
}
layer {
  name: "1_relu2"
  type: "ReLU"
  bottom: "1_conv2"
  top: "1_conv2"
}
layer {
  name: "1_pool2"
  type: "Pooling"
  bottom: "1_conv2"
  top: "1_pool2"
  pooling_param {
    pool: AVE
    kernel_size: 3
    stride: 2
  }
}
layer {
  name: "1_conv3"
  type: "Convolution"
  bottom: "1_pool2"
  top: "1_conv3"
  param {
    lr_mult: 1
  }
  param {
    lr_mult: 2
  }
  convolution_param {
    num_output: 64
    pad: 2
    kernel_size: 5
    stride: 1
    weight_filler {
      type: "gaussian"
      std: 0.01
    }
    bias_filler {
      type: "constant"
    }
  }
}
layer {
  name: "1_relu3"
  type: "ReLU"
  bottom: "1_conv3"
  top: "1_conv3"
}
layer {
  name: "1_pool3"
  type: "Pooling"
  bottom: "1_conv3"
  top: "1_pool3"
  pooling_param {
    pool: AVE
    kernel_size: 3
    stride: 2
  }
}
layer {
  name: "1_ip1"
  type: "InnerProduct"
  bottom: "1_pool3"
  top: "1_ip1"
  param {
    lr_mult: 1
  }
  param {
    lr_mult: 2
  }
  inner_product_param {
    num_output: 64
    weight_filler {
      type: "gaussian"
      std: 0.1
    }
    bias_filler {
      type: "constant"
    }
  }
}
layer {
  name: "1_ip2"
  type: "InnerProduct"
  bottom: "1_ip1"
  top: "1_ip2"
  param {
    lr_mult: 1
  }
  param {
    lr_mult: 2
  }
  inner_product_param {
    num_output: 10
    weight_filler {
      type: "gaussian"
      std: 0.1
    }
    bias_filler {
      type: "constant"
    }
  }
}
layer {
  name: "1_prob"
  type: "Softmax"
  bottom: "1_ip2"
  top: "1_prob"
}
layer {
  name: "2_conv1"
  type: "Convolution"
  bottom: "data"
  top: "2_conv1"
  param {
    lr_mult: 1
  }
  param {
    lr_mult: 2
  }
  convolution_param {
    num_output: 32
    pad: 2
    kernel_size: 5
    stride: 1
    weight_filler {
      type: "gaussian"
      std: 0.0001
    }
    bias_filler {
      type: "constant"
    }
  }
}
layer {
  name: "2_pool1"
  type: "Pooling"
  bottom: "2_conv1"
  top: "2_pool1"
  pooling_param {
    pool: MAX
    kernel_size: 3
    stride: 2
  }
}
layer {
  name: "2_relu1"
  type: "ReLU"
  bottom: "2_pool1"
  top: "2_pool1"
}
layer {
  name: "2_conv2"
  type: "Convolution"
  bottom: "2_pool1"
  top: "2_conv2"
  param {
    lr_mult: 1
  }
  param {
    lr_mult: 2
  }
  convolution_param {
    num_output: 32
    pad: 2
    kernel_size: 5
    stride: 1
    weight_filler {
      type: "gaussian"
      std: 0.01
    }
    bias_filler {
      type: "constant"
    }
  }
}
layer {
  name: "2_relu2"
  type: "ReLU"
  bottom: "2_conv2"
  top: "2_conv2"
}
layer {
  name: "2_pool2"
  type: "Pooling"
  bottom: "2_conv2"
  top: "2_pool2"
  pooling_param {
    pool: AVE
    kernel_size: 3
    stride: 2
  }
}
layer {
  name: "2_conv3"
  type: "Convolution"
  bottom: "2_pool2"
  top: "2_conv3"
  param {
    lr_mult: 1
  }
  param {
    lr_mult: 2
  }
  convolution_param {
    num_output: 64
    pad: 2
    kernel_size: 5
    stride: 1
    weight_filler {
      type: "gaussian"
      std: 0.01
    }
    bias_filler {
      type: "constant"
    }
  }
}
layer {
  name: "2_relu3"
  type: "ReLU"
  bottom: "2_conv3"
  top: "2_conv3"
}
layer {
  name: "2_pool3"
  type: "Pooling"
  bottom: "2_conv3"
  top: "2_pool3"
  pooling_param {
    pool: AVE
    kernel_size: 3
    stride: 2
  }
}
layer {
  name: "2_ip1"
  type: "InnerProduct"
  bottom: "2_pool3"
  top: "2_ip1"
  param {
    lr_mult: 1
  }
  param {
    lr_mult: 2
  }
  inner_product_param {
    num_output: 64
    weight_filler {
      type: "gaussian"
      std: 0.1
    }
    bias_filler {
      type: "constant"
    }
  }
}
layer {
  name: "2_ip2"
  type: "InnerProduct"
  bottom: "2_ip1"
  top: "2_ip2"
  param {
    lr_mult: 1
  }
  param {
    lr_mult: 2
  }
  inner_product_param {
    num_output: 10
    weight_filler {
      type: "gaussian"
      std: 0.1
    }
    bias_filler {
      type: "constant"
    }
  }
}
layer {
  name: "2_prob"
  type: "Softmax"
  bottom: "2_ip2"
  top: "2_prob"
}
layer {
  name: "3_conv1"
  type: "Convolution"
  bottom: "data"
  top: "3_conv1"
  param {
    lr_mult: 1
  }
  param {
    lr_mult: 2
  }
  convolution_param {
    num_output: 32
    pad: 2
    kernel_size: 5
    stride: 1
    weight_filler {
      type: "gaussian"
      std: 0.0001
    }
    bias_filler {
      type: "constant"
    }
  }
}
layer {
  name: "3_pool1"
  type: "Pooling"
  bottom: "3_conv1"
  top: "3_pool1"
  pooling_param {
    pool: MAX
    kernel_size: 3
    stride: 2
  }
}
layer {
  name: "3_relu1"
  type: "ReLU"
  bottom: "3_pool1"
  top: "3_pool1"
}
layer {
  name: "3_conv2"
  type: "Convolution"
  bottom: "3_pool1"
  top: "3_conv2"
  param {
    lr_mult: 1
  }
  param {
    lr_mult: 2
  }
  convolution_param {
    num_output: 32
    pad: 2
    kernel_size: 5
    stride: 1
    weight_filler {
      type: "gaussian"
      std: 0.01
    }
    bias_filler {
      type: "constant"
    }
  }
}
layer {
  name: "3_relu2"
  type: "ReLU"
  bottom: "3_conv2"
  top: "3_conv2"
}
layer {
  name: "3_pool2"
  type: "Pooling"
  bottom: "3_conv2"
  top: "3_pool2"
  pooling_param {
    pool: AVE
    kernel_size: 3
    stride: 2
  }
}
layer {
  name: "3_conv3"
  type: "Convolution"
  bottom: "3_pool2"
  top: "3_conv3"
  param {
    lr_mult: 1
  }
  param {
    lr_mult: 2
  }
  convolution_param {
    num_output: 64
    pad: 2
    kernel_size: 5
    stride: 1
    weight_filler {
      type: "gaussian"
      std: 0.01
    }
    bias_filler {
      type: "constant"
    }
  }
}
layer {
  name: "3_relu3"
  type: "ReLU"
  bottom: "3_conv3"
  top: "3_conv3"
}
layer {
  name: "3_pool3"
  type: "Pooling"
  bottom: "3_conv3"
  top: "3_pool3"
  pooling_param {
    pool: AVE
    kernel_size: 3
    stride: 2
  }
}
layer {
  name: "3_ip1"
  type: "InnerProduct"
  bottom: "3_pool3"
  top: "3_ip1"
  param {
    lr_mult: 1
  }
  param {
    lr_mult: 2
  }
  inner_product_param {
    num_output: 64
    weight_filler {
      type: "gaussian"
      std: 0.1
    }
    bias_filler {
      type: "constant"
    }
  }
}
layer {
  name: "3_ip2"
  type: "InnerProduct"
  bottom: "3_ip1"
  top: "3_ip2"
  param {
    lr_mult: 1
  }
  param {
    lr_mult: 2
  }
  inner_product_param {
    num_output: 10
    weight_filler {
      type: "gaussian"
      std: 0.1
    }
    bias_filler {
      type: "constant"
    }
  }
}
layer {
  name: "3_prob"
  type: "Softmax"
  bottom: "3_ip2"
  top: "3_prob"
}
layer {
  name: "4_conv1"
  type: "Convolution"
  bottom: "data"
  top: "4_conv1"
  param {
    lr_mult: 1
  }
  param {
    lr_mult: 2
  }
  convolution_param {
    num_output: 32
    pad: 2
    kernel_size: 5
    stride: 1
    weight_filler {
      type: "gaussian"
      std: 0.0001
    }
    bias_filler {
      type: "constant"
    }
  }
}
layer {
  name: "4_pool1"
  type: "Pooling"
  bottom: "4_conv1"
  top: "4_pool1"
  pooling_param {
    pool: MAX
    kernel_size: 3
    stride: 2
  }
}
layer {
  name: "4_relu1"
  type: "ReLU"
  bottom: "4_pool1"
  top: "4_pool1"
}
layer {
  name: "4_conv2"
  type: "Convolution"
  bottom: "4_pool1"
  top: "4_conv2"
  param {
    lr_mult: 1
  }
  param {
    lr_mult: 2
  }
  convolution_param {
    num_output: 32
    pad: 2
    kernel_size: 5
    stride: 1
    weight_filler {
      type: "gaussian"
      std: 0.01
    }
    bias_filler {
      type: "constant"
    }
  }
}
layer {
  name: "4_relu2"
  type: "ReLU"
  bottom: "4_conv2"
  top: "4_conv2"
}
layer {
  name: "4_pool2"
  type: "Pooling"
  bottom: "4_conv2"
  top: "4_pool2"
  pooling_param {
    pool: AVE
    kernel_size: 3
    stride: 2
  }
}
layer {
  name: "4_conv3"
  type: "Convolution"
  bottom: "4_pool2"
  top: "4_conv3"
  param {
    lr_mult: 1
  }
  param {
    lr_mult: 2
  }
  convolution_param {
    num_output: 64
    pad: 2
    kernel_size: 5
    stride: 1
    weight_filler {
      type: "gaussian"
      std: 0.01
    }
    bias_filler {
      type: "constant"
    }
  }
}
layer {
  name: "4_relu3"
  type: "ReLU"
  bottom: "4_conv3"
  top: "4_conv3"
}
layer {
  name: "4_pool3"
  type: "Pooling"
  bottom: "4_conv3"
  top: "4_pool3"
  pooling_param {
    pool: AVE
    kernel_size: 3
    stride: 2
  }
}
layer {
  name: "4_ip1"
  type: "InnerProduct"
  bottom: "4_pool3"
  top: "4_ip1"
  param {
    lr_mult: 1
  }
  param {
    lr_mult: 2
  }
  inner_product_param {
    num_output: 64
    weight_filler {
      type: "gaussian"
      std: 0.1
    }
    bias_filler {
      type: "constant"
    }
  }
}
layer {
  name: "4_ip2"
  type: "InnerProduct"
  bottom: "4_ip1"
  top: "4_ip2"
  param {
    lr_mult: 1
  }
  param {
    lr_mult: 2
  }
  inner_product_param {
    num_output: 10
    weight_filler {
      type: "gaussian"
      std: 0.1
    }
    bias_filler {
      type: "constant"
    }
  }
}
layer {
  name: "4_prob"
  type: "Softmax"
  bottom: "4_ip2"
  top: "4_prob"
}
layer {
  name: "1_accuracy"
  type: "Accuracy"
  bottom: "1_prob"
  bottom: "label"
  top: "1_accuracy"
  include {
    phase: TEST
  }
}
layer {
  name: "2_accuracy"
  type: "Accuracy"
  bottom: "2_prob"
  bottom: "label"
  top: "2_accuracy"
  include {
    phase: TEST
  }
}
layer {
  name: "3_accuracy"
  type: "Accuracy"
  bottom: "3_prob"
  bottom: "label"
  top: "3_accuracy"
  include {
    phase: TEST
  }
}
layer {
  name: "4_accuracy"
  type: "Accuracy"
  bottom: "4_prob"
  bottom: "label"
  top: "4_accuracy"
  include {
    phase: TEST
  }
}
layer {
  name: "accuracy"
  type: "OracleAccuracy"
  bottom: "1_prob"
  bottom: "2_prob"
  bottom: "3_prob"
  bottom: "4_prob"
  bottom: "label"
  top: "oracle accuracy"
  include {
    phase: TEST
  }
}
I0127 06:36:26.809031  9881 layer_factory.hpp:74] Creating layer cifar
I0127 06:36:26.809046  9881 net.cpp:90] Creating Layer cifar
I0127 06:36:26.809051  9881 net.cpp:368] cifar -> data
I0127 06:36:26.809058  9881 net.cpp:368] cifar -> label
I0127 06:36:26.809065  9881 net.cpp:120] Setting up cifar
I0127 06:36:26.809094  9881 db.cpp:34] Opened lmdb /home/mike/ml_lab/mod/MCL_Caffe/examples/cifar10/cifar10_test_lmdb
I0127 06:36:26.809120  9881 data_layer.cpp:67] output data size: 100,3,32,32
I0127 06:36:26.809130  9881 data_transformer.cpp:22] Loading mean file from: /home/mike/ml_lab/mod/MCL_Caffe/examples/cifar10/mean.binaryproto
I0127 06:36:26.809520  9881 net.cpp:127] Top shape: 100 3 32 32 (307200)
I0127 06:36:26.809527  9881 net.cpp:127] Top shape: 100 (100)
I0127 06:36:26.809531  9881 layer_factory.hpp:74] Creating layer data_cifar_0_split
I0127 06:36:26.809537  9881 net.cpp:90] Creating Layer data_cifar_0_split
I0127 06:36:26.809541  9881 net.cpp:410] data_cifar_0_split <- data
I0127 06:36:26.809546  9881 net.cpp:368] data_cifar_0_split -> data_cifar_0_split_0
I0127 06:36:26.809553  9881 net.cpp:368] data_cifar_0_split -> data_cifar_0_split_1
I0127 06:36:26.809559  9881 net.cpp:368] data_cifar_0_split -> data_cifar_0_split_2
I0127 06:36:26.809566  9881 net.cpp:368] data_cifar_0_split -> data_cifar_0_split_3
I0127 06:36:26.809571  9881 net.cpp:120] Setting up data_cifar_0_split
I0127 06:36:26.809578  9881 net.cpp:127] Top shape: 100 3 32 32 (307200)
I0127 06:36:26.809582  9881 net.cpp:127] Top shape: 100 3 32 32 (307200)
I0127 06:36:26.809587  9881 net.cpp:127] Top shape: 100 3 32 32 (307200)
I0127 06:36:26.809592  9881 net.cpp:127] Top shape: 100 3 32 32 (307200)
I0127 06:36:26.809594  9881 layer_factory.hpp:74] Creating layer label_cifar_1_split
I0127 06:36:26.809599  9881 net.cpp:90] Creating Layer label_cifar_1_split
I0127 06:36:26.809602  9881 net.cpp:410] label_cifar_1_split <- label
I0127 06:36:26.809607  9881 net.cpp:368] label_cifar_1_split -> label_cifar_1_split_0
I0127 06:36:26.809612  9881 net.cpp:368] label_cifar_1_split -> label_cifar_1_split_1
I0127 06:36:26.809618  9881 net.cpp:368] label_cifar_1_split -> label_cifar_1_split_2
I0127 06:36:26.809624  9881 net.cpp:368] label_cifar_1_split -> label_cifar_1_split_3
I0127 06:36:26.809629  9881 net.cpp:368] label_cifar_1_split -> label_cifar_1_split_4
I0127 06:36:26.809635  9881 net.cpp:120] Setting up label_cifar_1_split
I0127 06:36:26.809641  9881 net.cpp:127] Top shape: 100 (100)
I0127 06:36:26.809645  9881 net.cpp:127] Top shape: 100 (100)
I0127 06:36:26.809649  9881 net.cpp:127] Top shape: 100 (100)
I0127 06:36:26.809653  9881 net.cpp:127] Top shape: 100 (100)
I0127 06:36:26.809658  9881 net.cpp:127] Top shape: 100 (100)
I0127 06:36:26.809660  9881 layer_factory.hpp:74] Creating layer 1_conv1
I0127 06:36:26.809667  9881 net.cpp:90] Creating Layer 1_conv1
I0127 06:36:26.809670  9881 net.cpp:410] 1_conv1 <- data_cifar_0_split_0
I0127 06:36:26.809675  9881 net.cpp:368] 1_conv1 -> 1_conv1
I0127 06:36:26.809681  9881 net.cpp:120] Setting up 1_conv1
I0127 06:36:26.809767  9881 net.cpp:127] Top shape: 100 32 32 32 (3276800)
I0127 06:36:26.809775  9881 layer_factory.hpp:74] Creating layer 1_pool1
I0127 06:36:26.809782  9881 net.cpp:90] Creating Layer 1_pool1
I0127 06:36:26.809784  9881 net.cpp:410] 1_pool1 <- 1_conv1
I0127 06:36:26.809789  9881 net.cpp:368] 1_pool1 -> 1_pool1
I0127 06:36:26.809794  9881 net.cpp:120] Setting up 1_pool1
I0127 06:36:26.809801  9881 net.cpp:127] Top shape: 100 32 16 16 (819200)
I0127 06:36:26.809804  9881 layer_factory.hpp:74] Creating layer 1_relu1
I0127 06:36:26.809809  9881 net.cpp:90] Creating Layer 1_relu1
I0127 06:36:26.809813  9881 net.cpp:410] 1_relu1 <- 1_pool1
I0127 06:36:26.809818  9881 net.cpp:357] 1_relu1 -> 1_pool1 (in-place)
I0127 06:36:26.809823  9881 net.cpp:120] Setting up 1_relu1
I0127 06:36:26.809826  9881 net.cpp:127] Top shape: 100 32 16 16 (819200)
I0127 06:36:26.809830  9881 layer_factory.hpp:74] Creating layer 1_conv2
I0127 06:36:26.809835  9881 net.cpp:90] Creating Layer 1_conv2
I0127 06:36:26.809839  9881 net.cpp:410] 1_conv2 <- 1_pool1
I0127 06:36:26.809844  9881 net.cpp:368] 1_conv2 -> 1_conv2
I0127 06:36:26.809857  9881 net.cpp:120] Setting up 1_conv2
I0127 06:36:26.810662  9881 net.cpp:127] Top shape: 100 32 16 16 (819200)
I0127 06:36:26.810672  9881 layer_factory.hpp:74] Creating layer 1_relu2
I0127 06:36:26.810675  9881 net.cpp:90] Creating Layer 1_relu2
I0127 06:36:26.810679  9881 net.cpp:410] 1_relu2 <- 1_conv2
I0127 06:36:26.810683  9881 net.cpp:357] 1_relu2 -> 1_conv2 (in-place)
I0127 06:36:26.810688  9881 net.cpp:120] Setting up 1_relu2
I0127 06:36:26.810693  9881 net.cpp:127] Top shape: 100 32 16 16 (819200)
I0127 06:36:26.810696  9881 layer_factory.hpp:74] Creating layer 1_pool2
I0127 06:36:26.810703  9881 net.cpp:90] Creating Layer 1_pool2
I0127 06:36:26.810706  9881 net.cpp:410] 1_pool2 <- 1_conv2
I0127 06:36:26.810711  9881 net.cpp:368] 1_pool2 -> 1_pool2
I0127 06:36:26.810715  9881 net.cpp:120] Setting up 1_pool2
I0127 06:36:26.810721  9881 net.cpp:127] Top shape: 100 32 8 8 (204800)
I0127 06:36:26.810725  9881 layer_factory.hpp:74] Creating layer 1_conv3
I0127 06:36:26.810731  9881 net.cpp:90] Creating Layer 1_conv3
I0127 06:36:26.810734  9881 net.cpp:410] 1_conv3 <- 1_pool2
I0127 06:36:26.810739  9881 net.cpp:368] 1_conv3 -> 1_conv3
I0127 06:36:26.810745  9881 net.cpp:120] Setting up 1_conv3
I0127 06:36:26.811969  9881 net.cpp:127] Top shape: 100 64 8 8 (409600)
I0127 06:36:26.811977  9881 layer_factory.hpp:74] Creating layer 1_relu3
I0127 06:36:26.811982  9881 net.cpp:90] Creating Layer 1_relu3
I0127 06:36:26.811985  9881 net.cpp:410] 1_relu3 <- 1_conv3
I0127 06:36:26.811991  9881 net.cpp:357] 1_relu3 -> 1_conv3 (in-place)
I0127 06:36:26.811996  9881 net.cpp:120] Setting up 1_relu3
I0127 06:36:26.812001  9881 net.cpp:127] Top shape: 100 64 8 8 (409600)
I0127 06:36:26.812005  9881 layer_factory.hpp:74] Creating layer 1_pool3
I0127 06:36:26.812008  9881 net.cpp:90] Creating Layer 1_pool3
I0127 06:36:26.812012  9881 net.cpp:410] 1_pool3 <- 1_conv3
I0127 06:36:26.812017  9881 net.cpp:368] 1_pool3 -> 1_pool3
I0127 06:36:26.812026  9881 net.cpp:120] Setting up 1_pool3
I0127 06:36:26.812034  9881 net.cpp:127] Top shape: 100 64 4 4 (102400)
I0127 06:36:26.812038  9881 layer_factory.hpp:74] Creating layer 1_ip1
I0127 06:36:26.812044  9881 net.cpp:90] Creating Layer 1_ip1
I0127 06:36:26.812047  9881 net.cpp:410] 1_ip1 <- 1_pool3
I0127 06:36:26.812054  9881 net.cpp:368] 1_ip1 -> 1_ip1
I0127 06:36:26.812060  9881 net.cpp:120] Setting up 1_ip1
I0127 06:36:26.813529  9881 net.cpp:127] Top shape: 100 64 (6400)
I0127 06:36:26.813536  9881 layer_factory.hpp:74] Creating layer 1_ip2
I0127 06:36:26.813541  9881 net.cpp:90] Creating Layer 1_ip2
I0127 06:36:26.813545  9881 net.cpp:410] 1_ip2 <- 1_ip1
I0127 06:36:26.813550  9881 net.cpp:368] 1_ip2 -> 1_ip2
I0127 06:36:26.813556  9881 net.cpp:120] Setting up 1_ip2
I0127 06:36:26.813583  9881 net.cpp:127] Top shape: 100 10 (1000)
I0127 06:36:26.813591  9881 layer_factory.hpp:74] Creating layer 1_prob
I0127 06:36:26.813597  9881 net.cpp:90] Creating Layer 1_prob
I0127 06:36:26.813601  9881 net.cpp:410] 1_prob <- 1_ip2
I0127 06:36:26.813606  9881 net.cpp:368] 1_prob -> 1_prob
I0127 06:36:26.813611  9881 net.cpp:120] Setting up 1_prob
I0127 06:36:26.813622  9881 net.cpp:127] Top shape: 100 10 (1000)
I0127 06:36:26.813627  9881 layer_factory.hpp:74] Creating layer 1_prob_1_prob_0_split
I0127 06:36:26.813630  9881 net.cpp:90] Creating Layer 1_prob_1_prob_0_split
I0127 06:36:26.813633  9881 net.cpp:410] 1_prob_1_prob_0_split <- 1_prob
I0127 06:36:26.813638  9881 net.cpp:368] 1_prob_1_prob_0_split -> 1_prob_1_prob_0_split_0
I0127 06:36:26.813644  9881 net.cpp:368] 1_prob_1_prob_0_split -> 1_prob_1_prob_0_split_1
I0127 06:36:26.813649  9881 net.cpp:120] Setting up 1_prob_1_prob_0_split
I0127 06:36:26.813655  9881 net.cpp:127] Top shape: 100 10 (1000)
I0127 06:36:26.813659  9881 net.cpp:127] Top shape: 100 10 (1000)
I0127 06:36:26.813663  9881 layer_factory.hpp:74] Creating layer 2_conv1
I0127 06:36:26.813671  9881 net.cpp:90] Creating Layer 2_conv1
I0127 06:36:26.813674  9881 net.cpp:410] 2_conv1 <- data_cifar_0_split_1
I0127 06:36:26.813681  9881 net.cpp:368] 2_conv1 -> 2_conv1
I0127 06:36:26.813696  9881 net.cpp:120] Setting up 2_conv1
I0127 06:36:26.813772  9881 net.cpp:127] Top shape: 100 32 32 32 (3276800)
I0127 06:36:26.813778  9881 layer_factory.hpp:74] Creating layer 2_pool1
I0127 06:36:26.813784  9881 net.cpp:90] Creating Layer 2_pool1
I0127 06:36:26.813787  9881 net.cpp:410] 2_pool1 <- 2_conv1
I0127 06:36:26.813793  9881 net.cpp:368] 2_pool1 -> 2_pool1
I0127 06:36:26.813798  9881 net.cpp:120] Setting up 2_pool1
I0127 06:36:26.813805  9881 net.cpp:127] Top shape: 100 32 16 16 (819200)
I0127 06:36:26.813810  9881 layer_factory.hpp:74] Creating layer 2_relu1
I0127 06:36:26.813815  9881 net.cpp:90] Creating Layer 2_relu1
I0127 06:36:26.813818  9881 net.cpp:410] 2_relu1 <- 2_pool1
I0127 06:36:26.813823  9881 net.cpp:357] 2_relu1 -> 2_pool1 (in-place)
I0127 06:36:26.813827  9881 net.cpp:120] Setting up 2_relu1
I0127 06:36:26.813832  9881 net.cpp:127] Top shape: 100 32 16 16 (819200)
I0127 06:36:26.813837  9881 layer_factory.hpp:74] Creating layer 2_conv2
I0127 06:36:26.813843  9881 net.cpp:90] Creating Layer 2_conv2
I0127 06:36:26.813846  9881 net.cpp:410] 2_conv2 <- 2_pool1
I0127 06:36:26.813851  9881 net.cpp:368] 2_conv2 -> 2_conv2
I0127 06:36:26.813856  9881 net.cpp:120] Setting up 2_conv2
I0127 06:36:26.814436  9881 net.cpp:127] Top shape: 100 32 16 16 (819200)
I0127 06:36:26.814443  9881 layer_factory.hpp:74] Creating layer 2_relu2
I0127 06:36:26.814448  9881 net.cpp:90] Creating Layer 2_relu2
I0127 06:36:26.814452  9881 net.cpp:410] 2_relu2 <- 2_conv2
I0127 06:36:26.814456  9881 net.cpp:357] 2_relu2 -> 2_conv2 (in-place)
I0127 06:36:26.814461  9881 net.cpp:120] Setting up 2_relu2
I0127 06:36:26.814466  9881 net.cpp:127] Top shape: 100 32 16 16 (819200)
I0127 06:36:26.814469  9881 layer_factory.hpp:74] Creating layer 2_pool2
I0127 06:36:26.814476  9881 net.cpp:90] Creating Layer 2_pool2
I0127 06:36:26.814478  9881 net.cpp:410] 2_pool2 <- 2_conv2
I0127 06:36:26.814483  9881 net.cpp:368] 2_pool2 -> 2_pool2
I0127 06:36:26.814488  9881 net.cpp:120] Setting up 2_pool2
I0127 06:36:26.814494  9881 net.cpp:127] Top shape: 100 32 8 8 (204800)
I0127 06:36:26.814498  9881 layer_factory.hpp:74] Creating layer 2_conv3
I0127 06:36:26.814503  9881 net.cpp:90] Creating Layer 2_conv3
I0127 06:36:26.814507  9881 net.cpp:410] 2_conv3 <- 2_pool2
I0127 06:36:26.814513  9881 net.cpp:368] 2_conv3 -> 2_conv3
I0127 06:36:26.814518  9881 net.cpp:120] Setting up 2_conv3
I0127 06:36:26.815666  9881 net.cpp:127] Top shape: 100 64 8 8 (409600)
I0127 06:36:26.815673  9881 layer_factory.hpp:74] Creating layer 2_relu3
I0127 06:36:26.815677  9881 net.cpp:90] Creating Layer 2_relu3
I0127 06:36:26.815680  9881 net.cpp:410] 2_relu3 <- 2_conv3
I0127 06:36:26.815685  9881 net.cpp:357] 2_relu3 -> 2_conv3 (in-place)
I0127 06:36:26.815690  9881 net.cpp:120] Setting up 2_relu3
I0127 06:36:26.815696  9881 net.cpp:127] Top shape: 100 64 8 8 (409600)
I0127 06:36:26.815698  9881 layer_factory.hpp:74] Creating layer 2_pool3
I0127 06:36:26.815704  9881 net.cpp:90] Creating Layer 2_pool3
I0127 06:36:26.815708  9881 net.cpp:410] 2_pool3 <- 2_conv3
I0127 06:36:26.815713  9881 net.cpp:368] 2_pool3 -> 2_pool3
I0127 06:36:26.815718  9881 net.cpp:120] Setting up 2_pool3
I0127 06:36:26.815724  9881 net.cpp:127] Top shape: 100 64 4 4 (102400)
I0127 06:36:26.815727  9881 layer_factory.hpp:74] Creating layer 2_ip1
I0127 06:36:26.815733  9881 net.cpp:90] Creating Layer 2_ip1
I0127 06:36:26.815737  9881 net.cpp:410] 2_ip1 <- 2_pool3
I0127 06:36:26.815742  9881 net.cpp:368] 2_ip1 -> 2_ip1
I0127 06:36:26.815748  9881 net.cpp:120] Setting up 2_ip1
I0127 06:36:26.817224  9881 net.cpp:127] Top shape: 100 64 (6400)
I0127 06:36:26.817232  9881 layer_factory.hpp:74] Creating layer 2_ip2
I0127 06:36:26.817239  9881 net.cpp:90] Creating Layer 2_ip2
I0127 06:36:26.817242  9881 net.cpp:410] 2_ip2 <- 2_ip1
I0127 06:36:26.817248  9881 net.cpp:368] 2_ip2 -> 2_ip2
I0127 06:36:26.817255  9881 net.cpp:120] Setting up 2_ip2
I0127 06:36:26.817281  9881 net.cpp:127] Top shape: 100 10 (1000)
I0127 06:36:26.817287  9881 layer_factory.hpp:74] Creating layer 2_prob
I0127 06:36:26.817301  9881 net.cpp:90] Creating Layer 2_prob
I0127 06:36:26.817306  9881 net.cpp:410] 2_prob <- 2_ip2
I0127 06:36:26.817312  9881 net.cpp:368] 2_prob -> 2_prob
I0127 06:36:26.817317  9881 net.cpp:120] Setting up 2_prob
I0127 06:36:26.817325  9881 net.cpp:127] Top shape: 100 10 (1000)
I0127 06:36:26.817330  9881 layer_factory.hpp:74] Creating layer 2_prob_2_prob_0_split
I0127 06:36:26.817335  9881 net.cpp:90] Creating Layer 2_prob_2_prob_0_split
I0127 06:36:26.817338  9881 net.cpp:410] 2_prob_2_prob_0_split <- 2_prob
I0127 06:36:26.817345  9881 net.cpp:368] 2_prob_2_prob_0_split -> 2_prob_2_prob_0_split_0
I0127 06:36:26.817351  9881 net.cpp:368] 2_prob_2_prob_0_split -> 2_prob_2_prob_0_split_1
I0127 06:36:26.817358  9881 net.cpp:120] Setting up 2_prob_2_prob_0_split
I0127 06:36:26.817365  9881 net.cpp:127] Top shape: 100 10 (1000)
I0127 06:36:26.817370  9881 net.cpp:127] Top shape: 100 10 (1000)
I0127 06:36:26.817374  9881 layer_factory.hpp:74] Creating layer 3_conv1
I0127 06:36:26.817381  9881 net.cpp:90] Creating Layer 3_conv1
I0127 06:36:26.817384  9881 net.cpp:410] 3_conv1 <- data_cifar_0_split_2
I0127 06:36:26.817391  9881 net.cpp:368] 3_conv1 -> 3_conv1
I0127 06:36:26.817397  9881 net.cpp:120] Setting up 3_conv1
I0127 06:36:26.817466  9881 net.cpp:127] Top shape: 100 32 32 32 (3276800)
I0127 06:36:26.817471  9881 layer_factory.hpp:74] Creating layer 3_pool1
I0127 06:36:26.817476  9881 net.cpp:90] Creating Layer 3_pool1
I0127 06:36:26.817479  9881 net.cpp:410] 3_pool1 <- 3_conv1
I0127 06:36:26.817484  9881 net.cpp:368] 3_pool1 -> 3_pool1
I0127 06:36:26.817489  9881 net.cpp:120] Setting up 3_pool1
I0127 06:36:26.817497  9881 net.cpp:127] Top shape: 100 32 16 16 (819200)
I0127 06:36:26.817499  9881 layer_factory.hpp:74] Creating layer 3_relu1
I0127 06:36:26.817503  9881 net.cpp:90] Creating Layer 3_relu1
I0127 06:36:26.817507  9881 net.cpp:410] 3_relu1 <- 3_pool1
I0127 06:36:26.817512  9881 net.cpp:357] 3_relu1 -> 3_pool1 (in-place)
I0127 06:36:26.817517  9881 net.cpp:120] Setting up 3_relu1
I0127 06:36:26.817522  9881 net.cpp:127] Top shape: 100 32 16 16 (819200)
I0127 06:36:26.817524  9881 layer_factory.hpp:74] Creating layer 3_conv2
I0127 06:36:26.817533  9881 net.cpp:90] Creating Layer 3_conv2
I0127 06:36:26.817536  9881 net.cpp:410] 3_conv2 <- 3_pool1
I0127 06:36:26.817541  9881 net.cpp:368] 3_conv2 -> 3_conv2
I0127 06:36:26.817548  9881 net.cpp:120] Setting up 3_conv2
I0127 06:36:26.818127  9881 net.cpp:127] Top shape: 100 32 16 16 (819200)
I0127 06:36:26.818135  9881 layer_factory.hpp:74] Creating layer 3_relu2
I0127 06:36:26.818138  9881 net.cpp:90] Creating Layer 3_relu2
I0127 06:36:26.818142  9881 net.cpp:410] 3_relu2 <- 3_conv2
I0127 06:36:26.818146  9881 net.cpp:357] 3_relu2 -> 3_conv2 (in-place)
I0127 06:36:26.818151  9881 net.cpp:120] Setting up 3_relu2
I0127 06:36:26.818156  9881 net.cpp:127] Top shape: 100 32 16 16 (819200)
I0127 06:36:26.818161  9881 layer_factory.hpp:74] Creating layer 3_pool2
I0127 06:36:26.818166  9881 net.cpp:90] Creating Layer 3_pool2
I0127 06:36:26.818169  9881 net.cpp:410] 3_pool2 <- 3_conv2
I0127 06:36:26.818174  9881 net.cpp:368] 3_pool2 -> 3_pool2
I0127 06:36:26.818179  9881 net.cpp:120] Setting up 3_pool2
I0127 06:36:26.818186  9881 net.cpp:127] Top shape: 100 32 8 8 (204800)
I0127 06:36:26.818188  9881 layer_factory.hpp:74] Creating layer 3_conv3
I0127 06:36:26.818195  9881 net.cpp:90] Creating Layer 3_conv3
I0127 06:36:26.818198  9881 net.cpp:410] 3_conv3 <- 3_pool2
I0127 06:36:26.818203  9881 net.cpp:368] 3_conv3 -> 3_conv3
I0127 06:36:26.818209  9881 net.cpp:120] Setting up 3_conv3
I0127 06:36:26.819358  9881 net.cpp:127] Top shape: 100 64 8 8 (409600)
I0127 06:36:26.819365  9881 layer_factory.hpp:74] Creating layer 3_relu3
I0127 06:36:26.819370  9881 net.cpp:90] Creating Layer 3_relu3
I0127 06:36:26.819372  9881 net.cpp:410] 3_relu3 <- 3_conv3
I0127 06:36:26.819377  9881 net.cpp:357] 3_relu3 -> 3_conv3 (in-place)
I0127 06:36:26.819381  9881 net.cpp:120] Setting up 3_relu3
I0127 06:36:26.819386  9881 net.cpp:127] Top shape: 100 64 8 8 (409600)
I0127 06:36:26.819396  9881 layer_factory.hpp:74] Creating layer 3_pool3
I0127 06:36:26.819403  9881 net.cpp:90] Creating Layer 3_pool3
I0127 06:36:26.819406  9881 net.cpp:410] 3_pool3 <- 3_conv3
I0127 06:36:26.819411  9881 net.cpp:368] 3_pool3 -> 3_pool3
I0127 06:36:26.819416  9881 net.cpp:120] Setting up 3_pool3
I0127 06:36:26.819425  9881 net.cpp:127] Top shape: 100 64 4 4 (102400)
I0127 06:36:26.819429  9881 layer_factory.hpp:74] Creating layer 3_ip1
I0127 06:36:26.819435  9881 net.cpp:90] Creating Layer 3_ip1
I0127 06:36:26.819438  9881 net.cpp:410] 3_ip1 <- 3_pool3
I0127 06:36:26.819443  9881 net.cpp:368] 3_ip1 -> 3_ip1
I0127 06:36:26.819449  9881 net.cpp:120] Setting up 3_ip1
I0127 06:36:26.820916  9881 net.cpp:127] Top shape: 100 64 (6400)
I0127 06:36:26.820924  9881 layer_factory.hpp:74] Creating layer 3_ip2
I0127 06:36:26.820930  9881 net.cpp:90] Creating Layer 3_ip2
I0127 06:36:26.820933  9881 net.cpp:410] 3_ip2 <- 3_ip1
I0127 06:36:26.820940  9881 net.cpp:368] 3_ip2 -> 3_ip2
I0127 06:36:26.820945  9881 net.cpp:120] Setting up 3_ip2
I0127 06:36:26.820971  9881 net.cpp:127] Top shape: 100 10 (1000)
I0127 06:36:26.820976  9881 layer_factory.hpp:74] Creating layer 3_prob
I0127 06:36:26.820981  9881 net.cpp:90] Creating Layer 3_prob
I0127 06:36:26.820984  9881 net.cpp:410] 3_prob <- 3_ip2
I0127 06:36:26.820992  9881 net.cpp:368] 3_prob -> 3_prob
I0127 06:36:26.820997  9881 net.cpp:120] Setting up 3_prob
I0127 06:36:26.821005  9881 net.cpp:127] Top shape: 100 10 (1000)
I0127 06:36:26.821010  9881 layer_factory.hpp:74] Creating layer 3_prob_3_prob_0_split
I0127 06:36:26.821014  9881 net.cpp:90] Creating Layer 3_prob_3_prob_0_split
I0127 06:36:26.821017  9881 net.cpp:410] 3_prob_3_prob_0_split <- 3_prob
I0127 06:36:26.821023  9881 net.cpp:368] 3_prob_3_prob_0_split -> 3_prob_3_prob_0_split_0
I0127 06:36:26.821029  9881 net.cpp:368] 3_prob_3_prob_0_split -> 3_prob_3_prob_0_split_1
I0127 06:36:26.821035  9881 net.cpp:120] Setting up 3_prob_3_prob_0_split
I0127 06:36:26.821041  9881 net.cpp:127] Top shape: 100 10 (1000)
I0127 06:36:26.821045  9881 net.cpp:127] Top shape: 100 10 (1000)
I0127 06:36:26.821049  9881 layer_factory.hpp:74] Creating layer 4_conv1
I0127 06:36:26.821054  9881 net.cpp:90] Creating Layer 4_conv1
I0127 06:36:26.821058  9881 net.cpp:410] 4_conv1 <- data_cifar_0_split_3
I0127 06:36:26.821064  9881 net.cpp:368] 4_conv1 -> 4_conv1
I0127 06:36:26.821070  9881 net.cpp:120] Setting up 4_conv1
I0127 06:36:26.821141  9881 net.cpp:127] Top shape: 100 32 32 32 (3276800)
I0127 06:36:26.821147  9881 layer_factory.hpp:74] Creating layer 4_pool1
I0127 06:36:26.821153  9881 net.cpp:90] Creating Layer 4_pool1
I0127 06:36:26.821157  9881 net.cpp:410] 4_pool1 <- 4_conv1
I0127 06:36:26.821162  9881 net.cpp:368] 4_pool1 -> 4_pool1
I0127 06:36:26.821167  9881 net.cpp:120] Setting up 4_pool1
I0127 06:36:26.821174  9881 net.cpp:127] Top shape: 100 32 16 16 (819200)
I0127 06:36:26.821177  9881 layer_factory.hpp:74] Creating layer 4_relu1
I0127 06:36:26.821182  9881 net.cpp:90] Creating Layer 4_relu1
I0127 06:36:26.821185  9881 net.cpp:410] 4_relu1 <- 4_pool1
I0127 06:36:26.821190  9881 net.cpp:357] 4_relu1 -> 4_pool1 (in-place)
I0127 06:36:26.821194  9881 net.cpp:120] Setting up 4_relu1
I0127 06:36:26.821199  9881 net.cpp:127] Top shape: 100 32 16 16 (819200)
I0127 06:36:26.821203  9881 layer_factory.hpp:74] Creating layer 4_conv2
I0127 06:36:26.821208  9881 net.cpp:90] Creating Layer 4_conv2
I0127 06:36:26.821211  9881 net.cpp:410] 4_conv2 <- 4_pool1
I0127 06:36:26.821218  9881 net.cpp:368] 4_conv2 -> 4_conv2
I0127 06:36:26.821223  9881 net.cpp:120] Setting up 4_conv2
I0127 06:36:26.821801  9881 net.cpp:127] Top shape: 100 32 16 16 (819200)
I0127 06:36:26.821810  9881 layer_factory.hpp:74] Creating layer 4_relu2
I0127 06:36:26.821818  9881 net.cpp:90] Creating Layer 4_relu2
I0127 06:36:26.821823  9881 net.cpp:410] 4_relu2 <- 4_conv2
I0127 06:36:26.821828  9881 net.cpp:357] 4_relu2 -> 4_conv2 (in-place)
I0127 06:36:26.821833  9881 net.cpp:120] Setting up 4_relu2
I0127 06:36:26.821838  9881 net.cpp:127] Top shape: 100 32 16 16 (819200)
I0127 06:36:26.821849  9881 layer_factory.hpp:74] Creating layer 4_pool2
I0127 06:36:26.821854  9881 net.cpp:90] Creating Layer 4_pool2
I0127 06:36:26.821859  9881 net.cpp:410] 4_pool2 <- 4_conv2
I0127 06:36:26.821864  9881 net.cpp:368] 4_pool2 -> 4_pool2
I0127 06:36:26.821871  9881 net.cpp:120] Setting up 4_pool2
I0127 06:36:26.821877  9881 net.cpp:127] Top shape: 100 32 8 8 (204800)
I0127 06:36:26.821880  9881 layer_factory.hpp:74] Creating layer 4_conv3
I0127 06:36:26.821885  9881 net.cpp:90] Creating Layer 4_conv3
I0127 06:36:26.821889  9881 net.cpp:410] 4_conv3 <- 4_pool2
I0127 06:36:26.821895  9881 net.cpp:368] 4_conv3 -> 4_conv3
I0127 06:36:26.821902  9881 net.cpp:120] Setting up 4_conv3
I0127 06:36:26.823056  9881 net.cpp:127] Top shape: 100 64 8 8 (409600)
I0127 06:36:26.823063  9881 layer_factory.hpp:74] Creating layer 4_relu3
I0127 06:36:26.823068  9881 net.cpp:90] Creating Layer 4_relu3
I0127 06:36:26.823072  9881 net.cpp:410] 4_relu3 <- 4_conv3
I0127 06:36:26.823076  9881 net.cpp:357] 4_relu3 -> 4_conv3 (in-place)
I0127 06:36:26.823081  9881 net.cpp:120] Setting up 4_relu3
I0127 06:36:26.823086  9881 net.cpp:127] Top shape: 100 64 8 8 (409600)
I0127 06:36:26.823091  9881 layer_factory.hpp:74] Creating layer 4_pool3
I0127 06:36:26.823094  9881 net.cpp:90] Creating Layer 4_pool3
I0127 06:36:26.823098  9881 net.cpp:410] 4_pool3 <- 4_conv3
I0127 06:36:26.823106  9881 net.cpp:368] 4_pool3 -> 4_pool3
I0127 06:36:26.823112  9881 net.cpp:120] Setting up 4_pool3
I0127 06:36:26.823118  9881 net.cpp:127] Top shape: 100 64 4 4 (102400)
I0127 06:36:26.823123  9881 layer_factory.hpp:74] Creating layer 4_ip1
I0127 06:36:26.823128  9881 net.cpp:90] Creating Layer 4_ip1
I0127 06:36:26.823138  9881 net.cpp:410] 4_ip1 <- 4_pool3
I0127 06:36:26.823144  9881 net.cpp:368] 4_ip1 -> 4_ip1
I0127 06:36:26.823150  9881 net.cpp:120] Setting up 4_ip1
I0127 06:36:26.824661  9881 net.cpp:127] Top shape: 100 64 (6400)
I0127 06:36:26.824668  9881 layer_factory.hpp:74] Creating layer 4_ip2
I0127 06:36:26.824676  9881 net.cpp:90] Creating Layer 4_ip2
I0127 06:36:26.824678  9881 net.cpp:410] 4_ip2 <- 4_ip1
I0127 06:36:26.824686  9881 net.cpp:368] 4_ip2 -> 4_ip2
I0127 06:36:26.824692  9881 net.cpp:120] Setting up 4_ip2
I0127 06:36:26.824717  9881 net.cpp:127] Top shape: 100 10 (1000)
I0127 06:36:26.824723  9881 layer_factory.hpp:74] Creating layer 4_prob
I0127 06:36:26.824728  9881 net.cpp:90] Creating Layer 4_prob
I0127 06:36:26.824730  9881 net.cpp:410] 4_prob <- 4_ip2
I0127 06:36:26.824735  9881 net.cpp:368] 4_prob -> 4_prob
I0127 06:36:26.824741  9881 net.cpp:120] Setting up 4_prob
I0127 06:36:26.824748  9881 net.cpp:127] Top shape: 100 10 (1000)
I0127 06:36:26.824751  9881 layer_factory.hpp:74] Creating layer 4_prob_4_prob_0_split
I0127 06:36:26.824756  9881 net.cpp:90] Creating Layer 4_prob_4_prob_0_split
I0127 06:36:26.824760  9881 net.cpp:410] 4_prob_4_prob_0_split <- 4_prob
I0127 06:36:26.824764  9881 net.cpp:368] 4_prob_4_prob_0_split -> 4_prob_4_prob_0_split_0
I0127 06:36:26.824770  9881 net.cpp:368] 4_prob_4_prob_0_split -> 4_prob_4_prob_0_split_1
I0127 06:36:26.824777  9881 net.cpp:120] Setting up 4_prob_4_prob_0_split
I0127 06:36:26.824784  9881 net.cpp:127] Top shape: 100 10 (1000)
I0127 06:36:26.824787  9881 net.cpp:127] Top shape: 100 10 (1000)
I0127 06:36:26.824790  9881 layer_factory.hpp:74] Creating layer 1_accuracy
I0127 06:36:26.824795  9881 net.cpp:90] Creating Layer 1_accuracy
I0127 06:36:26.824800  9881 net.cpp:410] 1_accuracy <- 1_prob_1_prob_0_split_0
I0127 06:36:26.824803  9881 net.cpp:410] 1_accuracy <- label_cifar_1_split_0
I0127 06:36:26.824808  9881 net.cpp:368] 1_accuracy -> 1_accuracy
I0127 06:36:26.824815  9881 net.cpp:120] Setting up 1_accuracy
…
