…
I0207 16:01:15.310436 29982 net.cpp:287] The NetState phase (0) differed from the phase (1) specified by a rule in layer accuracy
I0207 16:01:15.310609 29982 net.cpp:42] Initializing net from parameters: 
name: "CIFAR10_quick"
state {
  phase: TRAIN
}
layer {
  name: "cifar"
  type: "Data"
  top: "data"
  top: "label"
  include {
    phase: TRAIN
  }
  transform_param {
    mean_file: "/home/mike/ml_lab/mod/MCL_Caffe/examples/cifar10/mean.binaryproto"
  }
  data_param {
    source: "/home/mike/ml_lab/mod/MCL_Caffe/examples/cifar10/cifar10_train_lmdb"
    batch_size: 10
    backend: LMDB
  }
}
layer {
  name: "1_conv1"
  type: "Convolution"
  bottom: "data"
  top: "1_conv1"
  param {
    lr_mult: 1
  }
  param {
    lr_mult: 2
  }
  convolution_param {
    num_output: 32
    pad: 2
    kernel_size: 5
    stride: 1
    weight_filler {
      type: "gaussian"
      std: 0.0001
    }
    bias_filler {
      type: "constant"
    }
  }
}
layer {
  name: "1_pool1"
  type: "Pooling"
  bottom: "1_conv1"
  top: "1_pool1"
  pooling_param {
    pool: MAX
    kernel_size: 3
    stride: 2
  }
}
layer {
  name: "1_relu1"
  type: "ReLU"
  bottom: "1_pool1"
  top: "1_pool1"
}
layer {
  name: "1_conv2"
  type: "Convolution"
  bottom: "1_pool1"
  top: "1_conv2"
  param {
    lr_mult: 1
  }
  param {
    lr_mult: 2
  }
  convolution_param {
    num_output: 32
    pad: 2
    kernel_size: 5
    stride: 1
    weight_filler {
      type: "gaussian"
      std: 0.01
    }
    bias_filler {
      type: "constant"
    }
  }
}
layer {
  name: "1_relu2"
  type: "ReLU"
  bottom: "1_conv2"
  top: "1_conv2"
}
layer {
  name: "1_pool2"
  type: "Pooling"
  bottom: "1_conv2"
  top: "1_pool2"
  pooling_param {
    pool: AVE
    kernel_size: 3
    stride: 2
  }
}
layer {
  name: "1_conv3"
  type: "Convolution"
  bottom: "1_pool2"
  top: "1_conv3"
  param {
    lr_mult: 1
  }
  param {
    lr_mult: 2
  }
  convolution_param {
    num_output: 64
    pad: 2
    kernel_size: 5
    stride: 1
    weight_filler {
      type: "gaussian"
      std: 0.01
    }
    bias_filler {
      type: "constant"
    }
  }
}
layer {
  name: "1_relu3"
  type: "ReLU"
  bottom: "1_conv3"
  top: "1_conv3"
}
layer {
  name: "1_pool3"
  type: "Pooling"
  bottom: "1_conv3"
  top: "1_pool3"
  pooling_param {
    pool: AVE
    kernel_size: 3
    stride: 2
  }
}
layer {
  name: "1_ip1"
  type: "InnerProduct"
  bottom: "1_pool3"
  top: "1_ip1"
  param {
    lr_mult: 1
  }
  param {
    lr_mult: 2
  }
  inner_product_param {
    num_output: 64
    weight_filler {
      type: "gaussian"
      std: 0.1
    }
    bias_filler {
      type: "constant"
    }
  }
}
layer {
  name: "1_ip2"
  type: "InnerProduct"
  bottom: "1_ip1"
  top: "1_ip2"
  param {
    lr_mult: 1
  }
  param {
    lr_mult: 2
  }
  inner_product_param {
    num_output: 10
    weight_filler {
      type: "gaussian"
      std: 0.1
    }
    bias_filler {
      type: "constant"
    }
  }
}
layer {
  name: "1_prob"
  type: "Softmax"
  bottom: "1_ip2"
  top: "1_prob"
}
layer {
  name: "2_conv1"
  type: "Convolution"
  bottom: "data"
  top: "2_conv1"
  param {
    lr_mult: 1
  }
  param {
    lr_mult: 2
  }
  convolution_param {
    num_output: 32
    pad: 2
    kernel_size: 5
    stride: 1
    weight_filler {
      type: "gaussian"
      std: 0.0001
    }
    bias_filler {
      type: "constant"
    }
  }
}
layer {
  name: "2_pool1"
  type: "Pooling"
  bottom: "2_conv1"
  top: "2_pool1"
  pooling_param {
    pool: MAX
    kernel_size: 3
    stride: 2
  }
}
layer {
  name: "2_relu1"
  type: "ReLU"
  bottom: "2_pool1"
  top: "2_pool1"
}
layer {
  name: "2_conv2"
  type: "Convolution"
  bottom: "2_pool1"
  top: "2_conv2"
  param {
    lr_mult: 1
  }
  param {
    lr_mult: 2
  }
  convolution_param {
    num_output: 32
    pad: 2
    kernel_size: 5
    stride: 1
    weight_filler {
      type: "gaussian"
      std: 0.01
    }
    bias_filler {
      type: "constant"
    }
  }
}
layer {
  name: "2_relu2"
  type: "ReLU"
  bottom: "2_conv2"
  top: "2_conv2"
}
layer {
  name: "2_pool2"
  type: "Pooling"
  bottom: "2_conv2"
  top: "2_pool2"
  pooling_param {
    pool: AVE
    kernel_size: 3
    stride: 2
  }
}
layer {
  name: "2_conv3"
  type: "Convolution"
  bottom: "2_pool2"
  top: "2_conv3"
  param {
    lr_mult: 1
  }
  param {
    lr_mult: 2
  }
  convolution_param {
    num_output: 64
    pad: 2
    kernel_size: 5
    stride: 1
    weight_filler {
      type: "gaussian"
      std: 0.01
    }
    bias_filler {
      type: "constant"
    }
  }
}
layer {
  name: "2_relu3"
  type: "ReLU"
  bottom: "2_conv3"
  top: "2_conv3"
}
layer {
  name: "2_pool3"
  type: "Pooling"
  bottom: "2_conv3"
  top: "2_pool3"
  pooling_param {
    pool: AVE
    kernel_size: 3
    stride: 2
  }
}
layer {
  name: "2_ip1"
  type: "InnerProduct"
  bottom: "2_pool3"
  top: "2_ip1"
  param {
    lr_mult: 1
  }
  param {
    lr_mult: 2
  }
  inner_product_param {
    num_output: 64
    weight_filler {
      type: "gaussian"
      std: 0.1
    }
    bias_filler {
      type: "constant"
    }
  }
}
layer {
  name: "2_ip2"
  type: "InnerProduct"
  bottom: "2_ip1"
  top: "2_ip2"
  param {
    lr_mult: 1
  }
  param {
    lr_mult: 2
  }
  inner_product_param {
    num_output: 10
    weight_filler {
      type: "gaussian"
      std: 0.1
    }
    bias_filler {
      type: "constant"
    }
  }
}
layer {
  name: "2_prob"
  type: "Softmax"
  bottom: "2_ip2"
  top: "2_prob"
}
layer {
  name: "3_conv1"
  type: "Convolution"
  bottom: "data"
  top: "3_conv1"
  param {
    lr_mult: 1
  }
  param {
    lr_mult: 2
  }
  convolution_param {
    num_output: 32
    pad: 2
    kernel_size: 5
    stride: 1
    weight_filler {
      type: "gaussian"
      std: 0.0001
    }
    bias_filler {
      type: "constant"
    }
  }
}
layer {
  name: "3_pool1"
  type: "Pooling"
  bottom: "3_conv1"
  top: "3_pool1"
  pooling_param {
    pool: MAX
    kernel_size: 3
    stride: 2
  }
}
layer {
  name: "3_relu1"
  type: "ReLU"
  bottom: "3_pool1"
  top: "3_pool1"
}
layer {
  name: "3_conv2"
  type: "Convolution"
  bottom: "3_pool1"
  top: "3_conv2"
  param {
    lr_mult: 1
  }
  param {
    lr_mult: 2
  }
  convolution_param {
    num_output: 32
    pad: 2
    kernel_size: 5
    stride: 1
    weight_filler {
      type: "gaussian"
      std: 0.01
    }
    bias_filler {
      type: "constant"
    }
  }
}
layer {
  name: "3_relu2"
  type: "ReLU"
  bottom: "3_conv2"
  top: "3_conv2"
}
layer {
  name: "3_pool2"
  type: "Pooling"
  bottom: "3_conv2"
  top: "3_pool2"
  pooling_param {
    pool: AVE
    kernel_size: 3
    stride: 2
  }
}
layer {
  name: "3_conv3"
  type: "Convolution"
  bottom: "3_pool2"
  top: "3_conv3"
  param {
    lr_mult: 1
  }
  param {
    lr_mult: 2
  }
  convolution_param {
    num_output: 64
    pad: 2
    kernel_size: 5
    stride: 1
    weight_filler {
      type: "gaussian"
      std: 0.01
    }
    bias_filler {
      type: "constant"
    }
  }
}
layer {
  name: "3_relu3"
  type: "ReLU"
  bottom: "3_conv3"
  top: "3_conv3"
}
layer {
  name: "3_pool3"
  type: "Pooling"
  bottom: "3_conv3"
  top: "3_pool3"
  pooling_param {
    pool: AVE
    kernel_size: 3
    stride: 2
  }
}
layer {
  name: "3_ip1"
  type: "InnerProduct"
  bottom: "3_pool3"
  top: "3_ip1"
  param {
    lr_mult: 1
  }
  param {
    lr_mult: 2
  }
  inner_product_param {
    num_output: 64
    weight_filler {
      type: "gaussian"
      std: 0.1
    }
    bias_filler {
      type: "constant"
    }
  }
}
layer {
  name: "3_ip2"
  type: "InnerProduct"
  bottom: "3_ip1"
  top: "3_ip2"
  param {
    lr_mult: 1
  }
  param {
    lr_mult: 2
  }
  inner_product_param {
    num_output: 10
    weight_filler {
      type: "gaussian"
      std: 0.1
    }
    bias_filler {
      type: "constant"
    }
  }
}
layer {
  name: "3_prob"
  type: "Softmax"
  bottom: "3_ip2"
  top: "3_prob"
}
layer {
  name: "4_conv1"
  type: "Convolution"
  bottom: "data"
  top: "4_conv1"
  param {
    lr_mult: 1
  }
  param {
    lr_mult: 2
  }
  convolution_param {
    num_output: 32
    pad: 2
    kernel_size: 5
    stride: 1
    weight_filler {
      type: "gaussian"
      std: 0.0001
    }
    bias_filler {
      type: "constant"
    }
  }
}
layer {
  name: "4_pool1"
  type: "Pooling"
  bottom: "4_conv1"
  top: "4_pool1"
  pooling_param {
    pool: MAX
    kernel_size: 3
    stride: 2
  }
}
layer {
  name: "4_relu1"
  type: "ReLU"
  bottom: "4_pool1"
  top: "4_pool1"
}
layer {
  name: "4_conv2"
  type: "Convolution"
  bottom: "4_pool1"
  top: "4_conv2"
  param {
    lr_mult: 1
  }
  param {
    lr_mult: 2
  }
  convolution_param {
    num_output: 32
    pad: 2
    kernel_size: 5
    stride: 1
    weight_filler {
      type: "gaussian"
      std: 0.01
    }
    bias_filler {
      type: "constant"
    }
  }
}
layer {
  name: "4_relu2"
  type: "ReLU"
  bottom: "4_conv2"
  top: "4_conv2"
}
layer {
  name: "4_pool2"
  type: "Pooling"
  bottom: "4_conv2"
  top: "4_pool2"
  pooling_param {
    pool: AVE
    kernel_size: 3
    stride: 2
  }
}
layer {
  name: "4_conv3"
  type: "Convolution"
  bottom: "4_pool2"
  top: "4_conv3"
  param {
    lr_mult: 1
  }
  param {
    lr_mult: 2
  }
  convolution_param {
    num_output: 64
    pad: 2
    kernel_size: 5
    stride: 1
    weight_filler {
      type: "gaussian"
      std: 0.01
    }
    bias_filler {
      type: "constant"
    }
  }
}
layer {
  name: "4_relu3"
  type: "ReLU"
  bottom: "4_conv3"
  top: "4_conv3"
}
layer {
  name: "4_pool3"
  type: "Pooling"
  bottom: "4_conv3"
  top: "4_pool3"
  pooling_param {
    pool: AVE
    kernel_size: 3
    stride: 2
  }
}
layer {
  name: "4_ip1"
  type: "InnerProduct"
  bottom: "4_pool3"
  top: "4_ip1"
  param {
    lr_mult: 1
  }
  param {
    lr_mult: 2
  }
  inner_product_param {
    num_output: 64
    weight_filler {
      type: "gaussian"
      std: 0.1
    }
    bias_filler {
      type: "constant"
    }
  }
}
layer {
  name: "4_ip2"
  type: "InnerProduct"
  bottom: "4_ip1"
  top: "4_ip2"
  param {
    lr_mult: 1
  }
  param {
    lr_mult: 2
  }
  inner_product_param {
    num_output: 10
    weight_filler {
      type: "gaussian"
      std: 0.1
    }
    bias_filler {
      type: "constant"
    }
  }
}
layer {
  name: "4_prob"
  type: "Softmax"
  bottom: "4_ip2"
  top: "4_prob"
}
layer {
  name: "loss"
  type: "ODRandomAwardBMultinomialLogisticLoss"
  bottom: "1_prob"
  bottom: "2_prob"
  bottom: "3_prob"
  bottom: "4_prob"
  bottom: "label"
  top: "multiple-output loss"
  top: "batch-instance-counts"
  top: "train-instance-counts"
  top: "curr-b-value"
  loss_weight: 1
  loss_weight: 0
  loss_weight: 0
  loss_weight: 0
  include {
    phase: TRAIN
  }
  od_param {
    start_rand_award: 0.5
    rand_select: true
    decrease_rand: true
    draw_m_minus_one: false
    rand_decay: 0.001
    award_all: false
  }
}
I0207 16:01:15.310771 29982 layer_factory.hpp:74] Creating layer cifar
I0207 16:01:15.310784 29982 net.cpp:90] Creating Layer cifar
I0207 16:01:15.310789 29982 net.cpp:368] cifar -> data
I0207 16:01:15.310811 29982 net.cpp:368] cifar -> label
I0207 16:01:15.310818 29982 net.cpp:120] Setting up cifar
I0207 16:01:15.310870 29982 db.cpp:34] Opened lmdb /home/mike/ml_lab/mod/MCL_Caffe/examples/cifar10/cifar10_train_lmdb
I0207 16:01:15.310899 29982 data_layer.cpp:67] output data size: 10,3,32,32
I0207 16:01:15.310905 29982 data_transformer.cpp:22] Loading mean file from: /home/mike/ml_lab/mod/MCL_Caffe/examples/cifar10/mean.binaryproto
I0207 16:01:15.310997 29982 net.cpp:127] Top shape: 10 3 32 32 (30720)
I0207 16:01:15.311002 29982 net.cpp:127] Top shape: 10 (10)
I0207 16:01:15.311007 29982 layer_factory.hpp:74] Creating layer data_cifar_0_split
I0207 16:01:15.311012 29982 net.cpp:90] Creating Layer data_cifar_0_split
I0207 16:01:15.311015 29982 net.cpp:410] data_cifar_0_split <- data
I0207 16:01:15.311022 29982 net.cpp:368] data_cifar_0_split -> data_cifar_0_split_0
I0207 16:01:15.311029 29982 net.cpp:368] data_cifar_0_split -> data_cifar_0_split_1
I0207 16:01:15.311033 29982 net.cpp:368] data_cifar_0_split -> data_cifar_0_split_2
I0207 16:01:15.311036 29982 net.cpp:368] data_cifar_0_split -> data_cifar_0_split_3
I0207 16:01:15.311039 29982 net.cpp:120] Setting up data_cifar_0_split
I0207 16:01:15.311044 29982 net.cpp:127] Top shape: 10 3 32 32 (30720)
I0207 16:01:15.311048 29982 net.cpp:127] Top shape: 10 3 32 32 (30720)
I0207 16:01:15.311050 29982 net.cpp:127] Top shape: 10 3 32 32 (30720)
I0207 16:01:15.311055 29982 net.cpp:127] Top shape: 10 3 32 32 (30720)
I0207 16:01:15.311058 29982 layer_factory.hpp:74] Creating layer 1_conv1
I0207 16:01:15.311063 29982 net.cpp:90] Creating Layer 1_conv1
I0207 16:01:15.311065 29982 net.cpp:410] 1_conv1 <- data_cifar_0_split_0
I0207 16:01:15.311069 29982 net.cpp:368] 1_conv1 -> 1_conv1
I0207 16:01:15.311076 29982 net.cpp:120] Setting up 1_conv1
I0207 16:01:15.311475 29982 net.cpp:127] Top shape: 10 32 32 32 (327680)
I0207 16:01:15.311483 29982 layer_factory.hpp:74] Creating layer 1_pool1
I0207 16:01:15.311488 29982 net.cpp:90] Creating Layer 1_pool1
I0207 16:01:15.311491 29982 net.cpp:410] 1_pool1 <- 1_conv1
I0207 16:01:15.311493 29982 net.cpp:368] 1_pool1 -> 1_pool1
I0207 16:01:15.311497 29982 net.cpp:120] Setting up 1_pool1
I0207 16:01:15.311507 29982 net.cpp:127] Top shape: 10 32 16 16 (81920)
I0207 16:01:15.311511 29982 layer_factory.hpp:74] Creating layer 1_relu1
I0207 16:01:15.311514 29982 net.cpp:90] Creating Layer 1_relu1
I0207 16:01:15.311518 29982 net.cpp:410] 1_relu1 <- 1_pool1
I0207 16:01:15.311520 29982 net.cpp:357] 1_relu1 -> 1_pool1 (in-place)
I0207 16:01:15.311524 29982 net.cpp:120] Setting up 1_relu1
I0207 16:01:15.311529 29982 net.cpp:127] Top shape: 10 32 16 16 (81920)
I0207 16:01:15.311532 29982 layer_factory.hpp:74] Creating layer 1_conv2
I0207 16:01:15.311534 29982 net.cpp:90] Creating Layer 1_conv2
I0207 16:01:15.311537 29982 net.cpp:410] 1_conv2 <- 1_pool1
I0207 16:01:15.311542 29982 net.cpp:368] 1_conv2 -> 1_conv2
I0207 16:01:15.311545 29982 net.cpp:120] Setting up 1_conv2
I0207 16:01:15.312158 29982 net.cpp:127] Top shape: 10 32 16 16 (81920)
I0207 16:01:15.312165 29982 layer_factory.hpp:74] Creating layer 1_relu2
I0207 16:01:15.312167 29982 net.cpp:90] Creating Layer 1_relu2
I0207 16:01:15.312170 29982 net.cpp:410] 1_relu2 <- 1_conv2
I0207 16:01:15.312173 29982 net.cpp:357] 1_relu2 -> 1_conv2 (in-place)
I0207 16:01:15.312176 29982 net.cpp:120] Setting up 1_relu2
I0207 16:01:15.312180 29982 net.cpp:127] Top shape: 10 32 16 16 (81920)
I0207 16:01:15.312182 29982 layer_factory.hpp:74] Creating layer 1_pool2
I0207 16:01:15.312186 29982 net.cpp:90] Creating Layer 1_pool2
I0207 16:01:15.312189 29982 net.cpp:410] 1_pool2 <- 1_conv2
I0207 16:01:15.312192 29982 net.cpp:368] 1_pool2 -> 1_pool2
I0207 16:01:15.312196 29982 net.cpp:120] Setting up 1_pool2
I0207 16:01:15.312201 29982 net.cpp:127] Top shape: 10 32 8 8 (20480)
I0207 16:01:15.312202 29982 layer_factory.hpp:74] Creating layer 1_conv3
I0207 16:01:15.312206 29982 net.cpp:90] Creating Layer 1_conv3
I0207 16:01:15.312208 29982 net.cpp:410] 1_conv3 <- 1_pool2
I0207 16:01:15.312212 29982 net.cpp:368] 1_conv3 -> 1_conv3
I0207 16:01:15.312223 29982 net.cpp:120] Setting up 1_conv3
I0207 16:01:15.313451 29982 net.cpp:127] Top shape: 10 64 8 8 (40960)
I0207 16:01:15.313457 29982 layer_factory.hpp:74] Creating layer 1_relu3
I0207 16:01:15.313462 29982 net.cpp:90] Creating Layer 1_relu3
I0207 16:01:15.313463 29982 net.cpp:410] 1_relu3 <- 1_conv3
I0207 16:01:15.313467 29982 net.cpp:357] 1_relu3 -> 1_conv3 (in-place)
I0207 16:01:15.313469 29982 net.cpp:120] Setting up 1_relu3
I0207 16:01:15.313472 29982 net.cpp:127] Top shape: 10 64 8 8 (40960)
I0207 16:01:15.313475 29982 layer_factory.hpp:74] Creating layer 1_pool3
I0207 16:01:15.313480 29982 net.cpp:90] Creating Layer 1_pool3
I0207 16:01:15.313484 29982 net.cpp:410] 1_pool3 <- 1_conv3
I0207 16:01:15.313489 29982 net.cpp:368] 1_pool3 -> 1_pool3
I0207 16:01:15.313495 29982 net.cpp:120] Setting up 1_pool3
I0207 16:01:15.313501 29982 net.cpp:127] Top shape: 10 64 4 4 (10240)
I0207 16:01:15.313505 29982 layer_factory.hpp:74] Creating layer 1_ip1
I0207 16:01:15.313511 29982 net.cpp:90] Creating Layer 1_ip1
I0207 16:01:15.313515 29982 net.cpp:410] 1_ip1 <- 1_pool3
I0207 16:01:15.313521 29982 net.cpp:368] 1_ip1 -> 1_ip1
I0207 16:01:15.313529 29982 net.cpp:120] Setting up 1_ip1
I0207 16:01:15.315037 29982 net.cpp:127] Top shape: 10 64 (640)
I0207 16:01:15.315045 29982 layer_factory.hpp:74] Creating layer 1_ip2
I0207 16:01:15.315052 29982 net.cpp:90] Creating Layer 1_ip2
I0207 16:01:15.315057 29982 net.cpp:410] 1_ip2 <- 1_ip1
I0207 16:01:15.315063 29982 net.cpp:368] 1_ip2 -> 1_ip2
I0207 16:01:15.315069 29982 net.cpp:120] Setting up 1_ip2
I0207 16:01:15.315098 29982 net.cpp:127] Top shape: 10 10 (100)
I0207 16:01:15.315106 29982 layer_factory.hpp:74] Creating layer 1_prob
I0207 16:01:15.315112 29982 net.cpp:90] Creating Layer 1_prob
I0207 16:01:15.315119 29982 net.cpp:410] 1_prob <- 1_ip2
I0207 16:01:15.315124 29982 net.cpp:368] 1_prob -> 1_prob
I0207 16:01:15.315129 29982 net.cpp:120] Setting up 1_prob
I0207 16:01:15.315140 29982 net.cpp:127] Top shape: 10 10 (100)
I0207 16:01:15.315145 29982 layer_factory.hpp:74] Creating layer 2_conv1
I0207 16:01:15.315150 29982 net.cpp:90] Creating Layer 2_conv1
I0207 16:01:15.315155 29982 net.cpp:410] 2_conv1 <- data_cifar_0_split_1
I0207 16:01:15.315161 29982 net.cpp:368] 2_conv1 -> 2_conv1
I0207 16:01:15.315167 29982 net.cpp:120] Setting up 2_conv1
I0207 16:01:15.315239 29982 net.cpp:127] Top shape: 10 32 32 32 (327680)
I0207 16:01:15.315245 29982 layer_factory.hpp:74] Creating layer 2_pool1
I0207 16:01:15.315253 29982 net.cpp:90] Creating Layer 2_pool1
I0207 16:01:15.315256 29982 net.cpp:410] 2_pool1 <- 2_conv1
I0207 16:01:15.315261 29982 net.cpp:368] 2_pool1 -> 2_pool1
I0207 16:01:15.315268 29982 net.cpp:120] Setting up 2_pool1
I0207 16:01:15.315275 29982 net.cpp:127] Top shape: 10 32 16 16 (81920)
I0207 16:01:15.315280 29982 layer_factory.hpp:74] Creating layer 2_relu1
I0207 16:01:15.315286 29982 net.cpp:90] Creating Layer 2_relu1
I0207 16:01:15.315290 29982 net.cpp:410] 2_relu1 <- 2_pool1
I0207 16:01:15.315295 29982 net.cpp:357] 2_relu1 -> 2_pool1 (in-place)
I0207 16:01:15.315300 29982 net.cpp:120] Setting up 2_relu1
I0207 16:01:15.315305 29982 net.cpp:127] Top shape: 10 32 16 16 (81920)
I0207 16:01:15.315309 29982 layer_factory.hpp:74] Creating layer 2_conv2
I0207 16:01:15.315315 29982 net.cpp:90] Creating Layer 2_conv2
I0207 16:01:15.315317 29982 net.cpp:410] 2_conv2 <- 2_pool1
I0207 16:01:15.315323 29982 net.cpp:368] 2_conv2 -> 2_conv2
I0207 16:01:15.315330 29982 net.cpp:120] Setting up 2_conv2
I0207 16:01:15.315948 29982 net.cpp:127] Top shape: 10 32 16 16 (81920)
I0207 16:01:15.315955 29982 layer_factory.hpp:74] Creating layer 2_relu2
I0207 16:01:15.315960 29982 net.cpp:90] Creating Layer 2_relu2
I0207 16:01:15.315964 29982 net.cpp:410] 2_relu2 <- 2_conv2
I0207 16:01:15.315969 29982 net.cpp:357] 2_relu2 -> 2_conv2 (in-place)
I0207 16:01:15.315974 29982 net.cpp:120] Setting up 2_relu2
I0207 16:01:15.315979 29982 net.cpp:127] Top shape: 10 32 16 16 (81920)
I0207 16:01:15.315982 29982 layer_factory.hpp:74] Creating layer 2_pool2
I0207 16:01:15.315997 29982 net.cpp:90] Creating Layer 2_pool2
I0207 16:01:15.316004 29982 net.cpp:410] 2_pool2 <- 2_conv2
I0207 16:01:15.316010 29982 net.cpp:368] 2_pool2 -> 2_pool2
I0207 16:01:15.316015 29982 net.cpp:120] Setting up 2_pool2
I0207 16:01:15.316022 29982 net.cpp:127] Top shape: 10 32 8 8 (20480)
I0207 16:01:15.316027 29982 layer_factory.hpp:74] Creating layer 2_conv3
I0207 16:01:15.316035 29982 net.cpp:90] Creating Layer 2_conv3
I0207 16:01:15.316040 29982 net.cpp:410] 2_conv3 <- 2_pool2
I0207 16:01:15.316045 29982 net.cpp:368] 2_conv3 -> 2_conv3
I0207 16:01:15.316051 29982 net.cpp:120] Setting up 2_conv3
I0207 16:01:15.317292 29982 net.cpp:127] Top shape: 10 64 8 8 (40960)
I0207 16:01:15.317301 29982 layer_factory.hpp:74] Creating layer 2_relu3
I0207 16:01:15.317306 29982 net.cpp:90] Creating Layer 2_relu3
I0207 16:01:15.317309 29982 net.cpp:410] 2_relu3 <- 2_conv3
I0207 16:01:15.317315 29982 net.cpp:357] 2_relu3 -> 2_conv3 (in-place)
I0207 16:01:15.317322 29982 net.cpp:120] Setting up 2_relu3
I0207 16:01:15.317327 29982 net.cpp:127] Top shape: 10 64 8 8 (40960)
I0207 16:01:15.317330 29982 layer_factory.hpp:74] Creating layer 2_pool3
I0207 16:01:15.317334 29982 net.cpp:90] Creating Layer 2_pool3
I0207 16:01:15.317338 29982 net.cpp:410] 2_pool3 <- 2_conv3
I0207 16:01:15.317343 29982 net.cpp:368] 2_pool3 -> 2_pool3
I0207 16:01:15.317348 29982 net.cpp:120] Setting up 2_pool3
I0207 16:01:15.317356 29982 net.cpp:127] Top shape: 10 64 4 4 (10240)
I0207 16:01:15.317359 29982 layer_factory.hpp:74] Creating layer 2_ip1
I0207 16:01:15.317365 29982 net.cpp:90] Creating Layer 2_ip1
I0207 16:01:15.317369 29982 net.cpp:410] 2_ip1 <- 2_pool3
I0207 16:01:15.317374 29982 net.cpp:368] 2_ip1 -> 2_ip1
I0207 16:01:15.317379 29982 net.cpp:120] Setting up 2_ip1
I0207 16:01:15.318869 29982 net.cpp:127] Top shape: 10 64 (640)
I0207 16:01:15.318878 29982 layer_factory.hpp:74] Creating layer 2_ip2
I0207 16:01:15.318887 29982 net.cpp:90] Creating Layer 2_ip2
I0207 16:01:15.318895 29982 net.cpp:410] 2_ip2 <- 2_ip1
I0207 16:01:15.318902 29982 net.cpp:368] 2_ip2 -> 2_ip2
I0207 16:01:15.318907 29982 net.cpp:120] Setting up 2_ip2
I0207 16:01:15.318934 29982 net.cpp:127] Top shape: 10 10 (100)
I0207 16:01:15.318940 29982 layer_factory.hpp:74] Creating layer 2_prob
I0207 16:01:15.318945 29982 net.cpp:90] Creating Layer 2_prob
I0207 16:01:15.318949 29982 net.cpp:410] 2_prob <- 2_ip2
I0207 16:01:15.318955 29982 net.cpp:368] 2_prob -> 2_prob
I0207 16:01:15.318960 29982 net.cpp:120] Setting up 2_prob
I0207 16:01:15.318967 29982 net.cpp:127] Top shape: 10 10 (100)
I0207 16:01:15.318970 29982 layer_factory.hpp:74] Creating layer 3_conv1
I0207 16:01:15.318979 29982 net.cpp:90] Creating Layer 3_conv1
I0207 16:01:15.318984 29982 net.cpp:410] 3_conv1 <- data_cifar_0_split_2
I0207 16:01:15.318989 29982 net.cpp:368] 3_conv1 -> 3_conv1
I0207 16:01:15.318994 29982 net.cpp:120] Setting up 3_conv1
I0207 16:01:15.319066 29982 net.cpp:127] Top shape: 10 32 32 32 (327680)
I0207 16:01:15.319072 29982 layer_factory.hpp:74] Creating layer 3_pool1
I0207 16:01:15.319077 29982 net.cpp:90] Creating Layer 3_pool1
I0207 16:01:15.319082 29982 net.cpp:410] 3_pool1 <- 3_conv1
I0207 16:01:15.319087 29982 net.cpp:368] 3_pool1 -> 3_pool1
I0207 16:01:15.319092 29982 net.cpp:120] Setting up 3_pool1
I0207 16:01:15.319098 29982 net.cpp:127] Top shape: 10 32 16 16 (81920)
I0207 16:01:15.319103 29982 layer_factory.hpp:74] Creating layer 3_relu1
I0207 16:01:15.319106 29982 net.cpp:90] Creating Layer 3_relu1
I0207 16:01:15.319110 29982 net.cpp:410] 3_relu1 <- 3_pool1
I0207 16:01:15.319115 29982 net.cpp:357] 3_relu1 -> 3_pool1 (in-place)
I0207 16:01:15.319120 29982 net.cpp:120] Setting up 3_relu1
I0207 16:01:15.319125 29982 net.cpp:127] Top shape: 10 32 16 16 (81920)
I0207 16:01:15.319129 29982 layer_factory.hpp:74] Creating layer 3_conv2
I0207 16:01:15.319134 29982 net.cpp:90] Creating Layer 3_conv2
I0207 16:01:15.319138 29982 net.cpp:410] 3_conv2 <- 3_pool1
I0207 16:01:15.319144 29982 net.cpp:368] 3_conv2 -> 3_conv2
I0207 16:01:15.319152 29982 net.cpp:120] Setting up 3_conv2
I0207 16:01:15.319789 29982 net.cpp:127] Top shape: 10 32 16 16 (81920)
I0207 16:01:15.319797 29982 layer_factory.hpp:74] Creating layer 3_relu2
I0207 16:01:15.319802 29982 net.cpp:90] Creating Layer 3_relu2
I0207 16:01:15.319806 29982 net.cpp:410] 3_relu2 <- 3_conv2
I0207 16:01:15.319811 29982 net.cpp:357] 3_relu2 -> 3_conv2 (in-place)
I0207 16:01:15.319818 29982 net.cpp:120] Setting up 3_relu2
I0207 16:01:15.319823 29982 net.cpp:127] Top shape: 10 32 16 16 (81920)
I0207 16:01:15.319825 29982 layer_factory.hpp:74] Creating layer 3_pool2
I0207 16:01:15.319830 29982 net.cpp:90] Creating Layer 3_pool2
I0207 16:01:15.319834 29982 net.cpp:410] 3_pool2 <- 3_conv2
I0207 16:01:15.319839 29982 net.cpp:368] 3_pool2 -> 3_pool2
I0207 16:01:15.319844 29982 net.cpp:120] Setting up 3_pool2
I0207 16:01:15.319850 29982 net.cpp:127] Top shape: 10 32 8 8 (20480)
I0207 16:01:15.319854 29982 layer_factory.hpp:74] Creating layer 3_conv3
I0207 16:01:15.319862 29982 net.cpp:90] Creating Layer 3_conv3
I0207 16:01:15.319866 29982 net.cpp:410] 3_conv3 <- 3_pool2
I0207 16:01:15.319874 29982 net.cpp:368] 3_conv3 -> 3_conv3
I0207 16:01:15.319878 29982 net.cpp:120] Setting up 3_conv3
I0207 16:01:15.321120 29982 net.cpp:127] Top shape: 10 64 8 8 (40960)
I0207 16:01:15.321127 29982 layer_factory.hpp:74] Creating layer 3_relu3
I0207 16:01:15.321135 29982 net.cpp:90] Creating Layer 3_relu3
I0207 16:01:15.321138 29982 net.cpp:410] 3_relu3 <- 3_conv3
I0207 16:01:15.321143 29982 net.cpp:357] 3_relu3 -> 3_conv3 (in-place)
I0207 16:01:15.321148 29982 net.cpp:120] Setting up 3_relu3
I0207 16:01:15.321153 29982 net.cpp:127] Top shape: 10 64 8 8 (40960)
I0207 16:01:15.321157 29982 layer_factory.hpp:74] Creating layer 3_pool3
I0207 16:01:15.321163 29982 net.cpp:90] Creating Layer 3_pool3
I0207 16:01:15.321166 29982 net.cpp:410] 3_pool3 <- 3_conv3
I0207 16:01:15.321171 29982 net.cpp:368] 3_pool3 -> 3_pool3
I0207 16:01:15.321177 29982 net.cpp:120] Setting up 3_pool3
I0207 16:01:15.321183 29982 net.cpp:127] Top shape: 10 64 4 4 (10240)
I0207 16:01:15.321187 29982 layer_factory.hpp:74] Creating layer 3_ip1
I0207 16:01:15.321192 29982 net.cpp:90] Creating Layer 3_ip1
I0207 16:01:15.321195 29982 net.cpp:410] 3_ip1 <- 3_pool3
I0207 16:01:15.321202 29982 net.cpp:368] 3_ip1 -> 3_ip1
I0207 16:01:15.321208 29982 net.cpp:120] Setting up 3_ip1
I0207 16:01:15.322700 29982 net.cpp:127] Top shape: 10 64 (640)
I0207 16:01:15.322707 29982 layer_factory.hpp:74] Creating layer 3_ip2
I0207 16:01:15.322713 29982 net.cpp:90] Creating Layer 3_ip2
I0207 16:01:15.322717 29982 net.cpp:410] 3_ip2 <- 3_ip1
I0207 16:01:15.322729 29982 net.cpp:368] 3_ip2 -> 3_ip2
I0207 16:01:15.322739 29982 net.cpp:120] Setting up 3_ip2
I0207 16:01:15.322767 29982 net.cpp:127] Top shape: 10 10 (100)
I0207 16:01:15.322772 29982 layer_factory.hpp:74] Creating layer 3_prob
I0207 16:01:15.322778 29982 net.cpp:90] Creating Layer 3_prob
I0207 16:01:15.322782 29982 net.cpp:410] 3_prob <- 3_ip2
I0207 16:01:15.322788 29982 net.cpp:368] 3_prob -> 3_prob
I0207 16:01:15.322796 29982 net.cpp:120] Setting up 3_prob
I0207 16:01:15.322805 29982 net.cpp:127] Top shape: 10 10 (100)
I0207 16:01:15.322809 29982 layer_factory.hpp:74] Creating layer 4_conv1
I0207 16:01:15.322816 29982 net.cpp:90] Creating Layer 4_conv1
I0207 16:01:15.322820 29982 net.cpp:410] 4_conv1 <- data_cifar_0_split_3
I0207 16:01:15.322827 29982 net.cpp:368] 4_conv1 -> 4_conv1
I0207 16:01:15.322834 29982 net.cpp:120] Setting up 4_conv1
I0207 16:01:15.322904 29982 net.cpp:127] Top shape: 10 32 32 32 (327680)
I0207 16:01:15.322911 29982 layer_factory.hpp:74] Creating layer 4_pool1
I0207 16:01:15.322916 29982 net.cpp:90] Creating Layer 4_pool1
I0207 16:01:15.322919 29982 net.cpp:410] 4_pool1 <- 4_conv1
I0207 16:01:15.322926 29982 net.cpp:368] 4_pool1 -> 4_pool1
I0207 16:01:15.322932 29982 net.cpp:120] Setting up 4_pool1
I0207 16:01:15.322937 29982 net.cpp:127] Top shape: 10 32 16 16 (81920)
I0207 16:01:15.322942 29982 layer_factory.hpp:74] Creating layer 4_relu1
I0207 16:01:15.322945 29982 net.cpp:90] Creating Layer 4_relu1
I0207 16:01:15.322949 29982 net.cpp:410] 4_relu1 <- 4_pool1
I0207 16:01:15.322962 29982 net.cpp:357] 4_relu1 -> 4_pool1 (in-place)
I0207 16:01:15.322968 29982 net.cpp:120] Setting up 4_relu1
I0207 16:01:15.322973 29982 net.cpp:127] Top shape: 10 32 16 16 (81920)
I0207 16:01:15.322976 29982 layer_factory.hpp:74] Creating layer 4_conv2
I0207 16:01:15.322981 29982 net.cpp:90] Creating Layer 4_conv2
I0207 16:01:15.322985 29982 net.cpp:410] 4_conv2 <- 4_pool1
I0207 16:01:15.322991 29982 net.cpp:368] 4_conv2 -> 4_conv2
I0207 16:01:15.322998 29982 net.cpp:120] Setting up 4_conv2
I0207 16:01:15.323622 29982 net.cpp:127] Top shape: 10 32 16 16 (81920)
I0207 16:01:15.323632 29982 layer_factory.hpp:74] Creating layer 4_relu2
I0207 16:01:15.323640 29982 net.cpp:90] Creating Layer 4_relu2
I0207 16:01:15.323645 29982 net.cpp:410] 4_relu2 <- 4_conv2
I0207 16:01:15.323650 29982 net.cpp:357] 4_relu2 -> 4_conv2 (in-place)
I0207 16:01:15.323655 29982 net.cpp:120] Setting up 4_relu2
I0207 16:01:15.323660 29982 net.cpp:127] Top shape: 10 32 16 16 (81920)
I0207 16:01:15.323663 29982 layer_factory.hpp:74] Creating layer 4_pool2
I0207 16:01:15.323668 29982 net.cpp:90] Creating Layer 4_pool2
I0207 16:01:15.323673 29982 net.cpp:410] 4_pool2 <- 4_conv2
I0207 16:01:15.323678 29982 net.cpp:368] 4_pool2 -> 4_pool2
I0207 16:01:15.323683 29982 net.cpp:120] Setting up 4_pool2
I0207 16:01:15.323689 29982 net.cpp:127] Top shape: 10 32 8 8 (20480)
I0207 16:01:15.323693 29982 layer_factory.hpp:74] Creating layer 4_conv3
I0207 16:01:15.323699 29982 net.cpp:90] Creating Layer 4_conv3
I0207 16:01:15.323703 29982 net.cpp:410] 4_conv3 <- 4_pool2
I0207 16:01:15.323709 29982 net.cpp:368] 4_conv3 -> 4_conv3
I0207 16:01:15.323714 29982 net.cpp:120] Setting up 4_conv3
I0207 16:01:15.324936 29982 net.cpp:127] Top shape: 10 64 8 8 (40960)
I0207 16:01:15.324944 29982 layer_factory.hpp:74] Creating layer 4_relu3
I0207 16:01:15.324949 29982 net.cpp:90] Creating Layer 4_relu3
I0207 16:01:15.324951 29982 net.cpp:410] 4_relu3 <- 4_conv3
I0207 16:01:15.324956 29982 net.cpp:357] 4_relu3 -> 4_conv3 (in-place)
I0207 16:01:15.324961 29982 net.cpp:120] Setting up 4_relu3
I0207 16:01:15.324966 29982 net.cpp:127] Top shape: 10 64 8 8 (40960)
I0207 16:01:15.324970 29982 layer_factory.hpp:74] Creating layer 4_pool3
I0207 16:01:15.324975 29982 net.cpp:90] Creating Layer 4_pool3
I0207 16:01:15.324978 29982 net.cpp:410] 4_pool3 <- 4_conv3
I0207 16:01:15.324985 29982 net.cpp:368] 4_pool3 -> 4_pool3
I0207 16:01:15.324990 29982 net.cpp:120] Setting up 4_pool3
I0207 16:01:15.324995 29982 net.cpp:127] Top shape: 10 64 4 4 (10240)
I0207 16:01:15.325000 29982 layer_factory.hpp:74] Creating layer 4_ip1
I0207 16:01:15.325006 29982 net.cpp:90] Creating Layer 4_ip1
I0207 16:01:15.325008 29982 net.cpp:410] 4_ip1 <- 4_pool3
I0207 16:01:15.325016 29982 net.cpp:368] 4_ip1 -> 4_ip1
I0207 16:01:15.325029 29982 net.cpp:120] Setting up 4_ip1
I0207 16:01:15.326519 29982 net.cpp:127] Top shape: 10 64 (640)
I0207 16:01:15.326527 29982 layer_factory.hpp:74] Creating layer 4_ip2
I0207 16:01:15.326535 29982 net.cpp:90] Creating Layer 4_ip2
I0207 16:01:15.326539 29982 net.cpp:410] 4_ip2 <- 4_ip1
I0207 16:01:15.326546 29982 net.cpp:368] 4_ip2 -> 4_ip2
I0207 16:01:15.326552 29982 net.cpp:120] Setting up 4_ip2
I0207 16:01:15.326577 29982 net.cpp:127] Top shape: 10 10 (100)
I0207 16:01:15.326584 29982 layer_factory.hpp:74] Creating layer 4_prob
I0207 16:01:15.326591 29982 net.cpp:90] Creating Layer 4_prob
I0207 16:01:15.326596 29982 net.cpp:410] 4_prob <- 4_ip2
I0207 16:01:15.326601 29982 net.cpp:368] 4_prob -> 4_prob
I0207 16:01:15.326606 29982 net.cpp:120] Setting up 4_prob
I0207 16:01:15.326612 29982 net.cpp:127] Top shape: 10 10 (100)
I0207 16:01:15.326616 29982 layer_factory.hpp:74] Creating layer loss
I0207 16:01:15.326625 29982 net.cpp:90] Creating Layer loss
I0207 16:01:15.326630 29982 net.cpp:410] loss <- 1_prob
I0207 16:01:15.326644 29982 net.cpp:410] loss <- 2_prob
I0207 16:01:15.326648 29982 net.cpp:410] loss <- 3_prob
I0207 16:01:15.326653 29982 net.cpp:410] loss <- 4_prob
I0207 16:01:15.326656 29982 net.cpp:410] loss <- label
I0207 16:01:15.326671 29982 net.cpp:368] loss -> multiple-output loss
I0207 16:01:15.326683 29982 net.cpp:368] loss -> batch-instance-counts
I0207 16:01:15.326692 29982 net.cpp:368] loss -> train-instance-counts
I0207 16:01:15.326699 29982 net.cpp:368] loss -> curr-b-value
I0207 16:01:15.326709 29982 net.cpp:120] Setting up loss
I0207 16:01:15.326720 29982 net.cpp:127] Top shape: 4 1 1 1 (4)
I0207 16:01:15.326725 29982 net.cpp:129]     with loss weight 1
I0207 16:01:15.326740 29982 net.cpp:127] Top shape: 4 1 1 1 (4)
I0207 16:01:15.326745 29982 net.cpp:127] Top shape: 4 1 1 1 (4)
I0207 16:01:15.326750 29982 net.cpp:127] Top shape: 1 1 1 1 (1)
I0207 16:01:15.326753 29982 net.cpp:192] loss needs backward computation.
I0207 16:01:15.326758 29982 net.cpp:192] 4_prob needs backward computation.
I0207 16:01:15.326761 29982 net.cpp:192] 4_ip2 needs backward computation.
I0207 16:01:15.326766 29982 net.cpp:192] 4_ip1 needs backward computation.
I0207 16:01:15.326768 29982 net.cpp:192] 4_pool3 needs backward computation.
I0207 16:01:15.326771 29982 net.cpp:192] 4_relu3 needs backward computation.
…
I0207 16:01:15.327811 29982 net.cpp:287] The NetState phase (1) differed from the phase (0) specified by a rule in layer loss
I0207 16:01:15.327993 29982 net.cpp:42] Initializing net from parameters: 
name: "CIFAR10_quick"
state {
  phase: TEST
}
layer {
  name: "cifar"
  type: "Data"
  top: "data"
  top: "label"
  include {
    phase: TEST
  }
  transform_param {
    mean_file: "/home/mike/ml_lab/mod/MCL_Caffe/examples/cifar10/mean.binaryproto"
  }
  data_param {
    source: "/home/mike/ml_lab/mod/MCL_Caffe/examples/cifar10/cifar10_test_lmdb"
    batch_size: 100
    backend: LMDB
  }
}
layer {
  name: "1_conv1"
  type: "Convolution"
  bottom: "data"
  top: "1_conv1"
  param {
    lr_mult: 1
  }
  param {
    lr_mult: 2
  }
  convolution_param {
    num_output: 32
    pad: 2
    kernel_size: 5
    stride: 1
    weight_filler {
      type: "gaussian"
      std: 0.0001
    }
    bias_filler {
      type: "constant"
    }
  }
}
layer {
  name: "1_pool1"
  type: "Pooling"
  bottom: "1_conv1"
  top: "1_pool1"
  pooling_param {
    pool: MAX
    kernel_size: 3
    stride: 2
  }
}
layer {
  name: "1_relu1"
  type: "ReLU"
  bottom: "1_pool1"
  top: "1_pool1"
}
layer {
  name: "1_conv2"
  type: "Convolution"
  bottom: "1_pool1"
  top: "1_conv2"
  param {
    lr_mult: 1
  }
  param {
    lr_mult: 2
  }
  convolution_param {
    num_output: 32
    pad: 2
    kernel_size: 5
    stride: 1
    weight_filler {
      type: "gaussian"
      std: 0.01
    }
    bias_filler {
      type: "constant"
    }
  }
}
layer {
  name: "1_relu2"
  type: "ReLU"
  bottom: "1_conv2"
  top: "1_conv2"
}
layer {
  name: "1_pool2"
  type: "Pooling"
  bottom: "1_conv2"
  top: "1_pool2"
  pooling_param {
    pool: AVE
    kernel_size: 3
    stride: 2
  }
}
layer {
  name: "1_conv3"
  type: "Convolution"
  bottom: "1_pool2"
  top: "1_conv3"
  param {
    lr_mult: 1
  }
  param {
    lr_mult: 2
  }
  convolution_param {
    num_output: 64
    pad: 2
    kernel_size: 5
    stride: 1
    weight_filler {
      type: "gaussian"
      std: 0.01
    }
    bias_filler {
      type: "constant"
    }
  }
}
layer {
  name: "1_relu3"
  type: "ReLU"
  bottom: "1_conv3"
  top: "1_conv3"
}
layer {
  name: "1_pool3"
  type: "Pooling"
  bottom: "1_conv3"
  top: "1_pool3"
  pooling_param {
    pool: AVE
    kernel_size: 3
    stride: 2
  }
}
layer {
  name: "1_ip1"
  type: "InnerProduct"
  bottom: "1_pool3"
  top: "1_ip1"
  param {
    lr_mult: 1
  }
  param {
    lr_mult: 2
  }
  inner_product_param {
    num_output: 64
    weight_filler {
      type: "gaussian"
      std: 0.1
    }
    bias_filler {
      type: "constant"
    }
  }
}
layer {
  name: "1_ip2"
  type: "InnerProduct"
  bottom: "1_ip1"
  top: "1_ip2"
  param {
    lr_mult: 1
  }
  param {
    lr_mult: 2
  }
  inner_product_param {
    num_output: 10
    weight_filler {
      type: "gaussian"
      std: 0.1
    }
    bias_filler {
      type: "constant"
    }
  }
}
layer {
  name: "1_prob"
  type: "Softmax"
  bottom: "1_ip2"
  top: "1_prob"
}
layer {
  name: "2_conv1"
  type: "Convolution"
  bottom: "data"
  top: "2_conv1"
  param {
    lr_mult: 1
  }
  param {
    lr_mult: 2
  }
  convolution_param {
    num_output: 32
    pad: 2
    kernel_size: 5
    stride: 1
    weight_filler {
      type: "gaussian"
      std: 0.0001
    }
    bias_filler {
      type: "constant"
    }
  }
}
layer {
  name: "2_pool1"
  type: "Pooling"
  bottom: "2_conv1"
  top: "2_pool1"
  pooling_param {
    pool: MAX
    kernel_size: 3
    stride: 2
  }
}
layer {
  name: "2_relu1"
  type: "ReLU"
  bottom: "2_pool1"
  top: "2_pool1"
}
layer {
  name: "2_conv2"
  type: "Convolution"
  bottom: "2_pool1"
  top: "2_conv2"
  param {
    lr_mult: 1
  }
  param {
    lr_mult: 2
  }
  convolution_param {
    num_output: 32
    pad: 2
    kernel_size: 5
    stride: 1
    weight_filler {
      type: "gaussian"
      std: 0.01
    }
    bias_filler {
      type: "constant"
    }
  }
}
layer {
  name: "2_relu2"
  type: "ReLU"
  bottom: "2_conv2"
  top: "2_conv2"
}
layer {
  name: "2_pool2"
  type: "Pooling"
  bottom: "2_conv2"
  top: "2_pool2"
  pooling_param {
    pool: AVE
    kernel_size: 3
    stride: 2
  }
}
layer {
  name: "2_conv3"
  type: "Convolution"
  bottom: "2_pool2"
  top: "2_conv3"
  param {
    lr_mult: 1
  }
  param {
    lr_mult: 2
  }
  convolution_param {
    num_output: 64
    pad: 2
    kernel_size: 5
    stride: 1
    weight_filler {
      type: "gaussian"
      std: 0.01
    }
    bias_filler {
      type: "constant"
    }
  }
}
layer {
  name: "2_relu3"
  type: "ReLU"
  bottom: "2_conv3"
  top: "2_conv3"
}
layer {
  name: "2_pool3"
  type: "Pooling"
  bottom: "2_conv3"
  top: "2_pool3"
  pooling_param {
    pool: AVE
    kernel_size: 3
    stride: 2
  }
}
layer {
  name: "2_ip1"
  type: "InnerProduct"
  bottom: "2_pool3"
  top: "2_ip1"
  param {
    lr_mult: 1
  }
  param {
    lr_mult: 2
  }
  inner_product_param {
    num_output: 64
    weight_filler {
      type: "gaussian"
      std: 0.1
    }
    bias_filler {
      type: "constant"
    }
  }
}
layer {
  name: "2_ip2"
  type: "InnerProduct"
  bottom: "2_ip1"
  top: "2_ip2"
  param {
    lr_mult: 1
  }
  param {
    lr_mult: 2
  }
  inner_product_param {
    num_output: 10
    weight_filler {
      type: "gaussian"
      std: 0.1
    }
    bias_filler {
      type: "constant"
    }
  }
}
layer {
  name: "2_prob"
  type: "Softmax"
  bottom: "2_ip2"
  top: "2_prob"
}
layer {
  name: "3_conv1"
  type: "Convolution"
  bottom: "data"
  top: "3_conv1"
  param {
    lr_mult: 1
  }
  param {
    lr_mult: 2
  }
  convolution_param {
    num_output: 32
    pad: 2
    kernel_size: 5
    stride: 1
    weight_filler {
      type: "gaussian"
      std: 0.0001
    }
    bias_filler {
      type: "constant"
    }
  }
}
layer {
  name: "3_pool1"
  type: "Pooling"
  bottom: "3_conv1"
  top: "3_pool1"
  pooling_param {
    pool: MAX
    kernel_size: 3
    stride: 2
  }
}
layer {
  name: "3_relu1"
  type: "ReLU"
  bottom: "3_pool1"
  top: "3_pool1"
}
layer {
  name: "3_conv2"
  type: "Convolution"
  bottom: "3_pool1"
  top: "3_conv2"
  param {
    lr_mult: 1
  }
  param {
    lr_mult: 2
  }
  convolution_param {
    num_output: 32
    pad: 2
    kernel_size: 5
    stride: 1
    weight_filler {
      type: "gaussian"
      std: 0.01
    }
    bias_filler {
      type: "constant"
    }
  }
}
layer {
  name: "3_relu2"
  type: "ReLU"
  bottom: "3_conv2"
  top: "3_conv2"
}
layer {
  name: "3_pool2"
  type: "Pooling"
  bottom: "3_conv2"
  top: "3_pool2"
  pooling_param {
    pool: AVE
    kernel_size: 3
    stride: 2
  }
}
layer {
  name: "3_conv3"
  type: "Convolution"
  bottom: "3_pool2"
  top: "3_conv3"
  param {
    lr_mult: 1
  }
  param {
    lr_mult: 2
  }
  convolution_param {
    num_output: 64
    pad: 2
    kernel_size: 5
    stride: 1
    weight_filler {
      type: "gaussian"
      std: 0.01
    }
    bias_filler {
      type: "constant"
    }
  }
}
layer {
  name: "3_relu3"
  type: "ReLU"
  bottom: "3_conv3"
  top: "3_conv3"
}
layer {
  name: "3_pool3"
  type: "Pooling"
  bottom: "3_conv3"
  top: "3_pool3"
  pooling_param {
    pool: AVE
    kernel_size: 3
    stride: 2
  }
}
layer {
  name: "3_ip1"
  type: "InnerProduct"
  bottom: "3_pool3"
  top: "3_ip1"
  param {
    lr_mult: 1
  }
  param {
    lr_mult: 2
  }
  inner_product_param {
    num_output: 64
    weight_filler {
      type: "gaussian"
      std: 0.1
    }
    bias_filler {
      type: "constant"
    }
  }
}
layer {
  name: "3_ip2"
  type: "InnerProduct"
  bottom: "3_ip1"
  top: "3_ip2"
  param {
    lr_mult: 1
  }
  param {
    lr_mult: 2
  }
  inner_product_param {
    num_output: 10
    weight_filler {
      type: "gaussian"
      std: 0.1
    }
    bias_filler {
      type: "constant"
    }
  }
}
layer {
  name: "3_prob"
  type: "Softmax"
  bottom: "3_ip2"
  top: "3_prob"
}
layer {
  name: "4_conv1"
  type: "Convolution"
  bottom: "data"
  top: "4_conv1"
  param {
    lr_mult: 1
  }
  param {
    lr_mult: 2
  }
  convolution_param {
    num_output: 32
    pad: 2
    kernel_size: 5
    stride: 1
    weight_filler {
      type: "gaussian"
      std: 0.0001
    }
    bias_filler {
      type: "constant"
    }
  }
}
layer {
  name: "4_pool1"
  type: "Pooling"
  bottom: "4_conv1"
  top: "4_pool1"
  pooling_param {
    pool: MAX
    kernel_size: 3
    stride: 2
  }
}
layer {
  name: "4_relu1"
  type: "ReLU"
  bottom: "4_pool1"
  top: "4_pool1"
}
layer {
  name: "4_conv2"
  type: "Convolution"
  bottom: "4_pool1"
  top: "4_conv2"
  param {
    lr_mult: 1
  }
  param {
    lr_mult: 2
  }
  convolution_param {
    num_output: 32
    pad: 2
    kernel_size: 5
    stride: 1
    weight_filler {
      type: "gaussian"
      std: 0.01
    }
    bias_filler {
      type: "constant"
    }
  }
}
layer {
  name: "4_relu2"
  type: "ReLU"
  bottom: "4_conv2"
  top: "4_conv2"
}
layer {
  name: "4_pool2"
  type: "Pooling"
  bottom: "4_conv2"
  top: "4_pool2"
  pooling_param {
    pool: AVE
    kernel_size: 3
    stride: 2
  }
}
layer {
  name: "4_conv3"
  type: "Convolution"
  bottom: "4_pool2"
  top: "4_conv3"
  param {
    lr_mult: 1
  }
  param {
    lr_mult: 2
  }
  convolution_param {
    num_output: 64
    pad: 2
    kernel_size: 5
    stride: 1
    weight_filler {
      type: "gaussian"
      std: 0.01
    }
    bias_filler {
      type: "constant"
    }
  }
}
layer {
  name: "4_relu3"
  type: "ReLU"
  bottom: "4_conv3"
  top: "4_conv3"
}
layer {
  name: "4_pool3"
  type: "Pooling"
  bottom: "4_conv3"
  top: "4_pool3"
  pooling_param {
    pool: AVE
    kernel_size: 3
    stride: 2
  }
}
layer {
  name: "4_ip1"
  type: "InnerProduct"
  bottom: "4_pool3"
  top: "4_ip1"
  param {
    lr_mult: 1
  }
  param {
    lr_mult: 2
  }
  inner_product_param {
    num_output: 64
    weight_filler {
      type: "gaussian"
      std: 0.1
    }
    bias_filler {
      type: "constant"
    }
  }
}
layer {
  name: "4_ip2"
  type: "InnerProduct"
  bottom: "4_ip1"
  top: "4_ip2"
  param {
    lr_mult: 1
  }
  param {
    lr_mult: 2
  }
  inner_product_param {
    num_output: 10
    weight_filler {
      type: "gaussian"
      std: 0.1
    }
    bias_filler {
      type: "constant"
    }
  }
}
layer {
  name: "4_prob"
  type: "Softmax"
  bottom: "4_ip2"
  top: "4_prob"
}
layer {
  name: "1_accuracy"
  type: "Accuracy"
  bottom: "1_prob"
  bottom: "label"
  top: "1_accuracy"
  include {
    phase: TEST
  }
}
layer {
  name: "2_accuracy"
  type: "Accuracy"
  bottom: "2_prob"
  bottom: "label"
  top: "2_accuracy"
  include {
    phase: TEST
  }
}
layer {
  name: "3_accuracy"
  type: "Accuracy"
  bottom: "3_prob"
  bottom: "label"
  top: "3_accuracy"
  include {
    phase: TEST
  }
}
layer {
  name: "4_accuracy"
  type: "Accuracy"
  bottom: "4_prob"
  bottom: "label"
  top: "4_accuracy"
  include {
    phase: TEST
  }
}
layer {
  name: "accuracy"
  type: "OracleAccuracy"
  bottom: "1_prob"
  bottom: "2_prob"
  bottom: "3_prob"
  bottom: "4_prob"
  bottom: "label"
  top: "oracle accuracy"
  include {
    phase: TEST
  }
}
I0207 16:01:15.328230 29982 layer_factory.hpp:74] Creating layer cifar
I0207 16:01:15.328239 29982 net.cpp:90] Creating Layer cifar
I0207 16:01:15.328243 29982 net.cpp:368] cifar -> data
I0207 16:01:15.328251 29982 net.cpp:368] cifar -> label
I0207 16:01:15.328258 29982 net.cpp:120] Setting up cifar
I0207 16:01:15.328291 29982 db.cpp:34] Opened lmdb /home/mike/ml_lab/mod/MCL_Caffe/examples/cifar10/cifar10_test_lmdb
I0207 16:01:15.328308 29982 data_layer.cpp:67] output data size: 100,3,32,32
I0207 16:01:15.328316 29982 data_transformer.cpp:22] Loading mean file from: /home/mike/ml_lab/mod/MCL_Caffe/examples/cifar10/mean.binaryproto
I0207 16:01:15.328709 29982 net.cpp:127] Top shape: 100 3 32 32 (307200)
I0207 16:01:15.328716 29982 net.cpp:127] Top shape: 100 (100)
I0207 16:01:15.328721 29982 layer_factory.hpp:74] Creating layer data_cifar_0_split
I0207 16:01:15.328727 29982 net.cpp:90] Creating Layer data_cifar_0_split
I0207 16:01:15.328732 29982 net.cpp:410] data_cifar_0_split <- data
I0207 16:01:15.328737 29982 net.cpp:368] data_cifar_0_split -> data_cifar_0_split_0
I0207 16:01:15.328744 29982 net.cpp:368] data_cifar_0_split -> data_cifar_0_split_1
I0207 16:01:15.328750 29982 net.cpp:368] data_cifar_0_split -> data_cifar_0_split_2
I0207 16:01:15.328757 29982 net.cpp:368] data_cifar_0_split -> data_cifar_0_split_3
I0207 16:01:15.328760 29982 net.cpp:120] Setting up data_cifar_0_split
I0207 16:01:15.328768 29982 net.cpp:127] Top shape: 100 3 32 32 (307200)
I0207 16:01:15.328771 29982 net.cpp:127] Top shape: 100 3 32 32 (307200)
I0207 16:01:15.328776 29982 net.cpp:127] Top shape: 100 3 32 32 (307200)
I0207 16:01:15.328780 29982 net.cpp:127] Top shape: 100 3 32 32 (307200)
I0207 16:01:15.328784 29982 layer_factory.hpp:74] Creating layer label_cifar_1_split
I0207 16:01:15.328789 29982 net.cpp:90] Creating Layer label_cifar_1_split
I0207 16:01:15.328793 29982 net.cpp:410] label_cifar_1_split <- label
I0207 16:01:15.328796 29982 net.cpp:368] label_cifar_1_split -> label_cifar_1_split_0
I0207 16:01:15.328802 29982 net.cpp:368] label_cifar_1_split -> label_cifar_1_split_1
I0207 16:01:15.328809 29982 net.cpp:368] label_cifar_1_split -> label_cifar_1_split_2
I0207 16:01:15.328814 29982 net.cpp:368] label_cifar_1_split -> label_cifar_1_split_3
I0207 16:01:15.328819 29982 net.cpp:368] label_cifar_1_split -> label_cifar_1_split_4
I0207 16:01:15.328824 29982 net.cpp:120] Setting up label_cifar_1_split
I0207 16:01:15.328830 29982 net.cpp:127] Top shape: 100 (100)
I0207 16:01:15.328833 29982 net.cpp:127] Top shape: 100 (100)
I0207 16:01:15.328837 29982 net.cpp:127] Top shape: 100 (100)
I0207 16:01:15.328841 29982 net.cpp:127] Top shape: 100 (100)
I0207 16:01:15.328845 29982 net.cpp:127] Top shape: 100 (100)
I0207 16:01:15.328850 29982 layer_factory.hpp:74] Creating layer 1_conv1
I0207 16:01:15.328855 29982 net.cpp:90] Creating Layer 1_conv1
I0207 16:01:15.328860 29982 net.cpp:410] 1_conv1 <- data_cifar_0_split_0
I0207 16:01:15.328865 29982 net.cpp:368] 1_conv1 -> 1_conv1
I0207 16:01:15.328871 29982 net.cpp:120] Setting up 1_conv1
I0207 16:01:15.328958 29982 net.cpp:127] Top shape: 100 32 32 32 (3276800)
I0207 16:01:15.328965 29982 layer_factory.hpp:74] Creating layer 1_pool1
I0207 16:01:15.328971 29982 net.cpp:90] Creating Layer 1_pool1
I0207 16:01:15.328975 29982 net.cpp:410] 1_pool1 <- 1_conv1
I0207 16:01:15.328985 29982 net.cpp:368] 1_pool1 -> 1_pool1
I0207 16:01:15.328991 29982 net.cpp:120] Setting up 1_pool1
I0207 16:01:15.328997 29982 net.cpp:127] Top shape: 100 32 16 16 (819200)
I0207 16:01:15.329001 29982 layer_factory.hpp:74] Creating layer 1_relu1
I0207 16:01:15.329006 29982 net.cpp:90] Creating Layer 1_relu1
I0207 16:01:15.329010 29982 net.cpp:410] 1_relu1 <- 1_pool1
I0207 16:01:15.329015 29982 net.cpp:357] 1_relu1 -> 1_pool1 (in-place)
I0207 16:01:15.329018 29982 net.cpp:120] Setting up 1_relu1
I0207 16:01:15.329023 29982 net.cpp:127] Top shape: 100 32 16 16 (819200)
I0207 16:01:15.329026 29982 layer_factory.hpp:74] Creating layer 1_conv2
I0207 16:01:15.329040 29982 net.cpp:90] Creating Layer 1_conv2
I0207 16:01:15.329043 29982 net.cpp:410] 1_conv2 <- 1_pool1
I0207 16:01:15.329048 29982 net.cpp:368] 1_conv2 -> 1_conv2
I0207 16:01:15.329053 29982 net.cpp:120] Setting up 1_conv2
I0207 16:01:15.329735 29982 net.cpp:127] Top shape: 100 32 16 16 (819200)
I0207 16:01:15.329751 29982 layer_factory.hpp:74] Creating layer 1_relu2
I0207 16:01:15.329756 29982 net.cpp:90] Creating Layer 1_relu2
I0207 16:01:15.329759 29982 net.cpp:410] 1_relu2 <- 1_conv2
I0207 16:01:15.329764 29982 net.cpp:357] 1_relu2 -> 1_conv2 (in-place)
I0207 16:01:15.329769 29982 net.cpp:120] Setting up 1_relu2
I0207 16:01:15.329776 29982 net.cpp:127] Top shape: 100 32 16 16 (819200)
I0207 16:01:15.329778 29982 layer_factory.hpp:74] Creating layer 1_pool2
I0207 16:01:15.329784 29982 net.cpp:90] Creating Layer 1_pool2
I0207 16:01:15.329788 29982 net.cpp:410] 1_pool2 <- 1_conv2
I0207 16:01:15.329795 29982 net.cpp:368] 1_pool2 -> 1_pool2
I0207 16:01:15.329800 29982 net.cpp:120] Setting up 1_pool2
I0207 16:01:15.329807 29982 net.cpp:127] Top shape: 100 32 8 8 (204800)
I0207 16:01:15.329812 29982 layer_factory.hpp:74] Creating layer 1_conv3
I0207 16:01:15.329818 29982 net.cpp:90] Creating Layer 1_conv3
I0207 16:01:15.329823 29982 net.cpp:410] 1_conv3 <- 1_pool2
I0207 16:01:15.329829 29982 net.cpp:368] 1_conv3 -> 1_conv3
I0207 16:01:15.329840 29982 net.cpp:120] Setting up 1_conv3
I0207 16:01:15.330994 29982 net.cpp:127] Top shape: 100 64 8 8 (409600)
I0207 16:01:15.331006 29982 layer_factory.hpp:74] Creating layer 1_relu3
I0207 16:01:15.331010 29982 net.cpp:90] Creating Layer 1_relu3
I0207 16:01:15.331014 29982 net.cpp:410] 1_relu3 <- 1_conv3
I0207 16:01:15.331020 29982 net.cpp:357] 1_relu3 -> 1_conv3 (in-place)
I0207 16:01:15.331025 29982 net.cpp:120] Setting up 1_relu3
I0207 16:01:15.331030 29982 net.cpp:127] Top shape: 100 64 8 8 (409600)
I0207 16:01:15.331033 29982 layer_factory.hpp:74] Creating layer 1_pool3
I0207 16:01:15.331038 29982 net.cpp:90] Creating Layer 1_pool3
I0207 16:01:15.331043 29982 net.cpp:410] 1_pool3 <- 1_conv3
I0207 16:01:15.331046 29982 net.cpp:368] 1_pool3 -> 1_pool3
I0207 16:01:15.331053 29982 net.cpp:120] Setting up 1_pool3
I0207 16:01:15.331059 29982 net.cpp:127] Top shape: 100 64 4 4 (102400)
I0207 16:01:15.331063 29982 layer_factory.hpp:74] Creating layer 1_ip1
I0207 16:01:15.331069 29982 net.cpp:90] Creating Layer 1_ip1
I0207 16:01:15.331073 29982 net.cpp:410] 1_ip1 <- 1_pool3
I0207 16:01:15.331079 29982 net.cpp:368] 1_ip1 -> 1_ip1
I0207 16:01:15.331085 29982 net.cpp:120] Setting up 1_ip1
I0207 16:01:15.332569 29982 net.cpp:127] Top shape: 100 64 (6400)
I0207 16:01:15.332577 29982 layer_factory.hpp:74] Creating layer 1_ip2
I0207 16:01:15.332584 29982 net.cpp:90] Creating Layer 1_ip2
I0207 16:01:15.332588 29982 net.cpp:410] 1_ip2 <- 1_ip1
I0207 16:01:15.332594 29982 net.cpp:368] 1_ip2 -> 1_ip2
I0207 16:01:15.332599 29982 net.cpp:120] Setting up 1_ip2
I0207 16:01:15.332628 29982 net.cpp:127] Top shape: 100 10 (1000)
I0207 16:01:15.332638 29982 layer_factory.hpp:74] Creating layer 1_prob
I0207 16:01:15.332644 29982 net.cpp:90] Creating Layer 1_prob
I0207 16:01:15.332648 29982 net.cpp:410] 1_prob <- 1_ip2
I0207 16:01:15.332653 29982 net.cpp:368] 1_prob -> 1_prob
I0207 16:01:15.332659 29982 net.cpp:120] Setting up 1_prob
I0207 16:01:15.332665 29982 net.cpp:127] Top shape: 100 10 (1000)
I0207 16:01:15.332669 29982 layer_factory.hpp:74] Creating layer 1_prob_1_prob_0_split
I0207 16:01:15.332674 29982 net.cpp:90] Creating Layer 1_prob_1_prob_0_split
I0207 16:01:15.332677 29982 net.cpp:410] 1_prob_1_prob_0_split <- 1_prob
I0207 16:01:15.332684 29982 net.cpp:368] 1_prob_1_prob_0_split -> 1_prob_1_prob_0_split_0
I0207 16:01:15.332690 29982 net.cpp:368] 1_prob_1_prob_0_split -> 1_prob_1_prob_0_split_1
I0207 16:01:15.332695 29982 net.cpp:120] Setting up 1_prob_1_prob_0_split
I0207 16:01:15.332700 29982 net.cpp:127] Top shape: 100 10 (1000)
I0207 16:01:15.332705 29982 net.cpp:127] Top shape: 100 10 (1000)
I0207 16:01:15.332707 29982 layer_factory.hpp:74] Creating layer 2_conv1
I0207 16:01:15.332726 29982 net.cpp:90] Creating Layer 2_conv1
I0207 16:01:15.332731 29982 net.cpp:410] 2_conv1 <- data_cifar_0_split_1
I0207 16:01:15.332738 29982 net.cpp:368] 2_conv1 -> 2_conv1
I0207 16:01:15.332744 29982 net.cpp:120] Setting up 2_conv1
I0207 16:01:15.332811 29982 net.cpp:127] Top shape: 100 32 32 32 (3276800)
I0207 16:01:15.332818 29982 layer_factory.hpp:74] Creating layer 2_pool1
I0207 16:01:15.332823 29982 net.cpp:90] Creating Layer 2_pool1
I0207 16:01:15.332828 29982 net.cpp:410] 2_pool1 <- 2_conv1
I0207 16:01:15.332833 29982 net.cpp:368] 2_pool1 -> 2_pool1
I0207 16:01:15.332837 29982 net.cpp:120] Setting up 2_pool1
I0207 16:01:15.332850 29982 net.cpp:127] Top shape: 100 32 16 16 (819200)
I0207 16:01:15.332854 29982 layer_factory.hpp:74] Creating layer 2_relu1
I0207 16:01:15.332859 29982 net.cpp:90] Creating Layer 2_relu1
I0207 16:01:15.332864 29982 net.cpp:410] 2_relu1 <- 2_pool1
I0207 16:01:15.332867 29982 net.cpp:357] 2_relu1 -> 2_pool1 (in-place)
I0207 16:01:15.332872 29982 net.cpp:120] Setting up 2_relu1
I0207 16:01:15.332877 29982 net.cpp:127] Top shape: 100 32 16 16 (819200)
I0207 16:01:15.332881 29982 layer_factory.hpp:74] Creating layer 2_conv2
I0207 16:01:15.332886 29982 net.cpp:90] Creating Layer 2_conv2
I0207 16:01:15.332890 29982 net.cpp:410] 2_conv2 <- 2_pool1
I0207 16:01:15.332895 29982 net.cpp:368] 2_conv2 -> 2_conv2
I0207 16:01:15.332901 29982 net.cpp:120] Setting up 2_conv2
I0207 16:01:15.333495 29982 net.cpp:127] Top shape: 100 32 16 16 (819200)
I0207 16:01:15.333508 29982 layer_factory.hpp:74] Creating layer 2_relu2
I0207 16:01:15.333513 29982 net.cpp:90] Creating Layer 2_relu2
I0207 16:01:15.333516 29982 net.cpp:410] 2_relu2 <- 2_conv2
I0207 16:01:15.333521 29982 net.cpp:357] 2_relu2 -> 2_conv2 (in-place)
I0207 16:01:15.333526 29982 net.cpp:120] Setting up 2_relu2
I0207 16:01:15.333531 29982 net.cpp:127] Top shape: 100 32 16 16 (819200)
I0207 16:01:15.333535 29982 layer_factory.hpp:74] Creating layer 2_pool2
I0207 16:01:15.333540 29982 net.cpp:90] Creating Layer 2_pool2
I0207 16:01:15.333544 29982 net.cpp:410] 2_pool2 <- 2_conv2
I0207 16:01:15.333549 29982 net.cpp:368] 2_pool2 -> 2_pool2
I0207 16:01:15.333555 29982 net.cpp:120] Setting up 2_pool2
I0207 16:01:15.333561 29982 net.cpp:127] Top shape: 100 32 8 8 (204800)
I0207 16:01:15.333565 29982 layer_factory.hpp:74] Creating layer 2_conv3
I0207 16:01:15.333570 29982 net.cpp:90] Creating Layer 2_conv3
I0207 16:01:15.333575 29982 net.cpp:410] 2_conv3 <- 2_pool2
I0207 16:01:15.333580 29982 net.cpp:368] 2_conv3 -> 2_conv3
I0207 16:01:15.333586 29982 net.cpp:120] Setting up 2_conv3
I0207 16:01:15.334758 29982 net.cpp:127] Top shape: 100 64 8 8 (409600)
I0207 16:01:15.334764 29982 layer_factory.hpp:74] Creating layer 2_relu3
I0207 16:01:15.334770 29982 net.cpp:90] Creating Layer 2_relu3
I0207 16:01:15.334774 29982 net.cpp:410] 2_relu3 <- 2_conv3
I0207 16:01:15.334779 29982 net.cpp:357] 2_relu3 -> 2_conv3 (in-place)
I0207 16:01:15.334784 29982 net.cpp:120] Setting up 2_relu3
I0207 16:01:15.334789 29982 net.cpp:127] Top shape: 100 64 8 8 (409600)
I0207 16:01:15.334794 29982 layer_factory.hpp:74] Creating layer 2_pool3
I0207 16:01:15.334800 29982 net.cpp:90] Creating Layer 2_pool3
I0207 16:01:15.334803 29982 net.cpp:410] 2_pool3 <- 2_conv3
I0207 16:01:15.334808 29982 net.cpp:368] 2_pool3 -> 2_pool3
I0207 16:01:15.334813 29982 net.cpp:120] Setting up 2_pool3
I0207 16:01:15.334820 29982 net.cpp:127] Top shape: 100 64 4 4 (102400)
I0207 16:01:15.334823 29982 layer_factory.hpp:74] Creating layer 2_ip1
I0207 16:01:15.334830 29982 net.cpp:90] Creating Layer 2_ip1
I0207 16:01:15.334832 29982 net.cpp:410] 2_ip1 <- 2_pool3
I0207 16:01:15.334838 29982 net.cpp:368] 2_ip1 -> 2_ip1
I0207 16:01:15.334844 29982 net.cpp:120] Setting up 2_ip1
I0207 16:01:15.336331 29982 net.cpp:127] Top shape: 100 64 (6400)
I0207 16:01:15.336341 29982 layer_factory.hpp:74] Creating layer 2_ip2
I0207 16:01:15.336347 29982 net.cpp:90] Creating Layer 2_ip2
I0207 16:01:15.336351 29982 net.cpp:410] 2_ip2 <- 2_ip1
I0207 16:01:15.336359 29982 net.cpp:368] 2_ip2 -> 2_ip2
I0207 16:01:15.336375 29982 net.cpp:120] Setting up 2_ip2
I0207 16:01:15.336405 29982 net.cpp:127] Top shape: 100 10 (1000)
I0207 16:01:15.336410 29982 layer_factory.hpp:74] Creating layer 2_prob
I0207 16:01:15.336416 29982 net.cpp:90] Creating Layer 2_prob
I0207 16:01:15.336421 29982 net.cpp:410] 2_prob <- 2_ip2
I0207 16:01:15.336426 29982 net.cpp:368] 2_prob -> 2_prob
I0207 16:01:15.336431 29982 net.cpp:120] Setting up 2_prob
I0207 16:01:15.336437 29982 net.cpp:127] Top shape: 100 10 (1000)
I0207 16:01:15.336441 29982 layer_factory.hpp:74] Creating layer 2_prob_2_prob_0_split
I0207 16:01:15.336446 29982 net.cpp:90] Creating Layer 2_prob_2_prob_0_split
I0207 16:01:15.336449 29982 net.cpp:410] 2_prob_2_prob_0_split <- 2_prob
I0207 16:01:15.336457 29982 net.cpp:368] 2_prob_2_prob_0_split -> 2_prob_2_prob_0_split_0
I0207 16:01:15.336462 29982 net.cpp:368] 2_prob_2_prob_0_split -> 2_prob_2_prob_0_split_1
I0207 16:01:15.336469 29982 net.cpp:120] Setting up 2_prob_2_prob_0_split
I0207 16:01:15.336475 29982 net.cpp:127] Top shape: 100 10 (1000)
I0207 16:01:15.336483 29982 net.cpp:127] Top shape: 100 10 (1000)
I0207 16:01:15.336485 29982 layer_factory.hpp:74] Creating layer 3_conv1
I0207 16:01:15.336491 29982 net.cpp:90] Creating Layer 3_conv1
I0207 16:01:15.336495 29982 net.cpp:410] 3_conv1 <- data_cifar_0_split_2
I0207 16:01:15.336500 29982 net.cpp:368] 3_conv1 -> 3_conv1
I0207 16:01:15.336506 29982 net.cpp:120] Setting up 3_conv1
I0207 16:01:15.336572 29982 net.cpp:127] Top shape: 100 32 32 32 (3276800)
I0207 16:01:15.336580 29982 layer_factory.hpp:74] Creating layer 3_pool1
I0207 16:01:15.336585 29982 net.cpp:90] Creating Layer 3_pool1
I0207 16:01:15.336587 29982 net.cpp:410] 3_pool1 <- 3_conv1
I0207 16:01:15.336592 29982 net.cpp:368] 3_pool1 -> 3_pool1
I0207 16:01:15.336597 29982 net.cpp:120] Setting up 3_pool1
I0207 16:01:15.336604 29982 net.cpp:127] Top shape: 100 32 16 16 (819200)
I0207 16:01:15.336607 29982 layer_factory.hpp:74] Creating layer 3_relu1
I0207 16:01:15.336613 29982 net.cpp:90] Creating Layer 3_relu1
I0207 16:01:15.336617 29982 net.cpp:410] 3_relu1 <- 3_pool1
I0207 16:01:15.336621 29982 net.cpp:357] 3_relu1 -> 3_pool1 (in-place)
I0207 16:01:15.336627 29982 net.cpp:120] Setting up 3_relu1
I0207 16:01:15.336632 29982 net.cpp:127] Top shape: 100 32 16 16 (819200)
I0207 16:01:15.336634 29982 layer_factory.hpp:74] Creating layer 3_conv2
I0207 16:01:15.336642 29982 net.cpp:90] Creating Layer 3_conv2
I0207 16:01:15.336650 29982 net.cpp:410] 3_conv2 <- 3_pool1
I0207 16:01:15.336666 29982 net.cpp:368] 3_conv2 -> 3_conv2
I0207 16:01:15.336673 29982 net.cpp:120] Setting up 3_conv2
I0207 16:01:15.337272 29982 net.cpp:127] Top shape: 100 32 16 16 (819200)
I0207 16:01:15.337280 29982 layer_factory.hpp:74] Creating layer 3_relu2
I0207 16:01:15.337285 29982 net.cpp:90] Creating Layer 3_relu2
I0207 16:01:15.337288 29982 net.cpp:410] 3_relu2 <- 3_conv2
I0207 16:01:15.337293 29982 net.cpp:357] 3_relu2 -> 3_conv2 (in-place)
I0207 16:01:15.337298 29982 net.cpp:120] Setting up 3_relu2
I0207 16:01:15.337303 29982 net.cpp:127] Top shape: 100 32 16 16 (819200)
I0207 16:01:15.337307 29982 layer_factory.hpp:74] Creating layer 3_pool2
I0207 16:01:15.337313 29982 net.cpp:90] Creating Layer 3_pool2
I0207 16:01:15.337316 29982 net.cpp:410] 3_pool2 <- 3_conv2
I0207 16:01:15.337321 29982 net.cpp:368] 3_pool2 -> 3_pool2
I0207 16:01:15.337327 29982 net.cpp:120] Setting up 3_pool2
I0207 16:01:15.337333 29982 net.cpp:127] Top shape: 100 32 8 8 (204800)
I0207 16:01:15.337337 29982 layer_factory.hpp:74] Creating layer 3_conv3
I0207 16:01:15.337343 29982 net.cpp:90] Creating Layer 3_conv3
I0207 16:01:15.337347 29982 net.cpp:410] 3_conv3 <- 3_pool2
I0207 16:01:15.337352 29982 net.cpp:368] 3_conv3 -> 3_conv3
I0207 16:01:15.337357 29982 net.cpp:120] Setting up 3_conv3
I0207 16:01:15.338515 29982 net.cpp:127] Top shape: 100 64 8 8 (409600)
I0207 16:01:15.338523 29982 layer_factory.hpp:74] Creating layer 3_relu3
I0207 16:01:15.338528 29982 net.cpp:90] Creating Layer 3_relu3
I0207 16:01:15.338532 29982 net.cpp:410] 3_relu3 <- 3_conv3
I0207 16:01:15.338538 29982 net.cpp:357] 3_relu3 -> 3_conv3 (in-place)
I0207 16:01:15.338552 29982 net.cpp:120] Setting up 3_relu3
I0207 16:01:15.338558 29982 net.cpp:127] Top shape: 100 64 8 8 (409600)
I0207 16:01:15.338563 29982 layer_factory.hpp:74] Creating layer 3_pool3
I0207 16:01:15.338568 29982 net.cpp:90] Creating Layer 3_pool3
I0207 16:01:15.338572 29982 net.cpp:410] 3_pool3 <- 3_conv3
I0207 16:01:15.338577 29982 net.cpp:368] 3_pool3 -> 3_pool3
I0207 16:01:15.338582 29982 net.cpp:120] Setting up 3_pool3
I0207 16:01:15.338588 29982 net.cpp:127] Top shape: 100 64 4 4 (102400)
I0207 16:01:15.338593 29982 layer_factory.hpp:74] Creating layer 3_ip1
I0207 16:01:15.338600 29982 net.cpp:90] Creating Layer 3_ip1
I0207 16:01:15.338603 29982 net.cpp:410] 3_ip1 <- 3_pool3
I0207 16:01:15.338609 29982 net.cpp:368] 3_ip1 -> 3_ip1
I0207 16:01:15.338616 29982 net.cpp:120] Setting up 3_ip1
I0207 16:01:15.340100 29982 net.cpp:127] Top shape: 100 64 (6400)
I0207 16:01:15.340107 29982 layer_factory.hpp:74] Creating layer 3_ip2
I0207 16:01:15.340113 29982 net.cpp:90] Creating Layer 3_ip2
I0207 16:01:15.340117 29982 net.cpp:410] 3_ip2 <- 3_ip1
I0207 16:01:15.340123 29982 net.cpp:368] 3_ip2 -> 3_ip2
I0207 16:01:15.340131 29982 net.cpp:120] Setting up 3_ip2
I0207 16:01:15.340157 29982 net.cpp:127] Top shape: 100 10 (1000)
I0207 16:01:15.340162 29982 layer_factory.hpp:74] Creating layer 3_prob
I0207 16:01:15.340169 29982 net.cpp:90] Creating Layer 3_prob
I0207 16:01:15.340173 29982 net.cpp:410] 3_prob <- 3_ip2
I0207 16:01:15.340178 29982 net.cpp:368] 3_prob -> 3_prob
I0207 16:01:15.340183 29982 net.cpp:120] Setting up 3_prob
I0207 16:01:15.340189 29982 net.cpp:127] Top shape: 100 10 (1000)
I0207 16:01:15.340193 29982 layer_factory.hpp:74] Creating layer 3_prob_3_prob_0_split
I0207 16:01:15.340198 29982 net.cpp:90] Creating Layer 3_prob_3_prob_0_split
I0207 16:01:15.340201 29982 net.cpp:410] 3_prob_3_prob_0_split <- 3_prob
I0207 16:01:15.340207 29982 net.cpp:368] 3_prob_3_prob_0_split -> 3_prob_3_prob_0_split_0
I0207 16:01:15.340214 29982 net.cpp:368] 3_prob_3_prob_0_split -> 3_prob_3_prob_0_split_1
I0207 16:01:15.340219 29982 net.cpp:120] Setting up 3_prob_3_prob_0_split
I0207 16:01:15.340224 29982 net.cpp:127] Top shape: 100 10 (1000)
I0207 16:01:15.340229 29982 net.cpp:127] Top shape: 100 10 (1000)
I0207 16:01:15.340231 29982 layer_factory.hpp:74] Creating layer 4_conv1
I0207 16:01:15.340239 29982 net.cpp:90] Creating Layer 4_conv1
I0207 16:01:15.340242 29982 net.cpp:410] 4_conv1 <- data_cifar_0_split_3
I0207 16:01:15.340248 29982 net.cpp:368] 4_conv1 -> 4_conv1
I0207 16:01:15.340253 29982 net.cpp:120] Setting up 4_conv1
I0207 16:01:15.340322 29982 net.cpp:127] Top shape: 100 32 32 32 (3276800)
I0207 16:01:15.340327 29982 layer_factory.hpp:74] Creating layer 4_pool1
I0207 16:01:15.340332 29982 net.cpp:90] Creating Layer 4_pool1
I0207 16:01:15.340337 29982 net.cpp:410] 4_pool1 <- 4_conv1
I0207 16:01:15.340342 29982 net.cpp:368] 4_pool1 -> 4_pool1
I0207 16:01:15.340347 29982 net.cpp:120] Setting up 4_pool1
I0207 16:01:15.340353 29982 net.cpp:127] Top shape: 100 32 16 16 (819200)
I0207 16:01:15.340358 29982 layer_factory.hpp:74] Creating layer 4_relu1
I0207 16:01:15.340361 29982 net.cpp:90] Creating Layer 4_relu1
I0207 16:01:15.340365 29982 net.cpp:410] 4_relu1 <- 4_pool1
I0207 16:01:15.340371 29982 net.cpp:357] 4_relu1 -> 4_pool1 (in-place)
I0207 16:01:15.340376 29982 net.cpp:120] Setting up 4_relu1
I0207 16:01:15.340385 29982 net.cpp:127] Top shape: 100 32 16 16 (819200)
I0207 16:01:15.340399 29982 layer_factory.hpp:74] Creating layer 4_conv2
I0207 16:01:15.340405 29982 net.cpp:90] Creating Layer 4_conv2
I0207 16:01:15.340415 29982 net.cpp:410] 4_conv2 <- 4_pool1
I0207 16:01:15.340422 29982 net.cpp:368] 4_conv2 -> 4_conv2
I0207 16:01:15.340428 29982 net.cpp:120] Setting up 4_conv2
I0207 16:01:15.341017 29982 net.cpp:127] Top shape: 100 32 16 16 (819200)
I0207 16:01:15.341028 29982 layer_factory.hpp:74] Creating layer 4_relu2
I0207 16:01:15.341034 29982 net.cpp:90] Creating Layer 4_relu2
I0207 16:01:15.341038 29982 net.cpp:410] 4_relu2 <- 4_conv2
I0207 16:01:15.341042 29982 net.cpp:357] 4_relu2 -> 4_conv2 (in-place)
I0207 16:01:15.341054 29982 net.cpp:120] Setting up 4_relu2
I0207 16:01:15.341060 29982 net.cpp:127] Top shape: 100 32 16 16 (819200)
I0207 16:01:15.341064 29982 layer_factory.hpp:74] Creating layer 4_pool2
I0207 16:01:15.341069 29982 net.cpp:90] Creating Layer 4_pool2
I0207 16:01:15.341073 29982 net.cpp:410] 4_pool2 <- 4_conv2
I0207 16:01:15.341080 29982 net.cpp:368] 4_pool2 -> 4_pool2
I0207 16:01:15.341085 29982 net.cpp:120] Setting up 4_pool2
I0207 16:01:15.341092 29982 net.cpp:127] Top shape: 100 32 8 8 (204800)
I0207 16:01:15.341096 29982 layer_factory.hpp:74] Creating layer 4_conv3
I0207 16:01:15.341102 29982 net.cpp:90] Creating Layer 4_conv3
I0207 16:01:15.341116 29982 net.cpp:410] 4_conv3 <- 4_pool2
I0207 16:01:15.341125 29982 net.cpp:368] 4_conv3 -> 4_conv3
I0207 16:01:15.341131 29982 net.cpp:120] Setting up 4_conv3
I0207 16:01:15.342311 29982 net.cpp:127] Top shape: 100 64 8 8 (409600)
I0207 16:01:15.342320 29982 layer_factory.hpp:74] Creating layer 4_relu3
I0207 16:01:15.342326 29982 net.cpp:90] Creating Layer 4_relu3
I0207 16:01:15.342330 29982 net.cpp:410] 4_relu3 <- 4_conv3
I0207 16:01:15.342334 29982 net.cpp:357] 4_relu3 -> 4_conv3 (in-place)
I0207 16:01:15.342339 29982 net.cpp:120] Setting up 4_relu3
I0207 16:01:15.342345 29982 net.cpp:127] Top shape: 100 64 8 8 (409600)
I0207 16:01:15.342348 29982 layer_factory.hpp:74] Creating layer 4_pool3
I0207 16:01:15.342355 29982 net.cpp:90] Creating Layer 4_pool3
I0207 16:01:15.342358 29982 net.cpp:410] 4_pool3 <- 4_conv3
I0207 16:01:15.342363 29982 net.cpp:368] 4_pool3 -> 4_pool3
I0207 16:01:15.342368 29982 net.cpp:120] Setting up 4_pool3
I0207 16:01:15.342375 29982 net.cpp:127] Top shape: 100 64 4 4 (102400)
I0207 16:01:15.342378 29982 layer_factory.hpp:74] Creating layer 4_ip1
I0207 16:01:15.342384 29982 net.cpp:90] Creating Layer 4_ip1
I0207 16:01:15.342387 29982 net.cpp:410] 4_ip1 <- 4_pool3
I0207 16:01:15.342394 29982 net.cpp:368] 4_ip1 -> 4_ip1
I0207 16:01:15.342399 29982 net.cpp:120] Setting up 4_ip1
I0207 16:01:15.343878 29982 net.cpp:127] Top shape: 100 64 (6400)
I0207 16:01:15.343886 29982 layer_factory.hpp:74] Creating layer 4_ip2
I0207 16:01:15.343893 29982 net.cpp:90] Creating Layer 4_ip2
I0207 16:01:15.343896 29982 net.cpp:410] 4_ip2 <- 4_ip1
I0207 16:01:15.343902 29982 net.cpp:368] 4_ip2 -> 4_ip2
I0207 16:01:15.343909 29982 net.cpp:120] Setting up 4_ip2
I0207 16:01:15.343935 29982 net.cpp:127] Top shape: 100 10 (1000)
I0207 16:01:15.343940 29982 layer_factory.hpp:74] Creating layer 4_prob
I0207 16:01:15.343945 29982 net.cpp:90] Creating Layer 4_prob
I0207 16:01:15.343950 29982 net.cpp:410] 4_prob <- 4_ip2
I0207 16:01:15.343955 29982 net.cpp:368] 4_prob -> 4_prob
I0207 16:01:15.343961 29982 net.cpp:120] Setting up 4_prob
I0207 16:01:15.343967 29982 net.cpp:127] Top shape: 100 10 (1000)
I0207 16:01:15.343971 29982 layer_factory.hpp:74] Creating layer 4_prob_4_prob_0_split
I0207 16:01:15.343976 29982 net.cpp:90] Creating Layer 4_prob_4_prob_0_split
I0207 16:01:15.343979 29982 net.cpp:410] 4_prob_4_prob_0_split <- 4_prob
I0207 16:01:15.343984 29982 net.cpp:368] 4_prob_4_prob_0_split -> 4_prob_4_prob_0_split_0
I0207 16:01:15.343989 29982 net.cpp:368] 4_prob_4_prob_0_split -> 4_prob_4_prob_0_split_1
I0207 16:01:15.343996 29982 net.cpp:120] Setting up 4_prob_4_prob_0_split
I0207 16:01:15.344000 29982 net.cpp:127] Top shape: 100 10 (1000)
I0207 16:01:15.344005 29982 net.cpp:127] Top shape: 100 10 (1000)
I0207 16:01:15.344008 29982 layer_factory.hpp:74] Creating layer 1_accuracy
I0207 16:01:15.344017 29982 net.cpp:90] Creating Layer 1_accuracy
I0207 16:01:15.344022 29982 net.cpp:410] 1_accuracy <- 1_prob_1_prob_0_split_0
I0207 16:01:15.344027 29982 net.cpp:410] 1_accuracy <- label_cifar_1_split_0
I0207 16:01:15.344033 29982 net.cpp:368] 1_accuracy -> 1_accuracy
I0207 16:01:15.344039 29982 net.cpp:120] Setting up 1_accuracy
…
I0207 16:02:14.297556 30672 net.cpp:287] The NetState phase (0) differed from the phase (1) specified by a rule in layer accuracy
I0207 16:02:14.297734 30672 net.cpp:42] Initializing net from parameters: 
name: "CIFAR10_quick"
state {
  phase: TRAIN
}
layer {
  name: "cifar"
  type: "Data"
  top: "data"
  top: "label"
  include {
    phase: TRAIN
  }
  transform_param {
    mean_file: "/home/mike/ml_lab/mod/MCL_Caffe/examples/cifar10/mean.binaryproto"
  }
  data_param {
    source: "/home/mike/ml_lab/mod/MCL_Caffe/examples/cifar10/cifar10_train_lmdb"
    batch_size: 20
    backend: LMDB
  }
}
layer {
  name: "1_conv1"
  type: "Convolution"
  bottom: "data"
  top: "1_conv1"
  param {
    lr_mult: 1
  }
  param {
    lr_mult: 2
  }
  convolution_param {
    num_output: 32
    pad: 2
    kernel_size: 5
    stride: 1
    weight_filler {
      type: "gaussian"
      std: 0.0001
    }
    bias_filler {
      type: "constant"
    }
  }
}
layer {
  name: "1_pool1"
  type: "Pooling"
  bottom: "1_conv1"
  top: "1_pool1"
  pooling_param {
    pool: MAX
    kernel_size: 3
    stride: 2
  }
}
layer {
  name: "1_relu1"
  type: "ReLU"
  bottom: "1_pool1"
  top: "1_pool1"
}
layer {
  name: "1_conv2"
  type: "Convolution"
  bottom: "1_pool1"
  top: "1_conv2"
  param {
    lr_mult: 1
  }
  param {
    lr_mult: 2
  }
  convolution_param {
    num_output: 32
    pad: 2
    kernel_size: 5
    stride: 1
    weight_filler {
      type: "gaussian"
      std: 0.01
    }
    bias_filler {
      type: "constant"
    }
  }
}
layer {
  name: "1_relu2"
  type: "ReLU"
  bottom: "1_conv2"
  top: "1_conv2"
}
layer {
  name: "1_pool2"
  type: "Pooling"
  bottom: "1_conv2"
  top: "1_pool2"
  pooling_param {
    pool: AVE
    kernel_size: 3
    stride: 2
  }
}
layer {
  name: "1_conv3"
  type: "Convolution"
  bottom: "1_pool2"
  top: "1_conv3"
  param {
    lr_mult: 1
  }
  param {
    lr_mult: 2
  }
  convolution_param {
    num_output: 64
    pad: 2
    kernel_size: 5
    stride: 1
    weight_filler {
      type: "gaussian"
      std: 0.01
    }
    bias_filler {
      type: "constant"
    }
  }
}
layer {
  name: "1_relu3"
  type: "ReLU"
  bottom: "1_conv3"
  top: "1_conv3"
}
layer {
  name: "1_pool3"
  type: "Pooling"
  bottom: "1_conv3"
  top: "1_pool3"
  pooling_param {
    pool: AVE
    kernel_size: 3
    stride: 2
  }
}
layer {
  name: "1_ip1"
  type: "InnerProduct"
  bottom: "1_pool3"
  top: "1_ip1"
  param {
    lr_mult: 1
  }
  param {
    lr_mult: 2
  }
  inner_product_param {
    num_output: 64
    weight_filler {
      type: "gaussian"
      std: 0.1
    }
    bias_filler {
      type: "constant"
    }
  }
}
layer {
  name: "1_ip2"
  type: "InnerProduct"
  bottom: "1_ip1"
  top: "1_ip2"
  param {
    lr_mult: 1
  }
  param {
    lr_mult: 2
  }
  inner_product_param {
    num_output: 10
    weight_filler {
      type: "gaussian"
      std: 0.1
    }
    bias_filler {
      type: "constant"
    }
  }
}
layer {
  name: "1_prob"
  type: "Softmax"
  bottom: "1_ip2"
  top: "1_prob"
}
layer {
  name: "2_conv1"
  type: "Convolution"
  bottom: "data"
  top: "2_conv1"
  param {
    lr_mult: 1
  }
  param {
    lr_mult: 2
  }
  convolution_param {
    num_output: 32
    pad: 2
    kernel_size: 5
    stride: 1
    weight_filler {
      type: "gaussian"
      std: 0.0001
    }
    bias_filler {
      type: "constant"
    }
  }
}
layer {
  name: "2_pool1"
  type: "Pooling"
  bottom: "2_conv1"
  top: "2_pool1"
  pooling_param {
    pool: MAX
    kernel_size: 3
    stride: 2
  }
}
layer {
  name: "2_relu1"
  type: "ReLU"
  bottom: "2_pool1"
  top: "2_pool1"
}
layer {
  name: "2_conv2"
  type: "Convolution"
  bottom: "2_pool1"
  top: "2_conv2"
  param {
    lr_mult: 1
  }
  param {
    lr_mult: 2
  }
  convolution_param {
    num_output: 32
    pad: 2
    kernel_size: 5
    stride: 1
    weight_filler {
      type: "gaussian"
      std: 0.01
    }
    bias_filler {
      type: "constant"
    }
  }
}
layer {
  name: "2_relu2"
  type: "ReLU"
  bottom: "2_conv2"
  top: "2_conv2"
}
layer {
  name: "2_pool2"
  type: "Pooling"
  bottom: "2_conv2"
  top: "2_pool2"
  pooling_param {
    pool: AVE
    kernel_size: 3
    stride: 2
  }
}
layer {
  name: "2_conv3"
  type: "Convolution"
  bottom: "2_pool2"
  top: "2_conv3"
  param {
    lr_mult: 1
  }
  param {
    lr_mult: 2
  }
  convolution_param {
    num_output: 64
    pad: 2
    kernel_size: 5
    stride: 1
    weight_filler {
      type: "gaussian"
      std: 0.01
    }
    bias_filler {
      type: "constant"
    }
  }
}
layer {
  name: "2_relu3"
  type: "ReLU"
  bottom: "2_conv3"
  top: "2_conv3"
}
layer {
  name: "2_pool3"
  type: "Pooling"
  bottom: "2_conv3"
  top: "2_pool3"
  pooling_param {
    pool: AVE
    kernel_size: 3
    stride: 2
  }
}
layer {
  name: "2_ip1"
  type: "InnerProduct"
  bottom: "2_pool3"
  top: "2_ip1"
  param {
    lr_mult: 1
  }
  param {
    lr_mult: 2
  }
  inner_product_param {
    num_output: 64
    weight_filler {
      type: "gaussian"
      std: 0.1
    }
    bias_filler {
      type: "constant"
    }
  }
}
layer {
  name: "2_ip2"
  type: "InnerProduct"
  bottom: "2_ip1"
  top: "2_ip2"
  param {
    lr_mult: 1
  }
  param {
    lr_mult: 2
  }
  inner_product_param {
    num_output: 10
    weight_filler {
      type: "gaussian"
      std: 0.1
    }
    bias_filler {
      type: "constant"
    }
  }
}
layer {
  name: "2_prob"
  type: "Softmax"
  bottom: "2_ip2"
  top: "2_prob"
}
layer {
  name: "3_conv1"
  type: "Convolution"
  bottom: "data"
  top: "3_conv1"
  param {
    lr_mult: 1
  }
  param {
    lr_mult: 2
  }
  convolution_param {
    num_output: 32
    pad: 2
    kernel_size: 5
    stride: 1
    weight_filler {
      type: "gaussian"
      std: 0.0001
    }
    bias_filler {
      type: "constant"
    }
  }
}
layer {
  name: "3_pool1"
  type: "Pooling"
  bottom: "3_conv1"
  top: "3_pool1"
  pooling_param {
    pool: MAX
    kernel_size: 3
    stride: 2
  }
}
layer {
  name: "3_relu1"
  type: "ReLU"
  bottom: "3_pool1"
  top: "3_pool1"
}
layer {
  name: "3_conv2"
  type: "Convolution"
  bottom: "3_pool1"
  top: "3_conv2"
  param {
    lr_mult: 1
  }
  param {
    lr_mult: 2
  }
  convolution_param {
    num_output: 32
    pad: 2
    kernel_size: 5
    stride: 1
    weight_filler {
      type: "gaussian"
      std: 0.01
    }
    bias_filler {
      type: "constant"
    }
  }
}
layer {
  name: "3_relu2"
  type: "ReLU"
  bottom: "3_conv2"
  top: "3_conv2"
}
layer {
  name: "3_pool2"
  type: "Pooling"
  bottom: "3_conv2"
  top: "3_pool2"
  pooling_param {
    pool: AVE
    kernel_size: 3
    stride: 2
  }
}
layer {
  name: "3_conv3"
  type: "Convolution"
  bottom: "3_pool2"
  top: "3_conv3"
  param {
    lr_mult: 1
  }
  param {
    lr_mult: 2
  }
  convolution_param {
    num_output: 64
    pad: 2
    kernel_size: 5
    stride: 1
    weight_filler {
      type: "gaussian"
      std: 0.01
    }
    bias_filler {
      type: "constant"
    }
  }
}
layer {
  name: "3_relu3"
  type: "ReLU"
  bottom: "3_conv3"
  top: "3_conv3"
}
layer {
  name: "3_pool3"
  type: "Pooling"
  bottom: "3_conv3"
  top: "3_pool3"
  pooling_param {
    pool: AVE
    kernel_size: 3
    stride: 2
  }
}
layer {
  name: "3_ip1"
  type: "InnerProduct"
  bottom: "3_pool3"
  top: "3_ip1"
  param {
    lr_mult: 1
  }
  param {
    lr_mult: 2
  }
  inner_product_param {
    num_output: 64
    weight_filler {
      type: "gaussian"
      std: 0.1
    }
    bias_filler {
      type: "constant"
    }
  }
}
layer {
  name: "3_ip2"
  type: "InnerProduct"
  bottom: "3_ip1"
  top: "3_ip2"
  param {
    lr_mult: 1
  }
  param {
    lr_mult: 2
  }
  inner_product_param {
    num_output: 10
    weight_filler {
      type: "gaussian"
      std: 0.1
    }
    bias_filler {
      type: "constant"
    }
  }
}
layer {
  name: "3_prob"
  type: "Softmax"
  bottom: "3_ip2"
  top: "3_prob"
}
layer {
  name: "4_conv1"
  type: "Convolution"
  bottom: "data"
  top: "4_conv1"
  param {
    lr_mult: 1
  }
  param {
    lr_mult: 2
  }
  convolution_param {
    num_output: 32
    pad: 2
    kernel_size: 5
    stride: 1
    weight_filler {
      type: "gaussian"
      std: 0.0001
    }
    bias_filler {
      type: "constant"
    }
  }
}
layer {
  name: "4_pool1"
  type: "Pooling"
  bottom: "4_conv1"
  top: "4_pool1"
  pooling_param {
    pool: MAX
    kernel_size: 3
    stride: 2
  }
}
layer {
  name: "4_relu1"
  type: "ReLU"
  bottom: "4_pool1"
  top: "4_pool1"
}
layer {
  name: "4_conv2"
  type: "Convolution"
  bottom: "4_pool1"
  top: "4_conv2"
  param {
    lr_mult: 1
  }
  param {
    lr_mult: 2
  }
  convolution_param {
    num_output: 32
    pad: 2
    kernel_size: 5
    stride: 1
    weight_filler {
      type: "gaussian"
      std: 0.01
    }
    bias_filler {
      type: "constant"
    }
  }
}
layer {
  name: "4_relu2"
  type: "ReLU"
  bottom: "4_conv2"
  top: "4_conv2"
}
layer {
  name: "4_pool2"
  type: "Pooling"
  bottom: "4_conv2"
  top: "4_pool2"
  pooling_param {
    pool: AVE
    kernel_size: 3
    stride: 2
  }
}
layer {
  name: "4_conv3"
  type: "Convolution"
  bottom: "4_pool2"
  top: "4_conv3"
  param {
    lr_mult: 1
  }
  param {
    lr_mult: 2
  }
  convolution_param {
    num_output: 64
    pad: 2
    kernel_size: 5
    stride: 1
    weight_filler {
      type: "gaussian"
      std: 0.01
    }
    bias_filler {
      type: "constant"
    }
  }
}
layer {
  name: "4_relu3"
  type: "ReLU"
  bottom: "4_conv3"
  top: "4_conv3"
}
layer {
  name: "4_pool3"
  type: "Pooling"
  bottom: "4_conv3"
  top: "4_pool3"
  pooling_param {
    pool: AVE
    kernel_size: 3
    stride: 2
  }
}
layer {
  name: "4_ip1"
  type: "InnerProduct"
  bottom: "4_pool3"
  top: "4_ip1"
  param {
    lr_mult: 1
  }
  param {
    lr_mult: 2
  }
  inner_product_param {
    num_output: 64
    weight_filler {
      type: "gaussian"
      std: 0.1
    }
    bias_filler {
      type: "constant"
    }
  }
}
layer {
  name: "4_ip2"
  type: "InnerProduct"
  bottom: "4_ip1"
  top: "4_ip2"
  param {
    lr_mult: 1
  }
  param {
    lr_mult: 2
  }
  inner_product_param {
    num_output: 10
    weight_filler {
      type: "gaussian"
      std: 0.1
    }
    bias_filler {
      type: "constant"
    }
  }
}
layer {
  name: "4_prob"
  type: "Softmax"
  bottom: "4_ip2"
  top: "4_prob"
}
layer {
  name: "loss"
  type: "ODRandomAwardBMultinomialLogisticLoss"
  bottom: "1_prob"
  bottom: "2_prob"
  bottom: "3_prob"
  bottom: "4_prob"
  bottom: "label"
  top: "multiple-output loss"
  top: "batch-instance-counts"
  top: "train-instance-counts"
  top: "curr-b-value"
  loss_weight: 1
  loss_weight: 0
  loss_weight: 0
  loss_weight: 0
  include {
    phase: TRAIN
  }
  od_param {
    start_rand_award: 0.5
    rand_select: true
    decrease_rand: true
    draw_m_minus_one: false
    rand_decay: 0.001
    award_all: false
  }
}
I0207 16:02:14.297905 30672 layer_factory.hpp:74] Creating layer cifar
I0207 16:02:14.297919 30672 net.cpp:90] Creating Layer cifar
I0207 16:02:14.297924 30672 net.cpp:368] cifar -> data
I0207 16:02:14.297948 30672 net.cpp:368] cifar -> label
I0207 16:02:14.297956 30672 net.cpp:120] Setting up cifar
I0207 16:02:14.298009 30672 db.cpp:34] Opened lmdb /home/mike/ml_lab/mod/MCL_Caffe/examples/cifar10/cifar10_train_lmdb
I0207 16:02:14.298039 30672 data_layer.cpp:67] output data size: 20,3,32,32
I0207 16:02:14.298045 30672 data_transformer.cpp:22] Loading mean file from: /home/mike/ml_lab/mod/MCL_Caffe/examples/cifar10/mean.binaryproto
I0207 16:02:14.298172 30672 net.cpp:127] Top shape: 20 3 32 32 (61440)
I0207 16:02:14.298177 30672 net.cpp:127] Top shape: 20 (20)
I0207 16:02:14.298180 30672 layer_factory.hpp:74] Creating layer data_cifar_0_split
I0207 16:02:14.298187 30672 net.cpp:90] Creating Layer data_cifar_0_split
I0207 16:02:14.298189 30672 net.cpp:410] data_cifar_0_split <- data
I0207 16:02:14.298202 30672 net.cpp:368] data_cifar_0_split -> data_cifar_0_split_0
I0207 16:02:14.298207 30672 net.cpp:368] data_cifar_0_split -> data_cifar_0_split_1
I0207 16:02:14.298210 30672 net.cpp:368] data_cifar_0_split -> data_cifar_0_split_2
I0207 16:02:14.298214 30672 net.cpp:368] data_cifar_0_split -> data_cifar_0_split_3
I0207 16:02:14.298218 30672 net.cpp:120] Setting up data_cifar_0_split
I0207 16:02:14.298224 30672 net.cpp:127] Top shape: 20 3 32 32 (61440)
I0207 16:02:14.298226 30672 net.cpp:127] Top shape: 20 3 32 32 (61440)
I0207 16:02:14.298229 30672 net.cpp:127] Top shape: 20 3 32 32 (61440)
I0207 16:02:14.298231 30672 net.cpp:127] Top shape: 20 3 32 32 (61440)
I0207 16:02:14.298233 30672 layer_factory.hpp:74] Creating layer 1_conv1
I0207 16:02:14.298238 30672 net.cpp:90] Creating Layer 1_conv1
I0207 16:02:14.298241 30672 net.cpp:410] 1_conv1 <- data_cifar_0_split_0
I0207 16:02:14.298244 30672 net.cpp:368] 1_conv1 -> 1_conv1
I0207 16:02:14.298249 30672 net.cpp:120] Setting up 1_conv1
I0207 16:02:14.298671 30672 net.cpp:127] Top shape: 20 32 32 32 (655360)
I0207 16:02:14.298678 30672 layer_factory.hpp:74] Creating layer 1_pool1
I0207 16:02:14.298682 30672 net.cpp:90] Creating Layer 1_pool1
I0207 16:02:14.298684 30672 net.cpp:410] 1_pool1 <- 1_conv1
I0207 16:02:14.298687 30672 net.cpp:368] 1_pool1 -> 1_pool1
I0207 16:02:14.298692 30672 net.cpp:120] Setting up 1_pool1
I0207 16:02:14.298707 30672 net.cpp:127] Top shape: 20 32 16 16 (163840)
I0207 16:02:14.298708 30672 layer_factory.hpp:74] Creating layer 1_relu1
I0207 16:02:14.298712 30672 net.cpp:90] Creating Layer 1_relu1
I0207 16:02:14.298714 30672 net.cpp:410] 1_relu1 <- 1_pool1
I0207 16:02:14.298720 30672 net.cpp:357] 1_relu1 -> 1_pool1 (in-place)
I0207 16:02:14.298723 30672 net.cpp:120] Setting up 1_relu1
I0207 16:02:14.298727 30672 net.cpp:127] Top shape: 20 32 16 16 (163840)
I0207 16:02:14.298729 30672 layer_factory.hpp:74] Creating layer 1_conv2
I0207 16:02:14.298733 30672 net.cpp:90] Creating Layer 1_conv2
I0207 16:02:14.298734 30672 net.cpp:410] 1_conv2 <- 1_pool1
I0207 16:02:14.298738 30672 net.cpp:368] 1_conv2 -> 1_conv2
I0207 16:02:14.298743 30672 net.cpp:120] Setting up 1_conv2
I0207 16:02:14.299334 30672 net.cpp:127] Top shape: 20 32 16 16 (163840)
I0207 16:02:14.299340 30672 layer_factory.hpp:74] Creating layer 1_relu2
I0207 16:02:14.299342 30672 net.cpp:90] Creating Layer 1_relu2
I0207 16:02:14.299345 30672 net.cpp:410] 1_relu2 <- 1_conv2
I0207 16:02:14.299348 30672 net.cpp:357] 1_relu2 -> 1_conv2 (in-place)
I0207 16:02:14.299351 30672 net.cpp:120] Setting up 1_relu2
I0207 16:02:14.299353 30672 net.cpp:127] Top shape: 20 32 16 16 (163840)
I0207 16:02:14.299355 30672 layer_factory.hpp:74] Creating layer 1_pool2
I0207 16:02:14.299358 30672 net.cpp:90] Creating Layer 1_pool2
I0207 16:02:14.299360 30672 net.cpp:410] 1_pool2 <- 1_conv2
I0207 16:02:14.299363 30672 net.cpp:368] 1_pool2 -> 1_pool2
I0207 16:02:14.299366 30672 net.cpp:120] Setting up 1_pool2
I0207 16:02:14.299370 30672 net.cpp:127] Top shape: 20 32 8 8 (40960)
I0207 16:02:14.299371 30672 layer_factory.hpp:74] Creating layer 1_conv3
I0207 16:02:14.299376 30672 net.cpp:90] Creating Layer 1_conv3
I0207 16:02:14.299378 30672 net.cpp:410] 1_conv3 <- 1_pool2
I0207 16:02:14.299382 30672 net.cpp:368] 1_conv3 -> 1_conv3
I0207 16:02:14.299391 30672 net.cpp:120] Setting up 1_conv3
I0207 16:02:14.300545 30672 net.cpp:127] Top shape: 20 64 8 8 (81920)
I0207 16:02:14.300552 30672 layer_factory.hpp:74] Creating layer 1_relu3
I0207 16:02:14.300555 30672 net.cpp:90] Creating Layer 1_relu3
I0207 16:02:14.300557 30672 net.cpp:410] 1_relu3 <- 1_conv3
I0207 16:02:14.300565 30672 net.cpp:357] 1_relu3 -> 1_conv3 (in-place)
I0207 16:02:14.300568 30672 net.cpp:120] Setting up 1_relu3
I0207 16:02:14.300571 30672 net.cpp:127] Top shape: 20 64 8 8 (81920)
I0207 16:02:14.300572 30672 layer_factory.hpp:74] Creating layer 1_pool3
I0207 16:02:14.300575 30672 net.cpp:90] Creating Layer 1_pool3
I0207 16:02:14.300577 30672 net.cpp:410] 1_pool3 <- 1_conv3
I0207 16:02:14.300580 30672 net.cpp:368] 1_pool3 -> 1_pool3
I0207 16:02:14.300583 30672 net.cpp:120] Setting up 1_pool3
I0207 16:02:14.300587 30672 net.cpp:127] Top shape: 20 64 4 4 (20480)
I0207 16:02:14.300590 30672 layer_factory.hpp:74] Creating layer 1_ip1
I0207 16:02:14.300593 30672 net.cpp:90] Creating Layer 1_ip1
I0207 16:02:14.300595 30672 net.cpp:410] 1_ip1 <- 1_pool3
I0207 16:02:14.300598 30672 net.cpp:368] 1_ip1 -> 1_ip1
I0207 16:02:14.300603 30672 net.cpp:120] Setting up 1_ip1
I0207 16:02:14.302096 30672 net.cpp:127] Top shape: 20 64 (1280)
I0207 16:02:14.302103 30672 layer_factory.hpp:74] Creating layer 1_ip2
I0207 16:02:14.302108 30672 net.cpp:90] Creating Layer 1_ip2
I0207 16:02:14.302109 30672 net.cpp:410] 1_ip2 <- 1_ip1
I0207 16:02:14.302112 30672 net.cpp:368] 1_ip2 -> 1_ip2
I0207 16:02:14.302116 30672 net.cpp:120] Setting up 1_ip2
I0207 16:02:14.302137 30672 net.cpp:127] Top shape: 20 10 (200)
I0207 16:02:14.302145 30672 layer_factory.hpp:74] Creating layer 1_prob
I0207 16:02:14.302147 30672 net.cpp:90] Creating Layer 1_prob
I0207 16:02:14.302150 30672 net.cpp:410] 1_prob <- 1_ip2
I0207 16:02:14.302153 30672 net.cpp:368] 1_prob -> 1_prob
I0207 16:02:14.302156 30672 net.cpp:120] Setting up 1_prob
I0207 16:02:14.302162 30672 net.cpp:127] Top shape: 20 10 (200)
I0207 16:02:14.302165 30672 layer_factory.hpp:74] Creating layer 2_conv1
I0207 16:02:14.302170 30672 net.cpp:90] Creating Layer 2_conv1
I0207 16:02:14.302171 30672 net.cpp:410] 2_conv1 <- data_cifar_0_split_1
I0207 16:02:14.302175 30672 net.cpp:368] 2_conv1 -> 2_conv1
I0207 16:02:14.302178 30672 net.cpp:120] Setting up 2_conv1
I0207 16:02:14.302242 30672 net.cpp:127] Top shape: 20 32 32 32 (655360)
I0207 16:02:14.302247 30672 layer_factory.hpp:74] Creating layer 2_pool1
I0207 16:02:14.302249 30672 net.cpp:90] Creating Layer 2_pool1
I0207 16:02:14.302250 30672 net.cpp:410] 2_pool1 <- 2_conv1
I0207 16:02:14.302253 30672 net.cpp:368] 2_pool1 -> 2_pool1
I0207 16:02:14.302258 30672 net.cpp:120] Setting up 2_pool1
I0207 16:02:14.302261 30672 net.cpp:127] Top shape: 20 32 16 16 (163840)
I0207 16:02:14.302263 30672 layer_factory.hpp:74] Creating layer 2_relu1
I0207 16:02:14.302268 30672 net.cpp:90] Creating Layer 2_relu1
I0207 16:02:14.302269 30672 net.cpp:410] 2_relu1 <- 2_pool1
I0207 16:02:14.302271 30672 net.cpp:357] 2_relu1 -> 2_pool1 (in-place)
I0207 16:02:14.302274 30672 net.cpp:120] Setting up 2_relu1
I0207 16:02:14.302278 30672 net.cpp:127] Top shape: 20 32 16 16 (163840)
I0207 16:02:14.302279 30672 layer_factory.hpp:74] Creating layer 2_conv2
I0207 16:02:14.302283 30672 net.cpp:90] Creating Layer 2_conv2
I0207 16:02:14.302284 30672 net.cpp:410] 2_conv2 <- 2_pool1
I0207 16:02:14.302286 30672 net.cpp:368] 2_conv2 -> 2_conv2
I0207 16:02:14.302289 30672 net.cpp:120] Setting up 2_conv2
I0207 16:02:14.302867 30672 net.cpp:127] Top shape: 20 32 16 16 (163840)
I0207 16:02:14.302872 30672 layer_factory.hpp:74] Creating layer 2_relu2
I0207 16:02:14.302875 30672 net.cpp:90] Creating Layer 2_relu2
I0207 16:02:14.302878 30672 net.cpp:410] 2_relu2 <- 2_conv2
I0207 16:02:14.302881 30672 net.cpp:357] 2_relu2 -> 2_conv2 (in-place)
I0207 16:02:14.302884 30672 net.cpp:120] Setting up 2_relu2
I0207 16:02:14.302887 30672 net.cpp:127] Top shape: 20 32 16 16 (163840)
I0207 16:02:14.302889 30672 layer_factory.hpp:74] Creating layer 2_pool2
I0207 16:02:14.302898 30672 net.cpp:90] Creating Layer 2_pool2
I0207 16:02:14.302901 30672 net.cpp:410] 2_pool2 <- 2_conv2
I0207 16:02:14.302902 30672 net.cpp:368] 2_pool2 -> 2_pool2
I0207 16:02:14.302906 30672 net.cpp:120] Setting up 2_pool2
I0207 16:02:14.302909 30672 net.cpp:127] Top shape: 20 32 8 8 (40960)
I0207 16:02:14.302911 30672 layer_factory.hpp:74] Creating layer 2_conv3
I0207 16:02:14.302914 30672 net.cpp:90] Creating Layer 2_conv3
I0207 16:02:14.302917 30672 net.cpp:410] 2_conv3 <- 2_pool2
I0207 16:02:14.302919 30672 net.cpp:368] 2_conv3 -> 2_conv3
I0207 16:02:14.302923 30672 net.cpp:120] Setting up 2_conv3
I0207 16:02:14.304075 30672 net.cpp:127] Top shape: 20 64 8 8 (81920)
I0207 16:02:14.304080 30672 layer_factory.hpp:74] Creating layer 2_relu3
I0207 16:02:14.304082 30672 net.cpp:90] Creating Layer 2_relu3
I0207 16:02:14.304085 30672 net.cpp:410] 2_relu3 <- 2_conv3
I0207 16:02:14.304087 30672 net.cpp:357] 2_relu3 -> 2_conv3 (in-place)
I0207 16:02:14.304090 30672 net.cpp:120] Setting up 2_relu3
I0207 16:02:14.304092 30672 net.cpp:127] Top shape: 20 64 8 8 (81920)
I0207 16:02:14.304095 30672 layer_factory.hpp:74] Creating layer 2_pool3
I0207 16:02:14.304097 30672 net.cpp:90] Creating Layer 2_pool3
I0207 16:02:14.304100 30672 net.cpp:410] 2_pool3 <- 2_conv3
I0207 16:02:14.304102 30672 net.cpp:368] 2_pool3 -> 2_pool3
I0207 16:02:14.304105 30672 net.cpp:120] Setting up 2_pool3
I0207 16:02:14.304108 30672 net.cpp:127] Top shape: 20 64 4 4 (20480)
I0207 16:02:14.304111 30672 layer_factory.hpp:74] Creating layer 2_ip1
I0207 16:02:14.304114 30672 net.cpp:90] Creating Layer 2_ip1
I0207 16:02:14.304116 30672 net.cpp:410] 2_ip1 <- 2_pool3
I0207 16:02:14.304119 30672 net.cpp:368] 2_ip1 -> 2_ip1
I0207 16:02:14.304122 30672 net.cpp:120] Setting up 2_ip1
I0207 16:02:14.305599 30672 net.cpp:127] Top shape: 20 64 (1280)
I0207 16:02:14.305606 30672 layer_factory.hpp:74] Creating layer 2_ip2
I0207 16:02:14.305609 30672 net.cpp:90] Creating Layer 2_ip2
I0207 16:02:14.305611 30672 net.cpp:410] 2_ip2 <- 2_ip1
I0207 16:02:14.305615 30672 net.cpp:368] 2_ip2 -> 2_ip2
I0207 16:02:14.305619 30672 net.cpp:120] Setting up 2_ip2
I0207 16:02:14.305641 30672 net.cpp:127] Top shape: 20 10 (200)
I0207 16:02:14.305645 30672 layer_factory.hpp:74] Creating layer 2_prob
I0207 16:02:14.305649 30672 net.cpp:90] Creating Layer 2_prob
I0207 16:02:14.305650 30672 net.cpp:410] 2_prob <- 2_ip2
I0207 16:02:14.305655 30672 net.cpp:368] 2_prob -> 2_prob
I0207 16:02:14.305657 30672 net.cpp:120] Setting up 2_prob
I0207 16:02:14.305661 30672 net.cpp:127] Top shape: 20 10 (200)
I0207 16:02:14.305663 30672 layer_factory.hpp:74] Creating layer 3_conv1
I0207 16:02:14.305666 30672 net.cpp:90] Creating Layer 3_conv1
I0207 16:02:14.305668 30672 net.cpp:410] 3_conv1 <- data_cifar_0_split_2
I0207 16:02:14.305672 30672 net.cpp:368] 3_conv1 -> 3_conv1
I0207 16:02:14.305675 30672 net.cpp:120] Setting up 3_conv1
I0207 16:02:14.305738 30672 net.cpp:127] Top shape: 20 32 32 32 (655360)
I0207 16:02:14.305742 30672 layer_factory.hpp:74] Creating layer 3_pool1
I0207 16:02:14.305745 30672 net.cpp:90] Creating Layer 3_pool1
I0207 16:02:14.305747 30672 net.cpp:410] 3_pool1 <- 3_conv1
I0207 16:02:14.305750 30672 net.cpp:368] 3_pool1 -> 3_pool1
I0207 16:02:14.305753 30672 net.cpp:120] Setting up 3_pool1
I0207 16:02:14.305757 30672 net.cpp:127] Top shape: 20 32 16 16 (163840)
I0207 16:02:14.305759 30672 layer_factory.hpp:74] Creating layer 3_relu1
I0207 16:02:14.305761 30672 net.cpp:90] Creating Layer 3_relu1
I0207 16:02:14.305763 30672 net.cpp:410] 3_relu1 <- 3_pool1
I0207 16:02:14.305766 30672 net.cpp:357] 3_relu1 -> 3_pool1 (in-place)
I0207 16:02:14.305768 30672 net.cpp:120] Setting up 3_relu1
I0207 16:02:14.305771 30672 net.cpp:127] Top shape: 20 32 16 16 (163840)
I0207 16:02:14.305773 30672 layer_factory.hpp:74] Creating layer 3_conv2
I0207 16:02:14.305776 30672 net.cpp:90] Creating Layer 3_conv2
I0207 16:02:14.305778 30672 net.cpp:410] 3_conv2 <- 3_pool1
I0207 16:02:14.305781 30672 net.cpp:368] 3_conv2 -> 3_conv2
I0207 16:02:14.305784 30672 net.cpp:120] Setting up 3_conv2
I0207 16:02:14.306371 30672 net.cpp:127] Top shape: 20 32 16 16 (163840)
I0207 16:02:14.306376 30672 layer_factory.hpp:74] Creating layer 3_relu2
I0207 16:02:14.306380 30672 net.cpp:90] Creating Layer 3_relu2
I0207 16:02:14.306381 30672 net.cpp:410] 3_relu2 <- 3_conv2
I0207 16:02:14.306383 30672 net.cpp:357] 3_relu2 -> 3_conv2 (in-place)
I0207 16:02:14.306386 30672 net.cpp:120] Setting up 3_relu2
I0207 16:02:14.306390 30672 net.cpp:127] Top shape: 20 32 16 16 (163840)
I0207 16:02:14.306391 30672 layer_factory.hpp:74] Creating layer 3_pool2
I0207 16:02:14.306394 30672 net.cpp:90] Creating Layer 3_pool2
I0207 16:02:14.306396 30672 net.cpp:410] 3_pool2 <- 3_conv2
I0207 16:02:14.306398 30672 net.cpp:368] 3_pool2 -> 3_pool2
I0207 16:02:14.306401 30672 net.cpp:120] Setting up 3_pool2
I0207 16:02:14.306406 30672 net.cpp:127] Top shape: 20 32 8 8 (40960)
I0207 16:02:14.306407 30672 layer_factory.hpp:74] Creating layer 3_conv3
I0207 16:02:14.306412 30672 net.cpp:90] Creating Layer 3_conv3
I0207 16:02:14.306414 30672 net.cpp:410] 3_conv3 <- 3_pool2
I0207 16:02:14.306418 30672 net.cpp:368] 3_conv3 -> 3_conv3
I0207 16:02:14.306421 30672 net.cpp:120] Setting up 3_conv3
I0207 16:02:14.307571 30672 net.cpp:127] Top shape: 20 64 8 8 (81920)
I0207 16:02:14.307577 30672 layer_factory.hpp:74] Creating layer 3_relu3
I0207 16:02:14.307579 30672 net.cpp:90] Creating Layer 3_relu3
I0207 16:02:14.307581 30672 net.cpp:410] 3_relu3 <- 3_conv3
I0207 16:02:14.307585 30672 net.cpp:357] 3_relu3 -> 3_conv3 (in-place)
I0207 16:02:14.307586 30672 net.cpp:120] Setting up 3_relu3
I0207 16:02:14.307590 30672 net.cpp:127] Top shape: 20 64 8 8 (81920)
I0207 16:02:14.307591 30672 layer_factory.hpp:74] Creating layer 3_pool3
I0207 16:02:14.307595 30672 net.cpp:90] Creating Layer 3_pool3
I0207 16:02:14.307596 30672 net.cpp:410] 3_pool3 <- 3_conv3
I0207 16:02:14.307600 30672 net.cpp:368] 3_pool3 -> 3_pool3
I0207 16:02:14.307602 30672 net.cpp:120] Setting up 3_pool3
I0207 16:02:14.307606 30672 net.cpp:127] Top shape: 20 64 4 4 (20480)
I0207 16:02:14.307608 30672 layer_factory.hpp:74] Creating layer 3_ip1
I0207 16:02:14.307611 30672 net.cpp:90] Creating Layer 3_ip1
I0207 16:02:14.307613 30672 net.cpp:410] 3_ip1 <- 3_pool3
I0207 16:02:14.307616 30672 net.cpp:368] 3_ip1 -> 3_ip1
I0207 16:02:14.307621 30672 net.cpp:120] Setting up 3_ip1
I0207 16:02:14.309088 30672 net.cpp:127] Top shape: 20 64 (1280)
I0207 16:02:14.309093 30672 layer_factory.hpp:74] Creating layer 3_ip2
I0207 16:02:14.309098 30672 net.cpp:90] Creating Layer 3_ip2
I0207 16:02:14.309099 30672 net.cpp:410] 3_ip2 <- 3_ip1
I0207 16:02:14.309113 30672 net.cpp:368] 3_ip2 -> 3_ip2
I0207 16:02:14.309116 30672 net.cpp:120] Setting up 3_ip2
I0207 16:02:14.309137 30672 net.cpp:127] Top shape: 20 10 (200)
I0207 16:02:14.309142 30672 layer_factory.hpp:74] Creating layer 3_prob
I0207 16:02:14.309145 30672 net.cpp:90] Creating Layer 3_prob
I0207 16:02:14.309147 30672 net.cpp:410] 3_prob <- 3_ip2
I0207 16:02:14.309150 30672 net.cpp:368] 3_prob -> 3_prob
I0207 16:02:14.309154 30672 net.cpp:120] Setting up 3_prob
I0207 16:02:14.309159 30672 net.cpp:127] Top shape: 20 10 (200)
I0207 16:02:14.309160 30672 layer_factory.hpp:74] Creating layer 4_conv1
I0207 16:02:14.309165 30672 net.cpp:90] Creating Layer 4_conv1
I0207 16:02:14.309166 30672 net.cpp:410] 4_conv1 <- data_cifar_0_split_3
I0207 16:02:14.309170 30672 net.cpp:368] 4_conv1 -> 4_conv1
I0207 16:02:14.309173 30672 net.cpp:120] Setting up 4_conv1
I0207 16:02:14.309237 30672 net.cpp:127] Top shape: 20 32 32 32 (655360)
I0207 16:02:14.309242 30672 layer_factory.hpp:74] Creating layer 4_pool1
I0207 16:02:14.309244 30672 net.cpp:90] Creating Layer 4_pool1
I0207 16:02:14.309247 30672 net.cpp:410] 4_pool1 <- 4_conv1
I0207 16:02:14.309248 30672 net.cpp:368] 4_pool1 -> 4_pool1
I0207 16:02:14.309252 30672 net.cpp:120] Setting up 4_pool1
I0207 16:02:14.309255 30672 net.cpp:127] Top shape: 20 32 16 16 (163840)
I0207 16:02:14.309257 30672 layer_factory.hpp:74] Creating layer 4_relu1
I0207 16:02:14.309259 30672 net.cpp:90] Creating Layer 4_relu1
I0207 16:02:14.309267 30672 net.cpp:410] 4_relu1 <- 4_pool1
I0207 16:02:14.309270 30672 net.cpp:357] 4_relu1 -> 4_pool1 (in-place)
I0207 16:02:14.309273 30672 net.cpp:120] Setting up 4_relu1
I0207 16:02:14.309275 30672 net.cpp:127] Top shape: 20 32 16 16 (163840)
I0207 16:02:14.309278 30672 layer_factory.hpp:74] Creating layer 4_conv2
I0207 16:02:14.309281 30672 net.cpp:90] Creating Layer 4_conv2
I0207 16:02:14.309283 30672 net.cpp:410] 4_conv2 <- 4_pool1
I0207 16:02:14.309285 30672 net.cpp:368] 4_conv2 -> 4_conv2
I0207 16:02:14.309289 30672 net.cpp:120] Setting up 4_conv2
I0207 16:02:14.309867 30672 net.cpp:127] Top shape: 20 32 16 16 (163840)
I0207 16:02:14.309875 30672 layer_factory.hpp:74] Creating layer 4_relu2
I0207 16:02:14.309878 30672 net.cpp:90] Creating Layer 4_relu2
I0207 16:02:14.309880 30672 net.cpp:410] 4_relu2 <- 4_conv2
I0207 16:02:14.309883 30672 net.cpp:357] 4_relu2 -> 4_conv2 (in-place)
I0207 16:02:14.309886 30672 net.cpp:120] Setting up 4_relu2
I0207 16:02:14.309888 30672 net.cpp:127] Top shape: 20 32 16 16 (163840)
I0207 16:02:14.309890 30672 layer_factory.hpp:74] Creating layer 4_pool2
I0207 16:02:14.309892 30672 net.cpp:90] Creating Layer 4_pool2
I0207 16:02:14.309895 30672 net.cpp:410] 4_pool2 <- 4_conv2
I0207 16:02:14.309897 30672 net.cpp:368] 4_pool2 -> 4_pool2
I0207 16:02:14.309900 30672 net.cpp:120] Setting up 4_pool2
I0207 16:02:14.309903 30672 net.cpp:127] Top shape: 20 32 8 8 (40960)
I0207 16:02:14.309906 30672 layer_factory.hpp:74] Creating layer 4_conv3
I0207 16:02:14.309911 30672 net.cpp:90] Creating Layer 4_conv3
I0207 16:02:14.309911 30672 net.cpp:410] 4_conv3 <- 4_pool2
I0207 16:02:14.309916 30672 net.cpp:368] 4_conv3 -> 4_conv3
I0207 16:02:14.309921 30672 net.cpp:120] Setting up 4_conv3
I0207 16:02:14.311069 30672 net.cpp:127] Top shape: 20 64 8 8 (81920)
I0207 16:02:14.311074 30672 layer_factory.hpp:74] Creating layer 4_relu3
I0207 16:02:14.311077 30672 net.cpp:90] Creating Layer 4_relu3
I0207 16:02:14.311079 30672 net.cpp:410] 4_relu3 <- 4_conv3
I0207 16:02:14.311082 30672 net.cpp:357] 4_relu3 -> 4_conv3 (in-place)
I0207 16:02:14.311084 30672 net.cpp:120] Setting up 4_relu3
I0207 16:02:14.311087 30672 net.cpp:127] Top shape: 20 64 8 8 (81920)
I0207 16:02:14.311089 30672 layer_factory.hpp:74] Creating layer 4_pool3
I0207 16:02:14.311092 30672 net.cpp:90] Creating Layer 4_pool3
I0207 16:02:14.311094 30672 net.cpp:410] 4_pool3 <- 4_conv3
I0207 16:02:14.311097 30672 net.cpp:368] 4_pool3 -> 4_pool3
I0207 16:02:14.311100 30672 net.cpp:120] Setting up 4_pool3
I0207 16:02:14.311103 30672 net.cpp:127] Top shape: 20 64 4 4 (20480)
I0207 16:02:14.311105 30672 layer_factory.hpp:74] Creating layer 4_ip1
I0207 16:02:14.311108 30672 net.cpp:90] Creating Layer 4_ip1
I0207 16:02:14.311110 30672 net.cpp:410] 4_ip1 <- 4_pool3
I0207 16:02:14.311115 30672 net.cpp:368] 4_ip1 -> 4_ip1
I0207 16:02:14.311117 30672 net.cpp:120] Setting up 4_ip1
I0207 16:02:14.312599 30672 net.cpp:127] Top shape: 20 64 (1280)
I0207 16:02:14.312605 30672 layer_factory.hpp:74] Creating layer 4_ip2
I0207 16:02:14.312609 30672 net.cpp:90] Creating Layer 4_ip2
I0207 16:02:14.312611 30672 net.cpp:410] 4_ip2 <- 4_ip1
I0207 16:02:14.312614 30672 net.cpp:368] 4_ip2 -> 4_ip2
I0207 16:02:14.312618 30672 net.cpp:120] Setting up 4_ip2
I0207 16:02:14.312639 30672 net.cpp:127] Top shape: 20 10 (200)
I0207 16:02:14.312644 30672 layer_factory.hpp:74] Creating layer 4_prob
I0207 16:02:14.312646 30672 net.cpp:90] Creating Layer 4_prob
I0207 16:02:14.312649 30672 net.cpp:410] 4_prob <- 4_ip2
I0207 16:02:14.312651 30672 net.cpp:368] 4_prob -> 4_prob
I0207 16:02:14.312654 30672 net.cpp:120] Setting up 4_prob
I0207 16:02:14.312659 30672 net.cpp:127] Top shape: 20 10 (200)
I0207 16:02:14.312660 30672 layer_factory.hpp:74] Creating layer loss
I0207 16:02:14.312667 30672 net.cpp:90] Creating Layer loss
I0207 16:02:14.312669 30672 net.cpp:410] loss <- 1_prob
I0207 16:02:14.312672 30672 net.cpp:410] loss <- 2_prob
I0207 16:02:14.312674 30672 net.cpp:410] loss <- 3_prob
I0207 16:02:14.312677 30672 net.cpp:410] loss <- 4_prob
I0207 16:02:14.312680 30672 net.cpp:410] loss <- label
I0207 16:02:14.312688 30672 net.cpp:368] loss -> multiple-output loss
I0207 16:02:14.312695 30672 net.cpp:368] loss -> batch-instance-counts
I0207 16:02:14.312700 30672 net.cpp:368] loss -> train-instance-counts
I0207 16:02:14.312703 30672 net.cpp:368] loss -> curr-b-value
I0207 16:02:14.312708 30672 net.cpp:120] Setting up loss
I0207 16:02:14.312717 30672 net.cpp:127] Top shape: 4 1 1 1 (4)
I0207 16:02:14.312721 30672 net.cpp:129]     with loss weight 1
I0207 16:02:14.312733 30672 net.cpp:127] Top shape: 4 1 1 1 (4)
I0207 16:02:14.312736 30672 net.cpp:127] Top shape: 4 1 1 1 (4)
I0207 16:02:14.312738 30672 net.cpp:127] Top shape: 1 1 1 1 (1)
I0207 16:02:14.312741 30672 net.cpp:192] loss needs backward computation.
I0207 16:02:14.312743 30672 net.cpp:192] 4_prob needs backward computation.
I0207 16:02:14.312746 30672 net.cpp:192] 4_ip2 needs backward computation.
I0207 16:02:14.312747 30672 net.cpp:192] 4_ip1 needs backward computation.
I0207 16:02:14.312749 30672 net.cpp:192] 4_pool3 needs backward computation.
I0207 16:02:14.312750 30672 net.cpp:192] 4_relu3 needs backward computation.
…
I0207 16:52:37.174865  3729 net.cpp:287] The NetState phase (0) differed from the phase (1) specified by a rule in layer accuracy
I0207 16:52:37.175042  3729 net.cpp:42] Initializing net from parameters: 
name: "CIFAR10_quick"
state {
  phase: TRAIN
}
layer {
  name: "cifar"
  type: "Data"
  top: "data"
  top: "label"
  include {
    phase: TRAIN
  }
  transform_param {
    mean_file: "/home/mike/ml_lab/mod/MCL_Caffe/examples/cifar10/mean.binaryproto"
  }
  data_param {
    source: "/home/mike/ml_lab/mod/MCL_Caffe/examples/cifar10/cifar10_train_lmdb"
    batch_size: 350
    backend: LMDB
  }
}
layer {
  name: "1_conv1"
  type: "Convolution"
  bottom: "data"
  top: "1_conv1"
  param {
    lr_mult: 1
  }
  param {
    lr_mult: 2
  }
  convolution_param {
    num_output: 32
    pad: 2
    kernel_size: 5
    stride: 1
    weight_filler {
      type: "gaussian"
      std: 0.0001
    }
    bias_filler {
      type: "constant"
    }
  }
}
layer {
  name: "1_pool1"
  type: "Pooling"
  bottom: "1_conv1"
  top: "1_pool1"
  pooling_param {
    pool: MAX
    kernel_size: 3
    stride: 2
  }
}
layer {
  name: "1_relu1"
  type: "ReLU"
  bottom: "1_pool1"
  top: "1_pool1"
}
layer {
  name: "1_conv2"
  type: "Convolution"
  bottom: "1_pool1"
  top: "1_conv2"
  param {
    lr_mult: 1
  }
  param {
    lr_mult: 2
  }
  convolution_param {
    num_output: 32
    pad: 2
    kernel_size: 5
    stride: 1
    weight_filler {
      type: "gaussian"
      std: 0.01
    }
    bias_filler {
      type: "constant"
    }
  }
}
layer {
  name: "1_relu2"
  type: "ReLU"
  bottom: "1_conv2"
  top: "1_conv2"
}
layer {
  name: "1_pool2"
  type: "Pooling"
  bottom: "1_conv2"
  top: "1_pool2"
  pooling_param {
    pool: AVE
    kernel_size: 3
    stride: 2
  }
}
layer {
  name: "1_conv3"
  type: "Convolution"
  bottom: "1_pool2"
  top: "1_conv3"
  param {
    lr_mult: 1
  }
  param {
    lr_mult: 2
  }
  convolution_param {
    num_output: 64
    pad: 2
    kernel_size: 5
    stride: 1
    weight_filler {
      type: "gaussian"
      std: 0.01
    }
    bias_filler {
      type: "constant"
    }
  }
}
layer {
  name: "1_relu3"
  type: "ReLU"
  bottom: "1_conv3"
  top: "1_conv3"
}
layer {
  name: "1_pool3"
  type: "Pooling"
  bottom: "1_conv3"
  top: "1_pool3"
  pooling_param {
    pool: AVE
    kernel_size: 3
    stride: 2
  }
}
layer {
  name: "1_ip1"
  type: "InnerProduct"
  bottom: "1_pool3"
  top: "1_ip1"
  param {
    lr_mult: 1
  }
  param {
    lr_mult: 2
  }
  inner_product_param {
    num_output: 64
    weight_filler {
      type: "gaussian"
      std: 0.1
    }
    bias_filler {
      type: "constant"
    }
  }
}
layer {
  name: "1_ip2"
  type: "InnerProduct"
  bottom: "1_ip1"
  top: "1_ip2"
  param {
    lr_mult: 1
  }
  param {
    lr_mult: 2
  }
  inner_product_param {
    num_output: 10
    weight_filler {
      type: "gaussian"
      std: 0.1
    }
    bias_filler {
      type: "constant"
    }
  }
}
layer {
  name: "1_prob"
  type: "Softmax"
  bottom: "1_ip2"
  top: "1_prob"
}
layer {
  name: "2_conv1"
  type: "Convolution"
  bottom: "data"
  top: "2_conv1"
  param {
    lr_mult: 1
  }
  param {
    lr_mult: 2
  }
  convolution_param {
    num_output: 32
    pad: 2
    kernel_size: 5
    stride: 1
    weight_filler {
      type: "gaussian"
      std: 0.0001
    }
    bias_filler {
      type: "constant"
    }
  }
}
layer {
  name: "2_pool1"
  type: "Pooling"
  bottom: "2_conv1"
  top: "2_pool1"
  pooling_param {
    pool: MAX
    kernel_size: 3
    stride: 2
  }
}
layer {
  name: "2_relu1"
  type: "ReLU"
  bottom: "2_pool1"
  top: "2_pool1"
}
layer {
  name: "2_conv2"
  type: "Convolution"
  bottom: "2_pool1"
  top: "2_conv2"
  param {
    lr_mult: 1
  }
  param {
    lr_mult: 2
  }
  convolution_param {
    num_output: 32
    pad: 2
    kernel_size: 5
    stride: 1
    weight_filler {
      type: "gaussian"
      std: 0.01
    }
    bias_filler {
      type: "constant"
    }
  }
}
layer {
  name: "2_relu2"
  type: "ReLU"
  bottom: "2_conv2"
  top: "2_conv2"
}
layer {
  name: "2_pool2"
  type: "Pooling"
  bottom: "2_conv2"
  top: "2_pool2"
  pooling_param {
    pool: AVE
    kernel_size: 3
    stride: 2
  }
}
layer {
  name: "2_conv3"
  type: "Convolution"
  bottom: "2_pool2"
  top: "2_conv3"
  param {
    lr_mult: 1
  }
  param {
    lr_mult: 2
  }
  convolution_param {
    num_output: 64
    pad: 2
    kernel_size: 5
    stride: 1
    weight_filler {
      type: "gaussian"
      std: 0.01
    }
    bias_filler {
      type: "constant"
    }
  }
}
layer {
  name: "2_relu3"
  type: "ReLU"
  bottom: "2_conv3"
  top: "2_conv3"
}
layer {
  name: "2_pool3"
  type: "Pooling"
  bottom: "2_conv3"
  top: "2_pool3"
  pooling_param {
    pool: AVE
    kernel_size: 3
    stride: 2
  }
}
layer {
  name: "2_ip1"
  type: "InnerProduct"
  bottom: "2_pool3"
  top: "2_ip1"
  param {
    lr_mult: 1
  }
  param {
    lr_mult: 2
  }
  inner_product_param {
    num_output: 64
    weight_filler {
      type: "gaussian"
      std: 0.1
    }
    bias_filler {
      type: "constant"
    }
  }
}
layer {
  name: "2_ip2"
  type: "InnerProduct"
  bottom: "2_ip1"
  top: "2_ip2"
  param {
    lr_mult: 1
  }
  param {
    lr_mult: 2
  }
  inner_product_param {
    num_output: 10
    weight_filler {
      type: "gaussian"
      std: 0.1
    }
    bias_filler {
      type: "constant"
    }
  }
}
layer {
  name: "2_prob"
  type: "Softmax"
  bottom: "2_ip2"
  top: "2_prob"
}
layer {
  name: "3_conv1"
  type: "Convolution"
  bottom: "data"
  top: "3_conv1"
  param {
    lr_mult: 1
  }
  param {
    lr_mult: 2
  }
  convolution_param {
    num_output: 32
    pad: 2
    kernel_size: 5
    stride: 1
    weight_filler {
      type: "gaussian"
      std: 0.0001
    }
    bias_filler {
      type: "constant"
    }
  }
}
layer {
  name: "3_pool1"
  type: "Pooling"
  bottom: "3_conv1"
  top: "3_pool1"
  pooling_param {
    pool: MAX
    kernel_size: 3
    stride: 2
  }
}
layer {
  name: "3_relu1"
  type: "ReLU"
  bottom: "3_pool1"
  top: "3_pool1"
}
layer {
  name: "3_conv2"
  type: "Convolution"
  bottom: "3_pool1"
  top: "3_conv2"
  param {
    lr_mult: 1
  }
  param {
    lr_mult: 2
  }
  convolution_param {
    num_output: 32
    pad: 2
    kernel_size: 5
    stride: 1
    weight_filler {
      type: "gaussian"
      std: 0.01
    }
    bias_filler {
      type: "constant"
    }
  }
}
layer {
  name: "3_relu2"
  type: "ReLU"
  bottom: "3_conv2"
  top: "3_conv2"
}
layer {
  name: "3_pool2"
  type: "Pooling"
  bottom: "3_conv2"
  top: "3_pool2"
  pooling_param {
    pool: AVE
    kernel_size: 3
    stride: 2
  }
}
layer {
  name: "3_conv3"
  type: "Convolution"
  bottom: "3_pool2"
  top: "3_conv3"
  param {
    lr_mult: 1
  }
  param {
    lr_mult: 2
  }
  convolution_param {
    num_output: 64
    pad: 2
    kernel_size: 5
    stride: 1
    weight_filler {
      type: "gaussian"
      std: 0.01
    }
    bias_filler {
      type: "constant"
    }
  }
}
layer {
  name: "3_relu3"
  type: "ReLU"
  bottom: "3_conv3"
  top: "3_conv3"
}
layer {
  name: "3_pool3"
  type: "Pooling"
  bottom: "3_conv3"
  top: "3_pool3"
  pooling_param {
    pool: AVE
    kernel_size: 3
    stride: 2
  }
}
layer {
  name: "3_ip1"
  type: "InnerProduct"
  bottom: "3_pool3"
  top: "3_ip1"
  param {
    lr_mult: 1
  }
  param {
    lr_mult: 2
  }
  inner_product_param {
    num_output: 64
    weight_filler {
      type: "gaussian"
      std: 0.1
    }
    bias_filler {
      type: "constant"
    }
  }
}
layer {
  name: "3_ip2"
  type: "InnerProduct"
  bottom: "3_ip1"
  top: "3_ip2"
  param {
    lr_mult: 1
  }
  param {
    lr_mult: 2
  }
  inner_product_param {
    num_output: 10
    weight_filler {
      type: "gaussian"
      std: 0.1
    }
    bias_filler {
      type: "constant"
    }
  }
}
layer {
  name: "3_prob"
  type: "Softmax"
  bottom: "3_ip2"
  top: "3_prob"
}
layer {
  name: "4_conv1"
  type: "Convolution"
  bottom: "data"
  top: "4_conv1"
  param {
    lr_mult: 1
  }
  param {
    lr_mult: 2
  }
  convolution_param {
    num_output: 32
    pad: 2
    kernel_size: 5
    stride: 1
    weight_filler {
      type: "gaussian"
      std: 0.0001
    }
    bias_filler {
      type: "constant"
    }
  }
}
layer {
  name: "4_pool1"
  type: "Pooling"
  bottom: "4_conv1"
  top: "4_pool1"
  pooling_param {
    pool: MAX
    kernel_size: 3
    stride: 2
  }
}
layer {
  name: "4_relu1"
  type: "ReLU"
  bottom: "4_pool1"
  top: "4_pool1"
}
layer {
  name: "4_conv2"
  type: "Convolution"
  bottom: "4_pool1"
  top: "4_conv2"
  param {
    lr_mult: 1
  }
  param {
    lr_mult: 2
  }
  convolution_param {
    num_output: 32
    pad: 2
    kernel_size: 5
    stride: 1
    weight_filler {
      type: "gaussian"
      std: 0.01
    }
    bias_filler {
      type: "constant"
    }
  }
}
layer {
  name: "4_relu2"
  type: "ReLU"
  bottom: "4_conv2"
  top: "4_conv2"
}
layer {
  name: "4_pool2"
  type: "Pooling"
  bottom: "4_conv2"
  top: "4_pool2"
  pooling_param {
    pool: AVE
    kernel_size: 3
    stride: 2
  }
}
layer {
  name: "4_conv3"
  type: "Convolution"
  bottom: "4_pool2"
  top: "4_conv3"
  param {
    lr_mult: 1
  }
  param {
    lr_mult: 2
  }
  convolution_param {
    num_output: 64
    pad: 2
    kernel_size: 5
    stride: 1
    weight_filler {
      type: "gaussian"
      std: 0.01
    }
    bias_filler {
      type: "constant"
    }
  }
}
layer {
  name: "4_relu3"
  type: "ReLU"
  bottom: "4_conv3"
  top: "4_conv3"
}
layer {
  name: "4_pool3"
  type: "Pooling"
  bottom: "4_conv3"
  top: "4_pool3"
  pooling_param {
    pool: AVE
    kernel_size: 3
    stride: 2
  }
}
layer {
  name: "4_ip1"
  type: "InnerProduct"
  bottom: "4_pool3"
  top: "4_ip1"
  param {
    lr_mult: 1
  }
  param {
    lr_mult: 2
  }
  inner_product_param {
    num_output: 64
    weight_filler {
      type: "gaussian"
      std: 0.1
    }
    bias_filler {
      type: "constant"
    }
  }
}
layer {
  name: "4_ip2"
  type: "InnerProduct"
  bottom: "4_ip1"
  top: "4_ip2"
  param {
    lr_mult: 1
  }
  param {
    lr_mult: 2
  }
  inner_product_param {
    num_output: 10
    weight_filler {
      type: "gaussian"
      std: 0.1
    }
    bias_filler {
      type: "constant"
    }
  }
}
layer {
  name: "4_prob"
  type: "Softmax"
  bottom: "4_ip2"
  top: "4_prob"
}
layer {
  name: "loss"
  type: "ODRandomAwardBMultinomialLogisticLoss"
  bottom: "1_prob"
  bottom: "2_prob"
  bottom: "3_prob"
  bottom: "4_prob"
  bottom: "label"
  top: "multiple-output loss"
  top: "batch-instance-counts"
  top: "train-instance-counts"
  top: "curr-b-value"
  loss_weight: 1
  loss_weight: 0
  loss_weight: 0
  loss_weight: 0
  include {
    phase: TRAIN
  }
  od_param {
    start_rand_award: 0.5
    rand_select: true
    decrease_rand: false
    draw_m_minus_one: false
    rand_decay: 0.001
    award_all: false
  }
}
I0207 16:52:37.175202  3729 layer_factory.hpp:74] Creating layer cifar
I0207 16:52:37.175215  3729 net.cpp:90] Creating Layer cifar
I0207 16:52:37.175220  3729 net.cpp:368] cifar -> data
I0207 16:52:37.175241  3729 net.cpp:368] cifar -> label
I0207 16:52:37.175248  3729 net.cpp:120] Setting up cifar
I0207 16:52:37.175302  3729 db.cpp:34] Opened lmdb /home/mike/ml_lab/mod/MCL_Caffe/examples/cifar10/cifar10_train_lmdb
I0207 16:52:37.175330  3729 data_layer.cpp:67] output data size: 350,3,32,32
I0207 16:52:37.175336  3729 data_transformer.cpp:22] Loading mean file from: /home/mike/ml_lab/mod/MCL_Caffe/examples/cifar10/mean.binaryproto
I0207 16:52:37.175997  3729 net.cpp:127] Top shape: 350 3 32 32 (1075200)
I0207 16:52:37.176002  3729 net.cpp:127] Top shape: 350 (350)
I0207 16:52:37.176004  3729 layer_factory.hpp:74] Creating layer data_cifar_0_split
I0207 16:52:37.176010  3729 net.cpp:90] Creating Layer data_cifar_0_split
I0207 16:52:37.176013  3729 net.cpp:410] data_cifar_0_split <- data
I0207 16:52:37.176028  3729 net.cpp:368] data_cifar_0_split -> data_cifar_0_split_0
I0207 16:52:37.176033  3729 net.cpp:368] data_cifar_0_split -> data_cifar_0_split_1
I0207 16:52:37.176038  3729 net.cpp:368] data_cifar_0_split -> data_cifar_0_split_2
I0207 16:52:37.176041  3729 net.cpp:368] data_cifar_0_split -> data_cifar_0_split_3
I0207 16:52:37.176043  3729 net.cpp:120] Setting up data_cifar_0_split
I0207 16:52:37.176049  3729 net.cpp:127] Top shape: 350 3 32 32 (1075200)
I0207 16:52:37.176051  3729 net.cpp:127] Top shape: 350 3 32 32 (1075200)
I0207 16:52:37.176054  3729 net.cpp:127] Top shape: 350 3 32 32 (1075200)
I0207 16:52:37.176056  3729 net.cpp:127] Top shape: 350 3 32 32 (1075200)
I0207 16:52:37.176059  3729 layer_factory.hpp:74] Creating layer 1_conv1
I0207 16:52:37.176064  3729 net.cpp:90] Creating Layer 1_conv1
I0207 16:52:37.176065  3729 net.cpp:410] 1_conv1 <- data_cifar_0_split_0
I0207 16:52:37.176069  3729 net.cpp:368] 1_conv1 -> 1_conv1
I0207 16:52:37.176074  3729 net.cpp:120] Setting up 1_conv1
I0207 16:52:37.176473  3729 net.cpp:127] Top shape: 350 32 32 32 (11468800)
I0207 16:52:37.176482  3729 layer_factory.hpp:74] Creating layer 1_pool1
I0207 16:52:37.176487  3729 net.cpp:90] Creating Layer 1_pool1
I0207 16:52:37.176489  3729 net.cpp:410] 1_pool1 <- 1_conv1
I0207 16:52:37.176492  3729 net.cpp:368] 1_pool1 -> 1_pool1
I0207 16:52:37.176496  3729 net.cpp:120] Setting up 1_pool1
I0207 16:52:37.176506  3729 net.cpp:127] Top shape: 350 32 16 16 (2867200)
I0207 16:52:37.176508  3729 layer_factory.hpp:74] Creating layer 1_relu1
I0207 16:52:37.176512  3729 net.cpp:90] Creating Layer 1_relu1
I0207 16:52:37.176514  3729 net.cpp:410] 1_relu1 <- 1_pool1
I0207 16:52:37.176517  3729 net.cpp:357] 1_relu1 -> 1_pool1 (in-place)
I0207 16:52:37.176519  3729 net.cpp:120] Setting up 1_relu1
I0207 16:52:37.176523  3729 net.cpp:127] Top shape: 350 32 16 16 (2867200)
I0207 16:52:37.176525  3729 layer_factory.hpp:74] Creating layer 1_conv2
I0207 16:52:37.176529  3729 net.cpp:90] Creating Layer 1_conv2
I0207 16:52:37.176530  3729 net.cpp:410] 1_conv2 <- 1_pool1
I0207 16:52:37.176534  3729 net.cpp:368] 1_conv2 -> 1_conv2
I0207 16:52:37.176538  3729 net.cpp:120] Setting up 1_conv2
I0207 16:52:37.177165  3729 net.cpp:127] Top shape: 350 32 16 16 (2867200)
I0207 16:52:37.177177  3729 layer_factory.hpp:74] Creating layer 1_relu2
I0207 16:52:37.177181  3729 net.cpp:90] Creating Layer 1_relu2
I0207 16:52:37.177183  3729 net.cpp:410] 1_relu2 <- 1_conv2
I0207 16:52:37.177187  3729 net.cpp:357] 1_relu2 -> 1_conv2 (in-place)
I0207 16:52:37.177191  3729 net.cpp:120] Setting up 1_relu2
I0207 16:52:37.177194  3729 net.cpp:127] Top shape: 350 32 16 16 (2867200)
I0207 16:52:37.177196  3729 layer_factory.hpp:74] Creating layer 1_pool2
I0207 16:52:37.177199  3729 net.cpp:90] Creating Layer 1_pool2
I0207 16:52:37.177201  3729 net.cpp:410] 1_pool2 <- 1_conv2
I0207 16:52:37.177204  3729 net.cpp:368] 1_pool2 -> 1_pool2
I0207 16:52:37.177208  3729 net.cpp:120] Setting up 1_pool2
I0207 16:52:37.177211  3729 net.cpp:127] Top shape: 350 32 8 8 (716800)
I0207 16:52:37.177213  3729 layer_factory.hpp:74] Creating layer 1_conv3
I0207 16:52:37.177217  3729 net.cpp:90] Creating Layer 1_conv3
I0207 16:52:37.177219  3729 net.cpp:410] 1_conv3 <- 1_pool2
I0207 16:52:37.177232  3729 net.cpp:368] 1_conv3 -> 1_conv3
I0207 16:52:37.177237  3729 net.cpp:120] Setting up 1_conv3
I0207 16:52:37.178414  3729 net.cpp:127] Top shape: 350 64 8 8 (1433600)
I0207 16:52:37.178421  3729 layer_factory.hpp:74] Creating layer 1_relu3
I0207 16:52:37.178424  3729 net.cpp:90] Creating Layer 1_relu3
I0207 16:52:37.178426  3729 net.cpp:410] 1_relu3 <- 1_conv3
I0207 16:52:37.178428  3729 net.cpp:357] 1_relu3 -> 1_conv3 (in-place)
I0207 16:52:37.178431  3729 net.cpp:120] Setting up 1_relu3
I0207 16:52:37.178434  3729 net.cpp:127] Top shape: 350 64 8 8 (1433600)
I0207 16:52:37.178436  3729 layer_factory.hpp:74] Creating layer 1_pool3
I0207 16:52:37.178439  3729 net.cpp:90] Creating Layer 1_pool3
I0207 16:52:37.178442  3729 net.cpp:410] 1_pool3 <- 1_conv3
I0207 16:52:37.178444  3729 net.cpp:368] 1_pool3 -> 1_pool3
I0207 16:52:37.178447  3729 net.cpp:120] Setting up 1_pool3
I0207 16:52:37.178450  3729 net.cpp:127] Top shape: 350 64 4 4 (358400)
I0207 16:52:37.178452  3729 layer_factory.hpp:74] Creating layer 1_ip1
I0207 16:52:37.178457  3729 net.cpp:90] Creating Layer 1_ip1
I0207 16:52:37.178458  3729 net.cpp:410] 1_ip1 <- 1_pool3
I0207 16:52:37.178462  3729 net.cpp:368] 1_ip1 -> 1_ip1
I0207 16:52:37.178465  3729 net.cpp:120] Setting up 1_ip1
I0207 16:52:37.179944  3729 net.cpp:127] Top shape: 350 64 (22400)
I0207 16:52:37.179949  3729 layer_factory.hpp:74] Creating layer 1_ip2
I0207 16:52:37.179955  3729 net.cpp:90] Creating Layer 1_ip2
I0207 16:52:37.179956  3729 net.cpp:410] 1_ip2 <- 1_ip1
I0207 16:52:37.179960  3729 net.cpp:368] 1_ip2 -> 1_ip2
I0207 16:52:37.179962  3729 net.cpp:120] Setting up 1_ip2
I0207 16:52:37.179985  3729 net.cpp:127] Top shape: 350 10 (3500)
I0207 16:52:37.179989  3729 layer_factory.hpp:74] Creating layer 1_prob
I0207 16:52:37.179993  3729 net.cpp:90] Creating Layer 1_prob
I0207 16:52:37.179994  3729 net.cpp:410] 1_prob <- 1_ip2
I0207 16:52:37.179998  3729 net.cpp:368] 1_prob -> 1_prob
I0207 16:52:37.180001  3729 net.cpp:120] Setting up 1_prob
I0207 16:52:37.180006  3729 net.cpp:127] Top shape: 350 10 (3500)
I0207 16:52:37.180008  3729 layer_factory.hpp:74] Creating layer 2_conv1
I0207 16:52:37.180012  3729 net.cpp:90] Creating Layer 2_conv1
I0207 16:52:37.180014  3729 net.cpp:410] 2_conv1 <- data_cifar_0_split_1
I0207 16:52:37.180018  3729 net.cpp:368] 2_conv1 -> 2_conv1
I0207 16:52:37.180022  3729 net.cpp:120] Setting up 2_conv1
I0207 16:52:37.180084  3729 net.cpp:127] Top shape: 350 32 32 32 (11468800)
I0207 16:52:37.180088  3729 layer_factory.hpp:74] Creating layer 2_pool1
I0207 16:52:37.180093  3729 net.cpp:90] Creating Layer 2_pool1
I0207 16:52:37.180094  3729 net.cpp:410] 2_pool1 <- 2_conv1
I0207 16:52:37.180097  3729 net.cpp:368] 2_pool1 -> 2_pool1
I0207 16:52:37.180100  3729 net.cpp:120] Setting up 2_pool1
I0207 16:52:37.180104  3729 net.cpp:127] Top shape: 350 32 16 16 (2867200)
I0207 16:52:37.180106  3729 layer_factory.hpp:74] Creating layer 2_relu1
I0207 16:52:37.180110  3729 net.cpp:90] Creating Layer 2_relu1
I0207 16:52:37.180111  3729 net.cpp:410] 2_relu1 <- 2_pool1
I0207 16:52:37.180114  3729 net.cpp:357] 2_relu1 -> 2_pool1 (in-place)
I0207 16:52:37.180116  3729 net.cpp:120] Setting up 2_relu1
I0207 16:52:37.180119  3729 net.cpp:127] Top shape: 350 32 16 16 (2867200)
I0207 16:52:37.180121  3729 layer_factory.hpp:74] Creating layer 2_conv2
I0207 16:52:37.180125  3729 net.cpp:90] Creating Layer 2_conv2
I0207 16:52:37.180127  3729 net.cpp:410] 2_conv2 <- 2_pool1
I0207 16:52:37.180130  3729 net.cpp:368] 2_conv2 -> 2_conv2
I0207 16:52:37.180133  3729 net.cpp:120] Setting up 2_conv2
I0207 16:52:37.180711  3729 net.cpp:127] Top shape: 350 32 16 16 (2867200)
I0207 16:52:37.180714  3729 layer_factory.hpp:74] Creating layer 2_relu2
I0207 16:52:37.180717  3729 net.cpp:90] Creating Layer 2_relu2
I0207 16:52:37.180719  3729 net.cpp:410] 2_relu2 <- 2_conv2
I0207 16:52:37.180722  3729 net.cpp:357] 2_relu2 -> 2_conv2 (in-place)
I0207 16:52:37.180726  3729 net.cpp:120] Setting up 2_relu2
I0207 16:52:37.180727  3729 net.cpp:127] Top shape: 350 32 16 16 (2867200)
I0207 16:52:37.180735  3729 layer_factory.hpp:74] Creating layer 2_pool2
I0207 16:52:37.180738  3729 net.cpp:90] Creating Layer 2_pool2
I0207 16:52:37.180740  3729 net.cpp:410] 2_pool2 <- 2_conv2
I0207 16:52:37.180742  3729 net.cpp:368] 2_pool2 -> 2_pool2
I0207 16:52:37.180745  3729 net.cpp:120] Setting up 2_pool2
I0207 16:52:37.180749  3729 net.cpp:127] Top shape: 350 32 8 8 (716800)
I0207 16:52:37.180750  3729 layer_factory.hpp:74] Creating layer 2_conv3
I0207 16:52:37.180754  3729 net.cpp:90] Creating Layer 2_conv3
I0207 16:52:37.180757  3729 net.cpp:410] 2_conv3 <- 2_pool2
I0207 16:52:37.180759  3729 net.cpp:368] 2_conv3 -> 2_conv3
I0207 16:52:37.180763  3729 net.cpp:120] Setting up 2_conv3
I0207 16:52:37.181929  3729 net.cpp:127] Top shape: 350 64 8 8 (1433600)
I0207 16:52:37.181936  3729 layer_factory.hpp:74] Creating layer 2_relu3
I0207 16:52:37.181938  3729 net.cpp:90] Creating Layer 2_relu3
I0207 16:52:37.181941  3729 net.cpp:410] 2_relu3 <- 2_conv3
I0207 16:52:37.181943  3729 net.cpp:357] 2_relu3 -> 2_conv3 (in-place)
I0207 16:52:37.181946  3729 net.cpp:120] Setting up 2_relu3
I0207 16:52:37.181948  3729 net.cpp:127] Top shape: 350 64 8 8 (1433600)
I0207 16:52:37.181951  3729 layer_factory.hpp:74] Creating layer 2_pool3
I0207 16:52:37.181953  3729 net.cpp:90] Creating Layer 2_pool3
I0207 16:52:37.181955  3729 net.cpp:410] 2_pool3 <- 2_conv3
I0207 16:52:37.181959  3729 net.cpp:368] 2_pool3 -> 2_pool3
I0207 16:52:37.181962  3729 net.cpp:120] Setting up 2_pool3
I0207 16:52:37.181965  3729 net.cpp:127] Top shape: 350 64 4 4 (358400)
I0207 16:52:37.181967  3729 layer_factory.hpp:74] Creating layer 2_ip1
I0207 16:52:37.181972  3729 net.cpp:90] Creating Layer 2_ip1
I0207 16:52:37.181972  3729 net.cpp:410] 2_ip1 <- 2_pool3
I0207 16:52:37.181977  3729 net.cpp:368] 2_ip1 -> 2_ip1
I0207 16:52:37.181979  3729 net.cpp:120] Setting up 2_ip1
I0207 16:52:37.183452  3729 net.cpp:127] Top shape: 350 64 (22400)
I0207 16:52:37.183459  3729 layer_factory.hpp:74] Creating layer 2_ip2
I0207 16:52:37.183465  3729 net.cpp:90] Creating Layer 2_ip2
I0207 16:52:37.183466  3729 net.cpp:410] 2_ip2 <- 2_ip1
I0207 16:52:37.183470  3729 net.cpp:368] 2_ip2 -> 2_ip2
I0207 16:52:37.183472  3729 net.cpp:120] Setting up 2_ip2
I0207 16:52:37.183495  3729 net.cpp:127] Top shape: 350 10 (3500)
I0207 16:52:37.183500  3729 layer_factory.hpp:74] Creating layer 2_prob
I0207 16:52:37.183502  3729 net.cpp:90] Creating Layer 2_prob
I0207 16:52:37.183504  3729 net.cpp:410] 2_prob <- 2_ip2
I0207 16:52:37.183508  3729 net.cpp:368] 2_prob -> 2_prob
I0207 16:52:37.183511  3729 net.cpp:120] Setting up 2_prob
I0207 16:52:37.183514  3729 net.cpp:127] Top shape: 350 10 (3500)
I0207 16:52:37.183516  3729 layer_factory.hpp:74] Creating layer 3_conv1
I0207 16:52:37.183521  3729 net.cpp:90] Creating Layer 3_conv1
I0207 16:52:37.183522  3729 net.cpp:410] 3_conv1 <- data_cifar_0_split_2
I0207 16:52:37.183527  3729 net.cpp:368] 3_conv1 -> 3_conv1
I0207 16:52:37.183531  3729 net.cpp:120] Setting up 3_conv1
I0207 16:52:37.183593  3729 net.cpp:127] Top shape: 350 32 32 32 (11468800)
I0207 16:52:37.183596  3729 layer_factory.hpp:74] Creating layer 3_pool1
I0207 16:52:37.183599  3729 net.cpp:90] Creating Layer 3_pool1
I0207 16:52:37.183601  3729 net.cpp:410] 3_pool1 <- 3_conv1
I0207 16:52:37.183604  3729 net.cpp:368] 3_pool1 -> 3_pool1
I0207 16:52:37.183609  3729 net.cpp:120] Setting up 3_pool1
I0207 16:52:37.183611  3729 net.cpp:127] Top shape: 350 32 16 16 (2867200)
I0207 16:52:37.183614  3729 layer_factory.hpp:74] Creating layer 3_relu1
I0207 16:52:37.183616  3729 net.cpp:90] Creating Layer 3_relu1
I0207 16:52:37.183619  3729 net.cpp:410] 3_relu1 <- 3_pool1
I0207 16:52:37.183620  3729 net.cpp:357] 3_relu1 -> 3_pool1 (in-place)
I0207 16:52:37.183624  3729 net.cpp:120] Setting up 3_relu1
I0207 16:52:37.183625  3729 net.cpp:127] Top shape: 350 32 16 16 (2867200)
I0207 16:52:37.183627  3729 layer_factory.hpp:74] Creating layer 3_conv2
I0207 16:52:37.183631  3729 net.cpp:90] Creating Layer 3_conv2
I0207 16:52:37.183634  3729 net.cpp:410] 3_conv2 <- 3_pool1
I0207 16:52:37.183636  3729 net.cpp:368] 3_conv2 -> 3_conv2
I0207 16:52:37.183646  3729 net.cpp:120] Setting up 3_conv2
I0207 16:52:37.184224  3729 net.cpp:127] Top shape: 350 32 16 16 (2867200)
I0207 16:52:37.184229  3729 layer_factory.hpp:74] Creating layer 3_relu2
I0207 16:52:37.184232  3729 net.cpp:90] Creating Layer 3_relu2
I0207 16:52:37.184234  3729 net.cpp:410] 3_relu2 <- 3_conv2
I0207 16:52:37.184237  3729 net.cpp:357] 3_relu2 -> 3_conv2 (in-place)
I0207 16:52:37.184244  3729 net.cpp:120] Setting up 3_relu2
I0207 16:52:37.184247  3729 net.cpp:127] Top shape: 350 32 16 16 (2867200)
I0207 16:52:37.184248  3729 layer_factory.hpp:74] Creating layer 3_pool2
I0207 16:52:37.184252  3729 net.cpp:90] Creating Layer 3_pool2
I0207 16:52:37.184254  3729 net.cpp:410] 3_pool2 <- 3_conv2
I0207 16:52:37.184257  3729 net.cpp:368] 3_pool2 -> 3_pool2
I0207 16:52:37.184260  3729 net.cpp:120] Setting up 3_pool2
I0207 16:52:37.184263  3729 net.cpp:127] Top shape: 350 32 8 8 (716800)
I0207 16:52:37.184265  3729 layer_factory.hpp:74] Creating layer 3_conv3
I0207 16:52:37.184273  3729 net.cpp:90] Creating Layer 3_conv3
I0207 16:52:37.184274  3729 net.cpp:410] 3_conv3 <- 3_pool2
I0207 16:52:37.184278  3729 net.cpp:368] 3_conv3 -> 3_conv3
I0207 16:52:37.184281  3729 net.cpp:120] Setting up 3_conv3
I0207 16:52:37.185443  3729 net.cpp:127] Top shape: 350 64 8 8 (1433600)
I0207 16:52:37.185449  3729 layer_factory.hpp:74] Creating layer 3_relu3
I0207 16:52:37.185452  3729 net.cpp:90] Creating Layer 3_relu3
I0207 16:52:37.185454  3729 net.cpp:410] 3_relu3 <- 3_conv3
I0207 16:52:37.185456  3729 net.cpp:357] 3_relu3 -> 3_conv3 (in-place)
I0207 16:52:37.185459  3729 net.cpp:120] Setting up 3_relu3
I0207 16:52:37.185462  3729 net.cpp:127] Top shape: 350 64 8 8 (1433600)
I0207 16:52:37.185463  3729 layer_factory.hpp:74] Creating layer 3_pool3
I0207 16:52:37.185467  3729 net.cpp:90] Creating Layer 3_pool3
I0207 16:52:37.185468  3729 net.cpp:410] 3_pool3 <- 3_conv3
I0207 16:52:37.185472  3729 net.cpp:368] 3_pool3 -> 3_pool3
I0207 16:52:37.185475  3729 net.cpp:120] Setting up 3_pool3
I0207 16:52:37.185478  3729 net.cpp:127] Top shape: 350 64 4 4 (358400)
I0207 16:52:37.185479  3729 layer_factory.hpp:74] Creating layer 3_ip1
I0207 16:52:37.185483  3729 net.cpp:90] Creating Layer 3_ip1
I0207 16:52:37.185485  3729 net.cpp:410] 3_ip1 <- 3_pool3
I0207 16:52:37.185488  3729 net.cpp:368] 3_ip1 -> 3_ip1
I0207 16:52:37.185492  3729 net.cpp:120] Setting up 3_ip1
I0207 16:52:37.186959  3729 net.cpp:127] Top shape: 350 64 (22400)
I0207 16:52:37.186964  3729 layer_factory.hpp:74] Creating layer 3_ip2
I0207 16:52:37.186969  3729 net.cpp:90] Creating Layer 3_ip2
I0207 16:52:37.186970  3729 net.cpp:410] 3_ip2 <- 3_ip1
I0207 16:52:37.186974  3729 net.cpp:368] 3_ip2 -> 3_ip2
I0207 16:52:37.186976  3729 net.cpp:120] Setting up 3_ip2
I0207 16:52:37.186997  3729 net.cpp:127] Top shape: 350 10 (3500)
I0207 16:52:37.187000  3729 layer_factory.hpp:74] Creating layer 3_prob
I0207 16:52:37.187005  3729 net.cpp:90] Creating Layer 3_prob
I0207 16:52:37.187006  3729 net.cpp:410] 3_prob <- 3_ip2
I0207 16:52:37.187008  3729 net.cpp:368] 3_prob -> 3_prob
I0207 16:52:37.187013  3729 net.cpp:120] Setting up 3_prob
I0207 16:52:37.187017  3729 net.cpp:127] Top shape: 350 10 (3500)
I0207 16:52:37.187019  3729 layer_factory.hpp:74] Creating layer 4_conv1
I0207 16:52:37.187023  3729 net.cpp:90] Creating Layer 4_conv1
I0207 16:52:37.187026  3729 net.cpp:410] 4_conv1 <- data_cifar_0_split_3
I0207 16:52:37.187028  3729 net.cpp:368] 4_conv1 -> 4_conv1
I0207 16:52:37.187032  3729 net.cpp:120] Setting up 4_conv1
I0207 16:52:37.187095  3729 net.cpp:127] Top shape: 350 32 32 32 (11468800)
I0207 16:52:37.187099  3729 layer_factory.hpp:74] Creating layer 4_pool1
I0207 16:52:37.187103  3729 net.cpp:90] Creating Layer 4_pool1
I0207 16:52:37.187105  3729 net.cpp:410] 4_pool1 <- 4_conv1
I0207 16:52:37.187108  3729 net.cpp:368] 4_pool1 -> 4_pool1
I0207 16:52:37.187110  3729 net.cpp:120] Setting up 4_pool1
I0207 16:52:37.187114  3729 net.cpp:127] Top shape: 350 32 16 16 (2867200)
I0207 16:52:37.187115  3729 layer_factory.hpp:74] Creating layer 4_relu1
I0207 16:52:37.187124  3729 net.cpp:90] Creating Layer 4_relu1
I0207 16:52:37.187125  3729 net.cpp:410] 4_relu1 <- 4_pool1
I0207 16:52:37.187129  3729 net.cpp:357] 4_relu1 -> 4_pool1 (in-place)
I0207 16:52:37.187131  3729 net.cpp:120] Setting up 4_relu1
I0207 16:52:37.187134  3729 net.cpp:127] Top shape: 350 32 16 16 (2867200)
I0207 16:52:37.187135  3729 layer_factory.hpp:74] Creating layer 4_conv2
I0207 16:52:37.187139  3729 net.cpp:90] Creating Layer 4_conv2
I0207 16:52:37.187141  3729 net.cpp:410] 4_conv2 <- 4_pool1
I0207 16:52:37.187144  3729 net.cpp:368] 4_conv2 -> 4_conv2
I0207 16:52:37.187149  3729 net.cpp:120] Setting up 4_conv2
I0207 16:52:37.187724  3729 net.cpp:127] Top shape: 350 32 16 16 (2867200)
I0207 16:52:37.187731  3729 layer_factory.hpp:74] Creating layer 4_relu2
I0207 16:52:37.187734  3729 net.cpp:90] Creating Layer 4_relu2
I0207 16:52:37.187736  3729 net.cpp:410] 4_relu2 <- 4_conv2
I0207 16:52:37.187739  3729 net.cpp:357] 4_relu2 -> 4_conv2 (in-place)
I0207 16:52:37.187742  3729 net.cpp:120] Setting up 4_relu2
I0207 16:52:37.187744  3729 net.cpp:127] Top shape: 350 32 16 16 (2867200)
I0207 16:52:37.187747  3729 layer_factory.hpp:74] Creating layer 4_pool2
I0207 16:52:37.187749  3729 net.cpp:90] Creating Layer 4_pool2
I0207 16:52:37.187752  3729 net.cpp:410] 4_pool2 <- 4_conv2
I0207 16:52:37.187754  3729 net.cpp:368] 4_pool2 -> 4_pool2
I0207 16:52:37.187757  3729 net.cpp:120] Setting up 4_pool2
I0207 16:52:37.187760  3729 net.cpp:127] Top shape: 350 32 8 8 (716800)
I0207 16:52:37.187762  3729 layer_factory.hpp:74] Creating layer 4_conv3
I0207 16:52:37.187765  3729 net.cpp:90] Creating Layer 4_conv3
I0207 16:52:37.187767  3729 net.cpp:410] 4_conv3 <- 4_pool2
I0207 16:52:37.187770  3729 net.cpp:368] 4_conv3 -> 4_conv3
I0207 16:52:37.187773  3729 net.cpp:120] Setting up 4_conv3
I0207 16:52:37.188926  3729 net.cpp:127] Top shape: 350 64 8 8 (1433600)
I0207 16:52:37.188931  3729 layer_factory.hpp:74] Creating layer 4_relu3
I0207 16:52:37.188935  3729 net.cpp:90] Creating Layer 4_relu3
I0207 16:52:37.188936  3729 net.cpp:410] 4_relu3 <- 4_conv3
I0207 16:52:37.188938  3729 net.cpp:357] 4_relu3 -> 4_conv3 (in-place)
I0207 16:52:37.188941  3729 net.cpp:120] Setting up 4_relu3
I0207 16:52:37.188944  3729 net.cpp:127] Top shape: 350 64 8 8 (1433600)
I0207 16:52:37.188946  3729 layer_factory.hpp:74] Creating layer 4_pool3
I0207 16:52:37.188949  3729 net.cpp:90] Creating Layer 4_pool3
I0207 16:52:37.188951  3729 net.cpp:410] 4_pool3 <- 4_conv3
I0207 16:52:37.188954  3729 net.cpp:368] 4_pool3 -> 4_pool3
I0207 16:52:37.188956  3729 net.cpp:120] Setting up 4_pool3
I0207 16:52:37.188959  3729 net.cpp:127] Top shape: 350 64 4 4 (358400)
I0207 16:52:37.188961  3729 layer_factory.hpp:74] Creating layer 4_ip1
I0207 16:52:37.188966  3729 net.cpp:90] Creating Layer 4_ip1
I0207 16:52:37.188967  3729 net.cpp:410] 4_ip1 <- 4_pool3
I0207 16:52:37.188971  3729 net.cpp:368] 4_ip1 -> 4_ip1
I0207 16:52:37.188973  3729 net.cpp:120] Setting up 4_ip1
I0207 16:52:37.190450  3729 net.cpp:127] Top shape: 350 64 (22400)
I0207 16:52:37.190455  3729 layer_factory.hpp:74] Creating layer 4_ip2
I0207 16:52:37.190460  3729 net.cpp:90] Creating Layer 4_ip2
I0207 16:52:37.190462  3729 net.cpp:410] 4_ip2 <- 4_ip1
I0207 16:52:37.190465  3729 net.cpp:368] 4_ip2 -> 4_ip2
I0207 16:52:37.190469  3729 net.cpp:120] Setting up 4_ip2
I0207 16:52:37.190490  3729 net.cpp:127] Top shape: 350 10 (3500)
I0207 16:52:37.190495  3729 layer_factory.hpp:74] Creating layer 4_prob
I0207 16:52:37.190498  3729 net.cpp:90] Creating Layer 4_prob
I0207 16:52:37.190500  3729 net.cpp:410] 4_prob <- 4_ip2
I0207 16:52:37.190503  3729 net.cpp:368] 4_prob -> 4_prob
I0207 16:52:37.190505  3729 net.cpp:120] Setting up 4_prob
I0207 16:52:37.190510  3729 net.cpp:127] Top shape: 350 10 (3500)
I0207 16:52:37.190512  3729 layer_factory.hpp:74] Creating layer loss
I0207 16:52:37.190520  3729 net.cpp:90] Creating Layer loss
I0207 16:52:37.190522  3729 net.cpp:410] loss <- 1_prob
I0207 16:52:37.190526  3729 net.cpp:410] loss <- 2_prob
I0207 16:52:37.190527  3729 net.cpp:410] loss <- 3_prob
I0207 16:52:37.190536  3729 net.cpp:410] loss <- 4_prob
I0207 16:52:37.190538  3729 net.cpp:410] loss <- label
I0207 16:52:37.190543  3729 net.cpp:368] loss -> multiple-output loss
I0207 16:52:37.190548  3729 net.cpp:368] loss -> batch-instance-counts
I0207 16:52:37.190553  3729 net.cpp:368] loss -> train-instance-counts
I0207 16:52:37.190557  3729 net.cpp:368] loss -> curr-b-value
I0207 16:52:37.190562  3729 net.cpp:120] Setting up loss
I0207 16:52:37.190569  3729 net.cpp:127] Top shape: 4 1 1 1 (4)
I0207 16:52:37.190572  3729 net.cpp:129]     with loss weight 1
I0207 16:52:37.190587  3729 net.cpp:127] Top shape: 4 1 1 1 (4)
I0207 16:52:37.190589  3729 net.cpp:127] Top shape: 4 1 1 1 (4)
I0207 16:52:37.190592  3729 net.cpp:127] Top shape: 1 1 1 1 (1)
I0207 16:52:37.190593  3729 net.cpp:192] loss needs backward computation.
I0207 16:52:37.190596  3729 net.cpp:192] 4_prob needs backward computation.
I0207 16:52:37.190598  3729 net.cpp:192] 4_ip2 needs backward computation.
I0207 16:52:37.190599  3729 net.cpp:192] 4_ip1 needs backward computation.
I0207 16:52:37.190601  3729 net.cpp:192] 4_pool3 needs backward computation.
I0207 16:52:37.190603  3729 net.cpp:192] 4_relu3 needs backward computation.
…
