…
I0126 21:49:12.143872 26857 net.cpp:287] The NetState phase (0) differed from the phase (1) specified by a rule in layer accuracy
I0126 21:49:12.144178 26857 net.cpp:42] Initializing net from parameters: 
name: "CIFAR10_quick"
state {
  phase: TRAIN
}
layer {
  name: "cifar"
  type: "Data"
  top: "data"
  top: "label"
  include {
    phase: TRAIN
  }
  transform_param {
    mean_file: "/home/mike/ml_lab/mod/MCL_Caffe/examples/cifar10/mean.binaryproto"
  }
  data_param {
    source: "/home/mike/ml_lab/mod/MCL_Caffe/examples/cifar10/cifar10_train_lmdb"
    batch_size: 350
    backend: LMDB
  }
}
layer {
  name: "1_conv1"
  type: "Convolution"
  bottom: "data"
  top: "1_conv1"
  param {
    lr_mult: 1
  }
  param {
    lr_mult: 2
  }
  convolution_param {
    num_output: 32
    pad: 2
    kernel_size: 5
    stride: 1
    weight_filler {
      type: "gaussian"
      std: 0.0001
    }
    bias_filler {
      type: "constant"
    }
  }
}
layer {
  name: "1_pool1"
  type: "Pooling"
  bottom: "1_conv1"
  top: "1_pool1"
  pooling_param {
    pool: MAX
    kernel_size: 3
    stride: 2
  }
}
layer {
  name: "1_relu1"
  type: "ReLU"
  bottom: "1_pool1"
  top: "1_pool1"
}
layer {
  name: "1_conv2"
  type: "Convolution"
  bottom: "1_pool1"
  top: "1_conv2"
  param {
    lr_mult: 1
  }
  param {
    lr_mult: 2
  }
  convolution_param {
    num_output: 32
    pad: 2
    kernel_size: 5
    stride: 1
    weight_filler {
      type: "gaussian"
      std: 0.01
    }
    bias_filler {
      type: "constant"
    }
  }
}
layer {
  name: "1_relu2"
  type: "ReLU"
  bottom: "1_conv2"
  top: "1_conv2"
}
layer {
  name: "1_pool2"
  type: "Pooling"
  bottom: "1_conv2"
  top: "1_pool2"
  pooling_param {
    pool: AVE
    kernel_size: 3
    stride: 2
  }
}
layer {
  name: "1_conv3"
  type: "Convolution"
  bottom: "1_pool2"
  top: "1_conv3"
  param {
    lr_mult: 1
  }
  param {
    lr_mult: 2
  }
  convolution_param {
    num_output: 64
    pad: 2
    kernel_size: 5
    stride: 1
    weight_filler {
      type: "gaussian"
      std: 0.01
    }
    bias_filler {
      type: "constant"
    }
  }
}
layer {
  name: "1_relu3"
  type: "ReLU"
  bottom: "1_conv3"
  top: "1_conv3"
}
layer {
  name: "1_pool3"
  type: "Pooling"
  bottom: "1_conv3"
  top: "1_pool3"
  pooling_param {
    pool: AVE
    kernel_size: 3
    stride: 2
  }
}
layer {
  name: "1_ip1"
  type: "InnerProduct"
  bottom: "1_pool3"
  top: "1_ip1"
  param {
    lr_mult: 1
  }
  param {
    lr_mult: 2
  }
  inner_product_param {
    num_output: 64
    weight_filler {
      type: "gaussian"
      std: 0.1
    }
    bias_filler {
      type: "constant"
    }
  }
}
layer {
  name: "1_ip2"
  type: "InnerProduct"
  bottom: "1_ip1"
  top: "1_ip2"
  param {
    lr_mult: 1
  }
  param {
    lr_mult: 2
  }
  inner_product_param {
    num_output: 10
    weight_filler {
      type: "gaussian"
      std: 0.1
    }
    bias_filler {
      type: "constant"
    }
  }
}
layer {
  name: "1_prob"
  type: "Softmax"
  bottom: "1_ip2"
  top: "1_prob"
}
layer {
  name: "2_conv1"
  type: "Convolution"
  bottom: "data"
  top: "2_conv1"
  param {
    lr_mult: 1
  }
  param {
    lr_mult: 2
  }
  convolution_param {
    num_output: 32
    pad: 2
    kernel_size: 5
    stride: 1
    weight_filler {
      type: "gaussian"
      std: 0.0001
    }
    bias_filler {
      type: "constant"
    }
  }
}
layer {
  name: "2_pool1"
  type: "Pooling"
  bottom: "2_conv1"
  top: "2_pool1"
  pooling_param {
    pool: MAX
    kernel_size: 3
    stride: 2
  }
}
layer {
  name: "2_relu1"
  type: "ReLU"
  bottom: "2_pool1"
  top: "2_pool1"
}
layer {
  name: "2_conv2"
  type: "Convolution"
  bottom: "2_pool1"
  top: "2_conv2"
  param {
    lr_mult: 1
  }
  param {
    lr_mult: 2
  }
  convolution_param {
    num_output: 32
    pad: 2
    kernel_size: 5
    stride: 1
    weight_filler {
      type: "gaussian"
      std: 0.01
    }
    bias_filler {
      type: "constant"
    }
  }
}
layer {
  name: "2_relu2"
  type: "ReLU"
  bottom: "2_conv2"
  top: "2_conv2"
}
layer {
  name: "2_pool2"
  type: "Pooling"
  bottom: "2_conv2"
  top: "2_pool2"
  pooling_param {
    pool: AVE
    kernel_size: 3
    stride: 2
  }
}
layer {
  name: "2_conv3"
  type: "Convolution"
  bottom: "2_pool2"
  top: "2_conv3"
  param {
    lr_mult: 1
  }
  param {
    lr_mult: 2
  }
  convolution_param {
    num_output: 64
    pad: 2
    kernel_size: 5
    stride: 1
    weight_filler {
      type: "gaussian"
      std: 0.01
    }
    bias_filler {
      type: "constant"
    }
  }
}
layer {
  name: "2_relu3"
  type: "ReLU"
  bottom: "2_conv3"
  top: "2_conv3"
}
layer {
  name: "2_pool3"
  type: "Pooling"
  bottom: "2_conv3"
  top: "2_pool3"
  pooling_param {
    pool: AVE
    kernel_size: 3
    stride: 2
  }
}
layer {
  name: "2_ip1"
  type: "InnerProduct"
  bottom: "2_pool3"
  top: "2_ip1"
  param {
    lr_mult: 1
  }
  param {
    lr_mult: 2
  }
  inner_product_param {
    num_output: 64
    weight_filler {
      type: "gaussian"
      std: 0.1
    }
    bias_filler {
      type: "constant"
    }
  }
}
layer {
  name: "2_ip2"
  type: "InnerProduct"
  bottom: "2_ip1"
  top: "2_ip2"
  param {
    lr_mult: 1
  }
  param {
    lr_mult: 2
  }
  inner_product_param {
    num_output: 10
    weight_filler {
      type: "gaussian"
      std: 0.1
    }
    bias_filler {
      type: "constant"
    }
  }
}
layer {
  name: "2_prob"
  type: "Softmax"
  bottom: "2_ip2"
  top: "2_prob"
}
layer {
  name: "3_conv1"
  type: "Convolution"
  bottom: "data"
  top: "3_conv1"
  param {
    lr_mult: 1
  }
  param {
    lr_mult: 2
  }
  convolution_param {
    num_output: 32
    pad: 2
    kernel_size: 5
    stride: 1
    weight_filler {
      type: "gaussian"
      std: 0.0001
    }
    bias_filler {
      type: "constant"
    }
  }
}
layer {
  name: "3_pool1"
  type: "Pooling"
  bottom: "3_conv1"
  top: "3_pool1"
  pooling_param {
    pool: MAX
    kernel_size: 3
    stride: 2
  }
}
layer {
  name: "3_relu1"
  type: "ReLU"
  bottom: "3_pool1"
  top: "3_pool1"
}
layer {
  name: "3_conv2"
  type: "Convolution"
  bottom: "3_pool1"
  top: "3_conv2"
  param {
    lr_mult: 1
  }
  param {
    lr_mult: 2
  }
  convolution_param {
    num_output: 32
    pad: 2
    kernel_size: 5
    stride: 1
    weight_filler {
      type: "gaussian"
      std: 0.01
    }
    bias_filler {
      type: "constant"
    }
  }
}
layer {
  name: "3_relu2"
  type: "ReLU"
  bottom: "3_conv2"
  top: "3_conv2"
}
layer {
  name: "3_pool2"
  type: "Pooling"
  bottom: "3_conv2"
  top: "3_pool2"
  pooling_param {
    pool: AVE
    kernel_size: 3
    stride: 2
  }
}
layer {
  name: "3_conv3"
  type: "Convolution"
  bottom: "3_pool2"
  top: "3_conv3"
  param {
    lr_mult: 1
  }
  param {
    lr_mult: 2
  }
  convolution_param {
    num_output: 64
    pad: 2
    kernel_size: 5
    stride: 1
    weight_filler {
      type: "gaussian"
      std: 0.01
    }
    bias_filler {
      type: "constant"
    }
  }
}
layer {
  name: "3_relu3"
  type: "ReLU"
  bottom: "3_conv3"
  top: "3_conv3"
}
layer {
  name: "3_pool3"
  type: "Pooling"
  bottom: "3_conv3"
  top: "3_pool3"
  pooling_param {
    pool: AVE
    kernel_size: 3
    stride: 2
  }
}
layer {
  name: "3_ip1"
  type: "InnerProduct"
  bottom: "3_pool3"
  top: "3_ip1"
  param {
    lr_mult: 1
  }
  param {
    lr_mult: 2
  }
  inner_product_param {
    num_output: 64
    weight_filler {
      type: "gaussian"
      std: 0.1
    }
    bias_filler {
      type: "constant"
    }
  }
}
layer {
  name: "3_ip2"
  type: "InnerProduct"
  bottom: "3_ip1"
  top: "3_ip2"
  param {
    lr_mult: 1
  }
  param {
    lr_mult: 2
  }
  inner_product_param {
    num_output: 10
    weight_filler {
      type: "gaussian"
      std: 0.1
    }
    bias_filler {
      type: "constant"
    }
  }
}
layer {
  name: "3_prob"
  type: "Softmax"
  bottom: "3_ip2"
  top: "3_prob"
}
layer {
  name: "4_conv1"
  type: "Convolution"
  bottom: "data"
  top: "4_conv1"
  param {
    lr_mult: 1
  }
  param {
    lr_mult: 2
  }
  convolution_param {
    num_output: 32
    pad: 2
    kernel_size: 5
    stride: 1
    weight_filler {
      type: "gaussian"
      std: 0.0001
    }
    bias_filler {
      type: "constant"
    }
  }
}
layer {
  name: "4_pool1"
  type: "Pooling"
  bottom: "4_conv1"
  top: "4_pool1"
  pooling_param {
    pool: MAX
    kernel_size: 3
    stride: 2
  }
}
layer {
  name: "4_relu1"
  type: "ReLU"
  bottom: "4_pool1"
  top: "4_pool1"
}
layer {
  name: "4_conv2"
  type: "Convolution"
  bottom: "4_pool1"
  top: "4_conv2"
  param {
    lr_mult: 1
  }
  param {
    lr_mult: 2
  }
  convolution_param {
    num_output: 32
    pad: 2
    kernel_size: 5
    stride: 1
    weight_filler {
      type: "gaussian"
      std: 0.01
    }
    bias_filler {
      type: "constant"
    }
  }
}
layer {
  name: "4_relu2"
  type: "ReLU"
  bottom: "4_conv2"
  top: "4_conv2"
}
layer {
  name: "4_pool2"
  type: "Pooling"
  bottom: "4_conv2"
  top: "4_pool2"
  pooling_param {
    pool: AVE
    kernel_size: 3
    stride: 2
  }
}
layer {
  name: "4_conv3"
  type: "Convolution"
  bottom: "4_pool2"
  top: "4_conv3"
  param {
    lr_mult: 1
  }
  param {
    lr_mult: 2
  }
  convolution_param {
    num_output: 64
    pad: 2
    kernel_size: 5
    stride: 1
    weight_filler {
      type: "gaussian"
      std: 0.01
    }
    bias_filler {
      type: "constant"
    }
  }
}
layer {
  name: "4_relu3"
  type: "ReLU"
  bottom: "4_conv3"
  top: "4_conv3"
}
layer {
  name: "4_pool3"
  type: "Pooling"
  bottom: "4_conv3"
  top: "4_pool3"
  pooling_param {
    pool: AVE
    kernel_size: 3
    stride: 2
  }
}
layer {
  name: "4_ip1"
  type: "InnerProduct"
  bottom: "4_pool3"
  top: "4_ip1"
  param {
    lr_mult: 1
  }
  param {
    lr_mult: 2
  }
  inner_product_param {
    num_output: 64
    weight_filler {
      type: "gaussian"
      std: 0.1
    }
    bias_filler {
      type: "constant"
    }
  }
}
layer {
  name: "4_ip2"
  type: "InnerProduct"
  bottom: "4_ip1"
  top: "4_ip2"
  param {
    lr_mult: 1
  }
  param {
    lr_mult: 2
  }
  inner_product_param {
    num_output: 10
    weight_filler {
      type: "gaussian"
      std: 0.1
    }
    bias_filler {
      type: "constant"
    }
  }
}
layer {
  name: "4_prob"
  type: "Softmax"
  bottom: "4_ip2"
  top: "4_prob"
}
layer {
  name: "loss"
  type: "ODMultinomialLogisticLoss"
  bottom: "1_prob"
  bottom: "2_prob"
  bottom: "3_prob"
  bottom: "4_prob"
  bottom: "label"
  top: "multiple-output loss"
  top: "batch-instance-counts"
  top: "train-instance-counts"
  loss_weight: 1
  loss_weight: 0
  loss_weight: 0
  include {
    phase: TRAIN
  }
}
I0126 21:49:12.144414 26857 layer_factory.hpp:74] Creating layer cifar
I0126 21:49:12.144434 26857 net.cpp:90] Creating Layer cifar
I0126 21:49:12.144443 26857 net.cpp:368] cifar -> data
I0126 21:49:12.144466 26857 net.cpp:368] cifar -> label
I0126 21:49:12.144477 26857 net.cpp:120] Setting up cifar
I0126 21:49:12.144539 26857 db.cpp:34] Opened lmdb /home/mike/ml_lab/mod/MCL_Caffe/examples/cifar10/cifar10_train_lmdb
I0126 21:49:12.144587 26857 data_layer.cpp:67] output data size: 350,3,32,32
I0126 21:49:12.144596 26857 data_transformer.cpp:22] Loading mean file from: /home/mike/ml_lab/mod/MCL_Caffe/examples/cifar10/mean.binaryproto
I0126 21:49:12.145431 26857 net.cpp:127] Top shape: 350 3 32 32 (1075200)
I0126 21:49:12.145440 26857 net.cpp:127] Top shape: 350 (350)
I0126 21:49:12.145445 26857 layer_factory.hpp:74] Creating layer data_cifar_0_split
I0126 21:49:12.145460 26857 net.cpp:90] Creating Layer data_cifar_0_split
I0126 21:49:12.145465 26857 net.cpp:410] data_cifar_0_split <- data
I0126 21:49:12.145475 26857 net.cpp:368] data_cifar_0_split -> data_cifar_0_split_0
I0126 21:49:12.145483 26857 net.cpp:368] data_cifar_0_split -> data_cifar_0_split_1
I0126 21:49:12.145489 26857 net.cpp:368] data_cifar_0_split -> data_cifar_0_split_2
I0126 21:49:12.145496 26857 net.cpp:368] data_cifar_0_split -> data_cifar_0_split_3
I0126 21:49:12.145501 26857 net.cpp:120] Setting up data_cifar_0_split
I0126 21:49:12.145509 26857 net.cpp:127] Top shape: 350 3 32 32 (1075200)
I0126 21:49:12.145514 26857 net.cpp:127] Top shape: 350 3 32 32 (1075200)
I0126 21:49:12.145519 26857 net.cpp:127] Top shape: 350 3 32 32 (1075200)
I0126 21:49:12.145522 26857 net.cpp:127] Top shape: 350 3 32 32 (1075200)
I0126 21:49:12.145525 26857 layer_factory.hpp:74] Creating layer 1_conv1
I0126 21:49:12.145534 26857 net.cpp:90] Creating Layer 1_conv1
I0126 21:49:12.145539 26857 net.cpp:410] 1_conv1 <- data_cifar_0_split_0
I0126 21:49:12.145545 26857 net.cpp:368] 1_conv1 -> 1_conv1
I0126 21:49:12.145552 26857 net.cpp:120] Setting up 1_conv1
I0126 21:49:12.146132 26857 net.cpp:127] Top shape: 350 32 32 32 (11468800)
I0126 21:49:12.146147 26857 layer_factory.hpp:74] Creating layer 1_pool1
I0126 21:49:12.146152 26857 net.cpp:90] Creating Layer 1_pool1
I0126 21:49:12.146157 26857 net.cpp:410] 1_pool1 <- 1_conv1
I0126 21:49:12.146162 26857 net.cpp:368] 1_pool1 -> 1_pool1
I0126 21:49:12.146168 26857 net.cpp:120] Setting up 1_pool1
I0126 21:49:12.146183 26857 net.cpp:127] Top shape: 350 32 16 16 (2867200)
I0126 21:49:12.146185 26857 layer_factory.hpp:74] Creating layer 1_relu1
I0126 21:49:12.146191 26857 net.cpp:90] Creating Layer 1_relu1
I0126 21:49:12.146194 26857 net.cpp:410] 1_relu1 <- 1_pool1
I0126 21:49:12.146198 26857 net.cpp:357] 1_relu1 -> 1_pool1 (in-place)
I0126 21:49:12.146203 26857 net.cpp:120] Setting up 1_relu1
I0126 21:49:12.146209 26857 net.cpp:127] Top shape: 350 32 16 16 (2867200)
I0126 21:49:12.146214 26857 layer_factory.hpp:74] Creating layer 1_conv2
I0126 21:49:12.146219 26857 net.cpp:90] Creating Layer 1_conv2
I0126 21:49:12.146222 26857 net.cpp:410] 1_conv2 <- 1_pool1
I0126 21:49:12.146227 26857 net.cpp:368] 1_conv2 -> 1_conv2
I0126 21:49:12.146234 26857 net.cpp:120] Setting up 1_conv2
I0126 21:49:12.147037 26857 net.cpp:127] Top shape: 350 32 16 16 (2867200)
I0126 21:49:12.147047 26857 layer_factory.hpp:74] Creating layer 1_relu2
I0126 21:49:12.147053 26857 net.cpp:90] Creating Layer 1_relu2
I0126 21:49:12.147056 26857 net.cpp:410] 1_relu2 <- 1_conv2
I0126 21:49:12.147061 26857 net.cpp:357] 1_relu2 -> 1_conv2 (in-place)
I0126 21:49:12.147066 26857 net.cpp:120] Setting up 1_relu2
I0126 21:49:12.147071 26857 net.cpp:127] Top shape: 350 32 16 16 (2867200)
I0126 21:49:12.147074 26857 layer_factory.hpp:74] Creating layer 1_pool2
I0126 21:49:12.147080 26857 net.cpp:90] Creating Layer 1_pool2
I0126 21:49:12.147083 26857 net.cpp:410] 1_pool2 <- 1_conv2
I0126 21:49:12.147088 26857 net.cpp:368] 1_pool2 -> 1_pool2
I0126 21:49:12.147094 26857 net.cpp:120] Setting up 1_pool2
I0126 21:49:12.147099 26857 net.cpp:127] Top shape: 350 32 8 8 (716800)
I0126 21:49:12.147102 26857 layer_factory.hpp:74] Creating layer 1_conv3
I0126 21:49:12.147110 26857 net.cpp:90] Creating Layer 1_conv3
I0126 21:49:12.147114 26857 net.cpp:410] 1_conv3 <- 1_pool2
I0126 21:49:12.147119 26857 net.cpp:368] 1_conv3 -> 1_conv3
I0126 21:49:12.147123 26857 net.cpp:120] Setting up 1_conv3
I0126 21:49:12.148726 26857 net.cpp:127] Top shape: 350 64 8 8 (1433600)
I0126 21:49:12.148736 26857 layer_factory.hpp:74] Creating layer 1_relu3
I0126 21:49:12.148741 26857 net.cpp:90] Creating Layer 1_relu3
I0126 21:49:12.148744 26857 net.cpp:410] 1_relu3 <- 1_conv3
I0126 21:49:12.148751 26857 net.cpp:357] 1_relu3 -> 1_conv3 (in-place)
I0126 21:49:12.148756 26857 net.cpp:120] Setting up 1_relu3
I0126 21:49:12.148761 26857 net.cpp:127] Top shape: 350 64 8 8 (1433600)
I0126 21:49:12.148764 26857 layer_factory.hpp:74] Creating layer 1_pool3
I0126 21:49:12.148768 26857 net.cpp:90] Creating Layer 1_pool3
I0126 21:49:12.148772 26857 net.cpp:410] 1_pool3 <- 1_conv3
I0126 21:49:12.148777 26857 net.cpp:368] 1_pool3 -> 1_pool3
I0126 21:49:12.148782 26857 net.cpp:120] Setting up 1_pool3
I0126 21:49:12.148788 26857 net.cpp:127] Top shape: 350 64 4 4 (358400)
I0126 21:49:12.148792 26857 layer_factory.hpp:74] Creating layer 1_ip1
I0126 21:49:12.148798 26857 net.cpp:90] Creating Layer 1_ip1
I0126 21:49:12.148802 26857 net.cpp:410] 1_ip1 <- 1_pool3
I0126 21:49:12.148807 26857 net.cpp:368] 1_ip1 -> 1_ip1
I0126 21:49:12.148813 26857 net.cpp:120] Setting up 1_ip1
I0126 21:49:12.150858 26857 net.cpp:127] Top shape: 350 64 (22400)
I0126 21:49:12.150868 26857 layer_factory.hpp:74] Creating layer 1_ip2
I0126 21:49:12.150874 26857 net.cpp:90] Creating Layer 1_ip2
I0126 21:49:12.150878 26857 net.cpp:410] 1_ip2 <- 1_ip1
I0126 21:49:12.150884 26857 net.cpp:368] 1_ip2 -> 1_ip2
I0126 21:49:12.150892 26857 net.cpp:120] Setting up 1_ip2
I0126 21:49:12.150923 26857 net.cpp:127] Top shape: 350 10 (3500)
I0126 21:49:12.150933 26857 layer_factory.hpp:74] Creating layer 1_prob
I0126 21:49:12.150938 26857 net.cpp:90] Creating Layer 1_prob
I0126 21:49:12.150940 26857 net.cpp:410] 1_prob <- 1_ip2
I0126 21:49:12.150945 26857 net.cpp:368] 1_prob -> 1_prob
I0126 21:49:12.150950 26857 net.cpp:120] Setting up 1_prob
I0126 21:49:12.150959 26857 net.cpp:127] Top shape: 350 10 (3500)
I0126 21:49:12.150961 26857 layer_factory.hpp:74] Creating layer 2_conv1
I0126 21:49:12.150970 26857 net.cpp:90] Creating Layer 2_conv1
I0126 21:49:12.150974 26857 net.cpp:410] 2_conv1 <- data_cifar_0_split_1
I0126 21:49:12.150979 26857 net.cpp:368] 2_conv1 -> 2_conv1
I0126 21:49:12.150985 26857 net.cpp:120] Setting up 2_conv1
I0126 21:49:12.151074 26857 net.cpp:127] Top shape: 350 32 32 32 (11468800)
I0126 21:49:12.151082 26857 layer_factory.hpp:74] Creating layer 2_pool1
I0126 21:49:12.151090 26857 net.cpp:90] Creating Layer 2_pool1
I0126 21:49:12.151093 26857 net.cpp:410] 2_pool1 <- 2_conv1
I0126 21:49:12.151098 26857 net.cpp:368] 2_pool1 -> 2_pool1
I0126 21:49:12.151105 26857 net.cpp:120] Setting up 2_pool1
I0126 21:49:12.151113 26857 net.cpp:127] Top shape: 350 32 16 16 (2867200)
I0126 21:49:12.151116 26857 layer_factory.hpp:74] Creating layer 2_relu1
I0126 21:49:12.151123 26857 net.cpp:90] Creating Layer 2_relu1
I0126 21:49:12.151125 26857 net.cpp:410] 2_relu1 <- 2_pool1
I0126 21:49:12.151129 26857 net.cpp:357] 2_relu1 -> 2_pool1 (in-place)
I0126 21:49:12.151134 26857 net.cpp:120] Setting up 2_relu1
I0126 21:49:12.151139 26857 net.cpp:127] Top shape: 350 32 16 16 (2867200)
I0126 21:49:12.151141 26857 layer_factory.hpp:74] Creating layer 2_conv2
I0126 21:49:12.151149 26857 net.cpp:90] Creating Layer 2_conv2
I0126 21:49:12.151151 26857 net.cpp:410] 2_conv2 <- 2_pool1
I0126 21:49:12.151156 26857 net.cpp:368] 2_conv2 -> 2_conv2
I0126 21:49:12.151162 26857 net.cpp:120] Setting up 2_conv2
I0126 21:49:12.151962 26857 net.cpp:127] Top shape: 350 32 16 16 (2867200)
I0126 21:49:12.151970 26857 layer_factory.hpp:74] Creating layer 2_relu2
I0126 21:49:12.151976 26857 net.cpp:90] Creating Layer 2_relu2
I0126 21:49:12.151979 26857 net.cpp:410] 2_relu2 <- 2_conv2
I0126 21:49:12.151984 26857 net.cpp:357] 2_relu2 -> 2_conv2 (in-place)
I0126 21:49:12.151989 26857 net.cpp:120] Setting up 2_relu2
I0126 21:49:12.151994 26857 net.cpp:127] Top shape: 350 32 16 16 (2867200)
I0126 21:49:12.151998 26857 layer_factory.hpp:74] Creating layer 2_pool2
I0126 21:49:12.152004 26857 net.cpp:90] Creating Layer 2_pool2
I0126 21:49:12.152016 26857 net.cpp:410] 2_pool2 <- 2_conv2
I0126 21:49:12.152021 26857 net.cpp:368] 2_pool2 -> 2_pool2
I0126 21:49:12.152026 26857 net.cpp:120] Setting up 2_pool2
I0126 21:49:12.152034 26857 net.cpp:127] Top shape: 350 32 8 8 (716800)
I0126 21:49:12.152036 26857 layer_factory.hpp:74] Creating layer 2_conv3
I0126 21:49:12.152042 26857 net.cpp:90] Creating Layer 2_conv3
I0126 21:49:12.152045 26857 net.cpp:410] 2_conv3 <- 2_pool2
I0126 21:49:12.152052 26857 net.cpp:368] 2_conv3 -> 2_conv3
I0126 21:49:12.152058 26857 net.cpp:120] Setting up 2_conv3
I0126 21:49:12.153659 26857 net.cpp:127] Top shape: 350 64 8 8 (1433600)
I0126 21:49:12.153669 26857 layer_factory.hpp:74] Creating layer 2_relu3
I0126 21:49:12.153676 26857 net.cpp:90] Creating Layer 2_relu3
I0126 21:49:12.153678 26857 net.cpp:410] 2_relu3 <- 2_conv3
I0126 21:49:12.153683 26857 net.cpp:357] 2_relu3 -> 2_conv3 (in-place)
I0126 21:49:12.153688 26857 net.cpp:120] Setting up 2_relu3
I0126 21:49:12.153693 26857 net.cpp:127] Top shape: 350 64 8 8 (1433600)
I0126 21:49:12.153697 26857 layer_factory.hpp:74] Creating layer 2_pool3
I0126 21:49:12.153703 26857 net.cpp:90] Creating Layer 2_pool3
I0126 21:49:12.153707 26857 net.cpp:410] 2_pool3 <- 2_conv3
I0126 21:49:12.153712 26857 net.cpp:368] 2_pool3 -> 2_pool3
I0126 21:49:12.153717 26857 net.cpp:120] Setting up 2_pool3
I0126 21:49:12.153723 26857 net.cpp:127] Top shape: 350 64 4 4 (358400)
I0126 21:49:12.153725 26857 layer_factory.hpp:74] Creating layer 2_ip1
I0126 21:49:12.153733 26857 net.cpp:90] Creating Layer 2_ip1
I0126 21:49:12.153735 26857 net.cpp:410] 2_ip1 <- 2_pool3
I0126 21:49:12.153740 26857 net.cpp:368] 2_ip1 -> 2_ip1
I0126 21:49:12.153745 26857 net.cpp:120] Setting up 2_ip1
I0126 21:49:12.155781 26857 net.cpp:127] Top shape: 350 64 (22400)
I0126 21:49:12.155792 26857 layer_factory.hpp:74] Creating layer 2_ip2
I0126 21:49:12.155798 26857 net.cpp:90] Creating Layer 2_ip2
I0126 21:49:12.155802 26857 net.cpp:410] 2_ip2 <- 2_ip1
I0126 21:49:12.155808 26857 net.cpp:368] 2_ip2 -> 2_ip2
I0126 21:49:12.155815 26857 net.cpp:120] Setting up 2_ip2
I0126 21:49:12.155848 26857 net.cpp:127] Top shape: 350 10 (3500)
I0126 21:49:12.155853 26857 layer_factory.hpp:74] Creating layer 2_prob
I0126 21:49:12.155858 26857 net.cpp:90] Creating Layer 2_prob
I0126 21:49:12.155861 26857 net.cpp:410] 2_prob <- 2_ip2
I0126 21:49:12.155866 26857 net.cpp:368] 2_prob -> 2_prob
I0126 21:49:12.155871 26857 net.cpp:120] Setting up 2_prob
I0126 21:49:12.155879 26857 net.cpp:127] Top shape: 350 10 (3500)
I0126 21:49:12.155881 26857 layer_factory.hpp:74] Creating layer 3_conv1
I0126 21:49:12.155887 26857 net.cpp:90] Creating Layer 3_conv1
I0126 21:49:12.155890 26857 net.cpp:410] 3_conv1 <- data_cifar_0_split_2
I0126 21:49:12.155896 26857 net.cpp:368] 3_conv1 -> 3_conv1
I0126 21:49:12.155903 26857 net.cpp:120] Setting up 3_conv1
I0126 21:49:12.155994 26857 net.cpp:127] Top shape: 350 32 32 32 (11468800)
I0126 21:49:12.156002 26857 layer_factory.hpp:74] Creating layer 3_pool1
I0126 21:49:12.156008 26857 net.cpp:90] Creating Layer 3_pool1
I0126 21:49:12.156013 26857 net.cpp:410] 3_pool1 <- 3_conv1
I0126 21:49:12.156016 26857 net.cpp:368] 3_pool1 -> 3_pool1
I0126 21:49:12.156023 26857 net.cpp:120] Setting up 3_pool1
I0126 21:49:12.156029 26857 net.cpp:127] Top shape: 350 32 16 16 (2867200)
I0126 21:49:12.156033 26857 layer_factory.hpp:74] Creating layer 3_relu1
I0126 21:49:12.156038 26857 net.cpp:90] Creating Layer 3_relu1
I0126 21:49:12.156040 26857 net.cpp:410] 3_relu1 <- 3_pool1
I0126 21:49:12.156044 26857 net.cpp:357] 3_relu1 -> 3_pool1 (in-place)
I0126 21:49:12.156049 26857 net.cpp:120] Setting up 3_relu1
I0126 21:49:12.156054 26857 net.cpp:127] Top shape: 350 32 16 16 (2867200)
I0126 21:49:12.156059 26857 layer_factory.hpp:74] Creating layer 3_conv2
I0126 21:49:12.156064 26857 net.cpp:90] Creating Layer 3_conv2
I0126 21:49:12.156067 26857 net.cpp:410] 3_conv2 <- 3_pool1
I0126 21:49:12.156074 26857 net.cpp:368] 3_conv2 -> 3_conv2
I0126 21:49:12.156080 26857 net.cpp:120] Setting up 3_conv2
I0126 21:49:12.156882 26857 net.cpp:127] Top shape: 350 32 16 16 (2867200)
I0126 21:49:12.156898 26857 layer_factory.hpp:74] Creating layer 3_relu2
I0126 21:49:12.156903 26857 net.cpp:90] Creating Layer 3_relu2
I0126 21:49:12.156906 26857 net.cpp:410] 3_relu2 <- 3_conv2
I0126 21:49:12.156911 26857 net.cpp:357] 3_relu2 -> 3_conv2 (in-place)
I0126 21:49:12.156916 26857 net.cpp:120] Setting up 3_relu2
I0126 21:49:12.156921 26857 net.cpp:127] Top shape: 350 32 16 16 (2867200)
I0126 21:49:12.156925 26857 layer_factory.hpp:74] Creating layer 3_pool2
I0126 21:49:12.156929 26857 net.cpp:90] Creating Layer 3_pool2
I0126 21:49:12.156932 26857 net.cpp:410] 3_pool2 <- 3_conv2
I0126 21:49:12.156936 26857 net.cpp:368] 3_pool2 -> 3_pool2
I0126 21:49:12.156941 26857 net.cpp:120] Setting up 3_pool2
I0126 21:49:12.156949 26857 net.cpp:127] Top shape: 350 32 8 8 (716800)
I0126 21:49:12.156954 26857 layer_factory.hpp:74] Creating layer 3_conv3
I0126 21:49:12.156960 26857 net.cpp:90] Creating Layer 3_conv3
I0126 21:49:12.156963 26857 net.cpp:410] 3_conv3 <- 3_pool2
I0126 21:49:12.156970 26857 net.cpp:368] 3_conv3 -> 3_conv3
I0126 21:49:12.156976 26857 net.cpp:120] Setting up 3_conv3
I0126 21:49:12.158574 26857 net.cpp:127] Top shape: 350 64 8 8 (1433600)
I0126 21:49:12.158583 26857 layer_factory.hpp:74] Creating layer 3_relu3
I0126 21:49:12.158588 26857 net.cpp:90] Creating Layer 3_relu3
I0126 21:49:12.158592 26857 net.cpp:410] 3_relu3 <- 3_conv3
I0126 21:49:12.158597 26857 net.cpp:357] 3_relu3 -> 3_conv3 (in-place)
I0126 21:49:12.158601 26857 net.cpp:120] Setting up 3_relu3
I0126 21:49:12.158607 26857 net.cpp:127] Top shape: 350 64 8 8 (1433600)
I0126 21:49:12.158609 26857 layer_factory.hpp:74] Creating layer 3_pool3
I0126 21:49:12.158615 26857 net.cpp:90] Creating Layer 3_pool3
I0126 21:49:12.158618 26857 net.cpp:410] 3_pool3 <- 3_conv3
I0126 21:49:12.158624 26857 net.cpp:368] 3_pool3 -> 3_pool3
I0126 21:49:12.158629 26857 net.cpp:120] Setting up 3_pool3
I0126 21:49:12.158635 26857 net.cpp:127] Top shape: 350 64 4 4 (358400)
I0126 21:49:12.158639 26857 layer_factory.hpp:74] Creating layer 3_ip1
I0126 21:49:12.158644 26857 net.cpp:90] Creating Layer 3_ip1
I0126 21:49:12.158648 26857 net.cpp:410] 3_ip1 <- 3_pool3
I0126 21:49:12.158653 26857 net.cpp:368] 3_ip1 -> 3_ip1
I0126 21:49:12.158659 26857 net.cpp:120] Setting up 3_ip1
I0126 21:49:12.160692 26857 net.cpp:127] Top shape: 350 64 (22400)
I0126 21:49:12.160702 26857 layer_factory.hpp:74] Creating layer 3_ip2
I0126 21:49:12.160709 26857 net.cpp:90] Creating Layer 3_ip2
I0126 21:49:12.160713 26857 net.cpp:410] 3_ip2 <- 3_ip1
I0126 21:49:12.160718 26857 net.cpp:368] 3_ip2 -> 3_ip2
I0126 21:49:12.160725 26857 net.cpp:120] Setting up 3_ip2
I0126 21:49:12.160758 26857 net.cpp:127] Top shape: 350 10 (3500)
I0126 21:49:12.160763 26857 layer_factory.hpp:74] Creating layer 3_prob
I0126 21:49:12.160768 26857 net.cpp:90] Creating Layer 3_prob
I0126 21:49:12.160773 26857 net.cpp:410] 3_prob <- 3_ip2
I0126 21:49:12.160776 26857 net.cpp:368] 3_prob -> 3_prob
I0126 21:49:12.160784 26857 net.cpp:120] Setting up 3_prob
I0126 21:49:12.160791 26857 net.cpp:127] Top shape: 350 10 (3500)
I0126 21:49:12.160794 26857 layer_factory.hpp:74] Creating layer 4_conv1
I0126 21:49:12.160800 26857 net.cpp:90] Creating Layer 4_conv1
I0126 21:49:12.160804 26857 net.cpp:410] 4_conv1 <- data_cifar_0_split_3
I0126 21:49:12.160810 26857 net.cpp:368] 4_conv1 -> 4_conv1
I0126 21:49:12.160815 26857 net.cpp:120] Setting up 4_conv1
I0126 21:49:12.160904 26857 net.cpp:127] Top shape: 350 32 32 32 (11468800)
I0126 21:49:12.160910 26857 layer_factory.hpp:74] Creating layer 4_pool1
I0126 21:49:12.160917 26857 net.cpp:90] Creating Layer 4_pool1
I0126 21:49:12.160920 26857 net.cpp:410] 4_pool1 <- 4_conv1
I0126 21:49:12.160925 26857 net.cpp:368] 4_pool1 -> 4_pool1
I0126 21:49:12.160930 26857 net.cpp:120] Setting up 4_pool1
I0126 21:49:12.160938 26857 net.cpp:127] Top shape: 350 32 16 16 (2867200)
I0126 21:49:12.160940 26857 layer_factory.hpp:74] Creating layer 4_relu1
I0126 21:49:12.160945 26857 net.cpp:90] Creating Layer 4_relu1
I0126 21:49:12.160948 26857 net.cpp:410] 4_relu1 <- 4_pool1
I0126 21:49:12.160961 26857 net.cpp:357] 4_relu1 -> 4_pool1 (in-place)
I0126 21:49:12.160966 26857 net.cpp:120] Setting up 4_relu1
I0126 21:49:12.160971 26857 net.cpp:127] Top shape: 350 32 16 16 (2867200)
I0126 21:49:12.160974 26857 layer_factory.hpp:74] Creating layer 4_conv2
I0126 21:49:12.160980 26857 net.cpp:90] Creating Layer 4_conv2
I0126 21:49:12.160984 26857 net.cpp:410] 4_conv2 <- 4_pool1
I0126 21:49:12.160989 26857 net.cpp:368] 4_conv2 -> 4_conv2
I0126 21:49:12.160995 26857 net.cpp:120] Setting up 4_conv2
I0126 21:49:12.161800 26857 net.cpp:127] Top shape: 350 32 16 16 (2867200)
I0126 21:49:12.161813 26857 layer_factory.hpp:74] Creating layer 4_relu2
I0126 21:49:12.161819 26857 net.cpp:90] Creating Layer 4_relu2
I0126 21:49:12.161823 26857 net.cpp:410] 4_relu2 <- 4_conv2
I0126 21:49:12.161828 26857 net.cpp:357] 4_relu2 -> 4_conv2 (in-place)
I0126 21:49:12.161833 26857 net.cpp:120] Setting up 4_relu2
I0126 21:49:12.161837 26857 net.cpp:127] Top shape: 350 32 16 16 (2867200)
I0126 21:49:12.161840 26857 layer_factory.hpp:74] Creating layer 4_pool2
I0126 21:49:12.161846 26857 net.cpp:90] Creating Layer 4_pool2
I0126 21:49:12.161850 26857 net.cpp:410] 4_pool2 <- 4_conv2
I0126 21:49:12.161854 26857 net.cpp:368] 4_pool2 -> 4_pool2
I0126 21:49:12.161859 26857 net.cpp:120] Setting up 4_pool2
I0126 21:49:12.161865 26857 net.cpp:127] Top shape: 350 32 8 8 (716800)
I0126 21:49:12.161870 26857 layer_factory.hpp:74] Creating layer 4_conv3
I0126 21:49:12.161875 26857 net.cpp:90] Creating Layer 4_conv3
I0126 21:49:12.161877 26857 net.cpp:410] 4_conv3 <- 4_pool2
I0126 21:49:12.161883 26857 net.cpp:368] 4_conv3 -> 4_conv3
I0126 21:49:12.161890 26857 net.cpp:120] Setting up 4_conv3
I0126 21:49:12.163482 26857 net.cpp:127] Top shape: 350 64 8 8 (1433600)
I0126 21:49:12.163491 26857 layer_factory.hpp:74] Creating layer 4_relu3
I0126 21:49:12.163496 26857 net.cpp:90] Creating Layer 4_relu3
I0126 21:49:12.163501 26857 net.cpp:410] 4_relu3 <- 4_conv3
I0126 21:49:12.163504 26857 net.cpp:357] 4_relu3 -> 4_conv3 (in-place)
I0126 21:49:12.163509 26857 net.cpp:120] Setting up 4_relu3
I0126 21:49:12.163514 26857 net.cpp:127] Top shape: 350 64 8 8 (1433600)
I0126 21:49:12.163518 26857 layer_factory.hpp:74] Creating layer 4_pool3
I0126 21:49:12.163524 26857 net.cpp:90] Creating Layer 4_pool3
I0126 21:49:12.163527 26857 net.cpp:410] 4_pool3 <- 4_conv3
I0126 21:49:12.163532 26857 net.cpp:368] 4_pool3 -> 4_pool3
I0126 21:49:12.163537 26857 net.cpp:120] Setting up 4_pool3
I0126 21:49:12.163543 26857 net.cpp:127] Top shape: 350 64 4 4 (358400)
I0126 21:49:12.163547 26857 layer_factory.hpp:74] Creating layer 4_ip1
I0126 21:49:12.163553 26857 net.cpp:90] Creating Layer 4_ip1
I0126 21:49:12.163556 26857 net.cpp:410] 4_ip1 <- 4_pool3
I0126 21:49:12.163561 26857 net.cpp:368] 4_ip1 -> 4_ip1
I0126 21:49:12.163568 26857 net.cpp:120] Setting up 4_ip1
I0126 21:49:12.165609 26857 net.cpp:127] Top shape: 350 64 (22400)
I0126 21:49:12.165637 26857 layer_factory.hpp:74] Creating layer 4_ip2
I0126 21:49:12.165654 26857 net.cpp:90] Creating Layer 4_ip2
I0126 21:49:12.165668 26857 net.cpp:410] 4_ip2 <- 4_ip1
I0126 21:49:12.165683 26857 net.cpp:368] 4_ip2 -> 4_ip2
I0126 21:49:12.165699 26857 net.cpp:120] Setting up 4_ip2
I0126 21:49:12.165741 26857 net.cpp:127] Top shape: 350 10 (3500)
I0126 21:49:12.165758 26857 layer_factory.hpp:74] Creating layer 4_prob
I0126 21:49:12.165774 26857 net.cpp:90] Creating Layer 4_prob
I0126 21:49:12.165787 26857 net.cpp:410] 4_prob <- 4_ip2
I0126 21:49:12.165801 26857 net.cpp:368] 4_prob -> 4_prob
I0126 21:49:12.165817 26857 net.cpp:120] Setting up 4_prob
I0126 21:49:12.165832 26857 net.cpp:127] Top shape: 350 10 (3500)
I0126 21:49:12.165845 26857 layer_factory.hpp:74] Creating layer loss
I0126 21:49:12.165863 26857 net.cpp:90] Creating Layer loss
I0126 21:49:12.165875 26857 net.cpp:410] loss <- 1_prob
I0126 21:49:12.165887 26857 net.cpp:410] loss <- 2_prob
I0126 21:49:12.165900 26857 net.cpp:410] loss <- 3_prob
I0126 21:49:12.165912 26857 net.cpp:410] loss <- 4_prob
I0126 21:49:12.165928 26857 net.cpp:410] loss <- label
I0126 21:49:12.165951 26857 net.cpp:368] loss -> multiple-output loss
I0126 21:49:12.165966 26857 net.cpp:368] loss -> batch-instance-counts
I0126 21:49:12.165982 26857 net.cpp:368] loss -> train-instance-counts
I0126 21:49:12.165999 26857 net.cpp:120] Setting up loss
I0126 21:49:12.166019 26857 net.cpp:127] Top shape: 4 1 1 1 (4)
I0126 21:49:12.166031 26857 net.cpp:129]     with loss weight 1
I0126 21:49:12.166059 26857 net.cpp:127] Top shape: 4 1 1 1 (4)
I0126 21:49:12.166072 26857 net.cpp:127] Top shape: 4 1 1 1 (4)
I0126 21:49:12.166085 26857 net.cpp:192] loss needs backward computation.
I0126 21:49:12.166097 26857 net.cpp:192] 4_prob needs backward computation.
I0126 21:49:12.166110 26857 net.cpp:192] 4_ip2 needs backward computation.
I0126 21:49:12.166121 26857 net.cpp:192] 4_ip1 needs backward computation.
I0126 21:49:12.166133 26857 net.cpp:192] 4_pool3 needs backward computation.
I0126 21:49:12.166144 26857 net.cpp:192] 4_relu3 needs backward computation.
…
I0126 21:49:12.167943 26857 net.cpp:287] The NetState phase (1) differed from the phase (0) specified by a rule in layer loss
I0126 21:49:12.168258 26857 net.cpp:42] Initializing net from parameters: 
name: "CIFAR10_quick"
state {
  phase: TEST
}
layer {
  name: "cifar"
  type: "Data"
  top: "data"
  top: "label"
  include {
    phase: TEST
  }
  transform_param {
    mean_file: "/home/mike/ml_lab/mod/MCL_Caffe/examples/cifar10/mean.binaryproto"
  }
  data_param {
    source: "/home/mike/ml_lab/mod/MCL_Caffe/examples/cifar10/cifar10_test_lmdb"
    batch_size: 100
    backend: LMDB
  }
}
layer {
  name: "1_conv1"
  type: "Convolution"
  bottom: "data"
  top: "1_conv1"
  param {
    lr_mult: 1
  }
  param {
    lr_mult: 2
  }
  convolution_param {
    num_output: 32
    pad: 2
    kernel_size: 5
    stride: 1
    weight_filler {
      type: "gaussian"
      std: 0.0001
    }
    bias_filler {
      type: "constant"
    }
  }
}
layer {
  name: "1_pool1"
  type: "Pooling"
  bottom: "1_conv1"
  top: "1_pool1"
  pooling_param {
    pool: MAX
    kernel_size: 3
    stride: 2
  }
}
layer {
  name: "1_relu1"
  type: "ReLU"
  bottom: "1_pool1"
  top: "1_pool1"
}
layer {
  name: "1_conv2"
  type: "Convolution"
  bottom: "1_pool1"
  top: "1_conv2"
  param {
    lr_mult: 1
  }
  param {
    lr_mult: 2
  }
  convolution_param {
    num_output: 32
    pad: 2
    kernel_size: 5
    stride: 1
    weight_filler {
      type: "gaussian"
      std: 0.01
    }
    bias_filler {
      type: "constant"
    }
  }
}
layer {
  name: "1_relu2"
  type: "ReLU"
  bottom: "1_conv2"
  top: "1_conv2"
}
layer {
  name: "1_pool2"
  type: "Pooling"
  bottom: "1_conv2"
  top: "1_pool2"
  pooling_param {
    pool: AVE
    kernel_size: 3
    stride: 2
  }
}
layer {
  name: "1_conv3"
  type: "Convolution"
  bottom: "1_pool2"
  top: "1_conv3"
  param {
    lr_mult: 1
  }
  param {
    lr_mult: 2
  }
  convolution_param {
    num_output: 64
    pad: 2
    kernel_size: 5
    stride: 1
    weight_filler {
      type: "gaussian"
      std: 0.01
    }
    bias_filler {
      type: "constant"
    }
  }
}
layer {
  name: "1_relu3"
  type: "ReLU"
  bottom: "1_conv3"
  top: "1_conv3"
}
layer {
  name: "1_pool3"
  type: "Pooling"
  bottom: "1_conv3"
  top: "1_pool3"
  pooling_param {
    pool: AVE
    kernel_size: 3
    stride: 2
  }
}
layer {
  name: "1_ip1"
  type: "InnerProduct"
  bottom: "1_pool3"
  top: "1_ip1"
  param {
    lr_mult: 1
  }
  param {
    lr_mult: 2
  }
  inner_product_param {
    num_output: 64
    weight_filler {
      type: "gaussian"
      std: 0.1
    }
    bias_filler {
      type: "constant"
    }
  }
}
layer {
  name: "1_ip2"
  type: "InnerProduct"
  bottom: "1_ip1"
  top: "1_ip2"
  param {
    lr_mult: 1
  }
  param {
    lr_mult: 2
  }
  inner_product_param {
    num_output: 10
    weight_filler {
      type: "gaussian"
      std: 0.1
    }
    bias_filler {
      type: "constant"
    }
  }
}
layer {
  name: "1_prob"
  type: "Softmax"
  bottom: "1_ip2"
  top: "1_prob"
}
layer {
  name: "2_conv1"
  type: "Convolution"
  bottom: "data"
  top: "2_conv1"
  param {
    lr_mult: 1
  }
  param {
    lr_mult: 2
  }
  convolution_param {
    num_output: 32
    pad: 2
    kernel_size: 5
    stride: 1
    weight_filler {
      type: "gaussian"
      std: 0.0001
    }
    bias_filler {
      type: "constant"
    }
  }
}
layer {
  name: "2_pool1"
  type: "Pooling"
  bottom: "2_conv1"
  top: "2_pool1"
  pooling_param {
    pool: MAX
    kernel_size: 3
    stride: 2
  }
}
layer {
  name: "2_relu1"
  type: "ReLU"
  bottom: "2_pool1"
  top: "2_pool1"
}
layer {
  name: "2_conv2"
  type: "Convolution"
  bottom: "2_pool1"
  top: "2_conv2"
  param {
    lr_mult: 1
  }
  param {
    lr_mult: 2
  }
  convolution_param {
    num_output: 32
    pad: 2
    kernel_size: 5
    stride: 1
    weight_filler {
      type: "gaussian"
      std: 0.01
    }
    bias_filler {
      type: "constant"
    }
  }
}
layer {
  name: "2_relu2"
  type: "ReLU"
  bottom: "2_conv2"
  top: "2_conv2"
}
layer {
  name: "2_pool2"
  type: "Pooling"
  bottom: "2_conv2"
  top: "2_pool2"
  pooling_param {
    pool: AVE
    kernel_size: 3
    stride: 2
  }
}
layer {
  name: "2_conv3"
  type: "Convolution"
  bottom: "2_pool2"
  top: "2_conv3"
  param {
    lr_mult: 1
  }
  param {
    lr_mult: 2
  }
  convolution_param {
    num_output: 64
    pad: 2
    kernel_size: 5
    stride: 1
    weight_filler {
      type: "gaussian"
      std: 0.01
    }
    bias_filler {
      type: "constant"
    }
  }
}
layer {
  name: "2_relu3"
  type: "ReLU"
  bottom: "2_conv3"
  top: "2_conv3"
}
layer {
  name: "2_pool3"
  type: "Pooling"
  bottom: "2_conv3"
  top: "2_pool3"
  pooling_param {
    pool: AVE
    kernel_size: 3
    stride: 2
  }
}
layer {
  name: "2_ip1"
  type: "InnerProduct"
  bottom: "2_pool3"
  top: "2_ip1"
  param {
    lr_mult: 1
  }
  param {
    lr_mult: 2
  }
  inner_product_param {
    num_output: 64
    weight_filler {
      type: "gaussian"
      std: 0.1
    }
    bias_filler {
      type: "constant"
    }
  }
}
layer {
  name: "2_ip2"
  type: "InnerProduct"
  bottom: "2_ip1"
  top: "2_ip2"
  param {
    lr_mult: 1
  }
  param {
    lr_mult: 2
  }
  inner_product_param {
    num_output: 10
    weight_filler {
      type: "gaussian"
      std: 0.1
    }
    bias_filler {
      type: "constant"
    }
  }
}
layer {
  name: "2_prob"
  type: "Softmax"
  bottom: "2_ip2"
  top: "2_prob"
}
layer {
  name: "3_conv1"
  type: "Convolution"
  bottom: "data"
  top: "3_conv1"
  param {
    lr_mult: 1
  }
  param {
    lr_mult: 2
  }
  convolution_param {
    num_output: 32
    pad: 2
    kernel_size: 5
    stride: 1
    weight_filler {
      type: "gaussian"
      std: 0.0001
    }
    bias_filler {
      type: "constant"
    }
  }
}
layer {
  name: "3_pool1"
  type: "Pooling"
  bottom: "3_conv1"
  top: "3_pool1"
  pooling_param {
    pool: MAX
    kernel_size: 3
    stride: 2
  }
}
layer {
  name: "3_relu1"
  type: "ReLU"
  bottom: "3_pool1"
  top: "3_pool1"
}
layer {
  name: "3_conv2"
  type: "Convolution"
  bottom: "3_pool1"
  top: "3_conv2"
  param {
    lr_mult: 1
  }
  param {
    lr_mult: 2
  }
  convolution_param {
    num_output: 32
    pad: 2
    kernel_size: 5
    stride: 1
    weight_filler {
      type: "gaussian"
      std: 0.01
    }
    bias_filler {
      type: "constant"
    }
  }
}
layer {
  name: "3_relu2"
  type: "ReLU"
  bottom: "3_conv2"
  top: "3_conv2"
}
layer {
  name: "3_pool2"
  type: "Pooling"
  bottom: "3_conv2"
  top: "3_pool2"
  pooling_param {
    pool: AVE
    kernel_size: 3
    stride: 2
  }
}
layer {
  name: "3_conv3"
  type: "Convolution"
  bottom: "3_pool2"
  top: "3_conv3"
  param {
    lr_mult: 1
  }
  param {
    lr_mult: 2
  }
  convolution_param {
    num_output: 64
    pad: 2
    kernel_size: 5
    stride: 1
    weight_filler {
      type: "gaussian"
      std: 0.01
    }
    bias_filler {
      type: "constant"
    }
  }
}
layer {
  name: "3_relu3"
  type: "ReLU"
  bottom: "3_conv3"
  top: "3_conv3"
}
layer {
  name: "3_pool3"
  type: "Pooling"
  bottom: "3_conv3"
  top: "3_pool3"
  pooling_param {
    pool: AVE
    kernel_size: 3
    stride: 2
  }
}
layer {
  name: "3_ip1"
  type: "InnerProduct"
  bottom: "3_pool3"
  top: "3_ip1"
  param {
    lr_mult: 1
  }
  param {
    lr_mult: 2
  }
  inner_product_param {
    num_output: 64
    weight_filler {
      type: "gaussian"
      std: 0.1
    }
    bias_filler {
      type: "constant"
    }
  }
}
layer {
  name: "3_ip2"
  type: "InnerProduct"
  bottom: "3_ip1"
  top: "3_ip2"
  param {
    lr_mult: 1
  }
  param {
    lr_mult: 2
  }
  inner_product_param {
    num_output: 10
    weight_filler {
      type: "gaussian"
      std: 0.1
    }
    bias_filler {
      type: "constant"
    }
  }
}
layer {
  name: "3_prob"
  type: "Softmax"
  bottom: "3_ip2"
  top: "3_prob"
}
layer {
  name: "4_conv1"
  type: "Convolution"
  bottom: "data"
  top: "4_conv1"
  param {
    lr_mult: 1
  }
  param {
    lr_mult: 2
  }
  convolution_param {
    num_output: 32
    pad: 2
    kernel_size: 5
    stride: 1
    weight_filler {
      type: "gaussian"
      std: 0.0001
    }
    bias_filler {
      type: "constant"
    }
  }
}
layer {
  name: "4_pool1"
  type: "Pooling"
  bottom: "4_conv1"
  top: "4_pool1"
  pooling_param {
    pool: MAX
    kernel_size: 3
    stride: 2
  }
}
layer {
  name: "4_relu1"
  type: "ReLU"
  bottom: "4_pool1"
  top: "4_pool1"
}
layer {
  name: "4_conv2"
  type: "Convolution"
  bottom: "4_pool1"
  top: "4_conv2"
  param {
    lr_mult: 1
  }
  param {
    lr_mult: 2
  }
  convolution_param {
    num_output: 32
    pad: 2
    kernel_size: 5
    stride: 1
    weight_filler {
      type: "gaussian"
      std: 0.01
    }
    bias_filler {
      type: "constant"
    }
  }
}
layer {
  name: "4_relu2"
  type: "ReLU"
  bottom: "4_conv2"
  top: "4_conv2"
}
layer {
  name: "4_pool2"
  type: "Pooling"
  bottom: "4_conv2"
  top: "4_pool2"
  pooling_param {
    pool: AVE
    kernel_size: 3
    stride: 2
  }
}
layer {
  name: "4_conv3"
  type: "Convolution"
  bottom: "4_pool2"
  top: "4_conv3"
  param {
    lr_mult: 1
  }
  param {
    lr_mult: 2
  }
  convolution_param {
    num_output: 64
    pad: 2
    kernel_size: 5
    stride: 1
    weight_filler {
      type: "gaussian"
      std: 0.01
    }
    bias_filler {
      type: "constant"
    }
  }
}
layer {
  name: "4_relu3"
  type: "ReLU"
  bottom: "4_conv3"
  top: "4_conv3"
}
layer {
  name: "4_pool3"
  type: "Pooling"
  bottom: "4_conv3"
  top: "4_pool3"
  pooling_param {
    pool: AVE
    kernel_size: 3
    stride: 2
  }
}
layer {
  name: "4_ip1"
  type: "InnerProduct"
  bottom: "4_pool3"
  top: "4_ip1"
  param {
    lr_mult: 1
  }
  param {
    lr_mult: 2
  }
  inner_product_param {
    num_output: 64
    weight_filler {
      type: "gaussian"
      std: 0.1
    }
    bias_filler {
      type: "constant"
    }
  }
}
layer {
  name: "4_ip2"
  type: "InnerProduct"
  bottom: "4_ip1"
  top: "4_ip2"
  param {
    lr_mult: 1
  }
  param {
    lr_mult: 2
  }
  inner_product_param {
    num_output: 10
    weight_filler {
      type: "gaussian"
      std: 0.1
    }
    bias_filler {
      type: "constant"
    }
  }
}
layer {
  name: "4_prob"
  type: "Softmax"
  bottom: "4_ip2"
  top: "4_prob"
}
layer {
  name: "1_accuracy"
  type: "Accuracy"
  bottom: "1_prob"
  bottom: "label"
  top: "1_accuracy"
  include {
    phase: TEST
  }
}
layer {
  name: "2_accuracy"
  type: "Accuracy"
  bottom: "2_prob"
  bottom: "label"
  top: "2_accuracy"
  include {
    phase: TEST
  }
}
layer {
  name: "3_accuracy"
  type: "Accuracy"
  bottom: "3_prob"
  bottom: "label"
  top: "3_accuracy"
  include {
    phase: TEST
  }
}
layer {
  name: "4_accuracy"
  type: "Accuracy"
  bottom: "4_prob"
  bottom: "label"
  top: "4_accuracy"
  include {
    phase: TEST
  }
}
layer {
  name: "accuracy"
  type: "OracleAccuracy"
  bottom: "1_prob"
  bottom: "2_prob"
  bottom: "3_prob"
  bottom: "4_prob"
  bottom: "label"
  top: "oracle accuracy"
  include {
    phase: TEST
  }
}
I0126 21:49:12.170647 26857 layer_factory.hpp:74] Creating layer cifar
I0126 21:49:12.170676 26857 net.cpp:90] Creating Layer cifar
I0126 21:49:12.170691 26857 net.cpp:368] cifar -> data
I0126 21:49:12.170708 26857 net.cpp:368] cifar -> label
I0126 21:49:12.170724 26857 net.cpp:120] Setting up cifar
I0126 21:49:12.170765 26857 db.cpp:34] Opened lmdb /home/mike/ml_lab/mod/MCL_Caffe/examples/cifar10/cifar10_test_lmdb
I0126 21:49:12.170801 26857 data_layer.cpp:67] output data size: 100,3,32,32
I0126 21:49:12.170820 26857 data_transformer.cpp:22] Loading mean file from: /home/mike/ml_lab/mod/MCL_Caffe/examples/cifar10/mean.binaryproto
I0126 21:49:12.171226 26857 net.cpp:127] Top shape: 100 3 32 32 (307200)
I0126 21:49:12.171249 26857 net.cpp:127] Top shape: 100 (100)
I0126 21:49:12.171264 26857 layer_factory.hpp:74] Creating layer data_cifar_0_split
I0126 21:49:12.171280 26857 net.cpp:90] Creating Layer data_cifar_0_split
I0126 21:49:12.171293 26857 net.cpp:410] data_cifar_0_split <- data
I0126 21:49:12.171306 26857 net.cpp:368] data_cifar_0_split -> data_cifar_0_split_0
I0126 21:49:12.171324 26857 net.cpp:368] data_cifar_0_split -> data_cifar_0_split_1
I0126 21:49:12.171341 26857 net.cpp:368] data_cifar_0_split -> data_cifar_0_split_2
I0126 21:49:12.171360 26857 net.cpp:368] data_cifar_0_split -> data_cifar_0_split_3
I0126 21:49:12.171375 26857 net.cpp:120] Setting up data_cifar_0_split
I0126 21:49:12.171391 26857 net.cpp:127] Top shape: 100 3 32 32 (307200)
I0126 21:49:12.171406 26857 net.cpp:127] Top shape: 100 3 32 32 (307200)
I0126 21:49:12.171419 26857 net.cpp:127] Top shape: 100 3 32 32 (307200)
I0126 21:49:12.171432 26857 net.cpp:127] Top shape: 100 3 32 32 (307200)
I0126 21:49:12.171444 26857 layer_factory.hpp:74] Creating layer label_cifar_1_split
I0126 21:49:12.171458 26857 net.cpp:90] Creating Layer label_cifar_1_split
I0126 21:49:12.171470 26857 net.cpp:410] label_cifar_1_split <- label
I0126 21:49:12.171484 26857 net.cpp:368] label_cifar_1_split -> label_cifar_1_split_0
I0126 21:49:12.171499 26857 net.cpp:368] label_cifar_1_split -> label_cifar_1_split_1
I0126 21:49:12.171514 26857 net.cpp:368] label_cifar_1_split -> label_cifar_1_split_2
I0126 21:49:12.171531 26857 net.cpp:368] label_cifar_1_split -> label_cifar_1_split_3
I0126 21:49:12.171545 26857 net.cpp:368] label_cifar_1_split -> label_cifar_1_split_4
I0126 21:49:12.171560 26857 net.cpp:120] Setting up label_cifar_1_split
I0126 21:49:12.171576 26857 net.cpp:127] Top shape: 100 (100)
I0126 21:49:12.171588 26857 net.cpp:127] Top shape: 100 (100)
I0126 21:49:12.171602 26857 net.cpp:127] Top shape: 100 (100)
I0126 21:49:12.171614 26857 net.cpp:127] Top shape: 100 (100)
I0126 21:49:12.171627 26857 net.cpp:127] Top shape: 100 (100)
I0126 21:49:12.171638 26857 layer_factory.hpp:74] Creating layer 1_conv1
I0126 21:49:12.171654 26857 net.cpp:90] Creating Layer 1_conv1
I0126 21:49:12.171667 26857 net.cpp:410] 1_conv1 <- data_cifar_0_split_0
I0126 21:49:12.171681 26857 net.cpp:368] 1_conv1 -> 1_conv1
I0126 21:49:12.171696 26857 net.cpp:120] Setting up 1_conv1
I0126 21:49:12.171787 26857 net.cpp:127] Top shape: 100 32 32 32 (3276800)
I0126 21:49:12.171795 26857 layer_factory.hpp:74] Creating layer 1_pool1
I0126 21:49:12.171802 26857 net.cpp:90] Creating Layer 1_pool1
I0126 21:49:12.171816 26857 net.cpp:410] 1_pool1 <- 1_conv1
I0126 21:49:12.171833 26857 net.cpp:368] 1_pool1 -> 1_pool1
I0126 21:49:12.171846 26857 net.cpp:120] Setting up 1_pool1
I0126 21:49:12.171864 26857 net.cpp:127] Top shape: 100 32 16 16 (819200)
I0126 21:49:12.171877 26857 layer_factory.hpp:74] Creating layer 1_relu1
I0126 21:49:12.171890 26857 net.cpp:90] Creating Layer 1_relu1
I0126 21:49:12.171903 26857 net.cpp:410] 1_relu1 <- 1_pool1
I0126 21:49:12.171919 26857 net.cpp:357] 1_relu1 -> 1_pool1 (in-place)
I0126 21:49:12.171934 26857 net.cpp:120] Setting up 1_relu1
I0126 21:49:12.171949 26857 net.cpp:127] Top shape: 100 32 16 16 (819200)
I0126 21:49:12.171962 26857 layer_factory.hpp:74] Creating layer 1_conv2
I0126 21:49:12.171977 26857 net.cpp:90] Creating Layer 1_conv2
I0126 21:49:12.171989 26857 net.cpp:410] 1_conv2 <- 1_pool1
I0126 21:49:12.172008 26857 net.cpp:368] 1_conv2 -> 1_conv2
I0126 21:49:12.172030 26857 net.cpp:120] Setting up 1_conv2
I0126 21:49:12.172641 26857 net.cpp:127] Top shape: 100 32 16 16 (819200)
I0126 21:49:12.172652 26857 layer_factory.hpp:74] Creating layer 1_relu2
I0126 21:49:12.172658 26857 net.cpp:90] Creating Layer 1_relu2
I0126 21:49:12.172673 26857 net.cpp:410] 1_relu2 <- 1_conv2
I0126 21:49:12.172688 26857 net.cpp:357] 1_relu2 -> 1_conv2 (in-place)
I0126 21:49:12.172703 26857 net.cpp:120] Setting up 1_relu2
I0126 21:49:12.172715 26857 net.cpp:127] Top shape: 100 32 16 16 (819200)
I0126 21:49:12.172727 26857 layer_factory.hpp:74] Creating layer 1_pool2
I0126 21:49:12.172744 26857 net.cpp:90] Creating Layer 1_pool2
I0126 21:49:12.172756 26857 net.cpp:410] 1_pool2 <- 1_conv2
I0126 21:49:12.172770 26857 net.cpp:368] 1_pool2 -> 1_pool2
I0126 21:49:12.172785 26857 net.cpp:120] Setting up 1_pool2
I0126 21:49:12.172799 26857 net.cpp:127] Top shape: 100 32 8 8 (204800)
I0126 21:49:12.172811 26857 layer_factory.hpp:74] Creating layer 1_conv3
I0126 21:49:12.172827 26857 net.cpp:90] Creating Layer 1_conv3
I0126 21:49:12.172838 26857 net.cpp:410] 1_conv3 <- 1_pool2
I0126 21:49:12.172852 26857 net.cpp:368] 1_conv3 -> 1_conv3
I0126 21:49:12.172869 26857 net.cpp:120] Setting up 1_conv3
I0126 21:49:12.174165 26857 net.cpp:127] Top shape: 100 64 8 8 (409600)
I0126 21:49:12.174175 26857 layer_factory.hpp:74] Creating layer 1_relu3
I0126 21:49:12.174181 26857 net.cpp:90] Creating Layer 1_relu3
I0126 21:49:12.174186 26857 net.cpp:410] 1_relu3 <- 1_conv3
I0126 21:49:12.174192 26857 net.cpp:357] 1_relu3 -> 1_conv3 (in-place)
I0126 21:49:12.174211 26857 net.cpp:120] Setting up 1_relu3
I0126 21:49:12.174227 26857 net.cpp:127] Top shape: 100 64 8 8 (409600)
I0126 21:49:12.174239 26857 layer_factory.hpp:74] Creating layer 1_pool3
I0126 21:49:12.174253 26857 net.cpp:90] Creating Layer 1_pool3
I0126 21:49:12.174265 26857 net.cpp:410] 1_pool3 <- 1_conv3
I0126 21:49:12.174281 26857 net.cpp:368] 1_pool3 -> 1_pool3
I0126 21:49:12.174299 26857 net.cpp:120] Setting up 1_pool3
I0126 21:49:12.174314 26857 net.cpp:127] Top shape: 100 64 4 4 (102400)
I0126 21:49:12.174326 26857 layer_factory.hpp:74] Creating layer 1_ip1
I0126 21:49:12.174340 26857 net.cpp:90] Creating Layer 1_ip1
I0126 21:49:12.174351 26857 net.cpp:410] 1_ip1 <- 1_pool3
I0126 21:49:12.174366 26857 net.cpp:368] 1_ip1 -> 1_ip1
I0126 21:49:12.174381 26857 net.cpp:120] Setting up 1_ip1
I0126 21:49:12.176023 26857 net.cpp:127] Top shape: 100 64 (6400)
I0126 21:49:12.176033 26857 layer_factory.hpp:74] Creating layer 1_ip2
I0126 21:49:12.176038 26857 net.cpp:90] Creating Layer 1_ip2
I0126 21:49:12.176043 26857 net.cpp:410] 1_ip2 <- 1_ip1
I0126 21:49:12.176062 26857 net.cpp:368] 1_ip2 -> 1_ip2
I0126 21:49:12.176080 26857 net.cpp:120] Setting up 1_ip2
I0126 21:49:12.176125 26857 net.cpp:127] Top shape: 100 10 (1000)
I0126 21:49:12.176143 26857 layer_factory.hpp:74] Creating layer 1_prob
I0126 21:49:12.176158 26857 net.cpp:90] Creating Layer 1_prob
I0126 21:49:12.176170 26857 net.cpp:410] 1_prob <- 1_ip2
I0126 21:49:12.176183 26857 net.cpp:368] 1_prob -> 1_prob
I0126 21:49:12.176198 26857 net.cpp:120] Setting up 1_prob
I0126 21:49:12.176214 26857 net.cpp:127] Top shape: 100 10 (1000)
I0126 21:49:12.176228 26857 layer_factory.hpp:74] Creating layer 1_prob_1_prob_0_split
I0126 21:49:12.176239 26857 net.cpp:90] Creating Layer 1_prob_1_prob_0_split
I0126 21:49:12.176251 26857 net.cpp:410] 1_prob_1_prob_0_split <- 1_prob
I0126 21:49:12.176265 26857 net.cpp:368] 1_prob_1_prob_0_split -> 1_prob_1_prob_0_split_0
I0126 21:49:12.176278 26857 net.cpp:368] 1_prob_1_prob_0_split -> 1_prob_1_prob_0_split_1
I0126 21:49:12.176293 26857 net.cpp:120] Setting up 1_prob_1_prob_0_split
I0126 21:49:12.176309 26857 net.cpp:127] Top shape: 100 10 (1000)
I0126 21:49:12.176324 26857 net.cpp:127] Top shape: 100 10 (1000)
I0126 21:49:12.176337 26857 layer_factory.hpp:74] Creating layer 2_conv1
I0126 21:49:12.176357 26857 net.cpp:90] Creating Layer 2_conv1
I0126 21:49:12.176370 26857 net.cpp:410] 2_conv1 <- data_cifar_0_split_1
I0126 21:49:12.176390 26857 net.cpp:368] 2_conv1 -> 2_conv1
I0126 21:49:12.176412 26857 net.cpp:120] Setting up 2_conv1
I0126 21:49:12.176512 26857 net.cpp:127] Top shape: 100 32 32 32 (3276800)
I0126 21:49:12.176529 26857 layer_factory.hpp:74] Creating layer 2_pool1
I0126 21:49:12.176543 26857 net.cpp:90] Creating Layer 2_pool1
I0126 21:49:12.176555 26857 net.cpp:410] 2_pool1 <- 2_conv1
I0126 21:49:12.176569 26857 net.cpp:368] 2_pool1 -> 2_pool1
I0126 21:49:12.176584 26857 net.cpp:120] Setting up 2_pool1
I0126 21:49:12.176600 26857 net.cpp:127] Top shape: 100 32 16 16 (819200)
I0126 21:49:12.176612 26857 layer_factory.hpp:74] Creating layer 2_relu1
I0126 21:49:12.176625 26857 net.cpp:90] Creating Layer 2_relu1
I0126 21:49:12.176636 26857 net.cpp:410] 2_relu1 <- 2_pool1
I0126 21:49:12.176648 26857 net.cpp:357] 2_relu1 -> 2_pool1 (in-place)
I0126 21:49:12.176661 26857 net.cpp:120] Setting up 2_relu1
I0126 21:49:12.176676 26857 net.cpp:127] Top shape: 100 32 16 16 (819200)
I0126 21:49:12.176687 26857 layer_factory.hpp:74] Creating layer 2_conv2
I0126 21:49:12.176702 26857 net.cpp:90] Creating Layer 2_conv2
I0126 21:49:12.176713 26857 net.cpp:410] 2_conv2 <- 2_pool1
I0126 21:49:12.176726 26857 net.cpp:368] 2_conv2 -> 2_conv2
I0126 21:49:12.176741 26857 net.cpp:120] Setting up 2_conv2
I0126 21:49:12.177489 26857 net.cpp:127] Top shape: 100 32 16 16 (819200)
I0126 21:49:12.177500 26857 layer_factory.hpp:74] Creating layer 2_relu2
I0126 21:49:12.177505 26857 net.cpp:90] Creating Layer 2_relu2
I0126 21:49:12.177511 26857 net.cpp:410] 2_relu2 <- 2_conv2
I0126 21:49:12.177530 26857 net.cpp:357] 2_relu2 -> 2_conv2 (in-place)
I0126 21:49:12.177546 26857 net.cpp:120] Setting up 2_relu2
I0126 21:49:12.177559 26857 net.cpp:127] Top shape: 100 32 16 16 (819200)
I0126 21:49:12.177572 26857 layer_factory.hpp:74] Creating layer 2_pool2
I0126 21:49:12.177587 26857 net.cpp:90] Creating Layer 2_pool2
I0126 21:49:12.177599 26857 net.cpp:410] 2_pool2 <- 2_conv2
I0126 21:49:12.177613 26857 net.cpp:368] 2_pool2 -> 2_pool2
I0126 21:49:12.177628 26857 net.cpp:120] Setting up 2_pool2
I0126 21:49:12.177644 26857 net.cpp:127] Top shape: 100 32 8 8 (204800)
I0126 21:49:12.177655 26857 layer_factory.hpp:74] Creating layer 2_conv3
I0126 21:49:12.177670 26857 net.cpp:90] Creating Layer 2_conv3
I0126 21:49:12.177681 26857 net.cpp:410] 2_conv3 <- 2_pool2
I0126 21:49:12.177696 26857 net.cpp:368] 2_conv3 -> 2_conv3
I0126 21:49:12.177711 26857 net.cpp:120] Setting up 2_conv3
I0126 21:49:12.179008 26857 net.cpp:127] Top shape: 100 64 8 8 (409600)
I0126 21:49:12.179016 26857 layer_factory.hpp:74] Creating layer 2_relu3
I0126 21:49:12.179021 26857 net.cpp:90] Creating Layer 2_relu3
I0126 21:49:12.179026 26857 net.cpp:410] 2_relu3 <- 2_conv3
I0126 21:49:12.179031 26857 net.cpp:357] 2_relu3 -> 2_conv3 (in-place)
I0126 21:49:12.179049 26857 net.cpp:120] Setting up 2_relu3
I0126 21:49:12.179065 26857 net.cpp:127] Top shape: 100 64 8 8 (409600)
I0126 21:49:12.179078 26857 layer_factory.hpp:74] Creating layer 2_pool3
I0126 21:49:12.179093 26857 net.cpp:90] Creating Layer 2_pool3
I0126 21:49:12.179105 26857 net.cpp:410] 2_pool3 <- 2_conv3
I0126 21:49:12.179119 26857 net.cpp:368] 2_pool3 -> 2_pool3
I0126 21:49:12.179134 26857 net.cpp:120] Setting up 2_pool3
I0126 21:49:12.179149 26857 net.cpp:127] Top shape: 100 64 4 4 (102400)
I0126 21:49:12.179162 26857 layer_factory.hpp:74] Creating layer 2_ip1
I0126 21:49:12.179177 26857 net.cpp:90] Creating Layer 2_ip1
I0126 21:49:12.179188 26857 net.cpp:410] 2_ip1 <- 2_pool3
I0126 21:49:12.179203 26857 net.cpp:368] 2_ip1 -> 2_ip1
I0126 21:49:12.179216 26857 net.cpp:120] Setting up 2_ip1
I0126 21:49:12.180855 26857 net.cpp:127] Top shape: 100 64 (6400)
I0126 21:49:12.180866 26857 layer_factory.hpp:74] Creating layer 2_ip2
I0126 21:49:12.180874 26857 net.cpp:90] Creating Layer 2_ip2
I0126 21:49:12.180891 26857 net.cpp:410] 2_ip2 <- 2_ip1
I0126 21:49:12.180907 26857 net.cpp:368] 2_ip2 -> 2_ip2
I0126 21:49:12.180923 26857 net.cpp:120] Setting up 2_ip2
I0126 21:49:12.180965 26857 net.cpp:127] Top shape: 100 10 (1000)
I0126 21:49:12.180985 26857 layer_factory.hpp:74] Creating layer 2_prob
I0126 21:49:12.181006 26857 net.cpp:90] Creating Layer 2_prob
I0126 21:49:12.181018 26857 net.cpp:410] 2_prob <- 2_ip2
I0126 21:49:12.181033 26857 net.cpp:368] 2_prob -> 2_prob
I0126 21:49:12.181047 26857 net.cpp:120] Setting up 2_prob
I0126 21:49:12.181063 26857 net.cpp:127] Top shape: 100 10 (1000)
I0126 21:49:12.181076 26857 layer_factory.hpp:74] Creating layer 2_prob_2_prob_0_split
I0126 21:49:12.181087 26857 net.cpp:90] Creating Layer 2_prob_2_prob_0_split
I0126 21:49:12.181099 26857 net.cpp:410] 2_prob_2_prob_0_split <- 2_prob
I0126 21:49:12.181115 26857 net.cpp:368] 2_prob_2_prob_0_split -> 2_prob_2_prob_0_split_0
I0126 21:49:12.181136 26857 net.cpp:368] 2_prob_2_prob_0_split -> 2_prob_2_prob_0_split_1
I0126 21:49:12.181155 26857 net.cpp:120] Setting up 2_prob_2_prob_0_split
I0126 21:49:12.181170 26857 net.cpp:127] Top shape: 100 10 (1000)
I0126 21:49:12.181185 26857 net.cpp:127] Top shape: 100 10 (1000)
I0126 21:49:12.181195 26857 layer_factory.hpp:74] Creating layer 3_conv1
I0126 21:49:12.181211 26857 net.cpp:90] Creating Layer 3_conv1
I0126 21:49:12.181223 26857 net.cpp:410] 3_conv1 <- data_cifar_0_split_2
I0126 21:49:12.181239 26857 net.cpp:368] 3_conv1 -> 3_conv1
I0126 21:49:12.181254 26857 net.cpp:120] Setting up 3_conv1
I0126 21:49:12.181355 26857 net.cpp:127] Top shape: 100 32 32 32 (3276800)
I0126 21:49:12.181375 26857 layer_factory.hpp:74] Creating layer 3_pool1
I0126 21:49:12.181390 26857 net.cpp:90] Creating Layer 3_pool1
I0126 21:49:12.181401 26857 net.cpp:410] 3_pool1 <- 3_conv1
I0126 21:49:12.181414 26857 net.cpp:368] 3_pool1 -> 3_pool1
I0126 21:49:12.181428 26857 net.cpp:120] Setting up 3_pool1
I0126 21:49:12.181444 26857 net.cpp:127] Top shape: 100 32 16 16 (819200)
I0126 21:49:12.181457 26857 layer_factory.hpp:74] Creating layer 3_relu1
I0126 21:49:12.181468 26857 net.cpp:90] Creating Layer 3_relu1
I0126 21:49:12.181480 26857 net.cpp:410] 3_relu1 <- 3_pool1
I0126 21:49:12.181493 26857 net.cpp:357] 3_relu1 -> 3_pool1 (in-place)
I0126 21:49:12.181506 26857 net.cpp:120] Setting up 3_relu1
I0126 21:49:12.181521 26857 net.cpp:127] Top shape: 100 32 16 16 (819200)
I0126 21:49:12.181534 26857 layer_factory.hpp:74] Creating layer 3_conv2
I0126 21:49:12.181551 26857 net.cpp:90] Creating Layer 3_conv2
I0126 21:49:12.181563 26857 net.cpp:410] 3_conv2 <- 3_pool1
I0126 21:49:12.181577 26857 net.cpp:368] 3_conv2 -> 3_conv2
I0126 21:49:12.181592 26857 net.cpp:120] Setting up 3_conv2
I0126 21:49:12.182267 26857 net.cpp:127] Top shape: 100 32 16 16 (819200)
I0126 21:49:12.182276 26857 layer_factory.hpp:74] Creating layer 3_relu2
I0126 21:49:12.182281 26857 net.cpp:90] Creating Layer 3_relu2
I0126 21:49:12.182284 26857 net.cpp:410] 3_relu2 <- 3_conv2
I0126 21:49:12.182291 26857 net.cpp:357] 3_relu2 -> 3_conv2 (in-place)
I0126 21:49:12.182309 26857 net.cpp:120] Setting up 3_relu2
I0126 21:49:12.182324 26857 net.cpp:127] Top shape: 100 32 16 16 (819200)
I0126 21:49:12.182337 26857 layer_factory.hpp:74] Creating layer 3_pool2
I0126 21:49:12.182350 26857 net.cpp:90] Creating Layer 3_pool2
I0126 21:49:12.182363 26857 net.cpp:410] 3_pool2 <- 3_conv2
I0126 21:49:12.182377 26857 net.cpp:368] 3_pool2 -> 3_pool2
I0126 21:49:12.182394 26857 net.cpp:120] Setting up 3_pool2
I0126 21:49:12.182410 26857 net.cpp:127] Top shape: 100 32 8 8 (204800)
I0126 21:49:12.182422 26857 layer_factory.hpp:74] Creating layer 3_conv3
I0126 21:49:12.182438 26857 net.cpp:90] Creating Layer 3_conv3
I0126 21:49:12.182451 26857 net.cpp:410] 3_conv3 <- 3_pool2
I0126 21:49:12.182467 26857 net.cpp:368] 3_conv3 -> 3_conv3
I0126 21:49:12.182485 26857 net.cpp:120] Setting up 3_conv3
I0126 21:49:12.183686 26857 net.cpp:127] Top shape: 100 64 8 8 (409600)
I0126 21:49:12.183707 26857 layer_factory.hpp:74] Creating layer 3_relu3
I0126 21:49:12.183722 26857 net.cpp:90] Creating Layer 3_relu3
I0126 21:49:12.183732 26857 net.cpp:410] 3_relu3 <- 3_conv3
I0126 21:49:12.183746 26857 net.cpp:357] 3_relu3 -> 3_conv3 (in-place)
I0126 21:49:12.183761 26857 net.cpp:120] Setting up 3_relu3
I0126 21:49:12.183779 26857 net.cpp:127] Top shape: 100 64 8 8 (409600)
I0126 21:49:12.183795 26857 layer_factory.hpp:74] Creating layer 3_pool3
I0126 21:49:12.183809 26857 net.cpp:90] Creating Layer 3_pool3
I0126 21:49:12.183820 26857 net.cpp:410] 3_pool3 <- 3_conv3
I0126 21:49:12.183835 26857 net.cpp:368] 3_pool3 -> 3_pool3
I0126 21:49:12.183851 26857 net.cpp:120] Setting up 3_pool3
I0126 21:49:12.183868 26857 net.cpp:127] Top shape: 100 64 4 4 (102400)
I0126 21:49:12.183881 26857 layer_factory.hpp:74] Creating layer 3_ip1
I0126 21:49:12.183895 26857 net.cpp:90] Creating Layer 3_ip1
I0126 21:49:12.183907 26857 net.cpp:410] 3_ip1 <- 3_pool3
I0126 21:49:12.183920 26857 net.cpp:368] 3_ip1 -> 3_ip1
I0126 21:49:12.183935 26857 net.cpp:120] Setting up 3_ip1
I0126 21:49:12.185611 26857 net.cpp:127] Top shape: 100 64 (6400)
I0126 21:49:12.185621 26857 layer_factory.hpp:74] Creating layer 3_ip2
I0126 21:49:12.185628 26857 net.cpp:90] Creating Layer 3_ip2
I0126 21:49:12.185644 26857 net.cpp:410] 3_ip2 <- 3_ip1
I0126 21:49:12.185662 26857 net.cpp:368] 3_ip2 -> 3_ip2
I0126 21:49:12.185678 26857 net.cpp:120] Setting up 3_ip2
I0126 21:49:12.185719 26857 net.cpp:127] Top shape: 100 10 (1000)
I0126 21:49:12.185736 26857 layer_factory.hpp:74] Creating layer 3_prob
I0126 21:49:12.185750 26857 net.cpp:90] Creating Layer 3_prob
I0126 21:49:12.185761 26857 net.cpp:410] 3_prob <- 3_ip2
I0126 21:49:12.185776 26857 net.cpp:368] 3_prob -> 3_prob
I0126 21:49:12.185791 26857 net.cpp:120] Setting up 3_prob
I0126 21:49:12.185806 26857 net.cpp:127] Top shape: 100 10 (1000)
I0126 21:49:12.185817 26857 layer_factory.hpp:74] Creating layer 3_prob_3_prob_0_split
I0126 21:49:12.185830 26857 net.cpp:90] Creating Layer 3_prob_3_prob_0_split
I0126 21:49:12.185842 26857 net.cpp:410] 3_prob_3_prob_0_split <- 3_prob
I0126 21:49:12.185858 26857 net.cpp:368] 3_prob_3_prob_0_split -> 3_prob_3_prob_0_split_0
I0126 21:49:12.185873 26857 net.cpp:368] 3_prob_3_prob_0_split -> 3_prob_3_prob_0_split_1
I0126 21:49:12.185889 26857 net.cpp:120] Setting up 3_prob_3_prob_0_split
I0126 21:49:12.185905 26857 net.cpp:127] Top shape: 100 10 (1000)
I0126 21:49:12.185919 26857 net.cpp:127] Top shape: 100 10 (1000)
I0126 21:49:12.185928 26857 layer_factory.hpp:74] Creating layer 4_conv1
I0126 21:49:12.185942 26857 net.cpp:90] Creating Layer 4_conv1
I0126 21:49:12.185955 26857 net.cpp:410] 4_conv1 <- data_cifar_0_split_3
I0126 21:49:12.185971 26857 net.cpp:368] 4_conv1 -> 4_conv1
I0126 21:49:12.185986 26857 net.cpp:120] Setting up 4_conv1
I0126 21:49:12.186084 26857 net.cpp:127] Top shape: 100 32 32 32 (3276800)
I0126 21:49:12.186102 26857 layer_factory.hpp:74] Creating layer 4_pool1
I0126 21:49:12.186120 26857 net.cpp:90] Creating Layer 4_pool1
I0126 21:49:12.186134 26857 net.cpp:410] 4_pool1 <- 4_conv1
I0126 21:49:12.186149 26857 net.cpp:368] 4_pool1 -> 4_pool1
I0126 21:49:12.186164 26857 net.cpp:120] Setting up 4_pool1
I0126 21:49:12.186180 26857 net.cpp:127] Top shape: 100 32 16 16 (819200)
I0126 21:49:12.186192 26857 layer_factory.hpp:74] Creating layer 4_relu1
I0126 21:49:12.186205 26857 net.cpp:90] Creating Layer 4_relu1
I0126 21:49:12.186218 26857 net.cpp:410] 4_relu1 <- 4_pool1
I0126 21:49:12.186229 26857 net.cpp:357] 4_relu1 -> 4_pool1 (in-place)
I0126 21:49:12.186244 26857 net.cpp:120] Setting up 4_relu1
I0126 21:49:12.186256 26857 net.cpp:127] Top shape: 100 32 16 16 (819200)
I0126 21:49:12.186269 26857 layer_factory.hpp:74] Creating layer 4_conv2
I0126 21:49:12.186281 26857 net.cpp:90] Creating Layer 4_conv2
I0126 21:49:12.186293 26857 net.cpp:410] 4_conv2 <- 4_pool1
I0126 21:49:12.186309 26857 net.cpp:368] 4_conv2 -> 4_conv2
I0126 21:49:12.186324 26857 net.cpp:120] Setting up 4_conv2
I0126 21:49:12.187130 26857 net.cpp:127] Top shape: 100 32 16 16 (819200)
I0126 21:49:12.187141 26857 layer_factory.hpp:74] Creating layer 4_relu2
I0126 21:49:12.187150 26857 net.cpp:90] Creating Layer 4_relu2
I0126 21:49:12.187165 26857 net.cpp:410] 4_relu2 <- 4_conv2
I0126 21:49:12.187181 26857 net.cpp:357] 4_relu2 -> 4_conv2 (in-place)
I0126 21:49:12.187196 26857 net.cpp:120] Setting up 4_relu2
I0126 21:49:12.187216 26857 net.cpp:127] Top shape: 100 32 16 16 (819200)
I0126 21:49:12.187235 26857 layer_factory.hpp:74] Creating layer 4_pool2
I0126 21:49:12.187250 26857 net.cpp:90] Creating Layer 4_pool2
I0126 21:49:12.187263 26857 net.cpp:410] 4_pool2 <- 4_conv2
I0126 21:49:12.187276 26857 net.cpp:368] 4_pool2 -> 4_pool2
I0126 21:49:12.187290 26857 net.cpp:120] Setting up 4_pool2
I0126 21:49:12.187305 26857 net.cpp:127] Top shape: 100 32 8 8 (204800)
I0126 21:49:12.187317 26857 layer_factory.hpp:74] Creating layer 4_conv3
I0126 21:49:12.187331 26857 net.cpp:90] Creating Layer 4_conv3
I0126 21:49:12.187343 26857 net.cpp:410] 4_conv3 <- 4_pool2
I0126 21:49:12.187358 26857 net.cpp:368] 4_conv3 -> 4_conv3
I0126 21:49:12.187373 26857 net.cpp:120] Setting up 4_conv3
I0126 21:49:12.188660 26857 net.cpp:127] Top shape: 100 64 8 8 (409600)
I0126 21:49:12.188670 26857 layer_factory.hpp:74] Creating layer 4_relu3
I0126 21:49:12.188675 26857 net.cpp:90] Creating Layer 4_relu3
I0126 21:49:12.188680 26857 net.cpp:410] 4_relu3 <- 4_conv3
I0126 21:49:12.188685 26857 net.cpp:357] 4_relu3 -> 4_conv3 (in-place)
I0126 21:49:12.188704 26857 net.cpp:120] Setting up 4_relu3
I0126 21:49:12.188719 26857 net.cpp:127] Top shape: 100 64 8 8 (409600)
I0126 21:49:12.188732 26857 layer_factory.hpp:74] Creating layer 4_pool3
I0126 21:49:12.188747 26857 net.cpp:90] Creating Layer 4_pool3
I0126 21:49:12.188760 26857 net.cpp:410] 4_pool3 <- 4_conv3
I0126 21:49:12.188773 26857 net.cpp:368] 4_pool3 -> 4_pool3
I0126 21:49:12.188788 26857 net.cpp:120] Setting up 4_pool3
I0126 21:49:12.188804 26857 net.cpp:127] Top shape: 100 64 4 4 (102400)
I0126 21:49:12.188817 26857 layer_factory.hpp:74] Creating layer 4_ip1
I0126 21:49:12.188832 26857 net.cpp:90] Creating Layer 4_ip1
I0126 21:49:12.188843 26857 net.cpp:410] 4_ip1 <- 4_pool3
I0126 21:49:12.188858 26857 net.cpp:368] 4_ip1 -> 4_ip1
I0126 21:49:12.188871 26857 net.cpp:120] Setting up 4_ip1
I0126 21:49:12.190520 26857 net.cpp:127] Top shape: 100 64 (6400)
I0126 21:49:12.190528 26857 layer_factory.hpp:74] Creating layer 4_ip2
I0126 21:49:12.190534 26857 net.cpp:90] Creating Layer 4_ip2
I0126 21:49:12.190541 26857 net.cpp:410] 4_ip2 <- 4_ip1
I0126 21:49:12.190547 26857 net.cpp:368] 4_ip2 -> 4_ip2
I0126 21:49:12.190568 26857 net.cpp:120] Setting up 4_ip2
I0126 21:49:12.190611 26857 net.cpp:127] Top shape: 100 10 (1000)
I0126 21:49:12.190629 26857 layer_factory.hpp:74] Creating layer 4_prob
I0126 21:49:12.190644 26857 net.cpp:90] Creating Layer 4_prob
I0126 21:49:12.190655 26857 net.cpp:410] 4_prob <- 4_ip2
I0126 21:49:12.190668 26857 net.cpp:368] 4_prob -> 4_prob
I0126 21:49:12.190682 26857 net.cpp:120] Setting up 4_prob
I0126 21:49:12.190698 26857 net.cpp:127] Top shape: 100 10 (1000)
I0126 21:49:12.190709 26857 layer_factory.hpp:74] Creating layer 4_prob_4_prob_0_split
I0126 21:49:12.190723 26857 net.cpp:90] Creating Layer 4_prob_4_prob_0_split
I0126 21:49:12.190735 26857 net.cpp:410] 4_prob_4_prob_0_split <- 4_prob
I0126 21:49:12.190749 26857 net.cpp:368] 4_prob_4_prob_0_split -> 4_prob_4_prob_0_split_0
I0126 21:49:12.190765 26857 net.cpp:368] 4_prob_4_prob_0_split -> 4_prob_4_prob_0_split_1
I0126 21:49:12.190779 26857 net.cpp:120] Setting up 4_prob_4_prob_0_split
I0126 21:49:12.190794 26857 net.cpp:127] Top shape: 100 10 (1000)
I0126 21:49:12.190809 26857 net.cpp:127] Top shape: 100 10 (1000)
I0126 21:49:12.190820 26857 layer_factory.hpp:74] Creating layer 1_accuracy
I0126 21:49:12.190834 26857 net.cpp:90] Creating Layer 1_accuracy
I0126 21:49:12.190847 26857 net.cpp:410] 1_accuracy <- 1_prob_1_prob_0_split_0
I0126 21:49:12.190860 26857 net.cpp:410] 1_accuracy <- label_cifar_1_split_0
I0126 21:49:12.190874 26857 net.cpp:368] 1_accuracy -> 1_accuracy
I0126 21:49:12.190889 26857 net.cpp:120] Setting up 1_accuracy
…
