…
I0126 21:48:11.018755 26698 net.cpp:287] The NetState phase (0) differed from the phase (1) specified by a rule in layer accuracy
I0126 21:48:11.019062 26698 net.cpp:42] Initializing net from parameters: 
name: "CIFAR10_quick"
state {
  phase: TRAIN
}
layer {
  name: "cifar"
  type: "Data"
  top: "data"
  top: "label"
  include {
    phase: TRAIN
  }
  transform_param {
    mean_file: "/home/mike/ml_lab/mod/MCL_Caffe/examples/cifar10/mean.binaryproto"
  }
  data_param {
    source: "/home/mike/ml_lab/mod/MCL_Caffe/examples/cifar10/cifar10_train_lmdb"
    batch_size: 350
    backend: LMDB
  }
}
layer {
  name: "1_conv1"
  type: "Convolution"
  bottom: "data"
  top: "1_conv1"
  param {
    lr_mult: 1
  }
  param {
    lr_mult: 2
  }
  convolution_param {
    num_output: 32
    pad: 2
    kernel_size: 5
    stride: 1
    weight_filler {
      type: "gaussian"
      std: 0.0001
    }
    bias_filler {
      type: "constant"
    }
  }
}
layer {
  name: "1_pool1"
  type: "Pooling"
  bottom: "1_conv1"
  top: "1_pool1"
  pooling_param {
    pool: MAX
    kernel_size: 3
    stride: 2
  }
}
layer {
  name: "1_relu1"
  type: "ReLU"
  bottom: "1_pool1"
  top: "1_pool1"
}
layer {
  name: "1_conv2"
  type: "Convolution"
  bottom: "1_pool1"
  top: "1_conv2"
  param {
    lr_mult: 1
  }
  param {
    lr_mult: 2
  }
  convolution_param {
    num_output: 32
    pad: 2
    kernel_size: 5
    stride: 1
    weight_filler {
      type: "gaussian"
      std: 0.01
    }
    bias_filler {
      type: "constant"
    }
  }
}
layer {
  name: "1_relu2"
  type: "ReLU"
  bottom: "1_conv2"
  top: "1_conv2"
}
layer {
  name: "1_pool2"
  type: "Pooling"
  bottom: "1_conv2"
  top: "1_pool2"
  pooling_param {
    pool: AVE
    kernel_size: 3
    stride: 2
  }
}
layer {
  name: "1_conv3"
  type: "Convolution"
  bottom: "1_pool2"
  top: "1_conv3"
  param {
    lr_mult: 1
  }
  param {
    lr_mult: 2
  }
  convolution_param {
    num_output: 64
    pad: 2
    kernel_size: 5
    stride: 1
    weight_filler {
      type: "gaussian"
      std: 0.01
    }
    bias_filler {
      type: "constant"
    }
  }
}
layer {
  name: "1_relu3"
  type: "ReLU"
  bottom: "1_conv3"
  top: "1_conv3"
}
layer {
  name: "1_pool3"
  type: "Pooling"
  bottom: "1_conv3"
  top: "1_pool3"
  pooling_param {
    pool: AVE
    kernel_size: 3
    stride: 2
  }
}
layer {
  name: "1_ip1"
  type: "InnerProduct"
  bottom: "1_pool3"
  top: "1_ip1"
  param {
    lr_mult: 1
  }
  param {
    lr_mult: 2
  }
  inner_product_param {
    num_output: 64
    weight_filler {
      type: "gaussian"
      std: 0.1
    }
    bias_filler {
      type: "constant"
    }
  }
}
layer {
  name: "1_ip2"
  type: "InnerProduct"
  bottom: "1_ip1"
  top: "1_ip2"
  param {
    lr_mult: 1
  }
  param {
    lr_mult: 2
  }
  inner_product_param {
    num_output: 10
    weight_filler {
      type: "gaussian"
      std: 0.1
    }
    bias_filler {
      type: "constant"
    }
  }
}
layer {
  name: "1_prob"
  type: "Softmax"
  bottom: "1_ip2"
  top: "1_prob"
}
layer {
  name: "2_conv1"
  type: "Convolution"
  bottom: "data"
  top: "2_conv1"
  param {
    lr_mult: 1
  }
  param {
    lr_mult: 2
  }
  convolution_param {
    num_output: 32
    pad: 2
    kernel_size: 5
    stride: 1
    weight_filler {
      type: "gaussian"
      std: 0.0001
    }
    bias_filler {
      type: "constant"
    }
  }
}
layer {
  name: "2_pool1"
  type: "Pooling"
  bottom: "2_conv1"
  top: "2_pool1"
  pooling_param {
    pool: MAX
    kernel_size: 3
    stride: 2
  }
}
layer {
  name: "2_relu1"
  type: "ReLU"
  bottom: "2_pool1"
  top: "2_pool1"
}
layer {
  name: "2_conv2"
  type: "Convolution"
  bottom: "2_pool1"
  top: "2_conv2"
  param {
    lr_mult: 1
  }
  param {
    lr_mult: 2
  }
  convolution_param {
    num_output: 32
    pad: 2
    kernel_size: 5
    stride: 1
    weight_filler {
      type: "gaussian"
      std: 0.01
    }
    bias_filler {
      type: "constant"
    }
  }
}
layer {
  name: "2_relu2"
  type: "ReLU"
  bottom: "2_conv2"
  top: "2_conv2"
}
layer {
  name: "2_pool2"
  type: "Pooling"
  bottom: "2_conv2"
  top: "2_pool2"
  pooling_param {
    pool: AVE
    kernel_size: 3
    stride: 2
  }
}
layer {
  name: "2_conv3"
  type: "Convolution"
  bottom: "2_pool2"
  top: "2_conv3"
  param {
    lr_mult: 1
  }
  param {
    lr_mult: 2
  }
  convolution_param {
    num_output: 64
    pad: 2
    kernel_size: 5
    stride: 1
    weight_filler {
      type: "gaussian"
      std: 0.01
    }
    bias_filler {
      type: "constant"
    }
  }
}
layer {
  name: "2_relu3"
  type: "ReLU"
  bottom: "2_conv3"
  top: "2_conv3"
}
layer {
  name: "2_pool3"
  type: "Pooling"
  bottom: "2_conv3"
  top: "2_pool3"
  pooling_param {
    pool: AVE
    kernel_size: 3
    stride: 2
  }
}
layer {
  name: "2_ip1"
  type: "InnerProduct"
  bottom: "2_pool3"
  top: "2_ip1"
  param {
    lr_mult: 1
  }
  param {
    lr_mult: 2
  }
  inner_product_param {
    num_output: 64
    weight_filler {
      type: "gaussian"
      std: 0.1
    }
    bias_filler {
      type: "constant"
    }
  }
}
layer {
  name: "2_ip2"
  type: "InnerProduct"
  bottom: "2_ip1"
  top: "2_ip2"
  param {
    lr_mult: 1
  }
  param {
    lr_mult: 2
  }
  inner_product_param {
    num_output: 10
    weight_filler {
      type: "gaussian"
      std: 0.1
    }
    bias_filler {
      type: "constant"
    }
  }
}
layer {
  name: "2_prob"
  type: "Softmax"
  bottom: "2_ip2"
  top: "2_prob"
}
layer {
  name: "3_conv1"
  type: "Convolution"
  bottom: "data"
  top: "3_conv1"
  param {
    lr_mult: 1
  }
  param {
    lr_mult: 2
  }
  convolution_param {
    num_output: 32
    pad: 2
    kernel_size: 5
    stride: 1
    weight_filler {
      type: "gaussian"
      std: 0.0001
    }
    bias_filler {
      type: "constant"
    }
  }
}
layer {
  name: "3_pool1"
  type: "Pooling"
  bottom: "3_conv1"
  top: "3_pool1"
  pooling_param {
    pool: MAX
    kernel_size: 3
    stride: 2
  }
}
layer {
  name: "3_relu1"
  type: "ReLU"
  bottom: "3_pool1"
  top: "3_pool1"
}
layer {
  name: "3_conv2"
  type: "Convolution"
  bottom: "3_pool1"
  top: "3_conv2"
  param {
    lr_mult: 1
  }
  param {
    lr_mult: 2
  }
  convolution_param {
    num_output: 32
    pad: 2
    kernel_size: 5
    stride: 1
    weight_filler {
      type: "gaussian"
      std: 0.01
    }
    bias_filler {
      type: "constant"
    }
  }
}
layer {
  name: "3_relu2"
  type: "ReLU"
  bottom: "3_conv2"
  top: "3_conv2"
}
layer {
  name: "3_pool2"
  type: "Pooling"
  bottom: "3_conv2"
  top: "3_pool2"
  pooling_param {
    pool: AVE
    kernel_size: 3
    stride: 2
  }
}
layer {
  name: "3_conv3"
  type: "Convolution"
  bottom: "3_pool2"
  top: "3_conv3"
  param {
    lr_mult: 1
  }
  param {
    lr_mult: 2
  }
  convolution_param {
    num_output: 64
    pad: 2
    kernel_size: 5
    stride: 1
    weight_filler {
      type: "gaussian"
      std: 0.01
    }
    bias_filler {
      type: "constant"
    }
  }
}
layer {
  name: "3_relu3"
  type: "ReLU"
  bottom: "3_conv3"
  top: "3_conv3"
}
layer {
  name: "3_pool3"
  type: "Pooling"
  bottom: "3_conv3"
  top: "3_pool3"
  pooling_param {
    pool: AVE
    kernel_size: 3
    stride: 2
  }
}
layer {
  name: "3_ip1"
  type: "InnerProduct"
  bottom: "3_pool3"
  top: "3_ip1"
  param {
    lr_mult: 1
  }
  param {
    lr_mult: 2
  }
  inner_product_param {
    num_output: 64
    weight_filler {
      type: "gaussian"
      std: 0.1
    }
    bias_filler {
      type: "constant"
    }
  }
}
layer {
  name: "3_ip2"
  type: "InnerProduct"
  bottom: "3_ip1"
  top: "3_ip2"
  param {
    lr_mult: 1
  }
  param {
    lr_mult: 2
  }
  inner_product_param {
    num_output: 10
    weight_filler {
      type: "gaussian"
      std: 0.1
    }
    bias_filler {
      type: "constant"
    }
  }
}
layer {
  name: "3_prob"
  type: "Softmax"
  bottom: "3_ip2"
  top: "3_prob"
}
layer {
  name: "4_conv1"
  type: "Convolution"
  bottom: "data"
  top: "4_conv1"
  param {
    lr_mult: 1
  }
  param {
    lr_mult: 2
  }
  convolution_param {
    num_output: 32
    pad: 2
    kernel_size: 5
    stride: 1
    weight_filler {
      type: "gaussian"
      std: 0.0001
    }
    bias_filler {
      type: "constant"
    }
  }
}
layer {
  name: "4_pool1"
  type: "Pooling"
  bottom: "4_conv1"
  top: "4_pool1"
  pooling_param {
    pool: MAX
    kernel_size: 3
    stride: 2
  }
}
layer {
  name: "4_relu1"
  type: "ReLU"
  bottom: "4_pool1"
  top: "4_pool1"
}
layer {
  name: "4_conv2"
  type: "Convolution"
  bottom: "4_pool1"
  top: "4_conv2"
  param {
    lr_mult: 1
  }
  param {
    lr_mult: 2
  }
  convolution_param {
    num_output: 32
    pad: 2
    kernel_size: 5
    stride: 1
    weight_filler {
      type: "gaussian"
      std: 0.01
    }
    bias_filler {
      type: "constant"
    }
  }
}
layer {
  name: "4_relu2"
  type: "ReLU"
  bottom: "4_conv2"
  top: "4_conv2"
}
layer {
  name: "4_pool2"
  type: "Pooling"
  bottom: "4_conv2"
  top: "4_pool2"
  pooling_param {
    pool: AVE
    kernel_size: 3
    stride: 2
  }
}
layer {
  name: "4_conv3"
  type: "Convolution"
  bottom: "4_pool2"
  top: "4_conv3"
  param {
    lr_mult: 1
  }
  param {
    lr_mult: 2
  }
  convolution_param {
    num_output: 64
    pad: 2
    kernel_size: 5
    stride: 1
    weight_filler {
      type: "gaussian"
      std: 0.01
    }
    bias_filler {
      type: "constant"
    }
  }
}
layer {
  name: "4_relu3"
  type: "ReLU"
  bottom: "4_conv3"
  top: "4_conv3"
}
layer {
  name: "4_pool3"
  type: "Pooling"
  bottom: "4_conv3"
  top: "4_pool3"
  pooling_param {
    pool: AVE
    kernel_size: 3
    stride: 2
  }
}
layer {
  name: "4_ip1"
  type: "InnerProduct"
  bottom: "4_pool3"
  top: "4_ip1"
  param {
    lr_mult: 1
  }
  param {
    lr_mult: 2
  }
  inner_product_param {
    num_output: 64
    weight_filler {
      type: "gaussian"
      std: 0.1
    }
    bias_filler {
      type: "constant"
    }
  }
}
layer {
  name: "4_ip2"
  type: "InnerProduct"
  bottom: "4_ip1"
  top: "4_ip2"
  param {
    lr_mult: 1
  }
  param {
    lr_mult: 2
  }
  inner_product_param {
    num_output: 10
    weight_filler {
      type: "gaussian"
      std: 0.1
    }
    bias_filler {
      type: "constant"
    }
  }
}
layer {
  name: "4_prob"
  type: "Softmax"
  bottom: "4_ip2"
  top: "4_prob"
}
layer {
  name: "loss"
  type: "ODMultinomialLogisticLoss"
  bottom: "1_prob"
  bottom: "2_prob"
  bottom: "3_prob"
  bottom: "4_prob"
  bottom: "label"
  top: "multiple-output loss"
  top: "batch-instance-counts"
  top: "train-instance-counts"
  loss_weight: 1
  loss_weight: 0
  loss_weight: 0
  include {
    phase: TRAIN
  }
}
I0126 21:48:11.019306 26698 layer_factory.hpp:74] Creating layer cifar
I0126 21:48:11.019327 26698 net.cpp:90] Creating Layer cifar
I0126 21:48:11.019337 26698 net.cpp:368] cifar -> data
I0126 21:48:11.019361 26698 net.cpp:368] cifar -> label
I0126 21:48:11.019372 26698 net.cpp:120] Setting up cifar
I0126 21:48:11.019431 26698 db.cpp:34] Opened lmdb /home/mike/ml_lab/mod/MCL_Caffe/examples/cifar10/cifar10_train_lmdb
I0126 21:48:11.019476 26698 data_layer.cpp:67] output data size: 350,3,32,32
I0126 21:48:11.019484 26698 data_transformer.cpp:22] Loading mean file from: /home/mike/ml_lab/mod/MCL_Caffe/examples/cifar10/mean.binaryproto
I0126 21:48:11.020323 26698 net.cpp:127] Top shape: 350 3 32 32 (1075200)
I0126 21:48:11.020331 26698 net.cpp:127] Top shape: 350 (350)
I0126 21:48:11.020336 26698 layer_factory.hpp:74] Creating layer data_cifar_0_split
I0126 21:48:11.020345 26698 net.cpp:90] Creating Layer data_cifar_0_split
I0126 21:48:11.020350 26698 net.cpp:410] data_cifar_0_split <- data
I0126 21:48:11.020360 26698 net.cpp:368] data_cifar_0_split -> data_cifar_0_split_0
I0126 21:48:11.020368 26698 net.cpp:368] data_cifar_0_split -> data_cifar_0_split_1
I0126 21:48:11.020375 26698 net.cpp:368] data_cifar_0_split -> data_cifar_0_split_2
I0126 21:48:11.020380 26698 net.cpp:368] data_cifar_0_split -> data_cifar_0_split_3
I0126 21:48:11.020385 26698 net.cpp:120] Setting up data_cifar_0_split
I0126 21:48:11.020392 26698 net.cpp:127] Top shape: 350 3 32 32 (1075200)
I0126 21:48:11.020396 26698 net.cpp:127] Top shape: 350 3 32 32 (1075200)
I0126 21:48:11.020401 26698 net.cpp:127] Top shape: 350 3 32 32 (1075200)
I0126 21:48:11.020404 26698 net.cpp:127] Top shape: 350 3 32 32 (1075200)
I0126 21:48:11.020407 26698 layer_factory.hpp:74] Creating layer 1_conv1
I0126 21:48:11.020418 26698 net.cpp:90] Creating Layer 1_conv1
I0126 21:48:11.020422 26698 net.cpp:410] 1_conv1 <- data_cifar_0_split_0
I0126 21:48:11.020428 26698 net.cpp:368] 1_conv1 -> 1_conv1
I0126 21:48:11.020437 26698 net.cpp:120] Setting up 1_conv1
I0126 21:48:11.021024 26698 net.cpp:127] Top shape: 350 32 32 32 (11468800)
I0126 21:48:11.021037 26698 layer_factory.hpp:74] Creating layer 1_pool1
I0126 21:48:11.021044 26698 net.cpp:90] Creating Layer 1_pool1
I0126 21:48:11.021047 26698 net.cpp:410] 1_pool1 <- 1_conv1
I0126 21:48:11.021054 26698 net.cpp:368] 1_pool1 -> 1_pool1
I0126 21:48:11.021060 26698 net.cpp:120] Setting up 1_pool1
I0126 21:48:11.021075 26698 net.cpp:127] Top shape: 350 32 16 16 (2867200)
I0126 21:48:11.021080 26698 layer_factory.hpp:74] Creating layer 1_relu1
I0126 21:48:11.021085 26698 net.cpp:90] Creating Layer 1_relu1
I0126 21:48:11.021088 26698 net.cpp:410] 1_relu1 <- 1_pool1
I0126 21:48:11.021092 26698 net.cpp:357] 1_relu1 -> 1_pool1 (in-place)
I0126 21:48:11.021097 26698 net.cpp:120] Setting up 1_relu1
I0126 21:48:11.021105 26698 net.cpp:127] Top shape: 350 32 16 16 (2867200)
I0126 21:48:11.021107 26698 layer_factory.hpp:74] Creating layer 1_conv2
I0126 21:48:11.021113 26698 net.cpp:90] Creating Layer 1_conv2
I0126 21:48:11.021116 26698 net.cpp:410] 1_conv2 <- 1_pool1
I0126 21:48:11.021128 26698 net.cpp:368] 1_conv2 -> 1_conv2
I0126 21:48:11.021136 26698 net.cpp:120] Setting up 1_conv2
I0126 21:48:11.021941 26698 net.cpp:127] Top shape: 350 32 16 16 (2867200)
I0126 21:48:11.021951 26698 layer_factory.hpp:74] Creating layer 1_relu2
I0126 21:48:11.021956 26698 net.cpp:90] Creating Layer 1_relu2
I0126 21:48:11.021960 26698 net.cpp:410] 1_relu2 <- 1_conv2
I0126 21:48:11.021965 26698 net.cpp:357] 1_relu2 -> 1_conv2 (in-place)
I0126 21:48:11.021970 26698 net.cpp:120] Setting up 1_relu2
I0126 21:48:11.021975 26698 net.cpp:127] Top shape: 350 32 16 16 (2867200)
I0126 21:48:11.021977 26698 layer_factory.hpp:74] Creating layer 1_pool2
I0126 21:48:11.021983 26698 net.cpp:90] Creating Layer 1_pool2
I0126 21:48:11.021987 26698 net.cpp:410] 1_pool2 <- 1_conv2
I0126 21:48:11.021991 26698 net.cpp:368] 1_pool2 -> 1_pool2
I0126 21:48:11.021996 26698 net.cpp:120] Setting up 1_pool2
I0126 21:48:11.022002 26698 net.cpp:127] Top shape: 350 32 8 8 (716800)
I0126 21:48:11.022006 26698 layer_factory.hpp:74] Creating layer 1_conv3
I0126 21:48:11.022013 26698 net.cpp:90] Creating Layer 1_conv3
I0126 21:48:11.022017 26698 net.cpp:410] 1_conv3 <- 1_pool2
I0126 21:48:11.022022 26698 net.cpp:368] 1_conv3 -> 1_conv3
I0126 21:48:11.022027 26698 net.cpp:120] Setting up 1_conv3
I0126 21:48:11.023633 26698 net.cpp:127] Top shape: 350 64 8 8 (1433600)
I0126 21:48:11.023643 26698 layer_factory.hpp:74] Creating layer 1_relu3
I0126 21:48:11.023648 26698 net.cpp:90] Creating Layer 1_relu3
I0126 21:48:11.023653 26698 net.cpp:410] 1_relu3 <- 1_conv3
I0126 21:48:11.023656 26698 net.cpp:357] 1_relu3 -> 1_conv3 (in-place)
I0126 21:48:11.023661 26698 net.cpp:120] Setting up 1_relu3
I0126 21:48:11.023666 26698 net.cpp:127] Top shape: 350 64 8 8 (1433600)
I0126 21:48:11.023669 26698 layer_factory.hpp:74] Creating layer 1_pool3
I0126 21:48:11.023674 26698 net.cpp:90] Creating Layer 1_pool3
I0126 21:48:11.023677 26698 net.cpp:410] 1_pool3 <- 1_conv3
I0126 21:48:11.023681 26698 net.cpp:368] 1_pool3 -> 1_pool3
I0126 21:48:11.023686 26698 net.cpp:120] Setting up 1_pool3
I0126 21:48:11.023691 26698 net.cpp:127] Top shape: 350 64 4 4 (358400)
I0126 21:48:11.023694 26698 layer_factory.hpp:74] Creating layer 1_ip1
I0126 21:48:11.023701 26698 net.cpp:90] Creating Layer 1_ip1
I0126 21:48:11.023705 26698 net.cpp:410] 1_ip1 <- 1_pool3
I0126 21:48:11.023710 26698 net.cpp:368] 1_ip1 -> 1_ip1
I0126 21:48:11.023717 26698 net.cpp:120] Setting up 1_ip1
I0126 21:48:11.025768 26698 net.cpp:127] Top shape: 350 64 (22400)
I0126 21:48:11.025776 26698 layer_factory.hpp:74] Creating layer 1_ip2
I0126 21:48:11.025782 26698 net.cpp:90] Creating Layer 1_ip2
I0126 21:48:11.025785 26698 net.cpp:410] 1_ip2 <- 1_ip1
I0126 21:48:11.025792 26698 net.cpp:368] 1_ip2 -> 1_ip2
I0126 21:48:11.025799 26698 net.cpp:120] Setting up 1_ip2
I0126 21:48:11.025828 26698 net.cpp:127] Top shape: 350 10 (3500)
I0126 21:48:11.025835 26698 layer_factory.hpp:74] Creating layer 1_prob
I0126 21:48:11.025841 26698 net.cpp:90] Creating Layer 1_prob
I0126 21:48:11.025845 26698 net.cpp:410] 1_prob <- 1_ip2
I0126 21:48:11.025849 26698 net.cpp:368] 1_prob -> 1_prob
I0126 21:48:11.025854 26698 net.cpp:120] Setting up 1_prob
I0126 21:48:11.025863 26698 net.cpp:127] Top shape: 350 10 (3500)
I0126 21:48:11.025866 26698 layer_factory.hpp:74] Creating layer 2_conv1
I0126 21:48:11.025873 26698 net.cpp:90] Creating Layer 2_conv1
I0126 21:48:11.025877 26698 net.cpp:410] 2_conv1 <- data_cifar_0_split_1
I0126 21:48:11.025882 26698 net.cpp:368] 2_conv1 -> 2_conv1
I0126 21:48:11.025888 26698 net.cpp:120] Setting up 2_conv1
I0126 21:48:11.025979 26698 net.cpp:127] Top shape: 350 32 32 32 (11468800)
I0126 21:48:11.025986 26698 layer_factory.hpp:74] Creating layer 2_pool1
I0126 21:48:11.025991 26698 net.cpp:90] Creating Layer 2_pool1
I0126 21:48:11.025995 26698 net.cpp:410] 2_pool1 <- 2_conv1
I0126 21:48:11.026000 26698 net.cpp:368] 2_pool1 -> 2_pool1
I0126 21:48:11.026005 26698 net.cpp:120] Setting up 2_pool1
I0126 21:48:11.026013 26698 net.cpp:127] Top shape: 350 32 16 16 (2867200)
I0126 21:48:11.026016 26698 layer_factory.hpp:74] Creating layer 2_relu1
I0126 21:48:11.026021 26698 net.cpp:90] Creating Layer 2_relu1
I0126 21:48:11.026024 26698 net.cpp:410] 2_relu1 <- 2_pool1
I0126 21:48:11.026029 26698 net.cpp:357] 2_relu1 -> 2_pool1 (in-place)
I0126 21:48:11.026033 26698 net.cpp:120] Setting up 2_relu1
I0126 21:48:11.026038 26698 net.cpp:127] Top shape: 350 32 16 16 (2867200)
I0126 21:48:11.026041 26698 layer_factory.hpp:74] Creating layer 2_conv2
I0126 21:48:11.026046 26698 net.cpp:90] Creating Layer 2_conv2
I0126 21:48:11.026049 26698 net.cpp:410] 2_conv2 <- 2_pool1
I0126 21:48:11.026057 26698 net.cpp:368] 2_conv2 -> 2_conv2
I0126 21:48:11.026062 26698 net.cpp:120] Setting up 2_conv2
I0126 21:48:11.026865 26698 net.cpp:127] Top shape: 350 32 16 16 (2867200)
I0126 21:48:11.026873 26698 layer_factory.hpp:74] Creating layer 2_relu2
I0126 21:48:11.026878 26698 net.cpp:90] Creating Layer 2_relu2
I0126 21:48:11.026881 26698 net.cpp:410] 2_relu2 <- 2_conv2
I0126 21:48:11.026886 26698 net.cpp:357] 2_relu2 -> 2_conv2 (in-place)
I0126 21:48:11.026891 26698 net.cpp:120] Setting up 2_relu2
I0126 21:48:11.026895 26698 net.cpp:127] Top shape: 350 32 16 16 (2867200)
I0126 21:48:11.026899 26698 layer_factory.hpp:74] Creating layer 2_pool2
I0126 21:48:11.026904 26698 net.cpp:90] Creating Layer 2_pool2
I0126 21:48:11.026916 26698 net.cpp:410] 2_pool2 <- 2_conv2
I0126 21:48:11.026921 26698 net.cpp:368] 2_pool2 -> 2_pool2
I0126 21:48:11.026926 26698 net.cpp:120] Setting up 2_pool2
I0126 21:48:11.026932 26698 net.cpp:127] Top shape: 350 32 8 8 (716800)
I0126 21:48:11.026935 26698 layer_factory.hpp:74] Creating layer 2_conv3
I0126 21:48:11.026942 26698 net.cpp:90] Creating Layer 2_conv3
I0126 21:48:11.026944 26698 net.cpp:410] 2_conv3 <- 2_pool2
I0126 21:48:11.026949 26698 net.cpp:368] 2_conv3 -> 2_conv3
I0126 21:48:11.026954 26698 net.cpp:120] Setting up 2_conv3
I0126 21:48:11.028548 26698 net.cpp:127] Top shape: 350 64 8 8 (1433600)
I0126 21:48:11.028558 26698 layer_factory.hpp:74] Creating layer 2_relu3
I0126 21:48:11.028563 26698 net.cpp:90] Creating Layer 2_relu3
I0126 21:48:11.028566 26698 net.cpp:410] 2_relu3 <- 2_conv3
I0126 21:48:11.028571 26698 net.cpp:357] 2_relu3 -> 2_conv3 (in-place)
I0126 21:48:11.028576 26698 net.cpp:120] Setting up 2_relu3
I0126 21:48:11.028580 26698 net.cpp:127] Top shape: 350 64 8 8 (1433600)
I0126 21:48:11.028584 26698 layer_factory.hpp:74] Creating layer 2_pool3
I0126 21:48:11.028589 26698 net.cpp:90] Creating Layer 2_pool3
I0126 21:48:11.028591 26698 net.cpp:410] 2_pool3 <- 2_conv3
I0126 21:48:11.028596 26698 net.cpp:368] 2_pool3 -> 2_pool3
I0126 21:48:11.028601 26698 net.cpp:120] Setting up 2_pool3
I0126 21:48:11.028607 26698 net.cpp:127] Top shape: 350 64 4 4 (358400)
I0126 21:48:11.028610 26698 layer_factory.hpp:74] Creating layer 2_ip1
I0126 21:48:11.028617 26698 net.cpp:90] Creating Layer 2_ip1
I0126 21:48:11.028620 26698 net.cpp:410] 2_ip1 <- 2_pool3
I0126 21:48:11.028625 26698 net.cpp:368] 2_ip1 -> 2_ip1
I0126 21:48:11.028631 26698 net.cpp:120] Setting up 2_ip1
I0126 21:48:11.030673 26698 net.cpp:127] Top shape: 350 64 (22400)
I0126 21:48:11.030684 26698 layer_factory.hpp:74] Creating layer 2_ip2
I0126 21:48:11.030691 26698 net.cpp:90] Creating Layer 2_ip2
I0126 21:48:11.030694 26698 net.cpp:410] 2_ip2 <- 2_ip1
I0126 21:48:11.030701 26698 net.cpp:368] 2_ip2 -> 2_ip2
I0126 21:48:11.030707 26698 net.cpp:120] Setting up 2_ip2
I0126 21:48:11.030738 26698 net.cpp:127] Top shape: 350 10 (3500)
I0126 21:48:11.030745 26698 layer_factory.hpp:74] Creating layer 2_prob
I0126 21:48:11.030750 26698 net.cpp:90] Creating Layer 2_prob
I0126 21:48:11.030752 26698 net.cpp:410] 2_prob <- 2_ip2
I0126 21:48:11.030758 26698 net.cpp:368] 2_prob -> 2_prob
I0126 21:48:11.030763 26698 net.cpp:120] Setting up 2_prob
I0126 21:48:11.030771 26698 net.cpp:127] Top shape: 350 10 (3500)
I0126 21:48:11.030773 26698 layer_factory.hpp:74] Creating layer 3_conv1
I0126 21:48:11.030781 26698 net.cpp:90] Creating Layer 3_conv1
I0126 21:48:11.030784 26698 net.cpp:410] 3_conv1 <- data_cifar_0_split_2
I0126 21:48:11.030789 26698 net.cpp:368] 3_conv1 -> 3_conv1
I0126 21:48:11.030794 26698 net.cpp:120] Setting up 3_conv1
I0126 21:48:11.030884 26698 net.cpp:127] Top shape: 350 32 32 32 (11468800)
I0126 21:48:11.030890 26698 layer_factory.hpp:74] Creating layer 3_pool1
I0126 21:48:11.030895 26698 net.cpp:90] Creating Layer 3_pool1
I0126 21:48:11.030899 26698 net.cpp:410] 3_pool1 <- 3_conv1
I0126 21:48:11.030903 26698 net.cpp:368] 3_pool1 -> 3_pool1
I0126 21:48:11.030908 26698 net.cpp:120] Setting up 3_pool1
I0126 21:48:11.030915 26698 net.cpp:127] Top shape: 350 32 16 16 (2867200)
I0126 21:48:11.030918 26698 layer_factory.hpp:74] Creating layer 3_relu1
I0126 21:48:11.030923 26698 net.cpp:90] Creating Layer 3_relu1
I0126 21:48:11.030926 26698 net.cpp:410] 3_relu1 <- 3_pool1
I0126 21:48:11.030930 26698 net.cpp:357] 3_relu1 -> 3_pool1 (in-place)
I0126 21:48:11.030936 26698 net.cpp:120] Setting up 3_relu1
I0126 21:48:11.030939 26698 net.cpp:127] Top shape: 350 32 16 16 (2867200)
I0126 21:48:11.030943 26698 layer_factory.hpp:74] Creating layer 3_conv2
I0126 21:48:11.030948 26698 net.cpp:90] Creating Layer 3_conv2
I0126 21:48:11.030951 26698 net.cpp:410] 3_conv2 <- 3_pool1
I0126 21:48:11.030956 26698 net.cpp:368] 3_conv2 -> 3_conv2
I0126 21:48:11.030961 26698 net.cpp:120] Setting up 3_conv2
I0126 21:48:11.031764 26698 net.cpp:127] Top shape: 350 32 16 16 (2867200)
I0126 21:48:11.031781 26698 layer_factory.hpp:74] Creating layer 3_relu2
I0126 21:48:11.031786 26698 net.cpp:90] Creating Layer 3_relu2
I0126 21:48:11.031790 26698 net.cpp:410] 3_relu2 <- 3_conv2
I0126 21:48:11.031795 26698 net.cpp:357] 3_relu2 -> 3_conv2 (in-place)
I0126 21:48:11.031800 26698 net.cpp:120] Setting up 3_relu2
I0126 21:48:11.031805 26698 net.cpp:127] Top shape: 350 32 16 16 (2867200)
I0126 21:48:11.031810 26698 layer_factory.hpp:74] Creating layer 3_pool2
I0126 21:48:11.031813 26698 net.cpp:90] Creating Layer 3_pool2
I0126 21:48:11.031816 26698 net.cpp:410] 3_pool2 <- 3_conv2
I0126 21:48:11.031821 26698 net.cpp:368] 3_pool2 -> 3_pool2
I0126 21:48:11.031826 26698 net.cpp:120] Setting up 3_pool2
I0126 21:48:11.031832 26698 net.cpp:127] Top shape: 350 32 8 8 (716800)
I0126 21:48:11.031836 26698 layer_factory.hpp:74] Creating layer 3_conv3
I0126 21:48:11.031843 26698 net.cpp:90] Creating Layer 3_conv3
I0126 21:48:11.031847 26698 net.cpp:410] 3_conv3 <- 3_pool2
I0126 21:48:11.031853 26698 net.cpp:368] 3_conv3 -> 3_conv3
I0126 21:48:11.031858 26698 net.cpp:120] Setting up 3_conv3
I0126 21:48:11.033457 26698 net.cpp:127] Top shape: 350 64 8 8 (1433600)
I0126 21:48:11.033485 26698 layer_factory.hpp:74] Creating layer 3_relu3
I0126 21:48:11.033501 26698 net.cpp:90] Creating Layer 3_relu3
I0126 21:48:11.033514 26698 net.cpp:410] 3_relu3 <- 3_conv3
I0126 21:48:11.033529 26698 net.cpp:357] 3_relu3 -> 3_conv3 (in-place)
I0126 21:48:11.033542 26698 net.cpp:120] Setting up 3_relu3
I0126 21:48:11.033556 26698 net.cpp:127] Top shape: 350 64 8 8 (1433600)
I0126 21:48:11.033568 26698 layer_factory.hpp:74] Creating layer 3_pool3
I0126 21:48:11.033583 26698 net.cpp:90] Creating Layer 3_pool3
I0126 21:48:11.033596 26698 net.cpp:410] 3_pool3 <- 3_conv3
I0126 21:48:11.033609 26698 net.cpp:368] 3_pool3 -> 3_pool3
I0126 21:48:11.033623 26698 net.cpp:120] Setting up 3_pool3
I0126 21:48:11.033638 26698 net.cpp:127] Top shape: 350 64 4 4 (358400)
I0126 21:48:11.033651 26698 layer_factory.hpp:74] Creating layer 3_ip1
I0126 21:48:11.033665 26698 net.cpp:90] Creating Layer 3_ip1
I0126 21:48:11.033677 26698 net.cpp:410] 3_ip1 <- 3_pool3
I0126 21:48:11.033694 26698 net.cpp:368] 3_ip1 -> 3_ip1
I0126 21:48:11.033709 26698 net.cpp:120] Setting up 3_ip1
I0126 21:48:11.035367 26698 net.cpp:127] Top shape: 350 64 (22400)
I0126 21:48:11.035377 26698 layer_factory.hpp:74] Creating layer 3_ip2
I0126 21:48:11.035384 26698 net.cpp:90] Creating Layer 3_ip2
I0126 21:48:11.035388 26698 net.cpp:410] 3_ip2 <- 3_ip1
I0126 21:48:11.035394 26698 net.cpp:368] 3_ip2 -> 3_ip2
I0126 21:48:11.035401 26698 net.cpp:120] Setting up 3_ip2
I0126 21:48:11.035451 26698 net.cpp:127] Top shape: 350 10 (3500)
I0126 21:48:11.035470 26698 layer_factory.hpp:74] Creating layer 3_prob
I0126 21:48:11.035485 26698 net.cpp:90] Creating Layer 3_prob
I0126 21:48:11.035496 26698 net.cpp:410] 3_prob <- 3_ip2
I0126 21:48:11.035511 26698 net.cpp:368] 3_prob -> 3_prob
I0126 21:48:11.035528 26698 net.cpp:120] Setting up 3_prob
I0126 21:48:11.035544 26698 net.cpp:127] Top shape: 350 10 (3500)
I0126 21:48:11.035557 26698 layer_factory.hpp:74] Creating layer 4_conv1
I0126 21:48:11.035573 26698 net.cpp:90] Creating Layer 4_conv1
I0126 21:48:11.035584 26698 net.cpp:410] 4_conv1 <- data_cifar_0_split_3
I0126 21:48:11.035599 26698 net.cpp:368] 4_conv1 -> 4_conv1
I0126 21:48:11.035614 26698 net.cpp:120] Setting up 4_conv1
I0126 21:48:11.035712 26698 net.cpp:127] Top shape: 350 32 32 32 (11468800)
I0126 21:48:11.035732 26698 layer_factory.hpp:74] Creating layer 4_pool1
I0126 21:48:11.035745 26698 net.cpp:90] Creating Layer 4_pool1
I0126 21:48:11.035758 26698 net.cpp:410] 4_pool1 <- 4_conv1
I0126 21:48:11.035771 26698 net.cpp:368] 4_pool1 -> 4_pool1
I0126 21:48:11.035785 26698 net.cpp:120] Setting up 4_pool1
I0126 21:48:11.035801 26698 net.cpp:127] Top shape: 350 32 16 16 (2867200)
I0126 21:48:11.035815 26698 layer_factory.hpp:74] Creating layer 4_relu1
I0126 21:48:11.035828 26698 net.cpp:90] Creating Layer 4_relu1
I0126 21:48:11.035847 26698 net.cpp:410] 4_relu1 <- 4_pool1
I0126 21:48:11.035869 26698 net.cpp:357] 4_relu1 -> 4_pool1 (in-place)
I0126 21:48:11.035887 26698 net.cpp:120] Setting up 4_relu1
I0126 21:48:11.035900 26698 net.cpp:127] Top shape: 350 32 16 16 (2867200)
I0126 21:48:11.035912 26698 layer_factory.hpp:74] Creating layer 4_conv2
I0126 21:48:11.035928 26698 net.cpp:90] Creating Layer 4_conv2
I0126 21:48:11.035939 26698 net.cpp:410] 4_conv2 <- 4_pool1
I0126 21:48:11.035953 26698 net.cpp:368] 4_conv2 -> 4_conv2
I0126 21:48:11.035967 26698 net.cpp:120] Setting up 4_conv2
I0126 21:48:11.036707 26698 net.cpp:127] Top shape: 350 32 16 16 (2867200)
I0126 21:48:11.036720 26698 layer_factory.hpp:74] Creating layer 4_relu2
I0126 21:48:11.036726 26698 net.cpp:90] Creating Layer 4_relu2
I0126 21:48:11.036731 26698 net.cpp:410] 4_relu2 <- 4_conv2
I0126 21:48:11.036736 26698 net.cpp:357] 4_relu2 -> 4_conv2 (in-place)
I0126 21:48:11.036741 26698 net.cpp:120] Setting up 4_relu2
I0126 21:48:11.036746 26698 net.cpp:127] Top shape: 350 32 16 16 (2867200)
I0126 21:48:11.036749 26698 layer_factory.hpp:74] Creating layer 4_pool2
I0126 21:48:11.036756 26698 net.cpp:90] Creating Layer 4_pool2
I0126 21:48:11.036759 26698 net.cpp:410] 4_pool2 <- 4_conv2
I0126 21:48:11.036764 26698 net.cpp:368] 4_pool2 -> 4_pool2
I0126 21:48:11.036770 26698 net.cpp:120] Setting up 4_pool2
I0126 21:48:11.036777 26698 net.cpp:127] Top shape: 350 32 8 8 (716800)
I0126 21:48:11.036780 26698 layer_factory.hpp:74] Creating layer 4_conv3
I0126 21:48:11.036787 26698 net.cpp:90] Creating Layer 4_conv3
I0126 21:48:11.036792 26698 net.cpp:410] 4_conv3 <- 4_pool2
I0126 21:48:11.036797 26698 net.cpp:368] 4_conv3 -> 4_conv3
I0126 21:48:11.036803 26698 net.cpp:120] Setting up 4_conv3
I0126 21:48:11.038094 26698 net.cpp:127] Top shape: 350 64 8 8 (1433600)
I0126 21:48:11.038105 26698 layer_factory.hpp:74] Creating layer 4_relu3
I0126 21:48:11.038111 26698 net.cpp:90] Creating Layer 4_relu3
I0126 21:48:11.038115 26698 net.cpp:410] 4_relu3 <- 4_conv3
I0126 21:48:11.038121 26698 net.cpp:357] 4_relu3 -> 4_conv3 (in-place)
I0126 21:48:11.038126 26698 net.cpp:120] Setting up 4_relu3
I0126 21:48:11.038131 26698 net.cpp:127] Top shape: 350 64 8 8 (1433600)
I0126 21:48:11.038136 26698 layer_factory.hpp:74] Creating layer 4_pool3
I0126 21:48:11.038141 26698 net.cpp:90] Creating Layer 4_pool3
I0126 21:48:11.038143 26698 net.cpp:410] 4_pool3 <- 4_conv3
I0126 21:48:11.038148 26698 net.cpp:368] 4_pool3 -> 4_pool3
I0126 21:48:11.038154 26698 net.cpp:120] Setting up 4_pool3
I0126 21:48:11.038161 26698 net.cpp:127] Top shape: 350 64 4 4 (358400)
I0126 21:48:11.038163 26698 layer_factory.hpp:74] Creating layer 4_ip1
I0126 21:48:11.038170 26698 net.cpp:90] Creating Layer 4_ip1
I0126 21:48:11.038174 26698 net.cpp:410] 4_ip1 <- 4_pool3
I0126 21:48:11.038179 26698 net.cpp:368] 4_ip1 -> 4_ip1
I0126 21:48:11.038185 26698 net.cpp:120] Setting up 4_ip1
I0126 21:48:11.039783 26698 net.cpp:127] Top shape: 350 64 (22400)
I0126 21:48:11.039793 26698 layer_factory.hpp:74] Creating layer 4_ip2
I0126 21:48:11.039800 26698 net.cpp:90] Creating Layer 4_ip2
I0126 21:48:11.039804 26698 net.cpp:410] 4_ip2 <- 4_ip1
I0126 21:48:11.039811 26698 net.cpp:368] 4_ip2 -> 4_ip2
I0126 21:48:11.039819 26698 net.cpp:120] Setting up 4_ip2
I0126 21:48:11.039854 26698 net.cpp:127] Top shape: 350 10 (3500)
I0126 21:48:11.039876 26698 layer_factory.hpp:74] Creating layer 4_prob
I0126 21:48:11.039891 26698 net.cpp:90] Creating Layer 4_prob
I0126 21:48:11.039903 26698 net.cpp:410] 4_prob <- 4_ip2
I0126 21:48:11.039917 26698 net.cpp:368] 4_prob -> 4_prob
I0126 21:48:11.039932 26698 net.cpp:120] Setting up 4_prob
I0126 21:48:11.039949 26698 net.cpp:127] Top shape: 350 10 (3500)
I0126 21:48:11.039963 26698 layer_factory.hpp:74] Creating layer loss
I0126 21:48:11.039978 26698 net.cpp:90] Creating Layer loss
I0126 21:48:11.039990 26698 net.cpp:410] loss <- 1_prob
I0126 21:48:11.040002 26698 net.cpp:410] loss <- 2_prob
I0126 21:48:11.040014 26698 net.cpp:410] loss <- 3_prob
I0126 21:48:11.040027 26698 net.cpp:410] loss <- 4_prob
I0126 21:48:11.040043 26698 net.cpp:410] loss <- label
I0126 21:48:11.040066 26698 net.cpp:368] loss -> multiple-output loss
I0126 21:48:11.040081 26698 net.cpp:368] loss -> batch-instance-counts
I0126 21:48:11.040098 26698 net.cpp:368] loss -> train-instance-counts
I0126 21:48:11.040117 26698 net.cpp:120] Setting up loss
I0126 21:48:11.040140 26698 net.cpp:127] Top shape: 4 1 1 1 (4)
I0126 21:48:11.040155 26698 net.cpp:129]     with loss weight 1
I0126 21:48:11.040184 26698 net.cpp:127] Top shape: 4 1 1 1 (4)
I0126 21:48:11.040197 26698 net.cpp:127] Top shape: 4 1 1 1 (4)
I0126 21:48:11.040210 26698 net.cpp:192] loss needs backward computation.
I0126 21:48:11.040222 26698 net.cpp:192] 4_prob needs backward computation.
I0126 21:48:11.040235 26698 net.cpp:192] 4_ip2 needs backward computation.
I0126 21:48:11.040246 26698 net.cpp:192] 4_ip1 needs backward computation.
I0126 21:48:11.040257 26698 net.cpp:192] 4_pool3 needs backward computation.
I0126 21:48:11.040269 26698 net.cpp:192] 4_relu3 needs backward computation.
…
I0126 21:48:11.042094 26698 net.cpp:287] The NetState phase (1) differed from the phase (0) specified by a rule in layer loss
I0126 21:48:11.042284 26698 net.cpp:42] Initializing net from parameters: 
name: "CIFAR10_quick"
state {
  phase: TEST
}
layer {
  name: "cifar"
  type: "Data"
  top: "data"
  top: "label"
  include {
    phase: TEST
  }
  transform_param {
    mean_file: "/home/mike/ml_lab/mod/MCL_Caffe/examples/cifar10/mean.binaryproto"
  }
  data_param {
    source: "/home/mike/ml_lab/mod/MCL_Caffe/examples/cifar10/cifar10_test_lmdb"
    batch_size: 100
    backend: LMDB
  }
}
layer {
  name: "1_conv1"
  type: "Convolution"
  bottom: "data"
  top: "1_conv1"
  param {
    lr_mult: 1
  }
  param {
    lr_mult: 2
  }
  convolution_param {
    num_output: 32
    pad: 2
    kernel_size: 5
    stride: 1
    weight_filler {
      type: "gaussian"
      std: 0.0001
    }
    bias_filler {
      type: "constant"
    }
  }
}
layer {
  name: "1_pool1"
  type: "Pooling"
  bottom: "1_conv1"
  top: "1_pool1"
  pooling_param {
    pool: MAX
    kernel_size: 3
    stride: 2
  }
}
layer {
  name: "1_relu1"
  type: "ReLU"
  bottom: "1_pool1"
  top: "1_pool1"
}
layer {
  name: "1_conv2"
  type: "Convolution"
  bottom: "1_pool1"
  top: "1_conv2"
  param {
    lr_mult: 1
  }
  param {
    lr_mult: 2
  }
  convolution_param {
    num_output: 32
    pad: 2
    kernel_size: 5
    stride: 1
    weight_filler {
      type: "gaussian"
      std: 0.01
    }
    bias_filler {
      type: "constant"
    }
  }
}
layer {
  name: "1_relu2"
  type: "ReLU"
  bottom: "1_conv2"
  top: "1_conv2"
}
layer {
  name: "1_pool2"
  type: "Pooling"
  bottom: "1_conv2"
  top: "1_pool2"
  pooling_param {
    pool: AVE
    kernel_size: 3
    stride: 2
  }
}
layer {
  name: "1_conv3"
  type: "Convolution"
  bottom: "1_pool2"
  top: "1_conv3"
  param {
    lr_mult: 1
  }
  param {
    lr_mult: 2
  }
  convolution_param {
    num_output: 64
    pad: 2
    kernel_size: 5
    stride: 1
    weight_filler {
      type: "gaussian"
      std: 0.01
    }
    bias_filler {
      type: "constant"
    }
  }
}
layer {
  name: "1_relu3"
  type: "ReLU"
  bottom: "1_conv3"
  top: "1_conv3"
}
layer {
  name: "1_pool3"
  type: "Pooling"
  bottom: "1_conv3"
  top: "1_pool3"
  pooling_param {
    pool: AVE
    kernel_size: 3
    stride: 2
  }
}
layer {
  name: "1_ip1"
  type: "InnerProduct"
  bottom: "1_pool3"
  top: "1_ip1"
  param {
    lr_mult: 1
  }
  param {
    lr_mult: 2
  }
  inner_product_param {
    num_output: 64
    weight_filler {
      type: "gaussian"
      std: 0.1
    }
    bias_filler {
      type: "constant"
    }
  }
}
layer {
  name: "1_ip2"
  type: "InnerProduct"
  bottom: "1_ip1"
  top: "1_ip2"
  param {
    lr_mult: 1
  }
  param {
    lr_mult: 2
  }
  inner_product_param {
    num_output: 10
    weight_filler {
      type: "gaussian"
      std: 0.1
    }
    bias_filler {
      type: "constant"
    }
  }
}
layer {
  name: "1_prob"
  type: "Softmax"
  bottom: "1_ip2"
  top: "1_prob"
}
layer {
  name: "2_conv1"
  type: "Convolution"
  bottom: "data"
  top: "2_conv1"
  param {
    lr_mult: 1
  }
  param {
    lr_mult: 2
  }
  convolution_param {
    num_output: 32
    pad: 2
    kernel_size: 5
    stride: 1
    weight_filler {
      type: "gaussian"
      std: 0.0001
    }
    bias_filler {
      type: "constant"
    }
  }
}
layer {
  name: "2_pool1"
  type: "Pooling"
  bottom: "2_conv1"
  top: "2_pool1"
  pooling_param {
    pool: MAX
    kernel_size: 3
    stride: 2
  }
}
layer {
  name: "2_relu1"
  type: "ReLU"
  bottom: "2_pool1"
  top: "2_pool1"
}
layer {
  name: "2_conv2"
  type: "Convolution"
  bottom: "2_pool1"
  top: "2_conv2"
  param {
    lr_mult: 1
  }
  param {
    lr_mult: 2
  }
  convolution_param {
    num_output: 32
    pad: 2
    kernel_size: 5
    stride: 1
    weight_filler {
      type: "gaussian"
      std: 0.01
    }
    bias_filler {
      type: "constant"
    }
  }
}
layer {
  name: "2_relu2"
  type: "ReLU"
  bottom: "2_conv2"
  top: "2_conv2"
}
layer {
  name: "2_pool2"
  type: "Pooling"
  bottom: "2_conv2"
  top: "2_pool2"
  pooling_param {
    pool: AVE
    kernel_size: 3
    stride: 2
  }
}
layer {
  name: "2_conv3"
  type: "Convolution"
  bottom: "2_pool2"
  top: "2_conv3"
  param {
    lr_mult: 1
  }
  param {
    lr_mult: 2
  }
  convolution_param {
    num_output: 64
    pad: 2
    kernel_size: 5
    stride: 1
    weight_filler {
      type: "gaussian"
      std: 0.01
    }
    bias_filler {
      type: "constant"
    }
  }
}
layer {
  name: "2_relu3"
  type: "ReLU"
  bottom: "2_conv3"
  top: "2_conv3"
}
layer {
  name: "2_pool3"
  type: "Pooling"
  bottom: "2_conv3"
  top: "2_pool3"
  pooling_param {
    pool: AVE
    kernel_size: 3
    stride: 2
  }
}
layer {
  name: "2_ip1"
  type: "InnerProduct"
  bottom: "2_pool3"
  top: "2_ip1"
  param {
    lr_mult: 1
  }
  param {
    lr_mult: 2
  }
  inner_product_param {
    num_output: 64
    weight_filler {
      type: "gaussian"
      std: 0.1
    }
    bias_filler {
      type: "constant"
    }
  }
}
layer {
  name: "2_ip2"
  type: "InnerProduct"
  bottom: "2_ip1"
  top: "2_ip2"
  param {
    lr_mult: 1
  }
  param {
    lr_mult: 2
  }
  inner_product_param {
    num_output: 10
    weight_filler {
      type: "gaussian"
      std: 0.1
    }
    bias_filler {
      type: "constant"
    }
  }
}
layer {
  name: "2_prob"
  type: "Softmax"
  bottom: "2_ip2"
  top: "2_prob"
}
layer {
  name: "3_conv1"
  type: "Convolution"
  bottom: "data"
  top: "3_conv1"
  param {
    lr_mult: 1
  }
  param {
    lr_mult: 2
  }
  convolution_param {
    num_output: 32
    pad: 2
    kernel_size: 5
    stride: 1
    weight_filler {
      type: "gaussian"
      std: 0.0001
    }
    bias_filler {
      type: "constant"
    }
  }
}
layer {
  name: "3_pool1"
  type: "Pooling"
  bottom: "3_conv1"
  top: "3_pool1"
  pooling_param {
    pool: MAX
    kernel_size: 3
    stride: 2
  }
}
layer {
  name: "3_relu1"
  type: "ReLU"
  bottom: "3_pool1"
  top: "3_pool1"
}
layer {
  name: "3_conv2"
  type: "Convolution"
  bottom: "3_pool1"
  top: "3_conv2"
  param {
    lr_mult: 1
  }
  param {
    lr_mult: 2
  }
  convolution_param {
    num_output: 32
    pad: 2
    kernel_size: 5
    stride: 1
    weight_filler {
      type: "gaussian"
      std: 0.01
    }
    bias_filler {
      type: "constant"
    }
  }
}
layer {
  name: "3_relu2"
  type: "ReLU"
  bottom: "3_conv2"
  top: "3_conv2"
}
layer {
  name: "3_pool2"
  type: "Pooling"
  bottom: "3_conv2"
  top: "3_pool2"
  pooling_param {
    pool: AVE
    kernel_size: 3
    stride: 2
  }
}
layer {
  name: "3_conv3"
  type: "Convolution"
  bottom: "3_pool2"
  top: "3_conv3"
  param {
    lr_mult: 1
  }
  param {
    lr_mult: 2
  }
  convolution_param {
    num_output: 64
    pad: 2
    kernel_size: 5
    stride: 1
    weight_filler {
      type: "gaussian"
      std: 0.01
    }
    bias_filler {
      type: "constant"
    }
  }
}
layer {
  name: "3_relu3"
  type: "ReLU"
  bottom: "3_conv3"
  top: "3_conv3"
}
layer {
  name: "3_pool3"
  type: "Pooling"
  bottom: "3_conv3"
  top: "3_pool3"
  pooling_param {
    pool: AVE
    kernel_size: 3
    stride: 2
  }
}
layer {
  name: "3_ip1"
  type: "InnerProduct"
  bottom: "3_pool3"
  top: "3_ip1"
  param {
    lr_mult: 1
  }
  param {
    lr_mult: 2
  }
  inner_product_param {
    num_output: 64
    weight_filler {
      type: "gaussian"
      std: 0.1
    }
    bias_filler {
      type: "constant"
    }
  }
}
layer {
  name: "3_ip2"
  type: "InnerProduct"
  bottom: "3_ip1"
  top: "3_ip2"
  param {
    lr_mult: 1
  }
  param {
    lr_mult: 2
  }
  inner_product_param {
    num_output: 10
    weight_filler {
      type: "gaussian"
      std: 0.1
    }
    bias_filler {
      type: "constant"
    }
  }
}
layer {
  name: "3_prob"
  type: "Softmax"
  bottom: "3_ip2"
  top: "3_prob"
}
layer {
  name: "4_conv1"
  type: "Convolution"
  bottom: "data"
  top: "4_conv1"
  param {
    lr_mult: 1
  }
  param {
    lr_mult: 2
  }
  convolution_param {
    num_output: 32
    pad: 2
    kernel_size: 5
    stride: 1
    weight_filler {
      type: "gaussian"
      std: 0.0001
    }
    bias_filler {
      type: "constant"
    }
  }
}
layer {
  name: "4_pool1"
  type: "Pooling"
  bottom: "4_conv1"
  top: "4_pool1"
  pooling_param {
    pool: MAX
    kernel_size: 3
    stride: 2
  }
}
layer {
  name: "4_relu1"
  type: "ReLU"
  bottom: "4_pool1"
  top: "4_pool1"
}
layer {
  name: "4_conv2"
  type: "Convolution"
  bottom: "4_pool1"
  top: "4_conv2"
  param {
    lr_mult: 1
  }
  param {
    lr_mult: 2
  }
  convolution_param {
    num_output: 32
    pad: 2
    kernel_size: 5
    stride: 1
    weight_filler {
      type: "gaussian"
      std: 0.01
    }
    bias_filler {
      type: "constant"
    }
  }
}
layer {
  name: "4_relu2"
  type: "ReLU"
  bottom: "4_conv2"
  top: "4_conv2"
}
layer {
  name: "4_pool2"
  type: "Pooling"
  bottom: "4_conv2"
  top: "4_pool2"
  pooling_param {
    pool: AVE
    kernel_size: 3
    stride: 2
  }
}
layer {
  name: "4_conv3"
  type: "Convolution"
  bottom: "4_pool2"
  top: "4_conv3"
  param {
    lr_mult: 1
  }
  param {
    lr_mult: 2
  }
  convolution_param {
    num_output: 64
    pad: 2
    kernel_size: 5
    stride: 1
    weight_filler {
      type: "gaussian"
      std: 0.01
    }
    bias_filler {
      type: "constant"
    }
  }
}
layer {
  name: "4_relu3"
  type: "ReLU"
  bottom: "4_conv3"
  top: "4_conv3"
}
layer {
  name: "4_pool3"
  type: "Pooling"
  bottom: "4_conv3"
  top: "4_pool3"
  pooling_param {
    pool: AVE
    kernel_size: 3
    stride: 2
  }
}
layer {
  name: "4_ip1"
  type: "InnerProduct"
  bottom: "4_pool3"
  top: "4_ip1"
  param {
    lr_mult: 1
  }
  param {
    lr_mult: 2
  }
  inner_product_param {
    num_output: 64
    weight_filler {
      type: "gaussian"
      std: 0.1
    }
    bias_filler {
      type: "constant"
    }
  }
}
layer {
  name: "4_ip2"
  type: "InnerProduct"
  bottom: "4_ip1"
  top: "4_ip2"
  param {
    lr_mult: 1
  }
  param {
    lr_mult: 2
  }
  inner_product_param {
    num_output: 10
    weight_filler {
      type: "gaussian"
      std: 0.1
    }
    bias_filler {
      type: "constant"
    }
  }
}
layer {
  name: "4_prob"
  type: "Softmax"
  bottom: "4_ip2"
  top: "4_prob"
}
layer {
  name: "1_accuracy"
  type: "Accuracy"
  bottom: "1_prob"
  bottom: "label"
  top: "1_accuracy"
  include {
    phase: TEST
  }
}
layer {
  name: "2_accuracy"
  type: "Accuracy"
  bottom: "2_prob"
  bottom: "label"
  top: "2_accuracy"
  include {
    phase: TEST
  }
}
layer {
  name: "3_accuracy"
  type: "Accuracy"
  bottom: "3_prob"
  bottom: "label"
  top: "3_accuracy"
  include {
    phase: TEST
  }
}
layer {
  name: "4_accuracy"
  type: "Accuracy"
  bottom: "4_prob"
  bottom: "label"
  top: "4_accuracy"
  include {
    phase: TEST
  }
}
layer {
  name: "accuracy"
  type: "OracleAccuracy"
  bottom: "1_prob"
  bottom: "2_prob"
  bottom: "3_prob"
  bottom: "4_prob"
  bottom: "label"
  top: "oracle accuracy"
  include {
    phase: TEST
  }
}
I0126 21:48:11.042527 26698 layer_factory.hpp:74] Creating layer cifar
I0126 21:48:11.042542 26698 net.cpp:90] Creating Layer cifar
I0126 21:48:11.042547 26698 net.cpp:368] cifar -> data
I0126 21:48:11.042557 26698 net.cpp:368] cifar -> label
I0126 21:48:11.042562 26698 net.cpp:120] Setting up cifar
I0126 21:48:11.042593 26698 db.cpp:34] Opened lmdb /home/mike/ml_lab/mod/MCL_Caffe/examples/cifar10/cifar10_test_lmdb
I0126 21:48:11.042620 26698 data_layer.cpp:67] output data size: 100,3,32,32
I0126 21:48:11.042626 26698 data_transformer.cpp:22] Loading mean file from: /home/mike/ml_lab/mod/MCL_Caffe/examples/cifar10/mean.binaryproto
I0126 21:48:11.043002 26698 net.cpp:127] Top shape: 100 3 32 32 (307200)
I0126 21:48:11.043009 26698 net.cpp:127] Top shape: 100 (100)
I0126 21:48:11.043014 26698 layer_factory.hpp:74] Creating layer data_cifar_0_split
I0126 21:48:11.043020 26698 net.cpp:90] Creating Layer data_cifar_0_split
I0126 21:48:11.043023 26698 net.cpp:410] data_cifar_0_split <- data
I0126 21:48:11.043028 26698 net.cpp:368] data_cifar_0_split -> data_cifar_0_split_0
I0126 21:48:11.043035 26698 net.cpp:368] data_cifar_0_split -> data_cifar_0_split_1
I0126 21:48:11.043040 26698 net.cpp:368] data_cifar_0_split -> data_cifar_0_split_2
I0126 21:48:11.043046 26698 net.cpp:368] data_cifar_0_split -> data_cifar_0_split_3
I0126 21:48:11.043051 26698 net.cpp:120] Setting up data_cifar_0_split
I0126 21:48:11.043057 26698 net.cpp:127] Top shape: 100 3 32 32 (307200)
I0126 21:48:11.043061 26698 net.cpp:127] Top shape: 100 3 32 32 (307200)
I0126 21:48:11.043066 26698 net.cpp:127] Top shape: 100 3 32 32 (307200)
I0126 21:48:11.043071 26698 net.cpp:127] Top shape: 100 3 32 32 (307200)
I0126 21:48:11.043073 26698 layer_factory.hpp:74] Creating layer label_cifar_1_split
I0126 21:48:11.043078 26698 net.cpp:90] Creating Layer label_cifar_1_split
I0126 21:48:11.043081 26698 net.cpp:410] label_cifar_1_split <- label
I0126 21:48:11.043087 26698 net.cpp:368] label_cifar_1_split -> label_cifar_1_split_0
I0126 21:48:11.043092 26698 net.cpp:368] label_cifar_1_split -> label_cifar_1_split_1
I0126 21:48:11.043097 26698 net.cpp:368] label_cifar_1_split -> label_cifar_1_split_2
I0126 21:48:11.043103 26698 net.cpp:368] label_cifar_1_split -> label_cifar_1_split_3
I0126 21:48:11.043108 26698 net.cpp:368] label_cifar_1_split -> label_cifar_1_split_4
I0126 21:48:11.043112 26698 net.cpp:120] Setting up label_cifar_1_split
I0126 21:48:11.043118 26698 net.cpp:127] Top shape: 100 (100)
I0126 21:48:11.043123 26698 net.cpp:127] Top shape: 100 (100)
I0126 21:48:11.043128 26698 net.cpp:127] Top shape: 100 (100)
I0126 21:48:11.043130 26698 net.cpp:127] Top shape: 100 (100)
I0126 21:48:11.043134 26698 net.cpp:127] Top shape: 100 (100)
I0126 21:48:11.043138 26698 layer_factory.hpp:74] Creating layer 1_conv1
I0126 21:48:11.043143 26698 net.cpp:90] Creating Layer 1_conv1
I0126 21:48:11.043146 26698 net.cpp:410] 1_conv1 <- data_cifar_0_split_0
I0126 21:48:11.043153 26698 net.cpp:368] 1_conv1 -> 1_conv1
I0126 21:48:11.043159 26698 net.cpp:120] Setting up 1_conv1
I0126 21:48:11.043244 26698 net.cpp:127] Top shape: 100 32 32 32 (3276800)
I0126 21:48:11.043252 26698 layer_factory.hpp:74] Creating layer 1_pool1
I0126 21:48:11.043257 26698 net.cpp:90] Creating Layer 1_pool1
I0126 21:48:11.043261 26698 net.cpp:410] 1_pool1 <- 1_conv1
I0126 21:48:11.043267 26698 net.cpp:368] 1_pool1 -> 1_pool1
I0126 21:48:11.043272 26698 net.cpp:120] Setting up 1_pool1
I0126 21:48:11.043278 26698 net.cpp:127] Top shape: 100 32 16 16 (819200)
I0126 21:48:11.043282 26698 layer_factory.hpp:74] Creating layer 1_relu1
I0126 21:48:11.043287 26698 net.cpp:90] Creating Layer 1_relu1
I0126 21:48:11.043289 26698 net.cpp:410] 1_relu1 <- 1_pool1
I0126 21:48:11.043293 26698 net.cpp:357] 1_relu1 -> 1_pool1 (in-place)
I0126 21:48:11.043298 26698 net.cpp:120] Setting up 1_relu1
I0126 21:48:11.043303 26698 net.cpp:127] Top shape: 100 32 16 16 (819200)
I0126 21:48:11.043305 26698 layer_factory.hpp:74] Creating layer 1_conv2
I0126 21:48:11.043310 26698 net.cpp:90] Creating Layer 1_conv2
I0126 21:48:11.043313 26698 net.cpp:410] 1_conv2 <- 1_pool1
I0126 21:48:11.043323 26698 net.cpp:368] 1_conv2 -> 1_conv2
I0126 21:48:11.043335 26698 net.cpp:120] Setting up 1_conv2
I0126 21:48:11.044137 26698 net.cpp:127] Top shape: 100 32 16 16 (819200)
I0126 21:48:11.044144 26698 layer_factory.hpp:74] Creating layer 1_relu2
I0126 21:48:11.044149 26698 net.cpp:90] Creating Layer 1_relu2
I0126 21:48:11.044152 26698 net.cpp:410] 1_relu2 <- 1_conv2
I0126 21:48:11.044157 26698 net.cpp:357] 1_relu2 -> 1_conv2 (in-place)
I0126 21:48:11.044162 26698 net.cpp:120] Setting up 1_relu2
I0126 21:48:11.044167 26698 net.cpp:127] Top shape: 100 32 16 16 (819200)
I0126 21:48:11.044169 26698 layer_factory.hpp:74] Creating layer 1_pool2
I0126 21:48:11.044175 26698 net.cpp:90] Creating Layer 1_pool2
I0126 21:48:11.044178 26698 net.cpp:410] 1_pool2 <- 1_conv2
I0126 21:48:11.044183 26698 net.cpp:368] 1_pool2 -> 1_pool2
I0126 21:48:11.044188 26698 net.cpp:120] Setting up 1_pool2
I0126 21:48:11.044193 26698 net.cpp:127] Top shape: 100 32 8 8 (204800)
I0126 21:48:11.044198 26698 layer_factory.hpp:74] Creating layer 1_conv3
I0126 21:48:11.044203 26698 net.cpp:90] Creating Layer 1_conv3
I0126 21:48:11.044206 26698 net.cpp:410] 1_conv3 <- 1_pool2
I0126 21:48:11.044211 26698 net.cpp:368] 1_conv3 -> 1_conv3
I0126 21:48:11.044216 26698 net.cpp:120] Setting up 1_conv3
I0126 21:48:11.045814 26698 net.cpp:127] Top shape: 100 64 8 8 (409600)
I0126 21:48:11.045825 26698 layer_factory.hpp:74] Creating layer 1_relu3
I0126 21:48:11.045831 26698 net.cpp:90] Creating Layer 1_relu3
I0126 21:48:11.045835 26698 net.cpp:410] 1_relu3 <- 1_conv3
I0126 21:48:11.045840 26698 net.cpp:357] 1_relu3 -> 1_conv3 (in-place)
I0126 21:48:11.045845 26698 net.cpp:120] Setting up 1_relu3
I0126 21:48:11.045850 26698 net.cpp:127] Top shape: 100 64 8 8 (409600)
I0126 21:48:11.045852 26698 layer_factory.hpp:74] Creating layer 1_pool3
I0126 21:48:11.045857 26698 net.cpp:90] Creating Layer 1_pool3
I0126 21:48:11.045861 26698 net.cpp:410] 1_pool3 <- 1_conv3
I0126 21:48:11.045866 26698 net.cpp:368] 1_pool3 -> 1_pool3
I0126 21:48:11.045873 26698 net.cpp:120] Setting up 1_pool3
I0126 21:48:11.045879 26698 net.cpp:127] Top shape: 100 64 4 4 (102400)
I0126 21:48:11.045883 26698 layer_factory.hpp:74] Creating layer 1_ip1
I0126 21:48:11.045888 26698 net.cpp:90] Creating Layer 1_ip1
I0126 21:48:11.045892 26698 net.cpp:410] 1_ip1 <- 1_pool3
I0126 21:48:11.045898 26698 net.cpp:368] 1_ip1 -> 1_ip1
I0126 21:48:11.045903 26698 net.cpp:120] Setting up 1_ip1
I0126 21:48:11.047914 26698 net.cpp:127] Top shape: 100 64 (6400)
I0126 21:48:11.047924 26698 layer_factory.hpp:74] Creating layer 1_ip2
I0126 21:48:11.047931 26698 net.cpp:90] Creating Layer 1_ip2
I0126 21:48:11.047936 26698 net.cpp:410] 1_ip2 <- 1_ip1
I0126 21:48:11.047943 26698 net.cpp:368] 1_ip2 -> 1_ip2
I0126 21:48:11.047950 26698 net.cpp:120] Setting up 1_ip2
I0126 21:48:11.047982 26698 net.cpp:127] Top shape: 100 10 (1000)
I0126 21:48:11.048007 26698 layer_factory.hpp:74] Creating layer 1_prob
I0126 21:48:11.048023 26698 net.cpp:90] Creating Layer 1_prob
I0126 21:48:11.048035 26698 net.cpp:410] 1_prob <- 1_ip2
I0126 21:48:11.048048 26698 net.cpp:368] 1_prob -> 1_prob
I0126 21:48:11.048064 26698 net.cpp:120] Setting up 1_prob
I0126 21:48:11.048079 26698 net.cpp:127] Top shape: 100 10 (1000)
I0126 21:48:11.048092 26698 layer_factory.hpp:74] Creating layer 1_prob_1_prob_0_split
I0126 21:48:11.048106 26698 net.cpp:90] Creating Layer 1_prob_1_prob_0_split
I0126 21:48:11.048118 26698 net.cpp:410] 1_prob_1_prob_0_split <- 1_prob
I0126 21:48:11.048131 26698 net.cpp:368] 1_prob_1_prob_0_split -> 1_prob_1_prob_0_split_0
I0126 21:48:11.048146 26698 net.cpp:368] 1_prob_1_prob_0_split -> 1_prob_1_prob_0_split_1
I0126 21:48:11.048161 26698 net.cpp:120] Setting up 1_prob_1_prob_0_split
I0126 21:48:11.048177 26698 net.cpp:127] Top shape: 100 10 (1000)
I0126 21:48:11.048189 26698 net.cpp:127] Top shape: 100 10 (1000)
I0126 21:48:11.048202 26698 layer_factory.hpp:74] Creating layer 2_conv1
I0126 21:48:11.048216 26698 net.cpp:90] Creating Layer 2_conv1
I0126 21:48:11.048229 26698 net.cpp:410] 2_conv1 <- data_cifar_0_split_1
I0126 21:48:11.048251 26698 net.cpp:368] 2_conv1 -> 2_conv1
I0126 21:48:11.048274 26698 net.cpp:120] Setting up 2_conv1
I0126 21:48:11.048372 26698 net.cpp:127] Top shape: 100 32 32 32 (3276800)
I0126 21:48:11.048389 26698 layer_factory.hpp:74] Creating layer 2_pool1
I0126 21:48:11.048403 26698 net.cpp:90] Creating Layer 2_pool1
I0126 21:48:11.048416 26698 net.cpp:410] 2_pool1 <- 2_conv1
I0126 21:48:11.048430 26698 net.cpp:368] 2_pool1 -> 2_pool1
I0126 21:48:11.048445 26698 net.cpp:120] Setting up 2_pool1
I0126 21:48:11.048461 26698 net.cpp:127] Top shape: 100 32 16 16 (819200)
I0126 21:48:11.048475 26698 layer_factory.hpp:74] Creating layer 2_relu1
I0126 21:48:11.048490 26698 net.cpp:90] Creating Layer 2_relu1
I0126 21:48:11.048502 26698 net.cpp:410] 2_relu1 <- 2_pool1
I0126 21:48:11.048517 26698 net.cpp:357] 2_relu1 -> 2_pool1 (in-place)
I0126 21:48:11.048533 26698 net.cpp:120] Setting up 2_relu1
I0126 21:48:11.048547 26698 net.cpp:127] Top shape: 100 32 16 16 (819200)
I0126 21:48:11.048559 26698 layer_factory.hpp:74] Creating layer 2_conv2
I0126 21:48:11.048573 26698 net.cpp:90] Creating Layer 2_conv2
I0126 21:48:11.048585 26698 net.cpp:410] 2_conv2 <- 2_pool1
I0126 21:48:11.048602 26698 net.cpp:368] 2_conv2 -> 2_conv2
I0126 21:48:11.048617 26698 net.cpp:120] Setting up 2_conv2
I0126 21:48:11.049381 26698 net.cpp:127] Top shape: 100 32 16 16 (819200)
I0126 21:48:11.049391 26698 layer_factory.hpp:74] Creating layer 2_relu2
I0126 21:48:11.049396 26698 net.cpp:90] Creating Layer 2_relu2
I0126 21:48:11.049399 26698 net.cpp:410] 2_relu2 <- 2_conv2
I0126 21:48:11.049404 26698 net.cpp:357] 2_relu2 -> 2_conv2 (in-place)
I0126 21:48:11.049410 26698 net.cpp:120] Setting up 2_relu2
I0126 21:48:11.049415 26698 net.cpp:127] Top shape: 100 32 16 16 (819200)
I0126 21:48:11.049418 26698 layer_factory.hpp:74] Creating layer 2_pool2
I0126 21:48:11.049424 26698 net.cpp:90] Creating Layer 2_pool2
I0126 21:48:11.049428 26698 net.cpp:410] 2_pool2 <- 2_conv2
I0126 21:48:11.049433 26698 net.cpp:368] 2_pool2 -> 2_pool2
I0126 21:48:11.049438 26698 net.cpp:120] Setting up 2_pool2
I0126 21:48:11.049444 26698 net.cpp:127] Top shape: 100 32 8 8 (204800)
I0126 21:48:11.049448 26698 layer_factory.hpp:74] Creating layer 2_conv3
I0126 21:48:11.049455 26698 net.cpp:90] Creating Layer 2_conv3
I0126 21:48:11.049458 26698 net.cpp:410] 2_conv3 <- 2_pool2
I0126 21:48:11.049464 26698 net.cpp:368] 2_conv3 -> 2_conv3
I0126 21:48:11.049469 26698 net.cpp:120] Setting up 2_conv3
I0126 21:48:11.050748 26698 net.cpp:127] Top shape: 100 64 8 8 (409600)
I0126 21:48:11.050758 26698 layer_factory.hpp:74] Creating layer 2_relu3
I0126 21:48:11.050765 26698 net.cpp:90] Creating Layer 2_relu3
I0126 21:48:11.050767 26698 net.cpp:410] 2_relu3 <- 2_conv3
I0126 21:48:11.050773 26698 net.cpp:357] 2_relu3 -> 2_conv3 (in-place)
I0126 21:48:11.050778 26698 net.cpp:120] Setting up 2_relu3
I0126 21:48:11.050784 26698 net.cpp:127] Top shape: 100 64 8 8 (409600)
I0126 21:48:11.050787 26698 layer_factory.hpp:74] Creating layer 2_pool3
I0126 21:48:11.050792 26698 net.cpp:90] Creating Layer 2_pool3
I0126 21:48:11.050796 26698 net.cpp:410] 2_pool3 <- 2_conv3
I0126 21:48:11.050801 26698 net.cpp:368] 2_pool3 -> 2_pool3
I0126 21:48:11.050806 26698 net.cpp:120] Setting up 2_pool3
I0126 21:48:11.050812 26698 net.cpp:127] Top shape: 100 64 4 4 (102400)
I0126 21:48:11.050814 26698 layer_factory.hpp:74] Creating layer 2_ip1
I0126 21:48:11.050822 26698 net.cpp:90] Creating Layer 2_ip1
I0126 21:48:11.050825 26698 net.cpp:410] 2_ip1 <- 2_pool3
I0126 21:48:11.050830 26698 net.cpp:368] 2_ip1 -> 2_ip1
I0126 21:48:11.050837 26698 net.cpp:120] Setting up 2_ip1
I0126 21:48:11.052429 26698 net.cpp:127] Top shape: 100 64 (6400)
I0126 21:48:11.052440 26698 layer_factory.hpp:74] Creating layer 2_ip2
I0126 21:48:11.052448 26698 net.cpp:90] Creating Layer 2_ip2
I0126 21:48:11.052453 26698 net.cpp:410] 2_ip2 <- 2_ip1
I0126 21:48:11.052459 26698 net.cpp:368] 2_ip2 -> 2_ip2
I0126 21:48:11.052466 26698 net.cpp:120] Setting up 2_ip2
I0126 21:48:11.052512 26698 net.cpp:127] Top shape: 100 10 (1000)
I0126 21:48:11.052538 26698 layer_factory.hpp:74] Creating layer 2_prob
I0126 21:48:11.052561 26698 net.cpp:90] Creating Layer 2_prob
I0126 21:48:11.052573 26698 net.cpp:410] 2_prob <- 2_ip2
I0126 21:48:11.052587 26698 net.cpp:368] 2_prob -> 2_prob
I0126 21:48:11.052601 26698 net.cpp:120] Setting up 2_prob
I0126 21:48:11.052618 26698 net.cpp:127] Top shape: 100 10 (1000)
I0126 21:48:11.052629 26698 layer_factory.hpp:74] Creating layer 2_prob_2_prob_0_split
I0126 21:48:11.052642 26698 net.cpp:90] Creating Layer 2_prob_2_prob_0_split
I0126 21:48:11.052654 26698 net.cpp:410] 2_prob_2_prob_0_split <- 2_prob
I0126 21:48:11.052669 26698 net.cpp:368] 2_prob_2_prob_0_split -> 2_prob_2_prob_0_split_0
I0126 21:48:11.052683 26698 net.cpp:368] 2_prob_2_prob_0_split -> 2_prob_2_prob_0_split_1
I0126 21:48:11.052701 26698 net.cpp:120] Setting up 2_prob_2_prob_0_split
I0126 21:48:11.052716 26698 net.cpp:127] Top shape: 100 10 (1000)
I0126 21:48:11.052731 26698 net.cpp:127] Top shape: 100 10 (1000)
I0126 21:48:11.052743 26698 layer_factory.hpp:74] Creating layer 3_conv1
I0126 21:48:11.052758 26698 net.cpp:90] Creating Layer 3_conv1
I0126 21:48:11.052772 26698 net.cpp:410] 3_conv1 <- data_cifar_0_split_2
I0126 21:48:11.052788 26698 net.cpp:368] 3_conv1 -> 3_conv1
I0126 21:48:11.052803 26698 net.cpp:120] Setting up 3_conv1
I0126 21:48:11.052901 26698 net.cpp:127] Top shape: 100 32 32 32 (3276800)
I0126 21:48:11.052918 26698 layer_factory.hpp:74] Creating layer 3_pool1
I0126 21:48:11.052932 26698 net.cpp:90] Creating Layer 3_pool1
I0126 21:48:11.052947 26698 net.cpp:410] 3_pool1 <- 3_conv1
I0126 21:48:11.052963 26698 net.cpp:368] 3_pool1 -> 3_pool1
I0126 21:48:11.052980 26698 net.cpp:120] Setting up 3_pool1
I0126 21:48:11.052997 26698 net.cpp:127] Top shape: 100 32 16 16 (819200)
I0126 21:48:11.053009 26698 layer_factory.hpp:74] Creating layer 3_relu1
I0126 21:48:11.053022 26698 net.cpp:90] Creating Layer 3_relu1
I0126 21:48:11.053035 26698 net.cpp:410] 3_relu1 <- 3_pool1
I0126 21:48:11.053047 26698 net.cpp:357] 3_relu1 -> 3_pool1 (in-place)
I0126 21:48:11.053059 26698 net.cpp:120] Setting up 3_relu1
I0126 21:48:11.053073 26698 net.cpp:127] Top shape: 100 32 16 16 (819200)
I0126 21:48:11.053086 26698 layer_factory.hpp:74] Creating layer 3_conv2
I0126 21:48:11.053100 26698 net.cpp:90] Creating Layer 3_conv2
I0126 21:48:11.053112 26698 net.cpp:410] 3_conv2 <- 3_pool1
I0126 21:48:11.053133 26698 net.cpp:368] 3_conv2 -> 3_conv2
I0126 21:48:11.053150 26698 net.cpp:120] Setting up 3_conv2
I0126 21:48:11.053951 26698 net.cpp:127] Top shape: 100 32 16 16 (819200)
I0126 21:48:11.053959 26698 layer_factory.hpp:74] Creating layer 3_relu2
I0126 21:48:11.053964 26698 net.cpp:90] Creating Layer 3_relu2
I0126 21:48:11.053969 26698 net.cpp:410] 3_relu2 <- 3_conv2
I0126 21:48:11.053974 26698 net.cpp:357] 3_relu2 -> 3_conv2 (in-place)
I0126 21:48:11.053993 26698 net.cpp:120] Setting up 3_relu2
I0126 21:48:11.054009 26698 net.cpp:127] Top shape: 100 32 16 16 (819200)
I0126 21:48:11.054023 26698 layer_factory.hpp:74] Creating layer 3_pool2
I0126 21:48:11.054038 26698 net.cpp:90] Creating Layer 3_pool2
I0126 21:48:11.054050 26698 net.cpp:410] 3_pool2 <- 3_conv2
I0126 21:48:11.054064 26698 net.cpp:368] 3_pool2 -> 3_pool2
I0126 21:48:11.054080 26698 net.cpp:120] Setting up 3_pool2
I0126 21:48:11.054096 26698 net.cpp:127] Top shape: 100 32 8 8 (204800)
I0126 21:48:11.054108 26698 layer_factory.hpp:74] Creating layer 3_conv3
I0126 21:48:11.054123 26698 net.cpp:90] Creating Layer 3_conv3
I0126 21:48:11.054134 26698 net.cpp:410] 3_conv3 <- 3_pool2
I0126 21:48:11.054148 26698 net.cpp:368] 3_conv3 -> 3_conv3
I0126 21:48:11.054162 26698 net.cpp:120] Setting up 3_conv3
I0126 21:48:11.055397 26698 net.cpp:127] Top shape: 100 64 8 8 (409600)
I0126 21:48:11.055407 26698 layer_factory.hpp:74] Creating layer 3_relu3
I0126 21:48:11.055411 26698 net.cpp:90] Creating Layer 3_relu3
I0126 21:48:11.055416 26698 net.cpp:410] 3_relu3 <- 3_conv3
I0126 21:48:11.055423 26698 net.cpp:357] 3_relu3 -> 3_conv3 (in-place)
I0126 21:48:11.055440 26698 net.cpp:120] Setting up 3_relu3
I0126 21:48:11.055460 26698 net.cpp:127] Top shape: 100 64 8 8 (409600)
I0126 21:48:11.055480 26698 layer_factory.hpp:74] Creating layer 3_pool3
I0126 21:48:11.055493 26698 net.cpp:90] Creating Layer 3_pool3
I0126 21:48:11.055506 26698 net.cpp:410] 3_pool3 <- 3_conv3
I0126 21:48:11.055521 26698 net.cpp:368] 3_pool3 -> 3_pool3
I0126 21:48:11.055536 26698 net.cpp:120] Setting up 3_pool3
I0126 21:48:11.055552 26698 net.cpp:127] Top shape: 100 64 4 4 (102400)
I0126 21:48:11.055565 26698 layer_factory.hpp:74] Creating layer 3_ip1
I0126 21:48:11.055582 26698 net.cpp:90] Creating Layer 3_ip1
I0126 21:48:11.055594 26698 net.cpp:410] 3_ip1 <- 3_pool3
I0126 21:48:11.055610 26698 net.cpp:368] 3_ip1 -> 3_ip1
I0126 21:48:11.055626 26698 net.cpp:120] Setting up 3_ip1
I0126 21:48:11.057188 26698 net.cpp:127] Top shape: 100 64 (6400)
I0126 21:48:11.057198 26698 layer_factory.hpp:74] Creating layer 3_ip2
I0126 21:48:11.057206 26698 net.cpp:90] Creating Layer 3_ip2
I0126 21:48:11.057222 26698 net.cpp:410] 3_ip2 <- 3_ip1
I0126 21:48:11.057240 26698 net.cpp:368] 3_ip2 -> 3_ip2
I0126 21:48:11.057256 26698 net.cpp:120] Setting up 3_ip2
I0126 21:48:11.057297 26698 net.cpp:127] Top shape: 100 10 (1000)
I0126 21:48:11.057315 26698 layer_factory.hpp:74] Creating layer 3_prob
I0126 21:48:11.057330 26698 net.cpp:90] Creating Layer 3_prob
I0126 21:48:11.057343 26698 net.cpp:410] 3_prob <- 3_ip2
I0126 21:48:11.057355 26698 net.cpp:368] 3_prob -> 3_prob
I0126 21:48:11.057369 26698 net.cpp:120] Setting up 3_prob
I0126 21:48:11.057384 26698 net.cpp:127] Top shape: 100 10 (1000)
I0126 21:48:11.057397 26698 layer_factory.hpp:74] Creating layer 3_prob_3_prob_0_split
I0126 21:48:11.057410 26698 net.cpp:90] Creating Layer 3_prob_3_prob_0_split
I0126 21:48:11.057421 26698 net.cpp:410] 3_prob_3_prob_0_split <- 3_prob
I0126 21:48:11.057436 26698 net.cpp:368] 3_prob_3_prob_0_split -> 3_prob_3_prob_0_split_0
I0126 21:48:11.057451 26698 net.cpp:368] 3_prob_3_prob_0_split -> 3_prob_3_prob_0_split_1
I0126 21:48:11.057467 26698 net.cpp:120] Setting up 3_prob_3_prob_0_split
I0126 21:48:11.057482 26698 net.cpp:127] Top shape: 100 10 (1000)
I0126 21:48:11.057497 26698 net.cpp:127] Top shape: 100 10 (1000)
I0126 21:48:11.057508 26698 layer_factory.hpp:74] Creating layer 4_conv1
I0126 21:48:11.057524 26698 net.cpp:90] Creating Layer 4_conv1
I0126 21:48:11.057538 26698 net.cpp:410] 4_conv1 <- data_cifar_0_split_3
I0126 21:48:11.057551 26698 net.cpp:368] 4_conv1 -> 4_conv1
I0126 21:48:11.057566 26698 net.cpp:120] Setting up 4_conv1
I0126 21:48:11.057665 26698 net.cpp:127] Top shape: 100 32 32 32 (3276800)
I0126 21:48:11.057687 26698 layer_factory.hpp:74] Creating layer 4_pool1
I0126 21:48:11.057700 26698 net.cpp:90] Creating Layer 4_pool1
I0126 21:48:11.057713 26698 net.cpp:410] 4_pool1 <- 4_conv1
I0126 21:48:11.057726 26698 net.cpp:368] 4_pool1 -> 4_pool1
I0126 21:48:11.057740 26698 net.cpp:120] Setting up 4_pool1
I0126 21:48:11.057755 26698 net.cpp:127] Top shape: 100 32 16 16 (819200)
I0126 21:48:11.057768 26698 layer_factory.hpp:74] Creating layer 4_relu1
I0126 21:48:11.057781 26698 net.cpp:90] Creating Layer 4_relu1
I0126 21:48:11.057793 26698 net.cpp:410] 4_relu1 <- 4_pool1
I0126 21:48:11.057807 26698 net.cpp:357] 4_relu1 -> 4_pool1 (in-place)
I0126 21:48:11.057821 26698 net.cpp:120] Setting up 4_relu1
I0126 21:48:11.057834 26698 net.cpp:127] Top shape: 100 32 16 16 (819200)
I0126 21:48:11.057848 26698 layer_factory.hpp:74] Creating layer 4_conv2
I0126 21:48:11.057862 26698 net.cpp:90] Creating Layer 4_conv2
I0126 21:48:11.057874 26698 net.cpp:410] 4_conv2 <- 4_pool1
I0126 21:48:11.057889 26698 net.cpp:368] 4_conv2 -> 4_conv2
I0126 21:48:11.057904 26698 net.cpp:120] Setting up 4_conv2
I0126 21:48:11.058706 26698 net.cpp:127] Top shape: 100 32 16 16 (819200)
I0126 21:48:11.058718 26698 layer_factory.hpp:74] Creating layer 4_relu2
I0126 21:48:11.058737 26698 net.cpp:90] Creating Layer 4_relu2
I0126 21:48:11.058753 26698 net.cpp:410] 4_relu2 <- 4_conv2
I0126 21:48:11.058766 26698 net.cpp:357] 4_relu2 -> 4_conv2 (in-place)
I0126 21:48:11.058780 26698 net.cpp:120] Setting up 4_relu2
I0126 21:48:11.058799 26698 net.cpp:127] Top shape: 100 32 16 16 (819200)
I0126 21:48:11.058817 26698 layer_factory.hpp:74] Creating layer 4_pool2
I0126 21:48:11.058830 26698 net.cpp:90] Creating Layer 4_pool2
I0126 21:48:11.058842 26698 net.cpp:410] 4_pool2 <- 4_conv2
I0126 21:48:11.058857 26698 net.cpp:368] 4_pool2 -> 4_pool2
I0126 21:48:11.058872 26698 net.cpp:120] Setting up 4_pool2
I0126 21:48:11.058887 26698 net.cpp:127] Top shape: 100 32 8 8 (204800)
I0126 21:48:11.058900 26698 layer_factory.hpp:74] Creating layer 4_conv3
I0126 21:48:11.058915 26698 net.cpp:90] Creating Layer 4_conv3
I0126 21:48:11.058928 26698 net.cpp:410] 4_conv3 <- 4_pool2
I0126 21:48:11.058941 26698 net.cpp:368] 4_conv3 -> 4_conv3
I0126 21:48:11.058956 26698 net.cpp:120] Setting up 4_conv3
I0126 21:48:11.060245 26698 net.cpp:127] Top shape: 100 64 8 8 (409600)
I0126 21:48:11.060256 26698 layer_factory.hpp:74] Creating layer 4_relu3
I0126 21:48:11.060261 26698 net.cpp:90] Creating Layer 4_relu3
I0126 21:48:11.060266 26698 net.cpp:410] 4_relu3 <- 4_conv3
I0126 21:48:11.060283 26698 net.cpp:357] 4_relu3 -> 4_conv3 (in-place)
I0126 21:48:11.060300 26698 net.cpp:120] Setting up 4_relu3
I0126 21:48:11.060315 26698 net.cpp:127] Top shape: 100 64 8 8 (409600)
I0126 21:48:11.060328 26698 layer_factory.hpp:74] Creating layer 4_pool3
I0126 21:48:11.060343 26698 net.cpp:90] Creating Layer 4_pool3
I0126 21:48:11.060356 26698 net.cpp:410] 4_pool3 <- 4_conv3
I0126 21:48:11.060370 26698 net.cpp:368] 4_pool3 -> 4_pool3
I0126 21:48:11.060384 26698 net.cpp:120] Setting up 4_pool3
I0126 21:48:11.060400 26698 net.cpp:127] Top shape: 100 64 4 4 (102400)
I0126 21:48:11.060411 26698 layer_factory.hpp:74] Creating layer 4_ip1
I0126 21:48:11.060425 26698 net.cpp:90] Creating Layer 4_ip1
I0126 21:48:11.060437 26698 net.cpp:410] 4_ip1 <- 4_pool3
I0126 21:48:11.060452 26698 net.cpp:368] 4_ip1 -> 4_ip1
I0126 21:48:11.060467 26698 net.cpp:120] Setting up 4_ip1
I0126 21:48:11.062083 26698 net.cpp:127] Top shape: 100 64 (6400)
I0126 21:48:11.062093 26698 layer_factory.hpp:74] Creating layer 4_ip2
I0126 21:48:11.062100 26698 net.cpp:90] Creating Layer 4_ip2
I0126 21:48:11.062105 26698 net.cpp:410] 4_ip2 <- 4_ip1
I0126 21:48:11.062125 26698 net.cpp:368] 4_ip2 -> 4_ip2
I0126 21:48:11.062144 26698 net.cpp:120] Setting up 4_ip2
I0126 21:48:11.062187 26698 net.cpp:127] Top shape: 100 10 (1000)
I0126 21:48:11.062204 26698 layer_factory.hpp:74] Creating layer 4_prob
I0126 21:48:11.062218 26698 net.cpp:90] Creating Layer 4_prob
I0126 21:48:11.062230 26698 net.cpp:410] 4_prob <- 4_ip2
I0126 21:48:11.062245 26698 net.cpp:368] 4_prob -> 4_prob
I0126 21:48:11.062259 26698 net.cpp:120] Setting up 4_prob
I0126 21:48:11.062275 26698 net.cpp:127] Top shape: 100 10 (1000)
I0126 21:48:11.062288 26698 layer_factory.hpp:74] Creating layer 4_prob_4_prob_0_split
I0126 21:48:11.062300 26698 net.cpp:90] Creating Layer 4_prob_4_prob_0_split
I0126 21:48:11.062312 26698 net.cpp:410] 4_prob_4_prob_0_split <- 4_prob
I0126 21:48:11.062325 26698 net.cpp:368] 4_prob_4_prob_0_split -> 4_prob_4_prob_0_split_0
I0126 21:48:11.062340 26698 net.cpp:368] 4_prob_4_prob_0_split -> 4_prob_4_prob_0_split_1
I0126 21:48:11.062353 26698 net.cpp:120] Setting up 4_prob_4_prob_0_split
I0126 21:48:11.062369 26698 net.cpp:127] Top shape: 100 10 (1000)
I0126 21:48:11.062384 26698 net.cpp:127] Top shape: 100 10 (1000)
I0126 21:48:11.062397 26698 layer_factory.hpp:74] Creating layer 1_accuracy
I0126 21:48:11.062412 26698 net.cpp:90] Creating Layer 1_accuracy
I0126 21:48:11.062425 26698 net.cpp:410] 1_accuracy <- 1_prob_1_prob_0_split_0
I0126 21:48:11.062438 26698 net.cpp:410] 1_accuracy <- label_cifar_1_split_0
I0126 21:48:11.062453 26698 net.cpp:368] 1_accuracy -> 1_accuracy
I0126 21:48:11.062469 26698 net.cpp:120] Setting up 1_accuracy
…
