…
I0207 22:59:42.318892 25827 net.cpp:287] The NetState phase (0) differed from the phase (1) specified by a rule in layer accuracy
I0207 22:59:42.319063 25827 net.cpp:42] Initializing net from parameters: 
name: "CIFAR10_quick"
state {
  phase: TRAIN
}
layer {
  name: "cifar"
  type: "Data"
  top: "data"
  top: "label"
  include {
    phase: TRAIN
  }
  transform_param {
    mean_file: "/home/mike/ml_lab/mod/MCL_Caffe/examples/cifar10/mean.binaryproto"
  }
  data_param {
    source: "/home/mike/ml_lab/mod/MCL_Caffe/examples/cifar10/cifar10_train_lmdb"
    batch_size: 350
    backend: LMDB
  }
}
layer {
  name: "1_conv1"
  type: "Convolution"
  bottom: "data"
  top: "1_conv1"
  param {
    lr_mult: 1
  }
  param {
    lr_mult: 2
  }
  convolution_param {
    num_output: 32
    pad: 2
    kernel_size: 5
    stride: 1
    weight_filler {
      type: "gaussian"
      std: 0.0001
    }
    bias_filler {
      type: "constant"
    }
  }
}
layer {
  name: "1_pool1"
  type: "Pooling"
  bottom: "1_conv1"
  top: "1_pool1"
  pooling_param {
    pool: MAX
    kernel_size: 3
    stride: 2
  }
}
layer {
  name: "1_relu1"
  type: "ReLU"
  bottom: "1_pool1"
  top: "1_pool1"
}
layer {
  name: "1_conv2"
  type: "Convolution"
  bottom: "1_pool1"
  top: "1_conv2"
  param {
    lr_mult: 1
  }
  param {
    lr_mult: 2
  }
  convolution_param {
    num_output: 32
    pad: 2
    kernel_size: 5
    stride: 1
    weight_filler {
      type: "gaussian"
      std: 0.01
    }
    bias_filler {
      type: "constant"
    }
  }
}
layer {
  name: "1_relu2"
  type: "ReLU"
  bottom: "1_conv2"
  top: "1_conv2"
}
layer {
  name: "1_pool2"
  type: "Pooling"
  bottom: "1_conv2"
  top: "1_pool2"
  pooling_param {
    pool: AVE
    kernel_size: 3
    stride: 2
  }
}
layer {
  name: "1_conv3"
  type: "Convolution"
  bottom: "1_pool2"
  top: "1_conv3"
  param {
    lr_mult: 1
  }
  param {
    lr_mult: 2
  }
  convolution_param {
    num_output: 64
    pad: 2
    kernel_size: 5
    stride: 1
    weight_filler {
      type: "gaussian"
      std: 0.01
    }
    bias_filler {
      type: "constant"
    }
  }
}
layer {
  name: "1_relu3"
  type: "ReLU"
  bottom: "1_conv3"
  top: "1_conv3"
}
layer {
  name: "1_pool3"
  type: "Pooling"
  bottom: "1_conv3"
  top: "1_pool3"
  pooling_param {
    pool: AVE
    kernel_size: 3
    stride: 2
  }
}
layer {
  name: "1_ip1"
  type: "InnerProduct"
  bottom: "1_pool3"
  top: "1_ip1"
  param {
    lr_mult: 1
  }
  param {
    lr_mult: 2
  }
  inner_product_param {
    num_output: 64
    weight_filler {
      type: "gaussian"
      std: 0.1
    }
    bias_filler {
      type: "constant"
    }
  }
}
layer {
  name: "1_ip2"
  type: "InnerProduct"
  bottom: "1_ip1"
  top: "1_ip2"
  param {
    lr_mult: 1
  }
  param {
    lr_mult: 2
  }
  inner_product_param {
    num_output: 10
    weight_filler {
      type: "gaussian"
      std: 0.1
    }
    bias_filler {
      type: "constant"
    }
  }
}
layer {
  name: "1_prob"
  type: "Softmax"
  bottom: "1_ip2"
  top: "1_prob"
}
layer {
  name: "2_conv1"
  type: "Convolution"
  bottom: "data"
  top: "2_conv1"
  param {
    lr_mult: 1
  }
  param {
    lr_mult: 2
  }
  convolution_param {
    num_output: 32
    pad: 2
    kernel_size: 5
    stride: 1
    weight_filler {
      type: "gaussian"
      std: 0.0001
    }
    bias_filler {
      type: "constant"
    }
  }
}
layer {
  name: "2_pool1"
  type: "Pooling"
  bottom: "2_conv1"
  top: "2_pool1"
  pooling_param {
    pool: MAX
    kernel_size: 3
    stride: 2
  }
}
layer {
  name: "2_relu1"
  type: "ReLU"
  bottom: "2_pool1"
  top: "2_pool1"
}
layer {
  name: "2_conv2"
  type: "Convolution"
  bottom: "2_pool1"
  top: "2_conv2"
  param {
    lr_mult: 1
  }
  param {
    lr_mult: 2
  }
  convolution_param {
    num_output: 32
    pad: 2
    kernel_size: 5
    stride: 1
    weight_filler {
      type: "gaussian"
      std: 0.01
    }
    bias_filler {
      type: "constant"
    }
  }
}
layer {
  name: "2_relu2"
  type: "ReLU"
  bottom: "2_conv2"
  top: "2_conv2"
}
layer {
  name: "2_pool2"
  type: "Pooling"
  bottom: "2_conv2"
  top: "2_pool2"
  pooling_param {
    pool: AVE
    kernel_size: 3
    stride: 2
  }
}
layer {
  name: "2_conv3"
  type: "Convolution"
  bottom: "2_pool2"
  top: "2_conv3"
  param {
    lr_mult: 1
  }
  param {
    lr_mult: 2
  }
  convolution_param {
    num_output: 64
    pad: 2
    kernel_size: 5
    stride: 1
    weight_filler {
      type: "gaussian"
      std: 0.01
    }
    bias_filler {
      type: "constant"
    }
  }
}
layer {
  name: "2_relu3"
  type: "ReLU"
  bottom: "2_conv3"
  top: "2_conv3"
}
layer {
  name: "2_pool3"
  type: "Pooling"
  bottom: "2_conv3"
  top: "2_pool3"
  pooling_param {
    pool: AVE
    kernel_size: 3
    stride: 2
  }
}
layer {
  name: "2_ip1"
  type: "InnerProduct"
  bottom: "2_pool3"
  top: "2_ip1"
  param {
    lr_mult: 1
  }
  param {
    lr_mult: 2
  }
  inner_product_param {
    num_output: 64
    weight_filler {
      type: "gaussian"
      std: 0.1
    }
    bias_filler {
      type: "constant"
    }
  }
}
layer {
  name: "2_ip2"
  type: "InnerProduct"
  bottom: "2_ip1"
  top: "2_ip2"
  param {
    lr_mult: 1
  }
  param {
    lr_mult: 2
  }
  inner_product_param {
    num_output: 10
    weight_filler {
      type: "gaussian"
      std: 0.1
    }
    bias_filler {
      type: "constant"
    }
  }
}
layer {
  name: "2_prob"
  type: "Softmax"
  bottom: "2_ip2"
  top: "2_prob"
}
layer {
  name: "3_conv1"
  type: "Convolution"
  bottom: "data"
  top: "3_conv1"
  param {
    lr_mult: 1
  }
  param {
    lr_mult: 2
  }
  convolution_param {
    num_output: 32
    pad: 2
    kernel_size: 5
    stride: 1
    weight_filler {
      type: "gaussian"
      std: 0.0001
    }
    bias_filler {
      type: "constant"
    }
  }
}
layer {
  name: "3_pool1"
  type: "Pooling"
  bottom: "3_conv1"
  top: "3_pool1"
  pooling_param {
    pool: MAX
    kernel_size: 3
    stride: 2
  }
}
layer {
  name: "3_relu1"
  type: "ReLU"
  bottom: "3_pool1"
  top: "3_pool1"
}
layer {
  name: "3_conv2"
  type: "Convolution"
  bottom: "3_pool1"
  top: "3_conv2"
  param {
    lr_mult: 1
  }
  param {
    lr_mult: 2
  }
  convolution_param {
    num_output: 32
    pad: 2
    kernel_size: 5
    stride: 1
    weight_filler {
      type: "gaussian"
      std: 0.01
    }
    bias_filler {
      type: "constant"
    }
  }
}
layer {
  name: "3_relu2"
  type: "ReLU"
  bottom: "3_conv2"
  top: "3_conv2"
}
layer {
  name: "3_pool2"
  type: "Pooling"
  bottom: "3_conv2"
  top: "3_pool2"
  pooling_param {
    pool: AVE
    kernel_size: 3
    stride: 2
  }
}
layer {
  name: "3_conv3"
  type: "Convolution"
  bottom: "3_pool2"
  top: "3_conv3"
  param {
    lr_mult: 1
  }
  param {
    lr_mult: 2
  }
  convolution_param {
    num_output: 64
    pad: 2
    kernel_size: 5
    stride: 1
    weight_filler {
      type: "gaussian"
      std: 0.01
    }
    bias_filler {
      type: "constant"
    }
  }
}
layer {
  name: "3_relu3"
  type: "ReLU"
  bottom: "3_conv3"
  top: "3_conv3"
}
layer {
  name: "3_pool3"
  type: "Pooling"
  bottom: "3_conv3"
  top: "3_pool3"
  pooling_param {
    pool: AVE
    kernel_size: 3
    stride: 2
  }
}
layer {
  name: "3_ip1"
  type: "InnerProduct"
  bottom: "3_pool3"
  top: "3_ip1"
  param {
    lr_mult: 1
  }
  param {
    lr_mult: 2
  }
  inner_product_param {
    num_output: 64
    weight_filler {
      type: "gaussian"
      std: 0.1
    }
    bias_filler {
      type: "constant"
    }
  }
}
layer {
  name: "3_ip2"
  type: "InnerProduct"
  bottom: "3_ip1"
  top: "3_ip2"
  param {
    lr_mult: 1
  }
  param {
    lr_mult: 2
  }
  inner_product_param {
    num_output: 10
    weight_filler {
      type: "gaussian"
      std: 0.1
    }
    bias_filler {
      type: "constant"
    }
  }
}
layer {
  name: "3_prob"
  type: "Softmax"
  bottom: "3_ip2"
  top: "3_prob"
}
layer {
  name: "4_conv1"
  type: "Convolution"
  bottom: "data"
  top: "4_conv1"
  param {
    lr_mult: 1
  }
  param {
    lr_mult: 2
  }
  convolution_param {
    num_output: 32
    pad: 2
    kernel_size: 5
    stride: 1
    weight_filler {
      type: "gaussian"
      std: 0.0001
    }
    bias_filler {
      type: "constant"
    }
  }
}
layer {
  name: "4_pool1"
  type: "Pooling"
  bottom: "4_conv1"
  top: "4_pool1"
  pooling_param {
    pool: MAX
    kernel_size: 3
    stride: 2
  }
}
layer {
  name: "4_relu1"
  type: "ReLU"
  bottom: "4_pool1"
  top: "4_pool1"
}
layer {
  name: "4_conv2"
  type: "Convolution"
  bottom: "4_pool1"
  top: "4_conv2"
  param {
    lr_mult: 1
  }
  param {
    lr_mult: 2
  }
  convolution_param {
    num_output: 32
    pad: 2
    kernel_size: 5
    stride: 1
    weight_filler {
      type: "gaussian"
      std: 0.01
    }
    bias_filler {
      type: "constant"
    }
  }
}
layer {
  name: "4_relu2"
  type: "ReLU"
  bottom: "4_conv2"
  top: "4_conv2"
}
layer {
  name: "4_pool2"
  type: "Pooling"
  bottom: "4_conv2"
  top: "4_pool2"
  pooling_param {
    pool: AVE
    kernel_size: 3
    stride: 2
  }
}
layer {
  name: "4_conv3"
  type: "Convolution"
  bottom: "4_pool2"
  top: "4_conv3"
  param {
    lr_mult: 1
  }
  param {
    lr_mult: 2
  }
  convolution_param {
    num_output: 64
    pad: 2
    kernel_size: 5
    stride: 1
    weight_filler {
      type: "gaussian"
      std: 0.01
    }
    bias_filler {
      type: "constant"
    }
  }
}
layer {
  name: "4_relu3"
  type: "ReLU"
  bottom: "4_conv3"
  top: "4_conv3"
}
layer {
  name: "4_pool3"
  type: "Pooling"
  bottom: "4_conv3"
  top: "4_pool3"
  pooling_param {
    pool: AVE
    kernel_size: 3
    stride: 2
  }
}
layer {
  name: "4_ip1"
  type: "InnerProduct"
  bottom: "4_pool3"
  top: "4_ip1"
  param {
    lr_mult: 1
  }
  param {
    lr_mult: 2
  }
  inner_product_param {
    num_output: 64
    weight_filler {
      type: "gaussian"
      std: 0.1
    }
    bias_filler {
      type: "constant"
    }
  }
}
layer {
  name: "4_ip2"
  type: "InnerProduct"
  bottom: "4_ip1"
  top: "4_ip2"
  param {
    lr_mult: 1
  }
  param {
    lr_mult: 2
  }
  inner_product_param {
    num_output: 10
    weight_filler {
      type: "gaussian"
      std: 0.1
    }
    bias_filler {
      type: "constant"
    }
  }
}
layer {
  name: "4_prob"
  type: "Softmax"
  bottom: "4_ip2"
  top: "4_prob"
}
layer {
  name: "loss"
  type: "ODRandomAwardBMultinomialLogisticLoss"
  bottom: "1_prob"
  bottom: "2_prob"
  bottom: "3_prob"
  bottom: "4_prob"
  bottom: "label"
  top: "multiple-output loss"
  top: "batch-instance-counts"
  top: "train-instance-counts"
  top: "curr-b-value"
  loss_weight: 1
  loss_weight: 0
  loss_weight: 0
  loss_weight: 0
  include {
    phase: TRAIN
  }
  od_param {
    start_rand_award: 0.5
    rand_select: false
    decrease_rand: true
    draw_m_minus_one: false
    rand_decay: 0.001
    award_all: false
  }
}
I0207 22:59:42.319224 25827 layer_factory.hpp:74] Creating layer cifar
I0207 22:59:42.319239 25827 net.cpp:90] Creating Layer cifar
I0207 22:59:42.319245 25827 net.cpp:368] cifar -> data
I0207 22:59:42.319267 25827 net.cpp:368] cifar -> label
I0207 22:59:42.319274 25827 net.cpp:120] Setting up cifar
I0207 22:59:42.319314 25827 db.cpp:34] Opened lmdb /home/mike/ml_lab/mod/MCL_Caffe/examples/cifar10/cifar10_train_lmdb
I0207 22:59:42.319351 25827 data_layer.cpp:67] output data size: 350,3,32,32
I0207 22:59:42.319357 25827 data_transformer.cpp:22] Loading mean file from: /home/mike/ml_lab/mod/MCL_Caffe/examples/cifar10/mean.binaryproto
I0207 22:59:42.320065 25827 net.cpp:127] Top shape: 350 3 32 32 (1075200)
I0207 22:59:42.320070 25827 net.cpp:127] Top shape: 350 (350)
I0207 22:59:42.320075 25827 layer_factory.hpp:74] Creating layer data_cifar_0_split
I0207 22:59:42.320080 25827 net.cpp:90] Creating Layer data_cifar_0_split
I0207 22:59:42.320083 25827 net.cpp:410] data_cifar_0_split <- data
I0207 22:59:42.320091 25827 net.cpp:368] data_cifar_0_split -> data_cifar_0_split_0
I0207 22:59:42.320096 25827 net.cpp:368] data_cifar_0_split -> data_cifar_0_split_1
I0207 22:59:42.320099 25827 net.cpp:368] data_cifar_0_split -> data_cifar_0_split_2
I0207 22:59:42.320103 25827 net.cpp:368] data_cifar_0_split -> data_cifar_0_split_3
I0207 22:59:42.320106 25827 net.cpp:120] Setting up data_cifar_0_split
I0207 22:59:42.320111 25827 net.cpp:127] Top shape: 350 3 32 32 (1075200)
I0207 22:59:42.320113 25827 net.cpp:127] Top shape: 350 3 32 32 (1075200)
I0207 22:59:42.320116 25827 net.cpp:127] Top shape: 350 3 32 32 (1075200)
I0207 22:59:42.320118 25827 net.cpp:127] Top shape: 350 3 32 32 (1075200)
I0207 22:59:42.320121 25827 layer_factory.hpp:74] Creating layer 1_conv1
I0207 22:59:42.320127 25827 net.cpp:90] Creating Layer 1_conv1
I0207 22:59:42.320128 25827 net.cpp:410] 1_conv1 <- data_cifar_0_split_0
I0207 22:59:42.320132 25827 net.cpp:368] 1_conv1 -> 1_conv1
I0207 22:59:42.320137 25827 net.cpp:120] Setting up 1_conv1
I0207 22:59:42.320531 25827 net.cpp:127] Top shape: 350 32 32 32 (11468800)
I0207 22:59:42.320540 25827 layer_factory.hpp:74] Creating layer 1_pool1
I0207 22:59:42.320545 25827 net.cpp:90] Creating Layer 1_pool1
I0207 22:59:42.320549 25827 net.cpp:410] 1_pool1 <- 1_conv1
I0207 22:59:42.320551 25827 net.cpp:368] 1_pool1 -> 1_pool1
I0207 22:59:42.320555 25827 net.cpp:120] Setting up 1_pool1
I0207 22:59:42.320565 25827 net.cpp:127] Top shape: 350 32 16 16 (2867200)
I0207 22:59:42.320567 25827 layer_factory.hpp:74] Creating layer 1_relu1
I0207 22:59:42.320571 25827 net.cpp:90] Creating Layer 1_relu1
I0207 22:59:42.320574 25827 net.cpp:410] 1_relu1 <- 1_pool1
I0207 22:59:42.320575 25827 net.cpp:357] 1_relu1 -> 1_pool1 (in-place)
I0207 22:59:42.320578 25827 net.cpp:120] Setting up 1_relu1
I0207 22:59:42.320582 25827 net.cpp:127] Top shape: 350 32 16 16 (2867200)
I0207 22:59:42.320583 25827 layer_factory.hpp:74] Creating layer 1_conv2
I0207 22:59:42.320587 25827 net.cpp:90] Creating Layer 1_conv2
I0207 22:59:42.320588 25827 net.cpp:410] 1_conv2 <- 1_pool1
I0207 22:59:42.320592 25827 net.cpp:368] 1_conv2 -> 1_conv2
I0207 22:59:42.320596 25827 net.cpp:120] Setting up 1_conv2
I0207 22:59:42.321182 25827 net.cpp:127] Top shape: 350 32 16 16 (2867200)
I0207 22:59:42.321188 25827 layer_factory.hpp:74] Creating layer 1_relu2
I0207 22:59:42.321192 25827 net.cpp:90] Creating Layer 1_relu2
I0207 22:59:42.321193 25827 net.cpp:410] 1_relu2 <- 1_conv2
I0207 22:59:42.321197 25827 net.cpp:357] 1_relu2 -> 1_conv2 (in-place)
I0207 22:59:42.321199 25827 net.cpp:120] Setting up 1_relu2
I0207 22:59:42.321202 25827 net.cpp:127] Top shape: 350 32 16 16 (2867200)
I0207 22:59:42.321203 25827 layer_factory.hpp:74] Creating layer 1_pool2
I0207 22:59:42.321207 25827 net.cpp:90] Creating Layer 1_pool2
I0207 22:59:42.321208 25827 net.cpp:410] 1_pool2 <- 1_conv2
I0207 22:59:42.321211 25827 net.cpp:368] 1_pool2 -> 1_pool2
I0207 22:59:42.321214 25827 net.cpp:120] Setting up 1_pool2
I0207 22:59:42.321218 25827 net.cpp:127] Top shape: 350 32 8 8 (716800)
I0207 22:59:42.321219 25827 layer_factory.hpp:74] Creating layer 1_conv3
I0207 22:59:42.321223 25827 net.cpp:90] Creating Layer 1_conv3
I0207 22:59:42.321224 25827 net.cpp:410] 1_conv3 <- 1_pool2
I0207 22:59:42.321236 25827 net.cpp:368] 1_conv3 -> 1_conv3
I0207 22:59:42.321240 25827 net.cpp:120] Setting up 1_conv3
I0207 22:59:42.322391 25827 net.cpp:127] Top shape: 350 64 8 8 (1433600)
I0207 22:59:42.322396 25827 layer_factory.hpp:74] Creating layer 1_relu3
I0207 22:59:42.322399 25827 net.cpp:90] Creating Layer 1_relu3
I0207 22:59:42.322402 25827 net.cpp:410] 1_relu3 <- 1_conv3
I0207 22:59:42.322403 25827 net.cpp:357] 1_relu3 -> 1_conv3 (in-place)
I0207 22:59:42.322407 25827 net.cpp:120] Setting up 1_relu3
I0207 22:59:42.322408 25827 net.cpp:127] Top shape: 350 64 8 8 (1433600)
I0207 22:59:42.322410 25827 layer_factory.hpp:74] Creating layer 1_pool3
I0207 22:59:42.322413 25827 net.cpp:90] Creating Layer 1_pool3
I0207 22:59:42.322414 25827 net.cpp:410] 1_pool3 <- 1_conv3
I0207 22:59:42.322418 25827 net.cpp:368] 1_pool3 -> 1_pool3
I0207 22:59:42.322420 25827 net.cpp:120] Setting up 1_pool3
I0207 22:59:42.322424 25827 net.cpp:127] Top shape: 350 64 4 4 (358400)
I0207 22:59:42.322425 25827 layer_factory.hpp:74] Creating layer 1_ip1
I0207 22:59:42.322429 25827 net.cpp:90] Creating Layer 1_ip1
I0207 22:59:42.322432 25827 net.cpp:410] 1_ip1 <- 1_pool3
I0207 22:59:42.322434 25827 net.cpp:368] 1_ip1 -> 1_ip1
I0207 22:59:42.322439 25827 net.cpp:120] Setting up 1_ip1
I0207 22:59:42.323945 25827 net.cpp:127] Top shape: 350 64 (22400)
I0207 22:59:42.323951 25827 layer_factory.hpp:74] Creating layer 1_ip2
I0207 22:59:42.323954 25827 net.cpp:90] Creating Layer 1_ip2
I0207 22:59:42.323956 25827 net.cpp:410] 1_ip2 <- 1_ip1
I0207 22:59:42.323959 25827 net.cpp:368] 1_ip2 -> 1_ip2
I0207 22:59:42.323962 25827 net.cpp:120] Setting up 1_ip2
I0207 22:59:42.323983 25827 net.cpp:127] Top shape: 350 10 (3500)
I0207 22:59:42.323988 25827 layer_factory.hpp:74] Creating layer 1_prob
I0207 22:59:42.323992 25827 net.cpp:90] Creating Layer 1_prob
I0207 22:59:42.323994 25827 net.cpp:410] 1_prob <- 1_ip2
I0207 22:59:42.323997 25827 net.cpp:368] 1_prob -> 1_prob
I0207 22:59:42.324000 25827 net.cpp:120] Setting up 1_prob
I0207 22:59:42.324005 25827 net.cpp:127] Top shape: 350 10 (3500)
I0207 22:59:42.324007 25827 layer_factory.hpp:74] Creating layer 2_conv1
I0207 22:59:42.324010 25827 net.cpp:90] Creating Layer 2_conv1
I0207 22:59:42.324012 25827 net.cpp:410] 2_conv1 <- data_cifar_0_split_1
I0207 22:59:42.324017 25827 net.cpp:368] 2_conv1 -> 2_conv1
I0207 22:59:42.324019 25827 net.cpp:120] Setting up 2_conv1
I0207 22:59:42.324082 25827 net.cpp:127] Top shape: 350 32 32 32 (11468800)
I0207 22:59:42.324086 25827 layer_factory.hpp:74] Creating layer 2_pool1
I0207 22:59:42.324090 25827 net.cpp:90] Creating Layer 2_pool1
I0207 22:59:42.324091 25827 net.cpp:410] 2_pool1 <- 2_conv1
I0207 22:59:42.324095 25827 net.cpp:368] 2_pool1 -> 2_pool1
I0207 22:59:42.324100 25827 net.cpp:120] Setting up 2_pool1
I0207 22:59:42.324103 25827 net.cpp:127] Top shape: 350 32 16 16 (2867200)
I0207 22:59:42.324105 25827 layer_factory.hpp:74] Creating layer 2_relu1
I0207 22:59:42.324108 25827 net.cpp:90] Creating Layer 2_relu1
I0207 22:59:42.324110 25827 net.cpp:410] 2_relu1 <- 2_pool1
I0207 22:59:42.324112 25827 net.cpp:357] 2_relu1 -> 2_pool1 (in-place)
I0207 22:59:42.324115 25827 net.cpp:120] Setting up 2_relu1
I0207 22:59:42.324117 25827 net.cpp:127] Top shape: 350 32 16 16 (2867200)
I0207 22:59:42.324120 25827 layer_factory.hpp:74] Creating layer 2_conv2
I0207 22:59:42.324122 25827 net.cpp:90] Creating Layer 2_conv2
I0207 22:59:42.324125 25827 net.cpp:410] 2_conv2 <- 2_pool1
I0207 22:59:42.324127 25827 net.cpp:368] 2_conv2 -> 2_conv2
I0207 22:59:42.324131 25827 net.cpp:120] Setting up 2_conv2
I0207 22:59:42.324707 25827 net.cpp:127] Top shape: 350 32 16 16 (2867200)
I0207 22:59:42.324712 25827 layer_factory.hpp:74] Creating layer 2_relu2
I0207 22:59:42.324714 25827 net.cpp:90] Creating Layer 2_relu2
I0207 22:59:42.324715 25827 net.cpp:410] 2_relu2 <- 2_conv2
I0207 22:59:42.324718 25827 net.cpp:357] 2_relu2 -> 2_conv2 (in-place)
I0207 22:59:42.324722 25827 net.cpp:120] Setting up 2_relu2
I0207 22:59:42.324724 25827 net.cpp:127] Top shape: 350 32 16 16 (2867200)
I0207 22:59:42.324731 25827 layer_factory.hpp:74] Creating layer 2_pool2
I0207 22:59:42.324734 25827 net.cpp:90] Creating Layer 2_pool2
I0207 22:59:42.324736 25827 net.cpp:410] 2_pool2 <- 2_conv2
I0207 22:59:42.324739 25827 net.cpp:368] 2_pool2 -> 2_pool2
I0207 22:59:42.324743 25827 net.cpp:120] Setting up 2_pool2
I0207 22:59:42.324745 25827 net.cpp:127] Top shape: 350 32 8 8 (716800)
I0207 22:59:42.324748 25827 layer_factory.hpp:74] Creating layer 2_conv3
I0207 22:59:42.324751 25827 net.cpp:90] Creating Layer 2_conv3
I0207 22:59:42.324753 25827 net.cpp:410] 2_conv3 <- 2_pool2
I0207 22:59:42.324756 25827 net.cpp:368] 2_conv3 -> 2_conv3
I0207 22:59:42.324759 25827 net.cpp:120] Setting up 2_conv3
I0207 22:59:42.325912 25827 net.cpp:127] Top shape: 350 64 8 8 (1433600)
I0207 22:59:42.325917 25827 layer_factory.hpp:74] Creating layer 2_relu3
I0207 22:59:42.325920 25827 net.cpp:90] Creating Layer 2_relu3
I0207 22:59:42.325922 25827 net.cpp:410] 2_relu3 <- 2_conv3
I0207 22:59:42.325924 25827 net.cpp:357] 2_relu3 -> 2_conv3 (in-place)
I0207 22:59:42.325927 25827 net.cpp:120] Setting up 2_relu3
I0207 22:59:42.325930 25827 net.cpp:127] Top shape: 350 64 8 8 (1433600)
I0207 22:59:42.325932 25827 layer_factory.hpp:74] Creating layer 2_pool3
I0207 22:59:42.325934 25827 net.cpp:90] Creating Layer 2_pool3
I0207 22:59:42.325937 25827 net.cpp:410] 2_pool3 <- 2_conv3
I0207 22:59:42.325939 25827 net.cpp:368] 2_pool3 -> 2_pool3
I0207 22:59:42.325942 25827 net.cpp:120] Setting up 2_pool3
I0207 22:59:42.325945 25827 net.cpp:127] Top shape: 350 64 4 4 (358400)
I0207 22:59:42.325947 25827 layer_factory.hpp:74] Creating layer 2_ip1
I0207 22:59:42.325950 25827 net.cpp:90] Creating Layer 2_ip1
I0207 22:59:42.325953 25827 net.cpp:410] 2_ip1 <- 2_pool3
I0207 22:59:42.325955 25827 net.cpp:368] 2_ip1 -> 2_ip1
I0207 22:59:42.325958 25827 net.cpp:120] Setting up 2_ip1
I0207 22:59:42.327463 25827 net.cpp:127] Top shape: 350 64 (22400)
I0207 22:59:42.327469 25827 layer_factory.hpp:74] Creating layer 2_ip2
I0207 22:59:42.327474 25827 net.cpp:90] Creating Layer 2_ip2
I0207 22:59:42.327476 25827 net.cpp:410] 2_ip2 <- 2_ip1
I0207 22:59:42.327479 25827 net.cpp:368] 2_ip2 -> 2_ip2
I0207 22:59:42.327482 25827 net.cpp:120] Setting up 2_ip2
I0207 22:59:42.327503 25827 net.cpp:127] Top shape: 350 10 (3500)
I0207 22:59:42.327507 25827 layer_factory.hpp:74] Creating layer 2_prob
I0207 22:59:42.327510 25827 net.cpp:90] Creating Layer 2_prob
I0207 22:59:42.327512 25827 net.cpp:410] 2_prob <- 2_ip2
I0207 22:59:42.327514 25827 net.cpp:368] 2_prob -> 2_prob
I0207 22:59:42.327517 25827 net.cpp:120] Setting up 2_prob
I0207 22:59:42.327522 25827 net.cpp:127] Top shape: 350 10 (3500)
I0207 22:59:42.327523 25827 layer_factory.hpp:74] Creating layer 3_conv1
I0207 22:59:42.327527 25827 net.cpp:90] Creating Layer 3_conv1
I0207 22:59:42.327529 25827 net.cpp:410] 3_conv1 <- data_cifar_0_split_2
I0207 22:59:42.327533 25827 net.cpp:368] 3_conv1 -> 3_conv1
I0207 22:59:42.327535 25827 net.cpp:120] Setting up 3_conv1
I0207 22:59:42.327597 25827 net.cpp:127] Top shape: 350 32 32 32 (11468800)
I0207 22:59:42.327602 25827 layer_factory.hpp:74] Creating layer 3_pool1
I0207 22:59:42.327605 25827 net.cpp:90] Creating Layer 3_pool1
I0207 22:59:42.327606 25827 net.cpp:410] 3_pool1 <- 3_conv1
I0207 22:59:42.327610 25827 net.cpp:368] 3_pool1 -> 3_pool1
I0207 22:59:42.327612 25827 net.cpp:120] Setting up 3_pool1
I0207 22:59:42.327616 25827 net.cpp:127] Top shape: 350 32 16 16 (2867200)
I0207 22:59:42.327618 25827 layer_factory.hpp:74] Creating layer 3_relu1
I0207 22:59:42.327621 25827 net.cpp:90] Creating Layer 3_relu1
I0207 22:59:42.327623 25827 net.cpp:410] 3_relu1 <- 3_pool1
I0207 22:59:42.327625 25827 net.cpp:357] 3_relu1 -> 3_pool1 (in-place)
I0207 22:59:42.327627 25827 net.cpp:120] Setting up 3_relu1
I0207 22:59:42.327630 25827 net.cpp:127] Top shape: 350 32 16 16 (2867200)
I0207 22:59:42.327632 25827 layer_factory.hpp:74] Creating layer 3_conv2
I0207 22:59:42.327636 25827 net.cpp:90] Creating Layer 3_conv2
I0207 22:59:42.327637 25827 net.cpp:410] 3_conv2 <- 3_pool1
I0207 22:59:42.327641 25827 net.cpp:368] 3_conv2 -> 3_conv2
I0207 22:59:42.327649 25827 net.cpp:120] Setting up 3_conv2
I0207 22:59:42.328227 25827 net.cpp:127] Top shape: 350 32 16 16 (2867200)
I0207 22:59:42.328232 25827 layer_factory.hpp:74] Creating layer 3_relu2
I0207 22:59:42.328234 25827 net.cpp:90] Creating Layer 3_relu2
I0207 22:59:42.328236 25827 net.cpp:410] 3_relu2 <- 3_conv2
I0207 22:59:42.328238 25827 net.cpp:357] 3_relu2 -> 3_conv2 (in-place)
I0207 22:59:42.328240 25827 net.cpp:120] Setting up 3_relu2
I0207 22:59:42.328243 25827 net.cpp:127] Top shape: 350 32 16 16 (2867200)
I0207 22:59:42.328245 25827 layer_factory.hpp:74] Creating layer 3_pool2
I0207 22:59:42.328248 25827 net.cpp:90] Creating Layer 3_pool2
I0207 22:59:42.328250 25827 net.cpp:410] 3_pool2 <- 3_conv2
I0207 22:59:42.328253 25827 net.cpp:368] 3_pool2 -> 3_pool2
I0207 22:59:42.328255 25827 net.cpp:120] Setting up 3_pool2
I0207 22:59:42.328258 25827 net.cpp:127] Top shape: 350 32 8 8 (716800)
I0207 22:59:42.328260 25827 layer_factory.hpp:74] Creating layer 3_conv3
I0207 22:59:42.328266 25827 net.cpp:90] Creating Layer 3_conv3
I0207 22:59:42.328269 25827 net.cpp:410] 3_conv3 <- 3_pool2
I0207 22:59:42.328271 25827 net.cpp:368] 3_conv3 -> 3_conv3
I0207 22:59:42.328274 25827 net.cpp:120] Setting up 3_conv3
I0207 22:59:42.329432 25827 net.cpp:127] Top shape: 350 64 8 8 (1433600)
I0207 22:59:42.329437 25827 layer_factory.hpp:74] Creating layer 3_relu3
I0207 22:59:42.329440 25827 net.cpp:90] Creating Layer 3_relu3
I0207 22:59:42.329442 25827 net.cpp:410] 3_relu3 <- 3_conv3
I0207 22:59:42.329445 25827 net.cpp:357] 3_relu3 -> 3_conv3 (in-place)
I0207 22:59:42.329447 25827 net.cpp:120] Setting up 3_relu3
I0207 22:59:42.329450 25827 net.cpp:127] Top shape: 350 64 8 8 (1433600)
I0207 22:59:42.329452 25827 layer_factory.hpp:74] Creating layer 3_pool3
I0207 22:59:42.329455 25827 net.cpp:90] Creating Layer 3_pool3
I0207 22:59:42.329457 25827 net.cpp:410] 3_pool3 <- 3_conv3
I0207 22:59:42.329462 25827 net.cpp:368] 3_pool3 -> 3_pool3
I0207 22:59:42.329464 25827 net.cpp:120] Setting up 3_pool3
I0207 22:59:42.329468 25827 net.cpp:127] Top shape: 350 64 4 4 (358400)
I0207 22:59:42.329469 25827 layer_factory.hpp:74] Creating layer 3_ip1
I0207 22:59:42.329473 25827 net.cpp:90] Creating Layer 3_ip1
I0207 22:59:42.329474 25827 net.cpp:410] 3_ip1 <- 3_pool3
I0207 22:59:42.329478 25827 net.cpp:368] 3_ip1 -> 3_ip1
I0207 22:59:42.329481 25827 net.cpp:120] Setting up 3_ip1
I0207 22:59:42.330986 25827 net.cpp:127] Top shape: 350 64 (22400)
I0207 22:59:42.330991 25827 layer_factory.hpp:74] Creating layer 3_ip2
I0207 22:59:42.330996 25827 net.cpp:90] Creating Layer 3_ip2
I0207 22:59:42.330997 25827 net.cpp:410] 3_ip2 <- 3_ip1
I0207 22:59:42.331007 25827 net.cpp:368] 3_ip2 -> 3_ip2
I0207 22:59:42.331009 25827 net.cpp:120] Setting up 3_ip2
I0207 22:59:42.331030 25827 net.cpp:127] Top shape: 350 10 (3500)
I0207 22:59:42.331033 25827 layer_factory.hpp:74] Creating layer 3_prob
I0207 22:59:42.331037 25827 net.cpp:90] Creating Layer 3_prob
I0207 22:59:42.331039 25827 net.cpp:410] 3_prob <- 3_ip2
I0207 22:59:42.331042 25827 net.cpp:368] 3_prob -> 3_prob
I0207 22:59:42.331046 25827 net.cpp:120] Setting up 3_prob
I0207 22:59:42.331050 25827 net.cpp:127] Top shape: 350 10 (3500)
I0207 22:59:42.331051 25827 layer_factory.hpp:74] Creating layer 4_conv1
I0207 22:59:42.331055 25827 net.cpp:90] Creating Layer 4_conv1
I0207 22:59:42.331058 25827 net.cpp:410] 4_conv1 <- data_cifar_0_split_3
I0207 22:59:42.331061 25827 net.cpp:368] 4_conv1 -> 4_conv1
I0207 22:59:42.331064 25827 net.cpp:120] Setting up 4_conv1
I0207 22:59:42.331125 25827 net.cpp:127] Top shape: 350 32 32 32 (11468800)
I0207 22:59:42.331130 25827 layer_factory.hpp:74] Creating layer 4_pool1
I0207 22:59:42.331133 25827 net.cpp:90] Creating Layer 4_pool1
I0207 22:59:42.331135 25827 net.cpp:410] 4_pool1 <- 4_conv1
I0207 22:59:42.331138 25827 net.cpp:368] 4_pool1 -> 4_pool1
I0207 22:59:42.331140 25827 net.cpp:120] Setting up 4_pool1
I0207 22:59:42.331145 25827 net.cpp:127] Top shape: 350 32 16 16 (2867200)
I0207 22:59:42.331146 25827 layer_factory.hpp:74] Creating layer 4_relu1
I0207 22:59:42.331156 25827 net.cpp:90] Creating Layer 4_relu1
I0207 22:59:42.331157 25827 net.cpp:410] 4_relu1 <- 4_pool1
I0207 22:59:42.331159 25827 net.cpp:357] 4_relu1 -> 4_pool1 (in-place)
I0207 22:59:42.331161 25827 net.cpp:120] Setting up 4_relu1
I0207 22:59:42.331164 25827 net.cpp:127] Top shape: 350 32 16 16 (2867200)
I0207 22:59:42.331166 25827 layer_factory.hpp:74] Creating layer 4_conv2
I0207 22:59:42.331171 25827 net.cpp:90] Creating Layer 4_conv2
I0207 22:59:42.331172 25827 net.cpp:410] 4_conv2 <- 4_pool1
I0207 22:59:42.331176 25827 net.cpp:368] 4_conv2 -> 4_conv2
I0207 22:59:42.331178 25827 net.cpp:120] Setting up 4_conv2
I0207 22:59:42.331756 25827 net.cpp:127] Top shape: 350 32 16 16 (2867200)
I0207 22:59:42.331763 25827 layer_factory.hpp:74] Creating layer 4_relu2
I0207 22:59:42.331766 25827 net.cpp:90] Creating Layer 4_relu2
I0207 22:59:42.331768 25827 net.cpp:410] 4_relu2 <- 4_conv2
I0207 22:59:42.331771 25827 net.cpp:357] 4_relu2 -> 4_conv2 (in-place)
I0207 22:59:42.331773 25827 net.cpp:120] Setting up 4_relu2
I0207 22:59:42.331776 25827 net.cpp:127] Top shape: 350 32 16 16 (2867200)
I0207 22:59:42.331779 25827 layer_factory.hpp:74] Creating layer 4_pool2
I0207 22:59:42.331780 25827 net.cpp:90] Creating Layer 4_pool2
I0207 22:59:42.331782 25827 net.cpp:410] 4_pool2 <- 4_conv2
I0207 22:59:42.331785 25827 net.cpp:368] 4_pool2 -> 4_pool2
I0207 22:59:42.331789 25827 net.cpp:120] Setting up 4_pool2
I0207 22:59:42.331791 25827 net.cpp:127] Top shape: 350 32 8 8 (716800)
I0207 22:59:42.331794 25827 layer_factory.hpp:74] Creating layer 4_conv3
I0207 22:59:42.331797 25827 net.cpp:90] Creating Layer 4_conv3
I0207 22:59:42.331799 25827 net.cpp:410] 4_conv3 <- 4_pool2
I0207 22:59:42.331802 25827 net.cpp:368] 4_conv3 -> 4_conv3
I0207 22:59:42.331805 25827 net.cpp:120] Setting up 4_conv3
I0207 22:59:42.332962 25827 net.cpp:127] Top shape: 350 64 8 8 (1433600)
I0207 22:59:42.332969 25827 layer_factory.hpp:74] Creating layer 4_relu3
I0207 22:59:42.332973 25827 net.cpp:90] Creating Layer 4_relu3
I0207 22:59:42.332974 25827 net.cpp:410] 4_relu3 <- 4_conv3
I0207 22:59:42.332978 25827 net.cpp:357] 4_relu3 -> 4_conv3 (in-place)
I0207 22:59:42.332979 25827 net.cpp:120] Setting up 4_relu3
I0207 22:59:42.332983 25827 net.cpp:127] Top shape: 350 64 8 8 (1433600)
I0207 22:59:42.332984 25827 layer_factory.hpp:74] Creating layer 4_pool3
I0207 22:59:42.332988 25827 net.cpp:90] Creating Layer 4_pool3
I0207 22:59:42.332989 25827 net.cpp:410] 4_pool3 <- 4_conv3
I0207 22:59:42.332993 25827 net.cpp:368] 4_pool3 -> 4_pool3
I0207 22:59:42.332995 25827 net.cpp:120] Setting up 4_pool3
I0207 22:59:42.332998 25827 net.cpp:127] Top shape: 350 64 4 4 (358400)
I0207 22:59:42.333000 25827 layer_factory.hpp:74] Creating layer 4_ip1
I0207 22:59:42.333003 25827 net.cpp:90] Creating Layer 4_ip1
I0207 22:59:42.333005 25827 net.cpp:410] 4_ip1 <- 4_pool3
I0207 22:59:42.333009 25827 net.cpp:368] 4_ip1 -> 4_ip1
I0207 22:59:42.333012 25827 net.cpp:120] Setting up 4_ip1
I0207 22:59:42.334522 25827 net.cpp:127] Top shape: 350 64 (22400)
I0207 22:59:42.334527 25827 layer_factory.hpp:74] Creating layer 4_ip2
I0207 22:59:42.334533 25827 net.cpp:90] Creating Layer 4_ip2
I0207 22:59:42.334535 25827 net.cpp:410] 4_ip2 <- 4_ip1
I0207 22:59:42.334538 25827 net.cpp:368] 4_ip2 -> 4_ip2
I0207 22:59:42.334542 25827 net.cpp:120] Setting up 4_ip2
I0207 22:59:42.334563 25827 net.cpp:127] Top shape: 350 10 (3500)
I0207 22:59:42.334565 25827 layer_factory.hpp:74] Creating layer 4_prob
I0207 22:59:42.334570 25827 net.cpp:90] Creating Layer 4_prob
I0207 22:59:42.334573 25827 net.cpp:410] 4_prob <- 4_ip2
I0207 22:59:42.334574 25827 net.cpp:368] 4_prob -> 4_prob
I0207 22:59:42.334578 25827 net.cpp:120] Setting up 4_prob
I0207 22:59:42.334581 25827 net.cpp:127] Top shape: 350 10 (3500)
I0207 22:59:42.334583 25827 layer_factory.hpp:74] Creating layer loss
I0207 22:59:42.334589 25827 net.cpp:90] Creating Layer loss
I0207 22:59:42.334590 25827 net.cpp:410] loss <- 1_prob
I0207 22:59:42.334594 25827 net.cpp:410] loss <- 2_prob
I0207 22:59:42.334595 25827 net.cpp:410] loss <- 3_prob
I0207 22:59:42.334604 25827 net.cpp:410] loss <- 4_prob
I0207 22:59:42.334606 25827 net.cpp:410] loss <- label
I0207 22:59:42.334610 25827 net.cpp:368] loss -> multiple-output loss
I0207 22:59:42.334616 25827 net.cpp:368] loss -> batch-instance-counts
I0207 22:59:42.334620 25827 net.cpp:368] loss -> train-instance-counts
I0207 22:59:42.334625 25827 net.cpp:368] loss -> curr-b-value
I0207 22:59:42.334628 25827 net.cpp:120] Setting up loss
I0207 22:59:42.334636 25827 net.cpp:127] Top shape: 4 1 1 1 (4)
I0207 22:59:42.334638 25827 net.cpp:129]     with loss weight 1
I0207 22:59:42.334655 25827 net.cpp:127] Top shape: 4 1 1 1 (4)
I0207 22:59:42.334656 25827 net.cpp:127] Top shape: 4 1 1 1 (4)
I0207 22:59:42.334658 25827 net.cpp:127] Top shape: 1 1 1 1 (1)
I0207 22:59:42.334661 25827 net.cpp:192] loss needs backward computation.
I0207 22:59:42.334663 25827 net.cpp:192] 4_prob needs backward computation.
I0207 22:59:42.334666 25827 net.cpp:192] 4_ip2 needs backward computation.
I0207 22:59:42.334667 25827 net.cpp:192] 4_ip1 needs backward computation.
I0207 22:59:42.334669 25827 net.cpp:192] 4_pool3 needs backward computation.
I0207 22:59:42.334671 25827 net.cpp:192] 4_relu3 needs backward computation.
…
I0207 22:59:42.335610 25827 net.cpp:287] The NetState phase (1) differed from the phase (0) specified by a rule in layer loss
I0207 22:59:42.335777 25827 net.cpp:42] Initializing net from parameters: 
name: "CIFAR10_quick"
state {
  phase: TEST
}
layer {
  name: "cifar"
  type: "Data"
  top: "data"
  top: "label"
  include {
    phase: TEST
  }
  transform_param {
    mean_file: "/home/mike/ml_lab/mod/MCL_Caffe/examples/cifar10/mean.binaryproto"
  }
  data_param {
    source: "/home/mike/ml_lab/mod/MCL_Caffe/examples/cifar10/cifar10_test_lmdb"
    batch_size: 100
    backend: LMDB
  }
}
layer {
  name: "1_conv1"
  type: "Convolution"
  bottom: "data"
  top: "1_conv1"
  param {
    lr_mult: 1
  }
  param {
    lr_mult: 2
  }
  convolution_param {
    num_output: 32
    pad: 2
    kernel_size: 5
    stride: 1
    weight_filler {
      type: "gaussian"
      std: 0.0001
    }
    bias_filler {
      type: "constant"
    }
  }
}
layer {
  name: "1_pool1"
  type: "Pooling"
  bottom: "1_conv1"
  top: "1_pool1"
  pooling_param {
    pool: MAX
    kernel_size: 3
    stride: 2
  }
}
layer {
  name: "1_relu1"
  type: "ReLU"
  bottom: "1_pool1"
  top: "1_pool1"
}
layer {
  name: "1_conv2"
  type: "Convolution"
  bottom: "1_pool1"
  top: "1_conv2"
  param {
    lr_mult: 1
  }
  param {
    lr_mult: 2
  }
  convolution_param {
    num_output: 32
    pad: 2
    kernel_size: 5
    stride: 1
    weight_filler {
      type: "gaussian"
      std: 0.01
    }
    bias_filler {
      type: "constant"
    }
  }
}
layer {
  name: "1_relu2"
  type: "ReLU"
  bottom: "1_conv2"
  top: "1_conv2"
}
layer {
  name: "1_pool2"
  type: "Pooling"
  bottom: "1_conv2"
  top: "1_pool2"
  pooling_param {
    pool: AVE
    kernel_size: 3
    stride: 2
  }
}
layer {
  name: "1_conv3"
  type: "Convolution"
  bottom: "1_pool2"
  top: "1_conv3"
  param {
    lr_mult: 1
  }
  param {
    lr_mult: 2
  }
  convolution_param {
    num_output: 64
    pad: 2
    kernel_size: 5
    stride: 1
    weight_filler {
      type: "gaussian"
      std: 0.01
    }
    bias_filler {
      type: "constant"
    }
  }
}
layer {
  name: "1_relu3"
  type: "ReLU"
  bottom: "1_conv3"
  top: "1_conv3"
}
layer {
  name: "1_pool3"
  type: "Pooling"
  bottom: "1_conv3"
  top: "1_pool3"
  pooling_param {
    pool: AVE
    kernel_size: 3
    stride: 2
  }
}
layer {
  name: "1_ip1"
  type: "InnerProduct"
  bottom: "1_pool3"
  top: "1_ip1"
  param {
    lr_mult: 1
  }
  param {
    lr_mult: 2
  }
  inner_product_param {
    num_output: 64
    weight_filler {
      type: "gaussian"
      std: 0.1
    }
    bias_filler {
      type: "constant"
    }
  }
}
layer {
  name: "1_ip2"
  type: "InnerProduct"
  bottom: "1_ip1"
  top: "1_ip2"
  param {
    lr_mult: 1
  }
  param {
    lr_mult: 2
  }
  inner_product_param {
    num_output: 10
    weight_filler {
      type: "gaussian"
      std: 0.1
    }
    bias_filler {
      type: "constant"
    }
  }
}
layer {
  name: "1_prob"
  type: "Softmax"
  bottom: "1_ip2"
  top: "1_prob"
}
layer {
  name: "2_conv1"
  type: "Convolution"
  bottom: "data"
  top: "2_conv1"
  param {
    lr_mult: 1
  }
  param {
    lr_mult: 2
  }
  convolution_param {
    num_output: 32
    pad: 2
    kernel_size: 5
    stride: 1
    weight_filler {
      type: "gaussian"
      std: 0.0001
    }
    bias_filler {
      type: "constant"
    }
  }
}
layer {
  name: "2_pool1"
  type: "Pooling"
  bottom: "2_conv1"
  top: "2_pool1"
  pooling_param {
    pool: MAX
    kernel_size: 3
    stride: 2
  }
}
layer {
  name: "2_relu1"
  type: "ReLU"
  bottom: "2_pool1"
  top: "2_pool1"
}
layer {
  name: "2_conv2"
  type: "Convolution"
  bottom: "2_pool1"
  top: "2_conv2"
  param {
    lr_mult: 1
  }
  param {
    lr_mult: 2
  }
  convolution_param {
    num_output: 32
    pad: 2
    kernel_size: 5
    stride: 1
    weight_filler {
      type: "gaussian"
      std: 0.01
    }
    bias_filler {
      type: "constant"
    }
  }
}
layer {
  name: "2_relu2"
  type: "ReLU"
  bottom: "2_conv2"
  top: "2_conv2"
}
layer {
  name: "2_pool2"
  type: "Pooling"
  bottom: "2_conv2"
  top: "2_pool2"
  pooling_param {
    pool: AVE
    kernel_size: 3
    stride: 2
  }
}
layer {
  name: "2_conv3"
  type: "Convolution"
  bottom: "2_pool2"
  top: "2_conv3"
  param {
    lr_mult: 1
  }
  param {
    lr_mult: 2
  }
  convolution_param {
    num_output: 64
    pad: 2
    kernel_size: 5
    stride: 1
    weight_filler {
      type: "gaussian"
      std: 0.01
    }
    bias_filler {
      type: "constant"
    }
  }
}
layer {
  name: "2_relu3"
  type: "ReLU"
  bottom: "2_conv3"
  top: "2_conv3"
}
layer {
  name: "2_pool3"
  type: "Pooling"
  bottom: "2_conv3"
  top: "2_pool3"
  pooling_param {
    pool: AVE
    kernel_size: 3
    stride: 2
  }
}
layer {
  name: "2_ip1"
  type: "InnerProduct"
  bottom: "2_pool3"
  top: "2_ip1"
  param {
    lr_mult: 1
  }
  param {
    lr_mult: 2
  }
  inner_product_param {
    num_output: 64
    weight_filler {
      type: "gaussian"
      std: 0.1
    }
    bias_filler {
      type: "constant"
    }
  }
}
layer {
  name: "2_ip2"
  type: "InnerProduct"
  bottom: "2_ip1"
  top: "2_ip2"
  param {
    lr_mult: 1
  }
  param {
    lr_mult: 2
  }
  inner_product_param {
    num_output: 10
    weight_filler {
      type: "gaussian"
      std: 0.1
    }
    bias_filler {
      type: "constant"
    }
  }
}
layer {
  name: "2_prob"
  type: "Softmax"
  bottom: "2_ip2"
  top: "2_prob"
}
layer {
  name: "3_conv1"
  type: "Convolution"
  bottom: "data"
  top: "3_conv1"
  param {
    lr_mult: 1
  }
  param {
    lr_mult: 2
  }
  convolution_param {
    num_output: 32
    pad: 2
    kernel_size: 5
    stride: 1
    weight_filler {
      type: "gaussian"
      std: 0.0001
    }
    bias_filler {
      type: "constant"
    }
  }
}
layer {
  name: "3_pool1"
  type: "Pooling"
  bottom: "3_conv1"
  top: "3_pool1"
  pooling_param {
    pool: MAX
    kernel_size: 3
    stride: 2
  }
}
layer {
  name: "3_relu1"
  type: "ReLU"
  bottom: "3_pool1"
  top: "3_pool1"
}
layer {
  name: "3_conv2"
  type: "Convolution"
  bottom: "3_pool1"
  top: "3_conv2"
  param {
    lr_mult: 1
  }
  param {
    lr_mult: 2
  }
  convolution_param {
    num_output: 32
    pad: 2
    kernel_size: 5
    stride: 1
    weight_filler {
      type: "gaussian"
      std: 0.01
    }
    bias_filler {
      type: "constant"
    }
  }
}
layer {
  name: "3_relu2"
  type: "ReLU"
  bottom: "3_conv2"
  top: "3_conv2"
}
layer {
  name: "3_pool2"
  type: "Pooling"
  bottom: "3_conv2"
  top: "3_pool2"
  pooling_param {
    pool: AVE
    kernel_size: 3
    stride: 2
  }
}
layer {
  name: "3_conv3"
  type: "Convolution"
  bottom: "3_pool2"
  top: "3_conv3"
  param {
    lr_mult: 1
  }
  param {
    lr_mult: 2
  }
  convolution_param {
    num_output: 64
    pad: 2
    kernel_size: 5
    stride: 1
    weight_filler {
      type: "gaussian"
      std: 0.01
    }
    bias_filler {
      type: "constant"
    }
  }
}
layer {
  name: "3_relu3"
  type: "ReLU"
  bottom: "3_conv3"
  top: "3_conv3"
}
layer {
  name: "3_pool3"
  type: "Pooling"
  bottom: "3_conv3"
  top: "3_pool3"
  pooling_param {
    pool: AVE
    kernel_size: 3
    stride: 2
  }
}
layer {
  name: "3_ip1"
  type: "InnerProduct"
  bottom: "3_pool3"
  top: "3_ip1"
  param {
    lr_mult: 1
  }
  param {
    lr_mult: 2
  }
  inner_product_param {
    num_output: 64
    weight_filler {
      type: "gaussian"
      std: 0.1
    }
    bias_filler {
      type: "constant"
    }
  }
}
layer {
  name: "3_ip2"
  type: "InnerProduct"
  bottom: "3_ip1"
  top: "3_ip2"
  param {
    lr_mult: 1
  }
  param {
    lr_mult: 2
  }
  inner_product_param {
    num_output: 10
    weight_filler {
      type: "gaussian"
      std: 0.1
    }
    bias_filler {
      type: "constant"
    }
  }
}
layer {
  name: "3_prob"
  type: "Softmax"
  bottom: "3_ip2"
  top: "3_prob"
}
layer {
  name: "4_conv1"
  type: "Convolution"
  bottom: "data"
  top: "4_conv1"
  param {
    lr_mult: 1
  }
  param {
    lr_mult: 2
  }
  convolution_param {
    num_output: 32
    pad: 2
    kernel_size: 5
    stride: 1
    weight_filler {
      type: "gaussian"
      std: 0.0001
    }
    bias_filler {
      type: "constant"
    }
  }
}
layer {
  name: "4_pool1"
  type: "Pooling"
  bottom: "4_conv1"
  top: "4_pool1"
  pooling_param {
    pool: MAX
    kernel_size: 3
    stride: 2
  }
}
layer {
  name: "4_relu1"
  type: "ReLU"
  bottom: "4_pool1"
  top: "4_pool1"
}
layer {
  name: "4_conv2"
  type: "Convolution"
  bottom: "4_pool1"
  top: "4_conv2"
  param {
    lr_mult: 1
  }
  param {
    lr_mult: 2
  }
  convolution_param {
    num_output: 32
    pad: 2
    kernel_size: 5
    stride: 1
    weight_filler {
      type: "gaussian"
      std: 0.01
    }
    bias_filler {
      type: "constant"
    }
  }
}
layer {
  name: "4_relu2"
  type: "ReLU"
  bottom: "4_conv2"
  top: "4_conv2"
}
layer {
  name: "4_pool2"
  type: "Pooling"
  bottom: "4_conv2"
  top: "4_pool2"
  pooling_param {
    pool: AVE
    kernel_size: 3
    stride: 2
  }
}
layer {
  name: "4_conv3"
  type: "Convolution"
  bottom: "4_pool2"
  top: "4_conv3"
  param {
    lr_mult: 1
  }
  param {
    lr_mult: 2
  }
  convolution_param {
    num_output: 64
    pad: 2
    kernel_size: 5
    stride: 1
    weight_filler {
      type: "gaussian"
      std: 0.01
    }
    bias_filler {
      type: "constant"
    }
  }
}
layer {
  name: "4_relu3"
  type: "ReLU"
  bottom: "4_conv3"
  top: "4_conv3"
}
layer {
  name: "4_pool3"
  type: "Pooling"
  bottom: "4_conv3"
  top: "4_pool3"
  pooling_param {
    pool: AVE
    kernel_size: 3
    stride: 2
  }
}
layer {
  name: "4_ip1"
  type: "InnerProduct"
  bottom: "4_pool3"
  top: "4_ip1"
  param {
    lr_mult: 1
  }
  param {
    lr_mult: 2
  }
  inner_product_param {
    num_output: 64
    weight_filler {
      type: "gaussian"
      std: 0.1
    }
    bias_filler {
      type: "constant"
    }
  }
}
layer {
  name: "4_ip2"
  type: "InnerProduct"
  bottom: "4_ip1"
  top: "4_ip2"
  param {
    lr_mult: 1
  }
  param {
    lr_mult: 2
  }
  inner_product_param {
    num_output: 10
    weight_filler {
      type: "gaussian"
      std: 0.1
    }
    bias_filler {
      type: "constant"
    }
  }
}
layer {
  name: "4_prob"
  type: "Softmax"
  bottom: "4_ip2"
  top: "4_prob"
}
layer {
  name: "1_accuracy"
  type: "Accuracy"
  bottom: "1_prob"
  bottom: "label"
  top: "1_accuracy"
  include {
    phase: TEST
  }
}
layer {
  name: "2_accuracy"
  type: "Accuracy"
  bottom: "2_prob"
  bottom: "label"
  top: "2_accuracy"
  include {
    phase: TEST
  }
}
layer {
  name: "3_accuracy"
  type: "Accuracy"
  bottom: "3_prob"
  bottom: "label"
  top: "3_accuracy"
  include {
    phase: TEST
  }
}
layer {
  name: "4_accuracy"
  type: "Accuracy"
  bottom: "4_prob"
  bottom: "label"
  top: "4_accuracy"
  include {
    phase: TEST
  }
}
layer {
  name: "accuracy"
  type: "OracleAccuracy"
  bottom: "1_prob"
  bottom: "2_prob"
  bottom: "3_prob"
  bottom: "4_prob"
  bottom: "label"
  top: "oracle accuracy"
  include {
    phase: TEST
  }
}
I0207 22:59:42.335932 25827 layer_factory.hpp:74] Creating layer cifar
I0207 22:59:42.335937 25827 net.cpp:90] Creating Layer cifar
I0207 22:59:42.335940 25827 net.cpp:368] cifar -> data
I0207 22:59:42.335945 25827 net.cpp:368] cifar -> label
I0207 22:59:42.335948 25827 net.cpp:120] Setting up cifar
I0207 22:59:42.335971 25827 db.cpp:34] Opened lmdb /home/mike/ml_lab/mod/MCL_Caffe/examples/cifar10/cifar10_test_lmdb
I0207 22:59:42.335989 25827 data_layer.cpp:67] output data size: 100,3,32,32
I0207 22:59:42.335994 25827 data_transformer.cpp:22] Loading mean file from: /home/mike/ml_lab/mod/MCL_Caffe/examples/cifar10/mean.binaryproto
I0207 22:59:42.336289 25827 net.cpp:127] Top shape: 100 3 32 32 (307200)
I0207 22:59:42.336294 25827 net.cpp:127] Top shape: 100 (100)
I0207 22:59:42.336297 25827 layer_factory.hpp:74] Creating layer data_cifar_0_split
I0207 22:59:42.336300 25827 net.cpp:90] Creating Layer data_cifar_0_split
I0207 22:59:42.336302 25827 net.cpp:410] data_cifar_0_split <- data
I0207 22:59:42.336305 25827 net.cpp:368] data_cifar_0_split -> data_cifar_0_split_0
I0207 22:59:42.336309 25827 net.cpp:368] data_cifar_0_split -> data_cifar_0_split_1
I0207 22:59:42.336313 25827 net.cpp:368] data_cifar_0_split -> data_cifar_0_split_2
I0207 22:59:42.336318 25827 net.cpp:368] data_cifar_0_split -> data_cifar_0_split_3
I0207 22:59:42.336320 25827 net.cpp:120] Setting up data_cifar_0_split
I0207 22:59:42.336324 25827 net.cpp:127] Top shape: 100 3 32 32 (307200)
I0207 22:59:42.336326 25827 net.cpp:127] Top shape: 100 3 32 32 (307200)
I0207 22:59:42.336328 25827 net.cpp:127] Top shape: 100 3 32 32 (307200)
I0207 22:59:42.336330 25827 net.cpp:127] Top shape: 100 3 32 32 (307200)
I0207 22:59:42.336333 25827 layer_factory.hpp:74] Creating layer label_cifar_1_split
I0207 22:59:42.336335 25827 net.cpp:90] Creating Layer label_cifar_1_split
I0207 22:59:42.336336 25827 net.cpp:410] label_cifar_1_split <- label
I0207 22:59:42.336339 25827 net.cpp:368] label_cifar_1_split -> label_cifar_1_split_0
I0207 22:59:42.336343 25827 net.cpp:368] label_cifar_1_split -> label_cifar_1_split_1
I0207 22:59:42.336345 25827 net.cpp:368] label_cifar_1_split -> label_cifar_1_split_2
I0207 22:59:42.336349 25827 net.cpp:368] label_cifar_1_split -> label_cifar_1_split_3
I0207 22:59:42.336351 25827 net.cpp:368] label_cifar_1_split -> label_cifar_1_split_4
I0207 22:59:42.336354 25827 net.cpp:120] Setting up label_cifar_1_split
I0207 22:59:42.336357 25827 net.cpp:127] Top shape: 100 (100)
I0207 22:59:42.336359 25827 net.cpp:127] Top shape: 100 (100)
I0207 22:59:42.336361 25827 net.cpp:127] Top shape: 100 (100)
I0207 22:59:42.336364 25827 net.cpp:127] Top shape: 100 (100)
I0207 22:59:42.336365 25827 net.cpp:127] Top shape: 100 (100)
I0207 22:59:42.336367 25827 layer_factory.hpp:74] Creating layer 1_conv1
I0207 22:59:42.336371 25827 net.cpp:90] Creating Layer 1_conv1
I0207 22:59:42.336374 25827 net.cpp:410] 1_conv1 <- data_cifar_0_split_0
I0207 22:59:42.336376 25827 net.cpp:368] 1_conv1 -> 1_conv1
I0207 22:59:42.336380 25827 net.cpp:120] Setting up 1_conv1
I0207 22:59:42.336441 25827 net.cpp:127] Top shape: 100 32 32 32 (3276800)
I0207 22:59:42.336446 25827 layer_factory.hpp:74] Creating layer 1_pool1
I0207 22:59:42.336449 25827 net.cpp:90] Creating Layer 1_pool1
I0207 22:59:42.336452 25827 net.cpp:410] 1_pool1 <- 1_conv1
I0207 22:59:42.336454 25827 net.cpp:368] 1_pool1 -> 1_pool1
I0207 22:59:42.336457 25827 net.cpp:120] Setting up 1_pool1
I0207 22:59:42.336460 25827 net.cpp:127] Top shape: 100 32 16 16 (819200)
I0207 22:59:42.336462 25827 layer_factory.hpp:74] Creating layer 1_relu1
I0207 22:59:42.336465 25827 net.cpp:90] Creating Layer 1_relu1
I0207 22:59:42.336467 25827 net.cpp:410] 1_relu1 <- 1_pool1
I0207 22:59:42.336470 25827 net.cpp:357] 1_relu1 -> 1_pool1 (in-place)
I0207 22:59:42.336472 25827 net.cpp:120] Setting up 1_relu1
I0207 22:59:42.336482 25827 net.cpp:127] Top shape: 100 32 16 16 (819200)
I0207 22:59:42.336483 25827 layer_factory.hpp:74] Creating layer 1_conv2
I0207 22:59:42.336486 25827 net.cpp:90] Creating Layer 1_conv2
I0207 22:59:42.336488 25827 net.cpp:410] 1_conv2 <- 1_pool1
I0207 22:59:42.336491 25827 net.cpp:368] 1_conv2 -> 1_conv2
I0207 22:59:42.336494 25827 net.cpp:120] Setting up 1_conv2
I0207 22:59:42.337074 25827 net.cpp:127] Top shape: 100 32 16 16 (819200)
I0207 22:59:42.337079 25827 layer_factory.hpp:74] Creating layer 1_relu2
I0207 22:59:42.337081 25827 net.cpp:90] Creating Layer 1_relu2
I0207 22:59:42.337083 25827 net.cpp:410] 1_relu2 <- 1_conv2
I0207 22:59:42.337086 25827 net.cpp:357] 1_relu2 -> 1_conv2 (in-place)
I0207 22:59:42.337090 25827 net.cpp:120] Setting up 1_relu2
I0207 22:59:42.337091 25827 net.cpp:127] Top shape: 100 32 16 16 (819200)
I0207 22:59:42.337093 25827 layer_factory.hpp:74] Creating layer 1_pool2
I0207 22:59:42.337096 25827 net.cpp:90] Creating Layer 1_pool2
I0207 22:59:42.337098 25827 net.cpp:410] 1_pool2 <- 1_conv2
I0207 22:59:42.337101 25827 net.cpp:368] 1_pool2 -> 1_pool2
I0207 22:59:42.337107 25827 net.cpp:120] Setting up 1_pool2
I0207 22:59:42.337113 25827 net.cpp:127] Top shape: 100 32 8 8 (204800)
I0207 22:59:42.337116 25827 layer_factory.hpp:74] Creating layer 1_conv3
I0207 22:59:42.337121 25827 net.cpp:90] Creating Layer 1_conv3
I0207 22:59:42.337122 25827 net.cpp:410] 1_conv3 <- 1_pool2
I0207 22:59:42.337126 25827 net.cpp:368] 1_conv3 -> 1_conv3
I0207 22:59:42.337129 25827 net.cpp:120] Setting up 1_conv3
I0207 22:59:42.338279 25827 net.cpp:127] Top shape: 100 64 8 8 (409600)
I0207 22:59:42.338286 25827 layer_factory.hpp:74] Creating layer 1_relu3
I0207 22:59:42.338289 25827 net.cpp:90] Creating Layer 1_relu3
I0207 22:59:42.338290 25827 net.cpp:410] 1_relu3 <- 1_conv3
I0207 22:59:42.338294 25827 net.cpp:357] 1_relu3 -> 1_conv3 (in-place)
I0207 22:59:42.338296 25827 net.cpp:120] Setting up 1_relu3
I0207 22:59:42.338299 25827 net.cpp:127] Top shape: 100 64 8 8 (409600)
I0207 22:59:42.338300 25827 layer_factory.hpp:74] Creating layer 1_pool3
I0207 22:59:42.338304 25827 net.cpp:90] Creating Layer 1_pool3
I0207 22:59:42.338305 25827 net.cpp:410] 1_pool3 <- 1_conv3
I0207 22:59:42.338309 25827 net.cpp:368] 1_pool3 -> 1_pool3
I0207 22:59:42.338312 25827 net.cpp:120] Setting up 1_pool3
I0207 22:59:42.338315 25827 net.cpp:127] Top shape: 100 64 4 4 (102400)
I0207 22:59:42.338317 25827 layer_factory.hpp:74] Creating layer 1_ip1
I0207 22:59:42.338320 25827 net.cpp:90] Creating Layer 1_ip1
I0207 22:59:42.338322 25827 net.cpp:410] 1_ip1 <- 1_pool3
I0207 22:59:42.338326 25827 net.cpp:368] 1_ip1 -> 1_ip1
I0207 22:59:42.338330 25827 net.cpp:120] Setting up 1_ip1
I0207 22:59:42.339797 25827 net.cpp:127] Top shape: 100 64 (6400)
I0207 22:59:42.339802 25827 layer_factory.hpp:74] Creating layer 1_ip2
I0207 22:59:42.339805 25827 net.cpp:90] Creating Layer 1_ip2
I0207 22:59:42.339807 25827 net.cpp:410] 1_ip2 <- 1_ip1
I0207 22:59:42.339810 25827 net.cpp:368] 1_ip2 -> 1_ip2
I0207 22:59:42.339813 25827 net.cpp:120] Setting up 1_ip2
I0207 22:59:42.339834 25827 net.cpp:127] Top shape: 100 10 (1000)
I0207 22:59:42.339839 25827 layer_factory.hpp:74] Creating layer 1_prob
I0207 22:59:42.339843 25827 net.cpp:90] Creating Layer 1_prob
I0207 22:59:42.339844 25827 net.cpp:410] 1_prob <- 1_ip2
I0207 22:59:42.339848 25827 net.cpp:368] 1_prob -> 1_prob
I0207 22:59:42.339850 25827 net.cpp:120] Setting up 1_prob
I0207 22:59:42.339854 25827 net.cpp:127] Top shape: 100 10 (1000)
I0207 22:59:42.339856 25827 layer_factory.hpp:74] Creating layer 1_prob_1_prob_0_split
I0207 22:59:42.339859 25827 net.cpp:90] Creating Layer 1_prob_1_prob_0_split
I0207 22:59:42.339860 25827 net.cpp:410] 1_prob_1_prob_0_split <- 1_prob
I0207 22:59:42.339864 25827 net.cpp:368] 1_prob_1_prob_0_split -> 1_prob_1_prob_0_split_0
I0207 22:59:42.339866 25827 net.cpp:368] 1_prob_1_prob_0_split -> 1_prob_1_prob_0_split_1
I0207 22:59:42.339869 25827 net.cpp:120] Setting up 1_prob_1_prob_0_split
I0207 22:59:42.339872 25827 net.cpp:127] Top shape: 100 10 (1000)
I0207 22:59:42.339880 25827 net.cpp:127] Top shape: 100 10 (1000)
I0207 22:59:42.339882 25827 layer_factory.hpp:74] Creating layer 2_conv1
I0207 22:59:42.339889 25827 net.cpp:90] Creating Layer 2_conv1
I0207 22:59:42.339890 25827 net.cpp:410] 2_conv1 <- data_cifar_0_split_1
I0207 22:59:42.339893 25827 net.cpp:368] 2_conv1 -> 2_conv1
I0207 22:59:42.339897 25827 net.cpp:120] Setting up 2_conv1
I0207 22:59:42.339958 25827 net.cpp:127] Top shape: 100 32 32 32 (3276800)
I0207 22:59:42.339963 25827 layer_factory.hpp:74] Creating layer 2_pool1
I0207 22:59:42.339967 25827 net.cpp:90] Creating Layer 2_pool1
I0207 22:59:42.339968 25827 net.cpp:410] 2_pool1 <- 2_conv1
I0207 22:59:42.339970 25827 net.cpp:368] 2_pool1 -> 2_pool1
I0207 22:59:42.339973 25827 net.cpp:120] Setting up 2_pool1
I0207 22:59:42.339977 25827 net.cpp:127] Top shape: 100 32 16 16 (819200)
I0207 22:59:42.339979 25827 layer_factory.hpp:74] Creating layer 2_relu1
I0207 22:59:42.339982 25827 net.cpp:90] Creating Layer 2_relu1
I0207 22:59:42.339983 25827 net.cpp:410] 2_relu1 <- 2_pool1
I0207 22:59:42.339987 25827 net.cpp:357] 2_relu1 -> 2_pool1 (in-place)
I0207 22:59:42.339989 25827 net.cpp:120] Setting up 2_relu1
I0207 22:59:42.339992 25827 net.cpp:127] Top shape: 100 32 16 16 (819200)
I0207 22:59:42.339993 25827 layer_factory.hpp:74] Creating layer 2_conv2
I0207 22:59:42.339996 25827 net.cpp:90] Creating Layer 2_conv2
I0207 22:59:42.339998 25827 net.cpp:410] 2_conv2 <- 2_pool1
I0207 22:59:42.340000 25827 net.cpp:368] 2_conv2 -> 2_conv2
I0207 22:59:42.340003 25827 net.cpp:120] Setting up 2_conv2
I0207 22:59:42.340580 25827 net.cpp:127] Top shape: 100 32 16 16 (819200)
I0207 22:59:42.340585 25827 layer_factory.hpp:74] Creating layer 2_relu2
I0207 22:59:42.340589 25827 net.cpp:90] Creating Layer 2_relu2
I0207 22:59:42.340590 25827 net.cpp:410] 2_relu2 <- 2_conv2
I0207 22:59:42.340592 25827 net.cpp:357] 2_relu2 -> 2_conv2 (in-place)
I0207 22:59:42.340595 25827 net.cpp:120] Setting up 2_relu2
I0207 22:59:42.340598 25827 net.cpp:127] Top shape: 100 32 16 16 (819200)
I0207 22:59:42.340600 25827 layer_factory.hpp:74] Creating layer 2_pool2
I0207 22:59:42.340602 25827 net.cpp:90] Creating Layer 2_pool2
I0207 22:59:42.340605 25827 net.cpp:410] 2_pool2 <- 2_conv2
I0207 22:59:42.340606 25827 net.cpp:368] 2_pool2 -> 2_pool2
I0207 22:59:42.340610 25827 net.cpp:120] Setting up 2_pool2
I0207 22:59:42.340612 25827 net.cpp:127] Top shape: 100 32 8 8 (204800)
I0207 22:59:42.340615 25827 layer_factory.hpp:74] Creating layer 2_conv3
I0207 22:59:42.340618 25827 net.cpp:90] Creating Layer 2_conv3
I0207 22:59:42.340620 25827 net.cpp:410] 2_conv3 <- 2_pool2
I0207 22:59:42.340622 25827 net.cpp:368] 2_conv3 -> 2_conv3
I0207 22:59:42.340626 25827 net.cpp:120] Setting up 2_conv3
I0207 22:59:42.341781 25827 net.cpp:127] Top shape: 100 64 8 8 (409600)
I0207 22:59:42.341787 25827 layer_factory.hpp:74] Creating layer 2_relu3
I0207 22:59:42.341790 25827 net.cpp:90] Creating Layer 2_relu3
I0207 22:59:42.341791 25827 net.cpp:410] 2_relu3 <- 2_conv3
I0207 22:59:42.341795 25827 net.cpp:357] 2_relu3 -> 2_conv3 (in-place)
I0207 22:59:42.341799 25827 net.cpp:120] Setting up 2_relu3
I0207 22:59:42.341801 25827 net.cpp:127] Top shape: 100 64 8 8 (409600)
I0207 22:59:42.341804 25827 layer_factory.hpp:74] Creating layer 2_pool3
I0207 22:59:42.341805 25827 net.cpp:90] Creating Layer 2_pool3
I0207 22:59:42.341807 25827 net.cpp:410] 2_pool3 <- 2_conv3
I0207 22:59:42.341809 25827 net.cpp:368] 2_pool3 -> 2_pool3
I0207 22:59:42.341812 25827 net.cpp:120] Setting up 2_pool3
I0207 22:59:42.341816 25827 net.cpp:127] Top shape: 100 64 4 4 (102400)
I0207 22:59:42.341819 25827 layer_factory.hpp:74] Creating layer 2_ip1
I0207 22:59:42.341821 25827 net.cpp:90] Creating Layer 2_ip1
I0207 22:59:42.341823 25827 net.cpp:410] 2_ip1 <- 2_pool3
I0207 22:59:42.341825 25827 net.cpp:368] 2_ip1 -> 2_ip1
I0207 22:59:42.341828 25827 net.cpp:120] Setting up 2_ip1
I0207 22:59:42.343296 25827 net.cpp:127] Top shape: 100 64 (6400)
I0207 22:59:42.343303 25827 layer_factory.hpp:74] Creating layer 2_ip2
I0207 22:59:42.343307 25827 net.cpp:90] Creating Layer 2_ip2
I0207 22:59:42.343314 25827 net.cpp:410] 2_ip2 <- 2_ip1
I0207 22:59:42.343318 25827 net.cpp:368] 2_ip2 -> 2_ip2
I0207 22:59:42.343322 25827 net.cpp:120] Setting up 2_ip2
I0207 22:59:42.343343 25827 net.cpp:127] Top shape: 100 10 (1000)
I0207 22:59:42.343345 25827 layer_factory.hpp:74] Creating layer 2_prob
I0207 22:59:42.343349 25827 net.cpp:90] Creating Layer 2_prob
I0207 22:59:42.343351 25827 net.cpp:410] 2_prob <- 2_ip2
I0207 22:59:42.343353 25827 net.cpp:368] 2_prob -> 2_prob
I0207 22:59:42.343356 25827 net.cpp:120] Setting up 2_prob
I0207 22:59:42.343360 25827 net.cpp:127] Top shape: 100 10 (1000)
I0207 22:59:42.343361 25827 layer_factory.hpp:74] Creating layer 2_prob_2_prob_0_split
I0207 22:59:42.343365 25827 net.cpp:90] Creating Layer 2_prob_2_prob_0_split
I0207 22:59:42.343367 25827 net.cpp:410] 2_prob_2_prob_0_split <- 2_prob
I0207 22:59:42.343369 25827 net.cpp:368] 2_prob_2_prob_0_split -> 2_prob_2_prob_0_split_0
I0207 22:59:42.343374 25827 net.cpp:368] 2_prob_2_prob_0_split -> 2_prob_2_prob_0_split_1
I0207 22:59:42.343377 25827 net.cpp:120] Setting up 2_prob_2_prob_0_split
I0207 22:59:42.343380 25827 net.cpp:127] Top shape: 100 10 (1000)
I0207 22:59:42.343384 25827 net.cpp:127] Top shape: 100 10 (1000)
I0207 22:59:42.343386 25827 layer_factory.hpp:74] Creating layer 3_conv1
I0207 22:59:42.343389 25827 net.cpp:90] Creating Layer 3_conv1
I0207 22:59:42.343391 25827 net.cpp:410] 3_conv1 <- data_cifar_0_split_2
I0207 22:59:42.343395 25827 net.cpp:368] 3_conv1 -> 3_conv1
I0207 22:59:42.343399 25827 net.cpp:120] Setting up 3_conv1
I0207 22:59:42.343459 25827 net.cpp:127] Top shape: 100 32 32 32 (3276800)
I0207 22:59:42.343464 25827 layer_factory.hpp:74] Creating layer 3_pool1
I0207 22:59:42.343467 25827 net.cpp:90] Creating Layer 3_pool1
I0207 22:59:42.343468 25827 net.cpp:410] 3_pool1 <- 3_conv1
I0207 22:59:42.343472 25827 net.cpp:368] 3_pool1 -> 3_pool1
I0207 22:59:42.343474 25827 net.cpp:120] Setting up 3_pool1
I0207 22:59:42.343477 25827 net.cpp:127] Top shape: 100 32 16 16 (819200)
I0207 22:59:42.343479 25827 layer_factory.hpp:74] Creating layer 3_relu1
I0207 22:59:42.343482 25827 net.cpp:90] Creating Layer 3_relu1
I0207 22:59:42.343483 25827 net.cpp:410] 3_relu1 <- 3_pool1
I0207 22:59:42.343487 25827 net.cpp:357] 3_relu1 -> 3_pool1 (in-place)
I0207 22:59:42.343489 25827 net.cpp:120] Setting up 3_relu1
I0207 22:59:42.343492 25827 net.cpp:127] Top shape: 100 32 16 16 (819200)
I0207 22:59:42.343494 25827 layer_factory.hpp:74] Creating layer 3_conv2
I0207 22:59:42.343498 25827 net.cpp:90] Creating Layer 3_conv2
I0207 22:59:42.343499 25827 net.cpp:410] 3_conv2 <- 3_pool1
I0207 22:59:42.343502 25827 net.cpp:368] 3_conv2 -> 3_conv2
I0207 22:59:42.343505 25827 net.cpp:120] Setting up 3_conv2
I0207 22:59:42.344082 25827 net.cpp:127] Top shape: 100 32 16 16 (819200)
I0207 22:59:42.344087 25827 layer_factory.hpp:74] Creating layer 3_relu2
I0207 22:59:42.344090 25827 net.cpp:90] Creating Layer 3_relu2
I0207 22:59:42.344092 25827 net.cpp:410] 3_relu2 <- 3_conv2
I0207 22:59:42.344095 25827 net.cpp:357] 3_relu2 -> 3_conv2 (in-place)
I0207 22:59:42.344097 25827 net.cpp:120] Setting up 3_relu2
I0207 22:59:42.344100 25827 net.cpp:127] Top shape: 100 32 16 16 (819200)
I0207 22:59:42.344102 25827 layer_factory.hpp:74] Creating layer 3_pool2
I0207 22:59:42.344105 25827 net.cpp:90] Creating Layer 3_pool2
I0207 22:59:42.344106 25827 net.cpp:410] 3_pool2 <- 3_conv2
I0207 22:59:42.344108 25827 net.cpp:368] 3_pool2 -> 3_pool2
I0207 22:59:42.344111 25827 net.cpp:120] Setting up 3_pool2
I0207 22:59:42.344115 25827 net.cpp:127] Top shape: 100 32 8 8 (204800)
I0207 22:59:42.344116 25827 layer_factory.hpp:74] Creating layer 3_conv3
I0207 22:59:42.344120 25827 net.cpp:90] Creating Layer 3_conv3
I0207 22:59:42.344122 25827 net.cpp:410] 3_conv3 <- 3_pool2
I0207 22:59:42.344125 25827 net.cpp:368] 3_conv3 -> 3_conv3
I0207 22:59:42.344128 25827 net.cpp:120] Setting up 3_conv3
I0207 22:59:42.345281 25827 net.cpp:127] Top shape: 100 64 8 8 (409600)
I0207 22:59:42.345286 25827 layer_factory.hpp:74] Creating layer 3_relu3
I0207 22:59:42.345295 25827 net.cpp:90] Creating Layer 3_relu3
I0207 22:59:42.345298 25827 net.cpp:410] 3_relu3 <- 3_conv3
I0207 22:59:42.345300 25827 net.cpp:357] 3_relu3 -> 3_conv3 (in-place)
I0207 22:59:42.345302 25827 net.cpp:120] Setting up 3_relu3
I0207 22:59:42.345305 25827 net.cpp:127] Top shape: 100 64 8 8 (409600)
I0207 22:59:42.345307 25827 layer_factory.hpp:74] Creating layer 3_pool3
I0207 22:59:42.345309 25827 net.cpp:90] Creating Layer 3_pool3
I0207 22:59:42.345311 25827 net.cpp:410] 3_pool3 <- 3_conv3
I0207 22:59:42.345314 25827 net.cpp:368] 3_pool3 -> 3_pool3
I0207 22:59:42.345316 25827 net.cpp:120] Setting up 3_pool3
I0207 22:59:42.345319 25827 net.cpp:127] Top shape: 100 64 4 4 (102400)
I0207 22:59:42.345321 25827 layer_factory.hpp:74] Creating layer 3_ip1
I0207 22:59:42.345324 25827 net.cpp:90] Creating Layer 3_ip1
I0207 22:59:42.345326 25827 net.cpp:410] 3_ip1 <- 3_pool3
I0207 22:59:42.345329 25827 net.cpp:368] 3_ip1 -> 3_ip1
I0207 22:59:42.345332 25827 net.cpp:120] Setting up 3_ip1
I0207 22:59:42.346801 25827 net.cpp:127] Top shape: 100 64 (6400)
I0207 22:59:42.346806 25827 layer_factory.hpp:74] Creating layer 3_ip2
I0207 22:59:42.346808 25827 net.cpp:90] Creating Layer 3_ip2
I0207 22:59:42.346810 25827 net.cpp:410] 3_ip2 <- 3_ip1
I0207 22:59:42.346814 25827 net.cpp:368] 3_ip2 -> 3_ip2
I0207 22:59:42.346817 25827 net.cpp:120] Setting up 3_ip2
I0207 22:59:42.346837 25827 net.cpp:127] Top shape: 100 10 (1000)
I0207 22:59:42.346842 25827 layer_factory.hpp:74] Creating layer 3_prob
I0207 22:59:42.346844 25827 net.cpp:90] Creating Layer 3_prob
I0207 22:59:42.346846 25827 net.cpp:410] 3_prob <- 3_ip2
I0207 22:59:42.346848 25827 net.cpp:368] 3_prob -> 3_prob
I0207 22:59:42.346851 25827 net.cpp:120] Setting up 3_prob
I0207 22:59:42.346855 25827 net.cpp:127] Top shape: 100 10 (1000)
I0207 22:59:42.346856 25827 layer_factory.hpp:74] Creating layer 3_prob_3_prob_0_split
I0207 22:59:42.346860 25827 net.cpp:90] Creating Layer 3_prob_3_prob_0_split
I0207 22:59:42.346861 25827 net.cpp:410] 3_prob_3_prob_0_split <- 3_prob
I0207 22:59:42.346864 25827 net.cpp:368] 3_prob_3_prob_0_split -> 3_prob_3_prob_0_split_0
I0207 22:59:42.346868 25827 net.cpp:368] 3_prob_3_prob_0_split -> 3_prob_3_prob_0_split_1
I0207 22:59:42.346870 25827 net.cpp:120] Setting up 3_prob_3_prob_0_split
I0207 22:59:42.346873 25827 net.cpp:127] Top shape: 100 10 (1000)
I0207 22:59:42.346875 25827 net.cpp:127] Top shape: 100 10 (1000)
I0207 22:59:42.346878 25827 layer_factory.hpp:74] Creating layer 4_conv1
I0207 22:59:42.346881 25827 net.cpp:90] Creating Layer 4_conv1
I0207 22:59:42.346884 25827 net.cpp:410] 4_conv1 <- data_cifar_0_split_3
I0207 22:59:42.346886 25827 net.cpp:368] 4_conv1 -> 4_conv1
I0207 22:59:42.346890 25827 net.cpp:120] Setting up 4_conv1
I0207 22:59:42.346951 25827 net.cpp:127] Top shape: 100 32 32 32 (3276800)
I0207 22:59:42.346956 25827 layer_factory.hpp:74] Creating layer 4_pool1
I0207 22:59:42.346959 25827 net.cpp:90] Creating Layer 4_pool1
I0207 22:59:42.346961 25827 net.cpp:410] 4_pool1 <- 4_conv1
I0207 22:59:42.346964 25827 net.cpp:368] 4_pool1 -> 4_pool1
I0207 22:59:42.346966 25827 net.cpp:120] Setting up 4_pool1
I0207 22:59:42.346971 25827 net.cpp:127] Top shape: 100 32 16 16 (819200)
I0207 22:59:42.346972 25827 layer_factory.hpp:74] Creating layer 4_relu1
I0207 22:59:42.346974 25827 net.cpp:90] Creating Layer 4_relu1
I0207 22:59:42.346976 25827 net.cpp:410] 4_relu1 <- 4_pool1
I0207 22:59:42.346978 25827 net.cpp:357] 4_relu1 -> 4_pool1 (in-place)
I0207 22:59:42.346981 25827 net.cpp:120] Setting up 4_relu1
I0207 22:59:42.346983 25827 net.cpp:127] Top shape: 100 32 16 16 (819200)
I0207 22:59:42.346985 25827 layer_factory.hpp:74] Creating layer 4_conv2
I0207 22:59:42.346988 25827 net.cpp:90] Creating Layer 4_conv2
I0207 22:59:42.346990 25827 net.cpp:410] 4_conv2 <- 4_pool1
I0207 22:59:42.346993 25827 net.cpp:368] 4_conv2 -> 4_conv2
I0207 22:59:42.346997 25827 net.cpp:120] Setting up 4_conv2
I0207 22:59:42.347571 25827 net.cpp:127] Top shape: 100 32 16 16 (819200)
I0207 22:59:42.347579 25827 layer_factory.hpp:74] Creating layer 4_relu2
I0207 22:59:42.347587 25827 net.cpp:90] Creating Layer 4_relu2
I0207 22:59:42.347589 25827 net.cpp:410] 4_relu2 <- 4_conv2
I0207 22:59:42.347595 25827 net.cpp:357] 4_relu2 -> 4_conv2 (in-place)
I0207 22:59:42.347599 25827 net.cpp:120] Setting up 4_relu2
I0207 22:59:42.347600 25827 net.cpp:127] Top shape: 100 32 16 16 (819200)
I0207 22:59:42.347602 25827 layer_factory.hpp:74] Creating layer 4_pool2
I0207 22:59:42.347605 25827 net.cpp:90] Creating Layer 4_pool2
I0207 22:59:42.347607 25827 net.cpp:410] 4_pool2 <- 4_conv2
I0207 22:59:42.347609 25827 net.cpp:368] 4_pool2 -> 4_pool2
I0207 22:59:42.347612 25827 net.cpp:120] Setting up 4_pool2
I0207 22:59:42.347615 25827 net.cpp:127] Top shape: 100 32 8 8 (204800)
I0207 22:59:42.347617 25827 layer_factory.hpp:74] Creating layer 4_conv3
I0207 22:59:42.347621 25827 net.cpp:90] Creating Layer 4_conv3
I0207 22:59:42.347623 25827 net.cpp:410] 4_conv3 <- 4_pool2
I0207 22:59:42.347626 25827 net.cpp:368] 4_conv3 -> 4_conv3
I0207 22:59:42.347630 25827 net.cpp:120] Setting up 4_conv3
I0207 22:59:42.348898 25827 net.cpp:127] Top shape: 100 64 8 8 (409600)
I0207 22:59:42.348903 25827 layer_factory.hpp:74] Creating layer 4_relu3
I0207 22:59:42.348907 25827 net.cpp:90] Creating Layer 4_relu3
I0207 22:59:42.348909 25827 net.cpp:410] 4_relu3 <- 4_conv3
I0207 22:59:42.348912 25827 net.cpp:357] 4_relu3 -> 4_conv3 (in-place)
I0207 22:59:42.348915 25827 net.cpp:120] Setting up 4_relu3
I0207 22:59:42.348918 25827 net.cpp:127] Top shape: 100 64 8 8 (409600)
I0207 22:59:42.348920 25827 layer_factory.hpp:74] Creating layer 4_pool3
I0207 22:59:42.348923 25827 net.cpp:90] Creating Layer 4_pool3
I0207 22:59:42.348925 25827 net.cpp:410] 4_pool3 <- 4_conv3
I0207 22:59:42.348927 25827 net.cpp:368] 4_pool3 -> 4_pool3
I0207 22:59:42.348932 25827 net.cpp:120] Setting up 4_pool3
I0207 22:59:42.348934 25827 net.cpp:127] Top shape: 100 64 4 4 (102400)
I0207 22:59:42.348937 25827 layer_factory.hpp:74] Creating layer 4_ip1
I0207 22:59:42.348940 25827 net.cpp:90] Creating Layer 4_ip1
I0207 22:59:42.348942 25827 net.cpp:410] 4_ip1 <- 4_pool3
I0207 22:59:42.348945 25827 net.cpp:368] 4_ip1 -> 4_ip1
I0207 22:59:42.348948 25827 net.cpp:120] Setting up 4_ip1
I0207 22:59:42.350425 25827 net.cpp:127] Top shape: 100 64 (6400)
I0207 22:59:42.350430 25827 layer_factory.hpp:74] Creating layer 4_ip2
I0207 22:59:42.350435 25827 net.cpp:90] Creating Layer 4_ip2
I0207 22:59:42.350436 25827 net.cpp:410] 4_ip2 <- 4_ip1
I0207 22:59:42.350440 25827 net.cpp:368] 4_ip2 -> 4_ip2
I0207 22:59:42.350443 25827 net.cpp:120] Setting up 4_ip2
I0207 22:59:42.350464 25827 net.cpp:127] Top shape: 100 10 (1000)
I0207 22:59:42.350467 25827 layer_factory.hpp:74] Creating layer 4_prob
I0207 22:59:42.350471 25827 net.cpp:90] Creating Layer 4_prob
I0207 22:59:42.350472 25827 net.cpp:410] 4_prob <- 4_ip2
I0207 22:59:42.350476 25827 net.cpp:368] 4_prob -> 4_prob
I0207 22:59:42.350478 25827 net.cpp:120] Setting up 4_prob
I0207 22:59:42.350482 25827 net.cpp:127] Top shape: 100 10 (1000)
I0207 22:59:42.350484 25827 layer_factory.hpp:74] Creating layer 4_prob_4_prob_0_split
I0207 22:59:42.350487 25827 net.cpp:90] Creating Layer 4_prob_4_prob_0_split
I0207 22:59:42.350489 25827 net.cpp:410] 4_prob_4_prob_0_split <- 4_prob
I0207 22:59:42.350492 25827 net.cpp:368] 4_prob_4_prob_0_split -> 4_prob_4_prob_0_split_0
I0207 22:59:42.350497 25827 net.cpp:368] 4_prob_4_prob_0_split -> 4_prob_4_prob_0_split_1
I0207 22:59:42.350499 25827 net.cpp:120] Setting up 4_prob_4_prob_0_split
I0207 22:59:42.350502 25827 net.cpp:127] Top shape: 100 10 (1000)
I0207 22:59:42.350504 25827 net.cpp:127] Top shape: 100 10 (1000)
I0207 22:59:42.350507 25827 layer_factory.hpp:74] Creating layer 1_accuracy
I0207 22:59:42.350510 25827 net.cpp:90] Creating Layer 1_accuracy
I0207 22:59:42.350512 25827 net.cpp:410] 1_accuracy <- 1_prob_1_prob_0_split_0
I0207 22:59:42.350515 25827 net.cpp:410] 1_accuracy <- label_cifar_1_split_0
I0207 22:59:42.350519 25827 net.cpp:368] 1_accuracy -> 1_accuracy
I0207 22:59:42.350522 25827 net.cpp:120] Setting up 1_accuracy
…
