…
I0207 20:19:55.739856 15578 net.cpp:287] The NetState phase (0) differed from the phase (1) specified by a rule in layer accuracy
I0207 20:19:55.740028 15578 net.cpp:42] Initializing net from parameters: 
name: "CIFAR10_quick"
state {
  phase: TRAIN
}
layer {
  name: "cifar"
  type: "Data"
  top: "data"
  top: "label"
  include {
    phase: TRAIN
  }
  transform_param {
    mean_file: "/home/mike/ml_lab/mod/MCL_Caffe/examples/cifar10/mean.binaryproto"
  }
  data_param {
    source: "/home/mike/ml_lab/mod/MCL_Caffe/examples/cifar10/cifar10_train_lmdb"
    batch_size: 350
    backend: LMDB
  }
}
layer {
  name: "1_conv1"
  type: "Convolution"
  bottom: "data"
  top: "1_conv1"
  param {
    lr_mult: 1
  }
  param {
    lr_mult: 2
  }
  convolution_param {
    num_output: 32
    pad: 2
    kernel_size: 5
    stride: 1
    weight_filler {
      type: "gaussian"
      std: 0.0001
    }
    bias_filler {
      type: "constant"
    }
  }
}
layer {
  name: "1_pool1"
  type: "Pooling"
  bottom: "1_conv1"
  top: "1_pool1"
  pooling_param {
    pool: MAX
    kernel_size: 3
    stride: 2
  }
}
layer {
  name: "1_relu1"
  type: "ReLU"
  bottom: "1_pool1"
  top: "1_pool1"
}
layer {
  name: "1_conv2"
  type: "Convolution"
  bottom: "1_pool1"
  top: "1_conv2"
  param {
    lr_mult: 1
  }
  param {
    lr_mult: 2
  }
  convolution_param {
    num_output: 32
    pad: 2
    kernel_size: 5
    stride: 1
    weight_filler {
      type: "gaussian"
      std: 0.01
    }
    bias_filler {
      type: "constant"
    }
  }
}
layer {
  name: "1_relu2"
  type: "ReLU"
  bottom: "1_conv2"
  top: "1_conv2"
}
layer {
  name: "1_pool2"
  type: "Pooling"
  bottom: "1_conv2"
  top: "1_pool2"
  pooling_param {
    pool: AVE
    kernel_size: 3
    stride: 2
  }
}
layer {
  name: "1_conv3"
  type: "Convolution"
  bottom: "1_pool2"
  top: "1_conv3"
  param {
    lr_mult: 1
  }
  param {
    lr_mult: 2
  }
  convolution_param {
    num_output: 64
    pad: 2
    kernel_size: 5
    stride: 1
    weight_filler {
      type: "gaussian"
      std: 0.01
    }
    bias_filler {
      type: "constant"
    }
  }
}
layer {
  name: "1_relu3"
  type: "ReLU"
  bottom: "1_conv3"
  top: "1_conv3"
}
layer {
  name: "1_pool3"
  type: "Pooling"
  bottom: "1_conv3"
  top: "1_pool3"
  pooling_param {
    pool: AVE
    kernel_size: 3
    stride: 2
  }
}
layer {
  name: "1_ip1"
  type: "InnerProduct"
  bottom: "1_pool3"
  top: "1_ip1"
  param {
    lr_mult: 1
  }
  param {
    lr_mult: 2
  }
  inner_product_param {
    num_output: 64
    weight_filler {
      type: "gaussian"
      std: 0.1
    }
    bias_filler {
      type: "constant"
    }
  }
}
layer {
  name: "1_ip2"
  type: "InnerProduct"
  bottom: "1_ip1"
  top: "1_ip2"
  param {
    lr_mult: 1
  }
  param {
    lr_mult: 2
  }
  inner_product_param {
    num_output: 10
    weight_filler {
      type: "gaussian"
      std: 0.1
    }
    bias_filler {
      type: "constant"
    }
  }
}
layer {
  name: "1_prob"
  type: "Softmax"
  bottom: "1_ip2"
  top: "1_prob"
}
layer {
  name: "2_conv1"
  type: "Convolution"
  bottom: "data"
  top: "2_conv1"
  param {
    lr_mult: 1
  }
  param {
    lr_mult: 2
  }
  convolution_param {
    num_output: 32
    pad: 2
    kernel_size: 5
    stride: 1
    weight_filler {
      type: "gaussian"
      std: 0.0001
    }
    bias_filler {
      type: "constant"
    }
  }
}
layer {
  name: "2_pool1"
  type: "Pooling"
  bottom: "2_conv1"
  top: "2_pool1"
  pooling_param {
    pool: MAX
    kernel_size: 3
    stride: 2
  }
}
layer {
  name: "2_relu1"
  type: "ReLU"
  bottom: "2_pool1"
  top: "2_pool1"
}
layer {
  name: "2_conv2"
  type: "Convolution"
  bottom: "2_pool1"
  top: "2_conv2"
  param {
    lr_mult: 1
  }
  param {
    lr_mult: 2
  }
  convolution_param {
    num_output: 32
    pad: 2
    kernel_size: 5
    stride: 1
    weight_filler {
      type: "gaussian"
      std: 0.01
    }
    bias_filler {
      type: "constant"
    }
  }
}
layer {
  name: "2_relu2"
  type: "ReLU"
  bottom: "2_conv2"
  top: "2_conv2"
}
layer {
  name: "2_pool2"
  type: "Pooling"
  bottom: "2_conv2"
  top: "2_pool2"
  pooling_param {
    pool: AVE
    kernel_size: 3
    stride: 2
  }
}
layer {
  name: "2_conv3"
  type: "Convolution"
  bottom: "2_pool2"
  top: "2_conv3"
  param {
    lr_mult: 1
  }
  param {
    lr_mult: 2
  }
  convolution_param {
    num_output: 64
    pad: 2
    kernel_size: 5
    stride: 1
    weight_filler {
      type: "gaussian"
      std: 0.01
    }
    bias_filler {
      type: "constant"
    }
  }
}
layer {
  name: "2_relu3"
  type: "ReLU"
  bottom: "2_conv3"
  top: "2_conv3"
}
layer {
  name: "2_pool3"
  type: "Pooling"
  bottom: "2_conv3"
  top: "2_pool3"
  pooling_param {
    pool: AVE
    kernel_size: 3
    stride: 2
  }
}
layer {
  name: "2_ip1"
  type: "InnerProduct"
  bottom: "2_pool3"
  top: "2_ip1"
  param {
    lr_mult: 1
  }
  param {
    lr_mult: 2
  }
  inner_product_param {
    num_output: 64
    weight_filler {
      type: "gaussian"
      std: 0.1
    }
    bias_filler {
      type: "constant"
    }
  }
}
layer {
  name: "2_ip2"
  type: "InnerProduct"
  bottom: "2_ip1"
  top: "2_ip2"
  param {
    lr_mult: 1
  }
  param {
    lr_mult: 2
  }
  inner_product_param {
    num_output: 10
    weight_filler {
      type: "gaussian"
      std: 0.1
    }
    bias_filler {
      type: "constant"
    }
  }
}
layer {
  name: "2_prob"
  type: "Softmax"
  bottom: "2_ip2"
  top: "2_prob"
}
layer {
  name: "3_conv1"
  type: "Convolution"
  bottom: "data"
  top: "3_conv1"
  param {
    lr_mult: 1
  }
  param {
    lr_mult: 2
  }
  convolution_param {
    num_output: 32
    pad: 2
    kernel_size: 5
    stride: 1
    weight_filler {
      type: "gaussian"
      std: 0.0001
    }
    bias_filler {
      type: "constant"
    }
  }
}
layer {
  name: "3_pool1"
  type: "Pooling"
  bottom: "3_conv1"
  top: "3_pool1"
  pooling_param {
    pool: MAX
    kernel_size: 3
    stride: 2
  }
}
layer {
  name: "3_relu1"
  type: "ReLU"
  bottom: "3_pool1"
  top: "3_pool1"
}
layer {
  name: "3_conv2"
  type: "Convolution"
  bottom: "3_pool1"
  top: "3_conv2"
  param {
    lr_mult: 1
  }
  param {
    lr_mult: 2
  }
  convolution_param {
    num_output: 32
    pad: 2
    kernel_size: 5
    stride: 1
    weight_filler {
      type: "gaussian"
      std: 0.01
    }
    bias_filler {
      type: "constant"
    }
  }
}
layer {
  name: "3_relu2"
  type: "ReLU"
  bottom: "3_conv2"
  top: "3_conv2"
}
layer {
  name: "3_pool2"
  type: "Pooling"
  bottom: "3_conv2"
  top: "3_pool2"
  pooling_param {
    pool: AVE
    kernel_size: 3
    stride: 2
  }
}
layer {
  name: "3_conv3"
  type: "Convolution"
  bottom: "3_pool2"
  top: "3_conv3"
  param {
    lr_mult: 1
  }
  param {
    lr_mult: 2
  }
  convolution_param {
    num_output: 64
    pad: 2
    kernel_size: 5
    stride: 1
    weight_filler {
      type: "gaussian"
      std: 0.01
    }
    bias_filler {
      type: "constant"
    }
  }
}
layer {
  name: "3_relu3"
  type: "ReLU"
  bottom: "3_conv3"
  top: "3_conv3"
}
layer {
  name: "3_pool3"
  type: "Pooling"
  bottom: "3_conv3"
  top: "3_pool3"
  pooling_param {
    pool: AVE
    kernel_size: 3
    stride: 2
  }
}
layer {
  name: "3_ip1"
  type: "InnerProduct"
  bottom: "3_pool3"
  top: "3_ip1"
  param {
    lr_mult: 1
  }
  param {
    lr_mult: 2
  }
  inner_product_param {
    num_output: 64
    weight_filler {
      type: "gaussian"
      std: 0.1
    }
    bias_filler {
      type: "constant"
    }
  }
}
layer {
  name: "3_ip2"
  type: "InnerProduct"
  bottom: "3_ip1"
  top: "3_ip2"
  param {
    lr_mult: 1
  }
  param {
    lr_mult: 2
  }
  inner_product_param {
    num_output: 10
    weight_filler {
      type: "gaussian"
      std: 0.1
    }
    bias_filler {
      type: "constant"
    }
  }
}
layer {
  name: "3_prob"
  type: "Softmax"
  bottom: "3_ip2"
  top: "3_prob"
}
layer {
  name: "4_conv1"
  type: "Convolution"
  bottom: "data"
  top: "4_conv1"
  param {
    lr_mult: 1
  }
  param {
    lr_mult: 2
  }
  convolution_param {
    num_output: 32
    pad: 2
    kernel_size: 5
    stride: 1
    weight_filler {
      type: "gaussian"
      std: 0.0001
    }
    bias_filler {
      type: "constant"
    }
  }
}
layer {
  name: "4_pool1"
  type: "Pooling"
  bottom: "4_conv1"
  top: "4_pool1"
  pooling_param {
    pool: MAX
    kernel_size: 3
    stride: 2
  }
}
layer {
  name: "4_relu1"
  type: "ReLU"
  bottom: "4_pool1"
  top: "4_pool1"
}
layer {
  name: "4_conv2"
  type: "Convolution"
  bottom: "4_pool1"
  top: "4_conv2"
  param {
    lr_mult: 1
  }
  param {
    lr_mult: 2
  }
  convolution_param {
    num_output: 32
    pad: 2
    kernel_size: 5
    stride: 1
    weight_filler {
      type: "gaussian"
      std: 0.01
    }
    bias_filler {
      type: "constant"
    }
  }
}
layer {
  name: "4_relu2"
  type: "ReLU"
  bottom: "4_conv2"
  top: "4_conv2"
}
layer {
  name: "4_pool2"
  type: "Pooling"
  bottom: "4_conv2"
  top: "4_pool2"
  pooling_param {
    pool: AVE
    kernel_size: 3
    stride: 2
  }
}
layer {
  name: "4_conv3"
  type: "Convolution"
  bottom: "4_pool2"
  top: "4_conv3"
  param {
    lr_mult: 1
  }
  param {
    lr_mult: 2
  }
  convolution_param {
    num_output: 64
    pad: 2
    kernel_size: 5
    stride: 1
    weight_filler {
      type: "gaussian"
      std: 0.01
    }
    bias_filler {
      type: "constant"
    }
  }
}
layer {
  name: "4_relu3"
  type: "ReLU"
  bottom: "4_conv3"
  top: "4_conv3"
}
layer {
  name: "4_pool3"
  type: "Pooling"
  bottom: "4_conv3"
  top: "4_pool3"
  pooling_param {
    pool: AVE
    kernel_size: 3
    stride: 2
  }
}
layer {
  name: "4_ip1"
  type: "InnerProduct"
  bottom: "4_pool3"
  top: "4_ip1"
  param {
    lr_mult: 1
  }
  param {
    lr_mult: 2
  }
  inner_product_param {
    num_output: 64
    weight_filler {
      type: "gaussian"
      std: 0.1
    }
    bias_filler {
      type: "constant"
    }
  }
}
layer {
  name: "4_ip2"
  type: "InnerProduct"
  bottom: "4_ip1"
  top: "4_ip2"
  param {
    lr_mult: 1
  }
  param {
    lr_mult: 2
  }
  inner_product_param {
    num_output: 10
    weight_filler {
      type: "gaussian"
      std: 0.1
    }
    bias_filler {
      type: "constant"
    }
  }
}
layer {
  name: "4_prob"
  type: "Softmax"
  bottom: "4_ip2"
  top: "4_prob"
}
layer {
  name: "loss"
  type: "ODRandomAwardBMultinomialLogisticLoss"
  bottom: "1_prob"
  bottom: "2_prob"
  bottom: "3_prob"
  bottom: "4_prob"
  bottom: "label"
  top: "multiple-output loss"
  top: "batch-instance-counts"
  top: "train-instance-counts"
  top: "curr-b-value"
  loss_weight: 1
  loss_weight: 0
  loss_weight: 0
  loss_weight: 0
  include {
    phase: TRAIN
  }
  od_param {
    start_rand_award: 0.5
    rand_select: false
    decrease_rand: true
    draw_m_minus_one: false
    rand_decay: 0.001
    award_all: false
  }
}
I0207 20:19:55.740187 15578 layer_factory.hpp:74] Creating layer cifar
I0207 20:19:55.740200 15578 net.cpp:90] Creating Layer cifar
I0207 20:19:55.740206 15578 net.cpp:368] cifar -> data
I0207 20:19:55.740234 15578 net.cpp:368] cifar -> label
I0207 20:19:55.740247 15578 net.cpp:120] Setting up cifar
I0207 20:19:55.740293 15578 db.cpp:34] Opened lmdb /home/mike/ml_lab/mod/MCL_Caffe/examples/cifar10/cifar10_train_lmdb
I0207 20:19:55.740334 15578 data_layer.cpp:67] output data size: 350,3,32,32
I0207 20:19:55.740342 15578 data_transformer.cpp:22] Loading mean file from: /home/mike/ml_lab/mod/MCL_Caffe/examples/cifar10/mean.binaryproto
I0207 20:19:55.741022 15578 net.cpp:127] Top shape: 350 3 32 32 (1075200)
I0207 20:19:55.741029 15578 net.cpp:127] Top shape: 350 (350)
I0207 20:19:55.741032 15578 layer_factory.hpp:74] Creating layer data_cifar_0_split
I0207 20:19:55.741039 15578 net.cpp:90] Creating Layer data_cifar_0_split
I0207 20:19:55.741041 15578 net.cpp:410] data_cifar_0_split <- data
I0207 20:19:55.741050 15578 net.cpp:368] data_cifar_0_split -> data_cifar_0_split_0
I0207 20:19:55.741057 15578 net.cpp:368] data_cifar_0_split -> data_cifar_0_split_1
I0207 20:19:55.741063 15578 net.cpp:368] data_cifar_0_split -> data_cifar_0_split_2
I0207 20:19:55.741084 15578 net.cpp:368] data_cifar_0_split -> data_cifar_0_split_3
I0207 20:19:55.741091 15578 net.cpp:120] Setting up data_cifar_0_split
I0207 20:19:55.741099 15578 net.cpp:127] Top shape: 350 3 32 32 (1075200)
I0207 20:19:55.741111 15578 net.cpp:127] Top shape: 350 3 32 32 (1075200)
I0207 20:19:55.741118 15578 net.cpp:127] Top shape: 350 3 32 32 (1075200)
I0207 20:19:55.741122 15578 net.cpp:127] Top shape: 350 3 32 32 (1075200)
I0207 20:19:55.741127 15578 layer_factory.hpp:74] Creating layer 1_conv1
I0207 20:19:55.741137 15578 net.cpp:90] Creating Layer 1_conv1
I0207 20:19:55.741140 15578 net.cpp:410] 1_conv1 <- data_cifar_0_split_0
I0207 20:19:55.741147 15578 net.cpp:368] 1_conv1 -> 1_conv1
I0207 20:19:55.741155 15578 net.cpp:120] Setting up 1_conv1
I0207 20:19:55.741572 15578 net.cpp:127] Top shape: 350 32 32 32 (11468800)
I0207 20:19:55.741585 15578 layer_factory.hpp:74] Creating layer 1_pool1
I0207 20:19:55.741593 15578 net.cpp:90] Creating Layer 1_pool1
I0207 20:19:55.741598 15578 net.cpp:410] 1_pool1 <- 1_conv1
I0207 20:19:55.741605 15578 net.cpp:368] 1_pool1 -> 1_pool1
I0207 20:19:55.741612 15578 net.cpp:120] Setting up 1_pool1
I0207 20:19:55.741626 15578 net.cpp:127] Top shape: 350 32 16 16 (2867200)
I0207 20:19:55.741631 15578 layer_factory.hpp:74] Creating layer 1_relu1
I0207 20:19:55.741636 15578 net.cpp:90] Creating Layer 1_relu1
I0207 20:19:55.741641 15578 net.cpp:410] 1_relu1 <- 1_pool1
I0207 20:19:55.741646 15578 net.cpp:357] 1_relu1 -> 1_pool1 (in-place)
I0207 20:19:55.741650 15578 net.cpp:120] Setting up 1_relu1
I0207 20:19:55.741667 15578 net.cpp:127] Top shape: 350 32 16 16 (2867200)
I0207 20:19:55.741672 15578 layer_factory.hpp:74] Creating layer 1_conv2
I0207 20:19:55.741679 15578 net.cpp:90] Creating Layer 1_conv2
I0207 20:19:55.741683 15578 net.cpp:410] 1_conv2 <- 1_pool1
I0207 20:19:55.741690 15578 net.cpp:368] 1_conv2 -> 1_conv2
I0207 20:19:55.741698 15578 net.cpp:120] Setting up 1_conv2
I0207 20:19:55.742285 15578 net.cpp:127] Top shape: 350 32 16 16 (2867200)
I0207 20:19:55.742295 15578 layer_factory.hpp:74] Creating layer 1_relu2
I0207 20:19:55.742300 15578 net.cpp:90] Creating Layer 1_relu2
I0207 20:19:55.742305 15578 net.cpp:410] 1_relu2 <- 1_conv2
I0207 20:19:55.742310 15578 net.cpp:357] 1_relu2 -> 1_conv2 (in-place)
I0207 20:19:55.742316 15578 net.cpp:120] Setting up 1_relu2
I0207 20:19:55.742321 15578 net.cpp:127] Top shape: 350 32 16 16 (2867200)
I0207 20:19:55.742326 15578 layer_factory.hpp:74] Creating layer 1_pool2
I0207 20:19:55.742341 15578 net.cpp:90] Creating Layer 1_pool2
I0207 20:19:55.742346 15578 net.cpp:410] 1_pool2 <- 1_conv2
I0207 20:19:55.742350 15578 net.cpp:368] 1_pool2 -> 1_pool2
I0207 20:19:55.742355 15578 net.cpp:120] Setting up 1_pool2
I0207 20:19:55.742363 15578 net.cpp:127] Top shape: 350 32 8 8 (716800)
I0207 20:19:55.742368 15578 layer_factory.hpp:74] Creating layer 1_conv3
I0207 20:19:55.742377 15578 net.cpp:90] Creating Layer 1_conv3
I0207 20:19:55.742380 15578 net.cpp:410] 1_conv3 <- 1_pool2
I0207 20:19:55.742394 15578 net.cpp:368] 1_conv3 -> 1_conv3
I0207 20:19:55.742403 15578 net.cpp:120] Setting up 1_conv3
I0207 20:19:55.743561 15578 net.cpp:127] Top shape: 350 64 8 8 (1433600)
I0207 20:19:55.743569 15578 layer_factory.hpp:74] Creating layer 1_relu3
I0207 20:19:55.743577 15578 net.cpp:90] Creating Layer 1_relu3
I0207 20:19:55.743580 15578 net.cpp:410] 1_relu3 <- 1_conv3
I0207 20:19:55.743587 15578 net.cpp:357] 1_relu3 -> 1_conv3 (in-place)
I0207 20:19:55.743592 15578 net.cpp:120] Setting up 1_relu3
I0207 20:19:55.743598 15578 net.cpp:127] Top shape: 350 64 8 8 (1433600)
I0207 20:19:55.743602 15578 layer_factory.hpp:74] Creating layer 1_pool3
I0207 20:19:55.743607 15578 net.cpp:90] Creating Layer 1_pool3
I0207 20:19:55.743612 15578 net.cpp:410] 1_pool3 <- 1_conv3
I0207 20:19:55.743618 15578 net.cpp:368] 1_pool3 -> 1_pool3
I0207 20:19:55.743623 15578 net.cpp:120] Setting up 1_pool3
I0207 20:19:55.743631 15578 net.cpp:127] Top shape: 350 64 4 4 (358400)
I0207 20:19:55.743635 15578 layer_factory.hpp:74] Creating layer 1_ip1
I0207 20:19:55.743641 15578 net.cpp:90] Creating Layer 1_ip1
I0207 20:19:55.743645 15578 net.cpp:410] 1_ip1 <- 1_pool3
I0207 20:19:55.743650 15578 net.cpp:368] 1_ip1 -> 1_ip1
I0207 20:19:55.743659 15578 net.cpp:120] Setting up 1_ip1
I0207 20:19:55.745182 15578 net.cpp:127] Top shape: 350 64 (22400)
I0207 20:19:55.745190 15578 layer_factory.hpp:74] Creating layer 1_ip2
I0207 20:19:55.745195 15578 net.cpp:90] Creating Layer 1_ip2
I0207 20:19:55.745209 15578 net.cpp:410] 1_ip2 <- 1_ip1
I0207 20:19:55.745218 15578 net.cpp:368] 1_ip2 -> 1_ip2
I0207 20:19:55.745225 15578 net.cpp:120] Setting up 1_ip2
I0207 20:19:55.745252 15578 net.cpp:127] Top shape: 350 10 (3500)
I0207 20:19:55.745261 15578 layer_factory.hpp:74] Creating layer 1_prob
I0207 20:19:55.745267 15578 net.cpp:90] Creating Layer 1_prob
I0207 20:19:55.745272 15578 net.cpp:410] 1_prob <- 1_ip2
I0207 20:19:55.745277 15578 net.cpp:368] 1_prob -> 1_prob
I0207 20:19:55.745283 15578 net.cpp:120] Setting up 1_prob
I0207 20:19:55.745293 15578 net.cpp:127] Top shape: 350 10 (3500)
I0207 20:19:55.745296 15578 layer_factory.hpp:74] Creating layer 2_conv1
I0207 20:19:55.745304 15578 net.cpp:90] Creating Layer 2_conv1
I0207 20:19:55.745308 15578 net.cpp:410] 2_conv1 <- data_cifar_0_split_1
I0207 20:19:55.745314 15578 net.cpp:368] 2_conv1 -> 2_conv1
I0207 20:19:55.745321 15578 net.cpp:120] Setting up 2_conv1
I0207 20:19:55.745388 15578 net.cpp:127] Top shape: 350 32 32 32 (11468800)
I0207 20:19:55.745395 15578 layer_factory.hpp:74] Creating layer 2_pool1
I0207 20:19:55.745403 15578 net.cpp:90] Creating Layer 2_pool1
I0207 20:19:55.745406 15578 net.cpp:410] 2_pool1 <- 2_conv1
I0207 20:19:55.745411 15578 net.cpp:368] 2_pool1 -> 2_pool1
I0207 20:19:55.745419 15578 net.cpp:120] Setting up 2_pool1
I0207 20:19:55.745426 15578 net.cpp:127] Top shape: 350 32 16 16 (2867200)
I0207 20:19:55.745430 15578 layer_factory.hpp:74] Creating layer 2_relu1
I0207 20:19:55.745437 15578 net.cpp:90] Creating Layer 2_relu1
I0207 20:19:55.745440 15578 net.cpp:410] 2_relu1 <- 2_pool1
I0207 20:19:55.745445 15578 net.cpp:357] 2_relu1 -> 2_pool1 (in-place)
I0207 20:19:55.745450 15578 net.cpp:120] Setting up 2_relu1
I0207 20:19:55.745465 15578 net.cpp:127] Top shape: 350 32 16 16 (2867200)
I0207 20:19:55.745468 15578 layer_factory.hpp:74] Creating layer 2_conv2
I0207 20:19:55.745476 15578 net.cpp:90] Creating Layer 2_conv2
I0207 20:19:55.745481 15578 net.cpp:410] 2_conv2 <- 2_pool1
I0207 20:19:55.745486 15578 net.cpp:368] 2_conv2 -> 2_conv2
I0207 20:19:55.745493 15578 net.cpp:120] Setting up 2_conv2
I0207 20:19:55.746076 15578 net.cpp:127] Top shape: 350 32 16 16 (2867200)
I0207 20:19:55.746083 15578 layer_factory.hpp:74] Creating layer 2_relu2
I0207 20:19:55.746091 15578 net.cpp:90] Creating Layer 2_relu2
I0207 20:19:55.746093 15578 net.cpp:410] 2_relu2 <- 2_conv2
I0207 20:19:55.746096 15578 net.cpp:357] 2_relu2 -> 2_conv2 (in-place)
I0207 20:19:55.746099 15578 net.cpp:120] Setting up 2_relu2
I0207 20:19:55.746101 15578 net.cpp:127] Top shape: 350 32 16 16 (2867200)
I0207 20:19:55.746109 15578 layer_factory.hpp:74] Creating layer 2_pool2
I0207 20:19:55.746114 15578 net.cpp:90] Creating Layer 2_pool2
I0207 20:19:55.746115 15578 net.cpp:410] 2_pool2 <- 2_conv2
I0207 20:19:55.746117 15578 net.cpp:368] 2_pool2 -> 2_pool2
I0207 20:19:55.746120 15578 net.cpp:120] Setting up 2_pool2
I0207 20:19:55.746124 15578 net.cpp:127] Top shape: 350 32 8 8 (716800)
I0207 20:19:55.746126 15578 layer_factory.hpp:74] Creating layer 2_conv3
I0207 20:19:55.746129 15578 net.cpp:90] Creating Layer 2_conv3
I0207 20:19:55.746131 15578 net.cpp:410] 2_conv3 <- 2_pool2
I0207 20:19:55.746134 15578 net.cpp:368] 2_conv3 -> 2_conv3
I0207 20:19:55.746137 15578 net.cpp:120] Setting up 2_conv3
I0207 20:19:55.747300 15578 net.cpp:127] Top shape: 350 64 8 8 (1433600)
I0207 20:19:55.747306 15578 layer_factory.hpp:74] Creating layer 2_relu3
I0207 20:19:55.747309 15578 net.cpp:90] Creating Layer 2_relu3
I0207 20:19:55.747311 15578 net.cpp:410] 2_relu3 <- 2_conv3
I0207 20:19:55.747314 15578 net.cpp:357] 2_relu3 -> 2_conv3 (in-place)
I0207 20:19:55.747318 15578 net.cpp:120] Setting up 2_relu3
I0207 20:19:55.747319 15578 net.cpp:127] Top shape: 350 64 8 8 (1433600)
I0207 20:19:55.747321 15578 layer_factory.hpp:74] Creating layer 2_pool3
I0207 20:19:55.747325 15578 net.cpp:90] Creating Layer 2_pool3
I0207 20:19:55.747326 15578 net.cpp:410] 2_pool3 <- 2_conv3
I0207 20:19:55.747329 15578 net.cpp:368] 2_pool3 -> 2_pool3
I0207 20:19:55.747333 15578 net.cpp:120] Setting up 2_pool3
I0207 20:19:55.747336 15578 net.cpp:127] Top shape: 350 64 4 4 (358400)
I0207 20:19:55.747337 15578 layer_factory.hpp:74] Creating layer 2_ip1
I0207 20:19:55.747340 15578 net.cpp:90] Creating Layer 2_ip1
I0207 20:19:55.747342 15578 net.cpp:410] 2_ip1 <- 2_pool3
I0207 20:19:55.747345 15578 net.cpp:368] 2_ip1 -> 2_ip1
I0207 20:19:55.747349 15578 net.cpp:120] Setting up 2_ip1
I0207 20:19:55.748821 15578 net.cpp:127] Top shape: 350 64 (22400)
I0207 20:19:55.748827 15578 layer_factory.hpp:74] Creating layer 2_ip2
I0207 20:19:55.748831 15578 net.cpp:90] Creating Layer 2_ip2
I0207 20:19:55.748832 15578 net.cpp:410] 2_ip2 <- 2_ip1
I0207 20:19:55.748836 15578 net.cpp:368] 2_ip2 -> 2_ip2
I0207 20:19:55.748839 15578 net.cpp:120] Setting up 2_ip2
I0207 20:19:55.748860 15578 net.cpp:127] Top shape: 350 10 (3500)
I0207 20:19:55.748863 15578 layer_factory.hpp:74] Creating layer 2_prob
I0207 20:19:55.748867 15578 net.cpp:90] Creating Layer 2_prob
I0207 20:19:55.748868 15578 net.cpp:410] 2_prob <- 2_ip2
I0207 20:19:55.748872 15578 net.cpp:368] 2_prob -> 2_prob
I0207 20:19:55.748873 15578 net.cpp:120] Setting up 2_prob
I0207 20:19:55.748878 15578 net.cpp:127] Top shape: 350 10 (3500)
I0207 20:19:55.748879 15578 layer_factory.hpp:74] Creating layer 3_conv1
I0207 20:19:55.748883 15578 net.cpp:90] Creating Layer 3_conv1
I0207 20:19:55.748884 15578 net.cpp:410] 3_conv1 <- data_cifar_0_split_2
I0207 20:19:55.748888 15578 net.cpp:368] 3_conv1 -> 3_conv1
I0207 20:19:55.748891 15578 net.cpp:120] Setting up 3_conv1
I0207 20:19:55.748952 15578 net.cpp:127] Top shape: 350 32 32 32 (11468800)
I0207 20:19:55.748956 15578 layer_factory.hpp:74] Creating layer 3_pool1
I0207 20:19:55.748960 15578 net.cpp:90] Creating Layer 3_pool1
I0207 20:19:55.748961 15578 net.cpp:410] 3_pool1 <- 3_conv1
I0207 20:19:55.748965 15578 net.cpp:368] 3_pool1 -> 3_pool1
I0207 20:19:55.748967 15578 net.cpp:120] Setting up 3_pool1
I0207 20:19:55.748970 15578 net.cpp:127] Top shape: 350 32 16 16 (2867200)
I0207 20:19:55.748972 15578 layer_factory.hpp:74] Creating layer 3_relu1
I0207 20:19:55.748975 15578 net.cpp:90] Creating Layer 3_relu1
I0207 20:19:55.748977 15578 net.cpp:410] 3_relu1 <- 3_pool1
I0207 20:19:55.748980 15578 net.cpp:357] 3_relu1 -> 3_pool1 (in-place)
I0207 20:19:55.748981 15578 net.cpp:120] Setting up 3_relu1
I0207 20:19:55.748984 15578 net.cpp:127] Top shape: 350 32 16 16 (2867200)
I0207 20:19:55.748986 15578 layer_factory.hpp:74] Creating layer 3_conv2
I0207 20:19:55.748989 15578 net.cpp:90] Creating Layer 3_conv2
I0207 20:19:55.748991 15578 net.cpp:410] 3_conv2 <- 3_pool1
I0207 20:19:55.748994 15578 net.cpp:368] 3_conv2 -> 3_conv2
I0207 20:19:55.749003 15578 net.cpp:120] Setting up 3_conv2
I0207 20:19:55.749585 15578 net.cpp:127] Top shape: 350 32 16 16 (2867200)
I0207 20:19:55.749590 15578 layer_factory.hpp:74] Creating layer 3_relu2
I0207 20:19:55.749594 15578 net.cpp:90] Creating Layer 3_relu2
I0207 20:19:55.749595 15578 net.cpp:410] 3_relu2 <- 3_conv2
I0207 20:19:55.749599 15578 net.cpp:357] 3_relu2 -> 3_conv2 (in-place)
I0207 20:19:55.749601 15578 net.cpp:120] Setting up 3_relu2
I0207 20:19:55.749604 15578 net.cpp:127] Top shape: 350 32 16 16 (2867200)
I0207 20:19:55.749606 15578 layer_factory.hpp:74] Creating layer 3_pool2
I0207 20:19:55.749609 15578 net.cpp:90] Creating Layer 3_pool2
I0207 20:19:55.749610 15578 net.cpp:410] 3_pool2 <- 3_conv2
I0207 20:19:55.749614 15578 net.cpp:368] 3_pool2 -> 3_pool2
I0207 20:19:55.749616 15578 net.cpp:120] Setting up 3_pool2
I0207 20:19:55.749620 15578 net.cpp:127] Top shape: 350 32 8 8 (716800)
I0207 20:19:55.749621 15578 layer_factory.hpp:74] Creating layer 3_conv3
I0207 20:19:55.749626 15578 net.cpp:90] Creating Layer 3_conv3
I0207 20:19:55.749629 15578 net.cpp:410] 3_conv3 <- 3_pool2
I0207 20:19:55.749632 15578 net.cpp:368] 3_conv3 -> 3_conv3
I0207 20:19:55.749635 15578 net.cpp:120] Setting up 3_conv3
I0207 20:19:55.750787 15578 net.cpp:127] Top shape: 350 64 8 8 (1433600)
I0207 20:19:55.750792 15578 layer_factory.hpp:74] Creating layer 3_relu3
I0207 20:19:55.750794 15578 net.cpp:90] Creating Layer 3_relu3
I0207 20:19:55.750795 15578 net.cpp:410] 3_relu3 <- 3_conv3
I0207 20:19:55.750798 15578 net.cpp:357] 3_relu3 -> 3_conv3 (in-place)
I0207 20:19:55.750800 15578 net.cpp:120] Setting up 3_relu3
I0207 20:19:55.750803 15578 net.cpp:127] Top shape: 350 64 8 8 (1433600)
I0207 20:19:55.750805 15578 layer_factory.hpp:74] Creating layer 3_pool3
I0207 20:19:55.750808 15578 net.cpp:90] Creating Layer 3_pool3
I0207 20:19:55.750809 15578 net.cpp:410] 3_pool3 <- 3_conv3
I0207 20:19:55.750813 15578 net.cpp:368] 3_pool3 -> 3_pool3
I0207 20:19:55.750815 15578 net.cpp:120] Setting up 3_pool3
I0207 20:19:55.750818 15578 net.cpp:127] Top shape: 350 64 4 4 (358400)
I0207 20:19:55.750819 15578 layer_factory.hpp:74] Creating layer 3_ip1
I0207 20:19:55.750824 15578 net.cpp:90] Creating Layer 3_ip1
I0207 20:19:55.750826 15578 net.cpp:410] 3_ip1 <- 3_pool3
I0207 20:19:55.750829 15578 net.cpp:368] 3_ip1 -> 3_ip1
I0207 20:19:55.750833 15578 net.cpp:120] Setting up 3_ip1
I0207 20:19:55.752301 15578 net.cpp:127] Top shape: 350 64 (22400)
I0207 20:19:55.752306 15578 layer_factory.hpp:74] Creating layer 3_ip2
I0207 20:19:55.752310 15578 net.cpp:90] Creating Layer 3_ip2
I0207 20:19:55.752312 15578 net.cpp:410] 3_ip2 <- 3_ip1
I0207 20:19:55.752315 15578 net.cpp:368] 3_ip2 -> 3_ip2
I0207 20:19:55.752318 15578 net.cpp:120] Setting up 3_ip2
I0207 20:19:55.752339 15578 net.cpp:127] Top shape: 350 10 (3500)
I0207 20:19:55.752342 15578 layer_factory.hpp:74] Creating layer 3_prob
I0207 20:19:55.752346 15578 net.cpp:90] Creating Layer 3_prob
I0207 20:19:55.752347 15578 net.cpp:410] 3_prob <- 3_ip2
I0207 20:19:55.752351 15578 net.cpp:368] 3_prob -> 3_prob
I0207 20:19:55.752354 15578 net.cpp:120] Setting up 3_prob
I0207 20:19:55.752358 15578 net.cpp:127] Top shape: 350 10 (3500)
I0207 20:19:55.752359 15578 layer_factory.hpp:74] Creating layer 4_conv1
I0207 20:19:55.752364 15578 net.cpp:90] Creating Layer 4_conv1
I0207 20:19:55.752367 15578 net.cpp:410] 4_conv1 <- data_cifar_0_split_3
I0207 20:19:55.752369 15578 net.cpp:368] 4_conv1 -> 4_conv1
I0207 20:19:55.752373 15578 net.cpp:120] Setting up 4_conv1
I0207 20:19:55.752434 15578 net.cpp:127] Top shape: 350 32 32 32 (11468800)
I0207 20:19:55.752439 15578 layer_factory.hpp:74] Creating layer 4_pool1
I0207 20:19:55.752441 15578 net.cpp:90] Creating Layer 4_pool1
I0207 20:19:55.752444 15578 net.cpp:410] 4_pool1 <- 4_conv1
I0207 20:19:55.752446 15578 net.cpp:368] 4_pool1 -> 4_pool1
I0207 20:19:55.752449 15578 net.cpp:120] Setting up 4_pool1
I0207 20:19:55.752452 15578 net.cpp:127] Top shape: 350 32 16 16 (2867200)
I0207 20:19:55.752454 15578 layer_factory.hpp:74] Creating layer 4_relu1
I0207 20:19:55.752462 15578 net.cpp:90] Creating Layer 4_relu1
I0207 20:19:55.752465 15578 net.cpp:410] 4_relu1 <- 4_pool1
I0207 20:19:55.752466 15578 net.cpp:357] 4_relu1 -> 4_pool1 (in-place)
I0207 20:19:55.752470 15578 net.cpp:120] Setting up 4_relu1
I0207 20:19:55.752472 15578 net.cpp:127] Top shape: 350 32 16 16 (2867200)
I0207 20:19:55.752475 15578 layer_factory.hpp:74] Creating layer 4_conv2
I0207 20:19:55.752478 15578 net.cpp:90] Creating Layer 4_conv2
I0207 20:19:55.752480 15578 net.cpp:410] 4_conv2 <- 4_pool1
I0207 20:19:55.752483 15578 net.cpp:368] 4_conv2 -> 4_conv2
I0207 20:19:55.752485 15578 net.cpp:120] Setting up 4_conv2
I0207 20:19:55.753064 15578 net.cpp:127] Top shape: 350 32 16 16 (2867200)
I0207 20:19:55.753072 15578 layer_factory.hpp:74] Creating layer 4_relu2
I0207 20:19:55.753075 15578 net.cpp:90] Creating Layer 4_relu2
I0207 20:19:55.753077 15578 net.cpp:410] 4_relu2 <- 4_conv2
I0207 20:19:55.753079 15578 net.cpp:357] 4_relu2 -> 4_conv2 (in-place)
I0207 20:19:55.753082 15578 net.cpp:120] Setting up 4_relu2
I0207 20:19:55.753084 15578 net.cpp:127] Top shape: 350 32 16 16 (2867200)
I0207 20:19:55.753087 15578 layer_factory.hpp:74] Creating layer 4_pool2
I0207 20:19:55.753089 15578 net.cpp:90] Creating Layer 4_pool2
I0207 20:19:55.753092 15578 net.cpp:410] 4_pool2 <- 4_conv2
I0207 20:19:55.753093 15578 net.cpp:368] 4_pool2 -> 4_pool2
I0207 20:19:55.753096 15578 net.cpp:120] Setting up 4_pool2
I0207 20:19:55.753099 15578 net.cpp:127] Top shape: 350 32 8 8 (716800)
I0207 20:19:55.753101 15578 layer_factory.hpp:74] Creating layer 4_conv3
I0207 20:19:55.753108 15578 net.cpp:90] Creating Layer 4_conv3
I0207 20:19:55.753110 15578 net.cpp:410] 4_conv3 <- 4_pool2
I0207 20:19:55.753113 15578 net.cpp:368] 4_conv3 -> 4_conv3
I0207 20:19:55.753116 15578 net.cpp:120] Setting up 4_conv3
I0207 20:19:55.754266 15578 net.cpp:127] Top shape: 350 64 8 8 (1433600)
I0207 20:19:55.754271 15578 layer_factory.hpp:74] Creating layer 4_relu3
I0207 20:19:55.754274 15578 net.cpp:90] Creating Layer 4_relu3
I0207 20:19:55.754276 15578 net.cpp:410] 4_relu3 <- 4_conv3
I0207 20:19:55.754278 15578 net.cpp:357] 4_relu3 -> 4_conv3 (in-place)
I0207 20:19:55.754281 15578 net.cpp:120] Setting up 4_relu3
I0207 20:19:55.754284 15578 net.cpp:127] Top shape: 350 64 8 8 (1433600)
I0207 20:19:55.754286 15578 layer_factory.hpp:74] Creating layer 4_pool3
I0207 20:19:55.754288 15578 net.cpp:90] Creating Layer 4_pool3
I0207 20:19:55.754290 15578 net.cpp:410] 4_pool3 <- 4_conv3
I0207 20:19:55.754292 15578 net.cpp:368] 4_pool3 -> 4_pool3
I0207 20:19:55.754295 15578 net.cpp:120] Setting up 4_pool3
I0207 20:19:55.754299 15578 net.cpp:127] Top shape: 350 64 4 4 (358400)
I0207 20:19:55.754300 15578 layer_factory.hpp:74] Creating layer 4_ip1
I0207 20:19:55.754304 15578 net.cpp:90] Creating Layer 4_ip1
I0207 20:19:55.754305 15578 net.cpp:410] 4_ip1 <- 4_pool3
I0207 20:19:55.754308 15578 net.cpp:368] 4_ip1 -> 4_ip1
I0207 20:19:55.754312 15578 net.cpp:120] Setting up 4_ip1
I0207 20:19:55.755801 15578 net.cpp:127] Top shape: 350 64 (22400)
I0207 20:19:55.755807 15578 layer_factory.hpp:74] Creating layer 4_ip2
I0207 20:19:55.755810 15578 net.cpp:90] Creating Layer 4_ip2
I0207 20:19:55.755812 15578 net.cpp:410] 4_ip2 <- 4_ip1
I0207 20:19:55.755817 15578 net.cpp:368] 4_ip2 -> 4_ip2
I0207 20:19:55.755821 15578 net.cpp:120] Setting up 4_ip2
I0207 20:19:55.755842 15578 net.cpp:127] Top shape: 350 10 (3500)
I0207 20:19:55.755846 15578 layer_factory.hpp:74] Creating layer 4_prob
I0207 20:19:55.755848 15578 net.cpp:90] Creating Layer 4_prob
I0207 20:19:55.755851 15578 net.cpp:410] 4_prob <- 4_ip2
I0207 20:19:55.755853 15578 net.cpp:368] 4_prob -> 4_prob
I0207 20:19:55.755856 15578 net.cpp:120] Setting up 4_prob
I0207 20:19:55.755859 15578 net.cpp:127] Top shape: 350 10 (3500)
I0207 20:19:55.755861 15578 layer_factory.hpp:74] Creating layer loss
I0207 20:19:55.755867 15578 net.cpp:90] Creating Layer loss
I0207 20:19:55.755868 15578 net.cpp:410] loss <- 1_prob
I0207 20:19:55.755872 15578 net.cpp:410] loss <- 2_prob
I0207 20:19:55.755873 15578 net.cpp:410] loss <- 3_prob
I0207 20:19:55.755882 15578 net.cpp:410] loss <- 4_prob
I0207 20:19:55.755883 15578 net.cpp:410] loss <- label
I0207 20:19:55.755887 15578 net.cpp:368] loss -> multiple-output loss
I0207 20:19:55.755893 15578 net.cpp:368] loss -> batch-instance-counts
I0207 20:19:55.755897 15578 net.cpp:368] loss -> train-instance-counts
I0207 20:19:55.755902 15578 net.cpp:368] loss -> curr-b-value
I0207 20:19:55.755906 15578 net.cpp:120] Setting up loss
I0207 20:19:55.755913 15578 net.cpp:127] Top shape: 4 1 1 1 (4)
I0207 20:19:55.755914 15578 net.cpp:129]     with loss weight 1
I0207 20:19:55.755928 15578 net.cpp:127] Top shape: 4 1 1 1 (4)
I0207 20:19:55.755929 15578 net.cpp:127] Top shape: 4 1 1 1 (4)
I0207 20:19:55.755931 15578 net.cpp:127] Top shape: 1 1 1 1 (1)
I0207 20:19:55.755934 15578 net.cpp:192] loss needs backward computation.
I0207 20:19:55.755936 15578 net.cpp:192] 4_prob needs backward computation.
I0207 20:19:55.755939 15578 net.cpp:192] 4_ip2 needs backward computation.
I0207 20:19:55.755940 15578 net.cpp:192] 4_ip1 needs backward computation.
I0207 20:19:55.755942 15578 net.cpp:192] 4_pool3 needs backward computation.
I0207 20:19:55.755944 15578 net.cpp:192] 4_relu3 needs backward computation.
…
I0207 20:19:55.756881 15578 net.cpp:287] The NetState phase (1) differed from the phase (0) specified by a rule in layer loss
I0207 20:19:55.757047 15578 net.cpp:42] Initializing net from parameters: 
name: "CIFAR10_quick"
state {
  phase: TEST
}
layer {
  name: "cifar"
  type: "Data"
  top: "data"
  top: "label"
  include {
    phase: TEST
  }
  transform_param {
    mean_file: "/home/mike/ml_lab/mod/MCL_Caffe/examples/cifar10/mean.binaryproto"
  }
  data_param {
    source: "/home/mike/ml_lab/mod/MCL_Caffe/examples/cifar10/cifar10_test_lmdb"
    batch_size: 100
    backend: LMDB
  }
}
layer {
  name: "1_conv1"
  type: "Convolution"
  bottom: "data"
  top: "1_conv1"
  param {
    lr_mult: 1
  }
  param {
    lr_mult: 2
  }
  convolution_param {
    num_output: 32
    pad: 2
    kernel_size: 5
    stride: 1
    weight_filler {
      type: "gaussian"
      std: 0.0001
    }
    bias_filler {
      type: "constant"
    }
  }
}
layer {
  name: "1_pool1"
  type: "Pooling"
  bottom: "1_conv1"
  top: "1_pool1"
  pooling_param {
    pool: MAX
    kernel_size: 3
    stride: 2
  }
}
layer {
  name: "1_relu1"
  type: "ReLU"
  bottom: "1_pool1"
  top: "1_pool1"
}
layer {
  name: "1_conv2"
  type: "Convolution"
  bottom: "1_pool1"
  top: "1_conv2"
  param {
    lr_mult: 1
  }
  param {
    lr_mult: 2
  }
  convolution_param {
    num_output: 32
    pad: 2
    kernel_size: 5
    stride: 1
    weight_filler {
      type: "gaussian"
      std: 0.01
    }
    bias_filler {
      type: "constant"
    }
  }
}
layer {
  name: "1_relu2"
  type: "ReLU"
  bottom: "1_conv2"
  top: "1_conv2"
}
layer {
  name: "1_pool2"
  type: "Pooling"
  bottom: "1_conv2"
  top: "1_pool2"
  pooling_param {
    pool: AVE
    kernel_size: 3
    stride: 2
  }
}
layer {
  name: "1_conv3"
  type: "Convolution"
  bottom: "1_pool2"
  top: "1_conv3"
  param {
    lr_mult: 1
  }
  param {
    lr_mult: 2
  }
  convolution_param {
    num_output: 64
    pad: 2
    kernel_size: 5
    stride: 1
    weight_filler {
      type: "gaussian"
      std: 0.01
    }
    bias_filler {
      type: "constant"
    }
  }
}
layer {
  name: "1_relu3"
  type: "ReLU"
  bottom: "1_conv3"
  top: "1_conv3"
}
layer {
  name: "1_pool3"
  type: "Pooling"
  bottom: "1_conv3"
  top: "1_pool3"
  pooling_param {
    pool: AVE
    kernel_size: 3
    stride: 2
  }
}
layer {
  name: "1_ip1"
  type: "InnerProduct"
  bottom: "1_pool3"
  top: "1_ip1"
  param {
    lr_mult: 1
  }
  param {
    lr_mult: 2
  }
  inner_product_param {
    num_output: 64
    weight_filler {
      type: "gaussian"
      std: 0.1
    }
    bias_filler {
      type: "constant"
    }
  }
}
layer {
  name: "1_ip2"
  type: "InnerProduct"
  bottom: "1_ip1"
  top: "1_ip2"
  param {
    lr_mult: 1
  }
  param {
    lr_mult: 2
  }
  inner_product_param {
    num_output: 10
    weight_filler {
      type: "gaussian"
      std: 0.1
    }
    bias_filler {
      type: "constant"
    }
  }
}
layer {
  name: "1_prob"
  type: "Softmax"
  bottom: "1_ip2"
  top: "1_prob"
}
layer {
  name: "2_conv1"
  type: "Convolution"
  bottom: "data"
  top: "2_conv1"
  param {
    lr_mult: 1
  }
  param {
    lr_mult: 2
  }
  convolution_param {
    num_output: 32
    pad: 2
    kernel_size: 5
    stride: 1
    weight_filler {
      type: "gaussian"
      std: 0.0001
    }
    bias_filler {
      type: "constant"
    }
  }
}
layer {
  name: "2_pool1"
  type: "Pooling"
  bottom: "2_conv1"
  top: "2_pool1"
  pooling_param {
    pool: MAX
    kernel_size: 3
    stride: 2
  }
}
layer {
  name: "2_relu1"
  type: "ReLU"
  bottom: "2_pool1"
  top: "2_pool1"
}
layer {
  name: "2_conv2"
  type: "Convolution"
  bottom: "2_pool1"
  top: "2_conv2"
  param {
    lr_mult: 1
  }
  param {
    lr_mult: 2
  }
  convolution_param {
    num_output: 32
    pad: 2
    kernel_size: 5
    stride: 1
    weight_filler {
      type: "gaussian"
      std: 0.01
    }
    bias_filler {
      type: "constant"
    }
  }
}
layer {
  name: "2_relu2"
  type: "ReLU"
  bottom: "2_conv2"
  top: "2_conv2"
}
layer {
  name: "2_pool2"
  type: "Pooling"
  bottom: "2_conv2"
  top: "2_pool2"
  pooling_param {
    pool: AVE
    kernel_size: 3
    stride: 2
  }
}
layer {
  name: "2_conv3"
  type: "Convolution"
  bottom: "2_pool2"
  top: "2_conv3"
  param {
    lr_mult: 1
  }
  param {
    lr_mult: 2
  }
  convolution_param {
    num_output: 64
    pad: 2
    kernel_size: 5
    stride: 1
    weight_filler {
      type: "gaussian"
      std: 0.01
    }
    bias_filler {
      type: "constant"
    }
  }
}
layer {
  name: "2_relu3"
  type: "ReLU"
  bottom: "2_conv3"
  top: "2_conv3"
}
layer {
  name: "2_pool3"
  type: "Pooling"
  bottom: "2_conv3"
  top: "2_pool3"
  pooling_param {
    pool: AVE
    kernel_size: 3
    stride: 2
  }
}
layer {
  name: "2_ip1"
  type: "InnerProduct"
  bottom: "2_pool3"
  top: "2_ip1"
  param {
    lr_mult: 1
  }
  param {
    lr_mult: 2
  }
  inner_product_param {
    num_output: 64
    weight_filler {
      type: "gaussian"
      std: 0.1
    }
    bias_filler {
      type: "constant"
    }
  }
}
layer {
  name: "2_ip2"
  type: "InnerProduct"
  bottom: "2_ip1"
  top: "2_ip2"
  param {
    lr_mult: 1
  }
  param {
    lr_mult: 2
  }
  inner_product_param {
    num_output: 10
    weight_filler {
      type: "gaussian"
      std: 0.1
    }
    bias_filler {
      type: "constant"
    }
  }
}
layer {
  name: "2_prob"
  type: "Softmax"
  bottom: "2_ip2"
  top: "2_prob"
}
layer {
  name: "3_conv1"
  type: "Convolution"
  bottom: "data"
  top: "3_conv1"
  param {
    lr_mult: 1
  }
  param {
    lr_mult: 2
  }
  convolution_param {
    num_output: 32
    pad: 2
    kernel_size: 5
    stride: 1
    weight_filler {
      type: "gaussian"
      std: 0.0001
    }
    bias_filler {
      type: "constant"
    }
  }
}
layer {
  name: "3_pool1"
  type: "Pooling"
  bottom: "3_conv1"
  top: "3_pool1"
  pooling_param {
    pool: MAX
    kernel_size: 3
    stride: 2
  }
}
layer {
  name: "3_relu1"
  type: "ReLU"
  bottom: "3_pool1"
  top: "3_pool1"
}
layer {
  name: "3_conv2"
  type: "Convolution"
  bottom: "3_pool1"
  top: "3_conv2"
  param {
    lr_mult: 1
  }
  param {
    lr_mult: 2
  }
  convolution_param {
    num_output: 32
    pad: 2
    kernel_size: 5
    stride: 1
    weight_filler {
      type: "gaussian"
      std: 0.01
    }
    bias_filler {
      type: "constant"
    }
  }
}
layer {
  name: "3_relu2"
  type: "ReLU"
  bottom: "3_conv2"
  top: "3_conv2"
}
layer {
  name: "3_pool2"
  type: "Pooling"
  bottom: "3_conv2"
  top: "3_pool2"
  pooling_param {
    pool: AVE
    kernel_size: 3
    stride: 2
  }
}
layer {
  name: "3_conv3"
  type: "Convolution"
  bottom: "3_pool2"
  top: "3_conv3"
  param {
    lr_mult: 1
  }
  param {
    lr_mult: 2
  }
  convolution_param {
    num_output: 64
    pad: 2
    kernel_size: 5
    stride: 1
    weight_filler {
      type: "gaussian"
      std: 0.01
    }
    bias_filler {
      type: "constant"
    }
  }
}
layer {
  name: "3_relu3"
  type: "ReLU"
  bottom: "3_conv3"
  top: "3_conv3"
}
layer {
  name: "3_pool3"
  type: "Pooling"
  bottom: "3_conv3"
  top: "3_pool3"
  pooling_param {
    pool: AVE
    kernel_size: 3
    stride: 2
  }
}
layer {
  name: "3_ip1"
  type: "InnerProduct"
  bottom: "3_pool3"
  top: "3_ip1"
  param {
    lr_mult: 1
  }
  param {
    lr_mult: 2
  }
  inner_product_param {
    num_output: 64
    weight_filler {
      type: "gaussian"
      std: 0.1
    }
    bias_filler {
      type: "constant"
    }
  }
}
layer {
  name: "3_ip2"
  type: "InnerProduct"
  bottom: "3_ip1"
  top: "3_ip2"
  param {
    lr_mult: 1
  }
  param {
    lr_mult: 2
  }
  inner_product_param {
    num_output: 10
    weight_filler {
      type: "gaussian"
      std: 0.1
    }
    bias_filler {
      type: "constant"
    }
  }
}
layer {
  name: "3_prob"
  type: "Softmax"
  bottom: "3_ip2"
  top: "3_prob"
}
layer {
  name: "4_conv1"
  type: "Convolution"
  bottom: "data"
  top: "4_conv1"
  param {
    lr_mult: 1
  }
  param {
    lr_mult: 2
  }
  convolution_param {
    num_output: 32
    pad: 2
    kernel_size: 5
    stride: 1
    weight_filler {
      type: "gaussian"
      std: 0.0001
    }
    bias_filler {
      type: "constant"
    }
  }
}
layer {
  name: "4_pool1"
  type: "Pooling"
  bottom: "4_conv1"
  top: "4_pool1"
  pooling_param {
    pool: MAX
    kernel_size: 3
    stride: 2
  }
}
layer {
  name: "4_relu1"
  type: "ReLU"
  bottom: "4_pool1"
  top: "4_pool1"
}
layer {
  name: "4_conv2"
  type: "Convolution"
  bottom: "4_pool1"
  top: "4_conv2"
  param {
    lr_mult: 1
  }
  param {
    lr_mult: 2
  }
  convolution_param {
    num_output: 32
    pad: 2
    kernel_size: 5
    stride: 1
    weight_filler {
      type: "gaussian"
      std: 0.01
    }
    bias_filler {
      type: "constant"
    }
  }
}
layer {
  name: "4_relu2"
  type: "ReLU"
  bottom: "4_conv2"
  top: "4_conv2"
}
layer {
  name: "4_pool2"
  type: "Pooling"
  bottom: "4_conv2"
  top: "4_pool2"
  pooling_param {
    pool: AVE
    kernel_size: 3
    stride: 2
  }
}
layer {
  name: "4_conv3"
  type: "Convolution"
  bottom: "4_pool2"
  top: "4_conv3"
  param {
    lr_mult: 1
  }
  param {
    lr_mult: 2
  }
  convolution_param {
    num_output: 64
    pad: 2
    kernel_size: 5
    stride: 1
    weight_filler {
      type: "gaussian"
      std: 0.01
    }
    bias_filler {
      type: "constant"
    }
  }
}
layer {
  name: "4_relu3"
  type: "ReLU"
  bottom: "4_conv3"
  top: "4_conv3"
}
layer {
  name: "4_pool3"
  type: "Pooling"
  bottom: "4_conv3"
  top: "4_pool3"
  pooling_param {
    pool: AVE
    kernel_size: 3
    stride: 2
  }
}
layer {
  name: "4_ip1"
  type: "InnerProduct"
  bottom: "4_pool3"
  top: "4_ip1"
  param {
    lr_mult: 1
  }
  param {
    lr_mult: 2
  }
  inner_product_param {
    num_output: 64
    weight_filler {
      type: "gaussian"
      std: 0.1
    }
    bias_filler {
      type: "constant"
    }
  }
}
layer {
  name: "4_ip2"
  type: "InnerProduct"
  bottom: "4_ip1"
  top: "4_ip2"
  param {
    lr_mult: 1
  }
  param {
    lr_mult: 2
  }
  inner_product_param {
    num_output: 10
    weight_filler {
      type: "gaussian"
      std: 0.1
    }
    bias_filler {
      type: "constant"
    }
  }
}
layer {
  name: "4_prob"
  type: "Softmax"
  bottom: "4_ip2"
  top: "4_prob"
}
layer {
  name: "1_accuracy"
  type: "Accuracy"
  bottom: "1_prob"
  bottom: "label"
  top: "1_accuracy"
  include {
    phase: TEST
  }
}
layer {
  name: "2_accuracy"
  type: "Accuracy"
  bottom: "2_prob"
  bottom: "label"
  top: "2_accuracy"
  include {
    phase: TEST
  }
}
layer {
  name: "3_accuracy"
  type: "Accuracy"
  bottom: "3_prob"
  bottom: "label"
  top: "3_accuracy"
  include {
    phase: TEST
  }
}
layer {
  name: "4_accuracy"
  type: "Accuracy"
  bottom: "4_prob"
  bottom: "label"
  top: "4_accuracy"
  include {
    phase: TEST
  }
}
layer {
  name: "accuracy"
  type: "OracleAccuracy"
  bottom: "1_prob"
  bottom: "2_prob"
  bottom: "3_prob"
  bottom: "4_prob"
  bottom: "label"
  top: "oracle accuracy"
  include {
    phase: TEST
  }
}
I0207 20:19:55.757206 15578 layer_factory.hpp:74] Creating layer cifar
I0207 20:19:55.757212 15578 net.cpp:90] Creating Layer cifar
I0207 20:19:55.757215 15578 net.cpp:368] cifar -> data
I0207 20:19:55.757220 15578 net.cpp:368] cifar -> label
I0207 20:19:55.757223 15578 net.cpp:120] Setting up cifar
I0207 20:19:55.757246 15578 db.cpp:34] Opened lmdb /home/mike/ml_lab/mod/MCL_Caffe/examples/cifar10/cifar10_test_lmdb
I0207 20:19:55.757266 15578 data_layer.cpp:67] output data size: 100,3,32,32
I0207 20:19:55.757271 15578 data_transformer.cpp:22] Loading mean file from: /home/mike/ml_lab/mod/MCL_Caffe/examples/cifar10/mean.binaryproto
I0207 20:19:55.757647 15578 net.cpp:127] Top shape: 100 3 32 32 (307200)
I0207 20:19:55.757652 15578 net.cpp:127] Top shape: 100 (100)
I0207 20:19:55.757653 15578 layer_factory.hpp:74] Creating layer data_cifar_0_split
I0207 20:19:55.757658 15578 net.cpp:90] Creating Layer data_cifar_0_split
I0207 20:19:55.757659 15578 net.cpp:410] data_cifar_0_split <- data
I0207 20:19:55.757663 15578 net.cpp:368] data_cifar_0_split -> data_cifar_0_split_0
I0207 20:19:55.757668 15578 net.cpp:368] data_cifar_0_split -> data_cifar_0_split_1
I0207 20:19:55.757670 15578 net.cpp:368] data_cifar_0_split -> data_cifar_0_split_2
I0207 20:19:55.757674 15578 net.cpp:368] data_cifar_0_split -> data_cifar_0_split_3
I0207 20:19:55.757676 15578 net.cpp:120] Setting up data_cifar_0_split
I0207 20:19:55.757680 15578 net.cpp:127] Top shape: 100 3 32 32 (307200)
I0207 20:19:55.757683 15578 net.cpp:127] Top shape: 100 3 32 32 (307200)
I0207 20:19:55.757685 15578 net.cpp:127] Top shape: 100 3 32 32 (307200)
I0207 20:19:55.757688 15578 net.cpp:127] Top shape: 100 3 32 32 (307200)
I0207 20:19:55.757689 15578 layer_factory.hpp:74] Creating layer label_cifar_1_split
I0207 20:19:55.757691 15578 net.cpp:90] Creating Layer label_cifar_1_split
I0207 20:19:55.757694 15578 net.cpp:410] label_cifar_1_split <- label
I0207 20:19:55.757696 15578 net.cpp:368] label_cifar_1_split -> label_cifar_1_split_0
I0207 20:19:55.757699 15578 net.cpp:368] label_cifar_1_split -> label_cifar_1_split_1
I0207 20:19:55.757701 15578 net.cpp:368] label_cifar_1_split -> label_cifar_1_split_2
I0207 20:19:55.757706 15578 net.cpp:368] label_cifar_1_split -> label_cifar_1_split_3
I0207 20:19:55.757709 15578 net.cpp:368] label_cifar_1_split -> label_cifar_1_split_4
I0207 20:19:55.757711 15578 net.cpp:120] Setting up label_cifar_1_split
I0207 20:19:55.757715 15578 net.cpp:127] Top shape: 100 (100)
I0207 20:19:55.757717 15578 net.cpp:127] Top shape: 100 (100)
I0207 20:19:55.757719 15578 net.cpp:127] Top shape: 100 (100)
I0207 20:19:55.757721 15578 net.cpp:127] Top shape: 100 (100)
I0207 20:19:55.757724 15578 net.cpp:127] Top shape: 100 (100)
I0207 20:19:55.757725 15578 layer_factory.hpp:74] Creating layer 1_conv1
I0207 20:19:55.757728 15578 net.cpp:90] Creating Layer 1_conv1
I0207 20:19:55.757730 15578 net.cpp:410] 1_conv1 <- data_cifar_0_split_0
I0207 20:19:55.757733 15578 net.cpp:368] 1_conv1 -> 1_conv1
I0207 20:19:55.757736 15578 net.cpp:120] Setting up 1_conv1
I0207 20:19:55.757798 15578 net.cpp:127] Top shape: 100 32 32 32 (3276800)
I0207 20:19:55.757802 15578 layer_factory.hpp:74] Creating layer 1_pool1
I0207 20:19:55.757807 15578 net.cpp:90] Creating Layer 1_pool1
I0207 20:19:55.757808 15578 net.cpp:410] 1_pool1 <- 1_conv1
I0207 20:19:55.757812 15578 net.cpp:368] 1_pool1 -> 1_pool1
I0207 20:19:55.757814 15578 net.cpp:120] Setting up 1_pool1
I0207 20:19:55.757818 15578 net.cpp:127] Top shape: 100 32 16 16 (819200)
I0207 20:19:55.757820 15578 layer_factory.hpp:74] Creating layer 1_relu1
I0207 20:19:55.757823 15578 net.cpp:90] Creating Layer 1_relu1
I0207 20:19:55.757825 15578 net.cpp:410] 1_relu1 <- 1_pool1
I0207 20:19:55.757827 15578 net.cpp:357] 1_relu1 -> 1_pool1 (in-place)
I0207 20:19:55.757830 15578 net.cpp:120] Setting up 1_relu1
I0207 20:19:55.757839 15578 net.cpp:127] Top shape: 100 32 16 16 (819200)
I0207 20:19:55.757841 15578 layer_factory.hpp:74] Creating layer 1_conv2
I0207 20:19:55.757845 15578 net.cpp:90] Creating Layer 1_conv2
I0207 20:19:55.757846 15578 net.cpp:410] 1_conv2 <- 1_pool1
I0207 20:19:55.757849 15578 net.cpp:368] 1_conv2 -> 1_conv2
I0207 20:19:55.757853 15578 net.cpp:120] Setting up 1_conv2
I0207 20:19:55.758430 15578 net.cpp:127] Top shape: 100 32 16 16 (819200)
I0207 20:19:55.758435 15578 layer_factory.hpp:74] Creating layer 1_relu2
I0207 20:19:55.758440 15578 net.cpp:90] Creating Layer 1_relu2
I0207 20:19:55.758441 15578 net.cpp:410] 1_relu2 <- 1_conv2
I0207 20:19:55.758443 15578 net.cpp:357] 1_relu2 -> 1_conv2 (in-place)
I0207 20:19:55.758446 15578 net.cpp:120] Setting up 1_relu2
I0207 20:19:55.758448 15578 net.cpp:127] Top shape: 100 32 16 16 (819200)
I0207 20:19:55.758450 15578 layer_factory.hpp:74] Creating layer 1_pool2
I0207 20:19:55.758453 15578 net.cpp:90] Creating Layer 1_pool2
I0207 20:19:55.758455 15578 net.cpp:410] 1_pool2 <- 1_conv2
I0207 20:19:55.758458 15578 net.cpp:368] 1_pool2 -> 1_pool2
I0207 20:19:55.758461 15578 net.cpp:120] Setting up 1_pool2
I0207 20:19:55.758465 15578 net.cpp:127] Top shape: 100 32 8 8 (204800)
I0207 20:19:55.758466 15578 layer_factory.hpp:74] Creating layer 1_conv3
I0207 20:19:55.758469 15578 net.cpp:90] Creating Layer 1_conv3
I0207 20:19:55.758471 15578 net.cpp:410] 1_conv3 <- 1_pool2
I0207 20:19:55.758474 15578 net.cpp:368] 1_conv3 -> 1_conv3
I0207 20:19:55.758477 15578 net.cpp:120] Setting up 1_conv3
I0207 20:19:55.759629 15578 net.cpp:127] Top shape: 100 64 8 8 (409600)
I0207 20:19:55.759635 15578 layer_factory.hpp:74] Creating layer 1_relu3
I0207 20:19:55.759639 15578 net.cpp:90] Creating Layer 1_relu3
I0207 20:19:55.759640 15578 net.cpp:410] 1_relu3 <- 1_conv3
I0207 20:19:55.759642 15578 net.cpp:357] 1_relu3 -> 1_conv3 (in-place)
I0207 20:19:55.759646 15578 net.cpp:120] Setting up 1_relu3
I0207 20:19:55.759649 15578 net.cpp:127] Top shape: 100 64 8 8 (409600)
I0207 20:19:55.759650 15578 layer_factory.hpp:74] Creating layer 1_pool3
I0207 20:19:55.759654 15578 net.cpp:90] Creating Layer 1_pool3
I0207 20:19:55.759654 15578 net.cpp:410] 1_pool3 <- 1_conv3
I0207 20:19:55.759657 15578 net.cpp:368] 1_pool3 -> 1_pool3
I0207 20:19:55.759660 15578 net.cpp:120] Setting up 1_pool3
I0207 20:19:55.759665 15578 net.cpp:127] Top shape: 100 64 4 4 (102400)
I0207 20:19:55.759666 15578 layer_factory.hpp:74] Creating layer 1_ip1
I0207 20:19:55.759671 15578 net.cpp:90] Creating Layer 1_ip1
I0207 20:19:55.759673 15578 net.cpp:410] 1_ip1 <- 1_pool3
I0207 20:19:55.759677 15578 net.cpp:368] 1_ip1 -> 1_ip1
I0207 20:19:55.759680 15578 net.cpp:120] Setting up 1_ip1
I0207 20:19:55.761155 15578 net.cpp:127] Top shape: 100 64 (6400)
I0207 20:19:55.761160 15578 layer_factory.hpp:74] Creating layer 1_ip2
I0207 20:19:55.761164 15578 net.cpp:90] Creating Layer 1_ip2
I0207 20:19:55.761167 15578 net.cpp:410] 1_ip2 <- 1_ip1
I0207 20:19:55.761169 15578 net.cpp:368] 1_ip2 -> 1_ip2
I0207 20:19:55.761173 15578 net.cpp:120] Setting up 1_ip2
I0207 20:19:55.761194 15578 net.cpp:127] Top shape: 100 10 (1000)
I0207 20:19:55.761199 15578 layer_factory.hpp:74] Creating layer 1_prob
I0207 20:19:55.761203 15578 net.cpp:90] Creating Layer 1_prob
I0207 20:19:55.761204 15578 net.cpp:410] 1_prob <- 1_ip2
I0207 20:19:55.761206 15578 net.cpp:368] 1_prob -> 1_prob
I0207 20:19:55.761209 15578 net.cpp:120] Setting up 1_prob
I0207 20:19:55.761212 15578 net.cpp:127] Top shape: 100 10 (1000)
I0207 20:19:55.761214 15578 layer_factory.hpp:74] Creating layer 1_prob_1_prob_0_split
I0207 20:19:55.761217 15578 net.cpp:90] Creating Layer 1_prob_1_prob_0_split
I0207 20:19:55.761219 15578 net.cpp:410] 1_prob_1_prob_0_split <- 1_prob
I0207 20:19:55.761221 15578 net.cpp:368] 1_prob_1_prob_0_split -> 1_prob_1_prob_0_split_0
I0207 20:19:55.761224 15578 net.cpp:368] 1_prob_1_prob_0_split -> 1_prob_1_prob_0_split_1
I0207 20:19:55.761227 15578 net.cpp:120] Setting up 1_prob_1_prob_0_split
I0207 20:19:55.761230 15578 net.cpp:127] Top shape: 100 10 (1000)
I0207 20:19:55.761239 15578 net.cpp:127] Top shape: 100 10 (1000)
I0207 20:19:55.761240 15578 layer_factory.hpp:74] Creating layer 2_conv1
I0207 20:19:55.761245 15578 net.cpp:90] Creating Layer 2_conv1
I0207 20:19:55.761247 15578 net.cpp:410] 2_conv1 <- data_cifar_0_split_1
I0207 20:19:55.761250 15578 net.cpp:368] 2_conv1 -> 2_conv1
I0207 20:19:55.761255 15578 net.cpp:120] Setting up 2_conv1
I0207 20:19:55.761317 15578 net.cpp:127] Top shape: 100 32 32 32 (3276800)
I0207 20:19:55.761320 15578 layer_factory.hpp:74] Creating layer 2_pool1
I0207 20:19:55.761323 15578 net.cpp:90] Creating Layer 2_pool1
I0207 20:19:55.761325 15578 net.cpp:410] 2_pool1 <- 2_conv1
I0207 20:19:55.761327 15578 net.cpp:368] 2_pool1 -> 2_pool1
I0207 20:19:55.761330 15578 net.cpp:120] Setting up 2_pool1
I0207 20:19:55.761334 15578 net.cpp:127] Top shape: 100 32 16 16 (819200)
I0207 20:19:55.761337 15578 layer_factory.hpp:74] Creating layer 2_relu1
I0207 20:19:55.761339 15578 net.cpp:90] Creating Layer 2_relu1
I0207 20:19:55.761342 15578 net.cpp:410] 2_relu1 <- 2_pool1
I0207 20:19:55.761343 15578 net.cpp:357] 2_relu1 -> 2_pool1 (in-place)
I0207 20:19:55.761346 15578 net.cpp:120] Setting up 2_relu1
I0207 20:19:55.761348 15578 net.cpp:127] Top shape: 100 32 16 16 (819200)
I0207 20:19:55.761350 15578 layer_factory.hpp:74] Creating layer 2_conv2
I0207 20:19:55.761353 15578 net.cpp:90] Creating Layer 2_conv2
I0207 20:19:55.761354 15578 net.cpp:410] 2_conv2 <- 2_pool1
I0207 20:19:55.761358 15578 net.cpp:368] 2_conv2 -> 2_conv2
I0207 20:19:55.761360 15578 net.cpp:120] Setting up 2_conv2
I0207 20:19:55.761940 15578 net.cpp:127] Top shape: 100 32 16 16 (819200)
I0207 20:19:55.761943 15578 layer_factory.hpp:74] Creating layer 2_relu2
I0207 20:19:55.761947 15578 net.cpp:90] Creating Layer 2_relu2
I0207 20:19:55.761950 15578 net.cpp:410] 2_relu2 <- 2_conv2
I0207 20:19:55.761951 15578 net.cpp:357] 2_relu2 -> 2_conv2 (in-place)
I0207 20:19:55.761953 15578 net.cpp:120] Setting up 2_relu2
I0207 20:19:55.761957 15578 net.cpp:127] Top shape: 100 32 16 16 (819200)
I0207 20:19:55.761958 15578 layer_factory.hpp:74] Creating layer 2_pool2
I0207 20:19:55.761961 15578 net.cpp:90] Creating Layer 2_pool2
I0207 20:19:55.761962 15578 net.cpp:410] 2_pool2 <- 2_conv2
I0207 20:19:55.761966 15578 net.cpp:368] 2_pool2 -> 2_pool2
I0207 20:19:55.761968 15578 net.cpp:120] Setting up 2_pool2
I0207 20:19:55.761972 15578 net.cpp:127] Top shape: 100 32 8 8 (204800)
I0207 20:19:55.761973 15578 layer_factory.hpp:74] Creating layer 2_conv3
I0207 20:19:55.761976 15578 net.cpp:90] Creating Layer 2_conv3
I0207 20:19:55.761978 15578 net.cpp:410] 2_conv3 <- 2_pool2
I0207 20:19:55.761981 15578 net.cpp:368] 2_conv3 -> 2_conv3
I0207 20:19:55.761984 15578 net.cpp:120] Setting up 2_conv3
I0207 20:19:55.763135 15578 net.cpp:127] Top shape: 100 64 8 8 (409600)
I0207 20:19:55.763139 15578 layer_factory.hpp:74] Creating layer 2_relu3
I0207 20:19:55.763144 15578 net.cpp:90] Creating Layer 2_relu3
I0207 20:19:55.763145 15578 net.cpp:410] 2_relu3 <- 2_conv3
I0207 20:19:55.763147 15578 net.cpp:357] 2_relu3 -> 2_conv3 (in-place)
I0207 20:19:55.763150 15578 net.cpp:120] Setting up 2_relu3
I0207 20:19:55.763152 15578 net.cpp:127] Top shape: 100 64 8 8 (409600)
I0207 20:19:55.763154 15578 layer_factory.hpp:74] Creating layer 2_pool3
I0207 20:19:55.763157 15578 net.cpp:90] Creating Layer 2_pool3
I0207 20:19:55.763159 15578 net.cpp:410] 2_pool3 <- 2_conv3
I0207 20:19:55.763162 15578 net.cpp:368] 2_pool3 -> 2_pool3
I0207 20:19:55.763164 15578 net.cpp:120] Setting up 2_pool3
I0207 20:19:55.763167 15578 net.cpp:127] Top shape: 100 64 4 4 (102400)
I0207 20:19:55.763170 15578 layer_factory.hpp:74] Creating layer 2_ip1
I0207 20:19:55.763172 15578 net.cpp:90] Creating Layer 2_ip1
I0207 20:19:55.763175 15578 net.cpp:410] 2_ip1 <- 2_pool3
I0207 20:19:55.763177 15578 net.cpp:368] 2_ip1 -> 2_ip1
I0207 20:19:55.763180 15578 net.cpp:120] Setting up 2_ip1
I0207 20:19:55.764652 15578 net.cpp:127] Top shape: 100 64 (6400)
I0207 20:19:55.764658 15578 layer_factory.hpp:74] Creating layer 2_ip2
I0207 20:19:55.764662 15578 net.cpp:90] Creating Layer 2_ip2
I0207 20:19:55.764668 15578 net.cpp:410] 2_ip2 <- 2_ip1
I0207 20:19:55.764674 15578 net.cpp:368] 2_ip2 -> 2_ip2
I0207 20:19:55.764678 15578 net.cpp:120] Setting up 2_ip2
I0207 20:19:55.764698 15578 net.cpp:127] Top shape: 100 10 (1000)
I0207 20:19:55.764701 15578 layer_factory.hpp:74] Creating layer 2_prob
I0207 20:19:55.764704 15578 net.cpp:90] Creating Layer 2_prob
I0207 20:19:55.764706 15578 net.cpp:410] 2_prob <- 2_ip2
I0207 20:19:55.764709 15578 net.cpp:368] 2_prob -> 2_prob
I0207 20:19:55.764713 15578 net.cpp:120] Setting up 2_prob
I0207 20:19:55.764716 15578 net.cpp:127] Top shape: 100 10 (1000)
I0207 20:19:55.764717 15578 layer_factory.hpp:74] Creating layer 2_prob_2_prob_0_split
I0207 20:19:55.764720 15578 net.cpp:90] Creating Layer 2_prob_2_prob_0_split
I0207 20:19:55.764722 15578 net.cpp:410] 2_prob_2_prob_0_split <- 2_prob
I0207 20:19:55.764724 15578 net.cpp:368] 2_prob_2_prob_0_split -> 2_prob_2_prob_0_split_0
I0207 20:19:55.764729 15578 net.cpp:368] 2_prob_2_prob_0_split -> 2_prob_2_prob_0_split_1
I0207 20:19:55.764732 15578 net.cpp:120] Setting up 2_prob_2_prob_0_split
I0207 20:19:55.764735 15578 net.cpp:127] Top shape: 100 10 (1000)
I0207 20:19:55.764739 15578 net.cpp:127] Top shape: 100 10 (1000)
I0207 20:19:55.764740 15578 layer_factory.hpp:74] Creating layer 3_conv1
I0207 20:19:55.764744 15578 net.cpp:90] Creating Layer 3_conv1
I0207 20:19:55.764746 15578 net.cpp:410] 3_conv1 <- data_cifar_0_split_2
I0207 20:19:55.764750 15578 net.cpp:368] 3_conv1 -> 3_conv1
I0207 20:19:55.764751 15578 net.cpp:120] Setting up 3_conv1
I0207 20:19:55.764813 15578 net.cpp:127] Top shape: 100 32 32 32 (3276800)
I0207 20:19:55.764817 15578 layer_factory.hpp:74] Creating layer 3_pool1
I0207 20:19:55.764820 15578 net.cpp:90] Creating Layer 3_pool1
I0207 20:19:55.764822 15578 net.cpp:410] 3_pool1 <- 3_conv1
I0207 20:19:55.764825 15578 net.cpp:368] 3_pool1 -> 3_pool1
I0207 20:19:55.764827 15578 net.cpp:120] Setting up 3_pool1
I0207 20:19:55.764832 15578 net.cpp:127] Top shape: 100 32 16 16 (819200)
I0207 20:19:55.764833 15578 layer_factory.hpp:74] Creating layer 3_relu1
I0207 20:19:55.764837 15578 net.cpp:90] Creating Layer 3_relu1
I0207 20:19:55.764838 15578 net.cpp:410] 3_relu1 <- 3_pool1
I0207 20:19:55.764840 15578 net.cpp:357] 3_relu1 -> 3_pool1 (in-place)
I0207 20:19:55.764843 15578 net.cpp:120] Setting up 3_relu1
I0207 20:19:55.764845 15578 net.cpp:127] Top shape: 100 32 16 16 (819200)
I0207 20:19:55.764847 15578 layer_factory.hpp:74] Creating layer 3_conv2
I0207 20:19:55.764852 15578 net.cpp:90] Creating Layer 3_conv2
I0207 20:19:55.764853 15578 net.cpp:410] 3_conv2 <- 3_pool1
I0207 20:19:55.764856 15578 net.cpp:368] 3_conv2 -> 3_conv2
I0207 20:19:55.764859 15578 net.cpp:120] Setting up 3_conv2
I0207 20:19:55.765441 15578 net.cpp:127] Top shape: 100 32 16 16 (819200)
I0207 20:19:55.765446 15578 layer_factory.hpp:74] Creating layer 3_relu2
I0207 20:19:55.765450 15578 net.cpp:90] Creating Layer 3_relu2
I0207 20:19:55.765451 15578 net.cpp:410] 3_relu2 <- 3_conv2
I0207 20:19:55.765455 15578 net.cpp:357] 3_relu2 -> 3_conv2 (in-place)
I0207 20:19:55.765456 15578 net.cpp:120] Setting up 3_relu2
I0207 20:19:55.765460 15578 net.cpp:127] Top shape: 100 32 16 16 (819200)
I0207 20:19:55.765460 15578 layer_factory.hpp:74] Creating layer 3_pool2
I0207 20:19:55.765463 15578 net.cpp:90] Creating Layer 3_pool2
I0207 20:19:55.765465 15578 net.cpp:410] 3_pool2 <- 3_conv2
I0207 20:19:55.765468 15578 net.cpp:368] 3_pool2 -> 3_pool2
I0207 20:19:55.765471 15578 net.cpp:120] Setting up 3_pool2
I0207 20:19:55.765475 15578 net.cpp:127] Top shape: 100 32 8 8 (204800)
I0207 20:19:55.765476 15578 layer_factory.hpp:74] Creating layer 3_conv3
I0207 20:19:55.765480 15578 net.cpp:90] Creating Layer 3_conv3
I0207 20:19:55.765481 15578 net.cpp:410] 3_conv3 <- 3_pool2
I0207 20:19:55.765485 15578 net.cpp:368] 3_conv3 -> 3_conv3
I0207 20:19:55.765487 15578 net.cpp:120] Setting up 3_conv3
I0207 20:19:55.766638 15578 net.cpp:127] Top shape: 100 64 8 8 (409600)
I0207 20:19:55.766643 15578 layer_factory.hpp:74] Creating layer 3_relu3
I0207 20:19:55.766651 15578 net.cpp:90] Creating Layer 3_relu3
I0207 20:19:55.766654 15578 net.cpp:410] 3_relu3 <- 3_conv3
I0207 20:19:55.766657 15578 net.cpp:357] 3_relu3 -> 3_conv3 (in-place)
I0207 20:19:55.766659 15578 net.cpp:120] Setting up 3_relu3
I0207 20:19:55.766662 15578 net.cpp:127] Top shape: 100 64 8 8 (409600)
I0207 20:19:55.766664 15578 layer_factory.hpp:74] Creating layer 3_pool3
I0207 20:19:55.766666 15578 net.cpp:90] Creating Layer 3_pool3
I0207 20:19:55.766669 15578 net.cpp:410] 3_pool3 <- 3_conv3
I0207 20:19:55.766670 15578 net.cpp:368] 3_pool3 -> 3_pool3
I0207 20:19:55.766674 15578 net.cpp:120] Setting up 3_pool3
I0207 20:19:55.766676 15578 net.cpp:127] Top shape: 100 64 4 4 (102400)
I0207 20:19:55.766679 15578 layer_factory.hpp:74] Creating layer 3_ip1
I0207 20:19:55.766682 15578 net.cpp:90] Creating Layer 3_ip1
I0207 20:19:55.766683 15578 net.cpp:410] 3_ip1 <- 3_pool3
I0207 20:19:55.766686 15578 net.cpp:368] 3_ip1 -> 3_ip1
I0207 20:19:55.766690 15578 net.cpp:120] Setting up 3_ip1
I0207 20:19:55.768159 15578 net.cpp:127] Top shape: 100 64 (6400)
I0207 20:19:55.768164 15578 layer_factory.hpp:74] Creating layer 3_ip2
I0207 20:19:55.768167 15578 net.cpp:90] Creating Layer 3_ip2
I0207 20:19:55.768169 15578 net.cpp:410] 3_ip2 <- 3_ip1
I0207 20:19:55.768173 15578 net.cpp:368] 3_ip2 -> 3_ip2
I0207 20:19:55.768177 15578 net.cpp:120] Setting up 3_ip2
I0207 20:19:55.768196 15578 net.cpp:127] Top shape: 100 10 (1000)
I0207 20:19:55.768199 15578 layer_factory.hpp:74] Creating layer 3_prob
I0207 20:19:55.768201 15578 net.cpp:90] Creating Layer 3_prob
I0207 20:19:55.768203 15578 net.cpp:410] 3_prob <- 3_ip2
I0207 20:19:55.768208 15578 net.cpp:368] 3_prob -> 3_prob
I0207 20:19:55.768211 15578 net.cpp:120] Setting up 3_prob
I0207 20:19:55.768214 15578 net.cpp:127] Top shape: 100 10 (1000)
I0207 20:19:55.768216 15578 layer_factory.hpp:74] Creating layer 3_prob_3_prob_0_split
I0207 20:19:55.768218 15578 net.cpp:90] Creating Layer 3_prob_3_prob_0_split
I0207 20:19:55.768220 15578 net.cpp:410] 3_prob_3_prob_0_split <- 3_prob
I0207 20:19:55.768223 15578 net.cpp:368] 3_prob_3_prob_0_split -> 3_prob_3_prob_0_split_0
I0207 20:19:55.768226 15578 net.cpp:368] 3_prob_3_prob_0_split -> 3_prob_3_prob_0_split_1
I0207 20:19:55.768229 15578 net.cpp:120] Setting up 3_prob_3_prob_0_split
I0207 20:19:55.768232 15578 net.cpp:127] Top shape: 100 10 (1000)
I0207 20:19:55.768234 15578 net.cpp:127] Top shape: 100 10 (1000)
I0207 20:19:55.768236 15578 layer_factory.hpp:74] Creating layer 4_conv1
I0207 20:19:55.768239 15578 net.cpp:90] Creating Layer 4_conv1
I0207 20:19:55.768241 15578 net.cpp:410] 4_conv1 <- data_cifar_0_split_3
I0207 20:19:55.768245 15578 net.cpp:368] 4_conv1 -> 4_conv1
I0207 20:19:55.768249 15578 net.cpp:120] Setting up 4_conv1
I0207 20:19:55.768309 15578 net.cpp:127] Top shape: 100 32 32 32 (3276800)
I0207 20:19:55.768313 15578 layer_factory.hpp:74] Creating layer 4_pool1
I0207 20:19:55.768316 15578 net.cpp:90] Creating Layer 4_pool1
I0207 20:19:55.768318 15578 net.cpp:410] 4_pool1 <- 4_conv1
I0207 20:19:55.768321 15578 net.cpp:368] 4_pool1 -> 4_pool1
I0207 20:19:55.768323 15578 net.cpp:120] Setting up 4_pool1
I0207 20:19:55.768326 15578 net.cpp:127] Top shape: 100 32 16 16 (819200)
I0207 20:19:55.768328 15578 layer_factory.hpp:74] Creating layer 4_relu1
I0207 20:19:55.768332 15578 net.cpp:90] Creating Layer 4_relu1
I0207 20:19:55.768332 15578 net.cpp:410] 4_relu1 <- 4_pool1
I0207 20:19:55.768335 15578 net.cpp:357] 4_relu1 -> 4_pool1 (in-place)
I0207 20:19:55.768338 15578 net.cpp:120] Setting up 4_relu1
I0207 20:19:55.768340 15578 net.cpp:127] Top shape: 100 32 16 16 (819200)
I0207 20:19:55.768342 15578 layer_factory.hpp:74] Creating layer 4_conv2
I0207 20:19:55.768345 15578 net.cpp:90] Creating Layer 4_conv2
I0207 20:19:55.768347 15578 net.cpp:410] 4_conv2 <- 4_pool1
I0207 20:19:55.768349 15578 net.cpp:368] 4_conv2 -> 4_conv2
I0207 20:19:55.768352 15578 net.cpp:120] Setting up 4_conv2
I0207 20:19:55.768929 15578 net.cpp:127] Top shape: 100 32 16 16 (819200)
I0207 20:19:55.768936 15578 layer_factory.hpp:74] Creating layer 4_relu2
I0207 20:19:55.768945 15578 net.cpp:90] Creating Layer 4_relu2
I0207 20:19:55.768949 15578 net.cpp:410] 4_relu2 <- 4_conv2
I0207 20:19:55.768951 15578 net.cpp:357] 4_relu2 -> 4_conv2 (in-place)
I0207 20:19:55.768954 15578 net.cpp:120] Setting up 4_relu2
I0207 20:19:55.768956 15578 net.cpp:127] Top shape: 100 32 16 16 (819200)
I0207 20:19:55.768959 15578 layer_factory.hpp:74] Creating layer 4_pool2
I0207 20:19:55.768961 15578 net.cpp:90] Creating Layer 4_pool2
I0207 20:19:55.768962 15578 net.cpp:410] 4_pool2 <- 4_conv2
I0207 20:19:55.768965 15578 net.cpp:368] 4_pool2 -> 4_pool2
I0207 20:19:55.768968 15578 net.cpp:120] Setting up 4_pool2
I0207 20:19:55.768972 15578 net.cpp:127] Top shape: 100 32 8 8 (204800)
I0207 20:19:55.768973 15578 layer_factory.hpp:74] Creating layer 4_conv3
I0207 20:19:55.768977 15578 net.cpp:90] Creating Layer 4_conv3
I0207 20:19:55.768978 15578 net.cpp:410] 4_conv3 <- 4_pool2
I0207 20:19:55.768981 15578 net.cpp:368] 4_conv3 -> 4_conv3
I0207 20:19:55.768985 15578 net.cpp:120] Setting up 4_conv3
I0207 20:19:55.770180 15578 net.cpp:127] Top shape: 100 64 8 8 (409600)
I0207 20:19:55.770186 15578 layer_factory.hpp:74] Creating layer 4_relu3
I0207 20:19:55.770190 15578 net.cpp:90] Creating Layer 4_relu3
I0207 20:19:55.770191 15578 net.cpp:410] 4_relu3 <- 4_conv3
I0207 20:19:55.770195 15578 net.cpp:357] 4_relu3 -> 4_conv3 (in-place)
I0207 20:19:55.770197 15578 net.cpp:120] Setting up 4_relu3
I0207 20:19:55.770200 15578 net.cpp:127] Top shape: 100 64 8 8 (409600)
I0207 20:19:55.770201 15578 layer_factory.hpp:74] Creating layer 4_pool3
I0207 20:19:55.770205 15578 net.cpp:90] Creating Layer 4_pool3
I0207 20:19:55.770206 15578 net.cpp:410] 4_pool3 <- 4_conv3
I0207 20:19:55.770210 15578 net.cpp:368] 4_pool3 -> 4_pool3
I0207 20:19:55.770212 15578 net.cpp:120] Setting up 4_pool3
I0207 20:19:55.770215 15578 net.cpp:127] Top shape: 100 64 4 4 (102400)
I0207 20:19:55.770217 15578 layer_factory.hpp:74] Creating layer 4_ip1
I0207 20:19:55.770220 15578 net.cpp:90] Creating Layer 4_ip1
I0207 20:19:55.770221 15578 net.cpp:410] 4_ip1 <- 4_pool3
I0207 20:19:55.770226 15578 net.cpp:368] 4_ip1 -> 4_ip1
I0207 20:19:55.770228 15578 net.cpp:120] Setting up 4_ip1
I0207 20:19:55.771705 15578 net.cpp:127] Top shape: 100 64 (6400)
I0207 20:19:55.771710 15578 layer_factory.hpp:74] Creating layer 4_ip2
I0207 20:19:55.771715 15578 net.cpp:90] Creating Layer 4_ip2
I0207 20:19:55.771718 15578 net.cpp:410] 4_ip2 <- 4_ip1
I0207 20:19:55.771721 15578 net.cpp:368] 4_ip2 -> 4_ip2
I0207 20:19:55.771724 15578 net.cpp:120] Setting up 4_ip2
I0207 20:19:55.771744 15578 net.cpp:127] Top shape: 100 10 (1000)
I0207 20:19:55.771747 15578 layer_factory.hpp:74] Creating layer 4_prob
I0207 20:19:55.771750 15578 net.cpp:90] Creating Layer 4_prob
I0207 20:19:55.771752 15578 net.cpp:410] 4_prob <- 4_ip2
I0207 20:19:55.771755 15578 net.cpp:368] 4_prob -> 4_prob
I0207 20:19:55.771759 15578 net.cpp:120] Setting up 4_prob
I0207 20:19:55.771762 15578 net.cpp:127] Top shape: 100 10 (1000)
I0207 20:19:55.771764 15578 layer_factory.hpp:74] Creating layer 4_prob_4_prob_0_split
I0207 20:19:55.771767 15578 net.cpp:90] Creating Layer 4_prob_4_prob_0_split
I0207 20:19:55.771770 15578 net.cpp:410] 4_prob_4_prob_0_split <- 4_prob
I0207 20:19:55.771771 15578 net.cpp:368] 4_prob_4_prob_0_split -> 4_prob_4_prob_0_split_0
I0207 20:19:55.771775 15578 net.cpp:368] 4_prob_4_prob_0_split -> 4_prob_4_prob_0_split_1
I0207 20:19:55.771777 15578 net.cpp:120] Setting up 4_prob_4_prob_0_split
I0207 20:19:55.771780 15578 net.cpp:127] Top shape: 100 10 (1000)
I0207 20:19:55.771783 15578 net.cpp:127] Top shape: 100 10 (1000)
I0207 20:19:55.771785 15578 layer_factory.hpp:74] Creating layer 1_accuracy
I0207 20:19:55.771790 15578 net.cpp:90] Creating Layer 1_accuracy
I0207 20:19:55.771791 15578 net.cpp:410] 1_accuracy <- 1_prob_1_prob_0_split_0
I0207 20:19:55.771795 15578 net.cpp:410] 1_accuracy <- label_cifar_1_split_0
I0207 20:19:55.771797 15578 net.cpp:368] 1_accuracy -> 1_accuracy
I0207 20:19:55.771800 15578 net.cpp:120] Setting up 1_accuracy
…
